onpolicy/results/GraphMPE/cluster_graph/rmappo/crap_bad/wandb/run-20250316_163826-fta8yrbq/files/actor.pt (torch, 201223 bytes, 62 tensors)

gnn_base.gnn.embed_layer.entity_embed.weight f4 [3, 2]
0	0x3fc662a1	1.5498849
1	0xbe91c1cb	-0.28468165
2	0xc00b2f45	-2.17476
3	0x3f1077d0	0.5643282
4	0xbf8ad1a1	-1.0845224
5	0xbfb3052d	-1.3985955

gnn_base.gnn.embed_layer.lin1.0.weight f4 [16, 9]
0	0xbf588ab8	-0.8458667
1	0xbf126e34	-0.57199407
2	0x3e8379d7	0.25678894
3	0xbf237f27	-0.63865894
4	0x3daccca0	0.084374666
5	0xbd358089	-0.044312034
6	0xbed5f5af	-0.41789004
7	0xbe2f647c	-0.17128175
8	0xbe791ec9	-0.2432815
9	0x3ea58540	0.32328224
10	0xbdc4fb14	-0.09618202
11	0xbf3833a1	-0.7195378
12	0xbe4b41db	-0.1984934
13	0xbe7a82b2	-0.24463919
14	0x3e3c3641	0.18380071
15	0xbdb2f39f	-0.08737873
16	0x3e793d5e	0.24339816
17	0xbf09af03	-0.5378267
18	0x3e76ce72	0.2410219
19	0xbf5c80b1	-0.8613387
20	0xbe36bc6e	-0.17845318
21	0x3e4c49d7	0.19950043
22	0x3e16271e	0.1466336
23	0xbe1f2132	-0.15540007
24	0xbdd3a230	-0.10333669
25	0xbe25efb2	-0.16204718
26	0x3f4444d6	0.76667535
27	0x3d422633	0.04739971
28	0xbd0316e1	-0.03200424
29	0xbf0b0eb8	-0.54319334
30	0x3ecac2b3	0.3960167
31	0x3bdb3121	0.006689206
32	0xbf11c732	-0.5694457
33	0xbf183ce7	-0.5946793
34	0xbe4520ef	-0.19250844
35	0xbef61533	-0.4806305
36	0x3ed446c8	0.41460252
37	0x3d6e310f	0.058152255
38	0x3ed6c495	0.41946855
39	0x3e23abb4	0.15983468
40	0xbc573a06	-0.013136392
41	0x3f2c447f	0.67292017
42	0xbe416fec	-0.18890351
43	0xbedca17b	-0.4309195
44	0xbdbe7e3a	-0.093014196
45	0x3ee63829	0.44964722
46	0xbe95bc3d	-0.29245177
47	0x3e8d5e1e	0.27610868
48	0xbedbd254	-0.42933905
49	0xbf6504e5	-0.89460593
50	0xbef77d93	-0.48337993
51	0x3df4d0d9	0.11953897
52	0xbe878788	-0.2647059
53	0xbcbe8de1	-0.023261013
54	0x3d899892	0.067185536
55	0x3e2b18cd	0.1670868
56	0x3ee28881	0.4424477
57	0x3eeed93f	0.4665012
58	0xbe1c2e10	-0.15251946
59	0xbd3f170b	-0.046652835
60	0xbe2dd298	-0.16974866
61	0xbec1ea9d	-0.37874308
62	0xbe9dd7b2	-0.30828625
63	0x3ea30d5b	0.31846127
64	0x3d39b2ab	0.045336407
65	0x3e77e9ca	0.24210277
66	0x3df53c6f	0.119744174
67	0x3f1ede1f	0.6205768
68	0xbec3e44a	-0.38260108
69	0xbed33bc0	-0.41256523
70	0x3e66e0d9	0.2254671
71	0x3e08b3d6	0.13349852
72	0xbf12fec5	-0.5742
73	0x3b889459	0.004168075
74	0xbe846fc3	-0.25866517
75	0x3ef89e50	0.48558283
76	0xbee39686	-0.44450778
77	0x3e0d1a41	0.13779546
78	0x3dc2b3fc	0.095069855
79	0xbeb9e98c	-0.36310995
80	0x3d3d15c7	0.046163347
81	0x3da0da31	0.07854117
82	0x3cfdc227	0.030976368
83	0x3e9c4137	0.30518505
84	0xbe1bf1fa	-0.15229025
85	0xbe5fef1a	-0.21868554
86	0xbc406f04	-0.011745218
87	0xbe229666	-0.15877685
88	0x3f6463c8	0.89214754
89	0xbe27742c	-0.1635291
90	0xbe801033	-0.2501236
91	0xbe835f77	-0.2565877
92	0x3cd13184	0.025536306
93	0x3f1bc150	0.60841846
94	0xbd636a65	-0.055521388
95	0xbea5618a	-0.3230098
96	0x3f1e1cef	0.617629
97	0x3ecdc78a	0.401913
98	0xbddabdba	-0.10680719
99	0xbe3d24f6	-0.1847113
100	0xbdeb01dd	-0.11474965
101	0x3ec30380	0.38088608
102	0x3dbf0e4d	0.093288995
103	0x3dc52401	0.09626008
104	0xbe13407c	-0.14380068
105	0x3f099f13	0.53758353
106	0x3d9015d6	0.07035415
107	0xbe84eb47	-0.25960752
108	0xbc62d756	-0.013845285
109	0x3f07ff4f	0.53123945
110	0x3e08dd29	0.13365616
111	0xbdb59dab	-0.088679634
112	0xbe8e3d96	-0.2778136
113	0xbf2398e6	-0.6390518
114	0xbd9cd2ee	-0.07657419
115	0xbda2e276	-0.0795335
116	0x3ee222b5	0.44167104
117	0x3e99614f	0.29957053
118	0xbd890a05	-0.06691364
119	0xbebd613d	-0.3698825
120	0xbeb42c0d	-0.35189858
121	0x3e76915c	0.24078888
122	0x3db7f3fb	0.089820825
123	0x3f1a3682	0.6023942
124	0xbe645dfd	-0.22301479
125	0x3cf880ca	0.030334849
126	0xbe65cdd3	-0.22441797
127	0x3f132d13	0.5749065
128	0xbe3f3b97	-0.18675075
129	0xbec63512	-0.38712364
130	0x3eb24ef1	0.34825853
131	0xbead6aef	-0.33870646
132	0x3e73cfa4	0.23809677
133	0xbeada4f9	-0.33914927
134	0x3c64d365	0.013966416
135	0x3e90adb6	0.2825753
136	0xbea583ce	-0.32327121
137	0x3e8dd6a6	0.27702826
138	0x3b560017	0.0032653862
139	0x3ed4603d	0.41479674
140	0xbeac6f7f	-0.33678815
141	0x3e93d860	0.2887602
142	0xbeaeff01	-0.34178928
143	0xbf1f8f40	-0.6232796

gnn_base.gnn.embed_layer.lin1.0.bias f4 [16]
0	0x39f2d3d6	0.00046315667
1	0x3c39d05c	0.011341181
2	0xbb17b748	-0.0023150016
3	0xbb962604	-0.0045821685
4	0xbb7e3b31	-0.0038792605
5	0x3b9683a4	0.0045933295
6	0xbb694f2d	-0.003560017
7	0xba8839ad	-0.0010393165
8	0xbbe2496c	-0.006905725
9	0xbba95162	-0.0051671723
10	0x3be57bdb	0.00700329
11	0x3bd1a5c6	0.0063979356
12	0x3bc19bd9	0.005908471
13	0xbb87b6da	-0.0041416707
14	0xbbcf8218	-0.006332647
15	0x3bf26b28	0.007398028

gnn_base.gnn.embed_layer.lin1.2.weight f4 [16]
0	0x3f806044	1.0029378
1	0x3f808d5e	1.0043142
2	0x3f7fdfcb	0.99950856
3	0x3f805676	1.0026386
4	0x3f7fbc35	0.99896556
5	0x3f7edc62	0.9955503
6	0x3f7fc944	0.9991648
7	0x3f7f9201	0.9983216
8	0x3f7ef663	0.99594706
9	0x3f7e7c02	0.9940797
10	0x3f80577b	1.0026697
11	0x3f80791a	1.0036957
12	0x3f80f2ff	1.0074157
13	0x3f7cc9bf	0.9874534
14	0x3f810f8c	1.008287
15	0x3f7fe82d	0.9996365

gnn_base.gnn.embed_layer.lin1.2.bias f4 [16]
0	0xbb9a43d9	-0.004707795
1	0xbb7cef6a	-0.003859485
2	0xbb43756c	-0.0029824628
3	0xbbd103d1	-0.006378629
4	0xbbc536cf	-0.0060184966
5	0x3b23c5e7	0.0024989785
6	0xbb9ee740	-0.0048493445
7	0xbad225c7	-0.0016032987
8	0xbb0b0e8a	-0.0021218383
9	0xbb76a502	-0.0037634973
10	0x39df17e4	0.00042551674
11	0xbb0f3dd1	-0.0021856914
12	0x3bb30d07	0.0054641995
13	0x3aedaf83	0.0018133972
14	0xbc1d038c	-0.009583365
15	0x3bc3b29e	0.0059722206

gnn_base.gnn.embed_layer.lin_h.0.weight f4 [16, 16]
0	0x3f3ec63b	0.74521226
1	0x3ecc6b00	0.39925385
2	0x3eb08f8b	0.34484515
3	0xbe38380a	-0.17990127
4	0x3d16f017	0.03685006
5	0x3d9337dc	0.07188389
6	0x3d6e4dc9	0.05817965
7	0x3ea77ef1	0.32714036
8	0x3eb68674	0.35649455
9	0x3e3b3548	0.18282044
10	0x3d30ba0b	0.043146174
11	0xbdd4255e	-0.1035869
12	0x3c04e2f4	0.0081107505
13	0x3f56197e	0.8363265
14	0x3ec229e3	0.37922582
15	0xbccbaf9f	-0.024864016
16	0x3e8b2c5b	0.27182278
17	0xbddeb1cf	-0.10873758
18	0xbed8d7bd	-0.42352095
19	0x3f13602b	0.57568616
20	0xbea3038a	-0.31838638
21	0xbe05e4da	-0.13075581
22	0x3e9408bf	0.28912923
23	0xbe8ecc9d	-0.27890483
24	0x3d084786	0.033271335
25	0x3f017246	0.5056499
26	0xbf152016	-0.58252084
27	0x3de27d8a	0.11059101
28	0xbf25345b	-0.64533013
29	0x3d368f2f	0.044570144
30	0x3e59a82a	0.21255556
31	0xbe68cd8d	-0.22734661
32	0x3e951a9e	0.2912187
33	0xbf534708	-0.8253026
34	0x3d430939	0.047616217
35	0x3e443c80	0.19163704
36	0xbeda63b1	-0.42654184
37	0x3e6e3c64	0.23265225
38	0xbe4eb3a5	-0.20185716
39	0xbe8adccf	-0.2712159
40	0xbe45acf5	-0.19304259
41	0xbc4f39b7	-0.012648038
42	0x3e6d6712	0.2318385
43	0xbf4ca97b	-0.79946107
44	0x3e758b4a	0.23978916
45	0x3e702c58	0.23454416
46	0x3cee0f06	0.029059898
47	0x3d04054d	0.032231618
48	0x3e151c61	0.14561607
49	0x3d1843d3	0.037174057
50	0x3ce62a5e	0.028096374
51	0x3f1997d4	0.59997296
52	0x3d630041	0.055420164
53	0xbeb11c85	-0.3459207
54	0x3c642cb8	0.013926677
55	0xbe7836d2	-0.24239662
56	0x3f06739a	0.52520144
57	0x3e6f3dd6	0.23363432
58	0x3edd02af	0.4316611
59	0x3e5bd4fb	0.21467964
60	0x3e74a4c9	0.23890986
61	0x3e56e1fc	0.20984644
62	0xbf595f91	-0.8491145
63	0x3e6507ef	0.22366308
64	0xbf1b6a3f	-0.60708994
65	0x3ca39e11	0.019972833
66	0x3e8f76fc	0.28020465
67	0x3e29a84f	0.16568111
68	0xbeaca652	-0.33720642
69	0x3f29ac80	0.6627884
70	0xbe96b3c7	-0.29434034
71	0x3e84fd5c	0.25974548
72	0x3e959a0d	0.29219094
73	0x3e76ab82	0.24088863
74	0xbf176e4e	-0.59152687
75	0x3d9c62e1	0.07636047
76	0x3e832aef	0.25618693
77	0x3ea204e4	0.31644356
78	0xbe98e1d1	-0.29859784
79	0xbe816fd0	-0.2528062
80	0xbea136c9	-0.3148711
81	0xbf08e92f	-0.5348081
82	0x3d2e80ff	0.04260349
83	0xbe1f25ec	-0.1554181
84	0x3f04f998	0.5194335
85	0x3d992bb8	0.07479042
86	0xbe64f43e	-0.22358796
87	0xbedbbd2d	-0.42917767
88	0x3e40a7a9	0.18813957
89	0x3e351695	0.17684396
90	0xbe03e7d6	-0.12881407
91	0x3ec3f56e	0.38273185
92	0xbe23d0d3	-0.15997629
93	0x3ed98e4b	0.42491373
94	0x3ec20a6b	0.37898573
95	0x3f34f99f	0.7069339
96	0x3e88f23b	0.26747307
97	0x3ef3a604	0.47587597
98	0xbee6f891	-0.45111516
99	0x3e7ca0aa	0.24670663
100	0x3e724ef8	0.23662937
101	0x3f0a6e43	0.54074496
102	0xbf4d2721	-0.8013783
103	0xbe7a2e8f	-0.24431823
104	0xbeae4732	-0.34038693
105	0xbe92b6ca	-0.28655082
106	0x3ddbb82c	0.10728487
107	0x3c80ee2f	0.015738575
108	0xbeaa082e	-0.33209366
109	0x3e29a5d3	0.16567163
110	0xbe49d45e	-0.19709918
111	0x3d02d30f	0.031939562
112	0xbcb11ee7	-0.02162118
113	0x3e40f1d9	0.18842258
114	0xbdd40114	-0.10351768
115	0xbd7e96fe	-0.062155716
116	0x3e8c48ba	0.27399236
117	0x3ebc36a7	0.36760446
118	0x3eeeebf8	0.46664405
119	0xbf5abb21	-0.85441786
120	0x3f02dce2	0.5111829
121	0xbed5ded7	-0.41771576
122	0xbdb2c7a4	-0.08729485
123	0xbe2241a9	-0.1584536
124	0x3e9a92ae	0.30190033
125	0xbc459b2b	-0.012060921
126	0x3e1f6eca	0.15569606
127	0xbee92c93	-0.4554182
128	0x3dd4a5a2	0.103831545
129	0xbea5f89b	-0.32416233
130	0x3f46dc16	0.77679574
131	0x3f17189f	0.59021944
132	0x3e88c220	0.26710606
133	0x3d3d24f1	0.04617781
134	0xbe83743c	-0.25674617
135	0x3dc93a9e	0.098256335
136	0x3dd9bd8b	0.106318556
137	0xbe9a947b	-0.30191407
138	0x3e70c578	0.23512828
139	0x3ea81f41	0.32836345
140	0xbe9ee214	-0.3103186
141	0xbe8af65b	-0.2714108
142	0x3e9f975d	0.3117017
143	0xbf002978	-0.50063276
144	0x3e9a80bc	0.30176342
145	0xbeda86e4	-0.42681038
146	0x3d85edad	0.06539474
147	0xbf135a84	-0.5755999
148	0xbcb723f4	-0.022356011
149	0x3f12e97d	0.57387525
150	0x3ed20b87	0.4102442
151	0x3d7a8679	0.0611634
152	0x38aa25c7	8.113268e-05
153	0x3c665d0c	0.01406027
154	0x3e480f4d	0.19537087
155	0x3ea6d673	0.32585487
156	0xbf135ccc	-0.5756347
157	0xbb283fa4	-0.0025672698
158	0xbf2115c2	-0.62923825
159	0xbe074957	-0.1321157
160	0xbdb204eb	-0.08692344
161	0x3e566f28	0.2094084
162	0x3881f6ca	6.1971674e-05
163	0x3e803e4c	0.2504753
164	0xbf4fc78c	-0.8116386
165	0x3eb52205	0.35377517
166	0x3e7fc1f0	0.24976325
167	0x3d022c98	0.03178081
168	0x3e87ea3c	0.26545894
169	0xbef49dae	-0.4777655
170	0x3ea1b619	0.31584242
171	0x3e89fa61	0.26948836
172	0xbe184fd9	-0.1487421
173	0xbdea3a9c	-0.1143696
174	0x3ea9ce5a	0.33165246
175	0x3f265962	0.6498014
176	0x3db27f71	0.08715714
177	0xbc3314d0	-0.010930255
178	0x3e12df7b	0.14343064
179	0x3ec6237a	0.3869894
180	0x3e014a1f	0.12625931
181	0x3e174060	0.14770651
182	0x3f102793	0.56310385
183	0xbd1b9704	-0.037985817
184	0xbf671073	-0.90259475
185	0xbe442c04	-0.19157416
186	0xbe1b6f63	-0.1517921
187	0x3edd1917	0.43183205
188	0x3eee2d42	0.46518904
189	0x3ed91a87	0.4240305
190	0xbd858822	-0.06520106
191	0x3d867a53	0.065663
192	0xbe0183da	-0.12647954
193	0xbed1be1f	-0.40965363
194	0xbf1b187a	-0.60584223
195	0x3e0e7d2f	0.13914941
196	0x3e1d22da	0.15345326
197	0xbe8afb08	-0.27144647
198	0x3d869678	0.065716684
199	0x3f12454a	0.57136977
200	0x3e9a6c75	0.3016087
201	0xbf4ad53a	-0.7923161
202	0xbe23a3b3	-0.15980415
203	0xbbeefafa	-0.0072931023
204	0xbdc02e46	-0.09383826
205	0x3eeb126c	0.45912492
206	0xbd9e438b	-0.077277265
207	0xbe36ce7c	-0.17852205
208	0xbe7708c9	-0.24124445
209	0x3e5d4d28	0.21611464
210	0x3f11066d	0.5665043
211	0xbe6587bc	-0.2241506
212	0xbea91a41	-0.33027843
213	0xbf0b6910	-0.5445719
214	0xbda854ec	-0.082193226
215	0xbeecf924	-0.4628383
216	0xbe4d6d4e	-0.20061228
217	0xbeea4e2c	-0.45762765
218	0xbe8f09ba	-0.27937108
219	0xbe52963f	-0.20565127
220	0xbf01f97c	-0.5077131
221	0x3ecf5ee4	0.40502083
222	0xbea63610	-0.3246312
223	0x3c22b15b	0.00992998
224	0x3f0b287d	0.54358655
225	0xbe6969f0	-0.22794318
226	0xbdb769c3	-0.08955719
227	0xbebb27e7	-0.3655388
228	0xbee9b74e	-0.45647663
229	0xbe820c7a	-0.25400144
230	0xbefc84b6	-0.4932
231	0xbe72e84c	-0.23721427
232	0x3daa2d5f	0.08309435
233	0xbe46dd45	-0.19420345
234	0xbeb1f3b5	-0.34756246
235	0x3f31c129	0.69435364
236	0x3efc1c6e	0.4924044
237	0xbe1b7bf8	-0.15184009
238	0x3c380ba7	0.011233247
239	0xbe22f2a9	-0.1591288
240	0xbef9f999	-0.4882324
241	0x3c603a0b	0.0136857135
242	0xbe90ae68	-0.2825806
243	0xbe2abb26	-0.16672954
244	0xbea9e9ab	-0.33186087
245	0xbe0aa2da	-0.13538685
246	0xbdb1206c	-0.08648762
247	0xbe2d74c8	-0.1693908
248	0xbe25b8ed	-0.16183825
249	0x3e8ff110	0.28113604
250	0x3f450c1a	0.7697159
251	0x3eaece12	0.34141594
252	0xbd03b236	-0.032152377
253	0x3ef3d4f4	0.47623408
254	0x3e8bb63f	0.2728748
255	0xbf1c442c	-0.6104152

gnn_base.gnn.embed_layer.lin_h.0.bias f4 [16]
0	0x00000000	0.0
1	0x00000000	0.0
2	0x00000000	0.0
3	0x00000000	0.0
4	0x00000000	0.0
5	0x00000000	0.0
6	0x00000000	0.0
7	0x00000000	0.0
8	0x00000000	0.0
9	0x00000000	0.0
10	0x00000000	0.0
11	0x00000000	0.0
12	0x00000000	0.0
13	0x00000000	0.0
14	0x00000000	0.0
15	0x00000000	0.0

gnn_base.gnn.embed_layer.lin_h.2.weight f4 [16]
0	0x3f806044	1.0029378
1	0x3f808d5e	1.0043142
2	0x3f7fdfcb	0.99950856
3	0x3f805676	1.0026386
4	0x3f7fbc35	0.99896556
5	0x3f7edc62	0.9955503
6	0x3f7fc944	0.9991648
7	0x3f7f9201	0.9983216
8	0x3f7ef663	0.99594706
9	0x3f7e7c02	0.9940797
10	0x3f80577b	1.0026697
11	0x3f80791a	1.0036957
12	0x3f80f2ff	1.0074157
13	0x3f7cc9bf	0.9874534
14	0x3f810f8c	1.008287
15	0x3f7fe82d	0.9996365

gnn_base.gnn.embed_layer.lin_h.2.bias f4 [16]
0	0xbb9a43d9	-0.004707795
1	0xbb7cef6a	-0.003859485
2	0xbb43756c	-0.0029824628
3	0xbbd103d1	-0.006378629
4	0xbbc536cf	-0.0060184966
5	0x3b23c5e7	0.0024989785
6	0xbb9ee740	-0.0048493445
7	0xbad225c7	-0.0016032987
8	0xbb0b0e8a	-0.0021218383
9	0xbb76a502	-0.0037634973
10	0x39df17e4	0.00042551674
11	0xbb0f3dd1	-0.0021856914
12	0x3bb30d07	0.0054641995
13	0x3aedaf83	0.0018133972
14	0xbc1d038c	-0.009583365
15	0x3bc3b29e	0.0059722206

gnn_base.gnn.embed_layer.lin2.0.0.weight f4 [16, 16]
0	0x3f3d8136	0.74025285
1	0x3ecf4113	0.40479335
2	0x3eafe62f	0.34355304
3	0xbe3be7be	-0.18350121
4	0x3d254ee2	0.04035843
5	0x3d9c69ee	0.07637392
6	0x3d837f2e	0.06420742
7	0x3ea57fa2	0.3232394
8	0x3eb71946	0.3576147
9	0x3e37edd3	0.17961816
10	0x3d29007e	0.041260235
11	0xbdd7f2e7	-0.10544377
12	0x3c038ea8	0.008029617
13	0x3f54f174	0.8318093
14	0x3ec6c063	0.38818654
15	0xbc83f12f	-0.016106216
16	0x3e8711cf	0.26380774
17	0xbdcf84ba	-0.101327375
18	0xbedad3cc	-0.42739713
19	0x3f12abbb	0.5729329
20	0xbea3519d	-0.31898203
21	0xbdfc43b9	-0.123176046
22	0x3e973a50	0.29536676
23	0xbe930aa8	-0.28719068
24	0x3d2805f1	0.04102129
25	0x3efff139	0.49988726
26	0xbf13c9fb	-0.5773007
27	0x3de693d2	0.11258663
28	0xbf2556e5	-0.64585716
29	0x3d497044	0.04917933
30	0x3e5f3752	0.21798447
31	0xbe61f6d5	-0.22066815
32	0x3e96c124	0.2944423
33	0xbf53c519	-0.8272262
34	0x3d4d4c6b	0.050121706
35	0x3e41602c	0.18884343
36	0xbedd36eb	-0.43205962
37	0x3e6bd744	0.23031336
38	0xbe51f7e3	-0.20504718
39	0xbe89c4e4	-0.26908028
40	0xbe46a30e	-0.19398138
41	0xbc4354c7	-0.011922068
42	0x3e7000ba	0.23437777
43	0xbf4c5f03	-0.79832476
44	0x3e7d6303	0.24744801
45	0x3e6dc2ce	0.23218843
46	0x3cd6ff50	0.02624479
47	0x3cf05ec3	0.02934206
48	0x3e13f37b	0.14448349
49	0x3d040b8b	0.03223757
50	0x3d0d44df	0.03448951
51	0x3f18f8b5	0.59754497
52	0x3d4b37c0	0.049613714
53	0xbeb48f7c	-0.3526572
54	0x3c17f6ba	0.009275133
55	0xbe759b97	-0.23985134
56	0x3f05cebc	0.52268577
57	0x3e6f88e3	0.23392062
58	0x3edffc35	0.43747106
59	0x3e61831b	0.22022669
60	0x3e75af71	0.23992707
61	0x3e5d136d	0.21589442
62	0xbf57d13b	-0.84303635
63	0x3e69125a	0.22760907
64	0xbf1c2ee1	-0.6100903
65	0x3cb9c615	0.02267746
66	0x3e91bf95	0.28466478
67	0x3e28b41b	0.16474955
68	0xbeab64d5	-0.33475366
69	0x3f2a768a	0.66587126
70	0xbe9814fe	-0.29703516
71	0x3e86d4ac	0.2633413
72	0x3e957bbe	0.2919597
73	0x3e797cb6	0.2436398
74	0xbf184c3a	-0.5949131
75	0x3d96eb9a	0.07369156
76	0x3e828f03	0.25499734
77	0x3ea13d87	0.31492254
78	0xbe9b8fb3	-0.3038307
79	0xbe81acaf	-0.2532706
80	0xbea3c949	-0.31989506
81	0xbf0a1853	-0.53943366
82	0x3d46ada4	0.04850544
83	0xbe21e4cd	-0.15809937
84	0x3f05dedd	0.5229319
85	0x3da3d5d3	0.07999768
86	0xbe687118	-0.22699392
87	0xbedf58aa	-0.43622333
88	0x3e386270	0.18006301
89	0x3e325431	0.17414929
90	0xbdfe517b	-0.12417885
91	0x3ec60c2b	0.38681158
92	0xbe2fac9e	-0.17155692
93	0x3edc0ddd	0.42979327
94	0x3ebfb9e7	0.3744652
95	0x3f362803	0.71154803
96	0x3e8e97ec	0.27850282
97	0x3ef8c36a	0.4858659
98	0xbee36566	-0.44413298
99	0x3e83c865	0.25738826
100	0x3e7ebea9	0.24877419
101	0x3f07b4d4	0.53010297
102	0xbf4af86a	-0.792853
103	0xbe719ef4	-0.23595792
104	0xbeaa9529	-0.33316925
105	0xbe8d4e6c	-0.27598894
106	0x3dc8b1b2	0.09799518
107	0x3be2ee36	0.0069253696
108	0xbeac5380	-0.33657455
109	0x3e1c6fb5	0.15276988
110	0xbe56c4fd	-0.20973583
111	0x3ccc12b1	0.024911257
112	0xbc61d9aa	-0.013784805
113	0x3e45ab1a	0.19303551
114	0xbdd4cd01	-0.10390664
115	0xbd5e80d5	-0.054322083
116	0x3e8bcca5	0.2730457
117	0x3ebdce77	0.37071583
118	0x3ef13083	0.47107324
119	0xbf591446	-0.8479656
120	0x3f01bf95	0.50682956
121	0xbed19ffb	-0.40942368
122	0xbdc91aef	-0.0981959
123	0xbe2b5f9a	-0.16735688
124	0x3e9bfe53	0.3046747
125	0xbca480d4	-0.020080961
126	0x3e1aaaa1	0.15104152
127	0xbee566c0	-0.44804955
128	0x3dd151a2	0.10220648
129	0xbea3008a	-0.3183635
130	0x3f467d05	0.77534515
131	0x3f176291	0.59134775
132	0x3e87e712	0.2654348
133	0x3d400624	0.046880856
134	0xbe816119	-0.25269392
135	0x3dc4cb88	0.09609133
136	0x3dd96cc4	0.106164485
137	0xbe9b0d60	-0.30283642
138	0x3e718fef	0.23590063
139	0x3ea715ea	0.32633907
140	0xbea1cedc	-0.31603134
141	0xbe8ab8a3	-0.27093992
142	0x3ea0eada	0.31429178
143	0xbefdc787	-0.4956629
144	0x3e9a5dad	0.30149594
145	0xbedd67ae	-0.43243164
146	0x3d825374	0.06363574
147	0xbf16144a	-0.5862471
148	0xbcc14f85	-0.023597488
149	0x3f12d3da	0.5735451
150	0x3eccf51d	0.40030757
151	0x3d7bd1cd	0.06147938
152	0x3aa53f5e	0.0012607386
153	0x3c37cf96	0.011218926
154	0x3e4e42bc	0.20142645
155	0x3eaaaf5e	0.3333692
156	0xbf13ae91	-0.5768824
157	0x3ba2c0c9	0.0049668294
158	0xbf208628	-0.62704706
159	0xbe0bfeb0	-0.13671374
160	0xbdc076e9	-0.0939768
161	0x3e4c69d9	0.19962253
162	0x3a8c7f31	0.0010719058
163	0x3e7842b6	0.24244198
164	0xbf51e41b	-0.81988686
165	0x3eb21885	0.34784332
166	0x3e7749ff	0.24149321
167	0x3ccbd93f	0.024883864
168	0x3e865545	0.2623693
169	0xbef8b9d8	-0.48579288
170	0x3ea66fed	0.32507268
171	0x3e8e961c	0.278489
172	0xbe1d61ac	-0.1536929
173	0xbddbaaf2	-0.107259646
174	0x3eaec245	0.3413259
175	0x3f26ce11	0.6515818
176	0x3dc6b2e8	0.097020924
177	0xbc09df1e	-0.008415012
178	0x3e1c2e97	0.15252148
179	0x3ecbd677	0.3981206
180	0x3dff5aca	0.124684885
181	0x3e0e83fd	0.13917537
182	0x3f0f1c6e	0.55902755
183	0xbcfe19d7	-0.03101818
184	0xbf6656cc	-0.8997619
185	0xbe37312f	-0.17889856
186	0xbe270a9e	-0.16312644
187	0x3ed71e0f	0.4201512
188	0x3ef315d7	0.474776
189	0x3ed3d825	0.41375843
190	0xbd9e02ea	-0.077153996
191	0x3d6935cb	0.056936067
192	0xbe016946	-0.12637815
193	0xbed277bf	-0.41106984
194	0xbf1aa54f	-0.6040849
195	0x3e05f0b1	0.13080098
196	0x3e183aff	0.14866255
197	0xbe8aa819	-0.27081373
198	0x3d81fa5c	0.063465804
199	0x3f128869	0.57239395
200	0x3e9ac21e	0.30226225
201	0xbf4b013c	-0.7929876
202	0xbe26cc44	-0.16288859
203	0xbc5597c2	-0.01303667
204	0xbdaaf5f8	-0.08347696
205	0x3eebce3c	0.46055782
206	0xbd8c3174	-0.0684537
207	0xbe379772	-0.17928866
208	0xbe771f50	-0.24133039
209	0x3e5a6b26	0.21329936
210	0x3f119220	0.56863594
211	0xbe5fc7e9	-0.21853603
212	0xbea2bcd8	-0.317847
213	0xbf09580c	-0.53649974
214	0xbd9bb583	-0.0760298
215	0xbeea151f	-0.4571924
216	0xbe4f798b	-0.20261209
217	0xbee85c17	-0.4538276
218	0xbe937817	-0.2880256
219	0xbe56f278	-0.20990932
220	0xbf030412	-0.51178086
221	0x3ecfc502	0.40579993
222	0xbeaa955b	-0.33317074
223	0x3b712d65	0.003680074
224	0x3f0b2374	0.5435097
225	0xbe6b6241	-0.229867
226	0xbdb37572	-0.08762635
227	0xbeb9a4e1	-0.36258605
228	0xbeec20da	-0.46118814
229	0xbe82e479	-0.25564936
230	0xbefdb2a6	-0.4955036
231	0xbe721e4b	-0.23644368
232	0x3dacec98	0.08443564
233	0xbe4548e0	-0.19266081
234	0xbeb18fb0	-0.34679937
235	0x3f31c199	0.6943603
236	0x3efc68d1	0.4929872
237	0xbe172e64	-0.1476379
238	0x3c2d9f32	0.010597037
239	0xbe26f96b	-0.16306083
240	0xbefdd1e0	-0.49574184
241	0x3c8748e6	0.016514253
242	0xbe948795	-0.2900969
243	0xbe2843a5	-0.16432054
244	0xbea6745d	-0.32510653
245	0xbe1473c0	-0.1449728
246	0xbda54377	-0.080695085
247	0xbe279d42	-0.16368583
248	0xbe27f09b	-0.16400377
249	0x3e912eba	0.28355962
250	0x3f443256	0.76639307
251	0x3eae2ef7	0.34020206
252	0xbcab0b9f	-0.020879565
253	0x3ef14b72	0.47127873
254	0x3e900742	0.28130537
255	0xbf1d202c	-0.61377215

gnn_base.gnn.embed_layer.lin2.0.0.bias f4 [16]
0	0xbbc89fc9	-0.0061225635
1	0xbbff7991	-0.0077964743
2	0x3b53c2dd	0.0032312192
3	0x3b73cf04	0.0037202248
4	0x3b93f4f1	0.0045152833
5	0x3b1bbf2e	0.0023765075
6	0xbbbcaa26	-0.005757588
7	0xbbdcbd06	-0.0067364005
8	0xbb7419fa	-0.0037246929
9	0x3bb0b6c5	0.0053928816
10	0x3bf6aa53	0.0075276284
11	0x399ea7bd	0.00030261083
12	0x3a597fda	0.00082969444
13	0x3aeb0995	0.0017931933
14	0x3b5d70ae	0.0033789086
15	0xba662074	-0.00087786396

gnn_base.gnn.embed_layer.lin2.0.2.weight f4 [16]
0	0x3f7f2a2e	0.99673736
1	0x3f7f92fd	0.9983366
2	0x3f80a99e	1.0051763
3	0x3f7e183a	0.99255717
4	0x3f81041a	1.0079377
5	0x3f80b180	1.0054169
6	0x3f7f535b	0.99736565
7	0x3f8010bb	1.0005106
8	0x3f7ed1c6	0.9953884
9	0x3f7fa724	0.9986441
10	0x3f7e889a	0.9942719
11	0x3f7d4461	0.9893246
12	0x3f7eb821	0.9949971
13	0x3f7f94d6	0.9983648
14	0x3f80b8a6	1.005635
15	0x3f80fc61	1.007702

gnn_base.gnn.embed_layer.lin2.0.2.bias f4 [16]
0	0xbb129225	-0.002236494
1	0xbc064c22	-0.008196862
2	0x3ac99d7f	0.001538202
3	0x3c03e881	0.008051039
4	0x3bb015fd	0.005373715
5	0x3b5c3851	0.0033602903
6	0xbafaa404	-0.0019122367
7	0xbb5aaf2b	-0.0033368568
8	0xbb291965	-0.002580249
9	0x3b8ac240	0.004234582
10	0x3c10120c	0.008793365
11	0x3b064b0d	0.002049151
12	0xbb3ff8ae	-0.0029292512
13	0x3ac7b728	0.001523708
14	0x3ad6bfd2	0.0016384071
15	0xbbc931ed	-0.006139985

gnn_base.gnn.gnn1.lin_key.weight f4 [48, 16]
0	0x3d8145a3	0.0631211
1	0xbda10c9a	-0.07863732
2	0xbdf889d3	-0.12135663
3	0xbab465ca	-0.0013763246
4	0xbe2415ff	-0.16024016
5	0x3e520b2e	0.20512077
6	0x3e27b1be	0.16376397
7	0x3e77c08b	0.24194543
8	0xbd345a35	-0.04403134
9	0x3da43ef6	0.08019821
10	0xbb63c9c3	-0.003475771
11	0xbe4f26af	-0.202296
12	0x3ddaba0b	0.10680016
13	0xbe36c620	-0.17849016
14	0xbdb8be47	-0.090206675
15	0xbde52fc4	-0.11190751
16	0xbe81702e	-0.252809
17	0x3c3c350d	0.011487258
18	0x3d29c829	0.041450653
19	0xbc5421c0	-0.0129475
20	0x3e43a43b	0.19105618
21	0x3c175b49	0.009238073
22	0xbd271fae	-0.040801696
23	0xbe078c09	-0.13237013
24	0xbe151875	-0.14560111
25	0xbd1d9fb4	-0.038482383
26	0xbe110025	-0.14160211
27	0xbe27c3af	-0.16383241
28	0xbd1ab1a4	-0.037767068
29	0xbd506831	-0.050880615
30	0xbe1bf948	-0.15231812
31	0x3e150b8c	0.14555186
32	0x3e5d020b	0.2158281
33	0xbe317136	-0.17328343
34	0x3dd854ab	0.10563024
35	0xbdedd74b	-0.116133295
36	0xbcd98ffb	-0.026557913
37	0x3e70565a	0.2347044
38	0x3ce4406d	0.027862752
39	0xbe7ae8f5	-0.24502929
40	0x3e700f03	0.23443227
41	0xbbe8c00c	-0.007102972
42	0xbe03a902	-0.1285744
43	0xbe0ab216	-0.13544497
44	0x3e5b6344	0.21424586
45	0x3c2c5cec	0.010520201
46	0x3e09c318	0.13453329
47	0x3e2839b6	0.16428265
48	0xbdc5845d	-0.09644387
49	0x3c5e0f3b	0.013553436
50	0xbe280af2	-0.16410425
51	0x3e52e307	0.20594417
52	0xbe08e137	-0.13367163
53	0x3e2bdd66	0.16783676
54	0x3d82f782	0.063948646
55	0x3e1a5b98	0.15074003
56	0xbe326825	-0.1742254
57	0xba97c1b2	-0.0011578111
58	0x3e091d7a	0.1339015
59	0xbc193d85	-0.009353046
60	0xbba3c91d	-0.00499834
61	0x3e025a3f	0.12729739
62	0xbe454d6f	-0.1926782
63	0xbd461b33	-0.048365783
64	0x3de0b85e	0.10972665
65	0x3e020232	0.1269615
66	0x3e69e390	0.22840714
67	0xbd333807	-0.043754604
68	0x3d7accfc	0.061230645
69	0xbdffbad4	-0.124868065
70	0xbd244a8c	-0.040110156
71	0xbdfbb9a0	-0.122912645
72	0x3e43f247	0.1913539
73	0x3ac43831	0.001497036
74	0x3dd2613d	0.10272453
75	0x3e10269d	0.1407723
76	0x3d42d45a	0.047565795
77	0x3ce6aee2	0.028159562
78	0xbcc868fd	-0.024464125
79	0xbe5d7a43	-0.2162867
80	0x3d14be14	0.036314085
81	0xbd770e2f	-0.06031626
82	0xbe57402d	-0.21020575
83	0x3e670a5d	0.22562547
84	0xbd0210b8	-0.031754225
85	0xbdffd7c5	-0.12492327
86	0xbe74c089	-0.23901571
87	0xbe68173b	-0.22665112
88	0x3db852f7	0.09000199
89	0xbde259f5	-0.11052314
90	0xbdcd2490	-0.10016739
91	0xbe10dfca	-0.14147869
92	0x3e4a9a16	0.19785342
93	0xbd6ac78a	-0.0573192
94	0x3e295bc6	0.16538915
95	0x3e510168	0.20410693
96	0xbe4a52f4	-0.19758207
97	0x3e415167	0.18878709
98	0xbd5bd6bb	-0.05367158
99	0x3e79ea6b	0.2440583
100	0x3e062052	0.13098267
101	0xbe779490	-0.24177766
102	0x3d36f8e0	0.04467094
103	0x3db30f55	0.08743159
104	0xbda9c5d1	-0.082896836
105	0x3e410327	0.18848859
106	0xbe52efc6	-0.20599279
107	0xbda584ab	-0.08081945
108	0x3e72c411	0.23707606
109	0x3e7f0cb8	0.24907196
110	0x3df365c4	0.11884645
111	0xbe190b23	-0.14945655
112	0xbe5c38c5	-0.21506031
113	0xbe4fc36a	-0.20289388
114	0xbd7e4b2c	-0.06208341
115	0x3e13f3e0	0.144485
116	0x3da647f3	0.08119192
117	0xbd05e386	-0.032687686
118	0x3e642311	0.22279002
119	0x3e47d56a	0.19515005
120	0xbde9a5c1	-0.11408568
121	0xbdd91918	-0.106004894
122	0xbac7bb80	-0.0015238374
123	0x3d466b68	0.048442274
124	0xbaa0677e	-0.0012237874
125	0x3db9dcab	0.09075292
126	0x3e367faf	0.17822145
127	0xbd3ace93	-0.04560716
128	0x3de92d28	0.11385566
129	0x3d2db34b	0.042407315
130	0x3dbad70b	0.091230474
131	0x3de064c8	0.109567225
132	0xbd872dad	-0.06600509
133	0xbde28314	-0.110601574
134	0x3de4cb43	0.111715816
135	0xbe1c339b	-0.15254061
136	0x3e02f9a6	0.12790546
137	0xbe2a85bc	-0.16652578
138	0x3e30d076	0.17267022
139	0x3ddd3b38	0.10802311
140	0xbd713ac3	-0.05889393
141	0x3e0e8da0	0.13921213
142	0xbda48b73	-0.0803441
143	0x3d535796	0.0515972
144	0x3da9beda	0.08288355
145	0x3cb03f40	0.021514535
146	0x3d64f74d	0.055899907
147	0xbc2e9d98	-0.01065769
148	0xbda1404e	-0.07873593
149	0x3e10e248	0.1414882
150	0x3dc14bf3	0.09438314
151	0x3db27e28	0.08715469
152	0x3e25f30f	0.16206001
153	0xbe0225cd	-0.12709732
154	0xbd81a164	-0.06329611
155	0xbc46b7a1	-0.0121287415
156	0x3e51f970	0.20505309
157	0xbe4547b5	-0.19265635
158	0xbe129c91	-0.14317538
159	0xbd6ee222	-0.058321126
160	0xbe620ccd	-0.22075196
161	0xbe41def7	-0.1893271
162	0x3e2c7e5f	0.16845082
163	0x3c9c2092	0.0190585
164	0xbe470458	-0.19435251
165	0xbd3e02ad	-0.04638927
166	0xbbacefde	-0.005277618
167	0xbdb21c59	-0.08696813
168	0xbe4efb5c	-0.20213073
169	0x3e054fc8	0.13018715
170	0xbd0ea145	-0.034821767
171	0x3e7ec4ca	0.24879757
172	0xbe48f336	-0.19624028
173	0xbe0f5edb	-0.14001028
174	0xbca3191e	-0.019909438
175	0xbe3a1194	-0.18170768
176	0x3e39228e	0.18079588
177	0x3e461a63	0.19346003
178	0x3e6ad478	0.22932613
179	0xbe20d109	-0.1570474
180	0x3e3a3e92	0.18187931
181	0x3e31a51d	0.17348142
182	0xbdd1afb5	-0.102385916
183	0x3ce18d57	0.027533216
184	0x3dfe7216	0.12424104
185	0x3e320e7e	0.17388341
186	0xbe73bc0c	-0.23802203
187	0x3e809ef8	0.25121284
188	0xbd752209	-0.05984691
189	0x3dc92559	0.098215766
190	0xbe238d98	-0.15971982
191	0xbe44c5bc	-0.19216055
192	0xbe3692c8	-0.1782943
193	0x3e10c3f9	0.14137258
194	0xbe04da68	-0.1297394
195	0x3e16fc1b	0.14744608
196	0x3da5c699	0.0809452
197	0x3dd08abf	0.10182714
198	0xbd4e0a4b	-0.050302785
199	0xbd9744e7	-0.07386189
200	0xbdf2735f	-0.118384115
201	0xbe0ee5f0	-0.13954902
202	0x3e75d5db	0.2400736
203	0xbc0eace8	-0.008708216
204	0xbde7fde0	-0.1132772
205	0xbe6ee09e	-0.23327872
206	0x3c266c59	0.010157668
207	0xbe792806	-0.24331674
208	0xbb879fdc	-0.00413893
209	0x3e1d292b	0.15347736
210	0xbe1345ef	-0.14382146
211	0x3e0bb86a	0.13644567
212	0xbd9e1dc8	-0.07720524
213	0xbe43a0e1	-0.19104339
214	0xbe7c7497	-0.2465385
215	0x3dfecc72	0.124413386
216	0xbe427d53	-0.1899312
217	0x3df95fe5	0.121764936
218	0x3d132e2a	0.035932697
219	0x3e0ccf6c	0.13751
220	0xbe428259	-0.18995036
221	0x3e5f043e	0.21778962
222	0xbe7ee490	-0.24891877
223	0xbe41091a	-0.18851128
224	0x3e1b4aee	0.15165302
225	0x3b94b3e8	0.004538048
226	0xbe145716	-0.14486346
227	0xbd67e924	-0.056618825
228	0xbe6c2b84	-0.23063475
229	0xbe586dbe	-0.21135613
230	0xbd5f9f57	-0.054595318
231	0x3e4769ef	0.19474004
232	0x3d89080b	0.06690987
233	0x3d3aa0fc	0.045563683
234	0xbd79f69f	-0.06102621
235	0x3e6cb055	0.2311414
236	0x3bf219bb	0.007388321
237	0x3db23b04	0.087026626
238	0x3c376caa	0.011195341
239	0x3d3652d4	0.044512585
240	0x3d9eb940	0.077501774
241	0x3e3cf8af	0.1845424
242	0x3e0c3238	0.13691032
243	0x3d0598c7	0.032616403
244	0x3dd4ad86	0.103846595
245	0xbd941fb3	-0.07232609
246	0x3e323ff3	0.17407207
247	0x3d8b3b50	0.06798422
248	0x3e475ff2	0.19470194
249	0xbd0b560c	-0.034017608
250	0xbe4abe34	-0.19799119
251	0x3d5ae82c	0.053444073
252	0x3dc6de2b	0.09710344
253	0x3e5334c4	0.20625597
254	0x3db736a8	0.08945972
255	0x3dc5af44	0.0965257

gnn_base.gnn.gnn1.lin_key.bias f4 [48]
0	0x3ddaad14	0.10677543
1	0x3d98e770	0.07466018
2	0x3e0bce5c	0.13652939
3	0xbe4db8c0	-0.20090008
4	0x3d9e434c	0.077276796
5	0xbe7274b2	-0.23677328
6	0xbe285cc4	-0.16441637
7	0xbdbecc84	-0.09316352
8	0xbcc78910	-0.024357349
9	0xbe7196a2	-0.23592618
10	0x3bcbe040	0.006221801
11	0x3d237d00	0.03991413
12	0xbdcb3208	-0.09921652
13	0x3da611a0	0.081088305
14	0x3e5fb2e2	0.21845582
15	0xbd2eea08	-0.04270366
16	0xbe085712	-0.13314465
17	0xbe62c5a6	-0.2214571
18	0xbe3aee92	-0.1825507
19	0xbe0d9724	-0.13827187
20	0xbe3d4114	-0.18481857
21	0xbdc94b00	-0.09828758
22	0x3e0d06ca	0.13772121
23	0x3da03754	0.07823053
24	0x3e66bd2c	0.22533101
25	0x3e7e2b36	0.24821171
26	0xbdb85fec	-0.09002671
27	0xbdc8824c	-0.09790477
28	0x3d0c2118	0.03421125
29	0xbe4bd926	-0.19907054
30	0x3e0b3e46	0.13597974
31	0xbd384c20	-0.044994473
32	0xbe565b30	-0.20933223
33	0xbe41467a	-0.18874541
34	0xbe3066c8	-0.17226708
35	0x3d8cb96c	0.06871304
36	0x3e443df6	0.19164261
37	0x3e4ad112	0.19806316
38	0xbd8cfb54	-0.068838745
39	0xbe14b2fa	-0.14521399
40	0xbde33e54	-0.110958725
41	0xbe2ee0ea	-0.17077985
42	0xbd840134	-0.06445542
43	0xbe673454	-0.22578555
44	0x3e08d4d4	0.13362437
45	0xbe70f22c	-0.23529881
46	0xbe1f3ef8	-0.15551364
47	0x3e2bcd3a	0.16777506

gnn_base.gnn.gnn1.lin_query.weight f4 [48, 16]
0	0xbe3f4460	-0.18678427
1	0x3d54d37c	0.0519595
2	0x3e3a9985	0.18222626
3	0x3e7c1aa9	0.24619545
4	0x3e06bafb	0.13157265
5	0xbd8b2cc6	-0.06795649
6	0x3e15da44	0.14634043
7	0xbc0c49ba	-0.0085625
8	0xbda44975	-0.08021823
9	0x3ba7c5cb	0.0051200143
10	0x3d6fb4db	0.058522087
11	0x3e2abb5b	0.16673033
12	0x3dd7eff2	0.10543813
13	0x3dee5ae8	0.11638433
14	0x3d2ba74d	0.041907597
15	0xbc1349b6	-0.008989742
16	0x3dd4b26c	0.10385594
17	0x3d8361c7	0.06415134
18	0xbe77652f	-0.24159692
19	0x3d38a701	0.045081142
20	0xbde08863	-0.10963514
21	0xbe0ae8fd	-0.1356544
22	0x3dca13c2	0.0986705
23	0x3d5e356a	0.05425016
24	0x3d2ebf0a	0.042662658
25	0xbdf27a0a	-0.11839683
26	0x3de80b6f	0.11330306
27	0x3e733b47	0.23753081
28	0x3d0dad05	0.034588832
29	0x3dc76d10	0.09737599
30	0xbe65e9dd	-0.22452493
31	0x3e136828	0.14395201
32	0x3dbd12e2	0.09232117
33	0x3ddbd0c9	0.10733182
34	0x3ddf84c0	0.10913992
35	0xbd90d38b	-0.070715986
36	0xbc1e09db	-0.009645904
37	0x3e787dae	0.24266693
38	0x3e352e07	0.1769334
39	0xbe3ddf6c	-0.1854226
40	0x3e53d3e3	0.20686297
41	0x3e7c1ee2	0.24621156
42	0x3ce3d98a	0.027813692
43	0xbe4edbb1	-0.20200993
44	0x3d396adf	0.045267936
45	0xbd3b303a	-0.04570029
46	0x3e3bfceb	0.183582
47	0xbe7491ba	-0.23883715
48	0x3d892744	0.066969424
49	0xbc12ddbe	-0.008964
50	0x3c62a7b6	0.013833931
51	0x3e301d94	0.17198783
52	0x3c07d3bd	0.008290228
53	0xbe4f5e78	-0.2025088
54	0xbe10c003	-0.14135747
55	0xbdc745ff	-0.097301476
56	0x3cb6e1e2	0.022324506
57	0x3dd78963	0.10524251
58	0xbd4ad079	-0.04951522
59	0xbdc80fa7	-0.097686104
60	0x3decb9aa	0.1155885
61	0xbe810971	-0.25202516
62	0x3e3529f4	0.17691785
63	0xbcf9c043	-0.030487185
64	0x3e30a115	0.17248948
65	0x3e4abfb9	0.19799699
66	0x3d057be1	0.032588843
67	0x3d993a04	0.07481769
68	0xbe17d930	-0.14828944
69	0x3e3e082e	0.18557808
70	0x3e0f5b1a	0.13999596
71	0xbd306070	-0.04306072
72	0x3dd124ba	0.10212083
73	0xbcbcf1fa	-0.023064602
74	0x3e474c70	0.19462752
75	0x3dd2fcfd	0.1030216
76	0x3e396ea3	0.18108611
77	0xbe644248	-0.2229091
78	0x3e76dcdf	0.24107693
79	0x3dc6d810	0.097091794
80	0x3df3d2d2	0.11905445
81	0x3d582ee8	0.05277911
82	0x3e255812	0.16146877
83	0x3e6e6ea1	0.23284389
84	0xbcadddfb	-0.021224013
85	0xbe4d6807	-0.20059215
86	0x3e66de14	0.22545654
87	0xbd67324a	-0.056444444
88	0xbdec5133	-0.11538925
89	0x3e206996	0.15665278
90	0x3e09921c	0.13434643
91	0x3d0ad7ee	0.033897333
92	0xbc75b55a	-0.014996851
93	0xbd3e1fdd	-0.046417106
94	0x3e6758de	0.22592494
95	0x3e1dea47	0.15421401
96	0x3e13ba9a	0.14426652
97	0x3e2830e5	0.16424902
98	0xbe058e22	-0.130425
99	0x3d4afaf8	0.04955575
100	0xbe638732	-0.22219542
101	0x3e1cbb74	0.15305883
102	0xbe7eff08	-0.24901974
103	0xbe80050a	-0.25003844
104	0xbe7bcd4f	-0.24590038
105	0x3e1d821c	0.15381664
106	0x3cd42f7e	0.025901552
107	0x3b8c1d20	0.004275933
108	0x3d27bd83	0.040952217
109	0xbdc5c94c	-0.09657535
110	0xbda570b6	-0.080781385
111	0xbe288d97	-0.16460262
112	0xbd831e5a	-0.064022735
113	0xbe1ba43e	-0.15199372
114	0xba4c81cb	-0.0007801323
115	0x3e51541a	0.20442238
116	0xbe55c753	-0.20876817
117	0x3df4c34e	0.11951314
118	0xbe34d535	-0.17659457
119	0xbdc2790c	-0.09495744
120	0x3d298523	0.041386735
121	0x3d48edda	0.049054958
122	0x3e576831	0.2103584
123	0x3bc48a2c	0.0059979167
124	0xbdbf4519	-0.09339351
125	0xbdd80247	-0.10547309
126	0x3bd49795	0.0064877965
127	0xbe460623	-0.19338278
128	0xbe444869	-0.19168247
129	0xbdd0a1bd	-0.10187099
130	0x3c453f24	0.01203898
131	0xbe2ea2f1	-0.17054345
132	0xbe122092	-0.14270237
133	0x3e331f4b	0.17492406
134	0x3e699d5b	0.22813933
135	0xbda4440d	-0.08020792
136	0xbe58e2a1	-0.21180202
137	0xbdc9b0e9	-0.09848196
138	0x3dc6c2d1	0.09705127
139	0x3da434b9	0.080178685
140	0xbd98d4df	-0.07462477
141	0xbe65f1c4	-0.22455508
142	0xbd9b7b06	-0.07591824
143	0xbd6dc1a9	-0.058046017
144	0x3e0f450f	0.13991188
145	0xbdf73d56	-0.12072246
146	0x3e1861c5	0.14881046
147	0x3cf340a9	0.029693918
148	0xbd302149	-0.043000493
149	0xbe5d8ef4	-0.21636564
150	0x3e774560	0.24147558
151	0xbd3cbbca	-0.046077527
152	0x3e25fc09	0.16209425
153	0xbe099200	-0.13434601
154	0xbe7e96f0	-0.24862266
155	0xbe484940	-0.19559193
156	0xbe006b82	-0.12541011
157	0xbdab2976	-0.083575174
158	0xbd1620f0	-0.036652505
159	0x3e5a7937	0.21335302
160	0xbe6b8c96	-0.23002848
161	0x3df4564a	0.11930521
162	0x3e56a4e9	0.20961346
163	0x3ba4a6d5	0.0050247707
164	0xbe1f06ad	-0.1552989
165	0x3b84c06f	0.00405126
166	0x3d8350bf	0.064118855
167	0x3de6dd7d	0.11272714
168	0xbda6044f	-0.081062905
169	0xbdae9b7b	-0.08525749
170	0xbde72340	-0.1128602
171	0xbe7a7db9	-0.24462022
172	0x3dad9b13	0.08476844
173	0xbe3dbdfc	-0.18529505
174	0xbdf06733	-0.11738434
175	0x3a1b74da	0.0005930193
176	0x3e471d0f	0.19444679
177	0x3e6b2fdc	0.22967476
178	0xbe317c75	-0.17332633
179	0x3e552f73	0.20818882
180	0x3e63caec	0.22245377
181	0x3e55d30e	0.20881292
182	0x3c4c3c03	0.01246548
183	0x3e46351f	0.19356202
184	0x3e058956	0.13040671
185	0xbe414c55	-0.18876775
186	0xbe0cc412	-0.1374667
187	0x3b571597	0.0032819265
188	0xbe33e675	-0.17568381
189	0xbda8c874	-0.082413584
190	0x3e4c5589	0.19954504
191	0x3df66a36	0.12031977
192	0x3e575ada	0.21030751
193	0x3c11870d	0.008882296
194	0xbe096910	-0.13418984
195	0x3e2f41b7	0.17114912
196	0x3c334dca	0.010943839
197	0x3d4341c0	0.047670126
198	0xbdcc1b81	-0.099661835
199	0x3ddfe13e	0.109316334
200	0xbe4391ca	-0.19098583
201	0x3e4f4e66	0.2024475
202	0x3e619f7f	0.22033499
203	0x3dc7e8d8	0.09761208
204	0x3e492543	0.1964312
205	0x3e18eae2	0.1493335
206	0xbdd1c1da	-0.102420524
207	0xbe601f20	-0.21886873
208	0x3d0c8028	0.034301907
209	0x3e234032	0.15942457
210	0xbcad45d1	-0.021151455
211	0x3c8f6ec0	0.017508864
212	0x3e3ba80a	0.1832582
213	0x3dd3eb0c	0.10347566
214	0x3e40842d	0.18800421
215	0x3d178959	0.03699622
216	0x3cc8192c	0.024426065
217	0xbd6f1c13	-0.058376383
218	0xbd2fa1ce	-0.04287892
219	0xbe05deb3	-0.13073234
220	0x3e32794c	0.17429084
221	0x3e60f29d	0.2196755
222	0x3dbe23bd	0.0928416
223	0x3bf9cd17	0.0076233256
224	0xbd9f8425	-0.077888764
225	0xbe816474	-0.25271952
226	0xbd2ba587	-0.041905906
227	0xbe3c3276	-0.18378624
228	0xbe37e10b	-0.17956941
229	0xbd48b287	-0.048998382
230	0xbd52d0ce	-0.051468663
231	0x3d3f79e9	0.046747122
232	0xbe3bf541	-0.18355276
233	0x3e38ce3a	0.18047419
234	0xbe697cb5	-0.22801478
235	0xbdf90a1d	-0.12160132
236	0xbdc26a59	-0.094929405
237	0x3c48c8ca	0.012254903
238	0x3de15281	0.110020645
239	0xbd7c7b97	-0.061641302
240	0x3d1998dd	0.037499297
241	0xbd56ee46	-0.05247333
242	0xbdbe5882	-0.09294225
243	0xbd298cd4	-0.04139407
244	0x3d406d09	0.046978984
245	0xbe711d53	-0.23546343
246	0xbe3960c5	-0.18103321
247	0x3e42f953	0.19040422
248	0x3df207c7	0.1181789
249	0xbc3f3401	-0.011670114
250	0x3b88599e	0.004161074
251	0x3d1224dd	0.035679687
252	0x3d6c4ff5	0.05769344
253	0xbe2d4199	-0.16919555
254	0xbd93b599	-0.072123714
255	0xbe67d964	-0.22641522

gnn_base.gnn.gnn1.lin_query.bias f4 [48]
0	0x3da3da7c	0.08000657
1	0x3d1b8dca	0.037977017
2	0xbe6fcac7	-0.23417197
3	0x3dbb2f50	0.091398835
4	0xbd889816	-0.06669633
5	0x3e8133d3	0.2523485
6	0x3e7b2f59	0.2452978
7	0x3da51e20	0.080623865
8	0x3e4be320	0.1991086
9	0x3dc04135	0.09387437
10	0x3e6e9fd3	0.23303156
11	0xbc88c95f	-0.016697584
12	0x3d6d2d3d	0.05790447
13	0xbd257e5a	-0.0404037
14	0xbb38aace	-0.002817798
15	0xbd9192fd	-0.07108114
16	0xbdccf8cd	-0.100083925
17	0x3e15ba96	0.14621958
18	0x3dd9f295	0.10641972
19	0xbdd9fa70	-0.1064347
20	0xbe65f3fd	-0.22456355
21	0x3df8772b	0.121321045
22	0xbe6b00eb	-0.22949569
23	0xbc6942cb	-0.014237116
24	0xbe5bca95	-0.21463998
25	0x3e5283c3	0.20558076
26	0x3e541fa2	0.20715192
27	0xbe5179e0	-0.20456648
28	0xbe6d4744	-0.23171717
29	0xbe12b158	-0.14325464
30	0x3d85d42e	0.06534611
31	0xbe0428ea	-0.12906232
32	0xbd739aa9	-0.059473667
33	0xbd7b87b9	-0.061408732
34	0x3d3c77f7	0.046012845
35	0xbdf47984	-0.1193724
36	0x3df311b2	0.118686095
37	0xbe34c13b	-0.17651837
38	0xbca8879a	-0.020572472
39	0x3e54ae88	0.20769703
40	0xbe09975e	-0.13436648
41	0x3e497c9b	0.1967644
42	0x3e0b8853	0.13626222
43	0xbdadafd4	-0.08480802
44	0x3daf8ca4	0.08571747
45	0xbe2c7bc7	-0.16844092
46	0x3c9b34d1	0.018946083
47	0x3d849c38	0.06475109

gnn_base.gnn.gnn1.lin_value.weight f4 [48, 16]
0	0x3e661b56	0.22471365
1	0xbe142d2d	-0.14470358
2	0xbe0ad1bb	-0.13556568
3	0xbe07485d	-0.13211198
4	0xbe7fe020	-0.2498784
5	0x3d5602a7	0.052248623
6	0xbe4a88e0	-0.19778776
7	0xbd84aaf5	-0.0647792
8	0xbdf8b176	-0.12143223
9	0x3cbac240	0.022797704
10	0x3da092e2	0.07840516
11	0xbe2faf63	-0.17156748
12	0xbdacf5c2	-0.08445312
13	0xbc3e4a41	-0.011614383
14	0xbe1e46e5	-0.15456732
15	0x3d47a7a8	0.048743874
16	0x3db68966	0.089129254
17	0xbe38ab19	-0.18034019
18	0x3e47e3fd	0.19520564
19	0x3e32598f	0.17416976
20	0xbd9cc878	-0.07655424
21	0x3d302400	0.043003082
22	0x3d12e606	0.0358639
23	0xbd0cdd87	-0.034390952
24	0xbe31af8e	-0.17352125
25	0x3e54334c	0.20722693
26	0x3df77f71	0.120848544
27	0xbe4ed350	-0.20197797
28	0xbe471765	-0.19442518
29	0x3e7503e8	0.23927271
30	0x3d1f614d	0.038911153
31	0xbd5d05ff	-0.053960796
32	0x3e2776bd	0.16353889
33	0x3d9dfed6	0.07714622
34	0x3da9749f	0.08274197
35	0x3e50dc69	0.2039658
36	0xbc72dca5	-0.014823114
37	0x3e7500e6	0.23926124
38	0xbe3023f0	-0.17201209
39	0xbe17958f	-0.14803146
40	0x3d2f4524	0.042790547
41	0xbce6c600	-0.028170586
42	0x3e1198b5	0.1421841
43	0xbd7e8739	-0.062140677
44	0x3d3922d3	0.045199227
45	0xbd73f82e	-0.059562854
46	0x3e3b7c68	0.18309176
47	0xbc97ea99	-0.018544482
48	0x3c003fe5	0.007827734
49	0x3e3bdb80	0.18345451
50	0x3e7d2f6b	0.2472512
51	0x3e76aa92	0.24088505
52	0xbe77c210	-0.24195123
53	0xbe0b14e3	-0.13582186
54	0xbd7b1b64	-0.06130542
55	0xbd66829f	-0.056276914
56	0x3e174226	0.14771327
57	0x3de16546	0.110056445
58	0xbcd553f8	-0.026041016
59	0x3afbcb0d	0.0019210294
60	0x3d7ef4bb	0.062245112
61	0x3e55092c	0.2080428
62	0x3e09ec20	0.13468981
63	0xbe013db8	-0.126212
64	0xbe0e85d4	-0.13918239
65	0x3d98afdb	0.07455417
66	0xbd09f3e8	-0.033679873
67	0xbe214ffe	-0.15753171
68	0xbe6fa54a	-0.23402897
69	0x3d340e11	0.043958727
70	0xbda0a161	-0.078432806
71	0xbe1a1a3f	-0.15049075
72	0x3d5a38c2	0.053276785
73	0x3e6c3b16	0.23069414
74	0x3e50b028	0.20379698
75	0x3e0eb70c	0.13937014
76	0xbe41cf4e	-0.18926737
77	0x3e0e1316	0.13874468
78	0x3e0227fe	0.12710568
79	0x3dc0d82c	0.094162315
80	0xbd7771ed	-0.060411382
81	0xbbe68b77	-0.0070356685
82	0xbe095509	-0.13411345
83	0xbd754e33	-0.05988903
84	0xbd1af350	-0.037829697
85	0xbccc4a7c	-0.02493786
86	0xbe80af45	-0.2513372
87	0x3da94740	0.08265543
88	0xbe4caae1	-0.1998706
89	0xbe3dbb3a	-0.18528453
90	0x3dc14725	0.09437398
91	0xbe503aa4	-0.2033487
92	0x3e721395	0.23640282
93	0x3e7a3528	0.2443434
94	0xbdb2cda7	-0.08730631
95	0xbd310af2	-0.04322333
96	0xbe40694d	-0.18790169
97	0x3bc6d15b	0.0060674376
98	0x3d412b16	0.04716023
99	0xbe12cb9d	-0.14335485
100	0x3d98e8e5	0.07466296
101	0xbbcd309f	-0.0062618996
102	0xbd8645fc	-0.06556317
103	0x3ae062e8	0.001711932
104	0xbe80a0b8	-0.2512262
105	0xbe2c9388	-0.16853154
106	0x3d13bc62	0.036068328
107	0x3e7d0413	0.24708585
108	0xbe18b71c	-0.149136
109	0x3e241347	0.16022979
110	0x3ce5ebbc	0.028066508
111	0xbdcd89a2	-0.10036017
112	0xbadd1a7e	-0.0016868857
113	0x3df0f5f6	0.11765663
114	0x3cf1dec7	0.029525174
115	0x3e61d14e	0.220525
116	0xbd4ba180	-0.049714565
117	0xbe2bed8a	-0.16789833
118	0x3e66689a	0.2250084
119	0xbd931185	-0.07181076
120	0x3e2808da	0.16409627
121	0x3e2c4839	0.16824426
122	0x3d3ec377	0.04657313
123	0xbe55485a	-0.20828381
124	0xbe75779d	-0.2397141
125	0x3df2ceed	0.11855874
126	0x3d803f97	0.06262129
127	0x3e15ad17	0.1461681
128	0xbe6a0ad6	-0.22855696
129	0xbd0eb298	-0.03483829
130	0x3e5505ea	0.20803037
131	0x3e0b8421	0.13624622
132	0x3e59c7c6	0.21267614
133	0x3e4d4d27	0.20048963
134	0xbd8b38e8	-0.067979634
135	0xbe373755	-0.17892201
136	0xbe0e506b	-0.13897865
137	0x3dacb06f	0.084320895
138	0xbdd93d3a	-0.10607381
139	0xba32dd20	-0.00068231113
140	0x3d2e832a	0.042605557
141	0x3e1edb1b	0.1551327
142	0x3e06a5eb	0.1314923
143	0x3e16c496	0.14723429
144	0x3ca0baf3	0.019620394
145	0x3e0c25ca	0.1368629
146	0xbddb7bd7	-0.1071698
147	0xbdd5b436	-0.10434763
148	0xbd0afa94	-0.033930376
149	0xbe1b3503	-0.15156941
150	0x3e65207f	0.22375678
151	0xbd1b6a8e	-0.037943415
152	0x3d874b0f	0.06606113
153	0xbc60fec9	-0.0137326205
154	0xb8d85fe6	-0.00010317545
155	0xbe0cffbd	-0.13769431
156	0xbcd8e5e0	-0.0264768
157	0xbe60ac58	-0.21940744
158	0xbde38d2a	-0.11110909
159	0x3e46f902	0.19430926
160	0xbe719da8	-0.23595297
161	0x3d148535	0.03625985
162	0x3d04af56	0.032393776
163	0xbe786d2e	-0.24260399
164	0x3d697ec0	0.057005644
165	0x3df3650b	0.11884507
166	0x3e42dca6	0.19029483
167	0x3d346c4b	0.04404859
168	0x3e4847fb	0.19558708
169	0x3c542816	0.01294901
170	0x3db9f01a	0.09078999
171	0x3d9cfb7c	0.07665154
172	0xbe454bbf	-0.19267176
173	0xbd3d8d46	-0.046277307
174	0xbe3991f7	-0.18122087
175	0x3e484d9a	0.19560853
176	0x3df158bd	0.117845036
177	0xbde09277	-0.10965436
178	0xbd43630a	-0.047701873
179	0x3d850a8d	0.06496153
180	0xbe63c6cd	-0.22243805
181	0x3c87be18	0.016570136
182	0x3df6f6e5	0.1205881
183	0x3cf0fb6c	0.029416762
184	0xbceb7ee5	-0.028747031
185	0x3e235568	0.15950549
186	0x3ddec0a2	0.108765855
187	0xbe5ff22b	-0.21869723
188	0x3e156d73	0.14592533
189	0xbe4ac61d	-0.19802137
190	0x3e0db250	0.13837552
191	0x3e5e9183	0.21735196
192	0x3cb5862e	0.022158708
193	0xbdab3ec6	-0.083615825
194	0xbe07c07f	-0.13257025
195	0xbde461e9	-0.111514874
196	0xbd184707	-0.037177112
197	0xbddb60a0	-0.10711789
198	0x3e79b806	0.24386606
199	0xbdef2eec	-0.116788715
200	0x3dee8161	0.11645771
201	0xbe679ee7	-0.2261921
202	0x3dec14b1	0.11527384
203	0x3e5164b7	0.20448576
204	0xbe3b6a14	-0.18302184
205	0xbd6c6b04	-0.057719246
206	0x3d5e56d8	0.05428204
207	0xbe7d7eba	-0.24755374
208	0xbe19cd6f	-0.15019773
209	0x3da8812f	0.08227765
210	0x3e7b794c	0.2455799
211	0xbda1f2a0	-0.07907605
212	0xbb9f1125	-0.0048543387
213	0xbe7a2707	-0.2442895
214	0xbe761107	-0.24029933
215	0x3e5e78af	0.21725725
216	0x3e4bd125	0.19904001
217	0xbd9d6388	-0.07685
218	0xbdb26914	-0.08711448
219	0xbcb8188d	-0.022472644
220	0x3dd5b362	0.10434605
221	0xbe6d790a	-0.23190704
222	0xbe061957	-0.13095604
223	0xbd9ca43d	-0.076485135
224	0xbde86e06	-0.1134911
225	0xbb49cbb9	-0.0030791594
226	0x3e3a1bb9	0.18174638
227	0x3d5d1d1a	0.05398283
228	0xbe678a04	-0.22611243
229	0x3e6db981	0.23215295
230	0x3e51d71d	0.20492215
231	0x3daafe43	0.08349278
232	0x3df7e4cb	0.12104186
233	0x3dbcb48f	0.09214126
234	0x3e51ff36	0.20507511
235	0xbe73b071	-0.23797776
236	0xbe1da86d	-0.1539628
237	0xbd0d6a19	-0.03452501
238	0xbd4444e5	-0.047917265
239	0xbe30ab3b	-0.17252819
240	0xbe76fec3	-0.24120621
241	0xbe45b470	-0.19307113
242	0xbd18976c	-0.037253782
243	0x3e564153	0.20923357
244	0x3e25df46	0.16198453
245	0x3d95678d	0.07295141
246	0xbe19fb14	-0.15037185
247	0xbdc9cdfb	-0.09853741
248	0x3cac8d2f	0.021063415
249	0xbe67494f	-0.22586559
250	0xbc01c937	-0.0079215085
251	0x3d5eb1ce	0.054368787
252	0x3e612f34	0.21990663
253	0xbd6f071b	-0.058356386
254	0x3e7ac5c8	0.2448951
255	0x3c875bc9	0.016523259

gnn_base.gnn.gnn1.lin_value.bias f4 [48]
0	0xbe67d317	-0.22639118
1	0x3e1fcc92	0.15605381
2	0xbe7e2318	-0.24818075
3	0xbe75bd23	-0.23997931
4	0xbdfc2a84	-0.12312797
5	0xbe72ecc3	-0.2372313
6	0xbca2cc2b	-0.019872745
7	0x3e50b2d5	0.20380719
8	0xbd819e98	-0.063290775
9	0xbe445689	-0.19173636
10	0xbc93d72b	-0.018046936
11	0xbe52e8f8	-0.20596683
12	0x3e37f41f	0.17964219
13	0x3d042930	0.032265842
14	0x3e61e74b	0.22060888
15	0x3dd59212	0.10428251
16	0x3da21325	0.07913808
17	0x3db0ee7b	0.086392365
18	0x3e6b0624	0.22951561
19	0xbe1a3a35	-0.15061267
20	0xbe176747	-0.14785491
21	0x3e46cda5	0.19414385
22	0x3db09c79	0.08623595
23	0x3e6cb8a7	0.23117314
24	0x3d83c1bc	0.06433436
25	0x3db4f935	0.08836595
26	0x3e215252	0.15754059
27	0x3e244146	0.16040525
28	0x3e16befb	0.14721291
29	0xbe4cba8b	-0.19993035
30	0x3d91ede8	0.07125455
31	0xbe310162	-0.17285684
32	0x3cb45b53	0.022016203
33	0x3e0e5952	0.1390126
34	0xbdb0aa55	-0.08626238
35	0x3e64079a	0.22268525
36	0x3e691371	0.22761323
37	0x3d973ed7	0.073850326
38	0xbe3dcc01	-0.18534853
39	0x3bea0573	0.007141763
40	0x3e4d6647	0.20058547
41	0x3d2f21cc	0.04275684
42	0x3e62900c	0.22125262
43	0x3c7f9797	0.015600107
44	0xbdd8925b	-0.1057479
45	0x3e231511	0.15926005
46	0x3da7271c	0.081617564
47	0x3e0b8726	0.13625774

gnn_base.gnn.gnn1.lin_edge.weight f4 [48, 1]
0	0xbf1af8cb	-0.6053588
1	0xbf423a2e	-0.75870025
2	0x3f2ad9e0	0.667387
3	0x3eb565d9	0.35429266
4	0x3f3c4144	0.7353709
5	0xbf54b291	-0.8308497
6	0xbeee6ad4	-0.46565878
7	0xbcf45410	-0.02982524
8	0xbf040a87	-0.51578563
9	0x3f1f9eed	0.62351876
10	0x3f4c221f	0.79739565
11	0x3f5dc35b	0.86626214
12	0x3e18373c	0.1486482
13	0xbf68efd5	-0.90990955
14	0xbeb67c0a	-0.3564151
15	0x3e6d7289	0.23188223
16	0xbe8f79b0	-0.28022528
17	0x3edc9d1b	0.43088612
18	0xbe8b0242	-0.2715016
19	0x3f54816a	0.8300997
20	0x3f5e3b04	0.868088
21	0x3f7e87ad	0.99425775
22	0x3ea6925c	0.32533538
23	0xbf2cf027	-0.67553943
24	0xbe81fcab	-0.25388083
25	0xbf091ef2	-0.53562844
26	0x3ee73a5d	0.45161715
27	0xbdb45619	-0.08805484
28	0x3ed16ec0	0.40904808
29	0x3e92f9c1	0.28706172
30	0xbe9a594f	-0.30146262
31	0x3e0e2535	0.13881381
32	0xbe2563c7	-0.16151343
33	0x3e317b3c	0.17332166
34	0xbf2aed50	-0.6676836
35	0x3cb0825a	0.021546531
36	0x3f443bbc	0.7665365
37	0x3f0548d7	0.5206427
38	0xbf205918	-0.62635946
39	0x3f560cc1	0.8361321
40	0xbec1b196	-0.378308
41	0x3f64682c	0.89221454
42	0xbe4e0213	-0.20117979
43	0x3f76ffb1	0.96483904
44	0x3f18c16b	0.5967013
45	0xbdb000f6	-0.08593933
46	0x3f2d10db	0.67603844
47	0x3f59c301	0.8506318
