onpolicy/results/GraphMPE/cluster_graph/rmappo/crap_bad/wandb/run-20250316_163826-fta8yrbq/files/critic.pt (torch, 206063 bytes, 61 tensors)

gnn_base.gnn.embed_layer.entity_embed.weight f4 [3, 2]
0	0x3f8d7e7a	1.1054223
1	0x3f30af8f	0.6901788
2	0x3f10491f	0.56361574
3	0xbf5c80fa	-0.861343
4	0xbf7297fa	-0.9476315
5	0xbdf27733	-0.11839142

gnn_base.gnn.embed_layer.lin1.0.weight f4 [16, 9]
0	0xbdbd7c67	-0.092522435
1	0x3f22cfc6	0.6359829
2	0xbeb49eef	-0.35277507
3	0xbd844137	-0.06457751
4	0x3eb7df49	0.3591254
5	0x3ee5160a	0.44743377
6	0xbe93fb51	-0.28902677
7	0xbdd590e5	-0.10428027
8	0xbe1b97c4	-0.15194613
9	0x3ea44d7b	0.32090363
10	0x3e770b1a	0.24125329
11	0x3eabebfc	0.3357848
12	0xbeb4853a	-0.35257894
13	0xbf06fb28	-0.52726984
14	0x3ee96640	0.45585823
15	0x3de1258c	0.109934896
16	0xbeed01de	-0.46290487
17	0xbe6c3016	-0.23065218
18	0x3e4681f6	0.19385514
19	0xbec01b07	-0.3752062
20	0xbea72d3f	-0.32651708
21	0xbea26d93	-0.31724223
22	0x3f3b7442	0.7322427
23	0xbeb7d576	-0.35905045
24	0xbdb5d6ec	-0.08878884
25	0x3e640cb7	0.22270475
26	0xbea90745	-0.3301336
27	0xbf52058b	-0.8203971
28	0xbdc626ee	-0.09675394
29	0xbe357fe1	-0.17724563
30	0xbea28014	-0.3173834
31	0x3e206a5e	0.15665576
32	0x3f0e15bc	0.55501914
33	0xbc85f102	-0.016350273
34	0x3e1cf146	0.15326414
35	0xbea445af	-0.32084414
36	0xbf2103e5	-0.6289657
37	0x3e4f2401	0.20228578
38	0x3e0fb005	0.1403199
39	0x3ed53fc5	0.41650215
40	0xbed8c86c	-0.4234041
41	0xbd601215	-0.054704744
42	0xbe591049	-0.21197619
43	0x3f17f0c2	0.5935174
44	0xbe80eaab	-0.25179037
45	0xbeaa33d2	-0.3324266
46	0x3e977682	0.29582602
47	0x3e7433e3	0.23847918
48	0x3f30c9f4	0.69058156
49	0x3ecded6d	0.40220204
50	0xbd4c6c72	-0.04990811
51	0x3eb14631	0.34623864
52	0xbd267145	-0.040635366
53	0x3e2a4e3d	0.16631408
54	0x3dc608a4	0.09669617
55	0xbef3c7be	-0.4761333
56	0x3f182de0	0.59445
57	0xbdaea6ee	-0.08527933
58	0x3b3f4dd5	0.0029190679
59	0x3ed5e7af	0.41778323
60	0x3e9e6103	0.3093339
61	0x3e5ca10b	0.21545808
62	0xbe905b12	-0.2819448
63	0x3e2af087	0.16693316
64	0x3e992448	0.29910493
65	0x3ed93c4c	0.42428815
66	0x3ccbbd53	0.02487055
67	0x3e06f6be	0.13180062
68	0x3d5c550c	0.053792045
69	0xbea46d4b	-0.32114634
70	0x3ec8e86c	0.39239824
71	0x3dff5144	0.12466672
72	0xbdff1433	-0.124550246
73	0xbdb93afa	-0.09044452
74	0x3ea351e8	0.31898427
75	0x3e781893	0.24228124
76	0xbe31cfcb	-0.17364423
77	0xbf0b8781	-0.5450364
78	0xbf511f8b	-0.81688756
79	0xbf065522	-0.5247365
80	0xbe69904b	-0.2280895
81	0xbeecd31b	-0.4625481
82	0x3e923cc0	0.28561974
83	0x3ec05eb5	0.37572256
84	0xbf5949d2	-0.84878266
85	0xbd8e5b11	-0.06950963
86	0xbea92bd0	-0.3304124
87	0x3ab0f5ac	0.001350095
88	0xbd757f2a	-0.059935726
89	0x3e42dabc	0.19028753
90	0xbdb4cf46	-0.08828597
91	0xbed539dd	-0.4164571
92	0xbf0a9652	-0.5413562
93	0xbe3d58a6	-0.18490848
94	0xbf0af9d0	-0.54287434
95	0x3d4c8938	0.04993555
96	0xbedce83e	-0.43145937
97	0x3eb42e4e	0.35191578
98	0x3ee2b657	0.4427974
99	0xbf042218	-0.5161452
100	0xbe3957ad	-0.18099852
101	0xbe24021b	-0.16016428
102	0x3af0e88c	0.0018379851
103	0x3e25b062	0.16180566
104	0x3d96afde	0.07357763
105	0x3e193868	0.14962924
106	0xbf3ed2ed	-0.745406
107	0x3f13dee8	0.57762
108	0x3e213fdc	0.15747017
109	0xbe8c5ae5	-0.27413097
110	0x3ebf661b	0.37382588
111	0x3df01871	0.11723412
112	0x3eb1d332	0.34731442
113	0x3f23c234	0.63968205
114	0xbf1dbadc	-0.6161325
115	0x3d899c59	0.06719274
116	0x3f2207be	0.63293064
117	0x3ea9fa1c	0.3319863
118	0x3f1944bf	0.59870523
119	0xbeed3273	-0.46327552
120	0x3d812ba5	0.06307153
121	0xbdb36972	-0.087603465
122	0x3e52a64d	0.20571251
123	0xbe48d45c	-0.19612259
124	0xbd38796e	-0.04503768
125	0xbd8d8e8a	-0.06911953
126	0xbc8ba0b5	-0.017044405
127	0xbeb5ee5d	-0.3553342
128	0xbe9cc867	-0.30621645
129	0x3edd59b9	0.43232515
130	0xbebe16e4	-0.3712684
131	0x3e715cff	0.23570631
132	0x3e7e86d0	0.24856114
133	0xbe5d8b01	-0.21635057
134	0xbe18b5fa	-0.14913169
135	0xbde50505	-0.11182598
136	0xbe94948b	-0.2901958
137	0x3c940a86	0.018071424
138	0x3d980545	0.0742288
139	0x3e3c59ea	0.18393674
140	0x3e5bcb62	0.21464303
141	0xbedb905d	-0.42883578
142	0xbebda503	-0.37039956
143	0xbf313672	-0.692237

gnn_base.gnn.embed_layer.lin1.0.bias f4 [16]
0	0x3af6c37e	0.0018826572
1	0x3b130808	0.0022435207
2	0xbbb969c2	-0.0056583593
3	0x3bcaad1c	0.006185187
4	0xbb76ed93	-0.0037678226
5	0xbba6d7a4	-0.0050916243
6	0x3a0ccd1d	0.00053711404
7	0xba57acb4	-0.0008227334
8	0xba2a6316	-0.00064997503
9	0x3a901cfa	0.0010994964
10	0x3acfbe58	0.0015849574
11	0x37d8b9f3	2.5835796e-05
12	0xbb42a3b1	-0.0029699618
13	0xbaf49f91	-0.0018663277
14	0x3b0ab170	0.002116289
15	0xbaa7f5be	-0.0012814326

gnn_base.gnn.embed_layer.lin1.2.weight f4 [16]
0	0x3f7f8a1a	0.998201
1	0x3f7f7d5b	0.9980065
2	0x3f7f0754	0.99620557
3	0x3f8024b9	1.0011207
4	0x3f8007a2	1.0002329
5	0x3f7f7825	0.997927
6	0x3f8020d0	1.0010014
7	0x3f80a266	1.004956
8	0x3f8000f8	1.0000296
9	0x3f7ed334	0.9954102
10	0x3f8047d2	1.0021918
11	0x3f7fa29c	0.998575
12	0x3f808c31	1.0042783
13	0x3f7f0df4	0.99630666
14	0x3f806628	1.0031176
15	0x3f80202f	1.0009822

gnn_base.gnn.embed_layer.lin1.2.bias f4 [16]
0	0x3abf1784	0.0014579152
1	0x38debca2	0.000106209205
2	0xba54d56c	-0.00081189605
3	0x3a4c682f	0.0007797507
4	0xba9f27b8	-0.0012142574
5	0xbba992b8	-0.005174961
6	0x3a2a4415	0.00064951304
7	0xbb8dc932	-0.004326963
8	0xb9cdc5f0	-0.00039248122
9	0x3b6691c8	0.0035182107
10	0xbb5ef335	-0.0034019474
11	0xba3f20da	-0.0007290967
12	0xbbdc6db7	-0.006726946
13	0x3a3afe8f	0.0007133269
14	0xb994daf3	-0.0002839189
15	0xba9a6e8e	-0.0011782215

gnn_base.gnn.embed_layer.lin_h.0.weight f4 [16, 16]
0	0x3cf67d26	0.030088972
1	0x3edc75db	0.43058667
2	0xbc9f2cca	-0.019430537
3	0xbebc1fff	-0.3674316
4	0x3e5f9497	0.21834026
5	0xbe7bc1d4	-0.24585658
6	0x3e1a38be	0.15060708
7	0x3e8eb8d3	0.27875385
8	0xbf13d785	-0.5775073
9	0x3ef17715	0.47161165
10	0xbf0126c9	-0.50449806
11	0x3e2ac5a6	0.1667696
12	0xbe5cbb0c	-0.21555728
13	0xbe8c28a8	-0.27374768
14	0xbf0fcdc4	-0.5617335
15	0x3ee1db53	0.44112644
16	0xbe1d61bb	-0.15369312
17	0x3e4cfa65	0.20017393
18	0xbee78d50	-0.45225
19	0xbe0421b6	-0.12903485
20	0xbe8e62b1	-0.2780967
21	0xbe002a43	-0.12516122
22	0x3d4b54c5	0.04964139
23	0x3f1d4f68	0.6144929
24	0x3cf5f17c	0.030022375
25	0xbeb0fcab	-0.3456777
26	0xbedc591b	-0.43036732
27	0xbe9fbe52	-0.3119989
28	0xbea07cbd	-0.31345168
29	0xbee569de	-0.44807333
30	0x3e9585b6	0.29203576
31	0xbf2ca4ba	-0.6743885
32	0x3ebf2138	0.3733003
33	0x3e79971e	0.24374053
34	0x3ebfbfaf	0.3745093
35	0x3ef4f4c5	0.47842994
36	0xbe7afcb0	-0.24510455
37	0x3f15e944	0.5855906
38	0x3e38ae8c	0.18035334
39	0xbca7d665	-0.020487973
40	0x3e886f69	0.266475
41	0xbe80d262	-0.2516051
42	0xbf4f5ab4	-0.80997777
43	0xbe5a78ff	-0.21335219
44	0xbd98330c	-0.074316114
45	0x3e8aa39e	0.27077955
46	0xbe811eae	-0.2521872
47	0x3e08a424	0.13343865
48	0x3ea2cc08	0.31796288
49	0x3e4540d3	0.1926301
50	0xbecbb024	-0.39782822
51	0x3e6e4cf6	0.23271546
52	0x3e492e25	0.19646509
53	0x3e9ac141	0.30225566
54	0xbf5bf08c	-0.8591392
55	0x3ed6e5c2	0.41972166
56	0xbe57d6d3	-0.21078043
57	0xbedc13b7	-0.4298379
58	0x3e6f991c	0.2339825
59	0xbde1f4dd	-0.11033032
60	0x3e8724a3	0.2639514
61	0xbe2e78e4	-0.17038304
62	0xbddadcd5	-0.106866516
63	0x3ee456fd	0.44597617
64	0xbe4f66fc	-0.20254129
65	0x3daa413e	0.08313225
66	0xbe8a9812	-0.27069145
67	0xbd98dd95	-0.074641384
68	0xbe0931d4	-0.13397914
69	0xbebb269e	-0.365529
70	0xbec68411	-0.38772634
71	0xbf56687c	-0.8375318
72	0xbb8b8c45	-0.004258665
73	0xbf1d65ef	-0.61483663
74	0xbeb47dce	-0.3525223
75	0x3ecbe739	0.39824846
76	0xbda0563f	-0.0782895
77	0xbd9d8e96	-0.07693212
78	0xbed76cb6	-0.42075127
79	0xbe105a69	-0.14096989
80	0x3f0cdd63	0.5502531
81	0xbe7cc00c	-0.24682635
82	0x3edb198b	0.42792925
83	0xbee6e7ae	-0.45098633
84	0x3efb1455	0.4903895
85	0x3eb09a64	0.3449279
86	0xbe0a0bcc	-0.13481063
87	0x3c683606	0.014173036
88	0x3d474408	0.048648864
89	0xbe280b39	-0.16410531
90	0x3e6eb5e4	0.23311573
91	0x3d554565	0.052068133
92	0xbeca33e5	-0.39492717
93	0xbe760be4	-0.24027973
94	0xbee96a5e	-0.45588964
95	0xbf1a7708	-0.6033788
96	0x3e5c3194	0.21503288
97	0x3f42a755	0.7603658
98	0x3e82461e	0.2544412
99	0xbe89b639	-0.26896837
100	0xbc29896b	-0.010347704
101	0x3e0f779d	0.14010473
102	0x3ec75921	0.38935187
103	0xbea9b86a	-0.3314851
104	0x3dcd0e59	0.10012502
105	0xbebeb0bf	-0.37244222
106	0x3e9a06d1	0.30083326
107	0x3df4bec9	0.11950452
108	0x3b4a9ae6	0.003091508
109	0xbf145f48	-0.5795789
110	0x3f043dff	0.516571
111	0x3ea2bb72	0.31783634
112	0xbdff3e14	-0.12463012
113	0xbf4352ee	-0.76298416
114	0x3cf714c3	0.030161267
115	0xbe895826	-0.26825064
116	0x3c0013fe	0.0078172665
117	0x3ef9fc80	0.48825455
118	0x3c7f6f5c	0.015590515
119	0xbe75e2c1	-0.24012281
120	0xbf26b632	-0.6512176
121	0xbe34359b	-0.17598574
122	0xbed3c213	-0.41359004
123	0xbd3922f0	-0.045199335
124	0xbd36d62e	-0.04463785
125	0xbe870471	-0.26370576
126	0x3f0104d9	0.5039802
127	0x3e9048df	0.28180596
128	0xbf7c6268	-0.98587656
129	0x3e516e89	0.20452322
130	0xbcc7a497	-0.024370475
131	0xbe284d35	-0.16435702
132	0x3e3861be	0.18006036
133	0x3f4aad34	0.79170537
134	0x3c4757ad	0.0121669
135	0x3e22b2a9	0.15888466
136	0x3e8918d1	0.26776746
137	0x3bdefa14	0.006804714
138	0x3d815f8b	0.063170515
139	0x3e9eff50	0.31054163
140	0x3e05d566	0.13069686
141	0xbd85fe34	-0.06542626
142	0xbe8e6a9d	-0.27815714
143	0xbd63ce36	-0.05561658
144	0xbe00cb6d	-0.12577601
145	0x3e81138d	0.2521023
146	0x3f3a4f6a	0.72777426
147	0xbeeca0e3	-0.46216497
148	0xbf20898b	-0.62709874
149	0xbd406a42	-0.046976335
150	0xbf35d6ec	-0.7103107
151	0x3d16d4ea	0.036824144
152	0xbe2248be	-0.15848061
153	0x3e6af314	0.2294429
154	0xbda9bc30	-0.08287847
155	0xbe171090	-0.14752412
156	0x3ea633a6	0.3246128
157	0x3da946c0	0.082654476
158	0x3e086cff	0.13322829
159	0xbe4bf35b	-0.19917051
160	0x3c32f6ee	0.01092313
161	0x3efce1e7	0.493911
162	0xbe53defc	-0.2069053
163	0x3cb57fe6	0.022155713
164	0x3b9a0abb	0.004700986
165	0x3e9a36d4	0.30119956
166	0x3be644f0	0.007027261
167	0xbe096cb0	-0.13420367
168	0xbf348b66	-0.70525205
169	0xbd40c8d6	-0.047066532
170	0x3e725c7f	0.23668097
171	0x3dcf8919	0.10133571
172	0xbefd5f16	-0.49486607
173	0x3f4d33a1	0.80156904
174	0x3e75ec95	0.2401603
175	0xbe9c0658	-0.3047359
176	0x3db6483b	0.089004956
177	0xbde41e05	-0.11138538
178	0xbe8dd244	-0.27699482
179	0xbf142baa	-0.57879126
180	0xbe5e5795	-0.21713097
181	0x3d97e069	0.0741585
182	0xbe9a6ef4	-0.30162776
183	0x3d166d09	0.036725078
184	0x3f29ea58	0.66373205
185	0x3e0e93b8	0.13923538
186	0xbd2ff2fc	-0.042956337
187	0x3ca507f1	0.020145388
188	0xbf3f0c00	-0.74627686
189	0x3e9341c4	0.28761113
190	0x3e3487bf	0.17629908
191	0x3f09e020	0.5385761
192	0xbef85469	-0.485019
193	0x3e1939ed	0.14963503
194	0x3edb26a3	0.42802915
195	0x3e255124	0.16144234
196	0x3f4ad44b	0.79230183
197	0xbeaea3d9	-0.3410938
198	0xbe8486d5	-0.2588412
199	0xbdf8c301	-0.12146569
200	0x3d851436	0.064979956
201	0xbe2e2074	-0.17004567
202	0xbe1eccd5	-0.15507825
203	0xbf2f5448	-0.6848798
204	0xbea94fc4	-0.3306867
205	0x3db704f7	0.08936494
206	0x3e599425	0.21247919
207	0x3e0b598e	0.13608381
208	0xbe18c053	-0.14917116
209	0xbe5d2a9a	-0.21598282
210	0x3f033d05	0.51264983
211	0xbcbe078b	-0.023196956
212	0xbda3b0c4	-0.079927
213	0xbebb8d8b	-0.36631426
214	0x3e40a19b	0.18811648
215	0x3f280ea8	0.65647364
216	0xbdbd2de3	-0.09237268
217	0xbf3aee4f	-0.7301988
218	0x3d92dbeb	0.07170852
219	0x3f151cc9	0.5824705
220	0xbdf44735	-0.11927644
221	0x3ea0cb3b	0.31405053
222	0x3bfcbf74	0.0077132527
223	0x3e7e85a4	0.24855667
224	0xbe408d1a	-0.18803826
225	0xbda6771e	-0.081281886
226	0x3e8e7138	0.27820754
227	0x3f402f61	0.75072294
228	0xbecab276	-0.3958928
229	0x3d4af9b2	0.049554534
230	0xbe7bcc53	-0.24589662
231	0xbd2254ae	-0.039631538
232	0xbe0ac462	-0.13551477
233	0x3e8c64cd	0.27420655
234	0x3e90e962	0.28303057
235	0x3e61a1fa	0.22034445
236	0xbf3f40c1	-0.7470818
237	0xbf0e7b78	-0.5565715
238	0xbd5d54ae	-0.054035835
239	0x3d587cb5	0.052853305
240	0xbe4ec8f4	-0.20193845
241	0xbde4df0a	-0.11175354
242	0xbd14ad81	-0.03629828
243	0xbe5b0246	-0.21387586
244	0xbf0105c9	-0.5039945
245	0x3ce6e7d1	0.02818671
246	0x3eb53b0e	0.35396618
247	0xbd9a257e	-0.07526682
248	0xbe5fdf12	-0.21862438
249	0xbeb42590	-0.35184908
250	0x3ef6381c	0.48089683
251	0xbf4efd4e	-0.8085526
252	0xbdccd370	-0.10001266
253	0x3c27aadf	0.01023361
254	0xbf1f23d9	-0.62164074
255	0x3e7c64bb	0.246478

gnn_base.gnn.embed_layer.lin_h.0.bias f4 [16]
0	0x00000000	0.0
1	0x00000000	0.0
2	0x00000000	0.0
3	0x00000000	0.0
4	0x00000000	0.0
5	0x00000000	0.0
6	0x00000000	0.0
7	0x00000000	0.0
8	0x00000000	0.0
9	0x00000000	0.0
10	0x00000000	0.0
11	0x00000000	0.0
12	0x00000000	0.0
13	0x00000000	0.0
14	0x00000000	0.0
15	0x00000000	0.0

gnn_base.gnn.embed_layer.lin_h.2.weight f4 [16]
0	0x3f7f8a1a	0.998201
1	0x3f7f7d5b	0.9980065
2	0x3f7f0754	0.99620557
3	0x3f8024b9	1.0011207
4	0x3f8007a2	1.0002329
5	0x3f7f7825	0.997927
6	0x3f8020d0	1.0010014
7	0x3f80a266	1.004956
8	0x3f8000f8	1.0000296
9	0x3f7ed334	0.9954102
10	0x3f8047d2	1.0021918
11	0x3f7fa29c	0.998575
12	0x3f808c31	1.0042783
13	0x3f7f0df4	0.99630666
14	0x3f806628	1.0031176
15	0x3f80202f	1.0009822

gnn_base.gnn.embed_layer.lin_h.2.bias f4 [16]
0	0x3abf1784	0.0014579152
1	0x38debca2	0.000106209205
2	0xba54d56c	-0.00081189605
3	0x3a4c682f	0.0007797507
4	0xba9f27b8	-0.0012142574
5	0xbba992b8	-0.005174961
6	0x3a2a4415	0.00064951304
7	0xbb8dc932	-0.004326963
8	0xb9cdc5f0	-0.00039248122
9	0x3b6691c8	0.0035182107
10	0xbb5ef335	-0.0034019474
11	0xba3f20da	-0.0007290967
12	0xbbdc6db7	-0.006726946
13	0x3a3afe8f	0.0007133269
14	0xb994daf3	-0.0002839189
15	0xba9a6e8e	-0.0011782215

gnn_base.gnn.embed_layer.lin2.0.0.weight f4 [16, 16]
0	0x3cdf4e08	0.027258888
1	0x3eda7e59	0.4267452
2	0xbc822a02	-0.015889172
3	0xbebd6862	-0.369937
4	0x3e5ad852	0.21371582
5	0xbe7a4f80	-0.2444439
6	0x3e16e321	0.1473508
7	0x3e8cff9c	0.27538764
8	0xbf145b1b	-0.57951516
9	0x3ef3f099	0.476445
10	0xbf0141bc	-0.5049093
11	0x3e2d4d62	0.1692405
12	0xbe5a88f2	-0.21341303
13	0xbe8d7a76	-0.27632493
14	0xbf106483	-0.5640337
15	0x3ee08d38	0.4385774
16	0xbe221816	-0.158295
17	0x3e4f59c2	0.20249084
18	0xbee82a6f	-0.45344874
19	0xbe07bb31	-0.13255002
20	0xbe8ffc93	-0.28122386
21	0xbdf9db92	-0.12200083
22	0x3d5978e9	0.053093825
23	0x3f1d2fb8	0.6140094
24	0x3cdf718a	0.02727582
25	0xbeb131aa	-0.34608203
26	0xbedde6ae	-0.43340057
27	0xbe9e551b	-0.30924305
28	0xbea019a8	-0.31269574
29	0xbee78b38	-0.45223403
30	0x3e960682	0.2930184
31	0xbf2d527e	-0.67704
32	0x3ebd2c0a	0.36947662
33	0x3e792a1d	0.24332471
34	0x3ebdd5d2	0.37077194
35	0x3ef3b5b4	0.47599566
36	0xbe7d736c	-0.24751061
37	0x3f168645	0.5879863
38	0x3e415d0e	0.18883154
39	0xbc92fd6f	-0.017943112
40	0x3e86a2b1	0.26296
41	0xbe813978	-0.25239158
42	0xbf50520b	-0.8137519
43	0xbe5929a2	-0.21207288
44	0xbd87c300	-0.0662899
45	0x3e8878c4	0.26654637
46	0xbe8302bf	-0.25588033
47	0x3e052038	0.13000572
48	0x3ea538da	0.32269937
49	0x3e4243a1	0.18971111
50	0xbec954d1	-0.39322522
51	0x3e718465	0.23585661
52	0x3e4b6d84	0.19865996
53	0x3e99880c	0.29986608
54	0xbf5b2dc9	-0.8561674
55	0x3eda37da	0.42620736
56	0xbe54393d	-0.2072496
57	0xbed9be79	-0.42528132
58	0x3e72ce01	0.23711397
59	0xbde9a9a2	-0.11409308
60	0x3e85011e	0.25977415
61	0xbe2aacd4	-0.16667491
62	0xbde62c4d	-0.112389185
63	0x3ee60f59	0.44933584
64	0xbe530baa	-0.20609918
65	0x3da834eb	0.08213218
66	0xbe8b7b32	-0.27242428
67	0xbd9f3a3b	-0.077747785
68	0xbe0c9e98	-0.13732374
69	0xbeb9113d	-0.36145964
70	0xbec6ed44	-0.38852894
71	0xbf573bc3	-0.84075564
72	0xbc007cd0	-0.007842258
73	0xbf1d29dd	-0.61392003
74	0xbeb63615	-0.35588136
75	0x3ecda793	0.4016691
76	0xbd98cb0f	-0.07460605
77	0xbda4f9eb	-0.080554806
78	0xbed7eb91	-0.4217191
79	0xbe13d187	-0.14435397
80	0x3f0d0c5b	0.5509698
81	0xbe7bff36	-0.24609074
82	0x3edb5cee	0.42844337
83	0xbee6442e	-0.44973892
84	0x3efb62a3	0.4909869
85	0x3eaffc0c	0.34371984
86	0xbe0c27f4	-0.13687116
87	0x3c5ef79c	0.013608839
88	0x3d49d56b	0.049275797
89	0xbe283da4	-0.16429764
90	0x3e6fcad4	0.23417217
91	0x3d541ae6	0.051783465
92	0xbecb4750	-0.39702845
93	0xbe754295	-0.2395118
94	0xbee8d38c	-0.45473897
95	0xbf1a4c52	-0.60272706
96	0x3e5d1cc0	0.21592999
97	0x3f4404b5	0.7656968
98	0x3e79787b	0.24362366
99	0xbe899364	-0.26870263
100	0xbc1ef46b	-0.0097018285
101	0x3e0b929a	0.13630143
102	0x3ec6a2d6	0.3879611
103	0xbea8bb81	-0.32955554
104	0x3dcd0c0f	0.100120656
105	0xbebf8d50	-0.374125
106	0x3e9bd0f1	0.30432847
107	0x3df28e2d	0.11843524
108	0x3baba229	0.005237837
109	0xbf141b77	-0.5785441
110	0x3f04fe74	0.51950765
111	0x3ea2ef89	0.31823376
112	0xbdfea835	-0.12434427
113	0xbf42e068	-0.76123667
114	0x3cd1989f	0.02558547
115	0xbe898a8e	-0.2686352
116	0x3c11eed0	0.008907035
117	0x3ef9c7a7	0.48785135
118	0x3c808b1a	0.015691329
119	0xbe75bf86	-0.23998842
120	0xbf26a90d	-0.651017
121	0xbe36ff1b	-0.17870753
122	0xbed35ca9	-0.41281632
123	0xbd3b35bb	-0.04570554
124	0xbd30e41b	-0.04318629
125	0xbe868629	-0.2627423
126	0x3f01fe89	0.50779015
127	0x3e9068bc	0.28204906
128	0xbf7bbeb3	-0.9833786
129	0x3e4f5548	0.20247376
130	0xbca75cad	-0.020429933
131	0xbe258f62	-0.16167977
132	0x3e3af80f	0.1825869
133	0x3f4a71b2	0.79079735
134	0x3c2fb4f4	0.010724295
135	0x3e248988	0.16068089
136	0x3e8b9655	0.27263132
137	0x3bc2ef65	0.005948948
138	0x3d85a0da	0.065248206
139	0x3e9ba64e	0.30400318
140	0x3e032f18	0.12810934
141	0xbd82028b	-0.06348141
142	0xbe8f3630	-0.2797103
143	0xbd5339f6	-0.051568948
144	0xbdffa646	-0.12482886
145	0x3e82d1ca	0.2555068
146	0x3f38e7a8	0.7222848
147	0xbeedb608	-0.4642794
148	0xbf20c876	-0.6280588
149	0xbd409726	-0.047019146
150	0xbf373821	-0.7157002
151	0x3d0f3e86	0.034971736
152	0xbe235772	-0.15951326
153	0x3e67eaaa	0.22648111
154	0xbdaa00e7	-0.08300953
155	0xbe153115	-0.14569505
156	0x3ea74781	0.3267174
157	0x3da9e8cf	0.08296358
158	0x3e0a44fe	0.13502881
159	0xbe4c6aa2	-0.19962552
160	0x3c251fae	0.010078354
161	0x3efbee61	0.49205306
162	0xbe5223b7	-0.20521437
163	0x3cb4c184	0.022064932
164	0x3b85af6d	0.0040797503
165	0x3e9ac607	0.30229208
166	0x3c0ddad3	0.008658129
167	0xbe089830	-0.13339305
168	0xbf348764	-0.7051909
169	0xbd2322ed	-0.03982823
170	0x3e6dfc49	0.2324077
171	0x3dcfdf7d	0.10150049
172	0xbefe657a	-0.49686795
173	0x3f4c325d	0.7976435
174	0x3e729d9d	0.23692937
175	0xbe9c0ced	-0.30478612
176	0x3db451e5	0.08804683
177	0xbde0ded9	-0.10980005
178	0xbe8ea990	-0.2786374
179	0xbf149db1	-0.5805312
180	0xbe5fc58d	-0.21852703
181	0x3d996cec	0.07491478
182	0xbe9b72ef	-0.30361125
183	0x3d09966b	0.033590715
184	0x3f295dc8	0.66158724
185	0x3e0e188a	0.13876548
186	0xbd2ed10b	-0.042679828
187	0x3cb26772	0.021777842
188	0xbf3f7e7a	-0.7480236
189	0x3e93c628	0.2886212
190	0x3e35ae40	0.17742252
191	0x3f096fa0	0.5368595
192	0xbefac34f	-0.48977134
193	0x3e1b447b	0.15162842
194	0x3edd3a1a	0.4320839
195	0x3e234870	0.15945601
196	0x3f494b7b	0.786308
197	0xbeb0aef7	-0.34508488
198	0xbe822b2c	-0.25423563
199	0xbe025dc7	-0.12731086
200	0x3d83e9e4	0.064410955
201	0xbe307c5b	-0.17234938
202	0xbe178364	-0.14796215
203	0xbf2fbfc0	-0.6865196
204	0xbea8f712	-0.33001
205	0x3db07869	0.086167164
206	0x3e5e7408	0.2172395
207	0x3e0ac3f6	0.13551316
208	0xbe139672	-0.14412859
209	0xbe609c19	-0.21934547
210	0x3f03fc3a	0.5155674
211	0xbc94ac74	-0.018148638
212	0xbd9ace09	-0.07558829
213	0xbebed322	-0.37270457
214	0x3e41f60d	0.18941517
215	0x3f28d611	0.6595164
216	0xbdb446e8	-0.08802587
217	0xbf3a2675	-0.7271493
218	0x3d9a6e08	0.07540518
219	0x3f13e9fb	0.577789
220	0xbe0029e5	-0.12515981
221	0x3ea36e10	0.3191991
222	0x3bd212e9	0.0064109457
223	0x3e815fbb	0.2526835
224	0xbe401e14	-0.18761474
225	0xbd9c9ecd	-0.07647476
226	0x3e8cd28e	0.2750439
227	0x3f4035a9	0.7508188
228	0xbeca5f97	-0.39526054
229	0x3d3dfecb	0.046385568
230	0xbe800e77	-0.25011036
231	0xbd26a0f9	-0.04068086
232	0xbe0b8c35	-0.13627703
233	0x3e89695c	0.26838195
234	0x3e946caf	0.2898917
235	0x3e61abbb	0.22038166
236	0xbf41055d	-0.7539881
237	0xbf0cf889	-0.55066735
238	0xbd451cea	-0.048123278
239	0x3d58d6bc	0.05293916
240	0xbe4c27c3	-0.19937043
241	0xbde207f3	-0.110366724
242	0xbd1940cc	-0.03741531
243	0xbe56f492	-0.20991734
244	0xbf001798	-0.50036
245	0x3cb024ec	0.02150198
246	0x3eb55644	0.35417378
247	0xbd9ea377	-0.07746022
248	0xbe5d702b	-0.2162482
249	0xbeb29db0	-0.3488593
250	0x3ef78cb7	0.48349544
251	0xbf4ed435	-0.8079255
252	0xbdd7042d	-0.10498843
253	0x3c311d5e	0.010810224
254	0xbf1f22ec	-0.6216266
255	0x3e7ed267	0.2488495

gnn_base.gnn.embed_layer.lin2.0.0.bias f4 [16]
0	0x3b380ef7	0.0028085092
1	0x3b3bb823	0.002864369
2	0x3b4668d6	0.003027489
3	0xbb4d7685	-0.003135116
4	0x3b66bae5	0.0035206613
5	0xba2e1228	-0.0006640279
6	0xba13ffac	-0.0005645703
7	0xb9e969e5	-0.0004452012
8	0xbb483e77	-0.003055481
9	0x3a5607d3	0.0008164618
10	0x39a067ad	0.00030594823
11	0x3ad2ed24	0.0016092402
12	0x3a93d756	0.0011279385
13	0xbb9f4ce9	-0.0048614633
14	0xb94715db	-0.0001898626
15	0xbb5e28c8	-0.003389882

gnn_base.gnn.embed_layer.lin2.0.2.weight f4 [16]
0	0x3f7f0d8e	0.9963006
1	0x3f7edab2	0.9955245
2	0x3f7fe0d5	0.9995244
3	0x3f801ab1	1.0008146
4	0x3f806077	1.0029439
5	0x3f7f0a8f	0.99625486
6	0x3f80ca33	1.0061706
7	0x3f8005ec	1.0001807
8	0x3f7f8ffa	0.99829066
9	0x3f7de759	0.99181134
10	0x3f7efd27	0.9960503
11	0x3f7ffdb9	0.99996525
12	0x3f7f5f00	0.99754333
13	0x3f805ab8	1.0027685
14	0x3f7e7bcf	0.99407667
15	0x3f805ea1	1.0028878

gnn_base.gnn.embed_layer.lin2.0.2.bias f4 [16]
0	0x3b51a8a5	0.003199139
1	0x3bc26d10	0.0059334114
2	0x3b42087d	0.002960711
3	0xba97b577	-0.0011574466
4	0x3b5f0f48	0.0034036208
5	0xbaa7eff3	-0.0012812599
6	0xba6a423a	-0.000893626
7	0x3a400ba4	0.00073259533
8	0xba1cc0e5	-0.0005979671
9	0x3afa8bd2	0.0019115156
10	0x3b22f7f7	0.0024867037
11	0x3a56a44c	0.0008187934
12	0x3b26d832	0.0025458452
13	0xbb4e8751	-0.003151376
14	0x3a7b5be2	0.0009588582
15	0xbb69fe4d	-0.0035704554

gnn_base.gnn.gnn1.lin_key.weight f4 [48, 16]
0	0xbd13d46d	-0.036091257
1	0x3e262e74	0.16228658
2	0xbdef338e	-0.11679755
3	0xbdf51f44	-0.11968854
4	0xbdb53e56	-0.0884978
5	0xbe30c465	-0.17262419
6	0xbe4d918a	-0.2007505
7	0x3d975d4a	0.0739084
8	0xbe5dc53e	-0.21657273
9	0xbe738f63	-0.23785166
10	0x3d1c5ecf	0.038176354
11	0xbe00a5fd	-0.1256332
12	0xbdb0ee13	-0.08639159
13	0x3e75639b	0.23963778
14	0xbdbdc6d9	-0.09266443
15	0xbd166e11	-0.03672606
16	0xbcb137f8	-0.021633133
17	0xbd54aff7	-0.051925626
18	0xbadbe0fb	-0.0016775423
19	0xbd06f6d4	-0.032950237
20	0xbe1a104e	-0.15045282
21	0x3e3c3e12	0.18383053
22	0x3d971ad0	0.07378161
23	0x3e0ee533	0.1395462
24	0xbe4cc6ff	-0.19997786
25	0x3de5f668	0.11228639
26	0xbe508086	-0.20361528
27	0x3e4ac781	0.19802667
28	0xbdbc34ad	-0.091897346
29	0xbe1c5838	-0.15268028
30	0xbe520b64	-0.20512158
31	0xbe73c50f	-0.2380564
32	0xbd88466b	-0.06654056
33	0x3e46e62b	0.1942374
34	0x3e32b2ce	0.17451021
35	0x3cffed64	0.031241126
36	0xbdbfb0f4	-0.09359923
37	0xbe8045ff	-0.25053403
38	0x3e24974f	0.16073345
39	0x3e5fe951	0.21866347
40	0x3e134199	0.14380492
41	0xbde69f33	-0.112608336
42	0x3df84540	0.121225834
43	0x3e254d7f	0.16142844
44	0x3d462d66	0.04838314
45	0xbe185e28	-0.14879668
46	0x3d68b224	0.056810513
47	0x3dcd123d	0.10013244
48	0xbe46cd5b	-0.19414274
49	0x3dc987bc	0.098403424
50	0xbe60b42b	-0.21943729
51	0x3e19a657	0.1500486
52	0x3e289b2c	0.16465443
53	0x3b0a6ffa	0.0021123872
54	0x3e6f2d41	0.23357107
55	0x3dd43fd9	0.103637405
56	0x3e0c7c58	0.13719308
57	0xbe2d60a9	-0.16931404
58	0x3d0d99e0	0.034570575
59	0xbde7290e	-0.112871274
60	0x3d207a95	0.039179403
61	0xbe0135fe	-0.12618253
62	0x3cdac771	0.02670643
63	0x3d8b02a8	0.06787616
64	0xbe049af6	-0.12949738
65	0x3ca270c9	0.01982917
66	0xbe29fd19	-0.16600455
67	0x3d4138a9	0.047173176
68	0xbccc6d67	-0.02495451
69	0xbe557e10	-0.2084887
70	0x3dc16e6f	0.09444892
71	0xbe761a21	-0.24033405
72	0xbe6fb9c1	-0.23410703
73	0x3e1b3856	0.15158209
74	0xbd8665d9	-0.06562395
75	0x3ddeb214	0.108738095
76	0x3d8d9703	0.06913569
77	0xbe4a7fe8	-0.19775355
78	0xbdef2859	-0.116776176
79	0x3e611e8b	0.21984307
80	0x3e50dc64	0.20396572
81	0xbd762ace	-0.060099415
82	0x3c92fe40	0.017943501
83	0xbe68e644	-0.2274409
84	0xbe5535b9	-0.20821275
85	0x3e26519d	0.1624207
86	0x3e793036	0.24334797
87	0xbe347fc8	-0.1762687
88	0x3d96b87e	0.07359408
89	0x3db6a4c3	0.089181446
90	0x3d09156d	0.0334677
91	0x3dc2982a	0.09501679
92	0xbe142b43	-0.14469628
93	0xbe41c131	-0.18921353
94	0xbe18afbf	-0.14910792
95	0x3e536128	0.20642531
96	0xbb0084c2	-0.001961038
97	0x3e1ff8c0	0.15622234
98	0xbe250d91	-0.16118456
99	0xbd8de62b	-0.06928667
100	0xbe282e7c	-0.16423982
101	0x3d54f944	0.05199553
102	0x3d0645f8	0.03278157
103	0xbc0b9331	-0.00851898
104	0x3c3fe073	0.011711228
105	0xbd8cfb36	-0.06883852
106	0x3e3745f0	0.17897773
107	0xbdbe10ff	-0.092805855
108	0x3dabe29e	0.08392833
109	0x3e13b6ce	0.14425203
110	0xbdeadaff	-0.114675514
111	0x3e124698	0.14284742
112	0x3e274f70	0.16338897
113	0x3dddd65e	0.10831903
114	0xbd9eb5b3	-0.077495
115	0xbde2e0fc	-0.110780686
116	0xbe587bc4	-0.21140963
117	0xbdfa7f3c	-0.12231299
118	0x3d642dfb	0.055707913
119	0xbde5f3da	-0.112281516
120	0x3dcf75a0	0.10129857
121	0xbde476f6	-0.111555025
122	0xbded4425	-0.11585263
123	0xbe6d5d49	-0.23180117
124	0xbe1e9e03	-0.15489964
125	0xbe6b275d	-0.22964235
126	0x3e2379fa	0.15964499
127	0x3deccd00	0.11562538
128	0xbde7bb1e	-0.11314987
129	0xbe3a5b0b	-0.18198793
130	0x3e30fb9c	0.17283481
131	0xbdcfd3d9	-0.101478286
132	0x3e564929	0.20926346
133	0xbe62a11b	-0.2213177
134	0xbd205e0b	-0.039152186
135	0x3e040b9f	0.12895058
136	0x3e3f431e	0.18677947
137	0xbe66ab30	-0.2252624
138	0x3dfadd4a	0.12249239
139	0xba650e5e	-0.00087377976
140	0x3dd964a9	0.106149025
141	0x3e0a61fd	0.13513942
142	0xbe70781d	-0.2348332
143	0x3e7623b4	0.24037057
144	0x3cfa8a40	0.0305835
145	0x3d86b5d7	0.06577652
146	0xbdfdaeab	-0.12386831
147	0x3e6b3bef	0.22972082
148	0x3cdd0b9c	0.026983075
149	0x3e49a4bd	0.19691749
150	0x3dc89d40	0.09795618
151	0xbe50ca7b	-0.2038974
152	0x3e80b286	0.25136203
153	0x3deec223	0.116581224
154	0x3e0d7a83	0.13816266
155	0xbdf83bef	-0.121208064
156	0x3d8c94c6	0.06864314
157	0x3db5c1ee	0.0887488
158	0xbe41a90f	-0.18912147
159	0x3d192137	0.03738519
160	0xbe03d848	-0.12875473
161	0x3e202f72	0.15643099
162	0xbd908aa5	-0.07057694
163	0x3db1721f	0.08664345
164	0xbe3d9867	-0.18515168
165	0xbe5f8ed9	-0.21831836
166	0xbe64b5be	-0.22334954
167	0xbd09f898	-0.033684343
168	0x3d9875ac	0.07444319
169	0x3d7e8994	0.062142923
170	0x3bad7183	0.0052930727
171	0xbe772cf5	-0.24138243
172	0xbe3c7df6	-0.18407425
173	0x3e24e2fe	0.16102216
174	0xbe050da4	-0.12993485
175	0x3d81a3ec	0.06330094
176	0xbc6625c6	-0.014047092
177	0xbd4ceecd	-0.050032426
178	0xbdc217f6	-0.094772264
179	0x3de5e14d	0.11224613
180	0xbe4f56b2	-0.20247915
181	0xbe3ca3eb	-0.18421905
182	0x3e172bb1	0.1476276
183	0xbe2fc5e0	-0.17165327
184	0xbcffc46a	-0.031221587
185	0xbe410cd3	-0.18852548
186	0x3d96aaaa	0.0735677
187	0xbbfdd75b	-0.0077466196
188	0x3de8a363	0.113592885
189	0xbe520f2c	-0.205136
190	0xbe0bb97c	-0.13644975
191	0xbd78d32d	-0.060748268
192	0xbdb98622	-0.09058787
193	0xbcb79ca6	-0.022413563
194	0xbc921f79	-0.017837273
195	0xbe16d98d	-0.14731427
196	0x3a9459a0	0.0011318214
197	0xbe5f9c7d	-0.2183704
198	0xbcd02f0c	-0.025413059
199	0xbe6877e6	-0.22701988
200	0x3e00169c	0.12508625
201	0x3e5c3ba3	0.21507125
202	0x3e6d70eb	0.23187606
203	0x3e08b495	0.13350137
204	0xbe6596a2	-0.22420743
205	0x3e5ccc6f	0.2156236
206	0xbe5384f5	-0.20656188
207	0xbe321610	-0.17391229
208	0xbd65cf21	-0.056105737
209	0x3ddd29be	0.10798977
210	0x3e72512f	0.23663782
211	0x3e264987	0.16238986
212	0x3e2a5931	0.16635586
213	0xbe09a135	-0.13440402
214	0xbe3aa4b5	-0.18226893
215	0xbdd5dd9b	-0.104426585
216	0xbdac86dd	-0.08424161
217	0x3e32f05a	0.174745
218	0xbe606570	-0.21913695
219	0xbda48339	-0.08032841
220	0x3c7557c1	0.014974535
221	0x3e657952	0.22409561
222	0xbd83d16c	-0.064364284
223	0x3e67d5a2	0.22640088
224	0xbe02c622	-0.12770894
225	0x3e489793	0.19589071
226	0xbe6d75f7	-0.23189531
227	0x3d047414	0.032337263
228	0x3e65b085	0.22430618
229	0x3b5b5f57	0.0033473575
230	0x3e67eae0	0.22648191
231	0x3c7628f1	0.01502441
232	0xbe16d1c5	-0.14728458
233	0xbdea3c22	-0.11437251
234	0xbdc46c8b	-0.095910154
235	0xbe611532	-0.21980742
236	0xbe0ae7d7	-0.13565002
237	0xbd9cc5cd	-0.07654915
238	0xbe7d5050	-0.24737668
239	0x3ce5c24d	0.028046751
240	0xbd87d759	-0.06632871
241	0x3dad71bd	0.084689595
242	0x3e6c39a2	0.2306886
243	0x3d9ab323	0.07553699
244	0x3b8bea6d	0.004269889
245	0xbbd93758	-0.006628912
246	0xbdf9920e	-0.12186061
247	0xbccc277d	-0.024921173
248	0xbcbad822	-0.022808138
249	0x3c93a557	0.018023176
250	0x3d5bcb97	0.053660955
251	0xbe33b72f	-0.17550348
252	0xbd069e02	-0.03286553
253	0xbe45dd5f	-0.19322728
254	0xbd37f1b9	-0.04490826
255	0xbe423892	-0.18966892

gnn_base.gnn.gnn1.lin_key.bias f4 [48]
0	0x3e2715be	0.16316888
1	0x3da18c04	0.07888034
2	0x3d37dbd8	0.044887394
3	0xbdf24d34	-0.118311316
4	0xbd9fd6c4	-0.07804635
5	0x3cd97510	0.026545078
6	0xbd01ddb8	-0.031705588
7	0x3e1d6556	0.15370688
8	0x3e0742dc	0.13209099
9	0x3e733ec0	0.23754406
10	0x3db08c64	0.086205274
11	0xbe24a250	-0.16077542
12	0x3e5fd4a0	0.21858454
13	0x3c974650	0.018466145
14	0xbe68ba54	-0.22727329
15	0x3e311034	0.17291337
16	0xbe230ca8	-0.15922797
17	0x3e2a9008	0.16656506
18	0x3d195090	0.037430346
19	0xbe29d17a	-0.16583815
20	0x3e26dce0	0.16295195
21	0xbd21a0b8	-0.039459914
22	0xbe3f3ce6	-0.18675575
23	0x3e1e85b2	0.15480688
24	0xbe1b0cf8	-0.15141666
25	0x3d9236b8	0.07139343
26	0x3e0b6050	0.13610959
27	0x3dcec624	0.10096386
28	0x3d8cde98	0.06878394
29	0x3df234e0	0.11826491
30	0xbe492204	-0.19641882
31	0xbdf989c8	-0.12184483
32	0x3e02552a	0.127278
33	0x3e3fd5c2	0.18733886
34	0x3d3eda60	0.046594977
35	0x3cf98ca1	0.030462565
36	0xbe4ad6dc	-0.19808525
37	0xbd474470	-0.04864925
38	0xbe00f6ac	-0.12594098
39	0x3e79bf3a	0.24389353
40	0x3e7d83d8	0.24757326
41	0x3d3b4708	0.045722038
42	0x3e4c14bc	0.19929785
43	0x3c9f8340	0.019471765
44	0xbd932d9c	-0.07186434
45	0xbe390cfa	-0.18071356
46	0x3e5896a8	0.21151221
47	0x3d92500c	0.07144174

gnn_base.gnn.gnn1.lin_query.weight f4 [48, 16]
0	0xbd135e23	-0.035978448
1	0xbe27fd4d	-0.1640522
2	0x3e382428	0.17982543
3	0x3ddad5eb	0.10685333
4	0xbe0faf71	-0.1403177
5	0x3e728ad5	0.23685773
6	0xbe40589b	-0.187838
7	0xbd075710	-0.033042014
8	0x3c9a270d	0.018817449
9	0x3e5a6120	0.21326113
10	0x3d2d59c1	0.042321924
11	0x3e34ee7a	0.17669097
12	0xbe299aa8	-0.16562903
13	0x3e01288f	0.12613128
14	0x3e56a0fd	0.2095985
15	0xbe173ac6	-0.14768514
16	0xbd92baf5	-0.071645655
17	0x3dab44a3	0.08362701
18	0x3d41c6ae	0.047308616
19	0x3d4c8712	0.0499335
20	0xbd1d5cc4	-0.038418546
21	0xbd85bc9a	-0.065301135
22	0x3e2b1b6d	0.16709681
23	0xbd760504	-0.060063377
24	0x3d942240	0.07233095
25	0xbe0fc9c2	-0.14041808
26	0xbe3593b2	-0.17732123
27	0xbe4e18c7	-0.2012664
28	0x3e68eb51	0.22746016
29	0xbdda69c4	-0.106647044
30	0xbe17aa57	-0.14811073
31	0x3d32f2b5	0.043688495
32	0x3e55deeb	0.20885818
33	0x3d1d868a	0.038458385
34	0x3db78af5	0.08962051
35	0x3d93d69c	0.07218668
36	0x3e534448	0.20631516
37	0x3db92a76	0.09041302
38	0xbe43197b	-0.19052689
39	0xba86e139	-0.001029051
40	0x3e561795	0.20907433
41	0xbe71eadd	-0.2362475
42	0xbd899451	-0.06717742
43	0xbe6e3ebf	-0.23266123
44	0xbe60309e	-0.21893546
45	0x3dcc6db5	0.099818625
46	0x3e5c2a53	0.2150052
47	0x3e6a02f3	0.22852688
48	0xbdc09d0a	-0.09404953
49	0x3e442e4b	0.19158284
50	0xbe40316d	-0.18768854
51	0xbe62bc8f	-0.22142242
52	0x3e4b9e4f	0.19884609
53	0x3dd43268	0.10361177
54	0x3d0fb11a	0.035081007
55	0xbe483690	-0.19552064
56	0xbbab67c4	-0.0052308757
57	0x3e4a6ef7	0.19768892
58	0xbdd4c882	-0.10389806
59	0x3e22f7c7	0.15914832
60	0xbdfdfe97	-0.12402075
61	0xbe64645b	-0.22303908
62	0x3e61add4	0.22038966
63	0xbe716e22	-0.23577169
64	0xbdd95170	-0.10611236
65	0xbd1e1dd0	-0.03860265
66	0x3e4a4d43	0.19756036
67	0xbb2c1151	-0.0026255439
68	0xbd726887	-0.059181716
69	0x3e1c105b	0.15240614
70	0xbd6772e1	-0.05650604
71	0x3e373a0a	0.17893234
72	0x3e6a6065	0.22888334
73	0x3ddae588	0.10688311
74	0x3c9d2beb	0.01918598
75	0x3e3e208b	0.18567102
76	0xbe76ef13	-0.24114637
77	0xbe80ce07	-0.25157186
78	0x3d8d1411	0.06888593
79	0xbe290c90	-0.16508698
80	0xbe5a04ab	-0.21290843
81	0xbd838602	-0.06422044
82	0xbe2470e5	-0.16058691
83	0x3d53932c	0.051654026
84	0xbe168115	-0.14697678
85	0x3ac955a5	0.0015360607
86	0x3e07eeb3	0.1327465
87	0xbe0ddb25	-0.13853128
88	0x3e4b60b5	0.1986111
89	0xbdba809a	-0.0910656
90	0x3e47802d	0.19482489
91	0xbe0ae591	-0.13564135
92	0xbe24ab7f	-0.16081046
93	0x3dec753c	0.11545798
94	0x3e795bf7	0.24351488
95	0xbe0104e1	-0.12599517
96	0xbe63ec23	-0.22258048
97	0xbe06cda3	-0.13164382
98	0x3e12a815	0.1432193
99	0xbe4e5378	-0.20149028
100	0xbd8f1ab0	-0.06987512
101	0xbe5abca4	-0.21361023
102	0xbc8f3819	-0.017482804
103	0x3e34b5bf	0.17647456
104	0x3bd50906	0.00650132
105	0xbbcada45	-0.0061905705
106	0xbd1fc834	-0.039009288
107	0x3e6c8429	0.2309729
108	0x3d3cf0ca	0.04612807
109	0x3c90e115	0.017685452
110	0x3d4641b3	0.0484025
111	0x3cb54ce3	0.022131389
112	0x3e3e8e25	0.18608911
113	0x3e49a1db	0.19690649
114	0x3d89b350	0.06723654
115	0x3e0d1ce8	0.13780558
116	0xbe542537	-0.20717321
117	0xbe519e34	-0.20470506
118	0x3b9e75ab	0.0048358045
119	0x3d946fdc	0.07247898
120	0x3d2a74c9	0.04161528
121	0x3e03b9e4	0.1286388
122	0x3e68ed81	0.2274685
123	0xbe69a210	-0.22815728
124	0xbe788dff	-0.24272917
125	0x3c958c29	0.01825531
126	0xbe1e7f1c	-0.15478176
127	0x3dc4bb71	0.09606064
128	0x3d58412d	0.05279653
129	0x3c864a96	0.016392987
130	0x3cc9c911	0.024632009
131	0x3c946790	0.018115789
132	0xbe6662b6	-0.22498593
133	0x3de9275d	0.11384461
134	0x3dc1c872	0.0946206
135	0x3e7378e1	0.2377658
136	0x3d40d59c	0.047078714
137	0x3c5c8d3f	0.01346141
138	0x3cb3e10e	0.0219579
139	0xbd1d77c3	-0.03844429
140	0x3dae0431	0.08496893
141	0x3d2003c4	0.03906609
142	0x3e72f5b5	0.23726542
143	0xbdff7181	-0.12472821
144	0xbe1360a4	-0.14392334
145	0x3e523200	0.20526886
146	0x3e05d06b	0.13067786
147	0x3cba121b	0.022713711
148	0x3e609258	0.21930826
149	0xbc09d1dd	-0.008411852
150	0x3da4c206	0.080448195
151	0x3d79989b	0.06093655
152	0x3c885831	0.016643615
153	0x3e1bf962	0.1523185
154	0xbe0c2880	-0.13687325
155	0xbdbd5a3d	-0.09245727
156	0x3e374b54	0.17899829
157	0x3e0c76aa	0.13717142
158	0x3dbbc01e	0.09167503
159	0x3dd8bc59	0.105827995
160	0x3e20060e	0.1562731
161	0xbb6c4570	-0.003605213
162	0x3e795249	0.24347796
163	0x3d8906fa	0.06690784
164	0xbd55f645	-0.052236814
165	0x3de121fb	0.109928094
166	0x3dc5625b	0.096379004
167	0xbe45920d	-0.19293995
168	0x3ba175c7	0.00492737
169	0x3d5ea5f5	0.054357488
170	0x3e406719	0.18789329
171	0xbe4c550f	-0.19954322
172	0xbe364d93	-0.1780303
173	0xbe3a29c7	-0.1818
174	0x3e0dd31e	0.13850066
175	0xbc15b203	-0.00913668
176	0xbe68b45c	-0.22725052
177	0xbe2e3050	-0.17010617
178	0x3e5bbde0	0.2145915
179	0x3df33a90	0.11876404
180	0x3e3f912b	0.18707721
181	0xbe795cad	-0.24351759
182	0xbdd837d7	-0.105575256
183	0x3d928077	0.07153409
184	0x3df5438b	0.119757734
185	0x3e59a455	0.21254094
186	0xbe77a047	-0.24182235
187	0x3e058e44	0.13042551
188	0x3d188f99	0.03724632
189	0x3e7a7cac	0.24461621
190	0xbe5a2cf6	-0.21306214
191	0x3c15a34e	0.009133173
192	0xbe71d830	-0.23617625
193	0xbd9ae031	-0.07562292
194	0x3e07280c	0.1319887
195	0x3e2143c8	0.15748513
196	0xbe67f489	-0.22651877
197	0x3cb19e28	0.02168186
198	0x3e50d2b9	0.20392884
199	0xbd219238	-0.039446086
200	0xbd046bf0	-0.0323295
201	0x3cf06ac6	0.029347789
202	0xbc9488d2	-0.018131647
203	0xbcab2820	-0.020893157
204	0x3e5c9500	0.21541214
205	0xbdc54be3	-0.09633615
206	0xbe66c003	-0.22534184
207	0x3e4f217d	0.20227619
208	0xbdb13911	-0.08653463
209	0xbde62b22	-0.11238696
210	0xbda9fd70	-0.083002925
211	0x3e1d3419	0.15351905
212	0x3c0c2c1a	0.0085554365
213	0x3e1558b0	0.14584613
214	0xbe2bbcc7	-0.16771232
215	0xbdca129f	-0.09866833
216	0xbe305def	-0.17223333
217	0x3e418177	0.18897043
218	0xbe6ec702	-0.23318103
219	0xbe6f87cc	-0.23391646
220	0x3e17096f	0.14749692
221	0xbe13b005	-0.14422615
222	0x3e5c9e94	0.21544868
223	0xbe49b3b2	-0.19697455
224	0xbb9925ec	-0.00467371
225	0x3dd70487	0.104989104
226	0x3e1eb0c7	0.15497123
227	0xbdd881fc	-0.105716676
228	0xbd701b66	-0.05861988
229	0x3dba0dbb	0.0908465
230	0xbe063922	-0.13107732
231	0xbe0c22f3	-0.13685207
232	0x3e12b867	0.14328156
233	0x3d77213e	0.060334437
234	0xbe66b3e3	-0.22529559
235	0xbca69c6e	-0.020338263
236	0x3dafa368	0.08576089
237	0xbe7d6e39	-0.24749078
238	0xbded8228	-0.11597091
239	0xbe6befae	-0.2304065
240	0xbe822e50	-0.2542596
241	0xbdd9a62c	-0.10627398
242	0x3e60cce5	0.21953161
243	0x3b45386f	0.0030093451
244	0xbc5902ec	-0.013245326
245	0x3d339fd9	0.043853614
246	0x3d6125e0	0.05496776
247	0xbc0300bc	-0.007995781
248	0x3dcd3547	0.100199275
249	0xbd9b1c4a	-0.07573755
250	0x3e82cd87	0.2554743
251	0x3cb8e237	0.022568805
252	0xbdb295f3	-0.08720007
253	0xbc7eb915	-0.015547057
254	0x3e154672	0.14577654
255	0xbe2a4946	-0.16629514

gnn_base.gnn.gnn1.lin_query.bias f4 [48]
0	0x3e2b58a6	0.16733035
1	0xbe1068f8	-0.14102542
2	0xbe381352	-0.1797612
3	0xbe0d5afc	-0.13804239
4	0x3e15f4c6	0.14644155
5	0xbd6340c7	-0.0554817
6	0x3e616356	0.2201055
7	0xbe5c1375	-0.21491797
8	0x3da7bec1	0.0819068
9	0xbda5a61c	-0.080883235
10	0x3d0b9171	0.03407425
11	0x3e28d434	0.16487199
12	0x3e0ad413	0.13557462
13	0xbe707e45	-0.23485668
14	0xbcdb813b	-0.02679502
15	0x3dcf235c	0.10114166
16	0xbe7ff9b3	-0.24997596
17	0xbe4052f0	-0.18781638
18	0xbe80b2d5	-0.25136438
19	0x3d0a5a60	0.033777595
20	0x3d4db25b	0.05021892
21	0xbdcf7042	-0.10128833
22	0x3dd62ef9	0.10458178
23	0x3d0b0c45	0.033947248
24	0x3ddad660	0.1068542
25	0x3e5d222c	0.21595067
26	0xbe27cfa9	-0.1638781
27	0xbe454463	-0.19264369
28	0x3e781302	0.24226001
29	0xbe066754	-0.13125354
30	0x3e34f39a	0.17671052
31	0xbda9fcad	-0.08300147
32	0xbd5d5c4c	-0.0540431
33	0xbde896a7	-0.1135686
34	0x3d9427a0	0.0723412
35	0xbc8de3a7	-0.017320467
36	0x3e49c195	0.19702752
37	0xbe803935	-0.25043646
38	0xbb2fc238	-0.0026818644
39	0x3d226038	0.039642543
40	0x3da1d440	0.079018116
41	0x3e43d1a1	0.19122936
42	0x3dafa003	0.08575442
43	0xbe5a2006	-0.21301278
44	0x3cee7556	0.029108685
45	0xbddc5df5	-0.107601084
46	0x3e1ce251	0.15320708
47	0xbde96a07	-0.11397176

gnn_base.gnn.gnn1.lin_value.weight f4 [48, 16]
0	0xbcecb097	-0.028892798
1	0x3d8face2	0.07015397
2	0x3e2a2ad5	0.16617902
3	0xbdfcd9a5	-0.123462
4	0x3e3f5927	0.18686353
5	0xbe374c80	-0.17900276
6	0xbd75c8a4	-0.0600058
7	0xbe200f40	-0.15630817
8	0x3d6af6a1	0.05736411
9	0xbe5711e3	-0.21002917
10	0xbb977b8d	-0.0046228827
11	0xbe359895	-0.17733987
12	0x3e227401	0.15864564
13	0xbe6cf558	-0.23140466
14	0xbddfbaba	-0.10924287
15	0xbe57dc08	-0.21080029
16	0xbe207dfc	-0.15673059
17	0x3cb3f5d6	0.02196781
18	0x3df55322	0.11978747
19	0x3e03fcbf	0.12889384
20	0xbe49b78e	-0.19698927
21	0xbd2d7d1b	-0.042355638
22	0xbd5b14b4	-0.05348654
23	0x3dd488c2	0.10377647
24	0xbcf74bc8	-0.030187503
25	0xbcd24a0c	-0.025670074
26	0xbe230867	-0.15921174
27	0xbe2c21a7	-0.16809712
28	0xbbe43fb1	-0.0069656004
29	0x3df63d95	0.120234646
30	0xbe028233	-0.1274498
31	0x3d519fd0	0.0511778
32	0x3dfb0c2e	0.122581825
33	0xbdacf3d2	-0.084449425
34	0x3e654625	0.2239004
35	0x3e6ba48c	0.23011988
36	0x3e1aa183	0.15100674
37	0x3dd08898	0.10182303
38	0xbe453cb7	-0.19261442
39	0x3e01ae6b	0.12664191
40	0xbd0dd83c	-0.034630045
41	0x3e470c8e	0.19438383
42	0xbe4ec570	-0.20192504
43	0xbba8107b	-0.0051289177
44	0x3e6d1d83	0.23155789
45	0x3d5d343b	0.05400489
46	0x3d9f639b	0.0778267
47	0x3b6fdd3b	0.003660037
48	0xbdebeea5	-0.11520127
49	0x3e01c29b	0.12671892
50	0x3e4e40d6	0.2014192
51	0x3e0b8dc8	0.13628304
52	0xbe2ce80a	-0.16885391
53	0xbe2d0f4d	-0.16900368
54	0x3e726cbc	0.23674291
55	0xbcfb5d83	-0.030684238
56	0x3ddd326b	0.10800632
57	0x3d905d75	0.070490755
58	0xbe2784ff	-0.16359328
59	0x3e5b661d	0.21425672
60	0x3d33b03a	0.043869235
61	0xbdf88280	-0.12134266
62	0x3e6cd0c9	0.2312652
63	0x3da9f2bb	0.0829825
64	0x3d68b0e6	0.05680933
65	0xbe2c9eeb	-0.16857497
66	0x3e5fae96	0.21843943
67	0xbdfc092c	-0.12306437
68	0xbdb8f875	-0.090317644
69	0xbe779624	-0.24178368
70	0x3d91dc57	0.071221046
71	0xbe13fec4	-0.14452654
72	0xbe66b5fa	-0.22530356
73	0x3e37129e	0.17878196
74	0xbe663801	-0.22482301
75	0xbd46fb44	-0.04857947
76	0xbdba6664	-0.09101561
77	0x3cac16b6	0.021006923
78	0x3d07178d	0.032981444
79	0x3e657c36	0.22410664
80	0x3d9aa1a9	0.075503655
81	0xbdb04319	-0.08606548
82	0xbe1de8ce	-0.15420839
83	0xbd8c1e30	-0.06841695
84	0x3e115a8f	0.14194702
85	0xbe741f3b	-0.23840038
86	0x3dc7c00b	0.09753426
87	0xbc5e5136	-0.013569167
88	0xbde6ce84	-0.112698585
89	0x3e2bab97	0.16764675
90	0x3dfb6dc9	0.12276799
91	0x3bca1800	0.006167412
92	0xbe00d722	-0.12582067
93	0xbe1c919b	-0.15289919
94	0xbd7dc47e	-0.061954968
95	0xbe207d02	-0.15672687
96	0xbd33ce58	-0.043897957
97	0x3db38242	0.08765079
98	0xbcd8dca6	-0.0264724
99	0x3d045b8c	0.03231387
100	0xbdc4c519	-0.09607906
101	0xbd930aec	-0.071798176
102	0x3e18efb2	0.14935187
103	0xbd0a105e	-0.033707015
104	0x3d781779	0.06056926
105	0xbe35850c	-0.17726535
106	0xbe0e17fe	-0.1387634
107	0x3e437e2a	0.19091097
108	0xbc00d063	-0.007862183
109	0x3e799082	0.24371532
110	0xbda9d2be	-0.08292149
111	0x3e0de0e3	0.13855319
112	0x3ddf901d	0.10916159
113	0xbe573248	-0.21015275
114	0xbe0ec649	-0.13942827
115	0x3e55af9d	0.20867772
116	0xbdab86ae	-0.083752975
117	0xbe6e52c9	-0.23273768
118	0x3e3da848	0.18521225
119	0x3e7496d9	0.23885669
120	0x3e293de8	0.16527522
121	0x3e1d980d	0.15390034
122	0xbd9cfe67	-0.07665711
123	0x3e54a048	0.20764267
124	0xbde53a1c	-0.11192724
125	0x3dbb205d	0.09137032
126	0xbe792403	-0.24330144
127	0x3e624fdd	0.22100778
128	0xbe40231e	-0.18763396
129	0xbe6b9d7a	-0.23009291
130	0x3dd0cf05	0.10195736
131	0x3e5e5e35	0.21715625
132	0xbe4e7609	-0.20162214
133	0x3e74f09c	0.2391991
134	0x3d37e003	0.04489137
135	0x3e019679	0.12655057
136	0x3d4ba0f1	0.049714033
137	0xbe7f0c19	-0.24906959
138	0x3e5eeb28	0.21769392
139	0x3e4e80f3	0.20166378
140	0x3e07cde3	0.13262133
141	0x3b6dafd4	0.0036268132
142	0x3dc31e32	0.09527244
143	0x3c4f0ed7	0.012637815
144	0x3da12bdc	0.07869694
145	0xbcf534f0	-0.02993247
146	0x3e707110	0.2348063
147	0xbda990c4	-0.08279565
148	0xbd2172a8	-0.039415985
149	0x3d96ef00	0.073698044
150	0x3e62e63a	0.22158137
151	0xbe0f0e10	-0.13970208
152	0xbdde7228	-0.10861617
153	0xbe617720	-0.22018099
154	0x3e418ad6	0.18900618
155	0x3e6f4c1a	0.23368874
156	0x3d4c4748	0.049872667
157	0xbe54bf10	-0.2077601
158	0xbe476ba4	-0.19474655
159	0x3e49cb7c	0.1970653
160	0x3c871fb2	0.016494606
161	0x3d60075b	0.054694515
162	0xbe17460e	-0.14772817
163	0xbe561a84	-0.20908552
164	0xbdf67441	-0.120338924
165	0xbe765b37	-0.24058233
166	0x3e33f53c	0.17574018
167	0x3dba74ac	0.09104285
168	0xbe525030	-0.20538402
169	0x3e7b00da	0.24512044
170	0xbd68fcc2	-0.056881674
171	0x3dfc1b19	0.12309856
172	0x3d51d631	0.05122966
173	0x3db25744	0.08708051
174	0xbcc9a63d	-0.024615401
175	0xbce713af	-0.028207628
176	0xbde5355b	-0.111918174
177	0x3da604b7	0.08106368
178	0x3cec89dd	0.028874332
179	0x3e326db3	0.1742466
180	0xbe44d332	-0.1922119
181	0x3dc32033	0.09527626
182	0x3d997114	0.07492271
183	0x3b391dbf	0.002824649
184	0xbe0e7af6	-0.13914093
185	0xbe04dddc	-0.12975258
186	0x3e451abe	0.19248483
187	0x3e2ca03f	0.16858004
188	0x3dc6dc41	0.09709979
189	0xbe76d5ee	-0.24105045
190	0xbe23d517	-0.15999256
191	0x3db0d2ae	0.08633934
192	0x3e7ded07	0.2479745
193	0xbe7353ed	-0.23762484
194	0x3d83f63d	0.064434506
195	0xbe6cd41b	-0.23127787
196	0xbe7a9b29	-0.24473251
197	0xbe3d03f8	-0.18458545
198	0xbe017b5c	-0.12644714
199	0xbe21a245	-0.15784557
200	0xbe1ad208	-0.15119183
201	0x3cdd4b0c	0.027013324
202	0xbd68a797	-0.05680045
203	0x3e1cd38e	0.15315077
204	0x3d7e35ba	0.062062956
205	0xbdbe750f	-0.09299671
206	0xbe26127e	-0.16217992
207	0x3e471693	0.19442205
208	0xbc16cbf7	-0.009203902
209	0x3d57962a	0.052633442
210	0x3de11453	0.10990205
211	0xbd5247a7	-0.051337864
212	0xbdfbcc89	-0.12294871
213	0x3ae3e045	0.0017385563
214	0xbe0aaa07	-0.13541423
215	0x3dff910b	0.124788366
216	0x3dbd5c84	0.092461616
217	0xbdfb619f	-0.12274479
218	0xbd9834f0	-0.07431972
219	0x3d531b26	0.051539563
220	0x3d0bac54	0.03409989
221	0x3d1d006b	0.038330477
222	0xbe055583	-0.13020901
223	0x3d3f257a	0.0466666
224	0xbdd8e3f0	-0.10590351
225	0x3d4fad9e	0.050702684
226	0x3c588f66	0.013217783
227	0x3c437b30	0.011931226
228	0xbde09633	-0.10966148
229	0xbe4a6232	-0.19764021
230	0xbe3833c3	-0.17988496
231	0x3d6974fb	0.056996327
232	0x3de09357	0.10965603
233	0xbd73610c	-0.059418723
234	0x3e2e8223	0.1704183
235	0xbdc56ccf	-0.09639894
236	0x3e07e802	0.13272098
237	0x3d481fd7	0.04885849
238	0x3e6e1c45	0.23252971
239	0x3e3f1f34	0.18664247
240	0xbd93f71e	-0.07224868
241	0x3c1ee321	0.009697706
242	0xbe455360	-0.19270086
243	0x3e145844	0.14486796
244	0xbd643631	-0.055715743
245	0xbe4d8733	-0.20071106
246	0xbdcf36c5	-0.10117868
247	0xbe692f8b	-0.22772042
248	0xbd96abee	-0.07357012
249	0xbda9d916	-0.08293359
250	0xbe7b5e21	-0.24547626
251	0x3d8ec671	0.069714434
252	0xbe388ee7	-0.18023263
253	0x3d62436a	0.055240072
254	0xbdeeff8e	-0.11669837
255	0x3cd4baf9	0.025968062

gnn_base.gnn.gnn1.lin_value.bias f4 [48]
0	0x3e1185c2	0.14211181
1	0xbddd9971	-0.10820282
2	0xbe04d338	-0.12971199
3	0xbe52860d	-0.20558949
4	0x3de04f07	0.10952573
5	0x3e4b4799	0.19851531
6	0x3d8cdc4c	0.06877956
7	0x3e4b4b62	0.19852975
8	0xbe3cbd92	-0.1843169
9	0xbe78e41c	-0.24305767
10	0x3dc359d7	0.0953862
11	0xbdf1032a	-0.117681816
12	0x3e483f47	0.19555388
13	0xbbcdf72a	-0.006285568
14	0x3d0a3e64	0.033750907
15	0x3d9f3dd6	0.07775466
16	0xbe490596	-0.19631037
17	0xbd60a4e4	-0.054844752
18	0x3e26620a	0.16248336
19	0xbdac0221	-0.083988436
20	0x3d5f61b5	0.05453654
21	0xbe046e43	-0.12932687
22	0x3d2fc37c	0.042911038
23	0xbdfdd163	-0.12393453
24	0xbd6a6766	-0.057227515
25	0x3e0b05ca	0.13576427
26	0xbb6b19cd	-0.0035873533
27	0x3e201a90	0.15635133
28	0x3e0f6925	0.14004953
29	0x3e50913d	0.20367904
30	0xbd8af6d1	-0.06785358
31	0x3d45bb24	0.048274174
32	0x3d795d91	0.060880248
33	0xbe1ac226	-0.15113124
34	0x3e009e52	0.12560394
35	0xbe1f7453	-0.15571718
36	0xbe56a145	-0.20959957
37	0x3e721d2d	0.23643942
38	0x3d11b374	0.03557153
39	0x3e2b144a	0.16706958
40	0x3e5cb0e6	0.21551856
41	0xbe56da48	-0.20981705
42	0xbe4b8337	-0.19874273
43	0x3d548008	0.051879913
44	0x3d01b941	0.031670813
45	0xbc5cb634	-0.013471175
46	0xbe19f3e1	-0.15034439
47	0x3d658145	0.056031484

gnn_base.gnn.gnn1.lin_edge.weight f4 [48, 1]
0	0x3f058782	0.52159894
1	0xbf322796	-0.69591653
2	0x3f2a199c	0.66445327
3	0xbd758275	-0.059938867
4	0x3f56ab1a	0.8385483
5	0xbc0cbe3b	-0.008590276
6	0x3e78e50c	0.24306124
7	0xbf058df5	-0.52169734
8	0xbe92c959	-0.2866924
9	0x3e2c11a2	0.16803601
10	0x3e189366	0.14899978
11	0x3f334b66	0.70036924
12	0xbf1a4935	-0.60267955
13	0x3e6a275e	0.2286658
14	0xbf04f41f	-0.51935
15	0xbe4724f0	-0.19447684
16	0xbf25c30b	-0.64750737
17	0x3f414ec3	0.75510806
18	0x3f26ec87	0.6520466
19	0xbf5b7939	-0.85731846
20	0xbf43c864	-0.76477647
21	0x3ea704c5	0.32620826
22	0xbf3f085d	-0.74622136
23	0xbedac27a	-0.427265
24	0xbf7b76ee	-0.9822835
25	0xbf34be57	-0.70602936
26	0x3f3e23d0	0.74273396
27	0xbf14ddd1	-0.58150965
28	0x3f242339	0.64116246
29	0x3e8e45fc	0.2778777
30	0xbf2e2357	-0.68022674
31	0xbe73ffc7	-0.2382804
32	0xbd7605cc	-0.060064122
33	0x3f2aaaf8	0.6666713
34	0xbf70b226	-0.9402183
35	0x3f4925bf	0.7857322
36	0xbf7377e3	-0.9510481
37	0xbf3a0508	-0.7266393
38	0xbf27f51a	-0.6560837
39	0x3eb00b1c	0.34383476
40	0xbf32776f	-0.6971349
41	0xbf4b6175	-0.7944558
42	0x3ebe7508	0.37198663
43	0xbf3c72aa	-0.73612463
44	0xbf350b05	-0.7071994
45	0x3f639bd8	0.88909674
46	0x3f11c8af	0.56946844
47	0xbf3983be	-0.7246665
