onpolicy/results/GraphMPE/navigation_graph/rmappo/crap_bad/run11/models/actor.pt (torch, 196085 bytes, 62 tensors)

gnn_base.gnn.embed_layer.entity_embed.weight f4 [3, 2]
0	0x3fc653ff	1.5494384
1	0xbe9d2958	-0.30695605
2	0xc00b2a44	-2.1744547
3	0x3f1113cd	0.5667084
4	0xbf8813b7	-1.0631016
5	0xbfb36486	-1.4015052

gnn_base.gnn.embed_layer.lin1.0.weight f4 [16, 9]
0	0xbf43e4a3	-0.76520747
1	0xbf219b59	-0.63127667
2	0x3ea28a2c	0.31746042
3	0xbf27b750	-0.6551409
4	0x3df477e1	0.119369276
5	0xbd5ff54e	-0.0546773
6	0xbed12fc1	-0.40856746
7	0xbdfb32f2	-0.122655764
8	0xbe805354	-0.25063574
9	0x3ebe518e	0.37171596
10	0x3b14e19a	0.0022717477
11	0xbf3995b9	-0.72494084
12	0xbe48aedf	-0.19597958
13	0xbe856e8d	-0.26060906
14	0x3e385f24	0.18005043
15	0xbdd3a80d	-0.103347875
16	0x3e720df0	0.23638129
17	0xbf0b5d83	-0.5443956
18	0x3e8b43bf	0.27200124
19	0xbf5c2e84	-0.8600848
20	0xbdfc181c	-0.12309286
21	0x3e1ce5b6	0.15322003
22	0x3e4a28fc	0.19742197
23	0xbe42e769	-0.19033588
24	0xbdec3eb1	-0.11535395
25	0xbe499534	-0.19685823
26	0x3f482398	0.7817931
27	0x3ca649c5	0.020298848
28	0xbd95efbd	-0.07321117
29	0xbf10440c	-0.5635383
30	0x3ec03f0b	0.37548098
31	0xbb41a896	-0.0029549948
32	0xbf156f59	-0.5837303
33	0xbf16c640	-0.58896255
34	0xbe13df5b	-0.14440672
35	0xbef2a381	-0.4739037
36	0x3ea98b2b	0.3311399
37	0x3dc5710e	0.09640704
38	0x3ee19d6a	0.4406541
39	0x3e292740	0.16518879
40	0x3cd73c92	0.026274
41	0x3f2d157b	0.676109
42	0xbe530388	-0.20606816
43	0xbeea8fe8	-0.45812917
44	0xbdb4c4ae	-0.08826576
45	0x3ef430f0	0.47693586
46	0xbe82dc37	-0.25558636
47	0x3e8c46a7	0.27397653
48	0xbeabad5e	-0.33530706
49	0xbf6d32f7	-0.9265589
50	0xbed5015e	-0.41602606
51	0x3e0fa372	0.14027193
52	0xbe5dbe28	-0.2165457
53	0xbd7b4ba4	-0.061351433
54	0x3c3862ba	0.011254007
55	0x3e2db738	0.16964424
56	0x3edc1b23	0.42989454
57	0x3efa4240	0.4887867
58	0xbe427b86	-0.18992433
59	0xbc1c231d	-0.009529856
60	0xbe23a52d	-0.15980978
61	0xbeb9f40d	-0.36319008
62	0xbeb352fb	-0.35024247
63	0x3ea0e7f3	0.31426963
64	0xbc99c11d	-0.018768841
65	0x3e8a67a9	0.2703221
66	0x3df18041	0.117920406
67	0x3f282a61	0.65689665
68	0xbec47658	-0.3837154
69	0xbeda401f	-0.42627046
70	0x3e33147f	0.17488287
71	0x3e1426ec	0.14467973
72	0xbf165084	-0.5871661
73	0x3bba3117	0.0056821215
74	0xbea528cd	-0.3225769
75	0x3ee53ee7	0.44774553
76	0xbef9f2b2	-0.48817974
77	0x3de22a39	0.110432096
78	0x3d62900f	0.055313166
79	0xbed01607	-0.40641806
80	0x3daa2f79	0.08309836
81	0x3d1bfe28	0.03808418
82	0x3d7e3f01	0.062071804
83	0x3e78c7d0	0.24294972
84	0xbe1d6229	-0.15369476
85	0xbe8893df	-0.26675317
86	0xbca4e1e0	-0.020127237
87	0xbe2536de	-0.16134211
88	0x3f64d921	0.8939381
89	0xbe1d2f08	-0.15349972
90	0xbe6b51e0	-0.22980452
91	0xbe70793e	-0.2348375
92	0x3d6ec6f0	0.05829519
93	0x3f1c8e86	0.61154974
94	0xbd12d612	-0.035848685
95	0xbeadcc2a	-0.33944827
96	0x3f141c5b	0.57855767
97	0x3ee18562	0.44047076
98	0xbe1e270d	-0.15444584
99	0xbe382de6	-0.17986259
100	0xbe167df8	-0.14696491
101	0x3ed0d1ee	0.40785164
102	0x3cc30a79	0.023808705
103	0x3d3ed368	0.04658833
104	0xbe1f0603	-0.15529637
105	0x3f09dd1f	0.5385303
106	0x3d8dfd10	0.069330335
107	0xbe6f9a7f	-0.2339878
108	0xbccdc530	-0.02511844
109	0x3ef4dead	0.47826138
110	0x3e188723	0.148953
111	0xbdc99a76	-0.09843914
112	0xbe8e74dc	-0.27823532
113	0xbf27122e	-0.65262115
114	0xbd31faca	-0.04345206
115	0xbd6967e2	-0.056983836
116	0x3ed0799d	0.40717784
117	0x3e957e23	0.29197797
118	0xbc088ca0	-0.008334309
119	0xbeca416b	-0.39503035
120	0xbeadb55e	-0.33927435
121	0x3e799a45	0.24375255
122	0x3ce9b1e3	0.028527206
123	0x3f1efbb5	0.62102824
124	0xbe80aaec	-0.25130403
125	0x3d4fa697	0.05069598
126	0xbe5269e0	-0.205482
127	0x3f2429cb	0.6412627
128	0xbe24b12f	-0.16083215
129	0xbec488a5	-0.38385502
130	0x3eb913a4	0.36147797
131	0xbe912b70	-0.28353453
132	0x3e7e1fda	0.24816838
133	0xbebab44f	-0.3646569
134	0x3d6b4d96	0.05744704
135	0x3e85e5ab	0.26151785
136	0xbea4ce16	-0.3218848
137	0x3e4910f2	0.1963537
138	0x3dd6ca4d	0.104878046
139	0x3eb18aeb	0.34676298
140	0xbeb0a562	-0.34501177
141	0x3e917dd0	0.284163
142	0xbe96c9bb	-0.29450783
143	0xbf2b2476	-0.6685251

gnn_base.gnn.embed_layer.lin1.0.bias f4 [16]
0	0xbc2cb9b2	-0.01054232
1	0x3b1ef187	0.0024252848
2	0x3c010067	0.007873631
3	0xbc928713	-0.017886674
4	0x3be3ee6b	0.006955912
5	0xbcf12dd2	-0.029440794
6	0xbc87453a	-0.016512502
7	0x3cb9bd1d	0.022673184
8	0x3d212fbf	0.039352175
9	0xbbb85f98	-0.00562663
10	0xbd025d40	-0.03182721
11	0x3bf1f071	0.007383399
12	0xbca6a497	-0.020342154
13	0x3ca23381	0.01979995
14	0x3cd5d8d1	0.026104363
15	0xbd007720	-0.031363606

gnn_base.gnn.embed_layer.lin1.2.weight f4 [16]
0	0x3f85d48f	1.0455493
1	0x3f711fbc	0.9418905
2	0x3f841117	1.0317715
3	0x3f803d5c	1.0018725
4	0x3f8339e4	1.0252042
5	0x3f7931be	0.97341526
6	0x3f7e13f8	0.9924922
7	0x3f8085eb	1.0040869
8	0x3f79d300	0.97587585
9	0x3f80b215	1.0054346
10	0x3f7f267d	0.99668103
11	0x3f72fa4c	0.9491317
12	0x3f7b0b29	0.98063904
13	0x3f81fffa	1.0156243
14	0x3f85be76	1.0448749
15	0x3f8194b8	1.012351

gnn_base.gnn.embed_layer.lin1.2.bias f4 [16]
0	0xbbb965d6	-0.0056578917
1	0x3d4ba68f	0.04971939
2	0x3c5389a6	0.012911236
3	0xbb982705	-0.0046433234
4	0x3af7143a	0.0018850632
5	0xbc4d1f4a	-0.012519667
6	0x3beb85c0	0.007187575
7	0x3cdf2c34	0.027242757
8	0x3cdcc2d2	0.026948366
9	0xb91a3153	-0.00014704959
10	0xbc82c672	-0.015963767
11	0x3d164ec8	0.036696225
12	0x3c37a2c4	0.01120824
13	0x3c11ded2	0.008903222
14	0x3bc61671	0.0060451557
15	0xbce6a18f	-0.028153209

gnn_base.gnn.embed_layer.lin_h.0.weight f4 [16, 16]
0	0x3f3ec63b	0.74521226
1	0x3ecc6b00	0.39925385
2	0x3eb08f89	0.3448451
3	0xbe38380a	-0.17990127
4	0x3d16f015	0.036850054
5	0x3d9337da	0.07188387
6	0x3d6e4db4	0.058179572
7	0x3ea77eef	0.3271403
8	0x3eb68673	0.35649452
9	0x3e3b354d	0.18282051
10	0x3d30b9f6	0.043146096
11	0xbdd4256c	-0.103587
12	0x3c04e30e	0.008110775
13	0x3f56197f	0.83632654
14	0x3ec229de	0.37922567
15	0xbccbb04c	-0.024864338
16	0x3e8b2c5a	0.27182275
17	0xbddeb1d1	-0.108737595
18	0xbed8d7b7	-0.42352077
19	0x3f13602a	0.5756861
20	0xbea30388	-0.31838632
21	0xbe05e4de	-0.13075587
22	0x3e9408c0	0.28912926
23	0xbe8ecc99	-0.2789047
24	0x3d08478a	0.03327135
25	0x3f01724a	0.50565016
26	0xbf152013	-0.58252066
27	0x3de27d89	0.110591
28	0xbf25345a	-0.6453301
29	0x3d368f33	0.04457016
30	0x3e59a81d	0.21255536
31	0xbe68cd8b	-0.22734658
32	0x3e951a9e	0.2912187
33	0xbf534708	-0.8253026
34	0x3d430924	0.04761614
35	0x3e443c86	0.19163713
36	0xbeda63b2	-0.42654186
37	0x3e6e3c67	0.23265229
38	0xbe4eb3ab	-0.20185725
39	0xbe8adccf	-0.2712159
40	0xbe45acf7	-0.19304262
41	0xbc4f3a02	-0.0126481075
42	0x3e6d6713	0.23183851
43	0xbf4ca97b	-0.79946107
44	0x3e758b36	0.23978886
45	0x3e702c53	0.23454408
46	0x3cee0f34	0.029059984
47	0x3d0404e9	0.032231245
48	0x3e151c61	0.14561607
49	0x3d1843d3	0.037174057
50	0x3ce62a5d	0.028096372
51	0x3f1997d4	0.59997296
52	0x3d630039	0.055420134
53	0xbeb11c84	-0.34592068
54	0x3c642cc4	0.013926689
55	0xbe7836d2	-0.24239662
56	0x3f067399	0.5252014
57	0x3e6f3dd8	0.23363435
58	0x3edd02af	0.4316611
59	0x3e5bd4f0	0.21467948
60	0x3e74a4db	0.23891012
61	0x3e56e1f3	0.2098463
62	0xbf595f94	-0.84911466
63	0x3e6507f6	0.22366318
64	0xbf1b6a3f	-0.60708994
65	0x3ca39e10	0.019972831
66	0x3e8f76fd	0.28020468
67	0x3e29a851	0.16568114
68	0xbeaca652	-0.33720642
69	0x3f29ac81	0.66278845
70	0xbe96b3c3	-0.29434022
71	0x3e84fd5a	0.25974542
72	0x3e959a09	0.29219082
73	0x3e76ab83	0.24088864
74	0xbf176e4b	-0.5915267
75	0x3d9c62dc	0.076360434
76	0x3e832af4	0.25618708
77	0x3ea204dc	0.31644332
78	0xbe98e1d8	-0.29859805
79	0xbe816fd2	-0.25280625
80	0xbea136c9	-0.3148711
81	0xbf08e92e	-0.53480804
82	0x3d2e810c	0.042603537
83	0xbe1f25ef	-0.15541814
84	0x3f04f99a	0.5194336
85	0x3d992bb5	0.074790396
86	0xbe64f434	-0.22358781
87	0xbedbbd2d	-0.42917767
88	0x3e40a7a9	0.18813957
89	0x3e35169c	0.17684406
90	0xbe03e7de	-0.12881419
91	0x3ec3f563	0.38273153
92	0xbe23d0cc	-0.15997618
93	0x3ed98e59	0.42491415
94	0x3ec20a6b	0.37898573
95	0x3f34f99d	0.7069338
96	0x3e88f23b	0.26747307
97	0x3ef3a604	0.47587597
98	0xbee6f892	-0.4511152
99	0x3e7ca0ae	0.2467067
100	0x3e724ef7	0.23662935
101	0x3f0a6e43	0.54074496
102	0xbf4d2720	-0.80137825
103	0xbe7a2e94	-0.2443183
104	0xbeae4732	-0.34038693
105	0xbe92b6cf	-0.28655097
106	0x3ddbb825	0.10728482
107	0x3c80ee88	0.01573874
108	0xbeaa082e	-0.33209366
109	0x3e29a5c8	0.16567147
110	0xbe49d463	-0.19709925
111	0x3d02d2f4	0.03193946
112	0xbcb11ee7	-0.02162118
113	0x3e40f1d9	0.18842258
114	0xbdd40119	-0.10351772
115	0xbd7e96fb	-0.062155705
116	0x3e8c48b9	0.27399233
117	0x3ebc36a7	0.36760446
118	0x3eeeebfb	0.46664414
119	0xbf5abb1f	-0.85441774
120	0x3f02dce2	0.5111829
121	0xbed5deda	-0.41771585
122	0xbdb2c79e	-0.0872948
123	0xbe2241ae	-0.15845367
124	0x3e9a92ab	0.30190024
125	0xbc459bd9	-0.012061083
126	0x3e1f6ebd	0.15569587
127	0xbee92c98	-0.45541835
128	0x3dd4a5a2	0.103831545
129	0xbea5f89a	-0.3241623
130	0x3f46dc16	0.77679574
131	0x3f17189e	0.5902194
132	0x3e88c222	0.26710612
133	0x3d3d24f1	0.04617781
134	0xbe83743c	-0.25674617
135	0x3dc93aa2	0.098256364
136	0x3dd9bd9d	0.10631869
137	0xbe9a947c	-0.3019141
138	0x3e70c573	0.23512821
139	0x3ea81f4b	0.32836375
140	0xbe9ee214	-0.3103186
141	0xbe8af658	-0.2714107
142	0x3e9f975a	0.3117016
143	0xbf002973	-0.50063246
144	0x3e9a80bc	0.30176342
145	0xbeda86e4	-0.42681038
146	0x3d85edb2	0.065394774
147	0xbf135a85	-0.57559997
148	0xbcb723e1	-0.022355976
149	0x3f12e97d	0.57387525
150	0x3ed20b87	0.4102442
151	0x3d7a867d	0.061163414
152	0x38aa1d95	8.111742e-05
153	0x3c665cb6	0.01406019
154	0x3e480f54	0.19537097
155	0x3ea6d678	0.32585502
156	0xbf135cc9	-0.57563454
157	0xbb2842e6	-0.002567464
158	0xbf2115c2	-0.62923825
159	0xbe07494c	-0.13211554
160	0xbdb204eb	-0.08692344
161	0x3e566f28	0.2094084
162	0x3881ee4a	6.195584e-05
163	0x3e803e4c	0.2504753
164	0xbf4fc78b	-0.81163853
165	0x3eb52200	0.35377502
166	0x3e7fc1fd	0.24976344
167	0x3d022c93	0.03178079
168	0x3e87ea3f	0.26545903
169	0xbef49dae	-0.4777655
170	0x3ea1b617	0.31584236
171	0x3e89fa5e	0.26948828
172	0xbe184fda	-0.14874211
173	0xbdea3a7d	-0.11436937
174	0x3ea9ce5c	0.33165252
175	0x3f265964	0.6498015
176	0x3db27f71	0.08715714
177	0xbc3314d0	-0.010930255
178	0x3e12df7b	0.14343064
179	0x3ec6237a	0.3869894
180	0x3e014a1c	0.12625927
181	0x3e174060	0.14770651
182	0x3f102794	0.5631039
183	0xbd1b9709	-0.037985835
184	0xbf671075	-0.90259486
185	0xbe442c0e	-0.1915743
186	0xbe1b6f66	-0.15179214
187	0x3edd190c	0.43183172
188	0x3eee2d41	0.465189
189	0x3ed91a87	0.4240305
190	0xbd85881f	-0.06520104
191	0x3d867a3f	0.06566285
192	0xbe0183da	-0.12647954
193	0xbed1be1f	-0.40965363
194	0xbf1b1879	-0.6058422
195	0x3e0e7d2d	0.13914938
196	0x3e1d22da	0.15345326
197	0xbe8afb06	-0.2714464
198	0x3d869670	0.065716624
199	0x3f12454a	0.57136977
200	0x3e9a6c76	0.30160874
201	0xbf4ad53a	-0.7923161
202	0xbe23a3b3	-0.15980415
203	0xbbeefa85	-0.007293048
204	0xbdc02e38	-0.093838155
205	0x3eeb1265	0.4591247
206	0xbd9e43c7	-0.07727771
207	0xbe36ce7f	-0.1785221
208	0xbe7708c9	-0.24124445
209	0x3e5d4d2a	0.21611467
210	0x3f11066c	0.56650424
211	0xbe6587b9	-0.22415055
212	0xbea91a43	-0.3302785
213	0xbf0b690f	-0.5445718
214	0xbda854f8	-0.082193315
215	0xbeecf923	-0.46283826
216	0xbe4d6d4c	-0.20061225
217	0xbeea4e2f	-0.45762774
218	0xbe8f09b9	-0.27937105
219	0xbe529639	-0.20565118
220	0xbf01f97c	-0.5077131
221	0x3ecf5ee1	0.40502074
222	0xbea6361c	-0.32463157
223	0x3c22b0ba	0.00992983
224	0x3f0b287d	0.54358655
225	0xbe6969ee	-0.22794315
226	0xbdb769c2	-0.089557186
227	0xbebb27e7	-0.3655388
228	0xbee9b74c	-0.45647657
229	0xbe820c78	-0.25400138
230	0xbefc84b2	-0.49319988
231	0xbe72e853	-0.23721437
232	0x3daa2d57	0.08309429
233	0xbe46dd42	-0.1942034
234	0xbeb1f3b4	-0.34756243
235	0x3f31c128	0.6943536
236	0x3efc1c72	0.49240452
237	0xbe1b7bfd	-0.15184017
238	0x3c380bb3	0.011233258
239	0xbe22f29d	-0.15912862
240	0xbef9f999	-0.4882324
241	0x3c6039fa	0.013685698
242	0xbe90ae68	-0.2825806
243	0xbe2abb24	-0.16672951
244	0xbea9e9ab	-0.33186087
245	0xbe0aa2d9	-0.13538684
246	0xbdb1206f	-0.08648764
247	0xbe2d74c8	-0.1693908
248	0xbe25b8ed	-0.16183825
249	0x3e8ff10f	0.281136
250	0x3f450c17	0.7697157
251	0x3eaece15	0.34141603
252	0xbd03b23e	-0.032152407
253	0x3ef3d4f9	0.47623423
254	0x3e8bb63f	0.2728748
255	0xbf1c442d	-0.6104153

gnn_base.gnn.embed_layer.lin_h.0.bias f4 [16]
0	0x00000000	0.0
1	0x00000000	0.0
2	0x00000000	0.0
3	0x00000000	0.0
4	0x00000000	0.0
5	0x00000000	0.0
6	0x00000000	0.0
7	0x00000000	0.0
8	0x00000000	0.0
9	0x00000000	0.0
10	0x00000000	0.0
11	0x00000000	0.0
12	0x00000000	0.0
13	0x00000000	0.0
14	0x00000000	0.0
15	0x00000000	0.0

gnn_base.gnn.embed_layer.lin_h.2.weight f4 [16]
0	0x3f85d48f	1.0455493
1	0x3f711fbc	0.9418905
2	0x3f841117	1.0317715
3	0x3f803d5c	1.0018725
4	0x3f8339e4	1.0252042
5	0x3f7931be	0.97341526
6	0x3f7e13f8	0.9924922
7	0x3f8085eb	1.0040869
8	0x3f79d300	0.97587585
9	0x3f80b215	1.0054346
10	0x3f7f267d	0.99668103
11	0x3f72fa4c	0.9491317
12	0x3f7b0b29	0.98063904
13	0x3f81fffa	1.0156243
14	0x3f85be76	1.0448749
15	0x3f8194b8	1.012351

gnn_base.gnn.embed_layer.lin_h.2.bias f4 [16]
0	0xbbb965d6	-0.0056578917
1	0x3d4ba68f	0.04971939
2	0x3c5389a6	0.012911236
3	0xbb982705	-0.0046433234
4	0x3af7143a	0.0018850632
5	0xbc4d1f4a	-0.012519667
6	0x3beb85c0	0.007187575
7	0x3cdf2c34	0.027242757
8	0x3cdcc2d2	0.026948366
9	0xb91a3153	-0.00014704959
10	0xbc82c672	-0.015963767
11	0x3d164ec8	0.036696225
12	0x3c37a2c4	0.01120824
13	0x3c11ded2	0.008903222
14	0x3bc61671	0.0060451557
15	0xbce6a18f	-0.028153209

gnn_base.gnn.embed_layer.lin2.0.0.weight f4 [16, 16]
0	0x3f4ad113	0.7922527
1	0x3eb4f615	0.35343996
2	0x3ec0b009	0.37634304
3	0xbe1e5b3c	-0.1546449
4	0x3be51db3	0.006992066
5	0x3d81feac	0.06347403
6	0x3cfc66d4	0.030810751
7	0x3eb641ba	0.3559702
8	0x3e947410	0.289948
9	0x3e3907db	0.18069403
10	0xbcb2cd76	-0.021826487
11	0xbe11dd0d	-0.1424448
12	0x3da249e6	0.07924251
13	0x3f52d8a7	0.82361835
14	0x3ed7a36a	0.42116863
15	0xbd63b1d7	-0.055589523
16	0x3e87622e	0.26442093
17	0xbd8f2d9c	-0.06991121
18	0xbed2a1fe	-0.41139215
19	0x3f15ac5f	0.5846614
20	0xbeba3619	-0.36369398
21	0xbdeebe85	-0.116574325
22	0x3e839961	0.25702956
23	0xbe965bd6	-0.2936694
24	0x3d439b39	0.047755454
25	0x3f039574	0.5139992
26	0xbf14435e	-0.57915294
27	0x3de52017	0.11187761
28	0xbf218838	-0.6309848
29	0x3d3205c0	0.043462515
30	0x3e51b1ac	0.20477933
31	0xbe6b39c7	-0.22971259
32	0x3e73ffef	0.238281
33	0xbf48b1f1	-0.7839652
34	0x3c262be6	0.010142302
35	0x3e2a766c	0.16646737
36	0xbed873db	-0.4227589
37	0x3e52b209	0.20575728
38	0xbe403874	-0.18771535
39	0xbe8f2ff6	-0.2796628
40	0xbe29509f	-0.16534661
41	0x3d0fca23	0.035104882
42	0x3e9720d9	0.29517248
43	0xbf41e49c	-0.75739455
44	0x3e398abb	0.18119328
45	0x3e857751	0.26067594
46	0xbcf0cd95	-0.029394904
47	0x3d7c3cb4	0.06158133
48	0x3e5c040f	0.21485923
49	0x3c670c54	0.01410206
50	0x3d83e610	0.06440365
51	0x3f1f36d0	0.6219301
52	0xbd575997	-0.052575674
53	0xbea1f6c7	-0.3163359
54	0xbdadb98f	-0.08482658
55	0xbe4c754b	-0.19966619
56	0x3ee2c3f3	0.44290122
57	0x3e903b4d	0.28170243
58	0x3ecf6678	0.40507865
59	0x3e53bdd8	0.20677888
60	0x3e97ed0d	0.29673043
61	0x3e66cb7a	0.22538558
62	0xbf63aa2e	-0.8893155
63	0x3e59feae	0.21288559
64	0xbf1ad1ed	-0.6047657
65	0xbc07eaa6	-0.008295691
66	0x3e99c7c6	0.30035228
67	0x3e37293e	0.17886826
68	0xbeb4ab4b	-0.35286936
69	0x3f329329	0.697558
70	0xbea815af	-0.32829043
71	0x3e7cdf2b	0.24694507
72	0x3e8b5075	0.2720982
73	0x3e5c56a3	0.21517424
74	0xbf17152d	-0.59016687
75	0x3d9c911f	0.07644867
76	0x3e895a3b	0.26826653
77	0x3eb89729	0.36052826
78	0xbe9464ce	-0.28983158
79	0xbe8a09a6	-0.26960486
80	0xbeaf1e8c	-0.34202993
81	0xbefea65e	-0.49736303
82	0x3beb8e7f	0.0071886177
83	0xbdea6adc	-0.11446163
84	0x3f05349a	0.5203339
85	0x3d1c8d97	0.038220968
86	0xbe53ab76	-0.20670876
87	0xbec73076	-0.3890416
88	0x3e61aa1f	0.22037552
89	0x3e558410	0.20851159
90	0xbddcc4ae	-0.10779701
91	0x3ead0675	0.3379399
92	0xbe352b21	-0.17692234
93	0x3ed40d38	0.41416335
94	0x3ec052f2	0.37563282
95	0x3f2be301	0.67143255
96	0x3e3ab47f	0.18232916
97	0x3ef8940b	0.48550448
98	0xbef9d35c	-0.48794067
99	0x3e499197	0.19684444
100	0x3e6ee34b	0.23328893
101	0x3f04b4be	0.5183829
102	0xbf49a9c9	-0.78774697
103	0xbe83cac9	-0.2574065
104	0xbeae670b	-0.3406299
105	0xbe90bd91	-0.28269628
106	0x3e42cb8e	0.19022962
107	0x3da04f39	0.078276105
108	0xbeb90044	-0.36133015
109	0x3e3fb48a	0.18721214
110	0xbe31fc8e	-0.17381498
111	0x3d02b673	0.03191228
112	0x3c69825d	0.014252272
113	0x3e3766fe	0.17910382
114	0xbe0cd1d2	-0.13751915
115	0xbc6f4171	-0.014603005
116	0x3e8f2bdd	0.27963153
117	0x3eaaf2ef	0.3338847
118	0x3ef24cab	0.47324118
119	0xbf629636	-0.88510454
120	0x3f0d8cfb	0.55293244
121	0xbedbec07	-0.42953512
122	0xbdc47f58	-0.095946014
123	0xbe42d997	-0.19028316
124	0x3ea12a77	0.3147771
125	0xbca33013	-0.019920385
126	0x3e46722f	0.19379495
127	0xbef16164	-0.47144616
128	0x3e0f5c2e	0.14000008
129	0xbeb59d1c	-0.35471427
130	0x3f4c9f2d	0.7993038
131	0x3f1837fa	0.59460413
132	0x3e902f0e	0.281609
133	0x3d4e0df8	0.05030629
134	0xbe7ebf1c	-0.2487759
135	0x3df65316	0.12027566
136	0x3d9f1572	0.07767762
137	0xbe9cebf2	-0.30648762
138	0x3e31cc5c	0.17363113
139	0x3e9cccd3	0.30625018
140	0xbe879435	-0.2648026
141	0xbea8aeca	-0.32945853
142	0x3e9bf326	0.30458945
143	0xbf034535	-0.51277477
144	0x3ea96680	0.33086014
145	0xbed927b8	-0.42413116
146	0x3d79a01e	0.060943715
147	0xbf0c82cf	-0.548871
148	0xba80b0d5	-0.0009818325
149	0x3f10161e	0.5628375
150	0x3ee596ec	0.44841707
151	0x3d9cbd5c	0.07653305
152	0x3ba8b6b5	0.0051487335
153	0x3cc988e8	0.024601415
154	0x3e5928d4	0.21206981
155	0x3e9e6bd9	0.30941656
156	0xbf19762e	-0.5994595
157	0xbd9a8af3	-0.07546034
158	0xbf2d380a	-0.67663634
159	0xbe074547	-0.13210021
160	0xbe1fdd87	-0.1561185
161	0x3e520d49	0.2051288
162	0x3d61765b	0.055044513
163	0x3e81ab16	0.2532584
164	0xbf582e05	-0.8444522
165	0x3ec1fb8d	0.3788723
166	0x3e58d477	0.21174799
167	0x3bacd2a7	0.005274135
168	0x3ea827f8	0.32842994
169	0xbf010213	-0.5039379
170	0x3ebc8f14	0.3682791
171	0x3e7af472	0.24507311
172	0xbe0c397a	-0.136938
173	0xbdc86e19	-0.097866245
174	0x3e9ae1e2	0.3025046
175	0x3f1be1f7	0.6089167
176	0x3de882e2	0.11353089
177	0xbcdcd43a	-0.026956666
178	0x3e03a907	0.12857448
179	0x3ec657e5	0.38738933
180	0x3dd80070	0.105469584
181	0x3e1ed026	0.1550909
182	0x3f0d36bc	0.55161643
183	0xbc4cddfc	-0.012504097
184	0xbf695c42	-0.911564
185	0xbe262b76	-0.16227517
186	0xbe1346be	-0.14382455
187	0x3eddaec2	0.43297392
188	0x3eed7c78	0.46384025
189	0x3ecba285	0.3977243
190	0xbda2d3fa	-0.079505876
191	0x3d9e5ddd	0.07732747
192	0xbe00c296	-0.12574229
193	0xbed7033e	-0.4199466
194	0xbf1bf866	-0.609259
195	0x3e28378b	0.16427438
196	0x3e280f40	0.16412067
197	0xbe8b29e2	-0.27180392
198	0x3d9ee441	0.0775838
199	0x3f12fbb9	0.5741535
200	0x3e9c5faf	0.3054175
201	0xbf491148	-0.78541994
202	0xbe1938b6	-0.1496304
203	0xbc012366	-0.007881975
204	0xbdb83d3f	-0.08996057
205	0x3ede41f9	0.43409708
206	0xbdc770bb	-0.097382985
207	0xbe46e68c	-0.19423884
208	0xbe6706ed	-0.22561236
209	0x3e5d403c	0.21606535
210	0x3f166f00	0.5876312
211	0xbe6117ae	-0.2198169
212	0xbea9cc41	-0.33163646
213	0xbf0b2b54	-0.5436299
214	0xbdb1eba7	-0.08687525
215	0xbee2cdf2	-0.4429775
216	0xbe679e9a	-0.22619095
217	0xbee17c87	-0.4404032
218	0xbe878269	-0.26466683
219	0xbe508189	-0.20361914
220	0xbefa3653	-0.4886957
221	0x3ec511f2	0.38490254
222	0xbeb18548	-0.34671998
223	0x3d132e66	0.03593292
224	0x3f114b02	0.5675508
225	0xbe8248bd	-0.2544612
226	0xbd981505	-0.07425884
227	0xbec1fce3	-0.3788825
228	0xbee56bdb	-0.4480885
229	0xbe5e9e93	-0.21740179
230	0xbefab026	-0.48962516
231	0xbe5f91f8	-0.21833026
232	0x3d458abc	0.04822801
233	0xbe599ebe	-0.21251962
234	0xbec3c59f	-0.3823671
235	0x3f2e87cc	0.6817596
236	0x3efbef27	0.49205896
237	0xbe0f87b6	-0.14016613
238	0x3b5f9318	0.0034114774
239	0xbe2627b7	-0.16226088
240	0xbf00dbb8	-0.50335264
241	0xbc8a4ea4	-0.016883202
242	0xbea13f26	-0.3149349
243	0xbe57050e	-0.20998022
244	0xbea51c38	-0.32248092
245	0xbe01cec9	-0.12676539
246	0xbde2ef01	-0.110807426
247	0xbe524ca9	-0.20537056
248	0xbe469dc8	-0.19396126
249	0x3e76264f	0.24038051
250	0x3f38e3c3	0.72222537
251	0x3eb73603	0.35783395
252	0x3cdb14a2	0.026743237
253	0x3f0463c3	0.51714724
254	0x3ebf79d2	0.3739763
255	0xbf23daa6	-0.64005506

gnn_base.gnn.embed_layer.lin2.0.0.bias f4 [16]
0	0x3d153f47	0.0364373
1	0xbbafce60	-0.005365178
2	0xbd140349	-0.036135945
3	0x3cb544b8	0.022127494
4	0x3cef9ad6	0.029248636
5	0xbce67c8d	-0.028135562
6	0xbcce71fa	-0.025200833
7	0x3c505a70	0.0127168745
8	0x3c415af1	0.011801467
9	0xbc1ec119	-0.009689593
10	0x3ccc41a1	0.024933638
11	0xbae0fdba	-0.001716546
12	0x3c228079	0.009918326
13	0xbbe01e74	-0.006839568
14	0x3c8bb725	0.017055104
15	0x3d379609	0.04482082

gnn_base.gnn.embed_layer.lin2.0.2.weight f4 [16]
0	0x3f81aaff	1.0130309
1	0x3f7dc775	0.9913247
2	0x3f769f03	0.9633638
3	0x3f78d85c	0.9720514
4	0x3f80f4cc	1.0074706
5	0x3f867a0b	1.0505995
6	0x3f83ddae	1.0302026
7	0x3f87a6a5	1.0597731
8	0x3f817e3f	1.0116652
9	0x3f8901ae	1.0703638
10	0x3f807f77	1.0038899
11	0x3f7c5cc8	0.9857907
12	0x3f7b9d00	0.9828644
13	0x3f7b0d6e	0.9806737
14	0x3f8241ab	1.017629
15	0x3f830aff	1.0237731

gnn_base.gnn.embed_layer.lin2.0.2.bias f4 [16]
0	0x3d5cc90c	0.05390267
1	0x3b8a1124	0.004213469
2	0xbd239c76	-0.039944135
3	0x3c4f9800	0.012670517
4	0x3ce2806f	0.027649133
5	0xbd1dabf1	-0.038494054
6	0xbc9d040b	-0.019166967
7	0x3ca9ce84	0.020728357
8	0x3c658acb	0.014010142
9	0xbc7b1eca	-0.015327165
10	0x3c959ada	0.018262316
11	0xbbf0aa5e	-0.007344528
12	0x3c9f682d	0.019458855
13	0x3d12d87e	0.035850994
14	0x3a474db0	0.0007602824
15	0x3d68117f	0.05665731

gnn_base.gnn.gnn1.lin_key.weight f4 [48, 16]
0	0x3d8287c4	0.063735515
1	0xbd987a8a	-0.074452475
2	0xbdb861dc	-0.0900304
3	0x3c46e8fd	0.01214051
4	0xbe4837ef	-0.19552587
5	0x3e436521	0.19081546
6	0x3e3603c6	0.17774877
7	0x3e550a52	0.20804718
8	0xbd70579a	-0.058677293
9	0x3dc3a6d2	0.09553303
10	0x3d170948	0.036874086
11	0xbe5bb393	-0.21455221
12	0x3de74b31	0.112936385
13	0xbe37d3e8	-0.1795193
14	0xbd783ee7	-0.060606863
15	0xbde47ced	-0.1115664
16	0xbe838b40	-0.25692177
17	0x3bc974aa	0.0061479406
18	0x3d9b6552	0.07587685
19	0xbc98b03d	-0.018638724
20	0x3e52b13d	0.20575424
21	0x39888efc	0.00026046473
22	0xbc138663	-0.009004208
23	0xbe1ef91c	-0.15524715
24	0xbe0d4939	-0.13797463
25	0xbcceaea5	-0.025229761
26	0xbdfe2b42	-0.124105945
27	0xbe1271bc	-0.14301199
28	0xbdb2c225	-0.087284364
29	0xbd88f7c4	-0.066878825
30	0xbdf894ca	-0.12137754
31	0x3e0a5ba1	0.13511516
32	0x3e7b94c3	0.24568467
33	0xbe08d4d0	-0.13362432
34	0x3de64f3a	0.1124558
35	0xbdb6da31	-0.089283355
36	0xbd82a314	-0.06378761
37	0x3e865762	0.26238543
38	0x3d4c91ea	0.049943842
39	0xbe71f4d6	-0.23628554
40	0x3e3bc9b9	0.1833867
41	0xbc6c733b	-0.01443177
42	0xbe13e41f	-0.1444249
43	0xbe00b616	-0.1256946
44	0x3e7f92b1	0.24958302
45	0x3b8b752e	0.0042559123
46	0x3e0dbc1e	0.13841292
47	0x3e3129b0	0.17301059
48	0xbe044016	-0.12915072
49	0x3d42f7df	0.04759967
50	0xbe64a588	-0.2232877
51	0x3e5a2379	0.21302594
52	0xbe15dfd1	-0.1463616
53	0x3e32dddf	0.1746745
54	0x3d20bb2d	0.039241005
55	0x3e640443	0.2226725
56	0xbe418989	-0.18900122
57	0xbca2558a	-0.019816179
58	0x3dca8925	0.098894395
59	0xbcee00e4	-0.029053159
60	0x3d8d131c	0.068884104
61	0x3e2437f6	0.16036972
62	0xbe821dca	-0.25413352
63	0xbcebfa93	-0.028806007
64	0x3df77358	0.12082547
65	0x3dda6dcd	0.10665474
66	0x3e8accda	0.27109414
67	0xbd4d5f20	-0.050139546
68	0x3dc222c9	0.09479291
69	0xbe1501f5	-0.14551528
70	0xbbc5979f	-0.0060300375
71	0xbe0185e1	-0.12648727
72	0x3e3305b6	0.17482647
73	0x3b68f35e	0.0035545449
74	0x3e0cd41a	0.13752785
75	0x3debf9ec	0.11522278
76	0x3c5e743e	0.013577519
77	0xbcd938f6	-0.026516419
78	0x3c744f24	0.014911447
79	0xbe4dcb52	-0.20097092
80	0x3d5add86	0.053433917
81	0xbd670d48	-0.05640915
82	0xbe537c96	-0.20652995
83	0x3e7a22f5	0.24427398
84	0xbcbb68ac	-0.02287706
85	0xbe0047ce	-0.12527391
86	0xbe5bfb52	-0.2148259
87	0xbe7070f0	-0.23480582
88	0x3d98d826	0.07463102
89	0xbded9a24	-0.116016656
90	0xbd8656e6	-0.06559543
91	0xbe1a436e	-0.15064785
92	0x3e684dfb	0.22685997
93	0xbdc03da0	-0.09386754
94	0x3e37e645	0.17958935
95	0x3e45406b	0.19262855
96	0xbe3a304a	-0.18182483
97	0x3e3a4268	0.18189394
98	0x3c2a6679	0.010400408
99	0x3e7deeb1	0.24798085
100	0x3e0bc8ad	0.1365077
101	0xbe810f3d	-0.25206938
102	0x3db381d3	0.087649964
103	0x3d65de2d	0.056120086
104	0xbdc3b48d	-0.09555922
105	0x3e4c314b	0.19940679
106	0xbe3824a4	-0.17982727
107	0xbd607df3	-0.054807615
108	0x3e4ef364	0.20210034
109	0x3e479814	0.19491607
110	0x3e2bc83e	0.16775605
111	0xbe2d2197	-0.16907345
112	0xbe501ce1	-0.20323516
113	0xbe4af34c	-0.19819373
114	0xbd7be91d	-0.06150161
115	0x3e0a69be	0.135169
116	0x3d6e5871	0.058189813
117	0xbc45c54a	-0.012070963
118	0x3e832a03	0.2561799
119	0x3e551395	0.20808251
120	0xbe195b90	-0.14976335
121	0xbde795be	-0.11307858
122	0xbb7052ac	-0.003667037
123	0x3d8792c5	0.06619791
124	0x3cf32df2	0.029684994
125	0x3dd6235a	0.104559615
126	0x3e38fa73	0.18064289
127	0xbc8a61c8	-0.016892329
128	0x3e19f5fb	0.1503524
129	0x3c499276	0.012302985
130	0x3e213cff	0.15745924
131	0x3de735d7	0.11289566
132	0xbd62897b	-0.055306893
133	0xbe07068d	-0.13186093
134	0x3e0834c5	0.1330138
135	0xbe3a6e05	-0.18206032
136	0x3e07d1c6	0.13263616
137	0xbe25485a	-0.16140881
138	0x3e5fbf93	0.21850424
139	0x3dbe2a64	0.09285429
140	0xbdc9d656	-0.098553345
141	0x3daee8f0	0.08540523
142	0xbc83ba98	-0.016080186
143	0x3d232048	0.039825708
144	0x3d828c21	0.06374384
145	0x3d07cb25	0.033152718
146	0xbc815902	-0.015789513
147	0xbcb55f03	-0.022140032
148	0xbd878680	-0.06617451
149	0x3e242df9	0.16033162
150	0x3d75c1be	0.05999922
151	0x3dec1382	0.11527158
152	0x3e2ead80	0.17058372
153	0xbe0cfa3b	-0.1376733
154	0xbdbe1b4b	-0.092825495
155	0xbcb69a14	-0.022290267
156	0x3e78bd83	0.24291043
157	0xbe2b766d	-0.16744395
158	0xbe4a7c33	-0.1977394
159	0xbd08e824	-0.03342451
160	0xbe5df935	-0.21677096
161	0xbe5155bd	-0.20442863
162	0x3e3c05cf	0.18361591
163	0x3c10321b	0.008801009
164	0xbe63fc34	-0.22264177
165	0xbd9a0bb0	-0.075217605
166	0xbd5c14e8	-0.053730875
167	0xbe00848c	-0.12550563
168	0xbe40bfaa	-0.18823114
169	0x3e2c9d74	0.16856939
170	0xbcf00b81	-0.02930236
171	0x3e61e767	0.22060929
172	0xbe3102e9	-0.17286266
173	0xbe12f9e5	-0.1435314
174	0xbc97dc1c	-0.018537574
175	0xbe0fa9d0	-0.14029622
176	0x3df79bf5	0.12090293
177	0x3e5afd21	0.21385624
178	0x3e2aa62c	0.16664952
179	0xbe2332e4	-0.15937382
180	0x3e1fcc68	0.15605319
181	0x3e39adcf	0.18132709
182	0xbdfec1d1	-0.12439311
183	0x3d6b9f1c	0.057524785
184	0x3e0536ce	0.13009188
185	0x3e40993b	0.18808453
186	0xbe7bf16d	-0.24603815
187	0x3e712a46	0.23551282
188	0xbd208eb7	-0.039198603
189	0x3e1aa558	0.15102136
190	0xbe5fd7ac	-0.21859616
191	0xbe3df102	-0.18548968
192	0xbe23a093	-0.15979223
193	0x3e0ce177	0.13757883
194	0xbd6f9fec	-0.058502123
195	0x3e25d44e	0.16194269
196	0x3dabdabf	0.08391332
197	0x3dadffe9	0.084960766
198	0xbc6d86df	-0.014497488
199	0xbdea9681	-0.114544876
200	0xbdeef9c9	-0.116687365
201	0xbe044c8f	-0.1291983
202	0x3e848e79	0.25889948
203	0x3b8da585	0.00432271
204	0xbe1f0e34	-0.15532762
205	0xbe882340	-0.26589394
206	0x3d6d6a26	0.05796256
207	0xbe8ca7fe	-0.27471918
208	0xbd4d53a1	-0.050128583
209	0x3e252dfe	0.16130826
210	0xbde6c853	-0.112686776
211	0x3e09376b	0.13400047
212	0xbdc9fce6	-0.0986269
213	0xbe4a6da7	-0.19768392
214	0xbe606df9	-0.21916951
215	0x3dc8a0d1	0.09796298
216	0xbe376044	-0.17907816
217	0x3e19492d	0.1496932
218	0x3d4570af	0.048203167
219	0x3e38b9b3	0.18039589
220	0xbe4b171e	-0.19833037
221	0x3e4a06b6	0.19729123
222	0xbe619b76	-0.2203196
223	0xbe60d6cf	-0.21956943
224	0x3e31e4f0	0.17372489
225	0xbc1f4ebb	-0.009723361
226	0xbe11522f	-0.14191507
227	0xbd3759f9	-0.04476354
228	0xbe4c73a1	-0.19965984
229	0xbe57ce88	-0.21074879
230	0xbd286823	-0.041114938
231	0x3e42b2a7	0.19013463
232	0x3da7b2ff	0.08188438
233	0x3d5e7e9c	0.054319963
234	0xbd960cfc	-0.07326695
235	0x3e75e3da	0.240127
236	0xbbfccb40	-0.007714659
237	0x3d1a0a72	0.037607618
238	0x3ce3f765	0.027827928
239	0x3cce29be	0.025166389
240	0x3d3a2bdd	0.045451988
241	0x3e4d6f78	0.20062053
242	0x3dafce73	0.08584299
243	0x3d0529c5	0.032510538
244	0x3d76973f	0.060202833
245	0xbd5a9f16	-0.053374372
246	0x3e18cfe2	0.14923051
247	0x3dcc4ea1	0.09975935
248	0x3e2d8d5b	0.16948454
249	0xbc6e7a0d	-0.014555466
250	0xbe66f26d	-0.22553416
251	0x3c91e9ee	0.017811742
252	0x3e079ebe	0.13244149
253	0x3e927007	0.28601095
254	0x3d027350	0.03184825
255	0x3e04b772	0.12960604

gnn_base.gnn.gnn1.lin_key.bias f4 [48]
0	0x3ddaad14	0.10677543
1	0x3d98e770	0.07466018
2	0x3e0bce5c	0.13652939
3	0xbe4db8c0	-0.20090008
4	0x3d9e434c	0.077276796
5	0xbe7274b2	-0.23677328
6	0xbe285cc4	-0.16441637
7	0xbdbecc84	-0.09316352
8	0xbcc78916	-0.02435736
9	0xbe7196a2	-0.23592618
10	0x3bcbe029	0.0062217903
11	0x3d237d00	0.03991413
12	0xbdcb3208	-0.09921652
13	0x3da611a0	0.081088305
14	0x3e5fb2e2	0.21845582
15	0xbd2eea08	-0.04270366
16	0xbe085712	-0.13314465
17	0xbe62c5a6	-0.2214571
18	0xbe3aee92	-0.1825507
19	0xbe0d9724	-0.13827187
20	0xbe3d4114	-0.18481857
21	0xbdc94b00	-0.09828758
22	0x3e0d06ca	0.13772121
23	0x3da03754	0.07823053
24	0x3e66bd2c	0.22533101
25	0x3e7e2b36	0.24821171
26	0xbdb85fec	-0.09002671
27	0xbdc8824c	-0.09790477
28	0x3d0c2113	0.03421123
29	0xbe4bd926	-0.19907054
30	0x3e0b3e46	0.13597974
31	0xbd384c20	-0.044994473
32	0xbe565b30	-0.20933223
33	0xbe41467a	-0.18874541
34	0xbe3066c8	-0.17226708
35	0x3d8cb96c	0.06871304
36	0x3e443df6	0.19164261
37	0x3e4ad112	0.19806316
38	0xbd8cfb54	-0.068838745
39	0xbe14b2fa	-0.14521399
40	0xbde33e54	-0.110958725
41	0xbe2ee0ea	-0.17077985
42	0xbd840134	-0.06445542
43	0xbe673454	-0.22578555
44	0x3e08d4d4	0.13362437
45	0xbe70f22c	-0.23529881
46	0xbe1f3ef8	-0.15551364
47	0x3e2bcd3a	0.16777506

gnn_base.gnn.gnn1.lin_query.weight f4 [48, 16]
0	0xbe2cecf1	-0.16887261
1	0x3d5b7c2f	0.053585228
2	0x3e36e5b7	0.17861067
3	0x3e7c1b9d	0.24619909
4	0x3e045ebc	0.12926763
5	0xbda69dea	-0.081355885
6	0x3e0ce98e	0.13760969
7	0xbc7ea1d0	-0.015541509
8	0xbd6a1b1c	-0.05715476
9	0x3c2148ef	0.009844049
10	0x3ce74d07	0.028234972
11	0x3e34513a	0.1760911
12	0x3de2c50e	0.110727414
13	0x3dac7406	0.08420567
14	0x3d72a635	0.05924054
15	0xbd5d39d3	-0.054010224
16	0x3d91015a	0.07080336
17	0x3d5193db	0.051166397
18	0xbe6f4e4a	-0.23369709
19	0x3d70b01d	0.058761705
20	0xbe0b6c7e	-0.13615605
21	0xbe1ce3cd	-0.15321274
22	0x3da9771b	0.08274671
23	0x3d660ce9	0.056164656
24	0x3d950e64	0.072781354
25	0xbdf11a30	-0.11772573
26	0x3dcf0bcd	0.10109673
27	0x3e84de49	0.2595084
28	0x3d128f68	0.035781294
29	0x3daa39be	0.08311795
30	0xbe685927	-0.22690259
31	0x3e107378	0.14106548
32	0x3da54477	0.08069699
33	0x3ddcf01b	0.10787984
34	0x3df618f1	0.12016476
35	0xbdb91619	-0.09037418
36	0xbcb7f318	-0.022454783
37	0x3e85e92b	0.26154456
38	0x3e45a36e	0.19300625
39	0xbe257d7a	-0.16161147
40	0x3e49a5d4	0.19692165
41	0x3e81d155	0.2535502
42	0x3d2f28b3	0.042763423
43	0xbe54d829	-0.20785584
44	0x3cb18ff9	0.021675097
45	0xbcdf7126	-0.027275633
46	0x3e1a5840	0.15072727
47	0xbe5677a8	-0.20944083
48	0x3d3bb047	0.045822408
49	0xbc451de1	-0.0120310495
50	0x3d4b3f18	0.049620718
51	0x3e537d77	0.2065333
52	0x3cda7f83	0.02667213
53	0xbe88a357	-0.26687118
54	0xbe32331e	-0.17402312
55	0xbde5daff	-0.11223411
56	0x3da1ef50	0.07906973
57	0x3db878e8	0.09007436
58	0xbdbd18a3	-0.09233215
59	0xbd837f3b	-0.06420752
60	0x3d7a90f9	0.061173413
61	0xbe93b3ff	-0.28848264
62	0x3e60ad7d	0.2194118
63	0xbdbf8e1b	-0.09353276
64	0x3e535fdd	0.20642038
65	0x3e545084	0.2073384
66	0x3c7d345e	0.01545438
67	0x3d9c7f9d	0.07641528
68	0xbe0028e1	-0.12515594
69	0x3e4bc67a	0.19899932
70	0x3e2213fc	0.15827936
71	0xbd208427	-0.03918853
72	0x3d800730	0.06251371
73	0xbc71a6b1	-0.014749215
74	0x3e629a63	0.22129206
75	0x3d8d781d	0.069076754
76	0x3e4dab38	0.20084846
77	0xbe523bdd	-0.20530649
78	0x3e6a530b	0.22883241
79	0x3df2c4ba	0.11853929
80	0x3dca7c0f	0.098869435
81	0x3d3f2a30	0.046671093
82	0x3e40fe13	0.18846922
83	0x3e4c9c06	0.19981393
84	0xbbb26e57	-0.0054452824
85	0xbe60cbb5	-0.21952708
86	0x3e639eb8	0.22228515
87	0xbc8976b7	-0.01678024
88	0xbde1f416	-0.11032884
89	0x3e0edbd2	0.13951042
90	0x3df4bcfe	0.1195011
91	0x3d1ba1bf	0.03799605
92	0xbcbc3723	-0.02297551
93	0xbdb33989	-0.08751208
94	0x3e6362a8	0.22205603
95	0x3e2d08b3	0.1689785
96	0x3e14a9e9	0.1451794
97	0x3e2cd5b7	0.168784
98	0xbe1b0ada	-0.15140858
99	0x3d783c86	0.060604595
100	0xbe3d3280	-0.18476295
101	0x3e0180b3	0.12646751
102	0xbe855077	-0.26037952
103	0xbe6c6cdd	-0.23088403
104	0xbe73a1c2	-0.23792174
105	0x3e246cee	0.16057178
106	0x3c521f57	0.012824855
107	0xbcc916ae	-0.024546947
108	0x3d6bb71e	0.05754768
109	0xbdfdd194	-0.123934895
110	0xbd8da063	-0.06915357
111	0xbe46c693	-0.19411688
112	0xbd678799	-0.0565258
113	0xbe20af78	-0.15691936
114	0xbc193813	-0.009351748
115	0x3e5b1975	0.2139643
116	0xbe5c7954	-0.21530658
117	0x3de65a04	0.11247638
118	0xbe301f69	-0.17199482
119	0xbe0f9e74	-0.14025289
120	0x3d25736e	0.040393285
121	0x3d4730ce	0.04863053
122	0x3e63e1d1	0.22254111
123	0x3ceab1ee	0.028649297
124	0xbdbec271	-0.093144305
125	0xbdd764bf	-0.10517263
126	0x3d182c7c	0.0371518
127	0xbe5eea98	-0.21769178
128	0xbe4a402a	-0.19751039
129	0xbdcb2cad	-0.099206306
130	0xbc596858	-0.013269506
131	0xbe413302	-0.18867114
132	0xbe315e05	-0.17321022
133	0x3e6ceb41	0.23136617
134	0x3e870c79	0.26376703
135	0xbd966d7d	-0.07345102
136	0xbe882a65	-0.26594844
137	0xbdb40915	-0.08790795
138	0x3e0994df	0.13435696
139	0x3dbb3fe8	0.091430485
140	0xbd44538f	-0.04793125
141	0xbe2cba08	-0.1686784
142	0xbdf72ab9	-0.120686956
143	0xbbafa4c8	-0.0053602196
144	0x3e40d8c1	0.18832685
145	0xbe04befa	-0.12963477
146	0x3e280452	0.16407898
147	0x3d0d383c	0.034477457
148	0xbc1dbded	-0.009627801
149	0xbe6e2ab4	-0.23258477
150	0x3e67320c	0.22577685
151	0xbd24c218	-0.040224165
152	0x3e2a36b5	0.16622432
153	0xbe13460f	-0.14382194
154	0xbe803c85	-0.25046173
155	0xbe726e9a	-0.23675004
156	0xbe0e31ba	-0.13886157
157	0xbdc2daea	-0.09514411
158	0xbca1763c	-0.019709699
159	0x3e5f3cbb	0.2180051
160	0xbe5f3853	-0.2179883
161	0x3e2f6f0a	0.17132202
162	0x3e379ea3	0.17931609
163	0x3ce01c31	0.027357193
164	0xbe35a9fe	-0.17740628
165	0x3cd5bbc7	0.026090516
166	0x3db3f27a	0.08786483
167	0x3dc92f5a	0.09823485
168	0xbdd3d19a	-0.10342713
169	0xbd63e12b	-0.05563466
170	0xbdbdeef8	-0.09274095
171	0xbe8ebdbf	-0.2787914
172	0x3dd23de4	0.10265711
173	0xbe12d720	-0.14339876
174	0xbe13cfbf	-0.14434718
175	0xbd0dba2b	-0.03460137
176	0x3e72eb58	0.23722589
177	0x3e63c3f4	0.22242719
178	0xbe3acba2	-0.18241742
179	0x3e5d5b0a	0.2161676
180	0x3e816991	0.25275853
181	0x3e5ade5f	0.2137389
182	0x3bd593fc	0.0065178853
183	0x3e4b324e	0.19843408
184	0x3dfad9b7	0.12248557
185	0xbe3b358a	-0.18282142
186	0xbe042806	-0.12905893
187	0xbd1f6119	-0.03891096
188	0xbe35cf26	-0.17754802
189	0xbd6a9996	-0.057275377
190	0x3e3cf937	0.18454443
191	0x3e1057a7	0.14095937
192	0x3e83c3ec	0.25735414
193	0x3cd75986	0.026287805
194	0xbe2591ad	-0.16168852
195	0x3e2d21fd	0.16907497
196	0x3c91fba7	0.017820193
197	0x3d889943	0.06669857
198	0xbd8633af	-0.065528266
199	0x3d668b3c	0.056285128
200	0xbe7ac967	-0.24490891
201	0x3e63cd9a	0.222464
202	0x3e85309f	0.26013657
203	0x3d97478d	0.07386694
204	0x3e4fa2dc	0.2027697
205	0x3e375052	0.17901734
206	0xbd8c5ffd	-0.06854246
207	0xbe5b6696	-0.21425852
208	0x3cf09bc9	0.02937116
209	0x3e1eb42f	0.15498422
210	0xbd356705	-0.0442877
211	0x3d130008	0.0358887
212	0x3e52196b	0.20517509
213	0x3db7768e	0.089581594
214	0x3e27eaef	0.16398214
215	0x3d1e8fef	0.038711485
216	0x3d334dba	0.043775298
217	0xbd72c5dd	-0.05927073
218	0xbd8dc877	-0.06923001
219	0xbe083c32	-0.13304213
220	0x3e3d0397	0.184584
221	0x3e642701	0.22280504
222	0x3dc304ae	0.09522377
223	0xbca8f1e8	-0.020623162
224	0xbdb7bc7a	-0.08971496
225	0xbe8215e8	-0.25407338
226	0xbc36a1b9	-0.011146956
227	0xbe436de1	-0.19084884
228	0xbe1d56d6	-0.15365157
229	0xbd8b2e88	-0.067959845
230	0xbdbf927b	-0.09354111
231	0x3dbcb46d	0.09214101
232	0xbe19e2dc	-0.15027946
233	0x3e19626a	0.14978948
234	0xbe89a1b3	-0.2688118
235	0xbe163f57	-0.146726
236	0xbdea5750	-0.11442435
237	0xbcf1a51c	-0.029497676
238	0x3ded0a71	0.11574257
239	0xbd82cfd1	-0.06387294
240	0x3d4c03eb	0.049808424
241	0xbd8b9928	-0.068163216
242	0xbdc167f5	-0.09443656
243	0xbd21d3b3	-0.039508533
244	0x3daae729	0.083448716
245	0xbe7cbab0	-0.2468059
246	0xbe4d1ac2	-0.20029739
247	0x3e551148	0.20807374
248	0x3e021ec5	0.1270705
249	0xbc8fa9c8	-0.017537013
250	0x38aad506	8.1459104e-05
251	0x3b73b25b	0.0037185166
252	0x3d7eed4f	0.062238034
253	0xbe38800a	-0.18017593
254	0xbd9d4435	-0.07679025
255	0xbe5b86c3	-0.21438126

gnn_base.gnn.gnn1.lin_query.bias f4 [48]
0	0x3de32fc8	0.11093098
1	0x3d84e2f0	0.064885974
2	0xbe6a7802	-0.22897342
3	0x3e05f61c	0.13082165
4	0xbde069ad	-0.10957656
5	0x3e8e5e5f	0.27806374
6	0x3e791459	0.24324168
7	0x3d9ddca7	0.07708102
8	0x3e1c5ec0	0.1527052
9	0x3dc77f2d	0.09741054
10	0x3e3e2cc5	0.18571766
11	0xbd23d6e6	-0.039999865
12	0x3c18dd71	0.0093301395
13	0xbd186c12	-0.03721244
14	0x3d1ea85a	0.03873477
15	0xbd8b0cac	-0.06789526
16	0xbd16a2af	-0.03677624
17	0x3e1c7126	0.15277538
18	0x3d165c35	0.03670903
19	0xbd92eca0	-0.07174039
20	0xbe94c0d7	-0.29053375
21	0x3dae6904	0.08516124
22	0xbe8ca2de	-0.27468008
23	0xbd5e4772	-0.054267354
24	0xbe28d6bf	-0.16488169
25	0x3e288fbf	0.16461085
26	0x3e4f1432	0.20222548
27	0xbe6e7815	-0.23287995
28	0xbe7692a0	-0.2407937
29	0xbda028e4	-0.07820299
30	0x3dbf9ce2	0.09356095
31	0xbe25d5f2	-0.16194895
32	0xbccd10e4	-0.025032468
33	0xbde796f2	-0.113080874
34	0x3cbd194f	0.023083357
35	0xbd9a4d87	-0.075343184
36	0x3da30d23	0.0796149
37	0xbe5aeb5c	-0.21378845
38	0x3d3b3440	0.045704126
39	0x3e8a06c7	0.26958296
40	0xbdfd5dba	-0.123713925
41	0x3e4d857c	0.20070451
42	0x3de84be2	0.113425985
43	0xbde6f15d	-0.11276505
44	0x3e05441e	0.13014266
45	0xbe30dbb7	-0.17271315
46	0x3cf966b4	0.03044448
47	0x3d37c9b2	0.044870086

gnn_base.gnn.gnn1.lin_value.weight f4 [48, 16]
0	0x3e4c2484	0.19935805
1	0xbdf6aa4a	-0.12044199
2	0xbe27443b	-0.16334622
3	0xbdfb582c	-0.12272677
4	0xbe8bc401	-0.27297977
5	0x3d6591bf	0.056047197
6	0xbe52290c	-0.2052347
7	0xbd23a966	-0.039956473
8	0xbe003f1d	-0.12524076
9	0x3c267f49	0.010162183
10	0x3db90354	0.09033838
11	0xbe685877	-0.22689997
12	0x3bc20c0c	0.0059218463
13	0xbcd6b1fb	-0.026207915
14	0xbe1bc0ac	-0.15210217
15	0x3da97dbc	0.08275935
16	0x3e0f6b89	0.14005865
17	0xbe45a2e2	-0.19300416
18	0x3e5bd588	0.21468174
19	0x3e225ac9	0.15854944
20	0xbdb51f9e	-0.08843921
21	0x3a50c41e	0.0007963794
22	0x3c4d594b	0.012533496
23	0xbd210c9b	-0.039318662
24	0xbe261966	-0.16220626
25	0x3e47b633	0.19503097
26	0x3de4dc32	0.111748114
27	0xbe41286a	-0.18863073
28	0xbe473ff8	-0.19457996
29	0x3e751763	0.23934703
30	0x3d3e14ed	0.046406675
31	0xbd198316	-0.03747853
32	0x3e10854a	0.14113346
33	0x3db05589	0.086100645
34	0x3d708f76	0.058730565
35	0x3e57672b	0.21035449
36	0xbc5e9c2d	-0.01358704
37	0x3e9f482e	0.31109756
38	0xbde06d27	-0.10958319
39	0xbe38fb1a	-0.18064538
40	0xbb88bce2	-0.004172907
41	0x3c92049e	0.017824467
42	0x3e3abea6	0.18236789
43	0xbd801f43	-0.06255963
44	0x3d0bd7ee	0.034141473
45	0xbbcaa92f	-0.006184719
46	0x3de890c0	0.11355734
47	0xbbf1487d	-0.0073633776
48	0x3d2bc187	0.04193261
49	0x3e476cc0	0.19475079
50	0x3e938090	0.28809023
51	0x3e6db518	0.23213613
52	0xbe9307e6	-0.28716964
53	0xbe41c8ca	-0.18924251
54	0xbd5ab7ee	-0.053398065
55	0xbd82f486	-0.063942954
56	0x3e1be116	0.15222582
57	0x3e1db204	0.15399939
58	0xbd2bd490	-0.041950762
59	0x3d6ae84f	0.057350453
60	0x3cf7c34e	0.030244496
61	0x3e2ed8a1	0.17074825
62	0x3e589542	0.21150687
63	0xbe4f4b0e	-0.20243475
64	0xbd8585d3	-0.065196656
65	0x3cc5a56b	0.024126729
66	0x3c095b9c	0.008383658
67	0xbe52406b	-0.20532386
68	0xbe8d5331	-0.27602533
69	0xbc2c4bd9	-0.01051613
70	0xbe186ae3	-0.14884524
71	0xbda1738d	-0.07883368
72	0x3d208524	0.039189473
73	0x3e4c1995	0.19931634
74	0x3e3da780	0.18520927
75	0x3e00d753	0.1258214
76	0xbe4338fe	-0.1906471
77	0x3e03b333	0.12861328
78	0x3e61a707	0.22036372
79	0x3e0824f1	0.13295342
80	0xbd81c7a9	-0.0633691
81	0xbb8b6cfa	-0.0042549344
82	0xbd92c5d8	-0.07166642
83	0xbd656333	-0.056002807
84	0x3c0c6626	0.008569276
85	0xbdf017c3	-0.11723282
86	0xbe933ba7	-0.2875645
87	0x3e0e484e	0.1389477
88	0xbe3c1427	-0.18367063
89	0xbe82b4cb	-0.2552856
90	0x3d9c4836	0.07630961
91	0xbe5a4bfd	-0.2131805
92	0x3e72ba86	0.23703966
93	0x3e2aab54	0.16666919
94	0xbd84ba36	-0.064808294
95	0xbc9da476	-0.01924346
96	0xbe1d1c05	-0.1534272
97	0xbc6fef8a	-0.014644513
98	0x3da0bb65	0.07848243
99	0xbe161afb	-0.1465873
100	0x3dbb71f3	0.091525935
101	0xbc1089cc	-0.008821916
102	0xbdc91a44	-0.09819463
103	0x3ccf5441	0.02530873
104	0xbe5cd03f	-0.21563815
105	0xbe5ea149	-0.21741213
106	0x3c8518b6	0.016247135
107	0x3e65cc72	0.22441271
108	0xbe006d25	-0.12541635
109	0x3e196a55	0.14981969
110	0x3d03a1c8	0.03213671
111	0xbdf1823e	-0.1179242
112	0xbd04924a	-0.032366075
113	0x3e1f5a50	0.15561795
114	0x3d102727	0.03519359
115	0x3e7ab4c1	0.24483015
116	0xbc5b575e	-0.013387529
117	0xbe477b31	-0.19480588
118	0x3e602a5e	0.21891162
119	0xbd8f5181	-0.069979675
120	0x3e359c00	0.1773529
121	0x3e16398d	0.14670391
122	0x3d0fd4fc	0.035115227
123	0xbe3c9c26	-0.18418941
124	0xbe825bf2	-0.25460774
125	0x3da1b2b3	0.07895412
126	0x3dae59e0	0.08513236
127	0x3daf78c3	0.08567955
128	0xbe43fdda	-0.19139805
129	0xbd20c7cd	-0.039253045
130	0x3e5994ab	0.21248119
131	0x3db6107d	0.08889864
132	0x3e46cb05	0.19413383
133	0x3e7a22f5	0.24427398
134	0xbd2aa69d	-0.0416628
135	0xbe3212a9	-0.17389931
136	0xbe35a17c	-0.17737383
137	0x3da3659a	0.07978363
138	0xbd8d8e98	-0.06911963
139	0x3b9e27b9	0.0048265127
140	0x3d437221	0.047716264
141	0x3e4c21fb	0.19934838
142	0x3e10d675	0.14144309
143	0x3e08a72c	0.13345021
144	0x3d2d343d	0.042286146
145	0x3df920d6	0.12164466
146	0xbdf8f481	-0.121560104
147	0xbe0ab6ac	-0.13546246
148	0xbd861be5	-0.06548289
149	0xbe0a2904	-0.13492209
150	0x3e62eaa0	0.22159815
151	0xbc2e5607	-0.010640628
152	0x3d67627a	0.0564904
153	0xbd0f6c00	-0.035015106
154	0xbc44fb63	-0.012022826
155	0xbde4950b	-0.1116124
156	0x3d105b41	0.035243277
157	0xbe6e1c91	-0.23253085
158	0xbdc126a0	-0.09431195
159	0x3e72305e	0.23651263
160	0xbe5a25d2	-0.2130349
161	0x3d270bd4	0.040782765
162	0x3dac66c9	0.08418042
163	0xbe480fe3	-0.1953731
164	0x3d4c8903	0.049935352
165	0x3d4bf70e	0.049796157
166	0x3e2be0eb	0.16785018
167	0x3df48a8d	0.11940489
168	0x3e25709d	0.1615624
169	0xbdd0f40b	-0.102027975
170	0x3e0cd5ad	0.13753386
171	0x3d153a8b	0.036432784
172	0xbe2bbf7e	-0.16772267
173	0xbdbc2dbe	-0.09188412
174	0xbe15c31f	-0.14625214
175	0x3e905cdc	0.28195846
176	0x3e015ba1	0.1263261
177	0xbdf4713d	-0.11935661
178	0xbd6c3e37	-0.05767652
179	0x3d89afe4	0.067230016
180	0xbe63706f	-0.22210859
181	0x3bb35095	0.0054722526
182	0x3df0a4f5	0.11750213
183	0x3d9e960c	0.07743463
184	0xbcf2d3b9	-0.029641973
185	0x3e22fb19	0.15916099
186	0x3dd234a6	0.10263948
187	0xbe73ecf1	-0.23820855
188	0x3e2440a6	0.16040286
189	0xbe3ae0f3	-0.18249874
190	0x3dd6de3c	0.104916066
191	0x3e6f552f	0.23372339
192	0x3d1dc7ac	0.0385205
193	0xbd7ad9ac	-0.061242744
194	0xbdad5725	-0.08463887
195	0xbe01b7d5	-0.12667783
196	0xbd0a97b1	-0.03383607
197	0xbe18b6ac	-0.14913434
198	0x3e6bb07b	0.2301654
199	0xbdcf4b42	-0.10121776
200	0x3deeb59d	0.11655734
201	0xbe7f96f9	-0.24959935
202	0x3de1ef0c	0.11031923
203	0x3e5c641b	0.21522562
204	0xbe43ee4d	-0.19133873
205	0xbdf8f6ef	-0.12156474
206	0x3e0895f1	0.13338448
207	0xbe8597c8	-0.26092362
208	0xbe2a5417	-0.1663364
209	0x3dfa590e	0.12224017
210	0x3e59fb59	0.21287288
211	0xbdaf1065	-0.08548049
212	0xbd4b16e8	-0.049582392
213	0xbe6fde29	-0.23424591
214	0xbe4eb02f	-0.20184396
215	0x3e5b477d	0.2141399
216	0x3e31d0f4	0.17364866
217	0xbd84b18f	-0.06479179
218	0xbd70857f	-0.05872106
219	0x3bce72d4	0.0063003097
220	0x3e0b493b	0.13602154
221	0xbe792b13	-0.24332838
222	0xbdc5a032	-0.096496955
223	0xbdbd48fe	-0.09242438
224	0xbdc46da2	-0.09591223
225	0x3ca28b74	0.019841887
226	0x3e1fde5e	0.1561217
227	0x3dc62e9c	0.09676859
228	0xbe96ffff	-0.29492185
229	0x3e541357	0.20710503
230	0x3e5c681a	0.21524087
231	0x3ddf19af	0.10893571
232	0x3ddd2b9b	0.10799333
233	0x3dc65465	0.09684066
234	0x3e699458	0.22810495
235	0xbe8d6139	-0.27613238
236	0xbe15305f	-0.14569233
237	0x3955a8aa	0.00020376095
238	0xbd4c6ca3	-0.04990829
239	0xbe07903e	-0.13238618
240	0xbe491c2b	-0.19639651
241	0xbe82317b	-0.25428376
242	0xbd28446e	-0.041080885
243	0x3e094a94	0.13407356
244	0x3e249a01	0.16074373
245	0x3d8779c7	0.06615024
246	0xbe2ba765	-0.16763075
247	0xbde7534c	-0.112951845
248	0x3d2032cf	0.039110955
249	0xbe4ebcdb	-0.2018923
250	0xbcff3c3b	-0.03115665
251	0x3d63ef97	0.055648413
252	0x3e5867ec	0.21133393
253	0xbc3ff2fb	-0.011715646
254	0x3e6e7a5a	0.23288861
255	0x3d6553f6	0.055988275

gnn_base.gnn.gnn1.lin_value.bias f4 [48]
0	0xbe77142a	-0.24128786
1	0x3e2b7056	0.16742072
2	0xbe927c64	-0.28610528
3	0xbe637b20	-0.22214937
4	0xbd08236c	-0.033236906
5	0xbe48b757	-0.19601189
6	0x3cd285cd	0.025698567
7	0x3e495781	0.19662286
8	0xbdcd9a8d	-0.10039244
9	0xbe334ba7	-0.17509328
10	0x3c3457ac	0.011007231
11	0xbe2c5ac0	-0.16831493
12	0x3e366ff1	0.1781614
13	0xb9ac1d9e	-0.00032828463
14	0x3e3818e8	0.17978251
15	0x3e06e09e	0.13171622
16	0x3d839103	0.06424143
17	0x3dc83602	0.09775926
18	0x3e443064	0.19159085
19	0xbe07f832	-0.13278273
20	0xbd6d6b8a	-0.057963885
21	0x3e710312	0.23536327
22	0x3e06f87c	0.13180727
23	0x3e655d51	0.22398879
24	0x3cdf1722	0.02723271
25	0x3dd70f04	0.10500911
26	0x3e3f12ae	0.1865947
27	0x3e4acf7e	0.19805714
28	0x3e153aca	0.14573207
29	0xbe6e1aee	-0.2325246
30	0x3cf944be	0.030428287
31	0xbe14e9cf	-0.14542316
32	0x3be949e6	0.007119405
33	0x3e19fd16	0.15037951
34	0xbdfe55ba	-0.12418695
35	0x3e76499f	0.24051522
36	0x3ea28fe7	0.31750414
37	0x3deba9bb	0.11506983
38	0xbe0f21c5	-0.13977726
39	0xb8326334	-4.2530897e-05
40	0x3e276859	0.16348399
41	0x3d734d63	0.059399974
42	0x3e802837	0.25030681
43	0x3d5a1ec3	0.053251993
44	0xbddb9abe	-0.10722874
45	0x3e01b4ae	0.1266658
46	0x3d2714cd	0.04079132
47	0x3e279eb8	0.1636914

gnn_base.gnn.gnn1.lin_edge.weight f4 [48, 1]
0	0xbf21572b	-0.6302363
1	0xbf3a93b5	-0.72881633
2	0x3f1f074b	0.62120503
3	0x3ec09f70	0.3762164
4	0x3f535e2f	0.8256559
5	0xbf49dc24	-0.7885153
6	0xbedceef7	-0.43151066
7	0xbd371169	-0.044694338
8	0xbf132c8a	-0.57489836
9	0x3f28bdbe	0.65914524
10	0x3f54af90	0.8308039
11	0x3f67a925	0.9049247
12	0x3e109d0a	0.14122406
13	0xbf70e1e6	-0.94094694
14	0xbece9799	-0.40350035
15	0x3e8bc656	0.27299756
16	0xbea4c162	-0.3217879
17	0x3ee99ce4	0.4562751
18	0xbea131a1	-0.31483176
19	0x3f584caa	0.8449198
20	0x3f7412fc	0.9534147
21	0x3f82b33a	1.0210946
22	0x3ebec753	0.37261447
23	0xbf2f1932	-0.6839782
24	0xbe92e28a	-0.2868846
25	0xbf039360	-0.5139675
26	0x3ee8e5e0	0.4548788
27	0xbd809e71	-0.0628022
28	0x3ed0bbf6	0.40768403
29	0x3e84c5bf	0.25932118
30	0xbea1713d	-0.31531706
31	0x3e378dcd	0.17925186
32	0xbe409388	-0.18806279
33	0x3e5391de	0.20661113
34	0xbf341d71	-0.70357424
35	0x3d14e584	0.036351696
36	0x3f58fc15	0.84759647
37	0x3f0e4a94	0.5558255
38	0xbf137599	-0.57601315
39	0x3f534fce	0.8254365
40	0xbed5fde8	-0.41795278
41	0x3f6c8e5a	0.9240471
42	0xbe61d2ab	-0.2205302
43	0x3f7f6bf2	0.99774086
44	0x3f1a02e0	0.60160637
45	0xbdd1546f	-0.102211826
46	0x3f251104	0.6447909
47	0x3f64c5df	0.8936443
