onpolicy/results/GraphMPE/navigation_graph/rmappo/crap_bad/run11/models/critic.pt (torch, 199331 bytes, 61 tensors)

gnn_base.gnn.embed_layer.entity_embed.weight f4 [3, 2]
00000000: ae35 913f d35a 2a3f 267a 1a3f edf8 59bf
00000010: 0a01 6fbf ab43 afbd
1.1344507 0.66544837 0.60342634 -0.85145456 -0.9336096 -0.085578285

gnn_base.gnn.embed_layer.lin1.0.weight f4 [16, 9]
00000000: a33b 8dbd 4bac 303f 4122 b4be faa2 55bd
00000010: e477 bc3e c061 e83e 0e56 a2be aa8f d3bd
00000020: c2da f7bd db60 983e aadb 833e 75eb a93e
00000030: a460 b2be 630c 0abf 4b93 ee3e 1f46 073e
00000040: 2789 fabe 631f 58be 61b7 7c3e 4b56 c6be
00000050: 4a70 a1be d05a 9fbe 3b39 3f3f 6e9c b8be
00000060: 2f46 12be 0acb 553e ea11 99be 3ec5 48bf
00000070: 36bd 02bd 917a 3ebe 3d5a 7fbe 8ba7 243e
00000080: 26d4 0e3f 5d6c 81bd 2a18 ed3d 84a7 b2be
00000090: 4c50 1dbf 6695 593e 63d8 263e 8c56 e83e
000000a0: 43b5 dabe a41a 1f3c 0cf7 67be 491e 153f
000000b0: 94f2 6bbe 503c b0be fe53 8b3e b799 513e
000000c0: c74e 343f 7d7b c63e 4df2 86bd 5fed 9f3e
000000d0: d2f3 54bd 4052 073e 8251 0f3d 88d8 debe
000000e0: 41d7 213f 2fcc f0bc 70fa e33c c5fc e33e
000000f0: 71e2 bc3e e6f7 2f3e 252b 7cbe e86b 303e
00000100: 216e 8a3e e432 de3e 6d1c cd3c 0111 053e
00000110: 0bf6 9a3d a27a 9abe f9ff d43e 99c1 d63d
00000120: 971f ffbd eb3a b9bd 4372 883e 1f92 913e
00000130: 078f 67be a6c4 00bf 3127 48bf c89a f3be
00000140: 1cb9 87be 5e41 d9be 7000 343e 5e62 d03e
00000150: 8bf0 74bf d68c 94bd 391e b7be de36 543c
00000160: 80e6 0dbd 98a2 8c3e 50ae c4bd f8d8 90be
00000170: 4077 15bf 150a bfbd 4bb9 10bf b0db 953d
00000180: 29aa efbe ea59 9d3e 129b c93e 47b0 0cbf
00000190: eb35 e3bd e949 dabd 4c51 223b a266 513e
000001a0: ccd6 883d 5ee4 323e 03f2 35bf 7d50 0c3f
000001b0: a38e 093e 9a39 98be 1596 bd3e d25f c93d
000001c0: 1dcd b03e ccca 1e3f b025 20bf 9594 853d
000001d0: d227 203f 2867 aa3e 3b49 123f f6cd e5be
000001e0: b155 b63c f620 91bd 0bae 1e3e 8247 58be
000001f0: d0a3 ccbc f4ff b7bd c5ad 9eba e3e2 cbbe
00000200: db0a 9bbe e636 d93e aab9 adbe e6db 633e
00000210: dcf5 893e bf1d 53be 5d78 12be b27d 0cbe
00000220: 7ef5 9abe f3b5 9f3c 9416 a53d eedf 3b3e
00000230: 42d8 623e 47ac dbbe f60d b5be 4662 31bf
-0.068961404 0.690129 -0.35182384 -0.05215738 0.3681022 0.45387077 -0.3170628 -0.10330136
-0.121022716 0.29761395 0.25753528 0.33187452 -0.34839356 -0.5392515 0.4659675 0.13210343
-0.48932764 -0.21105723 0.24679329 -0.3873771 -0.31530982 -0.31123972 0.746967 -0.36056846
-0.14284585 0.20878235 -0.2989648 -0.7842597 -0.031918727 -0.18601443 -0.24936767 0.16079538
0.5579246 -0.06319497 0.115768746 -0.3489343 -0.6145065 0.21248397 0.16293482 0.4537853
-0.42716417 0.009710941 -0.22652835 0.58249336 -0.23041755 -0.34421015 0.27212518 0.20468794
0.70432705 0.3876609 -0.06589184 0.31235787 -0.051990338 0.1321497 0.03498984 -0.43524575
0.63219076 -0.029394237 0.027829379 0.44528785 0.3689151 0.1718441 -0.24625833 0.17228663
0.27037147 0.433982 0.025037969 0.12994768 0.0756646 -0.30171686 0.41601542 0.104861446
-0.12457197 -0.09044441 0.26649675 0.28431794 -0.22613154 -0.5030006 -0.781848 -0.47579026
-0.26508415 -0.42432684 0.17578292 0.40700048 -0.9567954 -0.07253425 -0.35765246 0.0129525345
-0.03464365 0.274678 -0.0960356 -0.28290534 -0.58385086 -0.09328095 -0.56532735 0.07317293
-0.4680951 0.3073266 0.39376122 -0.5495648 -0.110942684 -0.106586285 0.0024767695 0.20449308
0.06681594 0.17469928 -0.71072406 0.54810315 0.13433318 -0.29731447 0.37028566 0.098327294
0.3453149 0.62028193 -0.62557507 0.065224804 0.6256076 0.33281827 0.5714299 -0.44883698
0.022257658 -0.07086365 0.1549608 -0.21121028 -0.024980456 -0.08984366 -0.0012106231 -0.39821538
-0.3028172 0.42424697 -0.33930713 0.22251853 0.26945388 -0.20616816 -0.14303727 -0.13719824
-0.3026542 0.01949594 0.08060947 0.18347141 0.22152808 -0.42904875 -0.35362214 -0.6929058

gnn_base.gnn.embed_layer.lin1.0.bias f4 [16]
00000000: 3ea6 093d 2e89 8f3c c5da 013d 4e44 3ebc
00000010: dabc 753c bde6 13bd 2418 d73c 7746 6ebb
00000020: b149 2fbd 2a69 ab3d 8265 47bd 07a9 e2bc
00000030: 8dfa 8ebc a873 04bd 9b83 09bb 3dbb 6cbb
0.033605807 0.017521467 0.031702776 -0.011612965 0.014998639 -0.03610872 0.026256628 -0.0036357918
-0.042794887 0.08369668 -0.04868079 -0.02766849 -0.017453456 -0.03233686 -0.0020982984 -0.0036122345

gnn_base.gnn.embed_layer.lin1.2.weight f4 [16]
00000000: cb57 7a3f 0842 743f b469 7d3f cef9 803f
00000010: 564f 823f dfab 7d3f bc73 7c3f b0b1 803f
00000020: 0ff0 7f3f f5c0 873f 1cba 823f 6774 753f
00000030: 1c0c 833f a8a1 823f c232 803f 7a09 7a3f
0.9779021 0.95413256 0.98989415 1.0076234 1.0180461 0.9909038 0.98614097 1.0054226
0.99975675 1.0605761 1.0213046 0.9588074 1.023807 1.0205584 1.001549 0.9767071

gnn_base.gnn.embed_layer.lin1.2.bias f4 [16]
00000000: 215d 243d 6139 043d 0d3f f43b 2012 e5bc
00000010: 9f7b 1ebc 4082 25bd fad3 473c da86 bdbc
00000020: 6550 22bd d0a0 553d 2c79 60bd e38a babc
00000030: 889a ffbc d8d7 07bd 2216 fd3a 1c4b e53c
0.040127877 0.032281283 0.0074538053 -0.027962744 -0.009673028 -0.04040742 0.012196535 -0.023135591
-0.03962745 0.052155316 -0.05480306 -0.022771304 -0.031201616 -0.03316483 0.0019308964 0.027989917

gnn_base.gnn.embed_layer.lin_h.0.weight f4 [16, 16]
00000000: 267d f63c d475 dc3e dd2c 9fbc 0220 bcbe
00000010: 9094 5f3e cdc1 7bbe be38 1a3e d4b8 8e3e
00000020: 84d7 13bf 1077 f13e ca26 01bf 95c5 2a3e
00000030: 22bb 5cbe a128 8cbe c0cd 0fbf 44db e13e
00000040: ba61 1dbe 5cfa 4c3e 4f8d e7be b321 04be
00000050: ad62 8ebe 422a 00be e454 4b3d 684f 1d3f
00000060: 8df1 f53c aafc b0be 1f59 dcbe 54be 9fbe
00000070: b77c a0be da69 e5be c185 953e bda4 2cbf
00000080: 3721 bf3e 1a97 793e a9bf bf3e c4f4 f43e
00000090: a7fc 7abe 42e9 153f 89ae 383e 80d6 a7bc
000000a0: 666f 883e 69d2 80be b45a 4fbf 0a79 5abe
000000b0: 2533 98bd a4a3 8a3e a41e 81be 1fa4 083e
000000c0: 07cc a23e cf40 453e 24b0 cbbe 024d 6e3e
000000d0: 122e 493e 44c1 9a3e 8ef0 5bbf c6e5 d63e
000000e0: d2d6 57be bd13 dcbe 2099 6f3e dff4 e1bd
000000f0: a324 873e e578 2ebe dddc dabd fe56 e43e
00000100: fb66 4fbe 4341 aa3d 1198 8abe 92dd 98bd
00000110: d431 09be 9e26 bbbe 1084 c6be 7c68 56bf
00000120: b18b 8bbb f065 1dbf ce7d b4be 3be7 cb3e
00000130: 7756 a0bd 838e 9dbd b76c d7be 6e5a 10be
00000140: 62dd 0c3f 12c0 7cbe 8a19 db3e afe7 e6be
00000150: 5614 fb3e 609a b03e c90b 0abe 7e35 683c
00000160: 1944 473d 320b 28be e5b5 6e3e 6045 553d
00000170: e833 cabe d80b 76be 506a e9be 0c77 1abf
00000180: 9331 5c3e 55a7 423f 1c46 823e 3ab6 89be
00000190: 9089 29bc 9677 0f3e 2259 c73e 66b8 a9be
000001a0: 4b0e cd3d bfb0 bebe d606 9a3e dabe f43d
000001b0: 019f 4a3b 465f 14bf fb3d 043f 6ebb a23e
000001c0: 113e ffbd eb52 43bf dc14 f73c 2758 89be
000001d0: e413 003c 80fc f93e bb6f 7f3c c6e2 75be
000001e0: 33b6 26bf a235 34be 0bc2 d3be ea22 39bd
000001f0: e9d5 36bd 6904 87be d904 013f e048 903e
00000200: 6562 7cbf 956e 513e a8a4 c7bc 374d 28be
00000210: ba61 383e 32ad 4a3f 0058 473c aeb2 223e
00000220: ce18 893e d4fa de3b 775f 813d 52ff 9e3e
00000230: 5bd5 053e 3bfe 85bd a36a 8ebe 21ce 63bd
00000240: 6dcb 00be 8d13 813e 674f 3a3f eaa0 ecbe
00000250: 8b89 20bf 666a 40bd e9d6 35bf c6d4 163d
00000260: bc48 22be 1cf3 6a3e 2ebc a9bd 8b10 17be
00000270: a833 a63e a946 a93d ff6c 083e 51f3 4bbe
00000280: edf6 323c e7e1 fc3e fdde 53be ea7f b53c
00000290: a00a 9a3b d136 9a3e 3645 e63b af6c 09be
000002a0: 658b 34bf d5c8 40bd 7e5c 723e 1e89 cf3d
000002b0: 0c5f fdbe 9f33 4d3f 9eec 753e 5806 9cbe
000002c0: 3948 b63d 091e e4bd 41d2 8dbe ab2b 14bf
000002d0: 9257 5ebe 69e0 973d ef6e 9abe e66c 163d
000002e0: 56ea 293f b593 0e3e f9f2 2fbd aa07 a53c
000002f0: fd0b 3fbf c741 933e d987 343e 20e0 093f
00000300: 6854 f8be f539 193e 9e26 db3e 2351 253e
00000310: 4ed4 4a3f d6a3 aebe d886 84be 03c3 f8bd
00000320: 1614 853d 7320 2ebe cecc 1ebe 4a54 2fbf
00000330: bd4f a9be f304 b73d 3094 593e 9859 0b3e
00000340: 52c0 18be 992a 5dbe 053d 033f 9807 bebc
00000350: c1b0 a3bd 8d8d bbbe 96a1 403e ad0e 283f
00000360: f02d bdbd 50ee 3abf dadb 923d c51c 153f
00000370: 3e47 f4bd 3acb a03e 0bbe fc3b a085 7e3e
00000380: 198d 40be 1a77 a6bd 3771 8e3e 612f 403f
00000390: 79b2 cabe aaf9 4a3d 54cc 7bbe ae54 22bd
000003a0: 67c4 0abe ce64 8c3e 65e9 903e f3a1 613e
000003b0: c140 3fbf 747b 0ebf 5154 5dbd 927c 583d
000003c0: f2c8 4ebe 06df e4bd 7ead 14bd 4802 5bbe
000003d0: c805 01bf b8e7 e63c 0e3b b53e 7925 9abd
000003e0: 12df 5fbe 8f25 b4be 1c38 f63e 50fd 4ebf
000003f0: 9ad3 ccbd 74ab 273c d723 1fbf a264 7c3e
0.030088972 0.43058646 -0.019430572 -0.3674317 0.21834016 -0.24585648 0.15060708 0.27875388
-0.57750726 0.4716115 -0.5044981 0.16676934 -0.2155576 -0.27374747 -0.56173325 0.441126
-0.15369311 0.2001738 -0.45224997 -0.1290348 -0.2780966 -0.1251612 0.049641505 0.6144929
0.030022407 -0.34567767 -0.43036744 -0.31199896 -0.3134515 -0.4480732 0.2920361 -0.6743887
0.37330028 0.24374047 0.37450913 0.4784299 -0.24510442 0.5855905 0.1803533 -0.020488024
0.2664749 -0.2516053 -0.80997777 -0.21335235 -0.0743163 0.27077973 -0.2521869 0.13343857
0.31796286 0.19263004 -0.39782822 0.23271564 0.1964648 0.30225575 -0.8591393 0.41972178
-0.21078041 -0.4298381 0.23398256 -0.110330336 0.2639514 -0.17038305 -0.106866576 0.4459762
-0.20254128 0.08313229 -0.27069142 -0.07464136 -0.13397914 -0.365529 -0.3877263 -0.8375318
-0.004258596 -0.6148367 -0.3525223 0.39824852 -0.07828992 -0.076931976 -0.4207513 -0.14096996
0.55025303 -0.24682644 0.42792922 -0.45098636 0.49038953 0.3449278 -0.13481058 0.01417291
0.048648927 -0.1641052 0.23311575 0.052068114 -0.39492726 -0.24027956 -0.45588923 -0.603379
0.21503286 0.7603658 0.25444114 -0.2689684 -0.010347739 0.14010462 0.3893519 -0.33148497
0.10012492 -0.37244222 0.3008334 0.119504645 0.0030917528 -0.57957876 0.51657075 0.31783623
-0.1246301 -0.762984 0.030161314 -0.26825067 0.007817242 0.48825455 0.015590603 -0.24012288
-0.65121764 -0.17598584 -0.4135898 -0.045199312 -0.044637594 -0.26370552 0.5039802 0.281806
-0.9858764 0.2045234 -0.024370506 -0.16435705 0.1800603 0.79170525 0.012166977 0.15888473
0.26776737 0.0068048034 0.063170366 0.3105417 0.1306967 -0.06542631 -0.27815732 -0.0556165
-0.12577601 0.2521023 0.7277741 -0.46216518 -0.62709874 -0.04697647 -0.7103105 0.03682401
-0.15848058 0.22944301 -0.082878456 -0.14752404 0.32461286 0.082654305 0.13322829 -0.19917037
0.0109231295 0.493911 -0.20690532 0.02215572 0.0047009736 0.30119947 0.0070272936 -0.13420366
-0.705252 -0.04706653 0.23668095 0.10133575 -0.49486578 0.8015689 0.24016044 -0.3047359
0.08900494 -0.11138541 -0.27699474 -0.5787913 -0.21713093 0.0741585 -0.3016276 0.036724947
0.66373193 0.13923533 -0.042956326 0.020145256 -0.7462767 0.28761122 0.17629947 0.5385761
-0.48501897 0.14963515 0.428029 0.16144232 0.792302 -0.34109372 -0.25884128 -0.121465705
0.06497972 -0.17004566 -0.15507814 -0.6848799 -0.33068648 0.08936491 0.21247935 0.13608396
-0.14917114 -0.21598281 0.51264983 -0.02319698 -0.079926975 -0.36631432 0.1881164 0.65647393
-0.092372775 -0.73019886 0.071708396 0.58247024 -0.11927651 0.3140505 0.0077130846 0.24855661
-0.18803824 -0.081281856 0.2782075 0.75072294 -0.3958929 0.049554504 -0.24589664 -0.039631538
-0.13551484 0.27420658 0.28303066 0.22034435 -0.7470818 -0.55657125 -0.05403549 0.052853175
-0.20193842 -0.11175351 -0.036298268 -0.21387589 -0.50399446 0.028186664 0.35396618 -0.075266786
-0.21862438 -0.35184905 0.48089683 -0.80855274 -0.10001297 0.010233749 -0.6216406 0.24647763

gnn_base.gnn.embed_layer.lin_h.0.bias f4 [16]
00000000: 0000 0000 0000 0000 0000 0000 0000 0000
00000010: 0000 0000 0000 0000 0000 0000 0000 0000
00000020: 0000 0000 0000 0000 0000 0000 0000 0000
00000030: 0000 0000 0000 0000 0000 0000 0000 0000
0.0 0.0 0.0 0.0 0.0 0.0 0.0 0.0
0.0 0.0 0.0 0.0 0.0 0.0 0.0 0.0

gnn_base.gnn.embed_layer.lin_h.2.weight f4 [16]
00000000: cb57 7a3f 0842 743f b469 7d3f cef9 803f
00000010: 564f 823f dfab 7d3f bc73 7c3f b0b1 803f
00000020: 0ff0 7f3f f5c0 873f 1cba 823f 6774 753f
00000030: 1c0c 833f a8a1 823f c232 803f 7a09 7a3f
0.9779021 0.95413256 0.98989415 1.0076234 1.0180461 0.9909038 0.98614097 1.0054226
0.99975675 1.0605761 1.0213046 0.9588074 1.023807 1.0205584 1.001549 0.9767071

gnn_base.gnn.embed_layer.lin_h.2.bias f4 [16]
00000000: 215d 243d 6139 043d 0d3f f43b 2012 e5bc
00000010: 9f7b 1ebc 4082 25bd fad3 473c da86 bdbc
00000020: 6550 22bd d0a0 553d 2c79 60bd e38a babc
00000030: 889a ffbc d8d7 07bd 2216 fd3a 1c4b e53c
0.040127877 0.032281283 0.0074538053 -0.027962744 -0.009673028 -0.04040742 0.012196535 -0.023135591
-0.03962745 0.052155316 -0.05480306 -0.022771304 -0.031201616 -0.03316483 0.0019308964 0.027989917

gnn_base.gnn.embed_layer.lin2.0.0.weight f4 [16, 16]
00000000: 9175 72bd 879d d63e 7425 8fbc 11bf d9be
00000010: 4144 183e 8324 59be 8c85 403e 6438 6a3e
00000020: 09b1 1bbf d6b6 0e3f d730 0cbf 5621 633e
00000030: fb96 54be 5254 b4be de1a 14bf 6616 b63e
00000040: e374 1dbe 13c2 583e 72b7 debe ae8f f0bd
00000050: b298 84be 8ea3 fabd 9b14 2c3d 05b4 133f
00000060: 8484 223c 3986 b9be 7dba d8be d204 a0be
00000070: 62a1 adbe ef86 dabe 8d3e 9b3e 3fec 27bf
00000080: 053e a43e 3cbf 783e 1de5 bb3e efae ee3e
00000090: 44ca 8bbe 3861 1c3f 3831 5e3e 38e9 f1bc
000000a0: 3fea 793e a336 80be 88c1 52bf fa9c 42be
000000b0: 0592 9abd 779b 7a3e a736 79be 2d28 e73d
000000c0: d465 ca3e c594 4b3e 3bf4 c1be 2455 7e3e
000000d0: cf10 633e 635e 863e d5fe 56bf 8396 d63e
000000e0: dfcd 63be 9719 e8be 73be 5d3e d857 1ebe
000000f0: 5731 823e 63d6 00be 7d3f abbd 9f8f f23e
00000100: 422c 6dbe ca0f f53d 8542 83be 42c6 6dbd
00000110: 36c4 02be e8b4 a5be 4352 bcbe b0c5 55bf
00000120: a59c d0bc 99bb 18bf 7705 cfbe 11b1 cd3e
00000130: 3cf7 ccbd 8e7d bebd 1a1b d8be 9863 fbbd
00000140: a02d 113f b23a 81be fbf1 c43e 4020 e7be
00000150: 7c70 fe3e 0954 a83e 5424 39be f606 7a3a
00000160: 3721 933d 4343 3ebe 692d 893e 8e63 a43c
00000170: f485 c7be 08e9 40be 415d e2be 0e31 1cbf
00000180: 43fc 503e 883f 403f e86f 6d3e 9b2b 8ebe
00000190: 9f13 4abc 3ef2 343e 4242 c13e 2d4d afbe
000001a0: 07ea bc3d 144d e2be bc8e 9f3e 6347 093e
000001b0: 5241 4c3d ffc6 15bf 8d6b 073f df42 9b3e
000001c0: 2abe 2abe afa2 44bf 0c52 a93d 1b97 83be
000001d0: 372d 09bc 9ece f93e e543 af3d 003c 95be
000001e0: 281a 30bf 1fad 21be 8c42 c8be 77e4 fbbc
000001f0: 4d53 adbd a411 98be 9441 073f 9e91 833e
00000200: 1752 6dbf 9642 733e 3434 573c 2dd5 eabd
00000210: eeb0 6e3e 9d17 4f3f cb4e fc3c 27a7 133e
00000220: a75d 613e f95e 32bd 82e3 8f3c 9d33 8b3e
00000230: e200 bd3d 2789 003c b316 80be d11a 2b3b
00000240: c95f 3dbe 9008 743e e10f 3b3f 2b67 f4be
00000250: f9fb 27bf 3bfa 87bd e5f9 35bf 65d4 503d
00000260: 9e39 16be c874 7b3e 37ce 6fbd 47d1 ecbd
00000270: d791 a93e e4a7 c33c 3607 043e ac59 67be
00000280: 87f9 c3bb a8b6 f93e 3cc0 5cbe 1d92 d53c
00000290: 8bea 3ebc 8a38 a03e 58b8 0f3d 92d1 14be
000002a0: 0938 38bf 9b18 29bd 61ef 6f3e 4cb2 dd3d
000002b0: b4d3 f9be 5a86 433f 24a0 783e c69e a2be
000002c0: 2bad 893d a1f1 b6bd 44bb 96be 810a 15bf
000002d0: 2567 62be 5116 903d bcf0 9bbe b535 3a3b
000002e0: e31f 253f df83 153e e761 63bc 305e fe3c
000002f0: 8942 48bf 05b0 9c3e 1585 373e 1415 043f
00000300: ae64 f3be e174 163e a334 d93e fa32 0e3e
00000310: 182e 463f 6e38 b9be 5394 89be 207c d1bd
00000320: 4829 d53d 6cd9 1dbe 642a 38be e551 38bf
00000330: 9bd3 96be 3389 cc3d 4115 453e 9bbd 1b3e
00000340: 54fc 94bd 9b90 3ebe fe8e f63e b622 3f3a
00000350: 5c13 27bc 2fe9 b1be ed19 283e c680 353f
00000360: 97f9 70bd ad6d 3abf a1ec 013c 3f4d 073f
00000370: 1c0d 0dbe 7200 cd3e 2f54 f9bc 12a5 a33e
00000380: 59bb 48be 70c3 8abd ea8c a83e b2eb 3f3f
00000390: 32fb c2be 7932 253d 1a2c 83be 92bc fcbc
000003a0: 5e7a 0fbe e227 783e b36d 993e b5b2 663e
000003b0: 058c 48bf e508 12bf f078 8eba 710b 493d
000003c0: 1792 53be 54d5 cfbd b1fb 1cbd 1c7b 4abe
000003d0: 503c f5be 433f 0a3d e8e6 ac3e cb6b f7bd
000003e0: c653 64be a7d6 b1be a37a fb3e 15d7 44bf
000003f0: 0817 f9bd fd7b 0d3d 88e3 1abf 0860 843e
-0.05919415 0.4191706 -0.017473914 -0.42528585 0.14869787 -0.21205334 0.18800944 0.22873074
-0.6081701 0.55747736 -0.54762024 0.22180685 -0.2076072 -0.3522058 -0.57853496 0.35563964
-0.1537662 0.21167783 -0.43499333 -0.11746155 -0.25897747 -0.12238227 0.04201184 0.57696563
0.0099192895 -0.36235216 -0.4232978 -0.31253678 -0.33912188 -0.4268107 0.3032116 -0.6559486
0.32078567 0.242917 0.36698237 0.4661784 -0.27302754 0.61085844 0.21698463 -0.029530153
0.24405764 -0.25041685 -0.82326555 -0.19005194 -0.07547382 0.24473368 -0.24337254 0.1128696
0.39530814 0.1988097 -0.37881646 0.24837166 0.2217438 0.26243886 -0.8398259 0.41911706
-0.22246502 -0.45332024 0.21654682 -0.15463197 0.25428268 -0.12581782 -0.08361719 0.473752
-0.23161414 0.11965902 -0.25636688 -0.0580504 -0.12770161 -0.32364583 -0.3678151 -0.8350477
-0.025465319 -0.5966125 -0.40433857 0.40174153 -0.10008094 -0.093012914 -0.42208177 -0.122748554
0.56710243 -0.25240093 0.38465866 -0.45141792 0.49695194 0.32876614 -0.18080264 0.00095377804
0.071840696 -0.18580346 0.26792458 0.020067003 -0.38969386 -0.18838894 -0.44211772 -0.6101235
0.2040873 0.7509694 0.2318722 -0.27767643 -0.01233378 0.17670533 0.37745863 -0.34238568
0.09224325 -0.4419943 0.31163585 0.13406138 0.04986698 -0.5850677 0.52898484 0.30324456
-0.16674104 -0.76810735 0.08267602 -0.25701222 -0.008372596 0.4879045 0.08557872 -0.2914734
-0.6878991 -0.15788697 -0.3911327 -0.030748589 -0.08463154 -0.2970096 0.5283444 0.25697035
-0.92703384 0.2375587 0.013135005 -0.11466441 0.23309681 0.80895406 0.03079929 0.14419232
0.22008382 -0.043547604 0.017564539 0.27187815 0.09228684 0.0078452 -0.25017318 0.0026108513
-0.1849357 0.23831391 0.73071104 -0.4773496 -0.65618855 -0.066395245 -0.71084434 0.050983805
-0.14670417 0.24556267 -0.05854627 -0.11563354 0.3311908 0.023883767 0.12893376 -0.22592801
-0.0059806737 0.48772168 -0.21557707 0.026070649 -0.011652599 0.31293136 0.035087913 -0.1453307
-0.719605 -0.04128323 0.2343116 0.10825023 -0.4879433 0.7637688 0.24279839 -0.3176176
0.06722482 -0.08932806 -0.29439747 -0.5821915 -0.22109659 0.070355065 -0.30457103 0.002841336
0.6450178 0.14601086 -0.013878322 0.031050771 -0.78226525 0.30603042 0.1792186 0.5159466
-0.4753775 0.14693023 0.4242297 0.13886634 0.77414083 -0.36175865 -0.26870975 -0.10228753
0.104082644 -0.15414971 -0.1798492 -0.7199996 -0.29458317 0.09987106 0.19246389 0.15209047
-0.0727469 -0.1860985 0.4815597 0.0007291244 -0.010197487 -0.34748217 0.1641614 0.7089962
-0.058831777 -0.728236 0.007929952 0.52852243 -0.13774532 0.40039402 -0.03043565 0.31961876
-0.19602717 -0.06775558 0.3292001 0.7496902 -0.38082272 0.040331338 -0.25619584 -0.030851636
-0.14011523 0.24233964 0.29966506 0.22529109 -0.7833865 -0.5704482 -0.0010869782 0.049083177
-0.20661198 -0.10148111 -0.03832597 -0.19773525 -0.47897577 0.033751737 0.33769917 -0.12081107
-0.22297582 -0.3473408 0.49117002 -0.7689069 -0.12162596 0.034542073 -0.60503435 0.25854516

gnn_base.gnn.embed_layer.lin2.0.0.bias f4 [16]
00000000: 1252 b03d ffcd 8bbc 28fa 863c 0625 aabc
00000010: 3840 91bc f42a b7b9 6fc0 333c a43d 833c
00000020: 1825 5abd 660c 913c 8660 753c 4cda ee3b
00000030: 3c91 86bb 853e 58bd b1dc dd3b 0361 75bc
0.08609404 -0.017066 0.016476706 -0.020769607 -0.017730817 -0.00034936483 0.010971173 0.016020603
-0.05325803 0.017706107 0.014976626 0.0072892066 -0.0041066688 -0.052794 0.006770693 -0.014976743

gnn_base.gnn.embed_layer.lin2.0.2.weight f4 [16]
00000000: 3556 823f 872c 813f 8dd5 703f ba80 843f
00000010: 9908 803f efb8 7d3f 940d 843f d767 863f
00000020: 9534 773f c1b0 833f ffbf 7a3f f903 7e3f
00000030: 0be3 783f 9674 833f 1a61 833f bf76 813f
1.0182558 1.0091714 0.9407585 1.0351784 1.0002624 0.9911031 1.0316644 1.050044
0.9656461 1.0288316 0.9794921 0.9922481 0.9722144 1.0269954 1.0264008 1.0114363

gnn_base.gnn.embed_layer.lin2.0.2.bias f4 [16]
00000000: 1061 613d e415 da3b e857 693d 2d65 30bd
00000010: acc6 b8bc 11d5 b13a ba4f b83c 9eb5 653c
00000020: 89b7 24bd 87d9 253d 3579 b93c aa8b 103c
00000030: d11b e23c e28d 1dbd 1934 c03c 54e4 96bc
0.055024207 0.0066554416 0.0569686 -0.04306524 -0.022555672 0.0013567527 0.022498954 0.014020352
-0.040214095 0.040490653 0.022640804 0.008822361 0.027601155 -0.038465388 0.023462342 -0.018419422

gnn_base.gnn.gnn1.lin_key.weight f4 [48, 16]
00000000: 0cee 2ebc 8f28 3f3e 0aa7 14be 5ffd 60be
00000010: e289 cfbc 09ff 6dbe ebea 16be 9666 cf3d
00000020: 4758 20be 9c81 68be 340c 9e3d 4726 6bbe
00000030: 0920 0ebe 3b4c 533e 2c6a a3bd 24b3 b8bd
00000040: b937 93bd fd1e 34bc 8dc7 a83d a1dd 9e3d
00000050: 3f2b 89be aaa4 993e 7e67 9ebc d9ea 0a3e
00000060: f6c3 80be e981 9d3d 2b66 85be 1572 603e
00000070: 106c d4bc fb05 fcbd f223 87be 3c01 0fbe
00000080: affa 5dbc e85f 2e3e ebd2 2a3e fbdc d23b
00000090: ab03 93bd f237 93be 3f73 013e f20c 373e
000000a0: 3f80 493e e8cc cebd 5206 023e ed37 8b3d
000000b0: 4588 363d 22f9 10be aad1 cf3d 5a4a 873d
000000c0: b395 29be 469b 9f3d 17c4 a0be 4d6d 913d
000000d0: aa59 843e a74a c0bd 0827 a93e 5a6c e63d
000000e0: 8c46 3c3e 2096 15be 4705 f43d b4e3 04be
000000f0: 6e71 eebc 65e3 1dbe f869 873d 32e1 fabc
00000100: 12ad b7bd 4052 f9bc 2221 70be a5db 91bc
00000110: 3c49 933d 28a3 9dbe 9eb8 093e 5a35 74be
00000120: 2756 63be 0c3a 323e 7c9a 48bd a006 043e
00000130: 05bf 1c3c 9d8d 5fbe b43f 45bd 13d8 1b3e
00000140: 679d 593e bba6 b3bd 9ab3 4f3b e212 7cbe
00000150: 52a7 26be 71f6 083e 1c4a 7d3e ff28 32be
00000160: 26dc b43d 033d e73d ad0b 0b3d ffd7 0a3d
00000170: 1f8e 34be cd76 5bbe a576 d8bd a0a6 4f3e
00000180: e96c cbbc 2bf7 243e 79bb 01be d76a 11bd
00000190: bea7 4dbe 4ce1 dd3d a29e 683b ce90 1f3c
000001a0: 3ef8 efbb bc82 7bbd 7428 183e 6741 d9bd
000001b0: 557f 9f3d 60db fe3d 35b3 25be 2ac5 543e
000001c0: 76b9 2d3e 1240 a63d 69bf ddbd a5a5 0bbe
000001d0: 1bd4 45be 2b27 1cbe fe23 843d 1213 d1bd
000001e0: 418b ed3d 2bae cabd 8c36 e9bd 9185 2dbe
000001f0: 3124 32be 07b5 72be 2225 573e 2a6c bb3d
00000200: fcb9 bfbd bc50 49be 73a9 173e c35e e0bd
00000210: 6816 643e 03a6 6fbe 48c4 15bd be96 093e
00000220: 0928 353e 1365 35be e7ab dd3d d16f 8ebd
00000230: 43c0 603d a9a1 b73d 626a 64be 473f 803e
00000240: 9297 28bc 64e3 703d f5fc bfbd b0dc 8d3e
00000250: a6ae 43bd 0837 8e3e 6732 b43d 7d68 37be
00000260: 8388 693e 841c ed3d 1362 c03d 1eb2 c1bd
00000270: ef6b af3d 1d77 d53d e3a4 7ebe b831 e53d
00000280: bdd5 9abd 7d88 d13d 2bec f1bd efae 153c
00000290: 442a f2bd b2ca 9fbe b3fe 61be ac2f 23bd
000002a0: d2b3 0d3e 6640 b03d 0c07 f13c 7f59 88be
000002b0: b218 63be 12ca 0a3e 6100 89bd 9650 9fbc
000002c0: 2b9d f9bc 5a0d 85bd cc92 d4bd 2138 d43d
000002d0: b1ca 53be 905d 36be f7ec 2e3e b8f6 14be
000002e0: f0a8 22bd c419 4ebe 4676 713d 3d8c e8bb
000002f0: 5608 cc3d eb5d 44be 16d7 0abe 82d3 06bd
00000300: 999d 01be 9eb6 7bbc f7a3 603d 7a8b bfbd
00000310: a862 7fbd df1b 0abe e64a 9cbd 85f7 4abe
00000320: 2d17 b63d 0030 653e e332 193e ffa9 463e
00000330: 7dab 26be dfd8 743e 39ae 8ebe 1800 dcbd
00000340: 0624 0bbd 17e7 193e 9963 693e 9730 da3d
00000350: 1836 4c3e ef56 2ebe 1264 03be 4c9a a7bd
00000360: ef2e 7fbd b3dc 333e 70cb 47be 70a4 40be
00000370: 966f 3bbc a0e9 5a3e 6109 c4bd fa2c 513e
00000380: f23f 09be cd82 533e a5d0 5abe 3549 263d
00000390: bcd2 6a3e 282f 6a3c 85c2 543e 0d05 693c
000003a0: 8068 16be a77a 0abe 8996 c1bd 47d3 6cbe
000003b0: 4f7a f4bd 4f94 8bbd f0d5 7dbe baf5 a43c
000003c0: 86a2 87bd 7274 c43d 2677 793e 3cd6 f83d
000003d0: 9098 62ba 0eaa 6a3c 37f1 22be 2ba0 5fbd
000003e0: 307e 46bd 7b45 c33a 5c19 383d 7b27 49be
000003f0: 2503 1cbd ba4c 47be 629a a6bc 3d0f 22be
-0.010676872 0.18667816 -0.14516845 -0.21971653 -0.025334302 -0.2324182 -0.14738052 0.101269886
-0.15658675 -0.22705692 0.07717171 -0.2296382 -0.13879408 0.20634548 -0.07979235 -0.09018543
-0.07188363 -0.010993716 0.08241186 0.07757116 -0.26790807 0.3000844 -0.019336458 0.1356615
-0.25149506 0.07690794 -0.2605451 0.21918519 -0.025930434 -0.12305828 -0.26394612 -0.13965315
-0.013548537 0.17028773 0.16682021 0.0064350343 -0.07178434 -0.2875362 0.12641619 0.17876032
0.19677828 -0.100976765 0.12697724 0.06797776 0.04456355 -0.14157537 0.10147412 0.06605978
-0.16561012 0.07793288 -0.31399605 0.071009256 0.25849658 -0.09389239 0.3303759 0.11251135
0.18386286 -0.1460805 0.11915069 -0.12977487 -0.029106822 -0.15418775 0.06612009 -0.03062496
-0.089685574 -0.030434728 -0.23450139 -0.01780493 0.07191703 -0.3078854 0.13449332 -0.23848477
-0.22200833 0.17404956 -0.048975453 0.12893152 0.009567027 -0.21831365 -0.048156455 0.15219145
0.2125145 -0.08772036 0.0031692744 -0.24616578 -0.16274765 0.1337526 0.24735302 -0.17398451
0.088310525 0.11290934 0.03394668 0.033897396 -0.1763234 -0.21432038 -0.10569505 0.20278406
-0.024832206 0.16109912 -0.12669171 -0.03550228 -0.2008352 0.108339876 0.0035494943 0.009739114
-0.007323294 -0.061403975 0.14859182 -0.10608178 0.077879585 0.12444186 -0.16181643 0.20778337
0.16965279 0.08117689 -0.10827524 -0.13637407 -0.19319193 -0.15249316 0.064521775 -0.102087155
0.11598826 -0.09896501 -0.11387357 -0.16945483 -0.17396618 -0.23701869 0.21010259 0.0915149
-0.093616456 -0.19659704 0.14810733 -0.10955574 0.22274172 -0.23403172 -0.03656414 0.1343641
0.17691053 -0.17714338 0.108238034 -0.06954921 0.054870855 0.08966381 -0.22306207 0.25048277
-0.010290043 0.058810607 -0.093744196 0.27707434 -0.04777398 0.2777636 0.08798676 -0.17910953
0.22805981 0.115777045 0.09393706 -0.09457801 0.085655086 0.1042311 -0.24867587 0.11191124
-0.075602986 0.10231111 -0.118126236 0.009135946 -0.11824468 -0.31209332 -0.22069816 -0.039840385
0.13838127 0.08606033 0.029422306 -0.2663078 -0.2217739 0.13553646 -0.066895254 -0.019447606
-0.030470451 -0.06496687 -0.10379562 0.10362268 -0.2068279 -0.17809129 0.17082582 -0.1454724
-0.039711893 -0.20127016 0.058950685 -0.007096796 0.099625275 -0.19176452 -0.13558611 -0.032916553
-0.12657775 -0.015363364 0.05484387 -0.09352775 -0.062349945 -0.13487194 -0.07631473 -0.19820984
0.08891139 0.22381592 0.14960818 0.19400786 -0.16276355 0.23910855 -0.27867296 -0.107422054
-0.0339699 0.1502956 0.227919 0.10653799 0.1994251 -0.1702535 -0.12831143 -0.08183727
-0.06230062 0.17564659 -0.19511199 -0.18812728 -0.011440178 0.21378183 -0.095721014 0.20427313
-0.134033 0.20655365 -0.21368654 0.04059716 0.22931951 0.0142934695 0.20777328 0.014222396
-0.14688301 -0.1352335 -0.094525404 -0.23127471 -0.11937391 -0.06815397 -0.24788642 0.020136703
-0.06622796 0.09592523 0.24361858 0.12150237 -0.00086439494 0.014322771 -0.15912329 -0.054596107
-0.048460186 0.0014898026 0.04494606 -0.19643967 -0.038088936 -0.19462863 -0.020337287 -0.15826125

gnn_base.gnn.gnn1.lin_key.bias f4 [48]
00000000: be15 273e 048c a13d d8db 373d 344d f2bd
00000010: c4d6 9fbd 1075 d93c b8dd 01bd 5665 1d3e
00000020: dc42 073e c03e 733e 648c b03d 50a2 24be
00000030: a0d4 5f3e 4e46 973c 54ba 68be 3410 313e
00000040: a80c 23be 0890 2a3e 9050 193d 7ad1 29be
00000050: e0dc 263e b8a0 21bd e63c 3fbe b285 1e3e
00000060: f80c 1bbe bf36 923d 5060 0b3e 25c6 ce3d
00000070: 99de 8c3d e034 f23d 0422 49be c889 f9bd
00000080: 2a55 023e c2d5 3f3e 5fda 3e3d 978c f93c
00000090: dcd6 4abe 7044 47bd acf6 00be 3abf 793e
000000a0: d883 7d3e 0247 3b3d bc14 4c3e 3f83 9f3c
000000b0: 9c2d 93bd fa0c 39be a896 583e 0c50 923d
0.16316888 0.07888034 0.044887394 -0.118311316 -0.07804635 0.026545078 -0.031705588 0.15370688
0.13209099 0.23754406 0.086205274 -0.16077542 0.21858454 0.018466141 -0.22727329 0.17291337
-0.15922797 0.16656506 0.037430346 -0.16583815 0.16295195 -0.039459914 -0.18675575 0.15480688
-0.15141666 0.07139348 0.13610959 0.10096387 0.06878395 0.11826491 -0.19641882 -0.12184483
0.127278 0.18733886 0.046594974 0.030462546 -0.19808525 -0.04864925 -0.12594098 0.24389353
0.24757326 0.045722015 0.19929785 0.019471763 -0.07186434 -0.18071356 0.21151221 0.07144174

gnn_base.gnn.gnn1.lin_query.weight f4 [48, 16]
00000000: 6696 06bd 9881 53be a5ef 353e 0e52 0e3e
00000010: ee93 efbd 304b 643e 29b6 75be 07be a4bd
00000020: 904f a83b 196e 5e3e 10ba 523d 6a66 3f3e
00000030: 6efe 1abe 6a15 053e 3aef 563e 57c4 42be
00000040: f9a7 08be e258 3c3e ef0c 043e 4e6c 0b3d
00000050: 8c80 bfbd 1660 59bd dfd7 513e 3332 57bd
00000060: 5cd1 583b 32a6 64be efc2 57be 8c5d 28be
00000070: 388e 9d3e fd03 4b3b 9e9f 56be 0cce 9f3d
00000080: a604 6f3e f6cd 92bc 6956 903d ba3e 753d
00000090: e3b2 4d3e e695 af3d f9d4 53be ea13 2ebd
000000a0: 8ac1 3a3e b3b9 43be 7326 a1bd 7dab 5dbe
000000b0: d72b 6abe 7832 c63d 958b 843e 2ac8 5f3e
000000c0: c1d1 9abd 6067 0c3e dfa0 5cbe afa9 6fbe
000000d0: ae76 4a3e d7e7 af3d 6bd6 f23c 986f 67be
000000e0: 548d 06bc e65d 893e cdef e1bd 72f7 2a3e
000000f0: 004d 0cbe e40b 6dbe fe12 853e 86cf 86be
00000100: d30d fdbd cf63 d6bc 84dd 363e 80f8 5dbc
00000110: ca4b 8bbd ced5 1a3e b819 b13b 395b 843e
00000120: 1155 6f3e b54a e23d 45f9 a03c 7091 1e3e
00000130: 6ee7 81be 0fbc 88be d768 753d ed95 36be
00000140: f70b 5bbe e196 c2bd a1ac 3bbe 3d74 1d3d
00000150: 0a6f 27be 8c0f 45ba 8121 183e 1ea9 ffbd
00000160: fb8e 3e3e 11ec 88bd 1719 1f3e d739 12be
00000170: 60ec 3cbe 4ad0 d53d c11d 8f3e d7fd dabd
00000180: 1163 71be 7712 eebd 974b 2e3e 3904 2ebe
00000190: bc8e 9ebd 91f7 63be a4b7 61bd a0df fb3d
000001a0: d3a8 0abd beb8 20bd b5bc 3dbd 7c7d 803e
000001b0: 769f a63d 967d 9e3d a6ec 2c3d d1cf 0e3c
000001c0: d55c 433e 8727 193e a7f5 5b3d 7fbe 013e
000001d0: e06a 55be fe04 48be 2305 013c c7a4 983d
000001e0: eefc 3a3d 4a81 023e cca8 5e3e a0b0 64be
000001f0: e885 84be 7382 823c d0a9 0cbe ee03 cf3d
00000200: b5ef 603d a2e3 b8ba 9562 2c3d 25bc 153d
00000210: c419 5ebe 64db d03d 80d5 573d cca2 443e
00000220: f073 dc3c 44df 013d d16a e43b 8482 8abc
00000230: b425 ea3d 283c 7e3d 959f 6b3e c5f1 08be
00000240: c25d 21be 87d8 723e f346 2a3e 5d0d 143d
00000250: 1d4d 443e 831a 373b 74ea 7b3d 17db 443c
00000260: e09e 93bc 9d4a ef3d f2b7 10be 0f84 78bd
00000270: 7ac2 6d3e 5eb0 3f3e 726d dd3d a398 013e
00000280: dc95 f43d 4209 a13c be70 873e 2999 653d
00000290: 07c3 b9bd ca6d 283e 5e2f d33d a15c 3abe
000002a0: 184d f6bb 2f64 923c f35b 253e 482c 46be
000002b0: 26ba 1ebe d279 24be 3c16 1e3e 733c 3b3d
000002c0: cf27 5abe cec1 42be 0964 5e3e ce42 013e
000002d0: 4137 4c3e 6648 82be 0c95 0abe afb3 5f3c
000002e0: 937e d13d c58b 513e 9b01 6bbe 5842 1a3e
000002f0: 1e51 603d 368e 883e b9bd 47be d478 c1bc
00000300: 05df 6bbe 8dae ebbd eb1d d53d c3c9 233e
00000310: 72fd 63be 9073 8a3c 8037 523e 9c88 60bd
00000320: 06f1 c3bc 70a4 be3d 4bce 76bc e067 79bc
00000330: b9c4 4a3e 87be 1fbe fc9f 4abe 52ee 6a3e
00000340: 032c f7bd 9b11 7bbd 7216 69bd a369 233e
00000350: 212c 013b 42aa 223e 5a9f 26be efe5 83bd
00000360: ddef 38be d679 cb3d 7f41 68be e1ba 6bbe
00000370: 669f 383e 753e b4bd 6c96 2e3e 063b 4dbe
00000380: 91fe 90bc 3234 543d bf13 0d3e 7a08 e1bd
00000390: 6255 95bd 1d92 8e3d b039 12be eaf2 36be
000003a0: b8e1 e03d 1258 cb3d d0a5 70be dbe1 a13c
000003b0: aa73 e33d 5db1 59be e1ba b5bd ff55 86be
000003c0: f893 6bbe 5beb c8bd c37d 803e 0761 043c
000003d0: d598 c9bc 3e69 893d ed16 703c fb67 87bd
000003e0: 62f4 963d c6cc 06be a512 8b3e 5d27 663d
000003f0: 6a5b 4fbd 6a43 673c 59f0 2a3e 8128 27be
-0.032858275 -0.20654905 0.17767198 0.13898489 -0.11698137 0.22294307 -0.2399527 -0.08044057
0.0051364377 0.21721686 0.051446974 0.18691412 -0.1513612 0.1299645 0.20989695 -0.1902021
-0.13345326 0.18393281 0.12895559 0.034038834 -0.0935069 -0.05307015 0.20492505 -0.052538108
0.0033083772 -0.22329023 -0.21070455 -0.16441935 0.30772567 0.003097772 -0.20959327 0.07802972
0.23341617 -0.017920475 0.070477314 0.059874274 0.20087771 0.08573513 -0.20686711 -0.04249946
0.18237892 -0.19113807 -0.07868662 -0.21647449 -0.22868286 0.09677595 0.25887743 0.218537
-0.07559539 0.1371131 -0.21545742 -0.23404573 0.19771835 0.08589142 0.029643258 -0.22601163
-0.008212406 0.2682945 -0.110320665 0.16695955 -0.13701248 -0.23149067 0.25991052 -0.26330203
-0.123561524 -0.02617064 0.17857939 -0.013548017 -0.06801565 0.15120623 0.0054046772 0.25850847
0.23372294 0.110494055 0.019650111 0.15485168 -0.2537188 -0.26705977 0.059914436 -0.1783063
-0.21391283 -0.09501434 -0.18327571 0.03844093 -0.16350952 -0.000751727 0.1485653 -0.124834284
0.1860923 -0.06685651 0.15536915 -0.14279877 -0.18449545 0.104401186 0.27952388 -0.10692947
-0.23572947 -0.11624616 0.17021023 -0.16993798 -0.07742068 -0.22262408 -0.055106774 0.122985125
-0.03385241 -0.039238684 -0.046322543 0.25095737 0.081358835 0.07738797 0.042217873 0.0087165395
0.19078381 0.14956485 0.05370107 0.12670325 -0.20841551 -0.19533154 0.00787476 0.07453304
0.04565137 0.12744632 0.21744078 -0.22333002 -0.25883412 0.015931344 -0.13736653 0.101081714
0.054916102 -0.0014105926 0.042086203 0.03655638 -0.21689516 0.101980954 0.052693844 0.19202727
0.026910752 0.031707063 0.0069707413 -0.016907938 0.114329726 0.06206909 0.23010094 -0.13373478
-0.15758422 0.23715411 0.16628627 0.036145557 0.19170041 0.0027939386 0.06150289 0.012015126
-0.018020093 0.11684153 -0.1413267 -0.060672816 0.23218718 0.18719622 0.10811891 0.12655883
0.11942646 0.019657735 0.26453203 0.056054268 -0.09070402 0.16448131 0.10311769 -0.18199398
-0.0075165145 0.017870037 0.16148357 -0.1935283 -0.15500697 -0.16062096 0.15438169 0.045711946
-0.21304248 -0.19019243 0.21717848 0.1262314 0.19942953 -0.2544586 -0.1353342 0.01365368
0.1022922 0.20463474 -0.22949831 0.1506437 0.05476486 0.26670998 -0.19505967 -0.023617186
-0.23034294 -0.11507902 0.10406097 0.15994935 -0.2226465 0.016900808 0.20528984 -0.05481778
-0.02391864 0.09308708 -0.0150638325 -0.01522252 0.19801606 -0.15600024 -0.19787592 0.22942474
-0.120689414 -0.061296087 -0.05690617 0.15958266 0.001971014 0.1588526 -0.16271725 -0.06440341
-0.1806025 0.09935348 -0.22681235 -0.23020507 0.18029556 -0.08800975 0.17049569 -0.20042047
-0.017699512 0.05180759 0.13777064 -0.10987945 -0.07291676 0.06961463 -0.14279819 -0.17866102
0.109805524 0.099289075 -0.23500752 0.019761017 0.111060455 -0.21259065 -0.08873535 -0.26237485
-0.23005664 -0.098105155 0.2509595 0.008079774 -0.024609009 0.067095265 0.014653903 -0.066116296
0.07370831 -0.13164052 0.27162662 0.056189884 -0.05062429 0.014115194 0.16693248 -0.16324045

gnn_base.gnn.gnn1.lin_query.bias f4 [48]
00000000: 6df9 213e 0e42 5dbe 06b3 26be 5fce 04be
00000010: 40e2 213e 5b74 c8bc 7308 3f3e c318 4cbe
00000020: b7dd 843d 746b 02be a462 2f3c bfb9 183e
00000030: ebbc 283e 3686 8bbe 5442 42bd 3326 863d
00000040: 3c35 61be 4e81 34be 7b73 76be 9baa 0a3d
00000050: 5856 3b3d e024 ebbd df2e c43d b527 833d
00000060: 73c7 8c3d 8ea0 5d3e c8e4 27be c669 43be
00000070: 201c 523e 17fe cfbd 1002 303e 31d8 a7bd
00000080: e134 3abd dbe3 25be a6fa 523d b74c a1bd
00000090: 02cf 8d3e 641a 32be cc41 8fbd b557 debb
000000a0: 8c51 f43d 7a77 fc3d 2bf2 ed3d 73be 48be
000000b0: 315f 7a3d 4a5f 78bd 664c 363e fe9b abbd
0.15817805 -0.21607229 -0.1627923 -0.1296935 0.15808964 -0.024469545 0.18655567 -0.19931321
0.06487601 -0.12736303 0.01070467 0.14914607 0.16478316 -0.27250832 -0.047426537 0.06550255
-0.21992964 -0.17627451 -0.2406749 0.03385411 0.04573664 -0.11481643 0.095792525 0.06404058
0.068739794 0.21643278 -0.16395867 -0.19083318 0.20518541 -0.10155886 0.17188287 -0.08195532
-0.045460586 -0.16200201 0.05150857 -0.0787596 0.27696997 -0.1739288 -0.06994972 -0.006785358
0.11929616 0.12327476 0.116184555 -0.196039 0.061125938 -0.06063775 0.17802581 -0.083793625

gnn_base.gnn.gnn1.lin_value.weight f4 [48, 16]
00000000: 2e94 ccbc 6e9d 513d c68a 2b3e 7871 e7bd
00000010: faee 3c3e 43c1 36be 6772 81bd ef18 24be
00000020: a737 523d 9603 4fbe 9301 62bc 4ffc 36be
00000030: 8ad0 263e 0382 64be 3a39 d7bd 458c 60be
00000040: 349d 45be dd25 d53c 5f9f c03d 830a a43d
00000050: 27ad 5cbe b358 95bd 37c2 ad3c 1ca5 453e
00000060: a41b 473c b587 1abc e52c 36be 980e 4ebe
00000070: be6e 10bd fcf6 bc3d 962a a7bd 02ce f93c
00000080: b77b 453e d9d5 14be 51a8 203e 5d5d 073e
00000090: 9e21 163e 06d4 7f3c bd88 17be dfad 0e3e
000000a0: 4f20 ab3c 3e28 823e ad23 3abe 5af2 5bbc
000000b0: 8154 223e 6608 21ba c185 1a3e 8a6d 6d3d
000000c0: cc57 d9bd e8be 093e 5180 583e 51d0 143e
000000d0: 3b32 31be b7f6 22be a3bb 5c3e 371c 4ebd
000000e0: 8874 c33d de87 6f3d b2e1 2cbe 28bf 643e
000000f0: 68b7 773d 6870 d3bd d9ca 643e 7952 803d
00000100: 757b ca3d 14e4 56be ef4b 1a3e 9bd5 32be
00000110: 2df8 77bd 67d8 9ebe be7c 343e 3ea8 ecbd
00000120: 901e 3abe 41c0 653e d561 13be 8ea2 dcbd
00000130: 2eec 29be 99fe 0ebd b2c3 d33d 30f8 4d3e
00000140: 0b71 ed3d 5f59 15be 21d2 65be 221c 05be
00000150: 7ddb 493e a7ff 9fbe 953b 2e3e 9880 643c
00000160: b4f9 34bd c56e 6a3e d667 563e 5041 e1bc
00000170: 642e 4ebe b846 60be 60d1 9dba 98c0 20be
00000180: 49b2 d9bd 57d6 fd3d f656 0b3c 8ada 373d
00000190: 4f64 08be 4437 65bd 41db 273e e5d1 8c3c
000001a0: a799 ba3c 40ab 49be 1ab1 3abe 4965 2c3e
000001b0: 7927 033d b386 943e 4de8 ddbd b1e8 ea3d
000001c0: d72d cd3d 7b21 57be 748d 0dbe cfc9 4e3e
000001d0: 2d91 c6bd 2103 65be 9807 403e a672 853e
000001e0: b602 293e 6f94 153e 82db b5bd 84af 593e
000001f0: 37dc ddbd d81a cc3d fb6d 6bbe 066f 653e
00000200: 321b 45be 5644 64be 1185 9e3d 908a 563e
00000210: e499 3abe a6ba 593e e591 b63d 638e 233e
00000220: e82a 1c3d e5ac 66be c851 593e abd9 273e
00000230: ac12 e63d c4b7 6d38 3fef e63d e878 f83a
00000240: 9f70 393d fea0 7ebd ee2c 6c3e 05cb 9fbd
00000250: 1bdb fbbc eab2 ad3d 97cd 553e 485d e5bd
00000260: 3f9c b1bd 845d 57be 7e8e 413e 4071 673e
00000270: e9c7 2a3d 5c61 59be dc3e 3abe a64c 563e
00000280: 0aa3 203d bafd 853d da5a 38be e2b8 92be
00000290: 850e 08be 2a38 81be dbbe 703e 5938 043e
000002a0: 1d0a 3ebe 5b72 873e 317d 7cbd fccd f43d
000002b0: be23 b53c 89df 5e3d 8b58 cb3b 75d4 0b3d
000002c0: 4779 44be f710 e53d 9b99 683d f82c 313e
000002d0: 9780 51be cf66 eb3d fc1b 873d c835 753c
000002e0: 9e60 25be 12ce 2bbe 2814 3f3e afc7 353e
000002f0: 48f8 033e ebd1 45be 678e 34be b818 623d
00000300: 4731 803e e087 7ebe 3151 743d 7af2 73be
00000310: fa3c 7cbe 58cc 37be ee98 06be 8161 1abe
00000320: 5262 16be 0169 b53c 8981 7abd a573 1c3e
00000330: 44c1 673d 020b e1bd 6b16 1fbe 1742 473e
00000340: 124c a5bb 5d09 a03d f49a 093e df64 34bd
00000350: 5800 11be f6b0 8b3c 4757 23be 301e 043e
00000360: 6e39 a13d 604a 16be 8150 b3bd edfc 663d
00000370: af62 493d 30aa 2e3d 3155 0dbe 3535 443d
00000380: 491a dbbd 1529 643d 9fc2 e13c 2b37 883c
00000390: af5c f0bd f79f 3cbe d3ef 4dbe 14c1 483d
000003a0: 03c1 c03d 97f8 a2bd 5a50 2b3e 645b a2bd
000003b0: 1376 183e c447 853d f974 5f3e 7be3 3d3e
000003c0: eaf2 a6bd 2169 77bc eea0 48be 553b 133e
000003d0: 3fa2 7abd 4eff 4cbe 8234 a8bd 16e2 55be
000003e0: ed23 9fbd 1ba9 a1bd 4ec9 80be 92c5 713d
000003f0: e104 3fbe dd9b 473d f351 d1bd d29b 173d
-0.024973001 0.051175527 0.16752157 -0.11300939 0.18450537 -0.17847161 -0.06320649 -0.16025136
0.051322605 -0.20216212 -0.013794321 -0.17869686 0.16290489 -0.2231522 -0.10508962 -0.21928509
-0.1929825 0.026019031 0.094053976 0.080098175 -0.21550427 -0.07292309 0.021210773 0.19301265
0.012152586 -0.009431769 -0.17790563 -0.20122755 -0.035261862 0.09226796 -0.081624195 0.03049374
0.19285475 -0.14534701 0.15689208 0.13219209 0.14661261 0.015614515 -0.14798255 0.13933514
0.02088943 0.25421327 -0.18177672 -0.01342448 0.15852548 -0.0006142914 0.15090086 0.057965793
-0.10612449 0.13451731 0.21142699 0.14532591 -0.17304318 -0.15914427 0.21555953 -0.050319877
0.09543711 0.058479182 -0.16882971 0.22338545 0.060477644 -0.10324174 0.22343005 0.062657304
0.09886829 -0.20985442 0.15068029 -0.17464297 -0.060539413 -0.31024477 0.1762571 -0.11555527
-0.18175721 0.2243662 -0.14392789 -0.10773192 -0.16594002 -0.034910772 0.1034006 0.20114207
0.11593827 -0.14584874 -0.22443439 -0.12999013 0.19712634 -0.31249735 0.17014916 0.013946675
-0.044183448 0.22893818 0.20938048 -0.027496964 -0.20134884 -0.21901977 -0.0012040548 -0.15698469
-0.10629708 0.12394398 0.00850462 0.04488615 -0.13319515 -0.05596091 0.16392232 0.01718993
0.022778345 -0.19694233 -0.18231621 0.16835512 0.032020066 0.29009017 -0.108353235 0.114701636
0.10018509 -0.21008866 -0.13823491 0.20194171 -0.09695659 -0.22364475 0.18752897 0.26064032
0.1650494 0.14607404 -0.088797584 0.2125836 -0.10833018 0.099660575 -0.22991173 0.22405633
-0.19248655 -0.22291693 0.07740224 0.20951295 -0.18222767 0.21262607 0.08914546 0.15972285
0.038126856 -0.22526892 0.21222603 0.16391627 0.1123403 5.667635e-05 0.11276101 0.0018956931
0.04527342 -0.062165253 0.23064014 -0.07802395 -0.030744126 0.08481391 0.20879208 -0.111994326
-0.0867238 -0.21031767 0.18902013 0.22601795 0.041694555 -0.21228546 -0.18188041 0.20927677
0.039217986 0.06542535 -0.18003407 -0.2865668 -0.13286789 -0.25238162 0.23510306 0.1291212
-0.18558545 0.26454434 -0.06164283 0.11953351 0.02211177 0.0544124 0.0062056235 0.03413816
-0.19186889 0.111848764 0.056787115 0.1730231 -0.2045921 0.114942186 0.065971345 0.014966436
-0.16150138 -0.16777828 0.18660033 0.17751954 0.1288768 -0.19318359 -0.17632447 0.055199355
0.25037596 -0.2485652 0.059647743 -0.23822966 -0.24632636 -0.17949045 -0.13144276 -0.15076257
-0.14685944 0.022144796 -0.06115869 0.1527849 0.056580797 -0.10988428 -0.15535896 0.19458805
-0.0050444687 0.07814286 0.13438016 -0.04404151 -0.14160287 0.017052155 -0.15951262 0.1290214
0.07872282 -0.1467681 -0.08755589 0.056393553 0.049166378 0.042642772 -0.13802029 0.047902305
-0.10698373 0.05570324 0.027558623 0.016627869 -0.11736428 -0.18420397 -0.20111017 0.04901226
0.09411814 -0.07957571 0.1672987 -0.07927588 0.14888792 0.06507829 0.21821965 0.18543808
-0.08151801 -0.015100748 -0.1959264 0.14378102 -0.061189886 -0.20019266 -0.0821314 -0.20887026
-0.07770524 -0.078935824 -0.25153583 0.05902631 -0.18654205 0.048732627 -0.10220709 0.037013836

gnn_base.gnn.gnn1.lin_value.bias f4 [48]
00000000: ba83 0c3e 4076 8dbd eb0b 78bd 4f46 62be
00000010: b047 3b3e f2fb 863e d67a 2b3d 0e1e 4b3e
00000020: 6f34 1dbe 1b78 75be e38d 013e bb77 17be
00000030: db87 503e 0d5d b9bc 0f7f 8a3c 796b ba3d
00000040: 9e07 4ebe 11bd 80bc 4432 6d3e c882 cbbd
00000050: 9ef8 023e ca7b 83bd 540b 833c 0e2c febd
00000060: 5a85 d8bc cb71 0e3e 86a4 e13c 7024 013e
00000070: b9b1 173e 47d5 3f3e 4176 adbd 5616 7c3d
00000080: 7455 653d 1261 e5bd 8d6e 473e 9534 2fbe
00000090: 1e81 0bbe be66 9a3e 97d6 0d3c f6e6 2a3e
000000a0: 083a 7c3e 476e 53be 3ba2 2bbe e84e b13c
000000b0: c0db 223d 5d3a f4bc 9e33 2bbe 3aee 8d3d
0.13722125 -0.0690732 -0.06055824 -0.22097133 0.18289065 0.26364094 0.041865192 0.19835684
-0.15352033 -0.23971598 0.12651782 -0.14791767 0.20364325 -0.022627378 0.01690629 0.0910253
-0.20120093 -0.015715154 0.23163706 -0.09937054 0.12790152 -0.06420095 0.015996613 -0.124107465
-0.026430774 0.13910596 0.027544271 0.12611556 0.1481389 0.18733703 -0.08469821 0.06154474
0.055989698 -0.11200155 0.19475766 -0.17109902 -0.13623473 0.3015651 0.008657119 0.16689667
0.24631512 -0.20647536 -0.16761105 0.02164407 0.03976035 -0.029812986 -0.16718909 0.06930204

gnn_base.gnn.gnn1.lin_edge.weight f4 [48, 1]
00000000: 5feb 043f 3f5b 2abf 2344 3a3f 36b5 90bd
00000010: ccee 663f 2407 643d c383 463e f5c5 04bf
00000020: bf94 78be 1bd8 323e ea95 363e 93ae 283f
00000030: d6a7 18bf 8fe7 623e 2123 09bf 10fd 46be
00000040: 0f87 26bf 6560 4d3f 04f6 393f d781 5ebf
00000050: f35a 30bf e393 c93e 8b80 47bf 7828 dbbe
00000060: 1eaa 73bf 5058 32bf d58d 463f 5805 1dbf
00000070: 763f 263f a150 873e 159d 31bf 6a30 65be
00000080: 8c05 86bd 9821 373f e518 61bf 0db5 443f
00000090: 2bdd 62bf c4da 29bf edd5 29bf b346 ad3e
000000a0: 4198 29bf cb3c 44bf 5d57 cb3e 2e4a 46bf
000000b0: b005 33bf b058 5f3f 2b6e 0d3f f966 3cbf
0.5192165 -0.6654548 0.7276022 -0.07065813 0.90208125 0.055670872 0.193862 -0.5186456
-0.24275492 0.1746525 0.17830625 0.6589138 -0.596311 0.22158645 -0.5356923 -0.19432473
-0.65049833 0.8022521 0.72641015 -0.8691687 -0.6888878 0.3937064 -0.77930516 -0.42804313
-0.95181453 -0.69666004 0.7756017 -0.6133628 0.64940584 0.26428702 -0.69380313 -0.2238175
-0.06544027 0.71535635 -0.8792861 0.7683876 -0.88618726 -0.66349435 -0.6634205 0.33843002
-0.66247946 -0.7665526 0.3971509 -0.7745694 -0.69930553 0.872447 0.5524623 -0.73594624

gnn_base.gnn.gnn1.lin_skip.weight f4 [16, 16]
00000000: 616f 813d 78b6 143d 6827 0e3e 7653 0f3e
00000010: 3995 7a3e ac2f 7f3d e5b8 223d ce79 eabc
00000020: 46e4 693d ab11 85bd e993 4d3e e165 673e
00000030: 5757 f0bc 5d55 743d 80e5 3fbe 65f6 50be
00000040: 9aae 4ebe e282 2fbd f026 ff3d 1590 70bd
00000050: 84df 77be 996d 343d e820 583e b614 04be
00000060: d614 67be e3cb 02be 9377 333d 3d7e 903c
00000070: 638a 1dbe cfe7 533d b20f d63c 976a 37bc
00000080: 4a0d 933e 935a 133d c9ba a4bd 1cc9 36bd
00000090: 6fa8 2cbe 3581 143e 02e4 823c 8b15 ad3d
000000a0: e9bb 48bd 8abd 193e 3f51 843d a919 023e
000000b0: 6456 d6bd 8361 31be 47c0 0d3e e47c 773e
000000c0: 86f5 7abd d8a4 14bc eda4 183d df22 103e
000000d0: 290f 8e3d 1b63 7dbd 50df 4b3d 863d e2bd
000000e0: e448 bdbd 5689 403e a8c2 4ebe a496 5bbe
000000f0: 9526 373b a807 58be 6b67 f1bc b711 e83d
00000100: 2a89 c23a 16ae 89bc 5558 123e ec57 1ebe
00000110: 7c2c 423e 6ff9 053e 6b7a 173e ae73 353e
00000120: cc90 1abe 0901 d33d 1a3b 093d 301e 40be
00000130: e133 35bc eb59 9fbe 7fba 8c3e 8177 94be
00000140: 2232 973e 25d7 533c febc cd3d 6028 38be
00000150: e108 bbbd dbdb 7dbc 152b 18be 4b42 48be
00000160: 054a 38be b6d8 633e e760 ce3b 7610 2b3e
00000170: 01f2 023e a362 473a 869c 243e b404 00be
00000180: ee0d bb3c 68d1 203c 8a1b 53be ce94 503d
00000190: 68c9 8dbe 6b83 6ebe fd39 06be 55dd 34bd
000001a0: dadd 85be c966 f03c 3ecc 74be 119b 333c
000001b0: 5dd0 02be fc80 4b3e 0afc 043e 895f c53c
000001c0: c0ff 7fbe d1f0 1f3e be32 f83d 97a4 74be
000001d0: b66f 843d 9583 54be 4598 40be 41e8 bcbc
000001e0: 93ea 19be b41c ffbd 3ec6 223e b815 9dbd
000001f0: f581 623d 8d81 57be 0cff 913c bc28 cc3d
00000200: 25e8 80be cbde cabd 27c0 99bd f3c6 70be
00000210: f5fa a8bd 5380 393e e605 983e 0fcd 983e
00000220: 07e7 783e 5cd8 7d3e dcd3 46be cd04 7b3d
00000230: bb69 77be 3a99 053e 3505 87bd 93eb 3b3e
00000240: 10d4 71bc 1ac3 b8bd b688 073e 49f1 6e3e
00000250: b911 c13d bd58 533d 2527 b43d dd88 2cbe
00000260: 671d c03c cb24 2e3b f9ec 41be dbc0 843d
00000270: ae29 433c f84f cfbd 620c 163d 8fa7 85be
00000280: 88fb 683e 74b4 32bd 2581 063e 9a43 9dbe
00000290: 254e df3c e031 01be 2bdb 38be e932 8a3e
000002a0: d7fb b03d 5f10 86bd 4e67 d03d 0a33 62be
000002b0: 8a73 483e a46a 4fbe 5a3d 44bc 4203 043e
000002c0: 9a43 8bbe 040f 373e 125d 0b3d ddda a0bd
000002d0: cd80 cb3d 2c94 febd dbde 88bd 8246 13be
000002e0: 2095 a3bd 33df 04be 8602 dabd 3dc1 b53d
000002f0: 4c60 e23d e2ec 2bbe 0c3c 18bc 3012 193e
00000300: 745f e7bd e0ba a53d eee9 34be 81ac 5d3e
00000310: c927 683d 7ba0 cebd 520d 363e 7dc4 b93b
00000320: 66ad 943d 2a05 1abe c4ce b139 c248 10be
00000330: 49aa 303e 65ed 283e 6f1a e7bd b8e0 0ebb
00000340: f71a 5f3d 2ddd f53d a6e2 efbd 0d44 f53c
00000350: 5262 e83d 060e 6ebe 087d 79bd d522 b33d
00000360: 5a7a 203e 1daa a3bd 3771 1cbe 2e8a 3b3d
00000370: 925b 4f3d 0c96 813e 4ff2 213e ca97 15bd
00000380: 5622 febc 9c3b 7b3d 4635 68be cacd 3b3e
00000390: 1999 e03d 352f 023e 4021 34be 6fc7 143c
000003a0: 0faf 203e 6f86 dc3d 5ce8 d0bd f48e 52bd
000003b0: 1f4c 14be caf2 143d df05 75be c890 2a3e
000003c0: b002 a0bd 2336 f23d 75e6 a3bd cd86 7a3e
000003d0: 159d 30be e81a 173e 4bf9 423c d993 b33d
000003e0: 5b65 973c 0234 3abe fc84 6c3e 322d 0a3e
000003f0: 1bb8 dc3d 9018 633e 2763 2ebd 5f10 ca3d
0.06320072 0.03630683 0.1388222 0.13996682 0.24470986 0.062301323 0.03972711 -0.028622534
0.057102464 -0.064975105 0.20075954 0.22597457 -0.029338522 0.05965172 -0.18739891 -0.20406492
-0.20183793 -0.04284943 0.124585986 -0.058731157 -0.24206358 0.044049833 0.21106303 -0.12898526
-0.22566542 -0.12773089 0.043815207 0.01763832 -0.15384822 0.05173474 0.026130531 -0.011194847
0.28721076 0.03597505 -0.08043439 -0.044625387 -0.16861127 0.14502414 0.015977863 0.084513746
-0.04900733 0.1501371 0.06460809 0.12705101 -0.104656965 -0.17322354 0.13842879 0.24168736
-0.061269306 -0.009072505 0.03726666 0.14075802 0.06936485 -0.061862092 0.049773514 -0.11046891
-0.092424184 0.1880239 -0.20191443 -0.21444184 0.002794658 -0.2109667 -0.029468259 0.11331504
0.0014841903 -0.016806643 0.14291508 -0.15463227 0.18962282 0.13083433 0.14792792 0.1771991
-0.15094298 0.10302932 0.03350363 -0.18761516 -0.011059732 -0.3112329 0.27486035 -0.28997424
0.29530436 0.012929712 0.10045813 -0.17984152 -0.09132553 -0.015494312 -0.14860184 -0.19556539
-0.17996986 0.22250637 0.0062981728 0.16705498 0.1278763 0.00076059456 0.16075334 -0.12501794
0.02283379 0.009815551 -0.20615974 0.05092316 -0.27692723 -0.2329232 -0.13108058 -0.04415639
-0.26145822 0.029345887 -0.23906037 0.010962264 -0.12774797 0.19873422 0.1298677 0.024093406
-0.24999905 0.15619208 0.12119053 -0.23890911 0.0646662 -0.2075332 -0.18808086 -0.023059966
-0.15030889 -0.124566466 0.15895936 -0.07670158 0.055299718 -0.21045513 0.017821811 0.09968707
-0.25177112 -0.09905776 -0.07507353 -0.23513393 -0.08250991 0.18115358 0.29692 0.29843947
0.2430688 0.24789566 -0.19416755 0.061283875 -0.24161427 0.13046733 -0.0659279 0.18351583
-0.014760032 -0.09021588 0.13235745 0.2333423 0.094272085 0.0515983 0.08796529 -0.16849084
0.02345152 0.0026572223 -0.18938054 0.06482097 0.011911793 -0.10122675 0.036632903 -0.261044
0.22752202 -0.043629125 0.13135202 -0.30715638 0.027258942 -0.12616682 -0.18052356 0.26991966
0.08641785 -0.06546091 0.10175954 -0.22089782 0.19575325 -0.20255524 -0.011977518 0.12891868
-0.27200013 0.17876822 0.034024306 -0.07854245 0.09936676 -0.12430605 -0.06683131 -0.14382365
-0.07987428 -0.12975769 -0.106450126 0.08874748 0.110535234 -0.16789582 -0.00929166 0.14948344
-0.11297503 0.08092284 -0.17667362 0.21647836 0.056678567 -0.10089203 0.17778519 0.005669175
0.072596356 -0.15041032 0.00033914123 -0.14090255 0.17252459 0.16496809 -0.11284339 -0.0021801423
0.054469075 0.120050766 -0.11713152 0.029939676 0.11346878 -0.23247537 -0.060910255 0.08746878
0.15671673 -0.07991431 -0.15277563 0.045786075 0.050624438 0.2530979 0.1581509 -0.03652171
-0.031022232 0.061336145 -0.22676572 0.18340221 0.10966701 0.1271332 -0.17590809 0.009080752
0.1569178 0.10767829 -0.10200569 -0.051405862 -0.14482163 0.036364354 -0.23928021 0.16656792
-0.078130126 0.11826732 -0.080029406 0.24465485 -0.17247422 0.14756358 0.011900256 0.08768434
0.018480947 -0.18183902 0.23097605 0.13493803 0.10777303 0.22177339 -0.042575028 0.09866404

gnn_base.gnn.gnn1.lin_skip.bias f4 [16]
00000000: 7339 cdbd 8f3f ce3d 5101 f4bd f3a5 303e
00000010: 3913 0d3e 093f 043d 45fc a6bd 9bec 243e
00000020: ef98 493e b5a0 72be cae0 c1bd 54bb b23d
00000030: 672f a8bb bcb3 343e 917b 4ebe 1626 2dbe
-0.10020723 0.100707166 -0.119143136 0.17250805 0.13776864 0.032286678 -0.08153585 0.16105883
0.19687246 -0.23694117 -0.09466703 0.08727136 -0.005132604 0.17646688 -0.20164324 -0.1690906
