onpolicy/results/GraphMPE/rendezvous_graph/rmappo/crap_bad/wandb/run-20250316_161333-3zc4i4fp/files/actor.pt (torch, 201223 bytes, 62 tensors)

gnn_base.gnn.embed_layer.entity_embed.weight f4 [3, 2]
00000000: 4601 c63f 3ea2 98be 5c0e 0bc0 736b 123f
00000010: a1d1 8abf 2d05 b3bf
1.5469139 -0.2981128 -2.1727514 0.57195204 -1.0845224 -1.3985955

gnn_base.gnn.embed_layer.lin1.0.weight f4 [16, 9]
00000000: 50ca 57bf af00 13bf 7dc7 863e 686b 23bf
00000010: 83e9 af3d 1a4b 42bd 67ee d5be 3a7c 2fbe
00000020: b06c 79be 7428 a83e df73 cabd 07a3 38bf
00000030: 84b6 5bbe 7870 7bbe 5a1b 2c3e b4e9 98bd
00000040: ecbb 6c3e 660c 0dbf b347 633e d7ed 5cbf
00000050: f94a 3abe 3f5f 513e 01e0 1c3e fe63 1dbe
00000060: 5973 c0bd 69a0 2ebe 37fc 433f 6ac5 523d
00000070: 7351 0abd f50c 0abf c71a cb3e 29d8 f03b
00000080: 78bf 10bf 1a30 19bf 091a 42be e2ac f5be
00000090: 05e9 d53e a846 593d aa04 dd3e b05b 273e
000000a0: 490d b8bb 7e08 2d3f b43b 3cbe 7b90 debe
000000b0: 0b73 b6bd a2c7 ed3e 1e32 90be 6a24 8a3e
000000c0: d4de dcbe 003f 66bf e54f f6be 760e e53d
000000d0: 7472 83be c3bf a0bc 618d 923d 2125 2d3e
000000e0: fd9c e93e 6811 ed3e 78ef 1dbe f87d 44bd
000000f0: fbcd 1fbe 146d c8be 07e5 9ebe 45f1 a03e
00000100: 9d6c 483d c264 733e a6fc f43d 6539 1d3f
00000110: 4040 c3be a3f2 d3be bfed 673e daca 093e
00000120: 7e0d 12bf be45 d63b cb55 86be 8f49 fa3e
00000130: 2845 e5be 1713 103e 8312 b13d 8d22 b6be
00000140: e1c6 463d 31da a03d 27c2 fd3c b85a a03e
00000150: 9980 19be 14bc 57be 0159 19bc dc56 2cbe
00000160: d0c4 663f 25de 1dbe c26c 71be 7954 8bbe
00000170: 8f5b ac3c c9ed 183f ff99 90bd 8ac1 a2be
00000180: 3562 1c3f 67dc d03e 63d7 ebbd f1e2 2fbe
00000190: 1d17 f2bd a20d c73e 8e24 b43d 6938 af3d
000001a0: f30c 1abe 6784 063f 4a8f a63d 2bc2 89be
000001b0: c9ce 3cbc cae7 053f 06a9 fc3d a4b2 aabd
000001c0: d37e 8ebe 9462 21bf 3823 9bbd 830c a5bd
000001d0: e077 df3e 4848 8f3e 28ac 89bd 2ce6 c5be
000001e0: 9620 b4be 013e 823e 8e8c 943d 2cea 1c3f
000001f0: 4b86 6ebe 52d6 223d fbc7 64be 929c 153f
00000200: c554 3ebe b122 c3be 251f b13e 582d abbe
00000210: 35b5 7b3e 455d b1be df2d cc3c dc32 8e3e
00000220: b89d a2be bff2 8d3e 2c38 c1b8 83c1 d13e
00000230: 0a6b b3be 9fb4 933e 758a aebe 0d96 1fbf
-0.8429308 -0.5742292 0.26324072 -0.63835764 0.08589461 -0.047434904 -0.4178345 -0.17137232
-0.24357867 0.32843363 -0.09885382 -0.7212376 -0.21456343 -0.24554622 0.16807309 -0.0746645
0.23118562 -0.55097044 0.2219532 -0.86300415 -0.18192662 0.2044649 0.15319826 -0.15370175
-0.09397001 -0.17053379 0.76556724 0.0514578 -0.033769082 -0.5392602 0.39668867 0.007349987
-0.5654216 -0.5983902 -0.18955244 -0.47983462 0.41779342 0.0530459 0.4316762 0.1634357
-0.005616818 0.67591083 -0.1838215 -0.43469605 -0.089086615 0.4644137 -0.28163236 0.26980907
-0.43138754 -0.8993988 -0.4810783 0.11184399 -0.25673258 -0.01962269 0.07155872 0.16908695
0.45627585 0.46302342 -0.15423381 -0.047971696 -0.15605919 -0.3914572 -0.3103411 0.31434074
0.048931707 0.23768905 0.11962251 0.614157 -0.38134956 -0.41396055 0.22649287 0.13456288
-0.5705184 0.0065390756 -0.2623733 0.48884246 -0.44779325 0.14069782 0.08646109 -0.35573235
0.04852951 0.07854117 0.030976368 0.31319213 -0.14990462 -0.2106784 -0.009359599 -0.16830009
0.9014406 -0.15416773 -0.23576644 -0.27212885 0.021039752 0.5973783 -0.070606224 -0.31788284
0.6108735 0.40793154 -0.11515691 -0.17176415 -0.11820815 0.3887759 0.08796035 0.08555681
-0.15044002 0.5254578 0.08132799 -0.2690595 -0.011523911 0.5230681 0.12336926 -0.08334854
-0.27831134 -0.63041043 -0.07575077 -0.08059027 0.43646145 0.27984834 -0.06722289 -0.3865217
-0.3518111 0.2543793 0.07253371 0.6129482 -0.23293416 0.039755173 -0.22341911 0.5844203
-0.18587025 -0.38112405 0.34594074 -0.33433032 0.24580844 -0.34641472 0.024924217 0.27773178
-0.31760955 0.27724263 -9.21342e-05 0.4096795 -0.35042602 0.2884874 -0.3409001 -0.62338334

gnn_base.gnn.embed_layer.lin1.0.bias f4 [16]
00000000: b004 4c39 21d6 45ba 271c 4abb 352d 49bb
00000010: 5855 4ab9 fa92 aa3b 5b46 85bb fc86 30ba
00000020: bed9 78bb 0370 8b3b fb7b ba39 59cf b4bb
00000030: e4df 0dbb f6a9 cf3b dd40 ad3a 9e56 e63b
0.00019456702 -0.00075468613 -0.0030839534 -0.0030697112 -0.00019296014 0.0052055093 -0.004067225 -0.00067339814
-0.0037971581 0.004255296 0.00035569057 -0.005517882 -0.0021648342 0.0063373996 0.0013218183 0.0070293685

gnn_base.gnn.embed_layer.lin1.2.weight f4 [16]
00000000: 361d 803f fc94 803f 5ab0 7e3f f670 803f
00000010: 771e 803f e847 7e3f c1f8 7e3f 94d3 7e3f
00000020: 3a29 803f 2228 803f f6c2 7f3f 6dda 803f
00000030: 0ff2 7f3f b8cb 803f 1b14 803f 0ea2 7e3f
1.0008914 1.0045466 0.9948784 1.0034473 1.0009297 0.9932847 0.9959832 0.9954159
1.0012581 1.0012248 0.9990686 1.0066658 0.9997873 1.006217 1.0006136 0.99466026

gnn_base.gnn.embed_layer.lin1.2.bias f4 [16]
00000000: b55a a7ba 5c2d 9e39 6af6 25bb aca4 dabb
00000010: a22d efb9 de71 a93b 087f 7f3b d5c3 d0bb
00000020: 76f3 91bb 8cca d33b c6e2 ecba abe3 b8bb
00000030: 5181 98bb 35e0 133b 6df5 be3a 8fda df3b
-0.0012768122 0.00030169904 -0.0025323876 -0.0066724624 -0.0004561963 0.0051710447 0.0038985629 -0.0063710012
-0.0044540716 0.0064633545 -0.0018072955 -0.0056423745 -0.0046540876 0.0022564058 0.0014568992 0.006831474

gnn_base.gnn.embed_layer.lin_h.0.weight f4 [16, 16]
00000000: 3bc6 3e3f 006b cc3e 8b8f b03e 0a38 38be
00000010: 17f0 163d dc37 933d c94d 6e3d f17e a73e
00000020: 7486 b63e 4835 3b3e 0bba 303d 5e25 d4bd
00000030: f4e2 043c 7e19 563f e329 c23e 9faf cbbc
00000040: 5b2c 8b3e cfb1 debd bdd7 d8be 2b60 133f
00000050: 8a03 a3be dae4 05be bf08 943e 9dcc 8ebe
00000060: 8647 083d 4672 013f 1620 15bf 8a7d e23d
00000070: 5b34 25bf 2f8f 363d 2aa8 593e 8dcd 68be
00000080: 9e1a 953e 0847 53bf 3909 433d 803c 443e
00000090: b163 dabe 643c 6e3e a5b3 4ebe cfdc 8abe
000000a0: f5ac 45be b739 4fbc 1267 6d3e 7ba9 4cbf
000000b0: 4a8b 753e 582c 703e 060f ee3c 4d05 043d
000000c0: 611c 153e d343 183d 5e2a e63c d497 193f
000000d0: 4100 633d 851c b1be b82c 643c d236 78be
000000e0: 9a73 063f d63d 6f3e af02 dd3e fbd4 5b3e
000000f0: c9a4 743e fce1 563e 915f 59bf ef07 653e
00000100: 3f6a 1bbf 119e a33c fc76 8f3e 4fa8 293e
00000110: 52a6 acbe 80ac 293f c7b3 96be 5cfd 843e
00000120: 0d9a 953e 82ab 763e 4e6e 17bf e162 9c3d
00000130: ef2a 833e e404 a23e d1e1 98be d06f 81be
00000140: c936 a1be 2fe9 08bf ff80 2e3d ec25 1fbe
00000150: 98f9 043f b82b 993d 3ef4 64be 2dbd dbbe
00000160: a9a7 403e 9516 353e d6e7 03be 6ef5 c33e
00000170: d3d0 23be 4b8e d93e 6b0a c23e 9ff9 343f
00000180: 3bf2 883e 04a6 f33e 91f8 e6be aaa0 7c3e
00000190: f84e 723e 436e 0a3f 2127 4dbf 8f2e 7abe
000001a0: 3247 aebe cab6 92be 2cb8 db3d 2fee 803c
000001b0: 2e08 aabe d3a5 293e 5ed4 49be 0fd3 023d
000001c0: e71e b1bc d9f1 403e 1401 d4bd fe96 7ebd
000001d0: ba48 8c3e a736 bc3e f8eb ee3e 21bb 5abf
000001e0: e2dc 023f d7de d5be a4c7 b2bd a941 22be
000001f0: ae92 9a3e 2b9b 45bc ca6e 1f3e 932c e9be
00000200: a2a5 d43d 9bf8 a5be 16dc 463f 9f18 173f
00000210: 20c2 883e f124 3d3d 3c74 83be 9e3a c93d
00000220: 8bbd d93d 7b94 9abe 78c5 703e 411f a83e
00000230: 14e2 9ebe 5bf6 8abe 5d97 9f3e 7829 00bf
00000240: bc80 9a3e e486 dabe aded 853d 845a 13bf
00000250: f423 b7bc 7de9 123f 870b d23e 7986 7a3d
00000260: c725 aa38 0c5d 663c 4d0f 483e 73d6 a63e
00000270: cc5c 13bf a43f 28bb c215 21bf 5749 07be
00000280: eb04 b2bd 286f 563e caf6 8138 4c3e 803e
00000290: 8cc7 4fbf 0522 b53e f0c1 7f3e 982c 023d
000002a0: 3cea 873e ae9d f4be 19b6 a13e 61fa 893e
000002b0: d94f 18be 9c3a eabd 5ace a93e 6259 263f
000002c0: 717f b23d d014 33bc 7bdf 123e 7a23 c63e
000002d0: 1f4a 013e 6040 173e 9327 103f 0497 1bbd
000002e0: 7310 67bf 042c 44be 636f 1bbe 1719 dd3e
000002f0: 422d ee3e 871a d93e 2288 85bd 537a 863d
00000300: da83 01be 1fbe d1be 7a18 1bbf 2f7d 0e3e
00000310: da22 1d3e 08fb 8abe 7896 863d 4a45 123f
00000320: 756c 9a3e 3ad5 4abf b3a3 23be fafa eebb
00000330: 462e c0bd 6c12 eb3e 8b43 9ebd 7cce 36be
00000340: c908 77be 284d 5d3e 6d06 113f bc87 65be
00000350: 411a a9be 1069 0bbf ec54 a8bd 24f9 ecbe
00000360: 4e6d 4dbe 2c4e eabe ba09 8fbe 3f96 52be
00000370: 7cf9 01bf e45e cf3e 1036 a6be 5bb1 223c
00000380: 7d28 0b3f f069 69be c369 b7bd e727 bbbe
00000390: 4eb7 e9be 7a0c 82be b684 fcbe 4ce8 72be
000003a0: 5f2d aa3d 45dd 46be b5f3 b1be 29c1 313f
000003b0: 6e1c fc3e f87b 1bbe a70b 383c a9f2 22be
000003c0: 99f9 f9be 0b3a 603c 68ae 90be 26bb 2abe
000003d0: abe9 a9be daa2 0abe 6c20 b1bd c874 2dbe
000003e0: edb8 25be 10f1 8f3e 1a0c 453f 12ce ae3e
000003f0: 36b2 03bd f4d4 f33e 3fb6 8b3e 2c44 1cbf
0.74521226 0.39925385 0.34484515 -0.17990127 0.03685006 0.07188389 0.05817965 0.32714036
0.35649455 0.18282044 0.043146174 -0.1035869 0.0081107505 0.8363265 0.37922582 -0.024864016
0.27182278 -0.10873758 -0.42352095 0.57568616 -0.31838638 -0.13075581 0.28912923 -0.27890483
0.033271335 0.5056499 -0.58252084 0.11059101 -0.64533013 0.044570144 0.21255556 -0.22734661
0.2912187 -0.8253026 0.047616217 0.19163704 -0.42654184 0.23265225 -0.20185716 -0.2712159
-0.19304259 -0.012648038 0.2318385 -0.79946107 0.23978916 0.23454416 0.029059898 0.032231618
0.14561607 0.037174057 0.028096374 0.59997296 0.055420164 -0.3459207 0.013926677 -0.24239662
0.52520144 0.23363432 0.4316611 0.21467964 0.23890986 0.20984644 -0.8491145 0.22366308
-0.60708994 0.019972833 0.28020465 0.16568111 -0.33720642 0.6627884 -0.29434034 0.25974548
0.29219094 0.24088863 -0.59152687 0.07636047 0.25618693 0.31644356 -0.29859784 -0.2528062
-0.3148711 -0.5348081 0.04260349 -0.1554181 0.5194335 0.07479042 -0.22358796 -0.42917767
0.18813957 0.17684396 -0.12881407 0.38273185 -0.15997629 0.42491373 0.37898573 0.7069339
0.26747307 0.47587597 -0.45111516 0.24670663 0.23662937 0.54074496 -0.8013783 -0.24431823
-0.34038693 -0.28655082 0.10728487 0.015738575 -0.33209366 0.16567163 -0.19709918 0.031939562
-0.02162118 0.18842258 -0.10351768 -0.062155716 0.27399236 0.36760446 0.46664405 -0.85441786
0.5111829 -0.41771576 -0.08729485 -0.1584536 0.30190033 -0.012060921 0.15569606 -0.4554182
0.103831545 -0.32416233 0.77679574 0.59021944 0.26710606 0.04617781 -0.25674617 0.098256335
0.106318556 -0.30191407 0.23512828 0.32836345 -0.3103186 -0.2714108 0.3117017 -0.50063276
0.30176342 -0.42681038 0.06539474 -0.5755999 -0.022356011 0.57387525 0.4102442 0.0611634
8.113268e-05 0.01406027 0.19537087 0.32585487 -0.5756347 -0.0025672698 -0.62923825 -0.1321157
-0.08692344 0.2094084 6.1971674e-05 0.2504753 -0.8116386 0.35377517 0.24976325 0.03178081
0.26545894 -0.4777655 0.31584242 0.26948836 -0.1487421 -0.1143696 0.33165246 0.6498014
0.08715714 -0.010930255 0.14343064 0.3869894 0.12625931 0.14770651 0.56310385 -0.037985817
-0.90259475 -0.19157416 -0.1517921 0.43183205 0.46518904 0.4240305 -0.06520106 0.065663
-0.12647954 -0.40965363 -0.60584223 0.13914941 0.15345326 -0.27144647 0.065716684 0.57136977
0.3016087 -0.7923161 -0.15980415 -0.0072931023 -0.09383826 0.45912492 -0.077277265 -0.17852205
-0.24124445 0.21611464 0.5665043 -0.2241506 -0.33027843 -0.5445719 -0.082193226 -0.4628383
-0.20061228 -0.45762765 -0.27937108 -0.20565127 -0.5077131 0.40502083 -0.3246312 0.00992998
0.54358655 -0.22794318 -0.08955719 -0.3655388 -0.45647663 -0.25400144 -0.4932 -0.23721427
0.08309435 -0.19420345 -0.34756246 0.69435364 0.4924044 -0.15184009 0.011233247 -0.1591288
-0.4882324 0.0136857135 -0.2825806 -0.16672954 -0.33186087 -0.13538685 -0.08648762 -0.1693908
-0.16183825 0.28113604 0.7697159 0.34141594 -0.032152377 0.47623408 0.2728748 -0.6104152

gnn_base.gnn.embed_layer.lin_h.0.bias f4 [16]
00000000: 0000 0000 0000 0000 0000 0000 0000 0000
00000010: 0000 0000 0000 0000 0000 0000 0000 0000
00000020: 0000 0000 0000 0000 0000 0000 0000 0000
00000030: 0000 0000 0000 0000 0000 0000 0000 0000
0.0 0.0 0.0 0.0 0.0 0.0 0.0 0.0
0.0 0.0 0.0 0.0 0.0 0.0 0.0 0.0

gnn_base.gnn.embed_layer.lin_h.2.weight f4 [16]
00000000: 361d 803f fc94 803f 5ab0 7e3f f670 803f
00000010: 771e 803f e847 7e3f c1f8 7e3f 94d3 7e3f
00000020: 3a29 803f 2228 803f f6c2 7f3f 6dda 803f
00000030: 0ff2 7f3f b8cb 803f 1b14 803f 0ea2 7e3f
1.0008914 1.0045466 0.9948784 1.0034473 1.0009297 0.9932847 0.9959832 0.9954159
1.0012581 1.0012248 0.9990686 1.0066658 0.9997873 1.006217 1.0006136 0.99466026

gnn_base.gnn.embed_layer.lin_h.2.bias f4 [16]
00000000: b55a a7ba 5c2d 9e39 6af6 25bb aca4 dabb
00000010: a22d efb9 de71 a93b 087f 7f3b d5c3 d0bb
00000020: 76f3 91bb 8cca d33b c6e2 ecba abe3 b8bb
00000030: 5181 98bb 35e0 133b 6df5 be3a 8fda df3b
-0.0012768122 0.00030169904 -0.0025323876 -0.0066724624 -0.0004561963 0.0051710447 0.0038985629 -0.0063710012
-0.0044540716 0.0064633545 -0.0018072955 -0.0056423745 -0.0046540876 0.0022564058 0.0014568992 0.006831474

gnn_base.gnn.embed_layer.lin2.0.0.weight f4 [16, 16]
00000000: 1752 3d3f 9ccd cb3e c0f1 ae3e e631 3ebe
00000010: 30b7 273d 7b47 913d 48f9 7c3d 47f3 a53e
00000020: 69b6 b83e 0d66 363e 7c60 4d3d fcf3 c6bd
00000030: 1bc3 773b 6648 573f 8e94 c23e 441a b2bc
00000040: 8771 8d3e 1f1c ebbd 3b8f d8be e1c8 133f
00000050: 22f1 a3be 6ff2 07be 20c1 923e 04bb 8cbe
00000060: 6dd4 f53c 0a29 023f e1a1 15bf abeb de3d
00000070: 8010 24bf ade2 2b3d eace 563e 7907 6cbe
00000080: a31a 973e 43bd 54bf 7bad 5f3d e227 4a3e
00000090: 0559 ddbe 2d18 673e 129a 54be 8e21 89be
000000a0: bf57 44be 7d39 0cbc 1dcf 693e 1401 4ebf
000000b0: 9f17 7a3e e054 703e 9244 fc3c 1180 db3c
000000c0: bcb7 113e 5c06 313d 3cb8 b53c e0a9 183f
000000d0: c9da 7e3d ef9d adbe c91a 9e3c 9b7b 7dbe
000000e0: ce35 063f a7db 6a3e b776 dc3e 4232 613e
000000f0: 2c50 6d3e fe61 5a3e 02ea 58bf 1814 6a3e
00000100: 4411 1cbf d4ad b33c b4f8 8f3e d756 2b3e
00000110: 8074 aebe 81ed 283f 4a09 97be 0ca3 843e
00000120: 32e3 953e a4d3 763e 8ba3 17bf 9645 983d
00000130: 179b 813e 59a1 a23e 830c 98be 6a72 81be
00000140: 2f67 a4be 0073 0abf 0c3d 263d 111b 25be
00000150: 9489 033f 79e2 a33d edad 6abe 53c8 debe
00000160: 9e95 413e a213 2f3e 96a7 fabd 9564 c63e
00000170: 4bd9 1cbe 2362 dc3e 2669 c53e cb85 333f
00000180: 46dc 8a3e e64e f53e a5df e7be e971 813e
00000190: a130 6d3e 4308 0a3f 0383 4ebf 3aa0 76be
000001a0: a58b afbe da8c 90be a293 d73d 2e0d 583c
000001b0: e0e4 a7be bf0d 263e 7766 50be fdd0 d23c
000001c0: f8b0 a0bc 97d9 433e 480a c7bd cadd 72bd
000001d0: 6860 893e aad8 b83e a37d f03e 8603 5abf
000001e0: 4839 023f 0470 d4be 13fa b6bd bcab 28be
000001f0: c0fd 9b3e fb0d 5cbc f56e 243e d2db e6be
00000200: 5432 ca3d acd2 a2be 8c25 463f 8150 163f
00000210: 2043 8c3e dd02 523d 57d1 80be f608 c23d
00000220: 66f6 dc3d 33fd 9bbe 8661 6d3e 640d a73e
00000230: c3f8 a1be d6e2 8dbe 2fab a03e 900e febe
00000240: b0cd 983e 508a ddbe 7129 813d addf 14bf
00000250: 8cab ddbc 5bb1 133f c304 cf3e 019a 6a3d
00000260: 7aa6 763b c5a3 103c c1ed 4d3e e6ee a93e
00000270: 5db8 14bf 231c 813b 5b1b 22bf 7180 0bbe
00000280: 34d5 a9bd ea23 5a3e d137 183a 8a21 823e
00000290: e8ad 4ebf f012 b73e b78f 813e de85 0f3d
000002a0: dbb2 853e e7d6 f2be 058c 9f3e 49b3 893e
000002b0: b9f1 1abe c50f f2bd dc07 a83e 40b5 263f
000002c0: 4d0b bd3d e5dd 84bc 10a1 183e 6c4e c43e
000002d0: 6fa7 f43d 2012 123e 4b2d 0f3f d448 12bd
000002e0: 5911 67bf f909 44be fec3 1abe e8a4 df3e
000002f0: 2194 f03e 979f d73e bc68 8bbd 26c7 863d
00000300: f93d 01be 38b0 cfbe 5c59 1bbf 8dbd 0d3e
00000310: 518e 183e 6b23 8abe a15a 923d 9e8c 113f
00000320: df71 9c3e b859 4bbf 5d40 22be a69e 54bc
00000330: 2086 b8bd 169d e73e 358a 9dbd 0ce0 32be
00000340: b04e 78be 90eb 5a3e b29d 103f c6c5 6bbe
00000350: 2248 aabe 16af 0cbf 7bb6 aabd 61ff efbe
00000360: 27e7 48be 9c53 edbe ca9c 8cbe e94a 4ebe
00000370: 9d27 02bf 9bbc d23e 2f04 a3be 6c55 1d3c
00000380: 3a42 0b3f 5716 64be 135a c1bd 2624 bbbe
00000390: 7328 e8be be03 80be 1c59 fabe 9933 76be
000003a0: 9df7 a93d fc56 46be 4b24 b5be c20b 313f
000003b0: 829d fa3e 7248 22be f074 433c ab4f 1ebe
000003c0: ef0f fdbe 9bc8 6b3c 40b2 8fbe ccb9 28be
000003d0: ccc0 a7be 42c3 0fbe 883d afbd efc1 2bbe
000003e0: 5c80 23be 8fcb 903e 05d8 443f 3415 ac3e
000003f0: ac23 f5bc 8df0 f53e f33b 8c3e 9ca2 1cbf
0.73953384 0.39805305 0.34168816 -0.18573722 0.040946186 0.07093712 0.06176117 0.32412168
0.36076668 0.17812367 0.050140843 -0.09714505 0.00378055 0.84094846 0.38003963 -0.02174104
0.27625677 -0.11479973 -0.42296776 0.5772839 -0.32019907 -0.13276075 0.28662968 -0.27486432
0.030008519 0.5084387 -0.5845013 0.10884794 -0.64087677 0.04196422 0.20977369 -0.23049726
0.2951251 -0.8310129 0.054608803 0.19741777 -0.4323198 0.22567816 -0.20761898 -0.26783413
-0.19174097 -0.008558628 0.22832914 -0.80470395 0.24423073 0.23469877 0.030794416 0.026794465
0.14230245 0.043218955 0.022182576 0.5963421 0.06222037 -0.33909556 0.019299882 -0.24754183
0.5242585 0.22935353 0.43059322 0.21991828 0.23175114 0.21326444 -0.8473207 0.22859228
-0.60963845 0.021933474 0.28119433 0.16732346 -0.34073257 0.659874 -0.29499274 0.25905645
0.292749 0.24104172 -0.5923392 0.074351475 0.25313637 0.31763723 -0.29697046 -0.25282604
-0.32109973 -0.54081726 0.040585563 -0.16123606 0.513818 0.080021806 -0.2291791 -0.4351221
0.1890473 0.17097333 -0.12238996 0.38748613 -0.15317266 0.43043622 0.38556784 0.70126027
0.2712118 0.47911757 -0.45287815 0.2528222 0.23163082 0.53918856 -0.8066866 -0.24084559
-0.34286228 -0.2823246 0.105262056 0.013186736 -0.32791805 0.16216181 -0.20351587 0.025734419
-0.019615635 0.19125973 -0.09718758 -0.059293546 0.26831365 0.36102802 0.46970853 -0.85161626
0.50868654 -0.4149171 -0.089344166 -0.16471761 0.30467033 -0.013431068 0.16057952 -0.45089585
0.098728806 -0.31801355 0.7740104 0.5871659 0.27394962 0.051272262 -0.25159714 0.094743654
0.10789184 -0.30466613 0.23181733 0.32627404 -0.31635103 -0.27712125 0.31380603 -0.49620485
0.29844427 -0.43269587 0.063067324 -0.581538 -0.027059339 0.576925 0.4043332 0.057275776
0.003763585 0.008828108 0.20110227 0.33190078 -0.58093816 0.0039401217 -0.6332299 -0.13623215
-0.082926184 0.21302763 0.0005806657 0.25416213 -0.8073411 0.35756636 0.25304958 0.035039775
0.26113018 -0.47429582 0.31161514 0.26894596 -0.15131272 -0.11819414 0.32818496 0.65120316
0.09230671 -0.016219089 0.1490519 0.3834108 0.11945998 0.14264727 0.55928487 -0.035713986
-0.90260845 -0.1914443 -0.15113828 0.436805 0.46988013 0.42113945 -0.06807086 0.06580953
-0.12621297 -0.40564132 -0.60683227 0.13841839 0.1489804 -0.26980147 0.07146192 0.5685519
0.30555627 -0.79433775 -0.15844865 -0.012977278 -0.09009957 0.45237035 -0.076923765 -0.1746828
-0.24248767 0.21378922 0.56490624 -0.23024663 -0.33258158 -0.5495466 -0.08335587 -0.46874526
-0.19619428 -0.4635285 -0.2746337 -0.20145763 -0.50841695 0.4115952 -0.3183913 0.009602886
0.5439793 -0.22274147 -0.094410084 -0.36551017 -0.4534336 -0.25002855 -0.4889611 -0.2404312
0.082991816 -0.1936912 -0.35379252 0.69158566 0.48948294 -0.15847948 0.011929736 -0.15460078
-0.4942622 0.01439109 -0.2806568 -0.16477126 -0.3276428 -0.14039329 -0.08556658 -0.16773199
-0.15966934 0.28280303 0.7689212 0.33609927 -0.029924236 0.48035088 0.27389488 -0.6118562

gnn_base.gnn.embed_layer.lin2.0.0.bias f4 [16]
00000000: be56 40ba 2db9 673b 88c2 a13b 6709 a5bb
00000010: b9b8 fbb8 1d9b c63b 032b b93b f684 3ebb
00000020: 7255 8abb 2e00 cf3b 883e 7cbb e23d 603a
00000030: 1ad3 8abb 6229 c23a b30e acbb fd96 0eb9
-0.00073371443 0.0035358176 0.00493652 -0.0050365212 -0.0001200302 0.0060609714 0.0056508793 -0.002907095
-0.0042216117 0.00631716 -0.003848942 0.0008554143 -0.004236591 0.0014813358 -0.0052507757 -0.00013598423

gnn_base.gnn.embed_layer.lin2.0.2.weight f4 [16]
00000000: c166 7e3f 83a3 7e3f b598 803f 1764 803f
00000010: 3133 803f 8f18 803f e47b 7f3f acf5 7f3f
00000020: 317a 7f3f 2dda 803f 6a19 803f 0d56 7f3f
00000030: f736 7f3f 056f 803f b058 803f 6be2 803f
0.9937554 0.9946825 1.0046602 1.0030545 1.0015622 1.0007495 0.9979842 0.9998424
0.99795824 1.0066582 1.0007756 0.9974068 0.99693245 1.003388 1.0027065 1.0069097

gnn_base.gnn.embed_layer.lin2.0.2.bias f4 [16]
00000000: e67e dc3a 3afc 703b eade 483b ccf0 b3bb
00000010: f21c a6ba 50c5 e63b a806 313b f67f f3ba
00000020: bf93 8fbb 8423 13ba 59e3 f7ba 2edd 31b9
00000030: b0f1 64bb ce76 ae3a 8daa 8abb 46b4 733a
0.0016822487 0.0036771432 0.0030650445 -0.0054913517 -0.0012673421 0.0070425645 0.0027012024 -0.0018577564
-0.0043816264 -0.0005612897 -0.0018912359 -0.00016962431 -0.0034934096 0.0013310553 -0.004231757 0.0009296577

gnn_base.gnn.gnn1.lin_key.weight f4 [48, 16]
00000000: 9e60 903d 71ad 9abd f3bb f8bd a30c 09bb
00000010: 64e1 28be b4f2 533e 2314 233e 00bd 6f3e
00000020: 657a 28bd d262 a33d 448a 45bc b28c 52be
00000030: 6660 ec3d dce5 33be a9da bdbd cc87 e8bd
00000040: 2100 78be 017a d23b 3116 203d 65bf 86bc
00000050: 10d1 3c3e 1154 773c 2df5 3cbd b3fc 0ebe
00000060: a090 1abe 8c18 0abd 20b6 15be c6c7 29be
00000070: 8938 19bd bac3 1fbd b223 20be 6f79 173e
00000080: 80f4 563e f94c 2bbe baec d93d e6b1 e8bd
00000090: 4098 c3bc 36d9 6d3e c30c 0d3d 42af 76be
000000a0: 9fcb 6f3e 0b15 1dbc 9ca6 01be 94e4 04be
000000b0: 3f90 5e3e fdc6 9f3a 25a2 0a3e c870 243e
000000c0: 9008 cabd 9d95 c13c c9d0 24be c4c3 533e
000000d0: e238 08be 28e9 263e 60aa 823d 2991 213e
000000e0: 561d 34be 6a29 15bc 34c0 043e 0eb1 21bc
000000f0: 4c35 66b9 e301 f03d 2366 3bbe b550 50bd
00000100: bd6e e73d 2b97 013e 9d4e 6e3e cc5c 42bd
00000110: 23ba 7f3d 1f3e 01be 9578 2abd e3a5 01be
00000120: 0173 403e 398d f13a 71cb cd3d 0d78 0b3e
00000130: 70f2 403d 3e98 c23c 6e22 9ebc 26d1 5cbe
00000140: f13a 243d 8678 50bd 239e 55be fffd 6d3e
00000150: 3434 c6bc 8827 03be e719 77be d147 6cbe
00000160: fa7e c83d 3be2 edbd e93f e1bd 7869 13be
00000170: c98e 523e 2d64 85bd 6f36 283e d09f 473e
00000180: 6555 48be 5dd6 403e 6353 4fbd 7249 783e
00000190: f775 053e 05a3 77be d1f2 453d 6115 ad3d
000001a0: 1432 b4bd f3b3 433e 2e8c 53be 0862 a1bd
000001b0: f649 723e 5ee2 7b3e e74f f93d 3f8c 1abe
000001c0: f4c1 5abe 2eff 4cbe 94fe 76bd 2c8e 113e
000001d0: b97b a43d ac74 07bd 26bc 653e ba60 473e
000001e0: d20c eabd 2dc7 e2bd e81c 88bb 3791 573d
000001f0: 084f 5a3a 42eb bf3d 15e6 313e 20b3 46bd
00000200: 7a15 fc3d ceec 1a3d 3b90 c53d 5c02 d93d
00000210: a23a 81bd 44fb e7bd eaaa dc3d ec6d 27be
00000220: ec9d 093e ec33 24be d557 2d3e bac1 cd3d
00000230: bd6d 7abd b0e1 133e 99bf b0bd 089f 4c3d
00000240: 80ce 943d 301b c83c 785a 573d 8866 08bc
00000250: 8400 99bd 8575 0d3e 6f22 c93d ee0d c73d
00000260: 181c 2b3e 621a 05be 5c37 67bd de0e dbbb
00000270: 126f 503e 5359 4fbe b73f 0ebe b104 71bd
00000280: eff8 5cbe b4e3 4abe 6f7a 303e 0605 2d3c
00000290: 34ed 4dbe 3a6e 30bd 9411 d1bb e187 aebd
000002a0: 726f 58be 6964 0d3e 1208 f2bc c2da 793e
000002b0: 56de 43be 994d 10be 5e5a 20bc 2688 32be
000002c0: b346 393e 71e7 453e 7ece 693e e223 22be
000002d0: 91d4 343e a600 303e 5424 d0bd 419f fa3c
000002e0: 259f f03d fc88 363e 1708 6ebe f795 7d3e
000002f0: 38be 85bd 7e6a ce3d 8db1 1bbe deac 43be
00000300: 52c8 2bbe 9132 173e e030 02be 84f1 163e
00000310: f1d3 9e3d 739f d13d bb56 61bd 4bd0 aabd
00000320: 4c6e ecbd 577f 10be 1a51 6a3e 6692 66bc
00000330: 7637 debd 4b5e 6abe f74f cf3b 1b3e 7dbe
00000340: 624f 75bb 63d4 1e3e db5f 15be 2649 0d3e
00000350: f6aa a5bd 376d 42be 0468 7ebe 5d80 fe3d
00000360: 9dae 44be e7c3 fb3d 6cc3 163d b7bf 0a3e
00000370: 07fd 42be 3f59 633e 2a52 80be da32 3fbe
00000380: 75e4 1a3e ef24 2a3c 6dbe 0dbe a566 59bd
00000390: 5c02 63be bf1e 60be f16d 56bd ced9 413e
000003a0: 0329 963d 7b95 3c3d 0c56 89bd 1d63 693e
000003b0: 60ce bb3b 3cda a43d b985 b83b 0a9e 173d
000003c0: a790 ab3d f958 423e 713f 103e 4274 fc3c
000003d0: c22b ca3d 93f2 94bd b0fe 2d3e c79b 913d
000003e0: b04f 413e e194 25bd 447e 52be aa3c 443d
000003f0: 7676 d33d fc49 513e 1326 c33d 3eb6 c23d
0.07049678 -0.075526126 -0.121452235 -0.0020912073 -0.1649223 0.20698053 0.1592565 0.23411942
-0.04113235 0.07977833 -0.012056891 -0.20561484 0.11541824 -0.17568153 -0.09270222 -0.11354026
-0.24218799 0.0064232354 0.039083663 -0.016448686 0.18439126 0.015095727 -0.046132255 -0.13963585
-0.15094233 -0.033714816 -0.14620256 -0.16580114 -0.03740743 -0.03900502 -0.15638617 0.14792417
0.20991707 -0.16728581 0.10640855 -0.113620564 -0.02387631 0.2322739 0.034436 -0.24090293
0.23417519 -0.009587537 -0.12661213 -0.1297782 0.21734713 0.001219004 0.13538416 0.16058648
-0.098649144 0.023630911 -0.1609527 0.20680147 -0.13302949 0.1629988 0.06380153 0.1577803
-0.17589316 -0.009104112 0.12963945 -0.009868873 -0.00021954364 0.1171911 -0.18300681 -0.05085822
0.113004185 0.12655322 0.23272176 -0.04745178 0.062433373 -0.12621354 -0.041618902 -0.12660937
0.1879387 0.0018428928 0.10048569 0.13620014 0.047106206 0.023754235 -0.019303527 -0.21564159
0.040095273 -0.05089619 -0.20861106 0.23241423 -0.024194814 -0.12808049 -0.24130975 -0.23074271
0.09789844 -0.11615416 -0.10998518 -0.14395702 0.2056228 -0.06513248 0.16427015 0.19494557
-0.19563825 0.18831773 -0.050616633 0.24246767 0.13033281 -0.24183281 0.04832727 0.08451343
-0.08798614 0.19111614 -0.20658943 -0.07880026 0.23661026 0.24598071 0.12173443 -0.15092562
-0.2136305 -0.20019218 -0.06030138 0.1421439 0.08031411 -0.03307025 0.22435054 0.19470492
-0.114282265 -0.11073146 -0.0041538365 0.052628722 0.00083278166 0.09371044 0.17372926 -0.04851067
0.12308784 0.03782349 0.096466504 0.10596153 -0.063100114 -0.11327222 0.10774787 -0.16350526
0.13439149 -0.16035432 0.16928037 0.10046716 -0.06113981 0.14441562 -0.08630294 0.04995635
0.07265949 0.024427027 0.052576512 -0.008325227 -0.074708015 0.13814361 0.09821021 0.09719454
0.16709936 -0.12998345 -0.05644928 -0.006685122 0.2035487 -0.20248918 -0.13891493 -0.058842365
-0.21579336 -0.19813424 0.17234205 0.01056028 -0.20110017 -0.04307387 -0.0063802693 -0.085220106
-0.21136263 0.13807835 -0.029544864 0.24399856 -0.19127783 -0.14092101 -0.00978717 -0.17434749
0.18093376 0.19326569 0.22832677 -0.15834 0.17659213 0.17187747 -0.10163179 0.030593516
0.117491044 0.17825693 -0.23245274 0.24764238 -0.06530422 0.100789055 -0.15204449 -0.19108912
-0.16775635 0.14765383 -0.12713957 0.14740568 0.07755268 0.10235491 -0.055014353 -0.0834051
-0.11544475 -0.14111076 0.228825 -0.01407299 -0.10850422 -0.22887532 0.006326671 -0.24730723
-0.003743135 0.15510707 -0.14587347 0.13797435 -0.08089249 -0.18986975 -0.24844366 0.12426827
-0.19207235 0.12293225 0.036807463 0.13549696 -0.19041835 0.22202013 -0.25062686 -0.18671742
0.15126212 0.010384782 -0.13842173 -0.053076405 -0.22168869 -0.21886729 -0.052350942 0.18930742
0.07332041 0.046040993 -0.06705865 0.22791715 0.005731389 0.080494374 0.0056311754 0.037015952
0.083771996 0.18979253 0.14086701 0.030817155 0.098716274 -0.0727283 0.16991687 0.0710979
0.18878055 -0.040425185 -0.20555979 0.047909416 0.10325329 0.20438379 0.095287465 0.09507416

gnn_base.gnn.gnn1.lin_key.bias f4 [48]
00000000: 14ad da3d 70e7 983d 5cce 0b3e c0b8 4dbe
00000010: 4c43 9e3d b274 72be c45c 28be 84cc bebd
00000020: 1089 c7bc a296 71be 40e0 cb3b 007d 233d
00000030: 0832 cbbd a011 a63d e2b2 5f3e 08ea 2ebd
00000040: 1257 08be a6c5 62be 92ee 3abe 2497 0dbe
00000050: 1441 3dbe 004b c9bd ca06 0d3e 5437 a03d
00000060: 2cbd 663e 362b 7e3e ec5f b8bd 4c82 c8bd
00000070: 1821 0c3d 26d9 4bbe 463e 0b3e 204c 38bd
00000080: 305b 56be 7a46 41be c866 30be 6cb9 8c3d
00000090: f63d 443e 12d1 4a3e 54fb 8cbd fab2 14be
000000a0: 543e e3bd eae0 2ebe 3401 84bd 5434 67be
000000b0: d4d4 083e 2cf2 70be f83e 1fbe 3acd 2b3e
0.10677543 0.07466018 0.13652939 -0.20090008 0.077276796 -0.23677328 -0.16441637 -0.09316352
-0.024357349 -0.23592618 0.006221801 0.03991413 -0.09921652 0.081088305 0.21845582 -0.04270366
-0.13314465 -0.2214571 -0.1825507 -0.13827187 -0.18481857 -0.09828758 0.13772121 0.07823053
0.22533101 0.24821171 -0.09002671 -0.09790477 0.03421125 -0.19907054 0.13597974 -0.044994473
-0.20933223 -0.18874541 -0.17226708 0.06871304 0.19164261 0.19806316 -0.068838745 -0.14521399
-0.110958725 -0.17077985 -0.06445542 -0.22578555 0.13362437 -0.23529881 -0.15551364 0.16777506

gnn_base.gnn.gnn1.lin_query.weight f4 [48, 16]
00000000: 8293 40be 86c1 793d 3316 433e 2f15 7b3e
00000010: 6bcf 023e 0785 8ebd 0aba 0f3e 1dc0 f9bb
00000020: 4e00 9abd 015a 3f3b d531 5c3d 80fb 283e
00000030: da2c d83d 490e f13d e5ff 203d f198 48bc
00000040: ab3c d63d e0c8 7d3d 878f 77be 81e4 213d
00000050: 4644 e5bd e79c 07be c364 cc3d de24 5a3d
00000060: 42cc 253d d9e1 efbd 6dc3 ef3d 60ef 723e
00000070: ece4 033d f46b d23d 247d 62be 58f2 143e
00000080: 6ebd b83d bfbd e13d 3564 d93d 4db3 8abd
00000090: 7251 6dbc b3e7 743e fc92 3a3e 07f4 35be
000000a0: a14c 4b3e fe0d 7c3e 3601 093d b47e 45be
000000b0: e9a2 483d 8935 3ebd 94ae 383e d5cf 79be
000000c0: 6116 843d 4b64 a4b9 c578 823c 6cac 2f3e
000000d0: f375 b53b f8ed 4dbe 3d50 13be 992f cbbd
000000e0: 9556 dd3c d933 c73d 47eb 45bd e67e c7bd
000000f0: ed23 e73d da07 77be 7e98 2e3e 2219 f6bc
00000100: eaf8 303e 8ae3 3e3e 54b2 e23c b5e8 a53d
00000110: 3390 12be d196 393e 2b11 183e 4b45 2cbd
00000120: 5b00 c23d b55a 52bc 4ef1 4a3e 111b d63d
00000130: 7128 383e 74d8 6abe 717b 7c3e 1c70 c03d
00000140: 93e8 fd3d 60cd 5e3d b5d1 293e 5f8d 703e
00000150: 8838 a4bc 2a79 54be 625e 6c3e 5767 58bd
00000160: 7c9f f9bd 05d7 1c3e 8dc7 103e f3b3 143d
00000170: 7656 84bc ef64 40bd 0895 6d3e 02f2 163e
00000180: 32cf 153e 6fb6 243e 7fd3 06be e416 5c3d
00000190: 935a 5ebe 579a 163e 72c3 7abe 96ed 80be
000001a0: 2d57 7fbe 4fb8 203e 4339 df3c 0696 143b
000001b0: 6cb7 1d3d 528a cabd 4cdf 97bd 95c7 2cbe
000001c0: fe37 81bd 61be 1abe 5d5c c83b 2ae3 483e
000001d0: 9982 52be 6e1e fb3d 6495 41be 3c1d d2bd
000001e0: 3f02 553d 87bf 323d 7e2f 4f3e 60bc 5dbb
000001f0: afbb c0bd 9cdd d4bd 5517 ab3b 3c45 3cbe
00000200: cec6 48be 3164 ddbd a21b 393b b694 2bbe
00000210: 4806 13be 1414 393e 2407 703e ec40 a3bd
00000220: e90d 5ebe a35d c0bd aa6e d43d 7ac8 ac3d
00000230: 0baf 9fbd 6e2c 5fbe 1555 a0bd bae4 72bd
00000240: c993 143e 25f7 00be fbd1 1d3e e04f 123d
00000250: b46a 28bd 2bd2 66be 23b0 7c3e aa23 3cbd
00000260: 6c30 1e3e d34b 04be fedc 78be 0e6c 4cbe
00000270: 932a 06be 8161 a8bd 6c0e ffbc f131 523e
00000280: 7fb6 6ebe 464f 003e 04df 573e 569b 373a
00000290: e023 21be 30ce 2b3c 21c4 633d 4215 e13d
000002a0: 4957 94bd 9035 b0bd 96e9 f7bd 345d 7bbe
000002b0: 622c b43d 57b8 40be 2540 f9bd ea21 2a3b
000002c0: 373c 453e a6af 613e 1e60 3bbe 3f0b 5f3e
000002d0: 5204 643e ad15 513e fee1 cb3c f9b4 4b3e
000002e0: fb52 f33d 8aea 36be 992e 04be e7af f33b
000002f0: 5ca3 36be 6f56 aabd 9976 4d3e 29fe ec3d
00000300: b315 5d3e 6322 553b 051d 01be 8a79 2b3e
00000310: 3308 8a3c cf40 313d 88e3 d5bd ad40 ce3d
00000320: 0918 40be 5f84 4e3e f0de 5f3e fef0 b73d
00000330: 0c85 453e 74a5 173e 97a0 bcbd a627 5dbe
00000340: 320f fa3c 3430 233e 917c f3bc be15 b53c
00000350: c39a 3d3e 6f7f da3d 5aa0 423e 37c2 0d3d
00000360: 65ac e13c 6536 6bbd f34b 26bd 2d5f 05be
00000370: 0994 2c3e e34d 683e 760d b63d c314 ff3b
00000380: 1c05 abbd d8d4 7cbe 7136 3abd 4ad0 34be
00000390: cd6f 3abe e975 50bd 214b 52bd f30b 483d
000003a0: 6db5 35be 67a1 373e 644e 6abe 4742 f6bd
000003b0: bfca c3bd 3b03 783c 85ff d23d 5d38 86bd
000003c0: fa49 203d 8a26 79bd 4145 c9bd f4fc 07bd
000003d0: 030a 4d3d e0c2 78be 5232 2fbe c55d 473e
000003e0: ad5d e23d 38bf d6bb 62ce 2e3c 5d35 173d
000003f0: 96ae 653d cf99 30be 4575 86bd d269 6dbe
-0.1880627 0.060975574 0.19051437 0.245198 0.12774436 -0.06958967 0.14035812 -0.0076217786
-0.07519589 0.0029197934 0.05375846 0.1650219 0.1055543 0.11770303 0.03930654 -0.012243495
0.1046079 0.061959147 -0.24175845 0.03952456 -0.11194663 -0.13243447 0.09980156 0.053257816
0.040478 -0.11712999 0.117071964 0.23724127 0.03220074 0.10274497 -0.2211805 0.14545572
0.09020506 0.11022519 0.10614816 -0.0677248 -0.01448475 0.23916511 0.18220133 -0.1776887
0.1985345 0.24614713 0.03344842 -0.19286615 0.04898349 -0.046437774 0.18035346 -0.24395688
0.06449581 -0.00031355242 0.015926728 0.17155617 0.0055377423 -0.20110309 -0.14386077 -0.09921188
0.027018825 0.09726686 -0.04832008 -0.09741001 0.11286149 -0.24124089 0.17050359 -0.030041281
0.17282453 0.18641487 0.027672924 0.08101026 -0.1431282 0.18123938 0.14850299 -0.04205827
0.09472724 -0.012839009 0.19818613 0.10454381 0.17984177 -0.22934133 0.24656464 0.09396383
0.12397876 0.05439508 0.16583903 0.23491429 -0.020046487 -0.20749345 0.23082879 -0.052832928
-0.12188622 0.15316398 0.14138623 0.036304425 -0.016154509 -0.046971258 0.23201382 0.14740756
0.1462982 0.16085218 -0.13166617 0.053732768 -0.21714239 0.14707313 -0.24488619 -0.25181264
-0.24935599 0.15695308 0.027248984 0.0022672429 0.038505003 -0.09889664 -0.074156374 -0.1687301
-0.06309508 -0.15111686 0.006114526 0.19617906 -0.20557632 0.122616634 -0.18904644 -0.10259482
0.052004095 0.043639686 0.2023296 -0.0033834204 -0.09410798 -0.10393831 0.0052212873 -0.18385786
-0.19607088 -0.108101256 0.002824523 -0.16755947 -0.14357865 0.18074065 0.23440224 -0.07971367
-0.21684994 -0.0939286 0.1037267 0.08436675 -0.07797059 -0.21794292 -0.07828728 -0.059300162
0.145095 -0.12594278 0.15412132 0.035720706 -0.041117385 -0.2254111 0.24676566 -0.04593245
0.15448159 -0.1291955 -0.24303052 -0.19963095 -0.13102178 -0.082217224 -0.031134807 0.20526864
-0.23311804 0.1253024 0.21081167 0.0007004043 -0.15736341 0.010486171 0.055606965 0.10990383
-0.07243211 -0.08603966 -0.121051 -0.24547273 0.08797528 -0.1882032 -0.12170438 0.0025960156
0.19261251 0.22039661 -0.18298385 0.21781634 0.22267273 0.20418425 0.024888035 0.19893254
0.11881062 -0.17862907 -0.129084 0.0074367407 -0.17835754 -0.08317267 0.20064773 0.11571915
0.21590309 0.0032521717 -0.12608726 0.16745582 0.016849613 0.043274697 -0.10443789 0.1007093
-0.18759169 0.20167683 0.21862388 0.089815125 0.19289035 0.14809209 -0.092103176 -0.21597156
0.030524824 0.15936357 -0.029722484 0.022105094 0.18516068 0.10668837 0.19006482 0.034609046
0.027548024 -0.05742492 -0.040599775 -0.13024588 0.16853346 0.22685961 0.08889286 0.0077844574
-0.08350584 -0.24690568 -0.045462076 -0.17657581 -0.18206711 -0.050893698 -0.05134118 0.04883952
-0.1774499 0.17932664 -0.22881466 -0.1202436 -0.09560155 0.015137489 0.10302643 -0.06553719
0.03913305 -0.06082777 -0.09827662 -0.03320022 0.050058376 -0.24293089 -0.1710904 0.19469364
0.110530235 -0.006553557 0.010669323 0.036916126 0.0560747 -0.17246173 -0.06565336 -0.23184898

gnn_base.gnn.gnn1.lin_query.bias f4 [48]
00000000: 243e a93d 712d 183d dabe 73be 9c63 b73d
00000010: eb29 90bd e42a 7e3e e4e8 773e 1c48 b53d
00000020: 420a 473e f23d b93d fee4 743e 021d d0bc
00000030: 4382 793d d411 34bd a694 6abb f925 9ebd
00000040: 9a74 d2bd 6f64 113e 505c df3d 58f7 dfbd
00000050: 45de 63be 24da ff3d 5318 6ebe c426 08bc
00000060: b7c2 5cbe 34c1 583e f838 543e 7644 52be
00000070: da4d 72be ee1f 16be baef 863d 454f f5bd
00000080: a9fa 80bd ac55 73bd 386d 413d cbf4 ebbd
00000090: 4aeb ef3d ff1c 33be e9aa d4bc e3e3 533e
000000a0: b228 0fbe 4903 443e 889d 063e be96 a2bd
000000b0: c8ee a73d 7d6f 2dbe c7dc bf3c b5fb 8f3d
0.082638055 0.03715271 -0.23803273 0.08954546 -0.07039245 0.24821049 0.24209934 0.088516444
0.19437507 0.09045018 0.23915479 -0.025404457 0.060915243 -0.043962315 -0.0035794168 -0.077220865
-0.10276146 0.14198469 0.10906279 -0.10935849 -0.22252758 0.12492779 -0.23251466 -0.008310024
-0.21558653 0.21167451 0.20724857 -0.20533928 -0.2366251 -0.14660618 0.06588693 -0.1197801
-0.0629781 -0.059407875 0.0472233 -0.115213 0.117148 -0.1749153 -0.025960403 0.206924
-0.13980368 0.19141878 0.13146031 -0.07938908 0.08199841 -0.1693706 0.023420705 0.07030431

gnn_base.gnn.gnn1.lin_value.weight f4 [48, 16]
00000000: 3c33 593e 75e7 0ebe 5d7f 14be c11a 02be
00000010: 85d4 76be f043 453d a239 50be 3a64 7bbd
00000020: 4050 ebbd 52d9 6c3c d36a a43d 0613 39be
00000030: 332c 8ebd 1b75 f5bc b0c4 10be 26f8 683d
00000040: 0ce4 b63d 9f8b 39be 4e18 453e e86f 313e
00000050: 0e2a a6bd 5419 273d 2290 123d 8b2d f5bc
00000060: d94a 2ebe 2e0c 593e 0597 033e 5518 58be
00000070: c187 41be a7a7 6e3e eb61 293d eb7e 5ebd
00000080: e7db 2f3e 1de1 883d 0354 c13d 35bb 473e
00000090: 757e 80bc cef6 713e 1a33 39be 92d7 20be
000000a0: 8481 473d 424c 06bd fb82 0c3e 197f 95bd
000000b0: 680f 0d3d 40ad 44bd e406 453e f08c 45bc
000000c0: 26fb 253c 530c 3e3e 95e7 743e 8423 7b3e
000000d0: 28a9 7fbe 428e 16be 6f92 56bd 26e3 66bd
000000e0: 7a4d 133e 9040 f53d 3eec abbc 04e6 c73b
000000f0: c8e5 4b3d 72e6 633e a0dd 033e 9253 08be
00000100: 36d5 07be 1859 9b3d 09d3 abbc b91d 29be
00000110: d45e 73be 8072 203d a713 9dbd 0283 19be
00000120: 7cae 563d 35d2 793e 154a 523e 69d8 103e
00000130: 5682 43be 492a 0d3e 4f69 083e 0bdd b33d
00000140: f3fe 84bd 108a 15bc 5838 06be 0a0b 5dbd
00000150: 630b 22bd 4a6d 24bd d6a3 7dbe 61fe be3d
00000160: a7a5 52be 6283 43be a9a2 da3d 39f8 4fbe
00000170: f1e2 743e 812d 703e 53fc 9dbd 6991 38bd
00000180: 763d 46be 07f0 453c a368 283d ba53 0dbe
00000190: 57d5 993d d0d5 d0bb e960 94bd a96a 973a
000001a0: 9fcf 79be 384d 31be 735a 153d 7bb7 743e
000001b0: 51c5 12be ee0e 223e da9a 983c 5f43 d3bd
000001c0: 080c a8bb 5d67 fd3d 3eb0 de3c 5a6a 603e
000001d0: e4c5 45bd 8834 24be 54b4 663e f4b5 91bd
000001e0: 81f2 1f3e b511 263e 0e84 393d 385f 51be
000001f0: d31c 7bbe 5e74 ee3d 5759 753d 99ac 1b3e
00000200: 49b9 5cbe d1b3 0cbd 0a47 5c3e 79b9 073e
00000210: b014 553e 0d65 4a3e 59c5 7dbd 9ff9 2ebe
00000220: 066f 18be efc9 ac3d 0ba0 d0bd 9042 7d3b
00000230: 07e1 223d 5459 223e 36f1 0b3e 5dea 0d3e
00000240: 0ef4 053c a504 133e 5418 f6bd 0ee1 d2bd
00000250: 556b 31bd bb86 1abe 0c0b 693e 53c2 01bd
00000260: cdfb 893d 6ea9 f9bb 591f 233b 5a72 05be
00000270: 54cf 80bc e609 6bbe 790f e9bd a67f 413e
00000280: 922c 72be b644 383d 2e66 283d eddf 74be
00000290: ac28 553d cbe8 e93d 140f 3f3e 36bc 363d
000002a0: e280 433e 1200 203c 534b c03d d99f 9e3d
000002b0: 9139 3fbe 6301 63bd 584d 38be 98f0 413e
000002c0: f73a ff3d ad40 d4bd 5e92 32bd d4b9 843d
000002d0: 3b02 62be ce70 9b3b 4686 fd3d c010 163d
000002e0: 2323 f2bc cd07 1f3e e361 e53d d6df 5dbe
000002f0: 1897 1c3e c6f5 4dbe 1086 0e3e 3f7b 543e
00000300: f063 9e3c a6ed abbd 3c48 05be 869d dfbd
00000310: 2942 36bd 31f3 dbbd e437 813e 2fc9 e1bd
00000320: 1b86 d83d b55f 68be 6cc4 013e 43fb 5a3e
00000330: 264c 3bbe 533c 89bd 1ada 7f3d 291c 79be
00000340: 09af 23be 671f ae3d 0994 6d3e b7d1 9abd
00000350: 0e70 b9bb 4470 74be b9d5 73be e35f 603e
00000360: 6f15 573e 132b 94bd 31c1 cdbd c35c 7fbc
00000370: 9e03 f03d ccd2 78be a23e 0cbe f32a a6bd
00000380: 5f9d e9bd 36c5 46bc f535 3e3e a8e8 453d
00000390: 824b 65be ca9d 703e 3483 4e3e a1a8 993d
000003a0: afe0 fc3d 6626 c83d 2bc1 553e 11c2 75be
000003b0: f75a 20be 942f 1dbd 43fe 27bd 0ddf 26be
000003c0: 104c 73be 9865 46be 1081 38bd 0978 563e
000003d0: f669 243e 40cc 8d3d 1513 17be d07c cbbd
000003e0: b4a3 ba3c 6364 66be 3e9e b4bb c4a6 5c3d
000003f0: d309 693e 56b1 84bd cbfc 7d3e a2bc 543c
0.2121095 -0.13955481 -0.1450171 -0.12705518 -0.24104507 0.048160493 -0.20334485 -0.06137488
-0.11489916 0.01445611 0.080281876 -0.18073663 -0.06942024 -0.029963067 -0.1413753 0.056877278
0.08930215 -0.18119667 0.19247553 0.17327845 -0.0811349 0.04079564 0.035781987 -0.029928943
-0.1702074 0.21196052 0.12850578 -0.21103032 -0.18899442 0.23306142 0.041353147 -0.054320257
0.1717373 0.06683562 0.09439852 0.19505008 -0.0156853 0.23629305 -0.180859 -0.15707234
0.0487075 -0.03278757 0.1372184 -0.072996326 0.03443852 -0.048016787 0.1924091 -0.012057528
0.010130679 0.18559389 0.23916467 0.24525267 -0.24966872 -0.14702705 -0.052385744 -0.05636897
0.14385024 0.11975205 -0.020986672 0.006100418 0.049779683 0.22255877 0.12877512 -0.1331313
-0.13264927 0.07585353 -0.020974653 -0.16515245 -0.23766643 0.039171696 -0.07669764 -0.14991382
0.052412495 0.24396594 0.20536073 0.14145054 -0.19092688 0.13785662 0.13321422 0.08782395
-0.0649394 -0.009127155 -0.13107431 -0.053965606 -0.03956164 -0.04014329 -0.2476953 0.09325863
-0.20571004 -0.19093087 0.10675556 -0.20309533 0.23914696 0.23454858 -0.07714143 -0.04506055
-0.19359383 0.012081153 0.041115414 -0.1380147 0.075113945 -0.0063731447 -0.07245047 0.0011552173
-0.24395607 -0.17314613 0.036463212 0.23898117 -0.14333083 0.15826008 0.018628526 -0.103155844
-0.0051283874 0.123732306 0.027183648 0.2191557 -0.048284426 -0.16035664 0.22529727 -0.07114783
0.15619852 0.16217692 0.045291953 -0.2044648 -0.24522714 0.11643289 0.059899654 0.1520256
-0.21555056 -0.034351174 0.21511474 0.13254346 0.20808673 0.1976511 -0.061955784 -0.1708741
-0.14886102 0.08436953 -0.10186776 0.003864441 0.039765384 0.15854388 0.13666233 0.13858934
0.008175863 0.1435724 -0.12016359 -0.10296832 -0.04331525 -0.15090458 0.2275812 -0.031679463
0.0673748 -0.0076190745 0.002489051 -0.13031903 -0.015723862 -0.22952995 -0.11379904 0.1889635
-0.23649815 0.044987403 0.04111307 -0.23913546 0.05204074 0.11421355 0.18658096 0.044613086
0.19092134 0.009765642 0.09389367 0.07745332 -0.18674304 -0.055421244 -0.17998254 0.18939435
0.124624185 -0.103638984 -0.043596618 0.064807564 -0.22071163 0.004743672 0.12379126 0.036637068
-0.02955777 0.1553032 0.11200311 -0.21667418 0.15292013 -0.20113286 0.13918328 0.2075014
0.019334763 -0.08394937 -0.13015836 -0.10918717 -0.04449669 -0.107397445 0.25237954 -0.11024701
0.105724536 -0.2269276 0.12672585 0.21384911 -0.18290767 -0.06700959 0.062463857 -0.24327148
-0.1598474 0.08502083 0.23201002 -0.07559531 -0.00565911 -0.23870951 -0.23811997 0.21911578
0.2100427 -0.07234778 -0.10046614 -0.015586081 0.1171944 -0.24299163 -0.13695768 -0.08113661
-0.11406969 -0.01213198 0.1857527 0.04831758 -0.22392085 0.23497692 0.20167238 0.075028665
0.123475425 0.09772949 0.20874469 -0.23999812 -0.156597 -0.038375452 -0.041013967 -0.16296025
-0.23759484 -0.19374692 -0.04504496 0.20944227 0.16056046 0.06923723 -0.14753373 -0.099359155
0.022783138 -0.22499232 -0.005512028 0.053869978 0.22757654 -0.06479137 0.24803464 0.012984427

gnn_base.gnn.gnn1.lin_value.bias f4 [48]
00000000: 36ec 60be 943c 1f3e 0558 77be 5224 7ebe
00000010: e873 ffbd 8fde 75be b6fa 87bc 0c43 4b3e
00000020: de51 90bd 1d00 44be 8604 a3bc adba 54be
00000030: 025e 2f3e 54b5 103d 4688 653e c87d da3d
00000040: dfe0 af3d 83ce af3d 37d1 713e 64a1 22be
00000050: f80b 19be d9db 433e d650 b73d de48 673e
00000060: e91c 6a3d 0ca6 b53d a76c 1f3e 916f 223e
00000070: de28 0e3e 8397 49be d82f 993d 878b 2ebe
00000080: 3e92 eb3c 54c9 0d3e 2e14 a3bd 6ca0 5b3e
00000090: c06e 673e 455b 913d d571 3abe a330 f03a
000000a0: a20c 463e 777b 303d 61aa 603e 427c 623c
000000b0: 99be e9bd 1938 263e 0c69 ae3d 01fd 0d3e
-0.21965107 0.15550452 -0.2415467 -0.24818543 -0.12473279 -0.2401068 -0.01659904 0.19849795
-0.07046865 -0.19140668 -0.019899618 -0.20774336 0.17125705 0.035329178 0.22415265 0.10668522
0.08587813 0.08584311 0.23614965 -0.15881878 -0.14945972 0.19126834 0.08950965 0.2258639
0.057156477 0.088695616 0.15568791 0.15862872 0.13882777 -0.19686703 0.074798286 -0.17045413
0.028756257 0.13846332 -0.07962833 0.21447915 0.22600842 0.070974864 -0.18207486 0.0018325042
0.19340757 0.043086495 0.21939994 0.013823571 -0.11413307 0.16232337 0.0851613 0.13866045

gnn_base.gnn.gnn1.lin_edge.weight f4 [48, 1]
00000000: 2ca1 19bf 326a 42bf c18b 2c3f 9da6 b13e
00000010: df12 3c3f 5a40 55bf ba66 ebbe b229 0dbd
00000020: 3572 05bf 57bb 1f3f b784 4b3f ea39 5d3f
00000030: 9515 103e 43a1 68bf d649 b7be 53b4 6a3e
00000040: e454 8bbe ec6d d93e 3262 86be 1ff6 523f
00000050: 4484 5e3f 5a1a 7e3f 11ac a93e 0d1a 2ebf
00000060: 4b17 85be 1b1b 09bf bf75 e63e 8863 b9bd
00000070: 2104 ce3e 2575 943e 3fd0 9cbe 530d 0b3e
00000080: 319e 1ebe edeb 2f3e d440 28bf fd42 833c
00000090: e0dc 433f 6db9 043f 4924 1fbf 010a 553f
000000a0: 7d11 c4be ff9f 643f 5299 4ebe 561f 763f
000000b0: 97ec 163f 7caa abbd f801 2d3f bfdf 583f
-0.60011554 -0.7594329 0.6740075 0.34697428 0.73466295 -0.8330132 -0.45976812 -0.034463592
-0.5212739 0.6239523 0.7949938 0.86416495 0.14070733 -0.90871066 -0.3579852 0.2292035
-0.27213204 0.42466676 -0.26246792 0.824068 0.8692057 0.9925896 0.3313909 -0.680085
-0.25994334 -0.53556985 0.45011708 -0.09052187 0.40237525 0.28995624 -0.3062763 0.13579302
-0.15490033 0.17179842 -0.6572392 0.016023153 0.76508904 0.5184544 -0.6216474 0.8321839
-0.38294592 0.89306635 -0.20175675 0.96141565 0.5895476 -0.08382127 0.6758113 0.8471641

gnn_base.gnn.gnn1.lin_skip.weight f4 [16, 16]
00000000: 1b36 4cbe dd71 2b3d ffda 2a3e ab65 01bd
00000010: 6438 223e 1eaa 453e 0e12 44be 80b5 0d3e
00000020: 3917 6dbe b5fb 263e 9eb6 08be eab4 91bd
00000030: ffb3 853d a21d 61be 323b 07bc 98a4 c1bd
00000040: 91e2 973d 5913 3fbc d028 6ebe f743 87bd
00000050: 055b 1b3d e7ec 123e 00dc 12be 0178 17be
00000060: 8ca0 e93d ffab 12be eb24 bebd 0a5f 81be
00000070: ade6 62bd 10bd 50be 8ace 1a3d 3193 533e
00000080: 7d04 e43d 7825 57be 8bc9 6b3e 3214 61be
00000090: 9a16 babd 75d1 093e 2f84 e53d d9af 0a3e
000000a0: 1802 5abd 24ae 65be 22fa 7ebe ba5c 603c
000000b0: 35ce 7bbe 2c67 2fbe 41b3 2d3e 1674 03bd
000000c0: 51de a73d 9551 42be 4387 083d 65b9 653e
000000d0: 77e2 373d 2ad0 203d acf7 16be 28e9 34be
000000e0: f6e8 113e fc21 5fbe 5f97 21bc 3bf9 46be
000000f0: d831 7d3c 07ef 7fbe 8d72 ae3d 9c81 c9bb
00000100: 6db4 2abe 73df c4bd a60c c4bd cd29 debd
00000110: f07e 80bd beae 3c3d 5422 1abe 28bb 713d
00000120: 01c3 4cbe 9401 753e a932 1ebe 0330 cc3d
00000130: d148 32be 3ac6 32be 88fb ffbc 30fb 0abe
00000140: d923 8abd 89a7 e8bd 3d71 85bd 6f67 3fbe
00000150: 02da 7a3e 768e 093e 1b60 bebd 2ff7 3e3e
00000160: 673e e8bd 50fe 57be 74e1 b03d 5e92 adbd
00000170: 7dab 3b3e 3b24 7fbd 8417 4bbe de7e 563e
00000180: 0d00 4b3d 907d 943d 2b10 f2bc 5e79 4ebe
00000190: b6ee ab3d 4825 8eba 1177 29be a9e4 173e
000001a0: dbb7 69be 47e5 1abe c9f8 5ebd cc00 76be
000001b0: a7cb 64be 3a92 a6bd 7dd5 4cbd 081e 403e
000001c0: 0c17 f63d e3ae 6a3e 511c a03d f3ea ff3c
000001d0: bb2d 5cbd 8c4f c9bd d566 69be 88da 66be
000001e0: 06a5 d23d 5f31 26be 34ef d8bd 0858 ec3d
000001f0: 4af6 18be 0abd c13d 0976 3abc f6c2 6d3d
00000200: b9f9 debd afc8 413e a33b 4dbe 8735 6ebe
00000210: 6135 4d3e b82f 31be 974a 7c3e e995 e03d
00000220: f84f c33d 9964 14bd 09c8 273d 72de 8d3d
00000230: a331 f6bd 11fb 3a3e 98f1 1b3e 7893 043c
00000240: 1a4c 933d e87b 1abd 7d6b bbbd ca48 4bbe
00000250: 9bad c7bd 6d16 78be 400f a2bd 5f23 093e
00000260: cdef 783e 76b1 63be 3a9a 4ebe 6975 533e
00000270: 6d6d aabd 6c42 ce3a fe53 263e 5624 613e
00000280: 6d50 ca3d 618d 783d 473a 41bc 9e63 aa3a
00000290: e859 d53d 7623 72be a346 72be c202 283e
000002a0: 1903 79be f600 0d3e 109a 393e d98a 2b3e
000002b0: 6385 903d ca92 0a3d 420c ec3d 6a89 123e
000002c0: c23d 5e3c de8c 3ebe 0748 203e 7498 fc3c
000002d0: 2946 163e 9231 2fbe d808 79bd 0f23 1dbe
000002e0: a78a 063c 2e03 593e 8937 5b3d 8e09 5a3e
000002f0: 64d9 393e 3c9d 29be bacd 773e c8a5 333c
00000300: 3dab 5a3e a265 333d 26b8 19bd 7c49 583e
00000310: 56b4 43be c58e 9fb9 cccb 0cbd bcbc 3c3c
00000320: 9fb7 99bd e8d3 513e 7cbe 25bc f83c ca3d
00000330: 49f3 df3d a0c1 623e c1e8 c53d f151 7fbe
00000340: 13c9 56be b4db 6fbe 3a94 7cbe ba05 51be
00000350: 0a22 7bba c0ca 733e d164 27be cc0e cc3d
00000360: bce4 e6bd 6666 493e 7e32 283e d844 ee3d
00000370: c2b5 5b3e ebfd 3fbe a894 5bbe 58dc 05be
00000380: 2ae8 363d a945 5c3e bce9 2f3e d0df 963d
00000390: 9d91 25bd 702f 14be 8dc0 7a3e 4f8b 66be
000003a0: 43b7 2ebe becd 1d3e 3c65 433e e63a 7b3d
000003b0: 1068 fabb f384 13bd 1e6f 223d 1183 06be
000003c0: 3e28 773e ea1b 7b3e ffd1 d2bd f356 333e
000003d0: bdd4 6ebd 30a0 3dbe 92b4 493d f056 32bd
000003e0: 37d9 563e c55e c83c 2930 49bd 971d 4fbe
000003f0: 7c86 2a3e d455 273e 979e fd3c 5473 9abc
-0.19942515 0.041856635 0.16685103 -0.0315911 0.15841824 0.19303176 -0.19147512 0.13838768
-0.2315339 0.16306956 -0.13350913 -0.07114585 0.06528472 -0.2198396 -0.008253859 -0.09455222
0.07416261 -0.011662328 -0.23257756 -0.0660476 0.0379286 0.14348184 -0.14341736 -0.14791872
0.11407575 -0.14323424 -0.09284385 -0.25267822 -0.05539577 -0.20384622 0.037794627 0.20661618
0.111336686 -0.21010387 0.23026101 -0.2198036 -0.09086342 0.13458808 0.11206853 0.13543643
-0.053224653 -0.2242971 -0.24900106 0.013693983 -0.2459038 -0.171292 0.16962911 -0.03209313
0.081967 -0.18976434 0.03333212 0.22434004 0.044893708 0.03926102 -0.14742917 -0.17667067
0.14249024 -0.21790308 -0.00986275 -0.19431011 0.015453778 -0.24993525 0.085179426 -0.006149484
-0.1667039 -0.09612932 -0.09572725 -0.108478166 -0.062742114 0.046065085 -0.15052158 0.059016377
-0.19996263 0.23926383 -0.15449013 0.09970095 -0.1741059 -0.1745843 -0.03124787 -0.13572383
-0.06745119 -0.1136008 -0.06515739 -0.186918 0.24497226 0.13433251 -0.092956744 0.1864898
-0.11340027 -0.21093106 0.08636752 -0.08475183 0.18327136 -0.06229041 -0.19833189 0.20946833
0.049560595 0.07250512 -0.029548725 -0.20163485 0.0839514 -0.0010844851 -0.16549326 0.1483332
-0.22824042 -0.15126525 -0.05443648 -0.24023741 -0.22343312 -0.08133359 -0.050008286 0.18761456
0.120161146 0.22918276 0.07817901 0.031239962 -0.05375455 -0.098296255 -0.22793134 -0.225443
0.10285382 -0.16229771 -0.105924994 0.11540228 -0.14937702 0.094598845 -0.011380681 0.058047257
-0.108874746 0.18924211 -0.20042281 -0.23262607 0.20039894 -0.1730336 0.24637829 0.10966093
0.09536737 -0.03622875 0.040962253 0.06927194 -0.12021186 0.18259837 0.1522888 0.0080918
0.071922496 -0.037715822 -0.09151361 -0.19851986 -0.097499095 -0.24227305 -0.07913065 0.13392399
0.24310227 -0.22235665 -0.2017602 0.20650257 -0.083216526 0.0015736348 0.16242978 0.21986517
0.09878621 0.060681704 -0.01179368 0.0012999659 0.10417539 -0.2364634 -0.23659758 0.16407302
-0.24317588 0.13769898 0.18125176 0.16752185 0.070566915 0.033831395 0.115257755 0.14310232
0.013564529 -0.18608424 0.15652476 0.030834414 0.14675201 -0.17108753 -0.06079945 -0.15345405
0.008211768 0.21192619 0.05351976 0.21292707 0.18149334 -0.16563886 0.24199572 0.010964818
0.21354385 0.043798096 -0.037529133 0.21121782 -0.19111761 -0.00030433215 -0.034374043 0.011519607
-0.07505726 0.20490992 -0.010116216 0.0987491 0.10935075 0.22144175 0.09663535 -0.24933602
-0.20975141 -0.23423654 -0.24665919 -0.20412341 -0.00095799624 0.23807812 -0.16347052 0.0996376
-0.11274096 0.19667968 0.16425511 0.11634225 0.21456054 -0.18749206 -0.21443427 -0.13072336
0.044655003 0.21510948 0.17179006 0.073669076 -0.04042207 -0.14471221 0.24487515 -0.2251408
-0.17062096 0.15410516 0.19081587 0.061335467 -0.0076417997 -0.036015462 0.03965675 -0.13135935
0.24136445 0.24522367 -0.1029396 0.17513637 -0.05830835 -0.18518138 0.04924447 -0.04353994
0.20981298 0.024459252 -0.049118195 -0.20226131 0.16652864 0.16341335 0.03095941 -0.01885382

gnn_base.gnn.gnn1.lin_skip.bias f4 [16]
00000000: e8f2 b5bd a93a 683d dc11 7a3e 4543 35bd
00000010: 273b e93c 99f6 74be 37a7 6e3d e0fc e3bd
00000020: a936 77bd c802 0abe 6bab 6c3e 4fb6 293e
00000030: 0d29 d8bd 3dc8 80bd f752 a63d aaaf b73d
-0.08884221 0.056696568 0.24420875 -0.044253606 0.028470589 -0.23922195 0.058264937 -0.111322165
-0.060354862 -0.13477623 0.23112266 0.16573451 -0.10554705 -0.062881924 0.08121293 0.08969052
