onpolicy/results/GraphMPE/rendezvous_graph/rmappo/crap_bad/wandb/run-20250316_161333-3zc4i4fp/files/critic.pt (torch, 206063 bytes, 61 tensors)

gnn_base.gnn.embed_layer.entity_embed.weight f4 [3, 2]
000000 78 4b 8d 3f c8 3b 32 3f 0c 91 0e 3f 2f 20 5c bf
       1.1038656 0.6962247 0.55690074 -0.8598661
000010 fa 97 72 bf 33 77 f2 bd
       -0.9476315 -0.11839142

gnn_base.gnn.embed_layer.lin1.0.weight f4 [16, 9]
000000 71 2c b6 bd 96 64 22 3f 80 17 b9 be 40 c3 83 bd
       -0.08895195 0.6343473 -0.36150742 -0.06433725
000010 05 9e b6 3e 90 a1 e2 3e df 16 94 be 69 b9 d2 bd
       0.35667434 0.44263887 -0.289237 -0.102892704
000020 c5 cd 1b be d6 16 a2 3e 6b 39 81 3e 66 6f a9 3e
       -0.15215214 0.31658047 0.2523912 0.33092803
000030 3d 99 af be d0 dc 07 bf 54 5f ed 3e 2e c9 dd 3d
       -0.342966 -0.5307131 0.46361792 0.108293876
000040 ce 7d ed be d5 43 6e be f2 96 4a 3e 61 79 c0 be
       -0.46385044 -0.23268063 0.19784144 -0.37592605
000050 4d 81 a4 be 6d 47 a1 be d5 8e 3d 3f 7a 4c b9 be
       -0.321299 -0.31499806 0.7404607 -0.3619116
000060 03 0b a5 bd 8b b1 68 3e 3b 9b a5 be ae e0 50 bf
       -0.08058741 0.22723977 -0.32344994 -0.81592834
000070 db 5b cf bd 91 b5 38 be b0 82 a4 be 3f 17 17 3e
       -0.10124942 -0.18038012 -0.32130957 0.14754961
000080 b5 6f 0f 3f 98 88 90 bc 00 7c 1b 3e de d1 a4 be
       0.56029826 -0.017643258 0.15184021 -0.32191366
000090 77 61 20 bf 7c d4 53 3e 40 a6 18 3e fb 76 d6 3e
       -0.6264872 0.20686525 0.1490717 0.4188765
0000a0 25 b8 d8 be b4 3c 69 bd 0a 9b 53 be 99 4d 19 3f
       -0.4232799 -0.056942657 -0.20664611 0.5988403
0000b0 26 c9 7c be 13 f3 a8 be 69 9a 96 3e 7c ee 75 3e
       -0.24686107 -0.3299795 0.2941468 0.24016756
0000c0 cc be 2f 3f 3f 7a d1 3e 4d f3 52 bd cc 88 b1 3e
       0.6865051 0.4091358 -0.05150156 0.3467468
0000d0 ee 47 43 bd 54 3e 2d 3e 9a 71 c8 3d f3 32 f2 be
       -0.04767602 0.16918308 0.09787293 -0.47304496
0000e0 c4 6c 17 3f 9e 2e bb bd 74 6b da 3b d5 93 d2 3e
       0.5915034 -0.09139751 0.0066656414 0.41128412
0000f0 a4 69 9c 3e 3a ce 5b 3e ab ee 91 be 17 a0 23 3e
       0.30549347 0.21465388 -0.28502402 0.15979038
000100 f7 f1 99 3e f7 c3 dc 3e 75 be d3 3c 42 39 01 3e
       0.30067417 0.4311826 0.025847653 0.12619498
000110 1c 6a 87 3d 23 cb a3 be 84 ee c7 3e 2d d9 01 3e
       0.06612036 -0.3199092 0.3904916 0.12680502
000120 33 14 ff bd fa 3a b9 bd d9 40 a2 3e ad 4d 79 3e
       -0.124550246 -0.09044452 0.316901 0.24346037
000130 e8 f1 33 be 3b 3a 0b bf 21 62 51 bf 09 13 06 bf
       -0.17572749 -0.5438573 -0.8179036 -0.52372795
000140 fb 1f 6b be 21 80 ee be 1d e1 91 3e d7 cb c1 3e
       -0.22961418 -0.4658213 0.2849206 0.3785083
000150 bb 3a 5a bf 0f 9e 9a bd 02 a8 a3 be a4 11 52 3a
       -0.85245866 -0.075496785 -0.31964117 0.0008013493
000160 ca c0 72 bd a4 1b 44 3e b9 e7 aa bd cd 50 d4 be
       -0.05926589 0.19151169 -0.08344979 -0.41467896
000170 29 db 0b bf d5 bf 3e be 4f 44 0a bf 15 b2 42 3d
       -0.54631287 -0.18627866 -0.5401048 0.047533114
000180 98 eb df be 8d 50 b1 3e f6 9b df 3e 02 ed 03 bf
       -0.4373443 0.34631768 0.43673676 -0.5153352
000190 bc 31 34 be ce 82 1f be 64 6a b0 3a 73 10 25 3e
       -0.17597097 -0.15577242 0.0013459441 0.16119556
0001a0 7a ed 97 3d 40 82 15 3e ae df 3e bf 52 d6 12 3f
       0.07418342 0.14600468 -0.7456006 0.57358277
0001b0 90 3e 20 3e e4 ea 88 be 18 1f bc 3e d6 e7 fb 3d
       0.15648866 -0.26741707 0.36742473 0.123000786
0001c0 34 28 ad 3e d3 e8 24 3f 4e a8 1d bf 65 2e 7f 3d
       0.33819735 0.6441776 -0.6158494 0.062300105
0001d0 37 e3 21 3f 2a 78 aa 3e 59 9e 19 3f c1 68 f0 be
       0.6323733 0.33294803 0.60007244 -0.4695492
0001e0 c0 21 8c 3d ae 67 c0 bd 6e 94 58 3e 10 46 43 be
       0.06842375 -0.09394775 0.21150371 -0.19069695
0001f0 a4 e0 46 bd b9 be 80 bd 2d 5e 9a bc 1f 0d b5 be
       -0.048554078 -0.062863775 -0.018843735 -0.35361573
000200 86 cc 9c be ab 33 dc 3e 72 0a bd be ac 98 69 3e
       -0.3062479 0.4300817 -0.36922032 0.22812146
000210 fd 7f 7d 3e db e7 5b be 88 89 1a be 94 b9 e4 bd
       0.24755855 -0.21475165 -0.15091527 -0.11168209
000220 48 74 92 be 81 fb bf 3c 33 a6 93 3d d2 bb 41 3e
       -0.2860434 0.023435356 0.07209434 0.18919304
000230 91 8e 59 3e ee 1b dc be fa dc bc be ff 59 31 bf
       0.21245791 -0.4299006 -0.36887342 -0.6927795

gnn_base.gnn.embed_layer.lin1.0.bias f4 [16]
000000 f8 28 c6 3a ba 9c 99 3a 73 79 9c 3a 8f e7 a2 3b
       0.0015118411 0.0011719682 0.001193805 0.0049714516
000010 cc c3 cc 3a 0f a1 04 bb 3c 89 45 bb a2 9e 5f 3a
       0.0015622317 -0.00202376 -0.0030141613 0.0008530413
000020 6a 54 d9 ba 0c 9c db 3a dd d5 8a bb e5 c3 69 bb
       -0.0016580943 0.001675488 -0.0042369203 -0.003566974
000030 a4 23 69 bb f4 e2 88 3b 8e 9e b6 38 55 54 20 bb
       -0.0035574222 0.0041774455 8.7079694e-05 -0.0024464328

gnn_base.gnn.embed_layer.lin1.2.weight f4 [16]
000000 b5 aa 7f 3f 02 60 7f 3f 20 4a 80 3f 65 db 7f 3f
       0.99869853 0.9975587 1.0022621 0.99944144
000010 06 60 80 3f a2 75 7f 3f 37 40 7f 3f 67 2e 80 3f
       1.0029304 0.9978887 0.9970736 1.0014161
000020 35 75 80 3f 6b 2a 80 3f bf 7e 80 3f 62 fc 7e 3f
       1.0035769 1.0012945 1.003868 0.99603856
000030 6c 1b 7f 3f 22 c1 7f 3f 30 7c 7f 3f 70 33 80 3f
       0.9965122 0.9990407 0.9979887 1.0015697

gnn_base.gnn.embed_layer.lin1.2.bias f4 [16]
000000 e4 bf b2 3a 24 c5 88 b9 b6 af 03 bb 65 9c 8a 3b
       0.001363751 -0.00026086823 -0.0020093746 0.0042300695
000010 16 c8 5b bb 5d 29 1b bb 37 d8 05 bb 18 99 16 b9
       -0.0033536009 -0.0023675777 -0.0020423064 -0.00014362147
000020 9a 5e 68 bb 2a 1d 15 3b 1d fd 87 bb a1 6d 68 bb
       -0.0035456778 0.002275298 -0.0041500465 -0.0035465735
000030 45 3d 94 bb f0 76 dd 3a ba a0 ad b9 30 75 aa ba
       -0.0045239055 0.0016896408 -0.00033116882 -0.0013004895

gnn_base.gnn.embed_layer.lin_h.0.weight f4 [16, 16]
000000 26 7d f6 3c db 75 dc 3e ca 2c 9f bc ff 1f bc be
       0.030088972 0.43058667 -0.019430537 -0.3674316
000010 97 94 5f 3e d4 c1 7b be be 38 1a 3e d3 b8 8e 3e
       0.21834026 -0.24585658 0.15060708 0.27875385
000020 85 d7 13 bf 15 77 f1 3e c9 26 01 bf a6 c5 2a 3e
       -0.5775073 0.47161165 -0.50449806 0.1667696
000030 0c bb 5c be a8 28 8c be c4 cd 0f bf 53 db e1 3e
       -0.21555728 -0.27374768 -0.5617335 0.44112644
000040 bb 61 1d be 65 fa 4c 3e 50 8d e7 be b6 21 04 be
       -0.15369312 0.20017393 -0.45225 -0.12903485
000050 b1 62 8e be 43 2a 00 be c5 54 4b 3d 68 4f 1d 3f
       -0.2780967 -0.12516122 0.04964139 0.6144929
000060 7c f1 f5 3c ab fc b0 be 1b 59 dc be 52 be 9f be
       0.030022375 -0.3456777 -0.43036732 -0.3119989
000070 bd 7c a0 be de 69 e5 be b6 85 95 3e ba a4 2c bf
       -0.31345168 -0.44807333 0.29203576 -0.6743885
000080 38 21 bf 3e 1e 97 79 3e af bf bf 3e c5 f4 f4 3e
       0.3733003 0.24374053 0.3745093 0.47842994
000090 b0 fc 7a be 44 e9 15 3f 8c ae 38 3e 65 d6 a7 bc
       -0.24510455 0.5855906 0.18035334 -0.020487973
0000a0 69 6f 88 3e 62 d2 80 be b4 5a 4f bf ff 78 5a be
       0.266475 -0.2516051 -0.80997777 -0.21335219
0000b0 0c 33 98 bd 9e a3 8a 3e ae 1e 81 be 24 a4 08 3e
       -0.074316114 0.27077955 -0.2521872 0.13343865
0000c0 08 cc a2 3e d3 40 45 3e 24 b0 cb be f6 4c 6e 3e
       0.31796288 0.1926301 -0.39782822 0.23271546
0000d0 25 2e 49 3e 41 c1 9a 3e 8c f0 5b bf c2 e5 d6 3e
       0.19646509 0.30225566 -0.8591392 0.41972166
0000e0 d3 d6 57 be b7 13 dc be 1c 99 6f 3e dd f4 e1 bd
       -0.21078043 -0.4298379 0.2339825 -0.11033032
0000f0 a3 24 87 3e e4 78 2e be d5 dc da bd fd 56 e4 3e
       0.2639514 -0.17038304 -0.106866516 0.44597617
000100 fc 66 4f be 3e 41 aa 3d 12 98 8a be 95 dd 98 bd
       -0.20254129 0.08313225 -0.27069145 -0.074641384
000110 d4 31 09 be 9e 26 bb be 11 84 c6 be 7c 68 56 bf
       -0.13397914 -0.365529 -0.38772634 -0.8375318
000120 45 8c 8b bb ef 65 1d bf ce 7d b4 be 39 e7 cb 3e
       -0.004258665 -0.61483663 -0.3525223 0.39824846
000130 3f 56 a0 bd 96 8e 9d bd b6 6c d7 be 69 5a 10 be
       -0.0782895 -0.07693212 -0.42075127 -0.14096989
000140 63 dd 0c 3f 0c c0 7c be 8b 19 db 3e ae e7 e6 be
       0.5502531 -0.24682635 0.42792925 -0.45098633
000150 55 14 fb 3e 64 9a b0 3e cc 0b 0a be 06 36 68 3c
       0.4903895 0.3449279 -0.13481063 0.014173036
000160 08 44 47 3d 39 0b 28 be e4 b5 6e 3e 65 45 55 3d
       0.048648864 -0.16410531 0.23311573 0.052068133
000170 e5 33 ca be e4 0b 76 be 5e 6a e9 be 08 77 1a bf
       -0.39492717 -0.24027973 -0.45588964 -0.6033788
000180 94 31 5c 3e 55 a7 42 3f 1e 46 82 3e 39 b6 89 be
       0.21503288 0.7603658 0.2544412 -0.26896837
000190 6b 89 29 bc 9d 77 0f 3e 21 59 c7 3e 6a b8 a9 be
       -0.010347704 0.14010473 0.38935187 -0.3314851
0001a0 59 0e cd 3d bf b0 be be d1 06 9a 3e c9 be f4 3d
       0.10012502 -0.37244222 0.30083326 0.11950452
0001b0 e6 9a 4a 3b 48 5f 14 bf ff 3d 04 3f 72 bb a2 3e
       0.003091508 -0.5795789 0.516571 0.31783634
0001c0 14 3e ff bd ee 52 43 bf c3 14 f7 3c 26 58 89 be
       -0.12463012 -0.76298416 0.030161267 -0.26825064
0001d0 fe 13 00 3c 80 fc f9 3e 5c 6f 7f 3c c1 e2 75 be
       0.0078172665 0.48825455 0.015590515 -0.24012281
0001e0 32 b6 26 bf 9b 35 34 be 13 c2 d3 be f0 22 39 bd
       -0.6512176 -0.17598574 -0.41359004 -0.045199335
0001f0 2e d6 36 bd 71 04 87 be d9 04 01 3f df 48 90 3e
       -0.04463785 -0.26370576 0.5039802 0.28180596
000200 68 62 7c bf 89 6e 51 3e 97 a4 c7 bc 35 4d 28 be
       -0.98587656 0.20452322 -0.024370475 -0.16435702
000210 be 61 38 3e 34 ad 4a 3f ad 57 47 3c a9 b2 22 3e
       0.18006036 0.79170537 0.0121669 0.15888466
000220 d1 18 89 3e 14 fa de 3b 8b 5f 81 3d 50 ff 9e 3e
       0.26776746 0.006804714 0.063170515 0.31054163
000230 66 d5 05 3e 34 fe 85 bd 9d 6a 8e be 36 ce 63 bd
       0.13069686 -0.06542626 -0.27815714 -0.05561658
000240 6d cb 00 be 8d 13 81 3e 6a 4f 3a 3f e3 a0 ec be
       -0.12577601 0.2521023 0.72777426 -0.46216497
000250 8b 89 20 bf 42 6a 40 bd ec d6 35 bf ea d4 16 3d
       -0.62709874 -0.046976335 -0.7103107 0.036824144
000260 be 48 22 be 14 f3 6a 3e 30 bc a9 bd 90 10 17 be
       -0.15848061 0.2294429 -0.08287847 -0.14752412
000270 a6 33 a6 3e c0 46 a9 3d ff 6c 08 3e 5b f3 4b be
       0.3246128 0.082654476 0.13322829 -0.19917051
000280 ee f6 32 3c e7 e1 fc 3e fc de 53 be e6 7f b5 3c
       0.01092313 0.493911 -0.2069053 0.022155713
000290 bb 0a 9a 3b d4 36 9a 3e f0 44 e6 3b b0 6c 09 be
       0.004700986 0.30119956 0.007027261 -0.13420367
0002a0 66 8b 34 bf d6 c8 40 bd 7f 5c 72 3e 19 89 cf 3d
       -0.70525205 -0.047066532 0.23668097 0.10133571
0002b0 16 5f fd be a1 33 4d 3f 95 ec 75 3e 58 06 9c be
       -0.49486607 0.80156904 0.2401603 -0.3047359
0002c0 3b 48 b6 3d 05 1e e4 bd 44 d2 8d be aa 2b 14 bf
       0.089004956 -0.11138538 -0.27699482 -0.57879126
0002d0 95 57 5e be 69 e0 97 3d f4 6e 9a be 09 6d 16 3d
       -0.21713097 0.0741585 -0.30162776 0.036725078
0002e0 58 ea 29 3f b8 93 0e 3e fc f2 2f bd f1 07 a5 3c
       0.66373205 0.13923538 -0.042956337 0.020145388
0002f0 00 0c 3f bf c4 41 93 3e bf 87 34 3e 20 e0 09 3f
       -0.74627686 0.28761113 0.17629908 0.5385761
000300 69 54 f8 be ed 39 19 3e a3 26 db 3e 24 51 25 3e
       -0.485019 0.14963503 0.42802915 0.16144234
000310 4b d4 4a 3f d9 a3 ae be d5 86 84 be 01 c3 f8 bd
       0.79230183 -0.3410938 -0.2588412 -0.12146569
000320 36 14 85 3d 74 20 2e be d5 cc 1e be 48 54 2f bf
       0.064979956 -0.17004567 -0.15507825 -0.6848798
000330 c4 4f a9 be f7 04 b7 3d 25 94 59 3e 8e 59 0b 3e
       -0.3306867 0.08936494 0.21247919 0.13608381
000340 53 c0 18 be 9a 2a 5d be 05 3d 03 3f 8b 07 be bc
       -0.14917116 -0.21598282 0.51264983 -0.023196956
000350 c4 b0 a3 bd 8b 8d bb be 9b a1 40 3e a8 0e 28 3f
       -0.079927 -0.36631426 0.18811648 0.65647364
000360 e3 2d bd bd 4f ee 3a bf eb db 92 3d c9 1c 15 3f
       -0.09237268 -0.7301988 0.07170852 0.5824705
000370 35 47 f4 bd 3b cb a0 3e 74 bf fc 3b a4 85 7e 3e
       -0.11927644 0.31405053 0.0077132527 0.24855667
000380 1a 8d 40 be 1e 77 a6 bd 38 71 8e 3e 61 2f 40 3f
       -0.18803826 -0.081281886 0.27820754 0.75072294
000390 76 b2 ca be b2 f9 4a 3d 53 cc 7b be ae 54 22 bd
       -0.3958928 0.049554534 -0.24589662 -0.039631538
0003a0 62 c4 0a be cd 64 8c 3e 62 e9 90 3e fa a1 61 3e
       -0.13551477 0.27420655 0.28303057 0.22034445
0003b0 c1 40 3f bf 78 7b 0e bf ae 54 5d bd b5 7c 58 3d
       -0.7470818 -0.5565715 -0.054035835 0.052853305
0003c0 f4 c8 4e be 0a df e4 bd 81 ad 14 bd 46 02 5b be
       -0.20193845 -0.11175354 -0.03629828 -0.21387586
0003d0 c9 05 01 bf d1 e7 e6 3c 0e 3b b5 3e 7e 25 9a bd
       -0.5039945 0.02818671 0.35396618 -0.07526682
0003e0 12 df 5f be 90 25 b4 be 1c 38 f6 3e 4e fd 4e bf
       -0.21862438 -0.35184908 0.48089683 -0.8085526
0003f0 70 d3 cc bd df aa 27 3c d9 23 1f bf bb 64 7c 3e
       -0.10001266 0.01023361 -0.62164074 0.246478

gnn_base.gnn.embed_layer.lin_h.0.bias f4 [16]
000000 00 00 00 00 00 00 00 00 00 00 00 00 00 00 00 00
       0.0 0.0 0.0 0.0
000010 00 00 00 00 00 00 00 00 00 00 00 00 00 00 00 00
       0.0 0.0 0.0 0.0
000020 00 00 00 00 00 00 00 00 00 00 00 00 00 00 00 00
       0.0 0.0 0.0 0.0
000030 00 00 00 00 00 00 00 00 00 00 00 00 00 00 00 00
       0.0 0.0 0.0 0.0

gnn_base.gnn.embed_layer.lin_h.2.weight f4 [16]
000000 b5 aa 7f 3f 02 60 7f 3f 20 4a 80 3f 65 db 7f 3f
       0.99869853 0.9975587 1.0022621 0.99944144
000010 06 60 80 3f a2 75 7f 3f 37 40 7f 3f 67 2e 80 3f
       1.0029304 0.9978887 0.9970736 1.0014161
000020 35 75 80 3f 6b 2a 80 3f bf 7e 80 3f 62 fc 7e 3f
       1.0035769 1.0012945 1.003868 0.99603856
000030 6c 1b 7f 3f 22 c1 7f 3f 30 7c 7f 3f 70 33 80 3f
       0.9965122 0.9990407 0.9979887 1.0015697

gnn_base.gnn.embed_layer.lin_h.2.bias f4 [16]
000000 e4 bf b2 3a 24 c5 88 b9 b6 af 03 bb 65 9c 8a 3b
       0.001363751 -0.00026086823 -0.0020093746 0.0042300695
000010 16 c8 5b bb 5d 29 1b bb 37 d8 05 bb 18 99 16 b9
       -0.0033536009 -0.0023675777 -0.0020423064 -0.00014362147
000020 9a 5e 68 bb 2a 1d 15 3b 1d fd 87 bb a1 6d 68 bb
       -0.0035456778 0.002275298 -0.0041500465 -0.0035465735
000030 45 3d 94 bb f0 76 dd 3a ba a0 ad b9 30 75 aa ba
       -0.0045239055 0.0016896408 -0.00033116882 -0.0013004895

gnn_base.gnn.embed_layer.lin2.0.0.weight f4 [16, 16]
000000 bb cc e8 3c d9 45 dc 3e ae 93 b1 bc 2f b3 be be
       0.028417936 0.4302204 -0.021676864 -0.3724608
000010 ec c6 5f 3e f1 a9 78 be 0d 70 1c 3e a1 5a 8e 3e
       0.21853226 -0.24283578 0.15277119 0.2780352
000020 83 5b 14 bf db 11 f2 3e 6c c3 01 bf 3a c8 2c 3e
       -0.57952136 0.47279248 -0.50688815 0.16873255
000030 21 5d 5c be b7 1a 8d be ae 4b 10 bf e4 d6 e0 3e
       -0.21519901 -0.27559444 -0.5636548 0.4391395
000040 09 26 1f be 7c c5 4b 3e ec a9 e8 be 1d 63 07 be
       -0.15541853 0.19899553 -0.4544214 -0.13221402
000050 68 b1 8d be 77 84 fe bd 6a 30 54 3d a0 f8 1c 3f
       -0.27674413 -0.124276094 0.051803984 0.6131687
000060 8e de e6 3c 7c c3 b0 be d5 e3 db be 56 ec 9e be
       0.028182294 -0.34524143 -0.4294726 -0.31039685
000070 2f 1c a0 be 77 6a e6 be 92 8e 96 3e 60 1d 2d bf
       -0.31271502 -0.450031 0.29405648 -0.6762295
000080 30 75 be 3e 5f ab 77 3e 05 b5 bf 3e 32 ba f4 3e
       0.37198782 0.24186467 0.37442794 0.47798306
000090 e5 ca 7d be cf 2c 16 3f f9 7c 3a 3e d4 6b c4 bc
       -0.2478443 0.5866212 0.18211736 -0.023977198
0000a0 c7 c9 87 3e 83 2c 81 be 36 a1 4f bf cb 29 5c be
       0.2652113 -0.25229272 -0.81105363 -0.21500318
0000b0 f9 70 97 bd 9e 6a 8a 3e 16 c7 80 be 3d 49 07 3e
       -0.07394595 0.27034467 -0.2515189 0.13211532
0000c0 94 c0 a2 3e d8 17 45 3e 9b d5 cb be 19 29 6d 3e
       0.3178755 0.19247377 -0.39811406 0.23160209
0000d0 b7 07 4a 3e 3c 0f 9b 3e ee a5 5b bf bc 1a d8 3e
       0.19729505 0.3028506 -0.85800064 0.42207897
0000e0 bb e3 57 be 55 24 dc be 8f 2a 70 3e 17 cb e3 bd
       -0.21082966 -0.4299647 0.23453735 -0.11122721
0000f0 b7 3e 85 3e cd 8f 2f be 20 09 da bd 03 5d e4 3e
       0.2602441 -0.171447 -0.10646272 0.44602212
000100 84 15 51 be 41 37 b4 3d 70 cb 8c be 4e 6f a2 bd
       -0.20418364 0.08799601 -0.2749896 -0.07931386
000110 a1 20 0b be b1 0a b9 be 26 03 c9 be d3 ea 56 bf
       -0.13586666 -0.3614097 -0.39260215 -0.83952063
000120 19 c0 d2 bb aa fd 1d bf 64 f8 b4 be fd d8 cc 3e
       -0.006431591 -0.61715186 -0.35345757 0.400093
000130 b9 95 9d bd 8d dd 9d bd 64 47 d5 be 07 54 12 be
       -0.07694573 -0.07708273 -0.4165603 -0.14289866
000140 f3 bd 0d 3f 16 08 79 be fe 1e dd 3e fd 76 e5 be
       0.55367965 -0.24319491 0.43187708 -0.44817343
000150 bc 45 f9 3e aa aa ae 3e 1a 22 0f be 80 ed 89 3c
       0.48686016 0.3411458 -0.13977852 0.016836882
000160 a1 1d 56 3d 1f ce 29 be 21 da 71 3e 90 cb 48 3d
       0.05227435 -0.16582535 0.23618366 0.049022257
000170 ad a6 c8 be 8c 1d 72 be 77 67 e8 be 77 91 19 bf
       -0.39189664 -0.23644084 -0.45391437 -0.59987587
000180 33 04 5f 3e 18 c8 41 3f 45 ec 83 3e 61 c9 87 be
       0.21778946 0.75695944 0.25766197 -0.26520827
000190 03 0d 30 bc bd 32 0d 3e 9b 08 c6 3e 18 45 a8 be
       -0.01074529 0.13788886 0.3867844 -0.32865214
0001a0 a1 b2 d2 3d 00 42 bd be b7 3a 9a 3e 93 e1 ee 3d
       0.10287977 -0.36964417 0.3012292 0.116641186
0001b0 d1 ce 64 3a 3f da 13 bf 8e 4a 03 3f 77 23 a4 3e
       0.0008728328 -0.5775489 0.51285636 0.32058308
0001c0 68 76 02 be e3 4a 44 bf 68 68 f1 3c 06 92 8a be
       -0.12740481 -0.7667677 0.02946873 -0.27064532
0001d0 08 45 ed 3b c1 7f fa 3e 9a 92 94 3c 5c e2 79 be
       0.007240895 0.48925593 0.018136311 -0.24402755
0001e0 b2 58 27 bf f6 b0 34 be ba 32 d5 be 4a 5d 2e bd
       -0.65369713 -0.1764563 -0.41640264 -0.042569436
0001f0 13 b8 31 bd 77 b3 87 be f3 f4 01 3f b4 f4 8e 3e
       -0.043388437 -0.26504108 0.5076439 0.2792107
000200 89 4c 7b bf e5 f5 55 3e 2b a0 ab bc 3c 2d 24 be
       -0.9816366 0.20894583 -0.020950397 -0.1603288
000210 a9 99 3c 3e ee 32 4a 3f dc a9 02 3c a5 1c 27 3e
       0.18417992 0.7898396 0.007975068 0.16319521
000220 7a 49 8b 3e c0 1b b9 3b e5 a0 89 3d 09 fd 9c 3e
       0.27204496 0.00564906 0.06720141 0.306618
000230 36 39 05 3e f2 02 7b bd 7c cb 8e be f4 35 52 bd
       0.13010105 -0.061282106 -0.2788962 -0.051320985
000240 28 62 02 be e6 ca 81 3e 5e 1d 3a 3f c7 55 ed be
       -0.12732756 0.25350112 0.7270106 -0.46354505
000250 f7 fc 20 bf 2d d0 3c bd dd aa 35 bf 6e f9 0f 3d
       -0.62885994 -0.04609697 -0.7096384 0.035149984
000260 e6 15 25 be b9 2e 68 3e db c8 ac bd 56 cd 15 be
       -0.16121635 0.22674073 -0.08436748 -0.1462911
000270 62 2f a7 3e 91 0f a6 3d 09 25 0c 3e af b5 4d be
       0.32653338 0.08108438 0.13686003 -0.20088838
000280 5d 47 17 3c 8f bd fd 3e 3c c1 55 be bb ae 91 3c
       0.009233323 0.49558684 -0.20874494 0.017783513
000290 92 36 9a 3a 18 70 9b 3e 9e 5e da 3b e6 a9 0a be
       0.0011765531 0.30358958 0.0066641113 -0.13541374
0002a0 53 01 35 bf 62 28 50 bd b4 63 71 3e 74 79 d4 3d
       -0.70705146 -0.050819762 0.2357319 0.10374728
0002b0 be 30 fb be 5b e5 4c 3f e3 b3 7a 3e 9b ee 9c be
       -0.49060625 0.8003747 0.24482684 -0.30650792
0002c0 8d 19 ba 3d 74 f2 db bd b9 54 8c be b9 81 13 bf
       0.09086905 -0.10739604 -0.27408388 -0.57619816
0002d0 72 7c 63 be 74 3c 90 3d b3 6f 99 be 3f c6 13 3d
       -0.22215441 0.070427805 -0.29968032 0.036077734
0002e0 c8 96 2a 3f 22 8f 11 3e 4a a7 3b bd 70 d8 a2 3c
       0.66636324 0.14214757 -0.045813836 0.019878596
0002f0 c2 67 3e bf 6b 05 94 3e 61 3f 32 3e 0e 87 0a 3f
       -0.7437707 0.28910384 0.1740699 0.5411233
000300 6f ff f9 be a1 76 17 3e 09 3b d9 3e 98 e7 24 3e
       -0.48827693 0.14791347 0.42427853 0.16103971
000310 b2 a8 4b 3f 0c f1 ac be 0e 8a 82 be 2e fb ff bd
       0.79554284 -0.33777654 -0.25495952 -0.124990806
000320 2e b9 7b 3d 24 00 2e be 78 f9 1a be 41 26 30 bf
       0.061455898 -0.16992241 -0.15134227 -0.6880837
000330 40 18 ab be 86 ac af 3d 9f 74 5d 3e 56 bd 07 3e
       -0.3341694 0.08577828 0.21626519 0.1325582
000340 45 1b 14 be 72 7d 5f be 53 3b 04 3f 0c d5 99 bc
       -0.14463528 -0.21825197 0.5165302 -0.018778346
000350 8f 4a 9a bd 45 2d be be 08 f6 40 3e a6 3a 29 3f
       -0.07533752 -0.37143913 0.18843853 0.66105115
000360 1e c0 b3 bd ed bb 39 bf 67 b3 8f 3d 5c ea 13 3f
       -0.08776878 -0.72552377 0.0701664 0.5777948
000370 9a 6e fc bd 0d 36 a2 3e 89 af 4a 3b b3 9e 81 3e
       -0.12325783 0.31681862 0.003092738 0.2531639
000380 72 57 41 be 74 be af bd 6b 40 8d 3e 8c 36 41 3f
       -0.18881014 -0.08581248 0.2758821 0.75473857
000390 25 98 c9 be d8 cc 43 3d 4e d0 78 be 4a c0 28 bd
       -0.3937389 0.047802776 -0.24298212 -0.041199006
0003a0 af e7 0b be 11 2a 8f 3e 06 31 90 3e d7 fc 61 3e
       -0.13662599 0.27961782 0.28162402 0.22069107
0003b0 db 18 40 bf 5b 01 0f bf 0f 1e 61 bd ee 31 53 3d
       -0.75037926 -0.55861443 -0.054960307 0.05156129
0003c0 d8 0b 4e be 64 d5 e1 bd 06 40 13 bd 4d 63 56 be
       -0.20121706 -0.11027029 -0.03594973 -0.20936318
0003d0 85 9d 00 bf d9 01 d7 3c bc f1 b3 3e fb bc a4 bd
       -0.50240356 0.026245998 0.35145366 -0.08043858
0003e0 96 26 5d be e9 9c b4 be c8 4f f8 3e d8 f4 4d bf
       -0.2159675 -0.35275963 0.48498368 -0.80451727
0003f0 e4 2d c6 bd 7e 5d 1d 3c 66 63 1e bf 56 1d 7f 3e
       -0.09676722 0.00960481 -0.6187042 0.24913535

gnn_base.gnn.embed_layer.lin2.0.0.bias f4 [16]
000000 b2 12 01 3b c0 33 ed 3a e8 0d a0 3a 93 e6 01 39
       0.0019694981 0.0018097088 0.0012211176 0.00012388294
000010 56 d7 eb 3a 14 8d 61 bb 04 f7 34 bb 95 4d 2c 3b
       0.0017993252 -0.0034416365 -0.0027613053 0.002629136
000020 ca 1d 8b bb ab 4f c1 3a 1e c5 fb 3a 92 9b 2c bb
       -0.0042454945 0.0014748474 0.0019208526 -0.0026337844
000030 40 28 5f 3b c4 5b 97 bb 29 41 60 3a 5a 55 47 bb
       0.003405109 -0.0046190936 0.00085546315 -0.0030415864

gnn_base.gnn.embed_layer.lin2.0.2.weight f4 [16]
000000 12 2f 80 3f c9 b2 7f 3f 21 19 80 3f fb 75 80 3f
       1.0014365 0.9988218 1.0007669 1.0036005
000010 06 2a 80 3f f2 5f 80 3f 13 47 7f 3f 91 11 80 3f
       1.0012825 1.002928 0.99717826 1.0005361
000020 6d d8 7e 3f b7 aa 7f 3f 5a 42 80 3f ea 64 80 3f
       0.9954899 0.99869865 1.0020249 1.0030797
000030 7a 31 7f 3f b4 92 80 3f b0 92 80 3f f3 2b 80 3f
       0.9968487 1.004477 1.0044765 1.0013412

gnn_base.gnn.embed_layer.lin2.0.2.bias f4 [16]
000000 d1 49 0f 3b f2 59 f0 3a 07 34 82 3a f1 f3 56 bb
       0.0021864066 0.0018337353 0.0009933718 -0.003279921
000010 2d 21 bf 3a d9 52 5b bb 67 16 2a bb 43 5a 7e 3a
       0.0014582031 -0.003346613 -0.0025953294 0.0009702781
000020 86 c5 8b bb 9f 15 d5 3a 42 9d 99 3a f7 53 32 bb
       -0.00426549 0.0016257054 0.001171984 -0.0027210691
000030 5a 48 4b 3b e6 53 8e bb e8 7d 54 ba ce 2e f9 ba
       0.0031018467 -0.0043434976 -0.00081059197 -0.0019011141

gnn_base.gnn.gnn1.lin_key.weight f4 [48, 16]
000000 5d f1 30 bd 7b a7 20 3e 93 44 e8 bd 35 00 ff bd
       -0.043198932 0.15688889 -0.113412045 -0.12451211
000010 64 41 b9 bd 4e db 2a be b8 5a 51 be 44 de aa 3d
       -0.090456754 -0.1668522 -0.20444763 0.08343175
000020 ac 4e 56 be 83 53 77 be 49 75 21 3d 62 87 05 be
       -0.20928448 -0.24152951 0.039418492 -0.13039926
000030 45 16 bb bd a7 0f 75 3e ee a5 d5 bd c5 89 25 bd
       -0.09135107 0.23931752 -0.10432039 -0.04041459
000040 04 5d ac bc 93 d3 52 bd 7c fa ed b9 5c 58 01 bd
       -0.021040447 -0.051471304 -0.00045390788 -0.031578407
000050 c8 2f 1b be 8e 2f 41 3e 85 5c 8e 3d b0 64 0e 3e
       -0.15154946 0.18865797 0.069512405 0.13905597
000060 cd 48 4c be c6 e0 da 3d 9e 38 49 be c2 5e 4a 3e
       -0.19949646 0.106874034 -0.19650504 0.1976271
000070 ae 4d be bd f9 d6 20 be 47 c8 4f be dd 76 77 be
       -0.0929216 -0.15707006 -0.20291243 -0.24166436
000080 69 bf 8f bd 65 44 41 3e a6 8f 36 3e 90 44 c0 3c
       -0.070189305 0.18873747 0.17828235 0.023470193
000090 36 dc cf bd 7b 68 7f be a6 99 1e 3e 76 82 67 3e
       -0.10149424 -0.249422 0.154883 0.2260836
0000a0 11 0a 17 3e 6b a0 e8 bd cf aa f2 3d 9b 66 24 3e
       0.14749934 -0.11358722 0.118489854 0.16054766
0000b0 00 35 28 3d 88 da 19 be 85 5d 5c 3d 1f d4 d1 3d
       0.04106617 -0.1502477 0.053800125 0.10245537
0000c0 ce 70 4d be 17 e5 c7 3d f2 c2 60 be 77 3f 1d 3e
       -0.20062563 0.09760492 -0.21949366 0.15356241
0000d0 34 1a 2a 3e ac 2b 92 3a 1d 2b 72 3e 7a 9b d3 3d
       0.16611558 0.0011151931 0.23649259 0.10332389
0000e0 2c 19 0a 3e 44 1b 29 be 3b c8 08 3d 78 c0 de bd
       0.13486165 -0.16514307 0.03339408 -0.10876554
0000f0 32 ce 26 3d 3a 93 f7 bd 11 d9 b0 3c d5 86 89 3d
       0.040723987 -0.12088628 0.02158788 0.0671517
000100 d2 cb 00 be ee 60 97 3c 6d f5 29 be 5e 7d 21 3d
       -0.12577751 0.018478837 -0.16597529 0.0394262
000110 40 2a f0 bc 80 37 56 be ca ce b8 3d 92 df 78 be
       -0.029317021 -0.20919609 0.09023817 -0.24304035
000120 60 71 6b be d7 66 1d 3e ef cb 8d bd e7 53 d2 3d
       -0.22992468 0.15371262 -0.06923663 0.10269909
000130 c5 7a 82 3d a1 76 4a be 98 03 e0 bd 45 a0 65 3e
       0.06371073 -0.19771816 -0.109381855 0.22424419
000140 46 ff 56 3e 38 ca 70 bd b2 55 b5 3c 94 ed 6f be
       0.20995817 -0.0587866 0.02213559 -0.23430473
000150 71 7e 59 be 88 95 24 3e 1b 1c 78 3e 03 14 3a be
       -0.2123964 0.16072667 0.24229471 -0.18171696
000160 fc d1 93 3d e2 3f c1 3d 02 e5 f3 3c fc 4a c6 3d
       0.07217786 0.09436013 0.029772285 0.09682271
000170 ab 11 17 be d2 83 40 be c9 0c 13 be 21 75 58 3e
       -0.14752834 -0.18800285 -0.14360346 0.21138431
000180 53 a1 a7 3b cd 3d 1e 3e 99 d5 24 be 15 16 9c bd
       0.005115667 0.15453263 -0.16097106 -0.07621399
000190 e6 71 2d be 2e c9 4f 3d cb 3e ee 3c 46 66 42 bc
       -0.1693798 0.05072897 0.029082676 -0.011865204
0001a0 d7 5c 66 3c 3a d2 88 bd dc 06 33 3e 47 0a ca bd
       0.014060221 -0.066807225 0.17483085 -0.098652415
0001b0 01 48 a1 3d a4 79 0f 3e f1 3b d9 bd 08 79 18 3e
       0.07875062 0.14011246 -0.10607136 0.1488992
0001c0 22 bc 29 3e 1f c0 df 3d fd 02 9d bd 11 27 f0 bd
       0.16575673 0.10925316 -0.076665856 -0.11726201
0001d0 dd 98 5f be 8c ab fe bd fa da 56 3d 9f d3 e0 bd
       -0.21835656 -0.12435064 0.052454926 -0.109778635
0001e0 ee 6b d4 3d 23 12 ea bd 64 12 f1 bd 29 0c 74 be
       0.103721485 -0.114292406 -0.11771086 -0.23832764
0001f0 02 d4 21 be 8a 0f 6e be f5 5a 2c 3e 9a 3b f5 3d
       -0.15803531 -0.23248115 0.16831572 0.11974259
000200 67 04 ef bd cd 81 3f be 0f 94 31 3e 22 8c e0 bd
       -0.116707616 -0.18701859 0.17341636 -0.10964228
000210 cb 6b 52 3e 7a a8 62 be db 8b 2c bd 91 ea 0a 3e
       0.20548932 -0.22134581 -0.042125564 0.13566042
000220 39 c5 43 3e 9b 2c 66 be 1b 89 f6 3d c0 2f b6 bb
       0.19118203 -0.22477953 0.120378695 -0.0055598915
000230 f8 56 ca 3d ee 40 09 3e 37 a1 72 be 90 d8 77 3e
       0.09879869 0.13403675 -0.23694311 0.24203706
000240 7d b3 08 3d ad ae 8d 3d 09 c8 fc bd 59 36 73 3e
       0.0333743 0.069180824 -0.12342841 0.237512
000250 a3 0f fe 3c 40 eb 4a 3e d9 2d ce 3d 16 b7 56 be
       0.031013316 0.19816303 0.100673385 -0.20968279
000260 9e 34 7a 3e 03 13 ed 3d 31 ba 10 3e fc 63 ef bd
       0.24434134 0.11575892 0.14133526 -0.116889924
000270 be 41 99 3d 3f 0b b5 3d df 1c 3f be 01 dd 10 3d
       0.074832425 0.08840036 -0.18663357 0.035367016
000280 e1 fe 05 be 24 ad 1e 3e ec db 8d bd 13 bd a2 3d
       -0.1308551 0.15495735 -0.069267124 0.07946219
000290 9c ab 42 be ac f2 5f be ff 18 67 be a8 32 d6 bc
       -0.19010776 -0.21869916 -0.22568129 -0.026147202
0002a0 7a 81 a4 3d 72 cf 74 3d 98 68 01 ba c5 9a 7b be
       0.08032508 0.059768148 -0.0004936545 -0.24570759
0002b0 66 9b 3f be 78 ed 24 3e 91 91 09 be ee d4 87 3d
       -0.18711624 0.16106212 -0.13434435 0.0663241
0002c0 30 08 32 bc d1 f4 58 bd c0 46 b3 bd aa 03 e6 3d
       -0.01086621 -0.05296785 -0.08753729 0.112311676
0002d0 26 51 57 be 32 11 35 be f1 0e 0d 3e 03 85 30 be
       -0.2102705 -0.1768234 0.13775231 -0.1723824
0002e0 5b 18 f6 bc 6c 57 42 be d8 a0 8d 3d fa db 42 bc
       -0.03004091 -0.18978661 0.06915444 -0.011893267
0002f0 66 25 e2 3d 41 14 59 be a0 2f 01 be 9f 53 72 bd
       0.110422894 -0.21199133 -0.12615824 -0.05916178
000300 67 51 b5 bd d7 12 9e bc 55 99 b6 bc ff 8b 0e be
       -0.08853417 -0.019296093 -0.022289911 -0.13920592
000310 2c 24 d2 3b 67 a1 60 be 90 56 a3 bc 54 ee 6b be
       0.0064130034 -0.2193657 -0.019938737 -0.23040134
000320 3d 92 fb 3d d3 d0 5d 3e f1 bc 71 3e c0 40 0a 3e
       0.12283752 0.21661691 0.23607232 0.13501263
000330 97 54 60 be 7f 9c 5e 3e bc 1c 52 be b0 ff 35 be
       -0.21907268 0.21739386 -0.20518774 -0.17773318
000340 2a 39 7a bd 6c c0 da 3d b0 13 6f 3e da 56 2c 3e
       -0.061089672 0.10681233 0.23347354 0.16830006
000350 5b 05 31 3e 10 58 07 be e3 6a 39 be 76 42 cf bd
       0.17287199 -0.13217187 -0.1810718 -0.10120098
000360 ef ab ab bd d9 49 2e 3e e3 aa 5d be ee 5d 9a bd
       -0.08382403 0.17020358 -0.2164722 -0.07537447
000370 24 f4 89 3c 1b 76 67 3e b6 a6 98 bd 35 42 63 3e
       0.016840048 0.22603647 -0.074536726 0.22193225
000380 6a f5 09 be 90 36 46 3e 0e f6 66 be ca 59 05 3d
       -0.13472524 0.19356751 -0.225548 0.032556333
000390 48 8c 5d 3e 92 3f 45 3c 05 c5 5e 3e 2f 03 b8 3c
       0.21635544 0.012039082 0.21754844 0.022462456
0003a0 5d 9e 0e be 3a 4f fa bd 48 2c bb bd 96 17 66 be
       -0.13927598 -0.122221425 -0.09139305 -0.22469935
0003b0 f2 de 0f be 26 cb a8 bd 10 5b 81 be dc 4e c9 3c
       -0.1404989 -0.082418725 -0.25264788 0.024573736
0003c0 85 65 78 bd 99 a7 af 3d a9 cd 6b 3e 10 da 8c 3d
       -0.06064369 0.085768886 0.23027672 0.068775296
0003d0 71 51 3d 39 25 33 0f bc 1c 26 fc bd 64 b1 f3 bc
       0.00018054784 -0.008740221 -0.12311956 -0.029747672
0003e0 06 e2 b1 bc 88 6f bc 3c 7d ba 49 3d 6c ca 35 be
       -0.021714222 0.023002401 0.049250115 -0.17752999
0003f0 07 93 0f bd 20 e7 43 be 1e ff 16 bd b2 c8 3b be
       -0.035052326 -0.19131136 -0.036864392 -0.18338278

gnn_base.gnn.gnn1.lin_key.bias f4 [48]
000000 be 15 27 3e 04 8c a1 3d d8 db 37 3d 34 4d f2 bd
       0.16316888 0.07888034 0.044887394 -0.118311316
000010 c4 d6 9f bd 10 75 d9 3c b8 dd 01 bd 56 65 1d 3e
       -0.07804635 0.026545078 -0.031705588 0.15370688
000020 dc 42 07 3e c0 3e 73 3e 64 8c b0 3d 50 a2 24 be
       0.13209099 0.23754406 0.086205274 -0.16077542
000030 a0 d4 5f 3e 4f 46 97 3c 54 ba 68 be 34 10 31 3e
       0.21858454 0.018466143 -0.22727329 0.17291337
000040 a8 0c 23 be 08 90 2a 3e 90 50 19 3d 7a d1 29 be
       -0.15922797 0.16656506 0.037430346 -0.16583815
000050 e0 dc 26 3e b8 a0 21 bd e6 3c 3f be b2 85 1e 3e
       0.16295195 -0.039459914 -0.18675575 0.15480688
000060 f8 0c 1b be b8 36 92 3d 50 60 0b 3e 24 c6 ce 3d
       -0.15141666 0.07139343 0.13610959 0.10096386
000070 98 de 8c 3d e0 34 f2 3d 04 22 49 be c8 89 f9 bd
       0.06878394 0.11826491 -0.19641882 -0.12184483
000080 2a 55 02 3e c2 d5 3f 3e 61 da 3e 3d a5 8c f9 3c
       0.127278 0.18733886 0.04659498 0.030462572
000090 dc d6 4a be 6e 44 47 bd ac f6 00 be 3a bf 79 3e
       -0.19808525 -0.048649244 -0.12594098 0.24389353
0000a0 d8 83 7d 3e 0a 47 3b 3d b7 14 4c 3e 3e 83 9f 3c
       0.24757326 0.045722045 0.19929777 0.01947176
0000b0 9b 2d 93 bd fa 0c 39 be a8 96 58 3e 10 50 92 3d
       -0.07186433 -0.18071356 0.21151221 0.07144177

gnn_base.gnn.gnn1.lin_query.weight f4 [48, 16]
000000 d2 79 14 bd 36 e5 25 be 33 2d 35 3e 78 cb df 3d
       -0.03624899 -0.16200718 0.17693023 0.109274805
000010 37 df 12 be f9 5c 6f 3e 4f 44 41 be 43 d3 14 bd
       -0.14342962 0.2337531 -0.18873714 -0.036334287
000020 3e 83 82 3c e1 83 57 3e b6 ef 3c 3d 5b 39 38 3e
       0.015931722 0.21046402 0.046127044 0.1799063
000030 94 ed 27 be d6 05 00 3e 6b c2 55 3e 48 46 17 be
       -0.16399223 0.12502226 0.20874946 -0.14772904
000040 5f 9e 7c bd d8 99 a0 3d cc fa 4e 3d c1 47 51 3d
       -0.061674472 0.07841843 0.050532147 0.05109382
000050 78 86 2a bd e5 f3 7a bd 97 5b 22 3e 2c 54 7f bd
       -0.041632146 -0.061267752 0.15855251 -0.062336132
000060 eb 74 94 3d 7a 16 13 be fe c6 3f be 32 59 4e be
       0.07248863 -0.14364043 -0.18728253 -0.20151213
000070 48 ac 6b 3e 3a c8 d7 bd 02 53 0f be 80 7b 3f 3d
       0.23014939 -0.10536237 -0.13996509 0.04674864
000080 bc 29 60 3e 16 ef 0b 3d 12 7f b8 3d 0b 4a 8a 3d
       0.2189092 0.034163557 0.09008612 0.06752404
000090 95 ef 4b 3e 28 fd c4 3d f6 eb 4d be 10 55 6d 3b
       0.19915612 0.09618598 -0.20109543 0.0036214031
0000a0 5f 4d 5b 3e 12 ae 6e be 73 90 9a bd 22 b3 72 be
       0.21416233 -0.2330859 -0.07547083 -0.23701146
0000b0 9b 20 65 be d0 ef bd 3d de ab 60 3e a1 6b 69 3e
       -0.22375719 0.09274256 0.21940562 0.22794963
0000c0 cf ca b4 bd 52 2d 45 3e 1b 63 3f be 5f e7 62 be
       -0.08827745 0.1925557 -0.1869015 -0.22158574
0000d0 f5 03 46 3e 75 f5 da 3d f3 83 07 3d ae b9 4b be
       0.19337447 0.106913485 0.03308482 -0.1989505
0000e0 6a c2 05 bc a9 43 51 3e 5b ae d3 bd 88 7a 26 3e
       -0.008164028 0.20435967 -0.1033599 0.1625768
0000f0 5b 59 fc bd 49 3e 65 be 40 d0 63 3e 71 e1 6f be
       -0.12321731 -0.22387041 0.2224741 -0.23425843
000100 87 c3 f0 bd 34 6e 1b bd 4f ec 43 3e d4 cd 1b b9
       -0.11756044 -0.037946895 0.19133113 -0.00014858629
000110 0e 16 56 bd 94 f8 16 3e 65 44 48 bd fa 22 36 3e
       -0.052267127 0.14743263 -0.04889335 0.1778678
000120 ab 37 69 3e 7a 67 d1 3d 23 7f f1 3c 85 3e 3f 3e
       0.22775142 0.10224815 0.029479569 0.18676193
000130 86 2e 77 be 4e 6c 80 be 84 c8 87 3d 5c 21 2d be
       -0.24138841 -0.2508263 0.06630042 -0.16907257
000140 d2 ca 5d be a7 6b 89 bd d6 cd 23 be 84 e4 40 3d
       -0.21659401 -0.06709986 -0.15996489 0.04709293
000150 fd 6d 11 be fa a3 2e 3b 53 88 07 3e 49 99 06 be
       -0.14202113 0.002664803 0.13235597 -0.13144411
000160 15 11 52 3e c5 ad c4 bd 93 5b 48 3e f2 a6 12 be
       0.20514329 -0.096034564 0.19566183 -0.14321497
000170 ee c4 2b be b2 97 e1 3d f8 5d 73 3e 15 c4 06 be
       -0.16774341 0.11015262 0.23766315 -0.13160737
000180 b8 47 62 be f9 18 01 be 92 f7 14 3e 63 f3 49 be
       -0.22097671 -0.12607183 0.14547566 -0.19721751
000190 6e a3 9d bd 18 6e 5c be 3f c5 9c bc 6d 31 30 3e
       -0.07697187 -0.21526372 -0.019137023 0.17206354
0001a0 e0 6f 91 3a cc de be bb 78 92 19 bd 48 1b 72 3e
       0.0011095963 -0.0058248993 -0.0374932 0.2364322
0001b0 c1 d0 4d 3d e7 82 9a 3c 8b 57 4c 3d 7e 1b cf 3c
       0.05024791 0.018861247 0.049888175 0.025281664
0001c0 2a 65 3b 3e b3 c7 47 3e 0e 22 93 3d b9 ce 07 3e
       0.1830031 0.19509773 0.0718423 0.13262452
0001d0 73 e3 4e be 9c 42 4e be f1 a1 a8 3b 93 c7 a1 3d
       -0.20203952 -0.20142597 0.005146258 0.07899394
0001e0 e9 33 41 3d 08 45 01 3e 3f 68 6a 3e 76 18 70 be
       0.047168646 0.1262399 0.22891329 -0.23446831
0001f0 e8 20 80 be 38 ff 51 3c a1 7a 25 be e6 07 b8 3d
       -0.25025105 0.012817197 -0.1616006 0.089858815
000200 1a 08 82 3d 33 31 43 3c c5 94 c3 3c 07 17 5d 3c
       0.063492015 0.0119135855 0.02387465 0.01349426
000210 ab 8a 6d be f6 2e f2 3d 78 5e b3 3d 31 88 75 3e
       -0.23197429 0.11825363 0.08758253 0.23977734
000220 48 61 4c 3d 70 80 91 3c a2 db 82 3c 55 f1 25 bd
       0.049897462 0.01776144 0.01597387 -0.040513355
000230 30 18 a8 3d 86 0b 08 3d 69 33 78 3e 4a 29 02 be
       0.082077384 0.033214115 0.24238361 -0.12711063
000240 01 0c 12 be 5a 8e 5b 3e df 97 07 3e 2d 52 04 3d
       -0.14262392 0.21441022 0.13241528 0.03230493
000250 1d 0c 5a 3e 96 bb de bb 4d d6 a4 3d 7c 24 54 3d
       0.21293683 -0.0067972643 0.08048687 0.051792607
000260 71 0f cc 3b 55 fc 1e 3e 55 73 0d be 4e ec a7 bd
       0.0062274267 0.15525945 -0.13813527 -0.081993684
000270 6d 8f 41 3e af 03 14 3e ae 23 bb 3d 4c 75 e8 3d
       0.18902369 0.1445453 0.09137665 0.113504976
000280 b4 9d 28 3e 53 99 ea bb bf a7 7f 3e cc fe 85 3d
       0.16466409 -0.007159391 0.24966334 0.06542739
000290 9c 1d 6b bd 85 12 f4 3d fc 5a a9 3d 21 3e 44 be
       -0.057401285 0.11917595 0.08269307 -0.19164325
0002a0 cf ce f3 3b 49 9f 7e 3d 3a df 35 3e 3a 5d 4d be
       0.007440425 0.062163625 0.17760935 -0.20055094
0002b0 76 4b 38 be cd 95 40 be c5 8d 13 3e f8 59 10 bc
       -0.17997536 -0.18807144 0.1440955 -0.008810513
0002c0 4b 9d 70 be a3 83 26 be a0 96 59 3e ce 9b f6 3d
       -0.23497503 -0.16261153 0.21248865 0.12041436
0002d0 8e d4 42 3e 62 45 7d be af 69 c8 bd f8 1c 90 3d
       0.19026396 -0.24733499 -0.097857825 0.07036775
0002e0 26 85 f2 3d f8 e4 55 3e 72 c4 6b be 00 55 08 3e
       0.11841802 0.20888126 -0.23024157 0.13313675
0002f0 7b f2 1a 3d 28 41 7a 3e e2 ae 5d be 72 f9 08 3c
       0.037828904 0.24438918 -0.21648744 0.008360254
000300 bb 48 75 be 39 1c 95 bd cb 50 02 3e 67 f6 27 3e
       -0.23953526 -0.07280774 0.12726133 0.16402589
000310 6b ff 68 be e3 04 a0 3c 61 d5 55 3e be f6 41 bd
       -0.22753684 0.01953358 0.20882179 -0.047354452
000320 ee 2a 25 bd 98 9e f9 3c ec 57 64 bc 2f 4a 57 bc
       -0.040324144 0.030471131 -0.013936978 -0.013140245
000330 53 de 63 3e 81 ba b8 bd 3f f0 68 be 41 fb 4e 3e
       0.22252779 -0.09019948 -0.22747897 0.20213033
000340 e1 5b be bd b8 95 e9 bd 95 c4 b4 bd a9 3a 1f 3e
       -0.09294868 -0.1140551 -0.088265575 0.15549721
000350 38 b9 70 3c ea 19 11 3e 53 22 28 be 08 6d cc bd
       0.014692597 0.14170042 -0.16419344 -0.099817336
000360 d3 b0 31 be f8 f7 3d 3e 41 0a 6b be 98 c9 6e be
       -0.1735261 0.18551624 -0.2295313 -0.2331909
000370 41 ca 17 3e 7d 10 11 be 01 29 5a 3e d7 f5 4d be
       0.14823247 -0.14166446 0.21304704 -0.20113312
000380 9e 8b ad bb fb f1 df 3d fe e0 18 3e 85 28 cf bd
       -0.0052961847 0.10934826 0.14929578 -0.1011515
000390 ff c4 6e bd 1b 63 b0 3d 73 5d 00 be 4c 7c 0f be
       -0.05829334 0.08612653 -0.12535648 -0.14012259
0003a0 ae 88 0e 3e ac 57 6f 3d 6e fc 5e be e2 27 70 bc
       0.13919327 0.05843322 -0.21775982 -0.014657946
0003b0 a3 c8 b9 3d b2 34 7b be 5e 43 ef bd b1 32 69 be
       0.090714715 -0.2453182 -0.11682771 -0.22773243
0003c0 ae 52 7d be 69 04 dc bd 63 fe 66 3e 00 56 47 3b
       -0.24738571 -0.10743029 0.22557978 0.003041625
0003d0 58 9b a2 bc 83 2d 50 3d ad 5a 3c 3d 68 1f 13 bc
       -0.019849464 0.050824653 0.045984913 -0.008979656
0003e0 3b f9 cb 3d 13 29 91 bd ca c9 79 3e 0a 5f ba 3c
       0.09959646 -0.070879124 0.24393383 0.022750396
0003f0 4a c4 b0 bd d9 93 74 bc 87 fe 17 3e ab 1d 27 be
       -0.08631189 -0.014927828 0.14843188 -0.16319911

gnn_base.gnn.gnn1.lin_query.bias f4 [48]
000000 f9 55 28 3e 8c 9d 10 be 35 d4 34 be 08 27 0f be
       0.16439046 -0.141226 -0.17659076 -0.13979733
000010 6d c1 16 3e f7 03 48 bd b2 6e 5b 3e 1b b5 54 be
       0.14722224 -0.048831906 0.21428946 -0.20772211
000020 5a 9e aa 3d 2e e9 b7 bd ca 61 0a 3d 76 3b 27 3e
       0.083309844 -0.08980022 0.033784665 0.16331276
000030 4c 3c 05 3e 51 ef 6f be 25 3e 04 bd 67 d4 cd 3d
       0.13011283 -0.23431136 -0.03228583 0.10050278
000040 9b 17 80 be a9 c8 3e be 82 4a 7c be 5a 5b fe 3c
       -0.2501801 -0.18631233 -0.24637797 0.03104942
000050 33 14 66 3d c9 8c d0 bd ee c0 c9 3d 2a 1b 17 3d
       0.056171607 -0.10183103 0.098512515 0.03689114
000060 05 df de 3d 58 ca 5f 3e 0b d5 2e be 62 e7 42 be
       0.10882381 0.21854532 -0.17073457 -0.19033578
000070 ae 87 6f 3e 11 54 05 be 17 ac 31 3e 91 56 b3 bd
       0.23391601 -0.1302035 0.17350803 -0.087567456
000080 13 b5 5f bd 9b d3 e0 bd d3 ea 9d 3d df c4 4b bc
       -0.054616045 -0.109778605 0.07710805 -0.012437074
000090 cc d6 4a 3e 9f 27 7c be 20 d3 7f bb 6e 02 1e 3d
       0.19808501 -0.24624489 -0.0039035752 0.038576536
0000a0 c9 5c 9e 3d f5 53 4b 3e ce c1 a9 3d 36 d6 5d be
       0.07732541 0.19856246 0.082889184 -0.21663746
0000b0 bc fc 0b 3d d5 d6 dc bd b4 17 1e 3e 46 36 e2 bd
       0.034176573 -0.107831635 0.1543873 -0.11045508

gnn_base.gnn.gnn1.lin_value.weight f4 [48, 16]
000000 59 9b e3 bc 3e 1a 85 3d 82 f7 28 3e 6f dc f7 bd
       -0.027784036 0.06499146 0.16500667 -0.12102591
000010 d6 40 39 3e bb 6f 35 be 6b 82 75 bd 07 8b 1f be
       0.18091139 -0.17718403 -0.05993883 -0.15580378
000020 20 82 5d 3d db 4b 50 be 39 b0 2f bb 1d 04 32 be
       0.054079175 -0.20341437 -0.0026807918 -0.17384382
000030 19 3b 24 3e b5 e2 68 be 7d b6 e2 bd 68 25 56 be
       0.16038169 -0.22742732 -0.11069963 -0.20912707
000040 eb 7e 26 be 9e 0d ac 3c 73 ec f9 3d eb a2 fe 3d
       -0.16259353 0.021002587 0.12203302 0.12433418
000050 ca ec 49 be a4 19 3d bd 95 b1 45 bd c2 11 d9 3d
       -0.19719234 -0.04616703 -0.04826506 0.1059909
000060 4e 92 fd bc 6a 40 04 bd e7 48 1f be 1c 62 2e be
       -0.030953553 -0.032287993 -0.15555154 -0.17029613
000070 f8 e0 29 bc ba 45 f6 3d 6f ec 04 be 9d 7f 6d 3d
       -0.010368578 0.12025018 -0.12980817 0.05798303
000080 c5 18 fd 3d 88 55 b8 bd 5f 2b 67 3e 47 13 68 3e
       0.1235824 -0.09000689 0.22575139 0.22663604
000090 94 34 18 3e 01 e1 d7 3d 28 5d 4b be 9c 09 08 3e
       0.14863807 0.10540963 -0.19859755 0.13284916
0000a0 09 a3 ed bc 80 1c 45 3e 07 51 55 be a1 89 1a bc
       -0.029008405 0.19249153 -0.2083169 -0.009432227
0000b0 9d aa 67 3e 1c 47 41 3d ce 61 a8 3d 50 02 02 3b
       0.22623678 0.047186956 0.0822178 0.0019837804
0000c0 d0 63 f2 bd 18 01 fd 3d ba 45 4a 3e 44 50 0c 3e
       -0.11835444 0.12353724 0.19753161 0.13702494
0000d0 b8 49 2c be 60 3b 2c be 1e aa 77 3e 30 65 00 bd
       -0.16824996 -0.16819525 0.24185988 -0.0313465
0000e0 c0 5b d5 3d fc 62 91 3d 20 b1 21 be d0 0d 5c 3e
       0.104178905 0.07098958 -0.15790224 0.21489644
0000f0 68 f0 35 3d 7c 9a f5 bd 9e b5 71 3e 90 00 a9 3d
       0.044418722 -0.11992356 0.23604438 0.082520604
000100 eb 3c 81 3d 32 f7 32 be cb 5e 5e 3e 57 fa 03 be
       0.06310447 -0.1747711 0.21715848 -0.12888466
000110 39 09 ab bd 82 e0 79 be c3 c7 89 3d aa 2c 0d be
       -0.083513685 -0.24402049 0.06727555 -0.13786569
000120 2e 06 5f be 4b fb 2f 3e a2 2f 65 be 2c b7 61 bd
       -0.21779701 0.17185704 -0.22381452 -0.055106327
000130 59 61 c8 bd 6f 3a 5e 3c 8c 0f 1f 3d 39 55 5d 3e
       -0.097841926 0.013563736 0.038833186 0.21614541
000140 c2 6c a0 3d f7 25 a9 bd 56 f5 19 be d9 81 8c bd
       0.07833244 -0.08259194 -0.15034994 -0.06860704
000150 bd 1b 10 3e 68 81 79 be 9b 6b c5 3d cd bd 54 bc
       0.14073081 -0.24365771 0.09639665 -0.012984705
000160 a7 fa e9 bd 03 ca 26 3e 43 b9 00 3e bb 1e d9 3b
       -0.11424761 0.16287999 0.12570672 0.006625978
000170 cc 2f 01 be c8 b3 1f be 1a 87 87 bd 25 c6 20 be
       -0.1261589 -0.15595925 -0.066175655 -0.15700586
000180 66 67 29 bd c3 9c a8 3d 87 5b ef bc fb f1 fd 3c
       -0.041358374 0.08233025 -0.029218448 0.030999174
000190 33 43 b7 bd ac c8 90 bd 5e 58 13 3e b8 c4 dc bc
       -0.08948364 -0.07069525 0.14389178 -0.026949272
0001a0 37 cb 85 3d f8 f2 31 be c4 b8 17 be 7b 6f 41 3e
       0.06532901 -0.17377841 -0.14816576 0.18890183
0001b0 29 95 23 bc 61 dd 74 3e cb cc aa bd dd fb 04 3e
       -0.009984293 0.23912574 -0.083398424 0.12986703
0001c0 6f df df 3d b8 cd 5c be d9 5d 11 be a5 28 55 3e
       0.109312885 -0.2156285 -0.14195956 0.20816286
0001d0 01 23 a3 bd ec f7 6d be 06 b0 3c 3e eb 82 74 3e
       -0.07965661 -0.23239106 0.18426523 0.23878066
0001e0 04 82 27 3e a7 81 22 3e 3f 1a 9a bd d0 73 56 3e
       0.16358191 0.15869771 -0.07524537 0.20942616
0001f0 ae c4 e4 bd d7 95 cb 3d f5 5c 76 be 4f ec 5c 3e
       -0.11170326 0.09940689 -0.24058898 0.2157452
000200 12 0e 3b be 90 3a 71 be 7a 62 da 3d e0 e7 5e 3e
       -0.18267086 -0.23557496 0.10663314 0.21768141
000210 9d 16 52 be 9e 79 79 3e 34 39 22 3d 7c eb ff 3d
       -0.20516439 0.243628 0.039605334 0.12496087
000220 77 91 4a 3d dc b6 7c be 5e 68 5a 3e dd 81 4f 3e
       0.049455132 -0.2467913 0.21328875 0.20264383
000230 f4 ca 08 3e d6 39 a5 3b c3 a3 d3 3d 47 32 7c 3c
       0.1335867 0.005042295 0.103339694 0.015392846
000240 39 ae 9d 3d 4e bf e7 bc 9d f8 70 3e c0 02 ad bd
       0.07699246 -0.028289463 0.23532338 -0.0844779
000250 f3 2e 25 bd 55 7c 93 3d a7 86 64 3e e2 38 0d be
       -0.040327977 0.07201449 0.22316991 -0.1379123
000260 17 67 da bd 90 3a 63 be 1c 48 40 3e e9 75 6d 3e
       -0.10664194 -0.22190309 0.18777508 0.2318951
000270 be f1 44 3d 8a 92 56 be ab 96 47 be 62 86 4b 3e
       0.048082106 -0.20954338 -0.19491069 0.19875482
000280 bb f3 94 3c 46 2e 65 3d a6 32 1a be 5d 8a 57 be
       0.018182626 0.055952333 -0.15058383 -0.21048875
000290 45 b7 fc bd 24 41 79 be 59 8b 36 3e b5 fe c0 3d
       -0.123396434 -0.24341255 0.17826594 0.094235815
0002a0 82 33 4f be 1d c1 7a 3e 8b 5f 5b bd c8 ba f8 3d
       -0.20234492 0.2448773 -0.053557914 0.12145001
0002b0 d4 09 4b 3d a0 8f ac 3d 9f 91 c6 bc 72 26 03 bd
       0.04956992 0.08425832 -0.02423936 -0.032019086
0002c0 60 6b ec bd 90 57 9e 3d 40 57 d3 3c a8 1e 36 3e
       -0.11543918 0.07731545 0.02579844 0.17785132
0002d0 ce ad 40 be b8 3c ca 3d 68 94 a2 3d 40 00 ed 3b
       -0.18816301 0.098748624 0.079384625 0.007232696
0002e0 7a f5 10 be 80 21 01 be b0 8b 40 3e 62 4e 30 3e
       -0.14156142 -0.12610435 0.18803287 0.172174
0002f0 bc 38 ce 3d 30 01 73 be be 2c 2a be 44 b4 a9 3d
       0.10069415 -0.23730922 -0.1661863 0.08286336
000300 bf ac 75 3e 57 36 72 be 9d c8 73 3d ea 5d 6e be
       0.23991679 -0.23653542 0.05951749 -0.23278013
000310 92 5f 75 be e2 71 3e be f3 a6 f6 bd 5b ea 1b be
       -0.23962238 -0.1859813 -0.12043562 -0.15226118
000320 45 37 15 be e2 1f ac 3c ad 13 5a bd 39 8f 17 3e
       -0.14571865 0.021011297 -0.05324142 0.14800729
000330 db 05 72 3d f1 1a ca bd bb 2f 2e be a8 24 46 3e
       0.059087615 -0.0986842 -0.17010395 0.19349921
000340 bb 38 ef 39 dd 30 45 3d 78 61 ec 3d d9 c5 4b bd
       0.000456279 0.048142303 0.11542028 -0.04974923
000350 3e 95 fd bd 8e 6d 04 3c 09 b1 17 be e0 71 f9 3d
       -0.12381981 0.0080827605 -0.14813627 0.12179923
000360 ca 65 b9 3d 69 c8 f1 bd 6d b6 af bd 02 b1 5e 3d
       0.09052618 -0.11805803 -0.08579717 0.054368027
000370 e6 56 10 3d d1 36 1e 3d 28 de f4 bd 87 e3 38 3d
       0.035239123 0.038626496 -0.119564354 0.045138862
000380 7f 4f d8 bd b0 83 58 3d 52 3c 03 3c c5 ca 43 3c
       -0.10562038 0.052859962 0.008009987 0.0119501995
000390 03 25 cc bd 7d 86 4d be 0f 3d 34 be 95 77 6b 3d
       -0.09967997 -0.20070834 -0.17601417 0.05748709
0003a0 6a 8d e0 3d 01 49 75 bd d1 3c 32 3e 33 ab c6 bd
       0.109644726 -0.059884075 0.17406012 -0.097006224
0003b0 c5 ad 07 3e 42 2f 48 3d 10 4b 63 3e 65 87 3c 3e
       0.13249882 0.048873194 0.22196603 0.18411024
0003c0 48 d3 96 bd 00 c5 df 3b a0 a9 41 be 50 55 14 3e
       -0.073645175 0.006828904 -0.18912363 0.14485669
0003d0 30 9c 6a bd 1c 8e 4a be a0 df d2 bd f4 c5 65 be
       -0.05727786 -0.19780773 -0.10296559 -0.22438794
0003e0 30 d6 8f bd 68 c0 ab bd 30 c0 78 be f0 32 8c 3d
       -0.07023275 -0.08386308 -0.24292064 0.06845653
0003f0 3c 41 3b be 58 75 57 3d 74 59 f5 bd b0 12 c0 3c
       -0.18286604 0.052602142 -0.119799525 0.02344641

gnn_base.gnn.gnn1.lin_value.bias f4 [48]
000000 4e 77 10 3e 1c 5a d2 bd a2 ba 00 be 5e d8 50 be
       0.14108011 -0.10271093 -0.12571195 -0.20395038
000010 ab 12 f0 3d fd 7e 4b 3e 2f 9e 8f 3d ca 21 4c 3e
       0.11722311 0.19872661 0.07012593 0.19934765
000020 02 75 3e be 78 4d 77 be e8 ab c5 3d 84 62 f9 bd
       -0.18599322 -0.24150646 0.09651929 -0.121769935
000030 4e 85 4b 3e 4b cd e8 bb c1 1c 0f 3d 60 a4 a5 3d
       0.1987507 -0.007104551 0.03493953 0.08087993
000040 0a 14 4a be 3f 26 4a bd a1 7a 2a 3e c4 a6 a8 bd
       -0.19734207 -0.04935288 0.16648342 -0.08234933
000050 ff e8 7e 3d df 36 04 be 3e 47 35 3d 96 24 fc bd
       0.06223392 -0.12911557 0.044257395 -0.12311666
000060 25 45 71 bd 6e 9c 0c 3e 46 d8 20 bb e2 ea 1b 3e
       -0.058903832 0.13731548 -0.0024542972 0.1522632
000070 2c af 12 3e 8a ba 4f 3e 9f 87 88 bd 30 88 52 3d
       0.14324635 0.20286003 -0.06666493 0.05139941
000080 bd 23 75 3d 7a 22 15 be e9 b6 04 3e a4 c6 1d be
       0.059848536 -0.14563933 0.129604 -0.15407807
000090 76 bf 4e be 91 54 72 3e 36 37 17 3d b2 ea 2b 3e
       -0.20190224 0.23665072 0.036917888 0.16788748
0000a0 76 f9 5a 3e a4 43 55 be 31 5a 4a be 50 c1 43 3d
       0.21384224 -0.20826584 -0.19760968 0.04779178
0000b0 58 d1 0e 3d 47 21 6a bc 4c bc 18 be 50 4e 72 3d
       0.034867615 -0.0142901605 -0.1491558 0.059156716

gnn_base.gnn.gnn1.lin_edge.weight f4 [48, 1]
000000 d9 4e 05 3f 7c 62 31 bf e7 4f 2b 3f c1 37 71 bd
       0.52073437 -0.692909 0.66918796 -0.05889106
000010 0d 8b 58 3f 12 d2 06 bc 13 f1 79 3e bb 43 05 bf
       0.84587175 -0.008228796 0.24408369 -0.52056473
000020 8c 7e 93 be 96 00 2a 3e 73 ae 19 3e 0b 43 31 3f
       -0.28807485 0.16601786 0.15007953 0.69242924
000030 03 cc 19 bf e5 ab 69 3e 79 ba 04 bf 9e b9 47 be
       -0.6007692 0.22819479 -0.51847035 -0.19504401
000040 ef fd 25 bf 42 b3 42 3f 16 43 28 3f 8f 18 5c bf
       -0.64840597 0.76054776 0.65727365 -0.85974973
000050 a8 e5 41 bf 17 7c a7 3e 02 b4 3e bf cb 46 da be
       -0.7574105 0.3271186 -0.7449342 -0.42632136
000060 f7 d3 7b bf 99 cd 34 bf fa 5e 3e 3f f0 6c 16 bf
       -0.9837031 -0.7062622 0.7436367 -0.58759975
000070 e0 e2 24 3f 88 11 8e 3e 33 c4 2d bf 5f 28 6d be
       0.64408684 0.2774775 -0.678775 -0.23159932
000080 df e3 79 bd 19 35 2b 3f 2b 10 70 bf 16 a9 49 3f
       -0.06100833 0.66877896 -0.9377467 0.7877363
000090 06 95 71 bf 0d ea 39 bf 83 ef 27 bf 1c 6e b0 3e
       -0.94368017 -0.7262276 -0.6559984 0.34459007
0000a0 47 ed 32 bf 1f 14 49 bf d6 18 bf 3e d7 0b 3e bf
       -0.69893306 -0.7854633 0.37323636 -0.74236816
0000b0 b5 30 34 bf 4d 61 63 3f a9 0d 12 3f b9 35 39 bf
       -0.7038682 0.88820344 0.57052094 -0.723476
