onpolicy/results/MPE/navigation/rmappo/crap_bad/wandb/offline-run-20221029_134620-7h6oo6yx/files/actor.pt (torch, 143987 bytes, 22 tensors)

base.feature_norm.weight f4 [6]
000000 8e f9 81 3f 7b b3 87 3f 30 3d 82 3f 60 12 7c 3f
       1.0154283 1.0601648 1.0174923 0.9846554
000010 6b a2 74 3f 3a f7 7c 3f
       0.9556033 0.9881474

base.feature_norm.bias f4 [6]
000000 2d 69 5e bb 9b 09 c8 3a 66 c0 38 3b 84 c8 d9 3a
       -0.0033937201 0.0015261652 0.002819085 0.0016615544
000010 09 b6 8e bb c0 a4 b5 bc
       -0.0043551964 -0.022173285

base.mlp.fc1.0.weight f4 [64, 6]
000000 88 53 5d be ed bd 72 bd 4d 8b a6 3e f4 72 c7 bd
       -0.21613896 -0.05926316 0.32528153 -0.097387224
000010 3a 70 f4 3e f0 78 13 be 99 f4 e6 bd db 68 94 3e
       0.47741872 -0.14401603 -0.11277122 0.28986248
000020 4c c9 44 3d 92 5e 0e be f6 62 17 3e 40 49 86 3e
       0.048043534 -0.13903263 0.14783844 0.2622776
000030 ce 22 b7 3d 63 8b 74 3e 2e f8 9b 3d b3 33 a2 3d
       0.08942185 0.23881297 0.07615696 0.07920017
000040 65 fa 8a 3c da 1e 2e be db 55 b7 bd e1 7e e2 3d
       0.0169651 -0.17003956 -0.089519225 0.110593565
000050 ad 88 f3 3d ca 5a ad bd 46 28 c1 3c 8f e5 58 bc
       0.11891303 -0.08464582 0.023578774 -0.013238325
000060 94 db a6 be 83 18 03 3e 84 c7 61 be fd d1 5f bd
       -0.325894 0.12802319 -0.22048765 -0.05464362
000070 50 e7 1c ba 82 ab a1 bd 85 07 8f 3e 21 9b f0 be
       -0.0005985396 -0.07894041 0.27935424 -0.46993354
000080 c9 f5 2f be 54 24 dc 3d a3 3e b6 bc aa 64 c4 be
       -0.17183603 0.107491165 -0.022246664 -0.3835805
000090 68 06 46 bd e5 ee 52 3e cb ed c2 3e 99 4e a3 be
       -0.048345953 0.20598944 0.38072047 -0.31895903
0000a0 30 92 a6 bd d9 80 02 3e ee b2 9e 3d 81 29 71 bd
       -0.08133352 0.12744464 0.07748972 -0.05887747
0000b0 b3 16 50 be e1 41 98 3e 7c 9a e1 bd dc ef 84 3d
       -0.20321159 0.29737762 -0.11015794 0.06491062
0000c0 5e 49 fd 3d c6 dd 7a 3b 54 a2 62 be e1 0c 37 be
       0.12367509 0.003827916 -0.22132236 -0.17876007
0000d0 5a 3c c4 bd 35 bc e8 bd 68 27 29 be 0a a9 2f 3d
       -0.09581824 -0.11364023 -0.16518939 0.042885818
0000e0 06 9a b2 bd ba 84 81 3d ac d3 93 be 76 8d 92 be
       -0.08720784 0.06324144 -0.2887243 -0.2862355
0000f0 3d 8d 3f 3d 3e 24 9e be a5 d5 f6 3d 59 62 43 be
       0.046765555 -0.30887026 0.12052468 -0.19080485
000100 92 18 0c bd 6a 79 2e be 83 b4 2c be 76 35 40 3e
       -0.03420312 -0.17038503 -0.16865735 0.18770394
000110 f5 64 90 3d 75 85 94 bd f2 7d 82 3e e0 40 80 bd
       0.07050506 -0.072520174 0.25486714 -0.06262374
000120 fe 10 81 bd 49 c2 ad bc 3d 26 6b be 3b ef 58 3e
       -0.06302069 -0.021210806 -0.22963805 0.21185009
000130 b3 d2 09 3e 25 4c 55 3e b7 6a 8e bd 12 20 dd 3d
       0.13459282 0.20829828 -0.06953948 0.107971326
000140 62 95 2f be b4 4d 4e bc f1 ec 4f be 22 c4 a8 be
       -0.17146829 -0.012591768 -0.2030523 -0.32962137
000150 1b ca 72 3b 7d e4 99 bd 43 1b 6b ba c4 0b 4f 3d
       0.0037046734 -0.07514284 -0.0008968601 0.05054833
000160 2a 16 17 3d c0 d9 b9 3d fd ea 15 3f b9 4a 26 be
       0.03688637 0.09074736 0.5856169 -0.16239442
000170 89 48 27 3e 8b f0 cf bc 29 df f1 3d 89 a3 8d 3d
       0.16336264 -0.025383255 0.118101425 0.069159575
000180 e1 57 5b 3e 98 29 19 3e 48 48 4a 3d 0d 8d a1 be
       0.21420242 0.14957273 0.04938534 -0.31552926
000190 03 be 10 be c5 aa ab be b3 bf f1 bc 2d 59 ec 3b
       -0.14134984 -0.33528724 -0.029510355 0.007212779
0001a0 88 e1 7d bd 20 85 ad 3e 48 5d 86 3d 35 b0 47 3d
       -0.06198266 0.3389063 0.06560761 0.04875203
0001b0 f1 de 3b 3d d4 e1 b8 3e 14 17 11 3d b5 0c 10 be
       0.04586691 0.36109793 0.0354224 -0.14067347
0001c0 c3 90 a5 3d dc 7c a5 3c fa 09 e6 3d 81 ee 54 3d
       0.08084252 0.02020114 0.11232372 0.051985268
0001d0 3d ae 66 bb 21 27 2d 3e d5 c6 e8 bd 12 05 47 3e
       -0.003519907 0.16909458 -0.11366049 0.19435528
0001e0 e5 83 95 bd e1 72 5e bc 17 5b 55 be 29 49 32 be
       -0.073005475 -0.013577194 -0.2083553 -0.17410721
0001f0 8a 8d 7f 3d 35 c9 9b 3e 14 14 5b 3d 9c f2 a1 bd
       0.06239084 0.30426946 0.053485945 -0.07907602
000200 2e bf 25 be fe 2f 2c 3d 38 b9 50 be 8f 4b 4e be
       -0.1618621 0.042037956 -0.20383155 -0.20146011
000210 fa c8 e9 3d 20 ba 97 3d 30 22 43 bd 50 88 52 3e
       0.11415286 0.074085474 -0.047640026 0.20559812
000220 5b d5 f8 3d 9b 71 a2 3c 9b e0 1a be 74 42 ed be
       0.12150069 0.019829562 -0.15124743 -0.46339762
000230 65 8e 78 be e8 3d 86 3d ef 54 80 bc 87 75 a5 3d
       -0.24273069 0.065547764 -0.0156655 0.08079057
000240 2e 65 c3 3d 0a 42 64 be d4 e1 04 3e fd c9 c2 3e
       0.09540783 -0.22290817 0.12976772 0.3804473
000250 68 64 8c 3d 79 90 1a be f0 6d 95 3d 97 9c 19 be
       0.068550885 -0.15094174 0.072963595 -0.1500114
000260 b6 b9 05 3d cd 08 f7 3e c8 cc 9d 3e 19 21 b3 bd
       0.03264781 0.48248902 0.30820298 -0.08746547
000270 b9 79 99 3d 15 c6 f1 3e 88 80 de be 3c 87 7f 3e
       0.0749392 0.47221437 -0.43457437 0.24953932
000280 0c d9 da 3d c5 b1 e9 bd 02 ca e1 3d 7d a2 82 bb
       0.1068593 -0.1141086 0.11024858 -0.0039866553
000290 aa 3d 44 3c 82 4d 1d 3e ad 1f 27 be 1a 5b b6 3e
       0.0119775925 0.15361598 -0.16320677 0.3561638
0002a0 06 8b 37 be 86 56 49 bd f9 76 aa bd ac 8c 88 3d
       -0.17924127 -0.04915478 -0.083234735 0.06667456
0002b0 da e6 83 3e 1d bf 9a bd f2 88 24 be 77 7a 85 3d
       0.25762063 -0.07555983 -0.16067865 0.06517499
0002c0 f4 6c 09 be f0 be a0 bd 59 43 4d be c1 20 07 be
       -0.13420469 -0.078489184 -0.20045222 -0.13196088
0002d0 ca 74 8a bc 88 90 3e 3e 74 1f 92 3e c4 63 ac bd
       -0.016901392 0.18609822 0.28539622 -0.08417466
0002e0 e9 c1 f8 bd d7 57 12 bd 42 f3 dc be a4 c4 ee 3d
       -0.121463604 -0.0357283 -0.4315434 0.116586
0002f0 de 7f e1 3b 15 6c d8 3c be 82 ff 3d ad 74 17 be
       0.006881698 0.026418725 0.12476109 -0.14790602
000300 1a e2 a3 3d 1a d4 3a be 68 11 40 3d b5 7d c4 bc
       0.0800211 -0.18244973 0.0468916 -0.023985723
000310 a4 9e 8d 3d 55 fc 71 3e 75 3c 8c 3d d1 bb d4 bc
       0.06915024 0.23631413 0.06847469 -0.025968464
000320 09 07 d8 3d 05 5f 43 3e 8f 8c 44 be 51 a2 1e 3e
       0.10548217 0.19079216 -0.19194244 0.15491606
000330 b7 51 10 be 22 49 c9 3e 7c 9a ee 3d ff 52 9d 3e
       -0.14093672 0.39313608 0.11650559 0.30727383
000340 15 b1 e6 bd 32 5a e3 3e 36 5b 28 be 93 12 2c 3e
       -0.112642445 0.4440475 -0.16441044 0.1680396
000350 51 71 bd bd 31 ae 23 3d eb f9 b4 3e 7c 17 18 bc
       -0.09250129 0.039961044 0.35346922 -0.009282943
000360 da 79 3f bd d6 f9 88 bd e6 dd b9 3d 32 11 1f be
       -0.046747066 -0.066882774 0.09075527 -0.15533903
000370 30 3f bd 3c e6 02 d7 bd c2 81 0d 3d d9 4c b5 3b
       0.02310142 -0.104986 0.034547575 0.0055328426
000380 72 9a 4c 3e 40 12 0a 3e 1e 35 3c be 26 59 af be
       0.19980791 0.13483524 -0.18379638 -0.34247702
000390 3e e4 29 bb 3d bb b8 3d ae b6 92 be 6f 84 1e 3d
       -0.0025923396 0.09020088 -0.28655 0.038700517
0003a0 48 18 67 bd 3e bf 8f 3e e1 48 cb 3d c6 27 ae 3d
       -0.05641964 0.28075594 0.0992601 0.0850368
0003b0 20 fd 24 be e7 0d 62 be 90 9b b6 3d f8 5c d0 3d
       -0.16112185 -0.22075616 0.0891639 0.101739824
0003c0 d6 f2 40 3e a8 03 4a 3e 74 c6 fa bd 60 f6 1b be
       0.18842635 0.19727957 -0.12244883 -0.15230703
0003d0 a6 59 84 bd 6f b7 55 be 0f 62 85 3e a6 49 49 bd
       -0.064624116 -0.20870756 0.26051375 -0.049142502
0003e0 de be 7b be 86 58 f9 3d 03 95 be bd b4 15 3d bc
       -0.24584529 0.12175088 -0.093057655 -0.011540819
0003f0 bf d2 9d 3e 9a c3 a6 be 4d ee 65 3c c4 5e 0e 3e
       0.3082485 -0.32571107 0.014033866 0.13903338

base.mlp.fc1.0.bias f4 [64]
000000 47 2a af bc 89 ac 1e bc 6a 70 66 ba ec 21 05 3d
       -0.021382464 -0.00968469 -0.0008790555 0.032503054
000010 88 d9 c7 bb e1 87 5d 3d aa 4b b6 3c 2a 62 cb bc
       -0.00609893 0.054084662 0.022252876 -0.024827082
000020 f7 4d 94 3c 8a ab 98 bd 4a ff 87 bc 4d b6 15 3d
       0.018103583 -0.074545935 -0.016601223 0.03655081
000030 cc 65 c7 bc 97 d6 6a bc 50 fd 93 bd 52 b5 c8 bc
       -0.024340533 -0.014333389 -0.0722605 -0.024500523
000040 e6 7e e9 bc 12 b7 70 bc 3c 84 2f bd 47 d1 de 3c
       -0.028502893 -0.014692085 -0.042850718 0.0271994
000050 34 b9 40 bd 39 ca 07 3d 00 f9 0a bd e5 d9 7f bc
       -0.047051623 0.03315184 -0.03392887 -0.015615915
000060 c6 a2 61 3d 17 a2 ae ba c9 82 d6 3c ae c1 5d bc
       0.055086873 -0.0013323453 0.02618541 -0.013534946
000070 11 12 45 bd 43 ea bb 3d 3c ad d4 3b bd 8b 02 bc
       -0.048112933 0.09175541 0.0064903777 -0.0079678865
000080 6e 8a 5e bc 09 ca 86 bb e2 09 4b bc 51 10 23 bd
       -0.013582809 -0.00411344 -0.012392493 -0.039810482
000090 49 d4 99 bc 0e a6 56 3c 45 3e cc bb 58 5e 81 bb
       -0.018777983 0.013101114 -0.006233009 -0.003948014
0000a0 e4 fb c4 3c 61 04 14 bd 62 85 35 bc 84 2e 80 3c
       0.024045892 -0.03613699 -0.011079164 0.01564718
0000b0 36 75 fd bc 44 47 8b 3b bd 5c b2 bc b7 17 4d 3b
       -0.03093968 0.004250439 -0.021772737 0.0031294653
0000c0 b3 a8 3b 3d 45 1e 6b 3d c9 d6 9f 3c ee 2d 50 3d
       0.04581518 0.057401914 0.019511597 0.050825052
0000d0 d8 65 ac bc 5e e9 26 3a 26 c8 63 bd ee a4 d7 bc
       -0.021044657 0.0006367172 -0.0556108 -0.026323762
0000e0 b2 dc b8 bb e8 e6 02 bc d3 e7 ec bb e7 4e 11 bd
       -0.0056415433 -0.007989623 -0.007229784 -0.035475638
0000f0 66 be 48 b9 62 83 2b bc e2 e3 13 3d 12 4a 22 bc
       -0.00019144415 -0.010468336 0.036105998 -0.009905355

base.mlp.fc1.2.weight f4 [64]
000000 95 38 85 3f 24 83 82 3f 78 55 74 3f 28 5a 81 3f
       1.0407892 1.0196271 0.95442915 1.0105639
000010 e6 c1 85 3f d0 24 8b 3f 46 ac 81 3f 38 82 7d 3f
       1.0449798 1.0870609 1.0130699 0.99026823
000020 4f dc 7d 3f c0 72 70 3f 7c 98 7d 3f 0e a5 87 3f
       0.9916429 0.93925095 0.990608 1.0597246
000030 31 1d 76 3f 22 92 76 3f 03 29 7e 3f 7a 4c 77 3f
       0.9613829 0.9631673 0.9928133 0.9660107
000040 6c 6a 7d 3f 21 4e 6e 3f 15 fe 84 3f d5 f8 81 3f
       0.9899051 0.93087965 1.039004 1.0154063
000050 d2 7b 73 3f d1 ec 7b 3f 74 34 7b 3f e3 ce 82 3f
       0.9511081 0.9840823 0.9812691 1.0219387
000060 ba 17 87 3f 34 dc 84 3f 16 6b 84 3f 15 50 7f 3f
       1.0554116 1.0379701 1.034518 0.9973157
000070 d4 58 73 3f 70 ad 74 3f 61 11 82 3f 29 13 80 3f
       0.95057416 0.95577145 1.0161554 1.0005847
000080 4e 92 80 3f c9 99 7a 3f 1e 3a 89 3f bf 75 85 3f
       1.0044649 0.9789091 1.0720861 1.0426558
000090 87 88 84 3f f9 9d 7b 3f e3 4b 84 3f 25 1b 79 3f
       1.0354165 0.9828792 1.0335659 0.97307044
0000a0 7b 00 82 3f df 02 84 3f 08 f1 78 3f 9d 9b 80 3f
       1.0156397 1.0313376 0.97242785 1.004749
0000b0 20 2f 7d 3f ef 30 85 3f 73 da 7e 3f b5 fb 80 3f
       0.9890003 1.0405558 0.9955208 1.0076815
0000c0 c9 41 84 3f c6 7d 80 3f 19 0a 81 3f 0b 36 79 3f
       1.0332576 1.0038383 1.0081207 0.9734809
0000d0 76 cb 7b 3f e9 fa 7d 3f 3e 9c 82 3f 53 07 7c 3f
       0.9835733 0.99210984 1.0203931 0.98448676
0000e0 57 8f 7f 3f 38 b6 72 3f 4d f5 70 3f d6 58 6e 3f
       0.99828094 0.94809294 0.941243 0.931043
0000f0 64 d4 83 3f 94 27 75 3f c0 c2 7c 3f 75 5e 88 3f
       1.0299191 0.95763516 0.98734665 1.0653826

base.mlp.fc1.2.bias f4 [64]
000000 d4 03 19 3c c6 21 44 bc 70 d5 07 bd c9 69 19 bb
       0.009339292 -0.011970943 -0.033162534 -0.0023409
000010 e3 e5 48 bc 41 26 21 3c 4d f6 0b 3c d0 d8 60 bd
       -0.0122618405 0.009835781 0.008542609 -0.05489427
000020 0c 51 6e 3c a7 f6 54 bd 5e 6c 10 bd 43 22 55 ba
       0.01454569 -0.05199304 -0.035259597 -0.00081304106
000030 1e 3c f6 ba 67 bf 5d bc 3c 9f e3 bc cf 2f 7a 3a
       -0.0018786227 -0.013534403 -0.02778589 0.0009543867
000040 92 39 31 3c 03 2b d6 3c 23 61 89 bc 7b b5 56 bc
       0.0108169485 0.026143556 -0.016769951 -0.013104792
000050 68 bc 7d bd 26 2f 0c 3d d8 5d 34 3c 5b 2e d4 bc
       -0.061947256 0.03422465 0.011008702 -0.02590101
000060 37 c5 3f 3d 23 c2 84 ba 55 bd 76 3c 23 46 14 3c
       0.046818938 -0.0010128658 0.015059789 0.009049925
000070 31 dd 1a bd dc b3 94 3d 90 04 b6 bc f0 c0 4d bc
       -0.0378086 0.07260868 -0.022218972 -0.012558207
000080 d2 cf 13 3d 07 81 59 3c 68 ad da 3b 69 9b 6b bd
       0.036086865 0.013275391 0.0066735037 -0.057521258
000090 fe 96 31 bd 9f c6 9e bc cc 45 98 bc b6 7b 93 3c
       -0.043356888 -0.01938182 -0.01858797 0.018003326
0000a0 5a ca 87 3c 24 5d 0f bc b0 35 2d 3c 8d 45 1d 3d
       0.016575981 -0.008750234 0.010571882 0.038396407
0000b0 4c 41 29 3c 6b 99 d9 3c 9d 1b 39 bd 92 cf 91 3b
       0.010330509 0.026562413 -0.04519235 0.004449793
0000c0 31 c3 21 bb 00 b8 ec 36 8b be 67 3c 9e 04 20 3d
       -0.0024682994 7.0547685e-06 0.01414455 0.039066903
0000d0 13 93 2a bc 09 a5 d9 bb 18 fb 27 bd ab e2 69 bb
       -0.010411042 -0.006641988 -0.041010946 -0.0035688083
0000e0 ea 16 cb 3b 8c 88 88 3d a2 5a 41 3d c9 b6 e8 bb
       0.0061978 0.06666669 0.047205575 -0.007101868
0000f0 70 9a 27 bc 14 02 06 3d 7b e4 ce 3b 82 9c 8b bc
       -0.010229692 0.032716826 0.006313858 -0.017042402

base.mlp.fc_h.0.weight f4 [64, 64]
000000 aa 26 8c 3e 33 e4 9b 3d b9 db d1 bd 11 66 49 be
       0.27373248 0.07611885 -0.10246987 -0.19667841
000010 a3 d0 7c 3d 9a a8 b7 bd 62 bf f3 3c 8b cf 7c 3d
       0.06172241 -0.08967705 0.029754344 0.061721366
000020 db b1 67 be 79 5b ba 3d a6 e7 44 3e 22 53 47 bc
       -0.2262644 0.09099478 0.19228992 -0.0121658165
000030 24 8b fb 3c 58 af 06 3d 18 42 5f 3e 6b 84 51 3d
       0.030705996 0.032882065 0.21802557 0.051151674
000040 ea bf 51 3e 02 c9 8a be 34 dd b3 3d 0c df c9 3d
       0.20483366 -0.27106482 0.087824255 0.09856996
000050 a1 4f 6d bd 1e 26 38 bc 6d 5f a7 be db 4f 86 bd
       -0.05793727 -0.011239557 -0.32689992 -0.065582
000060 f1 40 f2 3d b7 46 85 be ff 3a 41 be 14 ca d1 3e
       0.11828793 -0.26030514 -0.18870161 0.40974486
000070 55 64 71 be 7e f8 dd 3d d3 17 06 3e 64 3f 0e 3e
       -0.2357343 0.10838412 0.13095026 0.13891369
000080 bc e6 4d 3d 36 68 83 3b 45 64 8f 3e cc 8c 90 3e
       0.050268874 0.0040102256 0.28006187 0.2823242
000090 73 5f ce be 59 bd b2 bd 27 7c 8a bd 79 89 d6 bd
       -0.40307197 -0.087275214 -0.067619614 -0.104754396
0000a0 1f 54 20 3e e9 c8 82 3d e5 af 3a 3e 12 73 37 3c
       0.1565709 0.06385977 0.18231161 0.0111968685
0000b0 6e b3 3b be a8 f5 5b be 3c 16 c7 bd c6 20 99 be
       -0.18330166 -0.21480429 -0.09721038 -0.29907817
0000c0 21 84 d8 3d 54 bd 8e 3d f5 fa dc 3e fb b7 8d 3e
       0.105720766 0.06969705 0.43160215 0.27679428
0000d0 8a e9 8d 3d 26 57 bc 3d 1a 7c 00 3e c7 46 94 bd
       0.0692931 0.0919631 0.12547341 -0.07240062
0000e0 07 cd 26 3e b6 19 2d 3e 6b 6b c2 3c 31 33 26 3e
       0.16289149 0.16904339 0.023732862 0.16230465
0000f0 4e 9f 02 3e ec a8 c9 bd a2 ba 73 be 13 7c 73 bd
       0.12756082 -0.098466724 -0.23801664 -0.0594445
000100 73 4b 83 be 5c 17 ee bd 95 b6 e0 3b e5 0d f4 be
       -0.256435 -0.11625549 0.006857703 -0.4766685
000110 5b 5f 8d be 9f cb ec 3d 69 90 c8 bd 21 a0 c3 3d
       -0.27611813 0.11562275 -0.09793169 0.095520265
000120 92 32 3f bd 51 a2 d4 3e f1 a7 9d be e5 fd 0f be
       -0.046679087 0.41530088 -0.30792192 -0.14061697
000130 4f 39 62 be ce 0b b0 3e 8c 48 51 3e bd 59 a8 bd
       -0.22092174 0.34384006 0.2043783 -0.08220241
000140 8f 67 35 3d 61 cf 8b be 1c 3e cb 3d f3 7e d5 3c
       0.044288214 -0.27306655 0.09923956 0.02606151
000150 2b 07 91 bc 36 9c aa 3d 6d 09 af 3d bd 32 c4 bd
       -0.017703613 0.08330576 0.0854672 -0.0957999
000160 f0 3c c8 be 52 e1 c0 3c ec 42 22 3d eb f8 85 bd
       -0.39108992 0.023544941 0.039614603 -0.06541618
000170 42 cf 15 bc 37 ac 96 3d 40 79 00 bc f9 6a 60 3d
       -0.009143652 0.07357066 -0.007841408 0.054789517
000180 80 67 66 be 89 ca 14 be 16 76 0e 3e 9b ea 67 3e
       -0.2250042 -0.14530386 0.13912234 0.22648089
000190 dd 1b 06 be 54 f0 1c 3e c9 fd 59 bd 20 45 b1 bd
       -0.13096566 0.15326053 -0.053220544 -0.08655763
0001a0 32 35 ac 3d e3 97 88 3e a6 30 42 3b ec 89 a6 3b
       0.08408584 0.2667838 0.0029631048 0.0050823595
0001b0 21 67 eb bc ed ae ba 3e e5 3b 5c 3e 2b be 8d 3c
       -0.0287357 0.36461583 0.21507223 0.017302593
0001c0 2b 4c 11 be 23 40 cc bd 11 d2 46 bd 47 a4 8a be
       -0.14189212 -0.099731706 -0.04854018 -0.2707846
0001d0 21 89 ef 3d 57 10 41 be 85 bc 7d bd 9c 80 22 be
       0.11696077 -0.1885389 -0.061947364 -0.15869373
0001e0 74 fd d7 bd 0f 9a 7d 3e f9 fb 36 be 89 03 dd 3d
       -0.10546389 0.247658 -0.17869557 0.1079169
0001f0 43 93 b1 3d f2 36 48 3e dd 52 cb 3c 64 32 6a 3d
       0.08670666 0.1955221 0.024819786 0.057176962
000200 cb 95 6e 3d c5 be ad bc e7 5e 8e be 54 ae fd be
       0.058248322 -0.02120913 -0.2780678 -0.49547064
000210 20 e6 87 3e a5 ba 96 bd ac 79 2e 3e 8d 3d 13 be
       0.2654276 -0.07359818 0.17038602 -0.14378949
000220 f5 f8 2f bd 4b c5 92 3c fe c4 4d 3e 0a 62 73 bc
       -0.042962033 0.017916342 0.20094678 -0.014854917
000230 7e 33 2b 3c 20 52 a1 3b 4d 19 72 be a3 9c 04 3e
       0.010449288 0.00492312 -0.23642464 0.12950377
000240 86 fc 21 be 72 0b de 3d 9a 7d 2d 3e 7a b4 7f 3e
       -0.15818986 0.10842027 0.16942444 0.2497119
000250 5a a7 4c 3e 99 dc fe 3c ef d8 a2 be 8e d7 8c 3e
       0.19985715 0.031111049 -0.31806132 0.27508205
000260 e8 e3 0f be 4f e0 17 3e df 5b 58 be 2f 3f 0c 3c
       -0.14051783 0.1483166 -0.21128796 0.008559986
000270 7d c1 2c bd b7 a5 82 bd 61 af 29 3d b2 53 2e be
       -0.042176712 -0.06379264 0.04142702 -0.17024115
000280 eb 43 1c be 9e 7f a3 be 4c 32 fe bb 35 c6 b0 be
       -0.15260284 -0.31933302 -0.0077574607 -0.3452622
000290 2b 94 19 bd 7e ca 46 bd ca 0a 28 bd 1e 8a 8f 3c
       -0.03749482 -0.048532955 -0.041025914 0.017521914
0002a0 e7 91 a2 bd 9c 79 b4 3d c3 62 ee 3d 94 c7 aa be
       -0.07937985 0.08812258 0.11639931 -0.3335539
0002b0 41 df 11 be 55 ab b0 bd 4c 9b 26 3e ff fe e5 bd
       -0.14245321 -0.08626429 0.16270179 -0.11230277
0002c0 2a c5 7d 3d 21 fa a2 be c2 0f 53 bd 80 5b bd bd
       0.06195561 -0.31831458 -0.0515287 -0.09245968
0002d0 39 0f 68 bb 36 28 3d be 42 83 24 3e 49 69 67 bc
       -0.0035409464 -0.1847237 0.16065696 -0.014124223
0002e0 02 5c be be a8 d0 4a bc e3 2a 17 3d 15 da 8d be
       -0.3717957 -0.012378849 0.036906134 -0.27705446
0002f0 a3 1d 00 be f9 ea 99 be df 89 a6 3d ca 70 36 3d
       -0.12511306 -0.30062082 0.081317656 0.044541158
000300 80 d5 58 3e cc 10 c1 3d ab 89 5a be 30 36 22 3e
       0.21175194 0.09427032 -0.21341579 0.15840983
000310 8f b6 3f be 8d 87 ac be b2 eb e8 3d df 4e 05 be
       -0.18721984 -0.33697167 0.1137308 -0.13018368
000320 81 00 88 be c0 fb d6 3d b6 79 f7 bd 5d 7b 03 3e
       -0.26562884 0.10497236 -0.120837614 0.12840028
000330 61 6e 4b be 79 06 c0 bd 50 da d9 3c 3e dc e7 be
       -0.19866325 -0.093762346 0.026593357 -0.4528522
000340 1a 87 a6 be ee 50 ca be c7 5d b4 be 45 f3 06 3e
       -0.3252495 -0.3951487 -0.35227796 0.13178737
000350 37 73 3a bd 5b fb ac bd 6b 9f ea bc 4e 21 07 3e
       -0.045520034 -0.0844638 -0.02864047 0.13196298
000360 31 2b 0f be 08 98 93 3e f9 5b a5 3d 78 97 24 3e
       -0.1398132 0.28826928 0.08074183 0.16073406
000370 15 b7 1b 3e d2 1c 01 be 2f 62 ac be a8 01 2e 3e
       0.15206559 -0.1260865 -0.33668658 0.1699282
000380 63 34 07 3e 8a 9e 08 3c 91 e8 a6 bd 43 13 a0 3c
       0.13203578 0.00833858 -0.08149827 0.019540435
000390 4d 5a 4c bd 66 de 9c be 55 87 27 be 1e dd 58 bc
       -0.049890805 -0.30638427 -0.16360219 -0.013236312
0003a0 f9 cd 27 be 3b 6b d7 3d 07 11 15 bc c3 4f 44 bd
       -0.16387166 0.105184995 -0.009098298 -0.04792763
0003b0 7c 9d a7 bd 11 e2 ab 3c c4 80 21 be a1 c5 8a be
       -0.08184335 0.02098182 -0.15771776 -0.27103904
0003c0 3c 61 e9 bd c4 b3 1e 3e 9d ba ee bd 36 7f 80 be
       -0.11395499 0.15498263 -0.116566874 -0.25097054
0003d0 47 38 1d 3e 4e 04 82 3c 35 a6 15 be d5 0a a3 3d
       0.153535 0.015871193 -0.14614184 0.079610504
0003e0 7d e4 87 bd 14 2c 65 bd fe 27 1f 3e 5e 84 0b be
       -0.066353776 -0.05595024 0.155426 -0.13624713
0003f0 94 21 38 bd 8d 72 de bc 9d 61 b7 bd c3 23 81 be
       -0.044953898 -0.027154231 -0.08954165 -0.25222597

base.mlp.fc_h.0.bias f4 [64]
000000 00 00 00 00 00 00 00 00 00 00 00 00 00 00 00 00
       0.0 0.0 0.0 0.0
000010 00 00 00 00 00 00 00 00 00 00 00 00 00 00 00 00
       0.0 0.0 0.0 0.0
000020 00 00 00 00 00 00 00 00 00 00 00 00 00 00 00 00
       0.0 0.0 0.0 0.0
000030 00 00 00 00 00 00 00 00 00 00 00 00 00 00 00 00
       0.0 0.0 0.0 0.0
000040 00 00 00 00 00 00 00 00 00 00 00 00 00 00 00 00
       0.0 0.0 0.0 0.0
000050 00 00 00 00 00 00 00 00 00 00 00 00 00 00 00 00
       0.0 0.0 0.0 0.0
000060 00 00 00 00 00 00 00 00 00 00 00 00 00 00 00 00
       0.0 0.0 0.0 0.0
000070 00 00 00 00 00 00 00 00 00 00 00 00 00 00 00 00
       0.0 0.0 0.0 0.0
000080 00 00 00 00 00 00 00 00 00 00 00 00 00 00 00 00
       0.0 0.0 0.0 0.0
000090 00 00 00 00 00 00 00 00 00 00 00 00 00 00 00 00
       0.0 0.0 0.0 0.0
0000a0 00 00 00 00 00 00 00 00 00 00 00 00 00 00 00 00
       0.0 0.0 0.0 0.0
0000b0 00 00 00 00 00 00 00 00 00 00 00 00 00 00 00 00
       0.0 0.0 0.0 0.0
0000c0 00 00 00 00 00 00 00 00 00 00 00 00 00 00 00 00
       0.0 0.0 0.0 0.0
0000d0 00 00 00 00 00 00 00 00 00 00 00 00 00 00 00 00
       0.0 0.0 0.0 0.0
0000e0 00 00 00 00 00 00 00 00 00 00 00 00 00 00 00 00
       0.0 0.0 0.0 0.0
0000f0 00 00 00 00 00 00 00 00 00 00 00 00 00 00 00 00
       0.0 0.0 0.0 0.0

base.mlp.fc_h.2.weight f4 [64]
000000 00 00 80 3f 00 00 80 3f 00 00 80 3f 00 00 80 3f
       1.0 1.0 1.0 1.0
000010 00 00 80 3f 00 00 80 3f 00 00 80 3f 00 00 80 3f
       1.0 1.0 1.0 1.0
000020 00 00 80 3f 00 00 80 3f 00 00 80 3f 00 00 80 3f
       1.0 1.0 1.0 1.0
000030 00 00 80 3f 00 00 80 3f 00 00 80 3f 00 00 80 3f
       1.0 1.0 1.0 1.0
000040 00 00 80 3f 00 00 80 3f 00 00 80 3f 00 00 80 3f
       1.0 1.0 1.0 1.0
000050 00 00 80 3f 00 00 80 3f 00 00 80 3f 00 00 80 3f
       1.0 1.0 1.0 1.0
000060 00 00 80 3f 00 00 80 3f 00 00 80 3f 00 00 80 3f
       1.0 1.0 1.0 1.0
000070 00 00 80 3f 00 00 80 3f 00 00 80 3f 00 00 80 3f
       1.0 1.0 1.0 1.0
000080 00 00 80 3f 00 00 80 3f 00 00 80 3f 00 00 80 3f
       1.0 1.0 1.0 1.0
000090 00 00 80 3f 00 00 80 3f 00 00 80 3f 00 00 80 3f
       1.0 1.0 1.0 1.0
0000a0 00 00 80 3f 00 00 80 3f 00 00 80 3f 00 00 80 3f
       1.0 1.0 1.0 1.0
0000b0 00 00 80 3f 00 00 80 3f 00 00 80 3f 00 00 80 3f
       1.0 1.0 1.0 1.0
0000c0 00 00 80 3f 00 00 80 3f 00 00 80 3f 00 00 80 3f
       1.0 1.0 1.0 1.0
0000d0 00 00 80 3f 00 00 80 3f 00 00 80 3f 00 00 80 3f
       1.0 1.0 1.0 1.0
0000e0 00 00 80 3f 00 00 80 3f 00 00 80 3f 00 00 80 3f
       1.0 1.0 1.0 1.0
0000f0 00 00 80 3f 00 00 80 3f 00 00 80 3f 00 00 80 3f
       1.0 1.0 1.0 1.0

base.mlp.fc_h.2.bias f4 [64]
000000 00 00 00 00 00 00 00 00 00 00 00 00 00 00 00 00
       0.0 0.0 0.0 0.0
000010 00 00 00 00 00 00 00 00 00 00 00 00 00 00 00 00
       0.0 0.0 0.0 0.0
000020 00 00 00 00 00 00 00 00 00 00 00 00 00 00 00 00
       0.0 0.0 0.0 0.0
000030 00 00 00 00 00 00 00 00 00 00 00 00 00 00 00 00
       0.0 0.0 0.0 0.0
000040 00 00 00 00 00 00 00 00 00 00 00 00 00 00 00 00
       0.0 0.0 0.0 0.0
000050 00 00 00 00 00 00 00 00 00 00 00 00 00 00 00 00
       0.0 0.0 0.0 0.0
000060 00 00 00 00 00 00 00 00 00 00 00 00 00 00 00 00
       0.0 0.0 0.0 0.0
000070 00 00 00 00 00 00 00 00 00 00 00 00 00 00 00 00
       0.0 0.0 0.0 0.0
000080 00 00 00 00 00 00 00 00 00 00 00 00 00 00 00 00
       0.0 0.0 0.0 0.0
000090 00 00 00 00 00 00 00 00 00 00 00 00 00 00 00 00
       0.0 0.0 0.0 0.0
0000a0 00 00 00 00 00 00 00 00 00 00 00 00 00 00 00 00
       0.0 0.0 0.0 0.0
0000b0 00 00 00 00 00 00 00 00 00 00 00 00 00 00 00 00
       0.0 0.0 0.0 0.0
0000c0 00 00 00 00 00 00 00 00 00 00 00 00 00 00 00 00
       0.0 0.0 0.0 0.0
0000d0 00 00 00 00 00 00 00 00 00 00 00 00 00 00 00 00
       0.0 0.0 0.0 0.0
0000e0 00 00 00 00 00 00 00 00 00 00 00 00 00 00 00 00
       0.0 0.0 0.0 0.0
0000f0 00 00 00 00 00 00 00 00 00 00 00 00 00 00 00 00
       0.0 0.0 0.0 0.0

base.mlp.fc2.0.0.weight f4 [64, 64]
000000 eb c2 75 3e 1b 72 b5 3d 1f 8b 72 bd d1 6f 43 be
       0.24000137 0.088596545 -0.059214707 -0.19085623
000010 c5 61 8a 3d b3 9f bf bd f8 22 b6 3b 6f 36 a0 3d
       0.06756929 -0.09356632 0.005558368 0.078228824
000020 2e 8f 48 be 03 c7 0a 3e 72 1c 1c 3e 56 52 fb bb
       -0.19585869 0.1355248 0.15245226 -0.0076697273
000030 40 88 97 3c e8 4f a4 3d c4 9d 3b 3e d0 fe 14 3d
       0.018497586 0.080230534 0.18321902 0.03637582
000040 b0 f8 62 3e 7f 6e 87 be 1b 83 ed 3d c6 00 fd 3d
       0.22165179 -0.2645149 0.11597272 0.12353663
000050 6f 4b 79 bd 75 38 52 3c 98 be a7 be 8d bd e2 bd
       -0.060862955 0.012830843 -0.327626 -0.1107131
000060 82 be f4 3d 17 40 90 be d1 bd 24 be 06 d0 ca 3e
       0.11950399 -0.28173897 -0.16088034 0.39611834
000070 7f fb 7f be 45 40 fe 3d 47 24 06 3e a8 c5 21 3e
       -0.24998282 0.12414602 0.13099776 0.15798056
000080 bf 92 f3 3c 4d ed a3 3c ca b8 a8 3e f4 86 8c 3e
       0.02973306 0.020010615 0.32953483 0.2744671
000090 26 37 d9 be 13 93 4f bd 6a 50 92 bd f2 b1 b9 bd
       -0.42424887 -0.05067737 -0.07144244 -0.090671435
0000a0 0e fa 3d 3e e6 1f b2 3d 86 19 30 3e 0c 82 86 3c
       0.1855242 0.086974904 0.17197236 0.016419433
0000b0 91 b4 20 be 6e e7 78 be a1 65 a8 bd f7 14 ac be
       -0.1569388 -0.24307033 -0.08222509 -0.33609745
0000c0 45 d1 b3 3d ad 24 84 3d fc 9b d8 3e 87 de 92 3e
       0.08780149 0.06452308 0.42306507 0.286854
0000d0 dd 4f 4e 3d 37 78 2c 3d 76 21 19 3e 75 d4 ed bd
       0.050369132 0.042106833 0.1495417 -0.116127886
0000e0 37 fd 15 3e 91 03 ed 3d 4c 86 fa 3c ff 74 4e 3e
       0.14647375 0.11572946 0.030581616 0.20161818
0000f0 eb a4 f6 3d d7 2e ba bd d8 fe 86 be 40 89 0d 3b
       0.12043174 -0.09090965 -0.26366305 0.00215967
000100 84 96 72 be a9 30 31 bd 7e 5d 81 bb 2f cc ce be
       -0.2369023 -0.043259297 -0.0039479127 -0.40390155
000110 f7 7b 43 be ea e8 cb 3d f2 79 a6 bd b8 c5 02 3e
       -0.19090258 0.09956534 -0.08128728 0.12770736
000120 2b 81 52 bd eb c3 c6 3e 39 d4 b8 be 09 9c 81 bd
       -0.051392715 0.3882135 -0.36099413 -0.063285895
000130 34 10 64 be 10 c8 a6 3e eb 22 5b 3e f5 0c bb bd
       -0.22271806 0.3257451 0.21400039 -0.09133331
000140 2a e0 a1 bb 12 da 81 be 00 4b 0f 3e 03 1d de 3c
       -0.0049400525 -0.25361687 0.13993454 0.027113443
000150 f5 75 9d 3a 7d f3 94 3d 7a aa e3 3d 62 71 cd bd
       0.0012013303 0.07273004 0.111165 -0.10031392
000160 c0 29 e1 be 0c c4 22 3c 35 70 6a 3d 3d 04 39 bd
       -0.43977165 0.0099344365 0.057235915 -0.045170058
000170 ff da 96 bb db d6 dd 3d 87 4f cd bc d4 7b cb 3d
       -0.004603743 0.10831996 -0.025062336 0.09935728
000180 cd f3 5f be 25 9f 2c be cf d4 56 3e 5e 92 82 3e
       -0.21870346 -0.16857584 0.20979618 0.25502294
000190 3d af b9 bd 1d 21 d2 3d d8 19 31 bd 7e 42 c8 bd
       -0.09066627 0.10260222 -0.043237537 -0.097783074
0001a0 2a 72 ca 3d 6a f7 88 3e 24 70 1e 3c 1c 08 5e bc
       0.09885056 0.26751262 0.009670291 -0.013551738
0001b0 86 66 23 bd 5b 2b c7 3e 5b ff 22 3e 30 58 2c 3d
       -0.039892696 0.38900265 0.15917723 0.04207629
0001c0 ee 72 3e be 3b 88 d8 bd 70 99 9c bd 2b 79 87 be
       -0.1859853 -0.10572859 -0.076464534 -0.2645963
0001d0 a0 de 08 3e 33 91 1c be c3 a0 76 bd e2 9e 0c be
       0.13366175 -0.15289764 -0.060211908 -0.13732484
0001e0 19 24 e1 bd 53 5c 83 3e b0 0f 73 be 13 c6 97 3d
       -0.10993213 0.25656375 -0.23736453 0.074108265
0001f0 47 7c 9e 3d e2 02 74 3e 37 fd 9d 3d 8c 3d 08 3e
       0.07738548 0.23829225 0.077143125 0.13304728
000200 4c 48 85 3d 32 d7 61 bd 15 51 93 be fa 8d e7 be
       0.0650793 -0.055136867 -0.28772798 -0.45225507
000210 09 5f 8c 3e 85 73 a5 bd 37 0c 4a 3e 1d 60 a5 bd
       0.27416256 -0.08078674 0.19731222 -0.08074973
000220 77 10 c7 bd 2a 74 22 3d 09 7f 5b 3e a2 95 14 bb
       -0.09719937 0.039661564 0.21435179 -0.0022672196
000230 cb 9d 65 bc 35 57 fb 3b 66 da 7e be e4 6d dc 3d
       -0.014014672 0.007670308 -0.24888 0.107631475
000240 86 af 54 be e8 3b 28 3e 21 e9 2e 3e 5d 3d 98 3e
       -0.20770082 0.16429102 0.17081119 0.29734316
000250 1e db 35 3e a2 f7 04 3d 42 c8 87 be 01 03 86 3e
       0.17759368 0.032462724 -0.26519972 0.26174167
000260 9f c6 08 be 8d 56 39 3e a9 30 65 be df 03 e5 3c
       -0.13357018 0.18099423 -0.22381844 0.027955947
000270 03 6f 50 bd 91 1a 1e bd 68 33 1e 3d 92 be 1e be
       -0.05088712 -0.038599554 0.038623244 -0.15502384
000280 40 54 23 be eb dd 8d be b2 8a 71 3c 38 8d b0 be
       -0.15950108 -0.27708372 0.01474254 -0.3448274
000290 bb c4 8f bb 07 bd 8b bd d2 aa bc bd 4e 3d d8 bc
       -0.004387466 -0.068231635 -0.09212269 -0.02639642
0002a0 12 e1 07 be 2e a0 a1 3d e2 95 e0 3d b7 2c b9 be
       -0.13269451 0.0789188 0.10966088 -0.36166927
0002b0 b6 26 0a be 8c e2 8a 3c 4c 5e 43 3e da 26 e3 bd
       -0.1349133 0.01695373 0.1907894 -0.11091395
0002c0 f6 4e 4d 3d b4 e7 b0 be 5b 7c 20 bd b6 aa e7 bd
       0.05012413 -0.34551775 -0.039181095 -0.113118574
0002d0 cf 76 ed 3c b0 15 21 be fa 9d c9 3d a2 cd 1a 3c
       0.028987316 -0.1573093 0.09844585 0.009448441
0002e0 2d e6 cc be b4 96 52 bc 51 eb 7b 3c d4 d0 6f be
       -0.4001936 -0.012853313 0.015375928 -0.23419505
0002f0 1c ef 5f bd e7 96 93 be 48 25 a9 3d a8 e0 b1 3c
       -0.05467139 -0.28826067 0.08259064 0.02171357
000300 4a d9 80 3e f5 45 75 3d 96 b9 54 be b2 97 1c 3e
       0.25165778 0.05988117 -0.2077392 0.15292242
000310 1c 76 26 be 20 42 af be 7e 69 f9 3d a2 c8 02 be
       -0.16255993 -0.34230137 0.12178324 -0.12771848
000320 d9 b4 9e be 1a 13 b7 3d 76 d3 cf bd a3 f5 24 3e
       -0.3099735 0.0893919 -0.10147755 0.16109328
000330 41 ed 47 be 09 05 bf bd 56 bb b3 3a dc fc f0 be
       -0.19524099 -0.09327132 0.0013712447 -0.47067916
000340 e9 d2 a4 be e9 17 b7 be 84 51 c4 be 2d 5a 00 3e
       -0.32192162 -0.3576043 -0.3834344 0.125344
000350 91 40 ac bd fc 2a b7 bd 6d c9 9a bb f0 a2 07 3e
       -0.084107526 -0.089437455 -0.004723719 0.1324575
000360 d0 77 01 be 37 53 a4 3e 50 1b dc 3d b7 8b 26 3e
       -0.12643361 0.32094738 0.10747397 0.16264234
000370 7f 02 34 3e c0 ab ec bd f6 d0 a5 be 35 11 52 3e
       0.17579077 -0.11556196 -0.32385987 0.20514376
000380 30 17 d3 3d 67 68 ac 3c b5 36 97 bd 8f ac 38 3d
       0.10307157 0.021045877 -0.073834814 0.04508644
000390 21 0c 97 bd a5 f7 99 be 9b 41 41 be 65 49 60 bd
       -0.0737536 -0.3007175 -0.18872683 -0.054757494
0003a0 9b 12 35 be 22 51 72 3d 1a b0 08 bd 53 bc bf bd
       -0.17682879 0.059159406 -0.03337107 -0.09362092
0003b0 ed cb 7d bd c0 c8 48 3d 98 f5 03 be bc a4 7f be
       -0.061962057 0.049019575 -0.12886655 -0.24965185
0003c0 fb 24 df bd 19 ca dd 3d 9f 34 bf bd 6a 65 84 be
       -0.10895725 0.10829563 -0.093362086 -0.25858623
0003d0 79 98 38 3e 7c b8 a3 3c f3 fb 75 be a9 3b a3 3d
       0.18026914 0.01998543 -0.24021892 0.07970364
0003e0 7b 5e ea bd be 08 e7 bc 46 c1 29 3e f8 af 11 be
       -0.11443802 -0.02820241 0.16577634 -0.14227283
0003f0 cf 13 c6 3a e4 f0 3f bd ae f7 9a bd cd 5f a2 be
       0.0015112105 -0.04686059 -0.075667724 -0.31713715

base.mlp.fc2.0.0.bias f4 [64]
000000 f4 47 42 3c c3 97 0e bd 32 97 2e bd d6 37 ab 3c
       0.011857975 -0.0348127 -0.04262466 0.020900648
000010 18 3b c6 3c 5e c1 32 3c 0e a2 29 bc 7a 44 b0 ba
       0.0241981 0.01091036 -0.010353578 -0.0013448142
000020 43 02 21 ba 7d 5d 67 3d b4 59 8f bc 22 3d 12 bd
       -0.00061419996 0.05648564 -0.017498828 -0.035702832
000030 c8 b5 1a bd b4 eb 82 3c d4 1e 47 ba 00 b0 22 bc
       -0.037771016 0.015981533 -0.00075958413 -0.009929657
000040 ff 06 61 bd 5b 26 f9 bc ad ef a0 3c 72 aa 05 bd
       -0.054938313 -0.030413797 0.019645536 -0.032633252
000050 2c 8a b5 bc 98 91 83 bc ec 88 96 bd e3 b9 16 bc
       -0.022160612 -0.016060635 -0.073503345 -0.009199592
000060 a0 81 ac 3c 6c e1 f4 38 f5 63 78 bd 96 fb b7 3b
       0.021057904 0.00011676815 -0.0606422 0.005614708
000070 29 c7 f4 3c d2 3e 55 3c 73 b7 46 bb fc 08 25 3d
       0.029880123 0.013015466 -0.0030321747 0.04029177
000080 e5 1f f5 3b 4c 10 4b 3c 92 54 4a bc 25 62 59 3d
       0.0074806088 0.012394022 -0.012349265 0.053072114
000090 43 19 a6 3d 8c 0e 88 bd c8 91 21 bd 67 f8 cc 3c
       0.08110287 -0.066433996 -0.03944567 0.025020791
0000a0 08 08 28 3d 7a 0d 04 3d 51 9a c6 3b 4e c8 52 3b
       0.041023284 0.032239415 0.0060608764 0.0032162848
0000b0 e7 97 8c bc 64 31 3a bd d6 47 95 3c 55 66 d3 3c
       -0.017162276 -0.04545726 0.01822273 0.025805632
0000c0 f0 86 ab 3b 49 51 10 bd 5f 87 dd bc 06 b7 ca 3b
       0.0052345917 -0.03523377 -0.027042089 0.006186369
0000d0 d2 30 81 bc 98 2a 2e bd 28 4f ef bb de 86 91 bc
       -0.01577035 -0.04252109 -0.0073031373 -0.017764505
0000e0 27 8a 16 3c 95 4c fa 3c 16 d6 a4 3b d6 98 58 bc
       0.0091882115 0.030554095 0.005030404 -0.013220033
0000f0 b8 d0 a8 b9 68 13 0d bd da 45 7c 3c f9 b5 23 bc
       -0.00032198965 -0.034442335 0.015397513 -0.009992116

base.mlp.fc2.0.2.weight f4 [64]
000000 aa 40 82 3f 15 74 7d 3f 8a 4b 79 3f 1b 69 86 3f
       1.0175984 0.9900525 0.9738089 1.0500826
000010 87 88 89 3f c3 b9 82 3f ab a5 86 3f f0 69 82 3f
       1.074479 1.021294 1.0519308 1.018858
000020 5a 4a 84 3f 9a 6b 87 3f fe 44 79 3f 42 13 85 3f
       1.033519 1.0579712 0.973709 1.0396502
000030 cd 1b 74 3f 77 71 82 3f d1 fa 7a 3f a4 85 82 3f
       0.9535492 1.0190877 0.98038965 1.0197034
000040 77 ae 80 3f 2d 1b 7c 3f 47 37 80 3f c5 cf 7f 3f
       1.0053242 0.98478967 1.0016869 0.99926406
000050 48 2b 82 3f 2a 87 76 3f bc 30 83 3f cc dd 7f 3f
       1.0169458 0.96299994 1.0249248 0.9994781
000060 b5 c4 7a 3f 4c c1 7b 3f e4 00 81 3f 4b 6e 86 3f
       0.979564 0.9834182 1.0078397 1.0502409
000070 83 65 7a 3f ea c7 89 3f 72 d9 90 3f 81 3b 81 3f
       0.97811145 1.0764134 1.1316359 1.0096284
000080 58 ec 80 3f cc c2 81 3f c2 ca 85 3f 4d 15 81 3f
       1.0072126 1.0137572 1.0452502 1.0084625
000090 4d 6f 92 3f dc 8d 7a 3f c6 66 7e 3f 75 3b 86 3f
       1.1440216 0.9787271 0.9937557 1.0486895
0000a0 e9 f3 84 3f b8 95 80 3f 1b 6b 82 3f 6d a3 7f 3f
       1.0386935 1.004569 1.0188936 0.9985874
0000b0 c1 90 7d 3f 04 72 80 3f 77 96 79 3f a1 b2 78 3f
       0.99049 1.0034795 0.97495216 0.97147566
0000c0 84 0c 86 3f 1c 50 76 3f 9b 77 82 3f c7 5b 81 3f
       1.047257 0.9621599 1.0192751 1.0106133
0000d0 05 0f 70 3f 71 c7 80 3f a3 37 80 3f 48 1f 81 3f
       0.9377292 1.0060865 1.0016979 1.0087671
0000e0 cd 92 7b 3f 1b 5e 84 3f c2 73 7f 3f 7d 5b 85 3f
       0.98270875 1.0341219 0.9978601 1.0418545
0000f0 64 1d 78 3f 4a 95 7d 3f 82 e5 80 3f f8 30 80 3f
       0.96919847 0.9905592 1.007004 1.0014944

base.mlp.fc2.0.2.bias f4 [64]
000000 07 f3 cb 3b 81 43 03 bd a6 b0 47 3c bb 07 0c bc
       0.0062240395 -0.0320468 0.012188112 -0.008546765
000010 4c c4 1e ba 0e 7c ec bc 99 29 22 bd 9a c2 f1 ba
       -0.0006056472 -0.028867748 -0.039590452 -0.0018444837
000020 3d 1f 55 bd 3a a2 00 3b 8c 98 dd bc 7c 44 69 bd
       -0.052031744 0.0019627945 -0.02705028 -0.056950077
000030 15 79 af 3c c9 66 ab 3b 77 e6 ce bc 88 5c 37 3a
       0.021420041 0.005230759 -0.025256379 0.0006994684
000040 46 75 22 bd 32 75 0d 3c 47 9f 62 3c 09 03 4c 3b
       -0.039662622 0.008633899 0.01383192 0.0031129739
000050 5f a9 4c 3c de be 31 3c a9 c5 89 3c 43 0d 8a bc
       0.012491553 0.010848729 0.016817885 -0.016852027
000060 e2 36 9a 3c 72 1d a2 3c 5a a3 61 3b 50 d6 ff bc
       0.018824998 0.019789431 0.003442964 -0.031230122
000070 a3 82 98 3b 60 3e 1e 3c 25 58 5b 3c 83 c5 f2 3c
       0.004654245 0.009658426 0.0133877145 0.029635197
000080 1b db cc 3b ff 09 93 3c c0 31 4c bc b5 b4 4c 3c
       0.0062517053 0.017949102 -0.012463033 0.012494256
000090 b3 64 f8 3c 20 13 79 3b a5 d6 db bc f2 ca 4f 3b
       0.030321455 0.0038005784 -0.026835749 0.0031706658
0000a0 53 db e3 3c 66 7c e9 bc 6d 69 41 3c e6 af 0c bd
       0.027814543 -0.0285017 0.011804921 -0.034347437
0000b0 70 d8 98 bc be a6 e9 3a ad f4 a3 ba 34 bd 09 3c
       -0.018657893 0.0017826182 -0.0012508832 0.008406926
0000c0 3d d7 47 3d 55 c8 32 3c 48 b6 fe bc d1 c1 4f bc
       0.04878925 0.010912021 -0.031092778 -0.012680487
0000d0 5a 55 2d 3d 15 3e f1 bc 1a ff a2 3b 9d b3 21 3c
       0.042317726 -0.029448548 0.004974258 0.009869483
0000e0 ba 08 71 bd cf 83 a7 3b 7f a8 4f bc 22 c3 b7 3c
       -0.058846213 0.0051121484 -0.01267445 0.022431914
0000f0 9a 1f 07 3d be e2 53 bc 0c 26 0e bc 3d fd ec bb
       0.032989122 -0.0129324775 -0.008676063 -0.007232337

rnn.rnn.weight_ih_l0 f4 [192, 64]
000000 0f 6f 39 3e 9e 26 08 be 75 a8 49 3d 88 15 8e bc
       0.18108772 -0.13295981 0.04923292 -0.017344251
000010 85 97 a8 bd 34 c0 46 be c1 df 0f 3e e3 aa 9a bc
       -0.08232025 -0.19409257 0.14050199 -0.018880313
000020 00 dd b2 b9 e4 51 1f 3e 7d 77 27 bd 8e 6a c4 3d
       -0.00034115463 0.15558583 -0.040885437 0.09590636
000030 27 b7 19 3d cf 99 aa 3d 77 71 d2 bd 54 61 d0 3c
       0.037528183 0.08330118 -0.10275548 0.025437035
000040 c2 fc 2c 3d 06 f1 87 3d 65 ed f2 3b 62 62 5d be
       0.042233236 0.066377684 0.0074135535 -0.21619561
000050 5d bd b7 3d c0 3d 21 3e 5d b6 3f 3d e6 00 0c 3e
       0.08971665 0.15746212 0.046804775 0.13672218
000060 94 f4 c8 bc 69 6c 2c bd 98 61 46 be a9 9e 39 3c
       -0.024530686 -0.042095575 -0.19373167 0.011329331
000070 59 73 ad bd 5e 5b 98 3d 0b b2 b0 bd 4b a5 3c 3a
       -0.084692664 0.07439302 -0.08627709 0.00071962614
000080 14 76 b7 bd fe 0c 2a 3d 13 82 13 be 5c f3 6a 3d
       -0.089580685 0.041516297 -0.14405088 0.05736099
000090 d1 bf a9 bd 9d 78 9d 3d 34 fa e0 3d e7 cd e7 3d
       -0.08288539 0.07689021 0.109852225 0.1131857
0000a0 7e 0c fa 3c 4a 61 e3 3d 7f e6 ce 3d 07 ad 9c bc
       0.030523535 0.11102541 0.101025574 -0.019125475
0000b0 3b ef d0 3d fc dd 3b 3e a6 1c 6f 3d 01 30 9f bd
       0.102018796 0.18346399 0.05837693 -0.07772828
0000c0 7b 06 0a bd ba b2 9c 3d d7 08 c9 3d 7d 41 d3 bc
       -0.033697587 0.07651277 0.09816139 -0.025788063
0000d0 d4 e0 38 39 d6 b0 89 bd 5b cb 88 3d 80 10 b7 3d
       0.00017631362 -0.06723182 0.06679412 0.08938694
0000e0 9a b7 46 3c ed 05 0d 3e 4e 11 fa 3c e1 c8 1d be
       0.012128735 0.13771792 0.03052583 -0.1540866
0000f0 06 39 13 be b8 8f e6 bd a5 0e f2 3c 17 fa 5c bd
       -0.14377221 -0.11257881 0.029547999 -0.05394944
000100 35 39 06 3d d8 6f 24 3e 32 6e 38 3d b0 76 6b be
       0.0327694 0.1605829 0.045026965 -0.22994494
000110 6e 49 0f be 30 0f 58 3d 4c 0d 03 3e 77 22 90 bc
       -0.13992855 0.05274886 0.12798041 -0.01759456
000120 c8 82 be bd 26 94 09 3e c9 98 61 3d 96 d3 f8 bd
       -0.09302288 0.1343542 0.055077348 -0.12149732
000130 75 8a ec bd 98 a2 17 3e f6 02 78 bd f8 f8 59 bd
       -0.11549846 0.14808118 -0.0605497 -0.05321595
000140 72 cb 52 bd 8c c5 4e be be de 00 3e 5e 9d a9 bd
       -0.05146355 -0.20192546 0.1258497 -0.082819685
000150 e5 2f 83 bd f5 7c 17 bd 00 a6 8f bd 90 9f 60 bd
       -0.064056195 -0.036984403 -0.07014084 -0.05483967
000160 e1 b6 23 3c de f7 e1 3c 2a 88 c6 3d a7 43 15 3e
       0.009992332 0.027584013 0.0969394 0.14576589
000170 75 f0 a9 bc 01 ad 08 3c b9 41 b4 bd cf 7f 1f bd
       -0.020744542 0.008342029 -0.08801598 -0.038940247
000180 8b 35 cb bd 4d bd 4b 3d 0c ed 98 bd 24 1b 84 3d
       -0.09922322 0.04974108 -0.07467088 0.06450489
000190 a2 5f b6 3c ae a4 b1 b9 16 07 91 3c 03 9a 0b 3d
       0.022262398 -0.00033882767 0.017703574 0.034082424
0001a0 26 0f 44 bc 53 3a 0e 3d 18 9a 30 bd c4 a5 fc bb
       -0.011966502 0.03472359 -0.043115705 -0.0077101905
0001b0 a2 99 bc bd ca 4d e8 bd b3 e1 27 bd 2c cd 88 bc
       -0.09208991 -0.11342962 -0.040986728 -0.016699396
0001c0 bc 55 11 3e 3e 70 3e 3e 52 6c 68 3d 53 4d d8 ba
       0.14192861 0.18597504 0.056743927 -0.0016502537
0001d0 ac fb ec bc 8c fd 02 be 37 7f 18 3e 0c 39 c2 bd
       -0.0289286 -0.12792033 0.14892279 -0.09483537
0001e0 5a 3f 8d bd 75 96 11 bc ae 9d 11 3d 3b 95 b5 3d
       -0.06896849 -0.008885969 0.035550766 0.08866354
0001f0 d6 27 19 be aa 29 15 3a d3 12 35 bc e0 dc 2e 3d
       -0.14956602 0.00056901074 -0.011051851 0.04269111
000200 74 20 03 be 54 64 af bc 75 d4 c7 3d 1c 95 4a 3d
       -0.12805349 -0.021410145 0.0975732 0.049458608
000210 23 c3 4d 3d e6 c6 a2 3d 12 7f 29 3d e6 df dd 3d
       0.050234925 0.07948093 0.04138095 0.10833721
000220 c9 2b e0 3d 1e db 83 bd 40 c1 8a bc 1b bd 40 3d
       0.10945851 -0.06438278 -0.016937852 0.047055345
000230 5b 67 5c bc 8b ba c1 3c 21 9e 7b bc 52 85 a2 bd
       -0.013452376 0.023648521 -0.015357525 -0.07935585
000240 dc cc b7 bc 75 ae de 3d 1c cd b7 bb 66 11 f4 3b
       -0.022436552 0.10873119 -0.0056091677 0.007448363
000250 59 ad a9 3d f6 2c c0 3b 53 a0 96 3d 18 b1 a5 3c
       0.082850166 0.0058647348 0.07354798 0.020226046
000260 8a 60 b7 bd e8 94 3d 3c f9 15 e6 bd c1 5f 60 bc
       -0.0895396 0.011571147 -0.1123466 -0.0136947045
000270 43 d9 24 3e 98 77 f6 3d 2f b7 5e bd 30 ef 8d 3d
       0.16098504 0.120345294 -0.054373916 0.06930387
000280 ae b4 e8 3c 90 fe bb 3d 17 eb 12 be d4 f4 bf 3d
       0.028406467 0.09179413 -0.14347492 0.09372869
000290 56 33 05 3e 8a 86 82 3c 6f 49 5e 3d a7 b9 12 bd
       0.13007864 0.015933294 0.05426925 -0.035821583
0002a0 46 d8 dc bd 57 c1 0e 3c ba 14 35 3e a7 4e 71 bd
       -0.107834384 0.008713088 0.17683688 -0.0589129
0002b0 47 c1 7a bc 5a ac 2b 3d 6b 08 be 3d 00 76 da bc
       -0.01530487 0.041912414 0.09278949 -0.026667595
0002c0 90 42 b8 bd eb 25 80 3d d5 e9 ca 3c 0f 74 5f 3c
       -0.08997071 0.06257232 0.024769703 0.01363851
0002d0 7a 0e 34 bd d4 c5 6b 3d e3 2e cd 3d e1 24 c4 bb
       -0.04395912 0.05756171 0.100187086 -0.0059858416
0002e0 c2 3e da bd 9b 4e bd bc e9 fa 83 3d f3 c6 05 be
       -0.10656501 -0.023108771 0.06444342 -0.13064174
0002f0 3d 1e d9 bd 33 31 2e 3d 22 a6 5d 3d e2 4f 43 3d
       -0.106014706 0.04252739 0.054113515 0.047683604
000300 51 6c 49 bd 1a cd ca 3d f3 2f 90 3d 1d d9 01 bc
       -0.049175564 0.09902401 0.070403956 -0.007925299
000310 99 2e 8a 3c 0b de 96 bd 47 83 e5 3c be 9d 3b bc
       0.016867923 -0.0736657 0.0280167 -0.011451183
000320 06 c3 55 bc 0d 68 97 3d f8 73 c1 bd 8c 6b be 3d
       -0.0130469855 0.07392893 -0.094459474 0.09297857
000330 b2 4e 84 3d 4c 87 01 3c 77 ab e9 bd 33 b2 2f 3e
       0.064603224 0.007905792 -0.114096574 0.17157821
000340 54 33 86 3c e7 45 03 be dc 6c 81 3d 03 e3 08 3e
       0.016381897 -0.12819634 0.063195914 0.13367848
000350 e0 61 8d bd 48 40 84 3d 7f 6c 02 3e d8 94 c7 bd
       -0.06903434 0.06457573 0.127367 -0.097451866
000360 27 95 4d 3d 58 48 ea 3b 81 ec 4b bc 47 8e 80 bd
       0.05019107 0.0071497373 -0.012446524 -0.06277137
000370 34 ed e4 bc 0f 57 b8 3d 96 a0 a0 3d 64 22 a8 bd
       -0.027945139 0.0900098 0.07843129 -0.082096845
000380 fa 6a 2d 3d 5a 80 b0 3d b1 a9 29 3c 76 c3 0b bd
       0.04233835 0.08618231 0.010355399 -0.034121953
000390 4a b4 b5 3c 66 ba de bc 04 4c 20 bc 6e a4 81 bd
       0.022180695 -0.027188491 -0.009783749 -0.063301906
0003a0 b0 7b 05 3c 23 8c 26 be 25 dd 10 3e 2c f1 27 bb
       0.008147165 -0.16264395 0.1414686 -0.0025625927
0003b0 5a b1 26 3e 6e 6f 55 bd 3e e2 f5 bc c1 58 f6 bc
       0.16278592 -0.05210822 -0.030015107 -0.030071618
0003c0 e8 19 33 bd 1e 3a 08 3e 14 95 38 be d3 05 9b 3d
       -0.043725878 0.1330342 -0.18025619 0.0756947
0003d0 20 16 44 bd 69 af 93 bd 9b c4 8e bd 8c 56 00 3c
       -0.047872663 -0.07211191 -0.06971093 0.007833134
0003e0 c3 3d 1b 3e d7 e1 f0 3d 5f e8 14 be 73 df 44 3c
       0.15160279 0.117618255 -0.14541768 0.012016165
0003f0 a4 45 0c bd 5b 1b cc 3d 44 4b 53 3d 7b 0e 87 3d
       -0.034246102 0.09966155 0.05158545 0.06594559

rnn.rnn.weight_hh_l0 f4 [192, 64]
000000 0d fe 01 be f9 60 8f 3d 74 cf 8d 3c c7 48 29 3d
       -0.12694569 0.07000918 0.017310835 0.04132917
000010 ac 15 ad bd 97 d4 50 3d 3c 6a 4e 3e 9d 82 6d 3d
       -0.08451399 0.05098399 0.20157713 0.05798589
000020 a7 00 a0 bd 31 87 39 bd c0 de 11 3d a6 82 b0 3c
       -0.078126244 -0.045294944 0.03561282 0.021546673
000030 2d 7c ce bd 2c 56 71 ba 30 fc 5a bc ba 9b 90 3d
       -0.100822784 -0.0009206261 -0.01336579 0.070609525
000040 ff 71 51 3c 42 05 ed bd 34 9c c6 bc ea 62 5b 3d
       0.012783526 -0.115732685 -0.024244405 0.05356113
000050 07 74 d6 bd b9 da 72 3d 36 03 47 be c4 88 9a 3c
       -0.10471349 0.05929062 -0.19434819 0.018864043
000060 14 e2 af 3c 7d 0d ca bd e3 66 2e bc 68 90 30 bd
       0.021470107 -0.09865854 -0.010644647 -0.043106467
000070 b6 a3 8e bd 6c 0d 02 be 61 0d 8d bb 96 b5 8b 3d
       -0.06964819 -0.12700433 -0.0043045734 0.06821744
000080 81 05 19 bb 17 11 51 3d 54 b9 27 3e 52 32 08 3d
       -0.0023349228 0.05104169 0.16379291 0.033251114
000090 48 a8 76 bd 3d ec 34 bd fd 61 03 3d d0 1b dc bd
       -0.06021908 -0.044170607 0.03207587 -0.10747492
0000a0 9c a7 ce bd c8 cc bc 3d 80 7f 41 3c c1 bd 24 3e
       -0.10090563 0.092187464 0.0118101835 0.1608801
0000b0 c3 b6 17 be fb 8d 91 bd 67 66 69 bd 91 9a 9a 3d
       -0.14815812 -0.07107159 -0.056982424 0.075490125
0000c0 40 1d 2b 3d 5c 59 55 3d a5 9f 59 bd 46 e7 46 3c
       0.04177594 0.052087173 -0.053130765 0.012140101
0000d0 a1 c7 38 bd b5 59 9c bc 7f eb 24 3e 0b 0d a6 bd
       -0.045112256 -0.019085744 0.1610546 -0.081079565
0000e0 84 ad a8 bd f6 82 87 bd f2 3b d0 3d 3d e4 37 bd
       -0.082362205 -0.06616776 0.10167684 -0.0448954
0000f0 0f ff 08 3d 9d ae 8b bc 82 54 5c 3d 56 d2 81 bd
       0.033446368 -0.017051036 0.05379153 -0.063389465
000100 bf 33 92 3c 8d 79 52 bd 79 2f 9b 3d b7 f9 7e 3d
       0.01784694 -0.05138545 0.07577414 0.062249865
000110 c9 8f 76 3e a2 70 be 3d 57 da cf 3c dd 66 42 bd
       0.24078287 0.09298827 0.025372667 -0.04746138
000120 b2 b0 8d 3c 6b 13 ea bd a0 df b2 3c 1d 43 df 3d
       0.017296169 -0.11429485 0.021835148 0.10901473
000130 b0 1f 51 bd 64 8a f9 bd c6 b2 82 3c b6 5b c8 3d
       -0.05105561 -0.12184599 0.015954386 0.097831175
000140 90 94 0e 3d b9 5c 82 3d 4f 4e f6 3c b0 b5 c4 bc
       0.03480965 0.06365342 0.030066637 -0.024012417
000150 18 11 35 3d ec ef 9b bc 11 c1 52 bc ad bd 17 be
       0.044205755 -0.019035302 -0.012863413 -0.1481845
000160 63 a5 7b bc c2 4b 15 be ad c8 e8 3c 01 87 96 3d
       -0.0153592555 -0.1457968 0.028416002 0.07349969
000170 e0 1c 5b bd b2 1c a3 3c fb 47 b7 bc 70 c0 5e bd
       -0.053494334 0.019911144 -0.02237319 -0.05438274
000180 5d a3 e4 bd 1f f9 ad 3d ea 08 42 bd a1 b2 74 bd
       -0.111639716 0.08494782 -0.047371782 -0.059740666
000190 c1 44 64 bd 2e 60 1f bd 9e 72 2b be 66 c2 4f 3c
       -0.05572963 -0.038910083 -0.16742942 0.012680626
0001a0 44 31 95 bd d0 7d e0 bc 4a fb 83 3d 73 9a 07 bd
       -0.07284787 -0.027403742 0.06444414 -0.03310628
0001b0 bb 27 80 3c e5 a3 62 bc 6c 9a 8c 3d ba b8 69 bd
       0.015643945 -0.013833021 0.06865391 -0.057060935
0001c0 b4 8f 7a be 1f 4a 9d bc 4a fd 2c bd 90 74 c9 bc
       -0.24468881 -0.019200383 -0.042233743 -0.024591714
0001d0 04 06 b2 bd fa 68 d4 3d 53 02 59 3b 4a 0b f9 3d
       -0.08692554 0.10371585 0.0033112958 0.12160356
0001e0 27 f7 81 bc 62 87 34 3d 00 51 25 3e 66 08 87 3d
       -0.015864922 0.044074424 0.1614418 0.06593399
0001f0 3c 5f 9c 3d bf 05 a0 bd e7 60 2e 3d 2c 44 9f 3d
       0.07635352 -0.07813596 0.042572882 0.07776675
000200 9c b6 26 bd 15 1a 6e 3d de 4f 98 bd 93 4d 8e bd
       -0.040701494 0.058130343 -0.074371085 -0.0694839
000210 8c ff 1e 3e d0 1a 06 3c 01 e0 d3 3c 5e 88 8c 3d
       0.15527171 0.008185104 0.02586365 0.068619475
000220 63 2d f3 3c 91 b4 8b bc c1 08 ab bd 6f 5c 39 bc
       0.029684728 -0.017053874 -0.08351279 -0.011313542
000230 cc f3 29 bc 93 d2 b1 3d 39 76 01 be 70 c3 54 3d
       -0.010373067 0.08682742 -0.12642755 0.051944196
000240 59 8e a6 3d 77 dc 9e bd fa e7 ac bd a5 76 1d be
       0.081326194 -0.07756894 -0.084426835 -0.1537729
000250 f9 1f 2a 3d 92 23 5a 3d 6b cd 82 3d 4e 6a 1c be
       0.041534398 0.05325658 0.063868366 -0.15274927
000260 a3 62 9b 3d 36 20 f3 bc d5 70 73 3d 6d 33 8f 3d
       0.07587173 -0.029678445 0.059433777 0.069922306
000270 33 cc fc 3d d8 a0 82 bc 27 4d e9 bc 9f a1 b1 3d
       0.123436354 -0.015945837 -0.028479172 0.08673405
000280 fe 3f 09 bd 14 bb 02 be 5b 6c 26 bd 26 21 a1 bb
       -0.033508293 -0.12766677 -0.04063068 -0.0049172817
000290 3a ad b6 bd 7f 50 1d 3d 31 9f 78 bd e2 86 2a 3c
       -0.08919759 0.038406845 -0.06069869 0.010408135
0002a0 5b fb a1 bd bc 9a 67 bc ce a7 24 bd e9 ed 4a 3d
       -0.079092704 -0.014136013 -0.040199094 0.049543295
0002b0 91 8a 1c b9 d8 0a 5d bd 9b 30 59 bd 14 1d 22 3d
       -0.0001492894 -0.05396542 -0.05302487 0.039578512
0002c0 a4 05 de 3d 33 53 bb bd e0 39 a0 3c f5 df 5a bc
       0.108409196 -0.09146728 0.019558847 -0.01335906
0002d0 58 14 f9 3d 51 19 e7 bd 5d 83 12 3d 2e 9f ba bd
       0.121620834 -0.112841256 0.03576981 -0.09112392
0002e0 e9 4b 6d 3d 2a dc 7c 3e 41 71 93 3c ca ca de bc
       0.05793372 0.24693361 0.01799834 -0.027196307
0002f0 28 c3 7a 3c 2b a9 9c bb 97 1d 3e 3d 6f 4c 5d bd
       0.015305318 -0.0047809086 0.046414938 -0.05402797
000300 53 34 8d bd 63 93 36 bd b9 2a 21 be 28 a5 c0 3c
       -0.06894746 -0.044574153 -0.15738954 0.023516253
000310 1b 9d 60 3d 4a 85 fe bc 99 21 81 bd 26 66 61 bd
       0.054837327 -0.031069417 -0.06305236 -0.055029057
000320 7a b6 8d 3c 82 a7 af bd 0f a8 ad bd 2e e6 54 3d
       0.017298926 -0.085768715 -0.0847932 0.05197733
000330 11 9e f3 bd 3a d8 f1 3d 38 be 63 3d 6f 86 29 be
       -0.11895383 0.1180882 0.05560133 -0.16555189
000340 81 e9 2a bd 13 06 f5 bd d1 3f c7 bc ba a7 87 3d
       -0.041726593 -0.11964049 -0.024322422 0.06623788
000350 90 6e 51 bd 29 a7 2c 3e 50 35 9d 3b c0 80 a1 3d
       -0.05113083 0.16860642 0.004797615 0.07885885
000360 db 53 95 3d 50 da b1 3d c2 d7 0f bd 66 f1 0c bd
       0.07291385 0.08684218 -0.035117872 -0.034409903
000370 2c d7 13 3d 75 40 bc bd d9 79 a0 bd 94 d7 91 bc
       0.036093876 -0.09191982 -0.078357406 -0.017802991
000380 f8 19 5c 3d 2a 0e ec 3d d2 30 d4 3d 82 45 12 bd
       0.053735703 0.11526139 0.10360874 -0.03571082
000390 0b 6b 07 3e 49 e7 e7 3d 80 38 ca bd 20 8e 39 bd
       0.13224427 0.11323411 -0.09874058 -0.045301557
0003a0 6f e9 94 3c 2f 5a 0d be 25 1c c9 3c ed 1f 37 3d
       0.018177716 -0.13803934 0.024549553 0.04470818
0003b0 24 24 7a bd c9 e7 60 3d 83 93 2d 3d 75 41 ba bb
       -0.061069623 0.054908548 0.042377006 -0.0056840726
0003c0 e9 e6 8e 3c 40 d1 98 38 25 3f 9e bd ed 95 e6 3d
       0.01744409 7.286901e-05 -0.077268876 0.11259065
0003d0 15 3e 00 be 34 2a e0 39 27 c6 a3 bc bb 4a 53 bd
       -0.12523682 0.00042756053 -0.019991947 -0.05158494
0003e0 9c b0 d3 bb fa a2 40 3d ea d0 2c bc e7 55 41 bc
       -0.0064602625 0.047030427 -0.010547856 -0.011800266
0003f0 80 34 51 3c c4 0f 86 3d 38 19 0e 3d 2c 9d 15 3c
       0.012768865 0.06545976 0.03469202 0.009131711
