onpolicy/results/MPE/navigation/rmappo/crap_bad/wandb/offline-run-20221029_134620-7h6oo6yx/files/critic.pt (torch, 147131 bytes, 21 tensors)

base.feature_norm.weight f4 [18]
1.02648 0.99224585 0.9549316 1.0134463 0.98651266 0.9780303 1.0097377 1.0309483
0.9690106 1.0009254 1.0548315 1.0042022 1.0484056 0.9647899 0.9662996 0.96080154
0.97742534 1.0239296
00000000: b263 833f d303 7e3f 6676 743f 9cb8 813f
00000010: 188c 7c3f 3260 7a3f 163f 813f 1df6 833f
00000020: 1411 783f 531e 803f b804 873f b389 803f
00000030: 2832 863f 79fc 763f 695f 773f 17f7 753f
00000040: 8c38 7a3f 2010 833f

base.feature_norm.bias f4 [18]
-0.0019239426 0.006659118 -0.0161511 0.005559896 0.037024178 -0.013642716 0.034873802 -0.0065369625
0.04455376 0.032280043 0.007977036 -0.056094173 -0.018883506 0.021516398 -0.0088454485 0.011835404
-0.008738886 -0.009291466
00000000: cd2c fcba bb34 da3b 504f 84bc ca2f b63b
00000010: aaa6 173d b385 5fbc d5d7 0e3d 0434 d6bb
00000020: 017e 363d 1438 043d 1db2 023c 01c3 65bd
00000030: 95b1 9abc 2843 b03c 80ec 10bc 48e9 413c
00000040: 8b2d 0fbc 3c3b 18bc

base.mlp.fc1.0.weight f4 [64, 18]
-0.21816206 0.11032067 -0.14415427 0.08927944 -0.27282014 0.17615204 0.055380013 0.033225335
0.015115637 0.07276742 -0.15135516 -0.003390384 0.25610727 -0.11004103 0.12731485 -0.18418251
0.08562455 -0.030817013 -0.08987934 -0.092101984 -0.12485127 0.00773091 0.030070717 0.3557468
-0.1430554 -0.08867225 0.046533518 0.091660365 -0.08830327 0.13530743 0.114437275 -0.021823216
-0.13212876 0.07187755 0.060243502 -0.26392558 -0.07460738 0.048237085 0.046002977 0.43656734
-0.042106412 -0.3032291 0.14399487 -0.04428515 0.14996542 -0.10204645 0.15941356 -0.015188235
0.13229734 0.042904522 0.054828495 0.09796896 0.009534265 -0.12904078 -0.056175604 0.14636625
0.008628782 0.2071292 0.4161774 0.18254627 0.2991591 -0.003241401 -0.091550335 -0.40993866
0.061287545 0.1058403 -0.01222347 -0.04773857 0.15288088 0.017681478 0.039302915 -0.2352097
-0.18555228 -0.0987895 -0.21352483 -0.33770993 0.28719282 0.122426964 -0.18444085 -0.13272755
0.18421805 -0.2231495 0.095869675 0.3460812 -0.18581414 -0.12616785 0.06966815 0.27739128
0.14059728 0.021611784 -0.2078918 0.38151875 -0.0026186176 0.2548837 0.019648528 0.09472707
-0.52395636 0.033022817 -0.090528294 -0.045936655 0.00448752 -0.24498504 -0.04814098 0.1363727
-0.003853838 -0.107215255 0.25053915 -0.31838688 -0.106056236 -0.0692632 0.17190745 0.056878522
0.28620285 -0.22950144 0.28684774 0.066501066 0.0071355496 0.30886063 0.0075649745 -0.107585825
-0.040549472 -0.10989776 -0.17636581 -0.15479927 0.17836389 -0.04215378 0.0022408837 -0.31223676
0.13912065 -0.05742001 -0.17469242 -0.14750765 -0.12013162 0.117808014 -0.20962127 -0.20719112
-0.11428768 -0.08738461 -0.08623678 -0.058003854 0.13106203 -0.027021183 0.10250169 -0.29198042
0.1865187 -0.13671185 -0.2883963 0.07370423 0.14709558 -0.20046808 0.069864176 -0.28529274
-0.0707586 0.11321339 0.2992157 0.042057823 -0.3810003 -0.21760665 0.1370065 -0.04008066
0.08223348 -0.034132622 0.06284722 -0.026922816 0.1360281 -0.0702417 0.040299315 -0.17018327
-0.06961787 -0.14334773 0.12738815 0.13450976 0.04992646 -0.2223595 -0.10304249 -0.07223997
0.15922225 0.2218854 0.1801591 -0.2811802 0.051111795 -0.061040126 0.12435302 -0.08133145
-0.013150626 -0.013639441 -0.119322784 0.27212518 0.02355962 -0.01540956 -0.09854392 -0.23693931
-0.3416638 0.17259711 0.15030171 -0.22187248 -0.17224799 -0.36817667 -0.07783504 -0.0009472956
-0.076637834 0.1308649 0.06968375 0.29233435 0.069494344 0.3652661 0.07003429 -0.055187963
0.19483611 0.052290346 0.21829793 -0.13509117 -0.22701676 0.32343853 0.09965223 -0.3038398
-0.12095814 -0.3888397 0.14629719 0.13353048 0.15143551 0.15798113 0.03217462 -0.20430481
-0.08980304 -0.176184 -0.24356504 0.072686076 0.17952858 -0.09681654 0.26409504 0.2258715
0.014411886 -0.05463513 0.30896398 -0.186581 0.018409079 -0.07996585 0.005672839 -0.3296026
0.06741058 0.19239667 0.13846356 0.018830955 -0.10915831 -0.053021215 -0.28886586 0.048914842
0.22165076 0.29925194 0.009675328 -0.21934907 0.034214105 -0.024030225 0.24255073 -0.23892988
00000000: e065 5fbe ceef e13d 2d9d 13be 24d8 b63d
00000010: 15af 8bbe 3361 343e 27d6 623d 4a17 083d
00000020: 94a7 773c 1607 953d d9fc 1abe 3431 5ebb
00000030: 7e20 833e 315d e1bd d35e 023e 579a 3cbe
00000040: ed5b af3d f673 fcbc a912 b8bd f79f bcbd
00000050: 06b2 ffbd 9353 fd3b dd56 f63c 7224 b63e
00000060: 1d7d 12be cc99 b5bd ee99 3e3d 6eb8 bb3d
00000070: 58d8 b4bd 088e 0a3e 175e ea3d 9ac6 b2bc
00000080: c34c 07be 8934 933d e4c1 763d 4121 87be
00000090: c1cb 98bd 4094 453d 9e6d 3c3d c185 df3e
000000a0: c677 2cbd d840 9bbe 6473 133e 5864 35bd
000000b0: 8990 193e bbfd d0bd 4f3d 233e 13d8 78bc
000000c0: f478 073e a7bc 2f3d d893 603d f3a3 c83d
000000d0: 9b35 1c3c 4423 04be 6418 66bd 09e1 153e
000000e0: bc5f 0d3c ad19 543e 3415 d53e 69ed 3a3e
000000f0: 622b 993e af6d 54bb be7e bbbd 7be3 d1be
00000100: a608 7b3d cdc2 d83d f344 48bc 8589 43bd
00000110: ce8c 1c3e bfd8 903c 18fc 203d d0da 70be
00000120: 6b01 3ebe 2652 cabd 41a6 5abe 51e8 acbe
00000130: f00a 933e fdba fa3d 10de 3cbe bbe9 07be
00000140: a8a3 3c3e 4d81 64be 5257 c43d 8e31 b13e
00000150: 1046 3ebe 2532 01be 2dae 8e3d 3b06 8e3e
00000160: bcf8 0f3e 320b b13c 97e1 54be 6d56 c33e
00000170: 1d9d 2bbb 1e80 823e f3f5 a03c 4400 c23d
00000180: 0122 06bf ef42 073d e666 b9bd 1328 3cbd
00000190: 0c0c 933b 5cdd 7abe 7a2f 45bd 49a5 0b3e
000001a0: ac90 7cbb ac93 dbbd ab46 803e 9b03 a3be
000001b0: 0334 d9bd ddd9 8dbd 8208 303e 74f9 683d
000001c0: 2e89 923e 6d02 6bbe b5dd 923e b631 883d
000001d0: 54d1 e93b fb22 9e3e 9be3 f73b f555 dcbd
000001e0: 3417 26bd 1412 e1bd 3d99 34be b383 1ebe
000001f0: 06a5 363e 71a9 2cbd cadb 123b 7fdd 9fbe
00000200: a575 0e3e 3f31 6bbd 92e2 32be 3f0c 17be
00000210: 9107 f6bd 5445 f13d f5a6 56be e929 54be
00000220: a90f eabd b4f6 b2bd e99c b0bd 7395 6dbd
00000230: 2035 063e 875b ddbc 68ec d13d 757e 95be
00000240: c2fe 3e3e 31fe 0bbe aea8 93be 3ef2 963d
00000250: 39a0 163e 8147 4dbe f314 8f3d e411 92be
00000260: e3e9 90bd 6cdc e73d cd32 993e d344 2c3d
00000270: 7912 c3be 47d4 5ebe 6f4b 0c3e 9e2b 24bd
00000280: 076a a83d a6ce 0bbd 0bb6 803d 3d8d dcbc
00000290: f34a 0b3e e1da 8fbd e510 253d 8644 2ebe
000002a0: d093 8ebd bfc9 12be 0a72 023e edbc 093e
000002b0: b07f 4c3d 35b2 63be f107 d3bd 8df2 93bd
000002c0: 280b 233e ed35 633e a17b 383e daf6 8fbe
000002d0: 9a5a 513d 3605 7abd ccac fe3d 1a91 a6bd
000002e0: b975 57bc f677 5fbc 815f f4bd fe53 8b3e
000002f0: 1b00 c13c 6178 7cbc 65d1 c9bd 38a0 72be
00000300: 8fee aebe 4cbd 303e b1e8 193e 8a32 63be
00000310: c761 30be a781 bcbe fa67 9fbd ee53 78ba
00000320: 4cf4 9cbd 7301 063e 5bb6 8e3d d9ac 953e
00000330: 0d53 8e3d 2904 bb3e 236e 8f3d c60c 62bd
00000340: 1e83 473e 672e 563d 7e89 5f3e 5755 0abe
00000350: 1577 68be bc99 a53e 7816 cc3d e490 9bbe
00000360: e7b8 f7bd ff15 c7be eece 153e 37bc 083e
00000370: e911 1b3e cec5 213e 89c9 033d 4835 51be
00000380: a8ea b7bd 9469 34be 1d69 79be 70dc 943d
00000390: 57d6 373e c047 c6bd 7737 873e dc4a 673e
000003a0: d51f 6c3c 16c9 5fbd 8730 9e3e 170f 3fbe
000003b0: a3ce 963c 23c5 a3bd 39e3 b93b acc1 a8be
000003c0: 8f0e 8a3d a203 453e 64c9 0d3e 6043 9a3c
000003d0: 648e dfbd c62c 59bd 3ae6 93be ee5a 483d
000003e0: 6bf8 623e 8d37 993e 4485 1e3c 0b9d 60be
000003f0: 1724 0c3d 09db c4bc 385f 783e 09aa 74be

base.mlp.fc1.0.bias f4 [64]
-0.012458767 -0.027950183 0.018664978 -0.016327621 -0.005886277 0.018584736 0.032898087 -0.0305883
0.027795343 0.0032236113 0.013864929 0.017342798 -0.004577356 -0.0076144417 -0.008863782 0.008530215
-0.01316164 -0.013412864 -0.01352428 -0.004159459 0.0380954 -0.036278788 0.0027324655 -0.0030293395
-0.029510532 0.020035412 -0.028187392 -0.012167316 0.05620171 0.021246573 -0.0072253034 0.059854623
-0.004959326 -0.01141205 -0.004682898 0.022433173 0.028384557 -0.06268773 -0.002794905 0.007439693
0.007797408 0.009835501 -0.01172112 0.021105435 0.019041436 -0.0015715726 -0.011374015 -0.0068227723
-0.03856448 -0.023534488 0.00037415524 -0.0057770344 -0.02255819 0.0070842276 -0.01793951 -0.015911192
-0.018504286 -0.010763636 -0.0035049848 0.029197752 0.01946933 -0.0036146475 -0.046313606 -0.0034805452
00000000: db1f 4cbc c8f7 e4bc 4ce7 983c 81c1 85bc
00000010: ace1 c0bb 043f 983c 25c0 063d 5194 fabc
00000020: 0fb3 e33c 3943 533b ba29 633c 7c12 8e3c
00000030: a5fd 95bb 9182 f9bb 6539 11bc 51c2 0b3c
00000040: eba3 57bc a1c1 5bbc f194 5dbc 124c 88bb
00000050: ec09 1c3d 1199 14bd 2a13 333b e287 46bb
00000060: 12c0 f1bc 4e21 a43c 3fe9 e6bc 6c59 47bc
00000070: c433 663d 4b0d ae3c 3dc2 ecbb 1f2a 753d
00000080: d781 a2bb 9bf9 3abc ff72 99bb c6c5 b73c
00000090: bb86 e83c 6d62 80bd ba2a 37bb abc8 f33b
000000a0: 6681 ff3b 1525 213c f109 40bc 4ee5 ac3c
000000b0: c9fc 9b3c 3afd cdba 145a 3abc 9091 dfbb
000000c0: caf5 1dbd 66cb c0bc 442a c439 474d bdbb
000000d0: f4cb b8bc cf22 e83b e1f5 92bc 3058 82bc
000000e0: 4d96 97bc f659 30bc e3b3 65bb 2030 ef3c
000000f0: 257e 9f3c b9e3 6cbb 56b3 3dbd dc19 64bb

base.mlp.fc1.2.weight f4 [64]
1.0148644 0.9847371 0.9880542 1.0104463 0.9918827 1.0114392 1.0010335 1.0000033
1.0313864 0.9884052 0.9934247 0.9662695 0.97534263 0.9656087 0.9963695 1.0110267
0.98978573 0.984285 1.0226873 0.9855912 0.99782455 1.0041212 1.000178 0.9979257
0.9920537 1.0542486 0.9773886 0.99342865 0.99254394 1.0047795 1.0400809 1.0595038
0.9972187 0.9973156 1.0181113 1.0111719 1.0114287 0.99050266 1.010056 0.9886711
1.0213709 0.98733294 0.99451256 0.9886774 1.0041614 1.0008987 1.0111991 0.9867351
0.9961917 0.99423015 0.98209727 1.0307599 1.0115874 0.962034 0.9954958 0.9854662
1.0112292 0.9993487 0.9707525 1.0712178 0.9948219 1.0094187 1.0047061 0.9706673
00000000: 14e7 813f bb17 7c3f 1ff1 7c3f 4e56 813f
00000010: 06ec 7d3f d776 813f de21 803f 1c00 803f
00000020: 7804 843f 2008 7d3f 1551 7e3f 705d 773f
00000030: 0eb0 793f 2232 773f 1212 7f3f 5369 813f
00000040: 9962 7d3f 1afa 7b3f 6be7 823f b44f 7c3f
00000050: 6e71 7f3f 0b87 803f d505 803f 0f78 7f3f
00000060: 3bf7 7d3f 9ef1 863f 2436 7a3f 5751 7e3f
00000070: 5c17 7e3f 9d9c 803f 5f21 853f d29d 873f
00000080: ba49 7f3f 1350 7f3f 7951 823f 156e 813f
00000090: 7f76 813f 9591 7d3f 8449 813f 8d19 7d3f
000000a0: 48bc 823f dac1 7c3f 6098 7e3f f619 7d3f
000000b0: 5c88 803f 731d 803f f96e 813f ac9a 7c3f
000000c0: 6b06 7f3f de85 7e3f ba6a 7b3f f1ef 833f
000000d0: b27b 813f dc47 763f d0d8 7e3f 8347 7c3f
000000e0: f56f 813f 51d5 7f3f 3c83 783f aa1d 893f
000000f0: a6ac 7e3f a234 813f 369a 803f a77d 783f

base.mlp.fc1.2.bias f4 [64]
-0.028785592 -0.012187424 -0.0045053167 -0.026994376 -0.001466537 0.029773535 0.04349356 -0.019203871
0.022749705 0.010996577 0.030670015 0.037693545 -0.009094514 0.0060361256 -0.009824538 0.006738673
-0.01808771 -0.0031690926 -0.01955512 0.011624647 0.020807737 -0.018516185 -0.0075259814 -0.022683004
-0.039538205 -0.019715177 -0.0329439 -0.01390477 0.054289065 0.029999021 -0.04181071 0.057701774
-0.0011795139 -0.027616834 0.0021795884 0.04268303 0.01715208 -0.045248996 -0.007682991 0.004688498
-0.0026355935 0.015790634 -0.0007731423 0.028876614 0.014550016 0.022668274 -0.04116291 -0.006217403
-0.031962696 -0.025859652 0.014614654 0.025005871 -0.035364177 0.010348411 -0.018564913 -0.010479838
-0.024474224 -0.005604616 0.017020123 0.029967766 0.021651644 -0.0009044645 -0.040321812 0.017456416
00000000: c3cf ebbc c3ad 47bc 56a1 93bb 4f23 ddbc
00000010: d138 c0ba a1e7 f33c 4e26 323d 7051 9dbc
00000020: 975d ba3c fd2a 343c af3f fb3c 8c64 1a3d
00000030: 2801 15bc b1ca c53b 19f7 20bc 16d0 dc3b
00000040: ad2c 94bc 8db0 4fbb 0f32 a0bc 4e75 3e3c
00000050: fd74 aa3c 41af 97bc 829c f6bb b5d1 b9bc
00000060: d0f2 21bd b981 a1bc 2ff0 06bd d5d0 63bc
00000070: 365e 5e3d 82c0 f53c b541 2bbd b258 6c3d
00000080: eb99 9aba b33c e2bc 6dd7 0e3b 67d4 2e3d
00000090: 8582 8c3c 0357 39bd 9ac1 fbbb f9a1 993b
000000a0: ecb9 2cbb 5c5b 813c b4ac 4aba a68e ec3c
000000b0: 3163 6e3c d1b2 b93c 719a 28bd 5bbb cbbb
000000c0: 51eb 02bd 9fd7 d3bc 4d72 6f3c 1dd9 cc3c
000000d0: 07da 10bd 628c 293c 7215 98bc a0b3 2bbc
000000e0: 2b7e c8bc eda6 b7bb c96d 8b3c f67e f53c
000000f0: ca5e b13c 9619 6dba 7c28 25bd c200 8f3c

base.mlp.fc_h.0.weight f4 [64, 64]
-0.0047602337 0.13088569 0.24720818 -0.017176196 -0.01369667 0.20877811 0.25877428 0.18877974
0.23488851 0.21110024 0.014464863 0.24405468 0.09972061 0.20903903 -0.22935261 0.03294495
-0.11091997 -0.42443258 -0.044100907 0.079310186 -0.15368034 0.0671197 -0.13706963 0.20715551
-0.14872634 0.22543366 -0.23875614 -0.3795682 -0.19297987 0.10167725 -0.22004844 0.24558939
0.1356451 0.17866738 0.09610899 0.20877951 -0.028307209 0.10081444 -0.040791113 -0.06335932
-0.010368304 -0.009056143 0.3481068 -0.10401742 0.18450491 -0.0741012 0.24807015 -0.27960378
-0.20234856 -0.09686634 0.057272818 0.17606294 0.010608335 0.3149926 0.0039924667 -0.1483384
-0.06890906 0.15822051 -0.15267423 0.23543169 0.17282839 -0.02451315 0.038348217 -0.098686315
-0.07900919 0.18203838 -0.01464226 0.111054845 0.22220801 -0.1418489 -0.07155284 0.1611511
-0.07319955 -0.032330867 0.14154229 -0.01959691 0.21555436 0.21547733 -0.52815425 0.0037027586
0.047328744 0.069261126 0.20509963 0.23483074 -0.06313554 0.06391096 0.30491278 -0.09423893
-0.33945093 -0.019866416 0.13161099 -0.2944477 -0.05501869 -0.2615971 -0.09118061 -0.049905952
-0.07242975 -0.18206029 0.27374208 -0.20903862 0.049409125 0.047543906 0.15063198 0.029493289
-0.13479121 -0.15022367 -0.16427276 0.021244941 -0.06269822 -0.020600405 0.1966509 0.008174847
0.20109002 0.3191061 -0.27704704 -0.1650923 -0.29295164 -0.10958466 -0.12026632 -0.33182108
-0.29238176 -0.18507564 0.10526063 0.0754542 -0.039580353 0.16181786 0.055390466 -0.013015925
0.25485685 0.030607762 -0.3634356 -0.18650629 0.03824829 -0.038427122 0.018452464 -0.10520797
0.116220914 0.14859 -0.22518644 -0.16375983 0.16364591 0.2439106 -0.08542142 -0.104108185
0.0070079085 -0.11375744 -0.11922113 -0.07289081 -0.30192205 -0.2484881 0.036597617 0.0811489
0.18491139 -0.060434643 0.37775367 -0.15651803 -0.2044846 -0.19922248 0.0019685326 0.022470266
0.058521416 -0.021815155 0.17037345 0.01830158 -0.038429342 0.20279145 0.1658209 0.006448608
0.3012191 -0.18779124 -0.07466528 -0.14849576 -0.24347748 0.29581538 -0.40922034 -0.33464533
0.036630116 -0.2961466 0.090102404 0.14337425 0.028059114 -0.055277593 0.13878489 -0.17460492
0.09360304 -0.17787169 -0.034450162 0.062080417 0.043042596 -0.059393197 -0.034641936 0.3852025
-0.37608108 0.297513 0.028385537 0.09990453 -0.08002825 -0.20746683 -0.08510155 -0.33029327
-0.20721906 -0.048393957 -0.07749996 -0.031064868 -0.037904523 0.06408748 0.024085917 -0.053781494
0.0426327 0.12979624 -0.2160579 -0.20923476 0.11410373 -0.046272706 -0.35087648 -0.10220154
-0.075553425 -0.007365739 -0.29729074 0.01677579 -0.3422028 -0.103131264 0.14012775 0.08169493
-0.10340687 0.15190433 0.21555708 -0.0072353994 0.09136526 0.34974185 0.14303692 0.18008825
0.12926197 0.005486542 -0.057503995 -0.085014604 0.17864886 -0.2864917 0.1492438 -0.2817149
0.30853078 -0.008023817 0.023994442 -0.15367325 0.14584152 0.18243861 0.33780503 0.24178831
-0.22507651 -0.18922888 0.21037574 0.03961314 -0.060107812 -0.041916385 0.12985384 0.13432716
00000000: bcfb 9bbb e606 063e 2424 7d3e 18b5 8cbc
00000010: ff67 60bc eec9 553e 107e 843e 7a4f 413e
00000020: 9d86 703e a92a 583e 08fe 6c3c 78e9 793e
00000030: 523a cc3d 540e 563e 69db 6abe 49f1 063d
00000040: 022a e3bd 3a4f d9be 27a3 34bd 616d a23d
00000050: 615e 1dbe 0e76 893d fb5b 0cbe 9320 543e
00000060: b84b 18be 15d8 663e 7d7c 74be c356 c2be
00000070: 849c 45be 293c d03d 6154 61be c97b 7b3e
00000080: 8de6 0a3e 95f4 363e cad4 c43d 4cca 553e
00000090: 85e4 e7bc cd77 ce3d 9514 27bd 88c2 81bd
000000a0: d2df 29bc 3860 14bc 0e3b b23e 1607 d5bd
000000b0: dbee 3c3e 5fc2 97bd 1a06 7e3e 3a28 8fbe
000000c0: 7634 4fbe dc61 c6bd e796 6a3d d849 343e
000000d0: 95ce 2d3c b646 a13e 3dd3 823b 06e6 17be
000000e0: 3120 8dbd 8f04 223e a256 1cbe 0115 713e
000000f0: edf9 303e cdcf c8bc 0513 1d3d 0d1c cabd
00000100: 92cf a1bd 4568 3a3e 17e6 6fbc b970 e33d
00000110: 7f8a 633e d740 11be 4c8a 92bd cb04 253e
00000120: a5e9 95bd 5f6d 04bd 76f0 103e b389 a0bc
00000130: 48ba 5c3e 17a6 5c3e 1e35 07bf fba9 723b
00000140: c9db 413d c7d8 8d3d a305 523e 7877 703e
00000150: 354d 81bd c0e3 823d 871d 9c3e 5700 c1bd
00000160: 83cc adbe e5be a2bc 08c5 063e d9c1 96be
00000170: 475b 61bd 0ef0 85be e6bc babd 2f6a 4cbd
00000180: 0c56 94bd 036e 3abe ec27 8c3e 380e 56be
00000190: 3961 4a3d 66bd 423d 453f 1a3e e99b f13c
000001a0: b506 0abe 3cd4 19be 1e37 28be df09 ae3c
000001b0: ed67 80bd 2ec2 a8bc db5e 493e cbef 053c
000001c0: 8bea 4d3e e061 a33e 1cd9 8dbe f50d 29be
000001d0: c2fd 95be ec6d e0bd 304e f6bd 74e4 a9be
000001e0: 10b3 95be 7884 3dbe e392 d73d bb87 9a3d
000001f0: 021f 22bd 95b3 253e 1de1 623d bf40 55bc
00000200: 997c 823e 21bd fa3c 3b14 babe 81fb 3ebe
00000210: 3daa 1c3d c265 1dbd 9f29 973c 4777 d7bd
00000220: 3b05 ee3d fa27 183e 4697 66be a8b0 27be
00000230: cb92 273e b3c3 793e 6df1 aebd ac36 d5bd
00000240: 99a2 e53b a9f9 e8bd 352a f4bd c747 95bd
00000250: 8795 9abe aa73 7ebe 62e7 153d 6531 a63d
00000260: 6959 3d3e 518a 77bd ee68 c13e 4346 20be
00000270: 6964 51be fa00 4cbe 7f02 013b 9013 b83c
00000280: 27b4 6f3d b2b5 b2bc 6176 2e3e 32ed 953c
00000290: 1668 1dbd 90a8 4f3e f4cc 293e d84e d33b
000002a0: 6439 9a3e 594c 40be 1cea 98bd 460f 18be
000002b0: 2952 79be 1d75 973e 5485 d1be a256 abbe
000002c0: 7609 163d 87a0 97be 9c87 b83d b3d0 123e
000002d0: 3adc e53c c26a 62bd a01d 0e3e a2cb 32be
000002e0: f3b2 bf3d ff23 36be 9d1b 0dbd 0948 7e3d
000002f0: 6f4d 303d 4846 73bd b4e4 0dbd 4339 c53e
00000300: b38d c0be a053 983e c988 e83c bf9a cc3d
00000310: dae5 a3bd 2f72 54be b949 aebd 331c a9be
00000320: 3c31 54be be38 46bd 4db8 9ebd c07b febc
00000330: c641 1bbd 4c40 833d d44f c53c fc49 5cbd
00000340: a09f 2e3d 4ee9 043e 483e 5dbe a341 56be
00000350: 37af e93d 7388 3dbd 15a6 b3be 0a4f d1bd
00000360: c1bb 9abd 4c5c f1bb 7e36 98be 626d 893c
00000370: 3535 afbe 7c36 d3bd a67d 0f3e ac4f a73d
00000380: fbc6 d3bd cf8c 1b3e ffba 5c3e ee16 edbb
00000390: b61d bb3d 5d11 b33e 4578 123e 0e69 383e
000003a0: 405d 043e 73c8 b33b 4f89 6bbd 231c aebd
000003b0: baef 363e 0aaf 92be 5ed3 183e ef3c 90be
000003c0: bff7 9d3e 5476 03bc fe8f c43c 855c 1dbe
000003d0: 7b57 153e 30d1 3a3e c8f4 ac3e 5b97 773e
000003e0: 757a 66be 37c5 41be bd6c 573e 6341 223d
000003f0: 9c33 76bd 84b0 2bbd 68f8 043e 0f8d 093e

base.mlp.fc_h.0.bias f4 [64]
0.0 0.0 0.0 0.0 0.0 0.0 0.0 0.0
0.0 0.0 0.0 0.0 0.0 0.0 0.0 0.0
0.0 0.0 0.0 0.0 0.0 0.0 0.0 0.0
0.0 0.0 0.0 0.0 0.0 0.0 0.0 0.0
0.0 0.0 0.0 0.0 0.0 0.0 0.0 0.0
0.0 0.0 0.0 0.0 0.0 0.0 0.0 0.0
0.0 0.0 0.0 0.0 0.0 0.0 0.0 0.0
0.0 0.0 0.0 0.0 0.0 0.0 0.0 0.0
00000000: 0000 0000 0000 0000 0000 0000 0000 0000
00000010: 0000 0000 0000 0000 0000 0000 0000 0000
00000020: 0000 0000 0000 0000 0000 0000 0000 0000
00000030: 0000 0000 0000 0000 0000 0000 0000 0000
00000040: 0000 0000 0000 0000 0000 0000 0000 0000
00000050: 0000 0000 0000 0000 0000 0000 0000 0000
00000060: 0000 0000 0000 0000 0000 0000 0000 0000
00000070: 0000 0000 0000 0000 0000 0000 0000 0000
00000080: 0000 0000 0000 0000 0000 0000 0000 0000
00000090: 0000 0000 0000 0000 0000 0000 0000 0000
000000a0: 0000 0000 0000 0000 0000 0000 0000 0000
000000b0: 0000 0000 0000 0000 0000 0000 0000 0000
000000c0: 0000 0000 0000 0000 0000 0000 0000 0000
000000d0: 0000 0000 0000 0000 0000 0000 0000 0000
000000e0: 0000 0000 0000 0000 0000 0000 0000 0000
000000f0: 0000 0000 0000 0000 0000 0000 0000 0000

base.mlp.fc_h.2.weight f4 [64]
1.0 1.0 1.0 1.0 1.0 1.0 1.0 1.0
1.0 1.0 1.0 1.0 1.0 1.0 1.0 1.0
1.0 1.0 1.0 1.0 1.0 1.0 1.0 1.0
1.0 1.0 1.0 1.0 1.0 1.0 1.0 1.0
1.0 1.0 1.0 1.0 1.0 1.0 1.0 1.0
1.0 1.0 1.0 1.0 1.0 1.0 1.0 1.0
1.0 1.0 1.0 1.0 1.0 1.0 1.0 1.0
1.0 1.0 1.0 1.0 1.0 1.0 1.0 1.0
00000000: 0000 803f 0000 803f 0000 803f 0000 803f
00000010: 0000 803f 0000 803f 0000 803f 0000 803f
00000020: 0000 803f 0000 803f 0000 803f 0000 803f
00000030: 0000 803f 0000 803f 0000 803f 0000 803f
00000040: 0000 803f 0000 803f 0000 803f 0000 803f
00000050: 0000 803f 0000 803f 0000 803f 0000 803f
00000060: 0000 803f 0000 803f 0000 803f 0000 803f
00000070: 0000 803f 0000 803f 0000 803f 0000 803f
00000080: 0000 803f 0000 803f 0000 803f 0000 803f
00000090: 0000 803f 0000 803f 0000 803f 0000 803f
000000a0: 0000 803f 0000 803f 0000 803f 0000 803f
000000b0: 0000 803f 0000 803f 0000 803f 0000 803f
000000c0: 0000 803f 0000 803f 0000 803f 0000 803f
000000d0: 0000 803f 0000 803f 0000 803f 0000 803f
000000e0: 0000 803f 0000 803f 0000 803f 0000 803f
000000f0: 0000 803f 0000 803f 0000 803f 0000 803f

base.mlp.fc_h.2.bias f4 [64]
0.0 0.0 0.0 0.0 0.0 0.0 0.0 0.0
0.0 0.0 0.0 0.0 0.0 0.0 0.0 0.0
0.0 0.0 0.0 0.0 0.0 0.0 0.0 0.0
0.0 0.0 0.0 0.0 0.0 0.0 0.0 0.0
0.0 0.0 0.0 0.0 0.0 0.0 0.0 0.0
0.0 0.0 0.0 0.0 0.0 0.0 0.0 0.0
0.0 0.0 0.0 0.0 0.0 0.0 0.0 0.0
0.0 0.0 0.0 0.0 0.0 0.0 0.0 0.0
00000000: 0000 0000 0000 0000 0000 0000 0000 0000
00000010: 0000 0000 0000 0000 0000 0000 0000 0000
00000020: 0000 0000 0000 0000 0000 0000 0000 0000
00000030: 0000 0000 0000 0000 0000 0000 0000 0000
00000040: 0000 0000 0000 0000 0000 0000 0000 0000
00000050: 0000 0000 0000 0000 0000 0000 0000 0000
00000060: 0000 0000 0000 0000 0000 0000 0000 0000
00000070: 0000 0000 0000 0000 0000 0000 0000 0000
00000080: 0000 0000 0000 0000 0000 0000 0000 0000
00000090: 0000 0000 0000 0000 0000 0000 0000 0000
000000a0: 0000 0000 0000 0000 0000 0000 0000 0000
000000b0: 0000 0000 0000 0000 0000 0000 0000 0000
000000c0: 0000 0000 0000 0000 0000 0000 0000 0000
000000d0: 0000 0000 0000 0000 0000 0000 0000 0000
000000e0: 0000 0000 0000 0000 0000 0000 0000 0000
000000f0: 0000 0000 0000 0000 0000 0000 0000 0000

base.mlp.fc2.0.0.weight f4 [64, 64]
-0.030202677 0.125443 0.2288204 -0.026233552 -0.01748812 0.20857047 0.2532196 0.18944328
0.27555117 0.20961967 0.012379374 0.24667968 0.09248582 0.20982933 -0.23495117 0.042589184
-0.12437069 -0.42155313 -0.09558618 0.07492906 -0.16349304 0.06502692 -0.15864918 0.21109149
-0.15240394 0.20313293 -0.20465545 -0.35397142 -0.20526513 0.10978441 -0.21955371 0.26355767
0.15139161 0.19625293 0.05737241 0.23219539 -0.035745893 0.07257415 -0.03981569 -0.06739689
-0.009945198 -0.024168618 0.35028175 -0.099848166 0.1762794 -0.047789935 0.2766991 -0.29338276
-0.21003525 -0.102963135 0.044336777 0.19803771 -0.004224867 0.3161166 0.0067558237 -0.1408602
-0.08116456 0.16896358 -0.12372543 0.2728545 0.16721821 -0.025918454 0.028863827 -0.12343735
-0.068554536 0.19776884 -0.0052106217 0.15110056 0.24673678 -0.13740335 -0.0709501 0.15464713
-0.07691608 -0.017546725 0.10874851 -0.011900351 0.198833 0.1953014 -0.51537156 -0.012079082
0.033104766 0.045212306 0.21039025 0.23473434 -0.07508342 0.054690436 0.3108978 -0.099599145
-0.32402322 -0.014653999 0.08682132 -0.2922519 -0.050043482 -0.27318802 -0.10416256 -0.06461674
-0.075668596 -0.16813315 0.27779606 -0.1903263 0.05911018 0.0660689 0.1596493 0.018271696
-0.12238004 -0.1028286 -0.16542122 0.020979727 -0.074070014 -0.04151967 0.1639483 0.007069503
0.22534917 0.31558877 -0.25609583 -0.18513644 -0.30016896 -0.09836725 -0.12819675 -0.31743553
-0.25818005 -0.1857118 0.08311757 0.06702694 -0.05458843 0.16655509 0.05288013 -0.010372378
0.25293517 0.046103984 -0.3393317 -0.18634924 0.03430576 -0.038822614 0.024500199 -0.09434369
0.08213872 0.16853458 -0.222633 -0.15347436 0.16188394 0.25486982 -0.068558045 -0.12519735
-0.0021336856 -0.123878025 -0.113793984 -0.07457445 -0.29945803 -0.2525024 0.058784198 0.083778255
0.1979704 -0.017788293 0.3584114 -0.15437749 -0.20742053 -0.18648452 -0.016276157 0.03328442
0.05315368 -0.008000255 0.22487393 0.00533258 -0.021594431 0.23774515 0.17467438 -0.0032426815
0.29447663 -0.15801583 -0.04694922 -0.13662548 -0.226143 0.2466475 -0.43516392 -0.30122322
0.05264494 -0.271041 0.078532286 0.12156097 0.01421647 -0.058459245 0.12900423 -0.17768994
0.1157687 -0.17942137 -0.05283758 0.03373116 0.03209287 -0.060046114 -0.015197308 0.38916278
-0.4057035 0.30855522 0.094265364 0.14400087 -0.049601723 -0.22224282 -0.10598245 -0.26149264
-0.22001347 -0.039902627 -0.09872505 -0.056529343 -0.0177081 0.07834195 0.040769022 -0.08713031
0.03665901 0.117257036 -0.20003505 -0.19325377 0.09497721 -0.09481081 -0.33878264 -0.065623626
-0.03558968 0.034593467 -0.2657994 -0.010454461 -0.25783774 -0.13295877 0.13451226 0.056668732
-0.10448641 0.13822879 0.24736102 -0.048596628 0.050447103 0.36366066 0.14346552 0.17370053
0.120783105 0.023897078 -0.089897275 -0.047934365 0.16054647 -0.2697791 0.16777983 -0.25503606
0.33228335 0.029466676 0.032291938 -0.13797681 0.11868296 0.20502253 0.313171 0.23818064
-0.16448458 -0.23447481 0.17762911 0.055205904 -0.10407839 -0.037331063 0.18158391 0.1534752
00000000: 9b6b f7bc 2174 003e e54f 6a3e bfe7 d6bc
00000010: 3f43 8fbc 7f93 553e 00a6 813e 6bfd 413e
00000020: 0b15 8d3e 8aa6 563e dcd2 4a3c 9999 7c3e
00000030: 3569 bd3d 80dd 563e 0a97 70be ff71 2e3d
00000040: 0fb6 febd d0d5 d7be b0c2 c3bd 6874 993d
00000050: b86a 27be d52c 853d ee74 22be 5e28 583e
00000060: c70f 1cbe 1402 503e 3391 51be be3b b5be
00000070: 0631 52be a6d6 e03d b0d2 60be 08f1 863e
00000080: 6706 1b3e 87f6 483e 55ff 6a3d a1c4 6d3e
00000090: 496a 12bd c2a1 943d c715 23bd 6107 8abd
000000a0: 2ff1 22bc 44fd c5bc 2158 b33e 327d ccbd
000000b0: 9682 343e 61bf 43bd 81ab 8d3e 4436 96be
000000c0: 7b13 57be 56de d2bd 7b9a 353d 66ca 4a3e
000000d0: c170 8abb 09da a13e f55f dd3b a83d 10be
000000e0: 9b39 a6bd ca04 2d3e c263 fdbd 96b3 8b3e
000000f0: 403b 2b3e f052 d4bc d573 ec3c b9cc fcbd
00000100: 5266 8cbd ea83 4a3e ddbd aabb 1bba 1a3e
00000110: 91a8 7c3e 77b3 0cbe 494e 91bd d15b 1e3e
00000120: 2e86 9dbd 26be 8fbc 8ab7 de3d b1f9 42bc
00000130: e19a 4b3e 17fd 473e 64ef 03bf 58e7 45bc
00000140: dd98 073d 8a30 393d 8b70 573e 335e 703e
00000150: 56c5 99bd 1403 603d ff2d 9f3e a3fa cbbd
00000160: 5fe6 a5be 5417 70bc 60cf b13d 0ba2 95be
00000170: 65fa 4cbd 4ddf 8bbe 2e53 d5bd c855 84bd
00000180: 23f8 9abd 192b 2cbe 493b 8e3e e6e4 42be
00000190: 841d 723d 224f 873d 1b7b 233e 86ae 953c
000001a0: 63a2 fabd cd97 d2bd 2e64 29be addd ab3c
000001b0: 05b2 97bd 8810 2abd 10e2 273e 4aa7 e73b
000001c0: efc1 663e da94 a13e fe1e 83be 6894 3dbe
000001d0: bfaf 99be c574 c9bd 0246 03be e986 a2be
000001e0: 2d30 84be 3c2b 3ebe 8b39 aa3d 6c45 893d
000001f0: 1e98 5fbd 6b8d 2a3e d698 583d e8f0 29bc
00000200: b880 813e 88d7 3c3d e2bc adbe 56d2 3ebe
00000210: 3284 0c3d 7604 1fbd a4b4 c83c 4437 c1bd
00000220: 5838 a83d 5494 2c3e e8f9 63be 6228 1dbe
00000230: e7c4 253e 4c7e 823e 2968 8cbd bc33 00be
00000240: 4ed5 0bbb c3b3 fdbd d20c e9bd 7dba 98bd
00000250: 9052 99be ff47 81be b3c7 703d ef93 ab3d
00000260: c1b8 4a3e c1b8 91bc b381 b73e 2215 1ebe
00000270: 0c66 54be ccf5 3ebe 9355 85bc 3e55 083d
00000280: acb7 593d 8013 03bc 5a45 663e ecbc ae3b
00000290: cee6 b0bc 7773 733e d7dd 323e 2b83 54bb
000002a0: a4c5 963e e7ce 21be d34d 40bd 8de7 0bbe
000002b0: 0892 67be 2a91 7c3e cecd debe ee39 9abe
000002c0: 38a2 573d e3c5 8abe 89d5 a03d f5f4 f83d
000002d0: 32ec 683c f672 6fbd af19 043e 5af4 35be
000002e0: 2418 ed3d 3cba 37be 386c 58bd af29 0a3d
000002f0: d073 033d eaf2 75bd 21fe 78bc 5840 c73e
00000300: 5fb8 cfbe f3fa 9d3e 330e c13d f774 133e
00000310: 2d2b 4bbd 9f93 63be 540d d9bd 5de2 85be
00000320: 364b 61be f070 23bd 5c30 cabd 508b 67bd
00000330: 9410 91bc bf71 a03d 6bfd 263d 6071 b2bd
00000340: c227 163d 7524 f03d fdd5 4cbe 51e4 45be
00000350: 6983 c23d 2c2c c2bd eb74 adbe ae65 86bd
00000360: 7cc6 11bd e1b1 0d3d dc16 88be 3049 2bbc
00000370: 4f03 84be 5826 08be 95bd 093e 791d 683d
00000380: f9fc d5bd d98b 0d3e 354c 7d3e 420d 47bd
00000390: 9fa1 4e3d bb31 ba3e a0e8 123e 8dde 313e
000003a0: 225d f73d cec3 c33c 101c b8bd d356 44bd
000003b0: 4b66 243e 7c20 8abe 7ace 2b3e 1694 82be
000003c0: 0b21 aa3e 1964 f13c 8d44 043d cb49 0dbe
000003d0: 0d10 f33d 6df1 513e f357 a03e a0e5 733e
000003e0: a56e 28be 2a1a 70be 68e4 353e 961f 623d
000003f0: 0d27 d5bd 75e8 18bd 22f1 393e 9a28 1d3e

base.mlp.fc2.0.0.bias f4 [64]
0.019844603 -0.021739576 -0.034081478 -0.07266869 0.038393382 -0.028093202 0.013008064 -0.044486195
-0.016718844 0.020955654 0.023481019 -0.0024798918 -0.036816623 0.027181396 -0.034507394 0.03177019
-0.0049063493 -0.0021018097 0.019528368 -0.0027852273 -0.019165162 -0.05495097 -0.016872449 0.0076843984
-0.02955901 0.007603954 0.01643126 -0.017215222 -0.010777003 -0.024214355 -0.008180414 0.004504864
0.035485722 0.017536916 0.021964315 0.0034190647 0.023325127 -0.025411168 -0.0026197387 0.008691221
-0.013327731 0.039380185 -0.012152277 -0.018944858 -0.015334272 0.038885817 0.014304582 -0.010197561
-0.06584745 0.046920765 0.021153232 -0.0029720806 -0.0074306447 -0.0074409004 -0.04107035 0.0004676954
0.03325061 -0.023815548 0.0025481028 -0.017459547 0.025530329 0.018749729 -0.017961605 0.037349824
00000000: 2691 a23c 3217 b2bc 0599 0bbd 52d3 94bd
00000010: 6142 1d3d b723 e6bc c61f 553c 2837 36bd
00000020: f5f5 88bc 31ab ab3c 445b c03c ae85 22bb
00000030: 07cd 16bd 85ab de3c a057 0dbd 7521 023d
00000040: 71c5 a0bb 84be 09bb f5f9 9f3c 5c88 36bb
00000050: 4200 9dbc 4514 61bd 1738 8abc 68cd fb3b
00000060: bd25 f2bc 972a f93b da9a 863c f006 8dbc
00000070: 0792 30bc 2f5d c6bc 2507 06bc 8a9d 933b
00000080: 7a59 113d 94a9 8f3c 82ee b33c 6312 603b
00000090: 5614 bf3c 152b d0bc ecaf 2bbb 9f65 0e3c
000000a0: 8e5c 5abc 1e4d 213d 581a 47bc 3f32 9bbc
000000b0: 993c 7bbc bc46 1f3d c45d 6a3c ac13 27bc
000000c0: 07db 86bd fd2f 403d 8b49 ad3c 3dc7 42bb
000000d0: c47c f3bb ccd2 f3bb 6239 28bd 0435 f539
000000e0: cb31 083d d318 c3bc 12fe 263b 5307 8fbc
000000f0: fb24 d13c 0899 993c 3724 93bc 21fc 183d

base.mlp.fc2.0.2.weight f4 [64]
1.0013803 1.0025629 0.9990541 1.0128102 1.0080031 1.0006037 1.0079578 1.0249791
0.9782385 0.96965617 0.9871541 1.0069361 0.98277146 0.9900138 0.9915971 0.9931246
0.9570795 0.9970652 1.0000665 0.99772686 1.0172607 0.9882858 1.0269923 0.9805271
0.98638934 0.9932315 1.0107732 0.98272514 1.0051485 1.0034453 0.9905723 0.99649745
0.9855903 1.0161488 0.99736995 1.0233136 0.9845722 1.0107588 0.977998 1.0022757
1.0431362 0.99052286 1.0396042 1.0014788 1.0056729 1.0167223 0.99118304 1.0030496
0.9829244 0.98722655 1.0028604 1.0760814 0.969035 1.0363821 1.0140665 1.0327908
1.0314908 0.9835922 1.013732 1.0009112 0.99421656 0.9955387 0.97645736 1.0546331
00000000: 3b2d 803f fb53 803f 02c2 7f3f c4a3 813f
00000010: 3f06 813f c813 803f c304 813f 8432 833f
00000020: d76d 7a3f 633b 783f 22b6 7c3f 48e3 803f
00000030: e996 7b3f 8b71 7d3f 4fd9 7d3f 6a3d 7e3f
00000040: 2a03 753f aa3f 7f3f 2e02 803f 076b 7f3f
00000050: 9935 823f 4c00 7d3f 7c74 833f d303 7b3f
00000060: 0384 7c3f 6b44 7e3f 0461 813f e093 7b3f
00000070: b5a8 803f e570 803f 2596 7d3f 751a 7f3f
00000080: a54f 7c3f 2a11 823f a353 7f3f f1fb 823f
00000090: ec0c 7c3f 8b60 813f 145e 7a3f 924a 803f
000000a0: 7d85 853f e892 7d3f c011 853f 7530 803f
000000b0: e4b9 803f f523 823f 2cbe 7d3f ee63 803f
000000c0: efa0 7b3f e1ba 7c3f bb5d 803f 09bd 893f
000000d0: ae12 783f 2ba8 843f eecc 813f 7d32 843f
000000e0: e407 843f b3cc 7b3f f8c1 813f dc1d 803f
000000f0: fa84 7e3f a0db 7e3f 1cf9 793f 38fe 863f

base.mlp.fc2.0.2.bias f4 [64]
0.025457175 -0.017239928 -0.018070662 -0.06634185 0.024442466 -0.020910358 0.01939501 -0.04904334
-0.020202516 0.02651779 0.06410243 -0.028527841 -0.028288621 0.025432095 -0.022703769 0.016578266
0.0053052893 -0.0048434422 0.0062984107 -0.0091986 -0.061121214 -0.048805814 -0.029980196 0.0127817225
-0.028533474 0.016682105 0.026194438 -0.01711333 -0.020135824 -0.039728247 -0.0020881677 0.010659326
0.041034468 0.024311418 0.028080871 -0.008683025 0.037144728 -0.026551506 0.01767068 0.023068266
-0.059932776 0.052145816 -0.031280655 -0.016974468 -0.031014267 0.039407007 0.022744704 -0.029445697
-0.076886386 0.054470968 0.011932313 -0.054970004 -0.010262839 -0.04009234 -0.03366015 -0.023843411
0.030325716 -0.0169914 -0.0019181153 -0.02494407 0.025630618 0.031769786 -0.03011989 0.027503185
00000000: 918b d03c c03a 8dbc ed08 94bc 3cde 87bd
00000010: 913b c83c 334c abbc 49e2 9e3c abe1 48bd
00000020: bf7f a5bc d63b d93c 2348 833d 38b3 e9bc
00000030: 8abd e7bc f856 d03c 41fd b9bc 25cf 873c
00000040: fed7 ad3b bdb5 9ebb e662 ce3b bab5 16bc
00000050: 3d5a 7abd 9be8 47bd 0799 f5bc 6e6a 513c
00000060: 08bf e9bc e9a8 883c b895 d63c 4131 8cbc
00000070: e2f3 a4bc 16ba 22bd a4d9 08bb 74a4 2e3c
00000080: c213 283d bd28 c73c db09 e63c 3f43 0ebc
00000090: 1225 183d 8b82 d9bc 1ac2 903c a9f9 bc3c
000000a0: 127c 75bd da96 553d 2520 00bd 0a0e 8bbc
000000b0: a211 febc 3e69 213d 1a53 ba3c 1a38 f1bc
000000c0: 9c76 9dbd f31c 5f3d c07f 433c 3a28 61bd
000000d0: 7725 28bc de37 24bd 3adf 09bd 4253 c3bc
000000e0: a36d f83c 8c31 8bbc 4569 fbba 8257 ccbc
000000f0: 4df7 d13c 0921 023d fdbd f6bc 5c4e e13c

rnn.rnn.weight_ih_l0 f4 [192, 64]
-0.042768188 0.18279146 -0.020670593 0.047705416 0.047584996 -0.0304094 -0.010437558 -0.012781495
-0.026095653 -0.012035231 0.04675141 0.021549921 0.078988984 0.06177133 -0.08186223 -0.0384499
-0.020218555 0.009477037 0.058482535 0.2156544 -0.03337329 0.030934528 0.06285113 -0.036270797
0.015608283 0.076745085 -0.14407831 -0.061667517 -0.03521745 0.053719252 -0.05159777 -0.020921843
0.051484738 -0.005075084 -0.04927225 -0.18569338 0.064679824 -0.10678719 -0.20368908 -0.045103487
-0.10357449 0.099289395 -0.044025447 0.021866733 0.0015719195 -0.01565945 0.036361564 0.061204005
0.01909239 -0.09378261 0.0007558631 -0.018266177 -0.1432176 -0.042973638 0.0008562061 0.03280059
0.012308834 0.09884925 -0.06162031 0.14224352 0.027124923 -0.07009553 -0.011713411 0.13462538
-0.047728177 -0.01252567 -0.076616585 -0.013613701 -0.05492006 0.05182759 0.19366722 -0.0140341325
0.11446987 0.15183218 0.10490409 0.0061742375 -0.048570115 -0.03682186 0.056775212 -0.1300156
-0.1611011 -0.030337084 0.09274403 0.12648875 0.043488886 -0.1293652 -0.029570946 0.07034699
0.034388483 -0.0075729135 0.1738946 0.0051236902 0.0029201438 0.1681919 0.010297768 0.04339822
0.084503986 -0.06169292 0.11147905 0.106477246 0.017575346 -0.07006474 -0.05008373 0.15640275
0.021193638 -0.0109697115 0.10148051 -0.15618394 -0.04743842 -0.0661358 -0.030816708 0.08913223
0.03440233 -0.046666387 0.08540376 0.09128506 0.10215915 -0.012395223 0.038148366 0.099901296
-0.073337935 0.06388324 -0.019997079 0.11222159 -0.07943926 0.06758796 -0.11489176 -0.0296392
-0.04032246 -0.0037773543 -0.088686556 -0.11812438 -0.010633452 0.028088018 -0.017375719 0.0163552
-0.07175783 0.0038717715 0.049559694 -0.017347932 -0.09278759 -0.0929172 -0.044886686 -0.0336751
-0.01141725 -0.1013556 -0.025446828 -0.004716384 0.05596478 -0.07656822 0.06555627 0.036014855
-0.004260469 0.011380198 -0.07888139 0.09525191 0.18271294 -0.08677041 0.05757413 -0.1160082
-0.005577704 -0.088578016 0.07324683 -0.026374117 0.04979869 0.0053691403 -0.09926501 0.054701984
-0.11329918 -0.08470019 -0.021959417 0.10845469 0.1120813 0.06069288 0.03351934 -0.032453515
-0.058686215 0.017670458 0.119728796 0.0041682553 0.0432236 0.06607844 0.096941024 -0.110363744
0.103565596 -0.030417442 -0.06292933 0.12696335 -0.049181703 0.04212196 0.005552399 -0.055149995
-0.17495587 -0.007005565 -0.017604077 -0.0697572 0.10341204 0.0040803454 0.0635834 0.15036942
-0.058476534 -0.052248187 -0.013544458 0.057700593 -0.030166827 0.06461091 0.07236965 0.015779397
0.026092123 0.048690017 -0.010978636 0.050215274 -0.039511338 -0.086917624 -0.022262776 0.061567526
-0.07973079 -0.101502836 0.049329694 0.111034214 -0.10211652 0.016681766 0.028152384 -0.0068555423
-0.066436626 0.11906749 -0.011463043 -0.045382813 0.018323822 -0.09354995 0.082384735 0.09899435
-0.051587462 0.1289316 0.0065512406 0.13122182 0.05439796 0.038517952 0.046011943 0.05459203
-0.0054254346 0.0022754055 0.053231668 -0.084945045 -0.17048235 0.08339175 0.010956569 0.0068204966
0.015184088 0.04628942 -0.045673326 0.07513949 0.01131702 -0.031451877 -0.038225982 0.041207634
00000000: b22d 2fbd af2d 3b3e 6055 a9bc c166 433d
00000010: 7ce8 423d 221d f9bc 4b02 2bbc 7a69 51bc
00000020: 8dc6 d5bc 6b2f 45bc 687e 3f3d 7689 b03c
00000030: fac4 a13d ef03 7d3d 63a7 a7bd a47d 1dbd
00000040: 62a1 a5bc 9345 1b3c 628b 6f3d 82d4 5c3e
00000050: 6eb2 08bd 686a fd3c 18b8 803d b090 14bd
00000060: e2b9 7f3c 872c 9d3d 4489 13be 1497 7cbd
00000070: 2c40 10bd b808 5c3d 2f58 53bd 4964 abbc
00000080: a9e1 523d e44c a6bb b3d1 49bd 6826 3ebe
00000090: db76 843d 3eb3 dabd df93 50be 6fbe 38bd
000000a0: dd1e d4bd 3d58 cb3d 0754 34bd dd21 b33c
000000b0: de08 ce3a 3f48 80bc ddef 143d 0db1 7a3d
000000c0: a567 9c3c 1911 c0bd 1d25 463a f3a2 95bc
000000d0: a2a7 12be 2005 30bd 0573 603a e959 063d
000000e0: feaa 493c 7a71 ca3d 9465 7cbd 49a8 113e
000000f0: 1635 de3c 3f8e 8fbd 9be9 3fbc 3cdb 093e
00000100: 9f7e 43bd 7838 4dbc 28e9 9cbd 000c 5fbc
00000110: dbf3 60bd 2b49 543d b350 463e 6bef 65bc
00000120: 2e6f ea3d e579 1b3e f5d7 d63d 4251 ca3b
00000130: 75f1 46bd 85d2 16bd 208d 683d cf22 05be
00000140: b0f7 24be 7a85 f8bc 95f0 bd3d 4486 013e
00000150: 6721 323d 5078 04be c53e f2bc 1512 903d
00000160: f0da 0c3d 3426 f8bb 6d11 323e a1e4 a73b
00000170: e25f 3f3b 7f3a 2c3e f8b7 283c 55c2 313d
00000180: 6d10 ad3d b7b1 7cbd 214f e43d be10 da3d
00000190: 2cfa 8f3c 1a7e 8fbd 9924 4dbd 0b28 203e
000001a0: 489e ad3c 4eba 33bc 03d5 cf3d afee 1fbe
000001b0: ca4e 42bd 3572 87bd 5273 fcbc f58a b63d
000001c0: 75e9 0c3d 4125 3fbd 2be8 ae3d a9f3 ba3d
000001d0: d138 d13d 5515 4bbc 7641 1c3d 0d99 cc3d
000001e0: 3332 96bd 37d5 823d ead0 a3bc 6fd4 e53d
000001f0: 0db1 a2bd 8e6b 8a3d 5f4c ebbd e8cd f2bc
00000200: 2a29 25bd 7d8d 77bb 4ca1 b5bd 32eb f1bd
00000210: ee37 2ebc d818 e63c 8657 8ebc 57fb 853c
00000220: c5f5 92bd 8cbd 7d3b 1bff 4a3d 401d 8ebc
00000230: 6c07 bebd 5f4b bebd 1adb 37bd e7ee 09bd
00000240: 6b0f 3bbc 8693 cfbd de75 d0bc e68b 9abb
00000250: 533b 653d cdcf 9cbd 5e42 863d 5084 133d
00000260: 689b 8bbb 0374 3a3c 918c a1bd 6f13 c33d
00000270: 1a19 3b3e afb4 b1bd dad2 6b3d b595 edbd
00000280: 2cc5 b6bb 6468 b5bd 6f02 963d 880e d8bc
00000290: b6f9 4b3d 9def af3b 744b cbbd 300f 603d
000002a0: 6709 e8bd 4b77 adbd 3ce4 b3bc 7e1d de3d
000002b0: e18a e53d 1999 783d 934b 093d faed 04bd
000002c0: f560 70bd a3c1 903c 5f34 f53d dc95 883b
000002d0: 3b0b 313d 2254 873d 0489 c63d 6306 e2bd
000002e0: 331a d43d 002e f9bc 18e1 80bd ae02 023e
000002f0: c172 49bd 1488 2c3d e6f0 b53b f6e4 61bd
00000300: a227 33be f08e e5bb 6d36 90bc dddc 8ebd
00000310: b1c9 d33d 6bb4 853b 0338 823d 71fa 193e
00000320: 1785 6fbd 3202 56bd 93e9 5dbc 7557 6c3d
00000330: 6c20 f7bc ba52 843d 8a36 943d cb43 813c
00000340: 26bf d53c 2f6f 473d bddf 33bc 88ae 4d3d
00000350: a4d6 21bd de01 b2bd 6d60 b6bc 3b2e 7c3d
00000360: e549 a3bd b8e0 cfbd ef0d 4a3d e865 e33d
00000370: 7722 d1bd 33a8 883c d49f e63c 75a4 e0bb
00000380: ed0f 88bd a8d9 f33d 7dcf 3bbc 54e3 39bd
00000390: d71b 963c 1e97 bfbd 54b9 a83d 8dbd ca3d
000003a0: 604d 53bd a506 043e caab d63b 035f 063e
000003b0: 65d0 5e3d 00c5 1d3d 0577 3c3d e49b 5f3d
000003c0: d8c7 b1bb f81e 153b 7309 5a3d abf7 adbd
000003d0: ed92 2ebe 4bc9 aa3d 2e83 333c 797e df3b
000003e0: aec6 783c fa99 3d3d f413 3bbd bce2 993d
000003f0: 066b 393c afd3 00bd d992 1cbd 56c9 283d

rnn.rnn.weight_hh_l0 f4 [192, 64]
-0.08541316 0.11222227 0.018147707 -0.08656634 -0.03863333 0.017034354 0.1267563 -0.09741424
0.13152954 0.002431061 0.042832267 -0.08353772 -0.040981725 0.056245144 0.10951501 -0.05899567
-0.15406431 -0.011347423 -0.0160814 -0.030793054 -0.028264359 -0.116479225 -0.051722623 0.045469023
-0.07542129 0.01133925 -0.029261084 -0.08860978 -0.08739902 0.042071793 0.01003555 -0.053957283
-0.18430397 -0.040453292 0.069972806 -0.025012473 -0.054186817 0.03381555 -0.010888385 -0.01856725
-0.04508259 -0.07392118 -0.10992144 -0.030750206 0.0557696 0.043681294 -0.060419057 -0.015093287
-0.1147027 -0.053137176 0.09456631 0.0077070235 0.026448745 -0.040923446 0.0030589576 -0.03470226
0.07339586 -0.024601107 0.102805845 0.18104887 -0.1707239 0.05456745 0.11449708 -0.18885095
-0.063500404 -0.052030414 -0.030661946 -0.06918876 0.020400777 0.15680887 0.040257156 -0.048191424
-0.08616813 0.067467056 0.040834226 0.008352247 0.05891987 0.07987946 -0.13093837 0.03782823
-0.113012135 0.13410878 -0.025391545 -0.016101204 -0.047644112 -0.020876544 0.04812166 0.07741808
-0.0016921785 0.04026213 -0.09968401 -0.035232805 0.1491342 0.060025066 -0.13574918 -0.18896653
0.007343532 -0.009959527 0.030559205 -0.027833989 -0.0591636 0.013814799 0.0595708 -0.06556947
-0.01666536 0.14838871 -0.024138521 0.05937622 -0.060755394 0.018168682 -0.06017584 0.1603553
-0.14461467 0.07711915 0.0030944257 -0.06335709 -0.015796194 0.043298427 0.087202854 -0.07546212
0.0014435945 0.17284647 0.021249728 0.0057298113 0.047483016 -0.01765806 0.0049055982 -0.056207575
-0.0028125127 0.10286351 0.051026903 -0.07089749 -0.012414364 0.15802097 -0.026761012 -0.019856643
0.23533289 0.014480578 0.03920256 -0.043326814 0.04253608 -0.009948476 0.009556045 0.08707708
0.044432826 -0.055043824 0.056947447 -0.11203649 -0.039718673 -0.057279892 -0.04954442 0.01906232
-0.18350177 0.06733103 -0.05427888 0.104314655 0.10978189 -0.08287677 -0.112805754 -0.009935408
-0.09558159 0.05855808 -0.20789315 -0.018265175 -0.018810764 -0.039610244 0.12398551 -0.038488798
0.10200501 -0.044388447 0.0073042237 -0.007341727 0.014358211 -0.0946281 -0.08106704 -0.10717583
0.15431423 -0.15985858 0.01657305 -0.041944075 0.010896486 -0.0059193447 0.027285697 -0.025787713
-0.0010734454 -0.009848076 -0.10877534 0.04414386 0.0044035427 -0.02666227 0.019880138 -0.15797609
0.06252385 0.12684394 0.024460202 0.06816361 0.0025520558 0.051522728 0.01102808 0.04464401
0.031072093 0.046606194 -0.108479574 0.045304097 0.006051755 -0.05723744 -0.025331141 -0.010548511
0.12193133 -0.10536075 -0.11354367 0.08376098 0.009713806 -0.025694404 0.06691642 0.115686394
-0.03593817 0.012109709 0.01651533 -0.17525163 -0.093450025 -0.06623911 0.2333043 0.016401537
0.041969076 0.062477536 0.047325913 -0.01968932 -0.13596997 -0.15012217 -0.10611033 -0.053058397
0.021363188 -0.06392386 -0.060682915 -0.0060009193 -0.030122409 -0.090187594 -0.03781739 -0.007941679
0.0020596213 0.07679997 0.004661715 0.0025192772 -0.095683776 0.01839672 0.021385314 -0.008701231
-0.0048805424 0.054210648 0.029234821 -0.12665132 -0.06717334 0.018532356 0.1509453 0.007297258
00000000: 18ed aebd cad4 e53d 80aa 943c b149 b1bd
00000010: fc3d 1ebd a18b 8b3c 67cc 013e 1e81 c7bd
00000020: aeaf 063e 6f52 1f3b e370 2f3d d315 abbd
00000030: 74dc 27bd 4f61 663d 6849 e03d 72a5 71bd
00000040: 09c3 1dbe 8bea 39bc 24bd 83bc b741 fcbc
00000050: a88a e7bc a98c eebd 1adb 53bd ba3d 3a3d
00000060: 7a76 9abd 43c8 393c f1b4 efbc 0b79 b5bd
00000070: 42fe b2bd 7953 2c3d 266c 243c 5002 5dbd
00000080: 2eba 3cbe 5ab2 25bd e74d 8f3d f5e6 ccbc
00000090: fff2 5dbd 2d82 0a3d 3265 32bc 581a 98bc
000000a0: 86a8 38bd fd63 97bd 7e1e e1bd dbe7 fbbc
000000b0: aa6e 643d 28eb 323d f979 77bd d649 77bc
000000c0: 40e9 eabd 5ea6 59bd fbab c13d 338b fc3b
000000d0: 0aab d83c 589f 27bd cb78 483b f523 0ebd
000000e0: 9250 963d 4388 c9bc df8b d23d e064 393e
000000f0: 3fd2 2ebe 1e82 5f3d 727d ea3d 2562 41be
00000100: 800c 82bd d81d 55bd c32e fbbc d6b2 8dbd
00000110: 881f a73c 8192 203e b0e4 243d 5f64 45bd
00000120: eb78 b0bd 2b2c 8a3d ca41 273d ddd7 083c
00000130: f655 713d d897 a33d b514 06be c6f1 1a3d
00000140: e872 e7bd d053 093e ee01 d0bc ace6 83bc
00000150: 7926 43bd 4905 abbc 381b 453d 5f8d 9e3d
00000160: 17cc ddba e7e9 243d 2127 ccbd 4650 10bd
00000170: a3b6 183e d8dc 753d d501 0bbe 7180 41be
00000180: 03a2 f03b 492d 23bc 4c57 fa3c 1b04 e4bc
00000190: 8855 72bd 7757 623c 8300 743d 4949 86bd
000001a0: cb85 88bc 36f3 173e 26be c5bc 7b34 733d
000001b0: a6da 78bd 7dd6 943c f17a 76bd 2e34 243e
000001c0: de15 14be a5f0 9d3d d9cb 4a3b 5dc1 81bd
000001d0: 0567 81bc b159 313d 6997 b23d e28b 9abd
000001e0: fe36 bd3a aafe 303e e913 ae3c 24c1 bb3b
000001f0: 8d7d 423d a3a7 90bc 24bf a03b ea39 66bd
00000200: 2252 38bb 1baa d23d 9601 513d b432 91bd
00000210: 9e65 4bbc 40d0 213e e939 dbbc 66aa a2bc
00000220: 1bfb 703e f23f 6d3c dd92 203d 7577 31bd
00000230: 503a 2e3d effe 22bc f590 1c3c 7855 b23d
00000240: 32ff 353d a275 61bd ba41 693d 6373 e5bd
00000250: 0cb0 22bd 529e 6abd 17ef 4abd 9528 9c3c
00000260: e3e7 3bbe dae4 893d 8853 5ebd eca2 d53d
00000270: 54d5 e03d 4cbb a9bd b406 e7bd 1fc8 22bc
00000280: 48c0 c3bd 99da 6f3d f1e1 54be d9a0 95bc
00000290: 0819 9abc 5a3e 22bd 1dec fd3d 6ea6 1dbd
000002a0: 01e8 d03d a9d0 35bd 4558 ef3b df92 f0bb
000002b0: b43e 6b3c 61cc c1bd 7a06 a6bd 007f dbbd
000002c0: 8d04 1e3e f8b1 23be 34c4 873c 8dcd 2bbd
000002d0: 2d87 323c 10f7 c1bb 4186 df3c c140 d3bc
000002e0: dab2 8cba d359 21bc 9bc5 debd 31d0 343d
000002f0: 984b 903b d56a dabc acdb a23c 7cc4 21be
00000300: 810c 803d 61e3 013e c360 c83c 5d99 8b3d
00000310: 6440 273b 7f09 533d 1faf 343c a3dc 363d
00000320: e78a fe3c 23e6 3e3d 8a2a debd ca90 393d
00000330: cd4d c63b ce71 6abd 4183 cfbc a9d3 2cbc
00000340: 22b7 f93d 60c7 d7bd 9589 e8bd e08a ab3d
00000350: a826 1f3c 127d d2bc 7a0b 893d fdec ec3d
00000360: e733 13bd cd67 463c 284b 873c 2a75 33be
00000370: ba62 bfbd 5fa8 87bd 53e7 6e3e 845c 863c
00000380: c4e7 2b3d 72e8 7f3d d1d8 413d 7f4b a1bc
00000390: b63b 0bbe a0b9 19be 5f50 d9bd c353 59bd
000003a0: da01 af3c 83ea 82bd a68e 78bd 5ca3 c4bb
000003b0: 45c3 f6bc 46b4 b8bd 68e6 1abd d11d 02bc
000003c0: b6fa 063b 4d49 9d3d 4dc1 983b 751a 253b
000003d0: dbf5 c3bd b8b4 963c 4130 af3c 9c8f 0ebc
000003e0: f5ec 9fbb fc0b 5e3d dd7d ef3c e2b0 01be
000003f0: 2d92 89bd 2bd1 973c 6891 1a3e d61d ef3b

rnn.rnn.bias_ih_l0 f4 [192]
0.0005405274 0.0030947647 -0.016334444 -0.0026342818 0.031794965 0.008005933 -0.0066632847 -0.0015139942
0.018458972 -0.022145145 -0.010154551 0.006554119 0.01620822 -0.002562579 0.016631791 -0.0070886454
-0.019249683 0.023224158 0.0035785579 0.023691187 -0.0024140761 -0.00901007 -0.019527037 -0.013370861
-0.0010470627 0.032975774 0.0029886088 -0.0084661925 0.031089872 0.007071804 -0.0037400466 -0.007643147
0.014903283 -0.018663261 0.0055733 0.028425695 -0.0017504703 0.020241445 0.009728306 0.0027482803
-0.0018377313 -0.020835117 0.0042701173 0.00259034 0.004936782 0.0050050374 0.02529065 -0.00982961
0.021224633 0.004265392 0.0069028875 0.011316644 0.010094614 0.025013195 0.0039296034 -0.0021656505
0.009490492 -0.0038565844 0.009062145 -0.022387251 0.030581981 -0.016189653 -0.015517482 0.017980734
-0.0076323375 0.0033021984 0.04822111 0.034087468 -0.014703025 0.039068516 0.07652991 0.03967066
0.07813987 0.0057958933 -3.0815354e-05 0.018067032 0.014283097 0.09390427 0.014640665 -0.022206197
0.06242541 -0.030601561 -0.020044016 0.060103223 -0.08025705 0.09383405 0.08680528 0.0033531087
0.013327502 -0.040420167 0.0023347118 -0.00066819094 0.06639352 -0.021005768 0.023244245 0.0011754171
0.07260364 0.096276835 -0.045462195 0.02253275 -0.022516843 -0.0028585847 -0.032483343 0.06516009
0.04643741 -0.01206091 0.007884576 0.10834018 0.08814388 -0.01770519 0.09119634 0.048711054
0.027185557 0.040670864 0.05129438 0.015214736 0.016168147 0.019985992 0.006474091 0.009638671
0.008428382 0.045825675 0.058493756 0.09356747 -0.002117985 0.019788709 0.062395055 -0.01270345
-0.025709026 0.023907652 0.018888203 -0.015892075 0.030168809 -0.023805074 0.0011915192 0.02960554
0.028101232 0.02697473 0.032901414 0.02555967 0.013107797 -0.008157884 0.030299528 -0.02051799
0.010133691 -0.028800739 -0.03027518 0.014110721 -0.024255468 -0.03484057 0.021724418 -0.02330658
0.026778162 -0.016147647 -0.04369486 0.02203086 -0.012535998 -0.022947362 0.0067334888 -0.033754326
0.0029952007 -0.03015779 -0.013651158 0.029149909 0.024258012 0.023823656 0.02361721 -0.025526626
-0.017381659 0.03367988 -0.026745996 0.024914792 0.02495595 -0.026190061 -0.030671692 -0.028275967
0.024016615 -0.009334397 0.006422386 0.024738701 -0.029237919 0.038029842 0.035076883 -0.038852204
0.037404086 0.012159937 0.008580153 0.0023730223 -0.03043564 -0.01898166 0.016061239 0.01613788
00000000: 2eb2 0d3a 89d1 4a3b d0cf 85bc eaa3 2cbb
00000010: 703b 023d 512b 033c af57 dabb 3771 c6ba
00000020: 4537 973c bc69 b5bc 465f 26bc efc3 d63b
00000030: 1ac7 843c f1f0 27bb 653f 883c de47 e8bb
00000040: 83b1 9dbc 9740 be3c 3d86 6a3b 0514 c23c
00000050: 7a35 1ebb f99e 13bc 2af7 9fbc 7511 5bbc
00000060: 983d 89ba 9b11 073d 89dc 433b c9b5 0abc
00000070: 30b0 fe3c 97ba e73b 921b 75bb 5d73 fabb
00000080: e62c 743c b2e3 98bc 3ba0 b63b 01dd e83c
00000090: 0970 e5ba 63d1 a53c 7963 1f3c 7e1c 343b
000000a0: 08e0 f0ba 68ae aabc 57ec 8b3b b2c2 293b
000000b0: bbc4 a13b 4c01 a43b 562e cf3c 5f0c 21bc
000000c0: 48df ad3c b4c4 8b3b 9e31 e23b 7269 393c
000000d0: e163 253c 79e8 cc3c e7c3 803b 96ed 0dbb
000000e0: 027e 1b3c c0be 7cbb 6479 143c 7865 b7bc
000000f0: 1087 fa3c 2aa0 84bc 093d 7ebc 554c 933c
00000100: b018 fabb b269 583b 8083 453d 4d9f 0b3d
00000110: f5e4 70bc 4f06 203d b7bb 9c3d b47d 223d
00000120: cc07 a03d 7aeb bd3b bc3f 01b8 5001 943c
00000130: a703 6a3c e250 c03d 66df 6f3c c5e9 b5bc
00000140: c9b1 7f3d 20b0 fabc 5933 a4bc cc2e 763d
00000150: cf5d a4bd 112c c03d f7c6 b13d d4bf 5b3b
00000160: 985b 5a3c 9e8f 25bd f701 193b 8929 2fba
00000170: 53f9 873d 4a14 acbc b76a be3c 7410 9a3a
00000180: 38b1 943d ca2c c53d 9136 3abd 9a96 b83c
00000190: 3e75 b8bc 1857 3bbb 410d 05bd a772 853d
000001a0: 2735 3e3d 209b 45bc 4f2e 013c 75e1 dd3d
000001b0: c784 b43d 7a0a 91bc 26c5 ba3d 3e85 473d
000001c0: 3fb4 de3c 7e96 263d 0e1a 523d 3a47 793c
000001d0: 1073 843c aab9 a33c 9d24 d43b 84eb 1d3c
000001e0: 3217 0a3c b4b3 3b3d 2697 6f3d 4da0 bf3d
000001f0: e4cd 0abb ee1b a23c f591 7f3d 2222 50bc
00000200: bc9b d2bc fbd9 c33c 6fbb 9a3c 1930 82bc
00000210: 9424 f73c dc02 c3bc c02c 9c3a 5187 f23c
00000220: 8e34 e63c 1cfa dc3c a2c3 063d 8362 d13c
00000230: 16c2 563c a5a8 05bc b736 f83c 5815 a8bc
00000240: c807 263c 87ef ebbc a703 f8bc a730 673c
00000250: 67b3 c6bc fcb4 0ebd 68f7 b13c 71ed bebc
00000260: e05d db3c 1248 84bc 62f9 32bd 107a b43c
00000270: c963 4dbc 1bfc bbbc 99a4 dc3b fa41 0abd
00000280: 214b 443b 780d f7bc 1ba9 5fbc cacb ee3c
00000290: bdb8 c63c d429 c33c e178 c13c 371d d1bc
000002a0: fb63 8ebc eaf3 093d 6b1a dbbc 1b1a cc3c
000002b0: 6c70 cc3c 8a8c d6bc 3343 fbbc 00a3 e7bc
000002c0: 7ebe c43c 4cef 18bc e172 d23b d1a8 ca3c
000002d0: 5c84 efbc 2ec5 1b3d c7ac 0f3d 7d23 1fbd
000002e0: 0735 193d 793a 473c c593 0c3c b584 1b3b
000002f0: 2a54 f9bc 6d7f 9bbc dc92 833c 9633 843c
