onpolicy/results/GraphMPE/navigation_graph/rmappo/crap_bad/run12/models/critic.pt (torch, 199331 bytes, 61 tensors)

gnn_base.gnn.embed_layer.entity_embed.weight f4 [3, 2]
0	0x3f8c1f87	1.0947121
1	0x3f332773	0.6998207
2	0x3f1332b5	0.5749925
3	0xbf5bf9b4	-0.8592789
4	0xbf6ed192	-0.9328853
5	0xbdec01c2	-0.11523773

gnn_base.gnn.embed_layer.lin1.0.weight f4 [16, 9]
0	0xbdc410d3	-0.095735215
1	0x3f21157f	0.62923425
2	0xbeb8eae2	-0.361167
3	0xbd92eee3	-0.0717447
4	0x3eb66fe3	0.35632238
5	0x3ee01f03	0.4377366
6	0xbe9127fb	-0.28350815
7	0xbdc34171	-0.09533966
8	0xbe25b8f5	-0.16183837
9	0x3ea13142	0.31482893
10	0x3e7fce1d	0.2498097
11	0x3eb070af	0.3446097
12	0xbeb4d05f	-0.35315225
13	0xbf056093	-0.52100486
14	0x3ee8d054	0.45471442
15	0x3ddaa67a	0.10676284
16	0xbeeb7c0b	-0.45993075
17	0xbe70e701	-0.23525621
18	0x3e31ef98	0.17376554
19	0xbebd6a71	-0.3699527
20	0xbeac8d49	-0.33701542
21	0xbea57670	-0.32316923
22	0x3f374851	0.7159472
23	0xbebe0663	-0.37114248
24	0xbdf25292	-0.11832155
25	0x3e476903	0.19473653
26	0xbea4dcca	-0.321997
27	0xbf4d0146	-0.8008007
28	0xbdb42214	-0.087955624
29	0xbe36cca5	-0.17851503
30	0xbea1a792	-0.31573159
31	0x3e1580b8	0.14599884
32	0x3f0f09b1	0.5587416
33	0xbd090b7e	-0.033458225
34	0x3e0eb5d8	0.13936555
35	0xbeaa2847	-0.33233854
36	0xbf20470c	-0.6260841
37	0x3e57a58d	0.21059246
38	0x3e1b0f7f	0.1514263
39	0x3ed8068e	0.421925
40	0xbeda8451	-0.42679074
41	0xbd3a89be	-0.045541517
42	0xbe52164a	-0.20516315
43	0x3f1aa098	0.60401297
44	0xbe7a421e	-0.24439284
45	0xbead607b	-0.3386267
46	0x3e92f083	0.2869912
47	0x3e6688f7	0.22513185
48	0x3f33355f	0.7000331
49	0x3ecdfcc9	0.40231922
50	0xbd35cb62	-0.044383414
51	0x3eb19f11	0.3469167
52	0xbd6342f0	-0.05548376
53	0x3e2f22d9	0.17103137
54	0x3ddd3d1f	0.108026735
55	0xbef6aa40	-0.48176765
56	0x3f1a1700	0.60191345
57	0xbdb889e2	-0.09010674
58	0x3ae75cf2	0.0017651601
59	0x3ed217cb	0.41033778
60	0x3e9f395f	0.31098458
61	0x3e5c727f	0.21528052
62	0xbe8f2482	-0.2795754
63	0x3e21cd98	0.15801084
64	0x3e9dc9b4	0.3081795
65	0x3edf4e2e	0.43614334
66	0x3d0dfaf0	0.03466314
67	0x3e0528da	0.13003865
68	0x3d90a75b	0.070631705
69	0xbea2dec5	-0.31810585
70	0x3ecc0573	0.39847907
71	0x3e02b709	0.12765135
72	0xbdff1050	-0.12454283
73	0xbdb93afc	-0.090444535
74	0x3ea20193	0.31641826
75	0x3e83dc8a	0.25754195
76	0xbe34707f	-0.17621039
77	0xbf079f65	-0.5297759
78	0xbf4eac18	-0.80731344
79	0xbeff2082	-0.4982949
80	0xbe79faee	-0.24412128
81	0xbee28627	-0.44242975
82	0x3e928adc	0.28621566
83	0x3ec4f1ce	0.38465732
84	0xbf5edb6d	-0.8705357
85	0xbd9d09e9	-0.07667906
86	0xbeaca734	-0.33721316
87	0x3b37f7be	0.002807125
88	0xbd3655ab	-0.044515293
89	0x3e4bf63c	0.1991815
90	0xbdbb4d33	-0.09145584
91	0xbed113a3	-0.40835294
92	0xbf0d845a	-0.5528008
93	0xbe35bcc0	-0.17747784
94	0xbf0a7608	-0.5408635
95	0x3d5beb2a	0.053691067
96	0xbee147ed	-0.44000188
97	0x3eaf0dfb	0.34190354
98	0x3eddf30c	0.43349493
99	0xbf070d66	-0.5275482
100	0xbe37b717	-0.17940937
101	0xbe144f00	-0.14483261
102	0x3b27fa0e	0.0025631222
103	0x3e361937	0.17783056
104	0x3d9a883a	0.075455144
105	0x3e1a7b13	0.15086012
106	0xbf3ec900	-0.7452545
107	0x3f14a27f	0.5806045
108	0x3e231c39	0.15928735
109	0xbe8a60e7	-0.27027056
110	0x3ebc7187	0.36805364
111	0x3e0269ac	0.12735623
112	0x3eac9da7	0.3371403
113	0x3f26aece	0.6511048
114	0xbf1e32dd	-0.6179636
115	0x3d94503d	0.07241867
116	0x3f21de4b	0.6322982
117	0x3eabff0a	0.33593017
118	0x3f171c30	0.59027386
119	0xbeecdf46	-0.46264094
120	0x3d877c6d	0.06615529
121	0xbdab2c1c	-0.083580226
122	0x3e54a94b	0.20767705
123	0xbe4b8934	-0.19876558
124	0xbd384a7d	-0.044992913
125	0xbd9bcebd	-0.076077916
126	0xbc9eb6b4	-0.019374229
127	0xbeafbf74	-0.34325755
128	0xbe998c0e	-0.29989666
129	0x3edbccdc	0.42929733
130	0xbeba46a7	-0.36382028
131	0x3e6902f6	0.22755036
132	0x3e762d58	0.24040735
133	0xbe5e510f	-0.21710609
134	0xbe1e7094	-0.15472633
135	0xbde659c4	-0.1124759
136	0xbe92ec4b	-0.28695902
137	0x3c8aedec	0.016959153
138	0x3d97f3ba	0.07419534
139	0x3e3b2850	0.18277097
140	0x3e5bb5ae	0.21456024
141	0xbed95662	-0.42448717
142	0xbebe407f	-0.37158582
143	0xbf312ee0	-0.6921215

gnn_base.gnn.embed_layer.lin1.0.bias f4 [16]
0	0xbbff3f21	-0.007789508
1	0xbb268314	-0.0025407718
2	0x3b0b36b6	0.0021242327
3	0xbaf0dbb8	-0.0018376028
4	0x3b50202f	0.0031757464
5	0xbb221210	-0.0024730004
6	0x3a2f795f	0.0006693806
7	0x3b724e0c	0.003697279
8	0xbc833491	-0.016016277
9	0x3c42a355	0.011879762
10	0xbc20df62	-0.009818884
11	0x3b5453d2	0.0032398594
12	0xbb0743df	-0.002063982
13	0xbbf6cc4b	-0.007531678
14	0xbbcc47b6	-0.0062341345
15	0xbb2c488e	-0.0026288363

gnn_base.gnn.embed_layer.lin1.2.weight f4 [16]
0	0x3f7e64e7	0.99372715
1	0x3f7df8c7	0.9920773
2	0x3f7f6216	0.9975904
3	0x3f804c8a	1.0023358
4	0x3f7f9a07	0.998444
5	0x3f805a6d	1.0027596
6	0x3f7f6cd0	0.9977541
7	0x3f7f7596	0.99788797
8	0x3f7da137	0.9907412
9	0x3f80430d	1.0020462
10	0x3f804e64	1.0023923
11	0x3f8109e0	1.0081139
12	0x3f806b90	1.0032825
13	0x3f80b8b6	1.0056369
14	0x3f7ffe0c	0.9999702
15	0x3f8010a4	1.0005078

gnn_base.gnn.embed_layer.lin1.2.bias f4 [16]
0	0xbad57ab2	-0.0016287176
1	0xbb7e899b	-0.0038839343
2	0x3b209f47	0.0024509
3	0xbb2cbf96	-0.0026359311
4	0x3bb917f2	0.0056486065
5	0xbba33c0f	-0.004981525
6	0x3accc9ed	0.0015624143
7	0x3b765b37	0.003759099
8	0xbc1b983a	-0.009496743
9	0x3bca683b	0.006176976
10	0xbbc75169	-0.006082703
11	0x3b6676ab	0.0035165946
12	0xbb02b8c1	-0.0019946548
13	0xbb866b6d	-0.0041021616
14	0xbaf0a340	-0.0018359199
15	0xb954c6ac	-0.00020291907

gnn_base.gnn.embed_layer.lin_h.0.weight f4 [16, 16]
0	0x3cf67d26	0.030088972
1	0x3edc75d4	0.43058646
2	0xbc9f2cdd	-0.019430572
3	0xbebc2002	-0.3674317
4	0x3e5f9490	0.21834016
5	0xbe7bc1cd	-0.24585648
6	0x3e1a38be	0.15060708
7	0x3e8eb8d4	0.27875388
8	0xbf13d784	-0.57750726
9	0x3ef17710	0.4716115
10	0xbf0126ca	-0.5044981
11	0x3e2ac595	0.16676934
12	0xbe5cbb22	-0.2155576
13	0xbe8c28a1	-0.27374747
14	0xbf0fcdc0	-0.56173325
15	0x3ee1db44	0.441126
16	0xbe1d61ba	-0.15369311
17	0x3e4cfa5c	0.2001738
18	0xbee78d4f	-0.45224997
19	0xbe0421b3	-0.1290348
20	0xbe8e62ad	-0.2780966
21	0xbe002a42	-0.1251612
22	0x3d4b54e4	0.049641505
23	0x3f1d4f68	0.6144929
24	0x3cf5f18d	0.030022407
25	0xbeb0fcaa	-0.34567767
26	0xbedc591f	-0.43036744
27	0xbe9fbe54	-0.31199896
28	0xbea07cb7	-0.3134515
29	0xbee569da	-0.4480732
30	0x3e9585c1	0.2920361
31	0xbf2ca4bd	-0.6743887
32	0x3ebf2137	0.37330028
33	0x3e79971a	0.24374047
34	0x3ebfbfa9	0.37450913
35	0x3ef4f4c4	0.4784299
36	0xbe7afca7	-0.24510442
37	0x3f15e942	0.5855905
38	0x3e38ae89	0.1803533
39	0xbca7d680	-0.020488024
40	0x3e886f66	0.2664749
41	0xbe80d269	-0.2516053
42	0xbf4f5ab4	-0.80997777
43	0xbe5a790a	-0.21335235
44	0xbd983325	-0.0743163
45	0x3e8aa3a4	0.27077973
46	0xbe811ea4	-0.2521869
47	0x3e08a41f	0.13343857
48	0x3ea2cc07	0.31796286
49	0x3e4540cf	0.19263004
50	0xbecbb024	-0.39782822
51	0x3e6e4d02	0.23271564
52	0x3e492e12	0.1964648
53	0x3e9ac144	0.30225575
54	0xbf5bf08e	-0.8591393
55	0x3ed6e5c6	0.41972178
56	0xbe57d6d2	-0.21078041
57	0xbedc13bd	-0.4298381
58	0x3e6f9920	0.23398256
59	0xbde1f4df	-0.110330336
60	0x3e8724a3	0.2639514
61	0xbe2e78e5	-0.17038305
62	0xbddadcdd	-0.106866576
63	0x3ee456fe	0.4459762
64	0xbe4f66fb	-0.20254128
65	0x3daa4143	0.08313229
66	0xbe8a9811	-0.27069142
67	0xbd98dd92	-0.07464136
68	0xbe0931d4	-0.13397914
69	0xbebb269e	-0.365529
70	0xbec68410	-0.3877263
71	0xbf56687c	-0.8375318
72	0xbb8b8bb1	-0.004258596
73	0xbf1d65f0	-0.6148367
74	0xbeb47dce	-0.3525223
75	0x3ecbe73b	0.39824852
76	0xbda05677	-0.07828992
77	0xbd9d8e83	-0.076931976
78	0xbed76cb7	-0.4207513
79	0xbe105a6e	-0.14096996
80	0x3f0cdd62	0.55025303
81	0xbe7cc012	-0.24682644
82	0x3edb198a	0.42792922
83	0xbee6e7af	-0.45098636
84	0x3efb1456	0.49038953
85	0x3eb09a60	0.3449278
86	0xbe0a0bc9	-0.13481058
87	0x3c68357e	0.01417291
88	0x3d474419	0.048648927
89	0xbe280b32	-0.1641052
90	0x3e6eb5e5	0.23311575
91	0x3d554560	0.052068114
92	0xbeca33e8	-0.39492726
93	0xbe760bd8	-0.24027956
94	0xbee96a50	-0.45588923
95	0xbf1a770c	-0.603379
96	0x3e5c3193	0.21503286
97	0x3f42a755	0.7603658
98	0x3e82461c	0.25444114
99	0xbe89b63a	-0.2689684
100	0xbc298990	-0.010347739
101	0x3e0f7796	0.14010462
102	0x3ec75922	0.3893519
103	0xbea9b866	-0.33148497
104	0x3dcd0e4b	0.10012492
105	0xbebeb0bf	-0.37244222
106	0x3e9a06d6	0.3008334
107	0x3df4beda	0.119504645
108	0x3b4a9f01	0.0030917528
109	0xbf145f46	-0.57957876
110	0x3f043dfb	0.51657075
111	0x3ea2bb6e	0.31783623
112	0xbdff3e11	-0.1246301
113	0xbf4352eb	-0.762984
114	0x3cf714dc	0.030161314
115	0xbe895827	-0.26825067
116	0x3c0013e4	0.007817242
117	0x3ef9fc80	0.48825455
118	0x3c7f6fbb	0.015590603
119	0xbe75e2c6	-0.24012288
120	0xbf26b633	-0.65121764
121	0xbe3435a2	-0.17598584
122	0xbed3c20b	-0.4135898
123	0xbd3922ea	-0.045199312
124	0xbd36d5e9	-0.044637594
125	0xbe870469	-0.26370552
126	0x3f0104d9	0.5039802
127	0x3e9048e0	0.281806
128	0xbf7c6265	-0.9858764
129	0x3e516e95	0.2045234
130	0xbcc7a4a8	-0.024370506
131	0xbe284d37	-0.16435705
132	0x3e3861ba	0.1800603
133	0x3f4aad32	0.79170525
134	0x3c475800	0.012166977
135	0x3e22b2ae	0.15888473
136	0x3e8918ce	0.26776737
137	0x3bdefad4	0.0068048034
138	0x3d815f77	0.063170366
139	0x3e9eff52	0.3105417
140	0x3e05d55b	0.1306967
141	0xbd85fe3b	-0.06542631
142	0xbe8e6aa3	-0.27815732
143	0xbd63ce21	-0.0556165
144	0xbe00cb6d	-0.12577601
145	0x3e81138d	0.2521023
146	0x3f3a4f67	0.7277741
147	0xbeeca0ea	-0.46216518
148	0xbf20898b	-0.62709874
149	0xbd406a66	-0.04697647
150	0xbf35d6e9	-0.7103105
151	0x3d16d4c6	0.03682401
152	0xbe2248bc	-0.15848058
153	0x3e6af31c	0.22944301
154	0xbda9bc2e	-0.082878456
155	0xbe17108b	-0.14752404
156	0x3ea633a8	0.32461286
157	0x3da946a9	0.082654305
158	0x3e086cff	0.13322829
159	0xbe4bf351	-0.19917037
160	0x3c32f6ed	0.0109231295
161	0x3efce1e7	0.493911
162	0xbe53defd	-0.20690532
163	0x3cb57fea	0.02215572
164	0x3b9a0aa0	0.0047009736
165	0x3e9a36d1	0.30119947
166	0x3be64536	0.0070272936
167	0xbe096caf	-0.13420366
168	0xbf348b65	-0.705252
169	0xbd40c8d5	-0.04706653
170	0x3e725c7e	0.23668095
171	0x3dcf891e	0.10133575
172	0xbefd5f0c	-0.49486578
173	0x3f4d339f	0.8015689
174	0x3e75ec9e	0.24016044
175	0xbe9c0658	-0.3047359
176	0x3db64839	0.08900494
177	0xbde41e09	-0.11138541
178	0xbe8dd241	-0.27699474
179	0xbf142bab	-0.5787913
180	0xbe5e5792	-0.21713093
181	0x3d97e069	0.0741585
182	0xbe9a6eef	-0.3016276
183	0x3d166ce6	0.036724947
184	0x3f29ea56	0.66373193
185	0x3e0e93b5	0.13923533
186	0xbd2ff2f9	-0.042956326
187	0x3ca507aa	0.020145256
188	0xbf3f0bfd	-0.7462767
189	0x3e9341c7	0.28761122
190	0x3e3487d9	0.17629947
191	0x3f09e020	0.5385761
192	0xbef85468	-0.48501897
193	0x3e1939f5	0.14963515
194	0x3edb269e	0.428029
195	0x3e255123	0.16144232
196	0x3f4ad44e	0.792302
197	0xbeaea3d6	-0.34109372
198	0xbe8486d8	-0.25884128
199	0xbdf8c303	-0.121465705
200	0x3d851416	0.06497972
201	0xbe2e2073	-0.17004566
202	0xbe1eccce	-0.15507814
203	0xbf2f544a	-0.6848799
204	0xbea94fbd	-0.33068648
205	0x3db704f3	0.08936491
206	0x3e599430	0.21247935
207	0x3e0b5998	0.13608396
208	0xbe18c052	-0.14917114
209	0xbe5d2a99	-0.21598281
210	0x3f033d05	0.51264983
211	0xbcbe0798	-0.02319698
212	0xbda3b0c1	-0.079926975
213	0xbebb8d8d	-0.36631432
214	0x3e40a196	0.1881164
215	0x3f280ead	0.65647393
216	0xbdbd2df0	-0.092372775
217	0xbf3aee50	-0.73019886
218	0x3d92dbda	0.071708396
219	0x3f151cc5	0.58247024
220	0xbdf4473e	-0.11927651
221	0x3ea0cb3a	0.3140505
222	0x3bfcbe0b	0.0077130846
223	0x3e7e85a0	0.24855661
224	0xbe408d19	-0.18803824
225	0xbda6771a	-0.081281856
226	0x3e8e7137	0.2782075
227	0x3f402f61	0.75072294
228	0xbecab279	-0.3958929
229	0x3d4af9aa	0.049554504
230	0xbe7bcc54	-0.24589664
231	0xbd2254ae	-0.039631538
232	0xbe0ac467	-0.13551484
233	0x3e8c64ce	0.27420658
234	0x3e90e965	0.28303066
235	0x3e61a1f3	0.22034435
236	0xbf3f40c1	-0.7470818
237	0xbf0e7b74	-0.55657125
238	0xbd5d5451	-0.05403549
239	0x3d587c92	0.052853175
240	0xbe4ec8f2	-0.20193842
241	0xbde4df06	-0.11175351
242	0xbd14ad7e	-0.036298268
243	0xbe5b0248	-0.21387589
244	0xbf0105c8	-0.50399446
245	0x3ce6e7b8	0.028186664
246	0x3eb53b0e	0.35396618
247	0xbd9a2579	-0.075266786
248	0xbe5fdf12	-0.21862438
249	0xbeb4258f	-0.35184905
250	0x3ef6381c	0.48089683
251	0xbf4efd50	-0.80855274
252	0xbdccd39a	-0.10001297
253	0x3c27ab74	0.010233749
254	0xbf1f23d7	-0.6216406
255	0x3e7c64a2	0.24647763

gnn_base.gnn.embed_layer.lin_h.0.bias f4 [16]
0	0x00000000	0.0
1	0x00000000	0.0
2	0x00000000	0.0
3	0x00000000	0.0
4	0x00000000	0.0
5	0x00000000	0.0
6	0x00000000	0.0
7	0x00000000	0.0
8	0x00000000	0.0
9	0x00000000	0.0
10	0x00000000	0.0
11	0x00000000	0.0
12	0x00000000	0.0
13	0x00000000	0.0
14	0x00000000	0.0
15	0x00000000	0.0

gnn_base.gnn.embed_layer.lin_h.2.weight f4 [16]
0	0x3f7e64e7	0.99372715
1	0x3f7df8c7	0.9920773
2	0x3f7f6216	0.9975904
3	0x3f804c8a	1.0023358
4	0x3f7f9a07	0.998444
5	0x3f805a6d	1.0027596
6	0x3f7f6cd0	0.9977541
7	0x3f7f7596	0.99788797
8	0x3f7da137	0.9907412
9	0x3f80430d	1.0020462
10	0x3f804e64	1.0023923
11	0x3f8109e0	1.0081139
12	0x3f806b90	1.0032825
13	0x3f80b8b6	1.0056369
14	0x3f7ffe0c	0.9999702
15	0x3f8010a4	1.0005078

gnn_base.gnn.embed_layer.lin_h.2.bias f4 [16]
0	0xbad57ab2	-0.0016287176
1	0xbb7e899b	-0.0038839343
2	0x3b209f47	0.0024509
3	0xbb2cbf96	-0.0026359311
4	0x3bb917f2	0.0056486065
5	0xbba33c0f	-0.004981525
6	0x3accc9ed	0.0015624143
7	0x3b765b37	0.003759099
8	0xbc1b983a	-0.009496743
9	0x3bca683b	0.006176976
10	0xbbc75169	-0.006082703
11	0x3b6676ab	0.0035165946
12	0xbb02b8c1	-0.0019946548
13	0xbb866b6d	-0.0041021616
14	0xbaf0a340	-0.0018359199
15	0xb954c6ac	-0.00020291907

gnn_base.gnn.embed_layer.lin2.0.0.weight f4 [16, 16]
0	0x3bd76314	0.0065730903
1	0x3edca3c2	0.43093687
2	0xbc8b82c0	-0.01703012
3	0xbeca3848	-0.39496064
4	0x3e52f1d0	0.20600057
5	0xbe64f9dc	-0.22360939
6	0x3e2b2012	0.16711453
7	0x3e8cf169	0.2752793
8	0xbf16e328	-0.5894036
9	0x3ef97ea8	0.48729444
10	0xbf04d44e	-0.5188645
11	0x3e33fa1c	0.17575878
12	0xbe6e3382	-0.23261836
13	0xbe96650b	-0.29373965
14	0xbf1261ea	-0.57180655
15	0x3ed533ec	0.41641176
16	0xbe180e57	-0.1484922
17	0x3e4a306c	0.19745034
18	0xbee56821	-0.44806007
19	0xbdffc491	-0.12488664
20	0xbe8b331d	-0.27187434
21	0xbdff28f8	-0.12458986
22	0x3d4ce1c2	0.050019987
23	0x3f1e050e	0.6172646
24	0x3cdf8baa	0.027288277
25	0xbeb121a5	-0.3459598
26	0xbee3e157	-0.44507858
27	0xbea210ec	-0.31653535
28	0xbea28868	-0.31744695
29	0xbee2a10a	-0.44263488
30	0x3e937854	0.2880274
31	0xbf2b5450	-0.66925526
32	0x3ec225e6	0.3791954
33	0x3e82a96b	0.2551988
34	0x3ec26bbd	0.37972823
35	0x3ef90243	0.48634538
36	0xbe7c5ca3	-0.24644713
37	0x3f1357c3	0.5755579
38	0x3e3a4b63	0.1819282
39	0xbcd2f71b	-0.025752595
40	0x3e862628	0.26200986
41	0xbe790e1f	-0.24321793
42	0xbf4cadeb	-0.7995288
43	0xbe5871ee	-0.2113721
44	0xbda7bb9b	-0.0819008
45	0x3e8e1d18	0.27756572
46	0xbe7cb66a	-0.2467896
47	0x3e145619	0.14485969
48	0x3ea66388	0.3249781
49	0x3e464810	0.19363427
50	0xbeca64bf	-0.39529988
51	0x3e721097	0.23639141
52	0x3e4cdf10	0.20006967
53	0x3e9a635d	0.30153933
54	0xbf5ab4e3	-0.8543226
55	0x3ed3a466	0.41336364
56	0xbe5af8c0	-0.21383953
57	0xbedbc44b	-0.42923197
58	0x3e6f16c9	0.23348536
59	0xbdea0085	-0.1142588
60	0x3e859e8d	0.26097527
61	0xbe2c9e6b	-0.16857307
62	0xbde0ad11	-0.1097051
63	0x3ee6738d	0.45010033
64	0xbe478f9d	-0.19488378
65	0x3dabe1cd	0.083926775
66	0xbe89920f	-0.26869246
67	0xbd97b623	-0.07407787
68	0xbe0975f7	-0.13423906
69	0xbeb97692	-0.36223274
70	0xbec53fc3	-0.3852521
71	0xbf55183b	-0.832401
72	0xbbb2dcae	-0.005458436
73	0xbf1c641b	-0.6109025
74	0xbeb77b06	-0.35836047
75	0x3ecab0d1	0.39588025
76	0xbda0f156	-0.07858531
77	0xbda1a80b	-0.0789338
78	0xbedf5cfd	-0.43625632
79	0xbe0c8398	-0.13722074
80	0x3f0ae318	0.5425277
81	0xbe81d554	-0.2535807
82	0x3eda0115	0.4257895
83	0xbee73c08	-0.45162988
84	0x3efbaa07	0.49153158
85	0x3eb3be87	0.35106298
86	0xbe120fe4	-0.14263874
87	0x3bb619f8	0.005557295
88	0x3d5d707b	0.054062348
89	0xbe32d3db	-0.17463629
90	0x3e787861	0.24264671
91	0x3d3a0370	0.045413435
92	0xbec93ffe	-0.39306635
93	0xbe79fed9	-0.24413623
94	0xbee5f2dd	-0.44911852
95	0xbf1c0403	-0.6094362
96	0x3e5c5e53	0.21520357
97	0x3f45699f	0.7711429
98	0x3e7cb9b1	0.2468021
99	0xbe876f66	-0.26452178
100	0xbbfe4ea8	-0.0077608414
101	0x3e0fb730	0.14034724
102	0x3ec0711c	0.37586296
103	0xbea74eb5	-0.32677236
104	0x3dcd346e	0.10019766
105	0xbec0f38e	-0.37685817
106	0x3e977b26	0.29586142
107	0x3df8447d	0.12122438
108	0x3bae4c68	0.005319167
109	0xbf14e340	-0.58159256
110	0x3f0529f0	0.52017117
111	0x3ea3ce4c	0.3199333
112	0xbe02d043	-0.12774758
113	0xbf41a67e	-0.7564467
114	0x3cd05238	0.02542983
115	0xbe8c0fa2	-0.27355677
116	0x3b513269	0.0031920916
117	0x3ef990bd	0.4874324
118	0x3c785082	0.015155913
119	0xbe7646a0	-0.24050379
120	0xbf270021	-0.6523457
121	0xbe3c717c	-0.18402666
122	0xbed21413	-0.4103094
123	0xbd258b09	-0.040415797
124	0xbd2da709	-0.042395625
125	0xbe8870eb	-0.2664865
126	0x3f024b9a	0.5089661
127	0x3e8eef60	0.27917004
128	0xbf7b16dc	-0.98081756
129	0x3e5fbd77	0.21849619
130	0xbce79aa9	-0.02827199
131	0xbe267548	-0.16255677
132	0x3e398519	0.18117179
133	0x3f4d8d95	0.8029416
134	0x3ba9fddb	0.0051877326
135	0x3e298976	0.16556343
136	0x3e82512f	0.25452563
137	0xbbf106dd	-0.0073555545
138	0x3d5c1e3f	0.053739782
139	0x3ea2f3d4	0.3182665
140	0x3e0af479	0.13569821
141	0xbd726fff	-0.05918884
142	0xbe891d8b	-0.26780352
143	0xbd61fbb4	-0.055171683
144	0xbdfbbd2f	-0.12291943
145	0x3e7f423f	0.24927615
146	0x3f3a0e19	0.7267776
147	0xbeed909b	-0.46399388
148	0xbf211b86	-0.6293262
149	0xbd59f571	-0.053212587
150	0xbf36af0d	-0.71360856
151	0x3d1c1d45	0.03811385
152	0xbe1e0b88	-0.15434086
153	0x3e6d7493	0.23189001
154	0xbda06b76	-0.078329965
155	0xbe17932b	-0.14802234
156	0x3ea6e5d1	0.3259721
157	0x3da30e5a	0.07961722
158	0x3e056257	0.13025795
159	0xbe4eb733	-0.20187072
160	0x3c5991bc	0.013279375
161	0x3ef7faa9	0.48433426
162	0xbe500087	-0.20312701
163	0x3cbc9a28	0.023022726
164	0x3a676d6b	0.0008828255
165	0x3e99fb4d	0.3007454
166	0x3c02f5bd	0.007993159
167	0xbe096318	-0.13416708
168	0xbf33bd2e	-0.7021054
169	0xbd0c6eb5	-0.034285266
170	0x3e719c5e	0.23594806
171	0x3dc8c304	0.09802821
172	0xbefa544d	-0.4889244
173	0x3f4d3a6f	0.8016729
174	0x3e6e5730	0.23275447
175	0xbe9b244c	-0.3030113
176	0x3db29ace	0.08720933
177	0xbdd599aa	-0.104297
178	0xbe8d78c1	-0.2763119
179	0xbf1328f2	-0.5748435
180	0xbe5b1fc5	-0.21398838
181	0x3da744fe	0.08167456
182	0xbe98340a	-0.29727203
183	0x3d1a94f4	0.03773971
184	0x3f27de86	0.6557392
185	0x3dfda13f	0.12384271
186	0xbd48f5b5	-0.04906245
187	0x3c9dbca7	0.019254996
188	0xbf408158	-0.7519736
189	0x3e960270	0.29298735
190	0x3e39c749	0.18142428
191	0x3f0a14c6	0.5393795
192	0xbefa98cd	-0.48944703
193	0x3e10f4a3	0.14155822
194	0x3ee4abc9	0.44662312
195	0x3e0b4095	0.13598855
196	0x3f473c40	0.7782631
197	0xbeb4d37d	-0.35317603
198	0xbe7d51ad	-0.24738188
199	0xbdf65e91	-0.12029756
200	0x3d9f2faa	0.07772763
201	0xbe17f6e2	-0.14840272
202	0xbe25bdc6	-0.16185674
203	0xbf37a098	-0.7172942
204	0xbea84f1b	-0.32872853
205	0x3d9fbdd8	0.07799882
206	0x3e4fb1af	0.20282625
207	0x3e0b674d	0.13613625
208	0xbe17d024	-0.14825493
209	0xbe5afcb5	-0.21385463
210	0x3f01cfe5	0.50707847
211	0xbccc42e9	-0.024934249
212	0xbdaa17d5	-0.08305327
213	0xbebd81cf	-0.370131
214	0x3e38ec60	0.1805892
215	0x3f298bd5	0.6622899
216	0xbdb37b58	-0.0876376
217	0xbf3b6c59	-0.732122
218	0x3d86ca08	0.06581503
219	0x3f16c415	0.5889295
220	0xbdee4376	-0.11633961
221	0x3e9ebfff	0.31005856
222	0x3c3d163c	0.011540946
223	0x3e824937	0.25446483
224	0xbe460983	-0.19339566
225	0xbda55c84	-0.080742866
226	0x3e85fc75	0.26169172
227	0x3f405a7f	0.75138086
228	0xbec7aa9c	-0.38997352
229	0x3d66008b	0.05615286
230	0xbe827a7a	-0.25484067
231	0xbd3b0c7c	-0.045666203
232	0xbe075a3c	-0.13218015
233	0x3e891258	0.26771808
234	0x3e9b6a9f	0.30354783
235	0x3e662714	0.22475845
236	0xbf3e6e98	-0.743875
237	0xbf0e2662	-0.5552732
238	0xbd44eafa	-0.048075654
239	0x3d3ff70e	0.04686647
240	0xbe48efb3	-0.19622688
241	0xbdd9345e	-0.106056914
242	0xbd1041ec	-0.035219118
243	0xbe56512b	-0.209294
244	0xbefd127d	-0.49428168
245	0x3d08e2e0	0.03341949
246	0x3eb79d0b	0.35862002
247	0xbdacde8a	-0.084408835
248	0xbe69614f	-0.22791027
249	0xbeb764b5	-0.3581902
250	0x3ef5607f	0.47925183
251	0xbf4ea4f4	-0.8072045
252	0xbdd6be14	-0.10485473
253	0x3ca7706d	0.020439351
254	0xbf1d78aa	-0.61512244
255	0x3e8108d9	0.25202063

gnn_base.gnn.embed_layer.lin2.0.0.bias f4 [16]
0	0x3cd93d04	0.026518352
1	0xbb9bebe8	-0.004758347
2	0xbc2eeb9e	-0.010676293
3	0xbb5b5a4a	-0.0033470565
4	0xbaf79506	-0.0018889017
5	0x3ba17e5b	0.004928393
6	0xbbbe0572	-0.005798989
7	0x3b6e80ca	0.0036392682
8	0xb8382f3d	-4.3913013e-05
9	0x3ae34eea	0.0017342244
10	0xba344a91	-0.00068775663
11	0xbb751a35	-0.0037399654
12	0x3bac907c	0.0052662473
13	0x3b45aaa4	0.0030161524
14	0x3b91da88	0.0044511
15	0xbbab93e4	-0.005236136

gnn_base.gnn.embed_layer.lin2.0.2.weight f4 [16]
0	0x3f800a58	1.0003157
1	0x3f7ddc27	0.9916405
2	0x3f7ef261	0.9958859
3	0x3f7fbbf3	0.9989616
4	0x3f7eb872	0.9950019
5	0x3f7eef4a	0.99583876
6	0x3f82a31c	1.0206027
7	0x3f7e40fb	0.993179
8	0x3f80035c	1.0001025
9	0x3f80216c	1.00102
10	0x3f7ca9d7	0.98696655
11	0x3f7e8b18	0.9943099
12	0x3f7e6933	0.9937927
13	0x3f808926	1.0041854
14	0x3f7f022a	0.9961268
15	0x3f80ce16	1.0062892

gnn_base.gnn.embed_layer.lin2.0.2.bias f4 [16]
0	0x3c583134	0.013195325
1	0x3a6363dc	0.0008674243
2	0xbb72b8df	-0.0037036461
3	0xbb3b3508	-0.0028565545
4	0xba270623	-0.0006371459
5	0x3b9208ab	0.0044565997
6	0xbb972f06	-0.00461376
7	0x3b8903c5	0.0041813576
8	0x3b323eb4	0.0027198019
9	0x3b5b327f	0.0033446846
10	0x3b0ebe01	0.0021780732
11	0x3b184a96	0.0023237816
12	0x3c1c63d9	0.00954529
13	0x3ab2b9b7	0.001363567
14	0x3b5afc81	0.0033414664
15	0xbb9c3211	-0.0047667106

gnn_base.gnn.gnn1.lin_key.weight f4 [48, 16]
0	0xbd1ce0a3	-0.038300168
1	0x3e1f1e92	0.15539005
2	0xbdeb4cbf	-0.114892475
3	0xbe09dfe4	-0.13464314
4	0xbda83c08	-0.08214575
5	0xbe363723	-0.1779447
6	0xbe4baf3b	-0.19891064
7	0x3da67302	0.08127405
8	0xbe56d589	-0.20979895
9	0xbe77125c	-0.24128097
10	0x3d29e6f2	0.041480012
11	0xbe1a16be	-0.15047738
12	0xbdb3ed8b	-0.08785542
13	0x3e734ce0	0.23759794
14	0xbdc1232e	-0.09430538
15	0xbd2c7bfd	-0.042110432
16	0xbcae8d60	-0.021307647
17	0xbd39479f	-0.04523432
18	0x3c418b68	0.011813022
19	0xbcbe7e17	-0.023253484
20	0xbe3154c8	-0.17317498
21	0x3e522658	0.2052244
22	0x3d6d6053	0.05795319
23	0x3e0ee749	0.13955416
24	0xbe4eb464	-0.20186001
25	0x3ddf1899	0.108933635
26	0xbe5640f0	-0.20923209
27	0x3e55d978	0.20883739
28	0xbdad33d9	-0.08457155
29	0xbe1c25ec	-0.15248841
30	0xbe59910e	-0.2124674
31	0xbe70ab76	-0.23502907
32	0xbd71cb3f	-0.05903172
33	0x3e418044	0.18896586
34	0x3e33cc03	0.17558293
35	0x3cf49e3e	0.029860612
36	0xbdb89576	-0.090128824
37	0xbe847255	-0.25868478
38	0x3e1826e4	0.14858586
39	0x3e5ac59f	0.21364449
40	0x3e1e720d	0.15473194
41	0xbdd60ea5	-0.10452012
42	0x3de76f25	0.11300496
43	0x3e0e6c89	0.1390859
44	0x3d0992f0	0.033587396
45	0xbe19bebf	-0.1501417
46	0x3d78b2c7	0.06071737
47	0x3de4bedb	0.11169215
48	0xbe49b1a3	-0.1969667
49	0x3dbb7c1b	0.091545306
50	0xbe6ed75c	-0.2332434
51	0x3e1a4dd0	0.15068746
52	0x3e373fc7	0.17895423
53	0xbc21c8f6	-0.009874573
54	0x3e7d27b2	0.24722174
55	0x3dc7b3b7	0.09751075
56	0x3e03d067	0.12872468
57	0xbe2bf721	-0.16793491
58	0x3d1c1616	0.038107
59	0xbdf0705e	-0.11740182
60	0x3d4c9fb1	0.04995698
61	0xbdfa0d69	-0.12209589
62	0x3cb032f4	0.021508671
63	0x3d85d6ac	0.06535086
64	0xbe0593d9	-0.1304468
65	0x3c2380d7	0.009979448
66	0xbe35526d	-0.17707224
67	0x3d0bd5f8	0.034139603
68	0x3a024d6a	0.0004970642
69	0xbe6d5648	-0.23177445
70	0x3dd02c62	0.10164715
71	0xbe6f378b	-0.23361032
72	0xbe628b7c	-0.22123522
73	0x3e1b5014	0.15167266
74	0xbd6f21f1	-0.05838198
75	0x3da13feb	0.078735195
76	0x3d286003	0.04110719
77	0xbe4f0c22	-0.20219472
78	0xbdd7a081	-0.105286606
79	0x3e5c687c	0.21524233
80	0x3e4ce1e9	0.20008053
81	0xbd73d635	-0.059530456
82	0x3c9c28df	0.019062458
83	0xbe6da414	-0.23207122
84	0xbe54ca51	-0.20780303
85	0x3e23084f	0.15921138
86	0x3e7809c9	0.24222483
87	0xbe329b47	-0.17442046
88	0x3d970fe2	0.07376076
89	0x3daeb97e	0.085314736
90	0x3d0c4787	0.0342479
91	0x3db59c84	0.088677436
92	0xbe1a4ad9	-0.15067615
93	0xbe45d38c	-0.1931898
94	0xbe0de74e	-0.13857767
95	0x3e54f334	0.207959
96	0x3b73c8e6	0.0037198602
97	0x3e21abf9	0.15788259
98	0xbe1c63f2	-0.15272501
99	0xbd98f6b4	-0.0746893
100	0xbe2d1ff6	-0.16906723
101	0x3d568623	0.052374016
102	0x3cd6fcfe	0.026243683
103	0xbc4a0459	-0.012330138
104	0x3c594068	0.013259985
105	0xbd82b9e2	-0.063831106
106	0x3e2ea3c5	0.1705466
107	0xbdd27b65	-0.10277442
108	0x3daeafe0	0.08529639
109	0x3e10c700	0.14138412
110	0xbdf0cb28	-0.11757499
111	0x3e1b3549	0.15157045
112	0x3e256d96	0.16155085
113	0x3dded7d1	0.108810075
114	0xbda28bcf	-0.079368226
115	0xbde60106	-0.11230664
116	0xbe5fc882	-0.21853831
117	0xbdff8b2a	-0.12477715
118	0x3d4fc8f2	0.050728746
119	0xbde18db7	-0.11013358
120	0x3de1bc87	0.11022287
121	0xbdea0d5d	-0.1142833
122	0xbdebfe0d	-0.11523066
123	0xbe7443d5	-0.23854001
124	0xbe282055	-0.16418584
125	0xbe6e7d5c	-0.23290008
126	0x3e2ee988	0.17081273
127	0x3def8bad	0.11696563
128	0xbde56226	-0.11200361
129	0xbe39d809	-0.18148817
130	0x3e3adacd	0.18247528
131	0xbddbb976	-0.10728733
132	0x3e4e51e3	0.20148425
133	0xbe5e563c	-0.21712583
134	0xbd39ef69	-0.045394335
135	0x3e073986	0.13205537
136	0x3e3e3aa1	0.18577053
137	0xbe69b3f5	-0.22822554
138	0x3dee1182	0.11624433
139	0xbc937309	-0.017999189
140	0x3de02096	0.10943715
141	0x3e07722d	0.13227148
142	0xbe73cae2	-0.23807862
143	0x3e7abb2c	0.24485463
144	0x3d024fbb	0.03181432
145	0x3d8c98bf	0.068650715
146	0xbde59db9	-0.11211724
147	0x3e7aa62a	0.24477449
148	0x3ca5aef1	0.02022502
149	0x3e5ece0b	0.21758287
150	0x3dbf4680	0.09339619
151	0xbe54329c	-0.20722431
152	0x3e7acc7e	0.2449207
153	0x3de0e911	0.10981954
154	0x3e074039	0.13208093
155	0xbdcc4146	-0.099733874
156	0x3daaa9ee	0.08333193
157	0x3dbc35c5	0.09189943
158	0xbe49dba8	-0.19712698
159	0x3d242de6	0.040082835
160	0xbe099b23	-0.13438086
161	0x3e1b0eef	0.15142415
162	0xbd9ee992	-0.07759394
163	0x3d96fcf8	0.07372469
164	0xbe42580c	-0.189789
165	0xbe71266f	-0.23549818
166	0xbe61eff3	-0.2206419
167	0xbcee005f	-0.029052911
168	0x3da96b81	0.08272458
169	0x3d791b6f	0.06081718
170	0x3bf6d2bc	0.0075324457
171	0xbe831df2	-0.25608784
172	0xbe42255c	-0.18959564
173	0x3e222701	0.15835191
174	0xbdf1aabc	-0.11800143
175	0x3d70bf99	0.05877647
176	0xbc771af7	-0.0150821125
177	0xbd5f356c	-0.054494306
178	0xbdbc868d	-0.09205351
179	0x3de0e3a9	0.10980923
180	0xbe507147	-0.20355712
181	0xbe3c3760	-0.18380499
182	0x3e0ffe76	0.14061913
183	0xbe280c3e	-0.1641092
184	0xbc4bc3ee	-0.01243685
185	0xbe442a71	-0.19156815
186	0x3d9b2aa0	0.075764894
187	0xbd15b77e	-0.036551945
188	0x3dc12da7	0.094325356
189	0xbe561238	-0.20905387
190	0xbe000d2b	-0.12505023
191	0xbd711047	-0.058853414
192	0xbdb8af0a	-0.09017761
193	0xbc9ce7af	-0.019153444
194	0x3a14d5b6	0.00056775974
195	0xbe112b59	-0.14176692
196	0xb8f94983	-0.00011886938
197	0xbe514ed5	-0.20440228
198	0xbcfe9ccf	-0.031080632
199	0xbe643a81	-0.22287942
200	0x3dfc4d76	0.12319462
201	0x3e62a48a	0.22133079
202	0x3e636ba2	0.22209027
203	0x3e11019b	0.14160769
204	0xbe594343	-0.21217065
205	0x3e627637	0.22115408
206	0xbe59d4f1	-0.21272637
207	0xbe387f00	-0.18017197
208	0xbd55898c	-0.052133128
209	0x3ddc900c	0.10769662
210	0x3e74f67c	0.23922151
211	0x3e2ca0e7	0.16858254
212	0x3e2e5097	0.1702293
213	0xbe054647	-0.1301509
214	0xbe38584e	-0.18002436
215	0xbdca35d9	-0.09873552
216	0xbdb360c1	-0.08758689
217	0x3e28dfe5	0.16491659
218	0xbe5d838c	-0.21632212
219	0xbdb60480	-0.08887577
220	0x3cbb1ebe	0.022841807
221	0x3e685822	0.2268987
222	0xbd93afb0	-0.07211244
223	0x3e64e741	0.22353841
224	0xbe050a3f	-0.1299219
225	0x3e456438	0.19276512
226	0xbe651da6	-0.22374591
227	0x3cd6e61d	0.026232773
228	0x3e627bba	0.2211751
229	0x3bfba5ec	0.0076796915
230	0x3e6076a1	0.21920253
231	0x3ca1e853	0.019764101
232	0xbe1210a4	-0.1426416
233	0xbdf0b256	-0.11752765
234	0xbdc7368a	-0.097271994
235	0xbe75e2eb	-0.24012344
236	0xbe0b0284	-0.13575178
237	0xbda150d6	-0.07876746
238	0xbe80ba6a	-0.25142223
239	0x3cf04614	0.02933029
240	0xbd8e6023	-0.069519304
241	0x3dbe43ec	0.09290299
242	0x3e6ceca1	0.23137142
243	0x3d80f295	0.06296269
244	0x380523f2	3.1743148e-05
245	0xbbfc8103	-0.007705809
246	0xbdf3f06f	-0.119110934
247	0xbcadfde6	-0.021239232
248	0xbcd0b13a	-0.025475133
249	0x3be78a6f	0.007066063
250	0x3d6f6394	0.058444574
251	0xbe2f6fba	-0.17132464
252	0xbd1fac4c	-0.038982674
253	0xbe4d947c	-0.20076174
254	0xbd06dc14	-0.032924727
255	0xbe3fbe24	-0.18724877

gnn_base.gnn.gnn1.lin_key.bias f4 [48]
0	0x3e2715be	0.16316888
1	0x3da18c04	0.07888034
2	0x3d37dbd8	0.044887394
3	0xbdf24d34	-0.118311316
4	0xbd9fd6c4	-0.07804635
5	0x3cd97510	0.026545078
6	0xbd01ddb8	-0.031705588
7	0x3e1d6556	0.15370688
8	0x3e0742dc	0.13209099
9	0x3e733ec0	0.23754406
10	0x3db08c64	0.086205274
11	0xbe24a250	-0.16077542
12	0x3e5fd4a0	0.21858454
13	0x3c97464e	0.018466141
14	0xbe68ba54	-0.22727329
15	0x3e311034	0.17291337
16	0xbe230ca8	-0.15922797
17	0x3e2a9008	0.16656506
18	0x3d195090	0.037430346
19	0xbe29d17a	-0.16583815
20	0x3e26dce0	0.16295195
21	0xbd21a0b8	-0.039459914
22	0xbe3f3ce6	-0.18675575
23	0x3e1e85b2	0.15480688
24	0xbe1b0cf8	-0.15141666
25	0x3d9236bf	0.07139348
26	0x3e0b6050	0.13610959
27	0x3dcec625	0.10096387
28	0x3d8cde99	0.06878395
29	0x3df234e0	0.11826491
30	0xbe492204	-0.19641882
31	0xbdf989c8	-0.12184483
32	0x3e02552a	0.127278
33	0x3e3fd5c2	0.18733886
34	0x3d3eda5f	0.046594974
35	0x3cf98c97	0.030462546
36	0xbe4ad6dc	-0.19808525
37	0xbd474470	-0.04864925
38	0xbe00f6ac	-0.12594098
39	0x3e79bf3a	0.24389353
40	0x3e7d83d8	0.24757326
41	0x3d3b4702	0.045722015
42	0x3e4c14bc	0.19929785
43	0x3c9f833f	0.019471763
44	0xbd932d9c	-0.07186434
45	0xbe390cfa	-0.18071356
46	0x3e5896a8	0.21151221
47	0x3d92500c	0.07144174

gnn_base.gnn.gnn1.lin_query.weight f4 [48, 16]
0	0xbd4416ba	-0.047873236
1	0xbe2dff51	-0.16991927
2	0x3e34c7f8	0.17654407
3	0x3df19de7	0.117976956
4	0xbe0d052f	-0.13771509
5	0x3e6cff55	0.23144276
6	0xbe3c9d6b	-0.18419425
7	0xbd1cc23f	-0.038271185
8	0x3c8e368b	0.017359992
9	0x3e597924	0.21237618
10	0x3d4e7c09	0.050411258
11	0x3e320076	0.17382988
12	0xbe26a2d9	-0.16273059
13	0x3e074a12	0.1321185
14	0x3e51bb09	0.20481504
15	0xbe21d6a3	-0.15804534
16	0xbd76b99b	-0.0602356
17	0x3de8b005	0.11361698
18	0x3d824645	0.06361059
19	0x3d1e7eeb	0.038695257
20	0xbd405565	-0.04695644
21	0xbd66e748	-0.05637291
22	0x3e34999e	0.17636725
23	0xbda54ffe	-0.08071898
24	0x3d409a18	0.047021955
25	0xbe2c42b2	-0.16822317
26	0xbe3d9b4a	-0.1851627
27	0xbe44f521	-0.19234134
28	0x3e79da1b	0.24399607
29	0xbd94995a	-0.07255812
30	0xbe0f9804	-0.14022833
31	0x3d31fa5e	0.04345166
32	0x3e58265d	0.21108384
33	0x3cdde960	0.027088821
34	0x3dbdf04a	0.09274347
35	0x3d948692	0.0725223
36	0x3e51c8e9	0.20486797
37	0x3dc24701	0.09486199
38	0xbe49e637	-0.19716726
39	0x3b54fc3e	0.003249898
40	0x3e58f016	0.21185336
41	0xbe6e6f2c	-0.23284596
42	0xbd94cdaa	-0.0726579
43	0xbe75b8ba	-0.23996249
44	0xbe62cb91	-0.22147967
45	0x3dd1661e	0.102245554
46	0x3e5c60b4	0.21521264
47	0x3e5fe7e1	0.21865799
48	0xbdbdfd48	-0.09276825
49	0x3e3b8e0d	0.18315907
50	0xbe41c98f	-0.18924545
51	0xbe5ca8e3	-0.215488
52	0x3e48d518	0.19612539
53	0x3ddb0763	0.10694768
54	0x3d00a3fc	0.031406388
55	0xbe44032b	-0.19141833
56	0x3883edf8	6.290892e-05
57	0x3e5f0e21	0.21782734
58	0xbdd7100c	-0.105011076
59	0x3e230dec	0.1592328
60	0xbdfbd478	-0.122963846
61	0xbe67d421	-0.22639515
62	0x3e61e970	0.22061706
63	0xbe75b55e	-0.23994967
64	0xbddd5837	-0.10807841
65	0xbce26d78	-0.02764009
66	0x3e48c195	0.19605096
67	0xbbbb5c17	-0.005717765
68	0xbd69002f	-0.05688494
69	0x3e18752f	0.14888452
70	0xbd456fd4	-0.04820235
71	0x3e317703	0.17330556
72	0x3e5f795d	0.2182364
73	0x3dc1a455	0.09455172
74	0x3cd78235	0.026307205
75	0x3e46dd94	0.19420463
76	0xbe744333	-0.2385376
77	0xbe7cbc8e	-0.24681303
78	0x3d8fde4c	0.07024822
79	0xbe1ea105	-0.15491112
80	0xbe58af49	-0.21160616
81	0xbd85aacd	-0.06526718
82	0xbe202ef1	-0.15642907
83	0x3d2a672e	0.041602306
84	0xbe123721	-0.14278843
85	0x3b2f3396	0.0026733628
86	0x3e05a131	0.13049771
87	0xbe08b0fe	-0.13348767
88	0x3e4d7da9	0.20067467
89	0xbdd3877b	-0.10328575
90	0x3e450968	0.1924187
91	0xbe1062b7	-0.14100157
92	0xbe2ad6ca	-0.16683498
93	0x3dec4ee8	0.11538488
94	0x3e74880f	0.23880027
95	0xbe054b33	-0.13016967
96	0xbe69bd47	-0.2282611
97	0xbe075793	-0.13217
98	0x3e139d1f	0.14415406
99	0xbe49dbd2	-0.19712761
100	0xbd910f22	-0.070829645
101	0xbe5faea6	-0.21843967
102	0xbc57651d	-0.013146666
103	0x3e30a6c5	0.17251118
104	0x3b76be05	0.0037649882
105	0xbc4fbb91	-0.012678997
106	0xbcfcb806	-0.030849468
107	0x3e6ac3c3	0.2292624
108	0x3d400bd5	0.046886284
109	0x3ccb2ab1	0.02480063
110	0x3d3e6faf	0.04649323
111	0x3c8056c9	0.015666382
112	0x3e4124ac	0.18861645
113	0x3e3c717a	0.18402663
114	0x3d8f5b0c	0.06999788
115	0x3e05e57c	0.13075823
116	0xbe507571	-0.203573
117	0xbe502dc1	-0.20329954
118	0xb9a3adfd	-0.00031219414
119	0x3d9fba1c	0.077991694
120	0x3d46cc09	0.048534427
121	0x3dfcfb2d	0.123525955
122	0x3e63436a	0.22193685
123	0xbe6fab06	-0.23405084
124	0xbe7ddc0a	-0.2479097
125	0x3c44680c	0.011987697
126	0xbe228358	-0.15870416
127	0x3dba0280	0.09082508
128	0x3d66685f	0.05625188
129	0x3ba64853	0.0050745397
130	0x3cbcca07	0.023045553
131	0x3c9a9b96	0.018873017
132	0xbe68f272	-0.22748736
133	0x3df4c524	0.11951664
134	0x3da5e8c7	0.081010394
135	0x3e7f5f70	0.2493875
136	0x3d697fdc	0.0570067
137	0x3d0a31b7	0.033738818
138	0x3c5a01dc	0.013306107
139	0xbd3701c7	-0.04467943
140	0x3daa7539	0.0832314
141	0x3d0ec892	0.034859248
142	0x3e74fdc0	0.23924923
143	0xbe0ac57b	-0.13551895
144	0xbe10c5d6	-0.14137968
145	0x3e5488d7	0.20755325
146	0x3e00a8d5	0.12564404
147	0x3cf8fb64	0.03039331
148	0x3e5b0ecc	0.21392363
149	0xbc1b5725	-0.009481226
150	0x3daccfbc	0.0843806
151	0x3d6ce186	0.057832263
152	0x3c75e09d	0.015007165
153	0x3e253ef4	0.16137296
154	0xbe0c0074	-0.13672048
155	0xbda9325e	-0.0826156
156	0x3e3acd86	0.18242463
157	0x3e09c307	0.13453303
158	0x3dbfe45c	0.09369728
159	0x3dff7108	0.12472731
160	0x3e27eaaa	0.16398111
161	0xbc4fd01b	-0.012683894
162	0x3e7c6426	0.24647579
163	0x3d8678c9	0.06566007
164	0xbd5e6634	-0.054296687
165	0x3decf93a	0.11570974
166	0x3db750f0	0.089509845
167	0xbe35561c	-0.1770863
168	0x3c531e58	0.0128856525
169	0x3d758e3f	0.05995011
170	0x3e30c513	0.17262678
171	0xbe53f449	-0.20698656
172	0xbe3e3847	-0.18576156
173	0xbe4d13a6	-0.20027027
174	0x3e0a9b84	0.13535887
175	0x3c1e3e2a	0.009658376
176	0xbe717f96	-0.23583826
177	0xbe30aea6	-0.17254123
178	0x3e58266c	0.21108407
179	0x3e007a91	0.12546755
180	0x3e4223b6	0.18958935
181	0xbe801070	-0.2501254
182	0xbdca1ee7	-0.098691754
183	0x3d82918a	0.063754156
184	0x3deb6798	0.11494368
185	0x3e58909c	0.21148914
186	0xbe6b39bd	-0.22971244
187	0x3e080dce	0.13286516
188	0x3d2ab70b	0.04167847
189	0x3e8412c4	0.25795567
190	0xbe5a81a3	-0.21338515
191	0x3b4cd965	0.0031257507
192	0xbe77df8e	-0.24206373
193	0xbd99055d	-0.07471726
194	0x3e020345	0.1269656
195	0x3e2b1da9	0.16710533
196	0xbe68d40d	-0.22737141
197	0x3c9a2894	0.018818177
198	0x3e588875	0.21145804
199	0xbd30fc11	-0.04320914
200	0xbd08b0d8	-0.033371776
201	0x3d1eb329	0.03874508
202	0xbc2a640b	-0.010399829
203	0xbc4cef3d	-0.012508211
204	0x3e5f82de	0.21827266
205	0xbdce8ad4	-0.10085073
206	0xbe6a3476	-0.22871575
207	0x3e53bd49	0.20677675
208	0xbdb6c7d1	-0.08924831
209	0xbdd4e703	-0.103956245
210	0xbdacc82f	-0.084366195
211	0x3e1a385c	0.15060562
212	0x3c30b696	0.010785719
213	0x3e12a03c	0.14318937
214	0xbe26fa18	-0.1630634
215	0xbdcc03e8	-0.099616826
216	0xbe34dbb0	-0.17661929
217	0x3e397e41	0.18114568
218	0xbe6c836f	-0.23097013
219	0xbe6c3c2f	-0.23069833
220	0x3e1928d3	0.1495698
221	0xbe131ba7	-0.14366017
222	0x3e5ab6f3	0.21358852
223	0xbe427a7a	-0.18992034
224	0xbc1a681d	-0.009424237
225	0x3dc53ac8	0.09630352
226	0x3e16a9ba	0.14713183
227	0xbdc9d0ef	-0.09854304
228	0xbd6fb7e7	-0.058524992
229	0x3db54915	0.0885183
230	0xbe03836f	-0.12843107
231	0xbe09c2ee	-0.13453266
232	0x3e1a1361	0.15046455
233	0x3d9bf7e6	0.07615642
234	0xbe60584c	-0.21908683
235	0xbc554eca	-0.013019273
236	0x3db599e6	0.088672444
237	0xbe811139	-0.25208452
238	0xbde8f2e1	-0.113744505
239	0xbe6b6b97	-0.22990261
240	0xbe82d8f8	-0.2555616
241	0xbde8c077	-0.11364835
242	0x3e620309	0.2207147
243	0x3bb1ae1d	0.0054223672
244	0xbc68a12f	-0.014198585
245	0x3d395ecc	0.04525642
246	0x3d5502e2	0.052004702
247	0x3a9e02e6	0.0012055307
248	0x3dde060c	0.10840997
249	0xbd921a28	-0.07133895
250	0x3e7edb32	0.24888304
251	0x3c5ac0a1	0.01335159
252	0xbdb706ce	-0.08936845
253	0xbc905c2f	-0.017622082
254	0x3e13f53b	0.14449017
255	0xbe2d9374	-0.1695078

gnn_base.gnn.gnn1.lin_query.bias f4 [48]
0	0x3e26c096	0.16284403
1	0xbe1fdc49	-0.15611376
2	0xbe37ee2b	-0.17961948
3	0xbe0f8882	-0.14016917
4	0x3e117dc4	0.14208132
5	0xbd4ebec6	-0.050474904
6	0x3e5dc9ac	0.21658963
7	0xbe568b36	-0.20951542
8	0x3da687e6	0.08131389
9	0xbdaac422	-0.083381906
10	0x3d26beaa	0.040709175
11	0x3e2209ee	0.158241
12	0x3e08b085	0.13348587
13	0xbe70f014	-0.23529083
14	0xbd020474	-0.031742528
15	0x3dd86f33	0.105680846
16	0xbe8000e4	-0.2500068
17	0xbe3a22a2	-0.18177274
18	0xbe81245a	-0.25223047
19	0x3cf1b3c0	0.029504657
20	0x3d72dd07	0.05929282
21	0xbdd1bd64	-0.102412015
22	0x3db223bb	0.08698221
23	0x3cfcf5d6	0.030878942
24	0x3ddb3472	0.107033625
25	0x3e580908	0.21097195
26	0xbe34f558	-0.17671716
27	0xbe4d4e7d	-0.20049472
28	0x3e75a6c9	0.23989405
29	0xbdec9cb1	-0.11553324
30	0x3e33bc18	0.17552221
31	0xbda29540	-0.079386234
32	0xbd5d5afb	-0.054041844
33	0xbde7f0d5	-0.11325232
34	0x3d9ae82e	0.07563816
35	0xbc5a3bf7	-0.013319961
36	0x3e4bdc1b	0.19908182
37	0xbe7ad0f1	-0.24493767
38	0xbc259fab	-0.010108869
39	0x3d10d3c1	0.035358194
40	0x3d9cb890	0.0765239
41	0x3e4329be	0.19058892
42	0x3dbb232f	0.0913757
43	0xbe5acf34	-0.21368104
44	0x3d138948	0.036019593
45	0xbdd234f6	-0.10264008
46	0x3e1dc56c	0.15407342
47	0xbde28aff	-0.11061668

gnn_base.gnn.gnn1.lin_value.weight f4 [48, 16]
0	0xbd0a1dbb	-0.03371976
1	0x3d82e2f3	0.063909434
2	0x3e2c8f49	0.16851534
3	0xbdf3f79d	-0.11912463
4	0x3e392f6d	0.18084498
5	0xbe325644	-0.1741572
6	0xbd76b8ae	-0.060234718
7	0xbe25e8a8	-0.16202033
8	0x3d38b6d6	0.04509624
9	0xbe54a6ba	-0.20766726
10	0xbc14efa6	-0.00909034
11	0xbe2f7332	-0.17133787
12	0x3e2a733a	0.16645518
13	0xbe63100e	-0.22174093
14	0xbdddad91	-0.10824121
15	0xbe5a3b45	-0.21311672
16	0xbe219506	-0.15779504
17	0x3ce1cda7	0.027563883
18	0x3e0566e3	0.1302753
19	0x3df8d6b4	0.12150326
20	0xbe50d2ee	-0.20392963
21	0xbd12e7b5	-0.035865504
22	0xbd5f6ec3	-0.05454899
23	0x3deb6a5e	0.11494897
24	0xbd05b952	-0.03264744
25	0xbd61d87b	-0.055138092
26	0xbe251d08	-0.16124356
27	0xbe2c5248	-0.16828263
28	0xba9fe244	-0.001219817
29	0x3e076703	0.1322289
30	0xbe041dc9	-0.12901987
31	0x3d4b34bf	0.04961085
32	0x3e21c7c2	0.15798858
33	0xbdea5eff	-0.114439
34	0x3e5480b4	0.20752221
35	0x3e471d7a	0.19444838
36	0x3dfc3a36	0.1231579
37	0x3d964775	0.07337848
38	0xbe573dbf	-0.21019648
39	0x3e018728	0.12649214
40	0xbc615118	-0.013752244
41	0x3e5f4a2c	0.21805638
42	0xbe4c10ae	-0.19928238
43	0x3ca50f16	0.020148795
44	0x3e52ead4	0.20597392
45	0x3d0dc94f	0.03461581
46	0x3ddb9cc9	0.10723264
47	0x3d14a871	0.03629345
48	0xbde598eb	-0.112108074
49	0x3e06f882	0.13180736
50	0x3e4f14df	0.20222805
51	0x3e06c813	0.1316226
52	0xbe3147fd	-0.17312618
53	0xbe2859b5	-0.1644047
54	0x3e7732b4	0.24140435
55	0xbcf1214f	-0.029434828
56	0x3dc9398e	0.09825431
57	0x3d81f789	0.06346042
58	0xbe2ae68a	-0.16689506
59	0x3e6047f7	0.21902452
60	0x3d4c19bc	0.04982923
61	0xbdea54d9	-0.11441965
62	0x3e72b6c0	0.23702526
63	0x3da92a9e	0.08260082
64	0x3d894bff	0.06703948
65	0xbe1e8c29	-0.15483154
66	0x3e65b249	0.22431292
67	0xbdf6a9a9	-0.12044079
68	0xbdd27f45	-0.10278181
69	0xbe76947b	-0.24080078
70	0x3db7c704	0.08973506
71	0xbe1caaf6	-0.15299591
72	0xbe783c1f	-0.24241684
73	0x3e28ff00	0.16503525
74	0xbe58584b	-0.21127431
75	0xbd53a1e2	-0.051668055
76	0xbdafe24c	-0.085880846
77	0x3cc5adc7	0.024130715
78	0x3d08fd68	0.033444792
79	0x3e6403d1	0.22267081
80	0x3d9fc431	0.078010924
81	0xbdc11c9d	-0.09429286
82	0xbe27835f	-0.16358708
83	0xbd8be6e9	-0.06831152
84	0x3e1b8206	0.15186319
85	0xbe7abe98	-0.24486768
86	0x3daebdc4	0.08532289
87	0x3bb7dde7	0.0056111696
88	0xbdc8b153	-0.09799447
89	0x3e2ea90d	0.17056675
90	0x3e0a8b45	0.1352969
91	0x3c75f011	0.01501085
92	0xbe0ede27	-0.13951932
93	0xbe2a74d3	-0.16646127
94	0xbd8c856c	-0.06861386
95	0xbe18ca93	-0.14921026
96	0xbd631a2d	-0.055444885
97	0x3dc5f696	0.09666173
98	0xbc77dab3	-0.015127826
99	0x3d22db43	0.039759886
100	0xbdb33be1	-0.08751655
101	0xbd8b0380	-0.06787777
102	0x3e209bde	0.15684459
103	0xbcf0773f	-0.029353736
104	0x3d2978e5	0.04137506
105	0xbe3f4596	-0.18678889
106	0xbe0af9d0	-0.13571858
107	0x3e3addd2	0.1824868
108	0x3ba9eef4	0.005185956
109	0x3e845647	0.25847074
110	0xbdb93784	-0.09043792
111	0x3df2c8ab	0.11854681
112	0x3df2d2fb	0.118566476
113	0xbe56ff37	-0.20995794
114	0xbe0b8eff	-0.13628767
115	0x3e52bc59	0.20579661
116	0xbdb94c8b	-0.090478025
117	0xbe672dff	-0.2257614
118	0x3e386216	0.18006167
119	0x3e704e49	0.23467363
120	0x3e1f104a	0.15533558
121	0x3e19088c	0.14944667
122	0xbdae57ec	-0.085128635
123	0x3e5d737b	0.21626084
124	0xbdd83c11	-0.10558332
125	0x3dd36704	0.10322383
126	0xbe72a61c	-0.23696178
127	0x3e65efbd	0.22454734
128	0xbe455adb	-0.1927294
129	0xbe5518ff	-0.20810317
130	0x3dd6b9ad	0.104846336
131	0x3e669e3c	0.22521299
132	0xbe3f670f	-0.18691657
133	0x3e711289	0.23542227
134	0x3d5fb8d9	0.054619644
135	0x3dec762f	0.11545979
136	0x3d074fe0	0.03303516
137	0xbe869714	-0.26287138
138	0x3e643221	0.22284748
139	0x3e457b3c	0.19285291
140	0x3e10af43	0.14129357
141	0x3cd5f1f1	0.026116343
142	0x3dbc4f43	0.091948055
143	0xbb1c7442	-0.0023873006
144	0x3d9bf754	0.076155335
145	0xbd04d267	-0.032427218
146	0x3e733682	0.23751262
147	0xbdae9e85	-0.08526329
148	0xbd27e2ec	-0.040987894
149	0x3d998cd5	0.07497565
150	0x3e602eab	0.21892802
151	0xbe119f74	-0.14220983
152	0xbde44f5c	-0.11147949
153	0xbe5e3be5	-0.21702535
154	0x3e397b7e	0.18113515
155	0x3e7232f3	0.23652248
156	0x3d5746e6	0.05255785
157	0xbe51c5d5	-0.20485623
158	0xbe44c8e6	-0.19217262
159	0x3e48eae1	0.19620849
160	0x3d4eca12	0.050485678
161	0x3d85f7b1	0.06541384
162	0xbe212c66	-0.15739593
163	0xbe5b09ce	-0.21390459
164	0xbe03ef5c	-0.12884277
165	0xbe7666c3	-0.24062638
166	0x3e27a744	0.163724
167	0x3d895f8c	0.06707677
168	0xbe4c1f1c	-0.19933742
169	0x3e8321a2	0.25611597
170	0xbd8704cf	-0.06592714
171	0x3e05e9f7	0.13077532
172	0x3d30d52a	0.04317204
173	0x3d9ce78e	0.07661353
174	0xbca2ae38	-0.019858465
175	0x3c177648	0.009244509
176	0xbe190fab	-0.14947383
177	0x3dbbade2	0.09164025
178	0x3d1819c1	0.037133936
179	0x3e3b7849	0.18307604
180	0xbe41679d	-0.18887182
181	0x3dcfddb1	0.10149706
182	0x3da7a21e	0.08185218
183	0x3bbc1ae0	0.0057405084
184	0xbe1e4a80	-0.15458107
185	0xbe1205ee	-0.14260074
186	0x3e40ec0c	0.18840045
187	0x3e2908c5	0.16507252
188	0x3de624eb	0.1123751
189	0xbe63e2ff	-0.22254561
190	0xbe314919	-0.17313041
191	0x3d92f261	0.07175136
192	0x3e7f971e	0.2495999
193	0xbe7346a8	-0.23757422
194	0x3d850965	0.064959325
195	0xbe76bf3e	-0.2409639
196	0xbe7b79bd	-0.24558158
197	0xbe3b7ddf	-0.18309735
198	0xbe038ed4	-0.12847453
199	0xbe1e1372	-0.15437105
200	0xbe18aa79	-0.1490878
201	0x3c8814c1	0.016611459
202	0xbd748d56	-0.0597051
203	0x3e1cd096	0.15313944
204	0x3d7597d1	0.059959237
205	0xbdcba104	-0.09942821
206	0xbe28b03f	-0.16473483
207	0x3e45ba4f	0.19309352
208	0xbb273a4e	-0.002551693
209	0x3d756006	0.05990603
210	0x3df99cf2	0.12188138
211	0xbd41dc35	-0.047329146
212	0xbe02e88d	-0.12784024
213	0x3c28dac3	0.010306063
214	0xbe19ef6e	-0.15032741
215	0x3df82d38	0.12118
216	0x3dba26c9	0.09089429
217	0xbe0515b2	-0.12996557
218	0xbda7507c	-0.08169648
219	0x3d51fb73	0.05126519
220	0x3d1bbefa	0.038023926
221	0x3d256656	0.0403808
222	0xbe0659b7	-0.13120161
223	0x3d42a1ce	0.04751759
224	0xbdd15561	-0.10221363
225	0x3d236465	0.039890666
226	0x3c6779d2	0.014128165
227	0x3c9202f1	0.017823668
228	0xbdd45a54	-0.10368791
229	0xbe4a42e3	-0.19752078
230	0xbe422d4d	-0.18962593
231	0x3d4785c2	0.048711546
232	0x3de2a4e4	0.11066607
233	0xbd6fb0d6	-0.058518253
234	0x3e328f49	0.17437471
235	0xbdca5358	-0.09879178
236	0x3e0637a1	0.13107158
237	0x3d2dc14a	0.042420663
238	0x3e666d98	0.22502744
239	0x3e3f24f9	0.18666448
240	0xbda87ac2	-0.08226539
241	0xbaf51da5	-0.0018700851
242	0xbe421bc8	-0.1895591
243	0x3e15ea95	0.14640267
244	0xbd673fab	-0.056457203
245	0xbe489220	-0.19586992
246	0xbdd97067	-0.10617142
247	0xbe68c8f7	-0.22732912
248	0xbd9381bc	-0.07202479
249	0xbda76ea0	-0.08175397
250	0xbe78736f	-0.24262784
251	0x3d8e1b2a	0.06938775
252	0xbe39cb39	-0.1814393
253	0x3d59fed3	0.053221535
254	0xbdf4021f	-0.11914467
255	0x3cb707e3	0.022342628

gnn_base.gnn.gnn1.lin_value.bias f4 [48]
0	0x3e0a0287	0.13477527
1	0xbdef3daf	-0.11681687
2	0xbde167cc	-0.11006126
3	0xbe560151	-0.2089894
4	0x3de2020f	0.11035549
5	0x3e51c87a	0.20486632
6	0x3d70a6ef	0.05875295
7	0x3e461cbb	0.19346897
8	0xbe43fb4d	-0.19138832
9	0xbe7b7191	-0.24555041
10	0x3dcf3db2	0.10119189
11	0xbe046f76	-0.12933144
12	0x3e4ad194	0.1980651
13	0xbc624924	-0.013811383
14	0x3d0c392b	0.034234207
15	0x3da27a18	0.07933444
16	0xbe5088d1	-0.20364691
17	0xbd81f6b0	-0.0634588
18	0x3e3a8162	0.18213418
19	0xbdb2f8bc	-0.087388486
20	0x3d62c7c9	0.05536631
21	0xbdfbdabf	-0.12297582
22	0x3d06b1d2	0.032884426
23	0xbe041759	-0.12899531
24	0xbd83af24	-0.0642989
25	0x3e087855	0.13327153
26	0x3b11622e	0.0022183764
27	0x3e142cb5	0.1447018
28	0x3e11fb72	0.14256075
29	0x3e48dc62	0.1961532
30	0xbd89f96c	-0.067370266
31	0x3d4c339c	0.049853906
32	0x3d5b50b9	0.05354378
33	0xbe23943e	-0.15974519
34	0x3e14bdab	0.14525478
35	0xbe22ef97	-0.15911709
36	0xbe55c7c8	-0.20876992
37	0x3e789e0f	0.24279045
38	0x3cd14392	0.025544915
39	0x3e25e5a3	0.1620088
40	0x3e55732b	0.20844714
41	0xbe5967bd	-0.2123098
42	0xbe459148	-0.19293702
43	0x3d24c87e	0.040230267
44	0x3d0c026c	0.034181997
45	0xbcac01e4	-0.020996995
46	0xbe19752c	-0.14986104
47	0x3d6bf9bc	0.057611212

gnn_base.gnn.gnn1.lin_edge.weight f4 [48, 1]
0	0x3f03b14b	0.514424
1	0xbf33655e	-0.7007655
2	0x3f2df67b	0.67954224
3	0xbd814082	-0.06311132
4	0x3f5514b8	0.8323474
5	0xbb32e65d	-0.0027297952
6	0x3e6a2f05	0.22869499
7	0xbf070f8e	-0.5275811
8	0xbe95d2f3	-0.29262504
9	0x3e2b7e2a	0.16747347
10	0x3e1c0586	0.15236482
11	0x3f306911	0.6891032
12	0xbf19aa33	-0.6002533
13	0x3e62f89a	0.22165146
14	0xbf051a5e	-0.5199336
15	0xbe4b3271	-0.1984346
16	0xbf278ef8	-0.6545253
17	0x3f404840	0.75110245
18	0x3f2b2da4	0.6686652
19	0xbf5cb682	-0.86215985
20	0xbf43bb1e	-0.76457393
21	0x3ea8c60f	0.32963607
22	0xbf413d04	-0.7548373
23	0xbedd90e5	-0.43274608
24	0xbf7cca7a	-0.98746455
25	0xbf361dca	-0.71139205
26	0x3f3f9d16	0.7484907
27	0xbf17b018	-0.5925307
28	0x3f249f4b	0.6430556
29	0x3e895ee4	0.26830208
30	0xbf2dbea3	-0.67869014
31	0xbe6bd19d	-0.2302918
32	0xbd89c8ef	-0.06727778
33	0x3f2982e9	0.6621538
34	0xbf6e2a2f	-0.9303312
35	0x3f475d35	0.778766
36	0xbf73196f	-0.94960684
37	0xbf38b4f1	-0.72151095
38	0xbf2b2fbd	-0.6686972
39	0x3eaceb5e	0.3377332
40	0xbf33dace	-0.70255744
41	0xbf4a45a3	-0.7901251
42	0x3ebea921	0.3723841
43	0xbf3ec763	-0.7452299
44	0xbf3486a1	-0.7051793
45	0x3f61c94b	0.88197774
46	0x3f11d8a1	0.56971174
47	0xbf390697	-0.7227568
