onpolicy/results/MPE/navigation/rmappo/crap_bad/wandb/offline-run-20221029_142816-3l6zknye/files/actor.pt (torch, 143987 bytes, 22 tensors)

base.feature_norm.weight f4 [6]
1.002896 1.0550855 1.0289675 0.97244513 0.950263 1.0082065
00000000: e55e 803f 0b0d 873f 35b5 833f 2af2 783f
00000010: 7044 733f e90c 813f

base.feature_norm.bias f4 [6]
-0.0016560717 0.00045980135 0.0081337085 0.013139647 -0.013522794 -0.010337642
00000000: 8c10 d9ba 7e11 f139 3f43 053c ad47 573c
00000010: b58e 5dbc 375f 29bc

base.mlp.fc1.0.weight f4 [64, 6]
-0.19723007 -0.06540648 0.34314495 -0.11415063 0.45707315 -0.12952118 -0.11951986 0.29868236
-0.008831777 -0.13662879 0.18732552 0.25986132 0.086055346 0.2553149 0.09544684 0.117226906
0.00887658 -0.2198481 -0.08622357 0.114950255 0.12146224 -0.058550853 0.0054567372 -0.028989328
-0.31758222 0.10769996 -0.22424376 -0.04417882 -0.018990519 -0.063299574 0.2561047 -0.45476815
-0.19943778 0.09056799 0.019221462 -0.38238078 -0.056152064 0.2256856 0.3457114 -0.28204086
-0.06879154 0.09889678 0.07519494 -0.08371172 -0.23857318 0.28249696 -0.068523124 0.079364486
0.100224875 0.001378154 -0.24690925 -0.18484238 -0.052949976 -0.102901675 -0.16128387 0.04245525
-0.07032491 0.075421154 -0.2893083 -0.3116962 0.048704144 -0.28677532 0.1529443 -0.2123643
-0.06284716 -0.1602409 -0.16513497 0.17603494 0.06606464 -0.06478171 0.24020907 -0.05001901
-0.076456286 -0.0058508744 -0.2319071 0.20249589 0.12749533 0.21958376 -0.06997546 0.08455936
-0.1490319 -0.015505089 -0.20130064 -0.3317335 0.0043277005 -0.09108814 -0.050845433 0.019635221
0.08874885 0.11933964 0.6106264 -0.1468233 0.19419312 -0.02884573 0.08068545 0.056714203
0.21663924 0.1450382 0.020412164 -0.31497005 -0.12709238 -0.327518 -0.018034618 0.011497887
-0.03510984 0.35029143 0.04102454 0.032353394 0.073685244 0.3315652 0.068427764 -0.16537741
0.054901093 0.04614058 0.103841394 0.05887256 0.0014646545 0.17726761 -0.1136879 0.185653
-0.057539605 -0.033011653 -0.15945081 -0.1794756 0.036546253 0.30263042 0.013262781 -0.07345091
-0.17742896 0.036259722 -0.19074258 -0.1765319 0.13692252 0.08293469 -0.029156886 0.20007229
0.10763718 0.008007202 -0.16631855 -0.45331833 -0.23361006 0.07978183 -0.03683419 0.07852799
0.07390862 -0.1999154 0.12395365 0.36397707 0.08618861 -0.15302376 0.090058796 -0.13018498
0.03200484 0.47088853 0.29854557 -0.09196538 0.06597615 0.47314793 -0.43470407 0.27205235
0.09787731 -0.11758007 0.122960895 -0.029809028 0.013180571 0.14835298 -0.15948896 0.3650657
-0.1650041 -0.06217417 -0.10394639 0.052598797 0.25715053 -0.05022487 -0.17217624 0.057649743
-0.114707746 -0.06342168 -0.20746526 -0.13970627 0.0039387145 0.18636096 0.27155057 -0.070420295
-0.13218822 -0.043085247 -0.427992 0.107737295 0.023955906 0.033226676 0.119322546 -0.15221414
0.059740633 -0.18052314 0.03850018 -0.014639436 0.08551101 0.23222442 0.0697796 -0.04144713
0.09098992 0.18598583 -0.17820299 0.16812536 -0.11371604 0.36508 0.09071569 0.2814926
-0.1030995 0.48053926 -0.15231529 0.15996751 -0.097291365 0.050944913 0.32500628 -0.0005627578
-0.063724816 -0.06153153 0.080129765 -0.14524364 0.035196364 -0.10965095 0.010614402 0.044327695
0.19417787 0.15295501 -0.17502178 -0.37041157 -0.0010976278 0.09163702 -0.28713378 0.047562376
-0.040557235 0.2645163 0.086940184 0.08773506 -0.18008636 -0.21873951 0.12881953 0.0931645
0.193888 0.21723 -0.106052496 -0.14667141 -0.07269475 -0.23762366 0.2544833 -0.05722782
-0.21334262 0.12042446 -0.08184577 -0.03082536 0.29412445 -0.32005584 0.0062873526 0.12190228
00000000: aef6 49be d5f3 85bd b2b0 af3e cec7 e9bd
00000010: 7e05 ea3e 33a1 04be d4c6 f4bd e5ec 983e
00000020: 28b3 10bc 6be8 0bbe 43d2 3f3e 8b0c 853e
00000030: c93d b03d a2b8 823e a279 c33d a914 f03d
00000040: 136f 113c dc1f 61be fc95 b0bd 0a6b eb3d
00000050: 32c1 f83d 05d3 6fbd 6ece b23b 077b edbc
00000060: 239a a2be cc91 dc3d 28a0 65be daf4 34bd
00000070: 0192 9bbc 35a3 81bd 2820 833e 5fd7 e8be
00000080: 6b39 4cbe b67b b93d 5476 9d3c 6ac7 c3be
00000090: b5ff 65bd 201a 673e 1601 b13e a967 90be
000000a0: 94e2 8cbd 658a ca3d ceff 993d 0d71 abbd
000000b0: 874c 74be 71a3 903e da55 8cbd d989 a23d
000000c0: b342 cd3d 2da3 b43a c7d5 7cbe 5247 3dbe
000000d0: 13e2 58bd 1dbe d2bd 9927 25be 8ee5 2d3d
000000e0: 8206 90bd 6876 9a3d 3820 94be a596 9fbe
000000f0: ff7d 473d 37d4 92be 6e9d 1c3e 0776 59be
00000100: 03b6 80bd 3116 24be 2419 29be 8142 343e
00000110: e64c 873d 46ac 84bd 5ef9 753e bce0 4cbd
00000120: 1d95 9cbd b1b8 bfbb 0e79 6dbe 155b 4f3e
00000130: 238e 023e 91da 603e 4b4f 8fbd 752d ad3d
00000140: d29b 18be 0f09 7ebc c121 4ebe f9d8 a9be
00000150: 62cf 8d3b 6b8c babd 4d43 50bd 0bda a03c
00000160: f5c1 b53d 5768 f43d 0352 1c3f d958 16be
00000170: 90da 463e e14d ecbc 6a3e a53d 274d 683d
00000180: add6 5d3e e584 143e 6937 a73c c143 a1be
00000190: 8124 02be 70b0 a7be 56bd 93bc a261 3c3c
000001a0: 56cf 0fbd 6659 b33e 5909 283d fe84 043d
000001b0: 4ae8 963d eac2 a93e db23 8c3d b258 29be
000001c0: f8df 603d e8fd 3c3d ccaa d43d 5a24 713d
000001d0: a6f9 bf3a a485 353e 34d5 e8bd d21b 3e3e
000001e0: a6ae 6bbd 3a37 07bd 1347 23be 74c8 37be
000001f0: 86b1 153d 60f2 9a3e 234c 593c 6e6d 96bd
00000200: f0af 35be 1385 143d 0652 43be c7c4 34be
00000210: 6b35 0c3e aad9 a93d 6cda eebc c0df 4c3e
00000220: e270 dc3d a430 033c 694f 2abe 5719 e8be
00000230: 7a37 6fbe a864 a33d 73df 16bd 48d3 a03d
00000240: 675d 973d 9fb6 4cbe 69db fd3d 345b ba3e
00000250: a783 b03d 43b2 1cbe bf70 b83d 364f 05be
00000260: 8217 033d 4d18 f13e f7da 983e 5858 bcbd
00000270: 811e 873d 7240 f23e 8891 debe 724a 8b3e
00000280: e673 c83d d2cd f0bd ecd2 fb3d 1032 f4bc
00000290: 52f3 573c d8e9 173e 1351 23be e4e9 ba3e
000002a0: d6f6 28be 58aa 7ebd d8e1 d4bd d671 573d
000002b0: 3ca9 833e 98b8 4dbd f84e 30be 2322 6c3d
000002c0: e5eb eabd 3ae3 81bd c671 54be 290f 0fbe
000002d0: 5510 813b 68d5 3e3e ad08 8b3e 8438 90bd
000002e0: 595c 07be 287a 30bd c421 dbbe 5fa5 dc3d
000002f0: 2d3f c43c b218 083d 615f f43d 06de 1bbe
00000300: 98b2 743d 0fdb 38be 5db2 1d3d 3fda 6fbc
00000310: 6520 af3d 3dcc 6d3e 9be8 8e3d 77c4 29bd
00000320: ec58 ba3d 1273 3e3e d87a 36be 0e29 2c3e
00000330: f5e3 e8bd c4eb ba3e 26c9 b93d cc1f 903e
00000340: d525 d3bd 3e09 f63e 8af8 1bbe 86ce 233e
00000350: b240 c7bd 9dab 503d 3967 a63e 0986 13ba
00000360: 2882 82bd 7c08 7cbd 131b a43d c0ba 14be
00000370: 102a 103d ad90 e0bd 07e8 2d3c f590 353d
00000380: 90d6 463e 3da0 1c3e e938 33be 96a6 bdbe
00000390: 47de 8fba 31ac bb3d 3303 93be c4d0 423d
000003a0: 581f 26bd ae6e 873e b20d b23d 70ae b33d
000003b0: 8f68 38be 40fd 5fbe 44e9 033e 08cd be3d
000003c0: 938a 463e 8b71 5e3e 0d32 d9bd 0831 16be
000003d0: fce0 94bd 9e53 73be a34b 823e b867 6abd
000003e0: 7d76 5abe 19a1 f63d c19e a7bd 7785 fcbc
000003f0: 7b97 963e 5cde a3be 2306 ce3b e7a7 f93d

base.mlp.fc1.0.bias f4 [64]
-0.03424903 -0.0060699563 0.0358255 0.04288136 -0.01727068 0.059079956 -0.030724 -0.02515661
0.020587778 -0.06431789 -0.0060332315 0.02934175 -0.011876108 -0.017683996 -0.03294952 -0.0155660175
-0.033935137 -0.010903929 0.0074682166 0.029364327 -0.06154991 0.033733223 -0.03766836 -0.025524031
0.051158134 -0.00768318 0.034056574 -0.0014832428 -0.045045167 0.083180994 0.031769168 -0.013683017
-0.009826376 -0.0033168036 0.021497523 -0.03764181 -0.031654563 -0.00079553056 -0.0074298955 -0.002593512
0.033577714 -0.036884055 -0.015850741 0.009923566 -0.03274291 0.010070774 0.0031422297 0.0016535724
0.072679326 0.040472686 0.017202277 0.039377034 0.015105005 -0.008375102 -0.05763283 -0.026547533
0.01784505 0.012999116 -0.012193642 -0.041458886 0.014522112 -0.008295042 0.020181336 -0.024548087
00000000: b648 0cbd 7ce6 c6bb c2bd 123d 5da4 2f3d
00000010: 3e7b 8dbc d3fd 713d e6b0 fbbc 3c15 cebc
00000020: b3a7 a83c 19b9 83bd 6ab2 c5bb 1c5e f03c
00000030: 0294 42bc 07de 90bc 13f6 06bd 9c08 7fbc
00000040: 92ff 0abd 65a6 32bc f1b7 f43b 758d f03c
00000050: c21b 7cbd d92b 0a3d 234a 1abd c617 d1bc
00000060: 318b 513d 2fc3 fbbb e87e 0b3d 5f69 c2ba
00000070: 4881 38bd cc5a aa3d 6320 023d bc2e 60bc
00000080: cffe 20bc bb5e 59bb 931b b03c 4c2e 1abd
00000090: 37a8 01bd 278b 50ba 7b76 f3bb e9f7 29bb
000000a0: c988 093d bc13 17bd 6ad9 81bc 7496 223c
000000b0: 6e1d 06bd e3ff 243c deed 4d3b afbc d83a
000000c0: e6d8 943d b0c6 253d caeb 8c3c d049 213d
000000d0: fc7a 773c b937 09bc 6710 6cbd 367a d9bc
000000e0: c82f 923c 3ffa 543c d7c7 47bc cbd0 29bd
000000f0: 27ee 6d3c eee7 07bc 5453 a53c 1219 c9bc

base.mlp.fc1.2.weight f4 [64]
1.0342715 1.0408934 0.98130965 1.0047846 1.0293922 1.0514928 0.9720544 0.9946877
0.9882341 0.9760012 1.0044107 1.0212984 0.9684781 0.9619328 1.001547 0.9835958
0.9704224 0.9600584 1.0063647 1.0077325 0.9386177 0.9643505 1.0106258 1.0188103
1.024258 1.0211225 1.0426011 1.0093205 0.9415903 0.96891683 0.991637 0.99677676
1.0043827 0.99197054 1.0590588 1.0182568 1.0216562 1.0113215 1.0194331 0.9973617
1.0539793 0.9928372 0.96655667 1.0056827 0.9893499 1.0544684 1.0186133 1.0158366
1.0411762 0.9935092 0.9954731 0.96909994 1.010594 0.9868201 1.0090172 0.98341846
1.0108757 0.98088866 0.9535104 0.9460989 1.0354493 0.9817277 0.9886378 1.0214484
00000000: 0263 843f ff3b 853f 1c37 7b3f c89c 803f
00000010: 20c3 833f 5197 863f 8fd8 783f daa3 7e3f
00000020: e9fc 7c3f 37db 793f 8890 803f e8b9 823f
00000030: 2eee 773f 3a41 763f b132 803f efcc 7b3f
00000040: 9a6d 783f 63c6 753f 8fd0 803f 61fd 803f
00000050: 4049 703f addf 763f 305c 813f 6068 823f
00000060: e31a 833f 24b4 823f f473 853f 6a31 813f
00000070: 100c 713f ef0a 783f ecdb 7d3f c32c 7f3f
00000080: 9d8f 803f c8f1 7d3f 3d8f 873f 3d56 823f
00000090: a1c5 823f fc72 813f c97c 823f 1953 7f3f
000000a0: cbe8 863f 942a 7e3f 4270 773f 36ba 803f
000000b0: 0946 7d3f d2f8 863f ec61 823f ef06 823f
000000c0: 4345 853f 9e56 7e3f 53d7 7e3f ef16 783f
000000d0: 255b 813f 3ea0 7c3f 7a27 813f 50c1 7b3f
000000e0: 6064 813f 851b 7b3f 4219 743f 8a33 723f
000000f0: 9a89 843f 8252 7b3f 5e17 7d3f d2be 823f

base.mlp.fc1.2.bias f4 [64]
-0.009377838 -0.004074232 -0.013300476 0.004530359 -0.014186445 0.008820995 -0.025279714 -0.04883169
0.017808499 -0.08218707 -0.039518815 0.0055673243 -0.0017496074 -0.031435873 -0.0074749202 0.009294728
0.01253895 0.004497545 0.0033350145 -0.008013379 -0.060803164 0.030228376 -0.013270927 -0.025407974
0.038120463 -0.01345463 0.004703879 0.015830178 -0.032033246 0.0591036 0.000813267 -0.0045899325
0.032413952 0.00156044 0.013803561 -0.052581254 -0.024629153 -0.02788682 -0.031599853 0.0070536565
0.015581027 -0.00071339577 0.005008502 0.026408395 -0.02308325 0.013851302 -0.029466577 -2.6679125e-05
0.030708356 -0.0012640854 0.02295997 0.032303214 0.01635225 -0.0057347314 -0.039332796 0.0009820232
0.008529799 0.049443662 0.01931739 -0.023558723 0.0038978462 0.004838838 0.011743445 -0.009707135
00000000: 81a5 19bc 2381 85bb 3dea 59bc 6873 943b
00000010: 436e 68bc ef85 103c 6717 cfbc bd03 48bd
00000020: 21e3 913c b251 a8bd 7bde 21bd 1a6e b63b
00000030: 1553 e5ba e7c2 00bd 2df0 f4bb ea48 183c
00000040: 2b70 4d3c 2460 933b 4290 5a3b 8c4a 03bc
00000050: bd0c 79bd 80a1 f73c 4d6e 59bc 6224 d0bc
00000060: 3424 1c3d cf70 5cbc ff22 9a3b 4aae 813c
00000070: 4b35 03bd 9e16 723d 6d31 553a 2567 96bb
00000080: 7ec4 043d ae87 cc3a 5528 623c 715f 57bd
00000090: 14c3 c9bc e672 e4bc d96e 01bd 5c22 e73b
000000a0: 9047 7f3c 2e03 3bba 5c1e a43b 6b56 d83c
000000b0: 1519 bdbc 92f0 623c e463 f1bc fccc dfb7
000000c0: 1790 fb3c abaf a5ba 8c16 bc3c 6050 043d
000000d0: 27f5 853c 6aea bbbb 6d1b 21bd 3bb7 803a
000000e0: 92c0 0b3c 7085 4a3d 813f 9e3c 39fe c0bc
000000f0: 0273 7f3b 1d8f 9e3b 9467 403c ad0a 1fbc

base.mlp.fc_h.0.weight f4 [64, 64]
0.27373248 0.07611885 -0.10246987 -0.19667841 0.06172241 -0.08967705 0.029754344 0.061721366
-0.2262644 0.09099478 0.19228992 -0.0121658165 0.030705996 0.032882065 0.21802557 0.051151674
0.20483366 -0.27106482 0.087824255 0.09856996 -0.05793727 -0.011239557 -0.32689992 -0.065582
0.11828793 -0.26030514 -0.18870161 0.40974486 -0.2357343 0.10838412 0.13095026 0.13891369
0.050268874 0.0040102256 0.28006187 0.2823242 -0.40307197 -0.087275214 -0.067619614 -0.104754396
0.1565709 0.06385977 0.18231161 0.0111968685 -0.18330166 -0.21480429 -0.09721038 -0.29907817
0.105720766 0.06969705 0.43160215 0.27679428 0.0692931 0.0919631 0.12547341 -0.07240062
0.16289149 0.16904339 0.023732862 0.16230465 0.12756082 -0.098466724 -0.23801664 -0.0594445
-0.256435 -0.11625549 0.006857703 -0.4766685 -0.27611813 0.11562275 -0.09793169 0.095520265
-0.046679087 0.41530088 -0.30792192 -0.14061697 -0.22092174 0.34384006 0.2043783 -0.08220241
0.044288214 -0.27306655 0.09923956 0.02606151 -0.017703613 0.08330576 0.0854672 -0.0957999
-0.39108992 0.023544941 0.039614603 -0.06541618 -0.009143652 0.07357066 -0.007841408 0.054789517
-0.2250042 -0.14530386 0.13912234 0.22648089 -0.13096566 0.15326053 -0.053220544 -0.08655763
0.08408584 0.2667838 0.0029631048 0.0050823595 -0.0287357 0.36461583 0.21507223 0.017302593
-0.14189212 -0.099731706 -0.04854018 -0.2707846 0.11696077 -0.1885389 -0.061947364 -0.15869373
-0.10546389 0.247658 -0.17869557 0.1079169 0.08670666 0.1955221 0.024819786 0.057176962
0.058248322 -0.02120913 -0.2780678 -0.49547064 0.2654276 -0.07359818 0.17038602 -0.14378949
-0.042962033 0.017916342 0.20094678 -0.014854917 0.010449288 0.00492312 -0.23642464 0.12950377
-0.15818986 0.10842027 0.16942444 0.2497119 0.19985715 0.031111049 -0.31806132 0.27508205
-0.14051783 0.1483166 -0.21128796 0.008559986 -0.042176712 -0.06379264 0.04142702 -0.17024115
-0.15260284 -0.31933302 -0.0077574607 -0.3452622 -0.03749482 -0.048532955 -0.041025914 0.017521914
-0.07937985 0.08812258 0.11639931 -0.3335539 -0.14245321 -0.08626429 0.16270179 -0.11230277
0.06195561 -0.31831458 -0.0515287 -0.09245968 -0.0035409464 -0.1847237 0.16065696 -0.014124223
-0.3717957 -0.012378849 0.036906134 -0.27705446 -0.12511306 -0.30062082 0.081317656 0.044541158
0.21175194 0.09427032 -0.21341579 0.15840983 -0.18721984 -0.33697167 0.1137308 -0.13018368
-0.26562884 0.10497236 -0.120837614 0.12840028 -0.19866325 -0.093762346 0.026593357 -0.4528522
-0.3252495 -0.3951487 -0.35227796 0.13178737 -0.045520034 -0.0844638 -0.02864047 0.13196298
-0.1398132 0.28826928 0.08074183 0.16073406 0.15206559 -0.1260865 -0.33668658 0.1699282
0.13203578 0.00833858 -0.08149827 0.019540435 -0.049890805 -0.30638427 -0.16360219 -0.013236312
-0.16387166 0.105184995 -0.009098298 -0.04792763 -0.08184335 0.02098182 -0.15771776 -0.27103904
-0.11395499 0.15498263 -0.116566874 -0.25097054 0.153535 0.015871193 -0.14614184 0.079610504
-0.066353776 -0.05595024 0.155426 -0.13624713 -0.044953898 -0.027154231 -0.08954165 -0.25222597
00000000: aa26 8c3e 33e4 9b3d b9db d1bd 1166 49be
00000010: a3d0 7c3d 9aa8 b7bd 62bf f33c 8bcf 7c3d
00000020: dbb1 67be 795b ba3d a6e7 443e 2253 47bc
00000030: 248b fb3c 58af 063d 1842 5f3e 6b84 513d
00000040: eabf 513e 02c9 8abe 34dd b33d 0cdf c93d
00000050: a14f 6dbd 1e26 38bc 6d5f a7be db4f 86bd
00000060: f140 f23d b746 85be ff3a 41be 14ca d13e
00000070: 5564 71be 7ef8 dd3d d317 063e 643f 0e3e
00000080: bce6 4d3d 3668 833b 4564 8f3e cc8c 903e
00000090: 735f cebe 59bd b2bd 277c 8abd 7989 d6bd
000000a0: 1f54 203e e9c8 823d e5af 3a3e 1273 373c
000000b0: 6eb3 3bbe a8f5 5bbe 3c16 c7bd c620 99be
000000c0: 2184 d83d 54bd 8e3d f5fa dc3e fbb7 8d3e
000000d0: 8ae9 8d3d 2657 bc3d 1a7c 003e c746 94bd
000000e0: 07cd 263e b619 2d3e 6b6b c23c 3133 263e
000000f0: 4e9f 023e eca8 c9bd a2ba 73be 137c 73bd
00000100: 734b 83be 5c17 eebd 95b6 e03b e50d f4be
00000110: 5b5f 8dbe 9fcb ec3d 6990 c8bd 21a0 c33d
00000120: 9232 3fbd 51a2 d43e f1a7 9dbe e5fd 0fbe
00000130: 4f39 62be ce0b b03e 8c48 513e bd59 a8bd
00000140: 8f67 353d 61cf 8bbe 1c3e cb3d f37e d53c
00000150: 2b07 91bc 369c aa3d 6d09 af3d bd32 c4bd
00000160: f03c c8be 52e1 c03c ec42 223d ebf8 85bd
00000170: 42cf 15bc 37ac 963d 4079 00bc f96a 603d
00000180: 8067 66be 89ca 14be 1676 0e3e 9bea 673e
00000190: dd1b 06be 54f0 1c3e c9fd 59bd 2045 b1bd
000001a0: 3235 ac3d e397 883e a630 423b ec89 a63b
000001b0: 2167 ebbc edae ba3e e53b 5c3e 2bbe 8d3c
000001c0: 2b4c 11be 2340 ccbd 11d2 46bd 47a4 8abe
000001d0: 2189 ef3d 5710 41be 85bc 7dbd 9c80 22be
000001e0: 74fd d7bd 0f9a 7d3e f9fb 36be 8903 dd3d
000001f0: 4393 b13d f236 483e dd52 cb3c 6432 6a3d
00000200: cb95 6e3d c5be adbc e75e 8ebe 54ae fdbe
00000210: 20e6 873e a5ba 96bd ac79 2e3e 8d3d 13be
00000220: f5f8 2fbd 4bc5 923c fec4 4d3e 0a62 73bc
00000230: 7e33 2b3c 2052 a13b 4d19 72be a39c 043e
00000240: 86fc 21be 720b de3d 9a7d 2d3e 7ab4 7f3e
00000250: 5aa7 4c3e 99dc fe3c efd8 a2be 8ed7 8c3e
00000260: e8e3 0fbe 4fe0 173e df5b 58be 2f3f 0c3c
00000270: 7dc1 2cbd b7a5 82bd 61af 293d b253 2ebe
00000280: eb43 1cbe 9e7f a3be 4c32 febb 35c6 b0be
00000290: 2b94 19bd 7eca 46bd ca0a 28bd 1e8a 8f3c
000002a0: e791 a2bd 9c79 b43d c362 ee3d 94c7 aabe
000002b0: 41df 11be 55ab b0bd 4c9b 263e fffe e5bd
000002c0: 2ac5 7d3d 21fa a2be c20f 53bd 805b bdbd
000002d0: 390f 68bb 3628 3dbe 4283 243e 4969 67bc
000002e0: 025c bebe a8d0 4abc e32a 173d 15da 8dbe
000002f0: a31d 00be f9ea 99be df89 a63d ca70 363d
00000300: 80d5 583e cc10 c13d ab89 5abe 3036 223e
00000310: 8fb6 3fbe 8d87 acbe b2eb e83d df4e 05be
00000320: 8100 88be c0fb d63d b679 f7bd 5d7b 033e
00000330: 616e 4bbe 7906 c0bd 50da d93c 3edc e7be
00000340: 1a87 a6be ee50 cabe c75d b4be 45f3 063e
00000350: 3773 3abd 5bfb acbd 6b9f eabc 4e21 073e
00000360: 312b 0fbe 0898 933e f95b a53d 7897 243e
00000370: 15b7 1b3e d21c 01be 2f62 acbe a801 2e3e
00000380: 6334 073e 8a9e 083c 91e8 a6bd 4313 a03c
00000390: 4d5a 4cbd 66de 9cbe 5587 27be 1edd 58bc
000003a0: f9cd 27be 3b6b d73d 0711 15bc c34f 44bd
000003b0: 7c9d a7bd 11e2 ab3c c480 21be a1c5 8abe
000003c0: 3c61 e9bd c4b3 1e3e 9dba eebd 367f 80be
000003d0: 4738 1d3e 4e04 823c 35a6 15be d50a a33d
000003e0: 7de4 87bd 142c 65bd fe27 1f3e 5e84 0bbe
000003f0: 9421 38bd 8d72 debc 9d61 b7bd c323 81be

base.mlp.fc_h.0.bias f4 [64]
0.0 0.0 0.0 0.0 0.0 0.0 0.0 0.0
0.0 0.0 0.0 0.0 0.0 0.0 0.0 0.0
0.0 0.0 0.0 0.0 0.0 0.0 0.0 0.0
0.0 0.0 0.0 0.0 0.0 0.0 0.0 0.0
0.0 0.0 0.0 0.0 0.0 0.0 0.0 0.0
0.0 0.0 0.0 0.0 0.0 0.0 0.0 0.0
0.0 0.0 0.0 0.0 0.0 0.0 0.0 0.0
0.0 0.0 0.0 0.0 0.0 0.0 0.0 0.0
00000000: 0000 0000 0000 0000 0000 0000 0000 0000
00000010: 0000 0000 0000 0000 0000 0000 0000 0000
00000020: 0000 0000 0000 0000 0000 0000 0000 0000
00000030: 0000 0000 0000 0000 0000 0000 0000 0000
00000040: 0000 0000 0000 0000 0000 0000 0000 0000
00000050: 0000 0000 0000 0000 0000 0000 0000 0000
00000060: 0000 0000 0000 0000 0000 0000 0000 0000
00000070: 0000 0000 0000 0000 0000 0000 0000 0000
00000080: 0000 0000 0000 0000 0000 0000 0000 0000
00000090: 0000 0000 0000 0000 0000 0000 0000 0000
000000a0: 0000 0000 0000 0000 0000 0000 0000 0000
000000b0: 0000 0000 0000 0000 0000 0000 0000 0000
000000c0: 0000 0000 0000 0000 0000 0000 0000 0000
000000d0: 0000 0000 0000 0000 0000 0000 0000 0000
000000e0: 0000 0000 0000 0000 0000 0000 0000 0000
000000f0: 0000 0000 0000 0000 0000 0000 0000 0000

base.mlp.fc_h.2.weight f4 [64]
1.0 1.0 1.0 1.0 1.0 1.0 1.0 1.0
1.0 1.0 1.0 1.0 1.0 1.0 1.0 1.0
1.0 1.0 1.0 1.0 1.0 1.0 1.0 1.0
1.0 1.0 1.0 1.0 1.0 1.0 1.0 1.0
1.0 1.0 1.0 1.0 1.0 1.0 1.0 1.0
1.0 1.0 1.0 1.0 1.0 1.0 1.0 1.0
1.0 1.0 1.0 1.0 1.0 1.0 1.0 1.0
1.0 1.0 1.0 1.0 1.0 1.0 1.0 1.0
00000000: 0000 803f 0000 803f 0000 803f 0000 803f
00000010: 0000 803f 0000 803f 0000 803f 0000 803f
00000020: 0000 803f 0000 803f 0000 803f 0000 803f
00000030: 0000 803f 0000 803f 0000 803f 0000 803f
00000040: 0000 803f 0000 803f 0000 803f 0000 803f
00000050: 0000 803f 0000 803f 0000 803f 0000 803f
00000060: 0000 803f 0000 803f 0000 803f 0000 803f
00000070: 0000 803f 0000 803f 0000 803f 0000 803f
00000080: 0000 803f 0000 803f 0000 803f 0000 803f
00000090: 0000 803f 0000 803f 0000 803f 0000 803f
000000a0: 0000 803f 0000 803f 0000 803f 0000 803f
000000b0: 0000 803f 0000 803f 0000 803f 0000 803f
000000c0: 0000 803f 0000 803f 0000 803f 0000 803f
000000d0: 0000 803f 0000 803f 0000 803f 0000 803f
000000e0: 0000 803f 0000 803f 0000 803f 0000 803f
000000f0: 0000 803f 0000 803f 0000 803f 0000 803f

base.mlp.fc_h.2.bias f4 [64]
0.0 0.0 0.0 0.0 0.0 0.0 0.0 0.0
0.0 0.0 0.0 0.0 0.0 0.0 0.0 0.0
0.0 0.0 0.0 0.0 0.0 0.0 0.0 0.0
0.0 0.0 0.0 0.0 0.0 0.0 0.0 0.0
0.0 0.0 0.0 0.0 0.0 0.0 0.0 0.0
0.0 0.0 0.0 0.0 0.0 0.0 0.0 0.0
0.0 0.0 0.0 0.0 0.0 0.0 0.0 0.0
0.0 0.0 0.0 0.0 0.0 0.0 0.0 0.0
00000000: 0000 0000 0000 0000 0000 0000 0000 0000
00000010: 0000 0000 0000 0000 0000 0000 0000 0000
00000020: 0000 0000 0000 0000 0000 0000 0000 0000
00000030: 0000 0000 0000 0000 0000 0000 0000 0000
00000040: 0000 0000 0000 0000 0000 0000 0000 0000
00000050: 0000 0000 0000 0000 0000 0000 0000 0000
00000060: 0000 0000 0000 0000 0000 0000 0000 0000
00000070: 0000 0000 0000 0000 0000 0000 0000 0000
00000080: 0000 0000 0000 0000 0000 0000 0000 0000
00000090: 0000 0000 0000 0000 0000 0000 0000 0000
000000a0: 0000 0000 0000 0000 0000 0000 0000 0000
000000b0: 0000 0000 0000 0000 0000 0000 0000 0000
000000c0: 0000 0000 0000 0000 0000 0000 0000 0000
000000d0: 0000 0000 0000 0000 0000 0000 0000 0000
000000e0: 0000 0000 0000 0000 0000 0000 0000 0000
000000f0: 0000 0000 0000 0000 0000 0000 0000 0000

base.mlp.fc2.0.0.weight f4 [64, 64]
0.25375932 0.103637174 -0.09629216 -0.20464104 0.06505602 -0.087214105 0.030630862 0.057073526
-0.22993872 0.09504539 0.19330008 -0.012460374 0.013569479 0.041581593 0.18357423 0.06661568
0.2096287 -0.2803688 0.10430604 0.08893292 -0.04970542 -0.036369033 -0.34549534 -0.08872363
0.10978617 -0.28372467 -0.16733429 0.40917683 -0.25519642 0.09382152 0.119961 0.14798509
0.051487185 0.008208572 0.29500043 0.27440992 -0.4247097 -0.078927115 -0.07453724 -0.08819719
0.15646446 0.05427658 0.20093466 0.034463875 -0.18906206 -0.23661631 -0.0797378 -0.31346652
0.098391436 0.0809415 0.42572123 0.26634562 0.077652946 0.06507023 0.1441338 -0.0785014
0.15562116 0.12999228 0.022021396 0.16450697 0.13464625 -0.09192134 -0.2594121 -0.00014970591
-0.24284804 -0.09024119 0.0020183658 -0.4272936 -0.2560111 0.14123859 -0.10941052 0.1396747
-0.024070177 0.39411116 -0.3528455 -0.113745116 -0.23460455 0.32677802 0.2308616 -0.0722578
0.01610273 -0.25604528 0.10265896 0.028678993 0.011243616 0.0928811 0.11521857 -0.07389644
-0.4137615 0.023987403 0.04522766 -0.038660232 -0.017195253 0.08338088 -0.045114342 0.06161265
-0.1963182 -0.17296082 0.14998934 0.22433598 -0.08384533 0.115188956 -0.04475545 -0.08190541
0.10523807 0.30343774 0.042863958 0.043635093 -0.033803806 0.3766554 0.15732288 0.060958784
-0.19146937 -0.07300972 -0.0985107 -0.2773642 0.13429035 -0.13898319 -0.026818506 -0.14221929
-0.07468891 0.27114877 -0.22935024 0.07762608 0.06306996 0.21935514 0.050799835 0.07648626
0.05694605 -0.060450632 -0.27581933 -0.4601648 0.26643097 -0.058854494 0.19083935 -0.08639171
-0.079517156 0.040258806 0.21018468 -0.01507821 -0.024701435 0.017465971 -0.26868242 0.1133678
-0.18439846 0.15469238 0.1905378 0.304907 0.16606708 0.045064885 -0.2787656 0.243067
-0.12361288 0.17226861 -0.21976964 0.026372723 -0.062035497 -0.027288254 0.056270637 -0.16693872
-0.17024402 -0.270501 0.030097172 -0.35701343 -0.016915878 -0.056847114 -0.1011991 -0.03627366
-0.109065935 0.09702115 0.109911785 -0.36472067 -0.13478078 -0.02196236 0.19378453 -0.12501355
0.064420134 -0.33402577 -0.027290292 -0.08479892 0.018825354 -0.17974328 0.11198581 -0.001466267
-0.40685812 -0.03654865 0.030689241 -0.228574 -0.0670621 -0.30215925 0.06021924 0.03742926
0.1622887 0.05904079 -0.20495956 0.15842618 -0.19058613 -0.35359353 0.13754773 -0.10353989
-0.27345282 0.10576884 -0.09806573 0.1046268 -0.21091038 -0.08208585 0.0032828362 -0.46114227
-0.31857884 -0.3671248 -0.36254838 0.15456466 -0.065952055 -0.0686242 -0.0069106827 0.13243218
-0.13454631 0.28924873 0.09230076 0.18950897 0.124527395 -0.10542959 -0.31146184 0.15937717
0.12217141 0.050108645 -0.056304626 0.0007319575 -0.07391354 -0.30196434 -0.16328555 -0.05307121
-0.15186293 0.10763526 -0.034970894 -0.0798555 -0.07294812 0.07036409 -0.11133797 -0.30649477
-0.092183985 0.14695582 -0.06925891 -0.23337136 0.19330789 -0.010725118 -0.18524157 0.09703497
-0.09432862 -0.07596403 0.16910979 -0.105386086 0.017174456 -0.025853237 -0.08644852 -0.26460627
00000000: beec 813e ba3f d43d d334 c5bd 6c8d 51be
00000010: 173c 853d 4f9d b2bd 93ed fa3c eec5 693d
00000020: 0e75 6bbe 28a7 c23d 75f0 453e 9926 4cbc
00000030: 8552 5e3c 7651 2a3d e2fa 3b3e cd6d 883d
00000040: e8a8 563e 808c 8fbe 689e d53d 7622 b63d
00000050: e997 4bbd b2f7 14bd c4e4 b0be bcb4 b5bd
00000060: 92d7 e03d 5c44 91be ae59 2bbe a07f d13e
00000070: 1ba9 82be 7f25 c03d 1dae f53d 6789 173e
00000080: 3ae4 523d 3f7d 063c 4c0a 973e 757f 8c3e
00000090: 8d73 d9be 8aa4 a1bd fba6 98bd baa0 b4bd
000000a0: 3838 203e 1f51 5e3d d1c1 4d3e fe29 0d3d
000000b0: 7c99 41be 8c4b 72be 924d a3bd af7e a0be
000000c0: 7381 c93d a8c4 a53d 22f8 d93e 745e 883e
000000d0: 8208 9f3d 8a43 853d d097 133e 58c5 a0bd
000000e0: 275b 1f3e b21c 053e 3766 b43c 8474 283e
000000f0: b5e0 093e 4141 bcbd aad1 84be 60fa 1cb9
00000100: 28ad 78be 5fd0 b8bd 8f46 043b 3ac6 dabe
00000110: e313 83be d9a0 103e 9f12 e0bd e206 0f3e
00000120: d22e c5bc f0c8 c93e 2aa8 b4be 33f3 e8bd
00000130: 2d3c 70be 734f a73e fc66 6c3e e6fb 93bd
00000140: dfe9 833c 5e18 83be dc3e d23d 35f0 ea3c
00000150: 2537 383c 7238 be3d b7f7 eb3d 0457 97bd
00000160: 8cd8 d3be 3b81 c43c a440 393d 315a 1ebd
00000170: 0fdd 8cbc 98c3 aa3d d1c9 38bd 8c5d 7c3d
00000180: a307 49be a41c 31be ce96 193e 55b8 653e
00000190: 1ab7 abbd 30e8 eb3d 7e51 37bd 06be a7bd
000001a0: 0f87 d73d 315c 9b3e 1e92 2f3d b6ba 323d
000001b0: dc75 0abd fad8 c03e 4019 213e ebaf 793d
000001c0: 8c10 44be 1f86 95bd fabf c9bd ae02 8ebe
000001d0: 6983 093e 9c51 0ebe 7cb2 dbbc efa1 11be
000001e0: 80f6 98bd 03d4 8a3e cada 6abe 6cfa 9e3d
000001f0: d32a 813d a29e 603e 7d13 503d d4a4 9c3d
00000200: 4340 693d 159b 77bd 3138 8dbe b89a ebbe
00000210: a469 883e 6911 71bd 646b 433e 23ee b0bd
00000220: e4d9 a2bd 6be6 243d a73a 573e 990a 77bc
00000230: aa5a cabc cc14 8f3c be90 89be 612d e83d
00000240: f3d2 3cbe ae67 1e3e 571c 433e c51c 9c3e
00000250: 7d0d 2a3e f595 383d 5dba 8ebe 8ee6 783e
00000260: c028 fdbd 2f67 303e 4b0b 61be 9c0b d83c
00000270: ef18 7ebd 9e8b dfbc 0a7c 663d fcf1 2abe
00000280: 7354 2ebe 1b7f 8abe 588e f63c 77ca b6be
00000290: 2b93 8abc 85d8 68bd 7941 cfbd b093 14bd
000002a0: f65d dfbd 06b3 c63d 6e19 e13d abbc babe
000002b0: f903 0abe 68ea b3bc 746f 463e 8d03 00be
000002c0: b4ee 833d 6d05 abbe e48f dfbc 0eab adbd
000002d0: a137 9a3c 9f0e 38be d158 e53d c22f c0ba
000002e0: b54f d0be 0ab4 15bd 0168 fb3c 4d0f 6abe
000002f0: db57 89bd 9eb4 9abe 73a8 763d 6c4f 193d
00000300: 022f 263e c1d4 713d ebe0 51be 793a 223e
00000310: 0329 43be 360a b5be 50d9 0c3e b90c d4bd
00000320: 0202 8cbe 559d d83d afd6 c8bd 9346 d63d
00000330: e4f8 57be a01c a8bd da24 573b d71a ecbe
00000340: c41c a3be c8f7 bbbe f19f b9be 3346 1e3e
00000350: df11 87bd d88a 8cbd 0273 e2bb 4d9c 073e
00000360: 82c6 09be 6918 943e 2e08 bd3d a40e 423e
00000370: 3808 ff3d 78eb d7bd ed77 9fbe c533 233e
00000380: 0135 fa3d b93e 4d3d ae9f 66bd d6e0 3f3a
00000390: fb5f 97bd 129b 9abe 5434 27be 3261 59bd
000003a0: f581 1bbe e06f dc3d a43d 0fbd 488b a3bd
000003b0: d365 95bd 0c1b 903d 2905 e4bd e2ec 9cbe
000003c0: f5ca bcbd 967b 163e 9ed7 8dbd e7f8 6ebe
000003d0: 81f2 453e 68b8 2fbc f7af 3dbe 45ba c63d
000003e0: 5d2f c1bd 0893 9bbd 1e2b 2d3e a9d4 d7bd
000003f0: 72b1 8c3c 2bca d3bc ec0b b1bd 797a 87be

base.mlp.fc2.0.0.bias f4 [64]
0.02656524 -0.03932039 -0.03085143 0.0059744595 -0.0004444342 0.011234412 0.010691952 0.0026698585
0.015775805 0.029661784 -0.023467986 -0.030863523 -0.02835886 0.031344686 -0.016163351 -0.015134328
-0.041796654 -0.02506682 0.010777538 -0.0037691195 -0.031771906 -0.012288212 -0.06409308 -0.013864141
0.022592377 0.025183618 -0.049061894 0.019519899 0.019401902 0.010062637 -0.003885758 0.04090787
-0.0011679663 0.042266726 -0.017140124 0.051677816 0.063320756 -0.021171678 -0.02482571 0.015597981
0.032731086 0.027642425 0.0035167641 0.02352452 -0.036952253 -0.025019119 0.033050243 0.029421514
0.0066553736 -0.038873967 0.0013777937 0.012997066 -0.02727321 -0.02785873 -0.0174267 -0.044561256
0.013745479 0.04856144 -0.0038733045 -0.0148344925 -0.009509707 -0.02618454 0.02014512 -0.007343465
00000000: 599f d93c 6b0e 21bd 23bc fcbc 66c5 c33b
00000010: f302 e9b9 8a10 383c 4c2d 2f3c cbf8 2e3b
00000020: 433c 813c 45fd f23c ef3f c0bc 80d5 fcbc
00000030: d750 e8bc 4963 003d 0169 84bc f9f5 77bc
00000040: f832 2bbd ef58 cdbc 4594 303c 5503 77bb
00000050: 4223 02bd 7f54 49bc 3c43 83bd 6c26 63bc
00000060: a613 b93c e04d ce3c 20f5 48bd 32e8 9f3c
00000070: bdf0 9e3c c2dd 243c 34a8 7ebb 038f 273d
00000080: 7216 99ba e01f 2d3d 7269 8cbc 1eac 533d
00000090: 50ae 813d 3a70 adbc 4a5f cbbc ad8e 7f3c
000000a0: 0811 063d 5e72 e23c 8379 663b 7fb6 c03c
000000b0: 3f5b 17bd e5f4 ccbc b15f 073d 6305 f13c
000000c0: 5215 da3b 4f3a 1fbd 1697 b43a a5f1 543c
000000d0: 116c dfbc fe37 e4bc 70c2 8ebc dd85 36bd
000000e0: b834 613c 5ce8 463d 44d7 7dbb 5f0c 73bc
000000f0: 9ace 1bbc f680 d6bc 6107 a53c 73a1 f0bb

base.mlp.fc2.0.2.weight f4 [64]
1.010934 0.9800312 0.98390096 0.98931587 1.0421743 1.0389862 1.0451361 1.0313566
1.0078701 1.0205355 0.9814353 1.0015651 0.97655976 1.00706 0.9807306 0.99323153
1.0005629 0.98585117 0.9877271 1.0123187 0.9956646 0.9816888 1.0315739 0.9693301
0.9809225 0.9944534 1.0253147 1.041782 0.9832616 1.0270138 1.0718216 1.0281097
0.9996025 1.0051486 0.9871029 1.0111842 1.1081152 0.9928944 0.99673337 1.0496705
1.0380565 1.015036 1.0167041 0.9892782 0.98040843 1.0213027 1.0252268 0.9838609
1.0379195 0.95209295 1.0068499 1.0097507 0.9426161 1.0137708 1.0288658 1.0162215
1.0028117 1.0477377 0.98417145 1.0154777 0.9867202 0.9723405 1.0146691 0.99413466
00000000: 4966 813f 53e3 7a3f efe0 7b3f ce43 7d3f
00000010: f865 853f 80fd 843f 05c7 853f 7e03 843f
00000020: e301 813f e8a0 823f 583f 7b3f 4933 803f
00000030: d2ff 793f 58e7 803f 2911 7b3f 6c44 7e3f
00000040: 7212 803f be60 7c3f afdb 7c3f a993 813f
00000050: e0e3 7e3f f54f 7b3f 9d0a 843f 0426 783f
00000060: bd1d 7b3f 7f94 7e3f 833d 833f 1d59 853f
00000070: 08b7 7b3f 3075 833f 7331 893f 1999 833f
00000080: f3e5 7f3f b6a8 803f c7b2 7c3f 7c6e 813f
00000090: b8d6 8d3f 542e 7e3f eb29 7f3f 9a5b 863f
000000a0: 09df 843f b3ec 813f 5c23 823f 5641 7d3f
000000b0: 0cfc 7a3f 0cba 823f a23a 833f 4fde 7b3f
000000c0: 8cda 843f 5dbc 733f 75e0 803f 833f 813f
000000d0: 4a4f 713f 3ec3 813f e0b1 833f 8c13 823f
000000e0: 225c 803f 451c 863f a9f2 7b3f 2cfb 813f
000000f0: b299 7c3f 4feb 783f ade0 813f 9c7f 7e3f

base.mlp.fc2.0.2.bias f4 [64]
0.011584809 -0.014451865 0.0073409234 -0.0060012247 -0.0014945627 -0.019082006 -0.019003237 -0.0060882643
-0.008097051 0.008816579 -0.033142865 -0.046645444 0.008657748 0.022542259 -0.02778227 -0.012642851
-0.035293072 0.026347442 0.007879775 -0.00080269796 0.013828304 0.01458859 0.0034743513 -0.010747965
0.025767101 0.029423337 -0.010662891 -0.013511583 0.0016208311 0.013656055 0.006031431 0.033598136
-0.002186948 0.024840198 -0.0049036476 0.0066200076 0.021154655 0.011975708 -0.017855594 0.007210595
6.145591e-05 -0.01696418 0.019204577 -0.00016613558 -0.026849456 -0.009104031 -0.0043109055 0.018470867
0.035575207 0.01671156 0.015532972 -0.010196125 0.033490255 -0.009632929 0.0007214632 0.0038599689
-0.043541957 0.013567129 -0.008145041 0.021049734 0.017227346 -0.0040379125 0.010581064 0.003169535
00000000: 36ce 3d3c 84c7 6cbc 218c f03b eca5 c4bb
00000010: 34e5 c3ba de51 9cbc adac 9bbc 1080 c7bb
00000020: 7ea9 04bc 6a73 103c d0c0 07bd 4b0f 3fbd
00000030: 3ad9 0d3c 8baa b83c a597 e3bc f623 4fbc
00000040: 788f 10bd 97d6 d73c 2c1a 013c 266c 52ba
00000050: 1c90 623c fb04 6f3c f1b1 633b 3c18 30bc
00000060: 8715 d33c 3609 f13c 68b3 2ebc b05f 5dbc
00000070: 1172 d43a a5bd 5f3c 4fa3 c53b 339e 093d
00000080: e652 0fbb ac7d cb3c c7ae a0bb a6ec d83b
00000090: 874c ad3c c335 443c e545 92bc db46 ec3b
000000a0: e4e1 8038 77f8 8abc eb52 9d3c ae34 2eb9
000000b0: 64f3 dbbc 1329 15bc 7f42 8dbb 3750 973c
000000c0: 4fb7 113d aee6 883c 027e 7e3c a60d 27bc
000000d0: 142d 093d 6fd3 1dbc 9320 3d3a 88f7 7c3b
000000e0: 0d59 32bd aa48 5e3c c772 05bc 7e70 ac3c
000000f0: 5d20 8d3c 7750 84bb 335c 2d3c f9b7 4f3b

rnn.rnn.weight_ih_l0 f4 [192, 64]
0.1484891 -0.092682905 0.06520673 0.007929865 -0.09312217 -0.20585912 0.14255314 0.0016032753
-0.022467436 0.054627445 -0.09407396 0.10387718 0.021252282 0.089315504 -0.08965146 0.045016676
0.034700513 -0.018669328 0.0216029 -0.15969747 0.0631059 0.1223365 0.036496647 0.08868128
-0.011625312 -0.015723858 -0.17421097 0.03400825 -0.06220596 0.058727562 -0.028545547 -0.015754458
-0.08285444 0.04145288 -0.123695746 0.096617356 -0.075677976 0.05645923 0.08765658 0.115279935
0.047507696 0.132901 0.028159333 -0.05029917 0.13050872 0.14617924 0.01250908 -0.0758517
0.0124939475 0.032803252 0.06596324 -0.020882947 -0.003773115 -0.030554397 0.06696581 0.06581134
0.042277668 0.1508064 0.069294326 -0.17681809 -0.09831365 -0.12389214 0.08912417 -0.06320566
0.013361206 0.18225671 0.04706948 -0.22155632 -0.1368475 0.01736224 0.112643346 -0.004598423
-0.10447943 0.108197935 0.02236724 -0.09993763 -0.10521351 0.10351061 -0.06013637 -0.02490877
-0.04577842 -0.21730664 0.14389563 -0.065314144 -0.039210055 -0.054168988 -0.07761898 -0.035526354
0.013263348 0.040206615 0.12130819 0.12066471 -0.022226263 -0.008203612 -0.07240228 -0.056120507
-0.104490206 0.020615825 -0.07803583 0.078551695 0.017989509 -0.00020254125 0.03540884 -0.022812087
-0.008707649 0.03903631 -0.054808766 -0.042439204 -0.058838867 -0.1280534 -0.035218295 0.0029653213
0.14868973 0.19679248 0.013329987 0.012319044 -0.0010440334 -0.12198152 0.19923578 -0.11180803
-0.040891755 0.016805798 0.036488034 0.06594118 -0.13696745 -0.002995129 0.022879045 0.07301943
-0.13534583 0.025766911 0.08895714 0.024054738 0.02527322 0.11171992 0.043572456 0.07057512
0.070165776 -0.09585699 -0.00051926274 0.05763569 -0.011735446 0.0295595 0.005142525 -0.0923275
-0.010827069 0.07143034 0.02715866 0.0122424485 0.034607187 -0.004052217 0.050872322 -0.003608582
-0.09470663 -0.017063044 -0.10220104 -0.0010102199 0.18431324 0.10840733 -0.05727501 0.098894104
0.037070747 0.09304105 -0.1310173 0.11016972 0.11721232 -0.008918654 0.0315034 -0.022970371
-0.06202465 0.020055857 0.15273839 -0.025197158 0.0052327663 0.03206095 0.060947884 0.0024958423
-0.06151926 0.045446645 0.030391837 0.033278104 -0.049824975 0.078846246 0.0828803 0.0015146075
-0.06678098 -0.050981205 0.09089472 -0.120978214 -0.07327658 0.041020375 0.044889256 0.0481912
-0.046257906 0.10255269 0.056431442 0.0082577765 0.021979941 -0.082336105 0.049473505 -0.029601118
-0.010859706 0.09516457 -0.082765125 0.0948919 0.052054692 -0.0038749836 -0.10873156 0.15586182
-0.0011789761 -0.13073075 0.07805528 0.12532301 -0.10136278 0.052224163 0.11871149 -0.10565209
0.04310156 -0.025078433 -0.012175536 -0.04218826 -0.003805108 0.067380615 0.083141565 -0.06077911
0.0634521 0.08965566 0.038884725 -0.037216216 0.03874262 -0.03139429 -0.025575085 -0.048357945
0.00570145 -0.14043146 0.123158954 -0.018117903 0.14154992 -0.045204088 -0.032071393 -0.04756862
-0.039132588 0.11546235 -0.16779482 0.07342952 -0.04534238 -0.050671 -0.062896974 0.010694404
0.13999183 0.104071595 -0.109681495 -0.019990811 -0.025189819 0.11807028 0.057852514 0.035026252
00000000: 870d 183e 89d0 bdbd 1b8b 853d 44ec 013c
00000010: d6b6 bebd bccc 52be 73f9 113e fe24 d23a
00000020: a10d b8bc 07c1 5f3d d9a9 c0bd 8fbd d43d
00000030: 4419 ae3c 0ceb b63d 2f9b b7bd 6863 383d
00000040: 2022 0e3d 6bf0 98bc 91f8 b03c bc87 23be
00000050: ab3d 813d 8f8b fa3d 827d 153d 889e b53d
00000060: 1878 3ebc 52cf 80bc 5c64 32be 3c4c 0b3d
00000070: adcb 7ebd 508c 703d 5ad8 e9bc 7e0f 81bc
00000080: 97af a9bd 7fca 293d 3254 fdbd 52df c53d
00000090: 0efd 9abd cb41 673d 4b85 b33d e317 ec3d
000000a0: 6e97 423d 3317 083e 67ae e63c 8106 4ebd
000000b0: 14a4 053e 03b0 153e e2f2 4c3c 2358 9bbd
000000c0: 6ab3 4c3c b45c 063d bc17 873d b712 abbc
000000d0: 5e46 77bb 374d fabc 5f25 893d 19c8 863d
000000e0: 592b 2d3d fe6c 1a3e 2fea 8d3d cd0f 35be
000000f0: ab58 c9bd 2abb fdbd bc86 b63d f871 81bd
00000100: f6e8 5a3c 81a1 3a3e edcb 403d a9df 62be
00000110: c021 0cbe 423b 8e3c 8eb1 e63d 5eae 96bb
00000120: 50f9 d5bd e196 dd3d 813b b73c 1aac ccbd
00000130: 2e7a d7bd 5ffd d33d 8e51 76bd 7a0d ccbc
00000140: 2782 3bbd a285 5ebe 6059 133e 6cc3 85bd
00000150: b99a 20bd 4de0 5dbd b3f6 9ebd 1584 11bd
00000160: 834e 593c b1af 243d 6e70 f83d 0f1f f73d
00000170: da13 b6bc 7168 06bc a647 94bd 9ede 65bd
00000180: f6fe d5bd 85e2 a83c 40d1 9fbd b6df a03d
00000190: bc5e 933c 4161 54b9 dc08 113d 6ae0 babc
000001a0: 87aa 0ebc 8ae4 1f3d 287f 60bd bbd4 2dbd
000001b0: 0601 71bd 6e20 03be 0f41 10bd d655 423b
000001c0: 1f42 183e f883 493e 0566 5a3c d1d5 493c
000001d0: f3d7 88ba 72d1 f9bd 7704 4c3e 9cfb e4bd
000001e0: 1d7e 27bd 50ac 893c 7a74 153d 2b0c 873d
000001f0: 3241 0cbe ed49 44bb d66c bb3c 368b 953d
00000200: 1998 0abe 2115 d33c 292f b63d 710e c53c
00000210: c909 cf3c 6acd e43d 0879 323d b089 903d
00000220: 13b3 8f3d ab50 c4bd 221f 08ba 6713 6c3d
00000230: 0746 40bc c426 f23c a082 a83b 3316 bdbd
00000240: 0564 31bc 124a 923d d77b de3c 8d94 483c
00000250: 44c0 0d3d 76c8 84bb 7f5f 503d f67d 6cbb
00000260: 8df5 c1bd ccc7 8bbc c74e d1bd 5b69 84ba
00000270: 9cbc 3c3e aa04 de3d 3399 6abd fe88 ca3d
00000280: 7fd7 173d 4e8c be3d 6629 06be aaa0 e13d
00000290: 030d f03d 8c1f 12bc b609 013d 5c2c bcbc
000002a0: 8f0d 7ebd 2e4c a43c 7467 1c3e 456a cebc
000002b0: a077 ab3b 5852 033d 7da4 793d 4991 233b
000002c0: 9ffb 7bbd 4326 3a3d 4df8 f83c 9f4e 083d
000002d0: 4615 4cbd 247a a13d 26bd a93d cb85 c63a
000002e0: 77c4 88bd abd1 50bd 0327 ba3d 6dc3 f7bd
000002f0: 0812 96bd fb04 283d ccdd 373d 2364 453d
00000300: ee78 3dbd 2507 d23d a824 673d a04b 073c
00000310: 470f b43c d59f a8bd bba4 4a3d 0b7e f2bc
00000320: e9ec 31bc a4e5 c23d c380 a9bd af56 c23d
00000330: 4d37 553d 70f3 7dbb a7ae debd 3e9a 1f3e
00000340: e087 9aba 48de 05be 72db 9f3d ad54 003e
00000350: 4a97 cfbd 01e9 553d 021f f33d 1f60 d8bd
00000360: 438b 303d 4971 cdbc e67b 47bc 99cd 2cbd
00000370: 1e5f 79bb d9fe 893d 2046 aa3d 84f3 78bd
00000380: 2df3 813d 639d b73d 9745 1f3d 0870 18bd
00000390: 95b0 1e3d 4d97 00bd d782 d1bc fb12 46bd
000003a0: 3bd3 ba3b 44cd 0fbe c33a fc3d ff6b 94bc
000003b0: 76f2 103e ec27 39bd 4b5d 03bd 50d7 42bd
000003c0: 7e49 20bd 8677 ec3d 68d2 2bbe 3762 963d
000003d0: eeb8 39bd 658c 4fbd 21d0 80bd 9537 2f3c
000003e0: 055a 0f3e 7d23 d53d b1a0 e0bd c5c3 a3bc
000003f0: e15a cebc d5ce f13d c2f6 6c3d b077 0f3d

rnn.rnn.weight_hh_l0 f4 [192, 64]
-0.07561684 0.07651625 0.008319851 0.00051566935 -0.0821766 0.08079953 0.18238463 0.06647518
-0.11291495 -0.04068337 0.036253635 0.04356954 -0.12945727 -0.0034349468 -0.008622092 0.06562426
-0.0019679896 -0.09460128 -0.037796136 0.056185044 -0.096305825 0.055291574 -0.11060714 0.03790194
-0.021284869 -0.093694374 -0.023843173 -0.049370676 -0.03487799 -0.13400738 -0.010435161 0.047617674
-0.03239464 -0.019939559 0.1716457 -0.037741832 -0.04428927 -0.054736458 0.025241628 -0.13363566
-0.08404869 0.06373766 0.0085168425 0.15144 -0.15215784 -0.050070085 -0.07175245 0.049940262
0.04471852 0.039546676 -0.038604066 0.016775992 -0.057185702 0.0012646129 0.1506348 -0.062367927
-0.10581014 -0.10198475 0.122981176 -0.0029215445 0.025128534 -0.041516453 0.043238204 -0.054179586
-0.013250161 -0.09496768 0.04468049 0.033730377 0.26944977 0.09614803 -0.006299439 -0.007972248
-0.009264547 -0.09536052 0.05295845 0.13427062 -0.08220304 -0.08443465 0.036710218 0.09822667
0.028163346 0.047674567 -0.0050110496 -0.047660053 0.027137715 0.008467083 -0.011833907 -0.10686068
-0.050779257 -0.11383095 0.019794783 0.0975232 -0.025194375 0.045018446 -0.014916099 -0.038883273
-0.07620384 0.04542863 -0.040149514 -0.09723399 -0.041966714 -0.065525174 -0.16224873 -0.025587032
-0.0303489 -0.04279928 0.037428807 -0.008482955 -0.008686831 0.01896286 0.046475723 -0.041549236
-0.21345359 -0.0030807592 -0.012244138 -0.04413013 -0.09060809 0.09394179 0.0027574115 0.12145335
0.0048212833 0.07524268 0.1562517 0.09515679 0.074576326 -0.09169023 0.025371403 0.05339308
-0.05334905 0.07860585 -0.06689514 -0.050145768 0.118037425 0.03001192 0.038073692 0.05601314
0.035776425 -0.045816306 -0.10841359 -0.032367833 -0.0064986343 0.08556255 -0.15115903 0.025974264
0.052906618 -0.06550969 -0.056435034 -0.1295479 0.07178434 0.03773587 0.0925128 -0.16708161
0.057704512 -0.052107472 0.05517593 0.041314058 0.1447252 -0.04613106 -0.046036858 0.066168636
-0.028425416 -0.106698714 -0.029492693 0.019339696 -0.10156888 0.05001449 -0.075961664 0.01690555
-0.07487184 -0.017296176 -0.021042215 0.023794048 0.02736929 -0.06339008 -0.03065824 0.012517264
0.08771503 -0.06549036 0.012415147 0.0025429933 0.1084789 -0.102608696 0.020669812 -0.06919257
0.036080856 0.22116224 0.03693481 -0.028725464 -0.009573113 0.022153202 0.0631296 -0.0319548
-0.07114837 -0.047811646 -0.14569992 0.04261032 0.060621426 -0.0260037 -0.050408594 -0.05901226
0.017010696 -0.08649192 -0.082219444 0.0490334 -0.11747951 0.09615171 0.04572708 -0.1569128
-0.05255401 -0.11411631 -0.006064098 0.059452396 -0.049227588 0.1647242 0.0014383299 0.06719998
0.057525765 0.09177263 -0.03382993 -0.045255203 0.04478834 -0.096834846 -0.07453229 -0.021712994
0.040213652 0.13114983 0.110769026 -0.01195454 0.12995774 0.11870952 -0.09436122 -0.041572604
0.017158063 -0.12410154 0.02651983 0.015503897 -0.037605144 0.046145372 0.04200844 -0.011480527
0.01844248 0.01716297 -0.084061086 0.10271382 -0.11384377 0.025989652 -0.027710406 -0.06629119
-0.010601902 0.028039204 -0.007463519 0.004368505 0.017557109 0.057018567 0.028528593 0.0074295313
00000000: 00dd 9abd 8db4 9c3d fc4f 083c fc2d 073a
00000010: 354c a8bd 397a a53d 09c3 3a3e 2424 883d
00000020: f43f e7bd 9ba3 26bd b17e 143d f975 323d
00000030: 7290 04be d81c 61bb ad43 0dbc 0366 863d
00000040: 63f9 00bb 51be c1bd 1fd0 1abd 4a22 663d
00000050: fd3b c5bd 6b79 623d ff85 e2bd 113f 1b3d
00000060: 9b5d aebc d6e2 bfbd c252 c3bc e838 4abd
00000070: 39dc 0ebd 3b39 09be 3df8 2abc c00a 433d
00000080: 3eb0 04bd 4958 a3bc e4c3 2f3e 2e97 1abd
00000090: aa68 35bd 5633 60bd 88c7 ce3c c9d7 08be
000000a0: b821 acbd e488 823d 3a8a 0b3c 1613 1b3e
000000b0: 44cf 1bbe 4a16 4dbd f3f2 92bd 298e 4c3d
000000c0: c42a 373d b2fb 213d 4c1f 1ebd ce6d 893c
000000d0: 8e3b 6abd 5ec1 a53a 0240 1a3e 8375 7fbd
000000e0: fdb2 d8bd 61dd d0bd 8edd fb3d 6277 3fbb
000000f0: 5bda cd3c 280d 2abd 8b1a 313d 6aeb 5dbd
00000100: 3417 59bc 6a7e c2bd e402 373d dd28 0a3d
00000110: 52f5 893e 42e9 c43d 866b cebb 089e 02bc
00000120: 54ca 17bc 604c c3bd f6ea 583d 3d7e 093e
00000130: 115a a8bd 13ec acbd 745d 163d 102b c93d
00000140: d1b6 e63c 6846 433d bb33 a4bb 3037 43bd
00000150: ea4f de3c 85b9 0a3c 01e3 41bc c6d9 dabd
00000160: e9fd 4fbd 3320 e9bd ab28 a23c 3eba c73d
00000170: 6f64 cebc 4365 383d a762 74bc 1144 1fbd
00000180: c210 9cbd 5f13 3a3d d173 24bd 9d22 c7bd
00000190: 4ae5 2bbd 1032 86bd 8824 26be e59b d1bc
000001a0: 429e f8bc 4c4e 2fbd f34e 193d 18fc 0abc
000001b0: 3653 0ebc 0058 9b3c 545d 3e3d 882f 2abd
000001c0: 9493 5abe 90e6 49bb a39b 48bc ccc1 34bd
000001d0: bc90 b9bd 8e64 c03d b0b5 343b 89bc f83d
000001e0: dbfb 9d3b d618 9a3d 7200 203e 90e1 c23d
000001f0: 79bb 983d 16c8 bbbd b0d7 cf3c b4b2 5a3d
00000200: 8984 5abd 1bfc a03d 5200 89bd a665 4dbd
00000210: 9bbd f13d 8fdb f53c 29f3 1b3d 096e 653d
00000220: 4d8a 123d e1a9 3bbd f207 debd 2294 04bd
00000230: 7ff2 d4bb 6b3b af3d 6fc9 1abe fbc7 d43c
00000240: 9cb4 583d f229 86bd 6c28 67bd 34a8 04be
00000250: ab03 933d ed90 1a3d 5a77 bd3d 7117 2bbe
00000260: 915b 6c3d a56e 55bd 2800 623d ee38 293d
00000270: d832 143e ecf3 3cbd 2591 3cbd 6c83 873d
00000280: 6bdc e8bc db84 dabd a99a f1bc 486e 9e3c
00000290: 5803 d0bd fedb 4c3d ca91 9bbd 827d 8a3c
000002a0: 6856 99bd b6b0 8dbc b960 acbc bceb c23c
000002b0: 9035 e03c a9d2 81bd fd26 fbbc 3615 4d3c
000002c0: f0a3 b33d cf1f 86bd e768 4b3c 59a8 263b
000002d0: 2f2a de3d 8224 d2bd bd53 a93c d6b4 8dbd
000002e0: 85c9 133d 5b78 623e f548 173d aa51 ebbc
000002f0: 8cd8 1cbc a27a b53c 174a 813d 09e3 02bd
00000300: 3db6 91bd 25d6 43bd 5c32 15be 2988 2e3d
00000310: 2c4e 783d b605 d5bc 3e79 4ebd d7b6 71bd
00000320: 045a 8b3c ad22 b1bd ab62 a8bd 3fd7 483d
00000330: 1999 f0bd 30eb c43d 524c 3b3d c0ad 20be
00000340: e042 57bd d0b5 e9bd 57b5 c6bb 5b84 733d
00000350: dea2 49bd 76ad 283e 5886 bc3a 25a0 893d
00000360: 23a0 6b3d 4af3 bb3d 4191 0abd 855d 39bd
00000370: fa73 373d 5951 c6bd 63a4 98bd 73df b1bc
00000380: 12b7 243d 244c 063e dfda e23d fadc 43bc
00000390: a413 053e fa1d f33d 7540 c1bd 0948 2abd
000003a0: 118f 8c3c f328 febd 1d40 d93c 0f04 7e3c
000003b0: da07 1abd ee02 3d3d 0b11 2c3d d218 3cbc
000003c0: af14 973c 5b99 8c3c 3828 acbd a05b d23d
000003d0: ec26 e9bd 40e8 d43c ef00 e3bc adc3 87bd
000003e0: 9ab3 2dbc 79b2 e53c 8990 f4bb ad25 8f3b
000003f0: edd3 8f3c 4d8c 693d ccb4 e93c 6d73 f33b

rnn.rnn.bias_ih_l0 f4 [192]
-0.013217861 -0.018607726 0.008144625 -0.029987767 0.027159536 0.036087517 0.0041609686 -0.008116121
-0.023064945 0.04651447 0.02632395 -0.0025592677 0.036351413 0.003600868 0.016755793 -0.028522816
-0.016716186 0.019701537 0.007523495 -0.03353592 -0.012158675 0.0064710327 -0.052298307 0.067148894
0.006973998 0.058678806 -0.04184941 -0.0036906407 -0.026540905 -0.0013056443 0.024887992 0.012197571
-0.014181938 0.011606772 0.022161633 0.047796547 -0.014763252 -0.013215125 0.060694113 -0.022010023
0.021646317 0.017805563 -0.037206575 -0.014090897 0.07127997 0.012142544 -0.02086714 0.025167845
0.012245424 0.021325517 -0.005125086 0.049652733 0.013148374 -0.031075602 -0.005400163 -0.030403586
0.017112985 -0.011691134 0.035837624 0.023621384 0.00077337614 -0.010808502 0.0019645537 0.007988541
-0.074577294 -0.054156527 0.02054851 -0.06718982 -0.07712837 0.028434116 0.024516774 -0.0155776935
-0.088430226 -0.008115505 -0.039892394 0.04866357 0.05950314 0.04273004 -0.019574882 -0.019077811
0.03797661 0.013085045 0.07540485 -0.005323467 0.033420578 0.0857102 0.015104774 0.032115623
0.034086745 -0.073331416 0.008708032 0.031235293 0.00772133 0.07623042 0.03205756 -0.0024902169
0.011647388 -0.0023548107 0.015620539 0.1042033 0.07481437 -0.019209014 -0.033395167 0.0032026817
0.07034175 0.044244092 -0.026892137 0.052176908 0.08061203 0.010334472 -0.046549067 -0.016908597
-0.02287738 0.03320487 -0.09637644 0.0028733674 -0.012810516 0.036648974 -0.040556155 -0.041555
0.06458766 0.044020545 0.08998291 -0.014279541 0.035205618 -0.053429376 -0.055179603 0.047018003
0.02430802 -0.02509739 0.014429833 -0.007433154 -0.027104525 -0.025690591 0.035552092 -0.00031694098
0.01454702 -0.013394624 -0.0004970886 0.0057574394 0.024390819 -0.015937524 -0.00035153487 0.025469203
0.017181616 0.0003822883 -0.0015985058 0.0072227335 0.0014244075 0.0024303468 0.009661035 -0.015679797
0.0074911676 0.021408306 0.01691762 0.035871133 0.018305847 0.019757258 0.028926488 -0.00036495546
0.0073119868 0.04701607 -0.012607725 0.029560493 0.014139312 -0.03325083 0.029145638 0.009687975
-0.024313526 0.019409522 -0.008939656 -0.013908207 0.011769934 -0.023680218 -0.008534256 -0.0177508
-0.0069378004 -0.04088642 -0.008559418 -0.033468924 0.023863507 -0.0039820704 -0.0094089825 -0.0008047717
-0.0011657132 -0.005749457 0.008827129 -0.0025377176 0.008617811 0.029174147 -0.02389592 -0.034989092
00000000: ba8f 58bc 3b6f 98bc 0971 053c e8a8 f5bc
00000010: ad7d de3c 81d0 133d bc58 883b 7bf9 04bc
00000020: b2f2 bcbc f585 3e3d 53a5 d73c 63b9 27bb
00000030: 38e5 143d 8afc 6b3b 7243 893c aea8 e9bc
00000040: 62f0 88bc 1e65 a13c a687 f63b f65c 09bd
00000050: 2e35 47bc f50a d43b c036 56bd 5c85 893d
00000060: 2386 e43b 3059 703d 496a 2bbd adde 71bb
00000070: 506c d9bc 2722 abba e7e1 cb3c 52d8 473c
00000080: 5c5b 68bc 552a 3e3c 508c b53c 50c6 433d
00000090: 91e1 71bc 4084 58bc 649a 783d 5d4e b4bc
000000a0: 9e53 b13c f9dc 913c ec65 18bd 81dd 66bc
000000b0: 3cfb 913d 85f1 463c 90f1 aabc cc2c ce3c
000000c0: 08a1 483c dab2 ae3c 56f0 a7bb aa60 4b3d
000000d0: 476c 573c 4392 febc daf3 b0bb f110 f9bc
000000e0: 8830 8c3c 2c8c 3fbc 79ca 123d a281 c13c
000000f0: 65bc 4a3a 2516 31bc bebf 003b 5fe2 023c
00000100: fbbb 98bd 3cd3 5dbd 5955 a83c d19a 89bd
00000110: 7bf5 9dbd aaee e83c 67d7 c83c 9539 7fbc
00000120: e81a b5bd e5f6 04bc 3566 23bd 7453 473d
00000130: 91b9 733d b205 2f3d 815b a0bc 1249 9cbc
00000140: 5d8d 1b3d a862 563c dc6d 9a3d 7a70 aebb
00000150: 04e4 083d d488 af3d 047a 773c ac8b 033d
00000160: 8b9e 0b3d c82e 96bd 22ac 0e3c 28e1 ff3c
00000170: 3603 fd3b b21e 9c3d ca4e 033d e832 23bb
00000180: b0d4 3e3c 2b53 1abb 4aed 7f3c 8a68 d53d
00000190: 4738 993d 395c 9dbc 5fc9 08bd 15e4 513b
000001a0: 560f 903d 4b39 353d e64c dcbc 74b7 553d
000001b0: ec17 a53d eb51 293c 3caa 3ebd e683 8abc
000001c0: 5869 bbbc d401 083d 0361 c5bd 1b4f 3c3b
000001d0: 33e3 51bc 3c1d 163d 361e 26bd 9335 2abd
000001e0: 8946 843d e34e 343d f648 b83d bcf4 69bc
000001f0: c433 103d c3d8 5abd 0204 62bd f395 403d
00000200: 9d21 c73c 0b99 cdbc 1b6b 6c3c d191 f3bb
00000210: 4f0a debc 1375 d2bc 129f 113d 192b a6b9
00000220: a056 6e3c 2075 5bbc 0d4f 02ba e7a8 bc3b
00000230: 41cf c73c 698f 82bc 364e b8b9 caa4 d03c
00000240: 76c0 8c3c de6d c839 f484 d1ba aeac ec3b
00000250: 2fb3 ba3a 7446 1f3b 5149 1e3c eb72 80bc
00000260: 7878 f53b 7960 af3c d296 8a3c 9ced 123d
00000270: 25f6 953c f9d9 a13c 3ef7 ec3c 7e57 bfb9
00000280: 6499 ef3b ec93 403d a290 4ebc d928 f23c
00000290: 93a8 673c 0632 08bd d5c2 ee3c 50ba 1e3c
000002a0: 292d c7bc b800 9f3c a377 12bc 40df 63bc
000002b0: aed6 403c 04fd c1bc 44d3 0bbc 206a 91bc
000002c0: 7d56 e3bb 8578 27bd cd3c 0cbc b616 09bd
000002d0: 677d c33c 077c 82bb 2228 1abc 51f7 52ba
000002e0: d8ca 98ba f165 bcbb aa9f 103c d64f 26bb
000002f0: b831 0d3c 9ffe ee3c 60c1 c3bc b950 0fbd
