onpolicy/results/MPE/navigation/rmappo/crap_bad/wandb/offline-run-20221029_142816-3l6zknye/files/critic.pt (torch, 147131 bytes, 21 tensors)

base.feature_norm.weight f4 [18]
1.0103782 1.0002053 0.9777626 0.9920696 0.9904734 1.0001811 0.98049444 1.0183822
0.97432667 0.99697155 1.0254583 1.0207552 1.0308628 0.9887173 0.9834459 0.9807699
0.9899686 1.012983
00000000: 1354 813f ba06 803f a64e 7a3f 46f8 7d3f
00000010: aa8f 7d3f ef05 803f af01 7b3f 595a 823f
00000020: 796d 793f 8739 7f3f 3842 833f 1ba8 823f
00000030: 50f3 833f 941c 7d3f 1cc3 7b3f bc13 7b3f
00000040: 956e 7d3f 6da9 813f

base.feature_norm.bias f4 [18]
0.005013343 0.006269354 -0.012314464 0.0016884308 0.030606447 -0.03461731 0.023393137 0.0012842399
0.040796623 0.027901636 -0.0012148482 -0.023345374 -0.02091528 0.004155929 -0.010297966 0.012322404
-0.00034126203 -0.0030145205
00000000: f846 a43b 276f cd3b 9bc2 49bc 564e dd3a
00000010: 5fba fa3c e1ca 0dbd f7a2 bf3c f153 a83a
00000020: 5c1a 273d f991 e43c 8b3b 9fba cc3e bfbc
00000030: 8556 abbc 762e 883b cdb8 28bc e9e3 493c
00000040: 6aeb b2b9 438f 45bb

base.mlp.fc1.0.weight f4 [64, 18]
-0.20669383 0.09831596 -0.15182106 0.0681452 -0.2612386 0.19653094 0.042751614 0.042352438
0.0067289467 0.079945736 -0.15320754 -0.010832311 0.25204453 -0.113282435 0.12503172 -0.17416511
0.08871613 -0.033434104 -0.10151261 -0.076435536 -0.14303085 0.0062989444 0.02967851 0.36144832
-0.09978355 -0.09189202 0.06543667 0.09506436 -0.10680879 0.13274668 0.12715748 -0.062102098
-0.1312171 0.053213842 0.062318344 -0.24010135 -0.07244421 0.056411155 0.024081817 0.4235392
-0.024723627 -0.29154086 0.13465217 -0.051579274 0.13762338 -0.09494361 0.16248904 -0.0314669
0.13146555 0.07193148 0.04667861 0.124752045 0.013888333 -0.14447968 -0.040063955 0.14799538
0.006400779 0.19771177 0.41259697 0.19317679 0.30346435 0.017703786 -0.088612214 -0.39423817
0.056174137 0.0871255 -0.029397769 -0.057907436 0.15027557 0.0064803883 0.0407999 -0.22954021
-0.17578816 -0.08905599 -0.21203375 -0.32575366 0.2906029 0.1043007 -0.13639171 -0.15431675
0.19837198 -0.24572457 0.080828294 0.36373863 -0.18848607 -0.14066854 0.05888671 0.2693284
0.1462374 0.04060384 -0.19195803 0.37598723 0.014719681 0.25268057 0.0025932854 0.09424464
-0.5201665 0.037474237 -0.08445813 -0.043745838 -0.0039171656 -0.24955213 -0.038340017 0.12746374
-0.0048885248 -0.11004923 0.24470164 -0.3108928 -0.10575499 -0.0734241 0.18441978 0.056211088
0.27351847 -0.22759447 0.28809443 0.07455618 0.01005768 0.31960878 0.008617239 -0.11569005
-0.04383803 -0.108417064 -0.18056244 -0.15846136 0.18036349 -0.045052014 0.014678193 -0.31937253
0.14869042 -0.062077705 -0.1884431 -0.15384467 -0.10750761 0.10977825 -0.20588304 -0.21940942
-0.11805938 -0.078615524 -0.075615056 -0.06683828 0.12910561 -0.04128076 0.10546977 -0.27112818
0.15110233 -0.12300737 -0.30037734 0.09160068 0.16186541 -0.21284337 0.0678487 -0.28924403
-0.06388499 0.09387172 0.2972566 0.06135379 -0.35782075 -0.21540073 0.15193239 -0.0391294
0.07223353 -0.0428222 0.07330671 -0.012785961 0.14364317 -0.078433245 0.025131177 -0.16210084
-0.038708698 -0.1467709 0.15196586 0.13152407 0.02193075 -0.22622488 -0.09743005 -0.092186086
0.15626723 0.21487233 0.18397765 -0.27211407 0.052981306 -0.05734094 0.13594073 -0.07284262
-0.023451988 -0.023638304 -0.122761205 0.2687933 0.019225044 -0.009829624 -0.09714479 -0.23936482
-0.34299642 0.1810079 0.1454337 -0.21257024 -0.17303051 -0.37608054 -0.062882274 -0.01075297
-0.065826334 0.108755864 0.061874438 0.3108561 0.054451145 0.37140083 0.0575721 -0.049173407
0.2009305 0.04768465 0.204255 -0.11760802 -0.23434998 0.3428484 0.099352986 -0.3200795
-0.11150814 -0.39876923 0.1457544 0.1241635 0.14196421 0.16282918 0.029549856 -0.19157177
-0.091341086 -0.17188422 -0.25352153 0.07211683 0.19305617 -0.10067901 0.26119334 0.2234705
0.01597573 -0.040838696 0.31754512 -0.1797674 0.03762979 -0.07455378 -0.005968803 -0.33698767
0.08340084 0.19387251 0.1474648 0.016378324 -0.12084891 -0.0553725 -0.2978522 0.054641403
0.20822936 0.3027151 0.011009951 -0.23053929 0.037870884 -0.03216651 0.24222264 -0.2496879
00000000: 8ca7 53be e159 c93d fb76 1bbe b68f 8b3d
00000010: 11c1 85be 683f 493e 511c 2f3d c079 2d3d
00000020: 7f7e dc3b 97ba a33d 70e2 1cbe 017a 31bc
00000030: fb0b 813e 9f00 e8bd 5108 003e 5758 32be
00000040: cdb0 b53d 33f2 08bd d8e5 cfbd 3c8a 9cbd
00000050: ae76 12be 6067 ce3b 5920 f33c c10f b93e
00000060: 515b ccbd e231 bcbd a903 863d 1ab1 c23d
00000070: 91be dabd bfee 073e 9235 023e c55e 7ebd
00000080: c75d 06be c2f6 593d 8541 7f3d 21dd 75be
00000090: a15d 94bd 620f 673d 3b47 c53c 21da d83e
000000a0: 3489 cabc d844 95be 42e2 093e ca44 53bd
000000b0: 25ed 0c3e cc71 c2bd 8763 263e 70e3 00bd
000000c0: e89e 063e d050 933d 1232 3f3d 007e ff3d
000000d0: e48b 633c 7bf2 13be 1a1a 24bd 1a8c 173e
000000e0: a0bd d13b f474 4a3e e93f d33e 23d0 453e
000000f0: ae5f 9b3e 8807 913c 527a b5bd 96d9 c9be
00000100: da16 663d db6e b23d 97d3 f0bc 5930 6dbd
00000110: d7e1 193e 7059 d43b cc1d 273d 970c 6bbe
00000120: d001 34be fd62 b6bd 601f 59be 2fc9 a6be
00000130: e7c9 943e 9b9b d53d 45aa 0bbe 3605 1ebe
00000140: 0622 4b3e 399f 7bbe 4e89 a53d f33b ba3e
00000150: 7e02 41be 6a0b 10be 3133 713d 69e5 893e
00000160: 42bf 153e 3650 263d a590 44be 6681 c03e
00000170: d12a 713c 595f 813e 1cf4 293b 5503 c13d
00000180: a229 05bf 967e 193d 62f8 acbd d62e 33bd
00000190: 915b 80bb 988a 7fbe 6c0a 1dbd db85 023e
000001a0: eb2f a0bb 7e61 e1bd 1193 7a3e 572d 9fbe
000001b0: 1296 d8bd 605f 96bd 8ad8 3c3e 993d 663d
000001c0: 9d0a 8c3e 860e 69be 1d81 933e e9b0 983d
000001d0: f8c8 243c c3a3 a33e 522f 0d3c e8ee ecbd
000001e0: 828f 33bd c409 debd 5ce5 38be b243 22be
000001f0: 35b1 383e 7688 38bd ce7c 703c cc84 a3be
00000200: 4d42 183e 3145 7ebd 3af7 40be 7589 1dbe
00000210: f32c dcbd 6bd3 e03d 01d3 52be ddac 60be
00000220: 1ec9 f1bd 2d01 a1bd 11dc 9abd 82e2 88bd
00000230: 4334 043e 0416 29bd 8900 d83d 50d1 8abe
00000240: 92ba 1a3e 4aeb fbbd 0fcb 99be 2399 bb3d
00000250: 0cc0 253e 9df3 59be 42f4 8a3d cb17 94be
00000260: 22d6 82bd d13f c03d 0432 983e 1d4e 7b3d
00000270: 4834 b7be 0292 5cbe 2a94 1b3e 2646 20bd
00000280: 2cef 933d 5566 2fbd d421 963d 357c 51bc
00000290: 3217 133e 9ca1 a0bd e6df cd3c c3fd 25be
000002a0: 038d 1ebd 1c4b 16be f09c 1b3e 3fae 063e
000002b0: 1ea8 b33c 7fa7 67be 6889 c7bd 0fcc bcbd
000002c0: 8404 203e 7e07 5c3e a364 3c3e 8952 8bbe
000002d0: ed02 593d 55de 6abd 0c34 0b3e 832e 95bd
000002e0: 621e c0bc 1ea5 c1bc 3a6a fbbd 479f 893e
000002f0: d77d 9d3c 6e0c 21bc d9f3 c6bd 0d1c 75be
00000300: 3a9d afbe 235a 393e 92ec 143e 03ac 59be
00000310: e92e 31be a18d c0be 6cc8 80bd 3a2d 30bc
00000320: f5cf 86bd 65bb de3d 0d70 7d3d 8828 9f3e
00000330: 2a08 5f3d 4028 be3e b9d0 6b3d 0e6a 49bd
00000340: bac0 4d3e fb50 433d 3928 513e 79dc f0bd
00000350: 71f9 6fbe d389 af3e 9479 cb3d 76e1 a3be
00000360: 615e e4bd 7b2b ccbe a440 153e 6f49 fe3d
00000370: 115f 113e b1bc 263e 8a12 f23c 642b 44be
00000380: 0911 bbbd 6b02 30be 93cd 81be fdb1 933d
00000390: 84b0 453e cc30 cebd 22bb 853e 73d5 643e
000003a0: 89df 823c 7a46 27bd 4695 a23e f214 38be
000003b0: b221 1a3d a7af 98bd f395 c3bb a689 acbe
000003c0: 0fce aa3d 8486 463e 0301 173e d62b 863c
000003d0: a27f f7bd 46ce 62bd 1580 98be aacf 5f3d
000003e0: 143a 553e 79fd 9a3e 1563 343c 7e12 6cbe
000003f0: 801e 1b3d 08c1 03bd 3609 783e 2fae 7fbe

base.mlp.fc1.0.bias f4 [64]
-0.018845536 -0.038058482 0.0037378795 -0.023600716 0.0044620624 0.010872965 0.037030365 -0.022437872
0.03161039 0.006572988 0.014947135 0.02527451 -0.007886689 0.0056513073 -0.0074163615 0.007563023
-0.007857644 -0.011329409 0.0047936244 0.0018045529 0.03827349 -0.033651922 -0.0048481626 -0.004594291
-0.016057499 0.002618 -0.019091506 -0.011170016 0.03445085 0.014663938 -0.02322732 0.051828403
-0.018189931 -0.015165034 -0.011959646 0.034522716 0.026670722 -0.040971767 -0.0043157064 -0.0032748324
0.009962625 0.010931058 0.0019994497 0.030015942 0.02572788 0.007942967 -0.006333478 -0.010494323
-0.023798458 -0.018008059 0.006866186 0.008471623 -0.03187145 0.02273901 -0.017424447 -0.028958382
-0.022901934 -0.01636201 0.00477624 0.021521838 0.008164353 -0.007798968 -0.036047272 0.00066055136
00000000: f461 9abc 36e3 1bbd 36f7 743b 4a56 c1bc
00000010: 7e36 923b 8524 323c 27ad 173d a1cf b7bc
00000020: e579 013d 3862 d73b d4e4 743c 7d0c cf3c
00000030: 2c37 01bc 9a2e b93b f304 f3bb 3cd3 f73b
00000040: 59bd 00bc fc9e 39bc d613 9d3b bf86 ec3a
00000050: aac4 1c3d 99d6 09bd 56dd 9ebb b58b 96bb
00000060: 048b 83bc c092 2b3b ca65 9cbc 7102 37bc
00000070: 561c 0d3d 0441 703c 3847 bebc 054a 543d
00000080: 0d03 95bc c376 78bc 64f2 43bc b167 0d3d
00000090: 8f7c da3c 03d2 27bd c56a 8dbb 929e 56bb
000000a0: 473a 233c 2e18 333c 3309 033b fee3 f53c
000000b0: 46c3 d23c 3823 023c 1089 cfbb 62f0 2bbc
000000c0: fcf4 c2bc a385 93bc befd e03b 90cc 0a3c
000000d0: a38b 02bd 2947 ba3c b7bd 8ebc 213a edbc
000000e0: d69c bbbc 9f09 86bc 0182 9c3b 914e b03c
000000f0: c7c3 053c 7c8e ffbb 4ea6 13bd da28 2d3a

base.mlp.fc1.2.weight f4 [64]
1.0188098 0.9955885 0.9797716 1.0015833 1.0161904 0.9876974 1.0201985 1.0006714
1.0269098 0.98485816 1.0078521 0.98087466 0.99633 0.9786069 0.99006736 0.9969326
0.9914167 0.98807234 1.0329441 0.9945388 0.9994391 1.0053965 0.9986556 1.0007845
0.9990958 1.0101665 0.9893313 0.9920308 0.97910744 1.0009063 0.99505514 1.0263144
0.9865524 0.995719 0.9975451 1.0113589 1.0032086 0.9947428 1.0014902 0.97872496
1.0080922 0.99315315 1.0047501 0.9927656 1.0005579 1.0165406 1.0138899 0.9930941
1.0054501 0.9990492 0.9838228 1.0220201 1.0010608 0.995115 1.0053774 0.98440385
1.0035156 0.9907802 0.9726226 1.0536119 0.9760027 1.003903 1.0001755 0.98194915
00000000: 5c68 823f e3de 7e3f 50d2 7a3f e233 803f
00000010: 8712 823f bdd9 7c3f dd95 823f 0016 803f
00000020: c871 833f aa1f 7c3f 4c01 813f 9a1a 7b3f
00000030: 7c0f 7f3f fb85 7a3f 0e75 7d3f fa36 7f3f
00000040: 7ccd 7d3f 4ff2 7c3f 8337 843f 189a 7e3f
00000050: 3edb 7f3f d5b0 803f e5a7 7f3f b519 803f
00000060: bec4 7f3f 234d 813f d144 7d3f bbf5 7d3f
00000070: c9a6 7a3f b31d 803f efbb 7e3f 455e 833f
00000080: b38e 7c3f 71e7 7e3f 1e5f 7f3f 3574 813f
00000090: 2469 803f 77a7 7e3f d530 803f b88d 7a3f
000000a0: 2a09 813f 493f 7e3f a79b 803f e325 7e3f
000000b0: 4812 803f 011e 823f 25c7 813f 6a3b 7e3f
000000c0: 97b2 803f b0c1 7f3f d0db 7b3f 8ed1 823f
000000d0: c322 803f dbbf 7e3f 35b0 803f e401 7c3f
000000e0: 3373 803f c5a3 7d3f cbfd 783f c1dc 863f
000000f0: 50db 793f e57f 803f c005 803f 0561 7b3f

base.mlp.fc1.2.bias f4 [64]
-0.034938525 -0.016613504 -0.0022845287 -0.0357 -0.013314318 0.017733695 0.037960835 -0.017577276
0.026864383 0.009344992 0.021210792 0.03322228 -0.017556602 0.016510358 -0.008511196 0.010001634
-0.009860452 -0.0028448026 -0.013457057 0.0040338202 0.019440018 -0.02599684 -0.0064680665 -0.030793566
-0.030376442 -0.013146405 -0.025720684 -0.011826687 0.037666414 0.03083219 -0.016564611 0.05702143
0.00022435121 -0.03334949 -0.0017193675 0.044086445 0.013440962 -0.035643585 -0.0049907723 -0.010177017
-0.005579765 0.011559938 0.0044009397 0.032492433 0.021652808 0.018771771 -0.032508288 -0.011072516
-0.031250793 -0.0245709 0.016137581 0.022949195 -0.03697507 0.010921835 -0.018188974 -0.022294812
-0.025268886 -0.008010743 0.017400574 0.017070783 0.01351508 -0.012344192 -0.028281083 0.01198005
00000000: b31b 0fbd 0b19 88bc 08b8 15bb 2a3a 12bd
00000010: 4c24 5abc 4146 913c d27c 1b3d 38fe 8fbc
00000020: b212 dc3c bd1b 193c 41c2 ad3c 1614 083d
00000030: ddd2 8fbc bb40 873c 8b72 0bbc e5dd 233c
00000040: bc8d 21bc de6f 3abb fd7a 5cbc 232e 843b
00000050: ac40 9f3c 53f7 d4bc 13f2 d3bb ca42 fcbc
00000060: 04d8 f8bc 0564 57bc 2fb4 d2bc b8c4 41bc
00000070: 1948 1a3d ca93 fc3c 82b2 87bc 4e8f 693d
00000080: d23f 6b39 7a99 08bd 665c e1ba fd93 343d
00000090: 7b37 5c3c 02ff 11bd a289 a3bb 81bd 26bc
000000a0: 76d6 b6bb e565 3d3c c235 903b c916 053d
000000b0: 3b61 b13c 42c7 993c 6927 05bd 8069 35bc
000000c0: d500 00bd e948 c9bc f632 843c f3ff bb3c
000000d0: 2c73 17bd 7ff1 323c 0b01 95bc 9ca3 b6bc
000000e0: b200 cfbc 7e3f 03bc a68b 8e3c 07d8 8b3c
000000f0: 5b6e 5d3c 4b3f 4abc bbad e7bc f947 443c

base.mlp.fc_h.0.weight f4 [64, 64]
-0.0047602337 0.13088569 0.24720818 -0.017176196 -0.01369667 0.20877811 0.25877428 0.18877974
0.23488851 0.21110024 0.014464863 0.24405468 0.09972061 0.20903903 -0.22935261 0.03294495
-0.11091997 -0.42443258 -0.044100907 0.079310186 -0.15368034 0.0671197 -0.13706963 0.20715551
-0.14872634 0.22543366 -0.23875614 -0.3795682 -0.19297987 0.10167725 -0.22004844 0.24558939
0.1356451 0.17866738 0.09610899 0.20877951 -0.028307209 0.10081444 -0.040791113 -0.06335932
-0.010368304 -0.009056143 0.3481068 -0.10401742 0.18450491 -0.0741012 0.24807015 -0.27960378
-0.20234856 -0.09686634 0.057272818 0.17606294 0.010608335 0.3149926 0.0039924667 -0.1483384
-0.06890906 0.15822051 -0.15267423 0.23543169 0.17282839 -0.02451315 0.038348217 -0.098686315
-0.07900919 0.18203838 -0.01464226 0.111054845 0.22220801 -0.1418489 -0.07155284 0.1611511
-0.07319955 -0.032330867 0.14154229 -0.01959691 0.21555436 0.21547733 -0.52815425 0.0037027586
0.047328744 0.069261126 0.20509963 0.23483074 -0.06313554 0.06391096 0.30491278 -0.09423893
-0.33945093 -0.019866416 0.13161099 -0.2944477 -0.05501869 -0.2615971 -0.09118061 -0.049905952
-0.07242975 -0.18206029 0.27374208 -0.20903862 0.049409125 0.047543906 0.15063198 0.029493289
-0.13479121 -0.15022367 -0.16427276 0.021244941 -0.06269822 -0.020600405 0.1966509 0.008174847
0.20109002 0.3191061 -0.27704704 -0.1650923 -0.29295164 -0.10958466 -0.12026632 -0.33182108
-0.29238176 -0.18507564 0.10526063 0.0754542 -0.039580353 0.16181786 0.055390466 -0.013015925
0.25485685 0.030607762 -0.3634356 -0.18650629 0.03824829 -0.038427122 0.018452464 -0.10520797
0.116220914 0.14859 -0.22518644 -0.16375983 0.16364591 0.2439106 -0.08542142 -0.104108185
0.0070079085 -0.11375744 -0.11922113 -0.07289081 -0.30192205 -0.2484881 0.036597617 0.0811489
0.18491139 -0.060434643 0.37775367 -0.15651803 -0.2044846 -0.19922248 0.0019685326 0.022470266
0.058521416 -0.021815155 0.17037345 0.01830158 -0.038429342 0.20279145 0.1658209 0.006448608
0.3012191 -0.18779124 -0.07466528 -0.14849576 -0.24347748 0.29581538 -0.40922034 -0.33464533
0.036630116 -0.2961466 0.090102404 0.14337425 0.028059114 -0.055277593 0.13878489 -0.17460492
0.09360304 -0.17787169 -0.034450162 0.062080417 0.043042596 -0.059393197 -0.034641936 0.3852025
-0.37608108 0.297513 0.028385537 0.09990453 -0.08002825 -0.20746683 -0.08510155 -0.33029327
-0.20721906 -0.048393957 -0.07749996 -0.031064868 -0.037904523 0.06408748 0.024085917 -0.053781494
0.0426327 0.12979624 -0.2160579 -0.20923476 0.11410373 -0.046272706 -0.35087648 -0.10220154
-0.075553425 -0.007365739 -0.29729074 0.01677579 -0.3422028 -0.103131264 0.14012775 0.08169493
-0.10340687 0.15190433 0.21555708 -0.0072353994 0.09136526 0.34974185 0.14303692 0.18008825
0.12926197 0.005486542 -0.057503995 -0.085014604 0.17864886 -0.2864917 0.1492438 -0.2817149
0.30853078 -0.008023817 0.023994442 -0.15367325 0.14584152 0.18243861 0.33780503 0.24178831
-0.22507651 -0.18922888 0.21037574 0.03961314 -0.060107812 -0.041916385 0.12985384 0.13432716
00000000: bcfb 9bbb e606 063e 2424 7d3e 18b5 8cbc
00000010: ff67 60bc eec9 553e 107e 843e 7a4f 413e
00000020: 9d86 703e a92a 583e 08fe 6c3c 78e9 793e
00000030: 523a cc3d 540e 563e 69db 6abe 49f1 063d
00000040: 022a e3bd 3a4f d9be 27a3 34bd 616d a23d
00000050: 615e 1dbe 0e76 893d fb5b 0cbe 9320 543e
00000060: b84b 18be 15d8 663e 7d7c 74be c356 c2be
00000070: 849c 45be 293c d03d 6154 61be c97b 7b3e
00000080: 8de6 0a3e 95f4 363e cad4 c43d 4cca 553e
00000090: 85e4 e7bc cd77 ce3d 9514 27bd 88c2 81bd
000000a0: d2df 29bc 3860 14bc 0e3b b23e 1607 d5bd
000000b0: dbee 3c3e 5fc2 97bd 1a06 7e3e 3a28 8fbe
000000c0: 7634 4fbe dc61 c6bd e796 6a3d d849 343e
000000d0: 95ce 2d3c b646 a13e 3dd3 823b 06e6 17be
000000e0: 3120 8dbd 8f04 223e a256 1cbe 0115 713e
000000f0: edf9 303e cdcf c8bc 0513 1d3d 0d1c cabd
00000100: 92cf a1bd 4568 3a3e 17e6 6fbc b970 e33d
00000110: 7f8a 633e d740 11be 4c8a 92bd cb04 253e
00000120: a5e9 95bd 5f6d 04bd 76f0 103e b389 a0bc
00000130: 48ba 5c3e 17a6 5c3e 1e35 07bf fba9 723b
00000140: c9db 413d c7d8 8d3d a305 523e 7877 703e
00000150: 354d 81bd c0e3 823d 871d 9c3e 5700 c1bd
00000160: 83cc adbe e5be a2bc 08c5 063e d9c1 96be
00000170: 475b 61bd 0ef0 85be e6bc babd 2f6a 4cbd
00000180: 0c56 94bd 036e 3abe ec27 8c3e 380e 56be
00000190: 3961 4a3d 66bd 423d 453f 1a3e e99b f13c
000001a0: b506 0abe 3cd4 19be 1e37 28be df09 ae3c
000001b0: ed67 80bd 2ec2 a8bc db5e 493e cbef 053c
000001c0: 8bea 4d3e e061 a33e 1cd9 8dbe f50d 29be
000001d0: c2fd 95be ec6d e0bd 304e f6bd 74e4 a9be
000001e0: 10b3 95be 7884 3dbe e392 d73d bb87 9a3d
000001f0: 021f 22bd 95b3 253e 1de1 623d bf40 55bc
00000200: 997c 823e 21bd fa3c 3b14 babe 81fb 3ebe
00000210: 3daa 1c3d c265 1dbd 9f29 973c 4777 d7bd
00000220: 3b05 ee3d fa27 183e 4697 66be a8b0 27be
00000230: cb92 273e b3c3 793e 6df1 aebd ac36 d5bd
00000240: 99a2 e53b a9f9 e8bd 352a f4bd c747 95bd
00000250: 8795 9abe aa73 7ebe 62e7 153d 6531 a63d
00000260: 6959 3d3e 518a 77bd ee68 c13e 4346 20be
00000270: 6964 51be fa00 4cbe 7f02 013b 9013 b83c
00000280: 27b4 6f3d b2b5 b2bc 6176 2e3e 32ed 953c
00000290: 1668 1dbd 90a8 4f3e f4cc 293e d84e d33b
000002a0: 6439 9a3e 594c 40be 1cea 98bd 460f 18be
000002b0: 2952 79be 1d75 973e 5485 d1be a256 abbe
000002c0: 7609 163d 87a0 97be 9c87 b83d b3d0 123e
000002d0: 3adc e53c c26a 62bd a01d 0e3e a2cb 32be
000002e0: f3b2 bf3d ff23 36be 9d1b 0dbd 0948 7e3d
000002f0: 6f4d 303d 4846 73bd b4e4 0dbd 4339 c53e
00000300: b38d c0be a053 983e c988 e83c bf9a cc3d
00000310: dae5 a3bd 2f72 54be b949 aebd 331c a9be
00000320: 3c31 54be be38 46bd 4db8 9ebd c07b febc
00000330: c641 1bbd 4c40 833d d44f c53c fc49 5cbd
00000340: a09f 2e3d 4ee9 043e 483e 5dbe a341 56be
00000350: 37af e93d 7388 3dbd 15a6 b3be 0a4f d1bd
00000360: c1bb 9abd 4c5c f1bb 7e36 98be 626d 893c
00000370: 3535 afbe 7c36 d3bd a67d 0f3e ac4f a73d
00000380: fbc6 d3bd cf8c 1b3e ffba 5c3e ee16 edbb
00000390: b61d bb3d 5d11 b33e 4578 123e 0e69 383e
000003a0: 405d 043e 73c8 b33b 4f89 6bbd 231c aebd
000003b0: baef 363e 0aaf 92be 5ed3 183e ef3c 90be
000003c0: bff7 9d3e 5476 03bc fe8f c43c 855c 1dbe
000003d0: 7b57 153e 30d1 3a3e c8f4 ac3e 5b97 773e
000003e0: 757a 66be 37c5 41be bd6c 573e 6341 223d
000003f0: 9c33 76bd 84b0 2bbd 68f8 043e 0f8d 093e

base.mlp.fc_h.0.bias f4 [64]
0.0 0.0 0.0 0.0 0.0 0.0 0.0 0.0
0.0 0.0 0.0 0.0 0.0 0.0 0.0 0.0
0.0 0.0 0.0 0.0 0.0 0.0 0.0 0.0
0.0 0.0 0.0 0.0 0.0 0.0 0.0 0.0
0.0 0.0 0.0 0.0 0.0 0.0 0.0 0.0
0.0 0.0 0.0 0.0 0.0 0.0 0.0 0.0
0.0 0.0 0.0 0.0 0.0 0.0 0.0 0.0
0.0 0.0 0.0 0.0 0.0 0.0 0.0 0.0
00000000: 0000 0000 0000 0000 0000 0000 0000 0000
00000010: 0000 0000 0000 0000 0000 0000 0000 0000
00000020: 0000 0000 0000 0000 0000 0000 0000 0000
00000030: 0000 0000 0000 0000 0000 0000 0000 0000
00000040: 0000 0000 0000 0000 0000 0000 0000 0000
00000050: 0000 0000 0000 0000 0000 0000 0000 0000
00000060: 0000 0000 0000 0000 0000 0000 0000 0000
00000070: 0000 0000 0000 0000 0000 0000 0000 0000
00000080: 0000 0000 0000 0000 0000 0000 0000 0000
00000090: 0000 0000 0000 0000 0000 0000 0000 0000
000000a0: 0000 0000 0000 0000 0000 0000 0000 0000
000000b0: 0000 0000 0000 0000 0000 0000 0000 0000
000000c0: 0000 0000 0000 0000 0000 0000 0000 0000
000000d0: 0000 0000 0000 0000 0000 0000 0000 0000
000000e0: 0000 0000 0000 0000 0000 0000 0000 0000
000000f0: 0000 0000 0000 0000 0000 0000 0000 0000

base.mlp.fc_h.2.weight f4 [64]
1.0 1.0 1.0 1.0 1.0 1.0 1.0 1.0
1.0 1.0 1.0 1.0 1.0 1.0 1.0 1.0
1.0 1.0 1.0 1.0 1.0 1.0 1.0 1.0
1.0 1.0 1.0 1.0 1.0 1.0 1.0 1.0
1.0 1.0 1.0 1.0 1.0 1.0 1.0 1.0
1.0 1.0 1.0 1.0 1.0 1.0 1.0 1.0
1.0 1.0 1.0 1.0 1.0 1.0 1.0 1.0
1.0 1.0 1.0 1.0 1.0 1.0 1.0 1.0
00000000: 0000 803f 0000 803f 0000 803f 0000 803f
00000010: 0000 803f 0000 803f 0000 803f 0000 803f
00000020: 0000 803f 0000 803f 0000 803f 0000 803f
00000030: 0000 803f 0000 803f 0000 803f 0000 803f
00000040: 0000 803f 0000 803f 0000 803f 0000 803f
00000050: 0000 803f 0000 803f 0000 803f 0000 803f
00000060: 0000 803f 0000 803f 0000 803f 0000 803f
00000070: 0000 803f 0000 803f 0000 803f 0000 803f
00000080: 0000 803f 0000 803f 0000 803f 0000 803f
00000090: 0000 803f 0000 803f 0000 803f 0000 803f
000000a0: 0000 803f 0000 803f 0000 803f 0000 803f
000000b0: 0000 803f 0000 803f 0000 803f 0000 803f
000000c0: 0000 803f 0000 803f 0000 803f 0000 803f
000000d0: 0000 803f 0000 803f 0000 803f 0000 803f
000000e0: 0000 803f 0000 803f 0000 803f 0000 803f
000000f0: 0000 803f 0000 803f 0000 803f 0000 803f

base.mlp.fc_h.2.bias f4 [64]
0.0 0.0 0.0 0.0 0.0 0.0 0.0 0.0
0.0 0.0 0.0 0.0 0.0 0.0 0.0 0.0
0.0 0.0 0.0 0.0 0.0 0.0 0.0 0.0
0.0 0.0 0.0 0.0 0.0 0.0 0.0 0.0
0.0 0.0 0.0 0.0 0.0 0.0 0.0 0.0
0.0 0.0 0.0 0.0 0.0 0.0 0.0 0.0
0.0 0.0 0.0 0.0 0.0 0.0 0.0 0.0
0.0 0.0 0.0 0.0 0.0 0.0 0.0 0.0
00000000: 0000 0000 0000 0000 0000 0000 0000 0000
00000010: 0000 0000 0000 0000 0000 0000 0000 0000
00000020: 0000 0000 0000 0000 0000 0000 0000 0000
00000030: 0000 0000 0000 0000 0000 0000 0000 0000
00000040: 0000 0000 0000 0000 0000 0000 0000 0000
00000050: 0000 0000 0000 0000 0000 0000 0000 0000
00000060: 0000 0000 0000 0000 0000 0000 0000 0000
00000070: 0000 0000 0000 0000 0000 0000 0000 0000
00000080: 0000 0000 0000 0000 0000 0000 0000 0000
00000090: 0000 0000 0000 0000 0000 0000 0000 0000
000000a0: 0000 0000 0000 0000 0000 0000 0000 0000
000000b0: 0000 0000 0000 0000 0000 0000 0000 0000
000000c0: 0000 0000 0000 0000 0000 0000 0000 0000
000000d0: 0000 0000 0000 0000 0000 0000 0000 0000
000000e0: 0000 0000 0000 0000 0000 0000 0000 0000
000000f0: 0000 0000 0000 0000 0000 0000 0000 0000

base.mlp.fc2.0.0.weight f4 [64, 64]
-0.019485958 0.120626576 0.23631066 -0.018172372 -0.013548221 0.21479121 0.25282764 0.18816404
0.26380542 0.20322862 0.015119675 0.24034362 0.08864927 0.20969988 -0.23498432 0.040256448
-0.12998514 -0.43780616 -0.08324597 0.07914544 -0.1680733 0.069381356 -0.15338649 0.21184811
-0.15355268 0.21835929 -0.21060121 -0.36274397 -0.21136543 0.08481239 -0.21947466 0.24905157
0.15589228 0.19359331 0.069269694 0.22321412 -0.029726159 0.096265554 -0.04335311 -0.069908686
-0.013938647 -0.013358429 0.34899715 -0.10732119 0.17743282 -0.040879264 0.27097976 -0.29165035
-0.20332858 -0.09593048 0.04553943 0.184836 -0.006768948 0.31651774 0.0041947537 -0.14341292
-0.079990126 0.15909624 -0.12931035 0.27431837 0.16222398 -0.029299878 0.032307643 -0.11336108
-0.06684827 0.20188896 -0.017352821 0.124607176 0.23619409 -0.13338138 -0.07625746 0.16552119
-0.0824541 -0.021775452 0.11579475 -0.00797644 0.22221929 0.18845002 -0.50852245 -0.0099301
0.044862457 0.05502549 0.20428455 0.23317426 -0.059388 0.056935593 0.30607253 -0.10180581
-0.32512534 -0.016429123 0.11385884 -0.28231406 -0.05316716 -0.26537797 -0.09120415 -0.053202823
-0.07772729 -0.16839096 0.26337424 -0.19275686 0.0557876 0.055797417 0.16370514 0.026778638
-0.1303042 -0.11904902 -0.16443963 0.016350638 -0.072770245 -0.03970896 0.18864223 0.0023052564
0.20659086 0.31698704 -0.25066197 -0.17397372 -0.29684496 -0.10610742 -0.12514989 -0.31111136
-0.26911002 -0.17765263 0.09213479 0.06852692 -0.040004794 0.16390665 0.05033813 -0.026125606
0.26564538 0.044458985 -0.35512117 -0.18223864 0.04006664 -0.0396843 0.02224327 -0.10668951
0.0974958 0.15899004 -0.22939484 -0.15183921 0.17137365 0.23361626 -0.07558115 -0.10580048
0.009928918 -0.10776324 -0.11280343 -0.074230276 -0.28959677 -0.24926578 0.052305978 0.07719665
0.18952248 -0.049078397 0.3595191 -0.15960264 -0.20197012 -0.17932728 -0.005900587 0.027789712
0.049369782 -0.011065478 0.18627973 0.016087301 -0.034076374 0.21932228 0.17194365 -0.008954837
0.2994973 -0.17811751 -0.05951974 -0.14694557 -0.2318135 0.26150846 -0.42665237 -0.31916076
0.042932328 -0.29795155 0.09569753 0.13174532 0.026097326 -0.053271245 0.13653056 -0.18019187
0.10022909 -0.17601062 -0.044705488 0.03292852 0.053170737 -0.06381177 -0.031282846 0.38203004
-0.37831435 0.30606785 0.08866754 0.1650135 -0.037154302 -0.18294486 -0.09001932 -0.3116296
-0.1903039 -0.05364202 -0.096155316 -0.044978697 0.004724935 0.05099691 0.0042326264 -0.070967555
0.05013448 0.16188738 -0.19188158 -0.20200694 0.10793058 -0.088969395 -0.3311064 -0.086770825
-0.064333096 -0.0185303 -0.30351454 -0.037807383 -0.26339048 -0.121472314 0.12645772 0.05334154
-0.12906677 0.14870831 0.22444724 -0.018811695 0.05323086 0.34465268 0.1345482 0.15606318
0.15809806 0.009973181 -0.092083715 -0.052085202 0.15568152 -0.3015354 0.12733606 -0.26503053
0.33391565 -0.025444096 0.063293464 -0.116978236 0.12135352 0.22076572 0.34276825 0.23449714
-0.16851902 -0.2041159 0.19868243 0.034002822 -0.08822233 -0.031104749 0.1494719 0.1515737
00000000: 04a1 9fbc 110b f73d 6cfb 713e 3ade 94bc
00000010: 5cf9 5dbc 3af2 5b3e a072 813e 13ae 403e
00000020: 8111 873e 2a1b 503e 83b8 773c a31c 763e
00000030: c08d b53d 91bb 563e bb9f 70be f2e3 243d
00000040: d31a 05be 2128 e0be dd7c aabd 0117 a23d
00000050: 681b 2cbe d017 8e3d 5911 1dbe b6ee 583e
00000060: ea3c 1dbe 9499 5f3e d8a7 57be 94b9 b9be
00000070: 2e70 58be 1eb2 ad3d f7bd 60be 6007 7f3e
00000080: 3aa2 1f3e 533d 463e 45dd 8d3d 3e92 643e
00000090: 4684 f3bc e026 c53d 0893 31bd 492c 8fbd
000000a0: ec5e 64bc 50dd 5abc c1af b23e 36cb dbbd
000000b0: f3b0 353e 0471 27bd dcbd 8a3e 3253 95be
000000c0: 5e35 50be 3377 c4bd 8e87 3a3d a645 3d3e
000000d0: 0dce ddbb 9d0e a23e 2574 893b d6da 12be
000000e0: ddd1 a3bd 20ea 223e ef69 04be 7573 8c3e
000000f0: 0b1e 263e 4c06 f0bc 0555 043d db29 e8bd
00000100: bfe7 88bd fbbb 4e3e 8127 8ebc 0c32 ff3d
00000110: dddc 713e 2195 08be df2c 9cbd 637e 293e
00000120: b2dd a8bd 6f62 b2bc cc25 ed3d 9daf 02bc
00000130: 748d 633e 0bf9 403e 872e 02bf dcb1 22bc
00000140: b2c1 373d 6862 613d f82f 513e 3cc5 6e3e
00000150: d540 73bd 4c35 693d 8ab5 9c3e 917f d0bd
00000160: d476 a6be 5e96 86bc d32e e93d 788b 90be
00000170: cfc5 59bd 9fdf 87be 3ec9 babd 34eb 59bd
00000180: 7c2f 9fbd ae6e 2cbe fdd8 863e 0e62 45be
00000190: 8a81 643d d58b 643d 52a2 273e e05e db3c
000001a0: 776e 05be f9cf f3bd dd62 28be c6f1 853c
000001b0: 9108 95bd dda5 22bd 6e2b 413e c913 173b
000001c0: 8e8c 533e 204c a23e c456 80be 2b26 32be
000001d0: 10fc 97be d94e d9bd 4b27 00be fd49 9fbe
000001e0: cac8 89be 92ea 35be 2ab1 bc3d d857 8c3d
000001f0: 11dc 23bd 25d7 273e 5b2f 4e3d 5e05 d6bc
00000200: ac02 883e a01a 363d 71d2 b5be c49c 3abe
00000210: eb1c 243d 018c 22bd 8537 b63c 0880 dabd
00000220: e1ab c73d 49ce 223e 7be6 6abe bd7b 1bbe
00000230: 937c 2f3e 1a39 6f3e 4aca 9abd ecad d8bd
00000240: e7ac 223c f9b2 dcbd 7c05 e7bd 0b06 98bd
00000250: 0746 94be 873f 7fbe cb3e 563d 4719 9e3d
00000260: 2e12 423e 6e06 49bd e312 b83e e06e 23be
00000270: 41d1 4ebe 92a1 37be b659 c1bb 40a7 e33c
00000280: f837 4a3d fb4b 35bc 1dc0 3e3e 84c9 833c
00000290: ab93 0bbd 0596 603e ff11 303e 4fb7 12bc
000002a0: b657 993e 7064 36be f9ca 73bd e678 16be
000002b0: 8560 6dbe 70e4 853e 2e72 dabe 0a69 a3be
000002c0: cfd9 2f3d 1b8d 98be 11fd c33d 3fe8 063e
000002d0: 0fca d53c f332 5abd abce 0b3e 3884 38be
000002e0: e944 cd3d 213c 34be 1a1d 37bd 0ee0 063d
000002f0: 8fc9 593d bfaf 82bd 7122 00bd 7199 c33e
00000300: 6bb2 c1be edb4 9c3e 5497 b53d 4df9 283e
00000310: 1c2f 18bd e655 3bbe 0d5c b8bd ea8d 9fbe
00000320: 07df 42be bcb7 5bbd 14ed c4bd 953b 38bd
00000330: a1d3 9a3b 23e2 503d d8b1 8a3b 7057 91bd
00000340: d059 4d3d cec5 253e 9b7c 44be e8da 4ebe
00000350: b50a dd3d 9635 b6bd c786 a9be e7b4 b1bd
00000360: 12c1 83bd dbcc 97bc 4266 9bbe eadb 1abd
00000370: 1edb 86be 7ac6 f8bd 227e 013e a97c 5a3d
00000380: 142a 04be fe46 183e 7fd5 653e fc1a 9abc
00000390: 9a08 5a3d 5176 b03e 01c7 093e 07cf 1f3e
000003a0: 75e4 213e 8e66 233c 6396 bcbd 4b57 55bd
000003b0: fa6a 1f3e d962 9abe 6264 023e 15b2 87be
000003c0: fef6 aa3e 2370 d0bc 01a0 813d 4992 efbd
000003d0: 3288 f83d 6910 623e 527f af3e 0520 703e
000003e0: 4090 2cbe c203 51be 6873 4b3e 8b46 0b3d
000003f0: e9ad b4bd 63cf febc 290f 193e 2336 1b3e

base.mlp.fc2.0.0.bias f4 [64]
0.018858803 -0.022081746 -0.0223615 -0.056106754 0.03783233 -0.030894913 0.01017441 -0.037270702
-0.013601949 0.015416355 0.02612369 -0.007829933 -0.031163713 0.023622682 -0.029414961 0.019095168
0.00072432036 -0.009488829 0.011521746 -0.004720361 -0.03512463 -0.05071953 -0.017573362 0.014171433
-0.021717316 0.015141874 0.025840785 -0.014299448 -0.008542919 -0.02304749 -0.012496044 0.0067283795
0.026868192 0.009259551 0.015817879 -0.0064769667 0.02012501 -0.02373924 0.005506482 0.010705465
-0.005877634 0.052379332 -0.025540069 -0.038015265 -0.011106202 0.0267194 0.018939102 -0.014894213
-0.05292495 0.062152434 0.016150137 -0.016106695 -0.006068723 -0.017314475 -0.040232167 -0.008226676
0.034668494 -0.017981354 0.0027402113 -0.008170722 0.020146023 0.018754026 -0.004747021 0.02561957
00000000: c77d 9a3c c7e4 b4bc 772f b7bc 32d0 65bd
00000010: 13f6 1a3d 5417 fdbc 92b2 263c 2aa9 18bd
00000020: b6da 5ebc e194 7c3c 5901 d63c 1f49 00bc
00000030: 0b4b ffbc 5b84 c13c a5f7 f0bc 786d 9c3c
00000040: 51e0 3d3a 0977 1bbc b5c5 3c3c 42ad 9abb
00000050: d8de 0fbd 48bf 4fbd 03f6 8fbc 4c2f 683c
00000060: 83e8 b1bc 9f15 783c 0eb0 d33c 3b48 6abc
00000070: 99f7 0bbc 17ce bcbc 35bc 4cbc bd79 dc3b
00000080: af1a dc3c 5fb5 173c 7f94 813c bc3c d4bb
00000090: 34dd a43c cb78 c2bc b86f b43b fa65 2f3c
000000a0: 2b99 c0bb b68b 563d 6839 d1bc e5b5 1bbd
000000b0: caf6 35bc a5e2 da3c 2d26 9b3c db06 74bc
000000c0: d5c7 58bd 8d93 7e3d 4b4d 843c 30f2 83bc
000000d0: 23dc c6bb 16d7 8dbc 7cca 24bd 2ec9 06bc
000000e0: 8d00 0e3d a24d 93bc 1e95 333b 7ede 05bc
000000f0: 4609 a53c 0ba2 993c e68c 9bbb 22e0 d13c

base.mlp.fc2.0.2.weight f4 [64]
1.0026971 0.9910963 0.9994645 1.0114161 1.0035353 0.9966411 1.0096849 1.0105337
0.98362 0.97427016 0.99640095 1.0092247 0.9880009 0.9908518 0.99550027 0.9916511
0.9517309 0.992387 0.9878573 0.9968596 1.0005949 1.0065045 1.0081588 0.99261534
1.0012596 0.9978864 1.0100104 0.98815656 1.0133632 1.0039201 0.9892898 0.99309886
0.99377966 1.0078188 1.0020769 1.0116649 0.9909596 1.0075743 0.993462 0.99564457
1.035758 1.01993 1.0146129 0.98899364 1.0182159 1.0087334 0.99101436 0.997565
0.99556476 1.0077028 1.0067592 1.0462589 0.9781905 1.0110393 1.0069009 1.0072595
1.0125449 0.9881736 1.0002383 1.0116832 0.9946265 0.99902594 0.9736474 1.0228658
00000000: 6158 803f 7db8 7d3f e8dc 7f3f 1576 813f
00000010: d873 803f df23 7f3f 5b3d 813f 2b59 813f
00000020: 85ce 7b3f c569 793f 2214 7f3f 462e 813f
00000030: a1ed 7c3f 77a8 7d3f 1bd9 7e3f d9dc 7d3f
00000040: a3a4 733f 130d 7e3f 37e4 7c3f 3132 7f3f
00000050: 7e13 803f 24d5 803f 590b 813f 0a1c 7e3f
00000060: 4629 803f 7c75 7f3f 0548 813f d4f7 7c3f
00000070: e3b5 813f 7480 803f 1942 7d3f ba3b 7e3f
00000080: 5868 7e3f 3500 813f 0e44 803f 3c7e 813f
00000090: 87af 7d3f 32f8 803f 8753 7e3f 90e2 7e3f
000000a0: b893 843f 118d 823f d6de 813f b02e 7d3f
000000b0: e654 823f 2d1e 813f 1eb3 7d3f 6b60 7f3f
000000c0: 55dd 7e3f 68fc 803f 7cdd 803f d0eb 853f
000000d0: b16a 7a3f bc69 813f 21e2 803f e1ed 803f
000000e0: 129b 813f f2f8 7c3f cf07 803f d67e 813f
000000f0: d89f 7e3f 2ac0 7f3f f540 793f 44ed 823f

base.mlp.fc2.0.2.bias f4 [64]
0.024773065 -0.017851954 -0.013004455 -0.05585383 0.023528494 -0.024467979 0.020620426 -0.035680477
-0.017682612 0.02367895 0.05701489 -0.027589628 -0.035066925 0.02628442 -0.024311658 0.013222039
0.009669304 -0.009808047 0.006248029 -0.007478358 -0.04632249 -0.048706565 -0.025309702 0.011986553
-0.02709169 0.018045997 0.027087439 -0.016053693 -0.021354621 -0.042582374 0.0009096743 0.010391161
0.031922698 0.017412592 0.022943558 -0.005250625 0.031935003 -0.025544647 0.020259595 0.0224899
-0.048882242 0.051182143 -0.031853102 -0.025198864 -0.02743755 0.032919202 0.020447366 -0.025350535
-0.065799996 0.04357495 0.013966753 -0.049705643 -0.00541778 -0.03396287 -0.03233745 -0.018288214
0.027961183 -0.013585423 3.2144475e-05 -0.023229573 0.023885109 0.027340118 -0.009988753 0.0155143505
00000000: e2f0 ca3c 433e 92bc a310 55bc fcc6 64bd
00000010: d4be c03c 1271 c8bc 2bec a83c b125 12bd
00000020: 20db 90bc 5bfa c13c 7288 693d a503 e2bc
00000030: 56a2 0fbd 6d52 d73c 3e29 c7bc 40a1 583c
00000040: 006c 1e3c eeb1 20bc 44bc cc3b 040d f5bb
00000050: a7bc 3dbd 8980 47bd 4b56 cfbc 3f63 443c
00000060: 64ef ddbc 33d5 933c 7ae6 dd3c 0983 83bc
00000070: e3ef aebc db6a 2ebd 3577 6e3a b03f 2a3c
00000080: 60c1 023d daa4 8e3c 21f4 bb3c 6f0d acbb
00000090: 47ce 023d 0243 d1bc 73f7 a53c bd3c b83c
000000a0: bf38 48bd 5ea4 513d 6678 02bd d96d cebc
000000b0: b6c4 e0bc 49d6 063d 3c81 a73c edab cfbc
000000c0: 26c2 86bd a67b 323d cfd4 643c 2598 4bbd
000000d0: a287 b1bb a61c 0bbd 4674 04bd 2ad1 95bc
000000e0: da0e e53c 6595 5ebc ded2 0638 f24b bebc
000000f0: b4aa c33c 62f8 df3c dea7 23bc e72f 7e3c

rnn.rnn.weight_ih_l0 f4 [192, 64]
-0.05219934 0.18585984 -0.015570768 0.058999654 0.059151478 -0.029275566 -0.0025971779 0.00175418
-0.030777086 -0.021655988 0.0476319 0.017859131 0.07115055 0.058841817 -0.08295331 -0.04190174
-0.017019672 0.0073941583 0.061196983 0.21582268 -0.024038807 0.044225045 0.06523772 -0.042096596
0.019023128 0.06331391 -0.14379978 -0.073114485 -0.028143158 0.05051702 -0.05408948 -0.019388048
0.046828084 -0.003506266 -0.05113709 -0.16474439 0.07275389 -0.11487927 -0.20214586 -0.04837568
-0.10123469 0.089562215 -0.057123665 0.026930008 0.0029799752 -0.027662158 0.047730796 0.05935787
0.017190339 -0.09912874 0.015869282 -0.01076642 -0.1403456 -0.04779075 -0.005037576 0.03467306
0.00859326 0.10259019 -0.04910983 0.14070423 0.022598559 -0.07022394 -0.015733775 0.1254221
-0.04280134 -0.018387401 -0.07038941 -0.0064491774 -0.046668537 0.05332571 0.18995109 -0.016844697
0.12015993 0.1487166 0.09633829 0.005494456 -0.031302705 -0.035027083 0.056656167 -0.11498914
-0.16380516 -0.029384512 0.093371086 0.13346614 0.043079644 -0.118665926 -0.04515 0.05374302
0.04388692 -0.01183221 0.17300402 0.011318525 0.007458465 0.15726371 0.01639995 0.053605095
0.067836195 -0.056851797 0.106970824 0.082955234 0.010474745 -0.056313276 -0.05377117 0.17095995
0.013443377 -0.0027183776 0.09054845 -0.13789663 -0.050073877 -0.057570077 -0.021523612 0.08786488
0.047660053 -0.053337757 0.09272566 0.080876224 0.093766935 -0.033629 0.04431596 0.096794344
-0.072597235 0.06932521 -0.0125803 0.11653656 -0.09520109 0.062426712 -0.10289288 -0.017688997
-0.010367796 -0.012281667 -0.064451315 -0.08976697 0.027278231 0.051779322 0.01260029 0.02297633
-0.07776544 -0.007301211 0.03199979 -0.004267972 -0.11730589 -0.066822805 -0.0368254 -0.06002562
-0.01398578 -0.11199694 -0.014885243 -0.029404795 0.042183235 -0.09512188 0.048547637 0.03915596
-0.009327159 -0.019226693 -0.068216965 0.07620766 0.17005841 -0.10698166 0.042010434 -0.103425525
-0.018771892 -0.06678977 0.043262936 -0.03503875 0.041700955 -0.015426912 -0.06304027 0.043582696
-0.09293701 -0.053420424 -0.057547145 0.13496244 0.11429955 0.042495098 0.020893637 -0.06170912
-0.037615374 -0.00013184697 0.10682273 -0.015888246 0.04116049 0.055041227 0.079180665 -0.1155859
0.13485011 -0.020670908 -0.08902685 0.1176537 -0.050964434 0.026458746 -0.015856003 -0.049200684
-0.16456077 -0.018893493 -0.014393172 -0.056576457 0.104430296 -1.7542552e-06 0.0631443 0.15724735
-0.06506566 -0.053814523 -0.0065700966 0.05737514 -0.020664826 0.06215071 0.067203425 0.021442488
0.018545087 0.053465802 -0.017332032 0.04639528 -0.03398263 -0.079360895 -0.028682215 0.05458143
-0.07675424 -0.11711306 0.051595904 0.12011399 -0.11214137 -0.0029150085 0.0313125 -0.0071922163
-0.06565871 0.109151505 0.011059617 -0.037495773 0.01470733 -0.08528807 0.07174094 0.116386965
-0.048061997 0.13574132 0.005701265 0.12725735 0.0425285 0.051479716 0.054571114 0.06595874
-0.017770661 0.0044740615 0.06742128 -0.07577252 -0.16555756 0.08638714 -0.0024078176 -0.004710362
0.0060167713 0.034623023 -0.048354696 0.07810127 0.002807222 -0.029997975 -0.04631689 0.058213834
00000000: face 55bd 0b52 3e3e 891c 7fbc 9fa9 713d
00000010: d248 723d 50d3 efbc 6a35 2abb 83ec e53a
00000020: 3a20 fcbc e667 b1bc ab19 433d 504d 923c
00000030: 61b7 913d 1e04 713d 6de3 a9bd 29a1 2bbd
00000040: d76c 8bbc b24a f23b b0a9 7a3d 9f00 5d3e
00000050: 08ed c4bc 5225 353d 5b9b 853d 7b6d 2cbd
00000060: 64d6 9b3c b9aa 813d 4040 13be 0cbd 95bd
00000070: 7b8c e6bc efea 4e3d ee8c 5dbd afd3 9ebc
00000080: cece 3f3d 62c9 65bb 2075 51bd c1b2 28be
00000090: feff 943d d345 ebbd 53ff 4ebe 9425 46bd
000000a0: 2254 cfbd 656c b73d 81fa 69bd 529c dc3c
000000b0: b04b 433b c09b e2bc 5e81 433d 3d21 733d
000000c0: c1d2 8c3c 0204 cbbd 4c00 823c a365 30bc
000000d0: c2b6 0fbe 3cc0 43bd 4012 a5bb 5705 0e3d
000000e0: bfca 0c3c ce1a d23d 6427 49bd c514 103e
000000f0: 9d20 b93c 92d1 8fbd 1ee4 80bc a76e 003e
00000100: 7550 2fbd 2da1 96bc 5328 90bd 9f53 d3bb
00000110: 8227 3fbd 0f6c 5a3d 8a82 423e e4fd 89bc
00000120: 6916 f63d 2a49 183e 024d c53d d60a b43b
00000130: 4437 00bd 8f78 0fbd 4c10 683d 6d7f ebbd
00000140: 8abc 27be cab7 f0bc 5739 bf3d 59ab 083e
00000150: 4874 303d 1f07 f3bd 35ef 38bd a421 5c3d
00000160: c5c2 333d e3db 41bc f727 313e 5671 393c
00000170: 2466 f43b bd09 213e 3059 863c 0491 5b3d
00000180: b4ed 8a3d 6edd 68bd 8513 db3d 6fe4 a93d
00000190: 449e 2b3c c0a8 66bd 293f 5cbd 2010 2f3e
000001a0: 9c41 5c3c cf26 32bb 7771 b93d c634 0dbe
000001b0: 441a 4dbd 9ace 6bbd 4952 b0bc 81f2 b33d
000001c0: 3037 433d b178 5abd f3e6 bd3d 6fa2 a53d
000001d0: e108 c03d 90be 09bd a784 353d 1d3c c63d
000001e0: dcad 94bd 60fa 8d3d 9a1d 4ebc b8aa ee3d
000001f0: caf8 c2bd 27b3 7f3d 81b9 d2bd 84e8 90bc
00000200: b0dd 29bc 0c39 49bc 0dff 83bd bfd7 b7bd
00000210: 9976 df3c 8e16 543d 7271 4e3c db38 bc3c
00000220: 7d43 9fbd ff3e efbb 3612 033d 58da 8bbb
00000230: 123e f0bd 65da 88bd 3bd6 16bd 6ddd 75bd
00000240: 9d24 65bc a75e e5bd 3ce1 73bc 53e2 f0bc
00000250: 54c8 2c3d 43cf c2bd e3d9 463d 0062 203d
00000260: f1d0 18bc 4c81 9dbc 56b5 8bbd c312 9c3d
00000270: cb23 2e3e 3319 dbbd 2213 2c3d c3d0 d3bd
00000280: 83c7 99bc 13c9 88bd 7a34 313d cb84 0fbd
00000290: 9fce 2a3d 29c1 7cbc 421b 81bd c583 323d
000002a0: c255 bebd 60cf 5abd 8eb6 6bbd 9833 0a3e
000002b0: e215 ea3d 570f 2e3d 2229 ab3c b4c2 7cbd
000002c0: 9412 1abd 6740 0ab9 e0c5 da3d 1128 82bc
000002d0: e797 283d e972 613d 7929 a23d 4db8 ecbd
000002e0: 2616 0a3e 0956 a9bc b653 b6bd 6cf4 f03d
000002f0: 15c0 50bd 03c0 d83c 73e4 81bc a886 49bd
00000300: 9e82 28be 87c6 9abc 57d1 6bbc b7bc 67bd
00000310: 8ddf d53d c073 ebb5 cc51 813d 7305 213e
00000320: 2541 85bd 9e6c 5cbd f749 d7bb 3202 6b3d
00000330: 4849 a9bc be91 7e3d f3a1 893d 28a8 af3c
00000340: deeb 973c f5fe 5a3d e8fb 8dbc fa08 3e3d
00000350: 5f31 0bbd f787 a2bd f7f6 eabc c790 5f3d
00000360: 5431 9dbd f9d8 efbd 3a56 533d 53fe f53d
00000370: 60aa e5bd ba09 3fbb 8941 003d afac ebbb
00000380: 1378 86bd d38a df3d 6533 353c 2b95 19bd
00000390: 03f7 703c 83ab aebd eaec 923d 4a5c ee3d
000003a0: a8dc 44bd c6ff 0a3e add1 ba3b c04f 023e
000003b0: 5d32 2e3d 65dc 523d f685 5f3d 6015 873d
000003c0: c793 91bc 269b 923b 2b14 8a3d 9f2e 9bbd
000003d0: ec87 29be beeb b03d 7acc 1dbb 6159 9abb
000003e0: 5628 c53b dfd0 0d3d 930f 46bd 8ff3 9f3d
000003f0: 5ff9 373b 50be f5bc c7b6 3dbd a171 6e3d

rnn.rnn.weight_hh_l0 f4 [192, 64]
-0.08593376 0.10679131 0.019879863 -0.073218584 -0.041866995 0.019447165 0.10791982 -0.09426879
0.13054794 -0.0027053696 0.025362182 -0.07372784 -0.05083669 0.061870016 0.10191124 -0.062228046
-0.15759443 -0.0070386026 -0.018457284 -0.03663113 -0.022062097 -0.102335416 -0.050372407 0.045890953
-0.08110468 0.023747317 -0.030622171 -0.08518077 -0.08780207 0.042358547 0.025526563 -0.054828357
-0.18273748 -0.034176216 0.06870152 -0.03115699 -0.056960706 0.029443098 -0.0118009895 -0.022079235
-0.040639162 -0.073634274 -0.10909548 -0.033326663 0.05595984 0.041085076 -0.05355482 -0.023234583
-0.12800539 -0.051715378 0.09832717 0.019895447 0.023900433 -0.04321855 -0.010014031 -0.031302053
0.06576915 -0.02846474 0.10420919 0.17826505 -0.16923238 0.048695333 0.11116258 -0.19385256
-0.038344152 -0.05347595 -0.04549636 -0.066721335 0.019966662 0.15297872 0.02121433 -0.04254463
-0.08273526 0.060690545 0.03699489 0.0057440023 0.058775797 0.07760738 -0.11651801 0.031514764
-0.10928698 0.13170253 -0.021226723 -0.014196984 -0.047715772 -0.010447026 0.050569735 0.0645359
-9.76285e-05 0.03408852 -0.08278385 -0.039630793 0.13861308 0.049452465 -0.13509534 -0.18551433
-0.0033259124 -0.014579885 0.012955528 -0.018687446 -0.046547554 0.019022236 0.044937506 -0.06733958
-0.010795605 0.13896021 0.0024356411 0.04911019 -0.07621327 0.018866397 -0.040125333 0.15818907
-0.16001947 0.076456115 0.017918492 -0.058327876 -0.0024018136 0.04664495 0.09603426 -0.064356945
-0.0039242436 0.16870321 0.02279177 -0.0014289119 0.038826007 -0.00567139 -0.008820914 -0.04828478
-0.02565759 0.11762187 0.036563314 -0.058289982 -0.011641911 0.126844 -0.006844882 0.0010756619
0.23718496 0.0067793154 0.0479448 -0.031992562 0.04022767 0.015216269 -0.018995486 0.0678241
0.028733341 -0.066563755 0.04222352 -0.12554492 -0.052486826 -0.039202474 -0.047118194 0.0032244534
-0.16366109 0.04677036 -0.049828205 0.12625556 0.101911426 -0.08981089 -0.08871976 -0.027153255
-0.06597632 0.055627774 -0.23180422 -0.024696961 -0.0010984002 -0.032970853 0.11579456 -0.046527494
0.10573331 -0.034282424 -0.011313585 -0.021411134 5.227934e-05 -0.09295971 -0.05995359 -0.09668986
0.12402832 -0.14314829 0.026297776 -0.04161497 -0.008343968 -0.016633004 0.02553949 -0.03548288
-0.007342511 -0.009659514 -0.076506175 0.05773612 0.0014438602 -0.049691882 0.013536683 -0.13230053
0.077762984 0.13566522 0.01904379 0.06514303 0.0019022409 0.07017241 0.01203107 0.037675925
0.03191434 0.040363044 -0.10376858 0.042904835 -0.0012618218 -0.06284284 -0.033024598 -0.0077915597
0.121537164 -0.104525395 -0.09575906 0.09282935 0.0010173456 -0.030336872 0.073909976 0.11713694
-0.041576486 0.017493442 0.012574414 -0.1734826 -0.08959004 -0.07203437 0.2308057 0.01503433
0.04258849 0.068179294 0.059613824 -0.01202117 -0.13373087 -0.14727396 -0.1048634 -0.057038028
0.027592443 -0.07187623 -0.062271517 -0.011541434 -0.037902415 -0.097689725 -0.03516008 -0.009336957
0.009782511 0.0736635 -0.0008960814 0.01782922 -0.0882251 0.021573195 0.026392046 -0.014469461
-0.008361762 0.058119126 0.021463597 -0.117058106 -0.06916543 0.025626265 0.15186073 -0.015447066
00000000: 0afe afbd 67b5 da3d 18db a23c a0f3 95bd
00000010: ba7c 2bbd a94f 9f3c 1105 dd3d ff0f c1bd
00000020: 5cae 053e 924c 31bb 5ac4 cf3c 9ffe 96bd
00000030: 223a 50bd 6a6b 7d3d d7b6 d03d d6e2 7ebd
00000040: 6f60 21be 14a4 e6bb bb33 97bc 860a 16bd
00000050: 92bb b4bc 3b95 d1bd 4c53 4ebd 27f8 3b3d
00000060: 361a a6bd bc89 c23c 59db fabc 4173 aebd
00000070: 92d1 b3bd 2880 2d3d 151d d13c b393 60bd
00000080: 891f 3bbe 5cfc 0bbd 62b3 8c3d f23c ffbc
00000090: a14f 69bd a732 f13c f058 41bc 83df b4bc
000000a0: 4075 26bd 91cd 96bd 736d dfbd 8a81 08bd
000000b0: 2536 653d d348 283d 4d5c 5bbd 7456 bebc
000000c0: d813 03be 81d3 53bd c15f c93d c7fb a23c
000000d0: d7ca c33c ef05 31bd e411 24bc 9536 00bd
000000e0: fab1 863d e32e e9bc a16b d53d 1d8b 363e
000000f0: 414b 2dbe c274 473d 35a9 e33d 4981 46be
00000100: c20e 1dbd 9909 5bbd 645a 3abd 32a5 88bd
00000110: 2091 a33c 74a6 1c3e adc9 ad3c 4743 2ebd
00000120: 1b71 a9bd a696 783d f487 173d 2f38 bc3b
00000130: e4be 703d 9ef0 9e3d ffa0 eebd a015 013d
00000140: dad1 dfbd 07dd 063e aae3 adbc 779a 68bc
00000150: 9d71 43bd 012a 2bbc 3622 4f3d 662b 843d
00000160: e7bd ccb8 67a0 0b3d 948a a9bd e653 22bd
00000170: 96f0 0d3e ab8e 4a3d 6f56 0abe 78f7 3dbe
00000180: 8df7 59bb 78e0 6ebc 6c43 543c 6a16 99bc
00000190: a6a8 3ebd 85d4 9b3c 6410 383d 55e9 89bd
000001a0: 0de0 30bc 964b 0e3e 479f 1f3b c427 493d
000001b0: b415 9cbd b48d 9a3c 765a 24bd 51fc 213e
000001c0: 25dc 23be 0695 9c3d cdc9 923c 36e9 6ebd
000001d0: bf67 1dbb c60e 3f3d 9cad c43d 93cd 83bd
000001e0: f196 80bb 89c0 2c3e ceb5 ba3c 544a bbba
000001f0: 0508 1f3d 11d7 b9bb 9885 10bc 43c6 45bd
00000200: de2f d2bc bce3 f03d 6ac3 153d 7ac1 6ebd
00000210: b7bd 3ebc 65e3 013e 084b e0bb 39fd 8c3a
00000220: 9de0 723e 0525 de3b c461 443d a20a 03bd
00000230: c5c5 243d a84d 793c 6c9c 9bbc 5de7 8a3d
00000240: 2f62 eb3c 9452 88bd 92f2 2c3d d98e 00be
00000250: 6dfc 56bd c692 20bd 02ff 40bd 5a51 533b
00000260: c696 27be 4792 3f3d a918 4cbd 2349 013e
00000270: f0b6 d03d c6ee b7bd b5b2 b5bd 8170 debc
00000280: 981e 87bd f3d9 633d 165e 6dbe 4851 cabc
00000290: 32f8 8fba 720c 07bd b325 ed3d 9d93 3ebd
000002a0: b58a d83d ba6b 0cbd 9d5c 39bc 6766 afbc
000002b0: 8446 5b38 a961 bebd e591 75bd 5505 c6bd
000002c0: 8f02 fe3d 7795 12be 6f6e d73c 7574 2abd
000002d0: 23b5 08bc f041 88bc 3138 d13c 7f56 11bd
000002e0: 7299 f0bb f042 1ebc 45af 9cbd b67c 6c3d
000002f0: e93f bd3a b789 4bbd f7c8 5d3c ca79 07be
00000300: 3342 9f3d d3eb 0a3e b901 9c3c b569 853d
00000310: 9d54 f93a 8db6 8f3d f71d 453c 1252 1a3d
00000320: 9cb8 023d b853 253d 9f84 d4bd fbbc 2f3d
00000330: b763 a5ba bfb3 80bd cd44 07bd 5750 ffbb
00000340: 7ae8 f83d 6911 d6bd 531d c4bd 501d be3d
00000350: 7458 853a 0885 f8bc 1d5e 973d 7ee5 ef3d
00000360: 1b4c 2abd 684e 8f3c ea04 4e3c 6ca5 31be
00000370: fc7a b7bd c186 93bd 5458 6c3e 8d52 763c
00000380: 4571 2e3d 96a1 8b3d a02d 743d 71f4 44bc
00000390: bff0 08be fcce 16be 9fc2 d6bd b5a0 69bd
000003a0: 8c09 e23c d833 93bd 6b10 7fbd 4818 3dbc
000003b0: 903f 1bbd 8d11 c8bd 0404 10bd 09fa 18bc
000003c0: d346 203c e4dc 963d 01e7 6aba 960e 923c
000003d0: 5caf b4bd 45ba b03c 2234 d83c 5111 6dbc
000003e0: c6ff 08bc 520e 6e3d 6dd4 af3c 29bc efbd
000003f0: 9ba6 8dbd 2cee d13c 6181 1b3e b115 7dbc

rnn.rnn.bias_ih_l0 f4 [192]
0.0031046076 -0.006938729 -0.0003372191 0.0023886731 0.027726986 0.012148938 -0.0077604037 -0.0051653413
0.013728634 -0.012752506 0.00020735532 -0.0073760008 0.007944254 -0.0006504391 0.0014534517 -0.006063576
-0.00866938 0.0029962698 -0.0054988405 0.0177668 -0.0010497181 0.008609154 -0.0075706234 -0.020698836
-0.00217493 0.018164404 0.007532188 0.0024062207 0.016398473 0.004462663 0.0035354523 -0.0044908086
0.01417779 -0.00993887 -0.004152152 0.01180971 -0.0011162622 0.0045355614 0.0014128409 -0.0068570366
-0.002619867 -0.01797257 0.0019007821 -0.0055938098 0.012627252 0.0015756648 0.014655351 -0.0025966275
0.01346536 0.0047391327 -0.0048591867 0.006900114 0.007578294 0.03638362 -0.0041954354 0.0018858288
0.0001339897 -0.007079361 0.0078512 0.003198834 0.0114189945 -0.0095455 -0.0180941 0.0141745405
-0.0038207201 -0.0044788523 0.0027138786 0.021287156 -0.016569814 0.024101686 0.03266984 0.0077114217
0.043313306 0.004701821 -0.030034218 0.011664793 0.016279332 0.049385104 0.010375272 -0.015068337
0.022020476 -0.01216283 -0.012233794 0.026911065 -0.05615346 0.06063726 0.040816505 -0.0067517874
0.018322973 -0.026055021 -0.0076404475 -0.0034326508 0.03624553 -0.02193156 0.0063251886 0.005675847
0.027040519 0.05822516 -0.0437282 0.019915478 -0.021331366 -0.002267984 -0.018140681 0.05367696
0.03841885 0.004793117 0.01416198 0.060110286 0.046155363 -0.00352435 0.03883617 0.026753727
0.020543218 0.014891091 0.018555548 -0.0054730135 0.0033684173 0.014289749 0.00992285 0.0041911704
0.0038721052 0.0075001474 0.031852063 0.031224838 0.007052566 0.0026021558 0.024820467 -0.009348551
-0.024556339 0.025506537 0.015071175 -0.0153705655 0.026170889 -0.024500974 0.006953644 0.026703702
0.020360615 0.021650206 0.035035092 0.023073422 0.01137722 -0.000668518 0.023734324 -0.019864345
-0.010045191 -0.024400901 -0.026300738 0.010358076 -0.02194187 -0.012295439 0.017600615 -0.022655258
0.025169611 -0.015558522 -0.031191422 0.02495143 -0.024190987 -0.023582444 0.009488624 -0.031081814
0.019771922 -0.024042461 -0.015992736 0.021489788 0.021846896 0.023464795 0.02236911 -0.025539799
-0.01176273 0.029750802 -0.024010181 0.0153035 0.011582655 -0.02303684 -0.0070213834 -0.02634909
0.02359844 -0.007798316 0.011345078 0.02077998 -0.025805192 0.03179016 0.029941225 -0.035175502
0.029798418 0.010538257 0.011410596 0.00493867 -0.026993798 -0.023456112 0.01497538 0.017252339
00000000: ac76 4b3b 475e e3bb c8cc b0b9 498b 1c3b
00000010: b423 e33c 570c 473c fc4a febb 0642 a9bb
00000020: 11ee 603c e3ef 50bc 856d 5939 61b2 f1bb
00000030: 9e28 023c 3b82 2aba bf81 be3a f6b0 c6bb
00000040: 040a 0ebc 115d 443b 9e2f b4bb ae8b 913c
00000050: b296 89ba 690d 0d3c fe12 f8bb 9b90 a9bc
00000060: 4589 0ebb 84cd 943c 93d0 f63b afb1 1d3b
00000070: 1756 863c 883b 923b 0cb3 673b a227 93bb
00000080: f649 683c a4d6 22bc c70e 88bb 847d 413c
00000090: 8b4f 92ba 0c9f 943b 132f b93a feb0 e0bb
000000a0: 13b2 2bbb 363b 93bc aa23 f93a 474c b7bb
000000b0: 89e2 4e3c 8a86 ce3a ff1c 703c 2e2c 2abb
000000c0: d09d 5c3c ba4a 9b3b d039 9fbb 5a1a e23b
000000d0: 5653 f83b fe06 153d dd79 89bb ea2d f73a
000000e0: 967f 0c39 fcf9 e7bb 52a2 003c 87a3 513b
000000f0: bc16 3b3c bb64 1cbc 143a 94bc 553c 683c
00000100: 0c65 7abb 56c3 92bb 54db 313b 6762 ae3c
00000110: 6bbd 87bc e670 c53c cfd0 053d 18b0 fc3b
00000120: 4b69 313d bc11 9a3b 520a f6bc b01d 3f3c
00000130: 3c5c 853c 0948 4a3d 0bfd 293c 30e1 76bc
00000140: 4964 b43c 9b46 47bc 4070 48bc 9874 dc3c
00000150: 2c01 66bd c75e 783d 352f 273d 193e ddbb
00000160: 0f1a 963c 5771 d5bc b85c fabb 53f6 60bb
00000170: 3176 143d d1a9 b3bc 8743 cf3b 75fc b93b
00000180: 1484 dd3c 817d 6e3d 571c 33bd c925 a33c
00000190: 1ebf aebc 75a2 14bb c49b 94bc 5fdc 5b3d
000001a0: 165d 1d3d 940f 9d3b a607 683c 3436 763d
000001b0: 680d 3d3d c8f8 66bb ad12 1f3d a22a db3c
000001c0: 404a a83c c3f9 733c ce01 983c f756 b3bb
000001d0: aac0 5c3b 8d1f 6a3c 7393 223c 1656 893b
000001e0: 25c3 7d3b ccc3 f53b 4f77 023d 3bcb ff3c
000001f0: 3619 e73b ee88 2a3b 4b54 cb3c aa2a 19bc
00000200: 602a c9bc 16f3 d03c 17ed 763c d3d4 7bbc
00000210: 5564 d63c 44b6 c8bc 65db e33b b9c1 da3c
00000220: 4ecb a63c c65b b13c f580 0f3d 7904 bd3c
00000230: 8567 3a3c 7c3f 2fba 7c6e c23c 8dba a2bc
00000240: 9694 24bc 66e4 c7bc a574 d7bc ebb4 293c
00000250: 70bf b3bc cf72 49bc 2a2f 903c 8597 b9bc
00000260: 8030 ce3c 2ce9 7ebc 2785 ffbc f166 cc3c
00000270: 2d2c c6bc f82f c1bc 2c76 1b3c 4a9f febc
00000280: baf8 a13c b2f4 c4bc 3303 83bc 5a0b b03c
00000290: 43f8 b23c 3e39 c03c 6c3f b73c d738 d1bc
000002a0: 77b8 40bc f4b7 f33c 00b1 c4bc 88bb 7a3c
000002b0: 2dc5 3d3c c1b7 bcbc a213 e6bb 0cda d7bc
000002c0: 8451 c13c 0489 ffbb b5e0 393c c73a aa3c
000002d0: 6965 d3bc 6636 023d 4d47 f53c 3014 10bd
000002e0: d01b f43c a7a8 2c3c 82f3 3a3c 91d4 a13b
000002f0: 1922 ddbc 0827 c0bc 4c5b 753c c754 8d3c
