ResultsForTesting/actor.pt (torch, 199217 bytes, 62 tensors)

gnn_base.gnn.embed_layer.entity_embed.weight f4 [3, 2]
00000000: 19b7 193f 9b75 773e 1ca2 d03c d359 2a3f
00000010: 82c9 01bf 5abc 87be
0.6004501 0.24165957 0.025467925 0.6654331 -0.506981 -0.26510888

gnn_base.gnn.embed_layer.lin1.0.weight f4 [16, 9]
00000000: 36b9 d8bd 7c00 36bf 4a54 703f d038 373e
00000010: 99fd 623e 0de0 b23d 5991 c73e e47a 88bd
00000020: 6d68 5fbe 6a8b 273b 5acd 323f 3ccb 1d3f
00000030: ff4c 5b3f 2c1e 0fbe b970 5cbb 916c ce3d
00000040: 68dc ce3c a728 d3bd f85b fa3e da56 f13d
00000050: 3ac9 8d3d 40d7 943d ac64 323f 3752 7d3b
00000060: f708 eebe 04c0 07bf efaf 7e3e cd65 723e
00000070: 6bb1 b7be 1e25 8f3e 7237 c2bd 5eb6 513d
00000080: 2060 673f 7d95 47be a0ce 173f daf8 673e
00000090: 9eab b13e 2ebd 283f 81d6 9cbc c1d7 113e
000000a0: b136 aa3e 864a c7be 9faf 9dbd 7a47 89be
000000b0: 66c8 0fbf 6e89 0f3f 95bc e23e 7a4a 96be
000000c0: 39b2 f8be a90f 233f 16d2 573e 5939 083f
000000d0: 01a4 f43e b014 a7bd d410 84bd 2ce0 16bf
000000e0: 785a 9bbe 9e33 083e a456 3abc 6c09 49be
000000f0: 3b52 603e 191c 00bf ac4d 3f3f 5d9f 9abe
00000100: 638e 843e c233 27bf 4124 003f 615b 063f
00000110: f9d1 e13e 0978 d03e 76cd 8a3d 454c 97bd
00000120: 1e19 d23d ca35 49be 4130 413d 5e3a 5d3e
00000130: dc97 d73d bcd0 29bf 85f5 c6ba ac23 1a3f
00000140: 8b7e 003f e669 cb3e 0b5a 793d 6fcf dc3e
00000150: 94a1 d3be 9e9a 923e 3d80 bb3e 0c12 753e
00000160: b1bd 52be e5ac 11bf a1ef dc3e 88d5 da39
00000170: d91c cdbe 7dd2 ac3e 19fb efbe 29db 213f
00000180: fd19 c13e bcdb 1bbe 5456 0f3d 891f 13bf
00000190: 702a cabe 8481 f0be 2124 de3e 82af 563d
000001a0: b1de f73e 5c8e 1fbd 09c1 d93e 8f9e 03bf
000001b0: ed54 c43e b442 50bf c238 58bd 22ac 84bd
000001c0: d075 2b3d 895b e7be bb5f 913c d1af 2e3e
000001d0: 92b1 38bf 83d4 00bf f1b4 b83e 86ba b3bd
000001e0: 0cbc ebbe fe4c b7be 4fa0 903d be79 563f
000001f0: f281 9dbd cd8a 2f3e f71a d03e f707 6b3e
00000200: e3cc 77be f475 44bd 7421 18bf 83bc c1bd
00000210: e3ac cb3e 0a2b 203f 2cbb 223d 7a01 5b3f
00000220: bb3f fbbe 1df2 1dbe e864 633e 7aff 393d
00000230: 1372 0dbd 09fe c93e d494 5cbe 3b73 cf3d
-0.10582201 -0.7109449 0.93878615 0.17892766 0.22167052 0.087341405 0.3897808 -0.066640645
-0.21817179 0.0025565275 0.6984459 0.61638236 0.8566436 -0.13976353 -0.0033636524 0.10079301
0.025251582 -0.10310488 0.48898292 0.11784144 0.069231465 0.07267618 0.69684863 0.003865374
-0.46491215 -0.5302737 0.24871801 0.23671646 -0.35877547 0.27958006 -0.094832316 0.05119931
0.9038105 -0.19490619 0.5929966 0.22653523 0.34701246 0.65913665 -0.019145252 0.1424246
0.3324485 -0.38924044 -0.07699513 -0.26812345 -0.5616516 0.56069076 0.44284502 -0.29353696
-0.48573473 0.6369577 0.21076235 0.53212506 0.47781375 -0.08158243 -0.06448522 -0.5893581
-0.3034246 0.1330094 -0.011373196 -0.196325 0.21906368 -0.50042874 0.7472789 -0.3019971
0.25889882 -0.6531335 0.5005532 0.52483183 0.4410551 0.4071658 0.0677747 -0.07387594
0.10258697 -0.19649425 0.04716516 0.21604297 0.10527012 -0.6633413 -0.0015179372 0.6021068
0.5019309 0.39729232 0.060876887 0.4312701 -0.41334212 0.2863359 0.36621276 0.23932666
-0.20580174 -0.5690444 0.43151572 0.00041739293 -0.40061072 0.3375434 -0.4687126 0.63225037
0.3771514 -0.15220541 0.03499444 -0.57469994 -0.39485502 -0.46973813 0.4338694 0.05241347
0.48412088 -0.038954124 0.42530087 -0.51413816 0.38346043 -0.8135178 -0.052788503 -0.06478144
0.0418604 -0.45187023 0.017745843 0.17059256 -0.7214595 -0.5032427 0.36075547 -0.08775811
-0.46041906 -0.35800928 0.070618264 0.83779514 -0.07690801 0.17142792 0.40645573 0.22952257
-0.24199252 -0.04796405 -0.59426045 -0.09459784 0.3978034 0.6256567 0.039729282 0.8554913
-0.4907206 -0.1542439 0.22206461 0.045409657 -0.034532618 0.39451626 -0.21541148 0.101294

gnn_base.gnn.embed_layer.lin1.0.bias f4 [16]
00000000: 3eb2 82bd 38df af3b d0a1 77bd 733d d9bc
00000010: 0f46 013e f50d 22bd 709d 05be cdf4 aebd
00000020: d104 8fbd 1be6 2cbe ae5d aebd 6295 a73b
00000030: e0ac c83d 8d8b 98bc 1ac9 f5bc 7143 163d
-0.06381653 0.005367186 -0.06045705 -0.02651856 0.12624381 -0.03956409 -0.13048339 -0.08542786
-0.069833405 -0.16884653 -0.08513962 0.0051142434 0.09798598 -0.01862123 -0.03000312 0.03668541

gnn_base.gnn.embed_layer.lin1.2.weight f4 [16]
00000000: 9e0c 6a3f a92d 793f 1d1c 993f 9b32 7b3f
00000010: d90b 813f 012e 8a3f ab3a 973f 110c 893f
00000020: 6198 783f 48fa 663f 5430 7b3f 1a42 923f
00000030: 3c82 7b3f 9fe3 893f 64fd 853f a6b8 7e3f
0.914255 0.97335297 1.1961704 0.9812409 1.0081741 1.0795289 1.1814779 1.0706807
0.9710751 0.9022565 0.9812062 1.1426423 0.98245597 1.077259 1.0467954 0.995005

gnn_base.gnn.embed_layer.lin1.2.bias f4 [16]
00000000: 9b3d 9c3d a92d 1c3c 93f3 14bc e644 9bbc
00000010: 9048 f83d dfd7 10bc c7ed 08be 9706 4d3d
00000020: 023d a3bd a299 d63d 36d4 e5bb 5c87 b23d
00000030: 2f5b e33d 4f43 4fbd 4faa b8bc a8f7 813d
0.07628938 0.009532371 -0.009091276 -0.018953752 0.12123215 -0.00884053 -0.13371955 0.050055113
-0.07970621 0.10478522 -0.007013823 0.08717224 0.11101376 -0.0506013 -0.022542147 0.06346065

gnn_base.gnn.embed_layer.lin_h.0.weight f4 [16, 16]
00000000: febd 0fbf f581 0cbf dbd6 bdbe 99c3 5a3e
00000010: 6517 afbd edae 08bf a791 ab3e 85c6 59be
00000020: 4150 98be 0a86 f23e 30c2 e8bd 599e a23e
00000030: b168 25be 89ed e33e 22b4 fa3d 18df 94be
00000040: f026 54be 6864 5bbb 0764 0ebf 24ac 4b3e
00000050: 310f 8cbe 2b5c 623e 67dd a03e 571a 09be
00000060: dd76 f13e fca9 cfbe d8cf 01be c516 0dbf
00000070: 6845 62be bfa6 c3bd 6bce 463f 286e 853b
00000080: 234e e8be f025 3b3f 79ab 123f 160a 1d3c
00000090: 7409 333d 07b7 cfbe ddb0 433d afc5 45be
000000a0: 13ac cd3e 545b f4bc 7b87 ef3d ad35 50be
000000b0: e84c 803e a119 243f 8790 093e 7a98 02be
000000c0: 6c74 583e b433 53be 16e9 c83d bf92 c63e
000000d0: 425f d13e effb 87be d060 873e c4a6 c6be
000000e0: 4be9 dbbe 6106 56bf 3636 76be 34b8 303d
000000f0: 0ee4 163f 4ab9 1d3c 6490 673d 4347 da3c
00000100: 824a 393e f414 a63e 3bd0 80be f3c7 a33e
00000110: 8ffd c63e bd0a 71bf 0408 acbd 8b21 ac3e
00000120: ebd0 3a3e 4469 29bd e7b0 923d ca8f a03d
00000130: 9039 f0be 10f0 cbbe 75be 0f3d 06ad ab3e
00000140: 9b80 503b 24ba 3e3e 4274 a93e 0d26 463e
00000150: a5db c93e 2553 ff3e 0d93 a13e b2eb 2c3d
00000160: 3bce 27bd 9524 313e 3aff c9be 851b 213f
00000170: b26e b2be 0b53 623e f1f1 f93e 2405 113f
00000180: 261c e53e 075b abbe 7e66 0a3e 5204 123f
00000190: 6826 2cbe 6018 e6bc dbc8 613e 4b81 eb3c
000001a0: 399b 093f 3fa7 ff3e f299 003f 9ab1 eb3d
000001b0: a748 1e3f 8146 72bd c3a2 4b3e db8b 433e
000001c0: fc14 3f3e 9b14 493e a2d5 a4be f021 26bf
000001d0: 9128 733e 90a1 b9bd 842c 033e 815f 80bf
000001e0: cd6f 513e 4084 363e 7766 813e 0780 9b3e
000001f0: 05b9 093d 196f 82be 7a13 983d f7e0 ef3d
00000200: 7768 24bd 2285 ed3e cf67 ccbe 9c9d 54be
00000210: 07d9 31bf 686a f2bd ed2f 073f 3bab a93e
00000220: c5d9 593c 0e13 1dbe 11f2 9bbe 7da6 eb3e
00000230: d963 e13e 2ef7 fabc 05c0 99be 2abf 923e
00000240: 94e0 dd3e 7941 dfbc 1fb2 3dbe ebd0 20be
00000250: f2bb f33e c66a 12bd 2402 6f3e 43b1 d83d
00000260: b470 cf3e 97dc d33e e2c4 5ebf 2a99 c8be
00000270: c1bd 353e d269 433e ead5 7fbe 0007 93be
00000280: ebd6 0d3f fe5b 1dbd 7203 5bbe e17d 12bf
00000290: fd25 253e 954a fdbd 266a 4b3e 81fd fb3e
000002a0: 64b7 9ebe 3781 febd e0cc f63e e80e 7ebd
000002b0: 9bd3 4a3c f2f1 243f f00d f53e 80d7 68bd
000002c0: 0bde ce3e 1fac a23d 4eed 803e 6c1b cd3d
000002d0: e76f 70be f05b 02bd b601 ac3d 87df 763b
000002e0: 9e1a 9e3e 1f35 95be 7e09 8dbd 8285 203f
000002f0: 5fa1 aebe 8eca 02be b8ad 113e 642e 7bbf
00000300: d16b 963e 51bd eebe d9aa fc3e 57de 33be
00000310: f0de d2be a734 71be 1ed1 e43e f7cc 79be
00000320: 9201 673e 278d 7fbe aae3 eebc 0cac 7ebe
00000330: ac7d 15bf bb16 7e3e 853f d3be d87f de3e
00000340: 98d0 05be b78c d0be 1134 a5be 2b7d d9bd
00000350: efa6 df3d 4ecf 483c 85ed 34bf 21ec 8d3d
00000360: 5d20 293f 0303 ddbe ee3b d0bd f9e1 ea3e
00000370: 3d16 dd3d 0f3e 003f 0984 09be d8f6 7c3e
00000380: 9bab 0d3f d991 6b3e 7326 3fbd 02bd 5f3e
00000390: 7662 1bbf 4d59 51be e403 2bbf 9e8c c3be
000003a0: abe0 b7be d333 693e 38d1 dabe 39c6 b3bd
000003b0: 5b00 e3bc 39fb 8b3e 4002 ad3e 9553 2a3e
000003c0: 3d53 6e3e 9be7 d33e b47d 04bf cd69 1e3f
000003d0: 2369 063e 214d cb3e e60e 103e 122a 6ebe
000003e0: c187 96bd f85f 5ebd 0aa5 c03e 566f 3cbd
000003f0: ce88 9dbe 08db ff3e 3f14 1cbf dd82 a9bd
-0.5614928 -0.548858 -0.37077984 0.21363677 -0.08549384 -0.53391916 0.3350956 -0.21267135
-0.2974873 0.4736789 -0.11365163 0.31761435 -0.16153218 0.44517162 0.12241389 -0.29076457
-0.20717978 -0.0033476595 -0.5562138 0.19889885 -0.2735534 0.22105472 0.31418917 -0.13388954
0.47160998 -0.40559375 -0.12676942 -0.5511287 -0.22096789 -0.09553289 0.7765872 0.0040719695
-0.45372114 0.73104763 0.57292897 0.009584924 0.043710187 -0.40569326 0.04777609 -0.19313692
0.40170345 -0.029828705 0.11695763 -0.20332976 0.25058675 0.64101607 0.13434039 -0.12753478
0.21138161 -0.20625192 0.098100826 0.38783833 0.40892988 -0.26559398 0.2644105 -0.38799107
-0.42951426 -0.83603483 -0.24044117 0.04314442 0.58941734 0.009626696 0.056534186 0.026645308
0.18094829 0.3243786 -0.25158867 0.31988487 0.38865325 -0.9415701 -0.08399966 0.3361934
0.18243758 -0.041360155 0.07162648 0.078399256 -0.46918917 -0.3983159 0.035093743 0.33530444
0.0031814936 0.18625695 0.3309651 0.19350453 0.39425388 0.49868122 0.31557503 0.042216964
-0.04096816 0.17299111 -0.39452535 0.62932616 -0.3485008 0.22101991 0.488174 0.5664847
0.44748038 -0.33467886 0.1351566 0.5703784 -0.16811526 -0.028087795 0.22049277 0.028748175
0.53752476 0.49932286 0.502349 0.11508484 0.6182961 -0.05914927 0.19886307 0.1909632
0.18660349 0.19636767 -0.3219424 -0.64895535 0.23745944 -0.09064019 0.1280995 -1.0029145
0.20452805 0.17823887 0.25273487 0.30371115 0.033623714 -0.25475386 0.0742559 0.117128305
-0.040138688 0.46390635 -0.3992295 -0.20763248 -0.6947178 -0.11836702 0.52807504 0.3313845
0.013296549 -0.153393 -0.3045812 0.46025458 0.4402149 -0.030635443 -0.30029312 0.28661472
0.43335402 -0.0272529 -0.18524979 -0.15704696 0.47604328 -0.03574636 0.2334066 0.10580685
0.40515673 0.41379234 -0.8701917 -0.39179355 0.17748167 0.19083336 -0.24983945 -0.28716278
0.55406064 -0.03841781 -0.21388033 -0.57223326 0.16127773 -0.12367741 0.19864711 0.49216846
-0.3099929 -0.124269895 0.48203182 -0.062025934 0.012379552 0.6443168 0.47862196 -0.05684614
0.4040378 0.07942986 0.2518105 0.10014996 -0.23480187 -0.03182596 0.08398764 0.0037669854
0.30879682 -0.2914209 -0.06886576 0.62703717 -0.3410749 -0.12772581 0.14226425 -0.9811766
0.29379132 -0.46628812 0.49349096 -0.17565285 -0.41185713 -0.23555242 0.44690794 -0.24394594
0.22559193 -0.24956189 -0.029161293 -0.24870318 -0.58394885 0.24813358 -0.412594 0.43456912
-0.13067853 -0.40732357 -0.32266286 -0.10619577 0.10920512 0.012256457 -0.70674926 0.06929804
0.6606501 -0.4316636 -0.10167681 0.45875528 0.10795257 0.50094694 -0.13429274 0.24703538
0.55339974 0.23004855 -0.046667527 0.21849445 -0.60697114 -0.20444222 -0.6680281 -0.3819322
-0.35913596 0.22773676 -0.42737746 -0.08778042 -0.02771013 0.27340105 0.3379078 0.16633447
0.2327394 0.41387638 -0.5175431 0.6188019 0.13126044 0.39707282 0.14068183 -0.23258236
-0.07350112 -0.05429074 0.37625915 -0.046004616 -0.30768436 0.49971795 -0.60968393 -0.08276913

gnn_base.gnn.embed_layer.lin_h.0.bias f4 [16]
00000000: 0000 0000 0000 0000 0000 0000 0000 0000
00000010: 0000 0000 0000 0000 0000 0000 0000 0000
00000020: 0000 0000 0000 0000 0000 0000 0000 0000
00000030: 0000 0000 0000 0000 0000 0000 0000 0000
0.0 0.0 0.0 0.0 0.0 0.0 0.0 0.0
0.0 0.0 0.0 0.0 0.0 0.0 0.0 0.0

gnn_base.gnn.embed_layer.lin_h.2.weight f4 [16]
00000000: 9e0c 6a3f a92d 793f 1d1c 993f 9b32 7b3f
00000010: d90b 813f 012e 8a3f ab3a 973f 110c 893f
00000020: 6198 783f 48fa 663f 5430 7b3f 1a42 923f
00000030: 3c82 7b3f 9fe3 893f 64fd 853f a6b8 7e3f
0.914255 0.97335297 1.1961704 0.9812409 1.0081741 1.0795289 1.1814779 1.0706807
0.9710751 0.9022565 0.9812062 1.1426423 0.98245597 1.077259 1.0467954 0.995005

gnn_base.gnn.embed_layer.lin_h.2.bias f4 [16]
00000000: 9b3d 9c3d a92d 1c3c 93f3 14bc e644 9bbc
00000010: 9048 f83d dfd7 10bc c7ed 08be 9706 4d3d
00000020: 023d a3bd a299 d63d 36d4 e5bb 5c87 b23d
00000030: 2f5b e33d 4f43 4fbd 4faa b8bc a8f7 813d
0.07628938 0.009532371 -0.009091276 -0.018953752 0.12123215 -0.00884053 -0.13371955 0.050055113
-0.07970621 0.10478522 -0.007013823 0.08717224 0.11101376 -0.0506013 -0.022542147 0.06346065

gnn_base.gnn.embed_layer.lin2.0.0.weight f4 [16, 16]
00000000: 8649 0fbf ed16 cdbe 6de6 eebe 0310 1a3e
00000010: d8c4 c6bd b3eb 28bf cb1b e13e 87ef 8abd
00000020: 5895 83be c2e1 fd3e d093 d2bd 47db 973e
00000030: fca4 3abe eca7 093f cd6b 8f3b 450f a3be
00000040: e806 54be d968 b8bd 5c72 24bf 196e 7e3e
00000050: 5a58 68be c87a 3e3e 608a c13e 0aaa 87be
00000060: 133c c53e 12dd d4be 4c8b 92bd 044a 28bf
00000070: 7eb9 43be 6beb c3bd e919 683f 268d f83d
00000080: c894 9dbe 132f 553f 29a1 353f 2e7b 48bd
00000090: c53c 37bd 2bba 0ebf a569 cbbb 4885 dbbd
000000a0: 0276 c83e 1541 9d3c 3597 2bbd a33d 28be
000000b0: 743d c23e 84ff 153f 635c 09bc 0037 8cbc
000000c0: b727 923e 2290 8dbe c318 623e 2c18 df3e
000000d0: 25ba 0b3f 0bdf b2be 3b9a 213e 8be1 a6be
000000e0: efba 29bf f0b7 51bf bc1b 98be 4049 423e
000000f0: c7a5 243f b9d6 b13d e4bd b8bc 2fc2 4dbd
00000100: 171b 843e 0f0f 533e 9bae 86be 11d4 803e
00000110: e5fe fa3e dcdb 7abf 86b1 09bc 1fcf d33e
00000120: 4b1a 733e f40d edbd df7f 0f3e a1db 0d3e
00000130: 5e0d f9be f5e5 20bf 0189 5a3c d9f4 fb3e
00000140: 362b 4cbd 8c8f 6c3e fd79 e13e 48bd 153e
00000150: 4ec7 d83e fcb3 003f 3be9 e43e bc15 823b
00000160: 6f94 e2bc 1eaf 033e 47e5 1ebf 64db 2d3f
00000170: fa98 7dbe 4cfb 1b3e 8371 003f 1b82 ce3e
00000180: 0105 c93e 6bb0 f7be f07d 203e 94bf fa3e
00000190: ca0c 1abe 68e8 a43d 9621 523e 0562 a23d
000001a0: 2fe7 0e3f e0d4 023f 9043 173f a420 cc3e
000001b0: 2a9d e63e 8dfb 5abe c873 453e af26 193e
000001c0: 8d06 853e 5836 313e 907d ddbe be8f 5ebf
000001d0: dbbd 6b3e 3925 2c3d 9a7d 263e ec05 8cbf
000001e0: 8fb2 8b3e be6e c33d c789 a83e 7ce5 843e
000001f0: 9c98 3fbd 1e96 20be fdd7 c43d 26b3 473d
00000200: cffe c7bd 4cab f93e 91e0 e2be 0091 97be
00000210: 7d5c 31bf a2c4 a4bd 63c1 333f d070 a63e
00000220: 3a07 a4bd 88d1 c8bd 7a98 41be ba51 d73e
00000230: 403d 1a3f edb2 90be a647 dbbe e42b 943e
00000240: 555d 7a3e 5888 51be 79d9 9dbe 48af 573d
00000250: 1ea5 0c3f 96b6 29bd d782 a43e 66d9 05be
00000260: 6148 f63e 6a91 c63e 3380 66bf 28c8 f3be
00000270: 6ece a63e 5e84 173e c5ec 73bd b0e2 96be
00000280: cf6e 093f 1817 943d c519 b5be f2ae 18bf
00000290: 72dd 6b3b 733f 293e 72ea 9c3d d5ed 353f
000002a0: 6784 93be efbc aebd c950 be3e 8eb9 19be
000002b0: 36f4 07be 4783 4b3f c1e5 083f fd30 5dbe
000002c0: c68a 063f d007 c13d 561a bd3e ad67 4c3d
000002d0: 0d12 64be 01c6 bcbd deb2 b43d c69e 673c
000002e0: 54c0 b53e 552e 9cbe 59c7 51bd f34f 293f
000002f0: 2b75 f0be 7aab 29be 951b 3b3d 466e 89bf
00000300: 9dfb 533e e451 a1be 667d 013f fa90 91be
00000310: 1303 bebe 847d abbe eb50 0c3f 0b83 6cbe
00000320: 3fe9 823e 299c 77be 3172 bebd 6fe4 9ebe
00000330: 974a 24bf 7f0b 923e 19ec d7be 444e 033f
00000340: 057a 8cbd c304 0fbf 8f92 56be da16 ecbd
00000350: 7a54 ac3d 2f2d 473e 8969 6ebf 614c fb3d
00000360: 28d2 2c3f 911f ecbe 5075 a5bd 2fdf 273f
00000370: cecc f0bc 4493 003f 0bd6 21be 918b ab3d
00000380: 3deb 273f 8e92 493e d90d 5bbd 1ece 3c3e
00000390: 707d 36bf dbcf 66be 1739 1ebf 031b 00bf
000003a0: 16a0 b3be 5d56 673e 55c4 00bf a85e 38be
000003b0: d431 653d 2241 9a3e 0335 e53e 4d86 413e
000003c0: 987f 523e 361a e83e cc20 28bf e5cd 2f3f
000003d0: 0bb5 133d a921 e73e 964f a23d 0e3c 1abe
000003e0: ed76 cbbd f8ac 11be b06a ba3e b56a c8bd
000003f0: 4958 9cbe c5eb 083f 7606 1fbf 1255 843d
-0.5597156 -0.40056553 -0.46660176 0.1504517 -0.09705514 -0.6598465 0.43966517 -0.067839675
-0.25699878 0.49586302 -0.10282099 0.29659483 -0.18226999 0.53771853 0.0043768645 -0.31847587
-0.2070576 -0.09004373 -0.64237 0.24846686 -0.22689953 0.18601525 0.37800884 -0.26496917
0.38522395 -0.41574913 -0.07155475 -0.6573794 -0.19113728 -0.09566387 0.90664536 0.12136297
-0.30777574 0.83274955 0.70949036 -0.0489456 -0.04473569 -0.5575282 -0.006207662 -0.10718781
0.39152533 0.019196073 -0.04189225 -0.16429763 0.3793751 0.5859301 -0.008383843 -0.01711607
0.28545925 -0.27649027 0.22079758 0.4357313 0.5458091 -0.34935793 0.1578149 -0.3259395
-0.66300863 -0.8192129 -0.2970866 0.18973255 0.64315456 0.08683533 -0.022551484 -0.050234016
0.25801918 0.20611213 -0.26305088 0.25161794 0.49022594 -0.9799173 -0.008404141 0.41368958
0.23740499 -0.11574927 0.14013623 0.13853313 -0.4864301 -0.62850887 0.013338328 0.4921024
-0.049845897 0.23101634 0.44038382 0.14622986 0.42339557 0.50274634 0.4470919 0.003969876
-0.02765867 0.1285977 -0.620686 0.6791289 -0.24765387 0.15232581 0.50173205 0.40333638
0.3926163 -0.48376784 0.15673041 0.48974288 -0.15043941 0.080521405 0.20520625 0.07928852
0.5582151 0.5110607 0.5908747 0.39868653 0.45041782 -0.21385022 0.19282448 0.14956163
0.2598156 0.17305887 -0.4325986 -0.86938083 0.23021643 0.042027686 0.1625885 -1.0939307
0.27284667 0.09542607 0.32917616 0.25956333 -0.0467764 -0.15682265 0.09611509 0.048754834
-0.09765398 0.48763502 -0.44311956 -0.29602814 -0.6928175 -0.08045317 0.7021696 0.32507944
-0.08009191 -0.0980559 -0.18905821 0.4205454 0.6024971 -0.2826151 -0.428281 0.28939736
0.24449666 -0.20462167 -0.3082998 0.052657396 0.5493945 -0.041433893 0.32131073 -0.13071212
0.48102096 0.38782817 -0.90039366 -0.47613645 0.32579368 0.14796588 -0.059551973 -0.29469824
0.53684705 0.07230967 -0.35371223 -0.59641945 0.0035990146 0.1652811 0.076619044 0.7106603
-0.28811952 -0.0853213 0.3717101 -0.1501219 -0.13276753 0.7949719 0.53475577 -0.21600719
0.525555 0.09425318 0.36934155 0.04990356 -0.22272511 -0.09217454 0.08823179 0.014136976
0.35498297 -0.305041 -0.051215503 0.6613762 -0.46964392 -0.1656932 0.0456806 -1.0736778
0.20701452 -0.3150779 0.5058197 -0.2843092 -0.3711172 -0.33494198 0.5481097 -0.23096864
0.25568578 -0.24180664 -0.09299124 -0.31033656 -0.64176315 0.28524396 -0.42172316 0.512913
-0.06859211 -0.5586664 -0.20954345 -0.11527796 0.0841455 0.1945083 -0.93129784 0.122704275
0.67508173 -0.46117833 -0.08079016 0.65574926 -0.029394533 0.5022471 -0.15804307 0.083762296
0.6559332 0.19684812 -0.053480003 0.18438002 -0.7128515 -0.22540228 -0.6180586 -0.50041217
-0.35083073 0.22591539 -0.5029958 -0.18004858 0.055955723 0.30127817 0.44767007 0.18898888
0.20556486 0.45332497 -0.65675044 0.68673545 0.036061328 0.45142868 0.07925336 -0.15061972
-0.09934793 -0.14226139 0.3640952 -0.09785978 -0.30536106 0.53484756 -0.62119234 0.064615384

gnn_base.gnn.embed_layer.lin2.0.0.bias f4 [16]
00000000: a72f 26bd ec97 8fbc 6eaa 52bd e80b 323d
00000010: d36e c33d e040 373d f42b 093d 7075 4d3c
00000020: d2d4 0abc 7a96 af3c 90ea 8fbc 94a9 4b3b
00000030: 0fb1 84bc 3943 5a3d d55b 1e3d aa21 c83b
-0.04057279 -0.017528497 -0.051432066 0.043468386 0.095426224 0.044739604 0.033489183 0.012540206
-0.008473592 0.021434058 -0.017567903 0.0031076418 -0.01619771 0.053286765 0.038661797 0.0061075287

gnn_base.gnn.embed_layer.lin2.0.2.weight f4 [16]
00000000: 399e 633f 4467 843f d78e 933f a9cd 863f
00000010: ffc9 5a3f b6a0 5c3f e959 763f 4d6f 8b3f
00000020: 6b16 663f 0c15 703f 3018 833f c017 783f
00000030: 3fd5 8c3f 68be 853f 416b 903f d77d 6b3f
0.88913304 1.0344014 1.1527966 1.0531512 0.8546447 0.86182725 0.9623094 1.0893341
0.8987796 0.93782115 1.0241756 0.9691124 1.1002578 1.0448732 1.1282731 0.9198889

gnn_base.gnn.embed_layer.lin2.0.2.bias f4 [16]
00000000: b97e 3dbd 6eb6 50ba bdf6 08bb fd43 ca3d
00000010: e58a 8f3d 8a72 033e f174 02be 0250 9b3b
00000020: 2ba1 9d3d 9b58 37bd 2dce b43c c10d 5d3b
00000030: 352b ef3a a2cc aabd 4651 2f3c fc6c 9f3c
-0.04626343 -0.00079617545 -0.002089902 0.09876249 0.07008914 0.12836662 -0.12739922 0.0047397623
0.07696756 -0.044762235 0.022070969 0.0033730122 0.001824713 -0.08339812 0.010700529 0.019461147

gnn_base.gnn.gnn1.lin_key.weight f4 [48, 16]
00000000: 9a64 853e f938 9e3d 20fb 7f3d 9faa 6d3d
00000010: ff6c b1be e8e1 58be 4dbf f63c 60a1 33bc
00000020: 5239 833d aa69 72be e237 45bb 9623 9d3e
00000030: f150 51be 9af3 bc3e 24e1 8b3e 51a2 793d
00000040: a0a3 8d3e 358e 513e 7c60 913e 0df9 623b
00000050: f640 843e a14f 023e c0c4 4bbe edab 0bbf
00000060: 40dc 51bc 6f59 56bd c947 e0bc 3ee5 b73d
00000070: a841 66be 8e12 e2bd 05d3 443e 276e 7ebe
00000080: f2c9 983e 9dc0 99be 430e 9a3e 896b 523d
00000090: e342 94be bc28 6a3e 9ff6 ad3e 0154 3bbc
000000a0: 85b0 88be 6dfe 5cbe 1246 1a3e b36e 8c3e
000000b0: 27f7 93be 06db 073e 4a2c c53e c687 3d3d
000000c0: 1475 1d3e 06b1 e73e c90f f5bc dc1b 62bd
000000d0: 4ca3 92be 7c10 40bb 9313 99be 7606 d8bd
000000e0: ad4d c8be 5478 03bf 5e44 103e 4a50 a33e
000000f0: 3fb1 843d 839c 3a3d abfb be3d b38e 45be
00000100: 4424 90be 9b9e 85bd abb4 91be d81a d7bd
00000110: 5e9e 63bd 24bb e13d cada 71bd e184 e4bd
00000120: 1bee c0bd db26 ba3d 2239 e1bc 4bea 253e
00000130: 1ede ba3d 3ecb 6c3d 1e11 e4bd 9b55 b93d
00000140: 3444 05be bae4 4b3e 8563 ec3e e5b8 083e
00000150: 4a43 f93e 5447 f0bd f8c5 3ebe 546a f83d
00000160: 2037 883e 41cc f83d 40d5 29be 18d3 23be
00000170: 7aac 903d 4013 fbbd a2d8 adbd 9e60 103e
00000180: e294 c43e 7f9d 73be 4dea 3e3e e62e a73e
00000190: 0c6c e7bd 2e1c ac3e 3b1b 863c d3c9 33be
000001a0: d1d2 a1be c0f3 3d3d eac5 533e 3fb5 89be
000001b0: 7d14 583d b031 aebe 152d 863e 4ce4 5e3d
000001c0: f723 323e 9e43 8bbe 2159 aa3d d792 b33e
000001d0: b3af 943e 5455 61be 5b15 2bbe 1843 51be
000001e0: fa6e 5ebe 77f6 dabe c65f 79be df2b db3e
000001f0: 0dde 77be 0012 083e c27d 653e 318e 3d3d
00000200: 9383 aa3d b567 c23e 0e5f 83be f9c5 4ebd
00000210: bf69 a5bc fb78 83bd 826b 533d e12e 3dbd
00000220: 08ff c3be 49ba c4bd e316 8e3e d677 8cbe
00000230: 70f4 2d3e f745 6abc facc f8bc d540 ffbd
00000240: 7451 8c3e c3a2 64bd 313b 07be 1445 593e
00000250: 6df6 20bd ad70 c13e 0161 cc3e cec9 e53d
00000260: c129 a3be 63e2 6ebe 10dc 623e fcf8 24bd
00000270: a6dd 3d3e e664 9abd 7c66 3c3e 0ad6 a3be
00000280: a3a4 823e 2094 a33d f91b b2be 7a3d a63e
00000290: 0602 30be 388d d33a 013e 62be de9f 4dbb
000002a0: 1527 0f3e 8552 00bc 7e0a 2dbe cdd4 6c3d
000002b0: 588e 16bd 4575 383e a0d3 5ebe c3e3 113d
000002c0: a5ca 52be 04cf 76bd b971 863d 0df0 c4bd
000002d0: 40d2 9b3e 9f4a c2be fcd3 48bd 1ef2 47be
000002e0: f338 863e 0730 ec3b fe39 17bd ce51 acbd
000002f0: 7ba2 133e 4ddb 5ebe d3a7 a13c a918 403d
00000300: aeff a3be a21e cdbc 5720 94be dc61 1fbe
00000310: 15be 14be 0cfd 843e 9cda 5abc a6b3 ef3e
00000320: 4d65 5a3e 18d5 9d3d 3cf3 223e 3c6a d4be
00000330: 6ef5 553e 7960 5dbe 3a1a 54be cce0 7dbd
00000340: 7ea9 2e3e 4b67 683d 316a d4be 2585 123e
00000350: f3c0 9ebe 9352 453e a361 b7be 6e73 2dbe
00000360: aacb 893e cfb4 73bd af3f c3bd 8b0b 8dbe
00000370: 05d2 a33e b095 ec3d 7fd6 5fbe a16b 07be
00000380: efa6 ce3d c5c5 2bbe db67 b1be a2f6 96be
00000390: bb93 0ebf ca77 5b3d 1e0d 373e 176e 4c3d
000003a0: 5ec3 8abe dcc9 29be ed81 3a3e 6fea debd
000003b0: df46 2c3e d04f 093e 6003 2f3d bee9 76be
000003c0: 64dd f43d 922f f3be b5fa 113d 1c8e 943e
000003d0: 6905 70bd 0139 6b3d fb80 c6bd 5eea 28be
000003e0: c03c 743e ad73 c1bd 1c40 303e 2197 1fbe
000003f0: b8d7 59be 6af9 9bbe 2c2e 683e 4702 963d
0.26053315 0.077257104 0.06249535 0.058024045 -0.3465347 -0.21179926 0.030120516 -0.010963768
0.06407417 -0.2367312 -0.0030093123 0.30691212 -0.20441033 0.36904603 0.27320206 0.060945813
0.27663898 0.20464404 0.28393924 0.003463331 0.2583081 0.12725689 -0.19899273 -0.5455921
-0.012808859 -0.052331384 -0.02737798 0.08979271 -0.22485983 -0.11038695 0.19221123 -0.24846707
0.29841572 -0.30029765 0.30089006 0.051372085 -0.2895728 0.22867101 0.3397722 -0.011433602
-0.26697174 -0.2158143 0.15065792 0.27428207 -0.288995 0.13267145 0.38510352 0.04627206
0.15376693 0.45252246 -0.029914754 -0.05520235 -0.2864021 -0.00293067 -0.29897746 -0.10548107
-0.39121762 -0.5135548 0.1408858 0.31897193 0.064791195 0.045559417 0.093253456 -0.19292717
-0.28152668 -0.06524392 -0.2845815 -0.10503167 -0.055570953 0.11022022 -0.059046544 -0.11158157
-0.09420415 0.09089442 -0.027493063 0.16202657 0.09124397 0.057811014 -0.11136077 0.09049531
-0.13014299 0.19911471 0.46169677 0.13351782 0.4868415 -0.11732355 -0.18630207 0.121296555
0.26604557 0.12148333 -0.16585255 -0.15998495 0.07064147 -0.12259531 -0.08488585 0.14099357
0.3839484 -0.23790549 0.18644066 0.32652968 -0.11299905 0.3361525 0.016370406 -0.17557459
-0.31606153 0.046375036 0.20680967 -0.26896092 0.052753914 -0.34022284 0.2620627 0.05441694
0.17396532 -0.27200025 0.08317781 0.35072967 0.29040298 -0.22005206 -0.16707365 -0.2043575
-0.21722022 -0.42766163 -0.24352941 0.42806908 -0.242058 0.13288116 0.22411254 0.046278182
0.08325877 0.37969747 -0.25658458 -0.05048177 -0.020192025 -0.064195596 0.0516162 -0.046187285
-0.3828051 -0.096058436 0.27751836 -0.27435178 0.16987777 -0.0142989075 -0.030371178 -0.124635376
0.27405894 -0.055819284 -0.13206173 0.21217757 -0.03929751 0.37781277 0.39917758 0.11220132
-0.31867793 -0.23328547 0.2215426 -0.040276513 0.18541583 -0.07538776 0.1839847 -0.31999236
0.25516233 0.07987237 -0.34786966 0.32468778 -0.17188272 0.0016140109 -0.22093965 -0.0031375806
0.13979752 -0.007832174 -0.16898534 0.05782013 -0.036756843 0.18013485 -0.21760416 0.0356176
-0.20585115 -0.06025602 0.065646596 -0.096160986 0.30433846 -0.37947556 -0.04903029 -0.19525954
0.26215324 0.0072078737 -0.03692054 -0.084140405 0.1441745 -0.21763344 0.019733345 0.046898518
-0.32031006 -0.02503902 -0.28930923 -0.15564674 -0.14525636 0.2597431 -0.013357785 0.46816748
0.21327706 0.0770666 0.15913099 -0.414873 0.20894405 -0.21618833 -0.2071313 -0.06198196
0.17056844 0.056739133 -0.41487268 0.14308603 -0.31006584 0.19269781 -0.35816678 -0.16938564
0.26913196 -0.059498604 -0.09533631 -0.2754787 0.3199617 0.11551988 -0.21859168 -0.13224651
0.10090434 -0.16774662 -0.34649548 -0.2948504 -0.5569417 0.053581037 0.17876098 0.049909677
-0.27102178 -0.1658091 0.18213625 -0.108845584 0.1682391 0.13409352 0.042727828 -0.24112603
0.119562894 -0.4749723 0.035639483 0.2901467 -0.05859891 0.05742741 -0.0969257 -0.16495654
0.238513 -0.094458915 0.17211956 -0.15584995 -0.21273696 -0.30463725 0.22673863 0.07324653

gnn_base.gnn.gnn1.lin_key.bias f4 [48]
00000000: 6907 25bd 533e 01be 37c1 033e 2225 0dbe
00000010: 684b ae3d 61d0 0b3e 5a8f 3dbd 14f2 683e
00000020: a741 f0bd 56df e03d f6b3 2d3e 4f97 1abe
00000030: 11ca 4fbb 7649 463e 0fab 4bbe 019a 04be
00000040: 462c 7cbe ca35 323e 90dc 2c3e 554a 2b3d
00000050: 736f 363d 83a0 76be 4cee e73d 417c f6bd
00000060: 984a 093e 00a3 24be 7799 2dbe 01cd 333e
00000070: 64c2 903d 82c8 94bd 2b6d 25be 9355 60be
00000080: 6f44 343e 0f98 aebd f6b9 5d3d 7c64 183e
00000090: d4f7 7cbd 6097 f0bd 4ab1 0ebe 9f08 af3c
000000a0: 4d05 dbbc a6aa d23a c2ad 833d 8e7a 65be
000000b0: e86b 013e 27a5 21bd cdc4 5cbe a751 b9bd
-0.04029027 -0.12621431 0.12866674 -0.13783696 0.08510476 0.13653709 -0.04627929 0.22748595
-0.11731272 0.10980098 0.16963181 -0.15096782 -0.0031706134 0.1936396 -0.19889472 -0.12949373
-0.24626264 0.17403331 0.16881013 0.041818935 0.04453988 -0.24084668 0.113247484 -0.12035418
0.13407362 -0.16077805 -0.16953073 0.17558672 0.07068327 -0.07264806 -0.16154926 -0.21907644
0.1760423 -0.085250966 0.054132424 0.14882082 -0.061759785 -0.117476225 -0.13934818 0.021366416
-0.026735926 0.0016072586 0.06429626 -0.22410032 0.12638819 -0.039464142 -0.21559449 -0.09048777

gnn_base.gnn.gnn1.lin_query.weight f4 [48, 16]
00000000: 7439 53bd e44b 733e 15bf ad3d d782 93bd
00000010: 40ed 75be 86b8 ba3e bbd4 523e 9581 873e
00000020: 95cb 6fbe 6baa 3b3e 4176 e7bc 1111 f1bd
00000030: 2886 84be e2ac aebd 5670 9a3e e50f 363e
00000040: 7459 0ebe b39d 5f3e a9e6 aa3e e2a4 5b3e
00000050: db73 80be b1ef 393e 245b 33be feb7 84be
00000060: 0504 2f3e 9f8e 983d 8e7b 493b 5968 2d3e
00000070: 5bea ffbc d8a2 d7be 9907 c9bc 99e6 49be
00000080: 05eb cf3d 15eb 873e 3af1 733c 4410 c0be
00000090: a6ba d8be a7b4 873e 1a82 7dbe 85a8 8c3e
000000a0: 30c5 83be 662f 903e ef26 953e 4b77 a6be
000000b0: 4882 a7be cbf2 7f3e 8954 05be 93b8 e1bd
000000c0: e6e3 973d 7825 5abe b605 733e 6ebb 873d
000000d0: cc2e 88be 31a0 b23e ac53 9ebd 0b8e 76bd
000000e0: fcba bbbd d265 8d3e 8668 b0be 3ff5 54be
000000f0: 4aeb 0dbe 9886 6a3d 230a 0e3f b633 66be
00000100: b883 6ebd 582d 47bd 8c9d e4bd afc7 79bc
00000110: d0c5 87bd e606 92ba 6462 103e 5781 e83b
00000120: 3d3c 35bb 891c a0be 9604 00be 29cb a03c
00000130: 5eae 1fbe 70f0 7f3d a301 1d3e f55b 033e
00000140: 8071 333e 34e9 bbbd ed7d d53e 559d ba3c
00000150: fb15 823d 10c0 74be 0f97 1abe bf7d fbbe
00000160: e535 7dbb 5330 9dbe eb86 61be 47bd 4b3e
00000170: 02ee 663e 1bfd 99be b624 f4be 402d ea3d
00000180: a81f 103c 478f 933d f5f7 d7bb 2606 9ebd
00000190: 6828 40be 25c0 6d3e fd80 c93c 2ea5 e43d
000001a0: f009 9abc 7346 49be 2dde 73bc 0f02 123e
000001b0: 7d7e cf3d e6bc 923e 3a09 ecbe 4f7c 1fbf
000001c0: fade 35be a7af 043f f81e d63e 10ba 40be
000001d0: adf9 8dbe 2102 4f3d 8889 babe fc71 8d3e
000001e0: 8baa 2c3e c180 a2bd 1702 e43d 79bf 8fbe
000001f0: 95df 713e e781 143e d586 b63e dd7d 443e
00000200: aba7 a63e 4154 d0be 8dff 0ebd 3f37 743e
00000210: 45a2 2cbe 767c 913e e6b7 273e ddd9 4dba
00000220: c65a abbd e8a6 933e dfe1 e2bd 037b 9a3d
00000230: 7ec0 ea3d 3289 a1bd bb36 583e 07ba 96be
00000240: f840 643e 2af8 1dbe 8c4e b73c 2e03 463e
00000250: 7f45 7fbe 979f a2bd 6618 cfbd 1986 c23d
00000260: 2924 8f3e 99e5 863e 3da1 1b3e 5765 0abe
00000270: 3ed3 14be 4797 983e b463 80bd edca b8be
00000280: d29a d6bc f5fc 013e 4b37 5fbd 5675 6d3e
00000290: a4ba 0f3d 7056 96be 6592 4d3e 3686 483e
000002a0: 0f9a 583d 23ec b2bc 368b d2bd c660 f6bd
000002b0: 32e3 213d 4108 c2be bddf 303e 90cf 193d
000002c0: ff38 2d3d 87f6 933d 2900 da3d f449 46bc
000002d0: f3ab 7c3e 8b71 04bc d5c6 0a3e 7afd 6abe
000002e0: f65f cb3c 2dc0 273e 908b 02be c6b7 d8bc
000002f0: ca06 9a3e 3e4a 983e 2ad0 08be 1006 603e
00000300: a952 b13e 70f1 99be 73e4 94be 5386 483e
00000310: f3ed 613d c9d2 4fbd fdb5 7c3e 5ba1 ca3d
00000320: b810 583e 3477 7b3e aadc 86bd 254f 463e
00000330: 3820 09bd 5941 4f3e 44ea f9be 0646 a73d
00000340: d7c9 e0bd 7205 ff3c 1835 87bd e472 f63e
00000350: 2564 8c3d 9238 02be b560 233f 2d0d 463e
00000360: 8742 4a3e 6648 55be 0611 12be 7f3b 353d
00000370: 1846 f7bd 8128 63be c331 cfbd 0408 97be
00000380: db7e 933e 3e9b 04be 3fad 23be 15c2 6d3c
00000390: 1007 843c ff30 883e db02 913e 7efd c63e
000003a0: 4259 12bd e695 c53e 1154 08bd 77a0 2ebd
000003b0: 596d b7be 6e37 ab3e 9eef 523e 9846 62bd
000003c0: 02ca a8bd a610 963e e33b 593d c88e 1cbe
000003d0: a7cd 19be 744e 46be de67 60be 3853 7e3e
000003e0: 5d50 cbbd e361 3cbd 465d 2ebe 86ce e9bd
000003f0: a417 4d3e 0bbd 0e3e 09a7 05bf c378 b5be
-0.051568463 0.23759419 0.08483712 -0.0720269 -0.24016285 0.36468905 0.20588963 0.2646605
-0.23417504 0.18326728 -0.02825463 -0.11770833 -0.25883603 -0.085290685 0.3016383 0.17779501
-0.13901311 0.21837501 0.33379105 0.21449617 -0.2508839 0.18157841 -0.17515236 -0.25921625
0.17091377 0.07449078 0.003074381 0.16934337 -0.03123968 -0.42116427 -0.024539756 -0.19716872
0.10152248 0.2654654 0.014889056 -0.3751241 -0.423299 0.26505014 -0.24756661 0.2747232
-0.2573638 0.28161162 0.29131266 -0.32512888 -0.32716584 0.24994962 -0.13020529 -0.11021533
0.07416515 -0.21303356 0.23732647 0.06627546 -0.26598203 0.3488784 -0.07730803 -0.060194056
-0.09166524 0.27616745 -0.34454745 -0.20796679 -0.13859287 0.057257265 0.5548422 -0.22480664
-0.058231086 -0.048627228 -0.11162862 -0.015245362 -0.066295266 -0.0011140972 0.14100033 0.0070954966
-0.0027654313 -0.3127177 -0.1250175 0.019628124 -0.1559386 0.06248516 0.15332656 0.12828048
0.17523766 -0.09175339 0.41697636 0.0227801 0.06351849 -0.23901391 -0.15096687 -0.49119374
-0.003863686 -0.3070093 -0.22024123 0.19896422 0.2255173 -0.30075917 -0.47684258 0.11434412
0.00879661 0.07205062 -0.006590838 -0.077160165 -0.18765414 0.23217829 0.02459764 0.11164318
-0.018803567 -0.1965578 -0.014884514 0.14258598 0.101315476 0.28659743 -0.4610079 -0.62299055
-0.1776084 0.51830524 0.41820502 -0.18820977 -0.2772955 0.05053914 -0.36433053 0.27626026
0.16861932 -0.07934714 0.11133211 -0.2807577 0.23620446 0.14502679 0.35649744 0.19188638
0.32549796 -0.4068928 -0.03491168 0.238492 -0.16858776 0.2841527 0.16378745 -0.00078525936
-0.08366923 0.28838277 -0.11078238 0.07542994 0.11462496 -0.07887496 0.21114628 -0.29438803
0.22290409 -0.15426698 0.022376321 0.1933715 -0.24928854 -0.079405956 -0.101120755 0.09498233
0.27957276 0.26347044 0.15198226 -0.1351522 -0.14533707 0.29802915 -0.06269017 -0.3609232
-0.026196871 0.12694152 -0.05449609 0.23189291 0.035090104 -0.29362822 0.20075376 0.19582447
0.052881297 -0.021841114 -0.10280459 -0.12030177 0.03952331 -0.37896922 0.1727285 0.037551463
0.042290684 0.07224756 0.10644562 -0.012102593 0.24674968 -0.008083711 0.13552411 -0.22948256
0.024826031 0.16381903 -0.12748551 -0.026454818 0.30083305 0.29744142 -0.13360658 0.21877313
0.34633377 -0.30067015 -0.29080543 0.1958249 0.055158567 -0.05073813 0.24678798 0.09894057
0.21100128 0.24557191 -0.06585057 0.19366129 -0.03347799 0.20239772 -0.48811543 0.08167653
-0.10975998 0.031130526 -0.06601924 0.4813453 0.068550386 -0.12716892 0.6381944 0.19340964
0.1975194 -0.20828399 -0.14264306 0.044246193 -0.12073916 -0.2218342 -0.10116913 -0.29498303
0.2880772 -0.12949845 -0.15984057 0.014511605 0.016116649 0.2659988 0.2832249 0.38865274
-0.035729654 0.38590926 -0.033283297 -0.0426335 -0.35825613 0.33440727 0.20599219 -0.055243105
-0.08241655 0.29309577 0.053035628 -0.15288842 -0.15019856 -0.19365865 -0.21914622 0.24836433
-0.099274375 -0.04599179 -0.17027768 -0.11416344 0.2002855 0.13939302 -0.52208 -0.35443696

gnn_base.gnn.gnn1.lin_query.bias f4 [48]
00000000: bbac 8ebe 093b ba3c 7c30 a23c e3a7 303c
00000010: d7cf 623e 6b87 c73e ce9b 0a3e cda2 bf3e
00000020: da57 c2bd 029d d0bd 997e acbe 1000 863e
00000030: 3483 1fbd 605b 7f3d 770d 583d 72a9 b1bc
00000040: 0c3b a3be 336a 853c faf1 0f3c 5978 48bd
00000050: a86e 76bd 7d5d 98be 46d6 2b3d 3b0f c43e
00000060: 3a16 06be c5eb af3c e41a c13e 079a 723e
00000070: 5e85 d63d 5ff2 fb3d b93e ecbd 1af5 633e
00000080: 4492 e53e d5fb b43d 8854 d93e 99e1 a9be
00000090: f8ac f0bd e20b c5be e486 56be d163 8dbe
000000a0: afca 41bc 3edf 973d 84b5 8b3e 3835 00be
000000b0: 3552 303e e646 8e3d 7f0b 493d 0399 203e
-0.27866158 0.022733228 0.01979851 0.010782215 0.22149597 0.38970503 0.13535997 0.37428895
-0.094894126 -0.10186197 -0.33690336 0.26171923 -0.038943484 0.062343 0.052747216 -0.021687243
-0.31880987 0.016285991 0.008785719 -0.048942897 -0.060164124 -0.29758826 0.041952394 0.3829287
-0.13094416 0.021474728 0.37715828 0.2369157 0.104746565 0.12302088 -0.11535401 0.22261468
0.44838154 0.08837096 0.42447305 -0.3317993 -0.11751741 -0.38485628 -0.20949894 -0.27615216
-0.011828109 0.07415627 0.27286923 -0.12520301 0.1721886 0.069471166 0.04908323 0.1568337

gnn_base.gnn.gnn1.lin_value.weight f4 [48, 16]
00000000: 7961 e93d a099 01be f11e 4e3e dcd7 19be
00000010: f141 d23d 271b ce3e f204 bebd 95c4 81bd
00000020: 1076 10bd d30e 8bbe c2c4 8d3d a4e6 8c3e
00000030: 380b a4be 311b 9cbd 94c3 b2be e9c2 ce3d
00000040: 30d9 583e e044 49bd 96b3 303e 3880 ddbd
00000050: 9323 b03d a64b 65be 6369 81be a690 71be
00000060: b3c8 17bd 38ae abbd 6813 193d 6fc4 6dba
00000070: ae36 5cbe b4d0 b33e ed26 abbe 891a eabd
00000080: 943c 49bd 952f 1ebe b79b 82be 3ca4 a1bc
00000090: d780 f7bd 97cc c3bc 052e 483e ab46 1dbd
000000a0: 1c97 3f3e 11ba a6be 6117 7d3e 18f7 233d
000000b0: 5aec 8dbd 52ce b63e c5bc 4b3e 22ca c5bc
000000c0: da49 173e 9959 67be a3b6 d9bd 97a6 d1bd
000000d0: 3e84 47be 5b2b 073e 9c8c 52bd bfdb 353e
000000e0: c911 de3b 2349 ecbd 87b6 ad3e 6263 783d
000000f0: e331 0d3d 43df acbe 609f d33e b739 f23d
00000100: 3fa4 0f3d 3844 39be 20b0 95bc 491c c1bc
00000110: d82d d23c 9f0e 9c3e 164a 09be fd91 f53d
00000120: df37 683e d750 ce3e 2ea2 11be 5eb9 4b3e
00000130: 9c0b 843e 4a67 953d 6f78 88be 8a44 8bbe
00000140: df6c b4bd a416 9dbc b1a8 553e 231a 403e
00000150: 2612 53be 2a48 843e 3ad2 753e 586f 5b3e
00000160: 3444 cbbe 252b 7b3d 2680 70be 9a43 b43d
00000170: d57a 27be 846a 093e f1ab 2abe c79b acbd
00000180: 3852 82bd 2890 f3bd 3dd9 6d3e 773d 8fbe
00000190: 7d31 5c3e b488 483e 7772 c63e 7c6e a0bb
000001a0: bf4e 56be 28c8 a13d 7223 29bd 40bd 83be
000001b0: 96e9 41be dbd3 44be 0b82 b0bc ab40 59bd
000001c0: 7562 323c 032b 5a3d 81d8 a3bd 5bf1 0fbe
000001d0: 9431 41be 380a 183e dfd1 6c3e 9fe5 8dbe
000001e0: be34 5fbe 0163 16bd 7827 1dbe c235 323e
000001f0: b064 54be 25ae f73d b162 633d e818 8cbe
00000200: 8bef 26be 79db 9f3e 987c dc3d 2911 abbe
00000210: 3d61 29bd 8dc7 373e 2fd0 a53d 235f 023e
00000220: 3b75 c73d 3844 c33d 2011 e5bc a7c1 4d3e
00000230: 8edd d6bb 775c db3d 0153 453e 6ad7 333e
00000240: 5627 d43e 3e10 8dbe 064a 51be 3c08 fc3e
00000250: a0bc 8a3e 6405 47bd 6a3b c03e c65f c53e
00000260: 93b0 003e 02e1 97bd ff81 dfbd 08f9 863d
00000270: afa3 f7bd 7950 773d 7c62 2dbd e4ef a2be
00000280: 5d48 79be 7537 8c3c a97b 343c 21ae d23e
00000290: edf5 0bbe b1c0 0ebe 714c 6f3e 551e a9bd
000002a0: 5d66 663e 198b 8c3e 3cca 003d 5bf7 bb3d
000002b0: 64e3 a93e b858 5abe fe4a 40bd 146a 893d
000002c0: 1447 9cbd fd99 c63d 4808 b3be 6d0a 85bc
000002d0: 5ed1 a03d e00d 05be 9f47 1e3e b9aa 9d3e
000002e0: 62b0 2cbe 6db6 3dbe 3f71 a23e 25e6 10be
000002f0: f0df bdbc 395b a3bc fd3b 643d 2d8d 753e
00000300: b3a9 d93d 2ac3 38be 426f a03d da9b cd3e
00000310: 5c01 6fbe e2d9 8d3e 871d 99bc 8bee 063e
00000320: 3b30 bcbd df41 0e3e 0f65 493e 3078 80bd
00000330: a122 95be 00ab 963e 184f 57bd c4d6 0f3d
00000340: 2baa 963e 0191 c6be 89d1 e43c c1c8 8fbd
00000350: 81f6 a93e 31d7 61be 02e2 113e c34e c3bd
00000360: caf5 713e 3463 143e 6ef1 153e a4be 3e3d
00000370: 9226 0dbd f55a a4be 6c7f 823d 0496 0bbe
00000380: 8f5c bb3b 3c63 803d 6f29 3cbe f336 c93d
00000390: aa01 b0bc 1c37 143e 31c5 113e 251a 0d3e
000003a0: 5bdc c2bd 4cb4 4e3e bdda 1b3d caf0 973d
000003b0: 4849 4fbe 9d70 2ebd 9719 30be db76 c5bd
000003c0: a74d e03c d63a a1bc dc6f ffbc e197 f9bd
000003d0: 9dce 4bbe 55fc 693e 220a 6c3e cefb f33e
000003e0: 45b8 063e 0121 5ebe 6414 983d fa2a 0f3e
000003f0: 3d40 d9be 7f06 a73e 4152 f83d ca9f d7bc
0.113955446 -0.1265626 0.2012899 -0.1502375 0.102664836 0.4025509 -0.09278287 -0.06336323
-0.035268843 -0.27159747 0.06922294 0.27519715 -0.3203981 -0.07622374 -0.3491484 0.1009577
0.211766 -0.04913795 0.17256007 -0.108154714 0.08600535 -0.22392139 -0.25275716 -0.23590335
-0.037056636 -0.08382839 0.037372023 -0.00090701034 -0.21505234 0.35120165 -0.33428136 -0.114308424
-0.049130037 -0.15447839 -0.25509426 -0.019731633 -0.12085121 -0.023901267 0.19548805 -0.038397472
0.18709987 -0.32563832 0.2471595 0.04003057 -0.06929846 0.35704285 0.19896229 -0.024144236
0.14774266 -0.22592773 -0.10630538 -0.102368526 -0.1948404 0.13200133 -0.051403627 0.17759608
0.0067770225 -0.11537387 0.3392832 0.060641654 0.034471404 -0.33764085 0.4133253 0.118274145
0.035068747 -0.1809243 -0.01827246 -0.023573058 0.025656626 0.30479905 -0.13407168 0.11990736
0.22677563 0.4029605 -0.14222023 0.1989493 0.25790107 0.072950915 -0.26654384 -0.2720073
-0.08809828 -0.019175835 0.20865132 0.1875997 -0.20612392 0.25836307 0.24005976 0.21429193
-0.39700472 0.061320443 -0.23486385 0.088019565 -0.1635545 0.13419539 -0.16667153 -0.0842815
-0.06363338 -0.1189273 0.23227401 -0.2797658 0.21503253 0.19583398 0.38759205 -0.0048959833
-0.20928477 0.07899505 -0.04129357 -0.25730324 -0.18936762 -0.19221441 -0.021546384 -0.053040188
0.010887732 0.053263675 -0.08000279 -0.14056914 -0.18866569 0.14847648 0.23126934 -0.2771425
-0.21797463 -0.03671551 -0.15347087 0.1740332 -0.20741534 0.12093762 0.05551404 -0.27362752
-0.16302316 0.31222132 0.10765952 -0.3341153 -0.0413525 0.17947216 0.080963485 0.12731604
0.09739157 0.09534496 -0.027962267 0.20093404 -0.006557173 0.10710996 0.19269945 0.17562643
0.4143626 -0.27551454 -0.20438394 0.49225032 0.27097034 -0.048589125 0.3754533 0.38549632
0.12567358 -0.07415964 -0.10913467 0.06590468 -0.12091767 0.06037948 -0.04233025 -0.31823647
-0.2434401 0.017116288 0.011015811 0.41148475 -0.13668032 -0.13940693 0.23369004 -0.082577385
0.22499986 0.27449873 0.031442866 0.09178039 0.33181298 -0.21322906 -0.046946518 0.06709686
-0.076307446 0.0969734 -0.34967256 -0.016240323 0.078524336 -0.12993574 0.15457009 0.30794314
-0.1686416 -0.18526621 0.31727025 -0.14150293 -0.02317807 -0.01994096 0.05572127 0.23979636
0.10628071 -0.18043199 0.07833721 0.40157968 -0.23340362 0.27705294 -0.018690838 0.13176934
-0.09188887 0.13892315 0.19667457 -0.06272924 -0.29127982 0.29427338 -0.052565664 0.035116926
0.29426703 -0.38782504 0.027931945 -0.07020713 0.3319588 -0.22054745 0.14246371 -0.09536507
0.23628917 0.14490968 0.1464288 0.046568528 -0.03446061 -0.32100645 0.0637196 -0.13631445
0.005717821 0.062689275 -0.1837518 0.09824934 -0.021485168 0.14474148 0.14235379 0.13779505
-0.09514686 0.20185965 0.038050402 0.07418974 -0.20242798 -0.042587865 -0.17197262 -0.096418105
0.027380778 -0.019681375 -0.031181268 -0.12187172 -0.19903035 0.22850163 0.2305074 0.4765305
0.13156231 -0.21692277 0.07425764 0.13981238 -0.42431822 0.32622144 0.12125064 -0.02632131

gnn_base.gnn.gnn1.lin_value.bias f4 [48]
00000000: 0e41 09bd 7fb7 e53d e3c1 ce3b de66 a53d
00000010: 7191 88bd af8e 91bd 7dd8 acbd 909d 0f3e
00000020: 6bf5 013d c734 803d 23db 1b3e df13 203d
00000030: 1910 8bbe 3e30 0dbe e891 03be fd65 723d
00000040: 5bb7 80bd 9167 fb3d 36d0 c7ba 6319 97be
00000050: cd40 c9be bf7a 533d 64ee 9fbe 9c7d 0dbe
00000060: 1ba2 953d 4762 3a3d 3fcb 613e a3fd 83be
00000070: cd45 ebbd a3de 97be f700 cd3d 563e b63d
00000080: e4aa 3e3e 0574 3abe 22eb 23be ec62 893d
00000090: 11e9 b9bd 4d97 a5be ec8b b43d f82c fc3d
000000a0: 19a1 43be d2d8 babd 6ae9 4bbe c5a3 4ebe
000000b0: 7770 a2be 2a39 85be 8220 e93a 1d15 6d3d
-0.033509307 0.1121664 0.006309734 0.08076261 -0.06668366 -0.07107293 -0.08439729 0.14024949
0.03172819 0.062600665 0.15220313 0.03908145 -0.2716072 -0.13787934 -0.12848628 0.059179295
-0.06284972 0.12275613 -0.0015244547 -0.29511556 -0.39307252 0.05163073 -0.31236565 -0.13817447
0.0730631 0.04550388 0.22050188 -0.25779447 -0.11487923 -0.29662046 0.1000995 0.088986084
0.18619877 -0.1820832 -0.16007665 0.06708321 -0.09077657 -0.32341996 0.088157505 0.123132646
-0.19104423 -0.091233864 -0.19913259 -0.2017966 -0.3172643 -0.26020175 0.0017786177 0.057881463

gnn_base.gnn.gnn1.lin_edge.weight f4 [48, 1]
00000000: e892 7b3f 13ba c33c b011 d63e 4c0f 113f
00000010: 6eca 4d3d 0fda 33bf a5df 083f 9d1c 533d
00000020: 8d66 61bf 6ae9 8ebe bb13 02bf 920e d03e
00000030: a6e7 47bf 917b 293e c0c6 66be 00a3 11be
00000040: 721d cb3e 7ba6 0f3f 10d2 5e3e 9e84 ae3e
00000050: 2078 50be 9a07 a8be 0506 3e3f b46b 87be
00000060: 37c4 373f 5c7d 373f 816b 77bf 95ee 5f3e
00000070: 96aa 91be 9ccc dd3d aa2d 593f 52cb 1b3d
00000080: 1642 cebe 4fa1 a7be fbe7 23bf 76c5 023f
00000090: e300 cc3e 8ee4 2abe 96e1 2dbf 272d 69be
000000a0: 3c30 523f f872 03be 50d1 b63e 16bb 67bf
000000b0: 9e80 0c3e 8624 233f f37e 99bd d8b0 2dbe
0.98271036 0.023892438 0.4181037 0.56663966 0.05024188 -0.70254606 0.53466254 0.05154096
-0.88047105 -0.27912456 -0.50811356 0.40636116 -0.7808784 0.16551043 -0.22536755 -0.14222336
0.39670902 0.56113404 0.2175982 0.34085554 -0.20358324 -0.328183 0.74227935 -0.26449358
0.71783775 0.7167566 -0.9664841 0.21868356 -0.2845046 0.10830042 0.848353 0.0380357
-0.40284795 -0.32740256 -0.6402585 0.5108255 0.39844427 -0.16688749 -0.6792234 -0.2277113
0.8210485 -0.12836826 0.35706568 -0.90519845 0.13720939 0.63727605 -0.07494917 -0.16961992

gnn_base.gnn.gnn1.lin_skip.weight f4 [16, 16]
00000000: 5845 183e 6fd6 f0bd 9d26 cebd 2762 0ebd
00000010: 3355 5c3e a24e 5a3e 9a83 b73e e07e d03d
00000020: 87b2 61be 3ccb 4e3e 0571 9cbc 8906 dabe
00000030: 8d72 d2be 7767 9bbd 50c0 06be df46 f63d
00000040: be06 033c 37af c9be 156c 033e 8b37 123d
00000050: 82ac f7bb 4ea4 f2bd 53b9 783d b3dd a83d
00000060: 701e d03e 0130 1bbd 23e3 86be 716c 2fbc
00000070: dff2 913e a1e4 edbd 0396 a5be 8258 97be
00000080: 003e 0b3e 4255 93be 4c4b b63d fc60 9f3e
00000090: b48c 203e 4ade 4c3e bbe8 b0bd e02a b83d
000000a0: 7fdf 40be cb17 0b3c 6772 533e 70c4 853d
000000b0: f49d e23d d44b 8f3e 90f2 c53e 5bd2 17be
000000c0: bb9e 423e 6644 b6be 5ac2 95bd 33ca d4bd
000000d0: c352 62be a1b0 933d 5a34 1f3d 2745 a93c
000000e0: e9df 69be c0aa 823e e90d 62bd fbad 983e
000000f0: 7e5d 0c3d fad2 953e b9f6 44be 6edb 583c
00000100: f701 643e 4b4c 87bd b5b2 06bd 58bb eebc
00000110: e08a 41be dcc1 74bb 4202 87bd e605 8d3e
00000120: e7a6 b5be d05f 9e3e cf0b c6bd 244d 9bbe
00000130: ca23 a8be 2446 473e bcef 343e 838c 4dbe
00000140: 4178 78be ddd5 3c3d 7030 d43e b8e2 cf3d
00000150: c4f1 dfbd 6e79 e43d 0060 8ebe 9649 afbe
00000160: 384d dbbc a645 abbe d9c9 99bd 7c70 913e
00000170: 8942 723e ec29 e83d 7e21 b53e dcda 43be
00000180: c84f 7d3e 9933 873e b748 99be 8cdc c3bc
00000190: 258b 89bd a77d 8abe dbe5 bfbd ed09 42be
000001a0: 5d3b 11be fa26 5b3e 4587 a3bd 0669 47bd
000001b0: aeb0 48be 1d66 5dbc e984 4ebe c316 883e
000001c0: 9eda 123e abc4 d6be e491 203e 3ee0 f23e
000001d0: 7a2c 9fbe 683e 7cbe 31c3 913d f2a0 36be
000001e0: bfb5 c1bc 0b71 82be 93a2 423e ac19 94be
000001f0: 03ce d8be 279c bcbd b4ed 913e 5472 7a3e
00000200: a134 b2be aa33 9a3e 69e6 d0be 2927 503e
00000210: 369e 7b3e 88ba fa3d 24b9 733e d5d9 ecbd
00000220: 10d9 6dbd 15c4 733e 3dea d5be 7584 713e
00000230: e999 ccbc 3c24 eabc e64b b33d a376 ac3c
00000240: 710b bcbd 6114 9dbd 9a89 35bd 966a 14be
00000250: ac37 a5be 77f7 8fbe 072e 3d3e 048d 6cbe
00000260: 3f8a 73be a16f 013e b015 5a3e 28b5 b23e
00000270: 814c 853e df9d df3d 356e 1dbe ceff 7dbd
00000280: 1837 ddbd 679a d5be 6a10 a83e 8854 163e
00000290: 1cd6 3d3e 6166 323d f64a 1d3e dd30 b6bd
000002a0: 54c6 603e 20cb 613d 6ddb 05be 0d6e ed3d
000002b0: 29aa e3bd 9708 6cbe e48d f43e 5a8b b13e
000002c0: 2c82 bfbd 5eef 4abd 93ff 1c3d 45c3 b73e
000002d0: 34c5 1c3e 43d0 f93d 6cde a83c 335a 60be
000002e0: 1d82 c1bd 3923 e93d d597 9d3e f708 a4be
000002f0: 2af3 f53d aca6 9a3e 3bfe b23e bdad a13c
00000300: 392e 853c 871d 913e 6b54 b1bd 7ae2 d6bd
00000310: f976 d73c 7d29 f1bd 7ae1 1dbe 63ce aa3e
00000320: d5b3 343e 15ed babe 67c2 2d3e 82ad cd3b
00000330: ccac e9be e78f 6fbe 8b5d 3b3e f998 5f3e
00000340: 0e42 6bbe 4e1e b9be 8834 be3e 8d3d 35be
00000350: 6520 313d 8061 58bd e636 14be 5716 8c3e
00000360: f272 863e 0d48 93bd 8edd 583e a392 85be
00000370: b444 aebe 40b2 fc3d 8806 80bb 898e 143e
00000380: 7568 133e 7c1c 35be 9a68 783e 5563 6c3c
00000390: ecbf 6bbb 26a5 e8bc a83c 053e 2012 43be
000003a0: 6312 23be b374 15bd 2fc4 ebbe 8b44 803e
000003b0: ae9a dbbc 92ab 2fbe efc9 7d3e c626 2bbe
000003c0: c687 a2bd 3f11 513e c950 1d3e ecec 803e
000003d0: c150 5c3e d732 b43d 1a72 1f3e 08bb b53e
000003e0: b126 cc3c 5ace 5bbe 88ad 34be 72d7 edbc
000003f0: a34d b4be b4f8 bebe 6a97 3fbe c846 c03d
0.14870203 -0.1175965 -0.10065959 -0.034761574 0.21516876 0.21319059 0.35842592 0.101804495
-0.22040759 0.20194715 -0.01909686 -0.4258311 -0.4110302 -0.07588094 -0.13159299 0.12025236
0.007997213 -0.3939149 0.12834199 0.0356975 -0.0075584063 -0.11847745 0.060723614 0.08245411
0.40648222 -0.037887577 -0.26345167 -0.010707007 0.28505608 -0.11615873 -0.32341012 -0.29559714
0.1359787 -0.28775984 0.089010805 0.3112868 0.15678674 0.20006672 -0.0863814 0.08992553
-0.18835257 0.008489559 0.2064911 0.06531608 0.110652834 0.2798754 0.38661623 -0.14826338
0.19005863 -0.3559906 -0.0731246 -0.10390129 -0.22101884 0.07211424 0.038868286 0.020662857
-0.22839321 0.25520897 -0.055189047 0.29820237 0.03426885 0.29262525 -0.19234742 0.01323591
0.22266375 -0.066063486 -0.032885272 -0.029142067 -0.18900633 -0.0037346995 -0.065922275 0.27543563
-0.354789 0.30932474 -0.09670221 -0.3033229 -0.32839805 0.1946035 0.17669576 -0.20073132
-0.24264623 0.046102393 0.41443205 0.10150665 -0.10934785 0.111559734 -0.27807617 -0.3423583
-0.02677022 -0.33451575 -0.075092025 0.2840613 0.23658194 0.11336121 0.35377115 -0.19126457
0.24737465 0.26406553 -0.2993829 -0.023908876 -0.06715993 -0.2704899 -0.09370013 -0.18949099
-0.14182802 0.21401587 -0.07984785 -0.048684143 -0.19598648 -0.013513115 -0.20167889 0.26579866
0.14341208 -0.4194692 0.15680653 0.47436708 -0.3108862 -0.24633181 0.07117308 -0.17834833
-0.023646234 -0.2547687 0.1900733 -0.28925836 -0.42344674 -0.09209471 0.28501666 0.24457675
-0.34805778 0.30117542 -0.4080079 0.20327438 0.24572071 0.12242609 0.23801094 -0.11564986
-0.058068335 0.23805268 -0.41780272 0.23585685 -0.024975734 -0.028581731 0.08754711 0.021052664
-0.0918187 -0.076699026 -0.04432068 -0.14493784 -0.32269037 -0.28118488 0.1847459 -0.23100668
-0.23783205 0.1264024 0.21297336 0.34903836 0.2603493 0.109187834 -0.15374072 -0.062011532
-0.10801524 -0.41719362 0.32825023 0.14680684 0.18538707 0.043554667 0.15360627 -0.08896039
0.21950656 0.055125356 -0.13071986 0.11593256 -0.1111644 -0.23050152 0.47764504 0.3467663
-0.09351 -0.049544685 0.038329672 0.35891166 0.15309602 0.12197926 0.020613872 -0.21909408
-0.09448645 0.11383671 0.307799 -0.3203809 0.120092705 0.30205286 0.34959587 0.019736165
0.016257392 0.2834284 -0.086586796 -0.10492416 0.026301848 -0.117754914 -0.15418044 0.33360586
0.17646725 -0.36509004 0.1696869 0.0062767873 -0.45639646 -0.23394738 0.18297403 0.21835698
-0.22974417 -0.36155933 0.37149453 -0.17699261 0.043243784 -0.05282736 -0.14474067 0.27360794
0.2625957 -0.07191477 0.21178266 -0.26088437 -0.3403679 0.12338686 -0.0039070286 0.14507498
0.14395316 -0.17686647 0.24258652 0.0144279795 -0.0035972549 -0.028399061 0.1301142 -0.19049883
-0.15924983 -0.036488246 -0.46048114 0.25052294 -0.026807155 -0.17155293 0.24784063 -0.1671401
-0.07936053 0.20416735 0.15362848 0.25180757 0.2151518 0.087987594 0.1557087 0.35494256
0.024920793 -0.21465436 -0.17644322 -0.029033396 -0.35215482 -0.3729912 -0.18710104 0.093885005

gnn_base.gnn.gnn1.lin_skip.bias f4 [16]
00000000: b76b b23c 5df9 123e f576 aebd 0b49 83be
00000010: f3be 19be b121 1abe d4ea 0fbe 5127 d53d
00000020: f5e7 2abe af6e 6dbd d7f6 0fbe 7a03 a8bb
00000030: 681e 49be 7c67 b4be 675b 1b3d f674 11be
0.021779878 0.14352937 -0.08518783 -0.25641665 -0.15014248 -0.15051915 -0.14054424 0.1040789
-0.16690047 -0.057966884 -0.14059006 -0.0051273676 -0.19640505 -0.35235202 0.037928965 -0.14204773
