ResultsForTesting/actor.pt (torch, 199674 bytes, 62 tensors)

gnn_base.gnn.embed_layer.entity_embed.weight f4 [3, 2]
0	0xbfd9eab6	-1.7024753
1	0xbda804a8	-0.08204013
2	0x404b7f1a	3.1796327
3	0x3fbdcdfb	1.4828485
4	0x3f1a3f78	0.60253096
5	0xbf280ed8	-0.6564765

gnn_base.gnn.embed_layer.lin1.0.weight f4 [16, 9]
0	0xbeaef164	-0.3416854
1	0xbf85a938	-1.0442266
2	0xbf42464d	-0.7588852
3	0xbf8dd4a4	-1.1080518
4	0xbeef1fa7	-0.46703836
5	0xbf98b44b	-1.1930021
6	0xbe9ccdd1	-0.30625775
7	0xbf225bc1	-0.63421255
8	0xbedd83bf	-0.43264577
9	0x3ee5a2a7	0.44850656
10	0x3cb46cca	0.02202453
11	0x3fa1877e	1.2619474
12	0x3f753cce	0.95795906
13	0x3f99fc40	1.2030106
14	0x3e0eb294	0.1393531
15	0x3f13c1cf	0.57717603
16	0xbf659737	-0.8968386
17	0xbecfc577	-0.4058034
18	0xbe7a195f	-0.24423741
19	0xbd8c34c8	-0.06846005
20	0x3f7c89db	0.9864785
21	0x3eea8471	0.4580417
22	0x3e7c66fc	0.2464866
23	0x3f013954	0.504781
24	0x3f9c2530	1.2198849
25	0x3f492f67	0.78587955
26	0xbf82c9c3	-1.0217823
27	0x3ce4ec16	0.027944606
28	0xbf160653	-0.586034
29	0xbf310fd5	-0.6916478
30	0xbd91e3b5	-0.0712351
31	0xbf797d0f	-0.9745645
32	0x3b942787	0.0045213136
33	0x3f1d76db	0.61509484
34	0x3f3ce835	0.7379182
35	0xbef06ae0	-0.4695654
36	0xbf83ebbe	-1.0306318
37	0xbf051ffb	-0.52001923
38	0xbfbfbc45	-1.497933
39	0x3f49bed7	0.78806823
40	0x3eaf1db4	0.3420235
41	0x3f0a8075	0.5410226
42	0xbf236aac	-0.63834643
43	0xbeee35bc	-0.4652537
44	0xbfab51dc	-1.3384356
45	0x3f57a277	0.84232277
46	0x3eb0eba6	0.34554785
47	0xbe8ccdf3	-0.27500877
48	0xbf446ee2	-0.76731694
49	0x3e374112	0.17895916
50	0xbe9a5126	-0.30140036
51	0xbf2c80b8	-0.6738391
52	0xbe1dedab	-0.15422694
53	0x3f2c07a1	0.6719914
54	0xbed7d29a	-0.42152864
55	0xbf3fe6c2	-0.74961483
56	0xbdf7526d	-0.12076268
57	0xbf9eb4ff	-1.2398986
58	0x3ea80194	0.32813704
59	0x3e4d231b	0.20032923
60	0xbeb60af8	-0.35555243
61	0xbf76a128	-0.96339655
62	0xbf9e1571	-1.2350293
63	0x3e7ea19e	0.2486634
64	0xbdf56201	-0.119815834
65	0xbec91668	-0.39274907
66	0x3f71e84f	0.944951
67	0xbffcc5c9	-1.9747859
68	0x3f63ccaf	0.889842
69	0x3e88f315	0.26747957
70	0xbe57a51a	-0.21059075
71	0xbf0372ab	-0.51346844
72	0xbf16a5ab	-0.5884654
73	0xbe8ca43f	-0.2746906
74	0xbefaebb7	-0.4900796
75	0xbf0553e9	-0.5208116
76	0xbf3974bf	-0.72443765
77	0xbf8cc2b7	-1.0996922
78	0x3f80d3bb	1.0064615
79	0x3bcf3790	0.0063237622
80	0x3f3275bf	0.69710916
81	0xbe27d51b	-0.16389887
82	0x3f1a5d17	0.60298294
83	0x3f1eb580	0.619957
84	0x3e764801	0.24050905
85	0xbf07ed94	-0.5309689
86	0xbe70df84	-0.23522764
87	0xbf311dce	-0.69186103
88	0x3d186389	0.0372043
89	0x3fa167bc	1.2609782
90	0xbdd8c137	-0.10583728
91	0x3d8daade	0.06917356
92	0x3f0c2f70	0.54759884
93	0x3eb0bb7b	0.34518036
94	0x3e76d9e4	0.24106556
95	0xbeb7bc7a	-0.35885984
96	0x3ed43d06	0.41452807
97	0xbfaa075c	-1.3283496
98	0x3f89e159	1.0771896
99	0x3eb609d8	0.35554385
100	0xbed1f4f8	-0.4100721
101	0x3fca1ba2	1.5789683
102	0x3f8b5919	1.0886565
103	0xbebb025c	-0.36525238
104	0x3de9aaf9	0.114095636
105	0xbf0ed329	-0.55790955
106	0xbd3feb1b	-0.046855073
107	0x3f856bac	1.0423484
108	0x3f3cc6a4	0.737406
109	0xbf934612	-1.1505759
110	0x3eb221df	0.34791467
111	0xbd8f1f0b	-0.06988343
112	0x3ef2d5e9	0.47428825
113	0xbf0d82fe	-0.55278003
114	0xbe08cb27	-0.13358746
115	0xbf08d5af	-0.53451055
116	0xbf49e3bc	-0.7886312
117	0x3f2963a8	0.6616769
118	0x3f27aff3	0.6550285
119	0x3f3992da	0.724897
120	0xbf231817	-0.63708633
121	0x3f27ccc7	0.6554684
122	0xbe79886d	-0.24368449
123	0xbf621609	-0.8831487
124	0x3f642bdf	0.8912944
125	0xbf60b036	-0.87768877
126	0x3cd3e20b	0.025864622
127	0x3ecf6d28	0.40512967
128	0x3e99ee3c	0.3006457
129	0x3fe01a1c	1.7507968
130	0xbdb76da0	-0.08956456
131	0x3fe36b2e	1.7767084
132	0xbf0b217e	-0.5434798
133	0xbf26b95f	-0.65126604
134	0x3f889439	1.0670234
135	0xbf61ccdd	-0.8820322
136	0xbf787556	-0.9705404
137	0x3f2b1112	0.6682292
138	0xbf21b340	-0.6316414
139	0x3f910d03	1.1332096
140	0x3dab98d9	0.08378763
141	0xbf004003	-0.50097674
142	0x3e2ca5b1	0.16860081
143	0xbe15e515	-0.14638169

gnn_base.gnn.embed_layer.lin1.0.bias f4 [16]
0	0xbd95bcd4	-0.07311407
1	0x3e58edb7	0.21184431
2	0x3ead756f	0.33878657
3	0xbefe4e12	-0.49668938
4	0x3ed74784	0.4204675
5	0xbc8097fd	-0.015697474
6	0x3f22b404	0.6355593
7	0xbee2064c	-0.4414543
8	0xbec6f6e6	-0.38860244
9	0xbe64792a	-0.22311845
10	0x3c3a5e2e	0.011374993
11	0xbe960462	-0.2930022
12	0xbe7f12dd	-0.2490954
13	0x3e9e0952	0.30866486
14	0x3e92f642	0.28703505
15	0xbebbcadc	-0.36678207

gnn_base.gnn.embed_layer.lin1.2.weight f4 [16]
0	0x3f96c46a	1.1778691
1	0x3fd5f5ac	1.6715598
2	0x3fd961ae	1.6982934
3	0x3f5d79f7	0.8651423
4	0x3f908154	1.1289468
5	0x3f4f522e	0.8098477
6	0x3fe1883a	1.7619698
7	0x3f54a5e1	0.8306561
8	0x3fc7c62f	1.5607356
9	0x3f9da626	1.231633
10	0x3fce3cbd	1.6112286
11	0x3f94b141	1.1616594
12	0x3f6c420f	0.922883
13	0x3f8a67f8	1.0812979
14	0x3fdf3097	1.7436703
15	0x3f648bfa	0.8927609

gnn_base.gnn.embed_layer.lin1.2.bias f4 [16]
0	0x3e7f7d8f	0.2495024
1	0xbea9a878	-0.33136344
2	0x3ec67ccd	0.3876709
3	0x3c543310	0.012951627
4	0x3ee3713a	0.44422323
5	0xbe8270e1	-0.25476745
6	0x3c81254b	0.015764853
7	0x3ec4dcf0	0.38449812
8	0xbe564474	-0.2092455
9	0x3ead919d	0.33900157
10	0xbf097710	-0.536973
11	0x3ea3dcbb	0.3200434
12	0xbd201231	-0.03907985
13	0x3e641d07	0.22276698
14	0x3eb6c3f0	0.35696363
15	0x3e568b12	0.20951489

gnn_base.gnn.embed_layer.lin_h.0.weight f4 [16, 16]
0	0xbf0be865	-0.5465148
1	0x3ea7ced7	0.32774994
2	0x3cfefa3e	0.031125184
3	0xbe75761b	-0.23970835
4	0xbe15c6fc	-0.14626688
5	0xbd936c73	-0.071984194
6	0xbd0d79bf	-0.034539934
7	0x3bada69d	0.005299403
8	0xbecfc112	-0.40576988
9	0x3ebbaa89	0.36653545
10	0xbeb8e6e7	-0.36113665
11	0xbf0197cc	-0.5062225
12	0x3effb810	0.49945116
13	0xbf14a211	-0.58059794
14	0xbece12e9	-0.40248802
15	0x3e8ac405	0.27102676
16	0xbe21a56f	-0.15785764
17	0x3f53ce17	0.82736343
18	0xbde049d9	-0.10951585
19	0xbc60018f	-0.013672247
20	0xbe1d4819	-0.15359534
21	0x3eec2412	0.4612127
22	0x3ee6c788	0.45074105
23	0x3c1f1614	0.009709854
24	0x3e9b8482	0.30374533
25	0xbf33055f	-0.6993007
26	0x3e1ea1c3	0.15491395
27	0x3dd20e5c	0.10256645
28	0xbe2d41ce	-0.16919634
29	0xbdcce5d2	-0.10004772
30	0xbedae7cf	-0.4275498
31	0x3d21e65e	0.039526336
32	0x3f478ba0	0.77947426
33	0xbc3baec6	-0.011455243
34	0x3e95739a	0.2918976
35	0x3f0dede5	0.55441123
36	0xbdd0b4a5	-0.10190705
37	0xbe28d8e7	-0.16488992
38	0x3eb375ea	0.350509
39	0x3e8f0e3c	0.27940547
40	0xbee0d081	-0.43909076
41	0xbe86f644	-0.2635976
42	0x3e1f8205	0.15576942
43	0xbf13ac04	-0.5768435
44	0x3e4ceea3	0.20012908
45	0xbe2b6aed	-0.16740008
46	0xbe413b4a	-0.18870273
47	0xbe483aa8	-0.19553626
48	0xba9aeed3	-0.0011820443
49	0xbe55718c	-0.20844096
50	0xbac3ba22	-0.0014932791
51	0xbe3a8d7d	-0.18218036
52	0x3ee83fff	0.45361325
53	0x3ddd070c	0.1079236
54	0xbdb1ec28	-0.08687621
55	0xbef5cb3e	-0.48006624
56	0x3f2d6c22	0.6774312
57	0xbe018d8e	-0.12651655
58	0x3d64ef7f	0.055892464
59	0xbf39a6a7	-0.72519916
60	0xbc14da3f	-0.009085237
61	0xbed29dc8	-0.41136003
62	0x3d1dd475	0.038532693
63	0xbf0a9e07	-0.5414738
64	0xbe3374be	-0.17525002
65	0xbe11874f	-0.14211772
66	0x3ed64d84	0.41856015
67	0x3f2713a3	0.6526434
68	0x3e83fe51	0.25779966
69	0x3e3c57b7	0.18392836
70	0xbe9a0c0f	-0.30087325
71	0xbf04582e	-0.5169705
72	0xbe86cd79	-0.26328638
73	0xbdaed94b	-0.08537539
74	0x3de16ed0	0.11007464
75	0x3e6b4971	0.22977234
76	0xbf065768	-0.5247712
77	0xbf0acd2c	-0.5421932
78	0xbe11fc50	-0.14256406
79	0x3ecbf3a4	0.3983432
80	0xbee64c79	-0.4498022
81	0x3d1d4f3f	0.038405653
82	0x3e854500	0.26029205
83	0x3ef0beb0	0.47020483
84	0x3ec1f91d	0.3788537
85	0x3f0a4ea5	0.5402625
86	0xbec58c08	-0.38583398
87	0x3f084a26	0.5323814
88	0x3d6559be	0.055993788
89	0xbe912944	-0.28351796
90	0xbcdd0f35	-0.02698479
91	0xbe170408	-0.14747632
92	0x3f0f99e4	0.56094193
93	0x3e897c29	0.2685254
94	0x3ec41e81	0.38304523
95	0xbc531c82	-0.012885215
96	0x3dd413bc	0.103553265
97	0x3e477824	0.19479424
98	0x3e8a067f	0.2695808
99	0xbdd16a06	-0.102253005
100	0x3e242452	0.1602948
101	0x3ef157ff	0.47137448
102	0x3db3702b	0.08761629
103	0x3e97e0d7	0.29663727
104	0x3c8b3494	0.016992845
105	0x3f56422f	0.8369474
106	0x3f33e363	0.7026884
107	0x3e8cf20e	0.27528423
108	0x3c4e3400	0.01258564
109	0xbe6ae9d7	-0.22940765
110	0xbe4e7872	-0.20163134
111	0xbecd5cc9	-0.40109852
112	0x3d91ad7c	0.07113168
113	0xbe131b94	-0.14365989
114	0x3de399f2	0.11113347
115	0xbdb56a45	-0.0885816
116	0xbf0bb794	-0.54576993
117	0x3de66c14	0.11251083
118	0xbf3fea85	-0.74967223
119	0xbda9c2ee	-0.08289133
120	0xbe1a3828	-0.15060484
121	0xbea919bc	-0.33027446
122	0xbe2db274	-0.16962606
123	0x3eb3490a	0.35016662
124	0x3e448fd3	0.1919549
125	0xbdb31510	-0.08744252
126	0xbef15cde	-0.47141165
127	0xbf397589	-0.7244497
128	0xbeac4c92	-0.3365217
129	0xbd44445a	-0.047916748
130	0xbea06c7e	-0.31332773
131	0x3cb9bb2f	0.022672264
132	0x3c7a1263	0.015263173
133	0xbe1cffd3	-0.15331964
134	0x3ea35fd7	0.31909057
135	0x3ec1a480	0.37820816
136	0xbeb33cec	-0.35007417
137	0xbe5df454	-0.21675235
138	0xbde0dfa9	-0.1098016
139	0x3e8517b1	0.25994638
140	0xbe84a58a	-0.25907546
141	0xbf3491c5	-0.70534927
142	0x3f2144cf	0.6299562
143	0xbf0dbbc0	-0.5536461
144	0xbe70dccb	-0.23521726
145	0xbe8b712b	-0.27234778
146	0xbd78d248	-0.060747415
147	0xbe793802	-0.24337772
148	0x3edd065a	0.43168908
149	0x3eec11ea	0.46107417
150	0x3eb4fcc0	0.35349083
151	0xbe6a440c	-0.2287752
152	0xbf3f1e96	-0.74656045
153	0xbd6aa373	-0.057284784
154	0xbe4c602f	-0.19958566
155	0xbe3ad0ae	-0.18243667
156	0xbe92cb5c	-0.28670776
157	0x3f0cc764	0.54991746
158	0xbe9d2542	-0.30692488
159	0xbeb073e1	-0.3446341
160	0xbeca9841	-0.39569286
161	0x3e418214	0.18897277
162	0x3ea7c865	0.32770076
163	0x3de5c081	0.11218358
164	0xbf0dcbfc	-0.5538938
165	0xbe0740a5	-0.13208254
166	0x3e690e2b	0.22759311
167	0xbf35a280	-0.7095108
168	0xbe4cfc29	-0.20018066
169	0x3bf46cd8	0.0074592642
170	0x3f06c011	0.5263682
171	0xbdefb617	-0.11704653
172	0x3e902f7c	0.28161228
173	0x3e90f6e3	0.2831336
174	0x3f037afa	0.5135952
175	0xbe6e4b3a	-0.23270884
176	0x3c35b773	0.011091101
177	0x3ed16392	0.4089628
178	0xbeab4868	-0.3345368
179	0x3d166a31	0.036722366
180	0xbea76138	-0.3269136
181	0x3e0687a4	0.1313768
182	0xbf203f3c	-0.6259649
183	0x3e6529c2	0.2237921
184	0xbe3f4aec	-0.18680924
185	0x3e2c085c	0.16800064
186	0x3e37e894	0.17959815
187	0xbf25bce4	-0.6474135
188	0xbf3e853f	-0.7442207
189	0x3e3676e7	0.17818795
190	0x3e6bfbc8	0.23045266
191	0xbc094758	-0.008378826
192	0xbe809a5f	-0.25117776
193	0x3db0ef5d	0.08639405
194	0xbf5a5d08	-0.85298204
195	0x3f0dd5e3	0.5540449
196	0x3eb54801	0.35406497
197	0xbef2ba46	-0.4740774
198	0xbe0827e9	-0.13296475
199	0xbdfb86de	-0.12281583
200	0xbd7a5d39	-0.06112406
201	0x3d5a4e0c	0.053297088
202	0x3ee635d7	0.44962952
203	0x3dab405e	0.083618864
204	0x3e848a06	0.25886554
205	0x3e105b26	0.1409727
206	0xbed7580f	-0.4205937
207	0xbe389fff	-0.18029784
208	0xbf151fe3	-0.5825178
209	0xbf301122	-0.6877614
210	0x3e7dd443	0.24788003
211	0xbdfe7444	-0.1242452
212	0xbea05524	-0.31314957
213	0xbe807d0a	-0.25095397
214	0x3e12f65a	0.14351788
215	0x3f01a291	0.5063868
216	0x3e4ac4da	0.19801655
217	0xbe702e59	-0.2345518
218	0x3f04889b	0.51770943
219	0xbe6ddae1	-0.23228027
220	0xbe8bb02c	-0.27282846
221	0x3d0ae477	0.033909287
222	0xbecd9fca	-0.40160972
223	0x3e0f7a37	0.14011465
224	0xbe109ad8	-0.14121568
225	0xbe994535	-0.29935613
226	0xbe8b83e7	-0.2724907
227	0x3f324cae	0.69648254
228	0xbf102e4d	-0.5632065
229	0x3edaca4f	0.42732474
230	0x3ec369ba	0.381666
231	0xbd2a89f5	-0.041635472
232	0x3ec6ea0a	0.38850433
233	0x3eef7c81	0.46774676
234	0xbf036e6b	-0.5134036
235	0xbd973b2a	-0.073843315
236	0xbdb3e37e	-0.08783625
237	0x3d68af7c	0.05680798
238	0xbdcdf34d	-0.100561716
239	0xbe1ee74c	-0.1551792
240	0xbe89bdab	-0.26902518
241	0x3ef809aa	0.48444873
242	0x3f1fc0c6	0.62403524
243	0x3e70c38f	0.235121
244	0x3e81f5db	0.25382885
245	0xbf2a1cd7	-0.66450256
246	0x3d2e1962	0.042504676
247	0x3e1d9347	0.15388213
248	0x3e5e744d	0.21724053
249	0x3e497fed	0.19677706
250	0xbedde499	-0.4333847
251	0x3d1f728f	0.03892761
252	0xbeb3a141	-0.35083964
253	0x3e9c50ce	0.305304
254	0xbe370190	-0.1787169
255	0xbee11573	-0.43961677

gnn_base.gnn.embed_layer.lin_h.0.bias f4 [16]
0	0x00000000	0.0
1	0x00000000	0.0
2	0x00000000	0.0
3	0x00000000	0.0
4	0x00000000	0.0
5	0x00000000	0.0
6	0x00000000	0.0
7	0x00000000	0.0
8	0x00000000	0.0
9	0x00000000	0.0
10	0x00000000	0.0
11	0x00000000	0.0
12	0x00000000	0.0
13	0x00000000	0.0
14	0x00000000	0.0
15	0x00000000	0.0

gnn_base.gnn.embed_layer.lin_h.2.weight f4 [16]
0	0x3f96c46a	1.1778691
1	0x3fd5f5ac	1.6715598
2	0x3fd961ae	1.6982934
3	0x3f5d79f7	0.8651423
4	0x3f908154	1.1289468
5	0x3f4f522e	0.8098477
6	0x3fe1883a	1.7619698
7	0x3f54a5e1	0.8306561
8	0x3fc7c62f	1.5607356
9	0x3f9da626	1.231633
10	0x3fce3cbd	1.6112286
11	0x3f94b141	1.1616594
12	0x3f6c420f	0.922883
13	0x3f8a67f8	1.0812979
14	0x3fdf3097	1.7436703
15	0x3f648bfa	0.8927609

gnn_base.gnn.embed_layer.lin_h.2.bias f4 [16]
0	0x3e7f7d8f	0.2495024
1	0xbea9a878	-0.33136344
2	0x3ec67ccd	0.3876709
3	0x3c543310	0.012951627
4	0x3ee3713a	0.44422323
5	0xbe8270e1	-0.25476745
6	0x3c81254b	0.015764853
7	0x3ec4dcf0	0.38449812
8	0xbe564474	-0.2092455
9	0x3ead919d	0.33900157
10	0xbf097710	-0.536973
11	0x3ea3dcbb	0.3200434
12	0xbd201231	-0.03907985
13	0x3e641d07	0.22276698
14	0x3eb6c3f0	0.35696363
15	0x3e568b12	0.20951489

gnn_base.gnn.embed_layer.lin2.0.0.weight f4 [16, 16]
0	0xbdc88b58	-0.09792203
1	0x3f0c2b88	0.54753923
2	0x3d901438	0.070351064
3	0xbdebd722	-0.11515643
4	0x3ee30b19	0.44344404
5	0x3d5dfc2d	0.05419557
6	0x3f5ea6a0	0.86973
7	0xbf003929	-0.5008722
8	0xbf54676a	-0.829703
9	0x3daa8d96	0.083277866
10	0x3f1427f7	0.5787348
11	0xbfc76a59	-1.557933
12	0x3eb3a327	0.35085413
13	0xbef1b668	-0.47209477
14	0xbf445221	-0.7668782
15	0x3ed27082	0.41101462
16	0xbf411009	-0.7541509
17	0x3f8a1a81	1.0789338
18	0xbf4ffe56	-0.8124746
19	0xbeb99a94	-0.36250746
20	0xbf134e0d	-0.5754097
21	0x3f0de9c3	0.5543482
22	0x3f53c852	0.8272754
23	0x3d9b5288	0.07584101
24	0xbe27cc7b	-0.16386597
25	0xbf0bb117	-0.5456709
26	0x3f3e6a66	0.743811
27	0x3d957daa	0.07299359
28	0x3f0ca303	0.54936236
29	0xbe427a5b	-0.18991987
30	0xbed4b768	-0.41546178
31	0x3c9a987b	0.018871536
32	0xbdceea47	-0.101032786
33	0x3ed8bc34	0.42331088
34	0x3f790e17	0.97287124
35	0x3f398822	0.7247335
36	0x3f327ed7	0.6972479
37	0xbf87913e	-1.0591199
38	0x3f51bd4b	0.81929463
39	0x3f99b137	1.2007207
40	0xbf6bb250	-0.9206896
41	0xbf356810	-0.7086191
42	0x3db6ac06	0.089195296
43	0xbf252e96	-0.6452421
44	0xbdd40e06	-0.10354237
45	0xbf8187df	-1.011959
46	0x3f09785d	0.53699285
47	0xbc777342	-0.015103163
48	0x3f01df29	0.5073114
49	0xbf319c43	-0.6937906
50	0xbf171438	-0.59015226
51	0x3e1ce558	0.15321863
52	0x3edc3e52	0.43016297
53	0x3dc186ea	0.09449561
54	0x3e4ec5cf	0.20192645
55	0x3eaff194	0.34363997
56	0x3f97c1e7	1.1856049
57	0xbf234bfe	-0.6378783
58	0x3f4a67be	0.7906455
59	0xbf72ab26	-0.947924
60	0xbf03fe3d	-0.5155981
61	0xbf562fe1	-0.8366681
62	0x3e03313c	0.1281175
63	0xbf1c1f5f	-0.6098537
64	0xbd037025	-0.03208937
65	0xbf0d9c63	-0.5531675
66	0x3f12c039	0.5732456
67	0x3ef690ee	0.48157448
68	0x3eee77e6	0.4657585
69	0xbf215c86	-0.63031805
70	0xbe01eb80	-0.12687492
71	0xbf7402e0	-0.95316887
72	0xbd3ad9b5	-0.045617778
73	0x3e0c497b	0.13699906
74	0xbe1175aa	-0.14205042
75	0x3f606d8d	0.8766716
76	0x3de6a84b	0.11262568
77	0xbf5c2d36	-0.86006486
78	0xbda14915	-0.078752674
79	0x3f96ddf8	1.178649
80	0xbe3bced1	-0.18340613
81	0xbe98d67e	-0.29851145
82	0x3f49b9a7	0.7879891
83	0x3f40d8b9	0.7533069
84	0x3f0719ac	0.5277355
85	0x3f03ef1d	0.5153673
86	0xbf903f08	-1.1269236
87	0x3f06b3d7	0.52618164
88	0x3f0da7e5	0.5533431
89	0xbf3a878c	-0.7286308
90	0xbf837754	-1.0270791
91	0xbedef053	-0.43542728
92	0x3f2b6468	0.6695008
93	0x3ebf0712	0.37310082
94	0xbf03025f	-0.51175493
95	0xbe671c18	-0.2256931
96	0xbe6f0741	-0.23342611
97	0xbda3e2c1	-0.08002234
98	0xbe804eba	-0.25060064
99	0xbed8ee08	-0.42369103
100	0xbfe266cb	-1.768762
101	0x3f81f39e	1.0152471
102	0xbf979ed3	-1.1845344
103	0x3e512336	0.20423588
104	0xbf1a9f91	-0.6039973
105	0x40034a94	2.051427
106	0x3e9b6c30	0.30355978
107	0x3fa8933d	1.3169934
108	0xbe376b8f	-0.17912124
109	0x3e1c176d	0.15243311
110	0x3d89b011	0.06723035
111	0xbf85f031	-1.0463926
112	0x3f40b674	0.752784
113	0xbf4d47e7	-0.8018784
114	0xbea25dd9	-0.31712225
115	0xbef1b4c6	-0.47208232
116	0xbf095050	-0.5363817
117	0x3f47d090	0.78052616
118	0xbf4920df	-0.7856578
119	0x3eb3e828	0.3513806
120	0xbf052ed8	-0.520246
121	0x3e0bf22c	0.136666
122	0xbeac2137	-0.3361909
123	0x3f036fda	0.51342547
124	0x3d6c1fc9	0.0576475
125	0x3d20fc2a	0.039302982
126	0xbfc5cd29	-1.5453235
127	0xbf58745a	-0.8455254
128	0xbf4e4d8b	-0.8058707
129	0xbeed1d53	-0.46311435
130	0xbf4b8f6c	-0.7951572
131	0xbcfec532	-0.03109989
132	0x3f078831	0.52942187
133	0xbda31ad8	-0.079641044
134	0xbe47ced5	-0.19512494
135	0x3f6ebbfc	0.9325559
136	0xbf988d42	-1.1918108
137	0x3ecdd274	0.40199625
138	0xbddad259	-0.10684652
139	0x3f0d56fa	0.5521084
140	0xbf5c8230	-0.8613615
141	0x3e3a129d	0.18171163
142	0x3ff9cfc6	1.9516532
143	0xbf1f2d10	-0.62178135
144	0xbe9a2ad2	-0.30110794
145	0xbf3c2989	-0.7350088
146	0xbe8450eb	-0.25842986
147	0xbe0b0331	-0.13575436
148	0x3f46fa40	0.777256
149	0x3f2f4753	0.6846821
150	0x3f6726fa	0.9029385
151	0xbe88ef67	-0.2674515
152	0xbfb18cd3	-1.3871101
153	0xbbd37cb2	-0.006454074
154	0xbf55fa1a	-0.8358475
155	0xbe22de61	-0.15905143
156	0xbf43ac25	-0.76434547
157	0x3faac240	1.334053
158	0xbf05cc43	-0.52264804
159	0xbc95e3cf	-0.018297104
160	0xbfc6e7b6	-1.5539463
161	0x3fc2bc64	1.5213742
162	0x3f537e08	0.82614183
163	0xbe181a46	-0.14853773
164	0xbf2fa971	-0.6861792
165	0xbf34f051	-0.70679194
166	0x3eff81c0	0.4990368
167	0xbf2c471f	-0.6729602
168	0xbf88a107	-1.0674142
169	0xbeca265d	-0.39482394
170	0x3facbbc0	1.3494797
171	0xbe384432	-0.17994764
172	0x3f18da32	0.5970794
173	0xbf9c1841	-1.2194902
174	0x3f6b1cb2	0.9184066
175	0xbebde39f	-0.37087724
176	0xbf35e613	-0.7105419
177	0x3f3d8468	0.7403016
178	0xbf08eac2	-0.5348321
179	0xbe08bb6e	-0.13352749
180	0xbf3081d5	-0.6894811
181	0x3f3bfea4	0.73435426
182	0xc005c898	-2.0903683
183	0x3dfa85cc	0.12232551
184	0xbec3b02e	-0.38220352
185	0xbf315d67	-0.69283146
186	0x3f5fcb7f	0.87419885
187	0x3d0b4d43	0.03400923
188	0xbeb83c7f	-0.35983655
189	0x3ed95350	0.42446375
190	0x3ec4c8c0	0.3843441
191	0x3ebe535d	0.37172976
192	0xbf014689	-0.50498253
193	0x3f0997ab	0.5374705
194	0xbf84fef2	-1.0390303
195	0x3f032dfd	0.5124205
196	0x3ecace76	0.39610642
197	0xbf1f4780	-0.62218475
198	0x3dd7b38a	0.10532291
199	0xbea38fcd	-0.3194565
200	0xbdc8c1bf	-0.09802579
201	0xbcf31ac3	-0.029675847
202	0x3f0b1b3f	0.5433845
203	0xbd536d43	-0.051617872
204	0x3f4217ed	0.7581776
205	0xbf01a4c9	-0.5064207
206	0xbf91838a	-1.1368268
207	0x3e1ccfab	0.15313594
208	0xbe9fe1f2	-0.3122707
209	0xbf8bfcbd	-1.0936505
210	0x3d3e715d	0.04649483
211	0x3eb8a2a2	0.3606158
212	0xbec11a21	-0.37715247
213	0xbf9ee9ae	-1.2415063
214	0x3eabb1d7	0.3353412
215	0x3f8e8f50	1.1137486
216	0x3e5f426d	0.21802683
217	0xbe9f014b	-0.31055674
218	0x3f691c0f	0.9105844
219	0xbf13b167	-0.5769257
220	0x3d6d7f21	0.057982568
221	0x3d285dfd	0.04110526
222	0xbedf3135	-0.4359223
223	0x3e03fd9d	0.12889715
224	0x3e0d0155	0.1377004
225	0xbfb1804b	-1.3867277
226	0xbc2aa483	-0.010415199
227	0x3fad9d39	1.3563606
228	0xbf6685d5	-0.9004796
229	0x3ea29998	0.31757808
230	0xbd2a2667	-0.04154053
231	0xbcf222be	-0.029557582
232	0x3f05b2f4	0.52226186
233	0x3eba0ac9	0.36336353
234	0xbe83f826	-0.2577526
235	0x3d7ba321	0.06143487
236	0xbc93f250	-0.01805988
237	0xbdacb2cf	-0.084325425
238	0x3e5a04f5	0.21290953
239	0xbe88f03e	-0.2674579
240	0xbf8fcdb0	-1.1234646
241	0x3ee3dad5	0.44502893
242	0x3fecce9a	1.850055
243	0x3fb0a625	1.3800703
244	0xbeed53a3	-0.46352872
245	0xbf7fa244	-0.9985697
246	0xbe04cecf	-0.12969516
247	0x3e72c140	0.23706532
248	0x3f598bcb	0.8497893
249	0x3e429bc8	0.19004738
250	0xbfb291a0	-1.3950691
251	0xbf5b91ed	-0.8576954
252	0xbf01feea	-0.50779593
253	0x3f46eb82	0.77703106
254	0xbf411eea	-0.75437796
255	0xbf7a7820	-0.97839546

gnn_base.gnn.embed_layer.lin2.0.0.bias f4 [16]
0	0xbece378b	-0.4027675
1	0xbefff707	-0.49993154
2	0x3e9f8aee	0.31160682
3	0xbd970160	-0.07373309
4	0x3e1f7d7b	0.15575211
5	0x3d8dd1d2	0.06924786
6	0xbeb83273	-0.3597599
7	0xbe5ddbd7	-0.21665893
8	0x3e45084e	0.19241449
9	0x3e0a5912	0.1351054
10	0xbdc06f70	-0.09396255
11	0xbeb0d34b	-0.34536204
12	0xbededa27	-0.43525812
13	0xbeab8aa4	-0.33504212
14	0x3df2aabf	0.118489735
15	0xbe31b473	-0.17353992

gnn_base.gnn.embed_layer.lin2.0.2.weight f4 [16]
0	0x3ef51aca	0.47872
1	0x3ec354e1	0.38150695
2	0x3e19189e	0.14950797
3	0x3f02f24c	0.51150966
4	0xbe884a7c	-0.26619327
5	0x3edc489a	0.4302414
6	0x3e5cc9f4	0.21561414
7	0x3e60fb72	0.21970919
8	0x3f19788f	0.5994958
9	0x3edb52ea	0.42836696
10	0x3e195195	0.14972527
11	0x3f08b08d	0.53394395
12	0x3ee1bca2	0.44089228
13	0x3e3207e7	0.17385827
14	0x3dca45a7	0.098765664
15	0x3f166c73	0.5875923

gnn_base.gnn.embed_layer.lin2.0.2.bias f4 [16]
0	0x3c74a26d	0.014931303
1	0xbe783e65	-0.24242552
2	0x3d17ef1e	0.037093274
3	0x3e52fa56	0.20603308
4	0xbccded0a	-0.025137443
5	0xbdde1838	-0.10844463
6	0x3c849fa5	0.016189406
7	0x3e2c5bd8	0.1683191
8	0x3e665a22	0.2249532
9	0x3ea8e163	0.32984456
10	0x3dfebf12	0.124387875
11	0x3e23d69a	0.15999833
12	0x3d8eb2fb	0.069677316
13	0x3dca239b	0.098700725
14	0xbc0642b5	-0.008194615
15	0xbf2b4ed0	-0.66917133

gnn_base.gnn.gnn1.lin_key.weight f4 [48, 16]
0	0xbf3fbc70	-0.7489691
1	0x3e89bd4b	0.26902232
2	0xbf01e49a	-0.50739443
3	0x3e01092d	0.12601157
4	0xbda5241b	-0.08063527
5	0xbf84f054	-1.0385842
6	0x3e83f505	0.25772873
7	0xbe6d08f1	-0.23147942
8	0x3fbe0970	1.484663
9	0x3e4e4e32	0.20147017
10	0x3eec2c8c	0.46127737
11	0x3fb64245	1.4238974
12	0xbf1956f7	-0.5989832
13	0xbf21b7bb	-0.63170975
14	0xbdecd815	-0.11564652
15	0xbf82a75a	-1.0207322
16	0xbe40b40d	-0.18818684
17	0xbe4f1f8c	-0.20226878
18	0xbe9d10ec	-0.30676973
19	0xbd31bf12	-0.04339511
20	0x3f2f3fb0	0.68456554
21	0xbf29f783	-0.663933
22	0x3f2e6d02	0.6813508
23	0x3d8176f1	0.063215144
24	0x3f27bd6d	0.65523416
25	0xbe5a2ae2	-0.21305421
26	0x3dda5f34	0.1066269
27	0x3faa07d1	1.3283635
28	0xbeaee77c	-0.34160984
29	0xbea1ce7f	-0.31602857
30	0x3ea7b285	0.32753387
31	0xbf6dd642	-0.92905056
32	0xbf070c63	-0.52753276
33	0x3d5e8a03	0.054330837
34	0xbe5ccc68	-0.2156235
35	0x3ec9e5ec	0.3943323
36	0xbee62dad	-0.44956723
37	0x3e2fe12e	0.17175743
38	0x3ca51b0e	0.020154502
39	0xbe2bccd0	-0.16777349
40	0x3f9df3c8	1.2340021
41	0xbee03bc1	-0.4379559
42	0x3f643e1b	0.89157265
43	0x3eff6746	0.4988348
44	0x3f194fd6	0.59887445
45	0xbf30d2fe	-0.6907195
46	0x3da52e5b	0.08065482
47	0xbf08d808	-0.5345464
48	0xbf02954c	-0.5100906
49	0xbf195d0b	-0.599076
50	0xbe71f4d1	-0.23628546
51	0xbdc6bfc4	-0.09704545
52	0x3e9fea99	0.3123367
53	0x3f524182	0.82131207
54	0xbe7bcfcf	-0.24590991
55	0xbdd7ea3d	-0.10542724
56	0x3e0e71bd	0.13910575
57	0xbe6443bd	-0.22291465
58	0x3e08d32c	0.13361806
59	0x3e11cc86	0.14238176
60	0x3f90369e	1.1266668
61	0x3e9f1629	0.31071594
62	0x3f4c2183	0.79738635
63	0xbe5d1492	-0.21589878
64	0x3eb704b6	0.35745782
65	0xbf174dd4	-0.5910313
66	0x3f26989d	0.6507662
67	0xbf63bbde	-0.8895854
68	0x3e998010	0.29980516
69	0x3f8f4a3b	1.1194528
70	0xbf8b4abe	-1.0882185
71	0x3e9025d6	0.28153867
72	0xbf0eca67	-0.5577759
73	0x3eb6b071	0.3568149
74	0x3e0fb67f	0.1403446
75	0xbfbb4ba4	-1.4632459
76	0x3f79a2f6	0.97514284
77	0x3e34e1a9	0.17664208
78	0xbd929d3e	-0.07158898
79	0x3f4284e0	0.75984
80	0xbf0bfce1	-0.5468274
81	0xbd4dca0f	-0.050241526
82	0xbde1c48d	-0.11023817
83	0xbeda02c8	-0.42580247
84	0x3f795532	0.9739562
85	0xbef48cb3	-0.47763595
86	0x3f3a5642	0.7278787
87	0x3e2cebd2	0.16886833
88	0x3f6c3d1d	0.9228075
89	0x3e8bdce6	0.2731697
90	0x3d8066b9	0.06269593
91	0x3f8595b2	1.0436308
92	0xbe3ed726	-0.1863676
93	0xbeeebce2	-0.4662848
94	0x3d79aaa1	0.06095374
95	0xbeaa0abb	-0.33211312
96	0xbf1a3cde	-0.60249126
97	0xbf07a91f	-0.52992433
98	0x3cea038d	0.028566146
99	0x3c97f105	0.018547544
100	0x3eae0787	0.33990118
101	0x3d10107b	0.035171967
102	0x3e85709c	0.26062477
103	0xbd3f2a1c	-0.046671018
104	0x3f53c2ef	0.8271932
105	0xbf002f46	-0.50072134
106	0x3e1abb7e	0.15110585
107	0x3f1ceaf9	0.6129604
108	0x3e978e6b	0.29600844
109	0xbebc60d6	-0.3679263
110	0x3e53875d	0.20657106
111	0xbf07c8f9	-0.53041035
112	0x3ee19628	0.44059873
113	0x3d6fd477	0.05855223
114	0x3d83a73b	0.06428381
115	0xbe3a3e9c	-0.18187946
116	0x3eb7642c	0.35818613
117	0x3ed67eca	0.41893607
118	0xbed66308	-0.4187243
119	0x3dbda85d	0.09260628
120	0xbec922e4	-0.39284432
121	0x3f35f9d1	0.71084315
122	0xbc2f3559	-0.010693871
123	0xbf71f597	-0.94515365
124	0xbd217876	-0.03942152
125	0x3eb6fbf1	0.3573909
126	0x3e1ff4b7	0.15620695
127	0x3ee5f047	0.4490988
128	0x3f51964f	0.8186998
129	0xbe8bcab2	-0.27303082
130	0x3b718f5a	0.0036859126
131	0x3f467dd9	0.7753578
132	0x3dbd6d84	0.09249404
133	0x3e9cea49	0.30647495
134	0xbf06b3bd	-0.5261801
135	0xbe9caa67	-0.30598757
136	0xbf9fa423	-1.2471966
137	0xbeffc0f9	-0.49951914
138	0xbe1de334	-0.15418702
139	0xbf8a45d6	-1.0802562
140	0xbe8fe3aa	-0.2810338
141	0x3e5ad04a	0.21368518
142	0xbf1e0d8c	-0.6173942
143	0x3f7dd380	0.9915085
144	0xbed49890	-0.41522646
145	0x3e8aebd5	0.2713305
146	0x3e8cf917	0.2753379
147	0xbef75d11	-0.48313192
148	0x3f31c791	0.6944514
149	0xbdb3a4b1	-0.08771647
150	0x3ee9b6c1	0.45647243
151	0x3f16930e	0.5881814
152	0xbf19d226	-0.60086286
153	0x3f51416f	0.8174047
154	0xbe39f247	-0.18158828
155	0x3eda197a	0.42597562
156	0xbeb4f709	-0.35344723
157	0x3df60d54	0.12014261
158	0xbe884576	-0.26615494
159	0x3d80b569	0.06284601
160	0xbd679922	-0.056542523
161	0x3eaed96d	0.34150258
162	0x3f09d373	0.5383827
163	0xbef52c3a	-0.47885305
164	0x3d50a38f	0.05093723
165	0xbf8465e9	-1.03436
166	0x3f0265bd	0.5093649
167	0x3e412433	0.18861465
168	0x3e809bf6	0.2511899
169	0x3f282ae4	0.65690446
170	0x3f035f4f	0.51317304
171	0x3f168eda	0.58811724
172	0x3eafc243	0.34327897
173	0xbf09848b	-0.5371787
174	0x3ed47c64	0.41501153
175	0xbf457f77	-0.7714762
176	0xbe1addbb	-0.15123646
177	0x3ee3b982	0.4447747
178	0x3eeef8f3	0.46674308
179	0xbecd8dac	-0.4014715
180	0xbf2b8643	-0.6700174
181	0x3e40930e	0.18806097
182	0x3e0942fe	0.13404462
183	0x3e99eb18	0.30062175
184	0x3ecd5cfa	0.40109998
185	0xbd877846	-0.06614737
186	0xbe8de8cd	-0.27716675
187	0x3f443d10	0.76655674
188	0x3f6cdd34	0.9252503
189	0xbeb2abe4	-0.34896767
190	0x3d78317c	0.060594067
191	0xbea525d6	-0.3225543
192	0x3e326b5f	0.17423771
193	0x3e1eac83	0.15495495
194	0x3ea1e471	0.316196
195	0xbee33f05	-0.44384018
196	0xbe09b71b	-0.13448755
197	0xbd284152	-0.04107792
198	0x3e9a0b99	0.30086973
199	0x3e920476	0.28519028
200	0x3f55d0a5	0.8352149
201	0xbe2fda08	-0.17173016
202	0x3ed365fd	0.41288748
203	0x3f0ea23a	0.5571629
204	0x3f5de43f	0.866764
205	0xbf38d899	-0.722055
206	0x3f0a9026	0.54126203
207	0xbf80b45e	-1.0055044
208	0xbe85f5a9	-0.26163986
209	0xbf3dd3b8	-0.7415118
210	0x3e7bd51f	0.24593018
211	0x3cd41dd0	0.025893122
212	0x3e417eff	0.18896101
213	0x3f49619d	0.7866457
214	0xbe73bbad	-0.23802061
215	0xbc977838	-0.018489942
216	0xbd1cf1f4	-0.038316682
217	0xbd0e6420	-0.034763455
218	0xbca65fb4	-0.020309307
219	0xbee465e9	-0.44609
220	0x3f16c69c	0.58896804
221	0x3e5d9157	0.21637474
222	0x3ece8852	0.4033838
223	0x3e0489bc	0.12943166
224	0x3ea0fd4e	0.31443256
225	0xbe19a665	-0.1500488
226	0x3ec62d6c	0.3870653
227	0x3edb37e0	0.42816067
228	0xbf05935f	-0.52177995
229	0x3d2706df	0.040778037
230	0xbeefc710	-0.4683156
231	0xbe9fcd18	-0.31211162
232	0x3ea2a1e6	0.31764144
233	0xbf373c23	-0.71576136
234	0x3f3cc84e	0.7374314
235	0xbdccc82f	-0.099991195
236	0x3f2c90c0	0.6740837
237	0x3b9f0709	0.0048531336
238	0xbc0e4fba	-0.0086860005
239	0xbd22dce4	-0.03976144
240	0x3e68f711	0.22750498
241	0x3d9f6d53	0.07784524
242	0xbd4ce885	-0.050026435
243	0x3f09934d	0.5374039
244	0xbdc37697	-0.095441036
245	0xbea83219	-0.3285072
246	0xbe83df3e	-0.25756258
247	0xbbf9b226	-0.007620114
248	0xbe4741df	-0.19458722
249	0xbe6295dc	-0.2212748
250	0x3e0ed944	0.13950068
251	0xbf444cdf	-0.76679796
252	0x3f155e1b	0.5834672
253	0x3e46afaa	0.19402948
254	0xbd174653	-0.0369323
255	0x3e97381d	0.29535

gnn_base.gnn.gnn1.lin_key.bias f4 [48]
0	0x3d86d68b	0.065838896
1	0x3e66a692	0.22524479
2	0xbe41dcb2	-0.18931845
3	0x3e7f381f	0.24923752
4	0x3df082d9	0.11743707
5	0xbe0c2f89	-0.13690008
6	0x3e5f6996	0.21817622
7	0xbe5448c0	-0.20730877
8	0xbe7d425b	-0.24732344
9	0x3e7651d1	0.24054648
10	0xbe7d0c7c	-0.24711794
11	0xbe6d9d43	-0.23204522
12	0xbe24d372	-0.16096285
13	0xbe4bc85d	-0.19900651
14	0xbe479aa9	-0.19492592
15	0xbde10551	-0.10987342
16	0x3db9535c	0.09049103
17	0x3e019ae1	0.12656738
18	0xbcc57f4f	-0.024108557
19	0x3e6b3696	0.22970042
20	0x3e667da5	0.22508867
21	0x3e265513	0.1624339
22	0xbe05928e	-0.13044187
23	0xbe0b0998	-0.13577878
24	0xbe6382ce	-0.22217867
25	0x3ac8b4b0	0.0015312638
26	0xbc6b2f2a	-0.0143545065
27	0xbdb6cbe9	-0.089256115
28	0x3b260351	0.0025331567
29	0xbe5d26e2	-0.21596864
30	0x3ce78673	0.028262353
31	0xbd2c3c7b	-0.042049866
32	0x3df1ce8a	0.11806972
33	0xbd75270b	-0.059851687
34	0xbe6ece95	-0.23320992
35	0x3e2719f4	0.16318494
36	0x3e6db89b	0.23214953
37	0xbdbcf7f8	-0.09226984
38	0x3db55dd0	0.08855784
39	0x3e7f3f64	0.24926525
40	0xbd9fa393	-0.07794871
41	0xbccad016	-0.024757426
42	0xbe752df9	-0.23943318
43	0x3c933829	0.017971115
44	0x3e5b259c	0.21401066
45	0x3e3480c2	0.17627242
46	0xbe75c6e0	-0.24001646
47	0x3c47df80	0.012199283

gnn_base.gnn.gnn1.lin_query.weight f4 [48, 16]
0	0x3f81ef26	1.0151107
1	0x3f391c53	0.72308844
2	0xbe69e695	-0.22841866
3	0xbebd120d	-0.36927834
4	0xbe9cd28d	-0.30629387
5	0x3f7892e7	0.97099155
6	0xbecfefdf	-0.40612695
7	0x3eb4a7b4	0.35284197
8	0xbf598c8f	-0.849801
9	0xbf2a2341	-0.66460043
10	0xbfb9f5b3	-1.4528106
11	0x3db50afc	0.08839986
12	0x3f41c1cd	0.7568634
13	0xbc7aa094	-0.015297074
14	0xbf191580	-0.5979843
15	0x3ee80de6	0.45323104
16	0x3eac129d	0.3360795
17	0x3f0ece72	0.5578376
18	0xbf14e981	-0.581688
19	0xbdaf230a	-0.08551605
20	0x3ebf1e22	0.37327677
21	0x3ef5171c	0.47869194
22	0xbf17bc2d	-0.5927151
23	0xbd976aee	-0.07393442
24	0xbf2fbb4b	-0.6864516
25	0xbecd985c	-0.40155303
26	0xbf6a15e7	-0.9143967
27	0x3e6b4c79	0.22978391
28	0x3f0df911	0.5545817
29	0xbf09d8c7	-0.538464
30	0xbf040d43	-0.51582736
31	0x3d081851	0.033226315
32	0xbdf51945	-0.119677104
33	0x3e0dcd59	0.13847865
34	0xbe8e8bfb	-0.27841172
35	0x3edf9deb	0.4367517
36	0xbee3d3cd	-0.4449753
37	0xbeaf6cd2	-0.3426271
38	0x3e5fac3a	0.21843043
39	0xbec3738f	-0.38174102
40	0x3e557c3d	0.20848174
41	0xbeacf1dc	-0.33778274
42	0xbf1af716	-0.60533273
43	0x3f2b00b1	0.6679793
44	0x3d3e7ec2	0.046507604
45	0x3ef42db3	0.47691116
46	0xbe0a9d86	-0.13536653
47	0x3de8cdbd	0.113673665
48	0xbe63f51f	-0.22261475
49	0x3f38555c	0.7200525
50	0xbe1e1c80	-0.1544056
51	0x3f29c3b1	0.66314226
52	0x3c0cef87	0.00860203
53	0xbf13e00a	-0.5776373
54	0xbdce6534	-0.10077897
55	0xbedd0057	-0.43164322
56	0xbee103eb	-0.43948302
57	0x3f026206	0.5093082
58	0x3e088058	0.1333021
59	0x3e33d4b3	0.17561607
60	0x3d7ca20b	0.061677974
61	0xbea83534	-0.3285309
62	0x3ec1769b	0.377858
63	0x3e57013b	0.20996563
64	0xbf3772a7	-0.7165932
65	0x3dc81400	0.0976944
66	0x3ec9cad1	0.3941255
67	0x3f17b9de	0.59267986
68	0x3d0e3126	0.03471484
69	0xbf29bd1f	-0.663042
70	0x3f76d19e	0.964136
71	0xbe0a1701	-0.13485338
72	0x3d7527dc	0.059852466
73	0x3f92d1a7	1.1470231
74	0x3ea610ec	0.32434785
75	0xbe47e9ab	-0.19522731
76	0xbe9fd3a9	-0.3121617
77	0xbf325041	-0.6965371
78	0x3eba9465	0.3644134
79	0x3eb783a4	0.3584262
80	0x3f41addf	0.7565593
81	0x3ec1aaf0	0.37825727
82	0xbf0a67ac	-0.5406444
83	0xbed7f228	-0.42176938
84	0x3f14bbfa	0.5809933
85	0x3eee7aa4	0.46577942
86	0x3e299578	0.16560924
87	0x3f31e5fd	0.6949156
88	0xbf9dc138	-1.2324591
89	0xbd6115ad	-0.054952312
90	0xbf3532e5	-0.70780784
91	0xbf13d660	-0.57748985
92	0x3ea57ef7	0.3232343
93	0x3d6e9b0e	0.05825334
94	0xbcf2a2e6	-0.029618692
95	0xbe02bc83	-0.12767224
96	0x3e6f902d	0.23394842
97	0x3eb08b83	0.3448144
98	0xbeadd803	-0.33953866
99	0x3ef90cd0	0.48642588
100	0xbaeb5c90	-0.0017956663
101	0xbe8f1e91	-0.27953008
102	0xbdc8694a	-0.09785707
103	0xbe22fffe	-0.15917966
104	0xbe6bc522	-0.23024419
105	0xbdcfce34	-0.10146752
106	0xbe85b0e2	-0.26111513
107	0x3f44c7f9	0.76867634
108	0x3ec3a718	0.3821342
109	0xbefc3e30	-0.49266195
110	0xbbb3f369	-0.0054916632
111	0x3e1167ca	0.14199749
112	0xbd98be01	-0.07458115
113	0xbe9f5b4d	-0.31124344
114	0x3c22b60c	0.009931099
115	0xbe2a84aa	-0.1665217
116	0x3ca2ce98	0.019873902
117	0x3e99b44d	0.3002037
118	0x3f34bb3d	0.705982
119	0x3f19ede6	0.6012863
120	0xbe9c20ff	-0.30493924
121	0x3f343e4e	0.7040757
122	0x3e76e71d	0.241116
123	0xbe9eb21e	-0.30995268
124	0x3cd8d794	0.026469983
125	0xbdd4cccc	-0.103906244
126	0x3de3082c	0.11085543
127	0x3e234899	0.15945663
128	0xbf100a1c	-0.56265426
129	0xbe0e7ec1	-0.1391554
130	0x3e21f859	0.15817393
131	0xbdb3d1c1	-0.08780242
132	0xbea25f3f	-0.31713292
133	0xbf15c356	-0.58501184
134	0x3f597db7	0.8495745
135	0x3c624b24	0.01381186
136	0x3fe01f9e	1.7509649
137	0x3d8a94ae	0.0676664
138	0x3f69e5d8	0.9136634
139	0x3f101d0c	0.5629432
140	0xbeba0699	-0.3633316
141	0x3e98c234	0.29835665
142	0x3edce41e	0.4314279
143	0xbf230eaa	-0.6369425
144	0x3f0131ba	0.504665
145	0xba2cf030	-0.000659707
146	0xbee8c484	-0.4546243
147	0xbeb90ec8	-0.3614409
148	0x3efcd5e7	0.49381945
149	0x3f857d21	1.0428811
150	0xba444efd	-0.0007488577
151	0x3f107a77	0.56436867
152	0xbf270c5e	-0.65253246
153	0x3eabad8c	0.33530843
154	0x3de9064f	0.113781564
155	0xbf827f8c	-1.0195174
156	0x3e8d1fd9	0.2756336
157	0x3e50c56c	0.2038781
158	0xbeacd264	-0.33754265
159	0x3efb372b	0.49065527
160	0x3d9d2e9f	0.07674908
161	0xbdf846ca	-0.12122877
162	0xbdc88974	-0.09791842
163	0xbec73bcf	-0.38912818
164	0x3daef0e3	0.08542039
165	0x3f3b5444	0.73175454
166	0xbe5c93c2	-0.2154074
167	0x3d95d9d2	0.073169366
168	0xbf93233e	-1.149513
169	0x3c9bc501	0.019014837
170	0xbf7ab9dc	-0.9793985
171	0xbeee2b92	-0.46517617
172	0x3e3e9ef1	0.18615319
173	0xbe7a20be	-0.24426553
174	0xbf19f3d8	-0.601377
175	0x3f5d2549	0.8638502
176	0x3e9b980f	0.3038945
177	0xbe58673f	-0.21133135
178	0x3f1d17fc	0.6136472
179	0x3e3c0d9e	0.1836457
180	0x3eb9e31e	0.3630609
181	0xbe99b606	-0.30021685
182	0xbf839fcf	-1.0283145
183	0xbed34c69	-0.41269234
184	0xbf52e5ab	-0.82381696
185	0x3b833538	0.004004147
186	0x3d3a29d3	0.045450043
187	0xbee46453	-0.4460779
188	0xbdb96056	-0.09051578
189	0x3f0833fb	0.53204316
190	0x3ec69dd9	0.38792303
191	0x3edef65d	0.43547335
192	0xbe1f555d	-0.15559907
193	0xbcf5e910	-0.03001836
194	0xbdc499e8	-0.09599668
195	0x3eb1fcde	0.34763235
196	0x3eb1666a	0.34648448
197	0x3d8a0b0a	0.06740387
198	0xbed9c261	-0.42531112
199	0xbf24ce2f	-0.6437711
200	0xbf7df03a	-0.9919468
201	0xbe170a1b	-0.14749949
202	0xbf48ffea	-0.78515494
203	0x3ed80819	0.42193678
204	0x3ea0a3cd	0.3137497
205	0xbea6ab43	-0.32552537
206	0xbda6a3a9	-0.081366844
207	0x3f1f8ee7	0.62327427
208	0xbebb77ef	-0.3661494
209	0x3ef88ac4	0.4854337
210	0xbe40750b	-0.18794648
211	0x3eb57971	0.35444215
212	0xbeab7246	-0.3348562
213	0xbef85a2b	-0.48506293
214	0x3f14fdb7	0.5819964
215	0xbd97fe30	-0.07421529
216	0xbeb25dbe	-0.34837145
217	0x3ee1a137	0.4406831
218	0x3ec4c219	0.38429335
219	0x3ee52070	0.4475131
220	0x3d68ca43	0.056833517
221	0xbf03ec8c	-0.51532817
222	0x3e5fe769	0.2186562
223	0xbe2bec7d	-0.16789432
224	0xbf05da28	-0.52286005
225	0x3d05dbee	0.032680444
226	0xbc91a43c	-0.017778508
227	0x3f069833	0.5257599
228	0xbf3dfeff	-0.7421722
229	0xbf2c14b7	-0.6721911
230	0x3f070212	0.52737534
231	0xbf9818ff	-1.1882628
232	0x3f3be0c3	0.73389834
233	0xbedd269a	-0.43193513
234	0xbe21d4ec	-0.1580388
235	0x3f54c5af	0.8311414
236	0x3d1e5ecb	0.03866462
237	0xbdf84064	-0.121216565
238	0x3e7a87f2	0.24465922
239	0x3e184909	0.1487161
240	0xbee6af07	-0.4505541
241	0xbec01b35	-0.37520757
242	0x3dd2b09e	0.10287593
243	0x3e161b57	0.14658867
244	0xbf31ba67	-0.6942505
245	0xbb102571	-0.0021994973
246	0x3dbf7b37	0.09349673
247	0xbf3b28f7	-0.7310938
248	0x3f4762f0	0.7788534
249	0x3e5abe11	0.21361567
250	0x3ec27520	0.37979984
251	0x3f3b2dd0	0.7311678
252	0xbeb64de1	-0.35606292
253	0x3db2000e	0.08691417
254	0x3e103fa6	0.1408678
255	0x3eb17f3c	0.34667385

gnn_base.gnn.gnn1.lin_query.bias f4 [48]
0	0xbf5f7c0c	-0.87298656
1	0xbf08525b	-0.53250664
2	0xbf94891f	-1.1604346
3	0xbe2d7620	-0.16939592
4	0x3f40b61e	0.7527789
5	0xbe9de3b8	-0.30837798
6	0xbe91597b	-0.2838858
7	0x3efe9b5c	0.49727905
8	0x3f55499a	0.8331543
9	0x3f32b722	0.6981069
10	0xbeae54d6	-0.340491
11	0xbf5374bc	-0.826
12	0xbf56d3e5	-0.83917075
13	0x3f1894ea	0.59602225
14	0xbf290f13	-0.66038626
15	0x3e79fbbb	0.24412434
16	0xbf4f430f	-0.809617
17	0x3f6c5fb1	0.92333513
18	0x3f9a0c44	1.2034993
19	0xbec8c2b5	-0.3921105
20	0x3c5009bb	0.012697632
21	0xbebb184b	-0.36541972
22	0x3f015b21	0.50529677
23	0xbf1638f7	-0.5868067
24	0xbe8ea585	-0.27860656
25	0xbf998b29	-1.1995593
26	0x3f2313d8	0.63702154
27	0x3f1c608d	0.61084825
28	0x3df89682	0.12138082
29	0xbeacfe32	-0.33787686
30	0xbec8c18d	-0.39210168
31	0xbee84fa7	-0.4537327
32	0xbf9030e2	-1.1264918
33	0x3f8f6a06	1.1204231
34	0x3e8ee8b6	0.2791192
35	0xbf94b32b	-1.1617178
36	0x3e919bf2	0.2843929
37	0x3f2f5cce	0.68500984
38	0xbf9d6f2a	-1.229955
39	0xbea8260b	-0.32841524
40	0x3ef2a6dd	0.47392932
41	0x3faa7b01	1.3318788
42	0x3f8d5899	1.1042663
43	0xbeb83836	-0.35980386
44	0xbf8083ef	-1.0040263
45	0x3f3128dd	0.6920298
46	0x3e9f6d45	0.31138054
47	0xbf61a644	-0.88144326

gnn_base.gnn.gnn1.lin_value.weight f4 [48, 16]
0	0xbe875a4b	-0.26436076
1	0xbecf58e3	-0.40497503
2	0xbfa50245	-1.2891318
3	0xbe448fec	-0.19195527
4	0x3e9536ce	0.29143375
5	0xbddc6546	-0.10761504
6	0x3f727db9	0.9472309
7	0x3edd020e	0.4316563
8	0xbf1a5740	-0.6028938
9	0x3e0832fd	0.133007
10	0xbf103ec4	-0.5634577
11	0x3d9449ed	0.07240663
12	0xbf03723d	-0.5134619
13	0xbedf4b69	-0.4361222
14	0xbeeeb6ed	-0.46623936
15	0x3f0d9614	0.55307126
16	0x3dbca3bd	0.09210918
17	0x3d791146	0.06080749
18	0xbf017b75	-0.50579005
19	0x3ea1f2a0	0.3163042
20	0xbd9099fa	-0.07060619
21	0xbea31ea8	-0.31859326
22	0xbe0e29cb	-0.1388313
23	0xbde748fc	-0.112932175
24	0xbe5fe090	-0.21863008
25	0xbebbc431	-0.3667312
26	0x3f187f47	0.5956921
27	0x3e48cfb0	0.19610476
28	0xbdda774e	-0.10667287
29	0x3f3e42fb	0.74320954
30	0xbd1279eb	-0.0357608
31	0x3eb1220a	0.34596282
32	0x3df2abb1	0.11849154
33	0x3e5391bb	0.2066106
34	0x3e5d5cb1	0.2161739
35	0x3e0503dd	0.12989755
36	0x3f15dd88	0.58541155
37	0x3ed7b967	0.42133638
38	0xbf823db5	-1.0175081
39	0xbe8399b9	-0.2570322
40	0x3d99a342	0.07501842
41	0xbd2f2050	-0.042755425
42	0x3e1fe68c	0.1561529
43	0x3f0e735e	0.55644786
44	0x3f0560e7	0.52100986
45	0x3e4120e6	0.18860206
46	0x3ecd24f4	0.40067255
47	0xbecbd847	-0.39813444
48	0x3fa4d2f8	1.2876883
49	0xbda4850e	-0.08033191
50	0x3e99b7f1	0.3002315
51	0xbe490d2d	-0.19633932
52	0xbe69f3a5	-0.2284685
53	0xbea3f872	-0.32025486
54	0x3e72ae7f	0.23699377
55	0xbdcc1145	-0.099642314
56	0xbef4b990	-0.47797823
57	0x3e593920	0.21213198
58	0xbf03d1f9	-0.5149227
59	0xbf5b5abc	-0.85685325
60	0xbdb9c9d3	-0.09071698
61	0xbe76109f	-0.24029778
62	0xbf15c234	-0.58499455
63	0xbd53b94c	-0.051690385
64	0x3dc46258	0.0958907
65	0x3eed0ea5	0.46300235
66	0x3da8d2ef	0.082433574
67	0xbdf2de36	-0.118587896
68	0xbeeb69e2	-0.4597922
69	0xbe0aa325	-0.13538797
70	0xbf297a12	-0.6620189
71	0xbe8ca68e	-0.2747082
72	0x3e8bbd0e	0.27292675
73	0xbf9ff35e	-1.2496145
74	0xbd2a56d3	-0.04158671
75	0x3f6094d8	0.8772712
76	0x3f02bd97	0.5107054
77	0x3e88ca81	0.26716998
78	0xbee815e3	-0.45329198
79	0xbd8b36a0	-0.06797528
80	0x3f5fed37	0.87471336
81	0x3f993bb4	1.1971345
82	0xbf22ad26	-0.63545454
83	0x3f6923a0	0.91069984
84	0xbde1307e	-0.10995577
85	0xbce18f47	-0.02753414
86	0xbed7e77a	-0.4216879
87	0xbec5cf12	-0.38634545
88	0xbf3aa634	-0.72909856
89	0xbc16c1fa	-0.009201521
90	0xbd26eac4	-0.040751234
91	0xbee1ce33	-0.4410263
92	0x3f683990	0.90712833
93	0x3eb34027	0.35009882
94	0xbef12aca	-0.47102958
95	0xbee5ddc0	-0.44895744
96	0xbddd2ba3	-0.10799339
97	0x3e1263fe	0.14295956
98	0xbe83abee	-0.2571711
99	0xbe73a502	-0.23793414
100	0x3ee91a0a	0.4552768
101	0x3f11d15d	0.5696009
102	0x3ed42a5a	0.41438562
103	0x3f1271ce	0.572049
104	0x3ee91215	0.45521608
105	0xbeba66cd	-0.36406556
106	0xbf45d1db	-0.7727334
107	0xbdfe6cc9	-0.12423093
108	0xbe5a0e48	-0.2129451
109	0x3c8e29d2	0.017353926
110	0x3c2425f6	0.010018816
111	0x3eadd5c3	0.3395215
112	0x3da879a0	0.08226323
113	0xbec7aff5	-0.39001432
114	0xbeaeb166	-0.3411972
115	0x3f62e1cf	0.88625807
116	0xbef12625	-0.47099414
117	0x3e891ed3	0.2678133
118	0x3e85c588	0.26127267
119	0x3ea4cb7a	0.3218649
120	0xbd9551f8	-0.07291025
121	0x3e854eb5	0.2603661
122	0xbe89f840	-0.26947212
123	0x3f47fd36	0.78120744
124	0xbf025514	-0.5091107
125	0x3f786d89	0.9704214
126	0xbd5f2a68	-0.0544838
127	0xbedae524	-0.42752945
128	0x3e381ec6	0.17980489
129	0xbed1fd65	-0.41013637
130	0xbe9acbe2	-0.30233675
131	0xbf076665	-0.52890617
132	0x3f1c3b8d	0.6102837
133	0xbf41e07f	-0.7573318
134	0xbd64f2e0	-0.055895686
135	0xbf336b02	-0.70085156
136	0x3edad6e6	0.4274208
137	0xbe3cfb2c	-0.1845519
138	0xbda41704	-0.080122024
139	0x3f575daa	0.84127295
140	0xbe1d55d3	-0.1536477
141	0x3bbfc511	0.0058523496
142	0x3e6b784c	0.22995108
143	0xbecf28b9	-0.40460756
144	0xbdc53f83	-0.096312545
145	0xbedcbb7a	-0.43111783
146	0x3d2d0f46	0.042250894
147	0x3ddc0774	0.10743609
148	0x3f20b0ec	0.6276996
149	0x3de4e512	0.11176504
150	0x3ecca9d7	0.39973328
151	0xbe39330e	-0.18085882
152	0x3ec2f06b	0.3807405
153	0x3da4bcf1	0.0804385
154	0x3e0b5f56	0.13610587
155	0x3ecc2c8e	0.39877743
156	0xbe52b3c4	-0.20576388
157	0x3cafe469	0.02147122
158	0xbe95d799	-0.2926605
159	0xbee45b93	-0.44601116
160	0x3f22fb1e	0.63664424
161	0x3e8f2034	0.27954257
162	0xbbd91b56	-0.006625573
163	0x3d4b8c19	0.049694154
164	0x3f1d9357	0.6155295
165	0xbdd2a5aa	-0.10285504
166	0xbdb7aaf8	-0.089681566
167	0x3c189ab2	0.009314226
168	0xbeafa783	-0.3430749
169	0x3e63503c	0.22198576
170	0xbf09d5f1	-0.53842074
171	0x3eedc66c	0.46440446
172	0x3e9be1f8	0.30445838
173	0xbd893757	-0.06700008
174	0x3c96bea2	0.018401448
175	0xbf811ba3	-1.0086559
176	0xbe3dc7ba	-0.18533221
177	0xbeb7ad98	-0.3587463
178	0xbdfec8c3	-0.12440636
179	0x3e3275bf	0.17427729
180	0x3e8b89d2	0.27253586
181	0xbf3b7d25	-0.7323783
182	0x3e152898	0.14566267
183	0xbf0ada67	-0.54239506
184	0x3f077f05	0.5292819
185	0x3f1c65a2	0.6109258
186	0x3ebc1cb8	0.3674066
187	0xbee796db	-0.4523228
188	0x3e96c231	0.2944503
189	0x3e9f5fa7	0.31127664
190	0xbd0f4ccd	-0.034985352
191	0xbe959d1e	-0.29221433
192	0xbe7dbc1e	-0.24778792
193	0xbe9b4845	-0.30328575
194	0x3f8e26c4	1.110558
195	0x3e715d50	0.23570752
196	0xbd1e0f6e	-0.038588934
197	0x3ee85881	0.45380023
198	0xbf09f5e5	-0.5389083
199	0xbedaa465	-0.42703548
200	0x3ccce063	0.02500934
201	0xbf17477c	-0.5909345
202	0x3e56a0a8	0.20959723
203	0x3ddd44c0	0.10804129
204	0xbc984d9b	-0.018591693
205	0xbe1d1de0	-0.15343428
206	0x3e5c1a90	0.21494508
207	0x3df7878e	0.12086402
208	0x3dea6c52	0.11446442
209	0x3e83f28d	0.2577099
210	0x3d13cf98	0.03608665
211	0xbf5dcab3	-0.8663742
212	0xbe918567	-0.2842209
213	0x3f8e4a29	1.1116382
214	0xbf0aa185	-0.5415271
215	0x3dfe2c80	0.124108315
216	0xbf67b771	-0.90514284
217	0xbe8f3223	-0.2796794
218	0x3e5f383b	0.21798794
219	0xbd96a694	-0.07355991
220	0xbc40ecb1	-0.011775182
221	0xbe6e812a	-0.2329146
222	0xbf3ccdb3	-0.7375137
223	0x3f74f126	0.95680463
224	0xbdb5d777	-0.08878987
225	0x3b7be217	0.003843432
226	0xbedad6d2	-0.4274202
227	0x3f1a3322	0.6023427
228	0xbe3f9d63	-0.18712382
229	0xbf2aee92	-0.6677028
230	0x3ef59941	0.47968486
231	0x3eddd478	0.43326163
232	0x3eed854c	0.4639076
233	0xbee2710c	-0.44226873
234	0xbd57f897	-0.052727308
235	0x3f638eb4	0.8888962
236	0xbdbc591f	-0.09196686
237	0xbe77a6e2	-0.24184754
238	0xbeee1994	-0.4650389
239	0xbf9a0458	-1.2032576
240	0xbb846f3e	-0.0040415814
241	0x3e23e25a	0.16004315
242	0xbeea535d	-0.45766726
243	0x3e336cd2	0.1752198
244	0x3efd0e9a	0.49425203
245	0xbf5938c2	-0.8485223
246	0xbe41aa7d	-0.18912692
247	0xbf110815	-0.5665296
248	0xbeb87047	-0.3602316
249	0x3e5231af	0.20526765
250	0xbea53f52	-0.32274872
251	0x3f00e0ed	0.5034321
252	0x3bd2cca1	0.006433085
253	0x3f113545	0.5672191
254	0xbdae3a10	-0.08507168
255	0xbefda3b1	-0.4953895

gnn_base.gnn.gnn1.lin_value.bias f4 [48]
0	0xbee681e1	-0.45020965
1	0xbddc0dc6	-0.107448146
2	0xbedaa1cd	-0.4270157
3	0xbf5fe9de	-0.8746623
4	0xbf5d8b68	-0.8654084
5	0xbf5c794d	-0.8612259
6	0xbebdcaf2	-0.37068897
7	0xbe2c8c52	-0.16850403
8	0xbe82b70a	-0.25530273
9	0xbe4de9e7	-0.20108758
10	0xbed29d61	-0.41135696
11	0x3c0c6cb5	0.00857084
12	0xbec7fe71	-0.3906131
13	0xbeb9e60a	-0.36308318
14	0xbf748c5e	-0.95526683
15	0x3e8d3d55	0.27585855
16	0xbe2f254b	-0.1710407
17	0xbe96e430	-0.29470968
18	0xbe819257	-0.2530696
19	0xbf75e74b	-0.9605605
20	0xbf0a57ee	-0.5404042
21	0xbf57c9ad	-0.8429211
22	0xbf5434ec	-0.8289325
23	0x3dfca932	0.12336959
24	0xbe8fde80	-0.28099442
25	0xbeccee79	-0.4002569
26	0xbf1f39e4	-0.6219771
27	0x3ead3add	0.33833972
28	0xbebf4b84	-0.373623
29	0xbf0ee03e	-0.55810916
30	0xbf0e91d7	-0.55691284
31	0xbdd22b90	-0.10262215
32	0xbe848429	-0.2588208
33	0xbda64c34	-0.08120003
34	0xbed5e2ef	-0.417747
35	0xbf2d7fda	-0.6777321
36	0xbf0d9e3d	-0.5531958
37	0xbefbbf2f	-0.491693
38	0xbec8b7b8	-0.39202666
39	0xbd3807d9	-0.04492936
40	0xbdde1454	-0.10843721
41	0xbe51d2a6	-0.20490512
42	0xbebc0b7f	-0.3672752
43	0x3df0fbe2	0.11766793
44	0xbc9f4142	-0.019440297
45	0xbf18949a	-0.5960175
46	0xbf2295a6	-0.63509595
47	0xbe330f9f	-0.17486428

gnn_base.gnn.gnn1.lin_edge.weight f4 [48, 1]
0	0x3f85fe1d	1.0468174
1	0xbeec70cd	-0.4617981
2	0xbe6b9a72	-0.23008135
3	0xbe2995c1	-0.16561033
4	0xbf444cac	-0.7667949
5	0xbe703be8	-0.23460352
6	0xbf0e5b89	-0.5560842
7	0x3bcbf85f	0.0062246765
8	0x3f31a148	0.6938672
9	0xbfb1da66	-1.3894775
10	0xbf1ecf69	-0.6203523
11	0xbf9b6c05	-1.214234
12	0xbf460e7e	-0.77365863
13	0x3f6e10d1	0.9299441
14	0xbe3a6e35	-0.18206103
15	0xbfcb2cb6	-1.587302
16	0xbe8961d6	-0.26832455
17	0x3f8bfe2d	1.0936943
18	0x3f1e61ae	0.618678
19	0xc0288739	-2.6332533
20	0xbf25ec73	-0.6481392
21	0xbd38fce3	-0.045163047
22	0xbea6689a	-0.3250168
23	0xbd6a302e	-0.057174854
24	0x3f0998ca	0.5374876
25	0xc0175654	-2.364644
26	0xbec0b358	-0.37636828
27	0xbf1f4e08	-0.6222844
28	0xbf8028e9	-1.0012485
29	0x3eec82a0	0.4619341
30	0x3ee73f18	0.45165324
31	0xbf9a9d9c	-1.2079349
32	0x3f4c5535	0.79817516
33	0xbf787d3e	-0.97066104
34	0xbfbf0843	-1.4924396
35	0xbf92e030	-1.1474667
36	0xbe485cc6	-0.1956664
37	0xbf69c0d6	-0.9130987
38	0xbeb7ab37	-0.35872814
39	0xbf064e6e	-0.52463424
40	0xbf524b60	-0.82146263
41	0x3f243be5	0.6415389
42	0x3f9b7bb5	1.2147127
43	0xbf06a4f0	-0.52595425
44	0xbf7c1ea4	-0.98484254
45	0xbe28801e	-0.16455123
46	0xbf5a5115	-0.8527997
47	0xbf2cf88a	-0.6756674
