ResultsForTesting/critic.pt (torch, 197239 bytes, 61 tensors)

gnn_base.gnn.embed_layer.entity_embed.weight f4 [3, 2]
0	0xbf21e99c	-0.63247085
1	0xbf5c7bae	-0.8612622
2	0xc037d9c7	-2.872667
3	0x3f0025ba	0.50057566
4	0x3fb9b048	1.4506922
5	0x3f46ddae	0.77682006

gnn_base.gnn.embed_layer.lin1.0.weight f4 [16, 9]
0	0x3d297fc0	0.041381598
1	0x3e9370e0	0.28797054
2	0xbe87b5b5	-0.2650582
3	0x3fca9be8	1.5828829
4	0x3e945ed6	0.28978604
5	0xbfca549d	-1.5807072
6	0x3efed668	0.49772954
7	0xbce7c378	-0.028291449
8	0x3efb41ef	0.4907374
9	0xbfa750da	-1.3071549
10	0x3d14c701	0.036322597
11	0xbe08bef2	-0.1335409
12	0x3eccf48f	0.40030333
13	0x3e0e94da	0.1392397
14	0x3c93ffe3	0.018066352
15	0x3ed1221c	0.40846336
16	0x3f57a3e2	0.8423444
17	0xbfae83fd	-1.363403
18	0xbf7a7821	-0.9783955
19	0x3ef9de94	0.48802626
20	0xbf22eabd	-0.6363943
21	0xbeadb914	-0.33930266
22	0x3c236510	0.009972826
23	0x3eae1876	0.34003037
24	0xbf001351	-0.50029474
25	0xbd3e3573	-0.046437692
26	0x3f3801a3	0.718775
27	0xbf551814	-0.83239865
28	0xbebd7a06	-0.3700716
29	0x3eb4894f	0.35261008
30	0x3ecf0435	0.40432897
31	0x3d0661f2	0.03280825
32	0xbe194aab	-0.1496989
33	0x3f9df7a9	1.2341205
34	0x3f30bf48	0.6904187
35	0xbab47512	-0.00137678
36	0xbe58a443	-0.21156411
37	0x3e538e5d	0.20659776
38	0xbf305454	-0.68878675
39	0xbebfaab5	-0.37434927
40	0x3f32ddca	0.69869673
41	0x3f0c2361	0.54741484
42	0x3ea3acda	0.31967813
43	0xbf825c1d	-1.0184361
44	0x3fc6300b	1.5483412
45	0x3f7f43c1	0.9971276
46	0x3f275331	0.65361315
47	0x3ea272de	0.31728262
48	0x3e1f7788	0.15572941
49	0xbe7407bf	-0.2383108
50	0x3dbf1834	0.09330788
51	0x3f4b214f	0.793477
52	0x3f6eef7a	0.9333416
53	0x3deb8792	0.11500467
54	0xbf7593dc	-0.9592874
55	0x3f0364a7	0.5132546
56	0xbe84a549	-0.25907353
57	0x3b760fcb	0.0037546034
58	0x3d86ef13	0.065885685
59	0xbce22b95	-0.027608672
60	0x3f41fa7c	0.75772834
61	0x3fcd82b2	1.605551
62	0x3dc1ee26	0.09469251
63	0xbe0c992e	-0.13730308
64	0xbd972949	-0.073809214
65	0x3ef790ce	0.48352665
66	0x3f59e5b8	0.8511615
67	0xbede0774	-0.4336506
68	0xbf79dfb6	-0.9760698
69	0xbeb33263	-0.3499938
70	0xbf5bbfb9	-0.8583942
71	0xbf2a7d71	-0.6659766
72	0x3a87eab1	0.0010369626
73	0xbfbb6b1e	-1.4642065
74	0xbef6e218	-0.4821937
75	0x3ed53a94	0.41646254
76	0x3e808c1e	0.251069
77	0xbdfebed9	-0.12438745
78	0x3dbdc4b2	0.09266032
79	0x3f8763ec	1.0577369
80	0x3f0611fc	0.5237119
81	0xbd915524	-0.070963174
82	0xbea1cea4	-0.31602967
83	0xbf86c5e2	-1.0529139
84	0xbf0df10d	-0.5544594
85	0x3f882277	1.0635518
86	0x3f0373c9	0.5134855
87	0xbf6f5fb5	-0.9350541
88	0xbe7904ad	-0.2431819
89	0xbe849ecd	-0.25902405
90	0x3f07ff1b	0.53123635
91	0x3e4ff9db	0.20310156
92	0x3f8fed06	1.1244209
93	0x3e642577	0.22279917
94	0xbf9c6a21	-1.2219888
95	0xbcefd7a1	-0.029277625
96	0xbf14a541	-0.5806466
97	0xbf6aa3e0	-0.91656303
98	0xbed07294	-0.40712416
99	0x3d0e4f4b	0.03474359
100	0xbf072fc7	-0.5280728
101	0x3ec4749c	0.38370216
102	0xbfe31ba4	-1.774281
103	0xbebf0a0c	-0.37312353
104	0x3fde4eae	1.7367761
105	0x3ef1f352	0.4725595
106	0xbe87ef9b	-0.26549992
107	0x3e14c120	0.14526796
108	0xbe86eb76	-0.26351517
109	0x3d8a20c8	0.06744534
110	0xbfe4829e	-1.7852361
111	0x3ef4d171	0.4781604
112	0x3fe274f2	1.7691939
113	0xbed7f672	-0.4218021
114	0xbe1eb841	-0.15499975
115	0xbf229448	-0.6350751
116	0xbefbbf3c	-0.49169338
117	0x3db9ea5b	0.09077903
118	0xbe2809a7	-0.16409932
119	0x3f06dd56	0.5268148
120	0x3dfb107a	0.12259002
121	0xbef6bd1a	-0.48191148
122	0xbdf968f4	-0.12178221
123	0xbed795a3	-0.4210635
124	0xbef0db87	-0.47042486
125	0x3ff70ab2	1.9300139
126	0x3f87b935	1.0603396
127	0xbf0f2fec	-0.559325
128	0x3eee58e9	0.46552208
129	0xbeecae16	-0.46226567
130	0xbe9acc43	-0.30233964
131	0x3ece99b2	0.40351635
132	0x3f757f4b	0.9589736
133	0x3f90089e	1.125263
134	0x3d787df8	0.06066701
135	0xbeed91a5	-0.4640018
136	0x3e9e4bd6	0.30917233
137	0x3e1a0428	0.15040648
138	0x3dfbe21b	0.122989856
139	0xbda2e2a7	-0.07953387
140	0x3c9e385d	0.019313985
141	0xbfa146e9	-1.2599765
142	0x3f0c0321	0.54692274
143	0x3dc23aa6	0.094838426

gnn_base.gnn.embed_layer.lin1.0.bias f4 [16]
0	0x3e8f0eb4	0.27940905
1	0xbede4d5e	-0.434184
2	0xbe8012c8	-0.2501433
3	0xbe86a1be	-0.26295274
4	0x3ea846a7	0.32866403
5	0xbeda5429	-0.42642334
6	0xbea3888a	-0.3194011
7	0x3f063511	0.5242472
8	0xbc8a4abf	-0.016881345
9	0x3edeb94d	0.43500748
10	0x3ecfc7e1	0.40582183
11	0x3e934f5e	0.2877149
12	0x3c870369	0.016481118
13	0xbeb988e4	-0.36237252
14	0x3cfd77df	0.030940948
15	0xbd389256	-0.04506143

gnn_base.gnn.embed_layer.lin1.2.weight f4 [16]
0	0x3fd5588a	1.6667645
1	0x3f2880e4	0.6582167
2	0x3e17adba	0.14812365
3	0x3f865f7a	1.0497887
4	0x3fe66c89	1.8001872
5	0x3f590442	0.8477212
6	0x3fa882a1	1.3164865
7	0x3f9f10e7	1.2427033
8	0x3f233233	0.6374847
9	0x3fc4160f	1.5319232
10	0x3fbf349c	1.493793
11	0x3fc49b08	1.5359812
12	0x3fc7de2f	1.561468
13	0x3fc2abbf	1.5208663
14	0x3f9bf599	1.2184325
15	0x3f7cf666	0.98813474

gnn_base.gnn.embed_layer.lin1.2.bias f4 [16]
0	0x3e4aa512	0.19789532
1	0x3efadb76	0.4899556
2	0x3d20d701	0.039267544
3	0x3d8641f5	0.06555549
4	0xbe85eb5c	-0.26156127
5	0x3e72799e	0.23679206
6	0x3ed40aca	0.4141448
7	0x3d5cc158	0.053895324
8	0x3e93b0d5	0.2884585
9	0xbe1492a8	-0.1450907
10	0xbe9cf414	-0.30654967
11	0x3e9212e2	0.2853003
12	0x3ed273b3	0.41103896
13	0xbe9a07ce	-0.3008408
14	0x3ef72dd7	0.4827716
15	0x3e0a6518	0.13515127

gnn_base.gnn.embed_layer.lin_h.0.weight f4 [16, 16]
0	0xbcb3e528	-0.021959856
1	0x3ced34ab	0.028955778
2	0x3e1d7d62	0.15379861
3	0x3e66201d	0.22473188
4	0xbf21a587	-0.631432
5	0xbe024558	-0.12721765
6	0xbeff2372	-0.4983173
7	0xbef2109e	-0.47278303
8	0xbec6c4c6	-0.38822
9	0xbda37ea7	-0.079831414
10	0xbd91a2c5	-0.07111124
11	0x3e64c4ee	0.22340748
12	0x3f5556bf	0.8333549
13	0xbda7bc7f	-0.0819025
14	0xbe97bfee	-0.29638618
15	0xbe442a25	-0.19156702
16	0xbee6dc8e	-0.45090145
17	0xbe00361d	-0.12520643
18	0x3eaf1464	0.34195244
19	0x3e7834f5	0.24238952
20	0x3ed2874c	0.41118848
21	0x3ec99b8d	0.39376488
22	0x3d115c50	0.035488427
23	0x3e0e04f0	0.13869071
24	0xbf0b2a34	-0.5436127
25	0xbe2e8f20	-0.17046785
26	0xbe8e19d4	-0.2775408
27	0xbf5a0252	-0.8515979
28	0x3e88f99c	0.26752937
29	0xbb963871	-0.004584365
30	0x3e05591f	0.13022278
31	0xbe5a061f	-0.21291398
32	0x3f0acdeb	0.54220456
33	0xbe257893	-0.16159277
34	0x3e770a0d	0.24124928
35	0x3ccefc09	0.025266664
36	0xbec49b53	-0.38399753
37	0xbf280b31	-0.65642077
38	0x3e85d0a1	0.26135734
39	0xbc57a2af	-0.013161345
40	0x3b788f3d	0.0037927174
41	0xbf2291c3	-0.63503665
42	0xbe4878cb	-0.19577329
43	0xbeac05e6	-0.3359825
44	0xbd9ccf19	-0.07656688
45	0x3d962b7d	0.073325135
46	0x3f1cc3f1	0.6123648
47	0xbe3b749c	-0.18306202
48	0x3e2a654f	0.16640209
49	0xbf0eb247	-0.5574078
50	0xbef228ca	-0.47296745
51	0xbdcce7b9	-0.10005135
52	0x3e04ab8a	0.12956062
53	0x3eaf083f	0.3418598
54	0x3e3869f3	0.18009166
55	0x3ce2eab7	0.027699811
56	0xbe66231a	-0.22474328
57	0xbee5020d	-0.44728127
58	0xbf249de2	-0.6430341
59	0x3ecae0bd	0.39624587
60	0x3e5f91e0	0.2183299
61	0x3ee3b252	0.44471985
62	0xbda2a55e	-0.079416975
63	0x3ede209d	0.43384257
64	0x3d99a11b	0.075014316
65	0xbcf92b87	-0.030416263
66	0x3e2dde78	0.16979396
67	0x3c91f90b	0.017818948
68	0xbf547937	-0.8299746
69	0x3f107bcd	0.56438905
70	0x3e2f8295	0.17139657
71	0xbe80fce1	-0.2519293
72	0xbdad942a	-0.08475526
73	0x3eb8e7f3	0.36114463
74	0xbeab947d	-0.33511725
75	0xbe74d51c	-0.2390942
76	0xbf2356b5	-0.6380418
77	0x3ea93a98	0.33052516
78	0xbe206c3a	-0.15666285
79	0xbe01ea00	-0.1268692
80	0xbd87cca1	-0.06630827
81	0x3ecdb4cd	0.40177003
82	0x3e774e05	0.24150856
83	0x3d1a89f9	0.037729237
84	0x3e97f072	0.29675633
85	0xbeb0754d	-0.34464493
86	0x3c53728f	0.012905731
87	0x3ce3f6e9	0.027827697
88	0x3f0f11e5	0.5588668
89	0x3e84d492	0.25943428
90	0xbf328157	-0.69728607
91	0x3cb7ffa7	0.022460772
92	0x3e7d93ac	0.24763364
93	0x3f2cc3b5	0.67486125
94	0xbe659c22	-0.22422841
95	0xbebae77d	-0.36504737
96	0xbef3c476	-0.47610825
97	0xbf6a9304	-0.9163058
98	0x3e5c4d99	0.21513976
99	0x3e417c7a	0.1889514
100	0x3d8b0fc0	0.067901134
101	0xbea486be	-0.3213405
102	0x3b81d999	0.0039627072
103	0x3d641061	0.055679683
104	0xbc579d97	-0.013160131
105	0x3aed03df	0.0018082819
106	0x3db2a195	0.087222256
107	0x3ed4f763	0.4159499
108	0xbeb60622	-0.35551554
109	0x3ce111df	0.027474342
110	0xbe45803c	-0.19287199
111	0xbf21034b	-0.6289565
112	0xbdf348d2	-0.11879124
113	0x3e48dc4f	0.19615291
114	0xbecf4350	-0.40481043
115	0xbc8e8143	-0.017395621
116	0x3dab3b4d	0.0836092
117	0xbf166a29	-0.5875574
118	0xbf2c3a0c	-0.6727607
119	0x3c099378	0.008396976
120	0xbf0da328	-0.5532708
121	0xbdbd9692	-0.09257235
122	0xbd847506	-0.06467633
123	0xbe8df1fc	-0.27723682
124	0xbf123379	-0.5710979
125	0x3eb7138e	0.35757107
126	0xbe9401b9	-0.28907564
127	0x3e595881	0.21225168
128	0x3e427902	0.18991473
129	0x3ef1fa0d	0.47261086
130	0xbd2dd02d	-0.04243486
131	0xbec25891	-0.37958196
132	0xbdc28ac6	-0.09499125
133	0x3e3a0dcd	0.18169327
134	0x3e86dffd	0.26342764
135	0x3f2364a5	0.63825446
136	0xbed0357b	-0.40665802
137	0xbee125e0	-0.4397421
138	0x3de15b2f	0.1100372
139	0x3e831196	0.25599355
140	0xbcf340ce	-0.029693987
141	0xbc00852a	-0.007844249
142	0xbee78456	-0.45218152
143	0xbf28aae2	-0.65885746
144	0xbf01a30e	-0.50639427
145	0x3dc8e47d	0.09809206
146	0x3e888fa7	0.26672098
147	0xbd583e6d	-0.05279391
148	0xbedf414d	-0.43604508
149	0xbe703b3a	-0.23460093
150	0xbd5d2a3d	-0.05399536
151	0x3f3c84e3	0.7364027
152	0xbc5aa3be	-0.013344703
153	0x3dda359d	0.10654757
154	0xbf1464ae	-0.57966125
155	0x3e5b74cb	0.21431272
156	0xbcf7ae87	-0.030234588
157	0xbef8b401	-0.48574832
158	0x3dfdf8ef	0.12400996
159	0x3ef2486b	0.47320876
160	0xbe97e12b	-0.29663977
161	0x3ee011ac	0.43763483
162	0xbf104dab	-0.5636851
163	0x3f657f0b	0.8964698
164	0xbd0bcbf6	-0.03413006
165	0x3e142ca7	0.14470159
166	0x3dddfde6	0.10839443
167	0xbe3e9828	-0.1861273
168	0x3e41ac2c	0.18913335
169	0xbecf7914	-0.40522063
170	0xbe67794a	-0.22604862
171	0x3e49c837	0.19705282
172	0xbe800b73	-0.25008735
173	0xbe8c44be	-0.27396196
174	0x3e3c6a39	0.18399896
175	0xbe86b6a3	-0.26311216
176	0x3e593bb9	0.21214189
177	0x3db1f2ca	0.086888865
178	0x3f34c59c	0.7061403
179	0xbdd5faa9	-0.104482
180	0x3e9bfc96	0.30466145
181	0x3eb50622	0.3535624
182	0xbf1a5ab2	-0.6029464
183	0xbe86d80a	-0.263367
184	0x3e83ee49	0.25767735
185	0xbf188eaf	-0.5959272
186	0xbe5c4cf0	-0.21513724
187	0x3e5e96a8	0.21737158
188	0xbecb533d	-0.39711943
189	0xbe895313	-0.26821193
190	0xbe2c19b7	-0.16806684
191	0x3df42cb5	0.1192259
192	0x3f292a82	0.66080487
193	0xbe995045	-0.29944053
194	0xbc24a126	-0.010048186
195	0x3f2ea8ae	0.68226135
196	0x3c0e8c66	0.008700466
197	0xbd7a5e6b	-0.0611252
198	0xbc9629ec	-0.018330537
199	0x3eee5e92	0.46556526
200	0x3e576643	0.21035103
201	0x3df96058	0.12176579
202	0xbc90cd03	-0.017675882
203	0xbeb25bf1	-0.3483577
204	0x3d5797ce	0.052635007
205	0xbe7e06f0	-0.24807334
206	0xbf385113	-0.7199871
207	0x3e1dd712	0.15414074
208	0xbed84e1e	-0.422471
209	0x3d8985e3	0.0671499
210	0x3d67c6e2	0.056586154
211	0xbe7d057d	-0.24709125
212	0xbd45c9de	-0.04828822
213	0xbea43c1e	-0.32077116
214	0x3f30dddc	0.6908853
215	0xbf02d097	-0.5109953
216	0x3e0de559	0.1385702
217	0xbec1bee5	-0.37840953
218	0x3c31c393	0.010849851
219	0xbe8b585b	-0.27215847
220	0xbca82ab5	-0.020528177
221	0xbe68b690	-0.22725892
222	0xbf37c54e	-0.7178544
223	0x3ea600e4	0.32422554
224	0x3ebad8a4	0.3649341
225	0xbd83affa	-0.06430049
226	0xbe91cd52	-0.2847696
227	0xbeaeaef6	-0.3411786
228	0x3e9c676d	0.30547658
229	0xbe195c9c	-0.14976734
230	0x3d69dfb5	0.05709811
231	0xbeb9b473	-0.36270484
232	0xbe903499	-0.2816513
233	0x3ee68d13	0.45029506
234	0xbf23476d	-0.6378086
235	0xbc1d5f38	-0.009605221
236	0xbdd1aada	-0.102376655
237	0xbf427db7	-0.75973076
238	0x3c406280	0.011742234
239	0xbebe1625	-0.3712627
240	0x3e64ba34	0.22336656
241	0x3e8d0656	0.27543896
242	0x3f0db9b3	0.5536148
243	0x3ef9c347	0.48781797
244	0x3e9a19d4	0.3009783
245	0xbe379ec2	-0.17931655
246	0x3efa4ce8	0.488868
247	0xbe247c3b	-0.16063015
248	0xbf2eef6e	-0.6833409
249	0x3e878ba6	0.2647373
250	0x3d62bfaa	0.055358566
251	0x3f011d3d	0.5043524
252	0xbe1dc449	-0.15406908
253	0x3e1cc546	0.15309629
254	0x3d4e0a44	0.05030276
255	0x3ea055d9	0.31315497

gnn_base.gnn.embed_layer.lin_h.0.bias f4 [16]
0	0x00000000	0.0
1	0x00000000	0.0
2	0x00000000	0.0
3	0x00000000	0.0
4	0x00000000	0.0
5	0x00000000	0.0
6	0x00000000	0.0
7	0x00000000	0.0
8	0x00000000	0.0
9	0x00000000	0.0
10	0x00000000	0.0
11	0x00000000	0.0
12	0x00000000	0.0
13	0x00000000	0.0
14	0x00000000	0.0
15	0x00000000	0.0

gnn_base.gnn.embed_layer.lin_h.2.weight f4 [16]
0	0x3fd5588a	1.6667645
1	0x3f2880e4	0.6582167
2	0x3e17adba	0.14812365
3	0x3f865f7a	1.0497887
4	0x3fe66c89	1.8001872
5	0x3f590442	0.8477212
6	0x3fa882a1	1.3164865
7	0x3f9f10e7	1.2427033
8	0x3f233233	0.6374847
9	0x3fc4160f	1.5319232
10	0x3fbf349c	1.493793
11	0x3fc49b08	1.5359812
12	0x3fc7de2f	1.561468
13	0x3fc2abbf	1.5208663
14	0x3f9bf599	1.2184325
15	0x3f7cf666	0.98813474

gnn_base.gnn.embed_layer.lin_h.2.bias f4 [16]
0	0x3e4aa512	0.19789532
1	0x3efadb76	0.4899556
2	0x3d20d701	0.039267544
3	0x3d8641f5	0.06555549
4	0xbe85eb5c	-0.26156127
5	0x3e72799e	0.23679206
6	0x3ed40aca	0.4141448
7	0x3d5cc158	0.053895324
8	0x3e93b0d5	0.2884585
9	0xbe1492a8	-0.1450907
10	0xbe9cf414	-0.30654967
11	0x3e9212e2	0.2853003
12	0x3ed273b3	0.41103896
13	0xbe9a07ce	-0.3008408
14	0x3ef72dd7	0.4827716
15	0x3e0a6518	0.13515127

gnn_base.gnn.embed_layer.lin2.0.0.weight f4 [16, 16]
0	0x3f33c1bd	0.70217496
1	0x3ec86d26	0.39145774
2	0x3e64f387	0.22358523
3	0x3e93ae15	0.28843752
4	0xbea0e904	-0.31427777
5	0xbc85ad7b	-0.016318073
6	0xbec818b5	-0.3908135
7	0xbf8cba88	-1.0994425
8	0x3eb42921	0.3518763
9	0xbe2b8072	-0.16748217
10	0xbfbdced1	-1.482874
11	0x3f59fe6f	0.8515386
12	0x3fd86adf	1.6907614
13	0xbec56e0f	-0.3856053
14	0xbeafaf62	-0.34313494
15	0xbf118c11	-0.5685435
16	0x3ef4102a	0.47668582
17	0xbf62a4e6	-0.88532865
18	0x3d4aa69a	0.04947529
19	0xbe163b11	-0.1467097
20	0xbe87a940	-0.26496315
21	0x3ff669ab	1.9250997
22	0x3f65f6e6	0.8982986
23	0xbd6bb1f9	-0.057542775
24	0xbf857a06	-1.0427864
25	0xbf1964f6	-0.5991968
26	0xbf7bf744	-0.9842417
27	0xbf9fbdce	-1.2479799
28	0xbded3418	-0.11582202
29	0xbf875235	-1.0571963
30	0x3f202e60	0.6257076
31	0xbf05b5f9	-0.52230793
32	0x3eeb4255	0.45949045
33	0xbd94e898	-0.07270926
34	0xbdd5b852	-0.10435547
35	0x3f4f9844	0.81091714
36	0xbfb5acab	-1.4193319
37	0xbf5b1a8a	-0.8558737
38	0x3f7031c9	0.93825966
39	0xbf3783bd	-0.7168539
40	0x3f87847e	1.0587308
41	0xbfc749d8	-1.556941
42	0xbf380fd4	-0.7189915
43	0x3f7c12f8	0.98466444
44	0xbf0ac090	-0.5420008
45	0xbf1a9210	-0.60379124
46	0x3f88540a	1.0650647
47	0xbeb8b5e8	-0.36076283
48	0x3e1366df	0.14394711
49	0xbf9590f5	-1.1684862
50	0xbe94ddb5	-0.290754
51	0xbeaf43dd	-0.34231463
52	0xbef19a12	-0.4718786
53	0x3f7430c5	0.95386916
54	0x3b26ba60	0.0025440678
55	0x3ebdf938	0.371042
56	0xbc27b26a	-0.010235408
57	0xbfa0cb81	-1.2562104
58	0xbfa7329b	-1.3062319
59	0x3f2a8aa1	0.6661778
60	0xbecef1da	-0.40418893
61	0x3e275155	0.1633962
62	0x3fa7d317	1.3111295
63	0x3f36bf26	0.7138542
64	0xbf04c6b9	-0.51865727
65	0xbee2c83a	-0.44293386
66	0x3ee6263b	0.44951043
67	0x3e922765	0.2854568
68	0xbfb075be	-1.3785932
69	0x3f150e40	0.5822487
70	0xbef3002b	-0.47461066
71	0xbf1cba80	-0.61222076
72	0xbfaf251f	-1.3683203
73	0x3f78d80f	0.9720468
74	0xbfa6190c	-1.2976394
75	0xbf2edb2f	-0.683032
76	0xbf792eca	-0.9733702
77	0x3ef1df51	0.4724069
78	0xbf2f51b3	-0.6848404
79	0x3ee3192c	0.44355142
80	0xbe0e26e5	-0.13882025
81	0xbedc3fe5	-0.43017498
82	0xbf718f3c	-0.94359183
83	0x3d36e942	0.044656046
84	0x3fb490e6	1.410672
85	0xbde34e85	-0.11098961
86	0xbef3dff5	-0.47631803
87	0xbe103da1	-0.1408601
88	0xbb9e25a9	-0.004826267
89	0x3f375912	0.71620286
90	0xbeb5c8bf	-0.3550472
91	0xbf24a2eb	-0.64311093
92	0x3f2e6493	0.68122214
93	0x3f147341	0.57988364
94	0x3e242702	0.16030505
95	0xbf750d56	-0.95723474
96	0xbf983c4c	-1.1893401
97	0xbd945cf3	-0.07244291
98	0x3e2a415d	0.16626497
99	0x3e5d8103	0.21631245
100	0x3f009438	0.50226164
101	0xbde80c52	-0.11330475
102	0x3ea3bec2	0.31981474
103	0xbef67370	-0.48134947
104	0xbdf016de	-0.117231116
105	0x3ce79806	0.028270733
106	0x3e56aa7d	0.20963474
107	0x3f996994	1.1985345
108	0xbf2eef21	-0.6833363
109	0xbea47997	-0.32124016
110	0xbe979a19	-0.29609755
111	0xbed6cbc8	-0.41952348
112	0xbf78da97	-0.9720854
113	0x3e946360	0.28982067
114	0xbec43f6f	-0.38329646
115	0xbb78d476	-0.0037968433
116	0x3de6ff91	0.11279214
117	0xbf4eb57f	-0.8074569
118	0xbf3fc496	-0.7490934
119	0x3ea31d1a	0.3185814
120	0x3e50c36e	0.2038705
121	0x3f02aa58	0.51041174
122	0xbd89ee37	-0.06734889
123	0xbf6e544e	-0.9309739
124	0xbf52b1f9	-0.82302815
125	0x3f5e4c91	0.8683558
126	0xbf808535	-1.0040652
127	0x3ec4de6f	0.38450953
128	0x3e2f418a	0.17114845
129	0x3f45d9d0	0.7728548
130	0xbf2c237d	-0.6724165
131	0xbf1a3653	-0.6023914
132	0xbe3f244a	-0.18666187
133	0xbdbd1689	-0.09232814
134	0xbe10732d	-0.14106436
135	0x3f0fbe01	0.561493
136	0x3ce9a27d	0.028519863
137	0xbfa1f4b1	-1.2652799
138	0x3f87b62e	1.0602472
139	0x3e21a28f	0.15784667
140	0xbf482b88	-0.78191423
141	0x3f3c2f45	0.7350963
142	0xbe787a78	-0.24265468
143	0xbf0006ed	-0.5001057
144	0xbf5bdc50	-0.85883045
145	0x3d9b2ab5	0.07576505
146	0x3e3dbd2f	0.18529199
147	0x3de47b2a	0.11156304
148	0xbf86a134	-1.0517945
149	0xbe0799ee	-0.13242313
150	0x3e8c7df8	0.27439857
151	0x3f12078a	0.57042754
152	0xbd6ea84e	-0.058265977
153	0x3f070cf3	0.52754134
154	0x3f0fb5b5	0.5613664
155	0x3de2332c	0.110449165
156	0x3f1ea095	0.6196378
157	0xbfe2f33f	-1.7730483
158	0xbdd49cb9	-0.10381455
159	0x3e70055f	0.23439549
160	0xbf0b4a24	-0.54410005
161	0xbd3ddbb8	-0.04635212
162	0xbe96c369	-0.2944596
163	0x3fb96342	1.4483416
164	0x3f08fa73	0.53507155
165	0xbea132b2	-0.3148399
166	0x3dbf33c7	0.093360476
167	0xbf15f1e0	-0.58572197
168	0x3f761c72	0.96137154
169	0xbf866835	-1.0500551
170	0xbee6632b	-0.44997534
171	0x3eb28ed0	0.34874582
172	0xbf2d7113	-0.6775066
173	0xbf7f686d	-0.99768716
174	0x3ef1de72	0.47240025
175	0xbf4aadbd	-0.79171354
176	0x3e8488f2	0.2588573
177	0x3f4ae154	0.79250073
178	0x3e830173	0.25587043
179	0xbe4cf9e3	-0.20017199
180	0x3f8dc3cd	1.1075379
181	0xbe61580d	-0.22006245
182	0xbecff45e	-0.40616125
183	0xbe02781a	-0.12741128
184	0xbf2ff3c7	-0.6873135
185	0xbf54fb18	-0.8319564
186	0xbe1f2f9e	-0.15545508
187	0xbf29fc1d	-0.6640032
188	0xbf8a6c30	-1.0814266
189	0x3e94e315	0.290795
190	0xbf89ac18	-1.0755644
191	0xbe1850c9	-0.14874567
192	0x3fd1f9e6	1.6404388
193	0xbddc516b	-0.10757717
194	0x3e6d1d48	0.23155701
195	0x3f02bc8f	0.5106897
196	0xbd47dc6c	-0.048794195
197	0x3d29bf41	0.04144216
198	0xbe9a1a9f	-0.30098435
199	0x3fa0ba68	1.2556887
200	0xbf8165ef	-1.0109233
201	0xbe26cb12	-0.16288403
202	0xbdb069fa	-0.086139634
203	0xbfbfcabc	-1.4983745
204	0x3fa76426	1.3077438
205	0xbeb159ad	-0.3463873
206	0xbeafcfce	-0.3433823
207	0x3e6954aa	0.22786203
208	0xbf647bc3	-0.89251345
209	0xbeb9ac6c	-0.3626436
210	0xbeaeac5e	-0.3411588
211	0xbec54b7f	-0.3853416
212	0xbf34e38e	-0.7065972
213	0xbe825cf3	-0.2546154
214	0xbde437c3	-0.11143448
215	0xbf4c5b0e	-0.7982644
216	0xbe969528	-0.29410672
217	0x3deea258	0.11652058
218	0x3d3c5ed5	0.045988876
219	0xbf2a5b21	-0.665453
220	0xbebee07e	-0.3728065
221	0x3e277130	0.16351771
222	0xbf4b1dba	-0.79342234
223	0x3f98744d	1.1910492
224	0xbef5f7b5	-0.48040548
225	0x3d829245	0.06375555
226	0x3e85c8d0	0.2612977
227	0xbef27ef2	-0.47362477
228	0x3f5e70f7	0.8689112
229	0x3dee346b	0.11631092
230	0x3de14e53	0.11001267
231	0xbf7f35ae	-0.99691284
232	0xbe7b2449	-0.2452556
233	0x3e41d432	0.18928602
234	0xbf8f8998	-1.1213865
235	0x3ef1e9bc	0.47248638
236	0x3f49ae94	0.7878201
237	0xbe924432	-0.28567654
238	0x3e79aa3f	0.2438135
239	0xbeb29459	-0.34878805
240	0x3f974a97	1.1819638
241	0x3fa17b9c	1.2615848
242	0x3dde6ca2	0.10860564
243	0x3ff73bc8	1.9315119
244	0x3ee070f9	0.4383619
245	0xbefbdde1	-0.49192718
246	0x4005024f	2.078266
247	0xbf210e2e	-0.6291226
248	0xbf722c4d	-0.9459885
249	0xbf0a58ef	-0.5404195
250	0xbf195fc6	-0.59911764
251	0xbe83d79c	-0.25750434
252	0xbf424fe4	-0.75903153
253	0xbf4b4df0	-0.794158
254	0xbdc65e6d	-0.09685979
255	0xbe6bed23	-0.23039679

gnn_base.gnn.embed_layer.lin2.0.0.bias f4 [16]
0	0x3c5050c9	0.012714573
1	0xbeee75ab	-0.4657415
2	0xbd0f120b	-0.034929316
3	0xbd32d92f	-0.043664154
4	0xbf2d1265	-0.6760619
5	0xbe9de1af	-0.30836245
6	0x3c883766	0.016627979
7	0x3e535558	0.20638025
8	0x3e40b241	0.18817998
9	0xbecc78d0	-0.39935923
10	0xbebe6a17	-0.37190315
11	0xbf0cd8e1	-0.5501843
12	0x3d0bd227	0.034135964
13	0xbe5b284e	-0.21402094
14	0x3f3edf6f	0.7455968
15	0xbe3304e6	-0.17482337

gnn_base.gnn.embed_layer.lin2.0.2.weight f4 [16]
0	0x3fa21fe9	1.2665988
1	0x3f9c4989	1.2209941
2	0x3f9a43a3	1.2051891
3	0x3f8f0228	1.1172533
4	0x3fa9030b	1.3204054
5	0x3f9da416	1.23157
6	0x3fc659d4	1.5496163
7	0x3f8434e6	1.0328643
8	0x3fade463	1.3585323
9	0x3fbf112c	1.4927115
10	0x3f59ff25	0.85154945
11	0x3f5e6e73	0.8688728
12	0x3f9c7004	1.2221684
13	0x3f998084	1.1992345
14	0x3f9a9c4e	1.207895
15	0x3f8df325	1.1089827

gnn_base.gnn.embed_layer.lin2.0.2.bias f4 [16]
0	0x3e7f49eb	0.24930541
1	0x3db7a1a2	0.08966376
2	0xbd5ba6b1	-0.053625766
3	0x3ce0b3d1	0.027429493
4	0xbefe2876	-0.49640244
5	0xbdcd5305	-0.100256
6	0x3e469f7a	0.19396773
7	0xbe11fc46	-0.14256391
8	0x3e9527d1	0.2913194
9	0x3f41df78	0.7573161
10	0x3e505830	0.20346141
11	0x3e936ff0	0.2879634
12	0x3ea61494	0.32437575
13	0xbeb17d88	-0.34666085
14	0x3e2f4f9d	0.17120214
15	0x3e38c056	0.1804212

gnn_base.gnn.gnn1.lin_key.weight f4 [48, 16]
0	0xc000e3ad	-2.0138962
1	0x3dd13ddd	0.102168776
2	0x3ed0e3f7	0.40798923
3	0xbd7bef29	-0.061507378
4	0xbe8eb189	-0.27869824
5	0xbf2d1ab4	-0.6761887
6	0x3e4b0349	0.19825472
7	0x3f074cba	0.5285145
8	0x3ed9ab72	0.42513615
9	0x3d2fbca5	0.042904515
10	0x3f09f7c3	0.5389368
11	0xbf21645a	-0.6304375
12	0xbe04b4f3	-0.12959652
13	0x3e31b8d0	0.17355657
14	0xbe89d8fd	-0.2692336
15	0x3ebcd7bd	0.36883345
16	0xbf1a9e1a	-0.60397494
17	0x3f0c81e6	0.5488571
18	0x3f4cbf0f	0.7997903
19	0xbf1f4d60	-0.6222744
20	0x3e1e024e	0.15430567
21	0xbf911759	-1.133525
22	0x3d47e72a	0.04880444
23	0x3c07d294	0.008289952
24	0x3d561011	0.052261416
25	0x3e32694b	0.17422979
26	0x3d3acb81	0.045604233
27	0xbec0e9ff	-0.37678525
28	0x3d3c8edd	0.046034683
29	0xbe2b85f3	-0.16750316
30	0xbe991068	-0.2989533
31	0x3f70f4e4	0.94123673
32	0xbfe95672	-1.8229506
33	0x3d924447	0.07141929
34	0x3e0a8ef2	0.13531092
35	0x3d8998db	0.06718608
36	0xbdb0d663	-0.08634641
37	0xbf861c85	-1.0477453
38	0x3f32912e	0.69752777
39	0x3e7935d1	0.24336936
40	0x3f4abc21	0.7919331
41	0xbc7640a6	-0.015030062
42	0x3ebe3e8c	0.37157094
43	0xbde3eb07	-0.11128812
44	0x3ecd87fc	0.4014281
45	0xbf3b003c	-0.7304723
46	0xbe9be315	-0.30446687
47	0xbead2961	-0.33820632
48	0x3f17fab2	0.59366906
49	0x3f3ca077	0.7368235
50	0x3f024ce9	0.50898606
51	0x3e762535	0.24037631
52	0xbf138d44	-0.5763743
53	0xbe829880	-0.25506973
54	0xbdcf5f41	-0.1012559
55	0xbebe9713	-0.37224635
56	0xbf2ef910	-0.6834879
57	0xbed55851	-0.41668943
58	0x3f274d85	0.6535266
59	0x3e415840	0.18881321
60	0xbf1b16b0	-0.60581493
61	0xbe2a56fc	-0.16634744
62	0xbdfaa6d4	-0.12238851
63	0x3f9f47ba	1.2443764
64	0x3fbc6a09	1.4719859
65	0xbed6a266	-0.41920775
66	0xbd71af85	-0.05900528
67	0xbec13195	-0.3773314
68	0x3e81114a	0.25208503
69	0x3ed64dc8	0.41856217
70	0xbe7fd1ef	-0.24982427
71	0xbea01ae7	-0.31270525
72	0x3e997b5e	0.29976934
73	0x3ecfbcb5	0.4057366
74	0xbf470ed8	-0.77757025
75	0xbf307020	-0.6892109
76	0x3e7def73	0.24798374
77	0x3f2d528c	0.6770408
78	0x3f37596a	0.7162081
79	0x3caf2ddb	0.02138417
80	0xbfa4c5be	-1.2872846
81	0x3f47889d	0.7794283
82	0x3ec854bc	0.39127147
83	0xbef19fae	-0.47192138
84	0xbe71674e	-0.23574564
85	0xbd014f13	-0.03156955
86	0x3e950dd1	0.29112104
87	0x3e8d0745	0.2754461
88	0x3ec211f5	0.37904325
89	0x3ea65fe4	0.32495034
90	0x3e3735bc	0.17891592
91	0xbe251809	-0.1612245
92	0xbea97fcb	-0.3310531
93	0xbe855378	-0.26040244
94	0xbdd6adbb	-0.10482355
95	0x3e4db3d2	0.20088127
96	0x3f671534	0.9026673
97	0xbf22f1d5	-0.63650256
98	0xbf0656aa	-0.5247599
99	0xbe75beb8	-0.23998535
100	0x3ebca27f	0.36842725
101	0x3f920109	1.1406566
102	0xbe7b09af	-0.24515413
103	0xbf24c062	-0.6435605
104	0xbde59711	-0.11210454
105	0xbe4e6f86	-0.2015973
106	0xbded3db2	-0.11584033
107	0x3f30525e	0.6887568
108	0x3ecd5dba	0.4011057
109	0x3ea69c69	0.32541206
110	0x3f1444c4	0.5791743
111	0xbed73160	-0.42029858
112	0x3fdfed88	1.7494364
113	0x3e82b96a	0.25532085
114	0x3c5d0772	0.013490545
115	0x3e714be3	0.23564105
116	0xbebe087a	-0.37115842
117	0x3ec2dfd1	0.38061383
118	0xbf2eb83c	-0.6824987
119	0xbd9d6b7c	-0.07686517
120	0xbf9f1514	-1.2428308
121	0xbcb50b84	-0.022100218
122	0xbe5299df	-0.2056651
123	0xbe997d07	-0.299782
124	0xbf146e83	-0.5798113
125	0x3e1a0a23	0.1504293
126	0x3f0b2113	0.5434734
127	0xbe04a6c1	-0.12954237
128	0x3f2a8c3c	0.6662023
129	0x3dd4f040	0.103973866
130	0x3dc89639	0.09794278
131	0x3caaa3d9	0.020830082
132	0xbe03135b	-0.12800352
133	0x3e453ad7	0.19260727
134	0xbe72362d	-0.23653479
135	0xbda12b64	-0.07869604
136	0xbfd925cc	-1.696466
137	0xbf25cc28	-0.6476464
138	0x3e1c1603	0.15242772
139	0xbe6f7100	-0.2338295
140	0xbeffd61e	-0.49968046
141	0xbdd92949	-0.10603578
142	0x3f1a3e41	0.6025124
143	0x3ed76249	0.42067173
144	0x3f847f12	1.0351279
145	0xbd976551	-0.073923714
146	0x3c64316c	0.013927799
147	0x3f39fc17	0.72650284
148	0x3f201a71	0.62540346
149	0xbf0e0018	-0.55468893
150	0xbd8fd72f	-0.07023465
151	0xbef14438	-0.4712236
152	0x3f4d5da1	0.8022099
153	0x3d32a262	0.04361189
154	0x3f39c9f5	0.72573787
155	0xbf5e91e5	-0.8694137
156	0x3ec26f33	0.37975463
157	0x3e54c514	0.20778304
158	0xbf111ac2	-0.56681454
159	0xbf0d706d	-0.55249673
160	0xbfa5a02b	-1.2939504
161	0x3f1caeec	0.6120441
162	0xbdf1b259	-0.11801595
163	0x3e81d768	0.25359654
164	0xbe08d346	-0.13361844
165	0xbe46ba31	-0.19406964
166	0x3eaee607	0.34159872
167	0xbe387a16	-0.18015322
168	0x3f4e1b0d	0.80510026
169	0xbe6b951c	-0.230061
170	0x3e3a830b	0.18214051
171	0x3e52ad8e	0.20574018
172	0x3f396c29	0.72430664
173	0x3e23fa42	0.16013435
174	0xbf4e9a3d	-0.807041
175	0xbf199285	-0.59989196
176	0xbe114081	-0.14184763
177	0xbe5b7b6b	-0.21433799
178	0x3e99882e	0.2998671
179	0xbf055205	-0.52078277
180	0x3e4fec6e	0.20305035
181	0xbe1ab082	-0.15106395
182	0xbd4160f1	-0.04721159
183	0xbf1950c3	-0.5988886
184	0x3ed28e5c	0.41124237
185	0x3e585282	0.21125224
186	0xbda7d9b1	-0.08195818
187	0x3b5cf906	0.0033717765
188	0xbda1cc4a	-0.07900293
189	0x3e50b5ca	0.20381847
190	0xbe6279a8	-0.2211672
191	0xbe5188d4	-0.20462352
192	0xbfa56901	-1.292267
193	0x3ce4e8e0	0.027943075
194	0x3f147809	0.5799566
195	0x3ec6c57e	0.3882255
196	0xbc6844de	-0.0141765755
197	0xbf816c61	-1.01112
198	0xbe02e609	-0.12783064
199	0x3d866e25	0.06563977
200	0x3ea8ad01	0.32944492
201	0x3d8218de	0.06352399
202	0x3ecf1086	0.40442294
203	0xbe83cfa5	-0.25744358
204	0xbdceea92	-0.101033345
205	0xbddc60d0	-0.10760653
206	0xbf4e3322	-0.8054677
207	0x3ee80e11	0.45323232
208	0x3f6affa4	0.91796327
209	0x3ded9c25	0.11602048
210	0x3e04ca6b	0.12967841
211	0x3e008b34	0.12553102
212	0x3ec345d7	0.3813922
213	0xbf1bd1f6	-0.6086725
214	0x3e807ada	0.25093728
215	0xbe249539	-0.16072549
216	0x3eb65868	0.35614324
217	0x3f99b18e	1.200731
218	0x3e396e14	0.18108398
219	0xbeb24a18	-0.34822154
220	0xbf3693e2	-0.713194
221	0xbf12edd8	-0.5739417
222	0xbd8b5d9c	-0.06804964
223	0xbea95f57	-0.3308055
224	0xbf8922ae	-1.0713708
225	0xbf73a1be	-0.95168674
226	0xbe4a5003	-0.19757085
227	0xbf5c72f1	-0.86112887
228	0xbf1506a0	-0.58213234
229	0x3ea0b6b2	0.31389385
230	0x3f38f4b8	0.7224841
231	0x3f3c2664	0.7349608
232	0x3ebdadd1	0.37046674
233	0x3f2b1aea	0.6683794
234	0xbdeeea14	-0.116657406
235	0x3f0d0b3a	0.55095255
236	0xbe95c003	-0.29248056
237	0xbf016cc5	-0.50556594
238	0xbe1ff08a	-0.15619102
239	0xbe6fe4e6	-0.23427162
240	0xbfd76b4a	-1.6829617
241	0x3e4ac7ea	0.19802824
242	0x3e0e3f6f	0.13891385
243	0xbd3e0131	-0.046387855
244	0xbf290a9d	-0.6603182
245	0xbeb7c5c7	-0.3589308
246	0x3ee6fc48	0.4511435
247	0x3e94266e	0.2893557
248	0xbbcc2f97	-0.006231259
249	0xbbe4f925	-0.006987708
250	0x3f45a195	0.7719968
251	0x3ed67dec	0.41892946
252	0xbe564dca	-0.20928112
253	0xbe3b0769	-0.18264546
254	0xbf6318db	-0.887098
255	0x3e719f2b	0.23595874

gnn_base.gnn.gnn1.lin_key.bias f4 [48]
0	0x3c7f7a8f	0.015593185
1	0xbe5ed935	-0.21762545
2	0xbd09429b	-0.033510786
3	0xbdb80c7a	-0.08986755
4	0xbe3d471b	-0.18484156
5	0xbe294936	-0.16531834
6	0xbe14a6cc	-0.14516753
7	0xbd6ce61a	-0.05783663
8	0xbd93f59d	-0.072245814
9	0xbe79a20b	-0.2437822
10	0xb91fb6f7	-0.00015231581
11	0x3e327dba	0.17430773
12	0xbce5ce11	-0.028052362
13	0xbe2075c6	-0.15669927
14	0xbe0ad608	-0.13558209
15	0x3b657318	0.0035011228
16	0x3d0092f3	0.03139014
17	0xbe4f076f	-0.2021768
18	0x3dc91279	0.098179765
19	0xbcb2d531	-0.021830173
20	0xbe5aefb4	-0.21380502
21	0xbd5cc813	-0.053901743
22	0x3de75332	0.11295165
23	0xbb9230ed	-0.004461399
24	0x3e6720f8	0.2257117
25	0xbd4bbbdb	-0.0497397
26	0xbd057e46	-0.032591127
27	0xbe551fc9	-0.20812906
28	0xbd917c4c	-0.07103786
29	0x3e70089f	0.23440789
30	0xbe4e0d8a	-0.20122352
31	0xbd87c062	-0.06628491
32	0xbdf6f114	-0.12057701
33	0x3e5b5c23	0.21421866
34	0xbdc15f2b	-0.0944198
35	0xbe316544	-0.17323786
36	0xbe5f0fca	-0.21783367
37	0xbdf0f066	-0.11764602
38	0xbd623514	-0.0552264
39	0xbe141cd4	-0.14464122
40	0xbdcc74fa	-0.09983249
41	0x3e5b8acd	0.21439667
42	0x3d6cbfcd	0.057800103
43	0x3e194fa4	0.14971787
44	0xbe2189aa	-0.15775171
45	0x3e41b618	0.1891712
46	0x3dbcd580	0.092204094
47	0xbe466d92	-0.19377735

gnn_base.gnn.gnn1.lin_query.weight f4 [48, 16]
0	0x3f335ff2	0.70068276
1	0x3d94784e	0.07249509
2	0xbe9af116	-0.3026206
3	0x3f16854d	0.5879715
4	0x3f33060b	0.69931096
5	0x3f5d02c0	0.8633232
6	0xbb98aaf1	-0.0046590497
7	0xbf9011ad	-1.1255394
8	0xbeeb6a22	-0.4597941
9	0xbeeaff2b	-0.45897803
10	0xbe3a59f7	-0.18198381
11	0x3ee74471	0.45169404
12	0xbeb117fc	-0.3458861
13	0x3efc01a9	0.49220017
14	0x3ca89b4a	0.02058186
15	0xbe7d21de	-0.2471995
16	0x3db909e8	0.090350926
17	0xbd432e35	-0.04765149
18	0xbe825351	-0.2545419
19	0xbf31c702	-0.69444287
20	0xbcc94f4f	-0.02457395
21	0x3f735459	0.9505058
22	0x3e1a7aba	0.15085879
23	0xbe6ded04	-0.23234946
24	0x3ee8be6c	0.4545778
25	0xbeb9c07a	-0.3627966
26	0xbea8af26	-0.32946128
27	0x3e32f101	0.17474748
28	0xbf25f7ae	-0.64831054
29	0x3f0735b3	0.52816314
30	0x3df14602	0.11780931
31	0xbf885867	-1.0651978
32	0x3f28e324	0.6597159
33	0x3ddbf9e2	0.10741021
34	0x3f07ec8f	0.53095335
35	0x3eb990fe	0.36243433
36	0xbd8aa35f	-0.06769442
37	0x3f65affb	0.8972165
38	0xbf429e1b	-0.760225
39	0xbf807772	-1.0036452
40	0xbec683fa	-0.38772565
41	0x3ecae017	0.39624092
42	0xbefc910b	-0.4932941
43	0xbed87814	-0.42279112
44	0x3efcf8a7	0.49408457
45	0x3f27e3e9	0.6558214
46	0xbe861f38	-0.26195693
47	0x3e0f983a	0.14022914
48	0x3ede8452	0.43460327
49	0xbe3791c0	-0.17926693
50	0xbeff467b	-0.4985846
51	0xbe185696	-0.1487678
52	0xbed4b9c5	-0.4154798
53	0x3ecccbca	0.3999923
54	0x3eeb26e4	0.4592811
55	0x3edbd8f5	0.42938963
56	0x3f891ac2	1.0711291
57	0xbf20afdc	-0.6276834
58	0xbe24aa0c	-0.16080493
59	0x3ee550d6	0.44788235
60	0x3e271525	0.1631666
61	0xbf1d198f	-0.61367124
62	0xbcfdc3ad	-0.030977095
63	0xbf469524	-0.7757132
64	0xbf8f1b43	-1.1180195
65	0x3ee1bace	0.44087833
66	0xbe4163d1	-0.18885733
67	0xbeddd1f3	-0.4332424
68	0x3f09d28c	0.53836894
69	0xbf19e750	-0.6011858
70	0x3db815eb	0.089885555
71	0x3dbd492c	0.09242472
72	0xbf770063	-0.96484965
73	0x3e17cba6	0.1482378
74	0x3f0c4ae2	0.5480176
75	0xbf0fd63f	-0.5618629
76	0x3c56d3b3	0.013111996
77	0x3eaf6cb3	0.34262618
78	0x3f81e60d	1.0148331
79	0xbee774c4	-0.45206273
80	0xbc9b1590	-0.01893118
81	0x3d911389	0.07083804
82	0xbe89731e	-0.2684564
83	0xbe5f4c86	-0.21806535
84	0x3d85770b	0.06516846
85	0x3edc00a1	0.4296923
86	0x3d20d27c	0.039263234
87	0xbed44f65	-0.41466823
88	0xbdeee4a0	-0.116647005
89	0xbf262d14	-0.64912534
90	0x3cba05db	0.02270787
91	0x3ef644d8	0.480994
92	0xbd4920ef	-0.049103674
93	0xbeade41c	-0.33963096
94	0x3f092d98	0.53585196
95	0x3dc57c65	0.09642867
96	0xbf0635c6	-0.524258
97	0x3edfb4a3	0.43692502
98	0x3f71ad45	0.94405013
99	0x3e16e61a	0.14736214
100	0xbede16cf	-0.43376777
101	0xbf8c3a2e	-1.0955255
102	0xbe0d8ea9	-0.13823952
103	0x3f35d2d3	0.7102482
104	0x3e05050d	0.12990208
105	0x3f008581	0.5020371
106	0x3ded619d	0.11590884
107	0x3d8d1e18	0.068905056
108	0x3ece70ce	0.40320438
109	0xbeb8f1ee	-0.36122078
110	0x3e3e2e59	0.18572368
111	0x3e9389a6	0.28815955
112	0xbf6f1950	-0.93398
113	0xbdfd6a98	-0.12373847
114	0xbeae4f8e	-0.3404507
115	0xbf3cf9d5	-0.73818713
116	0x3b8f04e6	0.0043645976
117	0xbc58d2fa	-0.0132338945
118	0x3f592fc9	0.8483854
119	0x3f9126a9	1.1339923
120	0x3ebdaba7	0.37045023
121	0xbefea9f4	-0.4973904
122	0xbeb58eed	-0.35460606
123	0x3ed34bec	0.4126886
124	0xbea685dd	-0.32524005
125	0xbeea62f2	-0.45778614
126	0x3dfb8eeb	0.12283119
127	0xbd83cc6e	-0.06435476
128	0xbf31f641	-0.6951638
129	0x3e6792ee	0.22614643
130	0xbec5196e	-0.38495964
131	0xbf88323b	-1.0640329
132	0xbeedbf4c	-0.4643501
133	0xbe44f270	-0.19233108
134	0x3f65d1f3	0.8977348
135	0x3edc2e96	0.43004292
136	0x3f199bfd	0.60003644
137	0xbf453923	-0.7704031
138	0xbee20b6f	-0.44149348
139	0x3fc83f1c	1.564426
140	0xbde47b09	-0.111562796
141	0xbef5b0d5	-0.47986475
142	0xbea6b3c6	-0.3255903
143	0x3d5e85b9	0.054326747
144	0x3e81b22e	0.25331253
145	0xbe5745fe	-0.21022794
146	0xbdfbca64	-0.12294462
147	0xbe58ced0	-0.21172643
148	0x3fbe3881	1.4860994
149	0x3e9aecc2	0.30258757
150	0xbe4a9509	-0.19783415
151	0x3d9f53e1	0.077796705
152	0xbf4fb253	-0.81131476
153	0x3f71c220	0.94436836
154	0xbf3bb295	-0.7331937
155	0xbebd76b0	-0.37004614
156	0xbe650d50	-0.2236836
157	0x3f6a2770	0.91466427
158	0xbe0bd188	-0.13654149
159	0xbee72ddd	-0.45152178
160	0x3fa17832	1.2614806
161	0xbf0a8e88	-0.54123735
162	0x3f1cec84	0.61298394
163	0x3eec88ee	0.4619822
164	0x3f015f1a	0.5053574
165	0x3ea3df2d	0.32006207
166	0xbeab02cd	-0.33400574
167	0xbf61f99c	-0.882715
168	0x3d3ed24f	0.046587285
169	0x3fa11427	1.2584275
170	0x3eb22fe2	0.34802157
171	0xbe6564cd	-0.22401734
172	0x3ea5ced1	0.3238435
173	0xbeaab30a	-0.3333972
174	0xbf09cf78	-0.538322
175	0x3e8ec60a	0.27885467
176	0xbe2f51f9	-0.17121114
177	0x3ea21636	0.3165757
178	0xbe157616	-0.14595827
179	0x3e45c412	0.19313076
180	0x3f124245	0.5713237
181	0xbd2a8150	-0.04162723
182	0xbc208abc	-0.009798702
183	0xbe2b394b	-0.16721074
184	0xbe75946c	-0.239824
185	0x3e9ef583	0.31046686
186	0xbf3b02d5	-0.73051196
187	0xbe8c5691	-0.27409795
188	0x3eb73072	0.35779148
189	0x3edb83b1	0.4287391
190	0x3f06656b	0.524985
191	0xbeb23c2c	-0.34811532
192	0x3f80c046	1.0058677
193	0xbeabfd81	-0.33591846
194	0xbf07e2c8	-0.53080416
195	0x3c66dc24	0.014090572
196	0x3eeb06ee	0.45903724
197	0x3f8f5655	1.1198221
198	0x3e5f323a	0.21796504
199	0xbed8c2db	-0.42336163
200	0x3c87c82d	0.016574943
201	0x3da15670	0.07877815
202	0xbedd680d	-0.43243447
203	0xbe8c6e73	-0.27428016
204	0xbe8c7a83	-0.2743722
205	0x3f5ef791	0.87096506
206	0xbdba8744	-0.09107831
207	0xbf267d13	-0.650346
208	0xbec9f64a	-0.39445716
209	0x3da3464e	0.07972394
210	0xbf125ea4	-0.5717566
211	0xbecf1806	-0.40448016
212	0x3ea8310c	0.3284992
213	0x3e87f90c	0.26557195
214	0x3e521f03	0.20519643
215	0x3e37a21a	0.1793293
216	0xbf3391ee	-0.70144546
217	0xbebce493	-0.36893138
218	0xbf80df80	-1.0068207
219	0xbeae4145	-0.34034172
220	0x3f23682f	0.63830847
221	0x3ec8785e	0.39154333
222	0x3f52298d	0.8209465
223	0xbea87369	-0.3290055
224	0x3df0acb1	0.11751688
225	0x3f76464b	0.9620101
226	0x3e4ab40b	0.19795243
227	0x3f5fd3b9	0.8743244
228	0xbf2aea02	-0.6676332
229	0xbe87c637	-0.26518413
230	0xbeda5990	-0.42646456
231	0xbf080cbc	-0.5314443
232	0xbe37f74a	-0.17965427
233	0xbf09be31	-0.53805834
234	0x3f4c5d41	0.79829794
235	0xbee9beef	-0.45653483
236	0x3f3109e3	0.6915571
237	0xbf09bb58	-0.5380149
238	0x3e6a6cfb	0.22893135
239	0x3f1b027e	0.6055068
240	0x3fdcf0bf	1.726097
241	0x3da4927d	0.08035753
242	0xbe6d906b	-0.23199622
243	0x3f8ac767	1.0842103
244	0xbf03ab0e	-0.51432884
245	0x3f287f35	0.658191
246	0xbd0658d8	-0.03279957
247	0xbf54207d	-0.82862073
248	0x3f51c1bc	0.8193624
249	0xbf1899ae	-0.59609497
250	0xbec92fc0	-0.39294243
251	0x3ebb6352	0.36599213
252	0x3e5c1252	0.21491364
253	0xbf959e3d	-1.1688915
254	0xbf5fcba6	-0.8742012
255	0x3dcae822	0.09907557

gnn_base.gnn.gnn1.lin_query.bias f4 [48]
0	0xbf7b5f55	-0.9819234
1	0xbeffecb3	-0.49985275
2	0xbfb7c5f7	-1.4357289
3	0x3f0c2d60	0.54756737
4	0x3f87eb24	1.0618634
5	0x3d050eaf	0.032484706
6	0x3efe9274	0.4972111
7	0x3f849dde	1.0360677
8	0x3efeb6d0	0.4974885
9	0xbca731f2	-0.020409558
10	0xbf5c18ea	-0.85975516
11	0x3da3ab76	0.07991688
12	0xbf2748ae	-0.65345275
13	0xbdd9ead0	-0.1064049
14	0xbd87b0e6	-0.066255376
15	0xbf878304	-1.0586858
16	0x3e176a6b	0.14786689
17	0x3f0627c3	0.5240442
18	0x3fb3099f	1.3987311
19	0xbf464c1c	-0.77459884
20	0xbb97233a	-0.0046123536
21	0xbd9cd17c	-0.076571435
22	0x3ea9b032	0.3314224
23	0x3f3a73f3	0.72833174
24	0x3cdb1fd4	0.026748575
25	0x3ed3e7be	0.41387743
26	0xbd813cdc	-0.06310436
27	0x3f809d1b	1.0047945
28	0x3f4929b9	0.7857929
29	0x3eb1365e	0.3461179
30	0x3ec20f6b	0.37902388
31	0xbdbd7d10	-0.092523694
32	0xbf284f05	-0.65745574
33	0xbcd6dc55	-0.02622811
34	0xbf110c4c	-0.5665939
35	0xbde8abfb	-0.11360928
36	0xbe9bc873	-0.30426368
37	0xbe3fc9a0	-0.18729258
38	0x3f35f6f7	0.71079963
39	0xbdad7e2d	-0.08471332
40	0xbe919cfc	-0.28440082
41	0x3d8ace4e	0.06777631
42	0xbe44ee23	-0.19231467
43	0x3ec002b8	0.37502074
44	0xbe7a651a	-0.2445263
45	0x3e45311b	0.19257013
46	0xbf2c4087	-0.6728596
47	0x3f039632	0.51401055

gnn_base.gnn.gnn1.lin_value.weight f4 [48, 16]
0	0xbf100941	-0.5626412
1	0xbe8a9c36	-0.27072304
2	0x3f4c9ed0	0.7992983
3	0x3f130082	0.5742265
4	0x3d950757	0.072767906
5	0xbf9791c7	-1.1841363
6	0x3ecfa886	0.4055826
7	0x3db0e50d	0.08637438
8	0x3f886281	1.0655061
9	0x3e1c1573	0.15242557
10	0x3e1fe706	0.15615472
11	0x3eb23109	0.34803036
12	0xbe22b017	-0.15887485
13	0xbede871e	-0.4346246
14	0xbf331368	-0.69951487
15	0x3ef91315	0.4864737
16	0xbf672a56	-0.90298975
17	0xbe8333d5	-0.25625482
18	0x3e462dba	0.19353381
19	0xbf34ed98	-0.7067504
20	0x3ec37596	0.38175648
21	0x3edee036	0.43530434
22	0x3eb8068c	0.35942495
23	0x3f0c0995	0.5470212
24	0x3e0e9458	0.13923776
25	0x3f76f607	0.9646916
26	0xbd13c023	-0.036071908
27	0x3edde02d	0.43335095
28	0xbf633ecc	-0.88767695
29	0x3b3a3d03	0.0028417713
30	0xbf142145	-0.57863265
31	0xbd94eb06	-0.0727139
32	0x3f963e85	1.173783
33	0xbd3410dc	-0.04396139
34	0xbe02c77f	-0.12771414
35	0x3ee18539	0.44046953
36	0xbf172e3a	-0.5905491
37	0xbfa39318	-1.2779264
38	0x3d7dae53	0.061933827
39	0x3e5bcdbb	0.21465199
40	0x3e03e4d0	0.12880254
41	0x3ea3b56b	0.31974348
42	0xbecde01d	-0.40210047
43	0xbe1b3b37	-0.15159307
44	0x3d6debf9	0.05808637
45	0x3d725a8d	0.059168387
46	0x3e35f563	0.17769389
47	0xbdaed5a1	-0.0853684
48	0xbe23c8ac	-0.15994519
49	0xbe87244f	-0.2639489
50	0x3e357f70	0.17724395
51	0x3da1e90e	0.0790578
52	0xbf305454	-0.68878675
53	0xbeb8190a	-0.35956603
54	0x3dc15d7a	0.09441657
55	0x3f07b487	0.5300984
56	0x3e951c02	0.2912293
57	0xbe113610	-0.1418078
58	0x3dcc7a26	0.099842355
59	0x3ed8e53f	0.423624
60	0x3e5bf68d	0.2148077
61	0x3f2fe821	0.68713576
62	0xbf1cd9bc	-0.61269736
63	0xbddd7229	-0.1081279
64	0xbf62107a	-0.8830639
65	0xbf63a086	-0.88916814
66	0x3ed63681	0.41838458
67	0x3f15b0cf	0.58472914
68	0x3f6c20a1	0.9223729
69	0x3eb78546	0.35843867
70	0xbf2b5c61	-0.66937834
71	0x3e6fe4a2	0.2342706
72	0xbf838acb	-1.0276731
73	0x3f30dac5	0.69083816
74	0x3f24eebf	0.644268
75	0xbec51d41	-0.3849888
76	0xbee54c40	-0.44784737
77	0xbec75c11	-0.3893743
78	0x3bf440a7	0.007453996
79	0xbea3cd7f	-0.3199272
80	0xbf092a50	-0.5358019
81	0x3dd61a74	0.10454264
82	0x3f695753	0.9114887
83	0xbf2d1f9e	-0.6762637
84	0xbf1bdef9	-0.60887104
85	0xbd887c0a	-0.066642836
86	0x3f33d229	0.70242554
87	0x3e168a9e	0.14701316
88	0x3f48be66	0.78415525
89	0x3c203b39	0.009779745
90	0x3f314c1f	0.69256777
91	0xbd5dafaf	-0.054122623
92	0xbe04c0f5	-0.12964232
93	0x3e49ca0a	0.19705978
94	0xbff1cc4c	-1.8890471
95	0x3f21d4d2	0.63215363
96	0x3dcf36fe	0.10117911
97	0x3ee55615	0.44792238
98	0xbcd3184b	-0.02576842
99	0xbe5a8634	-0.21340257
100	0x3ecc4f24	0.3990413
101	0x3ea9fa94	0.33198988
102	0xbf0ec6e5	-0.5577224
103	0x3e1e7c4a	0.154771
104	0xbfacfce5	-1.3514677
105	0xbf3153b0	-0.6926832
106	0xbf246b18	-0.6422591
107	0xbec15d53	-0.37766513
108	0xbeafa4f1	-0.34305528
109	0x3f05d27e	0.5227431
110	0x3f9ddbdd	1.2332722
111	0x3f055173	0.52077407
112	0xbea88bd2	-0.32919174
113	0x3afbe354	0.0019217529
114	0xbdb8dad2	-0.09026112
115	0xbf2917cf	-0.66051954
116	0x3f7c5f08	0.98582506
117	0xbf70dfcd	-0.9409149
118	0x3ed778f4	0.42084467
119	0xbd3bb1fb	-0.045824032
120	0x3edcb0a2	0.4310351
121	0x3f3b4727	0.73155445
122	0x3f098174	0.53713155
123	0xbed144ab	-0.40872702
124	0x3f140ff8	0.57836866
125	0xbea9e4ad	-0.33182278
126	0xbfa8d002	-1.3188479
127	0x3fa87a4e	1.3162324
128	0x3f9716cb	1.1803831
129	0xbf1bb7d8	-0.608274
130	0xbeb47215	-0.35243288
131	0xbd33aa36	-0.043863498
132	0xbf1033b4	-0.5632889
133	0xbddfaf24	-0.10922077
134	0x3fafa5eb	1.3722509
135	0x3ed650ca	0.41858512
136	0x3f275883	0.65369433
137	0xbea9cc8c	-0.3316387
138	0xbf0b5aac	-0.5443523
139	0xbf91510d	-1.135286
140	0x3f0fad20	0.5612354
141	0x3f35f14c	0.71071315
142	0x3ee4821b	0.44630513
143	0xbe92b739	-0.28655413
144	0x3f83c753	1.0295204
145	0x3f330121	0.699236
146	0x3f521a2d	0.8207119
147	0x3d8f6031	0.07000769
148	0x3e8f2ec2	0.2796536
149	0xbece3ef5	-0.40282407
150	0x3e318a43	0.17337899
151	0xbf1892e3	-0.5959913
152	0xbf05ab59	-0.5221458
153	0x3e40c2be	0.18824288
154	0x3e9f64e3	0.31131658
155	0xbf5d6205	-0.8647769
156	0xbe05f503	-0.13081746
157	0xbee164e8	-0.44022298
158	0xbe51d313	-0.20490675
159	0x3e072eb2	0.13201407
160	0xbeac106d	-0.33606282
161	0x3ed49dc8	0.41526628
162	0x3ee20be0	0.44149685
163	0x3f921027	1.1411179
164	0xbeb779ab	-0.35835013
165	0xbf58d795	-0.8470395
166	0x3f0ce6d7	0.55039734
167	0xbd894ddd	-0.06704304
168	0xbe544179	-0.20728101
169	0xbf608685	-0.8770526
170	0x3fa23e4c	1.2675261
171	0xbf3f7490	-0.74787235
172	0x3e2a612e	0.16638634
173	0xbd9744ab	-0.07386144
174	0x3f3f1049	0.74634224
175	0x3f3d8873	0.7403633
176	0x3f8941f7	1.0723256
177	0x3ec6faf0	0.38863325
178	0xbe1d108d	-0.15338345
179	0xbe607e09	-0.21923079
180	0xbe9d2a94	-0.30696547
181	0x3dec9d3c	0.115534276
182	0x3f8673a4	1.0504041
183	0x3eabf72d	0.33587018
184	0x3fdf3c26	1.7440231
185	0x3fb84147	1.4394921
186	0xbefa2262	-0.48854357
187	0x3f0ce517	0.55037063
188	0x3f018c1f	0.5060443
189	0xbdea9e78	-0.11456007
190	0xbf0a9a9f	-0.54142183
191	0xbefbcc00	-0.49179077
192	0xbf58a197	-0.84621567
193	0x3ee0a1d9	0.4387348
194	0x3e226d8d	0.15862103
195	0x3f8ff247	1.1245812
196	0x3e468065	0.19384916
197	0x3f08001d	0.5312517
198	0xbcefb82e	-0.029262628
199	0x3dd7355b	0.105082236
200	0xbf07c1fa	-0.5303036
201	0xbf625c2e	-0.88421905
202	0xbc9ab0b4	-0.018883087
203	0xbec2fb0b	-0.38082156
204	0x3f16ac79	0.5885692
205	0xbeda12af	-0.4259238
206	0x3ea8c6ec	0.32964265
207	0xbf5f8211	-0.8730784
208	0x3f32fb9d	0.6991518
209	0xbf65e054	-0.8979542
210	0xbf330e07	-0.6994328
211	0xbf63917f	-0.88893884
212	0x3e2a4545	0.16627987
213	0x3f0e97ac	0.5570018
214	0x3e888c42	0.26669508
215	0x3f210b0a	0.6290747
216	0xbf757ae5	-0.9589065
217	0x3ebe4c4d	0.37167588
218	0xbda250da	-0.079255775
219	0xbe81dafa	-0.25362378
220	0x3eb859af	0.36005923
221	0x3f46209d	0.77393514
222	0x3eb9d706	0.36296862
223	0xbda915fd	-0.08256147
224	0x3e00d7a3	0.12582259
225	0x3e0c1289	0.13678946
226	0x3e4b7869	0.19870152
227	0x3f994324	1.1973615
228	0x3ec62123	0.38697156
229	0x3ee3de56	0.44505566
230	0xbe43c994	-0.19119865
231	0xbde9a20f	-0.11407863
232	0xbfbd3716	-1.4782436
233	0x3e83e6a3	0.257619
234	0xbea0b895	-0.31390825
235	0xbf78b68d	-0.9715355
236	0x3efba71a	0.49150926
237	0x3f27184f	0.65271467
238	0x3f7399be	0.95156467
239	0xbf1f536c	-0.62236667
240	0x3f61d930	0.88222027
241	0xbe64089b	-0.22268908
242	0xbcfffe8c	-0.031249307
243	0x3f54b9e8	0.8309617
244	0xbefaf17d	-0.49012366
245	0x3d2ead45	0.04264571
246	0xbe6abfe7	-0.22924767
247	0xbee8ea12	-0.4549108
248	0x3e1f72cf	0.1557114
249	0xbdb232d0	-0.08701098
250	0xbf16cfaf	-0.5891065
251	0xbd6d454b	-0.05792741
252	0x3f53d911	0.8275309
253	0xbedb71e1	-0.4286032
254	0x3f4a70ab	0.7907817
255	0xbeb5b24d	-0.35487595

gnn_base.gnn.gnn1.lin_value.bias f4 [48]
0	0xbcc00ba8	-0.023443058
1	0x3e96331f	0.29335877
2	0xbe07f60b	-0.13277452
3	0xbe7e6896	-0.24844584
4	0xbe8e4e0f	-0.2779393
5	0x3ea73bad	0.32662717
6	0x3e0e9b48	0.13926423
7	0xbf2b4897	-0.6690764
8	0x3e7f310c	0.24921054
9	0xbeae8922	-0.34089
10	0x3e288472	0.16456774
11	0xbe86a972	-0.26301152
12	0x3e9ba7c6	0.30401438
13	0x3d8c41a1	0.06848455
14	0x3df0dbe2	0.11760689
15	0xbe06fdef	-0.13182805
16	0x3e67ea8a	0.22648063
17	0x3ea42604	0.32060254
18	0xbe7351c7	-0.23761664
19	0xbeec9897	-0.46210167
20	0xbe2a1f4f	-0.16613506
21	0x3f00add0	0.50265217
22	0xbbf7d9ff	-0.007563829
23	0xbf14bec2	-0.58103573
24	0x3e75dcca	0.24010006
25	0xbe490021	-0.19628955
26	0x3f011875	0.50427943
27	0xbe93a732	-0.28838497
28	0x3f0e84d7	0.5567145
29	0x3ed9b2c6	0.42519206
30	0x3d5ab7d2	0.05339796
31	0xbe740241	-0.23828985
32	0x3dd8fc76	0.10595028
33	0xbd8b9628	-0.068157494
34	0x3e104539	0.14088906
35	0xbf147f6a	-0.5800692
36	0xbcbfe8a2	-0.023426358
37	0x3eebc89c	0.4605149
38	0xbdb13b2d	-0.08653865
39	0xbf05a298	-0.52201223
40	0x3dd6849a	0.104745105
41	0xbe4ca587	-0.19985019
42	0x3ebc0015	0.36718813
43	0x3cdd50d9	0.02701609
44	0x3e57db48	0.21079743
45	0x3c683b2c	0.014174264
46	0xbc2e649f	-0.010644107
47	0xbea3f9f2	-0.3202663

gnn_base.gnn.gnn1.lin_edge.weight f4 [48, 1]
0	0x3f70bc18	0.9403701
1	0x3e8b029b	0.27150425
2	0x3fcbebdd	1.5931355
3	0xbfb40497	-1.4063901
4	0xbcfc5e54	-0.030806698
5	0x3f5af93d	0.8553656
6	0xbf756cf0	-0.9586935
7	0xbeab3259	-0.3343685
8	0x3d22560a	0.039632834
9	0x3e37de07	0.1795579
10	0x3fb7a900	1.434845
11	0x3e9cb1b1	0.30604318
12	0xbe1e7265	-0.15473326
13	0xbe5fde97	-0.21862255
14	0x3f0e8d51	0.5568438
15	0x3fe5f816	1.7966335
16	0x3ff71f47	1.930642
17	0xbf89f8a0	-1.0778999
18	0x3f0cd585	0.55013305
19	0xbeea7ea9	-0.4579976
20	0x3e719eba	0.23595706
21	0x3fc8fa65	1.5701414
22	0x3ed93aae	0.42427582
23	0x3f8f7e3e	1.1210401
24	0xbdacaf31	-0.084318526
25	0xbf9f21c1	-1.2432176
26	0x3f14e58a	0.5816275
27	0xbf501886	-0.8128742
28	0x3f8c66d1	1.0968877
29	0x3ea7a893	0.327458
30	0x3f179db4	0.5922501
31	0xbfa18e28	-1.2621508
32	0xbf65aea7	-0.89719623
33	0xbe7412b2	-0.23835257
34	0x3f9370fb	1.1518854
35	0xbefca182	-0.4934197
36	0xc002dca7	-2.0447176
37	0x3e6e2d68	0.23259509
38	0x3f6e61fa	0.9311825
39	0x3fdaa688	1.7082071
40	0x3ee2774a	0.44231635
41	0x3f85bd0a	1.0448315
42	0x3ffcbe91	1.9745656
43	0xbf22cc00	-0.6359253
44	0x3d5b9969	0.0536131
45	0xbf4a2bfc	-0.78973365
46	0x3d1c1942	0.038110025
47	0x3f9f76fb	1.2458185
