ResultsForTesting/critic.pt (torch, 197669 bytes, 61 tensors)

gnn_base.gnn.embed_layer.entity_embed.weight f4 [3, 2]
0.39797777 -1.0377958 -1.2464272 0.45099494 1.2363174 -0.41216326
00000000: bec3 cb3e 7ed6 84bf ed8a 9fbf cfe8 e63e
00000010: a63f 9e3f 1007 d3be

gnn_base.gnn.embed_layer.lin1.0.weight f4 [16, 9]
0.02847373 -0.0025116531 -0.6608541 0.16383167 0.7019611 -0.23538347 0.7245588 0.16385935
0.042115573 0.16701725 -0.13649787 0.5209473 -0.32068205 -0.12531847 0.13355881 -0.058463313
-0.0712373 -0.66444767 0.018140208 -0.007607513 -0.21248335 0.6180104 0.17006609 -0.6071319
-0.354514 0.3025192 -0.31287768 -0.07441036 -0.0133125195 -0.3774209 0.38449585 0.15484193
-0.17841457 0.2588446 -0.24695013 -0.07755821 0.048022646 0.040085893 0.03673855 -0.095473535
0.37141898 -0.031682163 -0.5772704 0.3345824 -0.57467026 0.0029645946 0.0029066752 0.1160881
0.7512838 -0.031253044 -0.8108094 -0.2213632 0.34474325 0.5561259 0.017862028 -0.00021540964
-0.093215704 -0.28897712 0.13868779 0.21559547 0.3286198 -0.42131674 -0.13371009 -0.068989016
0.1447321 -0.21393406 -0.10631336 0.21972768 0.42540804 -0.2784303 0.5510456 0.18514416
0.029093616 -0.010292138 0.2877874 0.047976363 -0.3090292 -0.01995434 0.41141182 0.30567387
0.810285 0.06801069 0.010798263 0.4558218 0.0483488 -0.4373198 -0.09514231 0.27571908
-0.43308607 0.15299132 0.011138083 -0.019418102 -0.31190577 -0.5888746 0.25898698 0.63543034
0.52762544 0.059805386 -0.3263085 0.01622662 -0.017956886 -0.3977197 -0.060201406 0.40376404
0.041389383 -0.18755955 -0.2115878 0.656412 0.042267554 -0.02395024 0.3078408 -0.3384515
-0.30497378 0.336361 0.85723704 0.5023856 -0.011501928 0.06442713 0.095105045 0.17996079
0.20605834 -0.446291 -0.0954689 -0.22952993 0.97213846 -0.27449906 0.111659534 -0.17090268
-0.1979367 -0.14548096 0.33605662 0.24296488 -0.45214963 0.6631359 -0.064325206 0.012302546
-0.04789693 0.13093762 -0.7866306 -0.13628338 0.74050635 -0.50081414 -0.15257521 0.16356085
00000000: bd41 e93c 8c9a 24bb bc2d 29bf 7dc3 273e
00000010: b9b3 333f 5d08 71be af7c 393f bfca 273e
00000020: 6181 2c3d 9206 2b3e 19c6 0bbe cd5c 053f
00000030: 7030 a4be 7c53 00be a4c3 083e 3a77 6fbd
00000040: dde4 91bd 3e19 2abf c69a 943c 7248 f9bb
00000050: 3c95 59be ee35 1e3f ce25 2e3e ff6c 1bbf
00000060: dc82 b5be cce3 9a3e 8131 a0be 7564 98bd
00000070: c11c 5abc 503d c1be a4dc c43e e28e 1e3e
00000080: 4fb2 36be 4887 843e 7fe0 7cbe d7d6 9ebd
00000090: 65b3 443d 1b31 243d 297b 163d a187 c3bd
000000a0: a12a be3e 28c5 01bd fec7 13bf 624e ab3e
000000b0: 971d 13bf a549 423b eb7d 3e3b 99bf ed3d
000000c0: 2354 403f 3103 00bd 3491 4fbf 09ad 62be
000000d0: 3082 b03e 445e 0e3f 6353 923c 96df 61b9
000000e0: e0e7 bebd cff4 93be 2c04 0e3e 0fc5 5c3e
000000f0: db40 a83e d4b6 d7be 4ceb 08be 1d4a 8dbd
00000100: a734 143e 8811 5bbe d2ba d9bd 4b00 613e
00000110: 15cf d93e 6b8e 8ebe 5311 0d3f 6e96 3d3e
00000120: bc55 ee3c 5ba0 28bc df58 933e dd82 443d
00000130: 1339 9ebe 4977 a3bc 92a4 d23e 4981 9c3e
00000140: d66e 4f3f 3049 8b3d 33eb 303c 7a61 e93e
00000150: 6409 463d 61e8 dfbe f9d9 c2bd 0d2b 8d3e
00000160: 75bd ddbe c2a9 1c3e 827c 363c b612 9fbc
00000170: 1db2 9fbe 7cc0 16bf f199 843e 90ab 223f
00000180: 7612 073f 7ef6 743d e811 a7be b0ed 843c
00000190: 521a 93bc eba1 cbbe c095 76bd 29ba ce3e
000001a0: ea87 293d 9c0f 40be 79aa 58be 9e0a 283f
000001b0: be20 2d3d 4b33 c4bc 4f9d 9d3e 8449 adbe
000001c0: 8625 9cbe 8237 ac3e e373 5b3f 589c 003f
000001d0: 9572 3cbc 5ff2 833d 6fc6 c23d a447 383e
000001e0: f500 533e 4180 e4be 3385 c3bd e509 6bbe
000001f0: 11de 783f 248b 8cbe c1ad e43d 1d01 2fbe
00000200: ebaf 4abe f6f8 14be 9d0f ac3e c9cb 783e
00000210: 2880 e7be 46c3 293f efbc 83bd 9e90 493c
00000220: 922f 44bd 8314 063e 9f60 49bf df8d 0bbe
00000230: d391 3d3f 5b35 00bf ad3c 1cbe 7f7c 273e

gnn_base.gnn.embed_layer.lin1.0.bias f4 [16]
0.055819318 -0.22789073 0.28829315 0.07172108 -0.026638562 0.025651308 -0.0026653132 -0.25826877
0.19288462 0.064239204 0.06623953 0.06754386 0.078677796 0.13279559 -0.0049868906 -0.04144541
00000000: cca2 643d 305c 69be 299b 933e 80e2 923d
00000010: 1d39 dabc b122 d23c 89ac 2ebb ce3b 84be
00000020: 8c83 453e d88f 833d 97a8 873d 6f54 8a3d
00000030: d321 a13d 91fb 073e 1269 a3bb aac2 29bd

gnn_base.gnn.embed_layer.lin1.2.weight f4 [16]
1.103125 0.81521 1.175047 0.77169216 0.87022626 1.018668 0.78460896 0.4551737
1.0930581 0.8673265 1.272084 1.2589056 1.1467475 0.94804347 0.82647383 1.3050674
00000000: 3333 8d3f 9ab1 503f f167 963f 9e8d 453f
00000010: 26c7 5e3f b763 823f 22dc 483f 870c e93e
00000020: 54e9 8b3f 1c09 5e3f a6d3 a23f d223 a13f
00000030: 9fc8 923f fab2 723f ca93 533f 730c a73f

gnn_base.gnn.embed_layer.lin1.2.bias f4 [16]
0.048806515 0.10512577 0.14603722 0.032630377 0.11023079 0.09066708 -0.120148845 0.26066548
0.07490665 -0.12870312 -0.011579001 -0.15006581 0.07313816 0.01464702 0.05370462 -0.073248684
00000000: 57e9 473d 2e4c d73d c88a 153e 6ea7 053d
00000010: aec0 e13d a9af b93d 9910 f6bd f275 853e
00000020: a868 993d c0ca 03be dab5 3dbc daaa 19be
00000030: 76c9 953d 0efa 6f3c 60f9 5b3d 6803 96bd

gnn_base.gnn.embed_layer.lin_h.0.weight f4 [16, 16]
0.44906032 -0.012606242 0.08188403 -0.13219342 0.12561668 -0.8380778 -0.081769876 0.05500338
0.11037839 -0.06764644 -0.21708566 -0.14953889 -0.23200685 -0.89973736 0.30326366 -0.06759508
0.030089185 -0.25589553 -0.38736427 -0.18820435 -0.31008434 -0.0862347 -0.88061064 0.59141105
0.20676361 0.33123875 0.111518756 0.5518997 -0.1679825 0.0447514 -0.11437771 0.080661565
-0.46191612 0.24101573 0.73724675 0.08389699 0.15169437 0.14802784 -0.12067343 0.42938575
0.5095344 -0.19289961 0.14999652 -0.02893709 -0.5827353 0.112899244 0.48468676 -0.16338779
0.06889904 -0.43592703 0.38367027 0.13055077 0.64203674 0.023826499 -0.27262866 -0.18823145
0.12563588 -0.5237128 0.23136303 0.24786982 -0.059271477 -0.16653672 -0.7376066 0.37161562
0.27259177 0.42763472 0.2655139 -0.8068458 -0.021181412 -0.36117366 0.28237757 -0.19460411
0.41246316 0.2985637 0.5442507 0.17682289 0.091970734 0.31678078 -0.26500285 0.083932884
-0.15614402 -0.37950477 0.05021022 0.560759 -0.61964256 -0.21477899 0.47619358 0.17139591
0.3796175 -0.0616189 0.61567444 0.14352873 0.30076075 -0.30552 -0.16842453 -0.26205236
0.26532397 0.5736133 -0.18366933 -0.17977677 -0.11000528 0.40975258 -0.08781557 0.11007167
-0.38878116 -0.7357618 0.48029667 0.4292571 0.107102096 -0.369542 0.21420792 -0.18256778
0.17815134 -0.34062138 -0.37870157 -0.35334224 -0.14368361 0.4338084 0.47080776 0.20684823
-0.0037487843 -0.016941056 0.21291904 -0.39682046 -0.887283 -0.19080614 -0.23464578 0.16986436
1.0351812 -0.43996546 0.25291955 0.2640607 -0.07708546 0.19762126 -0.017716406 -0.11303825
0.12505071 -0.0440136 0.06803241 0.11056547 -0.033004664 0.47574705 0.5295878 0.027022889
-0.4617717 -0.63011837 -0.17268896 -0.47422782 0.21600585 0.16586024 0.07270566 -0.61034536
0.12124149 0.07429222 0.14246014 0.4303065 0.05589683 -0.22808456 0.62348336 -0.11607134
0.0711241 -0.2875181 0.5227589 -0.14305748 0.29135033 0.04532136 0.1452811 0.40278846
-0.79865915 0.5187873 0.17217785 0.17145365 0.009243877 -0.096883506 -0.14826697 -0.5922455
0.12941344 0.28207493 0.45570934 0.15602896 -0.3439118 0.63060594 -0.12303905 -0.35602555
0.1262694 0.61638707 -0.1547695 0.1747458 -0.013261719 -0.64996237 -0.10998482 0.35881436
-0.10422555 0.15631206 -0.086023845 0.39949265 -0.076980114 -0.30300242 -0.47759092 -0.63260794
-0.40144244 0.22312984 0.7123113 -0.2871877 -0.4982021 0.1216282 0.07056287 -0.053866584
0.09546674 -0.17880097 0.17174 -0.37163475 -0.33342692 0.26094216 -0.50631785 -0.2860902
0.27536657 -0.2454044 -0.13827392 -0.56034 0.1645786 -0.0475223 -0.31147072 -0.82360816
0.09589481 0.025070183 -0.26552996 0.050779223 0.6115055 0.30491635 -0.1863424 0.34339422
0.2764665 0.32706213 0.5346667 -0.6294688 0.55002946 -0.23209007 0.23749419 0.1386726
0.20661859 0.3231162 -0.46925625 0.4008547 0.5374887 0.12605125 0.17905678 -0.17607778
0.45464402 0.25717744 -0.14909077 0.40885633 -0.30806568 -0.014689159 -0.23399875 -0.70147145
00000000: 3ceb e53e 698a 4ebc d0b2 a73d b65d 07be
00000010: a9a1 003e 448c 56bf f776 a7bd 394b 613d
00000020: 110e e23d 378a 8abd b44b 5ebe b920 19be
00000030: 3493 6dbe 3055 66bf 6045 9b3e 4a6f 8abd
00000040: 987d f63c bd04 83be 9c54 c6be a4b8 40be
00000050: 60c3 9ebe d29b b0bd b36f 61bf b766 173f
00000060: d7b9 533e 2098 a93e f263 e43d 4c49 0d3f
00000070: 9b03 2cbe 3e4d 373d dc3e eabd e431 a53d
00000080: 4580 ecbe d4cc 763e 34bc 3c3f 2fd2 ab3d
00000090: c555 1b3e 9c94 173e a223 f7bd 73d8 db3e
000000a0: d970 023f 7a87 45be b098 193e 7a0d edbc
000000b0: 242e 15bf b837 e73d dd28 f83e 214f 27be
000000c0: f11a 8d3d d431 dfbe 6e70 c43e 1aaf 053e
000000d0: 855c 243f ca2f c33c fc95 8bbe bfbf 40be
000000e0: b1a6 003e 0b12 06bf 6eea 6c3e 96d1 7d3e
000000f0: a6c6 72bd 9a88 2abe c9d3 3cbf 6744 be3e
00000100: 2691 8b3e f0f2 da3e 70f1 873e 728d 4ebf
00000110: a484 adbc c1eb b8be cb93 903e 4d46 47be
00000120: 5f2e d33e 57dd 983e 0454 0b3f 0f11 353e
00000130: 275b bc3d 1731 a23e 74ae 87be 01e5 ab3d
00000140: 38e4 1fbe 734e c2be 3ba9 4d3d e78d 0f3f
00000150: e5a0 1ebf 06ef 5bbe a5cf f33e 6982 2f3e
00000160: 3a5d c23e 1a64 7cbd d79c 1d3f 32f9 123e
00000170: 50fd 993e 1e6d 9cbe 7b77 2cbe ba2b 86be
00000180: 8bd8 873e 52d8 123f d013 3cbe 6717 38be
00000190: 734a e1bd 17cb d13e a6d8 b3bd 416d e13d
000001a0: 530e c7be e35a 3cbf 72e9 f53e 96c7 db3e
000001b0: 5858 db3d 9c34 bdbe 5259 5b3e 0cf3 3abe
000001c0: 4e6d 363e ed65 aebe 2ce5 c1be 46e9 b4be
000001d0: cc21 13be 221c de3e b70d f13e 06d0 533e
000001e0: 2aae 75bb f8c7 8abc 7307 5a3e 0d2c cbbe
000001f0: fb24 63bf af62 43be fc46 70be ecf0 2d3e
00000200: d180 843f 2743 e1be ac7e 813e f732 873e
00000210: fbde 9dbd 3a5d 4a3e ff21 91bc 9980 e7bd
00000220: 4b0d 003e 9b47 34bd 9454 8b3d 2670 e23d
00000230: e62f 07bd 1e95 f33e 1193 073f 1b5f dd3c
00000240: 576d ecbe 704f 21bf 60d5 30be fdcd f2be
00000250: a330 5d3e 44d7 293e b4e6 943d 983f 1cbf
00000260: 754d f83d 8526 983d 12e1 113e 2251 dc3e
00000270: 13f4 643d 008f 69be 9b9c 1f3f d0b6 edbd
00000280: 83a9 913d 9335 93be 87d3 053f a97d 12be
00000290: df2b 953e e4a2 393d 92c4 143e 4a3a ce3e
000002a0: ed74 4cbf 3fcf 043f 644f 303e 8c91 2f3e
000002b0: a173 173c dc6a c6bd 4cd3 17be 679d 17bf
000002c0: f584 043e 206c 903e bc52 e93e 0ec6 1f3e
000002d0: 3515 b0be 646f 213f e6fb fbbd fb48 b6be
000002e0: c44c 013e 8bcb 1d3f e57b 1ebe 90f0 323e
000002f0: ae47 59bc ef63 26bf b93f e1bd 84b6 b73e
00000300: 3574 d5bd 4510 203e 452d b0bd 4d8a cc3e
00000310: c0a7 9dbd 2223 9bbe cc86 f4be 98f2 21bf
00000320: dd89 cdbe 267c 643e 095a 363f 440a 93be
00000330: 5814 ffbe 3518 f93d 4483 903d 35a3 5cbd
00000340: 1184 c33d 9a17 37be 9cdc 2f3e e946 bebe
00000350: efb6 aabe 369a 853e 0c9e 01bf 6a7a 92be
00000360: d9fc 8c3e 4b4b 7bbe ae97 0dbe 7172 0fbf
00000370: 4b87 283e bea6 42bd 1779 9fbe fcd7 52bf
00000380: 8064 c43d fc5f cd3c 8bf3 87be e0fd 4f3d
00000390: a08b 1c3f ff1d 9c3e 8bd0 3ebe 5ed1 af3e
000003a0: 048d 8d3e b074 a73e ebdf 083f de24 21bf
000003b0: bbce 0c3f 05a9 6dbe ad31 733e 3100 0e3e
000003c0: d393 533e 7d6f a53e 5b42 f0be d43c cd3e
000003d0: dc98 093f 9413 013e a95a 373e bc4d 34be
000003e0: 1ac7 e83e c3ac 833e 40ab 18be 9e55 d13e
000003f0: c9ba 9dbe ccaa 70bc 5e9d 6fbe a293 33bf

gnn_base.gnn.embed_layer.lin_h.0.bias f4 [16]
0.0 0.0 0.0 0.0 0.0 0.0 0.0 0.0
0.0 0.0 0.0 0.0 0.0 0.0 0.0 0.0
00000000: 0000 0000 0000 0000 0000 0000 0000 0000
00000010: 0000 0000 0000 0000 0000 0000 0000 0000
00000020: 0000 0000 0000 0000 0000 0000 0000 0000
00000030: 0000 0000 0000 0000 0000 0000 0000 0000

gnn_base.gnn.embed_layer.lin_h.2.weight f4 [16]
1.103125 0.81521 1.175047 0.77169216 0.87022626 1.018668 0.78460896 0.4551737
1.0930581 0.8673265 1.272084 1.2589056 1.1467475 0.94804347 0.82647383 1.3050674
00000000: 3333 8d3f 9ab1 503f f167 963f 9e8d 453f
00000010: 26c7 5e3f b763 823f 22dc 483f 870c e93e
00000020: 54e9 8b3f 1c09 5e3f a6d3 a23f d223 a13f
00000030: 9fc8 923f fab2 723f ca93 533f 730c a73f

gnn_base.gnn.embed_layer.lin_h.2.bias f4 [16]
0.048806515 0.10512577 0.14603722 0.032630377 0.11023079 0.09066708 -0.120148845 0.26066548
0.07490665 -0.12870312 -0.011579001 -0.15006581 0.07313816 0.01464702 0.05370462 -0.073248684
00000000: 57e9 473d 2e4c d73d c88a 153e 6ea7 053d
00000010: aec0 e13d a9af b93d 9910 f6bd f275 853e
00000020: a868 993d c0ca 03be dab5 3dbc daaa 19be
00000030: 76c9 953d 0efa 6f3c 60f9 5b3d 6803 96bd

gnn_base.gnn.embed_layer.lin2.0.0.weight f4 [16, 16]
0.3811803 -0.10051745 -0.006360266 0.022376608 0.113053046 -0.9171984 -0.07609396 -0.08699415
0.22794151 -0.031567886 -0.07010047 -0.18094704 -0.40786254 -0.84858114 0.32193694 -0.13872387
-0.20925005 -0.36870375 -0.5202487 -0.05697326 -0.32929286 0.112379245 -0.6441943 0.36950752
0.32814562 0.20985548 -0.2661366 0.75367385 -0.18327321 0.13499433 -0.096512705 -0.10968458
-0.64270616 0.33346233 0.94605786 -0.23365082 0.54847056 0.3560851 -0.4308041 0.545864
-0.10737219 -0.47155955 0.024508372 -0.07246791 -0.7056478 0.328866 0.5808509 0.21480043
0.08287419 -0.40364367 0.52902555 -0.0079324925 0.8210379 -0.08050472 -0.33595586 -0.08179593
-0.22852202 -0.29397756 0.28818828 -0.012439609 -0.02128445 -0.1904802 -0.4714514 0.51422405
0.5541947 0.31399244 0.27147758 -0.8000393 -0.016588442 -0.4382715 0.047727387 0.042679377
0.24429272 0.10341044 0.65840465 -0.17818648 0.33176926 0.3909232 -0.1907002 0.15807693
0.0931013 -0.42985734 -0.093831606 0.383813 -0.6272055 -0.34908783 0.38122427 0.06861534
0.49967623 0.01273379 0.6998014 0.29607204 0.33372688 -0.31201938 -0.12536746 -0.6240815
0.54699314 0.44168255 -0.17359085 0.06501623 -0.17748728 0.13985886 0.0053477474 0.22573136
-0.7111085 -0.65846676 0.85429996 0.27868134 0.10151218 -0.515037 0.14412428 0.06927511
0.08861336 -0.34971246 -0.55817133 -0.1440788 -0.28032678 0.04196544 0.6005046 -0.08130919
0.066036336 0.21146154 0.35798636 -0.03451272 -1.0629073 -0.3561341 -0.3201435 0.32514122
1.1152335 -0.46414134 0.276328 0.42032698 0.0502058 -0.0060220817 0.09201917 0.107485875
0.05574649 -0.19295181 -0.01824598 0.2510583 0.043019075 0.44204578 0.54852086 -0.15820584
-0.23450218 -0.47227094 -0.11359064 -0.4666264 0.127021 0.3971247 -0.065640956 -0.21089807
0.009886238 -0.13590203 -0.13618487 0.5894227 -0.17050642 -0.16584015 0.49414214 -0.35842976
0.23118469 -0.22831085 0.27169648 -0.26783162 0.14567003 -0.33504277 0.10740132 0.33652294
-0.40166408 0.4907139 0.41446266 0.36882806 0.19991498 -0.15923278 -0.19696355 -0.7381308
0.047144953 0.24832453 0.5511907 0.38462436 -0.1325696 0.463904 0.27046984 -0.12831958
-0.0821991 0.703543 -0.20177391 0.07503674 -0.21284823 -0.49874726 -0.17235515 0.006864943
-0.15666975 0.494937 0.035531946 0.17659505 0.03270543 -0.28655413 -0.026348177 -0.33572847
-0.79612684 0.14201762 0.301608 -0.56989956 -0.1777927 0.21776585 0.13035762 -0.43701997
0.0783449 -0.30328357 0.20795882 -0.26560625 -0.39943868 0.37292054 -0.30691946 -0.45344073
0.29625607 -0.019304788 -0.30415303 -0.72701216 0.2763672 -0.19839989 -0.42216814 -0.9221426
-0.04500374 0.12988807 -0.3886564 -0.055818927 0.50522995 0.23356616 0.0557042 0.29454792
0.33283442 0.46915865 0.585846 -0.9384108 0.64649886 -0.30040148 0.029271958 0.441565
0.15125261 0.21478777 -0.611525 0.3133163 0.41619068 -0.10962027 0.2714754 -0.13185902
0.5570915 0.18033977 -0.061786946 0.62257993 -0.24881355 -0.00935172 -0.172464 -0.6237306
00000000: 102a c33e 18dc cdbd c769 d0bb 264f b73c
00000010: 5b88 e73d 84cd 6abf 26d7 9bbd fd29 b2bd
00000020: 8069 693e 544d 01bd d690 8fbd 2e4a 39be
00000030: 5cd3 d0be 9d3c 59bf ebd4 a43e a10d 0ebe
00000040: a545 56be bdc6 bcbe 052f 05bf cb5c 69bd
00000050: 1399 a8be 1727 e63d ebe9 24bf 1730 bd3e
00000060: b402 a83e 5be4 563e 0e43 88be c5f0 403f
00000070: f9ab 3bbe f43b 0a3e 74a8 c5bd 4fa2 e0bd
00000080: 6488 24bf 93bb aa3e d930 723f 2942 6fbe
00000090: 9168 0c3f c950 b63e 5b92 dcbe bebd 0b3f
000000a0: f3e5 dbbd 4170 f1be c8c5 c83c 0e6a 94bd
000000b0: 56a5 34bf 2061 a83e a5b2 143f a5f4 5b3e
000000c0: f1b9 a93d 62aa cebe 386e 073f 49f7 01bc
000000d0: 8a2f 523f a9df a4bd 6802 acbe a084 a7bd
000000e0: ad01 6abe 3a84 96be 6a8d 933e 80cf 4bbc
000000f0: ba5c aebc 3e0d 43be 1462 f1be 30a4 033f
00000100: b4df 0d3f 9ec3 a03e 1cff 8a3e 60cf 4cbf
00000110: 7ce4 87bc 1f65 e0be cb7d 433d 92d0 2e3d
00000120: df27 7a3e dac8 d33d 358d 283f 8476 36be
00000130: a9dd a93e 1627 c83e ea46 43be ebde 213e
00000140: e5ab be3d 4316 dcbe c92a c0bd 2383 c43e
00000150: 8a90 20bf a4bb b2be d42f c33e 3386 8c3d
00000160: 90d5 ff3e 63a1 503c 2f26 333f c196 973e
00000170: 40de aa3e 01c1 9fbe 5460 00be cec3 1fbf
00000180: be07 0c3f 3724 e23e cdc1 31be 3b27 853d
00000190: 3abf 35be 2937 0f3e 283c af3b 1f26 673e
000001a0: 350b 36bf 4791 28bf 67b3 5a3f 52af 8e3e
000001b0: 9ee5 cf3d 77d9 03bf 5195 133e 1ce0 8d3d
000001c0: ec7a b53d 830d b3be 51e4 0ebf 6589 13be
000001d0: fe86 8fbe f4e3 2b3d abba 193f 6f85 a6bd
000001e0: 0f3e 873d 6089 583e fd49 b73e 365d 0dbd
000001f0: 590d 88bf 3557 b6be d9e9 a3be e978 a63e
00000200: f9bf 8e3f efa3 edbe dd7a 8d3e 1935 d73e
00000210: 99a4 4d3d e254 c5bb 8c74 bc3d 8e21 dc3d
00000220: 6e56 643d 2995 45be 9878 95bc b78a 803e
00000230: c534 303d d353 e23e dd6b 0c3f b600 22be
00000240: 5721 70be 7fcd f1be 36a2 e8bd a8e9 eebe
00000250: cb11 023e ee53 cb3e c46e 86bd aaf5 57be
00000260: e3f9 213c e729 0bbe 0c74 0bbe 68e4 163f
00000270: 3c99 2ebe 00d2 29be 3300 fd3e 1b84 b7be
00000280: aebb 6c3e 52ca 69be cd1b 8b3e 3a21 89be
00000290: 862a 153e ba8a abbe 39f5 db3d bc4c ac3e
000002a0: eaa6 cdbe da3e fb3e 7334 d43e 08d7 bc3e
000002b0: 83b6 4c3e eb0d 23be d0b0 49be 24f6 3cbf
000002c0: 111b 413d c948 7e3e d51a 0d3f 7ced c43e
000002d0: 53c0 07be d384 ed3e 067b 8a3e 3566 03be
000002e0: 0058 a8bd 651b 343f d29d 4ebe ddac 993d
000002f0: e3f4 59be cd5b ffbe de7d 30be 51f3 e03b
00000300: 096e 20be 6268 fd3e f289 113d 55d5 343e
00000310: 21f6 053d 39b7 92be 22d8 d7bc 9ae4 abbe
00000320: f8ce 4bbf 116d 113e 5d6c 9a3e f0e4 11bf
00000330: 4a0f 36be 03fe 5e3e 787c 053e 15c1 dfbe
00000340: 4a73 a03d fc47 9bbe 28f3 543e 8bfd 87be
00000350: 3a83 ccbe 71ef be3e 8c24 9dbe 6229 e8be
00000360: e0ae 973e 1325 9ebc f2b9 9bbe 781d 3abf
00000370: 0080 8d3e 5729 4bbe 6c26 d8be 8a11 6cbf
00000380: d755 38bd 6101 053e f9fd c6be 63a2 64bd
00000390: c056 013f f82b 6f3e 162a 643d fcce 963e
000003a0: 4669 aa3e 9035 f03e 01fa 153f b13b 70bf
000003b0: f380 253f 39ce 99be bfcb ef3c cf14 e23e
000003c0: f7e1 1a3e 53f1 5b3e e78c 1cbf fe6a a03e
000003d0: f216 d53e 9880 e0bd d3fe 8a3e 0d06 07be
000003e0: 8c9d 0e3f fdaa 383e 4f14 7dbd 6661 1f3f
000003f0: fbc8 7ebe f537 19bc 679a 30be cfac 1fbf

gnn_base.gnn.embed_layer.lin2.0.0.bias f4 [16]
-0.02991051 -0.057590064 0.076498166 0.026420966 -0.13541304 -0.03027768 0.036546487 0.040173713
0.06778262 -0.11943315 0.028102404 0.060413316 -0.36780488 0.1057435 0.11925438 -0.0049869874
00000000: e306 f5bc 8fe3 6bbd 12ab 9c3d c870 d83c
00000010: b7a9 0abe e608 f8bc c5b1 153d 318d 243d
00000020: 9dd1 8a3d 5e99 f4bd 0337 e63c f473 773d
00000030: ec50 bcbe 0c90 d83d a43b f43d e269 a3bb

gnn_base.gnn.embed_layer.lin2.0.2.weight f4 [16]
0.9508595 1.0677785 1.519896 0.9235069 0.93978405 0.9948612 1.1515666 0.9495133
1.2042404 0.9132466 0.9666193 1.3895667 1.077559 1.3116211 1.2840486 0.96523356
00000000: 876b 733f f7ac 883f f48b c23f f36a 6c3f
00000010: b095 703f 39af 7e3f 8966 933f 4e13 733f
00000020: 8d24 9a3f 87ca 693f 5d74 773f 52dd b13f
00000030: 74ed 893f 33e3 a73f b45b a43f 8c19 773f

gnn_base.gnn.embed_layer.lin2.0.2.bias f4 [16]
-0.06777127 -0.18981452 -0.0997718 0.18595496 0.13900013 -0.09190267 0.088373095 0.10870361
0.079656444 -0.049639363 0.06175008 0.0811605 -0.08800343 0.005089031 0.11232049 -0.22264367
00000000: aacb 8abd bd5e 42be 2855 ccbd fa6a 3e3e
00000010: 0d56 0e3e 7837 bcbd f4fc b43d 00a0 de3d
00000020: eb22 a33d a552 4bbd a7ed 7c3d 7a37 a63d
00000030: 243b b4bd e3c1 a63b 4908 e63d b4fc 63be

gnn_base.gnn.gnn1.lin_key.weight f4 [48, 16]
-0.27060294 -0.29906654 -0.07787693 0.08785627 0.20858757 -0.016314551 0.44187936 0.6598065
-0.022711385 0.10107154 -0.05509614 -0.13864602 -0.2277939 -0.4515113 0.041704305 0.40443674
0.2991243 0.36512673 -0.16274957 0.03740297 0.04016955 -0.059303913 0.31704658 -0.20074405
-0.039049853 0.10956154 -0.04856617 0.20333214 0.09658595 -0.17662913 0.11757074 -0.067379974
0.042909693 -0.13539074 0.084418476 -0.43058577 -0.40194827 0.4288199 -0.47715375 0.56479913
0.24455369 -0.19964878 -0.09479775 -0.050789163 -0.093478076 0.09051994 -0.29559538 0.30556163
0.16818011 -0.024509793 0.27789432 -0.21143073 -0.38928384 0.23049386 -0.035701662 0.38418728
-0.3774229 -0.03823523 -0.15667872 0.03134716 -0.37288556 -0.28780994 -0.14285164 -0.29090124
0.42327085 0.078437574 0.094171 -0.084694415 -0.18642494 -0.15263619 0.109454416 0.15853563
0.4236004 -0.28879973 -0.2829116 -0.1001022 0.3106487 0.22242884 -0.16127744 -0.2468901
0.01130354 -0.07080284 0.25875202 -0.21595262 -0.14906007 -0.028399965 -0.5414201 -0.10985586
0.16945557 -0.025328867 -0.0648508 -0.11512491 -0.098469734 0.3968109 0.3802315 -0.14113206
0.46097523 0.33311507 -0.16499706 0.19599652 0.36797753 -0.13738073 -0.24971275 -0.23854396
0.31443948 -0.21610115 -0.2268716 -0.09980794 -0.029095326 -0.17375551 0.2185195 0.012410491
0.22771825 0.061285093 0.14173648 -0.123817526 0.011494721 0.20106097 -0.022216288 -0.06746904
0.29157308 -0.29991615 -0.088362284 -0.007997034 -0.0031782303 -0.1749655 0.12708947 -0.43767798
0.31682897 0.16128427 0.3465237 0.24445596 -0.14243457 0.11925319 -0.16472556 -0.37699616
0.43566966 0.0019581346 -0.10940513 -0.15062483 0.09076636 0.34393644 0.12812562 -0.2459166
0.27067247 0.28777608 0.026147902 0.061441507 -0.23501812 -0.16094239 -0.35588676 -0.17055735
0.027913302 0.12935084 -0.18147048 -0.12944284 -0.21461923 0.3948937 0.36165866 0.031289518
0.21389093 -0.0844612 0.082170606 0.03519716 0.08630405 -0.038807552 -0.32722455 -0.16402742
-0.020610992 0.13692027 -0.090488315 -0.30192256 0.15007456 0.3684865 0.047492318 -0.44048455
-0.050866194 -0.07486786 0.10092278 0.10485387 -0.27115712 -0.17778453 0.06544186 -0.5298739
-0.41559905 -0.21198262 -0.20942165 -0.3125631 0.25695997 0.3634448 0.15181999 -0.34725168
-0.16838475 0.13067856 -0.0768294 -0.12958528 -0.2957514 0.08246019 0.28288063 0.4654739
-0.3216952 -0.1894371 0.38978797 -0.0425299 -0.20433737 -0.09526423 -0.24383818 0.19482355
0.2336686 0.22529277 0.08134007 0.041507203 0.25233936 -0.09671109 -0.3803087 -0.1672799
-0.27071562 0.3335208 -0.60093504 -0.10865106 -0.07000695 0.33805853 0.1397097 -0.18781023
0.045950625 -0.038832966 0.29004362 -0.044498112 -0.4027354 0.18482383 -0.15381484 -0.5368475
0.29601264 0.085219376 -0.163695 0.0726679 0.11250216 0.39416862 0.21665365 -0.4541404
-0.16965994 0.14040425 -0.21914838 -0.05668695 -0.31788203 -0.050014857 -0.3783329 -0.2399087
0.09855309 -0.020307256 -0.17183533 -0.32840356 0.38257554 0.51453716 -0.061914083 0.22556056
00000000: 788c 8abe 401f 99be f17d 9fbd fded b33d
00000010: fb97 553e 18a6 85bc 033e e23e 14e9 283f
00000020: 3a0d babc 98fe ce3d 7dac 61bd 39f9 0dbe
00000030: ce42 69be 7d2c e7be 22d2 2a3d 5512 cf3e
00000040: d226 993e e4f1 ba3e d3a7 26be db33 193d
00000050: d388 243d a9e8 72bd ee53 a23e d98f 4dbe
00000060: bdf2 1fbd cd61 e03d 52ed 46bd 4d36 503e
00000070: dbce c53d 44de 34be eec8 f03d 83fe 89bd
00000080: 13c2 2f3d dfa3 0abe 98e3 ac3d bd75 dcbe
00000090: 2acc cdbe 488e db3e 7f4d f4be ad96 103f
000000a0: 486c 7a3e bb70 4cbe 5325 c2bd 4c08 50bd
000000b0: 6f71 bfbd 8562 b93d 4758 97be 9372 9c3e
000000c0: 6837 2c3e c3c8 c8bc 2a48 8e3e 4c81 58be
000000d0: 3650 c7be 9506 6c3e e83b 12bd 32b4 c43e
000000e0: 933d c1be 8b9c 1cbd 6370 20be e165 003d
000000f0: dbea bebe d35b 93be b347 12be 02f1 94be
00000100: f5b6 d83e e1a3 a03d badc c03d 4474 adbd
00000110: 2ee6 3ebe a94c 1cbe a329 e03d 2a57 223e
00000120: 27e2 d83e 8fdd 93be cad9 90be 6202 cdbd
00000130: 590d 9f3e 63c4 633e ea25 25be c2d0 7cbe
00000140: 7c32 393c 1401 91bd 257b 843e af22 5dbe
00000150: 34a3 18be 0ba7 e8bc 829a 0abf 1cfc e0bd
00000160: c385 2d3e 7c7e cfbc 7fd0 84bd 9cc6 ebbd
00000170: 80aa c9bd cc2a cb3e b4ad c23e ec84 10be
00000180: f204 ec3e 0f8e aa3e fdf4 28be 50b3 483e
00000190: 8d67 bc3e 89ad 0cbe b3b4 7fbe de44 74be
000001a0: 36fe a03e 9f49 5dbe 0751 68be 1b68 ccbd
000001b0: 5259 eebc f7ec 31be 93c3 5f3e 5f55 4b3c
000001c0: f92e 693e 1406 7b3d 5e23 113e 0b94 fdbd
000001d0: 5b54 3c3c ede2 4d3e effe b5bc 352d 8abd
000001e0: 1149 953e 9c8e 99be 49f7 b4bd fe05 03bc
000001f0: db49 50bb 282a 33be be23 023e 5417 e0be
00000200: 6837 a23e b427 253e 8e6b b13e aa52 7a3e
00000210: 5eda 11be 043b f43d d1ad 28be a405 c1be
00000220: 1810 df3e 0c54 003b cc0f e0bd 653d 1abe
00000230: b7e3 b93d 7018 b03e 5d33 033e 90d1 7bbe
00000240: 9595 8a3e 6357 933e 2034 d63c 17aa 7b3d
00000250: 97a8 70be 15ce 24be ca36 b6be 96a6 2ebe
00000260: 70aa e43c 8c74 043e 66d3 39be aa8c 04be
00000270: 25c5 5bbe 822f ca3e 532b b93e 7029 003d
00000280: 3906 5b3e fef9 acbd 1049 a83d e62a 103d
00000290: 2ec0 b03d abf4 1ebd fa89 a7be cef6 27be
000002a0: 62d8 a8bc d434 0c3e f051 b9bd 9895 9abe
000002b0: 25ad 193e 43aa bc3e 4e87 423d 3187 e1be
000002c0: 1259 50bd 5254 99bd 9ab0 ce3d a0bd d63d
000002d0: 1bd5 8abe 260d 36be 6206 863d d1a5 07bf
000002e0: 66c9 d4be f911 59be a172 56be 4508 a0be
000002f0: 4290 833e 7015 ba3e b376 1b3e f9ca b1be
00000300: 0d6d 2cbe 9ad0 053e bc58 9dbd 01b2 04be
00000310: ba6c 97be e3e0 a83d bbd5 903e 9852 ee3e
00000320: 3cb5 a4be cdfb 41be 4a92 c73e d533 2ebd
00000330: d13d 51be e519 c3bd b7b0 79be d37f 473e
00000340: d246 6f3e 26b3 663e 9f95 a63d 7503 2a3d
00000350: a032 813e 7710 c6bd d2b7 c2be 6c4b 2bbe
00000360: 3d9b 8abe 3dc3 aa3e e1d6 19bf 7284 debd
00000370: ce5f 8fbd 0216 ad3e 0f10 0f3e 5351 40be
00000380: b936 3c3d 510f 1fbd 9980 943e a743 36bd
00000390: 5633 cebe 7542 3d3e a381 1dbe d66e 09bf
000003a0: f88e 973e 7f87 ae3d a99f 27be e8d2 943d
000003b0: 8867 e63d 78d0 c93e 74da 5d3e 1785 e8be
000003c0: 56bb 2dbe 22c6 0f3e 6f68 60be 9330 68bd
000003d0: 6fc1 a2be 61dc 4cbd dab4 c1be a0aa 75be
000003e0: 34d6 c93d 675b a6bc 9af5 2fbe 8324 a8be
000003f0: f1e0 c33e b5b8 033f 9f99 7dbd 59f9 663e

gnn_base.gnn.gnn1.lin_key.bias f4 [48]
-0.14419846 0.09316998 0.0801249 -0.03569425 -0.21681269 -0.056678377 0.056307252 0.09879889
-0.07823527 0.057927053 -0.029892499 0.1253769 -0.17089196 0.21741627 -0.05256026 -0.1424038
0.047607142 -0.041532863 -0.23444487 0.19226782 0.21581711 0.021793569 -0.10876014 0.0057631033
-0.13301988 0.23387526 -0.20529862 0.09754951 0.07026229 0.08790867 -0.17628762 -0.24836187
0.14470759 -0.1950614 -0.24510251 0.12591244 0.11869122 -0.050162975 -0.014239961 0.08926826
0.015533767 -0.072026744 0.079152435 0.1991819 0.088860735 -0.11320997 0.2130584 0.16301155
00000000: c3a8 13be e7cf be3d 8618 a43d 2234 12bd
00000010: 2504 5ebe 9627 68bd 6fa2 663d 1357 ca3d
00000020: d039 a0bd eb44 6d3d 1de1 f4bc cd62 003e
00000030: 4dfe 2ebe 5fa2 5e3e 6d49 57bd 4dd2 11be
00000040: b5ff 423d 5d1e 2abd 5112 70be dbe1 443e
00000050: 29ff 5c3e 6d88 b23c a3bd debd 6ad8 bc3b
00000060: 5d36 08be ff7c 6f3e cd39 52be 0ac8 c73d
00000070: ade5 8f3d 7609 b43d be84 34be 9352 7ebe
00000080: 3a2e 143e 2dbe 47be 27fc 7abe 31ef 003e
00000090: 6214 f33d b177 4dbd ba4e 69bc 47d2 b63d
000000a0: 5781 7e3c c282 93bd ac1a a23d 57f6 4b3e
000000b0: 9efc b53d a1da e7bd fb2b 5a3e 80ec 263e

gnn_base.gnn.gnn1.lin_query.weight f4 [48, 16]
0.010866089 0.36241013 -0.0640191 -0.29821232 -0.008924724 0.28525263 -0.036034267 0.30595198
-0.23213598 -0.22709575 0.29515192 -0.19893345 -0.14173864 0.17050314 0.013277924 0.005636775
-0.05929491 0.095165186 -0.030416869 0.032957643 0.24564694 0.01475491 -0.049295314 0.13871221
-0.30298635 0.03910501 0.135462 0.515407 -0.049107186 -0.2502913 -0.060425363 -0.0049316064
0.035471458 0.2993808 0.048458878 -0.35792053 -0.21699156 -0.057199553 -0.22517605 -0.34993336
0.29496184 0.19537012 -0.40226617 -0.34736708 0.17175087 0.52461416 0.3015514 0.143254
0.10773255 0.092193134 -0.1925973 -0.22085951 0.069889486 0.065246835 0.29974067 0.05971135
-0.11433042 0.101845495 -0.17110938 -0.54229414 -0.12417742 -0.21718554 0.41119853 -0.278168
0.111981645 0.01609451 -0.18708998 -0.2754004 0.32789457 -0.28358525 0.092196554 0.07395618
-0.14568993 0.098031335 0.30049878 -0.32982153 -0.22367577 -0.1986042 -0.19824137 0.23873453
-0.063341975 -0.025795765 -0.23501228 0.17192674 -0.09128278 -0.23350541 -0.1584866 -0.23387356
0.26424474 0.3863021 -0.39305645 0.05797809 0.09293112 0.4650379 0.08040372 -0.08685412
-0.3555126 0.07184745 -0.15060993 0.28734255 -0.11411573 0.014483583 -0.26120657 -0.07561416
-0.31803885 0.44781962 0.38051644 -0.119950354 0.22990869 -0.040188715 -0.35003236 0.029992718
0.4213243 0.30995288 -0.1513588 -0.10470485 0.22947839 -0.18015517 -0.06273713 -0.26170424
-0.094173715 0.047693614 -0.17858002 0.049720433 0.035075832 -0.07528501 0.17398782 0.26009983
0.09749232 -0.14147519 -0.36688933 0.19900697 0.024174662 -0.4229638 0.5701876 -0.018860342
0.16602832 -0.061189197 0.05327153 -0.051322866 0.058189712 0.4394534 0.22546713 0.09107655
0.010399299 -0.24807164 0.35180604 0.03144866 -0.086500734 -0.13623157 0.3768056 -0.0016140704
0.082407996 0.49772787 -0.040198594 -0.0030498572 0.11159373 0.3171042 0.057262886 -0.24442466
0.058694713 0.17834313 0.06827704 0.21520063 -0.12451646 -0.22935815 0.22511387 -0.14321445
-0.2466701 0.015831482 0.019315721 0.109122716 0.21096998 0.051657476 -0.37111032 -0.08643272
0.06759846 -0.0079631 -0.016928103 0.18175726 0.26602584 -0.34993106 0.2527398 0.0863504
-0.36488473 0.04885989 -0.14546262 0.23216406 -0.15934598 0.007004918 0.031491045 -0.09571586
0.19739316 0.10105815 0.31354243 -0.28735307 -0.20974141 0.12543264 0.1642841 -0.013059031
0.37033868 -0.10566992 -0.109698534 0.023986224 -0.12763752 0.22092856 0.33303058 0.18689129
-0.5229845 -0.042426143 -0.24008992 -0.005193824 -0.02043512 -0.15557474 0.13941076 0.17326564
-0.17969292 0.22595389 -0.08389594 0.26422375 0.2650968 0.09544006 0.23436491 -0.12581281
0.17295723 0.051775575 -0.063770376 0.12324553 0.40469983 -0.29765052 0.3455879 -0.23469752
0.32305348 -0.051341075 -0.28199896 -0.22144438 0.119304486 -0.026278319 0.19562623 0.028513538
0.035564244 -0.043375306 0.38820004 0.30564263 -0.28543898 -0.2945972 -0.34926483 -0.42725256
0.20556282 -0.00094339467 -0.025750717 0.40993005 -0.11778944 0.34016532 0.061704405 0.071833946
00000000: ae07 323c d28d b93e 721c 83bd 49af 98be
00000010: 0139 12bc a20c 923e ab98 13bd bda5 9c3e
00000020: 0eb5 6dbe ca8b 68be 271e 973e 36b5 4bbe
00000030: ef23 11be 6098 2e3e a68b 593c b2b4 b83b
00000040: 38df 72bd f7e5 c23d cc2c f9bc 98fe 063d
00000050: df8a 7b3e 94be 713c e2e9 49bd 930a 0e3e
00000060: 0721 9bbe 932c 203d 8db6 0a3e b7f1 033f
00000070: 9e24 49bd 2e26 80be 9680 77bd 5099 a1bb
00000080: 854a 113d 7148 993e d17c 463d 5c41 b7be
00000090: 0933 5ebe 144a 6abd 8d94 66be 772a b3be
000000a0: 3d05 973e 1b0f 483e d5f5 cdbe 19da b1be
000000b0: 76df 2f3e 1d4d 063f f264 9a3e 2db1 123e
000000c0: e2a2 dc3d c1cf bc3d 3a38 45be ff28 62be
000000d0: 3822 8f3d 22a0 853d 9c77 993e e393 743d
000000e0: 1126 eabd 5f94 d03d 4c37 2fbe cad3 0abf
000000f0: bb50 febd e365 5ebe 9d88 d23e 096c 8ebe
00000100: a256 e53d a2d8 833c 8494 3fbe 4801 8dbe
00000110: cce1 a73e 1632 91be 8cd1 bc3d 5676 973d
00000120: be2f 15be a7c4 c83d fada 993e 5ede a8be
00000130: 430b 65be e65e 4bbe c9ff 4abe d376 743e
00000140: 70b9 81bd a451 d3bc 0fa7 70be 900d 303e
00000150: 77f2 babd 0b1c 6fbe 504a 22be 8d7c 6fbe
00000160: 164b 873e 64c9 c53e b23e c9be 6f7a 6d3d
00000170: ac52 be3d 7319 ee3e b5aa a43d 93e0 b1bd
00000180: bf05 b6be c224 933d 7d39 1abe 901e 933e
00000190: 82b5 e9bd 8d4c 6d3c debc 85be 99db 9abd
000001a0: fdd5 a2be 9d48 e53e 0dd3 c23e 88a8 f5bd
000001b0: 2f6d 6b3e ec9c 24bd 7137 b3be 4ab3 f53c
000001c0: d2b7 d73e 25b2 9e3e cdfd 1abe 7f6f d6bd
000001d0: 62fc 6a3e 997a 38be 537c 80bd 19fe 85be
000001e0: 26de c0bd 615a 433d aedd 36be a7a7 4b3d
000001f0: adab 0f3d 072f 9abd dd29 323e ce2b 853e
00000200: 0eaa c73d dfde 10be ebd8 bbbe 7cc8 4b3e
00000210: f109 c63c b68e d8be d1f7 113f 0181 9abc
00000220: 5403 2a3e 86a1 7abd 3f33 5a3d ed37 52bd
00000230: 5658 6e3d 0900 e13e dbe0 663e 5886 ba3d
00000240: d261 2a3c 7e06 7ebe ec1f b43e 4fd0 003d
00000250: 4c27 b1bd 4a80 0bbe aaec c03e 378f d3ba
00000260: 86c5 a83d 30d6 fe3e 48a7 24bd 1de0 47bb
00000270: 418b e43d 7b5b a23e 7d8c 6a3d 754a 7abe
00000280: de69 703d 959f 363e d5d4 8b3d 8e5d 5c3e
00000290: 7c02 ffbd dddc 6abe 4084 663e cfa6 12be
000002a0: 1697 7cbe 06b1 813c 013c 9e3c bb7b df3d
000002b0: 8408 583e ca96 533d 2c02 bebe a303 b1bd
000002c0: 1071 8a3d aa77 02bc ceac 8abc 931e 3a3e
000002d0: 8a34 883e 2a2a b3be 1c67 813e 7ad8 b03d
000002e0: 2cd2 babe 4f21 483d 27f4 14be 6abc 6d3e
000002f0: 982b 23be 8389 e53b c1fc 003d ad06 c4bd
00000300: 6f21 4a3e 93f7 ce3d a288 a03e f11f 93be
00000310: 74c6 56be 6a71 003e 173a 283e 8cf5 55bc
00000320: 089d bd3e 7969 d8bd a0a9 e0bd c27e c43c
00000330: 69b3 02be 193b 623e fc82 aa3e 6e60 3f3e
00000340: 50e2 05bf 09c7 2dbd 22da 75be f430 aabb
00000350: 8e67 a7bc fc4e 1fbe b2c1 0e3e 8c6c 313e
00000360: 6c01 38be 7560 673e a2d1 abbd 5648 873e
00000370: c5ba 873e 1476 c33d 5bfd 6f3e 13d5 00be
00000380: b31b 313e a012 543d 0b9a 82bd 2768 fc3d
00000390: d134 cf3e a665 98be e6f0 b03e 8c54 70be
000003a0: 4467 a53e 054b 52bd 2b62 90be 51c2 62be
000003b0: e955 f43d a145 d7bc 3e52 483e 3995 e93c
000003c0: d0ab 113d 4eaa 31bd 28c2 c63e 317d 9c3e
000003d0: 0f25 92be 72d5 96be d7d2 b2be d9c0 dabe
000003e0: 0f7f 523e 254e 77ba 2bf3 d2bc 5ae2 d13e
000003f0: 973b f1bd 262a ae3e c2bd 7c3d ad1d 933d

gnn_base.gnn.gnn1.lin_query.bias f4 [48]
0.44467226 0.34240836 0.44010907 -0.28708133 -0.27080348 -0.22940232 0.23658186 -0.41222656
-0.48991698 -0.4989236 -0.5793426 -0.43076104 0.41282254 -0.022289082 -0.7309841 0.058633536
0.05190682 -0.18622491 0.052315585 0.07134514 0.5507698 -0.095671855 0.06661885 0.18712503
0.18426214 0.2942502 -0.10183965 0.13709 0.4023365 0.332377 0.031341236 0.3284081
0.19240366 -0.14705448 -0.028768104 0.06830754 -0.028515061 0.06263061 -0.4874615 -0.13410777
-0.16746221 -0.11245968 0.26870766 -0.22938563 0.05603841 0.24154027 -0.018610971 0.063436195
00000000: 15ac e33e 2650 af3e fa55 e13e 53fc 92be
00000010: c1a6 8abe 71e8 6abe 8442 723e 5c0f d3be
00000020: 66d6 fabe ea72 ffbe cc4f 14bf b68c dcbe
00000030: 7a5d d33e 9897 b6bc c621 3bbf b829 703d
00000040: 3f9c 543d beb1 3ebe de48 563d 671d 923d
00000050: 40ff 0c3f 9bef c3bd 776f 883d b49d 3f3e
00000060: 37af 3c3e f6a7 963e 4e91 d0bd 5261 0c3e
00000070: 0dff cd3e 512d aa3e ab5f 003d 1b25 a83e
00000080: 7705 453e 7395 16be 16ab ebbc d3e4 8b3d
00000090: 6b98 e9bc 7a44 803d 8e94 f9be 8c53 09be
000000a0: 377b 2bbe 4351 e6bd 0d94 893e 11e4 6abe
000000b0: 8888 653d 5556 773e 0976 98bc d6ea 813d

gnn_base.gnn.gnn1.lin_value.weight f4 [48, 16]
0.10397416 0.084329724 -0.12402376 0.30670473 -0.021856545 -0.10629874 -0.14917372 -0.20534423
0.21194571 -0.21247852 0.029645333 -0.2384096 -0.11573881 0.14514118 -0.09326016 0.41552132
0.12055947 -0.17016427 -0.21537638 -0.035638772 0.06353314 -0.17935711 -0.42663148 -0.16059503
-0.23797657 0.104981706 0.31359228 -0.26878136 0.018296247 -0.106553234 0.05073841 0.1460669
-0.580568 0.18123193 0.37711036 0.04517824 -0.11795422 -0.28941178 0.19149728 -0.1197736
-0.3157666 0.32399842 -0.36231822 0.2491251 0.05755308 0.026539296 -0.08774245 -0.5234445
0.08510289 0.13282096 0.10533776 0.13682522 0.0821377 -0.10760254 0.078944534 -0.15864971
0.030519947 0.13361585 -0.14282925 -0.42329794 0.06184057 0.037375722 -0.12365628 -0.16478145
0.22857046 0.493434 0.48640952 -0.02491805 -0.20205727 -0.00060471025 -0.03777368 0.16028556
-0.12287475 0.0061701257 -0.22744747 0.26324868 0.20979303 -0.024593491 0.45752183 0.091783
0.00078115775 -0.056037974 0.22816247 0.13587128 0.07556351 -0.002062933 -0.016111359 0.19515918
0.1441171 0.2487586 -0.3991445 0.0148914205 0.0067376564 -0.25291884 0.07931465 -0.23604198
0.11042553 -0.04543275 -0.013207525 0.2968163 -0.09493268 0.032181043 0.058636587 -0.07558285
0.45172313 -0.44748655 -0.21296789 0.0073378957 0.05246011 -0.08193255 -0.3451737 -0.076121986
-0.33305365 0.12178033 -0.23138683 -0.041292235 0.30205363 -0.1787445 0.058230937 0.17511319
0.28097588 0.024980444 -0.27858678 0.03707978 -0.23225941 -0.4482953 -0.148767 -0.022993686
-0.022079233 -0.14501067 0.18486162 0.13816169 -0.045132544 0.18025757 0.036224056 -0.10220445
-0.026820185 0.48363653 0.24759372 0.33664173 -0.32151765 -0.19278401 -0.2933458 -8.4513886e-05
0.2052444 0.442937 0.117561325 0.012370953 -0.15809724 -0.21901639 0.001571084 0.09913491
-0.32657868 0.07998474 -0.36168757 0.21919183 0.08725377 0.35332918 0.020512348 -0.13861339
0.2850646 0.13950844 -0.31322485 -0.03668173 0.019399455 -0.2339358 -0.025960267 0.30804572
-0.16406038 -0.5202139 -0.41213852 -0.34869546 0.21676354 -0.091009535 0.197079 0.17787375
0.11218648 -0.22397813 0.22600447 -0.30315444 0.12192003 -0.0038404912 -0.13866742 0.016149262
-0.27155852 -0.01644377 0.4892192 0.25169906 0.10331207 0.07612905 0.081137836 0.23842837
-0.20080703 -0.056849077 -0.23317762 -0.041248713 0.12539501 -0.24676643 -0.062912375 0.09500843
0.08877852 0.20079577 0.07686614 0.24702692 -0.16422991 -0.041583158 0.23538798 0.16957301
-0.254821 0.02181836 -0.33927065 -0.29993534 -0.09885024 0.11078807 -0.27832815 -0.19826028
0.25720048 -0.26348606 0.14181001 -0.113083154 -0.36791384 0.49715063 0.14700635 0.26971892
0.32356468 -0.1330108 0.02185321 -0.38379496 0.20265459 -0.11990734 0.03519942 -0.19111581
0.16487321 0.21405677 0.37252572 -0.17187355 -0.07569236 0.41708302 -0.097340286 0.1363001
-0.34704772 0.21256185 0.028337829 -0.040312376 0.2228152 0.12478919 0.39215788 -0.11979006
0.26262346 -0.15827726 -0.19707842 -0.198617 -0.335465 -0.055830367 -0.061438687 -0.14196274
00000000: 68f0 d43d 10b5 ac3d 2b00 febd 6708 9d3e
00000010: 7f0c b3bc 27b3 d9bd ffc0 18be c245 52be
00000020: 4c08 593e f893 59be c5da f23c a521 74be
00000030: 7808 edbd e49f 143e 2fff bebd 36bf d43e
00000040: e2e7 f63d 8b3f 2ebe a08b 5cbe f6f9 11bd
00000050: aa1d 823d 64a9 37be 716f dabe 0673 24be
00000060: 21b0 73be a600 d73d 2b8f a03e b69d 89be
00000070: 03e2 953c 9538 dabd 14d3 4f3d 9092 153e
00000080: 1ba0 14bf dd94 393e 9c14 c13e d10c 393d
00000090: fb91 f1bd c82d 94be dd17 443e dc4b f5bd
000000a0: 29ac a1be 1fe3 a53e c681 b9be a61a 7f3e
000000b0: c7bc 6b3d f068 d93c 50b2 b3bd 7500 06bf
000000c0: 6d4a ae3d 3802 083e 53bb d73d e91b 0c3e
000000d0: cf37 a83d b85e dcbd acad a13d 1275 22be
000000e0: f804 fa3c 98d2 083e d541 12be 82ba d8be
000000f0: 8a4c 7d3d 4917 193d 813f fdbd 78bc 28be
00000100: 600e 6a3e 62a3 fc3e ab0a f93e f020 ccbc
00000110: 1ae8 4ebe 6b85 1eba 93b8 1abd e621 243e
00000120: c2a5 fbbd c42e ca3b fde7 68be 88c8 863e
00000130: fcd3 563e 4a78 c9bc 4d40 ea3e baf8 bb3d
00000140: 9cc6 4c3a 1388 65bd 6ca3 693e d721 0b3e
00000150: 0bc1 9a3d 4632 07bb f8fb 83bc cfd7 473e
00000160: 6f93 133e 93ba 7e3e ab5c ccbe 25fb 733c
00000170: 8fc7 dc3b 947e 81be b86f a23d fdb4 71be
00000180: c826 e23d b117 3abd 6064 58bc 4ef8 973e
00000190: 116c c2bd 45d0 033d eb2c 703d 2ecb 9abd
000001a0: 4148 e73e f51c e5be 4114 5abe bb72 f03b
000001b0: 6ae0 563d 41cc a7bd 9bba b0be d8e5 9bbd
000001c0: 0286 aabe f767 f93d abf0 6cbe 0c22 29bd
000001d0: c6a6 9a3e cc08 37be 9083 6e3d df50 333e
000001e0: 12dc 8f3e caa3 cc3c eda2 8ebe f8e0 173d
000001f0: 69d5 6dbe f686 e5be 6056 18be 415d bcbc
00000200: 82df b4bc ad7d 14be 5d4c 3d3e 427a 0d3e
00000210: e7dc 38bd 7195 383e ad5f 143d 9150 d1bd
00000220: 01b6 dbbc 359f f73e 3589 7d3e 4e5c ac3e
00000230: f69d a4be 2c69 45be 6c31 96be 0c3d b1b8
00000240: 972b 523e a3c8 e23e fec3 f03d 8aaf 4a3c
00000250: 3ee4 21be d545 60be d5ec cd3a 3e07 cb3d
00000260: 5235 a7be 0acf a33d 1d2f b9be d373 603e
00000270: 1bb2 b23d 90e7 b43e 8309 a83c abf0 0dbe
00000280: fdf3 913e 4ddb 0e3e 025f a0be 953f 16bd
00000290: 9beb 9e3c de8c 6fbe a0aa d4bc 2bb8 9d3e
000002a0: 72ff 27be bd2c 05bf d203 d3be 3688 b2be
000002b0: 43f7 5d3e 3563 babd 14cf 493e 8924 363e
000002c0: 06c2 e53d 865a 65be b76d 673e 0f37 9bbe
000002d0: 35b1 f93d c0b0 7bbb d5fe 0dbe 754b 843c
000002e0: b809 8bbe 16b5 86bc f07a fa3e b3de 803e
000002f0: 4795 d33d 8ce9 9b3d 982b a63d 9126 743e
00000300: 5ca0 4dbe 94da 68bd 1dc6 6ebe 69f4 28bd
00000310: 8d67 003e 57b0 7cbe 34d8 80bd c893 c23d
00000320: 83d1 b53d 689d 4d3e ff6b 9d3d a0f4 7c3e
00000330: e32b 28be 1a53 2abd 8c09 713e 8ca4 2d3e
00000340: e677 82be 6bbc b23c e2b4 adbe 2091 99be
00000350: ff71 cabd dbe4 e23d 0781 8ebe be04 4bbe
00000360: c8af 833e a5e7 86be a536 113e 2498 e7bd
00000370: 345f bcbe 878a fe3e d588 163e 9918 8a3e
00000380: 45aa a53e fc33 08be 8105 b33c c680 c4be
00000390: af84 4f3e fb91 f5bd 442d 103d ddb3 43be
000003a0: 86d4 283e b331 5b3e b1bb be3e 9fff 2fbe
000003b0: 9904 9bbd e88b d53e 585a c7bd 4192 0b3e
000003c0: 3db0 b1be d0a9 593e bc24 e83c 971e 25bd
000003d0: ab29 643e 7a91 ff3d ebc8 c83e 7e54 f5bd
000003e0: 9576 863e 6f13 22be edce 49be 4162 4bbe
000003f0: 12c2 abbe 62ae 64bd 22a7 7bbd ae5e 11be

gnn_base.gnn.gnn1.lin_value.bias f4 [48]
-0.07458416 0.23537329 0.16785593 -0.031403862 -0.29409 -0.23927286 -0.13445097 0.0995944
0.1919213 -0.1318183 0.2130697 0.17586797 -0.10022112 0.28875062 0.19779252 -0.28950793
0.24784908 -0.035098694 0.13191748 -0.09596483 0.19467749 -0.014295365 -0.26360282 0.24125013
0.0067968224 0.10134459 0.0661784 -0.079942815 0.31713992 0.15570429 0.073534235 -0.12156907
-0.031784337 0.15593883 -0.08685744 0.035958424 -0.021386523 -0.26291922 -0.49527135 -0.026706493
0.24313824 -0.05055974 0.33625737 0.09203297 0.24309212 0.10204353 -0.06976146 -0.15819634
00000000: 94bf 98bd b205 713e 6de2 2b3e 56a1 00bd
00000010: f792 96be f203 75be 84ad 09be 26f8 cb3d
00000020: 0487 443e 60fb 06be f22e 5a3e bc16 343e
00000030: bb40 cdbd 1fd7 933e 1f8a 4a3e 623a 94be
00000040: 26cc 7d3e a6c3 0fbd 6015 073e 3589 c4bd
00000050: 8959 473e 1b37 6abc f3f6 86be 460a 773e
00000060: e1b7 de3b c18d cf3d 8a88 873d 0fb9 a3bd
00000070: 2a60 a23e f270 1f3e 1e99 963d 34f9 f8bd
00000080: 4b30 02bd 6eae 1f3e 50e2 b1bd 2449 133d
00000090: ca32 afbc 599d 86be 3594 fdbe 93c7 dabc
000000a0: 3bf9 783e bb17 4fbd ed29 ac3e c87b bc3d
000000b0: 24ed 783e 33fc d03d 19df 8ebd 39fe 21be

gnn_base.gnn.gnn1.lin_edge.weight f4 [48, 1]
-0.20149614 1.1139973 0.6901453 -0.51759946 -1.1438001 0.59006315 -1.1992913 -1.0061905
0.9831495 -0.8071717 0.06752562 -0.1351366 0.16257887 0.6358559 -0.035109825 -0.55538696
0.75438523 0.68874955 -0.4584384 1.0648323 1.0713607 -1.2426705 0.1160326 0.27969232
0.5015414 0.12781246 -0.59333205 0.89980376 -0.6930715 0.41551468 0.69134885 0.057520438
0.52440524 0.0014380303 0.9519905 -1.0349497 -0.43316782 -0.7662325 0.16286846 -1.1203502
1.1714765 0.8437193 0.8055144 0.67367744 -0.044788904 0.8240295 0.95153725 -0.9938508
00000000: 0155 4ebe 7797 8e3f 5dad 303f 6681 04bf
00000010: 0b68 92bf 610e 173f 6182 99bf daca 80bf
00000020: b0af 7b3f cea2 4ebf df4a 8a3d 4061 0abe
00000030: 137b 263e 74c7 223f 52cf 0fbd d72d 0ebf
00000040: 641f 413f e451 303f 70b8 eabe 6d4c 883f
00000050: 5922 893f d40f 9fbf 80a2 ed3d d533 8f3e
00000060: 0465 003f 45e1 023e 9ce4 17bf 8a59 663f
00000070: 226d 31bf 57be d43e 3dfc 303f 8d9a 6b3d
00000080: 6c3f 063f 4a7c bc3a a6b5 733f 3b79 84bf
00000090: 2cc8 ddbe d027 44bf fdc6 263e a367 8fbf
000000a0: f1f2 953f fdfd 573f 3136 4e3f 2076 2c3f
000000b0: 9274 37bd 99f3 523f f297 733f 026d 7ebf

gnn_base.gnn.gnn1.lin_skip.weight f4 [16, 16]
0.17236629 0.026794791 -0.51626676 -0.22096696 0.21606344 -0.16548859 0.07231205 -0.35939205
-0.1888056 0.29407275 0.20125777 -0.25613517 0.19325596 -0.13035248 0.08789375 -0.0489196
-0.037324872 0.4727452 -0.18142663 0.17886832 -0.11536662 -0.34104553 0.34804034 0.046493437
-0.0682787 0.21050806 -0.20568374 0.21211037 0.118452705 -0.19422618 -0.18409768 -0.21051316
-0.08927708 -0.022965515 0.25816175 0.19822502 0.19034111 0.082341835 0.460444 0.4163207
0.029783249 -0.02766957 -0.17860365 -0.12370011 0.04901908 -0.42754894 0.40270534 -0.06497783
0.10702727 -0.3962181 -0.71674836 0.0655155 -0.17798883 0.15114686 0.12111903 -0.075863585
0.008541107 -0.25016996 0.23103966 0.35902038 0.26856366 0.2611469 0.49318555 0.009532103
-0.24860746 -0.24778774 0.17213799 0.08707732 0.14974621 -0.438475 -0.17699185 -0.10170975
0.28536233 0.24853627 -0.29418147 0.16088471 0.2582067 -0.08606361 0.28050458 -0.17469293
-0.27550605 -0.150211 -0.021970833 0.1569408 -0.059884652 0.15377891 0.17292933 -0.13651782
0.15187576 -0.1504126 0.17179604 0.24663426 -0.27947146 0.3833871 -0.078955226 0.10825285
-0.1441891 0.14913128 0.05684294 -0.10405322 0.3951839 0.0060180845 -0.32283238 -0.050887745
-0.3057339 0.15206896 -0.19688039 -0.22763345 -0.39533478 0.042411737 0.37727946 -0.20438808
0.11952715 0.05575099 -0.6202351 0.23206787 0.02614728 0.04580132 0.31949487 0.17179994
-0.14267439 -0.20696385 0.03246284 -0.21293113 0.23670909 -0.34312016 -0.109361075 -0.09204925
0.2271664 -0.41210818 -0.8373838 -0.2737385 -0.0046474384 0.3810274 0.14580648 0.08116899
-0.21984838 -0.25392324 0.18471713 -0.29599142 0.13134423 0.17460598 0.20645706 0.26131916
-0.46025968 -0.39173114 0.19229361 0.1885939 0.12878202 -0.026784439 -0.06172062 -0.17977798
0.1995784 -0.21095093 -0.18052451 -0.09058467 0.11511044 -0.055030506 0.16749996 -0.34445274
0.24533802 0.25520816 -0.43073645 -0.17175743 0.22639127 -0.02972315 -0.24022108 -0.06571283
-0.038614545 0.054196782 0.12777372 0.0989718 0.16993393 0.5071928 0.016601255 0.038804468
-0.120870836 0.11157758 0.2273348 0.14382586 -0.23041582 0.120985635 0.07327904 -0.063100345
-0.3507285 0.14839813 0.028956968 -0.03828662 -0.0066549387 -0.35373878 0.09871336 -0.026174696
-0.04580429 -0.060092516 -0.026585663 -0.27385095 0.002222829 0.09112015 -0.31940788 0.19115897
-0.017462604 -0.1595119 0.047157045 0.058578894 -0.28280962 -0.418592 -0.3865091 0.18830238
-0.011755936 0.15475065 -0.14262682 0.2065665 0.09267237 -0.31681955 -0.007205001 -0.17346528
0.04251744 0.013075174 -0.06283241 0.29154587 0.18520904 -0.010339635 -0.4456961 -0.053463437
0.02072104 -0.21690942 0.1071271 -0.077019215 -0.17103648 0.1262906 -0.2399952 0.030899817
-0.3748977 -0.07730787 0.009922677 0.21427757 0.03458742 -0.33772776 -0.303494 0.032663926
0.118678816 -0.009574603 0.080628715 0.11092537 -0.0035008634 -0.07571931 0.31502968 0.22303966
-0.0579415 -0.050135158 0.04500606 -0.22423771 -0.31885982 -0.098209515 0.16207652 -0.060430072
00000000: ca80 303e c080 db3c 0f2a 04bf 2a45 62be
00000010: bc3f 5d3e d775 29be 5718 943d 3c02 b8be
00000020: 4156 41be b490 963e 8416 4e3e 2624 83be
00000030: e4e4 453e 1f7b 05be a301 b43d eb5f 48bd
00000040: f7e1 18bd a90b f23e e7c7 39be 4229 373e
00000050: 5645 ecbd 859d aebe 5832 b23e e76f 3e3d
00000060: b4d5 8bbd 6d8f 573e c29e 52be 7633 593e
00000070: 5597 f23d 3ae3 46be 1a84 3cbe c390 57be
00000080: e7d6 b6bd 2d22 bcbc c72d 843e 80fb 4a3e
00000090: c8e8 423e d6a2 a83d 51bf eb3e fd27 d53e
000000a0: 00fc f33c 4bab e2bc e0e3 36be 7c56 fdbd
000000b0: 3bc8 483d b2e7 dabe 652f ce3e 1913 85bd
000000c0: 1d31 db3d 19dd cabe d27c 37bf fe2c 863d
000000d0: b442 36be 3ec6 1a3e 410d f83d 5e5e 9bbd
000000e0: 00f0 0b3c 4716 80be a995 6c3e 85d1 b73e
000000f0: 2d81 893e 0cb5 853e d182 fc3e 8a2c 1c3c
00000100: f492 7ebe 12bc 7dbe f144 303e 9855 b23d
00000110: 1257 193e cc7f e0be 5a3d 35be 344d d0bd
00000120: 031b 923e 4b80 7e3e f49e 96be f6be 243e
00000130: ab33 843e 1e42 b0bd 4c9e 8f3e b4e2 32be
00000140: 210f 8dbe ead0 19be 2dfc b3bc 17b5 203e
00000150: 9c49 75bd 3878 1d3e 6314 313e 54cb 0bbe
00000160: 5285 1b3e c305 1abe 4deb 2f3e b18d 7c3e
00000170: e216 8fbe 504b c43e 47b3 a1bd acb3 dd3d
00000180: 4fa6 13be dfb5 183e 25d4 683d db19 d5bd
00000190: 8b55 ca3e 5a33 c53b 494a a5be ab6f 50bd
000001a0: 2789 9cbe f7b7 1b3e 039b 49be be18 69be
000001b0: 5269 cabe eeb7 2d3d c62a c13e 1c4b 51be
000001c0: a7ca f43d 265b 643d bac7 1ebf 33a3 6d3e
000001d0: d232 d63c 2a9a 3b3d d594 a33e 53ec 2f3e
000001e0: 3c19 12be 55ee 53be c1f7 043d 9e0a 5abe
000001f0: de63 723e 72ad afbe b3f8 dfbd 5184 bcbd
00000200: 4f9e 683e d8ff d2be c95e 56bf 7427 8cbe
00000210: 8a49 98bb 0616 c33e 4b4e 153e ed3b a63d
00000220: ef1f 61be 3a02 82be 7d26 3d3e 308c 97be
00000230: 1a7f 063e e9cb 323e 7b69 533e a0cb 853e
00000240: 28a7 ebbe fc90 c8be 9ee8 443e c21e 413e
00000250: 6fdf 033e 0a6b dbbc c3ce 7cbd b817 38be
00000260: 485e 4c3e 8503 58be 6bdb 38be 7584 b9bd
00000270: 06bf eb3d ab67 61bd 1c85 2b3e 1c5c b0be
00000280: e439 7b3e a5aa 823e 7d89 dcbe 2ee1 2fbe
00000290: 1dd3 673e f77d f3bc 84fc 75be 7394 86bd
000002a0: 492a 1ebd 72fd 5d3d 1dd7 023e bab1 ca3d
000002b0: 2903 2e3e 63d7 013f 5bff 873c 6ff1 1e3d
000002c0: 218b f7bd c982 e43d 74ca 683e 1647 133e
000002d0: 20f2 6bbe 51c7 f73d 5213 963d c13a 81bd
000002e0: b092 b3be aef5 173e 2a37 ed3c 6ed2 1cbd
000002f0: ac11 dabb 401d b5be 3b2a ca3d 516c d6bc
00000300: 479d 3bbd 9223 76bd 2dca d9bc 3136 8cbe
00000310: e2ac 113b 349d ba3d 6e89 a3be 2dbf 433e
00000320: bc0d 8fbc 1657 23be bf27 413d 6cf0 6f3d
00000330: 6ccc 90be b151 d6be 85e4 c5be 57d2 403e
00000340: f89b 40bc f476 1e3e c40c 12be 2b86 533e
00000350: 03cb bd3d 2c36 a2be ee17 ecbb e2a0 31be
00000360: c426 2e3d 4139 563c 47ae 80bd 8045 953e
00000370: 70a7 3d3e 9367 29bc 4732 e4be 7afc 5abd
00000380: 2cbf a93c 811d 5ebe 7465 db3d 40bc 9dbd
00000390: 3024 2fbe 5352 013e 4dc1 75be 9d21 fd3c
000003a0: 97f2 bfbe 9753 9ebd b992 223c 946b 5b3e
000003b0: 8aab 0d3d a7ea acbe 9163 9bbe 9cca 053d
000003c0: e10d f33d ccde 1cbc ab20 a53d d72c e33d
000003d0: be6e 65bb ba12 9bbd 924b a13e 8264 643e
000003e0: 1154 6dbd 865a 4dbd 4658 383d 929e 65be
000003f0: 9841 a3be 1222 c9bd 63f7 253e 8685 77bd

gnn_base.gnn.gnn1.lin_skip.bias f4 [16]
0.03429016 0.41196 0.4751242 -0.052948765 -0.025345009 -0.08207507 -0.08223162 0.22878121
-0.10968375 -0.14838819 0.65387654 0.20918484 0.014535508 0.38168064 0.106363684 0.11917157
00000000: d773 0c3d 6cec d23e 7b43 f33e cee0 58bd
00000010: 56a0 cfbc f916 a8bd 0d69 a8bd 9f45 6a3e
00000020: e0a1 e0bd 13f3 17be 7464 273f 8d34 563e
00000030: 5726 6e3c a56b c33e 34d5 d93d 3910 f43d
