onpolicy/results/GraphMPE/navigation_graph/rmappo/crap_bad/run20/models/actor.pt (torch, 195957 bytes, 62 tensors)

gnn_base.gnn.embed_layer.entity_embed.weight f4 [3, 2]
00000000: 79ea c73f 829f 98be 4977 0ac0 65aa 0e3f
00000010: 1040 8abf d526 b3bf
1.561843 -0.29809195 -2.1635306 0.5572875 -1.08008 -1.3996226

gnn_base.gnn.embed_layer.lin1.0.weight f4 [16, 7]
00000000: 6d30 32bc 057e e33e 7e61 483f 9617 16be
00000010: c027 77be 56e0 f63d 5716 1a3e f587 e33e
00000020: 2680 4f3f 2e99 b93d 8f4e 2fbe becb 383e
00000030: 33cf b53d 1a9a a33d c2e9 42bf 8d21 093e
00000040: 6500 1fbe 2584 d53c 98d2 b5be d80f 9fbe
00000050: 575c 333e 00cf d8be d04a 2b3e 8394 eb3d
00000060: 4b86 da3e c28e 71be e81a 603e 82e8 24bf
00000070: 56eb 023e d004 5e3d 7cff e0bd e564 4f3e
00000080: 8f06 35bf a740 93be 7a73 9bbe 0334 dbbe
00000090: 7b54 a4bc 33ac 8e3d aa9d 40bf aacd 65be
000000a0: fadf 38be 3f7f ab3e 7ccf a1bd e1df e9be
000000b0: 3bec 86be bda9 80bd bd96 0d3f 5db9 e6bc
000000c0: 1902 2e3e 8c23 a9be ed40 573e ef0b f2be
000000d0: 26da e73c c370 703d 8d8f f83b 288e 993e
000000e0: 84d8 263e 5752 00bf a179 123f 539a 49be
000000f0: 5ad2 623d c214 a7be d028 a1bc 7c03 643e
00000100: 6f59 79be d6fc 0abf 24f5 eabd a78f d4be
00000110: ba0d 5b3f ad27 3c3e 562c d03e 9d04 6e3e
00000120: ec43 76be 8d33 283f 358c a53d efcd 14bf
00000130: d583 0e3f 865b 023f 4c64 84be d493 17bd
00000140: 533d a1be 0d1d 29bf 8c00 cfbd cadf ca3e
00000150: a484 04be 51c3 013f f0ae c63d 363e 2d3d
00000160: 795b e03d b1b0 fe3e 6854 bb3e 246a 94be
00000170: a6d8 003b e2a5 05bd 85ca 3cbe 6e08 6d3e
00000180: 6bfb a0bd e8a8 c83e 4527 7d3e 7a8d cc3e
00000190: dff3 01bf 30f5 3abf 7c05 543e 6950 a3be
000001a0: 5f5d 27bf ca09 033d 6f60 3ebe 0a9c 773e
000001b0: 78e7 12be 9b81 b93e a8a6 ba3e a453 5ebd
-0.010875803 0.44432083 0.7827376 -0.14657435 -0.24136257 0.120545074 0.15047584 0.44439664
0.81054914 0.0906242 -0.17119811 0.18046471 0.08877411 0.07988377 -0.76137936 0.13391705
-0.15527494 0.026063988 -0.35512233 -0.31066775 0.17515694 -0.42345428 0.16727757 0.11502936
0.42680582 -0.23589614 0.21885264 -0.6441728 0.12785086 0.05420381 -0.1098623 0.20253332
-0.7071313 -0.28760263 -0.3036154 -0.4281312 -0.020059815 0.06966438 -0.75240576 -0.22441736
-0.1805419 0.3349552 -0.07900903 -0.4567862 -0.26352105 -0.06282375 0.55308133 -0.02816456
0.16992988 -0.33034933 0.21020861 -0.4727473 0.028302263 0.058701288 0.007585472 0.2999127
0.16293532 -0.5012564 0.5721684 -0.19687776 0.055376388 -0.32633024 -0.019672781 0.22266954
-0.24350522 -0.5429205 -0.11472538 -0.41515848 0.8556782 0.1837451 0.40658826 0.23243947
-0.24049348 0.6570366 0.08083383 -0.5812673 0.5566991 0.50920904 -0.2585777 -0.037006214
-0.314921 -0.6605995 -0.10107526 0.39623863 -0.12941223 0.50688654 0.097013354 0.042295657
0.10954947 0.4974418 0.36587834 -0.2898723 0.0019660383 -0.0326289 -0.1843663 0.23147747
-0.07860454 0.39191365 0.24722011 0.39951688 -0.5076274 -0.73030376 0.20705217 -0.31897286
-0.6537685 0.031991757 -0.18591474 0.24180618 -0.14346111 0.36231694 0.36455274 -0.054278985

gnn_base.gnn.embed_layer.lin1.0.bias f4 [16]
00000000: 3826 86bc d768 5bbc 7251 333b 2b63 093b
00000010: e418 8abb a5fb 0dbd 90bd 6b39 74c5 42bc
00000020: 39b6 e5bb b9c8 07bd 261c a83c b3ed 803c
00000030: 3621 6b3c 8f9a 8e3c 140c 1f3c a853 44b9
-0.016375646 -0.013391695 0.0027361778 0.002096365 -0.004214393 -0.034663815 0.00022481964 -0.011887897
-0.007010248 -0.03315041 0.020521235 0.015738344 0.01435118 0.017407684 0.0097074695 -0.00018723181

gnn_base.gnn.embed_layer.lin1.2.weight f4 [16]
00000000: 6fef 813f 1319 7d3f efdc 803f 06a6 7d3f
00000010: 2161 803f 5c2c 753f f9fc 803f 0748 803f
00000020: 2a67 7c3f 0f40 7c3f 66db 7f3f b2b4 833f
00000030: e99a 7b3f 3ee2 823f 8146 7a3f b66c 813f
1.0151194 0.98866385 1.0067424 0.99081457 1.0029641 0.9577081 1.0077201 1.0021981
0.98594916 0.98535246 0.9994415 1.0289519 0.9828325 1.0225294 0.9776383 1.0111301

gnn_base.gnn.embed_layer.lin1.2.bias f4 [16]
00000000: 6f65 a2bb 2fd8 a5bb fdba 0b3c fa6b 6a3b
00000010: 04c5 83bb 9cca d6bc 368f a33b 626a c4b9
00000020: db4c cb3b 6d02 a9bc 36a8 d43c 482a 803c
00000030: 344b 8b3c 3701 a93c 886a 723c 8364 b4bb
-0.0049559395 -0.0050611715 0.008528468 0.0035769925 -0.004021289 -0.026219659 0.0049914373 -0.00037463295
0.0062042302 -0.02063104 0.025959115 0.015645161 0.017003633 0.020630462 0.014795907 -0.005505146

gnn_base.gnn.embed_layer.lin_h.0.weight f4 [16, 16]
00000000: beee 5a3e b2d6 f33d 6a99 313f 6db4 e6be
00000010: acc0 6dbe 3e9a 423e 2267 b6be 8b26 29bf
00000020: 7abc 11be f856 083e ed32 283f 3505 153e
00000030: 42f1 203e 9866 3ebe 476d 233e dd3e 27be
00000040: a92e 05be eb0d da3e bfa8 e53e 18bd 473e
00000050: dda9 143f 9d14 193e 5af2 b33d 8e1e 2fbe
00000060: 3aa3 503e f368 0c3f 1d92 a3bd 601e 2fbd
00000070: ef64 ccbe 499c 15be a9b7 a9be 0a73 393f
00000080: cb10 493e 14ac 653e e6dd 03bf e31e b2be
00000090: 735d 203d 9ce0 283e 6c88 4f3d b553 213e
000000a0: 9959 273f f54e 253c 607d ce3e e69e 1e3f
000000b0: 218f 1d3e 3234 42be ed8a 27bf 116e a7bd
000000c0: 1d58 82be bfc6 5e3e 1f55 ec3e 0e11 21bf
000000d0: a424 ebbd 76ea b3be 7668 e8bd af5a 7dbd
000000e0: 11bc 823d 9942 31be 50b8 47bf 9f71 733e
000000f0: a135 2cbe 7469 a73e 8d0b e1be 8944 a0be
00000100: 81fb 5a3f f3a5 b13e ce31 be3e 0ee3 8dba
00000110: 7422 a0bd 28f7 093d 950d 193e 80aa ee3e
00000120: b457 913e 6a4e 4f3e fd8f 98be bad1 41bd
00000130: 5ff2 183f ae75 903e 25e9 9f3e 59e0 023e
00000140: 67c0 9f3e 57ba 01be 105d a9be 7235 983e
00000150: fec4 3dbe df2f 15be 3275 6f3c c62a 13bf
00000160: 285f b23d c53e 303f cd27 04bf ed01 073f
00000170: 8d3b 5bbe 4fb7 65be 49e3 983e 5b7a 9abe
00000180: 9126 ab3e 8766 57bf 143e 223d 22b7 843c
00000190: 2c9a 8abe 7d7f 473e 00bb bdbe d11b 68be
000001a0: 671d 9a3d 0cda 183c af8a 9dbe 6979 95be
000001b0: 4e4f 893e 35c2 a4bd 03a4 23bf 744e e83e
000001c0: 9628 2b3e aa4f de3c 3e9a 1d3d d64e f33e
000001d0: 393b 8c3d 48e6 aabe a255 b2bd 296c b5be
000001e0: 6c87 073f f138 643d d6e5 b63e 82c3 ebbe
000001f0: 1261 3dbe 1d91 3d3f 9fac 90be a946 eabe
00000200: 1665 32bf ec09 7a3d c3ce 343e 7065 703e
00000210: bb94 dbbe 309d 2e3f cba5 e0bd c34d 953e
00000220: 0010 833e 3d49 0b3f dda7 dbbd a3f5 28be
00000230: 287b a23e dbf1 2abc 8021 95bd 5d2d d4be
00000240: 200d b9be 9ad7 02bf cee6 49bc 56bf 3dbe
00000250: 1b56 193f fad4 393e d43f 1bbe a0eb 20be
00000260: f1bb 863e 10c0 163d ca52 7c3b e8da fb3e
00000270: a676 b63e c221 2a3f eb3c e73e d0c6 623e
00000280: fa31 9d3e 1f4a e93e 3f4d abbe 2951 053e
00000290: ac44 883e cda9 2b3f bcae 53bf 757b cabc
000002a0: 0ac3 adbe d092 77be 4c6e 76be c4b5 653c
000002b0: a0a6 65be 0cb7 813e 27f7 f6bc 408f 06be
000002c0: 5a4f cbbc 5a98 413e c3ea a7bd 57f4 3dbd
000002d0: 0044 863e 64cc e93e 2a7d 103f cb2c 30bf
000002e0: 1b31 aa3e d6c2 09bf 5936 b8be a772 b9be
000002f0: 0329 a43e 7575 93be d73d c23d 22f8 30be
00000300: d616 f43d f9d7 a8be 6773 253f b73a 203f
00000310: 6581 453e 69bf dd3d 8c50 d9bd 9381 923e
00000320: 1976 943e c1ed 09bf 844f 02bd 608e fe3e
00000330: bb35 7abe 6170 c5be 700c c43b fd6a 9dbe
00000340: 0b59 b13e dd09 e4be 73e7 8c3d 1a70 02bf
00000350: 3c7a 243d 22cd 153f a8a7 f33e 3744 723e
00000360: 04a2 073d 0d7a 443e f705 6d3d 69e7 36be
00000370: 3285 47bf aaef 573e b997 cb3d 6715 72be
00000380: 6157 ccbd 0686 5b3e d4f8 98ba a3d8 6d3e
00000390: 3661 5cbf 237b 833e 5700 583e 6171 57be
000003a0: e060 383e abbc c8be 33f1 0e3d b8e5 b23e
000003b0: e60c a3be 90a2 e03e 68a6 173e f685 1b3f
000003c0: 05e4 cc3d b18d 89bc 197c 023e d9a6 ac3e
000003d0: 3532 ee3d 9199 533e c738 1a3f 7fd6 f8bd
000003e0: 3922 4fbf b138 ab3d 370c be3d 33fa ca3e
000003f0: 1978 a63e 7adc c03e d41e 10bf d579 3cbe
0.21380135 0.11906184 0.69374716 -0.4505953 -0.2321803 0.19004151 -0.3562556 -0.66074437
-0.14232054 0.13314426 0.65702707 0.14552768 0.15717033 -0.18593824 0.15959655 -0.16332574
-0.1300608 0.42588744 0.44855306 0.19505727 0.5807169 0.1494927 0.08786459 -0.171015
0.20374766 0.5484764 -0.07986853 -0.042753577 -0.39920756 -0.146104 -0.33147934 0.7244116
0.19635312 0.22428924 -0.51510465 -0.3478919 0.03915162 0.16491932 0.05066721 0.15754588
0.6537109 0.010089626 0.4033003 0.6196121 0.1538663 -0.18965223 -0.6544636 -0.081752904
-0.2545785 0.21755503 0.46158692 -0.6291665 -0.11481598 -0.35139817 -0.11348049 -0.06185406
0.06383527 -0.17310561 -0.78015614 0.23773812 -0.16817333 0.32697642 -0.43954125 -0.31302288
0.85540015 0.34696922 0.37147373 -0.0010825114 -0.078190714 0.033682972 0.14946587 0.46614456
0.28387225 0.20244756 -0.29797354 -0.04731915 0.5974483 0.28214782 0.31232563 0.12780894
0.3120148 -0.1266874 -0.33078814 0.29728276 -0.18532178 -0.14569043 0.014615344 -0.5748714
0.08709556 0.6884578 -0.5162323 0.52737314 -0.21409436 -0.22433208 0.29860905 -0.30171475
0.3342786 -0.8414082 0.039609984 0.016200606 -0.2707075 0.19482227 -0.37056732 -0.22666861
0.07525139 0.00932933 -0.3076987 -0.2919419 0.26818317 -0.080448546 -0.6392214 0.45372355
0.16714701 0.027137596 0.038477175 0.47521085 0.06847233 -0.33378816 -0.087077394 -0.35434082
0.5294101 0.055718366 0.35722226 -0.46047598 -0.1849406 0.7404955 -0.282567 -0.45757034
-0.69685495 0.06104462 0.17656998 0.23476195 -0.4288691 0.682086 -0.109691225 0.2916089
0.25598145 0.5440863 -0.10725377 -0.16499953 0.31734586 -0.010433639 -0.0728178 -0.4144086
-0.36142826 -0.5111023 -0.0123230945 -0.1853002 0.5989701 0.1814765 -0.15161067 -0.15714884
0.26315263 0.03680426 0.0038501495 0.4919045 0.35637397 0.6645776 0.45163664 0.22146153
0.30702192 0.45564362 -0.33457372 0.13019241 0.26614892 0.6705597 -0.826885 -0.024717072
-0.33937865 -0.24177098 -0.24065512 0.014020387 -0.22426844 0.25334966 -0.030147148 -0.13140583
-0.024818111 0.18905774 -0.08199074 -0.0463756 0.26223755 0.4566375 0.56440985 -0.6881835
0.3324059 -0.5381292 -0.35978964 -0.36220285 0.3206254 -0.2880055 0.09484451 -0.17282155
0.11918418 -0.32977274 0.64629215 0.6258959 0.19287641 0.10827524 -0.10611066 0.28614482
0.2899635 -0.5387841 -0.031814113 0.49717999 -0.24434559 -0.385623 0.005982928 -0.30745688
0.34638247 -0.44538775 0.06880083 -0.50952303 0.040155634 0.5851613 0.4758885 0.23658834
0.033113495 0.19187184 0.057867017 -0.17861713 -0.77937615 0.21087518 0.09941048 -0.23640977
-0.09977604 0.21437845 -0.0011670836 0.23227172 -0.8608583 0.25679883 0.2109388 -0.21039344
0.18005705 -0.39206442 0.034897994 0.34940886 -0.31845778 0.43874025 0.14809573 0.60751283
0.10004429 -0.016791197 0.12742652 0.33721045 0.1163067 0.2066405 0.60242885 -0.12150287
-0.80911595 0.083604224 0.092796735 0.39644012 0.32513502 0.3766821 -0.5629704 -0.1840585

gnn_base.gnn.embed_layer.lin_h.0.bias f4 [16]
00000000: 0000 0000 0000 0000 0000 0000 0000 0000
00000010: 0000 0000 0000 0000 0000 0000 0000 0000
00000020: 0000 0000 0000 0000 0000 0000 0000 0000
00000030: 0000 0000 0000 0000 0000 0000 0000 0000
0.0 0.0 0.0 0.0 0.0 0.0 0.0 0.0
0.0 0.0 0.0 0.0 0.0 0.0 0.0 0.0

gnn_base.gnn.embed_layer.lin_h.2.weight f4 [16]
00000000: 6fef 813f 1319 7d3f efdc 803f 06a6 7d3f
00000010: 2161 803f 5c2c 753f f9fc 803f 0748 803f
00000020: 2a67 7c3f 0f40 7c3f 66db 7f3f b2b4 833f
00000030: e99a 7b3f 3ee2 823f 8146 7a3f b66c 813f
1.0151194 0.98866385 1.0067424 0.99081457 1.0029641 0.9577081 1.0077201 1.0021981
0.98594916 0.98535246 0.9994415 1.0289519 0.9828325 1.0225294 0.9776383 1.0111301

gnn_base.gnn.embed_layer.lin_h.2.bias f4 [16]
00000000: 6f65 a2bb 2fd8 a5bb fdba 0b3c fa6b 6a3b
00000010: 04c5 83bb 9cca d6bc 368f a33b 626a c4b9
00000020: db4c cb3b 6d02 a9bc 36a8 d43c 482a 803c
00000030: 344b 8b3c 3701 a93c 886a 723c 8364 b4bb
-0.0049559395 -0.0050611715 0.008528468 0.0035769925 -0.004021289 -0.026219659 0.0049914373 -0.00037463295
0.0062042302 -0.02063104 0.025959115 0.015645161 0.017003633 0.020630462 0.014795907 -0.005505146

gnn_base.gnn.embed_layer.lin2.0.0.weight f4 [16, 16]
00000000: 0218 753e d4b2 f43d f8c5 323f 80fa ebbe
00000010: 7d42 68be 113b 413e c14b c1be 7501 2cbf
00000020: cb99 09be e26b 0a3e 9035 283f ed4e 1c3e
00000030: 36d9 183e 1cfb 4fbe 9dff 133e a98a 28be
00000040: a9ab 0bbe debb e33e 71a5 dc3e b7d7 543e
00000050: b02f 103f 5470 143e 3863 cc3d 8859 22be
00000060: 6f31 583e 380c 053f f38e a6bd 22f0 77bd
00000070: c67b c6be ce43 08be b81d a3be 5281 3e3f
00000080: ec22 493e 4d52 583e 8182 03bf df8a b2be
00000090: fd57 3b3d d5bf 273e 4fe7 5f3d 6904 203e
000000a0: a421 233f d91d e93c c26a d13e 9935 213f
000000b0: 3f97 153e 4ade 4abe 337e 27bf 87b0 bebd
000000c0: 6ccd 86be 8331 533e 1951 ef3e d991 1fbf
000000d0: 937a e1bd a395 aebe 0bd3 f8bd c157 86bd
000000e0: 4056 333d fdc5 2abe 742e 47bf 4206 7a3e
000000f0: 8906 34be cc09 a53e e44f e0be c7f8 a3be
00000100: 2874 5e3f 0cd6 a53e 683a c13e 3ad7 24bc
00000110: 06c0 9abd d020 413d 5f26 283e bc1c ef3e
00000120: 2ea8 8b3e 46dc 543e 694a a2be 2656 1dbd
00000130: 10c6 193f 6afc 943e 3fca 883e 883d 073e
00000140: 98a3 983e 5068 eebd 3537 adbe 31d5 993e
00000150: a5c5 4bbe 3089 14be 4ee2 953c caa6 0dbf
00000160: 6a5f 9c3d e040 2f3f 1318 00bf 6b2c 043f
00000170: 3c90 48be acf2 59be eb27 9d3e 82ea 96be
00000180: f65d b23e d45e 53bf 107e cd3c 6fb0 a13c
00000190: 85dd 8dbe ea44 403e 07b8 cdbe cf84 6abe
000001a0: 998c af3d 0a03 dc3b 130e 9abe e937 99be
000001b0: 06ab 893e 753b d8bd bf33 22bf 9b35 ea3e
000001c0: b1e4 273e f4f5 763c 5fd1 463d 2061 ef3e
000001d0: 7897 ae3d b832 a4be 115f b3bd 26b5 b4be
000001e0: 2a32 073f 6330 483d ad95 ba3e d448 e8be
000001f0: 5ca4 34be 3472 3e3f 72f7 93be d463 f4be
00000200: 5fb9 31bf 56c4 533d 65cd 423e 334b 813e
00000210: a4cd dcbe 4db2 233f dc3b e0bd 0fb3 9e3e
00000220: 0fec 863e ee22 093f 8de0 88bd 92d9 37be
00000230: ed2b a23e 5311 b4bc ff3b 98bd f0b1 d2be
00000240: 6d3a babe aaf4 07bf 5e49 d63a 1f44 49be
00000250: 1139 1e3f e6b5 2e3e de56 2abe 164c 37be
00000260: 9e5e 733e 219d ac3d a5bf 5238 a270 033f
00000270: f575 b43e b18c 253f a2b2 d23e 9763 513e
00000280: eaf6 963e 7d38 f13e 046b b8be 755b 293e
00000290: d195 723e 687e 263f 362d 4abf ab2e 103c
000002a0: bda5 a6be a33e 89be 28fc 86be 1279 acbc
000002b0: a2f1 46be 1904 933e c471 debb 2ef4 c9bd
000002c0: 40ef d1bc bffc 423e fc99 7cbd dbb1 32bd
000002d0: 7a38 953e a422 ec3e d6e0 083f b7cf 30bf
000002e0: 62fd a93e faf1 08bf 6821 b5be ad25 a9be
000002f0: 0283 9f3e bf17 a3be 5b75 e83d d635 54be
00000300: 8e3a 2a3e 0101 afbe 875f 273f 7513 1e3f
00000310: f299 553e 888a 023e 8138 fcbd 73cb 853e
00000320: 8d77 8d3e 1e9b 06bf 5ffb 00bd 2bef 023f
00000330: 438f 83be 75fc cdbe 3d52 53bc f96b a3be
00000340: a016 ab3e 0a19 d7be 6b16 263d 132f 00bf
00000350: 1877 813c 468d 113f a20d ff3e a25f 813e
00000360: cc49 313d 0826 223e 5f73 6c3d d271 51be
00000370: 937f 46bf 692a 6b3e 75fc f43d 6bbc 59be
00000380: 632e fabd af19 663e 5bb2 be3b 2eaa 613e
00000390: 5d75 5ebf b306 953e 9331 613e 1899 4ebe
000003a0: 43f6 363e fbc2 cebe 30b7 0b3d 7d57 b03e
000003b0: 87e4 95be 140d ee3e a988 1f3e b0fc 173f
000003c0: 2983 d73d 650c 17bd 4e6d 173e f94a a93e
000003d0: 0ed4 133e 9038 5c3e 9c39 163f 62ef 1dbe
000003e0: 1052 50bf 5aba c03d 6721 a23d d0ca d43e
000003f0: fa53 9a3e 06f6 b73e 2c79 15bf 5c7c 44be
0.2393494 0.11948171 0.69833326 -0.46089554 -0.22681613 0.18870188 -0.37753108 -0.67189723
-0.13437574 0.13517717 0.6570673 0.15264483 0.1492661 -0.20310634 0.14452977 -0.16459145
-0.13639702 0.4447927 0.43094972 0.20785414 0.56322765 0.14495975 0.09979862 -0.15854466
0.21112607 0.5197177 -0.08132734 -0.060531743 -0.38766307 -0.13307115 -0.3185861 0.7441608
0.19642228 0.21125145 -0.5137101 -0.34871575 0.04573821 0.16381772 0.054663952 0.15626682
0.63723207 0.028456615 0.40901762 0.6297241 0.14608477 -0.19811359 -0.6542694 -0.09311014
-0.263286 0.20624356 0.4674156 -0.6233192 -0.11009707 -0.3409854 -0.12149628 -0.065597065
0.043783426 -0.16677089 -0.77805257 0.2441645 -0.17580618 0.32234037 -0.43810952 -0.3202574
0.8689599 0.32389867 0.37739873 -0.01006108 -0.07556157 0.047150433 0.16420887 0.4670161
0.27276748 0.20787153 -0.31697395 -0.038412236 0.60067844 0.29098827 0.26716802 0.13207066
0.29812312 -0.1164099 -0.33831182 0.30045465 -0.19899614 -0.14505458 0.018296387 -0.55332625
0.07635386 0.68458366 -0.50036734 0.51630276 -0.19586271 -0.21283978 0.30694517 -0.2947579
0.34837312 -0.8256657 0.025084525 0.01973745 -0.27708068 0.18776289 -0.40179464 -0.22902225
0.08571739 0.0067142295 -0.30088863 -0.2992547 0.26888293 -0.105582155 -0.6336021 0.45744023
0.16395833 0.015073288 0.048539516 0.46753788 0.08524984 -0.32069945 -0.08758367 -0.35294455
0.5281092 0.04887427 0.3644232 -0.45368063 -0.17640823 0.7439301 -0.28899723 -0.47732413
-0.6942348 0.051700912 0.19023664 0.25252685 -0.4312564 0.6394394 -0.10948917 0.30995986
0.26351973 0.53568923 -0.06683455 -0.1795409 0.31674138 -0.021980917 -0.07433318 -0.4115138
-0.363727 -0.531077 0.001634877 -0.19654892 0.61805826 0.17061576 -0.166347 -0.17900118
0.23766562 0.084284075 5.0246384e-05 0.5134374 0.35246244 0.64667803 0.4115191 0.20448147
0.29485255 0.4711341 -0.36019146 0.16538794 0.23689963 0.6503663 -0.78975236 0.008800189
-0.32548323 -0.268056 -0.26364255 -0.021053825 -0.19428113 0.28714064 -0.0067884643 -0.09861027
-0.025626779 0.19041727 -0.06167029 -0.043626647 0.2914465 0.4612018 0.5346807 -0.6906695
0.33201128 -0.53494227 -0.3537705 -0.33036557 0.3115464 -0.31854054 0.11350509 -0.20723662
0.166239 -0.34180453 0.6538014 0.6174844 0.20859507 0.12748158 -0.12315465 0.26131782
0.27630273 -0.5258044 -0.031489726 0.5114619 -0.25695238 -0.40231672 -0.012898025 -0.31918314
0.334157 -0.4201129 0.040548723 -0.5007183 0.015803859 0.5685619 0.4981509 0.25268275
0.04328327 0.1583482 0.057727214 -0.20453575 -0.7753841 0.22965397 0.11962215 -0.21263282
-0.12215879 0.22470735 0.0058196015 0.22037575 -0.8689783 0.29106674 0.21991567 -0.20175588
0.17867379 -0.40383133 0.034110248 0.34441748 -0.29275915 0.46494353 0.15579475 0.59369946
0.10523064 -0.036877055 0.1478779 0.33065012 0.14436361 0.21505952 0.58681655 -0.15423349
-0.8137522 0.09410544 0.07916527 0.41560984 0.30142194 0.35929888 -0.5838802 -0.19188064

gnn_base.gnn.embed_layer.lin2.0.0.bias f4 [16]
00000000: 8ef7 183c c9d7 73bc 50a2 913b f025 3d3a
00000010: 2298 793c 380a 89bc 8442 a0bb a469 0c3c
00000020: 9b2b 74bc d82f a13c dd39 24bd 16ce 40ba
00000030: 1158 453c 14cb 24bc ecf3 113c c87c 0d3c
0.009336365 -0.01488299 0.004444398 0.0007215431 0.015234025 -0.016728505 -0.004890742 0.008570109
-0.0149029745 0.019676134 -0.040094245 -0.0007354928 0.012044922 -0.010058183 0.008908253 0.008635707

gnn_base.gnn.embed_layer.lin2.0.2.weight f4 [16]
00000000: c81c 823f a8ca 7c3f 23f5 7e3f 38bf 7c3f
00000010: bc9f 7a3f 5de7 7e3f d9ce 803f 86b1 7c3f
00000020: 64d7 813f 3b45 823f dfee 823f e936 7d3f
00000030: 803c 813f 367c 833f a405 803f 10a8 7f3f
1.0165033 0.9874673 0.995928 0.98729277 0.97899985 0.9957178 1.0063125 0.9870838
1.0143857 1.0177377 1.0229148 0.9891191 1.0096588 1.0272281 1.0001721 0.9986582

gnn_base.gnn.embed_layer.lin2.0.2.bias f4 [16]
00000000: 539c 093c d1e8 4ebc 9442 e13b 2ee4 263c
00000010: 57a1 df3c a57f 0dbc 3d6b 4cbb 8ae7 533c
00000020: acdb 27bc 86df 903c a786 a1bc 7ec3 073c
00000030: 697d 8b3c 0a1f 61bb edf7 2e3c affe af3c
0.008399087 -0.01262875 0.006874392 0.010186238 0.027298613 -0.00863639 -0.0031191849 0.012933621
-0.010245245 0.01768471 -0.019717528 0.008286355 0.017027574 -0.0034350776 0.010679227 0.021483747

gnn_base.gnn.gnn1.lin_key.weight f4 [48, 16]
00000000: 018e 243d 54b8 dc3d 6d33 fb3d 58a7 dd3c
00000010: c303 593d b7ba 49bc bff0 35be 8f1c 5bbd
00000020: 5cd8 863e 850f 38be ec23 18be 37fd 7bbe
00000030: 7d36 213c 4bf4 82be b84b 02be 47cf 5a3e
00000040: 3e92 f33d e105 143e ed98 343d 77e8 63be
00000050: 19bc 06be f656 47be a459 2bbe eb63 a83d
00000060: 56af bfbd 9422 8b3e 8aa3 46be 8c2f 62be
00000070: 2383 8c3e e7e7 74be 3517 443e 00de 853d
00000080: 50d3 65be 077a 523e f1c4 86bd 1bb5 f8bd
00000090: 806f 4abe 30e3 62be 143e 6a3d efff 66be
000000a0: aed6 b33d 32d8 b6bd ded1 a23d a33a 73bd
000000b0: 9c11 933d dc54 ae3c 1c16 bb3d 5b7f b5bd
000000c0: fd91 47be 203e 803c 309a 30be 61ed 15be
000000d0: 885f 63be 07d4 b5bd 99fa 16be 79e7 473e
000000e0: 8630 4f3e ff20 0b3d 76f1 673e 8a46 0b3e
000000f0: bdf0 87be cd47 823b 76d5 2ebc 7397 1cbe
00000100: ddc1 d03d da8f debd 28a4 a7bd 68e3 01bd
00000110: 541f 3abe 7da2 413e c0ca 123e c421 793e
00000120: 5ae6 8fbd 124e c13d f607 74bc cd82 5bbe
00000130: 9f09 063e 7277 31be b0ee d9bd 1df7 e7bd
00000140: 766b 71be a5bc 5cbc a132 263d dc92 d3bc
00000150: 0258 453e 3a1d 26ba 469f 17bd e286 04be
00000160: 6e1d 1dbe 1115 4ebd 312c ffbd 0374 1fbe
00000170: 7b1f 39bd 04bc b9bc 45f9 0ebe 4757 fa3d
00000180: 35b3 4d3e 96cf 20be 0a35 d93d 8eef c5bd
00000190: 365d 00bd d5f3 723e c789 e03c a046 7fbe
000001a0: 0de6 783e 3f8b c5bb c86b 0ebe 43da 08be
000001b0: d6bf 573e 8eff 4a3c 455c 0b3e 8cc3 363e
000001c0: b09c cbbd d81f 603d 269c 30be 6450 703e
000001d0: c825 0fbe 0d4f 363e 0b97 313d 4738 103e
000001e0: 38ea 3fbe 596a da3b ba5a c53d 4795 c1bc
000001f0: 5153 273c 184a ef3d 8b1d 49be 5e2c 14bd
00000200: 306a d23d c77e 073e 193b 693e 5b9c 21bd
00000210: e4da 233d 8c93 ccbd 43ec 4ebd b5fa 14be
00000220: aa89 373e 9644 273c 70d0 933d 2727 043e
00000230: 7611 473d f0e6 133d 1ca8 afbc fc65 36be
00000240: a648 873d 3c26 9bbc 571f 43be a930 6f3e
00000250: f8a3 44bd aa91 d6bd a2d1 8abe 7d88 76be
00000260: bcbd 853d 5c62 c6bd 36ab 14be 1cda 39be
00000270: 4c6a 6f3e 865e acbd 819f 083e fde0 633e
00000280: c3ba 4fbe 495d 613e be8a 65bd 5d41 893e
00000290: 87ca 013e c803 60be cf3a 313d 4fd6 963d
000002a0: bf87 9bbd a0f6 493e fb3d 67be 1ad7 c7bd
000002b0: db3b 763e 3c30 663e cc70 e63d d040 09be
000002c0: c844 32be 932f 6fbe 4030 b93a dddd fb3d
000002d0: 1b18 373d 3c6b 2fbd 96a0 493e b485 463e
000002e0: 0271 12be 1066 aebd 3d7a 0bbd 18a7 ed3c
000002f0: 3bbc a73c 8ad4 cf3d e512 1d3e 114e 00bd
00000300: d711 0c3e cbc9 23bc 99da fd3d 6559 7f3d
00000310: 0d4d bbbd a9e1 f3bd a60b bb3d 4645 25be
00000320: efd3 d53d 3d0f 20be 1c29 2c3e 8658 d93d
00000330: 248e 62bd 590f 303e 0a5a 95bd cf74 933d
00000340: 7242 333d f3a9 793d d1d4 3e3c 0b1c bf3c
00000350: 0181 2abd ff43 123e 30f1 f53d affd aa3d
00000360: 9ac6 463e 0f94 07be 1271 02bd 1528 513c
00000370: 908c 483e 2f18 5abe 6e4f 11be bf09 b0bd
00000380: 7ede 7fbe 06b5 2ebe 736d 083e 67b5 203d
00000390: c512 39be 03aa f0bc c67c 3d3c 2ffb c6bd
000003a0: 4872 35be 2ea8 ff3d 4118 15bc 0562 833e
000003b0: be8b 51be a3de 0dbe a6fa cfbb 0eaf 36be
000003c0: 54aa 373e 2c7f 173e 9d15 693e ea0c 36be
000003d0: 53c2 3c3e e28a 1e3e 344a b8bd f1d4 0b3d
000003e0: 9f1d f73d 5a95 2f3e 1a00 5dbe f2a2 8b3e
000003f0: aceb 99bd b876 043e c924 0cbe f9aa 55be
0.040174488 0.10777345 0.12265668 0.027057335 0.052982103 -0.012312583 -0.17767619 -0.053494032
0.26336944 -0.1797467 -0.14857453 -0.24608313 0.009839651 -0.25577006 -0.12724197 0.21368133
0.11893128 0.14455368 0.044091154 -0.22256647 -0.13157691 -0.19466767 -0.16733414 0.08222183
-0.093596146 0.2717482 -0.19398323 -0.2208845 0.274438 -0.23916589 0.19149478 0.06536484
-0.2244389 0.20554362 -0.06580532 -0.12143918 -0.19769096 -0.22156978 0.05718811 -0.22558568
0.08781181 -0.08927955 0.07950185 -0.059382092 0.07181093 0.021280698 0.091350764 -0.08862182
-0.19489284 0.015654624 -0.17246318 -0.14641334 -0.22204411 -0.08878332 -0.14744033 0.19521894
0.20233354 0.033967014 0.22650704 0.13601127 -0.26550856 0.0039758445 -0.01067101 -0.15292148
0.101932265 -0.10867281 -0.08185607 -0.031711012 -0.18176013 0.1890964 0.14335155 0.24329287
-0.07026358 0.09438719 -0.014894476 -0.21436615 0.13089608 -0.17330721 -0.10641229 -0.1132643
-0.2357615 -0.013472711 0.040575627 -0.025826864 0.19271854 -0.00063367526 -0.03701713 -0.12942079
-0.15343258 -0.05031306 -0.12459601 -0.15571599 -0.045196038 -0.02267266 -0.13962276 0.12223678
0.20087893 -0.15704188 0.106058195 -0.09664832 -0.031338893 0.23725827 0.027409447 -0.24929285
0.24306507 -0.0060285623 -0.13908303 -0.1336451 0.21069273 0.012390031 0.13609417 0.17848033
-0.09941995 0.05471787 -0.17247066 0.23468167 -0.13979256 0.17803593 0.043356936 0.14083968
-0.18741691 0.0066655097 0.09636445 -0.023630751 0.010212735 0.11684054 -0.19640176 -0.036175124
0.1027416 0.13231955 0.2277645 -0.039455753 0.040003672 -0.0998908 -0.050518285 -0.14548762
0.17923608 0.010209223 0.07217491 0.1290556 0.048600636 0.03610891 -0.021442465 -0.17812341
0.066056535 -0.01893913 -0.19054924 0.23358406 -0.048007935 -0.10477002 -0.27113062 -0.24075504
0.065303296 -0.09686729 -0.14518437 -0.18149608 0.23380393 -0.084164664 0.13342096 0.22253795
-0.20286088 0.22008242 -0.056040518 0.2680768 0.12674914 -0.21876442 0.043268975 0.07365095
-0.07594251 0.19722986 -0.22582237 -0.09757824 0.2404627 0.22479337 0.11251983 -0.1340363
-0.1740905 -0.23357992 0.001412876 0.122981764 0.044700723 -0.042826876 0.19690165 0.19386941
-0.14300922 -0.085155606 -0.034052122 0.02901034 0.020475497 0.101479605 0.15339239 -0.03132445
0.1367868 -0.009996842 0.1239521 0.062341113 -0.09145556 -0.11908276 0.09133081 -0.16139707
0.10440814 -0.15630813 0.16812557 0.10612588 -0.055311337 0.17193355 -0.07292564 0.07200014
0.04376454 0.06095309 0.011647419 0.023328802 -0.041626934 0.14283751 0.120088935 0.083491676
0.19411698 -0.13240074 -0.031846114 0.012765904 0.1958487 -0.21298288 -0.14190456 -0.08595609
-0.24987218 -0.17061242 0.13323002 0.0392355 -0.18073566 -0.029377943 0.011565393 -0.09715878
-0.17719376 0.124832496 -0.009100021 0.2566072 -0.20463464 -0.1385446 -0.0063470183 -0.17840216
0.17936069 0.14794606 0.22762151 -0.17778364 0.18433504 0.15482667 -0.08998528 0.034138624
0.12066197 0.17146817 -0.2158207 0.27272755 -0.07515654 0.12935913 -0.13685907 -0.20866002

gnn_base.gnn.gnn1.lin_key.bias f4 [48]
00000000: 60d8 f03c 00f8 ce3d f074 32be f837 553e
00000010: 3cb5 b63b f67a 253e 7887 623d b0d5 e3bc
00000020: 0c4f db3d 5c05 733e d085 7c3e ae7c 57be
00000030: 806b 783c 82e7 37be 7228 153e eec7 373e
00000040: 38c3 33be 20bb 6cbc 8225 313e 664b 293e
00000050: 867a 40be dae2 2b3e d849 35bd 8cb8 59be
00000060: d8fa 4b3d 7c85 ee3d 5087 193e 6e0f 2ebe
00000070: 966a 39be 1001 2cbe 0e14 113e 3abd 5fbe
00000080: 6228 0abb ec74 96bd a48a df3d e018 493d
00000090: 1446 01be d0db 323d aa96 6b3e 5898 283d
000000a0: f4b7 fdbd 4022 093c bad0 6abe a43f 24be
000000b0: b834 3ebd de86 1fbe dec8 583e d8c4 463d
0.02940005 0.10105896 -0.1742742 0.20822132 0.005575804 0.16160187 0.055304974 -0.027811855
0.10708436 0.23732513 0.2466042 -0.21043655 0.015162349 -0.17959407 0.1456621 0.17947361
-0.17554939 -0.014448911 0.17299464 0.16532668 -0.18796739 0.16785756 -0.044259876 -0.21261805
0.04979977 0.11646554 0.14993024 -0.16998073 -0.18107066 -0.1679728 0.14167807 -0.21849528
-0.00210812 -0.0734652 0.109151155 0.04909599 -0.12624389 0.04366666 0.23006693 0.04116091
-0.12388602 0.008369982 -0.22931185 -0.16039902 -0.046436995 -0.15578791 0.21170375 0.04852757

gnn_base.gnn.gnn1.lin_query.weight f4 [48, 16]
00000000: e3e1 603e d63c a6bd 0bee 37bc 621f 583d
00000010: 8e73 d0bd 723c a6bd 5bf7 87be c402 2b3e
00000020: 872d 423e 93eb 64be c6e3 c3bd 32ea 42be
00000030: a12f 9bbd c9a2 643e 09f7 113e 476f 51bc
00000040: 0434 f13d 890d 3b3d dfb6 173e 9b47 41be
00000050: b1e3 973d 515e 7fbe b301 2bbe d620 d0bd
00000060: 57be 28bd 7490 71be 5116 2e3c 47a4 853d
00000070: 9afb c3bd 0ecb 9c3d 1ad3 7d3e a1f2 87bd
00000080: c018 efbd 6d4d 49be 8d4d 28be 5343 2abe
00000090: 75ee 4abe 55ce 9cbd 337d f03d 6e92 953d
000000a0: ad0f 673e c1ad 833e c3de f0bd 6516 10be
000000b0: 914d 4b3d 7a5d 59be 8cec d23d 9efa 65bc
000000c0: e5f6 5dbe 1bef 27be f2a5 38be a9ba 6c3d
000000d0: 5684 4b3e b3d4 523e 7c89 8fbd ad1a 0fbe
000000e0: 2375 b3bd d09c 2ebe c89c 91bd 0441 7cbe
000000f0: 8dff 023e ea8d 7cbe 8744 3bbe a206 383e
00000100: 6620 31be ba0a 263d d0c3 533e 6287 783e
00000110: 4df5 e03d 8b11 9ebd 5334 0a3e b637 e3bb
00000120: 6817 d5bd 1759 233b 914c 523d 07f5 403e
00000130: ad1b f03d aca5 0d3e 0f83 803d bd05 bebc
00000140: 3ebb 0d3e 91f2 833d 6f47 59be 7cfe cc3c
00000150: 95bb 11be 7f7b f9bd 4062 8b3d bf2e fd3c
00000160: b9e8 473b 55c2 bcbd 8965 af3d ea24 573e
00000170: 6b56 893d 43ba c53d 86c1 68be 32d3 303e
00000180: ddf7 be3d 5c13 db3d 390d de3d b6b8 68bd
00000190: 6ae1 b8bc 719b 753e 9e13 3e3e 036e 3ebe
000001a0: d278 363e ad44 7f3e 4cac 1c3d 1cd8 3cbe
000001b0: ba95 593d 44b9 33bd 3908 4f3e be6a 7abe
000001c0: e956 9a3d 5968 a13c fdf7 043d aa11 1d3e
000001d0: 5434 24bc e658 51be 9bab 1fbe caff bdbd
000001e0: cb0b 693c d991 bd3d 7cac 71bd 552d f7bd
000001f0: 0029 fe3d a66d 81be 871b 2c3e 2e43 70bc
00000200: 857b 243e 7606 353e 4674 b93c 719e d83d
00000210: 2d8e 02be 01a9 293e f62b 213e ff69 36bd
00000220: f49a f03d eb00 b9bc 1f21 5e3e de9f de3d
00000230: 7521 293e 5157 4cbe e91e 713e 1bc6 9e3d
00000240: d75f 0e3e 5a5f 2b3d 6b00 383e 0daf 633e
00000250: b6a3 0cbd d90e 54be 46cb 5e3e fddc 75bd
00000260: 10c0 17be a958 2c3e 21af 013e e46b 133d
00000270: 6186 f43a 4a71 52bd a445 803e 32d9 1b3e
00000280: b611 133e 4185 143e ec4b 04be 0b71 423d
00000290: 9dcb 4bbe a361 0b3e ef01 76be d32b 72be
000002a0: 71ee 69be f53d 143e ce68 063d a20e f4b9
000002b0: e9a9 e63c c2fc edbd 1309 a9bd 765f 3cbe
000002c0: 3f08 a5bd 22a8 0cbe a877 46bc c18c 493e
000002d0: b83e 44be b801 033e e491 36be ddb6 bbbd
000002e0: fe5c 983d fa8e 0b3d 4bf5 543e 0819 e7bb
000002f0: 71f9 e1bd 05b5 f1bd 1010 cbbb 282a 39be
00000300: 12be 55be 85ac adbd b856 93bc bb95 18be
00000310: b05f 00be 0ee4 383e e078 753e 3361 b5bd
00000320: 754a 44be ca4a bebd 63f5 e53d 7783 8a3d
00000330: 9862 b4bd b6c1 60be 330c b0bd 806d 4bbd
00000340: 3ba2 223e 3337 0cbe 5951 2f3e aed5 e43c
00000350: 541b 74bd 5495 6abe e10c 733e 77e7 3fbd
00000360: 820d 0a3e 3ce9 fcbd 397e 80be 4b65 45be
00000370: 99c3 e9bd 2509 63bd 3b11 ddbc d9b5 513e
00000380: 8e70 87be 9c6c 1c3e 139b 413e babf bd3c
00000390: c719 05be 8d29 153c 78dc a63d 5ad1 053e
000003a0: 59a8 20bd f471 f0bd 01aa ccbd 6418 65be
000003b0: 533b 5b3d 74a3 5cbe 83d4 03be f5fb 9abc
000003c0: 664f 503e e4ee 3d3e 1c1b 28be 1d36 753e
000003d0: 3fbe 613e 9dc0 473e 0a8f dc3c 1434 403e
000003e0: 150c e03d c0fc 37be 9197 ebbd d982 fd3c
000003f0: 4453 33be 7d15 8bbd 2094 593e 34d9 b33d
0.21961169 -0.08117072 -0.011226187 0.052764304 -0.1017829 -0.08116998 -0.26555905 0.16700274
0.1896268 -0.2235549 -0.09564929 -0.19034651 -0.07577444 0.22327723 0.14254393 -0.012782878
0.11777499 0.045667205 0.14815854 -0.18874972 0.074164756 -0.24938323 -0.16699867 -0.10162513
-0.041197147 -0.2359026 0.010625438 0.06525474 -0.095694736 0.07655917 0.2478756 -0.06638075
-0.116746426 -0.19658442 -0.16435833 -0.16627245 -0.19817527 -0.07656542 0.1174263 0.0730332
0.22564574 0.257185 -0.117612384 -0.14071043 0.04963452 -0.21227065 0.10299024 -0.014036803
-0.21676214 -0.16399805 -0.18032053 0.0577952 0.19874701 0.20588951 -0.07008645 -0.1397502
-0.087625764 -0.17052007 -0.07109982 -0.24634176 0.12792797 -0.24663511 -0.1828786 0.1797128
-0.17297515 0.040537573 0.20680165 0.24270394 0.109842874 -0.0771819 0.13496523 -0.0069341315
-0.10404855 0.0024924928 0.05134255 0.1884347 0.11724029 0.1383273 0.062749974 -0.023196096
0.13840958 0.0644275 -0.21218656 0.025023691 -0.14231713 -0.12181758 0.06805849 0.03090608
0.0030503704 -0.092167534 0.08564288 0.21010175 0.06705936 0.09654667 -0.22730073 0.17268065
0.0932462 0.10697052 0.10842366 -0.05681678 -0.022568423 0.23985077 0.18562171 -0.18596654
0.17819527 0.24928541 0.038250253 -0.18441814 0.053121306 -0.043877855 0.2021798 -0.24454781
0.07536108 0.019703077 0.032463063 0.1533877 -0.010022242 -0.20444068 -0.15592806 -0.092773035
0.014224003 0.09256334 -0.059002385 -0.12069193 0.12410164 -0.25278968 0.16807376 -0.014664454
0.16062744 0.17678246 0.022638451 0.10577095 -0.12749548 0.16568376 0.15739426 -0.04453468
0.11748305 -0.022583446 0.21692322 0.10870336 0.16516669 -0.19955184 0.23546948 0.07752629
0.13903747 0.04183898 0.1796891 0.22234745 -0.034335814 -0.20708789 0.2175723 -0.060025204
-0.1481936 0.16830696 0.12664463 0.035991564 0.0018655771 -0.051377572 0.25053132 0.15219572
0.14362225 0.14503957 -0.12919587 0.047471087 -0.19901891 0.13611464 -0.24024175 -0.2364953
-0.22844864 0.1447676 0.032814793 -0.0004655021 0.028157191 -0.11620475 -0.08253684 -0.1839579
-0.080582134 -0.13736013 -0.012113489 0.196826 -0.1916455 0.12793624 -0.1782909 -0.09165738
0.07439612 0.0340719 0.20796697 -0.0070525445 -0.11033905 -0.11802105 -0.006196983 -0.18082488
-0.20873287 -0.08480171 -0.017985687 -0.14900868 -0.12536502 0.18055746 0.23971891 -0.0885643
-0.19169028 -0.09291609 0.112284444 0.06763356 -0.08807868 -0.21948895 -0.08596077 -0.049664974
0.15882199 -0.13692932 0.17120875 0.027933922 -0.059596375 -0.22908527 0.23735382 -0.0468516
0.13481715 -0.123491734 -0.250963 -0.19276921 -0.114142604 -0.055428643 -0.026985755 0.20479526
-0.2645306 0.15275806 0.18906812 0.023162711 -0.12998115 0.009104145 0.0814752 0.13068143
-0.03922305 -0.11740485 -0.09993363 -0.22372586 0.053523373 -0.21546727 -0.12874036 -0.01891897
0.20342788 0.18548161 -0.16416591 0.23946424 0.2204523 0.1950707 0.026923675 0.18769866
0.109398045 -0.1796751 -0.115035184 0.030946182 -0.17512232 -0.06791208 0.21247911 0.087816626

gnn_base.gnn.gnn1.lin_query.bias f4 [48]
00000000: 0125 793e 9882 1bbd a38f 2b3e 492b 9ebd
00000010: 3b13 3d3e 5d12 d63d 0355 663e 108b b13d
00000020: e9f8 d3bd 114d 023e bf26 553e 70b7 333d
00000030: 16be ed3d 1751 36be da8a db3d 5570 7fbe
00000040: 4f6b 553e 585c 043e 1aad 413d 6aa9 54be
00000050: 2e80 723e 8b5b 2a3e ef15 513e 6cbe f83d
00000060: 9492 813d 5c1e 90bd c269 19be 7176 ef3d
00000070: f10a c03d 2133 d5bc a366 da3c ba04 873d
00000080: 92bd 80be 430a 40be 4656 99bd c90b 0c3e
00000090: 2bc3 0c3e 4c94 6abe bdce b3bd 4547 cbbb
000000a0: 1387 733d f635 5e3e d8fa a3bb 74ef 37be
000000b0: adf9 e93c 513a 03be 885f 29be 72c2 213e
0.24330522 -0.03796634 0.16754012 -0.077231 0.18464367 0.10452721 0.22493367 0.08669102
-0.1035021 0.12724711 0.20815562 0.04387611 0.11608522 -0.17804371 0.10719843 -0.24945195
0.20841716 0.12925851 0.047284223 -0.20767751 0.23681709 0.16636483 0.20418523 0.12145695
0.06326786 -0.070370406 -0.1498175 0.11692513 0.09377087 -0.026025357 0.02666027 0.065926984
-0.2514463 -0.18753915 -0.074871585 0.1367637 0.13746326 -0.22908133 -0.087796666 -0.0062035643
0.05945499 0.21700272 -0.005004268 -0.17962438 0.028561438 -0.12815215 -0.16540349 0.15796831

gnn_base.gnn.gnn1.lin_value.weight f4 [48, 16]
00000000: 822c 39bd e434 0f3e fe45 4b3e 8ada 063d
00000010: 8276 f13d 1296 c3bd 6e4c 193e 8d65 873c
00000020: f86b 103e 51d6 813e e8b4 2cbe 884c 6b3e
00000030: 6e4d 583e 51bf 51be d086 8d3d 07af 42be
00000040: 67a8 c63d 27ab 0d3d 8129 6fbe 61b2 b43d
00000050: f40a 83bd 7f28 863e 188c 7a3e 0938 8b3d
00000060: d6bb 443e d66b c53d 201d 7b3e a7a9 14bd
00000070: 1570 983d c503 87bd af37 d6bc a895 a1bd
00000080: 4a63 ddbd 0aa7 243e 2021 c23d e679 dbbd
00000090: e3de 50be df24 b93d 15bd 5abe 5109 233c
000000a0: 2b1f 4cbe 7d5b 3e3e 653d 5d3e ab67 46be
000000b0: f592 7cbe 82de 27be fa82 963d edce 10be
000000c0: 971b 28bd 23ac b4bd 41cd 953d 565a 18be
000000d0: 922c 9a3d 70cc 10be 4785 5abd 2b1e 323e
000000e0: 5add 35be d119 643e 0494 dc3d 8df0 c8bd
000000f0: 4ca9 ec3d 51e6 efbd b955 fc3c cef9 d83d
00000100: be2a 5d3e d7d7 08be 4494 1abe 084a edbd
00000110: 6559 7bbe d432 653d fbb3 52be 9a42 9cbd
00000120: 709d e0bd d6e0 9e3c f308 963d c9e3 3bbe
00000130: a89f 90bd 9ac4 83bc ac1a 13be 84a5 7f3d
00000140: 9003 833d 2ee8 33be 9e8f 383e b00f 393e
00000150: b0c6 75bd ece2 863c 2592 353d f602 4abc
00000160: 97f0 20be a337 343e 535c 0e3e 8ecf 38be
00000170: 4515 5fbe 7c09 7b3e 6688 b03d 9098 85bd
00000180: b48d 243e 3fb6 ae3d 2ec9 aa3d f250 553e
00000190: 68d1 c8bc 48db 723e 8227 32be 9c62 24be
000001a0: fdd5 343d 7e89 d1bc 627f 1a3e e9cd 7fbd
000001b0: e34c 1a3d c1cb 21bd 1acc 4d3e 9076 bdbc
000001c0: 248d b03b 83ad 393e 7768 6f3e 1218 7b3e
000001d0: 9e14 7cbe 4c0a 12be d6fa 5ebd 01b0 58bd
000001e0: c644 163e c26b 023e 6c5a cabc 8e8f 043c
000001f0: d421 663d acac 4b3e 7868 173e b460 07be
00000200: 97f8 ecbd 6b38 a73d aaeb 2bbc 9392 30be
00000210: 134c 81be 0b6f 873d bd65 a7bd c5a1 1dbe
00000220: 7654 323d 4a34 7f3e b71a 4d3e 4aac f23d
00000230: a1c0 38be a660 073e b439 ef3d ca3e c13d
00000240: 5938 5bbd 4f54 bdbc 8e40 02be d5e5 7abd
00000250: 05be 2bbd 5d61 50bd 1dc3 81be 268d bc3d
00000260: c540 55be a4ca 4dbe 72f0 bf3d e88e 4abe
00000270: 0ff8 6e3e 4c45 803e 7b0e 8ebd 2078 3ebd
00000280: 97a9 60be 503f f23b 50ab 023d a434 0fbe
00000290: dfa4 b23d 5a69 06bd a9a8 70bd 0069 a33c
000002a0: 7b02 74be d767 3abe eac2 3f3d 3d76 843e
000002b0: 0ffa 24be 23b0 2e3e b60a 8d3d 7538 f1bd
000002c0: d570 f23b b915 bf3d c5f7 183d 72aa 553e
000002d0: b020 5bbd 5b63 1fbe cf5b 5b3e 4fb5 99bd
000002e0: 3612 183e 010d 273e 67ec 0f3d a2ae 5abe
000002f0: 697b 74be 29eb 1c3e ad62 4b3d 5818 2e3e
00000300: 6dd9 50be 23af 72bd 66df 5e3e 9ef3 e73d
00000310: d373 353e 67da 643e 2e36 a3bd 471b 53be
00000320: 6889 1fbe d468 ed3d 9f41 f3bd 409a 0cbd
00000330: d853 823d 7de3 553e e618 fb3d 7bbf 3e3e
00000340: 8e71 303b 5598 1f3e f1fc 09be b786 a8bd
00000350: 8660 74bc ab8e 11be 1047 7f3e ab2f 08bd
00000360: 14bb ca3d 4139 f9bc c248 ba3c 2b48 fbbd
00000370: 7215 18bd fc08 89be 9c2b 02be f720 2b3e
00000380: eaaf 72be e2af 153d e62d 073d 8320 6ebe
00000390: 597f 1c3d 08be ff3d a3cf 2d3e a135 093d
000003a0: 5ef2 423e 9a1a f33c d836 af3d fc23 c23d
000003b0: e37a 38be 1144 51bd 4afb 14be 6775 403e
000003c0: e500 d63d a961 cdbd ea2e 6abd 4e0a a63d
000003d0: cc67 5dbe decd 313a 11a3 f83d f23d 123d
000003e0: a966 91bc f39e 1d3e 1382 db3d 44bc 4fbe
000003f0: 0f27 0b3e 6d7f 35be 6d5a 333e 8efe 563e
-0.04520846 0.1398502 0.19850919 0.03292326 0.11790182 -0.09550108 0.14970562 0.016527915
0.14103687 0.25358823 -0.16865885 0.22978413 0.21123287 -0.20483138 0.06910479 -0.1901208
0.09700089 0.03458705 -0.23355676 0.088230856 -0.063985735 0.2620277 0.24467504 0.06797797
0.19212279 0.09639709 0.24522829 -0.036294606 0.07443253 -0.06592516 -0.026149599 -0.07889873
-0.108099535 0.16079345 0.09478974 -0.1071661 -0.20397525 0.09040236 -0.21361192 0.009950952
-0.19933765 0.18589588 0.21605451 -0.19375484 -0.24665435 -0.16393474 0.073492005 -0.14141436
-0.041041937 -0.08821895 0.0731454 -0.1487821 0.07528032 -0.14140487 -0.05334976 0.1739432
-0.1776022 0.22275473 0.10770419 -0.098115064 0.11555728 -0.11713851 0.030802594 0.105945215
0.21598336 -0.13363586 -0.15095621 -0.11586386 -0.2454582 0.055956677 -0.2057647 -0.07629891
-0.10967529 0.01939432 0.07325926 -0.18348612 -0.07061702 -0.016084958 -0.14365643 0.062413707
0.06397164 -0.17569038 0.18023536 0.1807239 -0.060003936 0.016465627 0.044328827 -0.0123298075
-0.15716778 0.17599349 0.13902406 -0.18047926 -0.21785457 0.24515337 0.08619766 -0.065232396
0.1606968 0.085308544 0.08339153 0.2083166 -0.024513915 0.23716462 -0.17397884 -0.16053241
0.044149388 -0.025578257 0.15087655 -0.06245223 0.03767098 -0.039500955 0.2009739 -0.023127824
0.005387919 0.18132596 0.23379694 0.24520901 -0.2461724 -0.1426174 -0.054438435 -0.052902225
0.14674672 0.12736419 -0.02470132 0.008090867 0.056184605 0.19890088 0.14785945 -0.13220483
-0.11570852 0.08165058 -0.010493198 -0.17243414 -0.25253353 0.06612977 -0.08173702 -0.15393741
0.04353758 0.2492229 0.20029722 0.11849268 -0.18042232 0.13220462 0.11680928 0.09435804
-0.053520534 -0.02311149 -0.12719938 -0.06125434 -0.041929264 -0.050874103 -0.25344172 0.092066094
-0.20825489 -0.20096833 0.09372033 -0.19781077 0.23336814 0.2505287 -0.06936356 -0.04650128
-0.21939693 0.0073928013 0.031901658 -0.13984925 0.08722853 -0.032815315 -0.058754597 0.019947529
-0.23829071 -0.18203674 0.046816744 0.2587146 -0.16111015 0.17059378 0.068868086 -0.117783464
0.0073987045 0.09330315 0.037345666 0.20865801 -0.05349797 -0.15565245 0.21421741 -0.07505285
0.14850697 0.16313554 0.03513756 -0.2135568 -0.23875202 0.15324081 0.04965465 0.17001474
-0.20395441 -0.059249055 0.21764907 0.11325763 0.17719965 0.22348939 -0.07969318 -0.20615874
-0.1557976 0.1159226 -0.118777506 -0.03432679 0.06363648 0.20887561 0.122606084 0.18627732
0.0026923153 0.15585454 -0.13475396 -0.0822882 -0.014915591 -0.1421458 0.24929452 -0.033248585
0.098989636 -0.030422809 0.022739772 -0.12269624 -0.037129827 -0.26764667 -0.12711948 0.16711794
-0.23699918 0.036544688 0.033002757 -0.2325459 0.038207386 0.124874175 0.16973738 0.03349841
0.19037768 0.02967577 0.085553825 0.0947952 -0.18015628 -0.051090304 -0.14548984 0.18794785
0.10449389 -0.10028393 -0.057173647 0.08107434 -0.21621627 0.0006782691 0.121404774 0.035703607
-0.017749147 0.15392666 0.10718169 -0.20286661 0.13589118 -0.1772439 0.17514963 0.20995542

gnn_base.gnn.gnn1.lin_value.bias f4 [48]
00000000: 173e 583e 8f23 19be 872a 283e 92d3 9dbd
00000010: 280d b23d e1a1 1abe dc40 f9bd 88c5 623d
00000020: 4c08 393e 469f 97bc b927 9d3d 5b73 08be
00000030: 97a0 d03d f17f 34bd 1c1f 57bd 89d6 ec3d
00000040: 910f e2bd 91d5 25be 4372 b2bd 5be1 163e
00000050: 7e4f 683e d0d7 593e 61af 253e 11c9 28be
00000060: e69a 6d3e c2ad d33d f49a e03c 8ba5 0fbe
00000070: 063d e1bd 12ba 463d 6c36 91bc eee3 9fbd
00000080: ed76 5fbe 09b6 503e 7f95 7a3d 0668 633d
00000090: 1c9b 343c 6b5c f83d 1985 27be 8e2e a8bc
000000a0: 82f3 6a3e f076 18bd 379e 6cbe 26f5 13be
000000b0: 5c1a 363e e5e7 ec3d ec3d 353e ee32 c4bd
0.21117435 -0.14954971 0.16422473 -0.077063695 0.086939156 -0.15100814 -0.12170574 0.05536416
0.18069571 -0.018508565 0.07673592 -0.13325255 0.1018688 -0.044067327 -0.052519903 0.11564357
-0.11038125 -0.1619475 -0.087132 0.14734404 0.22686574 0.21273732 0.16180183 -0.16482951
0.2320362 0.10335876 0.027417637 -0.14027993 -0.109979674 0.048517294 -0.017726146 -0.07807146
-0.2182271 0.20381941 0.061177727 0.055519126 0.011023309 0.12127002 -0.16359366 -0.020530012
0.22944453 -0.037222803 -0.23107229 -0.14448985 0.17783493 0.11567668 0.17699403 -0.095800266

gnn_base.gnn.gnn1.lin_edge.weight f4 [48, 1]
00000000: 682b 00bf bbaf 68bf dd94 3e3d a822 4fbe
00000010: 7a14 713f 1604 edbe a2ef 24bf 5471 c83e
00000020: def6 b8be 488f cbbd 1919 7c3f f39c 203f
00000030: e0c5 78bf 04af ea3c e0d5 163d 5a62 793f
00000040: 8157 60bf bdaa 173f 2296 81bf 52da 74bf
00000050: dfe5 04bf a547 76bf 41bf 8cbd 5b4d 4d3f
00000060: 0de2 8abe 8d1f 44bf bd70 c1bd 8b19 50bf
00000070: 2d55 323f 98d4 f43d bcac 643f 4a86 d63e
00000080: ddbf ad3e d302 a33e c487 673f af65 1abf
00000090: b019 1fbf d4a0 423f b082 b33e 37c4 683f
000000a0: 1685 763e ed0c b73e 8da3 1a3f 253c 263f
000000b0: 191e 103f 8f40 4fbf 8052 973e efdf 2fbf
-0.5006623 -0.90893143 0.046528686 -0.20228064 0.9417187 -0.4629218 -0.6442815 0.39148962
-0.36125845 -0.09939438 0.98475796 0.62739486 -0.97176933 0.028647907 0.03682506 0.974157
-0.8763352 0.592449 -1.0123942 -0.9564563 -0.51913255 -0.9620307 -0.06872416 0.8019616
-0.27125588 -0.7661064 -0.09445331 -0.81288975 0.6966122 0.119546115 0.8932607 0.4189933
0.33935443 0.31838092 0.90441537 -0.60311407 -0.6214857 0.76026654 0.35060644 0.909244
0.24074206 0.3575205 0.6040581 0.64935523 0.56295925 -0.80957884 0.2955513 -0.6870107

gnn_base.gnn.gnn1.lin_skip.weight f4 [16, 16]
00000000: f803 383d 7634 203e a1d8 bbbd a9f4 733e
00000010: 72fe 663e 3ad4 b53d 68ee 14be 0995 903a
00000020: c6f6 513e 2610 703d 7c51 723e 4ce5 553c
00000030: 8442 b9bd 9744 0b3e 8d2b 9b3d 496a fb3d
00000040: 35c8 28be 4ad8 20be d5b9 1e3e 6213 af3d
00000050: 7937 4e3e 1881 48be 7691 c1bd a5b0 6d3c
00000060: 3a7c e8bd 4888 083e df8d 5a3e 8818 623e
00000070: b62e 653c 5379 86be 0894 abbd 3be4 583d
00000080: 994f 98bd e953 d03d 7e01 99bd 9410 443e
00000090: 5321 6e3e b96a 703e ba19 cb3d 8ede 20be
000000a0: ae36 72bd a293 24be 1ab9 0b3e b654 4bbc
000000b0: d01f b63d 2bb6 a23d 16cc 85bd 7be9 b93c
000000c0: f07e c4bc 24d9 563d f48a 19be ba09 50bb
000000d0: 0802 2a3e 616b 1c3e 7d88 36be e9f4 3e3e
000000e0: a508 fcbd 4d0e 763e 8d25 b0bd a166 773e
000000f0: 1e88 213e dc03 d8b8 798b 433e caff 693e
00000100: e5c3 48be 3d80 083d 1182 2c3e c8c5 a6bc
00000110: c690 193e 3a93 4e3e c407 4dbe ccaf 063e
00000120: 9cd7 6dbe 96e9 243e 211e 17be 0839 9dbd
00000130: 7534 7f3d d4e6 3cbe 0509 3a3b 38c8 91bd
00000140: 9ba2 973d cfa4 2fbc 0440 71be cc7f f5bc
00000150: 3d96 2e3d ac6a 073e 70e6 08be faee 27be
00000160: bea5 f43d fb3c 18be 0775 b6bd c0a9 7dbe
00000170: c6a6 62bd a0d7 46be da19 fb3c cd47 483e
00000180: 9869 e63d 9dbf 50be cc48 623e db36 4dbe
00000190: d93c cebd 207c 133e a0bc f83d 30cc fc3d
000001a0: 095f 85bd f6d1 51be 2b8b 7dbe 1e43 fe3c
000001b0: 44d9 6fbe d496 30be cdeb 253e 88ef 5fbd
000001c0: 57bb d03d b8f7 61be e9c4 293d af33 5d3e
000001d0: 06ac 043d 52a1 383d 40a3 2dbe 9550 49be
000001e0: 005d 0b3e 33d6 4abe 9f88 cfbc e438 55be
000001f0: cc1c 123d 6502 71be 3b9d 9d3d 5df4 4e3c
00000200: 0a9a 1cbe 0166 8cbd 76dc c7bd c390 fcbd
00000210: fdc8 80bd 381c 883d 8194 1bbe 24fa 4a3d
00000220: 0c5f 58be 86d8 7a3e e9c4 1abe f35d b83d
00000230: 4e36 26be ff7e 57be e086 7bbd e298 0dbe
00000240: 5843 85bd 2841 cebd 7823 adbd f820 46be
00000250: b45f 7b3e 0682 fd3d 2163 aabd 0e8d 353e
00000260: 8d91 eebd 05ab 4dbe 8a4d a33d 090a b1bd
00000270: ffae 4a3e 802f 9bbd 7ecb 48be f987 493e
00000280: a3dd 263d 5d33 a73d 7bde e0bc 3ab6 53be
00000290: d28d be3d 9180 0ebc b0d1 21be 84bc 223e
000002a0: 4754 66be 90b4 24be a453 62bd 96aa 58be
000002b0: 9d59 70be 7c34 b3bd cd42 dcbc 8d48 313e
000002c0: 4e1d bc3d c0dc 803e ce43 4e3d e380 a63c
000002d0: 8ec0 2ebd 8bdf e6bd b719 5abe f1fd 5abe
000002e0: 9bc7 e33d 4191 2cbe e97f b6bd 0dca ef3d
000002f0: d731 2cbe 8c22 043e f3c5 8c3c d05d 603d
00000300: 9079 e6bd 7900 273e 1a79 66be 7658 74be
00000310: 72a4 343e 8f00 27be 11fe 4a3e 9b3c b03d
00000320: fb62 b53d bef5 99bc 7716 c83c c167 fe3c
00000330: aa11 d7bd 21f4 723e 16c4 233e 76c7 923d
00000340: b243 573d 0ff8 ffbc 98d7 dbbd e871 2ebe
00000350: 7f1d 91bd 9f16 7ebe 7bb7 72bd cf99 033e
00000360: 0a5b 863e a749 87be 9256 37be 70f6 5f3e
00000370: 18bf e5bd 9407 89bb ae40 1f3e 3800 4d3e
00000380: b705 f73d 3e6a 143d 8877 793c 6c33 9cbb
00000390: 3d5b 8e3d ebe2 71be 30e5 87be 416c 083e
000003a0: 7949 8cbe 3f76 3c3e 6b6c 263e e317 203e
000003b0: 9b35 eb3d 12ab 4c3d 8f15 d13d f461 143e
000003c0: 6303 fc3b ce2f 2cbe 4536 1c3e bdb7 403d
000003d0: 9d1f 0f3e 7d81 11be bd0b 82bd ea3e 39be
000003e0: bef1 0d3c 4189 623e e73c 2b3d 8b1b 4d3e
000003f0: a9a3 433e a406 22be 6de6 713e 9bae f53c
0.04492566 0.15645012 -0.09172178 0.23823799 0.22558 0.0887837 -0.1454407 0.0011030744
0.20504293 0.05860915 0.23663896 0.013055157 -0.0904589 0.13600384 0.07576666 0.12276132
-0.16482623 -0.15707508 0.15500577 0.08548619 0.20138349 -0.19580495 -0.094515726 0.014507447
-0.11351819 0.13333237 0.21343182 0.2207967 0.013988188 -0.26264438 -0.08377844 0.052952033
-0.07437057 0.101722546 -0.07470988 0.19146949 0.232549 0.23478211 0.09917016 -0.15709898
-0.059134178 -0.16071942 0.1364483 -0.012410333 0.088927865 0.07944902 -0.06533067 0.02269434
-0.02398631 0.052453175 -0.14994413 -0.0031744079 0.16602337 0.15275337 -0.17825504 0.18648113
-0.12306336 0.24028893 -0.08600912 0.24160244 0.15774581 -0.000103004015 0.19096173 0.22851482
-0.19605978 0.033325423 0.16846491 -0.020357981 0.14996633 0.2017335 -0.20022494 0.13152999
-0.2322678 0.16104731 -0.14757587 -0.076768935 0.062305886 -0.18447429 0.0028386724 -0.07118267
0.074040614 -0.010720446 -0.23559576 -0.029968165 0.042623747 0.13224286 -0.13369155 -0.16399756
0.11945675 -0.14867012 -0.0890904 -0.24771786 -0.05533483 -0.19418192 0.030651975 0.1955864
0.11250609 -0.20385595 0.22098082 -0.20040457 -0.100701995 0.14402819 0.12145352 0.12343633
-0.06512267 -0.2049025 -0.2476012 0.031037863 -0.23422724 -0.17245036 0.16203232 -0.054671794
0.10191982 -0.22067153 0.041447554 0.21601747 0.032390617 0.045075722 -0.16956806 -0.19659646
0.13609695 -0.19808273 -0.0253337 -0.20822483 0.035671994 -0.2353607 0.07696005 0.012631503
-0.15293136 -0.06855393 -0.097588465 -0.123322986 -0.062883355 0.06646007 -0.15193368 0.04955496
-0.21130008 0.2449666 -0.15114178 0.090022944 -0.16231653 -0.21044539 -0.061407924 -0.13827851
-0.065069854 -0.10071021 -0.08454031 -0.19348514 0.24548227 0.12378316 -0.083196886 0.1772959
-0.11648855 -0.2008477 0.07973774 -0.08644492 0.19793318 -0.07577419 -0.19608876 0.19680776
0.040738713 0.08164094 -0.027449837 -0.20674983 0.09304394 -0.008697645 -0.15802646 0.15892226
-0.22493087 -0.16084504 -0.055255547 -0.21158823 -0.23471685 -0.08750245 -0.026887322 0.17312832
0.09185277 0.2516842 0.050357632 0.02032513 -0.042664103 -0.11273106 -0.21298872 -0.21385933
0.11122056 -0.16852285 -0.08911116 0.1170846 -0.16815887 0.12903804 0.017184233 0.054776967
-0.11253655 0.16308774 -0.22507134 -0.2386187 0.17640856 -0.16308807 0.19823481 0.086053096
0.0885677 -0.018793937 0.024424775 0.031055333 -0.10501416 0.2372594 0.1599277 0.071669504
0.052554794 -0.031246213 -0.107344806 -0.1703564 -0.07085704 -0.24813317 -0.05925701 0.12851642
0.26241332 -0.2642338 -0.17904118 0.21871352 -0.11218089 -0.0041818116 0.15552017 0.20019615
0.12061637 0.036234133 0.015226252 -0.004766872 0.06950996 -0.23621719 -0.26542044 0.13322546
-0.27399805 0.18404482 0.16252296 0.15634112 0.11484834 0.049967833 0.1020919 0.14490491
0.0076908334 -0.16815111 0.15255077 0.047050226 0.13976903 -0.14209552 -0.06349895 -0.18090406
0.008663593 0.2212267 0.041806128 0.20030038 0.191054 -0.15822846 0.23623057 0.029990485

gnn_base.gnn.gnn1.lin_skip.bias f4 [16]
00000000: bd3b 3b3e 1576 143d f8c2 6ebd 9df3 683e
00000010: 1cc5 4abe 173d c4bb cdd8 45bd db64 a83b
00000020: 75c8 7fbd 49b9 483e fe96 fcbc e20b ec3d
00000030: 3593 fa3d fb68 553e 5be8 b63d b593 83be
0.18284507 0.036245424 -0.058291405 0.22749181 -0.19801754 -0.005988728 -0.04830246 0.005138976
-0.06244703 0.1960193 -0.030833717 0.11525704 0.12235109 0.20840828 0.08931037 -0.2569863
