onpolicy/results/GraphMPE/navigation_graph/rmappo/crap_bad/run20/models/critic.pt (torch, 199203 bytes, 61 tensors)

gnn_base.gnn.embed_layer.entity_embed.weight f4 [3, 2]
0.92565167 0.86320907 -0.90149605 1.2230766 -1.5828958 1.728151
00000000: 82f7 6c3f 45fb 5c3f 72c8 66bf c68d 9c3f
00000010: 549c cabf 0d34 dd3f

gnn_base.gnn.embed_layer.lin1.0.weight f4 [16, 7]
0.002294242 -0.04753076 -0.33239335 -0.38139874 -0.22994371 0.10482507 -0.6728505 0.4216009
-0.15536684 -0.042524498 -0.4611031 -0.5288095 0.6078956 0.37997586 0.012436525 0.3841618
0.4248371 0.010425568 0.44053337 0.1168959 0.06481227 -0.11251356 -0.21483244 -0.36429635
0.32512337 0.4123172 0.38927206 -0.06349659 -0.34877738 -0.04702531 -0.2569211 0.5585142
-0.46033853 -0.53260183 0.45476535 -0.39710432 0.43874222 -0.7549428 -0.12533267 -0.17282489
0.05987698 -0.52468807 -0.24981314 0.17128673 -0.06860063 -0.133165 0.61404836 0.14717244
-0.017694145 -0.43015188 -0.6814478 -0.105354086 -0.51491326 0.29496583 -0.20710933 0.39593396
0.1993503 0.30702487 -0.59326655 -0.07687853 -0.04994819 0.27504903 0.58234113 0.09316083
0.37537506 0.12352166 -0.10518779 0.10965064 0.1326237 0.51327336 0.12335587 0.19375826
0.22543034 0.7856856 -0.2300293 0.37797815 -0.09267726 0.49520367 -0.14954096 -0.13460031
0.14504434 0.17871702 -0.73683935 -0.23827092 0.24078944 -0.762902 -0.23561776 0.28228217
-0.16110158 0.25279218 -0.013925456 -0.69534713 0.15902595 0.18810838 -0.124319464 -0.49471137
-0.11739101 0.12637444 -0.4436117 -0.29965895 0.5041197 0.061794043 -0.12583196 0.4137996
-0.319188 0.37375873 0.12948304 0.3223336 -0.40356764 -0.36256543 -0.367041 -0.16235736
00000000: fe5a 163b 9daf 42bd 762f aabe b246 c3be
00000010: 5d76 6bbe 87ae d63d ee3f 2cbf 13dc d73e
00000020: 7c18 1fbe 2b2e 2ebd b515 ecbe 0f60 07bf
00000030: 0c9f 1b3f 328c c23e 91c2 4b3c dbb0 c43e
00000040: 4084 d93e 00d0 2a3c 978d e13e 1e67 ef3d
00000050: 4cbc 843d 826d e6bd 09fd 5bbe 0d85 babe
00000060: 9276 a63e 3d1b d33e ab4e c73e 800a 82bd
00000070: f392 b2be 9d9d 40bd 2a8b 83be c9fa 0e3f
00000080: 7eb1 ebbe 9858 08bf 01d7 e83e 4251 cbbe
00000090: d2a2 e03e ee43 41bf 3557 00be 02f9 30be
000000a0: 9041 753d f551 06bf 04cf 7fbe ca65 2f3e
000000b0: 7d7e 8cbd 685c 08be 4632 1d3f 5fb4 163e
000000c0: 50f3 90bc de3c dcbe 5d73 2ebf e2c3 d7bd
000000d0: 5bd1 03bf c305 973e 7814 54be dbb7 ca3e
000000e0: 7c22 4c3e 5d32 9d3e 51e0 17bf 7e72 9dbd
000000f0: 7996 4cbd 3ad3 8c3e 4f14 153f 1bcb be3d
00000100: 2931 c03e edf8 fc3d b26c d7bd 8490 e03d
00000110: 82ce 073e e265 033f 01a2 fc3d 9168 463e
00000120: 36d7 663e b122 493f cd8c 6bbe 5a86 c13e
00000130: 93cd bdbd 568b fd3e 4421 19be aad4 09be
00000140: 8186 143e 9801 373e 81a1 3cbf 4bfd 73be
00000150: 8291 763e 8c4d 43bf c845 71be 4a87 903e
00000160: d0f7 24be fa6d 813e 9927 64bc 4502 32bf
00000170: b3d7 223e 7c9f 403e 349b febd cf4a fdbe
00000180: b36a f0bd 4d68 013e 1321 e3be e66c 99be
00000190: fd0d 013f c01b 7d3d 18da 00be 8bdd d33e
000001a0: 9c6c a3be 4e5d bf3e 3497 043e e908 a53e
000001b0: 6ba0 cebe 2da2 b9be ccec bbbe 0241 26be

gnn_base.gnn.embed_layer.lin1.0.bias f4 [16]
-0.011491134 0.022376139 0.035299208 0.00765002 -0.0035313668 0.017867027 -0.033528853 -0.004344784
0.005482249 0.024498202 0.0114263985 -0.011352543 0.007161627 -0.013332042 -0.031152796 -0.022518786
00000000: 4f45 3cbc 2a4e b73c e795 103d 05ad fa3b
00000010: 816e 67bb df5d 923c 8d55 09bd b15e 8ebb
00000020: 70a4 b33b 74b0 c83c ca35 3b3c 0400 3abc
00000030: 15ac ea3b a36e 5abc 2634 ffbc 5179 b8bc

gnn_base.gnn.embed_layer.lin1.2.weight f4 [16]
1.027123 1.0057585 0.98555154 0.9934128 0.9983829 1.0057368 0.97089565 1.0014327
0.9922846 1.017575 0.99506044 1.007296 0.9954435 0.98095506 0.9714454 1.0210177
00000000: c478 833f b2bc 803f 1b4d 7c3f 4d50 7e3f
00000010: 0696 7f3f fcbb 803f 9e8c 783f f22e 803f
00000020: 5d06 7e3f e63f 823f 48bc 7e3f 13ef 803f
00000030: 63d5 7e3f df1f 7b3f a5b0 783f b5b0 823f

gnn_base.gnn.embed_layer.lin1.2.bias f4 [16]
-0.024930244 0.03162288 0.026168864 0.01126926 -0.00049431674 0.006115072 -0.0062710037 -0.002584468
0.012581232 0.021898119 0.028427573 -0.0067222873 0.008225927 -0.008410287 -0.030160239 -0.022420077
00000000: 833a ccbc fe86 013d 1660 d63c b4a2 383c
00000010: 0995 01ba f160 c83b fe7c cdbb 2e60 29bb
00000020: 8321 4e3c af63 b33c f1e0 e83c a246 dcbb
00000030: 0ac6 063c 4dcb 09bc 9b12 f7bc 4faa b7bc

gnn_base.gnn.embed_layer.lin_h.0.weight f4 [16, 16]
-0.09361978 0.78888524 -0.09104936 0.53840536 0.26673886 -0.074295655 0.08006872 0.57652265
0.36544985 0.12837581 -0.08835015 0.14249392 0.5432688 -0.09884774 -0.21536815 -0.35472086
-0.0078360895 0.036286477 0.43924505 -0.027940363 -0.742908 -0.25048643 -0.15695475 0.3834564
0.09684756 -0.39265046 -0.29238385 -0.3790189 0.5291029 0.07610985 0.36435512 0.45539135
0.42824608 -0.07419842 0.22171575 0.2060735 0.47692817 0.78480285 -0.40019757 -0.0030669235
0.09617948 0.074298896 -0.39457777 -0.33720016 0.09422235 -0.24852432 -0.26438138 0.5396538
0.0911118 -0.5410702 -0.035870887 0.5534641 0.44705477 -0.39196298 0.59785724 0.13046883
0.0410184 -0.74372226 -0.011125094 -0.110357925 -0.058521573 -0.25429922 -0.07919092 0.14802791
-0.97722876 -0.20645729 0.30192155 -0.10788297 0.3088068 0.33118948 -0.27288595 0.30269825
0.34809664 -0.33809182 0.0040838085 0.329112 -0.19653845 0.3659679 0.0092629455 0.10958293
-0.09349099 -0.010797781 0.8963391 0.42416304 0.14992574 -0.48735082 -0.49427298 -0.04158237
-0.3133417 0.2729822 0.1743666 -0.20440796 -0.324306 -0.23973761 -0.04154051 -0.30416855
-0.10458296 0.026326418 0.069729 0.58941686 0.18799096 0.3313233 0.28376162 -0.41906658
-0.13479804 0.18982916 0.078101404 -0.29187173 0.22830106 0.64765793 0.7803751 -0.093700305
-0.113433205 -0.23612472 -0.058846883 0.17616338 -0.3508474 0.36526212 0.14306496 0.39179823
-0.19875267 0.102322124 0.8325436 -0.5294071 0.10146117 0.23563069 -0.614105 -0.00913416
0.03310988 0.33925036 0.078742325 -0.4047949 0.45255527 -0.120366424 0.117113866 0.28171134
-0.96220917 -0.25072634 -0.29863983 -0.11004745 0.08984408 0.50551766 -0.21544558 0.03659608
-0.16912355 0.22297217 -0.4061574 -0.031207675 -0.049544536 0.063937746 -0.024354791 0.37576023
0.13803595 -0.055273216 -0.35494664 -0.8230247 -0.77619874 -0.11911323 0.2807237 -0.29405397
0.41077873 0.053383335 0.33470312 0.33348802 -0.542727 0.43590766 0.13216196 -0.024357917
-0.010991959 -0.4236114 -0.37215254 0.39925334 -0.3951256 0.34518227 -0.28912342 -0.5159529
0.34988558 0.033261046 -0.5574202 0.36527783 0.027464721 -0.094452046 -0.86100584 0.24336852
-0.21553764 -0.39187434 0.40448868 0.2945611 -0.12840086 0.1967639 0.31481463 0.13184646
-0.22287594 0.1465855 -0.20300189 -0.028625011 0.027401457 -0.18015866 -0.42250457 -0.8054249
0.21439621 -0.5279026 -0.079905264 -0.4689129 0.3399848 0.1606619 -0.47783452 -0.3251826
0.6054972 -0.41533345 0.18623398 -0.4154979 0.36320007 -0.2626101 -0.110184 0.31212115
0.60492206 0.14606877 0.066376984 -0.18104847 0.1101306 0.59358793 0.04695703 -0.3898459
0.23662165 0.53606755 0.40373868 -0.43466336 0.19521973 0.34786886 0.17368071 -0.087915346
0.115755506 -0.57413757 0.6779755 -0.07727501 -0.044948786 -0.3740732 0.37031156 -0.1412444
-0.13714269 -0.57338524 -0.112331085 -0.13669853 0.0014892217 0.36311236 -0.19411215 0.21641791
-0.39029887 -0.0824024 -0.183081 0.017914036 0.5417405 -0.49590534 0.28493372 -0.7688905
00000000: babb bfbd 62f4 493f 1678 babd efd4 093f
00000010: ff91 883e 5228 98bd 12fb a33d fd96 133f
00000020: 3e1c bb3e f374 033e ecf0 b4bd ede9 113e
00000030: aa13 0b3f af70 cabd 7889 5cbe f99d b5be
00000040: f162 00bc 21a1 143d bae4 e03e 30e3 e4bc
00000050: 382f 3ebf c23f 80be bfb8 20be 6654 c43e
00000060: 0358 c63d 7b09 c9be 56b3 95be c40e c2be
00000070: 4a73 073f 7bdf 9b3d c18c ba3e 0e29 e93e
00000080: 1243 db3e 57f5 97bd 7409 633e ee04 533e
00000090: ee2f f43e d7e8 483f b2e6 ccbe 70fe 48bb
000000a0: bff9 c43d 052a 983d 1906 cabe 80a5 acbe
000000b0: a6f7 c03d 297d 7ebe ff5c 87be c026 0a3f
000000c0: d398 ba3d 9483 0abf 5aed 12bd d3af 0d3f
000000d0: 5de4 e43e 5faf c8be 2c0d 193f 9f99 053e
000000e0: e902 283d 9564 3ebf 0746 36bc 5603 e2bd
000000f0: 51b4 6fbd 8233 82be d92e a2bd a194 173e
00000100: aa2b 7abf 8a69 53be 7695 9a3e bff1 dcbd
00000110: ed1b 9e3e ab91 a93e b5b7 8bbe 44fb 9a3e
00000120: b939 b23e 5f1a adbe 78d1 853b 5e81 a83e
00000130: 6041 49be 2560 bb3e 9cc3 173c 046d e03d
00000140: 3478 bfbd 2de9 30bc 7b76 653f e62b d93e
00000150: 2286 193e 0c86 f9be 5911 fdbe 4652 2abd
00000160: 536e a0be 53c4 8b3e 288d 323e 5250 51be
00000170: 700b a6be c77d 75be 6226 2abd fbbb 9bbe
00000180: 972f d6bd 80aa d73c 14ce 8e3d 06e4 163f
00000190: b480 403e 35a3 a93e 3449 913e e58f d6be
000001a0: 7f08 0abe 9362 423e a1f3 9f3d 3670 95be
000001b0: c1c7 693e e9cc 253f aac6 473f f2e5 bfbd
000001c0: ab4f e8bd aeca 71be 6e09 71bd 2c64 343e
000001d0: 45a2 b3be a303 bb3e 9f7f 123e c799 c83e
000001e0: d285 4bbe 438e d13d 9421 553f 3987 07bf
000001f0: e0ca cf3d 2c49 713e fc35 1dbf 72a7 15bc
00000200: 3a9e 073d 39b2 ad3e a843 a13d 4741 cfbe
00000210: 53b5 e73e ac82 f6bd 65d9 ef3d 783c 903e
00000220: 5753 76bf 345f 80be 52e7 98be 8f60 e1bd
00000230: 2c00 b83d 9b69 013f c49d 5cbe c5e5 153d
00000240: b92e 2dbe d152 643e ddf3 cfbe 3da7 ffbc
00000250: 36ef 4abd cbf1 823d b383 c7bc a563 c03e
00000260: 4c59 0d3e 2b66 62bd 91bb b5be bfb1 52bf
00000270: f6b4 46bf a3f1 f3bd 04bb 8f3e 3e8e 96be
00000280: 9751 d23e 7ca8 5a3d 355e ab3e f1be aa3e
00000290: 28f0 0abf 4a2f df3e 7755 073e 418a c7bc
000002a0: 9e17 34bc 98e3 d8be c78a bebe ef6a cc3e
000002b0: e74d cabe bbbb b03e fc07 94be 7d15 04bf
000002c0: 3424 b33e bc3c 083d 17b3 0ebf b205 bb3e
000002d0: b2fd e03c 1370 c1bd e16a 5cbf 9935 793e
000002e0: e6b5 5cbe c1a3 c8be 2419 cf3e b6d0 963e
000002f0: 847b 03be 7a7c 493e 622f a13e c202 073e
00000300: 9739 64be 821a 163e badf 4fbe 007f eabc
00000310: 0579 e03c 837b 38be 8552 d8be 5430 4ebf
00000320: ae8a 5b3e a024 07bf 5fa5 a3bd 5a15 f0be
00000330: 7d12 ae3e 8e84 243e baa6 f4be 557e a6be
00000340: dd01 1b3f 96a6 d4be 1fb4 3e3e 24bc d4be
00000350: 5cf5 b93e d574 86be 26a8 e1bd 58ce 9f3e
00000360: 2cdc 1a3f 0d93 153e a8f0 873d c564 39be
00000370: 278c e13d 61f5 173f 0456 403d e299 c7be
00000380: f24c 723e b93b 093f d6b6 ce3e 328c debe
00000390: aee7 473e de1b b23e 5bd9 313e f60c b4bd
000003a0: 3911 ed3d aefa 12bf cd8f 2d3f 5c42 9ebd
000003b0: 381c 38bd 8686 bfbe 7a99 bd3e 5fa2 10be
000003c0: 226f 0cbe 60c9 12bf d70d e6bd b3fa 0bbe
000003d0: fd31 c33a dde9 b93e 56c5 46be a89c 5d3e
000003e0: 41d5 c7be 97c2 a8bd 9679 3bbe 75c0 923c
000003f0: 81af 0a3f 4ee7 fdbe d5e2 913e 02d6 44bf

gnn_base.gnn.embed_layer.lin_h.0.bias f4 [16]
0.0 0.0 0.0 0.0 0.0 0.0 0.0 0.0
0.0 0.0 0.0 0.0 0.0 0.0 0.0 0.0
00000000: 0000 0000 0000 0000 0000 0000 0000 0000
00000010: 0000 0000 0000 0000 0000 0000 0000 0000
00000020: 0000 0000 0000 0000 0000 0000 0000 0000
00000030: 0000 0000 0000 0000 0000 0000 0000 0000

gnn_base.gnn.embed_layer.lin_h.2.weight f4 [16]
1.027123 1.0057585 0.98555154 0.9934128 0.9983829 1.0057368 0.97089565 1.0014327
0.9922846 1.017575 0.99506044 1.007296 0.9954435 0.98095506 0.9714454 1.0210177
00000000: c478 833f b2bc 803f 1b4d 7c3f 4d50 7e3f
00000010: 0696 7f3f fcbb 803f 9e8c 783f f22e 803f
00000020: 5d06 7e3f e63f 823f 48bc 7e3f 13ef 803f
00000030: 63d5 7e3f df1f 7b3f a5b0 783f b5b0 823f

gnn_base.gnn.embed_layer.lin_h.2.bias f4 [16]
-0.024930244 0.03162288 0.026168864 0.01126926 -0.00049431674 0.006115072 -0.0062710037 -0.002584468
0.012581232 0.021898119 0.028427573 -0.0067222873 0.008225927 -0.008410287 -0.030160239 -0.022420077
00000000: 833a ccbc fe86 013d 1660 d63c b4a2 383c
00000010: 0995 01ba f160 c83b fe7c cdbb 2e60 29bb
00000020: 8321 4e3c af63 b33c f1e0 e83c a246 dcbb
00000030: 0ac6 063c 4dcb 09bc 9b12 f7bc 4faa b7bc

gnn_base.gnn.embed_layer.lin2.0.0.weight f4 [16, 16]
-0.120656826 0.80663913 -0.10437913 0.5439385 0.24341702 -0.08944715 0.09359574 0.57808644
0.38566417 0.15111962 -0.08017596 0.119043134 0.5392796 -0.08130148 -0.19682603 -0.37739033
0.0018129721 0.02678235 0.43709105 -0.025975011 -0.73156667 -0.2424449 -0.16857053 0.38220713
0.08771295 -0.40871596 -0.29431647 -0.36943108 0.528552 0.07656832 0.35730898 0.46428034
0.379908 -0.09333411 0.23779885 0.2538208 0.44499803 0.8190977 -0.35505357 -0.018649463
0.13667825 0.107654184 -0.43400487 -0.38312277 0.055286285 -0.28802222 -0.30978537 0.49666294
0.1309735 -0.5226114 -0.053182546 0.5139982 0.47625864 -0.381448 0.5581096 0.106094256
0.008365076 -0.761816 0.008590919 -0.06973986 -0.038015794 -0.22873808 -0.07113595 0.18773998
-0.96461546 -0.1756791 0.29301053 -0.14494406 0.33386737 0.29205367 -0.31605738 0.26281762
0.35459676 -0.3232704 0.03039827 0.34176925 -0.16767588 0.3561006 -0.0034009404 0.12274237
-0.12506723 0.018949484 0.89580977 0.43594936 0.119085915 -0.5090663 -0.47440994 -0.04023816
-0.28348416 0.30055884 0.1894118 -0.23601499 -0.32657474 -0.24599245 -0.017041413 -0.33535033
-0.10531806 0.024589619 0.06623435 0.6012428 0.18876708 0.3320855 0.29163373 -0.41692019
-0.13330217 0.18367065 0.07790344 -0.292296 0.22870784 0.6417268 0.77854717 -0.09491998
-0.13733882 -0.21662992 -0.058335636 0.19465789 -0.3710385 0.35150155 0.16692555 0.3996359
-0.17609476 0.11736689 0.83834213 -0.55191976 0.10332753 0.2208349 -0.60743916 -0.031756584
0.06251589 0.32130194 0.09588817 -0.3962573 0.47376505 -0.09964672 0.12148098 0.26794875
-0.9679892 -0.25278 -0.3047635 -0.08737471 0.08917828 0.48638403 -0.23648772 0.060262714
-0.16554487 0.21694413 -0.40503144 -0.020280352 -0.038782116 0.06943357 -0.02272423 0.37799165
0.1324098 -0.077849306 -0.3553287 -0.8189856 -0.77364004 -0.122819066 0.27702886 -0.29080328
0.44523454 0.05949231 0.31023896 0.3096689 -0.5230721 0.42470843 0.09902526 -0.004844569
-0.04793544 -0.455767 -0.33873487 0.42704302 -0.3590892 0.37111214 -0.2507715 -0.48743215
0.37000167 0.013075695 -0.53919786 0.38439745 0.055204842 -0.076699845 -0.8441797 0.25797275
-0.23054677 -0.3852565 0.3896253 0.3136058 -0.14139819 0.17166741 0.29539433 0.14935647
-0.2357762 0.15665449 -0.2065476 -0.029119676 0.0075567276 -0.18745545 -0.42166042 -0.8140909
0.2255406 -0.50993204 -0.076154836 -0.48125157 0.33871213 0.16766752 -0.46753025 -0.33543167
0.6319304 -0.41990992 0.16978 -0.4504944 0.3853143 -0.25629932 -0.14376423 0.30541304
0.58476907 0.12769693 0.06590882 -0.1545694 0.14197217 0.5931185 0.06298923 -0.36323506
0.23959665 0.53101075 0.41402513 -0.42496338 0.19999868 0.3515841 0.179953 -0.08453563
0.112921454 -0.56469345 0.6740952 -0.07450823 -0.04955422 -0.38543782 0.36107782 -0.13781339
-0.12298654 -0.5865858 -0.11061243 -0.15767173 0.01283869 0.37449533 -0.19888334 0.20505363
-0.39649445 -0.080163464 -0.1837423 0.030893387 0.51604414 -0.47393677 0.2896724 -0.7553427
00000000: ed1a f7bd e77f 4e3f bac4 d5bd 8e3f 0b3f
00000010: 5042 793e 1130 b7bd 20af bf3d 79fd 133f
00000020: c675 c53e 1abf 1a3e 4b33 a4bd e3cc f33d
00000030: 3a0e 0a3f 6481 a6bd c38c 49be 4e39 c1be
00000040: 40a1 ed3a a966 db3c 66ca df3e 8cc9 d4bc
00000050: f447 3bbf 7a43 78be c19d 2cbe a7b0 c33e
00000060: d9a2 b33d 3843 d1be a6b0 96be 1226 bdbe
00000070: 2f4f 073f dacf 9c3d 34f1 b63e 27b6 ed3e
00000080: 4d83 c23e f425 bfbd 8b81 733e cdf4 813e
00000090: c8d6 e33e 63b0 513f 95c9 b5be c2c6 98bc
000000a0: 62f5 0b3e cc79 dc3d e335 debe ab28 c4be
000000b0: df73 623d a677 93be 309c 9ebe 9b4a fe3e
000000c0: eb1d 063e dcc9 05bf f1d5 59bd 6395 033f
000000d0: 2cd8 f33e 274d c3be 45e0 0e3f f247 d93d
000000e0: ac0d 093c 6006 43bf edc0 0c3c c6d3 8ebd
000000f0: 73b6 1bbd 513a 6abe baaf 91bd e93e 403e
00000100: 0af1 76bf 39e5 33be 7a05 963e 376c 14be
00000110: aaf0 aa3e 0f88 953e 46d2 a1be 0890 863e
00000120: b58d b53e b383 a5be cb05 f93c 61fc ae3e
00000130: 3ab3 2bbe d152 b63e 50e2 5ebb 5a60 fb3d
00000140: a011 00be f33b 9b3c ca53 653f c134 df3e
00000150: 51e3 f33d 2b52 02bf dce5 f2be c5d0 24bd
00000160: d624 91be d9e2 993e 2bf5 413e eaad 71be
00000170: ce34 a7be 72e5 7bbe 6f9a 8bbc 0ab3 abbe
00000180: ffb0 d7bd 2b70 c93c e0a5 873d 0ceb 193f
00000190: 284c 413e 1c07 aa3e 0451 953e 9076 d5be
000001a0: 5d80 08be 2914 3c3e d78b 9f3d d2a7 95be
000001b0: 6332 6a3e 3548 243f de4e 473f 6865 c2bd
000001c0: 8ca2 0cbe 3cd4 5dbe 59f1 6ebd 6654 473e
000001d0: c2f8 bdbe 03f8 b33e 88ee 2a3e 149d cc3e
000001e0: 2f52 34be 0d5e f03d 979d 563f 9d4a 0dbf
000001f0: 629d d33d 8b22 623e 2281 1bbf 3113 02bd
00000200: 5508 803d b081 a43e 0461 c43d 3de2 cabe
00000210: 5591 f23e 9413 ccbd 05cb f83d 9430 893e
00000220: 24ce 77bf 616c 81be f609 9cbe 83f1 b2bd
00000230: 1aa3 b63d 5407 f93e d629 72be 09d6 763d
00000240: 9884 29be 9a26 5e3e 4860 cfbe fb22 a6bc
00000250: ffd9 1ebd 3033 8e3d 2a28 babc 1f88 c13e
00000260: 6f96 073e 756f 9fbd a5ed b5be 0aa9 51bf
00000270: 460d 46bf 9088 fbbd bad6 8d3e 2be4 94be
00000280: c8f5 e33e 35ae 733d a4d7 9e3e ec8c 9e3e
00000290: 0ee8 05bf 6273 d93e c1cd ca3d 31bf 9ebb
000002a0: f457 44bd 4b5a e9be a86e adbe 62a5 da3e
000002b0: 8ada b7be 6902 be3e 1f65 80be b590 f9be
000002c0: dc70 bd3e 713b 563c df08 0abf becf c43e
000002d0: 791e 623d cf14 9dbd 291c 58bf 0115 843e
000002e0: 7414 6cbe 5740 c5be f87c c73e f090 a03e
000002f0: b0ca 10be 95c9 2f3e ed3d 973e e7f0 183e
00000300: 516f 71be 096a 203e 3781 53be 638c eebc
00000310: 6d9e f73b 52f4 3fbe e0e3 d7be 4368 50bf
00000320: 1df4 663e e88a 02bf 11f7 9bbd 9b66 f6be
00000330: ad6b ad3e 09b1 2b3e 2060 efbe b3bd abbe
00000340: 31c6 213f 6ffe d6be cfda 2d3e 34a7 e6be
00000350: ea47 c53e aa39 83be ee36 13be 195f 9c3e
00000360: 6db3 153f fcc2 023e 34fb 863d 7147 1ebe
00000370: 2761 113e 9dd6 173f 7f00 813d f2f9 b9be
00000380: d358 753e 52f0 073f 1afb d33e cd94 d9be
00000390: 74cc 4c3e d502 b43e 9945 383e 0421 adbd
000003a0: 5d43 e73d c08f 10bf 8191 2c3f c597 98bd
000003b0: 5ef9 4abd 1b58 c5be 31df b83e f41e 0dbe
000003c0: 5ee0 fbbd 7d2a 16bf c588 e2bd b374 21be
000003d0: 5e59 523c dabd bf3e 13a8 4bbe 94f9 513e
000003e0: 5201 cbbe be2c a4bd f126 3cbe 2114 fd3c
000003f0: 781b 043f d7a7 f2be f14f 943e 245e 41bf

gnn_base.gnn.embed_layer.lin2.0.0.bias f4 [16]
0.023436971 -0.0095716035 0.046100136 -0.038886983 -0.012095636 0.03131406 0.00023522385 0.022345949
-0.022485372 -0.004462741 -0.02646095 -0.019740133 0.012709291 -0.025298532 -0.0028619822 -0.013428518
00000000: e4fe bf3c 37d2 1cbc 7fd3 3c3d f547 1fbd
00000010: c62c 46bc 2c43 003d 6ca6 7639 da0e b73c
00000020: 3e33 b8bc 2f3c 92bb a2c4 d8bc 0fb6 a1bc
00000030: a13a 503c de3e cfbc 1890 3bbb 4903 5cbc

gnn_base.gnn.embed_layer.lin2.0.2.weight f4 [16]
1.0264782 1.0039577 0.9814526 1.0139538 0.98928356 0.9973946 1.0019541 0.9842471
1.0114031 1.0178691 0.99489486 1.0033755 1.0169749 1.0283242 1.0208744 0.9880977
00000000: a363 833f b081 803f 7a40 7b3f 3dc9 813f
00000010: b041 7d3f 4155 7f3f 0840 803f 9ef7 7b3f
00000020: a875 813f 8949 823f 6eb1 7e3f 9c6e 803f
00000030: 3c2c 823f 21a0 833f 03ac 823f f9f3 7c3f

gnn_base.gnn.embed_layer.lin2.0.2.bias f4 [16]
0.024349162 -0.005897327 0.019239381 -0.02717282 0.009537934 0.022420675 0.004092513 0.03133178
-0.014105175 0.008162065 0.0039158566 -0.018449584 0.024075722 -0.026872883 0.029735502 0.0123028625
00000000: e577 c73c 5d3e c1bb e89b 9d3c 8999 debc
00000010: ff44 1c3c 90ab b73c 7d1a 863b c155 003d
00000020: 6419 67bc 2fba 053c 9650 803b 9523 97bc
00000030: 733a c53c 8524 dcbc de97 f33c f291 493c

gnn_base.gnn.gnn1.lin_key.weight f4 [48, 16]
0.18817286 0.10281753 -0.02379684 0.11994068 -0.13489488 -0.14715129 0.23169869 -0.09689776
-0.19561613 -0.09484804 0.17185219 -0.079625286 -0.10887016 -0.18007362 -0.17026478 0.00018727894
-0.12802932 0.10739513 -0.11819327 0.044525467 -0.024401087 0.0027099361 -0.1590425 0.0070387074
0.055783182 -0.04836887 -0.061547596 0.13258967 0.03771265 -0.23345728 -0.2126834 -0.05269925
0.11622428 -0.14270948 0.1836536 0.006514709 -0.08885011 0.029669855 0.0394929 0.17105675
0.12993221 0.117208675 0.17405786 -0.05707707 0.11171087 0.13380422 -0.10226165 -0.18268266
0.18223499 0.2123918 -0.16527247 -0.20841163 0.18669502 0.089235134 -0.18158713 0.1921206
0.008431544 0.041027747 -0.18641397 0.12297548 0.057252306 -0.16644582 0.15190183 -0.00024290328
-0.23942968 0.101398505 0.040972248 0.21784806 -0.1489134 -0.017650936 -0.09940103 -0.03158637
-0.035478808 -0.087283425 0.14785883 -0.19294703 -0.20296595 -0.016360806 -0.03089671 -0.002581733
-0.0384065 0.24658966 0.02965464 -0.000739963 0.042805053 -0.14240843 -0.024853187 -0.01643822
0.09412384 0.034429383 -0.012867847 -0.1708951 0.06473963 0.15516429 -0.14720096 -0.23417883
-0.19109014 0.13781312 0.0642712 0.14723453 0.21355805 -0.14614974 0.029221121 0.1829034
0.15111333 0.06105531 0.16349019 0.14334841 -0.09454561 -0.020496786 0.11742436 0.25293556
0.008700541 0.1054485 -0.09089045 0.12462405 0.06571572 -0.014559254 0.061779603 0.123268165
0.14525363 0.2596369 -0.22087277 0.15752858 0.18218863 0.19714789 0.17836969 -0.05971323
-0.049411684 0.13979615 -0.10441598 -0.119438596 -0.07260439 -0.16030322 -0.20523907 0.096757315
-0.2049211 -0.23268361 0.059679396 -0.14102033 -0.105327085 0.2534364 -0.11318805 -0.03811653
-0.0037201603 -0.043178953 -0.02255872 -0.03984242 -0.17631303 0.18044408 0.06837706 0.12636414
-0.2177191 0.1175773 -0.2285996 0.19878888 -0.07344222 -0.17863026 -0.18927947 -0.25884378
-0.08930333 0.19180414 0.19596833 0.03004487 -0.08733548 -0.24103728 0.17025541 0.22889628
0.16530469 -0.13887613 0.11450637 0.1724279 0.033514675 -0.13955781 0.05684073 0.12027222
-0.1800916 0.098562695 -0.23540759 0.15102476 0.15474744 -0.0028926106 0.21849823 0.103519425
0.121418744 -0.14728083 0.04186222 -0.12657893 0.04386471 -0.13585532 0.021390742 0.052237064
-0.1526838 0.014308402 -0.14306839 0.047802255 -0.01345297 -0.20149624 0.10476716 -0.23226894
-0.21227956 0.12934047 -0.064123176 0.1182858 0.053596925 -0.18348157 -0.11934359 0.24251163
0.1803979 -0.056551754 0.04236296 -0.22407138 -0.19781587 0.16583815 0.25767165 -0.17589813
0.09337056 0.06914873 0.028143011 0.11039745 -0.15903898 -0.17696252 -0.1445069 0.22962014
-0.02657339 0.16947764 -0.13245888 -0.064342566 -0.15003395 0.056705892 0.041773755 -0.0027235658
0.038768567 -0.09375948 0.17919117 -0.07598612 0.062688746 0.16189636 -0.11259029 0.17228754
0.15735647 0.11149915 -0.066250324 -0.11365591 -0.21179931 -0.11940364 0.05780537 -0.1129488
0.10894972 -0.12377933 -0.11819886 -0.23094617 -0.15872759 -0.2265627 0.16139421 0.12557264
00000000: 63b0 403e ff91 d23d 97f1 c2bc 76a3 f53d
00000010: e221 0abe d4ae 16be 6c42 6d3e 5572 c6bd
00000020: 984f 48be b03f c2bd 05fa 2f3e 9512 a3bd
00000030: 52f7 debd 3865 38be e459 2ebe 4f60 4439
00000040: 1e1a 03be faf1 db3d 500f f2bd 5660 363d
00000050: cae4 c7bc 2f99 313b 0adc 22be f5a4 e63b
00000060: e87c 643d 701e 46bd 5519 7cbd 96c5 073e
00000070: 9478 1a3d 6d0f 6fbe adc9 59be 2bdb 57bd
00000080: ff06 ee3d 6f22 12be b00f 3c3e 5779 d53b
00000090: 0cf7 b5bd 320e f33c 4fc3 213d 8029 2f3e
000000a0: f30c 053e 1a0b f03d 393c 323e a5c9 69bd
000000b0: abc8 e43d f903 093e 8e6e d1bd 2a11 3bbe
000000c0: cf9b 3a3e 3c7d 593e 303d 29be dc69 55be
000000d0: fb2c 3f3e e9c0 b63d faf1 39be 43bb 443e
000000e0: 7524 0a3c b60c 283d 4ee3 3ebe 92da fb3d
000000f0: 6581 6a3d c670 2abe 278c 1b3e dab3 7eb9
00000100: 0e2d 75be 05aa cf3d 84d2 273d 9013 5f3e
00000110: c17c 18be b298 90bc c492 cbbd b660 01bd
00000120: 3a52 11bd a7c1 b2bd 4e68 173e e893 45be
00000130: 4ed6 4fbe 1907 86bc 191b fdbc 4b32 29bb
00000140: 2250 1dbd 0082 7c3e 4aee f23c 14fa 41ba
00000150: 5a54 2f3d 84d3 11be e998 cbbc 72a9 86bc
00000160: 00c4 c03d d305 0d3d aad3 52bc 20ff 2ebe
00000170: 3696 843d 63e3 1e3e d9bb 16be 93cc 6fbe
00000180: 22ad 43be e21e 0d3e 9ea0 833d a6c4 163e
00000190: f6ae 5a3e 47a8 15be 2261 ef3c 074b 3b3e
000001a0: 74bd 1a3e 2215 7a3d f969 273e edc9 123e
000001b0: 21a1 c1bd e0e8 a7bc 2f7c f03d c580 813e
000001c0: b78c 0e3c 62f5 d73d c624 babd e53a ff3d
000001d0: f795 863d f089 6ebc 9c0c 7d3d 0574 fc3d
000001e0: 5ebd 143e 21ef 843e 792c 62be 2c4f 213e
000001f0: a88f 3a3e 23e1 493e 8ba6 363e dc95 74bd
00000200: e863 4abd b926 0f3e 0cd8 d5bd 399c f4bd
00000210: 9cb1 94bd 8726 24be 312a 52be b328 c63d
00000220: d6d6 51be 9d44 6ebe 6272 743d a267 10be
00000230: bab5 d7bd 6ac2 813e 23cf e7bd 1420 1cbd
00000240: efcd 73bb 6adc 30bd 11cd b8bc ce31 23bd
00000250: 678b 34be 55c6 383e 4609 8c3d 9a65 013e
00000260: c1f1 5ebe 5ecc f03d 0316 6abe 508f 4b3e
00000270: e068 96bd daea 36be 7ad2 41be 2c87 84be
00000280: aae4 b6bd 4e68 443e ecab 483e a920 f63c
00000290: f2dc b2bd 7ad2 76be 6f57 2e3e c963 6a3e
000002a0: a245 293e 8b35 0ebe 5182 ea3d f090 303e
000002b0: af46 093d 3ee8 0ebe d3d1 683d 4851 f63d
000002c0: ef69 38be 3ddb c93d b00e 71be 3ca6 1a3e
000002d0: 1d76 1e3e f491 3dbb 00be 5f3e fe01 d43d
000002e0: 64aa f83d c9d0 16be b877 2b3d e89d 01be
000002f0: 7bab 333d a81d 0bbe a33b af3c 88f6 553d
00000300: 2459 1cbe ca6d 6a3c 8580 12be 4ccc 433d
00000310: d969 5cbc 0855 4ebe 2a90 d63d e9d7 6dbe
00000320: d05f 59be d471 043e 0353 83bd d33f f23d
00000330: 7388 5b3d 98e2 3bbe 6a6a f4bd f854 783e
00000340: 3aba 383e d0a2 67bd c884 2d3d f872 65be
00000350: 3e90 4abe 7ad1 293e 8aed 833e a41e 34be
00000360: 1039 bf3d d99d 8d3d 2c8c e63c 0f18 e23d
00000370: 1ddb 22be aa35 35be 9ef9 13be 8b21 6b3e
00000380: 70b0 d9bc 8c8b 2d3e 4da3 07be 09c6 83bd
00000390: 80a2 19be 7044 683d f51a 2b3d da7d 32bb
000003a0: cacb 1e3d f804 c0bd e47d 373e 9c9e 9bbd
000003b0: f562 803d 29c8 253e bd95 e6bd 256c 303e
000003c0: 0e22 213e ab59 e43d 40ae 87bd 6ec4 e8bd
000003d0: ebe1 58be e589 f4bd 53c5 6c3d b351 e7bd
000003e0: 0821 df3d 0480 fdbd 3e12 f2bd 277d 6cbe
000003f0: 7c89 22be 0d00 68be 8644 253e 1d96 003e

gnn_base.gnn.gnn1.lin_key.bias f4 [48]
-0.14758283 -0.011688644 -0.05322886 0.101870924 0.24239641 -0.046049446 -0.005399437 0.17625108
0.21300158 0.0070813685 0.19828996 0.17666292 0.040749077 -0.072849065 -0.11532113 -0.13937259
-0.18317825 -0.15186802 -0.147282 0.2287254 -0.19407812 -0.04117966 -0.03502482 0.13944978
0.2277517 0.19298205 -0.10470989 0.14685163 -0.15047076 -0.19853738 -0.06622794 0.23509634
-0.20801231 -0.22717153 -0.045425355 -0.16406974 0.113343716 0.028611839 0.054902136 0.12826613
-0.10616931 -0.08828947 0.07554671 -0.13733876 -0.24782419 -0.15546668 -0.096858054 0.05309982
00000000: f41f 17be ba81 3fbc 8106 5abd b4a1 d03d
00000010: c436 783e 589e 3cbd c3ed b0bb 2a7b 343e
00000020: 161d 5a3e d30a e83b 860c 4b3e 20e7 343e
00000030: 81e8 263d e431 95bd 7c2d ecbd b0b7 0ebe
00000040: 1493 3bbe 4a83 1bbe 18d1 16be fe36 6a3e
00000050: 6abc 46be 01ac 28bd 3076 0fbd eccb 0e3e
00000060: be37 693e 169d 453e 2472 d6bd 4660 163e
00000070: 0215 1abe 624d 4bbe 84a2 87bd 18bd 703e
00000080: 2e01 55be a79f 68be f00f 3abd e601 28be
00000090: c020 e83d 6063 ea3c 10e1 603d 3258 033e
000000a0: 4c6f d9bd 1cd1 b4bd 3cb8 9a3d 88a2 0cbe
000000b0: a0c5 7dbe a832 1fbe 845d c6bd 327f 593d

gnn_base.gnn.gnn1.lin_query.weight f4 [48, 16]
-0.08149591 0.03761659 0.17027953 -0.22063622 0.17514312 0.07771472 -0.12889834 -0.15339576
-0.2680574 -0.07039948 -0.12291858 -0.08746121 -0.16486008 -0.22474393 -0.21202976 -0.18046346
-0.048226733 -0.1251527 -0.09961825 -0.19673994 -0.05083716 0.17353739 0.027938817 0.006354861
0.12911837 -0.07976578 -0.062775165 -0.0007464299 0.19034378 -0.21790639 -0.083842166 0.26311538
0.08436492 -0.047140427 -0.23717232 -0.16216865 0.10729353 0.006068709 0.21797144 -0.044516183
-0.044863302 0.26542932 0.08088563 -0.13053758 0.05869092 -0.19562094 -0.10100221 -0.09177758
0.23965101 0.031574737 -0.14518815 -0.025687985 0.1650616 -0.066251926 -0.15703991 -0.15934859
-0.23701937 -0.15095633 -0.2639391 -0.029907165 -0.16785993 -0.21969703 -0.06827053 -0.19727272
-0.15744121 0.118416846 -0.20135428 -0.03995094 0.17486298 0.14248788 -0.14481139 0.15040103
0.17861629 0.04038807 0.13269283 -0.04394511 -0.05438103 0.103910066 -0.04427975 0.1018874
0.15452573 0.08940425 0.04915821 -0.11322959 -0.07544488 0.021667333 -0.024314923 0.15215045
0.13984902 0.23942229 0.09008493 -0.14363414 0.21186936 0.022990538 -0.23046733 0.17675589
-0.18421453 0.16779202 0.061400384 -0.14530726 0.1857008 -0.04140878 -0.20301597 0.17075717
-0.12657757 0.048889793 0.15522107 0.13990082 0.04753894 0.14384276 -0.21488085 -0.097875394
0.1349539 0.18548803 0.04180536 0.025894701 -0.20263138 -0.050640438 -0.12164825 0.2402122
0.24332912 0.0509692 0.19610284 0.01065478 -0.06645161 -0.18621622 0.21440776 0.067748494
-0.051633827 -0.15813394 0.18837166 0.116897926 -0.13434182 0.23629478 -0.18372151 -0.03159335
0.027007144 0.20467429 0.050559267 0.20226245 -0.17337249 0.1386747 0.19935727 -0.13837193
-0.05505323 0.08491694 0.04258383 0.036449306 -0.045710754 -0.07027469 0.15963125 -0.0682886
0.069588214 -0.13146822 -0.18886672 -0.21764928 0.2322703 -0.1176736 -0.13749921 0.035435803
0.19642748 0.029077468 0.10803979 0.08640393 0.21767797 0.09879302 -0.20456912 0.01759351
0.22627808 -0.25061652 -0.06211901 -0.2180947 -0.23561049 0.11195498 0.20519021 0.24264176
-0.11168124 0.18831356 -0.16559206 -0.19590993 0.21153183 0.115265876 0.016101645 -0.18179037
0.00887922 0.18575674 -0.08978623 0.18574758 -0.13835125 -0.19928482 0.20610903 -0.21072888
-0.10893666 -0.035108354 0.1884695 -0.0057633948 -0.061898842 0.14420389 -0.03228516 0.17074102
0.22017543 0.108111605 0.020614116 0.18526083 -0.23193565 -0.25599468 0.06965819 -0.16998424
-0.20215513 -0.056046594 -0.1706314 0.032385502 -0.1518927 -0.011489715 0.1303768 -0.14511506
0.19928633 -0.07825019 0.18713553 -0.15756902 -0.16036011 0.09937589 0.24528602 -0.14199981
-0.23282997 -0.12461659 0.15004411 -0.19380976 -0.06831978 -0.21324262 -0.024236996 0.17852007
0.0102961715 -0.016418703 -0.03294222 0.23803432 0.04168665 0.0242187 0.04252038 0.028800322
0.20574962 0.194825 0.049895756 0.115535885 -0.21869686 -0.21345271 0.018615099 0.06631528
0.029549902 0.13618074 0.21168263 -0.26013514 -0.2303887 -0.004842147 -0.14510319 0.07374619
00000000: 54e7 a6bd da13 1a3d c25d 2e3e 76ee 61be
00000010: b858 333e e528 9f3d edfd 03be c713 1dbe
00000020: d23e 89be 9a2d 90bd bdbc fbbd dd1e b3bd
00000030: 15d1 28be 4623 66be 541e 59be 6acb 38be
00000040: 6589 45bd 0828 00be a704 ccbd 3276 49be
00000050: a03a 50bd c9b3 313e f2df e43c 703c d03b
00000060: 9b37 043e 3e5c a3bd 4490 80bd 10ac 43ba
00000070: 7be9 423e da22 5fbe 71b5 abbd 0fb7 863e
00000080: 84c7 ac3d 5216 41bd 4ddd 72be 8a0f 26be
00000090: b6bc db3d 05dc c63b e833 5f3e 9a56 36bd
000000a0: 95c2 37bd 5ae6 873e 5da7 a53d a5ab 05be
000000b0: e465 703d db50 48be 3fda cebd e2f5 bbbd
000000c0: 1367 753e 8354 013d 34ac 14be 9c6f d2bc
000000d0: e805 293e 17af 87bd 12cf 20be 472c 23be
000000e0: 35b5 72be 4c94 1abe 0723 87be dfff f4bc
000000f0: 79e3 2bbe 42f8 60be 6bd1 8bbd dc01 4abe
00000100: 4538 21be 8884 f23d d12f 4ebe 99a3 23bd
00000110: 480f 333e 58e8 113e 7049 14be ba02 1a3e
00000120: 30e7 363e f66d 253d a1e0 073e caff 33bd
00000130: a5be 5ebd cdce d43d af5e 35bd 57aa d03d
00000140: fe3b 1e3e 9319 b73d 1f5a 493d eae4 e7bd
00000150: d882 9abd b17f b13c 1730 c7bc 54cd 1b3e
00000160: 9534 0f3e 1e2b 753e 737e b83d d414 13be
00000170: 48f4 583e a756 bc3c a1ff 6bbe 7fff 343e
00000180: bca2 3cbe acd1 2b3e f87e 7b3d 6dcb 14be
00000190: 5a28 3e3e 419c 29bd 6be3 4fbe f8da 2e3e
000001a0: 8d9d 01be aa40 483d 46f2 1e3e 2942 0f3e
000001b0: 31b8 423d 844b 133e ba09 5cbe e572 c8bd
000001c0: 5b31 0a3e 93f0 3d3e 193c 2b3d 2021 d43c
000001d0: 9a7e 4fbe 596c 4fbd b822 f9bd 30fa 753e
000001e0: 452b 793e 14c5 503d 2fcf 483e 6391 2e3c
000001f0: c817 88bd 77af 3ebe b58d 5b3e b9bf 8a3d
00000200: fe7d 53bd dded 21be 80e4 403e 2e68 ef3d
00000210: e790 09be 42f7 713e 7e21 3cbe 0768 01bd
00000220: 163e dd3c 2396 513e 3c17 4f3d e31d 4f3e
00000230: 8f88 31be be00 0e3e 5024 4c3e 5fb1 0dbe
00000240: 7f7f 61bd efe8 ad3d 626c 2e3d de4b 153d
00000250: 333b 3bbd 2dec 8fbd 6076 233e e5da 8bbd
00000260: 4484 8e3d 9b9f 06be 4766 41be 74df 5ebe
00000270: 44d8 6d3e dbfe f0bd 98cc 0cbe 2225 113d
00000280: 4924 493e df33 ee3c f743 dd3d 8bf4 b03d
00000290: f9e6 5e3e ff53 ca3d 917a 51be 4420 903c
000002a0: 71b5 673e cf50 80be 8170 7ebd 3854 5fbe
000002b0: e043 71be a748 e53d 621d 523e 1577 783e
000002c0: 22b9 e4bd 45d5 403e f790 29be 9d9c 48be
000002d0: cd9b 583e 8410 ec3d 99e7 833c 4127 3abe
000002e0: 267a 113c 0437 3e3e d8e1 b7bd 9d34 3e3e
000002f0: f3ab 0dbe 5211 4cbe 3f0e 533e 50c9 57be
00000300: 2f1a dfbd c7cd 0fbd 26fe 403e dcda bcbb
00000310: a489 7dbd 2faa 133e 723d 04bd bcd6 2e3e
00000320: ab75 613e 9e69 dd3d efde a83c 04b5 3d3e
00000330: 8a80 6dbe bc11 83be f4a8 8e3d 5910 2ebe
00000340: c101 4fbe 1d91 65bd ffb9 2ebe a9a6 043d
00000350: c389 1bbe 5c3f 3cbc 7f81 053e 0b99 14be
00000360: b711 4c3e a341 a0bd 75a0 3f3e c659 21be
00000370: 7135 24be 9685 cb3d 422c 7b3e 6668 11be
00000380: fb6a 6ebe fc36 ffbd 2aa5 193e 1176 46be
00000390: 3eeb 8bbd 465c 5abe aa8c c6bc f7cd 363e
000003a0: 46b1 283c 8480 86bc 6cee 06bd 45bf 733e
000003b0: 9fbf 2a3d 4c66 c63c da29 2e3d a7ee eb3c
000003c0: 07b0 523e 3480 473e 7e5f 4c3d 149e ec3d
000003d0: 12f2 5fbe 5993 5abe b17e 983c 4ed0 873d
000003e0: a312 f23c f772 0b3e 55c3 583e 6f30 85be
000003f0: 04eb 6bbe e0aa 9ebb ee95 14be 3e08 973d

gnn_base.gnn.gnn1.lin_query.bias f4 [48]
0.053154204 0.15425089 -0.19670266 0.06243254 -0.081429295 0.102862075 0.06133039 -0.16059881
-0.23578055 -0.043413598 -0.20488746 -0.089901604 0.12952048 -0.012056112 -0.030136503 0.09795875
-0.1468596 0.2192381 -0.1761782 0.075577386 0.15308797 -0.0030163943 -0.09780127 0.11827956
-0.073871754 -0.2148072 0.13194443 0.17781499 0.086676784 -0.17491178 -0.15500212 0.09307879
0.15048899 0.06429647 0.20398667 0.07972918 -0.2166966 0.099237576 0.18703592 -0.1675662
-0.22374651 0.035468347 0.20776588 0.08842502 -0.13279296 0.105622284 -0.04939384 -0.02045772
00000000: 39b8 593d f2f3 1d3e 6c6c 49be 43b9 7f3d
00000010: 67c4 a6bd 5aa9 d23d 9335 7b3d 0474 24be
00000020: 7570 71be 75d2 31bd 05ce 51be 551e b8bd
00000030: 04a1 043e 0087 45bc d4e0 f6bc 999e c83d
00000040: 5d62 16be f47f 603e 0f68 34be 51c8 9a3d
00000050: 18c3 1c3e b3ae 45bb 084c c8bd 8e3c f23d
00000060: 134a 97bd 6bf6 5bbe 711c 073e 2215 363e
00000070: 9983 b13d 131c 33be e0b8 1ebe 18a0 be3d
00000080: c919 1a3e dead 833d e2e1 503e 0d49 a33d
00000090: b7e5 5dbe 123d cb3d 5886 3f3e 7996 2bbe
000000a0: ce1d 65be 4247 113d 94c0 543e 2d18 b53d
000000b0: e1fa 07be 7f50 d83d 3251 4abd f396 a7bc

gnn_base.gnn.gnn1.lin_value.weight f4 [48, 16]
-0.022153093 -0.1923135 -0.09994485 0.011942684 0.15712067 -0.14998205 0.098706074 0.052961577
-0.017755402 -0.06881861 -0.20344156 0.08039319 -0.14099929 0.24174991 0.08998709 0.096636295
0.25275287 -0.027523693 -0.10772142 -0.0022740785 -0.08609559 0.08498209 -0.24580535 0.03317394
-0.046805408 -0.040555052 0.13609338 -0.20670044 -0.051417217 0.18088657 0.04787591 -0.17189187
0.17497806 -0.22081344 0.14149198 -0.11684296 0.067923434 0.19250348 0.22769022 0.06796408
0.09093603 -0.023048172 -0.077805445 -0.25205725 0.13434792 0.028724905 0.089951254 -0.17861432
-0.22335869 0.12567233 -0.14043595 -0.09570506 0.053843062 0.10068043 -0.23189527 -0.075915016
0.19290204 0.07065496 -0.16290964 0.18187058 -0.21417582 0.0023514782 0.07345146 0.008012085
0.23108235 0.046998214 -0.16185515 -0.03794675 -0.10440321 0.20933777 0.033395812 -0.22321616
0.002281313 0.019367987 0.014469197 0.046392772 0.13464138 -0.20105791 0.076597065 -0.12647684
0.14052127 -0.11638346 -0.16331339 -0.12188672 0.16283639 -0.032735202 0.20170327 -0.19058135
0.101808615 -0.108147435 0.053797245 0.15282181 0.104489505 -0.20952803 -0.056148525 0.12728971
-0.26074165 -0.1753191 -0.23725805 0.04258309 0.06261013 -0.108376004 0.09661268 0.03806007
0.11703957 0.19109677 -0.16138452 -0.1762859 0.22894678 -0.11902386 0.16936328 -0.07434853
-0.05883974 -0.10640041 0.081739746 -0.014189676 0.20425835 -0.23940751 -0.012200451 0.03574312
0.085805655 0.18748264 0.089862175 -0.20778538 0.030583682 -0.09997816 0.1508633 -0.10412527
-0.03136645 0.0686474 0.14937273 -0.13105297 0.17961292 -0.17174427 -0.06714228 -0.16491383
0.05742162 -0.20460331 -0.009919501 -0.16540822 0.16782087 -0.22263297 -0.09278323 -0.22713394
-0.16381256 0.014498922 0.12320239 0.12794648 -0.19206105 -0.043220595 -0.05773795 0.1162025
-0.021209886 -0.046253752 -0.15219773 -0.1639598 -0.015996356 0.1239716 -0.12739024 0.058137864
0.14894395 -0.10322615 0.20529431 0.20785205 0.13006365 0.1078011 -0.1886556 0.12149759
-0.048933428 0.22076306 -0.22297376 -0.038811956 0.24566126 0.026872704 0.09769727 -0.020808663
-0.145265 0.12723216 0.2243538 0.15631512 -0.14211567 -0.15219927 0.2233444 -0.011441321
0.130441 0.04497301 -0.13269985 0.2372888 0.018475499 -0.0919211 0.21044439 0.10719393
0.09470444 -0.19029532 0.18876345 -0.1496803 -0.11603519 -0.23133178 0.077631 -0.15123521
-0.25105014 0.21092182 -0.25219494 -0.08068753 -0.0708833 -0.0143567715 0.057163503 0.19276841
0.06868046 -0.07284749 -0.14123137 -0.057928827 0.1454745 -0.24798031 0.0898526 -0.010056909
-0.109871626 0.16205338 0.13415168 0.0029154443 -0.13183066 -0.14548372 -0.07491489 -0.14722086
-0.05272036 0.08664005 -0.01989467 0.03999739 -0.08438064 -0.069262125 0.14072795 -0.019910237
0.06918715 -0.19158028 -0.13936947 0.19560322 -0.014234271 0.25092074 -0.09072256 0.13999102
0.08082527 -0.19582625 -0.13718463 0.21700075 -0.076609775 -0.20807442 0.17210054 0.24236202
0.18703038 0.12799454 -0.075777344 0.22976251 -0.1328433 0.12411937 -0.24781008 0.24267663
00000000: 677a b5bc d5ed 44be e3af ccbd 3fab 433c
00000010: 3ee4 203e e594 19be 6926 ca3d 3dee 583d
00000020: c773 91bc c5f0 8cbd fc52 50be 2fa5 a43d
00000030: 1e62 10be 4a8d 773e 274b b83d 40e9 c53d
00000040: d368 813e 5e79 e1bc 0c9d dcbd b508 15bb
00000050: e252 b0bd 170b ae3d 66b4 7bbe 66e1 073d
00000060: 07b7 3fbd 0e1d 26bd 105c 0b3e 48a9 53be
00000070: dc9a 52bd 543a 393e 8819 443d 6c04 30be
00000080: 732d 333e eb1c 62be 46e3 103e 5d4b efbd
00000090: 711b 8b3d a21f 453e a027 693e c030 8b3d
000000a0: ab3c ba3d 85cf bcbc 7658 9fbd a60d 81be
000000b0: 8092 093e 7e50 eb3c 5d38 b83d ace6 36be
000000c0: 24b8 64be 3fb0 003e 71ce 0fbe 0401 c4bd
000000d0: 8b8a 5c3d 8b31 ce3d f475 6dbe 5579 9bbd
000000e0: 1d88 453e 8cb3 903d c9d1 26be 483c 3a3e
000000f0: e850 5bbe 421b 1a3b b86d 963d 1f45 033c
00000100: daa0 6c3e 3381 403d 5bbd 25be 0d6e 1bbd
00000110: 5ad1 d5bd a45c 563e 0cca 083d c792 64be
00000120: 1582 153b 9da9 9e3c 3610 6d3c 5906 3e3d
00000130: 6edf 093e 20e2 4dbe ecde 9c3d 2583 01be
00000140: cfe4 0f3e 745a eebd a03b 27be bf9f f9bd
00000150: 95be 263e 5915 06bd 4d8b 4e3e c227 43be
00000160: 0981 d03d 677c ddbd 805a 5c3d 527d 1c3e
00000170: 98fe d53d 848e 56be fffb 65bd 3c58 023e
00000180: ee7f 85be da86 33be c6f3 72be 9b6b 2e3d
00000190: bd39 803d 3df4 ddbd dedc c53d e0e4 1b3d
000001a0: 71b2 ef3d dfae 433e fc41 25be 4a84 34be
000001b0: 0671 6a3e c8c2 f3bd 916d 2d3e 0b44 98bd
000001c0: f001 71bd 75e8 d9bd 2b67 a73d d17b 68bc
000001d0: 1a29 513e 3e27 75be 67e4 47bc 6167 123d
000001e0: e0ba af3d 73fb 3f3e a909 b83d b1c5 54be
000001f0: a18a fa3c 59c1 ccbd e97b 1a3e a13f d5bd
00000200: 1b7a 00bd 0297 8c3d 2af5 183e c032 06be
00000210: 73ec 373e bbdd 2fbe e481 89bd 2cdf 28be
00000220: ef32 6b3d 8883 51be 6785 22bc c660 29be
00000230: 3cd9 2b3e e6f9 63be 2205 bebd cd95 68be
00000240: 7bbe 27be e38c 6d3c 8951 fc3d 6704 033e
00000250: a7ab 44be 1408 31bd a17e 6cbd 94fb ed3d
00000260: 5bc0 adbc 9374 3dbd b9d9 1bbe 14e5 27be
00000270: ca0a 83bc d2e4 fd3d 9672 02be f821 6e3d
00000280: c384 183e 3b68 d3bd ac38 523e 2bd7 543e
00000290: 682f 053e d3c6 dc3d ef2e 41be bad3 f83d
000002a0: 6b6e 48bd b60f 623e 3c53 64be 49f9 1ebd
000002b0: a08e 7b3e 2524 dc3c 8215 c83d ee76 aabc
000002c0: 59c0 14be 2649 023e 01bd 653e 1211 203e
000002d0: c586 11be 20da 1bbe 65b4 643e 6174 3bbc
000002e0: 5392 053e 9e35 383d 78e2 07be d6fb 723e
000002f0: ee59 973c 2141 bcbd bc7e 573e 7e88 db3d
00000300: 67f4 c13d c7dc 42be 354b 413e cb45 19be
00000310: dca3 edbd 3de2 6cbe 00fd 9e3d 67dd 1abe
00000320: a589 80be e4fb 573e b21f 81be 813f a5bd
00000330: 432b 91bd aa38 6bbc 4724 6a3d 1565 453e
00000340: 57a8 8c3d 1131 95bd f59e 10be c746 6dbd
00000350: 44f7 143e 8dee 7dbe a404 b83d bcc5 24bc
00000360: 6004 e1bd 52f1 253e 0f5f 093e 0a11 3f3b
00000370: 9efe 06be aff9 14be fa6c 99bd 11c1 16be
00000380: 4ef1 57bd 5770 b13d 26fa a2bc 4ed4 233d
00000390: c2cf acbd 4dd9 8dbd fd1a 103e cb1a a3bc
000003a0: feb1 8d3d 9f2d 44be dfb6 0ebe 364c 483e
000003b0: dc36 69bc af78 803e c0cc b9bd ce59 0f3e
000003c0: b887 a53d ad86 48be 217a 0cbe 7235 5e3e
000003d0: 96e5 9cbd 7611 55be 203b 303e c02d 783e
000003e0: e484 3f3e 0011 033e 2731 9bbd dd46 6b3e
000003f0: 1308 08be 4c32 fe3d edc1 7dbe 3980 783e

gnn_base.gnn.gnn1.lin_value.bias f4 [48]
-0.18192984 0.2030962 0.25230426 0.03310287 0.121288985 -0.12146482 0.2440688 -0.22960323
-0.16068763 0.03754053 -0.09254408 -0.11540168 0.11224996 0.13679157 0.15905255 0.2014175
0.12097478 -0.102184236 0.10400111 -0.13360795 0.14720848 0.08474246 0.20863427 0.13963643
0.22057343 -0.059110012 -0.19849172 0.17510393 -0.20407988 0.027553616 0.033354964 0.02729932
0.16958521 0.058970273 -0.07291206 0.0013308567 -0.24634519 -0.19054766 -0.02103294 0.224759
-0.06763073 0.12744437 -0.14521441 -0.2216543 0.13816002 0.13778014 -0.019446984 0.17536014
00000000: d14b 3abe 73f8 4f3e 062e 813e e096 073d
00000010: 5c66 f83d 8cc2 f8bd 2ced 793e 1c1d 6bbe
00000020: 4c8b 24be 19c4 193d c087 bdbd b757 ecbd
00000030: 4fe3 e53d 1713 0c3e acde 223e 6440 4e3e
00000040: a0c1 f73d f845 d1bd 89fe d43d 86d0 08be
00000050: d2bd 163e 748d ad3d 39a4 553e dafc 0e3e
00000060: 00de 613e 571d 72bd 6a41 4bbe 724e 333e
00000070: 51fa 50be 1fb8 e13c 379f 083d d3a2 df3c
00000080: bfa7 2d3e d08a 713d eb52 95bd 2470 ae3a
00000090: ea41 7cbe ed1e 43be 464d acbc 3927 663e
000000a0: fb81 8abd c780 023e 16b3 14be 58f9 62be
000000b0: d279 0d3e 3d16 0d3e 484f 9fbc 9c91 333e

gnn_base.gnn.gnn1.lin_edge.weight f4 [48, 1]
0.3820276 0.5090918 0.21012191 1.0122935 -0.7741211 -0.21692567 -0.6578254 -0.61447453
0.19792984 -0.11461833 -0.07352419 0.3713627 0.93468016 -0.9167731 -0.31569606 -0.10385718
0.56553394 -0.4128712 -0.91354007 -0.37479094 -0.5431551 -0.96442336 -0.7153528 -0.3968841
0.3435322 -0.5561093 -0.2921706 -0.85045373 -0.5621353 -0.18024896 -0.45813683 -0.08443969
0.28788078 0.14110292 -0.5557937 -0.026017549 0.08731317 0.059162844 0.40079466 -0.28351492
-0.8816838 -0.3291847 -0.24247696 -0.9669742 0.06850185 -0.3446732 0.71266145 0.6771257
00000000: 1f99 c33e d753 023f 332a 573e d592 813f
00000010: cd2c 46bf c321 5ebe 3f67 28bf 344e 1dbf
00000020: 1fae 4a3e 04bd eabd da93 96bd 4023 be3e
00000030: 3347 6f3f a4b1 6abf eaa2 a1be 13b3 d4bd
00000040: d5c6 103f db63 d3be c3dd 69bf 99e4 bfbe
00000050: 360c 0bbf 73e4 76bf 5c21 37bf 6534 cbbe
00000060: 74e3 af3e 2e5d 0ebf 6397 95be 56b7 59bf
00000070: 19e8 0fbf 2f93 38be e990 eabe b7ee acbd
00000080: 1c65 933e 497d 103e 7f48 0ebf c122 d5bc
00000090: 3fd1 b23d bd54 723d f534 cd3e de28 91be
000000a0: 08b6 61bf e68a a8be e14b 78be 9f8b 77bf
000000b0: b34a 8c3d 0179 b0be fb70 363f 1c58 2d3f

gnn_base.gnn.gnn1.lin_skip.weight f4 [16, 16]
0.16333865 -0.10675003 0.012958598 0.23332678 -0.21699919 0.09467112 -0.10530804 -0.09433902
0.14417417 -0.021812987 -0.046742372 0.14577992 -0.08404333 0.20936432 0.008933595 0.108389996
0.22951517 -0.09792921 0.121925086 0.04056707 -0.22123213 0.2515605 0.16807634 0.0037132162
0.086612396 -0.05624542 -0.03544732 -0.0159254 0.07581318 0.040668555 0.24115773 0.19599393
0.1636394 -0.113281794 -0.14544787 -0.21545778 0.09547505 0.19878188 0.07886416 0.18551816
-0.20283541 -0.20405051 0.078611694 -0.15114218 0.21520689 -0.030064503 0.04684356 0.06295618
-0.17760281 -0.058723696 0.14687379 -0.097987175 0.03993172 -0.14287078 0.052794497 -0.13967086
-0.07888466 0.1570086 -0.022682143 0.14037454 0.1612784 0.1816639 -0.051208757 0.034447506
0.059387807 -0.14381438 0.1299348 -0.15336733 -0.20486379 0.23493442 0.034667786 0.17326318
0.21617238 -0.19775066 -0.20079109 0.03295671 0.03479202 -0.015197254 -0.1522849 0.060419716
0.10432083 -0.1534893 0.17816381 -0.008253535 0.22471222 0.016591351 0.06705577 -0.12260911
-0.04914539 0.014374059 0.044185948 0.1884725 -0.16756661 0.08215327 -0.13892627 -0.028775798
-0.17201357 0.19661245 0.17337587 -0.20861289 -0.18284495 0.075323194 -0.19388668 -0.10862151
-0.23574346 -0.19796562 0.18890025 -0.13354792 0.1549684 0.07874578 -0.17510168 -0.04956235
-0.01955574 0.17540026 -0.22892722 0.19934745 -0.23403262 -0.17823279 -0.17046727 0.088866934
-0.16979969 -0.20786564 0.09445174 -0.17920427 -0.17983586 0.2270262 0.13914923 -0.17439778
0.063778326 0.049509972 0.11816769 0.13279077 0.23456633 0.07143626 0.03578528 -0.042665187
0.06455576 -0.07537241 0.19414075 0.24213284 -0.023820326 0.06475757 -0.18309742 -0.18941186
-0.18319109 -0.04666537 0.15019102 -0.011092153 -0.19580144 0.06528942 0.13780504 -0.20238946
-0.22452116 -0.13095394 0.06862682 0.078111224 -0.14622234 0.05649662 -0.047758617 -0.009688156
0.2502556 0.08740727 -0.029728387 0.026580164 -0.14589575 0.17782153 -0.005756891 0.10518919
-0.10395406 0.103114925 0.08051358 0.09813298 -0.024304714 -0.14224878 0.08615854 0.1752887
-0.10326235 -0.0296943 0.047802504 0.14701514 0.093873054 -0.052495502 0.05737888 -0.07117698
-0.05941946 0.17992319 -0.18106115 -0.19624518 -0.034936164 -0.20299663 -0.041189056 0.16617523
-0.002646115 0.0068292283 0.18224604 -0.17743428 0.14975211 0.18115139 0.083149895 0.14892465
-0.20678605 0.07502103 -0.05765268 -0.15004086 0.07968478 -0.27354518 0.22233811 -0.26255977
0.23435561 0.07979012 0.18894412 -0.13098063 -0.12798035 0.036092725 -0.1740644 -0.15831675
-0.23732553 0.13279276 -0.0021995613 0.17623901 0.1998223 0.07797579 0.08262984 -0.117016554
0.06398841 -0.029204382 -0.23542388 0.050584625 -0.23697095 -0.24463254 -0.18180053 -0.09425304
-0.21453126 0.047852844 -0.2124184 0.048416737 -0.17606011 0.13247539 0.14608572 0.02364675
-0.26927403 0.15877478 0.11599278 -0.24061428 0.08528109 -0.19051191 -0.20169717 -0.05347783
-0.12583165 -0.12355556 0.14564866 -0.057803035 0.02342161 -0.18660726 -0.0031407839 0.113526314
00000000: 3f42 273e c29f dabd 4d50 543c 37ed 6e3e
00000010: 0935 5ebe efe2 c13d beab d7bd d134 c1bd
00000020: 65a2 133e 26b1 b2bc ee74 3fbd 5547 153e
00000030: e91e acbd 9a63 563e 375e 123c 93fb dd3d
00000040: 0606 6b3e 1c8f c8bd dcb3 f93d a829 263d
00000050: ad8a 62be 8acc 803e 341c 2c3e 6e59 733b
00000060: d761 b13d 9961 66bd 3631 11bd fc75 82bc
00000070: f143 9b3d 1294 263d 0df2 763e a2b2 483e
00000080: 1691 273e 4900 e8bd 49f0 14be f7a0 5cbe
00000090: 6c88 c33d 7a8d 4b3e 8883 a13d 79f8 3d3e
000000a0: 16b4 4fbe 9ef2 50be 2bff a03d 04c5 1abe
000000b0: 325f 5c3e d549 f6bc 08df 3f3d 2bef 803d
000000c0: 83dd 35be 4288 70bd 1566 163e 80ad c8bd
000000d0: 718f 233d b84c 12be 0b3f 583d e105 0fbe
000000e0: 488e a1bd ddc6 203e e7cf b9bc 58be 0f3e
000000f0: 2a26 253e 1a06 3a3e 46c0 51bd d418 0d3d
00000100: a140 733d 1444 13be a10d 053e 530c 1dbe
00000110: d0c7 51be a692 703e cfff 0d3d e76b 313e
00000120: 4b5c 5d3e 267f 4abe 2e9c 4dbe 9dfd 063d
00000130: 1482 0e3d e7fd 78bc 93f0 1bbe aa7a 773d
00000140: 29a6 d53d 4d2c 1dbe 9370 363e d639 07bc
00000150: f61a 663e 96ea 873c 8954 893d 7c1a fbbd
00000160: ad4c 49bd 2c81 6b3c 53fc 343d effe 403e
00000170: 9596 2bbe f93f a83d b042 0ebe 39bb ebbc
00000180: 5324 30be c654 493e 7289 313e 9e9e 55be
00000190: b53b 3bbe 0c43 9a3d 3b8a 46be f474 debd
000001a0: bc66 71be 80b7 4abe 116f 413e c9c0 08be
000001b0: 09b0 1e3e 7845 a13d db4d 33be e401 4bbd
000001c0: 5c33 a0bc 209c 333e e66b 6abe bd21 4c3e
000001d0: 3fa6 6fbe a882 36be f98e 2ebe deff b53d
000001e0: f8df 2dbe bbda 54be ea6f c13d 5381 37be
000001f0: e426 38be 8e79 683e 237d 0e3e 5595 32be
00000200: 369e 823d f8ca 4a3d e701 f23d 4efa 073e
00000210: 2832 703e 2d4d 923d 9693 123d b1c1 2ebd
00000220: cf35 843d da5c 9abd d5cc 463e acf1 773e
00000230: d822 c3bc 9e9f 843d e47d 3bbe 2ff5 41be
00000240: 7296 3bbe 3024 3fbd adcb 193e ddbb 35bc
00000250: 2c80 48be 76b6 853d c41c 0d3e 2f3f 4fbe
00000260: e0e8 65be ca18 06be 388c 8c3d c7f8 9f3d
00000270: 4fbb 15be 0069 673d 8a9e 43bd 12bb 1ebc
00000280: 8121 803e 9502 b33d f288 f3bc a5be d93c
00000290: b265 15be d916 363e 4da4 bcbb 6e6d d73d
000002a0: dee5 d4bd eb2d d33d 4ee4 a43d f2f9 c83d
000002b0: ae1a c7bc aaa9 11be e373 b03d e27e 333e
000002c0: 367b d3bd 7641 f3bc 8fcc 433d 238b 163e
000002d0: 8440 c03d 8605 57bd 1e06 6b3d 3dc5 91bd
000002e0: d261 73bd c93d 383e 1868 39be 7ff4 48be
000002f0: 3919 0fbd 59de 4fbe dbb5 28bd d729 2a3e
00000300: 716a 2dbb b8c7 df3b b59e 3a3e 55b1 35be
00000310: 9e58 193e c07f 393e 7e4a aa3d b47f 183e
00000320: b9bf 53be a0a4 993d 3725 6cbd 50a4 19be
00000330: c631 a33d 1d0e 8cbe 9aac 633e 3c6e 86be
00000340: ebfa 6f3e 0169 a33d 917a 413e c91f 06be
00000350: 480d 03be f7d5 133d f03d 32be c91d 22be
00000360: 7705 73be d3fa 073e 8426 10bb 0078 343e
00000370: 389e 4c3e c5b1 9f3d d539 a93d 60a6 efbd
00000380: 5b0c 833d 073e efbc f512 71be d331 4f3d
00000390: 83a8 72be f480 7abe eb29 3abe bd07 c1bd
000003a0: 15ae 5bbe 5801 443d 3684 59be a150 463d
000003b0: 1a49 34be a1a7 073e 7f97 153e d4b6 c13c
000003c0: 49de 89be db95 223e 9f8d ed3d 9763 76be
000003d0: daa7 ae3d 8e15 43be b489 4ebe 920b 5bbd
000003e0: 03da 00be b30a fdbd ec24 153e e0c2 6cbd
000003f0: adde bf3c f915 3fbe 9cd5 4dbb 7c80 e83d

gnn_base.gnn.gnn1.lin_skip.bias f4 [16]
-0.23143812 -0.0982432 -0.029544193 -0.20736031 -0.099242605 0.21234646 0.22633992 0.24876869
0.22913617 0.20786718 -0.17652023 0.09186279 -0.19866179 0.14114885 -0.069561616 0.21008816
00000000: 1dfe 6cbe bb33 c9bd aa06 f2bc 4356 54be
00000010: b53f cbbd 5a71 593e a7c5 673e 38bd 7e3e
00000020: aca2 6a3e 22db 543e b8c1 34be 8f22 bc3d
00000030: ff6d 4bbe 5389 103e 5276 8ebd 5a21 573e
