onpolicy/results/GraphMPE/navigation_graph/rmappo/crap_bad/run8/models/actor.pt (torch, 196085 bytes, 62 tensors)

gnn_base.gnn.embed_layer.entity_embed.weight f4 [3, 2]
0	0x3fc966aa	1.5734456
1	0xbe9be797	-0.30450127
2	0xc00ac661	-2.168358
3	0x3f12ca09	0.5733953
4	0xbf88dc82	-1.0692294
5	0xbfb2b636	-1.3961856

gnn_base.gnn.embed_layer.lin1.0.weight f4 [16, 9]
0	0xbf47f3fb	-0.7810666
1	0xbf195301	-0.5989228
2	0x3e98bec1	0.29833034
3	0xbf25d2dc	-0.6477487
4	0x3dd848ee	0.10560785
5	0xbd4cc5cd	-0.049993325
6	0xbed3fc62	-0.4140349
7	0xbe1129a9	-0.14176048
8	0xbe7e6fa5	-0.24847277
9	0x3ebb21b6	0.36549157
10	0xbc7e11c0	-0.015507162
11	0xbf3a9cef	-0.7289571
12	0xbe505c29	-0.20347656
13	0xbe84d604	-0.2594453
14	0x3e322dad	0.17400236
15	0xbdd0a75a	-0.1018817
16	0x3e863354	0.26211035
17	0xbf0a0bc1	-0.53924185
18	0x3e8378ed	0.25678197
19	0xbf524942	-0.8214303
20	0xbe04c923	-0.12967353
21	0x3e3ca57b	0.18422501
22	0x3e40c0b7	0.18823515
23	0xbe391c8e	-0.18077299
24	0xbdf414d5	-0.11918036
25	0xbe3a51b6	-0.18195233
26	0x3f46dff7	0.77685493
27	0x3ca65faa	0.020309288
28	0xbd95e870	-0.073197246
29	0xbf123eff	-0.57127374
30	0x3ec31a15	0.38105837
31	0xbc51a250	-0.012795046
32	0xbf13e9a2	-0.5777837
33	0xbf15ae63	-0.5846922
34	0xbe197b05	-0.14988334
35	0xbef93bed	-0.48678532
36	0x3ead5a73	0.3385807
37	0x3d5ce264	0.05392684
38	0x3ed9681d	0.42462245
39	0x3e374c6d	0.17900248
40	0x3c95d242	0.018288735
41	0x3f2d256c	0.67635226
42	0xbe4e2995	-0.2013305
43	0xbeea1c66	-0.4572479
44	0xbdb1cf29	-0.08682091
45	0x3eee39ff	0.46528623
46	0xbea43649	-0.32072666
47	0x3e86da7c	0.26338565
48	0xbeb7a009	-0.35864285
49	0xbf6bf879	-0.92176014
50	0xbed7a3a8	-0.42117047
51	0x3e1357a8	0.14388907
52	0xbe675838	-0.22592247
53	0xbd439876	-0.04775282
54	0x3d60d570	0.05489105
55	0x3e24c104	0.16089255
56	0x3ee56378	0.4480245
57	0x3eeeca8c	0.46638906
58	0xbe31a498	-0.17347944
59	0xbcabdb81	-0.020978691
60	0xbe20a725	-0.1568876
61	0xbec36d81	-0.38169482
62	0xbeae1440	-0.33999825
63	0x3e97a5cf	0.2961869
64	0x3a11d6d6	0.0005563324
65	0x3e7f379c	0.24923557
66	0x3de88914	0.113542706
67	0x3f239e63	0.63913554
68	0xbec5e457	-0.38650772
69	0xbed6e058	-0.41968036
70	0x3e49cb40	0.1970644
71	0x3e0fe3d1	0.14051749
72	0xbf12d28f	-0.57352537
73	0x3b7fb0f1	0.0039015377
74	0xbe985c74	-0.29758036
75	0x3ef2b7ee	0.47405952
76	0xbeee748b	-0.4657329
77	0x3e0a9100	0.13531876
78	0x3d84982d	0.06474338
79	0xbec21e52	-0.37913758
80	0x3d964675	0.07337657
81	0x3d4d3ab0	0.050104797
82	0x3d24e031	0.040252868
83	0x3e876b22	0.26448923
84	0xbe2076e7	-0.15670358
85	0xbe7d47de	-0.24734446
86	0xbcb19dd9	-0.021681713
87	0xbe2a3b32	-0.16624144
88	0x3f6621e5	0.8989547
89	0xbe1d3ce2	-0.15355256
90	0xbe6fc191	-0.23413683
91	0xbe880a95	-0.26570573
92	0x3d59df54	0.053191498
93	0x3f196165	0.5991424
94	0xbd22915e	-0.039689414
95	0xbeb6a76f	-0.35674617
96	0x3f17e6f0	0.5933676
97	0x3ed9da3f	0.4254932
98	0xbe0c4cb4	-0.13701135
99	0xbe4304f3	-0.19044857
100	0xbe05a21b	-0.1305012
101	0x3ed30cb4	0.4122063
102	0x3d4a371b	0.04936896
103	0x3d719342	0.058978327
104	0xbe0cc6d1	-0.13747717
105	0x3f0a839a	0.5410706
106	0x3d88e81a	0.06684895
107	0xbe6ea540	-0.23305225
108	0xbcba8774	-0.022769667
109	0x3f03a667	0.51425785
110	0x3e2e5e0d	0.17028065
111	0xbdd5a44a	-0.10431726
112	0xbe87d9a6	-0.2653324
113	0xbf275781	-0.65367895
114	0xbd302c35	-0.04301091
115	0xbd95637c	-0.07294366
116	0x3ed16319	0.40895918
117	0x3e9c2814	0.30499327
118	0xbcfcffd2	-0.030883703
119	0xbece4ac6	-0.40291423
120	0xbeb83204	-0.3597566
121	0x3e7017e8	0.2344662
122	0x3cee1b71	0.02906582
123	0x3f20d472	0.62824166
124	0xbe7e552c	-0.24837178
125	0x3d5e1929	0.054223213
126	0xbe43f131	-0.19134976
127	0x3f27d761	0.6556302
128	0xbe1263f7	-0.14295946
129	0xbeb991cd	-0.3624405
130	0x3eb9b259	0.3626888
131	0xbe8e66ab	-0.27812704
132	0x3e84738a	0.258694
133	0xbeb18be1	-0.34677032
134	0x3d3b0bde	0.045665614
135	0x3e85c347	0.26125547
136	0xbeb2e781	-0.34942248
137	0x3e44664e	0.19179651
138	0x3d8170c6	0.06320338
139	0x3ebc975b	0.36834225
140	0xbeb39831	-0.3507705
141	0x3e92d7de	0.2868032
142	0xbe9f588a	-0.31122237
143	0xbf2953cc	-0.6614349

gnn_base.gnn.embed_layer.lin1.0.bias f4 [16]
0	0xbb83346f	-0.0040040533
1	0x3b8dbb3a	0.0043252977
2	0x3b514d2f	0.0031936874
3	0xbca6b691	-0.020350726
4	0x3baf8af9	0.005357143
5	0xbc8ccbe1	-0.01718706
6	0xbc6b484d	-0.0143605
7	0x3c2a2162	0.010383936
8	0x3cc4541f	0.023965893
9	0xb954e11e	-0.00020301758
10	0xbc8bdaf8	-0.017072186
11	0x3c210c9f	0.009829669
12	0xbc7c4cb5	-0.015399148
13	0x3cb577a6	0.02215178
14	0x3c7ebbde	0.015547721
15	0xbca87054	-0.020561375

gnn_base.gnn.embed_layer.lin1.2.weight f4 [16]
0	0x3f83c788	1.0295267
1	0x3f73862e	0.95126617
2	0x3f8198a4	1.0124707
3	0x3f81abd1	1.0130559
4	0x3f81a210	1.0127583
5	0x3f7b5287	0.981728
6	0x3f802011	1.0009786
7	0x3f8011ba	1.000541
8	0x3f79661b	0.97421426
9	0x3f81e676	1.0148456
10	0x3f7f9e00	0.99850464
11	0x3f778227	0.9668297
12	0x3f7d3fcb	0.98925465
13	0x3f82fd9e	1.0233648
14	0x3f831f9a	1.0244019
15	0x3f821d85	1.0165259

gnn_base.gnn.embed_layer.lin1.2.bias f4 [16]
0	0xba950e87	-0.0011372127
1	0x3d46de18	0.04855165
2	0x3ba31878	0.004977282
3	0xbc958715	-0.018252889
4	0x3bf11b5d	0.0073579983
5	0x3a0deee0	0.00054143183
6	0x3b20fb74	0.002456394
7	0x3c75250f	0.014962449
8	0x3c878eff	0.016547678
9	0x39aebc46	0.0003332814
10	0xbba9a015	-0.005176554
11	0x3ced1279	0.028939473
12	0x3c1057c2	0.008809986
13	0x3c56fc46	0.01312167
14	0x3c39d2ea	0.01134179
15	0xbcb53619	-0.022120522

gnn_base.gnn.embed_layer.lin_h.0.weight f4 [16, 16]
0	0x3f3ec63b	0.74521226
1	0x3ecc6b00	0.39925385
2	0x3eb08f89	0.3448451
3	0xbe38380a	-0.17990127
4	0x3d16f015	0.036850054
5	0x3d9337da	0.07188387
6	0x3d6e4db4	0.058179572
7	0x3ea77eef	0.3271403
8	0x3eb68673	0.35649452
9	0x3e3b354d	0.18282051
10	0x3d30b9f6	0.043146096
11	0xbdd4256c	-0.103587
12	0x3c04e30e	0.008110775
13	0x3f56197f	0.83632654
14	0x3ec229de	0.37922567
15	0xbccbb04c	-0.024864338
16	0x3e8b2c5a	0.27182275
17	0xbddeb1d1	-0.108737595
18	0xbed8d7b7	-0.42352077
19	0x3f13602a	0.5756861
20	0xbea30388	-0.31838632
21	0xbe05e4de	-0.13075587
22	0x3e9408c0	0.28912926
23	0xbe8ecc99	-0.2789047
24	0x3d08478a	0.03327135
25	0x3f01724a	0.50565016
26	0xbf152013	-0.58252066
27	0x3de27d89	0.110591
28	0xbf25345a	-0.6453301
29	0x3d368f33	0.04457016
30	0x3e59a81d	0.21255536
31	0xbe68cd8b	-0.22734658
32	0x3e951a9e	0.2912187
33	0xbf534708	-0.8253026
34	0x3d430924	0.04761614
35	0x3e443c86	0.19163713
36	0xbeda63b2	-0.42654186
37	0x3e6e3c67	0.23265229
38	0xbe4eb3ab	-0.20185725
39	0xbe8adccf	-0.2712159
40	0xbe45acf7	-0.19304262
41	0xbc4f3a02	-0.0126481075
42	0x3e6d6713	0.23183851
43	0xbf4ca97b	-0.79946107
44	0x3e758b36	0.23978886
45	0x3e702c53	0.23454408
46	0x3cee0f34	0.029059984
47	0x3d0404e9	0.032231245
48	0x3e151c61	0.14561607
49	0x3d1843d3	0.037174057
50	0x3ce62a5d	0.028096372
51	0x3f1997d4	0.59997296
52	0x3d630039	0.055420134
53	0xbeb11c84	-0.34592068
54	0x3c642cc4	0.013926689
55	0xbe7836d2	-0.24239662
56	0x3f067399	0.5252014
57	0x3e6f3dd8	0.23363435
58	0x3edd02af	0.4316611
59	0x3e5bd4f0	0.21467948
60	0x3e74a4db	0.23891012
61	0x3e56e1f3	0.2098463
62	0xbf595f94	-0.84911466
63	0x3e6507f6	0.22366318
64	0xbf1b6a3f	-0.60708994
65	0x3ca39e10	0.019972831
66	0x3e8f76fd	0.28020468
67	0x3e29a851	0.16568114
68	0xbeaca652	-0.33720642
69	0x3f29ac81	0.66278845
70	0xbe96b3c3	-0.29434022
71	0x3e84fd5a	0.25974542
72	0x3e959a09	0.29219082
73	0x3e76ab83	0.24088864
74	0xbf176e4b	-0.5915267
75	0x3d9c62dc	0.076360434
76	0x3e832af4	0.25618708
77	0x3ea204dc	0.31644332
78	0xbe98e1d8	-0.29859805
79	0xbe816fd2	-0.25280625
80	0xbea136c9	-0.3148711
81	0xbf08e92e	-0.53480804
82	0x3d2e810c	0.042603537
83	0xbe1f25ef	-0.15541814
84	0x3f04f99a	0.5194336
85	0x3d992bb5	0.074790396
86	0xbe64f434	-0.22358781
87	0xbedbbd2d	-0.42917767
88	0x3e40a7a9	0.18813957
89	0x3e35169c	0.17684406
90	0xbe03e7de	-0.12881419
91	0x3ec3f563	0.38273153
92	0xbe23d0cc	-0.15997618
93	0x3ed98e59	0.42491415
94	0x3ec20a6b	0.37898573
95	0x3f34f99d	0.7069338
96	0x3e88f23b	0.26747307
97	0x3ef3a604	0.47587597
98	0xbee6f892	-0.4511152
99	0x3e7ca0ae	0.2467067
100	0x3e724ef7	0.23662935
101	0x3f0a6e43	0.54074496
102	0xbf4d2720	-0.80137825
103	0xbe7a2e94	-0.2443183
104	0xbeae4732	-0.34038693
105	0xbe92b6cf	-0.28655097
106	0x3ddbb825	0.10728482
107	0x3c80ee88	0.01573874
108	0xbeaa082e	-0.33209366
109	0x3e29a5c8	0.16567147
110	0xbe49d463	-0.19709925
111	0x3d02d2f4	0.03193946
112	0xbcb11ee7	-0.02162118
113	0x3e40f1d9	0.18842258
114	0xbdd40119	-0.10351772
115	0xbd7e96fb	-0.062155705
116	0x3e8c48b9	0.27399233
117	0x3ebc36a7	0.36760446
118	0x3eeeebfb	0.46664414
119	0xbf5abb1f	-0.85441774
120	0x3f02dce2	0.5111829
121	0xbed5deda	-0.41771585
122	0xbdb2c79e	-0.0872948
123	0xbe2241ae	-0.15845367
124	0x3e9a92ab	0.30190024
125	0xbc459bd9	-0.012061083
126	0x3e1f6ebd	0.15569587
127	0xbee92c98	-0.45541835
128	0x3dd4a5a2	0.103831545
129	0xbea5f89a	-0.3241623
130	0x3f46dc16	0.77679574
131	0x3f17189e	0.5902194
132	0x3e88c222	0.26710612
133	0x3d3d24f1	0.04617781
134	0xbe83743c	-0.25674617
135	0x3dc93aa2	0.098256364
136	0x3dd9bd9d	0.10631869
137	0xbe9a947c	-0.3019141
138	0x3e70c573	0.23512821
139	0x3ea81f4b	0.32836375
140	0xbe9ee214	-0.3103186
141	0xbe8af658	-0.2714107
142	0x3e9f975a	0.3117016
143	0xbf002973	-0.50063246
144	0x3e9a80bc	0.30176342
145	0xbeda86e4	-0.42681038
146	0x3d85edb2	0.065394774
147	0xbf135a85	-0.57559997
148	0xbcb723e1	-0.022355976
149	0x3f12e97d	0.57387525
150	0x3ed20b87	0.4102442
151	0x3d7a867d	0.061163414
152	0x38aa1d95	8.111742e-05
153	0x3c665cb6	0.01406019
154	0x3e480f54	0.19537097
155	0x3ea6d678	0.32585502
156	0xbf135cc9	-0.57563454
157	0xbb2842e6	-0.002567464
158	0xbf2115c2	-0.62923825
159	0xbe07494c	-0.13211554
160	0xbdb204eb	-0.08692344
161	0x3e566f28	0.2094084
162	0x3881ee4a	6.195584e-05
163	0x3e803e4c	0.2504753
164	0xbf4fc78b	-0.81163853
165	0x3eb52200	0.35377502
166	0x3e7fc1fd	0.24976344
167	0x3d022c93	0.03178079
168	0x3e87ea3f	0.26545903
169	0xbef49dae	-0.4777655
170	0x3ea1b617	0.31584236
171	0x3e89fa5e	0.26948828
172	0xbe184fda	-0.14874211
173	0xbdea3a7d	-0.11436937
174	0x3ea9ce5c	0.33165252
175	0x3f265964	0.6498015
176	0x3db27f71	0.08715714
177	0xbc3314d0	-0.010930255
178	0x3e12df7b	0.14343064
179	0x3ec6237a	0.3869894
180	0x3e014a1c	0.12625927
181	0x3e174060	0.14770651
182	0x3f102794	0.5631039
183	0xbd1b9709	-0.037985835
184	0xbf671075	-0.90259486
185	0xbe442c0e	-0.1915743
186	0xbe1b6f66	-0.15179214
187	0x3edd190c	0.43183172
188	0x3eee2d41	0.465189
189	0x3ed91a87	0.4240305
190	0xbd85881f	-0.06520104
191	0x3d867a3f	0.06566285
192	0xbe0183da	-0.12647954
193	0xbed1be1f	-0.40965363
194	0xbf1b1879	-0.6058422
195	0x3e0e7d2d	0.13914938
196	0x3e1d22da	0.15345326
197	0xbe8afb06	-0.2714464
198	0x3d869670	0.065716624
199	0x3f12454a	0.57136977
200	0x3e9a6c76	0.30160874
201	0xbf4ad53a	-0.7923161
202	0xbe23a3b3	-0.15980415
203	0xbbeefa85	-0.007293048
204	0xbdc02e38	-0.093838155
205	0x3eeb1265	0.4591247
206	0xbd9e43c7	-0.07727771
207	0xbe36ce7f	-0.1785221
208	0xbe7708c9	-0.24124445
209	0x3e5d4d2a	0.21611467
210	0x3f11066c	0.56650424
211	0xbe6587b9	-0.22415055
212	0xbea91a43	-0.3302785
213	0xbf0b690f	-0.5445718
214	0xbda854f8	-0.082193315
215	0xbeecf923	-0.46283826
216	0xbe4d6d4c	-0.20061225
217	0xbeea4e2f	-0.45762774
218	0xbe8f09b9	-0.27937105
219	0xbe529639	-0.20565118
220	0xbf01f97c	-0.5077131
221	0x3ecf5ee1	0.40502074
222	0xbea6361c	-0.32463157
223	0x3c22b0ba	0.00992983
224	0x3f0b287d	0.54358655
225	0xbe6969ee	-0.22794315
226	0xbdb769c2	-0.089557186
227	0xbebb27e7	-0.3655388
228	0xbee9b74c	-0.45647657
229	0xbe820c78	-0.25400138
230	0xbefc84b2	-0.49319988
231	0xbe72e853	-0.23721437
232	0x3daa2d57	0.08309429
233	0xbe46dd42	-0.1942034
234	0xbeb1f3b4	-0.34756243
235	0x3f31c128	0.6943536
236	0x3efc1c72	0.49240452
237	0xbe1b7bfd	-0.15184017
238	0x3c380bb3	0.011233258
239	0xbe22f29d	-0.15912862
240	0xbef9f999	-0.4882324
241	0x3c6039fa	0.013685698
242	0xbe90ae68	-0.2825806
243	0xbe2abb24	-0.16672951
244	0xbea9e9ab	-0.33186087
245	0xbe0aa2d9	-0.13538684
246	0xbdb1206f	-0.08648764
247	0xbe2d74c8	-0.1693908
248	0xbe25b8ed	-0.16183825
249	0x3e8ff10f	0.281136
250	0x3f450c17	0.7697157
251	0x3eaece15	0.34141603
252	0xbd03b23e	-0.032152407
253	0x3ef3d4f9	0.47623423
254	0x3e8bb63f	0.2728748
255	0xbf1c442d	-0.6104153

gnn_base.gnn.embed_layer.lin_h.0.bias f4 [16]
0	0x00000000	0.0
1	0x00000000	0.0
2	0x00000000	0.0
3	0x00000000	0.0
4	0x00000000	0.0
5	0x00000000	0.0
6	0x00000000	0.0
7	0x00000000	0.0
8	0x00000000	0.0
9	0x00000000	0.0
10	0x00000000	0.0
11	0x00000000	0.0
12	0x00000000	0.0
13	0x00000000	0.0
14	0x00000000	0.0
15	0x00000000	0.0

gnn_base.gnn.embed_layer.lin_h.2.weight f4 [16]
0	0x3f83c788	1.0295267
1	0x3f73862e	0.95126617
2	0x3f8198a4	1.0124707
3	0x3f81abd1	1.0130559
4	0x3f81a210	1.0127583
5	0x3f7b5287	0.981728
6	0x3f802011	1.0009786
7	0x3f8011ba	1.000541
8	0x3f79661b	0.97421426
9	0x3f81e676	1.0148456
10	0x3f7f9e00	0.99850464
11	0x3f778227	0.9668297
12	0x3f7d3fcb	0.98925465
13	0x3f82fd9e	1.0233648
14	0x3f831f9a	1.0244019
15	0x3f821d85	1.0165259

gnn_base.gnn.embed_layer.lin_h.2.bias f4 [16]
0	0xba950e87	-0.0011372127
1	0x3d46de18	0.04855165
2	0x3ba31878	0.004977282
3	0xbc958715	-0.018252889
4	0x3bf11b5d	0.0073579983
5	0x3a0deee0	0.00054143183
6	0x3b20fb74	0.002456394
7	0x3c75250f	0.014962449
8	0x3c878eff	0.016547678
9	0x39aebc46	0.0003332814
10	0xbba9a015	-0.005176554
11	0x3ced1279	0.028939473
12	0x3c1057c2	0.008809986
13	0x3c56fc46	0.01312167
14	0x3c39d2ea	0.01134179
15	0xbcb53619	-0.022120522

gnn_base.gnn.embed_layer.lin2.0.0.weight f4 [16, 16]
0	0x3f45213a	0.77003825
1	0x3eb7189d	0.35760966
2	0x3ebc61ee	0.36793464
3	0xbe23813f	-0.15967272
4	0x3c70026c	0.014649015
5	0x3d88b4d4	0.06675115
6	0x3cd98998	0.026554868
7	0x3eb7f1e6	0.3592674
8	0x3e9cec4c	0.3064903
9	0x3e405da4	0.18785721
10	0xbba4de30	-0.0050313696
11	0xbe0ad08b	-0.13556115
12	0x3d8cf19c	0.06882021
13	0x3f55344a	0.8328291
14	0x3ed64d39	0.4185579
15	0xbd7ef2a1	-0.062243108
16	0x3e8764c3	0.26444063
17	0xbd9342d1	-0.071904786
18	0xbed88c68	-0.4229462
19	0x3f158bdc	0.58416533
20	0xbeb25e90	-0.3483777
21	0xbdff9a09	-0.12480552
22	0x3e87ca98	0.26521754
23	0xbe921c73	-0.2853733
24	0x3d0d1f68	0.03445378
25	0x3f05cfb4	0.52270055
26	0xbf143601	-0.57894903
27	0x3de08c0c	0.10964212
28	0xbf238bbc	-0.6388509
29	0x3d140162	0.03613413
30	0x3e485fdf	0.19567822
31	0xbe69c7cc	-0.22830123
32	0x3e7f82ca	0.24952236
33	0xbf4b65d7	-0.7945227
34	0x3c9b4bed	0.018957103
35	0x3e334137	0.17505346
36	0xbed5d592	-0.41764504
37	0x3e6882bd	0.22706123
38	0xbe411ecd	-0.18859406
39	0xbe910fea	-0.28332454
40	0xbe27929a	-0.16364518
41	0x3c92262c	0.017840467
42	0x3e8cc98d	0.2749752
43	0xbf454ce3	-0.77070445
44	0x3e3eca15	0.18631776
45	0x3e83cbc5	0.257414
46	0xbcb72775	-0.022357682
47	0x3d623849	0.05522946
48	0x3e448229	0.19190277
49	0x3d2402a4	0.04004158
50	0x3d2cb666	0.042166136
51	0x3f1dc53b	0.61629075
52	0xbd530f48	-0.051528245
53	0xbe9be72e	-0.30449814
54	0xbd953ce6	-0.07287006
55	0xbe5e2e21	-0.21697284
56	0x3ee60bef	0.4493098
57	0x3e8c5c6d	0.27414265
58	0x3ed31c5e	0.4123258
59	0x3e587b15	0.21140702
60	0x3e9bf994	0.3046385
61	0x3e68defe	0.22741315
62	0xbf5ddb1c	-0.8666246
63	0x3e647ef6	0.22314057
64	0xbf1bf85d	-0.6092585
65	0x3b7c8321	0.0038530307
66	0x3e94f624	0.2909404
67	0x3e31bd94	0.17357475
68	0xbeb2c6da	-0.34917337
69	0x3f2bf5a5	0.671717
70	0xbea0ceb0	-0.3140769
71	0x3e803fdf	0.2504873
72	0x3e90a987	0.2825434
73	0x3e692ae4	0.22770268
74	0xbf146ec8	-0.5798154
75	0x3da6ba48	0.08140999
76	0x3e8b1397	0.27163383
77	0x3eb02695	0.34404436
78	0xbe9bb6c2	-0.3041287
79	0xbe873450	-0.264071
80	0xbea53f02	-0.32274634
81	0xbf0221be	-0.50832736
82	0x3d2948a7	0.041329052
83	0xbe030021	-0.12793018
84	0x3f004448	0.5010419
85	0x3d6c09d3	0.057626557
86	0xbe651295	-0.2237037
87	0xbed080df	-0.4072332
88	0x3e4bb5da	0.1989359
89	0x3e494b41	0.19657613
90	0xbdcfffeb	-0.10156234
91	0x3eb41cef	0.35178325
92	0xbe529d54	-0.20567828
93	0x3edb78e7	0.4286568
94	0x3eb78bbd	0.358488
95	0x3f32022c	0.69534564
96	0x3e54657c	0.20741838
97	0x3ef1adda	0.4720295
98	0xbed62980	-0.41828537
99	0x3e6131ec	0.219917
100	0x3e4f720d	0.2025835
101	0x3f0b7487	0.5447468
102	0xbf51ad48	-0.8190503
103	0xbe8edcab	-0.2790273
104	0xbeae668b	-0.3406261
105	0xbe9ab810	-0.30218554
106	0x3e2b84ab	0.16749828
107	0x3d6239b4	0.05523081
108	0xbec22869	-0.37921456
109	0x3e4ff3b9	0.20307817
110	0xbe4b5ed8	-0.19860399
111	0x3cbc3925	0.022976467
112	0xbb818374	-0.003952438
113	0x3e33691b	0.17520563
114	0xbdef3ce4	-0.11681536
115	0xbd249290	-0.040178835
116	0x3e9a62a3	0.3015338
117	0x3eaddc54	0.3395716
118	0x3ef90c9b	0.4864243
119	0xbf60e339	-0.87846714
120	0x3f0a3ab5	0.5399583
121	0xbeddce14	-0.43321288
122	0xbdd5c0f2	-0.10437192
123	0xbe3adbaa	-0.18247858
124	0x3e94da5e	0.2907285
125	0xbbe53e5b	-0.0069959587
126	0x3e2ea5f7	0.17055498
127	0xbef04be1	-0.4693289
128	0x3df55d01	0.1198063
129	0xbeb0211a	-0.34400254
130	0x3f4a361e	0.78988826
131	0x3f183677	0.59458107
132	0x3e91aafd	0.28450766
133	0x3d21be8a	0.039488353
134	0xbe7b04c2	-0.24513534
135	0x3df31026	0.118683144
136	0x3db793d0	0.0896374
137	0xbe97f5c4	-0.29679692
138	0x3e48aeca	0.19597927
139	0x3ea00466	0.31253356
140	0xbe89e1e9	-0.26930168
141	0xbeab6c9e	-0.33481306
142	0x3e9aa73e	0.3020572
143	0xbf026602	-0.509369
144	0x3eafb1f0	0.34315443
145	0xbedbc029	-0.42920044
146	0x3da06d5c	0.07833359
147	0xbf126f8f	-0.57201475
148	0xbc39712a	-0.011318484
149	0x3f12bd25	0.5731986
150	0x3edad623	0.42741498
151	0x3d872c0e	0.066002
152	0x3c060ab6	0.008181265
153	0x3c0089bf	0.007845341
154	0x3e558297	0.20850597
155	0x3ea11e68	0.3146851
156	0xbf195a2a	-0.59903204
157	0xbd5a24dd	-0.05325781
158	0xbf2c3272	-0.67264473
159	0xbe06b524	-0.13155037
160	0xbdcbd35e	-0.099524245
161	0x3e593896	0.21212992
162	0x3d339603	0.043844234
163	0x3e7c1001	0.2461548
164	0xbf57b120	-0.84254646
165	0x3eba9550	0.3644204
166	0x3e626263	0.22107844
167	0x3c7b64a3	0.015343818
168	0x3e9c61a3	0.3054324
169	0xbefcdf24	-0.49388993
170	0x3eb5d5e7	0.35514757
171	0x3e89907e	0.2686805
172	0xbe2b19bb	-0.16709034
173	0xbdd125f8	-0.1021232
174	0x3e95724b	0.2918876
175	0x3f23206f	0.63721365
176	0x3dff3355	0.12460963
177	0xbd06d916	-0.032921873
178	0x3e04e20d	0.12976857
179	0x3ec8505e	0.39123815
180	0x3de2b8b3	0.11070385
181	0x3e21e9c3	0.1581183
182	0x3f0da5db	0.553312
183	0xbc929c65	-0.01789684
184	0xbf691c6b	-0.9105899
185	0xbe36d3e8	-0.17854273
186	0xbe25835e	-0.16163394
187	0x3ed823de	0.42214864
188	0x3eef7c19	0.46774366
189	0x3ecf4a36	0.40486306
190	0xbd779843	-0.060447942
191	0x3d97f32c	0.07419428
192	0xbe0afadd	-0.13572259
193	0xbed23c7f	-0.4106178
194	0xbf1d8b9c	-0.6154115
195	0x3e176e87	0.14788257
196	0x3e2b34e2	0.16719392
197	0xbe87f208	-0.26551843
198	0x3db6a2cc	0.0891777
199	0x3f0df2bb	0.554485
200	0x3e9f1d28	0.31076932
201	0xbf4c26b2	-0.79746544
202	0xbe129729	-0.14315476
203	0x3bb70966	0.005585837
204	0xbdc12224	-0.0943034
205	0x3edddf5b	0.4333447
206	0xbda88bc5	-0.08229784
207	0xbe3c4365	-0.18385084
208	0xbe61a0ad	-0.22033949
209	0x3e63a280	0.22229958
210	0x3f130727	0.5743279
211	0xbe5ac17d	-0.21362872
212	0xbea5f11f	-0.32410523
213	0xbf0c6816	-0.5484632
214	0xbda4df65	-0.080504216
215	0xbede128c	-0.43373525
216	0xbe5b95fc	-0.21443933
217	0xbedfef36	-0.4373719
218	0xbe8a6d2b	-0.27036414
219	0xbe6843af	-0.22682069
220	0xbef6f48e	-0.48233455
221	0x3ec294ff	0.380043
222	0xbeae73e5	-0.34072796
223	0x3ccdbbf5	0.025114039
224	0x3f0fe27e	0.56204975
225	0xbe829857	-0.2550685
226	0xbdbeb209	-0.09311301
227	0xbec55879	-0.38544062
228	0xbee23a1c	-0.4418496
229	0xbe7110af	-0.2354152
230	0xbef919d0	-0.48652506
231	0xbe5e6267	-0.21717225
232	0x3d7d5a98	0.061853975
233	0xbe594ebc	-0.21221441
234	0xbec11ef9	-0.37718943
235	0x3f3109b8	0.69155455
236	0x3ef946ac	0.4868673
237	0xbe0a7a75	-0.13523276
238	0x3cbb1fa3	0.022842234
239	0xbe24c0a6	-0.16089115
240	0xbf011893	-0.5042812
241	0xbcc17726	-0.023616385
242	0xbe9e6037	-0.3093278
243	0xbe5a0d16	-0.21294054
244	0xbeaab988	-0.33344674
245	0xbdfb3779	-0.1226644
246	0xbde02401	-0.10944367
247	0xbe57ccff	-0.21074294
248	0xbe4acf74	-0.198057
249	0x3e734407	0.23756419
250	0x3f3ddb77	0.74163
251	0x3ebdae51	0.37047055
252	0x3d3746e0	0.044745326
253	0x3f02c51f	0.5108203
254	0x3ebb8a78	0.3662908
255	0xbf26918c	-0.65065837

gnn_base.gnn.embed_layer.lin2.0.0.bias f4 [16]
0	0x3d139294	0.03602846
1	0xbc184808	-0.009294517
2	0xbced60fc	-0.02897691
3	0x3bba03b5	0.0056767114
4	0x3c8816b8	0.016612396
5	0xbc758a2e	-0.014986558
6	0x3bfe6700	0.0077637434
7	0x3c9bced6	0.019019525
8	0x3bcc2233	0.006229663
9	0xbbd1de32	-0.0064046616
10	0x3c83a6e0	0.016070783
11	0x398b9d71	0.0002662945
12	0x38cf8d91	9.896898e-05
13	0xbc272b2b	-0.010203163
14	0x3c5b82c6	0.013397878
15	0x3d4093b5	0.047015864

gnn_base.gnn.embed_layer.lin2.0.2.weight f4 [16]
0	0x3f789dd4	0.97115827
1	0x3f801568	1.0006533
2	0x3f7b128e	0.9807519
3	0x3f7c5578	0.98567915
4	0x3f7d2cb9	0.98896366
5	0x3f833fc6	1.0253837
6	0x3f832936	1.0246952
7	0x3f876b6b	1.0579656
8	0x3f816706	1.0109565
9	0x3f87e84d	1.0617768
10	0x3f8187d5	1.0119578
11	0x3f7ed2fa	0.99540675
12	0x3f7f8439	0.9981113
13	0x3f74ce86	0.9562763
14	0x3f82e41a	1.0225861
15	0x3f83d074	1.029799

gnn_base.gnn.embed_layer.lin2.0.2.bias f4 [16]
0	0x3d5ebfdf	0.0543822
1	0x3b337d05	0.002738775
2	0xbd26f2a0	-0.04075873
3	0xbbdadf2f	-0.0066794376
4	0x3c780a96	0.015139243
5	0xbcc3fafa	-0.023923386
6	0xbc377b51	-0.0111988345
7	0x3c97e939	0.018543826
8	0x3c17dd38	0.009269051
9	0xbbf9c35c	-0.0076221656
10	0x3b951e8b	0.00455076
11	0xbb99809d	-0.0046845214
12	0x3c108b15	0.008822222
13	0x3cf77981	0.030209305
14	0xbb9737e5	-0.0046148174
15	0x3d6f99b6	0.0584962

gnn_base.gnn.gnn1.lin_key.weight f4 [48, 16]
0	0x3d69ab0f	0.0570479
1	0xbd91d509	-0.07120711
2	0xbdc16311	-0.094427235
3	0x3c6124cc	0.013741683
4	0xbe3f1b8e	-0.18662855
5	0x3e50ef8c	0.2040388
6	0x3e387edd	0.18017145
7	0x3e4f0a19	0.20218696
8	0xbd8dbba9	-0.06920559
9	0x3db1f317	0.08688944
10	0x3d06d269	0.032915507
11	0xbe5af4a7	-0.2138239
12	0x3dd2836d	0.10278974
13	0xbe250fba	-0.1611928
14	0xbd8d1945	-0.068895854
15	0xbdd13b8c	-0.10216436
16	0xbe85bf3e	-0.2612247
17	0xbb5ec86a	-0.0033993968
18	0x3d658a4c	0.056040093
19	0xbcffcad5	-0.031224648
20	0x3e56df25	0.2098356
21	0x3bc6ce79	0.006067094
22	0xbce44f18	-0.027869746
23	0xbdfd763c	-0.12376067
24	0xbdfc3001	-0.123138435
25	0xbd164585	-0.036687393
26	0xbe126395	-0.142958
27	0xbe21746a	-0.15767065
28	0xbd4df7a7	-0.050285008
29	0xbd8e7bf8	-0.06957239
30	0xbe166484	-0.14686781
31	0x3e1586d0	0.14602208
32	0x3e828c05	0.2549745
33	0xbe1a1cfb	-0.15050118
34	0x3de3ca98	0.11122626
35	0xbdd99749	-0.106245585
36	0xbd861022	-0.06546046
37	0x3e8d6bc2	0.27621275
38	0x3d893ccb	0.067010485
39	0xbe801b58	-0.25020862
40	0x3e2db00c	0.16961688
41	0xbb759e1e	-0.0037478278
42	0xbe020648	-0.12697709
43	0xbdfd5e39	-0.12371487
44	0x3e7991ff	0.243721
45	0x3c90c7ad	0.017673338
46	0x3e21333d	0.15742202
47	0x3e35a254	0.17737705
48	0xbe1200ce	-0.1425812
49	0x3d5033d9	0.050830696
50	0xbe42d144	-0.19025141
51	0x3e70b51c	0.23506588
52	0xbdf32e54	-0.11874071
53	0x3e29fbb9	0.16599931
54	0x3d56aaef	0.05240911
55	0x3e647899	0.2231163
56	0xbe4bc53e	-0.1989946
57	0xbcbe2639	-0.023211585
58	0x3ddf17cb	0.1089321
59	0xbcd7ab24	-0.026326723
60	0x3ce7dae9	0.028302627
61	0x3e2330d6	0.15936598
62	0xbe7f596c	-0.24936455
63	0xbd1f5164	-0.03889598
64	0x3dddae23	0.108242296
65	0x3dd6121d	0.104526736
66	0x3e837bc8	0.25680375
67	0xbd55eb3d	-0.052226294
68	0x3dd0f19a	0.10202332
69	0xbded75e3	-0.11594751
70	0xbbb27ef7	-0.0054472643
71	0xbe0470a4	-0.12933594
72	0x3e281010	0.16412377
73	0xbb8ac4d4	-0.0042348895
74	0x3e03aa40	0.12857914
75	0x3df2897f	0.118426315
76	0x3b90d329	0.0044197035
77	0x3b0934af	0.0020935943
78	0xbc529679	-0.012853258
79	0xbe3c6c3c	-0.18400663
80	0x3d286d2d	0.041119743
81	0xbd5e822d	-0.054323364
82	0xbe55ae7d	-0.20867343
83	0x3e80b888	0.25140786
84	0xbc87804b	-0.016540667
85	0xbdc1652f	-0.09443127
86	0xbe427d8f	-0.1899321
87	0xbe880326	-0.26564902
88	0x3d3650a3	0.044510495
89	0xbdefafce	-0.11703454
90	0xbd5df682	-0.054190166
91	0xbe065271	-0.13117386
92	0x3e4054fb	0.18782417
93	0xbd5a81b6	-0.05334636
94	0x3e2d89bc	0.16947073
95	0x3e555e43	0.20836739
96	0xbe3be633	-0.18349533
97	0x3e376b39	0.17911996
98	0xbae83278	-0.0017715236
99	0x3e798b39	0.24369515
100	0x3e0d2b1b	0.13785975
101	0xbe713a4b	-0.23557393
102	0x3db2311e	0.087007746
103	0x3d61141b	0.054950815
104	0xbdd52f2a	-0.104093865
105	0x3e4830d9	0.19549884
106	0xbe3c5cec	-0.18394822
107	0xbd71338b	-0.058887046
108	0x3e5797b9	0.21053971
109	0x3e58cc8c	0.21171778
110	0x3e26165a	0.16219464
111	0xbe21c65b	-0.15798323
112	0xbe601acc	-0.21885222
113	0xbe68dca7	-0.22740422
114	0xbd8ea9a7	-0.06965952
115	0x3dfbd07f	0.12295627
116	0x3d4f6d6e	0.05064147
117	0x3c3d1baa	0.01154224
118	0x3e8f4c69	0.27987984
119	0x3e523fdf	0.20532177
120	0xbe323661	-0.17403556
121	0xbdb8b610	-0.09019101
122	0x3cd741d0	0.026276499
123	0x3d87db60	0.06633639
124	0x3cb756e5	0.022380302
125	0x3e0c1dd9	0.13683261
126	0x3e3686de	0.17824885
127	0xbc0f5512	-0.00874831
128	0x3e1e113e	0.15436265
129	0x3bd080b6	0.006363
130	0x3e033ea4	0.12816864
131	0x3dc0be64	0.09411314
132	0xbd90b4c3	-0.070657276
133	0xbdc416cd	-0.095746614
134	0x3e0df747	0.1386386
135	0xbe4c8cbe	-0.19975564
136	0x3dec60c0	0.11541891
137	0xbe2984f6	-0.16554627
138	0x3e5e157b	0.21687882
139	0x3dced671	0.10099495
140	0xbdb10727	-0.08643942
141	0x3de949a7	0.11391001
142	0xbce1d92a	-0.027569372
143	0x3d813709	0.06309325
144	0x3d760517	0.060063448
145	0x3d340977	0.04395434
146	0x3bc1e605	0.005917313
147	0xbba8f604	-0.0051562805
148	0xbd69d171	-0.057084505
149	0x3e0c2047	0.13684188
150	0x3d79c388	0.06097749
151	0x3dedd375	0.11612598
152	0x3e37180e	0.1788027
153	0xbe09b5f0	-0.1344831
154	0xbdb5c3c6	-0.088752314
155	0xbcad6c5e	-0.021169838
156	0x3e5fe8cb	0.21866147
157	0xbe3c7c0c	-0.18406695
158	0xbe41a165	-0.18909223
159	0xbd4ba934	-0.04972191
160	0xbe736c7f	-0.23771857
161	0xbe474cb6	-0.19462857
162	0x3e29867d	0.1655521
163	0x3c4d6595	0.012536426
164	0xbe68cbdf	-0.2273402
165	0xbd7d26aa	-0.06180445
166	0xbd9a1853	-0.07524171
167	0xbda5df16	-0.08099191
168	0xbe369b1b	-0.17832606
169	0x3e1635c7	0.14668952
170	0xbd3d112d	-0.04615896
171	0x3e52e8a0	0.20596552
172	0xbe18d89e	-0.14926383
173	0xbe0ede6b	-0.13952033
174	0xbd59e8d6	-0.053200565
175	0xbe096414	-0.13417083
176	0x3deaf412	0.11472334
177	0x3e70136d	0.2344491
178	0x3e4583ee	0.19288608
179	0xbe05be89	-0.13060965
180	0x3e334aab	0.17508952
181	0x3e1777a7	0.14791737
182	0xbe0ef6e5	-0.1396137
183	0x3d84b3c1	0.06479598
184	0x3e17043b	0.14747708
185	0x3e3665e1	0.17812301
186	0xbe815cea	-0.252662
187	0x3e67934f	0.22614788
188	0xbd7c6d8c	-0.06162791
189	0x3dff8a78	0.12477583
190	0xbe632c3d	-0.22184844
191	0xbe4e3df0	-0.20140815
192	0xbe1f31c8	-0.15546334
193	0x3e0900ca	0.13379207
194	0xbd954284	-0.072880775
195	0x3e185409	0.14875807
196	0x3d98fd8a	0.07470234
197	0x3dd224c5	0.102609195
198	0xbc755848	-0.014974661
199	0xbde94927	-0.11390906
200	0xbe006f48	-0.1254245
201	0xbe09fae7	-0.13474618
202	0x3e826731	0.25469354
203	0x3bc77c70	0.006087832
204	0xbe0afdfd	-0.13573451
205	0xbe827029	-0.25476196
206	0x3d6f2c2a	0.058391728
207	0xbe869e3e	-0.26292604
208	0xbd1744e4	-0.036930934
209	0x3e3b82a0	0.18311548
210	0xbdcc4e3d	-0.0997586
211	0x3e17d19b	0.14826052
212	0xbdaceab1	-0.08443201
213	0xbe69c091	-0.22827365
214	0xbe76ecaa	-0.24113718
215	0x3df49dfe	0.11944197
216	0xbe1eeb69	-0.1551949
217	0x3e024d60	0.12724829
218	0x3cf5bc6a	0.02999707
219	0x3e24df53	0.16100816
220	0xbe465ac8	-0.19370568
221	0x3e218280	0.15772438
222	0xbe601296	-0.2188209
223	0xbe71de8c	-0.23620051
224	0x3e31be8e	0.17357847
225	0xbcbf5a12	-0.023358379
226	0xbe1ae3d7	-0.15125977
227	0xbd818aa5	-0.063252725
228	0xbe6ebb57	-0.23313652
229	0xbe4b8fb6	-0.1987904
230	0xbc87ac2a	-0.016561586
231	0x3e38dc73	0.18052845
232	0x3d90454e	0.07044469
233	0x3da3cfcc	0.079986185
234	0xbd5642cb	-0.052309792
235	0x3e822817	0.2542121
236	0x3be5a94a	0.007008706
237	0x3d28b046	0.041183732
238	0x3d3a3576	0.04546114
239	0x3cbcdf55	0.023055712
240	0x3d35cf90	0.0443874
241	0x3e596e29	0.21233429
242	0x3de6c7da	0.112685874
243	0x3d36655f	0.04453027
244	0x3da1893f	0.07887506
245	0xbdbd72a5	-0.09250382
246	0x3e0e2ee3	0.13885073
247	0x3dfc9208	0.12332541
248	0x3e45cfb5	0.19317515
249	0xbce55106	-0.027992737
250	0xbe6fc774	-0.23415929
251	0x3c684355	0.014176209
252	0x3e03183a	0.1280221
253	0x3e798bef	0.24369787
254	0x3d2af226	0.041734837
255	0x3ddaff94	0.10693279

gnn_base.gnn.gnn1.lin_key.bias f4 [48]
0	0x3ddaad14	0.10677543
1	0x3d98e770	0.07466018
2	0x3e0bce5c	0.13652939
3	0xbe4db8c0	-0.20090008
4	0x3d9e434c	0.077276796
5	0xbe7274b2	-0.23677328
6	0xbe285cc4	-0.16441637
7	0xbdbecc84	-0.09316352
8	0xbcc78911	-0.02435735
9	0xbe7196a2	-0.23592618
10	0x3bcbe022	0.006221787
11	0x3d237d00	0.03991413
12	0xbdcb3208	-0.09921652
13	0x3da611a0	0.081088305
14	0x3e5fb2e2	0.21845582
15	0xbd2eea08	-0.04270366
16	0xbe085712	-0.13314465
17	0xbe62c5a6	-0.2214571
18	0xbe3aee92	-0.1825507
19	0xbe0d9724	-0.13827187
20	0xbe3d4114	-0.18481857
21	0xbdc94b00	-0.09828758
22	0x3e0d06ca	0.13772121
23	0x3da03754	0.07823053
24	0x3e66bd2c	0.22533101
25	0x3e7e2b36	0.24821171
26	0xbdb85fec	-0.09002671
27	0xbdc8824c	-0.09790477
28	0x3d0c2118	0.03421125
29	0xbe4bd926	-0.19907054
30	0x3e0b3e46	0.13597974
31	0xbd384c20	-0.044994473
32	0xbe565b30	-0.20933223
33	0xbe41467a	-0.18874541
34	0xbe3066c8	-0.17226708
35	0x3d8cb96c	0.06871304
36	0x3e443df6	0.19164261
37	0x3e4ad112	0.19806316
38	0xbd8cfb54	-0.068838745
39	0xbe14b2fa	-0.14521399
40	0xbde33e54	-0.110958725
41	0xbe2ee0ea	-0.17077985
42	0xbd840134	-0.06445542
43	0xbe673454	-0.22578555
44	0x3e08d4d4	0.13362437
45	0xbe70f22c	-0.23529881
46	0xbe1f3ef8	-0.15551364
47	0x3e2bcd3a	0.16777506

gnn_base.gnn.gnn1.lin_query.weight f4 [48, 16]
0	0xbe3cc575	-0.18434699
1	0x3d095d5b	0.033536296
2	0x3e2add93	0.16686086
3	0x3e7ebd94	0.24877006
4	0x3dc964f3	0.09833708
5	0xbd83c4ea	-0.06434043
6	0x3e066eed	0.13128252
7	0x3be9d7c7	0.0071363184
8	0xbd5c3393	-0.053760123
9	0x3d071c2d	0.032985855
10	0x3d1553fe	0.036457054
11	0x3e24f84d	0.16110344
12	0x3df9027e	0.121586785
13	0x3dd8a14e	0.105776414
14	0x3d456b60	0.048198104
15	0xbd40dbef	-0.047084745
16	0x3d8fd99a	0.07023926
17	0x3d88bf0f	0.066770665
18	0xbe682dd5	-0.22673734
19	0x3d956a88	0.0729571
20	0xbe0e5ea7	-0.13903295
21	0xbe2a9e9b	-0.16662066
22	0x3dc57c3e	0.09642838
23	0x3d0990a0	0.03358519
24	0x3d7f1e44	0.062284723
25	0xbdf21f03	-0.11822321
26	0x3dd99c04	0.10625461
27	0x3e8b9871	0.2726474
28	0x3c9bf98a	0.019039888
29	0x3d878503	0.06617167
30	0xbe52a07f	-0.20569037
31	0x3e0f5571	0.13997437
32	0x3d758d5c	0.059949264
33	0x3dcaa82f	0.0989536
34	0x3dc6a3d3	0.09699216
35	0xbdd748f3	-0.10511961
36	0xbd14f995	-0.036370832
37	0x3e92ecb6	0.2869622
38	0x3e59dddc	0.21276039
39	0xbe34f3cf	-0.1767113
40	0x3e393086	0.18084916
41	0x3e8dedf1	0.27720597
42	0x3d7afb2d	0.061274696
43	0xbe44bd66	-0.19212875
44	0x3d199350	0.037494004
45	0xbbb7d3e8	-0.005609978
46	0x3e0d2512	0.13783672
47	0xbe496542	-0.19667533
48	0x3d03ae0b	0.032148402
49	0xbbd84519	-0.006600034
50	0x3d4eabc8	0.050456792
51	0x3e602e04	0.21892554
52	0xbb837208	-0.0040113963
53	0xbe87e845	-0.26544395
54	0xbe219d8f	-0.1578276
55	0xbdf02b4a	-0.11727007
56	0x3d7dc3de	0.06195437
57	0x3dd35ba9	0.10320217
58	0xbd9a8a50	-0.07545912
59	0xbd69b0df	-0.057053443
60	0x3d627b06	0.055293106
61	0xbe9708fc	-0.29499042
62	0x3e79a6c4	0.24380022
63	0xbdb50c1c	-0.088402
64	0x3e5f7dd6	0.21825346
65	0x3e5762f3	0.2103384
66	0x3cbf29b0	0.023335308
67	0x3d8d7611	0.06907285
68	0xbdd3e5f7	-0.10346597
69	0x3e4554a6	0.19270572
70	0x3e14e9bc	0.14542288
71	0xbd07ede9	-0.033185873
72	0x3d9821a1	0.07428289
73	0xbcfa0459	-0.030519651
74	0x3e551f98	0.20812833
75	0x3d840350	0.06445944
76	0x3e4e8ab7	0.20170103
77	0xbe52fe1c	-0.20604748
78	0x3e63c994	0.22244865
79	0x3de748a3	0.11293151
80	0x3dc03c4e	0.09386502
81	0x3d58de64	0.052946463
82	0x3e38e1ac	0.18054837
83	0x3e4a038e	0.19727919
84	0x3c4b5124	0.012409482
85	0xbe489441	-0.19587804
86	0x3e62fd8b	0.22167031
87	0xbcb2649b	-0.021776488
88	0xbde2fb27	-0.1108306
89	0x3e04e703	0.12978749
90	0x3de73129	0.112886734
91	0x3d115daa	0.035489716
92	0xbcd66fbe	-0.02617633
93	0xbd95b6ff	-0.07310294
94	0x3e448a44	0.19193369
95	0x3e38b5f6	0.18038163
96	0x3e28f1de	0.16498515
97	0x3e3075dc	0.1723246
98	0xbe09331d	-0.13398404
99	0x3d8d1753	0.06889214
100	0xbe3240ed	-0.1740758
101	0x3ded1f2f	0.115782134
102	0xbe8e2963	-0.2776595
103	0xbe6864c1	-0.22694685
104	0xbe67fb70	-0.2265451
105	0x3e128444	0.14308268
106	0xbb006227	-0.0019589753
107	0xbd03a6f3	-0.032141637
108	0x3d305f23	0.04305948
109	0xbdfc93d0	-0.123328805
110	0xbd8281a6	-0.06372385
111	0xbe50a635	-0.20375903
112	0xbd70baa7	-0.058771756
113	0xbe2d96b7	-0.16952024
114	0xbb4afda1	-0.0030973929
115	0x3e638f5b	0.22222655
116	0xbe70b50c	-0.23506564
117	0x3dcfbf1e	0.101438746
118	0xbe27e882	-0.16397288
119	0xbe1db188	-0.15399754
120	0x3d071598	0.032979578
121	0x3d934d15	0.071924366
122	0x3e6fcf7e	0.23418996
123	0x3d151322	0.0363952
124	0xbdd8ad94	-0.105799824
125	0xbddb0fe1	-0.10696388
126	0x3d83bcfd	0.06432531
127	0xbe60db21	-0.21958591
128	0xbe32442d	-0.1740882
129	0xbde1d4b0	-0.11026895
130	0x3c4260be	0.011863885
131	0xbe53fb17	-0.20701252
132	0xbe04018b	-0.12891214
133	0x3e61468d	0.21999569
134	0x3e82cd7b	0.25547394
135	0xbdc5c82a	-0.09657319
136	0xbe83c9c9	-0.25739887
137	0xbddceca4	-0.10787323
138	0x3dfe119a	0.12405701
139	0x3dbf3b68	0.09337503
140	0xbdb384a5	-0.08765534
141	0xbe310d06	-0.17290124
142	0xbdbdae4a	-0.092617586
143	0xbbbed34b	-0.005823528
144	0x3e28b3b0	0.16474795
145	0xbde2fc5f	-0.11083292
146	0x3e0c034d	0.13673134
147	0x3d0f320d	0.03495984
148	0xbc778e96	-0.015109679
149	0xbe5d9bf1	-0.21641518
150	0x3e619be9	0.22032131
151	0xba21e698	-0.0006176024
152	0x3e31e3f2	0.1737211
153	0xbe1d1e4b	-0.15343587
154	0xbe857dc6	-0.2607252
155	0xbe82433c	-0.2544192
156	0xbdd27275	-0.10275737
157	0xbdc19170	-0.09451568
158	0xbd85f174	-0.06540194
159	0x3e625798	0.22103727
160	0xbe4eb54b	-0.20186345
161	0x3e1384be	0.14406106
162	0x3e4aaeea	0.19793287
163	0x3c908027	0.017639233
164	0xbe3db94b	-0.18527715
165	0x3c362807	0.011117942
166	0x3db6f758	0.08933896
167	0x3da42fba	0.080169156
168	0xbde30b4d	-0.1108614
169	0xbd184121	-0.037171487
170	0xbda719ca	-0.08159216
171	0xbe8862b2	-0.266378
172	0x3da4059a	0.08008881
173	0xbe1460a0	-0.14489985
174	0xbdbfaa2b	-0.09358629
175	0xbd1445f5	-0.03619953
176	0x3e727153	0.23676042
177	0x3e74bed6	0.23900923
178	0xbe3c8ed7	-0.18413864
179	0x3e5e5182	0.2171078
180	0x3e833b2d	0.25631085
181	0x3e55d782	0.20882991
182	0x3b8519b0	0.0040619
183	0x3e54baa9	0.2077433
184	0x3dfe62fe	0.12421225
185	0xbe4b59f4	-0.19858533
186	0xbe07c9b9	-0.13260545
187	0xbd25dde7	-0.040494826
188	0xbe25f2b9	-0.16205873
189	0xbd89ae00	-0.06722641
190	0x3e344a5d	0.17606492
191	0x3e0e8a79	0.1392001
192	0x3e92c907	0.28668997
193	0x3cd085e5	0.02545447
194	0xbe02fbb2	-0.12791327
195	0x3e289cca	0.1646606
196	0x3d463e2c	0.048399135
197	0x3d1e6037	0.038665976
198	0xbda02841	-0.07820178
199	0x3d519586	0.051167987
200	0xbe6fef9b	-0.23431246
201	0x3e53834d	0.20655556
202	0x3e79a9c8	0.24381173
203	0x3d93b3fc	0.07212064
204	0x3e318eb5	0.17339595
205	0x3e27efcf	0.16400073
206	0xbd3e4693	-0.046454024
207	0xbe69b241	-0.22821905
208	0x3d475991	0.0486694
209	0x3e223199	0.15839233
210	0xbcb32871	-0.02186987
211	0x3d477ab1	0.048700992
212	0x3e59bfae	0.21264526
213	0x3d946b6a	0.0724705
214	0x3e16d74c	0.14730567
215	0x3d35eaf5	0.044413526
216	0x3d5de178	0.054170102
217	0xbda9a845	-0.08284048
218	0xbda1f3db	-0.0790784
219	0xbe15a8c4	-0.1461516
220	0x3e250c18	0.16117895
221	0x3e58505e	0.21124408
222	0x3deee1e5	0.1166418
223	0xbccbc9dc	-0.024876527
224	0xbdca5881	-0.09880162
225	0xbe8d3aed	-0.2758402
226	0xbd0e23d1	-0.034702126
227	0xbe4f9673	-0.20272236
228	0xbe1f4802	-0.15554813
229	0xbd304e8a	-0.04304365
230	0xbde9771c	-0.113996714
231	0x3e08637e	0.13319203
232	0xbe06b9e8	-0.13156855
233	0x3e183194	0.14862663
234	0xbe8dfda3	-0.27732572
235	0xbe30383d	-0.17208953
236	0xbdb43ceb	-0.08800682
237	0xbad4dd69	-0.0016240302
238	0x3d927491	0.071511395
239	0xbd57806c	-0.052612707
240	0x3d369e36	0.044584475
241	0xbd3de905	-0.046364803
242	0xbdcf368e	-0.10117827
243	0xbd027d4f	-0.031857785
244	0x3db409da	0.087909415
245	0xbe7b57b4	-0.24545175
246	0xbe4c51e3	-0.19953112
247	0x3e659862	0.2242141
248	0x3e028f06	0.12749872
249	0xbd11e89e	-0.03562223
250	0xbbed8122	-0.00724806
251	0x3a667dbb	0.0008792539
252	0x3da6f88e	0.08152877
253	0xbe41bdcb	-0.18920057
254	0xbdd42198	-0.1035797
255	0xbe5f67e3	-0.21816973

gnn_base.gnn.gnn1.lin_query.bias f4 [48]
0	0x3dd821f0	0.10553348
1	0x3d5464a2	0.051853783
2	0xbe7ae9be	-0.24503228
3	0x3dea100e	0.114288434
4	0xbdbeaa43	-0.093098186
5	0x3e8fd5aa	0.280927
6	0x3e8431ac	0.25819147
7	0x3d8971e4	0.06711176
8	0x3e3651b5	0.17804606
9	0x3dc6ea9d	0.09712718
10	0x3e42f8b8	0.19040191
11	0xbd1a9624	-0.03774084
12	0x3cf1f5d8	0.029536173
13	0xbcb13ff0	-0.021636933
14	0x3d4a0edc	0.049330577
15	0xbd8e8b03	-0.06960108
16	0xbd431d14	-0.047635153
17	0x3e13f9ac	0.14450711
18	0x3d4d56a6	0.050131463
19	0xbd7a739f	-0.06114542
20	0xbe93b31e	-0.28847593
21	0x3dcf95fb	0.101360284
22	0xbe8a5550	-0.27018213
23	0xbd362c64	-0.044475928
24	0xbe2ffbd4	-0.17185909
25	0x3e29954f	0.16560863
26	0x3e5df742	0.21676353
27	0xbe5d1077	-0.21588312
28	0xbe798065	-0.24365385
29	0xbda3cc4b	-0.0799795
30	0x3d98faf8	0.074697435
31	0xbe2504b2	-0.16115072
32	0xbc77ea1a	-0.015131498
33	0xbddacdc8	-0.10683781
34	0x3c9b089e	0.018925007
35	0xbd9a690f	-0.075395696
36	0x3dd0edc1	0.10201598
37	0xbe3dc32d	-0.18531485
38	0x3c4764af	0.012170001
39	0x3e7bf9e4	0.24607044
40	0xbdf636b1	-0.1202215
41	0x3e61c093	0.22046117
42	0x3e0e0841	0.13870336
43	0xbdd912ea	-0.10599311
44	0x3e003064	0.1251846
45	0xbe24adaa	-0.16081873
46	0x3d28125c	0.041033134
47	0x3d4384bb	0.047734004

gnn_base.gnn.gnn1.lin_value.weight f4 [48, 16]
0	0x3e5d0660	0.21584463
1	0xbe037407	-0.1283723
2	0xbe21f431	-0.15815808
3	0xbe057d3e	-0.13036057
4	0xbe8afe26	-0.27147025
5	0x3d9bf705	0.076154746
6	0xbe57384e	-0.21017572
7	0xbd43df77	-0.047820535
8	0xbdff8809	-0.124771185
9	0x3a6ed626	0.000911089
10	0x3daa88e4	0.08326891
11	0xbe6768d5	-0.22598584
12	0xbb9fb51e	-0.004873886
13	0xbaf59810	-0.0018737335
14	0xbe240a5b	-0.16019575
15	0x3db5646f	0.08857047
16	0x3deccfcb	0.11563071
17	0xbe41ab49	-0.18912996
18	0x3e4ef7f4	0.20211774
19	0x3e31c8cc	0.17361754
20	0xbdb91b88	-0.09038454
21	0xbbf17ed7	-0.007369857
22	0x3c5d97d8	0.013524972
23	0xbd0f137a	-0.034930684
24	0xbe242f29	-0.16033615
25	0x3e4fa0b9	0.20276155
26	0x3decd151	0.115633614
27	0xbe48cb96	-0.19608912
28	0xbe36d529	-0.17854752
29	0x3e5d50b7	0.21612822
30	0x3d56f654	0.05248101
31	0xbd19f5dc	-0.037587985
32	0x3e2b512f	0.16730188
33	0x3d81db27	0.06340628
34	0x3d9d92a8	0.07693988
35	0x3e3e413d	0.18579574
36	0xbc1c544e	-0.009541584
37	0x3e9a3a43	0.30122575
38	0xbe071f50	-0.13195539
39	0xbe46da0f	-0.1941912
40	0x3c5013fc	0.012700077
41	0x3c67a730	0.014138982
42	0x3e2862e5	0.16443975
43	0xbd845c33	-0.06462898
44	0x3bb27f16	0.0054472787
45	0x3c31d10f	0.010853066
46	0x3e0fa495	0.14027627
47	0xbb890810	-0.0041818693
48	0x3ca03d56	0.019560497
49	0x3e5a267e	0.21303746
50	0x3e8b720a	0.27235442
51	0x3e6fc206	0.23413858
52	0xbe974200	-0.29542542
53	0xbe1d9b62	-0.15391305
54	0xbd05211b	-0.032502275
55	0xbd773a9a	-0.06035862
56	0x3e064d21	0.1311536
57	0x3e0e80f2	0.13916376
58	0xbcc99d59	-0.024611162
59	0x3d8df8e1	0.069322355
60	0x3d2a2458	0.041538566
61	0x3e24f5f9	0.16109456
62	0x3e4ef7b9	0.20211686
63	0xbe3c7eb9	-0.18407716
64	0xbdb868b2	-0.09004344
65	0x3ce65e59	0.02812116
66	0xba5783c2	-0.00082212326
67	0xbe52660a	-0.20546737
68	0xbe82c011	-0.2553716
69	0x3bce102c	0.006288549
70	0xbe2272ef	-0.15864156
71	0xbdb3926e	-0.087681636
72	0x3d661f3d	0.056182135
73	0x3e48713e	0.19574448
74	0x3e3a5da8	0.1819979
75	0x3e10c01e	0.14135787
76	0xbe417cc9	-0.18895258
77	0x3ddfb5ce	0.10923348
78	0x3e5bec7a	0.21476927
79	0x3e04e851	0.12979247
80	0xbd875d55	-0.066095985
81	0x3b6c7ed1	0.003608633
82	0xbdccb438	-0.099953115
83	0xbd2808db	-0.04102407
84	0xbcea9670	-0.028636187
85	0xbddc3d72	-0.10753907
86	0xbe8f3cf6	-0.27976197
87	0x3df16ca1	0.117882974
88	0xbe4625c7	-0.19350348
89	0xbe786354	-0.2425664
90	0x3dadfe14	0.08495727
91	0xbe50d502	-0.20393756
92	0x3e810eef	0.25206706
93	0x3e27f510	0.16402078
94	0xbd356dd2	-0.044294186
95	0xbc3ac846	-0.011400288
96	0xbe29dda8	-0.16588461
97	0xbb967e5b	-0.0045926995
98	0x3d7aed48	0.061261445
99	0xbe0c7fee	-0.13720676
100	0x3d871e08	0.06597525
101	0xba48c161	-0.000765821
102	0xbda367d4	-0.07978788
103	0x3cf1a545	0.029497752
104	0xbe73b2ef	-0.23798726
105	0xbe591771	-0.21200348
106	0x3d10694a	0.03525666
107	0x3e6fd785	0.23422058
108	0xbde642c9	-0.11243207
109	0x3dffae6c	0.1248444
110	0x3d37f80f	0.0449143
111	0xbddb2c42	-0.10701801
112	0xbc48dd28	-0.012259759
113	0x3e10a7af	0.14126466
114	0x3d23038d	0.03979831
115	0x3e6994f4	0.22810727
116	0xbc97cc24	-0.018529959
117	0xbe3aaf28	-0.1823088
118	0x3e64ccef	0.22343801
119	0xbd9542b5	-0.07288114
120	0x3e2f5718	0.17123067
121	0x3e161167	0.14655076
122	0x3d05edfd	0.032697666
123	0xbe356d7b	-0.17717545
124	0xbe821e63	-0.25413808
125	0x3dae41b3	0.08508625
126	0x3da91198	0.08255309
127	0x3dcc5f5a	0.09979124
128	0xbe428336	-0.18995366
129	0xbd44b9af	-0.048028644
130	0x3e59ce6f	0.21270154
131	0x3dae3dba	0.08507867
132	0x3e4d668d	0.20058651
133	0x3e77d544	0.24202448
134	0xbcd1e819	-0.025623368
135	0xbe3e5f46	-0.18591031
136	0xbe383cbd	-0.1799192
137	0x3dcb1b67	0.09917336
138	0xbd980c23	-0.0742419
139	0x3c62e635	0.013848831
140	0x3d28439b	0.0410801
141	0x3e4904fe	0.1963081
142	0x3e1c12ff	0.15241621
143	0x3df82a38	0.121174276
144	0x3ca72302	0.020402435
145	0x3e05e6a6	0.13076267
146	0xbe065c49	-0.13121141
147	0xbdf3757d	-0.118876435
148	0xbd88e3ed	-0.066840984
149	0xbe0a2461	-0.1349044
150	0x3e61ad6e	0.22038814
151	0xbb93c48e	-0.004509515
152	0x3d749f01	0.05972195
153	0xbd06e156	-0.03292974
154	0xbbafffa4	-0.005371051
155	0xbdf43117	-0.11923426
156	0x3d49b1ff	0.049242016
157	0xbe8126fd	-0.25225058
158	0xbdcbaac6	-0.09944682
159	0x3e69d6d6	0.2283586
160	0xbe456769	-0.19277729
161	0x3ca9f162	0.020744983
162	0x3da1661a	0.078808025
163	0xbe6bf82a	-0.23043886
164	0x3ce02ff7	0.027366621
165	0x3d53489a	0.05158291
166	0x3e37d71d	0.17953153
167	0x3dde6af8	0.108602464
168	0x3e1acac9	0.15116419
169	0xbdb1d4dc	-0.08683178
170	0x3e0be624	0.1366201
171	0x3d37a361	0.044833545
172	0xbe237d18	-0.15965688
173	0xbda821de	-0.08209585
174	0xbe05e7e3	-0.13076739
175	0x3e935984	0.28779233
176	0x3de400ed	0.11132989
177	0xbde37f7b	-0.11108299
178	0xbd848354	-0.06470361
179	0x3d84bd66	0.064814374
180	0xbe6e6963	-0.2328239
181	0x3c398e09	0.011325368
182	0x3e01692f	0.1263778
183	0x3d7acaf4	0.061228707
184	0xbd0b1f11	-0.033965174
185	0x3e2e6e9a	0.17034379
186	0x3de00ece	0.10940324
187	0xbe5e536f	-0.21711515
188	0x3e27d785	0.16390808
189	0xbe42765d	-0.18990465
190	0x3dec935f	0.11551546
191	0x3e693fdf	0.22778271
192	0x3d224cc3	0.039623987
193	0xbd8f7954	-0.070055634
194	0xbdb607f3	-0.08888235
195	0xbdf6a175	-0.12042514
196	0xbce1ee4c	-0.02757945
197	0xbe010f77	-0.12603556
198	0x3e764b1b	0.24052088
199	0xbde72708	-0.112867415
200	0x3de6c2b3	0.11267605
201	0xbe7d7d89	-0.24754919
202	0x3de52500	0.11188698
203	0x3e67fb5a	0.22654477
204	0xbe3e738c	-0.18598765
205	0xbdda8be0	-0.1067121
206	0x3dcdffd1	0.10058559
207	0xbe8b6316	-0.27224034
208	0xbe2b35b7	-0.1671971
209	0x3e06a6be	0.13149545
210	0x3e619add	0.22031732
211	0xbda126dd	-0.07868741
212	0xbd1e20c7	-0.038605478
213	0xbe8228d0	-0.25421762
214	0xbe581edd	-0.21105523
215	0x3e5f5f7e	0.21813771
216	0x3e39676b	0.18105857
217	0xbd8c4289	-0.06848628
218	0xbd83746f	-0.06418692
219	0x3b4dd7fa	0.003140925
220	0x3e0436d4	0.1291154
221	0xbe7981d2	-0.24365929
222	0xbdcf0a07	-0.101093344
223	0xbdd02c33	-0.1016468
224	0xbdef8265	-0.11694793
225	0x3d082a19	0.033243272
226	0x3e17cebe	0.1482496
227	0x3dc3e616	0.0956537
228	0xbe8c976a	-0.2745927
229	0x3e700d18	0.23442495
230	0x3e640030	0.22265697
231	0x3de69616	0.11259095
232	0x3dd69496	0.10477559
233	0x3dbcfe12	0.092281476
234	0x3e6c0edf	0.23052548
235	0xbe8ab613	-0.27092037
236	0xbe0b0a33	-0.1357811
237	0xbc3cd692	-0.011525767
238	0xbda249ea	-0.07924254
239	0xbdfbfd7d	-0.123042084
240	0xbe610f96	-0.21978602
241	0xbe622341	-0.22083761
242	0xbd61623a	-0.055025317
243	0x3e37a13b	0.17932598
244	0x3e1f3860	0.15548849
245	0x3d779704	0.060446754
246	0xbe2bea07	-0.16788493
247	0xbdd6ed2a	-0.10494454
248	0x3d12aed6	0.035811268
249	0xbe64f3c3	-0.22358613
250	0xbca51a33	-0.020154094
251	0x3d42dd1a	0.04757414
252	0x3e70dc74	0.23521596
253	0xbd600e14	-0.054700926
254	0x3e77e485	0.24208267
255	0x3d6bb065	0.05754127

gnn_base.gnn.gnn1.lin_value.bias f4 [48]
0	0xbe6eec8a	-0.2333242
1	0x3e2ddc0f	0.16978477
2	0xbe856595	-0.26054063
3	0xbe7a2d88	-0.24431431
4	0xbd110b43	-0.03541113
5	0xbe56222f	-0.20911478
6	0x3b4b1d2e	0.0030992734
7	0x3e4c5e80	0.19957924
8	0xbdbbc739	-0.09168858
9	0xbe36109c	-0.17779773
10	0x3c90f630	0.017695516
11	0xbe3ad4eb	-0.18245284
12	0x3e30793c	0.17233747
13	0xbb72b5dd	-0.0037034668
14	0x3e38dc95	0.18052895
15	0x3def266a	0.11677249
16	0x3d93e047	0.07220512
17	0x3dcd0d7c	0.100123376
18	0x3e5e5e0f	0.21715568
19	0xbe1eaa9a	-0.15494767
20	0xbd76535a	-0.060138084
21	0x3e63983a	0.22226039
22	0x3ddfa871	0.109207995
23	0x3e686450	0.22694516
24	0x3d133235	0.035936553
25	0x3dd1851f	0.10230469
26	0x3e45ebf9	0.19328298
27	0x3e3c5553	0.18391924
28	0x3e0f4415	0.13990815
29	0xbe718fad	-0.23589964
30	0x3cff61fc	0.031174652
31	0xbe243733	-0.16036682
32	0x3c771f09	0.015083083
33	0x3e1c68cf	0.15274356
34	0xbdc9fa6c	-0.09862217
35	0x3e5f9737	0.21835028
36	0x3ea172ef	0.31533
37	0x3dd0d405	0.101966895
38	0xbe26460e	-0.16237661
39	0x3b3ef642	0.002913848
40	0x3e3051fe	0.17218778
41	0x3d683992	0.05669553
42	0x3e8394d9	0.256995
43	0x3d203609	0.039114032
44	0xbde7882a	-0.11305268
45	0x3dfc7fe1	0.123290785
46	0x3d2a236b	0.041537683
47	0x3e185155	0.14874776

gnn_base.gnn.gnn1.lin_edge.weight f4 [48, 1]
0	0xbf1f2b90	-0.62175846
1	0xbf398cc5	-0.7248042
2	0x3f25ebf9	0.6481319
3	0x3eb624e1	0.3557501
4	0x3f549f98	0.8305602
5	0xbf4c6dd8	-0.7985511
6	0xbee3a430	-0.44461203
7	0xbd32ebcb	-0.0436819
8	0xbf0e0d6e	-0.5548924
9	0x3f265342	0.6497079
10	0x3f5850dd	0.8449839
11	0x3f648479	0.8926464
12	0x3e07ad83	0.13249783
13	0xbf717f67	-0.94335026
14	0xbed01568	-0.40641332
15	0x3e838fac	0.2569555
16	0xbe9f456f	-0.3110766
17	0x3eea2d73	0.457378
18	0xbe926f89	-0.2860072
19	0x3f512907	0.8170323
20	0x3f728d47	0.9474682
21	0x3f8154c7	1.0103997
22	0x3eb485fc	0.35258472
23	0xbf2f26a2	-0.68418324
24	0xbe90b845	-0.28265586
25	0xbf050da3	-0.51973933
26	0x3eef15fa	0.46696454
27	0xbd9b1c30	-0.07573736
28	0x3ecb5c11	0.3971868
29	0x3e84a1f9	0.25904825
30	0xbea698aa	-0.32538348
31	0x3e257e8b	0.16161554
32	0xbe3ca6a0	-0.18422937
33	0x3e5288de	0.20560023
34	0xbf2c7b5d	-0.6737574
35	0x3c5c818a	0.013458619
36	0x3f589747	0.8460583
37	0x3f0bf5ae	0.5467175
38	0xbf17abd6	-0.59246576
39	0x3f541c98	0.8285613
40	0xbed0d8ea	-0.40790492
41	0x3f6ab7f4	0.9168694
42	0xbe53c59f	-0.20680855
43	0x3f7b8a6c	0.9825809
44	0x3f1844a5	0.59479743
45	0xbde0ec7a	-0.10982604
46	0x3f24548b	0.641915
47	0x3f600cbf	0.8751945
