onpolicy/results/GraphMPE/navigation_graph/rmappo/crap_bad/run8/models/critic.pt (torch, 199331 bytes, 61 tensors)

gnn_base.gnn.embed_layer.entity_embed.weight f4 [3, 2]
00000000: e92f 8f3f e319 2a3f c8ed 143f 3686 5dbf
00000010: c3bd 6dbf 1792 ddbd
1.1186496 0.6644575 0.58175325 -0.86532915 -0.9286768 -0.1081888

gnn_base.gnn.embed_layer.lin1.0.weight f4 [16, 9]
00000000: 5490 a2bd ce8b 313f d16c adbe 90dd 56bd
00000010: 9358 c33e d0aa e73e ab04 9bbe bdb8 ddbd
00000020: 3600 06be c201 a03e 7e5c 853e 9aba b23e
00000030: ca42 acbe 3da2 05bf a7e4 f33e 6ef8 093e
00000040: b9d8 f9be 3173 52be 3493 563e f096 b1be
00000050: b94a abbe b528 a4be d90b 3a3f d0a5 cabe
00000060: f38f 1cbe 0024 373e 64da 98be 6a25 4cbf
00000070: 78c4 8cbd 6f85 44be d30d 9dbe f30f 193e
00000080: d072 0c3f 36f0 14bd 954e 063e 2960 b1be
00000090: 977a 1cbf f034 5e3e be4d 253e a85d db3e
000000a0: 9ebd dcbe 8e44 c7bc 8ee9 5abe 38a2 173f
000000b0: 5bd2 77be 29ce a4be 5c7e 8a3e 984c 533e
000000c0: 0387 2e3f 28ef c53e 5c1f abbd 59e0 9d3e
000000d0: c572 0abd 396b fb3d a096 9e3d 6371 f7be
000000e0: d4d5 183f 9f10 77bd 027b 453a a3ee dd3e
000000f0: 3d11 b93e 81a8 3e3e 4332 85be 0868 153e
00000100: 1d16 953e 1605 de3e 0a3e ad3c a4e2 0a3e
00000110: dc41 853d 353b 9abe 2650 d23e 8df7 ca3d
00000120: 98fa febd 053b b9bd 9a71 933e c3d9 953e
00000130: 6890 51be a341 fdbe 4b99 4abf bd75 f6be
00000140: 5e06 86be 442d dcbe 6f01 573e 4f3d cb3e
00000150: 9e0b 70bf 1b72 b5bd 7981 bbbe 5a30 083c
00000160: 8d23 1ebd e11f 843e b0de a8bd 0955 a8be
00000170: dcfe 11bf 83ff fdbd 6d72 0dbf b15e 933d
00000180: 7301 e8be 9e0e a53e 40e9 ca3e efcc 0bbf
00000190: e39b 1fbe 21db febd aba5 8fbb 5e50 493e
000001a0: cd50 8f3d 6f77 1e3e b906 36bf 8a46 113f
000001b0: 7edd 253e 4408 85be 41d4 b83e 254e f23d
000001c0: fe2f aa3e d092 223f c5cc 1fbf f940 743d
000001d0: 7175 223f 74be a33e 5d30 113f 9fde e5be
000001e0: e30e 8f3d 323a 93bd 1583 4a3e b171 53be
000001f0: 5327 3fbd df28 a2bd f006 edbc bb23 b2be
00000200: 9e95 a3be 8dad dd3e eb65 bbbe e6fc 5a3e
00000210: cf5e 843e c765 6dbe 9603 16be 3710 18be
00000220: 011f 9ebe 6998 0f3d d638 953d a0f9 4c3e
00000230: eef9 593e 0377 d6be 96ee babe c6f2 32bf
-0.07937685 0.6935395 -0.33872083 -0.052457392 0.38153514 0.45247507 -0.30277 -0.10826252
-0.13086018 0.3125134 0.26047128 0.3490799 -0.33644706 -0.5220068 0.47635385 0.13473675
-0.4879816 -0.20551755 0.20954591 -0.3468547 -0.33455446 -0.32062307 0.7267433 -0.3957963
-0.15289287 0.17884827 -0.2985412 -0.7974459 -0.06873411 -0.19191526 -0.3067461 0.1494749
0.5486269 -0.036361896 0.13115914 -0.34643677 -0.6112456 0.21699882 0.16142938 0.42844892
-0.43113416 -0.024324682 -0.21378157 0.592319 -0.24201338 -0.32188538 0.2704953 0.20634687
0.6817476 0.38659024 -0.08355591 0.30835226 -0.03380086 0.122763105 0.07743573 -0.48328695
0.59701276 -0.060318585 0.0007533283 0.43346128 0.36145964 0.18618967 -0.2601491 0.14590466
0.29118434 0.43363255 0.021147747 0.13563019 0.06506702 -0.30123296 0.41076773 0.09910498
-0.12450141 -0.0904446 0.2879761 0.29267702 -0.20465243 -0.4946414 -0.79140157 -0.48136702
-0.26176733 -0.43003285 0.2099664 0.39695212 -0.93767726 -0.088596545 -0.36622217 0.008312309
-0.038608123 0.25805572 -0.08245599 -0.32877377 -0.5702951 -0.124022506 -0.55252725 0.07195795
-0.45313606 0.32237715 0.3963108 -0.5460958 -0.1558681 -0.12444139 -0.004383763 0.19659564
0.069978334 0.15475248 -0.7110401 0.5674826 0.16197774 -0.2598287 0.36099437 0.11831311
0.3323974 0.6350527 -0.6242183 0.059632275 0.6346045 0.31981242 0.5671442 -0.4489641
0.06985261 -0.07188834 0.19776566 -0.20648839 -0.046668362 -0.07917952 -0.028933972 -0.34792885
-0.31950086 0.4329647 -0.36601195 0.21385536 0.25853583 -0.23183356 -0.14649805 -0.14849935
-0.3088303 0.03505746 0.07286231 0.200171 0.21286747 -0.41887674 -0.36510152 -0.6990169

gnn_base.gnn.embed_layer.lin1.0.bias f4 [16]
00000000: 3597 ca3c 5405 d43c 93b8 ef3c a50c 83bc
00000010: db7b 303b 9054 42bd 39e7 263c 526d 5fbc
00000020: b3f6 09bd a8bd 893d 859d 37bd 2035 3cbc
00000030: d50d 01bc e469 97bc fea3 3bba 9d77 1ebc
0.024730304 0.025881447 0.029262817 -0.01599724 0.0026929292 -0.047443926 0.010186964 -0.013636904
-0.033682536 0.06725627 -0.044827957 -0.011487275 -0.007876833 -0.01848311 -0.00071579206 -0.009672073

gnn_base.gnn.embed_layer.lin1.2.weight f4 [16]
00000000: 4585 763f 71e7 773f 67fd 7c3f 632c 823f
00000010: 7ab1 823f 772c 7e3f a370 803f 9670 803f
00000020: 8f2c 7e3f f873 853f 1a22 823f aca6 753f
00000030: 0fe5 803f 4a48 813f 2627 813f f9d0 7f3f
0.96297103 0.96837527 0.9882416 1.0169796 1.0210412 0.992866 1.0034374 1.0034359
0.9928674 1.0426016 1.0166657 0.95957446 1.0069903 1.0100186 1.0090072 0.9992824

gnn_base.gnn.embed_layer.lin1.2.bias f4 [16]
00000000: 2515 143d 3f3d 003d 2ad3 313c 8116 d0bc
00000010: 48cd 84bc 629c 63bd 306c e73a 3d5f e3bc
00000020: 83ce 0bbd d4ea 433d 7a16 5dbd af5b 4cbc
00000030: 6ee3 a7bc cfcc f2bc 4aef 5c3a d08d a23b
0.036152977 0.03130841 0.010853568 -0.025401356 -0.016211167 -0.05556906 0.0017656144 -0.027755374
-0.03413249 0.04783137 -0.053976513 -0.012473031 -0.02049419 -0.029638676 0.0008427991 0.004960753

gnn_base.gnn.embed_layer.lin_h.0.weight f4 [16, 16]
00000000: 267d f63c d475 dc3e dd2c 9fbc 0220 bcbe
00000010: 9094 5f3e cdc1 7bbe be38 1a3e d4b8 8e3e
00000020: 84d7 13bf 1077 f13e ca26 01bf 95c5 2a3e
00000030: 22bb 5cbe a128 8cbe c0cd 0fbf 44db e13e
00000040: ba61 1dbe 5cfa 4c3e 4f8d e7be b321 04be
00000050: ad62 8ebe 422a 00be e454 4b3d 684f 1d3f
00000060: 8df1 f53c aafc b0be 1f59 dcbe 54be 9fbe
00000070: b77c a0be da69 e5be c185 953e bda4 2cbf
00000080: 3721 bf3e 1a97 793e a9bf bf3e c4f4 f43e
00000090: a7fc 7abe 42e9 153f 89ae 383e 80d6 a7bc
000000a0: 666f 883e 69d2 80be b45a 4fbf 0a79 5abe
000000b0: 2533 98bd a4a3 8a3e a41e 81be 1fa4 083e
000000c0: 07cc a23e cf40 453e 24b0 cbbe 024d 6e3e
000000d0: 122e 493e 44c1 9a3e 8ef0 5bbf c6e5 d63e
000000e0: d2d6 57be bd13 dcbe 2099 6f3e dff4 e1bd
000000f0: a324 873e e578 2ebe dddc dabd fe56 e43e
00000100: fb66 4fbe 4341 aa3d 1198 8abe 92dd 98bd
00000110: d431 09be 9e26 bbbe 1084 c6be 7c68 56bf
00000120: b18b 8bbb f065 1dbf ce7d b4be 3be7 cb3e
00000130: 7756 a0bd 838e 9dbd b76c d7be 6e5a 10be
00000140: 62dd 0c3f 12c0 7cbe 8a19 db3e afe7 e6be
00000150: 5614 fb3e 609a b03e c90b 0abe 7e35 683c
00000160: 1944 473d 320b 28be e5b5 6e3e 6045 553d
00000170: e833 cabe d80b 76be 506a e9be 0c77 1abf
00000180: 9331 5c3e 55a7 423f 1c46 823e 3ab6 89be
00000190: 9089 29bc 9677 0f3e 2259 c73e 66b8 a9be
000001a0: 4b0e cd3d bfb0 bebe d606 9a3e dabe f43d
000001b0: 019f 4a3b 465f 14bf fb3d 043f 6ebb a23e
000001c0: 113e ffbd eb52 43bf dc14 f73c 2758 89be
000001d0: e413 003c 80fc f93e bb6f 7f3c c6e2 75be
000001e0: 33b6 26bf a235 34be 0bc2 d3be ea22 39bd
000001f0: e9d5 36bd 6904 87be d904 013f e048 903e
00000200: 6562 7cbf 956e 513e a8a4 c7bc 374d 28be
00000210: ba61 383e 32ad 4a3f 0058 473c aeb2 223e
00000220: ce18 893e d4fa de3b 775f 813d 52ff 9e3e
00000230: 5bd5 053e 3bfe 85bd a36a 8ebe 21ce 63bd
00000240: 6dcb 00be 8d13 813e 674f 3a3f eaa0 ecbe
00000250: 8b89 20bf 666a 40bd e9d6 35bf c6d4 163d
00000260: bc48 22be 1cf3 6a3e 2ebc a9bd 8b10 17be
00000270: a833 a63e a946 a93d ff6c 083e 51f3 4bbe
00000280: edf6 323c e7e1 fc3e fdde 53be ea7f b53c
00000290: a00a 9a3b d136 9a3e 3645 e63b af6c 09be
000002a0: 658b 34bf d5c8 40bd 7e5c 723e 1e89 cf3d
000002b0: 0c5f fdbe 9f33 4d3f 9eec 753e 5806 9cbe
000002c0: 3948 b63d 091e e4bd 41d2 8dbe ab2b 14bf
000002d0: 9257 5ebe 69e0 973d ef6e 9abe e66c 163d
000002e0: 56ea 293f b593 0e3e f9f2 2fbd aa07 a53c
000002f0: fd0b 3fbf c741 933e d987 343e 20e0 093f
00000300: 6854 f8be f539 193e 9e26 db3e 2351 253e
00000310: 4ed4 4a3f d6a3 aebe d886 84be 03c3 f8bd
00000320: 1614 853d 7320 2ebe cecc 1ebe 4a54 2fbf
00000330: bd4f a9be f304 b73d 3094 593e 9859 0b3e
00000340: 52c0 18be 992a 5dbe 053d 033f 9807 bebc
00000350: c1b0 a3bd 8d8d bbbe 96a1 403e ad0e 283f
00000360: f02d bdbd 50ee 3abf dadb 923d c51c 153f
00000370: 3e47 f4bd 3acb a03e 0bbe fc3b a085 7e3e
00000380: 198d 40be 1a77 a6bd 3771 8e3e 612f 403f
00000390: 79b2 cabe aaf9 4a3d 54cc 7bbe ae54 22bd
000003a0: 67c4 0abe ce64 8c3e 65e9 903e f3a1 613e
000003b0: c140 3fbf 747b 0ebf 5154 5dbd 927c 583d
000003c0: f2c8 4ebe 06df e4bd 7ead 14bd 4802 5bbe
000003d0: c805 01bf b8e7 e63c 0e3b b53e 7925 9abd
000003e0: 12df 5fbe 8f25 b4be 1c38 f63e 50fd 4ebf
000003f0: 9ad3 ccbd 74ab 273c d723 1fbf a264 7c3e
0.030088972 0.43058646 -0.019430572 -0.3674317 0.21834016 -0.24585648 0.15060708 0.27875388
-0.57750726 0.4716115 -0.5044981 0.16676934 -0.2155576 -0.27374747 -0.56173325 0.441126
-0.15369311 0.2001738 -0.45224997 -0.1290348 -0.2780966 -0.1251612 0.049641505 0.6144929
0.030022407 -0.34567767 -0.43036744 -0.31199896 -0.3134515 -0.4480732 0.2920361 -0.6743887
0.37330028 0.24374047 0.37450913 0.4784299 -0.24510442 0.5855905 0.1803533 -0.020488024
0.2664749 -0.2516053 -0.80997777 -0.21335235 -0.0743163 0.27077973 -0.2521869 0.13343857
0.31796286 0.19263004 -0.39782822 0.23271564 0.1964648 0.30225575 -0.8591393 0.41972178
-0.21078041 -0.4298381 0.23398256 -0.110330336 0.2639514 -0.17038305 -0.106866576 0.4459762
-0.20254128 0.08313229 -0.27069142 -0.07464136 -0.13397914 -0.365529 -0.3877263 -0.8375318
-0.004258596 -0.6148367 -0.3525223 0.39824852 -0.07828992 -0.076931976 -0.4207513 -0.14096996
0.55025303 -0.24682644 0.42792922 -0.45098636 0.49038953 0.3449278 -0.13481058 0.01417291
0.048648927 -0.1641052 0.23311575 0.052068114 -0.39492726 -0.24027956 -0.45588923 -0.603379
0.21503286 0.7603658 0.25444114 -0.2689684 -0.010347739 0.14010462 0.3893519 -0.33148497
0.10012492 -0.37244222 0.3008334 0.119504645 0.0030917528 -0.57957876 0.51657075 0.31783623
-0.1246301 -0.762984 0.030161314 -0.26825067 0.007817242 0.48825455 0.015590603 -0.24012288
-0.65121764 -0.17598584 -0.4135898 -0.045199312 -0.044637594 -0.26370552 0.5039802 0.281806
-0.9858764 0.2045234 -0.024370506 -0.16435705 0.1800603 0.79170525 0.012166977 0.15888473
0.26776737 0.0068048034 0.063170366 0.3105417 0.1306967 -0.06542631 -0.27815732 -0.0556165
-0.12577601 0.2521023 0.7277741 -0.46216518 -0.62709874 -0.04697647 -0.7103105 0.03682401
-0.15848058 0.22944301 -0.082878456 -0.14752404 0.32461286 0.082654305 0.13322829 -0.19917037
0.0109231295 0.493911 -0.20690532 0.02215572 0.0047009736 0.30119947 0.0070272936 -0.13420366
-0.705252 -0.04706653 0.23668095 0.10133575 -0.49486578 0.8015689 0.24016044 -0.3047359
0.08900494 -0.11138541 -0.27699474 -0.5787913 -0.21713093 0.0741585 -0.3016276 0.036724947
0.66373193 0.13923533 -0.042956326 0.020145256 -0.7462767 0.28761122 0.17629947 0.5385761
-0.48501897 0.14963515 0.428029 0.16144232 0.792302 -0.34109372 -0.25884128 -0.121465705
0.06497972 -0.17004566 -0.15507814 -0.6848799 -0.33068648 0.08936491 0.21247935 0.13608396
-0.14917114 -0.21598281 0.51264983 -0.02319698 -0.079926975 -0.36631432 0.1881164 0.65647393
-0.092372775 -0.73019886 0.071708396 0.58247024 -0.11927651 0.3140505 0.0077130846 0.24855661
-0.18803824 -0.081281856 0.2782075 0.75072294 -0.3958929 0.049554504 -0.24589664 -0.039631538
-0.13551484 0.27420658 0.28303066 0.22034435 -0.7470818 -0.55657125 -0.05403549 0.052853175
-0.20193842 -0.11175351 -0.036298268 -0.21387589 -0.50399446 0.028186664 0.35396618 -0.075266786
-0.21862438 -0.35184905 0.48089683 -0.80855274 -0.10001297 0.010233749 -0.6216406 0.24647763

gnn_base.gnn.embed_layer.lin_h.0.bias f4 [16]
00000000: 0000 0000 0000 0000 0000 0000 0000 0000
00000010: 0000 0000 0000 0000 0000 0000 0000 0000
00000020: 0000 0000 0000 0000 0000 0000 0000 0000
00000030: 0000 0000 0000 0000 0000 0000 0000 0000
0.0 0.0 0.0 0.0 0.0 0.0 0.0 0.0
0.0 0.0 0.0 0.0 0.0 0.0 0.0 0.0

gnn_base.gnn.embed_layer.lin_h.2.weight f4 [16]
00000000: 4585 763f 71e7 773f 67fd 7c3f 632c 823f
00000010: 7ab1 823f 772c 7e3f a370 803f 9670 803f
00000020: 8f2c 7e3f f873 853f 1a22 823f aca6 753f
00000030: 0fe5 803f 4a48 813f 2627 813f f9d0 7f3f
0.96297103 0.96837527 0.9882416 1.0169796 1.0210412 0.992866 1.0034374 1.0034359
0.9928674 1.0426016 1.0166657 0.95957446 1.0069903 1.0100186 1.0090072 0.9992824

gnn_base.gnn.embed_layer.lin_h.2.bias f4 [16]
00000000: 2515 143d 3f3d 003d 2ad3 313c 8116 d0bc
00000010: 48cd 84bc 629c 63bd 306c e73a 3d5f e3bc
00000020: 83ce 0bbd d4ea 433d 7a16 5dbd af5b 4cbc
00000030: 6ee3 a7bc cfcc f2bc 4aef 5c3a d08d a23b
0.036152977 0.03130841 0.010853568 -0.025401356 -0.016211167 -0.05556906 0.0017656144 -0.027755374
-0.03413249 0.04783137 -0.053976513 -0.012473031 -0.02049419 -0.029638676 0.0008427991 0.004960753

gnn_base.gnn.embed_layer.lin2.0.0.weight f4 [16, 16]
00000000: 4e62 4abd 8d34 dd3e f04d 31bd b1d0 dabe
00000010: c562 1b3e 726e 50be 348b 4d3e 2a9f 823e
00000020: b8c2 1bbf f0ce 073f ba46 10bf 9365 5d3e
00000030: 97b3 4abe 736b b0be 086f 18bf 9cf9 b93e
00000040: 8426 18be c212 3e3e 1889 e3be 40ae 00be
00000050: ca9e 88be 1f98 f7bd 5fe1 bc3c f75b 153f
00000060: f972 b73c 9c65 b4be a028 d4be 246e 9abe
00000070: 7558 a6be 1da6 e3be ceea 9b3e eee4 2abf
00000080: 5221 a43e 8698 783e 5e1a bb3e 6076 ed3e
00000090: 5e9c 8dbe 8fe5 1a3f 6d4d 6a3e 3e5c a7bc
000000a0: 22fa 783e 2255 82be 979b 52bf 622a 4bbe
000000b0: 6a54 8fbd 9bf1 7c3e 0fc7 81be 0821 e53d
000000c0: 398d c43e 3676 503e b29e c0be 4a51 823e
000000d0: 4083 6a3e 24d2 903e 3eaa 55bf ea56 dd3e
000000e0: ffe0 6cbe 79e6 e5be 2edf 533e c776 1abe
000000f0: 50c9 7f3e 5296 0bbe 1234 a0bd d7d7 f23e
00000100: 4ca0 5cbe 2c71 bf3d ea54 88be 22ef 88bd
00000110: aaab 08be e3bc aebe 55a1 c0be 0870 55bf
00000120: be35 83bc baf1 1bbf 6f8b c1be e69e ce3e
00000130: 3ab1 a8bd 6476 cebd 3962 ddbe 8fca 0dbe
00000140: 6031 103f 8005 81be 6cc5 cf3e 6f21 e7be
00000150: 689f fe3e 15b7 ac3e cdb9 1ebe 96ef 3c3c
00000160: f7cb 763d 70f5 3fbe aab1 823e 9e69 c33c
00000170: 26ea c8be 96f5 53be 41d9 dfbe 3de6 1abf
00000180: a576 523e a77e 463f 754d 6f3e 1c5c 91be
00000190: c6ca 54bc f852 323e 0f91 b73e 71a8 afbe
000001a0: 13d7 bb3d 6ef5 cdbe f6a5 9d3e 03d7 0e3e
000001b0: 65eb ea3b ab6a 16bf a517 083f 51b0 9d3e
000001c0: f7f4 13be 6962 3abf cc28 2b3d 8c83 88be
000001d0: c9bd 30bb f63f f73e fca7 2b3d 2519 87be
000001e0: 9a4c 2abf 777a 1bbe 2ba4 d8be a482 02bd
000001f0: 4ce8 91bd e299 8bbe 3e9c 033f dbf3 8c3e
00000200: a770 6bbf 1367 5f3e 42fd 8f3c 5787 e2bd
00000210: 96ad 753e 52b6 4c3f 07d4 bd3c 0ee7 2b3e
00000220: 4dc4 743e c551 40bd 74b2 e33c cdb9 863e
00000230: 3e33 c63d 756c 553c 9716 86be c823 d23b
00000240: 555c 35be 9430 7e3e 7bff 353f 9bed f7be
00000250: 1fb1 27bf cb58 5cbd 9721 3bbf 461f 0e3d
00000260: dc65 11be 4da2 7e3e 3937 6cbd b54e debd
00000270: 7667 ab3e 7187 093d 8bea f23d fde5 6abe
00000280: f926 273b c472 f63e ad02 58be 693e 0f3d
00000290: fee3 ccbb cf2f 9e3e 40e8 bb3c 4003 0dbe
000002a0: baec 35bf 8213 30bd 5376 6f3e 4935 d43d
000002b0: ff79 f8be ecc1 473f fb2a 733e 9719 9fbe
000002c0: ff31 ac3d ade0 a7bd d3c4 96be 98ee 13bf
000002d0: 6af0 5abe a357 b13d 902d 99be fce2 c83c
000002e0: eef2 223f f3b7 023e de5d 34bd 79dc fe3c
000002f0: 5659 44bf 37b1 993e 3e45 453e bf45 083f
00000300: 89dd f9be 72bb 093e 49e5 e73e 4e61 f53d
00000310: bf4d 433f 0281 bcbe 3b65 7abe 6c57 e9bd
00000320: 6daa d53d a645 16be 4a52 2ebe e349 39bf
00000330: fc6f 9bbe 1f71 9f3d b6eb 463e 4c99 113e
00000340: e72a afbd f300 59be 5586 083f 1574 653b
00000350: 4f07 bcbc 1182 b8be 7946 243e 8d37 2f3f
00000360: 95bd 8fbd b12f 37bf 080e 1f3d 0c87 093f
00000370: 6a62 12be e5e3 bf3e 2fd2 abbb b95c a03e
00000380: a4f5 48be 58f4 9bbd c455 993e e0dd 3e3f
00000390: 92bf c7be 4eb8 ea3c 64c4 95be 1203 0dbd
000003a0: 80ef dfbd a254 873e 45f0 a33e a4a8 633e
000003b0: ab78 41bf 6708 0ebf abed 12bd 4f67 343d
000003c0: 7f2e 38be fa8f c2bd aa31 e8bc b709 4abe
000003d0: f6c6 f1be 1af5 1f3d 933b af3e eb52 cfbd
000003e0: 7432 6fbe 0dc9 bbbe 99ef f03e d429 4abf
000003f0: f2c9 edbd 443c fc3c 835c 19bf eee4 883e
-0.049410157 0.43204156 -0.043287218 -0.42737344 0.15174396 -0.20354632 0.20072633 0.25512058
-0.6084399 0.53050137 -0.5635792 0.21620779 -0.1979507 -0.34456977 -0.5954442 0.3632325
-0.14858443 0.18561843 -0.44440532 -0.12566471 -0.26683646 -0.12089562 0.023056684 0.5834345
0.02239369 -0.35233772 -0.41437244 -0.30162156 -0.32489362 -0.44462672 0.3045258 -0.6675557
0.3205667 0.24276933 0.36543554 0.46379375 -0.2765836 0.6050653 0.22881098 -0.020429727
0.24314168 -0.25455576 -0.8226866 -0.19840387 -0.069985226 0.2470154 -0.25347182 0.11187941
0.38388994 0.20357594 -0.37621075 0.25452644 0.2290163 0.28285325 -0.83462894 0.43230373
-0.23132704 -0.449024 0.20690605 -0.15084372 0.24979138 -0.13631561 -0.078224316 0.47430298
-0.21545523 0.09347758 -0.26627284 -0.06686236 -0.13346735 -0.34128484 -0.37623087 -0.8337407
-0.016016837 -0.6091572 -0.37801692 0.40355605 -0.08236928 -0.10081175 -0.43239 -0.13846801
0.5632534 -0.2519951 0.40580308 -0.45142695 0.49730992 0.3373343 -0.15500565 0.011531731
0.06025311 -0.1874597 0.25526172 0.023854073 -0.3924114 -0.20699152 -0.4372044 -0.60507566
0.20553072 0.77537006 0.23369391 -0.28390586 -0.012987798 0.17414463 0.35852858 -0.34308198
0.091718815 -0.4022631 0.3079068 0.13949208 0.0071691745 -0.5875651 0.5316108 0.3079858
-0.14448915 -0.7280641 0.041786954 -0.26662862 -0.002696859 0.48290986 0.04190825 -0.2638637
-0.66523135 -0.15183435 -0.4231275 -0.03186287 -0.07124385 -0.2726584 0.5141028 0.27529797
-0.9196877 0.21816663 0.017576817 -0.1106097 0.23991999 0.799657 0.023172392 0.16787359
0.23903008 -0.04695298 0.027795054 0.2631363 0.096777424 0.013026346 -0.2618911 0.006412957
-0.17711003 0.24823219 0.7109296 -0.48423466 -0.6550464 -0.053795617 -0.7309813 0.034697793
-0.14199013 0.248666 -0.057669852 -0.10854856 0.33477372 0.033576433 0.11861142 -0.22939296
0.0025505407 0.48134434 -0.2109477 0.03497163 -0.0062527647 0.3089585 0.022937894 -0.13770771
-0.7106434 -0.042987354 0.23384981 0.10361726 -0.48530576 0.78030276 0.23746864 -0.3107421
0.084079735 -0.081971504 -0.2944704 -0.5778594 -0.21380773 0.086592935 -0.29917574 0.024522297
0.6365193 0.12765484 -0.04403483 0.031110989 -0.76698816 0.30018017 0.19264695 0.53231424
-0.4880183 0.13450411 0.45292118 0.1198145 0.76290506 -0.36817175 -0.24452679 -0.113936275
0.10432897 -0.14675006 -0.17023578 -0.7237837 -0.30358875 0.07785248 0.19425854 0.14218634
-0.08553105 -0.21191768 0.53329974 0.0035011817 -0.022952704 -0.36036733 0.16042508 0.6844414
-0.07018582 -0.71557146 0.03883174 0.5372169 -0.14295354 0.37478557 -0.0052435617 0.31320742
-0.19624954 -0.07614964 0.29948246 0.74557304 -0.39013344 0.028652336 -0.29251397 -0.034426756
-0.10934353 0.26431757 0.3201925 0.222323 -0.7557475 -0.5548157 -0.03587119 0.044043835
-0.17986487 -0.095001176 -0.028343994 -0.19730268 -0.47222108 0.039052106 0.3422514 -0.10123237
-0.2335909 -0.36676827 0.47057799 -0.78970075 -0.11610784 0.030790456 -0.59906787 0.2673716

gnn_base.gnn.embed_layer.lin2.0.0.bias f4 [16]
00000000: 892e a33d bae2 f9bb fe68 813c a9f2 bebc
00000010: 66fe 44bb 3f4e caba 55fe 003c a7d4 b93a
00000020: 3869 6abd 3f33 b53c d66f c63b 168d 9d3a
00000030: 2c81 a83b 2b3d 3dbd 2084 fb3b 46c7 a1bc
0.0796786 -0.007625905 0.015797134 -0.023309069 -0.003005886 -0.0015434696 0.0078731375 0.0014177755
-0.05722925 0.022119163 0.0060558124 0.0012020196 0.0051423516 -0.046200912 0.0076756626 -0.019748341

gnn_base.gnn.embed_layer.lin2.0.2.weight f4 [16]
00000000: 30a9 833f 8411 823f 00d4 743f b3b7 823f
00000010: 3d0d 7f3f da41 7f3f fc6b 813f e194 803f
00000020: f523 763f 29a0 833f c9f8 7b3f 3c0a 7e3f
00000030: 9ba1 7a3f 3afe 843f b1a1 823f 83f0 813f
1.0286007 1.0161595 0.95635986 1.021231 0.99629575 0.99709857 1.0111079 1.0045434
0.96148616 1.0283252 0.9842649 0.99234366 0.9790284 1.0390084 1.0205594 1.0151523

gnn_base.gnn.embed_layer.lin2.0.2.bias f4 [16]
00000000: dfe1 553d 2a60 a13b 30c9 283d 693e 0ebd
00000010: bc06 19bb d208 a7ba d092 3c3c 4ba2 f03a
00000020: d077 3cbd 90bb 223d cc23 7c3c 6829 223c
00000030: ff7b c13c 445b 24bd efa8 a13c 9b6e 46bc
0.05221736 0.0049247937 0.041207492 -0.034727488 -0.0023349961 -0.0012743718 0.011509612 0.0018358914
-0.0460127 0.039729655 0.015389394 0.009897567 0.023618696 -0.0401261 0.019733874 -0.012111331

gnn_base.gnn.gnn1.lin_key.weight f4 [48, 16]
00000000: 2132 9b3a fdb4 233e 041d 15be 574e 3fbe
00000010: 1037 2bbd e464 70be 0fb6 28be 41aa 8d3d
00000020: 0728 4abe b74a 6bbe b654 6e3d 70ba 39be
00000030: 4f66 08be 9077 653e ef70 2fbd 24b8 98bd
00000040: 20d3 a1bd 363d 263c 82bb 9a3d 5290 373d
00000050: a4e6 82be b344 8f3e b391 c93c ca75 223e
00000060: 01e0 79be 2db0 923d ef27 6bbe 283b 4e3e
00000070: af68 efbc c933 fcbd 9c78 91be 2cbf 17be
00000080: ffc3 b4bc 0582 1e3e fbf3 0b3e 157c 86bc
00000090: dcf2 35bd d8df 9fbe d15e 343e e285 663e
000000a0: e5e5 4c3e 31d0 aabd e496 e93d 7694 ae3d
000000b0: 6da7 263c 4391 25be 412f b73d 2c51 a03d
000000c0: d380 1ebe 45c9 693d c615 9dbe f9f7 ce3d
000000d0: 89c3 7a3e fa84 96bd 15f2 903e 02c3 a53d
000000e0: ec53 343e af92 0ebe 8832 b33d 5df6 edbd
000000f0: cc1b bfbc ddb1 1fbe ae52 b53d a552 b4bc
00000100: 38a6 bebd 9683 07bd a2a0 5bbe 6fce 54bb
00000110: 3fb6 4d3d 9cf7 89be a0cf cf3d 453c 7fbe
00000120: c738 5fbe 6879 293e 7be5 59bd b913 ca3d
00000130: 3a47 e33c b0d5 5abe 39be 1cbd e3ec 213e
00000140: b68b 5b3e 2479 98bd 6f50 493c 5666 6fbe
00000150: 2861 36be d1bd 0e3e b6e3 723e e73a 3cbe
00000160: 8528 a93d 687d bc3d 9d53 123d 0e75 6a3d
00000170: 5592 1fbe 6edc 4abe 4ff5 e4bd 0332 4d3e
00000180: 17d5 acbc 74a9 353e 934e f6bd efe6 2ebd
00000190: 5398 4bbe 96a8 c03d 5150 583c ce9b e5bb
000001a0: 0b3c 5fbc f20e 90bd 29c9 343e e7e6 02be
000001b0: 0ab9 c03d 28e8 0b3e 3a0e 2ebe dd48 493e
000001c0: 19a9 2b3e eeff 9d3d 73ea ccbd 40a8 f7bd
000001d0: b4f3 4dbe 4577 07be f2e5 1f3d 1303 e5bd
000001e0: 551c f83d 0f4c ccbd 44c9 f8bd 40e7 2bbe
000001f0: 2fc6 2bbe 5fb2 71be 76b2 5a3e 97af c33d
00000200: fd63 c5bd 8862 3dbe 43e8 323e e799 c1bd
00000210: 5037 563e 3253 70be 8fed 58bd 04c2 f13d
00000220: b548 2e3e 5de9 53be b714 e93d 3a0a 2cbd
00000230: c529 c03d 3d37 eb3d 80e9 6fbe 0c71 7a3e
00000240: b57e 1abc e26e ba3d 65ac b1bd e0d7 863e
00000250: 7b01 17bd 2025 863e 9950 c43d 4990 3dbe
00000260: 0f83 6c3e 609b d73d 2334 f73d 416d e6bd
00000270: f4a3 ca3d ced1 ec3d 96f4 84be 7aa8 c33d
00000280: 362d 9bbd a3b8 af3d 8d70 ffbd ed4b de3c
00000290: a4a8 f0bd 4b80 9dbe 0949 67be 02c7 1abd
000002a0: 66ef 093e 0405 be3d bc0e da3b 2ae5 76be
000002b0: 3612 6fbe e537 033e 85ce 55bd 1ca5 1cbc
000002c0: 12b8 d3bc 44b4 6cbd 2983 bbbd db15 d43d
000002d0: 82be 5bbe 0af6 32be 594b 1c3e b9f9 30be
000002e0: d48c 29bd ac27 51be c7ba 903d 8a3b 91bc
000002f0: a773 e23d df11 3dbe e704 f8bd bcbc 1fbd
00000300: a4b0 03be 9c18 b53a ad12 813d c873 d4bd
00000310: 4029 72bd fcf8 0ebe b3b2 87bd ac8e 50be
00000320: cc82 ac3d 0149 563e 218c 3b3e 5d42 213e
00000330: 4f82 22be 5f4c 803e fa9d 8dbe c69d e8bd
00000340: 5fcb 90bc f446 053e 6484 6f3e 31ca f43d
00000350: 99ad 353e 794b 30be e97d 1dbe 98c0 cbbd
00000360: b6a7 adbd 7f8c 253e d79b 5bbe e5f7 f6bd
00000370: c343 d33b 440a 713e 78cd 71bd ae16 593e
00000380: cd6d 07be 4d85 433e 3eb9 66be fe7f 993c
00000390: bd08 653e 46ba f33b 3f43 673e 4eba 9f3c
000003a0: 39d8 1dbe 2995 febd b554 c4bd 8d52 6bbe
000003b0: b137 07be 92a3 9bbd 3706 70be d869 013d
000003c0: 5e84 8cbd 40f4 f13d 2d01 793e 66dc c03d
000003d0: 3b3f 08bb ce19 64bb 7f4a 04be 8d58 1ebd
000003e0: 78b5 4ebd 5a5f 50bc 1586 723d 187a 4fbe
000003f0: a063 edbc 9dfc 40be c4b6 13bd 58eb 2bbe
0.0011840501 0.1598701 -0.1456185 -0.18682228 -0.04180056 -0.23475987 -0.164757 0.06917239
-0.19741832 -0.2297772 0.058186255 -0.18137527 -0.13320278 0.2240889 -0.04283231 -0.07456997
-0.07901597 0.01014643 0.075552955 0.04481537 -0.2556659 0.279821 0.024605608 0.15865245
-0.24401857 0.07162509 -0.22964452 0.20139754 -0.029224722 -0.12314565 -0.2841233 -0.1481902
-0.022066114 0.15479286 0.1366729 -0.016416589 -0.044421062 -0.31225467 0.17614295 0.2251201
0.20009573 -0.083404906 0.11405733 0.085244104 0.010171753 -0.16168694 0.0894456 0.07827982
-0.1547883 0.05707671 -0.30680674 0.10105891 0.24488653 -0.07349582 0.28309694 0.080938354
0.17610139 -0.13923143 0.087498724 -0.11619256 -0.023328684 -0.15595193 0.088536605 -0.022012064
-0.093090475 -0.033084475 -0.21447995 -0.0032471677 0.05022263 -0.26946723 0.10147023 -0.24925335
-0.21799003 0.16550219 -0.053197365 0.09867043 0.027743924 -0.21370578 -0.038267348 0.15813021
0.21440014 -0.07444981 0.012287243 -0.23378882 -0.178105 0.13939597 0.23719677 -0.18381844
0.082596816 0.09203607 0.03572427 0.05724054 -0.15583165 -0.1981065 -0.111796014 0.20038609
-0.021097703 0.17740422 -0.120267056 -0.042700704 -0.19882326 0.09407155 0.013202743 -0.0070070988
-0.013625155 -0.070341006 0.17654862 -0.12783395 0.094102934 0.1366278 -0.16997615 0.19656701
0.16763724 0.0771483 -0.10005655 -0.12092638 -0.20112497 -0.13229091 0.039037652 -0.11182227
0.12114779 -0.099754445 -0.12147763 -0.16787434 -0.1677482 -0.236032 0.2135714 0.095549755
-0.09638212 -0.18494618 0.17471413 -0.09453183 0.20919538 -0.23469236 -0.05296093 0.11804584
0.17019923 -0.2069449 0.11380904 -0.04200194 0.09382967 0.11485145 -0.23428917 0.24457186
-0.009429623 0.091031805 -0.0867546 0.26336575 -0.036866646 0.262002 0.09585685 -0.18512072
0.2309687 0.10527682 0.12070491 -0.11251307 0.09894553 0.115634546 -0.25967854 0.09553619
-0.07576983 0.085801385 -0.12472639 0.027135814 -0.11750916 -0.30761942 -0.22586454 -0.037787445
0.1347023 0.092783004 0.0066545885 -0.24110857 -0.2334679 0.12814291 -0.052198905 -0.0095608495
-0.025844608 -0.057789102 -0.09155876 0.10355731 -0.21459392 -0.17476669 0.15263118 -0.17282762
-0.04139407 -0.2042529 0.07066875 -0.017728586 0.11057215 -0.18463849 -0.1211031 -0.03899835
-0.12860352 0.0013816538 0.0630239 -0.10373646 -0.05912137 -0.13962168 -0.06625881 -0.20366925
0.08423385 0.20926286 0.18315174 0.15747972 -0.15870021 0.25058267 -0.2765959 -0.11358218
-0.0176751 0.13015348 0.23390347 0.119526275 0.17742004 -0.1721629 -0.15380062 -0.09948844
-0.08479254 0.16166876 -0.21446167 -0.12059001 0.006447287 0.23539072 -0.05903384 0.21200058
-0.1322548 0.19093819 -0.22531602 0.01873779 0.22366615 0.007437977 0.22584246 0.019498017
-0.15414514 -0.12430794 -0.09586469 -0.2298071 -0.13204838 -0.07599558 -0.23439871 0.03159508
-0.068611845 0.11814165 0.24316855 0.09417038 -0.0020789641 -0.003480542 -0.12919043 -0.038658667
-0.05046603 -0.012718046 0.0592099 -0.20261419 -0.028978169 -0.18846364 -0.03606297 -0.16788995

gnn_base.gnn.gnn1.lin_key.bias f4 [48]
00000000: be15 273e 048c a13d d8db 373d 344d f2bd
00000010: c4d6 9fbd 1075 d93c b8dd 01bd 5665 1d3e
00000020: dc42 073e c03e 733e 648c b03d 50a2 24be
00000030: a0d4 5f3e 4e46 973c 54ba 68be 3410 313e
00000040: a80c 23be 0890 2a3e 9050 193d 7ad1 29be
00000050: e0dc 263e b8a0 21bd e63c 3fbe b285 1e3e
00000060: f80c 1bbe bf36 923d 5060 0b3e 25c6 ce3d
00000070: 99de 8c3d e034 f23d 0422 49be c889 f9bd
00000080: 2a55 023e c2d5 3f3e 5fda 3e3d 978c f93c
00000090: dcd6 4abe 7044 47bd acf6 00be 3abf 793e
000000a0: d883 7d3e 0247 3b3d bc14 4c3e 3f83 9f3c
000000b0: 9c2d 93bd fa0c 39be a896 583e 0c50 923d
0.16316888 0.07888034 0.044887394 -0.118311316 -0.07804635 0.026545078 -0.031705588 0.15370688
0.13209099 0.23754406 0.086205274 -0.16077542 0.21858454 0.018466141 -0.22727329 0.17291337
-0.15922797 0.16656506 0.037430346 -0.16583815 0.16295195 -0.039459914 -0.18675575 0.15480688
-0.15141666 0.07139348 0.13610959 0.10096387 0.06878395 0.11826491 -0.19641882 -0.12184483
0.127278 0.18733886 0.046594974 0.030462546 -0.19808525 -0.04864925 -0.12594098 0.24389353
0.24757326 0.045722015 0.19929785 0.019471763 -0.07186434 -0.18071356 0.21151221 0.07144174

gnn_base.gnn.gnn1.lin_query.weight f4 [48, 16]
00000000: ce6d 8dbd c57f 37be 8d92 483e d454 173e
00000010: 109a 06be 47f9 7e3e a458 66be e8c8 5ebd
00000020: af21 bf3b 8623 413e 155a 743d e22d 3e3e
00000030: cccf 0abe 2353 1d3e b5ef 383e 8d4b 34be
00000040: e992 c2bd c561 343e d612 e83d 2b71 0d3d
00000050: 8c9b a0bd e2e7 90bd 5c23 633e c908 2cbd
00000060: bf3b 763c 6ca5 5fbe 8eca 4abe 6951 37be
00000070: 0d94 953e 19cb 26bc 87a3 49be 2231 703d
00000080: f391 5a3e 2691 b63c b582 c03d 0fc6 873d
00000090: 4512 4a3e 4059 de3d 3ff3 5ebe 7559 08bd
000000a0: 6ffe 453e 05f4 72be ef2a 97bd e40e 5ebe
000000b0: 9b79 54be 2a83 f83d de48 693e e5d7 713e
000000c0: 1d35 aebd 23ba 383e e0bb 45be 666a 6cbe
000000d0: 6b03 483e bb9f ec3d 5700 563c acee 65be
000000e0: 6192 503b cdcd 673e 50b7 dcbd f8b4 2d3e
000000f0: f169 f6bd a431 5abe 657e 743e e6a3 67be
00000100: a684 e4bd 880f 9cbc edbf 483e 5125 51bc
00000110: b6d3 8cbd b93c 223e 3693 3cbd 8cfb 4a3e
00000120: c938 613e c244 c43d a120 9c3c b7fd 453e
00000130: c73e 75be ecc2 81be 54da 803d af3d 1bbe
00000140: 5d4a 57be 2cb0 aabd ddc7 28be 66e2 123d
00000150: 4f32 1bbe b43e 0f3c cb0f ef3d 53df 19be
00000160: 6a74 483e b3dc b2bd 59a6 303e 3d01 05be
00000170: 71fa 2dbe 0999 df3d 76d9 833e 480f d5bd
00000180: 8bc5 85be 2417 c3bd 8ea8 363e 2080 30be
00000190: 230d a1bd 8cf5 54be 1990 06bd 72d6 1e3e
000001a0: 5658 b2bc 9585 5cbd 2627 fdbc f457 7d3e
000001b0: dea4 b13d 256f ad3d 6dfa a23b 936f 943b
000001c0: fae7 463e 5bbd 153e 33cb 763d dfeb 023e
000001d0: 0289 52be 42b2 46be 2cf2 7abc 5b0f 743d
000001e0: 4b2d 3f3d 5b37 063e bec3 623e 68e7 61be
000001f0: 4575 81be 72dc 5e3b ed54 0bbe b8c1 c13d
00000200: 85c6 083d a940 bc3c 5931 643d 80ab 0e3d
00000210: bf74 69be 3274 003e 87f7 853d a059 633e
00000220: 97e4 223d ddfb d13b 3bfe 613c 1036 e6bc
00000230: 4472 fc3d c999 9c3d 4f2e 543e d62a 03be
00000240: 71e0 26be e8a0 783e 5707 1b3e a92e d83c
00000250: 28b3 493e 5166 cbbb 186c cc3d 8a1f 3a3d
00000260: 761b f4bb 9be6 f83d cc09 10be 5ebb 89bd
00000270: 155c 5d3e dffa 3e3e dc3f b43d 180e 0b3e
00000280: 01a8 093e 3315 663c 60e5 803e 1bc4 593d
00000290: e2fc acbd e022 193e 8c66 e73d f700 43be
000002a0: 8c68 6cbc 3b0f 0b3d 279f 143e f4cb 3fbe
000002b0: e629 2cbe 4935 28be 8bc8 1e3e 7b1f 733d
000002c0: acb3 78be 1a4b 2cbe 129f 683e afc3 063e
000002d0: c2b8 3e3e 6c50 76be 383d f3bd b1be 153d
000002e0: 455c d13d ac82 3e3e 1ea4 64be 4dbf 1a3e
000002f0: 35f7 833d fcc5 923e 6a90 61be 029f 89bc
00000300: 2b35 6cbe 65be d2bd 3a85 dd3d 8166 203e
00000310: 00d4 62be e0b1 7b3c d7fb 593e 7813 5dbd
00000320: 1e80 bbbc 9ec4 9e3d a012 5fbc a38a 32bc
00000330: f39f 4d3e 6ab6 07be c397 51be 63ef 663e
00000340: 87a2 dabd f0de a2bd ca4a 8cbd 6417 233e
00000350: e2c1 f139 2180 183e 6c0f 20be 3ea5 a0bd
00000360: 0cd6 40be cc33 023e 1098 6cbe d32a 6abe
00000370: b4d4 2c3e 4683 c7bd 1b38 443e e9f8 49be
00000380: 6619 bebc 2829 db3d b264 293e ee30 e1bd
00000390: 11f5 99bd ae34 e33d d0bc 1ebe 7b55 30be
000003a0: f122 043e 08f6 543d a4a7 66be 30a6 a53c
000003b0: 1230 013e dace 45be 52a7 e4bd 2d24 67be
000003c0: e3ff 81be 59d8 d2bd c510 673e 8f26 13bc
000003d0: cb52 cdbc f605 5b3d d17b 8c3d 88c4 43bc
000003e0: 9437 a43d da72 d9bd 39ce 873e d3f9 253d
000003f0: c2fe 97bd 7d7e 083c 53d5 253e 4e30 31be
-0.06905709 -0.17919834 0.19587155 0.14778453 -0.13144708 0.2489978 -0.22494751 -0.054390818
0.005832873 0.18861207 0.05965622 0.1857219 -0.1355583 0.15363745 0.18060191 -0.17606945
-0.09500677 0.17615421 0.11331718 0.034531754 -0.07842168 -0.07075478 0.22181457 -0.042000566
0.015028893 -0.21840447 -0.19803831 -0.1790215 0.29214516 -0.010180258 -0.19691287 0.058640607
0.21344738 0.022286009 0.093999304 0.066295736 0.19733532 0.10856867 -0.21772479 -0.033288438
0.1933534 -0.23725899 -0.07381236 -0.21685368 -0.20749514 0.121343926 0.22781703 0.23617513
-0.08506224 0.18039756 -0.1930995 -0.23087463 0.19532554 0.11553904 0.013061604 -0.22454327
0.003182553 0.226371 -0.107771516 0.16963565 -0.120319255 -0.21307999 0.2387634 -0.22621116
-0.11158113 -0.019050375 0.19604464 -0.012765245 -0.06876318 0.15843476 -0.04603883 0.1982252
0.21994318 0.09583427 0.019058527 0.19335066 -0.23949729 -0.25344026 0.06291643 -0.15160249
-0.21024461 -0.08334383 -0.16482492 0.03586044 -0.1515591 0.008742977 0.11672934 -0.15026598
0.19575658 -0.08733501 0.17250957 -0.12988754 -0.16990067 0.10917861 0.25751847 -0.10403305
-0.26127276 -0.09525898 0.17837736 -0.17236376 -0.07863834 -0.20796794 -0.032852266 0.15511492
-0.021770637 -0.05383833 -0.030902456 0.24740583 0.08674024 0.08468465 0.0049737007 0.0045299022
0.1942443 0.14623015 0.06025238 0.1278529 -0.20560077 -0.19403937 -0.015316527 0.059584957
0.046674054 0.13107054 0.22144982 -0.2206093 -0.25284782 0.0034005907 -0.13606615 0.09460777
0.033392448 0.022980051 0.055711124 0.034831524 -0.22798441 0.12544325 0.06541353 0.22202158
0.03976878 0.0064081983 0.013793523 -0.02810195 0.12326482 0.0764652 0.2072079 -0.1280931
-0.16296555 0.24280131 0.15139519 0.026389437 0.19697249 -0.0062072654 0.09981555 0.045440234
-0.0074495627 0.121533595 -0.14066237 -0.067251906 0.21617158 0.18650387 0.08801243 0.13579595
0.13442995 0.01404314 0.25175 0.053165536 -0.08446671 0.1495471 0.11298856 -0.19043337
-0.014429223 0.03395007 0.14513837 -0.18730146 -0.16812858 -0.16426577 0.15506189 0.059356194
-0.2428729 -0.16825524 0.2271693 0.13160585 0.18625167 -0.24054116 -0.11876911 0.03655881
0.10222677 0.18604535 -0.2232823 0.15112038 0.064436354 0.28666675 -0.22027746 -0.016799454
-0.23067157 -0.10290221 0.108164266 0.15664102 -0.22151184 0.015362233 0.21287476 -0.053973645
-0.02288824 0.077523455 -0.01361528 -0.010897311 0.20080547 -0.13253179 -0.20468049 0.22552256
-0.10675531 -0.07952678 -0.068502024 0.15926892 0.00046111556 0.14892627 -0.15630883 -0.078440174
-0.18831652 0.12715071 -0.23104882 -0.22867899 0.16878015 -0.09741835 0.19162028 -0.19723858
-0.02320547 0.10701209 0.16542318 -0.10995661 -0.07517446 0.11094032 -0.15501714 -0.17220108
0.12903954 0.051992446 -0.22524887 0.020220846 0.12615994 -0.19317189 -0.11164726 -0.22572394
-0.2539054 -0.10295171 0.22564991 -0.008981361 -0.025063893 0.05347248 0.068595536 -0.011948712
0.08018413 -0.10617609 0.26524523 0.040521454 -0.07421638 0.008330938 0.16194658 -0.17303583

gnn_base.gnn.gnn1.lin_query.bias f4 [48]
00000000: 299d 0e3e 1ca1 55be f494 42be d8fb 10be
00000010: 25a0 123e d3b3 48bd 15bb 343e dd7d 51be
00000020: d965 4e3d d357 edbd a355 d43c 838f 0b3e
00000030: f544 1a3e 1def 82be f8dc 87bd d5f1 bc3d
00000040: 576e 56be 4f7e 5cbe 60f0 7abe eec5 dc3b
00000050: 4492 333d 7592 ecbd 9310 9f3d 8951 543d
00000060: 8d21 a73d 977b 5a3e 9cc2 31be 7d1d 35be
00000070: 5d89 583e 1f83 c3bd 1411 243e a9d1 afbd
00000080: ef85 2bbd 18a6 0ebe 350a 673d dd2a 78bd
00000090: eb03 7f3e 6590 49be e3bc 5fbd d7c0 923b
000000a0: d4f2 f73d 18d4 183e 638a f43d 8dea 4ebe
000000b0: de88 133d 86c1 91bd 6465 2b3e 49df a1bd
0.1392714 -0.2086224 -0.19002134 -0.14158571 0.14318903 -0.04899962 0.17649491 -0.2045817
0.0503901 -0.11589017 0.025919741 0.13628964 0.15065368 -0.25573054 -0.06633943 0.09225813
-0.20940529 -0.21532558 -0.24505758 0.0067374622 0.04384066 -0.11551372 0.07766833 0.05183557
0.08160696 0.21336208 -0.17359394 -0.1768703 0.2114615 -0.09546494 0.1602214 -0.085849114
-0.041875776 -0.13930547 0.05640622 -0.060587753 0.24903838 -0.19683988 -0.054623496 0.0044785547
0.12106863 0.14924657 0.11940458 -0.20206662 0.0360192 -0.0711699 0.16737896 -0.079039164

gnn_base.gnn.gnn1.lin_value.weight f4 [48, 16]
00000000: 531e 1ebd 4737 673d 6e81 2c3e ce7d ebbd
00000010: d747 393e 30b9 32be 4534 81bd d376 23be
00000020: c5d6 503d c119 54be cd82 1bbc 125e 34be
00000030: 4a08 2a3e a7a5 62be a5d0 ddbd 53dd 5ebe
00000040: a9f2 2ebe c075 a53c 6896 bc3d 032a b63d
00000050: 06de 40be 4b0e 8bbd e33f f7bb 3f1e 183e
00000060: 3626 883c a146 63bc a818 16be c630 2dbe
00000070: 8e0c 23bd 46bb a63d 8f0c b7bd 9607 d83c
00000080: fe40 513e 5d56 15be 876a 203e 7a4a 173e
00000090: ceae 2a3e 2990 be3b 7fa2 2fbe 03be fd3d
000000a0: d869 cc3c 76e4 833e 98b4 37be 8ed7 29bc
000000b0: 1307 1a3e ba5e 2fbc 4c60 1b3e d318 353d
000000c0: 2f61 d8bd 68c7 043e 4dd0 533e 5313 0e3e
000000d0: dfcf 34be 0440 24be ef77 693e f592 25bd
000000e0: 8fcc bf3d 522d 963d 2141 2ebe 1c6f 643e
000000f0: 3c3f 6c3d 7a36 e0bd 39fc 653e c95b 873d
00000100: 0823 e03d 98dd 55be 973c 1f3e 019a 1fbe
00000110: 06d1 3bbd 6e48 a1be 46c9 153e 9e59 0abe
00000120: b745 37be 381f 613e c43f 0cbe e209 d3bd
00000130: e048 2cbe cebe 22bd 01b7 d13d 0f9d 473e
00000140: b98f fc3d 136c 15be 0267 63be 6b8b f2bd
00000150: 0962 573e dc9f a1be 2c1e 133e 380f 743a
00000160: 2e14 2bbd eb0f 683e be7e 593e b939 c5bc
00000170: b260 52be 3727 67be b7ac b13a 0e35 24be
00000180: 7bd9 cebd 67ea ff3d b5e4 293c 32ff 503d
00000190: 4616 e7bd 1c7c 4ebd dbac 173e 32fc f439
000001a0: ac7d 043d 1708 59be 762f 1ebe c239 3c3e
000001b0: cf99 fc3c 7ecc 8f3e 2aea ffbd c87f e43d
000001c0: 8200 f03d b32d 5fbe 8a6b 0ebe c0a6 533e
000001d0: 0392 b9bd 0946 66be 28d9 353e 7c82 7a3e
000001e0: 84b9 263e 6b04 183e 44a6 b3bd 4156 593e
000001f0: 0544 e1bd a838 c53d c80f 68be 2867 643e
00000200: f93b 48be 94e2 57be 3a7e c13d 2c79 643e
00000210: b87b 34be 6e6a 653e dd5a 8c3d 0aa1 033e
00000220: 21bf 223d 3b9d 80be c97b 6b3e 88a7 333e
00000230: 4aa3 023e 0fe6 373c dc01 b83d 695d f63b
00000240: 69ba 6c3d 47a1 7bbd 546f 6a3e 94a3 8ebd
00000250: cda9 afbc 1e70 9c3d 205b 533e 3577 edbd
00000260: 73fe aabd c842 50be 71f6 463e 59bb 5f3e
00000270: 2a6b 0b3d b7e5 65be 7790 3cbe 6331 523e
00000280: d641 663d 9655 833d 568d 33be 2b6b 83be
00000290: 8058 eebd 7c60 85be c590 513e f8aa da3d
000002a0: 6b74 39be f5d6 843e e231 76bd 0ed5 f43d
000002b0: ebdb a93c d3b0 493d 0e2b c63b f31d c93c
000002c0: 53d8 2fbe d75f c23d 75ae 303d 0a52 3c3e
000002d0: 526a 44be c4a0 d83d 26c0 943d 3574 413c
000002e0: e9aa 20be 3e13 1fbe 815a 4b3e 5c46 2f3e
000002f0: 171d f43d ef47 5bbe ae7a 32be b1ef 663d
00000300: 38ff 813e 091e 7dbe 3059 793d f42d 73be
00000310: 0009 78be b8e0 3abe 5ccf 06be 6940 1abe
00000320: 54da 14be 4432 c53c 5245 7bbd 381d 1b3e
00000330: 18e1 603d 14cb e5bd c4f7 21be 7037 453e
00000340: 8369 53bc 36d0 9e3d 971a 093e 6285 3bbd
00000350: b587 11be 01f5 923c 6804 1cbe 0bf2 083e
00000360: 1079 a03d 1c1c 17be 9d38 b3bd 3180 623d
00000370: feac 4b3d 5511 383d a41f 0fbe 7725 543d
00000380: 7d00 ddbd 66b3 623d 9d72 da3c e164 733c
00000390: 4c4d edbd f46b 3bbe fc8d 4cbe 495a 503d
000003a0: 2c9c c13d 07c6 9fbd b3a4 2d3e 1f41 a1bd
000003b0: 1887 173e c0ee 743d b5f7 5c3e f983 3e3e
000003c0: 26c2 a4bd e4f4 83bb caae 42be 3eb7 153e
000003d0: e1e5 69bd 3b79 48be f4fe d7bd 1265 69be
000003e0: 234a 96bd b7c6 a2bd 3149 7bbe 7a5a 8b3d
000003f0: 7709 3abe 2d8d 563d e3f3 eebd 48cb ca3c
-0.03860314 0.0564492 0.16846249 -0.11498605 0.18093811 -0.17453456 -0.06308798 -0.15963297
0.05098607 -0.2071295 -0.009491635 -0.1761401 0.16604725 -0.22133504 -0.108308114 -0.21764116
-0.17084755 0.02019775 0.09208375 0.08894732 -0.18834695 -0.067898355 -0.0075454577 0.14855288
0.016619783 -0.01387182 -0.14657843 -0.16913137 -0.039806895 0.08141188 -0.08937942 0.026370805
0.20434949 -0.14583726 0.15665637 0.14774504 0.16668245 0.005815525 -0.17151831 0.123897575
0.024952814 0.2576024 -0.17939985 -0.010366334 0.15041761 -0.010703737 0.15173453 0.044213127
-0.10565411 0.12966692 0.20684929 0.13874559 -0.17657422 -0.16040045 0.22799657 -0.040423352
0.09365188 0.07332863 -0.17017032 0.2230801 0.057677492 -0.109478906 0.22459497 0.066093035
0.10944182 -0.20885313 0.15550457 -0.15586092 -0.045853637 -0.31500572 0.14627561 -0.13510749
-0.17897688 0.21984565 -0.136962 -0.10304619 -0.16824675 -0.039732747 0.10239983 0.19493507
0.123321004 -0.14592008 -0.22207263 -0.11842998 0.21033491 -0.31567276 0.14366978 0.0009310129
-0.04176729 0.22662322 0.21239755 -0.024075376 -0.20544699 -0.22573553 0.0013555501 -0.16035864
-0.10100075 0.124958806 0.010369469 0.051024623 -0.11283545 -0.05041133 0.14812033 0.00046727207
0.032346413 -0.21194492 -0.15447792 0.18381408 0.03083506 0.28085703 -0.12495835 0.11157185
0.11718847 -0.21794777 -0.1390821 0.20669079 -0.09061053 -0.22487654 0.1775862 0.24463838
0.16281706 0.14845435 -0.08771947 0.2122431 -0.10999302 0.09629947 -0.2266227 0.22304976
-0.19554128 -0.21082526 0.09447904 0.22311848 -0.1762532 0.22403881 0.06853268 0.128544
0.039733056 -0.25119957 0.22996439 0.17544377 0.12757602 0.011224284 0.0898473 0.0075184596
0.057794962 -0.061433103 0.22894031 -0.06964794 -0.021443272 0.07638572 0.2064023 -0.115950026
-0.083493136 -0.20337975 0.19429947 0.21848811 0.034037746 -0.2245091 -0.18414484 0.20526652
0.05621513 0.064128086 -0.17534384 -0.256677 -0.11637974 -0.26050174 0.20465381 0.10677141
-0.18110816 0.2594525 -0.060106166 0.119546995 0.020734748 0.0492409 0.006047613 0.024550414
-0.17172365 0.09490936 0.043135125 0.1839067 -0.19181183 0.105775386 0.07263212 0.011807491
-0.15690197 -0.15534684 0.19858743 0.17116684 0.11919611 -0.21414159 -0.17429611 0.05638093
0.2539003 -0.24718489 0.06087607 -0.23747998 -0.24222183 -0.18249786 -0.13165039 -0.15063633
-0.1453641 0.02407182 -0.061345406 0.15147865 0.054902166 -0.11220375 -0.15817171 0.19259429
-0.012903574 0.07754557 0.1338905 -0.0457815 -0.14211924 0.017939093 -0.15236056 0.13373582
0.07835591 -0.14756817 -0.087510325 0.055298034 0.049725525 0.044938404 -0.13976914 0.05179354
-0.10791109 0.05534687 0.02666598 0.014855594 -0.11587009 -0.183029 -0.19976038 0.050867353
0.094536155 -0.078014426 0.16957359 -0.07873749 0.14797628 0.059798002 0.21578868 0.18605031
-0.080448434 -0.004026996 -0.19011989 0.14620683 -0.057103995 -0.19577496 -0.10546675 -0.22792462
-0.07338359 -0.07948058 -0.24539639 0.068043664 -0.18167673 0.05238073 -0.116676114 0.024755135

gnn_base.gnn.gnn1.lin_value.bias f4 [48]
00000000: 8752 0a3e 6699 a2bd cccf 6dbd 8d1d 5bbe
00000010: 9d55 383e 6adf 873e 22d7 023d 50a3 4a3e
00000020: d979 35be 9b0c 6ebe 5e4a f93d f151 0ebe
00000030: 7251 503e 2e85 a9bc 9cc0 993c 660e aa3d
00000040: d138 50be a949 d5bc 51c1 6f3e 4331 bdbd
00000050: 8206 003e efdb 7fbd cf0f c73b 8621 ffbd
00000060: 6258 4dbd 4add 153e 025f ba3c 3a4a 0a3e
00000070: 507b 173e 44d0 413e dca5 a9bd 3f5c 5b3d
00000080: b290 5c3d 3e84 fabd 9afd 493e d30b 28be
00000090: 3173 0ebe 354a 9b3e 7cc1 a5ba 386c 2a3e
000000a0: 9ff4 633e c702 4cbe f08a 30be 4d7d fa3c
000000b0: 1e02 223d 7e62 e4bc 704b 29be 5f22 7b3d
0.13508044 -0.07939415 -0.0580595 -0.21397991 0.18001409 0.2653764 0.031943448 0.19788861
-0.17722262 -0.23246996 0.121723875 -0.13898446 0.20343569 -0.020693388 0.018768601 0.083035275
-0.20334174 -0.0260361 0.23413588 -0.092379116 0.12502483 -0.062465604 0.0060748826 -0.12457566
-0.050133117 0.14635196 0.022750381 0.13504878 0.14793134 0.18927103 -0.08283588 0.05355477
0.05384893 -0.122322544 0.19725648 -0.1641076 -0.1391113 0.30330053 -0.0012646164 0.16642845
0.22261284 -0.19922934 -0.172405 0.030577326 0.0395528 -0.027878996 -0.16532683 0.061312076

gnn_base.gnn.gnn1.lin_edge.weight f4 [48, 1]
00000000: e6ad 033f 3553 2bbf 6b03 3b3f 51b1 91bd
00000010: 59bf 653f e098 683d a70c 483e b47c 05bf
00000020: 61fb 8dbe f485 3c3e 5186 323e 9aa6 2d3f
00000030: 3feb 17bf df35 5e3e 51ca 08bf 06db 4dbe
00000040: 47ea 26bf cd1b 4a3f 7099 393f db06 5ebf
00000050: afa2 31bf 15ab c93e 0313 48bf 9029 dcbe
00000060: cb7b 79bf d85c 30bf 7ddc 443f 575f 19bf
00000070: 1222 263f cfba 873e 5aeb 31bf a16c 66be
00000080: a7c4 88bd fdcd 323f 4ec4 60bf a51c 463f
00000090: 2cc5 63bf e71b 29bf df03 30bf 4616 ae3e
000000a0: 760d 2fbf d491 44bf f768 c93e b7f6 41bf
000000b0: 175b 33bf 2bde 5f3f becf 0d3f 652f 3abf
0.5143722 -0.6692384 0.7305209 -0.071138985 0.897451 0.056786418 0.19536076 -0.52143407
-0.2773085 0.18410474 0.1743405 0.6783234 -0.5934333 0.21700238 -0.5343371 -0.20103082
-0.6520123 0.7894867 0.7249975 -0.8672921 -0.6938886 0.39388338 -0.7815401 -0.4300046
-0.9745452 -0.6889167 0.7689894 -0.599111 0.6489574 0.2650971 -0.69499743 -0.22502376
-0.066781335 0.69845563 -0.8779954 0.7738746 -0.88972735 -0.660582 -0.68755907 0.34001368
-0.68379915 -0.76785016 0.39337894 -0.7576708 -0.7006087 0.87448376 0.55395114 -0.7272857

gnn_base.gnn.gnn1.lin_skip.weight f4 [16, 16]
00000000: 0df2 6f3d e6e5 0d3d a89a 0d3e 61a9 0d3e
00000010: 02ff 773e 2dbd 863d 5a17 193d 213c f3bc
00000020: 5695 673d ec32 86bd 12bb 4f3e 8f95 6b3e
00000030: a508 debc 72a5 793d 4370 3ebe 091a 51be
00000040: b741 34be 2db8 dbbc c73e 053e be81 8bbd
00000050: 68f5 52be 920a 803d a636 373e 59c9 3abe
00000060: 9597 5dbe fce5 04be 2356 843d 717c 713d
00000070: cb68 1dbe 4563 233d 130f 3cbb 348b 36bb
00000080: 1d30 983e 1ee9 2e3d 2a37 9abd 5fa2 d0bc
00000090: 2bb7 15be a3f2 053e 3b57 78bc 596d 6e3d
000000a0: 0d0a 42bd 1366 193e 0473 953d a2e4 0e3e
000000b0: e7c0 ddbd 3081 38be 97e7 053e 6158 723e
000000c0: cbf7 87bd 045e 59bc 3dc7 0a3d 3f67 073e
000000d0: 6eca 813d f381 74bd 66fc 853d bd7c c3bd
000000e0: 9b4f bdbd 4408 4d3e b1d3 4fbe ad1d 5fbe
000000f0: ec60 60ba 1724 61be ba5f e7bc e39b fa3d
00000100: ae9b 853c f5d7 31bc ff8a 193e 7a2d 1cbe
00000110: 8856 533e 0e4f f93d 2999 eb3d f466 163e
00000120: 8648 1abe 42eb c93d 2fe8 233d 0d20 34be
00000130: 4d15 3bbc a928 a2be bdb8 893e 3610 92be
00000140: f333 9a3e 5804 8f3c ac2f d83d 4b9d 42be
00000150: 222b 9dbd 73d2 a8bc d664 2fbe 3a90 53be
00000160: 53db 34be c33c 5f3e 70ba 4c3c 57f6 333e
00000170: 327e ff3d 5c7f 7bbb 310d 223e dd1b f4bd
00000180: 3200 e23c 75cd 6e3c 091f 51be 6e0b 743d
00000190: 99fc 84be 8fd2 67be 487b 27be 98ee 87bd
000001a0: 16e3 80be 421e cd3c 403a 5dbe a5ba 053d
000001b0: 555c 03be 441e 363e fa66 d93d 78a6 8b3c
000001c0: f275 76be 8e05 1d3e b32e f73d 5089 73be
000001d0: 2e2c 8b3d fb53 55be 588d 46be 7f3b 13bd
000001e0: 8a5e 1bbe 55b4 f6bd 85d4 223e d4e9 99bd
000001f0: 850d 5e3d 6290 5bbe e92f 843c 07f2 cf3d
00000200: 0200 6fbe 8f04 bdbd a060 6fbd fbe8 5dbe
00000210: 4bda 9dbd 9c55 433e 8b6a 843e a025 813e
00000220: 8bc5 753e 7447 6a3e e267 3abe 5d0f aa3d
00000230: 0a43 66be 4e62 153e 6ed4 93bd b951 3f3e
00000240: 362c c7ba 88b9 bdbd 11c2 063e 5f97 6c3e
00000250: aa65 d43d 65db 1d3d 00a3 bf3d b843 2bbe
00000260: d6c6 e33c 38f5 db3b 1d27 39be 70c7 783d
00000270: 48bd 043c fbaf e6bd d488 0b3d 91c4 86be
00000280: 6bdc 793e 1c41 20bd 164f 0d3e 79e8 87be
00000290: 14ad 383d a425 0abe 2b9c 5dbe b1ce 703e
000002a0: d8fa b13d 7de6 8bbd fe58 c53d 5b0d 61be
000002b0: 7d55 463e 6010 54be b1f2 c6bc 0b0f 083e
000002c0: fc95 80be f914 253e c517 cd3c e04c a0bd
000002d0: cd7b e93d 0530 febd f8f9 84bd a211 11be
000002e0: a619 92bd 29c5 05be 953a d7bd 6eb1 b03d
000002f0: 7159 d33d 5d97 3ebe d003 d6bb 826f 1d3e
00000300: ead7 dbbd 884f af3d 14f6 32be 266f 5c3e
00000310: e2e5 753d 3e05 d9bd 1e2a 373e b002 aa3b
00000320: df2e 983d 9a3e 19be d002 963a 6d20 11be
00000330: 7c3b 303e 8e4c 243e 6b84 eebd 94f2 c9bb
00000340: e3cc 523d f277 f13d 6c21 f2bd a127 ed3c
00000350: 1203 e93d 95c4 6dbe f1ba 5ebd 584b ba3d
00000360: 45f8 1f3e dad4 a2bd 371d 1cbe 08ef 323d
00000370: 3879 4d3d 16fa 813e 75c6 233e 95e1 0dbd
00000380: 30d4 03bd 4eda 753d 6d4b 68be 3aad 3a3e
00000390: f227 dd3d 0b04 073e 6bf3 34be 8700 323c
000003a0: 4ad4 203e bc91 de3d 7482 d0bd b90f 55bd
000003b0: a7fd 14be b864 f53c 0d12 78be 4235 333e
000003c0: cd28 93bd fea1 063e 0493 9abd 8a73 7c3e
000003d0: 3398 2cbe e38c 1b3e e079 6bbb d248 6d3d
000003e0: a4b3 dc3c 8089 2cbe 7a2c 723e b182 1a3e
000003f0: 7d02 e23d 5c3b 553e b77d 67bd eca8 be3d
0.058580447 0.034643076 0.13828528 0.13834144 0.24218372 0.06579051 0.037375785 -0.029691758
0.056538902 -0.06552681 0.20286205 0.23006271 -0.027103731 0.060948797 -0.18597512 -0.20420088
-0.17603193 -0.02682122 0.13012229 -0.06811856 -0.20601428 0.06252016 0.1789194 -0.1824087
-0.21639855 -0.12978357 0.06461742 0.058956567 -0.15372007 0.039889593 -0.0028695508 -0.0027853968
0.29724208 0.042702787 -0.07530053 -0.02546805 -0.14620654 0.1308084 -0.015157516 0.05820975
-0.047372866 0.14980344 0.07297328 0.13954404 -0.10827809 -0.18018031 0.13076626 0.23666526
-0.0663906 -0.013267044 0.033881415 0.13222979 0.063374385 -0.05969424 0.06542282 -0.09545276
-0.09243699 0.20022684 -0.20295598 -0.21788664 -0.00085593644 -0.21986423 -0.028243888 0.12236764
0.016309585 -0.010854711 0.14994429 -0.15251723 0.20638478 0.121732816 0.11503822 0.14687711
-0.15066728 0.09859325 0.04001635 -0.17590351 -0.011418653 -0.31671646 0.26898757 -0.28527993
0.3011776 0.017458126 0.10555968 -0.19005315 -0.076742426 -0.020608163 -0.1712831 -0.20660487
-0.1766179 0.21800523 0.012495622 0.1757444 0.12475242 -0.0038375473 0.15825345 -0.11919377
0.027587984 0.014575352 -0.20421995 0.059581213 -0.25973967 -0.22638915 -0.16355622 -0.06637305
-0.25173253 0.025038842 -0.21604252 0.0326487 -0.1282819 0.17784983 0.10615344 0.017047152
-0.2406843 0.1533415 0.12069454 -0.2378285 0.06795536 -0.20832817 -0.19389856 -0.03594541
-0.15172783 -0.12046114 0.15901382 -0.07515302 0.054212112 -0.21441796 0.016136127 0.10153585
-0.23339847 -0.09229385 -0.05844176 -0.21670906 -0.07707652 0.19075626 0.25862536 0.25224018
0.24001138 0.2287882 -0.1820369 0.083037116 -0.22486511 0.14588282 -0.07218252 0.18683518
-0.0015195671 -0.09263903 0.13159968 0.23104618 0.103709534 0.03853931 0.09357262 -0.16725051
0.027804773 0.006712582 -0.18081327 0.060737073 0.008101769 -0.11264034 0.034066036 -0.26321843
0.24400489 -0.039124593 0.137997 -0.2654455 0.045086935 -0.13490921 -0.21641605 0.23516347
0.08690423 -0.068310715 0.096361145 -0.21977751 0.19368549 -0.20709372 -0.024285646 0.13286988
-0.2511443 0.16121282 0.025035748 -0.07827163 0.11400566 -0.12411503 -0.0649299 -0.14166883
-0.07133798 -0.13063492 -0.105092205 0.08627592 0.10319794 -0.18612428 -0.006531216 0.15374568
-0.10734542 0.08560091 -0.17476684 0.21526775 0.060033686 -0.10596703 0.1788716 0.0051883087
0.07430815 -0.14965287 0.001144493 -0.14172526 0.17210191 0.16044828 -0.116463505 -0.006162951
0.051464926 0.11790456 -0.11822781 0.02894956 0.11377539 -0.23219521 -0.0543775 0.09096402
0.15622051 -0.079507545 -0.1524552 0.04368499 0.05016443 0.25386113 0.15993674 -0.03463896
-0.03218478 0.060022645 -0.22685023 0.18230143 0.107986346 0.13185136 -0.17670982 0.010864384
0.15705982 0.108676404 -0.10181132 -0.052016947 -0.14549886 0.029955253 -0.24225636 0.17500785
-0.071855165 0.13147733 -0.07547572 0.2465345 -0.16854934 0.15190463 -0.0035930797 0.057930775
0.026941128 -0.16849327 0.23649779 0.15088917 0.11035631 0.20823425 -0.056516375 0.09309563

gnn_base.gnn.gnn1.lin_skip.bias f4 [16]
00000000: c1a1 d1bd e204 c23d 73d9 eebd 1ee3 2e3e
00000010: fe48 0f3e 5343 1a3d 52c5 bbbd 9a55 2d3e
00000020: 0f8e 353e 3c21 6bbe b9b9 cbbd 6729 633d
00000030: 86d8 44bb d46e 3c3e 0a8f 4cbe 97bb 35be
-0.1023593 0.094735876 -0.11662569 0.17078826 0.13992688 0.03766186 -0.09168495 0.16927186
0.17729972 -0.22961897 -0.09947533 0.055459406 -0.0030036285 0.18401653 -0.1997644 -0.17747341
