onpolicy/results/GraphMPE/navigation_graph/rmappo/crap_bad/run9/models/actor.pt (torch, 196085 bytes, 62 tensors)

gnn_base.gnn.embed_layer.entity_embed.weight f4 [3, 2]
00000000: de78 c53f 2618 9cbe 1800 0bc0 ae56 113f
00000010: ffe5 8abf 69d3 b2bf
1.5427511 -0.30487174 -2.1718807 0.5677289 -1.0851439 -1.3970767

gnn_base.gnn.embed_layer.lin1.0.weight f4 [16, 9]
00000000: 35b8 55bf 9769 15bf a236 813e 0195 23bf
00000010: c8d3 943d 6cc8 7cbd 727e d6be 568a 22be
00000020: 1c78 7ebe 0169 a93e 96e4 82bd c2ab 36bf
00000030: 3194 42be f67b 77be 28e7 403e cef3 8cbd
00000040: 772d 743e f2d6 0cbf 9c91 5d3e d04f 58bf
00000050: 3e88 26be be3d 2d3e b51c 283e 3cbe 41be
00000060: a07f d4bd cd2e 2cbe e9ce 463f 1924 063d
00000070: f688 d1bc 08ae 0abf 73f1 d53e 8949 0a3c
00000080: 5833 0cbf b7cc 17bf edd2 2cbe 1601 f3be
00000090: 8044 c33e 12b2 3b3d 3fc5 d73e b253 383e
000000a0: cb74 a53b 2379 2f3f 51a2 47be 0f17 e9be
000000b0: 0b2b adbd aae8 e83e 802b a1be 38f6 8e3e
000000c0: 45af c3be fca5 6abf e74c ddbe 9ad6 0e3e
000000d0: f20b 71be 3fdf f7bc f526 ab3d 138f 3e3e
000000e0: b129 eb3e 6d8c f63e 9f4e 39be dc08 f6bc
000000f0: 7a92 07be 043f c7be 6a3e a7be f1a8 983e
00000100: 563c b93b 71db 7c3e b35e a83d 2372 233f
00000110: c153 d4be c42d d7be b1c2 533e a824 103e
00000120: 9838 12bf 758e 4b3c 3b96 88be 41d4 ec3e
00000130: c6f2 e9be 07e8 103e 4300 b53d eb85 bdbe
00000140: f477 5f3d 2680 8b3d 4407 b33c 7c28 973e
00000150: bb05 0cbe 5e8e 64be 5375 833b 2262 23be
00000160: 978c 643f 5689 22be b9cb 77be ad3e 81be
00000170: c96f 813c 5831 1c3f 8d6d 7fbd d1ac a7be
00000180: c6f2 1d3f 2b16 ce3e 89eb e3bd 3d6d 35be
00000190: 6380 e2bd 85b8 ce3e 6c6e b33d 2c19 b43d
000001a0: f6ee 1fbe 6a3f 053f 1b30 b23d d498 89be
000001b0: 3260 48bc 4803 053f bbbf 2a3e dc68 c9bd
000001c0: c865 82be b12b 28bf 0082 8ebd 976a a0bd
000001d0: 81d7 d63e b1c2 913e 21d8 4ebd dd86 c3be
000001e0: d39f c2be 9f73 733e 2f57 3c3d 1acd 1c3f
000001f0: af01 6fbe 7ea4 343d 8966 49be 3966 1b3f
00000200: e339 24be ee71 c1be 7b02 ac3e 9205 99be
00000210: 4046 843e 88e5 b5be 4976 2c3d 51b6 8f3e
00000220: 567f abbe d5dd 703e 1531 053d 0ac4 d63e
00000230: 5f05 abbe 7052 8d3e 1bb3 9fbe 6797 28bf
-0.834842 -0.5836424 0.25236994 -0.63899237 0.072669566 -0.061714575 -0.41893345 -0.15873083
-0.24850506 0.33087924 -0.063912556 -0.7135583 -0.19001843 -0.24168381 0.18838179 -0.068824396
0.23845468 -0.5501548 0.21637577 -0.84496784 -0.1626291 0.16918084 0.16417201 -0.18920225
-0.10375905 -0.16814728 0.7765947 0.03274927 -0.025578003 -0.541718 0.41785774 0.008440384
-0.54765844 -0.59296745 -0.16877337 -0.47461766 0.381382 0.045824118 0.42142674 0.18000677
0.005049323 0.68544215 -0.19495513 -0.45525405 -0.084554754 0.4549001 -0.314785 0.27922225
-0.38219658 -0.9165952 -0.43222734 0.13949051 -0.23539713 -0.03025782 0.0835704 0.18609266
0.45930246 0.4815401 -0.18096398 -0.030033521 -0.1323947 -0.38915265 -0.32664806 0.29816392
0.0056529446 0.24693085 0.082211874 0.63846034 -0.4147015 -0.42027104 0.20679738 0.14076483
-0.57117605 0.012424101 -0.26677117 0.46255687 -0.45693034 0.14151011 0.088379405 -0.37016234
0.054557756 0.06811552 0.02185405 0.29523075 -0.13674061 -0.22319934 0.004011789 -0.15955403
0.89277023 -0.15872702 -0.24198808 -0.2524313 0.015800374 0.6101279 -0.062360335 -0.32749036
0.6169857 0.40251288 -0.11128909 -0.17717452 -0.11059644 0.40375152 0.08761296 0.08793864
-0.156185 0.5204989 0.08700582 -0.2687441 -0.012229966 0.5195813 0.16674702 -0.098344535
-0.25468278 -0.6569167 -0.06958389 -0.078328304 0.4196129 0.2846885 -0.050499085 -0.3818883
-0.3801256 0.23774575 0.045981582 0.6125046 -0.23340486 0.044102184 -0.1966802 0.60702854
-0.16037707 -0.37782234 0.33595642 -0.29887062 0.25834846 -0.3552668 0.042104993 0.28068784
-0.33495587 0.23522122 0.03251751 0.4194644 -0.33402535 0.27601957 -0.31191334 -0.6585602

gnn_base.gnn.embed_layer.lin1.0.bias f4 [16]
00000000: 7f90 95ba dad4 40bc 84cd 123c 5f13 03bc
00000010: 0823 f43b 981a 45bb 3be4 bbba 8f28 ec3b
00000020: cf4c 1739 e82a a9bb 0b09 d03b d5f3 2cbc
00000030: 76f4 5ebb 7bd3 c43b 99ca 853c a68e ccbc
-0.0011410861 -0.011769498 0.008960132 -0.008000224 0.007450465 -0.0030075666 -0.0014334986 0.0072069834
0.00014429096 -0.0051625855 0.0063487343 -0.010556181 -0.0034020222 0.0060066557 0.016331958 -0.024970364

gnn_base.gnn.embed_layer.lin1.2.weight f4 [16]
00000000: b81d 833f bb8e 7a3f 461a 803f a4fa 7e3f
00000010: dce1 823f b523 7d3f 1cb4 813f e7c7 803f
00000020: acca 783f 5864 803f d19f 7f3f 2736 7c3f
00000030: d64b 7e3f a1e6 7e3f 8206 803f f918 823f
1.0243444 0.9787404 1.0008018 0.996012 1.0225177 0.9888261 1.013309 1.0061005
0.9718425 1.0030622 0.99853235 0.9852013 0.99334466 0.9957066 1.0001986 1.0163871

gnn_base.gnn.embed_layer.lin1.2.bias f4 [16]
00000000: 211d 71bb 8bb6 4f3c 6f5f 853c c7ed 23b9
00000010: 58d2 0b3c 9c76 843a 63d5 5e3b fe0b 123c
00000020: a9a4 5c3c cafa 60bb 3fea 373c c6ea d03b
00000030: 3029 873c de85 763c 2e73 663c 09bf 86bc
-0.0036791044 0.012677799 0.016280858 -0.0001563347 0.008534037 0.0010106149 0.00340017 0.008913992
0.013466992 -0.003432917 0.011225282 0.0063756434 0.016499132 0.015046565 0.014065547 -0.016448515

gnn_base.gnn.embed_layer.lin_h.0.weight f4 [16, 16]
00000000: 3bc6 3e3f 006b cc3e 898f b03e 0a38 38be
00000010: 15f0 163d da37 933d b44d 6e3d ef7e a73e
00000020: 7386 b63e 4d35 3b3e f6b9 303d 6c25 d4bd
00000030: 0ee3 043c 7f19 563f de29 c23e 4cb0 cbbc
00000040: 5a2c 8b3e d1b1 debd b7d7 d8be 2a60 133f
00000050: 8803 a3be dee4 05be c008 943e 99cc 8ebe
00000060: 8a47 083d 4a72 013f 1320 15bf 897d e23d
00000070: 5a34 25bf 338f 363d 1da8 593e 8bcd 68be
00000080: 9e1a 953e 0847 53bf 2409 433d 863c 443e
00000090: b263 dabe 673c 6e3e abb3 4ebe cfdc 8abe
000000a0: f7ac 45be 023a 4fbc 1367 6d3e 7ba9 4cbf
000000b0: 368b 753e 532c 703e 340f ee3c e904 043d
000000c0: 611c 153e d343 183d 5d2a e63c d497 193f
000000d0: 3900 633d 841c b1be c42c 643c d236 78be
000000e0: 9973 063f d83d 6f3e af02 dd3e f0d4 5b3e
000000f0: dba4 743e f3e1 563e 945f 59bf f607 653e
00000100: 3f6a 1bbf 109e a33c fd76 8f3e 51a8 293e
00000110: 52a6 acbe 81ac 293f c3b3 96be 5afd 843e
00000120: 099a 953e 83ab 763e 4b6e 17bf dc62 9c3d
00000130: f42a 833e dc04 a23e d8e1 98be d26f 81be
00000140: c936 a1be 2ee9 08bf 0c81 2e3d ef25 1fbe
00000150: 9af9 043f b52b 993d 34f4 64be 2dbd dbbe
00000160: a9a7 403e 9c16 353e dee7 03be 63f5 c33e
00000170: ccd0 23be 598e d93e 6b0a c23e 9df9 343f
00000180: 3bf2 883e 04a6 f33e 92f8 e6be aea0 7c3e
00000190: f74e 723e 436e 0a3f 2027 4dbf 942e 7abe
000001a0: 3247 aebe cfb6 92be 25b8 db3d 88ee 803c
000001b0: 2e08 aabe c8a5 293e 63d4 49be f4d2 023d
000001c0: e71e b1bc d9f1 403e 1901 d4bd fb96 7ebd
000001d0: b948 8c3e a736 bc3e fbeb ee3e 1fbb 5abf
000001e0: e2dc 023f dade d5be 9ec7 b2bd ae41 22be
000001f0: ab92 9a3e d99b 45bc bd6e 1f3e 982c e9be
00000200: a2a5 d43d 9af8 a5be 16dc 463f 9e18 173f
00000210: 22c2 883e f124 3d3d 3c74 83be a23a c93d
00000220: 9dbd d93d 7c94 9abe 73c5 703e 4b1f a83e
00000230: 14e2 9ebe 58f6 8abe 5a97 9f3e 7329 00bf
00000240: bc80 9a3e e486 dabe b2ed 853d 855a 13bf
00000250: e123 b7bc 7de9 123f 870b d23e 7d86 7a3d
00000260: 951d aa38 b65c 663c 540f 483e 78d6 a63e
00000270: c95c 13bf e642 28bb c215 21bf 4c49 07be
00000280: eb04 b2bd 286f 563e 4aee 8138 4c3e 803e
00000290: 8bc7 4fbf 0022 b53e fdc1 7f3e 932c 023d
000002a0: 3fea 873e ae9d f4be 17b6 a13e 5efa 893e
000002b0: da4f 18be 7d3a eabd 5cce a93e 6459 263f
000002c0: 717f b23d d014 33bc 7bdf 123e 7a23 c63e
000002d0: 1c4a 013e 6040 173e 9427 103f 0997 1bbd
000002e0: 7510 67bf 0e2c 44be 666f 1bbe 0c19 dd3e
000002f0: 412d ee3e 871a d93e 1f88 85bd 3f7a 863d
00000300: da83 01be 1fbe d1be 7918 1bbf 2d7d 0e3e
00000310: da22 1d3e 06fb 8abe 7096 863d 4a45 123f
00000320: 766c 9a3e 3ad5 4abf b3a3 23be 85fa eebb
00000330: 382e c0bd 6512 eb3e c743 9ebd 7fce 36be
00000340: c908 77be 2a4d 5d3e 6c06 113f b987 65be
00000350: 431a a9be 0f69 0bbf f854 a8bd 23f9 ecbe
00000360: 4c6d 4dbe 2f4e eabe b909 8fbe 3996 52be
00000370: 7cf9 01bf e15e cf3e 1c36 a6be bab0 223c
00000380: 7d28 0b3f ee69 69be c269 b7bd e727 bbbe
00000390: 4cb7 e9be 780c 82be b284 fcbe 53e8 72be
000003a0: 572d aa3d 42dd 46be b4f3 b1be 28c1 313f
000003b0: 721c fc3e fd7b 1bbe b30b 383c 9df2 22be
000003c0: 99f9 f9be fa39 603c 68ae 90be 24bb 2abe
000003d0: abe9 a9be d9a2 0abe 6f20 b1bd c874 2dbe
000003e0: edb8 25be 0ff1 8f3e 170c 453f 15ce ae3e
000003f0: 3eb2 03bd f9d4 f33e 3fb6 8b3e 2d44 1cbf
0.74521226 0.39925385 0.3448451 -0.17990127 0.036850054 0.07188387 0.058179572 0.3271403
0.35649452 0.18282051 0.043146096 -0.103587 0.008110775 0.83632654 0.37922567 -0.024864338
0.27182275 -0.108737595 -0.42352077 0.5756861 -0.31838632 -0.13075587 0.28912926 -0.2789047
0.03327135 0.50565016 -0.58252066 0.110591 -0.6453301 0.04457016 0.21255536 -0.22734658
0.2912187 -0.8253026 0.04761614 0.19163713 -0.42654186 0.23265229 -0.20185725 -0.2712159
-0.19304262 -0.0126481075 0.23183851 -0.79946107 0.23978886 0.23454408 0.029059984 0.032231245
0.14561607 0.037174057 0.028096372 0.59997296 0.055420134 -0.34592068 0.013926689 -0.24239662
0.5252014 0.23363435 0.4316611 0.21467948 0.23891012 0.2098463 -0.84911466 0.22366318
-0.60708994 0.019972831 0.28020468 0.16568114 -0.33720642 0.66278845 -0.29434022 0.25974542
0.29219082 0.24088864 -0.5915267 0.076360434 0.25618708 0.31644332 -0.29859805 -0.25280625
-0.3148711 -0.53480804 0.042603537 -0.15541814 0.5194336 0.074790396 -0.22358781 -0.42917767
0.18813957 0.17684406 -0.12881419 0.38273153 -0.15997618 0.42491415 0.37898573 0.7069338
0.26747307 0.47587597 -0.4511152 0.2467067 0.23662935 0.54074496 -0.80137825 -0.2443183
-0.34038693 -0.28655097 0.10728482 0.01573874 -0.33209366 0.16567147 -0.19709925 0.03193946
-0.02162118 0.18842258 -0.10351772 -0.062155705 0.27399233 0.36760446 0.46664414 -0.85441774
0.5111829 -0.41771585 -0.0872948 -0.15845367 0.30190024 -0.012061083 0.15569587 -0.45541835
0.103831545 -0.3241623 0.77679574 0.5902194 0.26710612 0.04617781 -0.25674617 0.098256364
0.10631869 -0.3019141 0.23512821 0.32836375 -0.3103186 -0.2714107 0.3117016 -0.50063246
0.30176342 -0.42681038 0.065394774 -0.57559997 -0.022355976 0.57387525 0.4102442 0.061163414
8.111742e-05 0.01406019 0.19537097 0.32585502 -0.57563454 -0.002567464 -0.62923825 -0.13211554
-0.08692344 0.2094084 6.195584e-05 0.2504753 -0.81163853 0.35377502 0.24976344 0.03178079
0.26545903 -0.4777655 0.31584236 0.26948828 -0.14874211 -0.11436937 0.33165252 0.6498015
0.08715714 -0.010930255 0.14343064 0.3869894 0.12625927 0.14770651 0.5631039 -0.037985835
-0.90259486 -0.1915743 -0.15179214 0.43183172 0.465189 0.4240305 -0.06520104 0.06566285
-0.12647954 -0.40965363 -0.6058422 0.13914938 0.15345326 -0.2714464 0.065716624 0.57136977
0.30160874 -0.7923161 -0.15980415 -0.007293048 -0.093838155 0.4591247 -0.07727771 -0.1785221
-0.24124445 0.21611467 0.56650424 -0.22415055 -0.3302785 -0.5445718 -0.082193315 -0.46283826
-0.20061225 -0.45762774 -0.27937105 -0.20565118 -0.5077131 0.40502074 -0.32463157 0.00992983
0.54358655 -0.22794315 -0.089557186 -0.3655388 -0.45647657 -0.25400138 -0.49319988 -0.23721437
0.08309429 -0.1942034 -0.34756243 0.6943536 0.49240452 -0.15184017 0.011233258 -0.15912862
-0.4882324 0.013685698 -0.2825806 -0.16672951 -0.33186087 -0.13538684 -0.08648764 -0.1693908
-0.16183825 0.281136 0.7697157 0.34141603 -0.032152407 0.47623423 0.2728748 -0.6104153

gnn_base.gnn.embed_layer.lin_h.0.bias f4 [16]
00000000: 0000 0000 0000 0000 0000 0000 0000 0000
00000010: 0000 0000 0000 0000 0000 0000 0000 0000
00000020: 0000 0000 0000 0000 0000 0000 0000 0000
00000030: 0000 0000 0000 0000 0000 0000 0000 0000
0.0 0.0 0.0 0.0 0.0 0.0 0.0 0.0
0.0 0.0 0.0 0.0 0.0 0.0 0.0 0.0

gnn_base.gnn.embed_layer.lin_h.2.weight f4 [16]
00000000: b81d 833f bb8e 7a3f 461a 803f a4fa 7e3f
00000010: dce1 823f b523 7d3f 1cb4 813f e7c7 803f
00000020: acca 783f 5864 803f d19f 7f3f 2736 7c3f
00000030: d64b 7e3f a1e6 7e3f 8206 803f f918 823f
1.0243444 0.9787404 1.0008018 0.996012 1.0225177 0.9888261 1.013309 1.0061005
0.9718425 1.0030622 0.99853235 0.9852013 0.99334466 0.9957066 1.0001986 1.0163871

gnn_base.gnn.embed_layer.lin_h.2.bias f4 [16]
00000000: 211d 71bb 8bb6 4f3c 6f5f 853c c7ed 23b9
00000010: 58d2 0b3c 9c76 843a 63d5 5e3b fe0b 123c
00000020: a9a4 5c3c cafa 60bb 3fea 373c c6ea d03b
00000030: 3029 873c de85 763c 2e73 663c 09bf 86bc
-0.0036791044 0.012677799 0.016280858 -0.0001563347 0.008534037 0.0010106149 0.00340017 0.008913992
0.013466992 -0.003432917 0.011225282 0.0063756434 0.016499132 0.015046565 0.014065547 -0.016448515

gnn_base.gnn.embed_layer.lin2.0.0.weight f4 [16, 16]
00000000: f0b8 463f e4b9 bc3e 32e3 b83e cc0a 23be
00000010: b772 5b3c b745 983d 4ce3 023d 19ce b23e
00000020: 8e7d ab3e 8a6a 383e cdb6 023c 2943 0cbe
00000030: 396e 8c3d e3f4 503f 299d cd3e 5e0b 69bd
00000040: 0565 733e 0826 93bd 47a9 d9be 7a9d 113f
00000050: 72a3 a5be bc72 eebd 5ce2 903e 5a64 9bbe
00000060: cc04 813d 2fcf 003f bb5b 10bf bcfc 013e
00000070: 573e 2abf 9c02 7b3d 78ce 5f3e c5e4 60be
00000080: dbb3 8b3e d0ab 4fbf 214b 1d3d 3244 3c3e
00000090: 63e7 dabe ae0d 633e f3fb 51be 2a2e 8cbe
000000a0: 923e 38be d903 d43a 89fb 823e fcc3 49bf
000000b0: ed8b 583e 636e 803e 2843 b03b b3ed 173d
000000c0: c6bf 413e 84ca 053d 8094 283d a4bf 1a3f
000000d0: da9c 753b 196f b5be 4e41 e9bc 6cf2 5bbe
000000e0: da60 fc3e a535 863e d423 d03e da64 473e
000000f0: af22 893e c95d 513e 3a33 5bbf 045a 633e
00000100: b2b1 19bf cff6 72bb 5f50 933e edb6 273e
00000110: 2736 acbe 77ba 2b3f 828f 9bbe 2c35 853e
00000120: c788 8b3e cb78 6d3e c416 18bf 1079 a83d
00000130: e24a 843e 2882 ad3e 858b 99be 174b 82be
00000140: 5960 a1be ebb9 06bf 7b46 723d 8f11 f0bd
00000150: f435 083f 9870 7c3d 70e8 54be fd6a d4be
00000160: ad2d 453e dfb4 3b3e cd52 1dbe ef17 b83e
00000170: 1783 50be 61e8 d73e fc7d b53e bdc9 343f
00000180: 0b89 793e 0f01 003f 5f65 e6be 0613 6d3e
00000190: cd82 653e 3db1 063f 3a55 4dbf a844 71be
000001a0: 4e11 abbe eb4b 88be f04f f83d 2b89 fb3c
000001b0: 0d31 babe 634a 363e 4188 43be 7ac8 3a3d
000001c0: 10ad 25bd c7ee 323e f2e8 e0bd f689 71bd
000001d0: 43d8 953e ae1e ba3e c732 f83e 7204 61bf
000001e0: d7e1 043f 474e ddbe 3c22 9fbd a0a1 18be
000001f0: 2ef9 913e d011 443c 6885 203e 8817 edbe
00000200: 9ca2 eb3d 54f6 b0be dfea 483f 59e1 173f
00000210: bad4 883e 4568 3a3d 7e7e 84be f685 d73d
00000220: 8c8e d73d 88ef 9bbe 6df3 613e 5bc6 a53e
00000230: b377 92be f087 96be e8e1 9e3e 0982 03bf
00000240: 6f3b 9e3e b511 d6be e6f7 693d be01 16bf
00000250: f3df fbbc 7c4b 153f e1de d83e 7588 4d3d
00000260: 8807 7d3c 0dde 66bb 9f77 683e 42c5 ad3e
00000270: 81b6 11bf aa2b e1bc 1636 23bf dbe9 efbd
00000280: 7a24 ccbd f563 563e dc72 133c 8cd2 693e
00000290: 24a1 53bf f49c b53e 205f 6f3e 32eb 033d
000002a0: 07c2 8d3e ed53 f5be 5bfc a93e 8df7 923e
000002b0: d298 2cbe fef5 bdbd 9a7f a23e ff38 273f
000002c0: ca06 c23d 6da9 34bc b5d2 083e f9b5 cd3e
000002d0: a869 083e 6291 0c3e 90bf 123f 501f 31bd
000002e0: 38ab 64bf 5967 41be c639 12be 416b df3e
000002f0: 0cf3 e63e 1f1f d23e 811a 8fbd be0f 883d
00000300: 11c6 e0bd e62f d4be f9cf 1abf f0f9 183e
00000310: 21b7 223e 89f2 87be 8fd6 a23d 32ab 113f
00000320: 475f 983e b9b8 4dbf 678e 2ebe 6b1b 22bc
00000330: d81d 93bd 4d23 dc3e 54f4 a4bd e699 39be
00000340: 0f39 7cbe acf7 623e 3913 0e3f e436 71be
00000350: 3a2c b8be d80f 05bf c02b f1bd 4e7c ecbe
00000360: 1dec 4ebe 4151 e4be bb0c 84be ff02 45be
00000370: 3bd7 f9be 296e d93e a10c 9abe 7029 a03c
00000380: 14b5 0e3f 9404 6cbe 2c56 c2bd 0463 b7be
00000390: e17d e7be e411 82be 1a17 f9be a9f1 5abe
000003a0: 017e 883d 0dd9 39be e113 bdbe f487 2d3f
000003b0: e111 fc3e 0fe5 3abe 2b15 39bc 22eb 20be
000003c0: 9dd6 00bf 82cb 09bc 1009 9bbe bb4d 40be
000003d0: ef7e a0be 05ce 07be 7411 b4bd 5885 42be
000003e0: 020c 3dbe 745f 853e 4547 433f 3767 b63e
000003f0: b157 813c 21ee fc3e 8b94 9e3e f695 23bf
0.7762594 0.36860573 0.36110836 -0.15922087 0.013394049 0.07435172 0.03195505 0.34922865
0.33494228 0.18009391 0.007978153 -0.13697495 0.06856961 0.8162367 0.40158966 -0.056895606
0.23769005 -0.07184988 -0.4251196 0.56880915 -0.3235126 -0.116429776 0.28297698 -0.3035
0.06299743 0.5031614 -0.5638997 0.12694067 -0.66501373 0.061281785 0.21856105 -0.21962269
0.27285656 -0.8112154 0.038401727 0.1838539 -0.4275466 0.22173187 -0.20506267 -0.2737897
-0.17992619 0.0016175463 0.2558253 -0.78814673 0.21147127 0.25084218 0.0053790994 0.037091922
0.18920812 0.032663837 0.041157246 0.6044867 0.0037477524 -0.35436323 -0.028473523 -0.21479195
0.49292642 0.26212803 0.40652335 0.19472066 0.26784274 0.20445932 -0.8562504 0.22202307
-0.60036767 -0.003707338 0.28772256 0.16378374 -0.33635065 0.670814 -0.30382925 0.2601713
0.2725279 0.2319061 -0.5940974 0.08226216 0.2583838 0.33888364 -0.29989257 -0.25447914
-0.3151882 -0.5262744 0.059149247 -0.11722099 0.53207326 0.061630815 -0.20791793 -0.41487876
0.19255705 0.18330716 -0.15363617 0.3595576 -0.20362507 0.4216948 0.3544768 0.7062033
0.24368684 0.50001615 -0.44999215 0.23151788 0.22413178 0.52614194 -0.8020817 -0.23561347
-0.3341164 -0.2662042 0.12124622 0.030705055 -0.36365548 0.17801814 -0.19094945 0.045601346
-0.04044825 0.17473899 -0.10981931 -0.05896946 0.29266557 0.36351532 0.4847624 -0.8789741
0.51907104 -0.43223783 -0.077702016 -0.14905405 0.28510422 0.011967137 0.1567589 -0.46307015
0.11505625 -0.34562933 0.78483385 0.5932823 0.26724797 0.045509595 -0.25877756 0.10523598
0.105252355 -0.30456185 0.22065516 0.32377896 -0.28606948 -0.29400587 0.31031728 -0.5137029
0.3090472 -0.41810384 0.05712118 -0.5859641 -0.030746436 0.58318305 0.42357543 0.050178964
0.01544369 -0.0035227567 0.22701882 0.33939558 -0.56919104 -0.027486641 -0.63754404 -0.11714526
-0.09967895 0.20936568 0.008999553 0.22834224 -0.82667756 0.35471308 0.23376131 0.03220672
0.27687094 -0.47915593 0.33200344 0.2870449 -0.16855171 -0.09275435 0.31737977 0.65321344
0.09473951 -0.011026722 0.13361628 0.40177897 0.13321555 0.13727334 0.5732355 -0.043242753
-0.8932376 -0.1888708 -0.14279851 0.43636516 0.45107305 0.4103937 -0.06987477 0.066436276
-0.10975278 -0.41442794 -0.6047359 0.14939094 0.1589017 -0.26552227 0.0795108 0.5690185
0.2976019 -0.8035999 -0.1704651 -0.009894232 -0.071834266 0.42995682 -0.080544144 -0.18125114
-0.24631141 0.22164792 0.5549808 -0.23556095 -0.35971242 -0.519773 -0.11775923 -0.46188587
-0.20207258 -0.44593242 -0.25790963 -0.19239424 -0.4879702 0.42466858 -0.3008776 0.019551009
0.55745053 -0.23048621 -0.09489092 -0.3581773 -0.45213225 -0.25404274 -0.48650438 -0.21381249
0.06664658 -0.18149205 -0.3692923 0.67785573 0.4923239 -0.18251441 -0.011296551 -0.15714696
-0.50327474 -0.008410336 -0.30280352 -0.18779652 -0.31346843 -0.13262184 -0.087923914 -0.18996179
-0.18461612 0.26049387 0.76280624 0.35625622 0.015788885 0.49400428 0.30972704 -0.639007

gnn_base.gnn.embed_layer.lin2.0.0.bias f4 [16]
00000000: 02c2 d43c 82b2 95bc 1273 cebb 76a5 3c3b
00000010: 0cd0 1c3c 188d 0bbb 8870 72bc 01dc 913c
00000020: 6bed 323c 5dd5 62bc f51f ab3b fc98 f13a
00000030: 869f 063b 742f 00bc 2033 0eba e9e3 a73c
0.025971416 -0.018273596 -0.0063003385 0.0028785146 0.009571087 -0.0021293815 -0.014797337 0.017805101
0.010920863 -0.013844815 0.0052223154 0.0018432434 0.002054186 -0.007823814 -0.00054244883 0.020494418

gnn_base.gnn.embed_layer.lin2.0.2.weight f4 [16]
00000000: ed33 803f 32d6 7e3f 7b06 7b3f b77c 7d3f
00000010: 2e45 7e3f 0bc8 813f b051 833f d2b3 823f
00000020: f34c 813f 408a 863f 8337 823f c1f1 7b3f
00000030: b948 803f 6c39 803f ac5b 823f 2f5d 833f
1.0015846 0.99545586 0.98056763 0.99018425 0.9932431 1.0139173 1.0259304 1.0211127
1.0101608 1.051094 1.0173191 0.9841576 1.0022193 1.0017524 1.0184226 1.0262812

gnn_base.gnn.embed_layer.lin2.0.2.bias f4 [16]
00000000: a6ce 4f3c 1a35 02b9 9bbf 07bc df0d 63ba
00000010: 9a21 893b e421 febb d103 aebc 098f 893b
00000020: 0c28 f63b 21cb aabc c394 1ebc e044 7636
00000030: 5c22 83bb b167 9bbb 5939 9dbc 7a66 c63c
0.012683546 -0.00012417548 -0.008285428 -0.000866143 0.004184914 -0.007755505 -0.021242054 0.0041979593
0.007512098 -0.020848813 -0.009679022 3.6696947e-06 -0.0040018987 -0.0047425856 -0.019192385 0.024218787

gnn_base.gnn.gnn1.lin_key.weight f4 [48, 16]
00000000: 1c4f 8f3d cec1 c3bd 6744 fcbd 7ad1 033b
00000010: a9d7 32be 72b3 533e d356 3d3e d260 713e
00000020: 5ea2 78bd a1a7 c03d 7a7f df3c 84aa 4fbe
00000030: b7db cc3d 9cce 3ebe 0e6b 6ebd 4cab e5bd
00000040: 2415 8abe df6a f03b 0521 0e3d cd22 a3bc
00000050: 5d48 403e e293 fc3c 07de 4cbc 5ac3 f1bd
00000060: 95a9 1bbe f322 24bd 4330 0bbe bb37 10be
00000070: edb8 01bd 28af 58bd 84b5 1fbe 591f 193e
00000080: 2a43 6d3e 4a00 1dbe d0ae 093e ced9 e0bd
00000090: ed33 b6bc 06b5 5f3e 03b0 3b3d c495 82be
000000a0: 95ac 613e ccd3 b53c 4b3a 08be e167 07be
000000b0: 387c 5a3e 9bce 4a3a 44e4 103e eac0 0e3e
000000c0: d17f e4bd b2d0 6f3d df07 1abe ce25 6f3e
000000d0: 2153 e3bd 62e8 063e 5d6f ec3c 87fa 203e
000000e0: 9449 21be 8064 90bc 3f6d ca3d 4936 8dbc
000000f0: e22f a93c 237d f53d bcb4 54be df3a 8bbd
00000100: 48d2 d23d 85c8 023e 3f79 743e 305b 23bd
00000110: ad36 b43d 55a8 0ebe 86e5 0abd 9476 ddbd
00000120: 65f5 3a3e 1c4e 5ebc 3c9b e93d b234 153e
00000130: 9bc5 7e3d 256c a4bc ec08 17bc f1d6 62be
00000140: f978 2c3d 4e17 8abd 96b8 5fbe bfc9 743e
00000150: eae3 8abc 74b9 f1bd ab31 5abe b0d2 6bbe
00000160: e5da 903d 1d65 dbbd c3c6 8cbd 7896 12be
00000170: 81a5 453e 61eb a3bd 56a8 433e ca3f 4b3e
00000180: c947 4abe cc0d 373e 7b50 0ebd 74db 753e
00000190: b531 0d3e 8467 72be 922e af3d 3e36 c23d
000001a0: 0c3c cfbd 7bb0 4b3e 4203 39be 3f01 6abd
000001b0: 5b32 663e a42c 5b3e 8b23 153e 9ce3 25be
000001c0: bad5 5abe 0557 5ebe 201b 8abd 3f33 083e
000001d0: 11f0 803d 7cdc 87bc 2d7f 863e e9c2 533e
000001e0: e920 10be ccf1 c1bd e194 df3c 3746 8e3d
000001f0: ef4f 50ba 5140 b73d 9486 4b3e 00b8 1cbd
00000200: 79bc 013e 1c31 e93b 4d72 b43d c990 d13d
00000210: c1bf 8bbd e5ca cabd b718 0e3e 8672 19be
00000220: 05d0 eb3d 93b0 24be 18b6 563e f701 d03d
00000230: 504f 9fbd 8149 e93d 75b1 4bbd bb13 733d
00000240: 33d6 9e3d 5c4a 2c3d 1a88 243d 17be 11bc
00000250: b6cc 8abd 6113 0c3e 983f 6c3d c99b 9d3d
00000260: e1bb 333e e70f 05be 3791 b6bd de6e cfbc
00000270: 79c6 653e e9fd 36be 81aa 30be c47f 3abd
00000280: b19c 6abe 4b49 45be 93d5 1a3e c06f ab3c
00000290: f91e 5ebe dcdd 3ebd 5adf 69bd f2eb a2bd
000002a0: d873 41be 9754 083e 6ce6 25bd 16bf 5d3e
000002b0: f45b 2bbe c81c 0fbe cafb 0dbd a849 16be
000002c0: 08e6 1b3e 9cd1 633e f9cc 653e 0eb9 10be
000002d0: 2db0 2f3e 37a4 1e3e 7539 10be d313 f03c
000002e0: cfe7 183e 1b76 2a3e 2071 86be 37b5 753e
000002f0: 914a 4bbd ae85 ec3d 4914 44be f5b8 4ebe
00000300: 1817 31be 34e6 0c3e 1de4 ddbd 4ad1 173e
00000310: cc61 a13d 359b d43d 46df 36bc c1c1 91bd
00000320: 1008 01be 73bf 07be 6ffe 833e 0e76 1c3c
00000330: 23ec 01be 2753 82be 5a45 103d c17a 87be
00000340: 5657 74bc a6cb 2b3e 0a68 f6bd c9ca 0d3e
00000350: 6d80 a7bd 6a78 51be 2a6e 66be b1aa ec3d
00000360: 7c8a 36be bf32 0e3e cafe 2d3d e7bf 223e
00000370: 473d 48be ebc9 423e edde 76be e6d3 5cbe
00000380: ca05 253e 4bc2 57bc 12ad 17be f597 74bd
00000390: 8119 73be 7e81 47be d0a6 9cbc 1f23 483e
000003a0: 5ebf 5c3d b975 6c3d 513d 33bd 78c3 663e
000003b0: e20a 78bc 5482 903d faf6 e63c abe3 6e3d
000003c0: 8941 923d dcd1 633e 815a 1c3e 4c1f 443d
000003d0: 654b ca3d 81a5 d9bd 8700 033e 2f56 923d
000003e0: 4da3 5c3e 605f 40bd a866 7ebe bd79 093d
000003f0: 9e4b 033e 1280 603e a99a 793d 65e1 ab3d
0.06997511 -0.0955845 -0.12317734 0.0020113871 -0.1746508 0.20673922 0.18490152 0.2357209
-0.06070172 0.09406973 0.027282465 -0.2027989 0.10002845 -0.18633503 -0.058207564 -0.11214313
-0.26969254 0.007336959 0.03469946 -0.019914055 0.18777604 0.030832235 -0.012504107 -0.118048385
-0.15201409 -0.040072393 -0.13592629 -0.1408376 -0.0316705 -0.052901417 -0.15596586 0.14953364
0.23170152 -0.15332142 0.13445592 -0.10979043 -0.022241557 0.21846399 0.045822155 -0.25504887
0.22038491 0.02219572 -0.13303487 -0.1322322 0.21336448 0.0007736475 0.14149576 0.13940778
-0.111571915 0.058548637 -0.15042065 0.23354265 -0.1109984 0.13174585 0.028861696 0.15720569
-0.15750724 -0.017626047 0.09884118 -0.0172378 0.020652715 0.119867586 -0.2077207 -0.06798338
0.10294014 0.12771805 0.23874377 -0.039881885 0.08799491 -0.13931401 -0.033910297 -0.108136326
0.18257673 -0.013568427 0.11406562 0.14570883 0.06220017 -0.020071099 -0.009218436 -0.22152306
0.042107556 -0.06742726 -0.21847758 0.23905085 -0.016954381 -0.118029505 -0.2130801 -0.2302959
0.07073001 -0.10712645 -0.06873848 -0.14315212 0.19301416 -0.08003879 0.19107184 0.19848552
-0.19753946 0.17876357 -0.03474472 0.24009496 0.13788493 -0.236723 0.085538045 0.09483002
-0.10118875 0.1989154 -0.18067649 -0.057130095 0.22480147 0.21403748 0.1456434 -0.16200107
-0.21370593 -0.21712883 -0.06743455 0.13300799 0.06295789 -0.016584627 0.26268902 0.20679821
-0.14075054 -0.09469947 0.02729267 0.06946986 -0.00079464813 0.08947814 0.19875556 -0.038261414
0.12669553 0.00711645 0.08810864 0.10232694 -0.068236835 -0.0990198 0.13876615 -0.14985093
0.11514286 -0.16082983 0.20967901 0.10156625 -0.077787995 0.11390973 -0.049729783 0.05934499
0.07755699 0.042063102 0.04016886 -0.008895419 -0.06777327 0.13679267 0.057677835 0.07695729
0.17552139 -0.12994348 -0.08914416 -0.02532142 0.22438993 -0.17870297 -0.17252542 -0.045532003
-0.22911336 -0.1926624 0.15120535 0.02092731 -0.21691503 -0.0465983 -0.05709777 -0.07955159
-0.18891847 0.13313518 -0.04050295 0.21654925 -0.16734296 -0.13975823 -0.034663953 -0.14676535
0.15224469 0.22247928 0.22441472 -0.14133093 0.1715705 0.1549233 -0.14084418 0.029306328
0.14932178 0.16646616 -0.26258183 0.23994909 -0.04963166 0.11548935 -0.19148363 -0.20187743
-0.17293966 0.1375969 -0.10834525 0.14825931 0.078799814 0.10381166 -0.011161631 -0.07117034
-0.12600732 -0.13256626 0.25780055 0.009549631 -0.12687735 -0.25454065 0.03522239 -0.2646084
-0.014913401 0.16776904 -0.120315626 0.13846888 -0.08178792 -0.2045609 -0.22502962 0.11555994
-0.17826265 0.13886546 0.042479314 0.15893517 -0.19554625 0.19022338 -0.24108477 -0.21565208
0.1611549 -0.013168882 -0.14812115 -0.05971523 -0.23740198 -0.19482991 -0.019122511 0.19544648
0.05389344 0.057729457 -0.043759648 0.22535503 -0.015139313 0.07056108 0.02819394 0.05832259
0.07141406 0.22248024 0.152689 0.04788141 0.098776616 -0.106272705 0.1279317 0.071453445
0.2154667 -0.046965957 -0.24843848 0.033563364 0.12821814 0.21923855 0.06093851 0.083926

gnn_base.gnn.gnn1.lin_key.bias f4 [48]
00000000: 14ad da3d 70e7 983d 5cce 0b3e c0b8 4dbe
00000010: 4c43 9e3d b274 72be c45c 28be 84cc bebd
00000020: 1289 c7bc a296 71be 3ae0 cb3b 007d 233d
00000030: 0832 cbbd a011 a63d e2b2 5f3e 08ea 2ebd
00000040: 1257 08be a6c5 62be 92ee 3abe 2497 0dbe
00000050: 1441 3dbe 004b c9bd ca06 0d3e 5437 a03d
00000060: 2cbd 663e 362b 7e3e ec5f b8bd 4c82 c8bd
00000070: 1821 0c3d 26d9 4bbe 463e 0b3e 204c 38bd
00000080: 305b 56be 7a46 41be c866 30be 6cb9 8c3d
00000090: f63d 443e 12d1 4a3e 54fb 8cbd fab2 14be
000000a0: 543e e3bd eae0 2ebe 3401 84bd 5434 67be
000000b0: d4d4 083e 2cf2 70be f83e 1fbe 3acd 2b3e
0.10677543 0.07466018 0.13652939 -0.20090008 0.077276796 -0.23677328 -0.16441637 -0.09316352
-0.024357352 -0.23592618 0.0062217982 0.03991413 -0.09921652 0.081088305 0.21845582 -0.04270366
-0.13314465 -0.2214571 -0.1825507 -0.13827187 -0.18481857 -0.09828758 0.13772121 0.07823053
0.22533101 0.24821171 -0.09002671 -0.09790477 0.03421125 -0.19907054 0.13597974 -0.044994473
-0.20933223 -0.18874541 -0.17226708 0.06871304 0.19164261 0.19806316 -0.068838745 -0.14521399
-0.110958725 -0.17077985 -0.06445542 -0.22578555 0.13362437 -0.23529881 -0.15551364 0.16777506

gnn_base.gnn.gnn1.lin_query.weight f4 [48, 16]
00000000: 30cd 42be 17a8 6a3d 3b54 1d3e 01d6 803e
00000010: 40dd bb3d 863f 0abd 828d 2c3e eea6 61bc
00000020: 2ab5 c1bd 2888 353d e4db 923d ca30 2d3e
00000030: 7ba0 de3d 0dbb 0c3e 782b 673c 216e 29bc
00000040: 92f8 c03d 71f3 5a3d 05fb 76be 6efa 0b3d
00000050: 8894 0abe 9ffa 03be fe6d b13d be3a 7e3d
00000060: 9444 5e3d d4aa e4bd 9140 d83d 3585 643e
00000070: b521 e53c eaec d43d ad95 73be 7f8e 323e
00000080: d5a8 a13d 9b58 d83d eb60 fe3d 561d 9abd
00000090: a38e debb 02ac 813e 0f86 373e 3519 2dbe
000000a0: eb21 533e c50a 743e 5383 bd3c ccec 48be
000000b0: d40b bc3c 148f 14bd 54d6 2c3e 240c 64be
000000c0: f73c 603d 7c92 b2bb 15c5 473c 9ad1 373e
000000d0: 557c c5bc d8d0 50be f6ed 0fbe 7391 ddbd
000000e0: 2d43 d83c 293d eb3d e20a 33bd 8a27 babd
000000f0: d1b8 b83d 782d 74be 47fe 393e 74c4 acbc
00000100: 1df2 473e 7280 4f3e f1c6 133d 7c81 ad3d
00000110: f55b d2bd dbd9 1c3e 6b77 123e a3b4 37bd
00000120: dd74 d03d 31be 08bd 4f46 453e f697 d63d
00000130: 2d7d 4a3e 5e6a 7cbe 92e6 813e 7d50 873d
00000140: bfb3 c03d 799a 373d bf81 453e 675e 5b3e
00000150: f297 d3ba a035 64be 672f 493e b557 62bc
00000160: abbf c6bd 7b3e e33d 27ef d23d 42b1 643d
00000170: 3418 b7bc c52a b7bd 23ae 7c3e 8fc8 253e
00000180: a581 1a3e 724a 263e 3c04 0fbe f10e 683d
00000190: 6960 43be 16c5 ed3d 9b32 82be 41ea 7ebe
000001a0: 3c25 6fbe 7308 1d3e 32f8 323c 6492 fc3a
000001b0: f7c1 5f3d 5b7d 02be 3e45 9abd 1af0 49be
000001c0: e0e1 7cbd 0304 1abe 2731 f1bc 0ad2 543e
000001d0: 2653 75be d5ae 1a3e bc0e 15be 83b3 12be
000001e0: 24c5 753b 21a7 aa3d 79fc 853e 3182 eb3b
000001f0: 1b27 cabd 4d3b 8dbd 4e61 e33b e700 28be
00000200: bcf6 42be a592 f3bd c218 b83c bc30 3abe
00000210: 49df 00be fa62 393e 2025 5e3e 091f 78bd
00000220: ead0 59be 62f0 edbd f255 bc3d 3605 c43d
00000230: d9b5 9ebd ed43 56be 4f86 8bbd 1bff 84bd
00000240: b28d 163e 7653 efbd 1dca 153e afe5 153d
00000250: b3ca a6bc 15b7 70be 33e2 723e 1975 bbbc
00000260: 3856 2d3e c62d 22be 8308 84be c773 4abe
00000270: fccf d2bd 3018 e8bd 3ffe 0cbd e91d 4a3e
00000280: ab26 5bbe f281 133e 0de6 423e 8d77 9d3c
00000290: 6752 34be 86c9 573c b96a c23d 9bdc 9d3d
000002a0: 11ed d3bd a277 2cbd 6cb9 acbd 1055 87be
000002b0: adc0 b93d 3a51 20be 7765 ffbd ecbf afbc
000002c0: d73f 5e3e 6f51 6a3e 217d 32be 6be9 603e
000002d0: 7875 863e e35e 353e ec53 443c ea97 473e
000002e0: d50b 123e 743b 4cbe 9833 19be 2bd8 b03a
000002f0: b48c 26be 23af d2bd 89b5 483e 26d2 c33d
00000300: 0dce 793e 3dde be3c 13a2 13be cf25 393e
00000310: 438d c23c bb96 e43c bf73 adbd 2c12 953d
00000320: 3505 5dbe 1156 583e 7421 813e 9776 ae3d
00000330: 8332 583e ac3e 103e 295b 93bd c73a 6cbe
00000340: b2eb 223d ddd7 1b3e 8025 14bd bc8c d53c
00000350: aea1 473e b6f0 b03d 9fb3 303e 5eee 133d
00000360: 5f9d 2f3d 977e 7dbd a28a 71bd 400c 05be
00000370: c0e3 3f3e 1fc2 5e3e 8929 bc3d 404d c9bc
00000380: 3adb d5bd fc52 82be aae5 20bd 1537 3bbe
00000390: f3ca 31be 82d6 48bd 8952 89bd c367 a33d
000003a0: f63f 2abe 4725 1f3e 813a 7dbe 4e71 d6bd
000003b0: 96f4 bbbd b0e3 133b bbbe d93d 9bd1 90bd
000003c0: 3ee2 1e3d c754 81bd c5da babd bc45 24bd
000003d0: 6a81 a73d c7f7 86be 833c 47be 9e6c 5e3e
000003e0: a1f4 0a3e 47ff 0fbd 77c5 8bbc 881b 183d
000003f0: c144 a53d 04e3 52be 1c0e 88bd 2661 7cbe
-0.19023585 0.05728921 0.15364163 0.25163272 0.091730595 -0.033751987 0.16850856 -0.013772709
-0.094583824 0.0443193 0.07170847 0.16913143 0.10870453 0.13743229 0.014109485 -0.010341198
0.09422411 0.05345482 -0.24119194 0.034174375 -0.13533223 -0.12888573 0.086635575 0.06206774
0.05426462 -0.111653954 0.1055919 0.2231644 0.027970174 0.1039675 -0.23787566 0.1743717
0.0789353 0.10563775 0.124208294 -0.07525127 -0.006791906 0.25326544 0.17922233 -0.16904147
0.20618407 0.23832233 0.02313391 -0.19621581 0.022954859 -0.036269262 0.16878635 -0.22270256
0.05474564 -0.005449591 0.012192984 0.1795105 -0.024107138 -0.20392168 -0.14055619 -0.10818758
0.02639922 0.11486275 -0.04371155 -0.09089573 0.09019626 -0.2384547 0.18163405 -0.02108977
0.19525953 0.20263842 0.036078397 0.08471963 -0.10271446 0.1531748 0.14303367 -0.044850003
0.1017854 -0.033384506 0.19265102 0.10478203 0.19774313 -0.24649951 0.25371224 0.06607149
0.09409284 0.04482505 0.19287775 0.2142273 -0.0016143306 -0.22286081 0.19646989 -0.013814856
-0.097045265 0.110959016 0.10299521 0.05583311 -0.022350408 -0.089437045 0.24675803 0.16189788
0.15088518 0.16239336 -0.13966459 0.056654874 -0.19079746 0.11609857 -0.25429234 -0.24894048
-0.23354048 0.15335254 0.010923432 0.0019269702 0.05462834 -0.12743132 -0.07532738 -0.19720498
-0.06173885 -0.15040593 -0.029442383 0.20783249 -0.239575 0.15105756 -0.14556402 -0.14326291
0.0037501538 0.083326586 0.26169184 0.007187151 -0.0987074 -0.06896076 0.00693909 -0.16406594
-0.19039434 -0.118932046 0.022472743 -0.18182653 -0.12585177 0.18104163 0.2169385 -0.060576472
-0.212711 -0.11618115 0.0919608 0.095713064 -0.077495284 -0.20924349 -0.06812727 -0.0649397
0.1470249 -0.11685841 0.14627881 0.036595996 -0.020360326 -0.2350734 0.237191 -0.022882985
0.16927421 -0.15837774 -0.25787744 -0.19770728 -0.10293576 -0.113327384 -0.034422155 0.19737972
-0.2140147 0.14405039 0.1903307 0.019222045 -0.17609559 0.0131706055 0.09493012 0.07708093
-0.10347951 -0.04210628 -0.08433804 -0.26432085 0.09069953 -0.15655985 -0.12470525 -0.02145382
0.2170404 0.22882627 -0.17430545 0.21964042 0.26261497 0.17711978 0.011982899 0.19491544
0.14262326 -0.19944555 -0.14961088 0.0013492157 -0.16264611 -0.10287311 0.196005 0.09561567
0.24395008 0.02329933 -0.14417295 0.18080829 0.023749 0.027903905 -0.084693424 0.07278857
-0.21584018 0.21126582 0.25220835 0.08518713 0.21113019 0.14086407 -0.07195122 -0.23069297
0.039775558 0.15219064 -0.036168575 0.026068084 0.1949527 0.08639662 0.1725602 0.036115997
0.04287469 -0.061888304 -0.0589701 -0.12992954 0.18739223 0.21753739 0.0918761 -0.024572968
-0.10442205 -0.25453937 -0.039281525 -0.18282731 -0.17362575 -0.049032696 -0.067051955 0.07978775
-0.16625962 0.15541564 -0.24729349 -0.1047083 -0.091775104 0.0022566132 0.10632082 -0.07071229
0.03878998 -0.06314998 -0.09123758 -0.040105566 0.08178981 -0.26360914 -0.19456677 0.21721122
0.13569881 -0.03515556 -0.017061932 0.03713563 0.080697544 -0.20594412 -0.06643316 -0.24646434

gnn_base.gnn.gnn1.lin_query.bias f4 [48]
00000000: 0136 993d 0591 7a3d dd9a 64be 4bf3 c63d
00000010: 22ed a4bd c003 8e3e 4ded 803e 2ea6 5b3d
00000020: 50fc 4a3e c6d6 b83d fbff 4f3e 63ba a8bc
00000030: d285 033d 141b 0ebd 4cd4 b93a 1d94 85bd
00000040: 9d30 b6bd 22eb 073e b2a9 ce3d 2ad2 dabd
00000050: c026 75be b548 c83d 50af 67be 3d24 a8bb
00000060: b1c5 5ebe 337e 4f3e 83c8 403e 8c73 5ebe
00000070: 0384 73be f701 08be 5700 8b3d 3bda 09be
00000080: 4e83 47bd a562 acbd 0f6e 2c3d baa9 d1bd
00000090: aae2 ca3d 9721 48be 3dac 813a 6ffd 583e
000000a0: 070f 06be 1132 473e d0cd 063e b456 bcbd
000000b0: d22c ad3d 8c87 31be 00b0 2d3b bbab 693d
0.074810036 0.061173458 -0.223247 0.09714373 -0.08053042 0.27737236 0.25181046 0.05362528
0.19822812 0.0902534 0.20312493 -0.020596689 0.032110043 -0.034693792 0.0014177649 -0.06522391
-0.08895991 0.1327329 0.100909606 -0.10684617 -0.23940563 0.09779493 -0.2262547 -0.005131273
-0.21755101 0.20262985 0.18826489 -0.21723765 -0.23780827 -0.13282 0.06787174 -0.13462155
-0.048709206 -0.084172525 0.042097148 -0.10237451 0.09906514 -0.19544064 0.000989325 0.21190427
-0.1309167 0.19452693 0.13164449 -0.09196225 0.084558144 -0.17336863 0.002650261 0.05704854

gnn_base.gnn.gnn1.lin_value.weight f4 [48, 16]
00000000: cf42 583e 0774 15be db79 1cbe c2e4 07be
00000010: 3d37 80be 7e9d 983d 4c52 61be b0e3 38bd
00000020: 98b4 e3bd cae8 d0bb da01 983d 7282 61be
00000030: 63b3 eabc 8ec4 53bc f361 2cbe c1f6 c93d
00000040: a510 d43d 1fd5 4abe 0e45 4c3e 9090 333e
00000050: c0e7 b8bd 8b2c 193d 3c5a 003d 7742 18bd
00000060: 5db3 32be 95be 5c3e 9fc9 013e f7dd 42be
00000070: 89e4 4bbe 3310 783e c211 613d 322e 62bd
00000080: 5c7d 253e 0cfc a13d 8164 aa3d 3e40 513e
00000090: 361f 81bc 3f43 8e3e 8883 1bbe f1a0 25be
000000a0: 443b 7a3c e59a 9dbc a71f 213e 5d56 5abd
000000b0: 59dc c43c 24d5 b6bc be97 213e f2ef 29bc
000000c0: 1526 413b 2532 443e 4776 893e 61e1 6a3e
000000d0: c621 88be 51de 27be 3b6f 70bd 2613 33bd
000000e0: 208a 1d3e cb4b 003e 5900 1dbd 5a3c 073d
000000f0: 7724 423d 6210 3e3e 4cf4 1f3e a8d8 1fbe
00000100: 9a0f 0abe ff05 813d f971 cebc dda7 39be
00000110: 9985 70be 39ac 0b3d ff81 babd 2203 10be
00000120: ee93 3a3d 1b84 813e 5c9c 4e3e 89ea 143e
00000130: b2e4 47be bee3 1a3e dd69 043e 8c6c ab3d
00000140: 817e 76bd ef2c bfbc de37 fbbd 35b8 81bd
00000150: 6f73 cfbc 4f43 6ebd f633 86be 2d36 bf3d
00000160: f3c5 4abe ac3e 50be 25e5 b63d 479f 48be
00000170: 9382 733e 2d94 603e 0e50 8bbd 2315 cfbc
00000180: 43d2 40be 4efd 433c 4ade 5c3d a096 05be
00000190: 4e53 903d e1b8 60b9 63e4 8ebd 6586 50bb
000001a0: 01d6 7bbe e920 43be 30fd 333d 9e24 703e
000001b0: a7d0 07be 261f 273e b9e2 e23c e7b4 eabd
000001c0: 19b1 20bc 9487 083e 9b4b e93c 4751 6d3e
000001d0: 49eb adbc f917 51be 7d0f 593e 6106 87bd
000001e0: 0230 3d3e b2f4 223e a475 a33c 2486 61be
000001f0: 8dfd 73be 18e5 bb3d 84da 703d 3a41 0a3e
00000200: 8ec4 50be 608e 24bd 15fa 643e d019 cd3d
00000210: 8fc5 543e 913c 503e 6811 39bd 9141 3dbe
00000220: ac8a 25be 1761 aa3d 9349 afbd 4dd3 a23c
00000230: bdec f13c dbea 2c3e bc7b 1e3e e03b fe3d
00000240: 78c8 3f3c 1514 033e 1973 02be d767 d7bd
00000250: 62c7 41bd 1048 11be 5849 643e 78bf c0bc
00000260: ff4b 963d 12c9 6abc bf7d 4fbc da60 f8bd
00000270: 5e6b 5a3c b832 73be 108b e7bd 4b87 4e3e
00000280: f2a8 63be f3d3 593d b486 123d 2448 7abe
00000290: d28e 5e3d f44f cd3d f619 483e bd75 573d
000002a0: 08fa 463e 9341 98bc 7d07 db3d 4849 7b3d
000002b0: e118 3abe f1c8 6fbd 4eec 20be 17e7 553e
000002c0: ef7c dd3d e1ce cebd 2849 81bd 59fe 833d
000002d0: 10ed 6ebe ad35 8c3c 5860 153e e167 2f3d
000002e0: 4d4e 31bd fb98 413e 8a8a 023e 58ce 44be
000002f0: ad22 153e 1060 39be 5bc8 063e 6460 493e
00000300: e5b8 373d 7aa7 a2bd 29ad c3bd c901 03be
00000310: 2d2c f2bc e17f 08be af6c 7c3e 7687 03be
00000320: cc38 e83d b81b 66be 2181 ef3d 6930 573e
00000330: ecc0 3bbe 4d0d a6bd dc15 af3d 0c86 8cbe
00000340: 2d97 0ebe 2daf a13d 99b2 673e 64c9 b0bd
00000350: bfef b1bc d92c 82be 47b2 75be 8bd1 543e
00000360: 6886 593e 3765 99bd 14bf cabd 09d2 d0bb
00000370: cfdb e93d 6b81 68be 262c f5bd cf72 93bd
00000380: fb24 f0bd b433 6c3c d02f 263e 60a3 ab3d
00000390: 4369 80be fdba 803e 16ff 5c3e 3e8c b73d
000003a0: e1dd d83d 4cc3 e53d 734a 643e eea1 89be
000003b0: d1c7 14be 0404 ecbb 940e a8bd 9232 19be
000003c0: 4233 6dbe 68de 59be 1e98 46bd 8bc9 513e
000003d0: f945 243e 29cc a13d 1f92 1fbe 8f8d dbbd
000003e0: 46b5 bf3c ce96 69be a7b6 04bc 6a72 593d
000003f0: c505 603e ae6e 51bd 5631 803e 7ccb 193d
0.21119235 -0.14595042 -0.15280859 -0.13270858 -0.25042143 0.07451914 -0.2200405 -0.045139015
-0.1111843 -0.006375407 0.07422228 -0.22022417 -0.028649991 -0.01292528 -0.1683424 0.09861518
0.10354737 -0.19807862 0.19948217 0.17535615 -0.09028578 0.037395995 0.031336054 -0.03717276
-0.17451234 0.21557076 0.12674569 -0.19029985 -0.19911398 0.2422493 0.054948576 -0.055219837
0.16161102 0.07909402 0.08319951 0.20434663 -0.015761953 0.2778568 -0.15186894 -0.16174676
0.015272919 -0.019238899 0.1573473 -0.05330502 0.024030851 -0.02231843 0.15780541 -0.010372149
0.0029472162 0.19159754 0.2684805 0.22937538 -0.26588267 -0.163934 -0.058699828 -0.043719433
0.15384722 0.12528913 -0.03833041 0.03301654 0.047398057 0.18560937 0.15620536 -0.15609992
-0.13482514 0.06299972 -0.02520083 -0.18130441 -0.23488463 0.03409979 -0.09106826 -0.14063695
0.045551233 0.252961 0.20176834 0.14542593 -0.19520834 0.15125939 0.12931009 0.08370313
-0.060179237 -0.023336856 -0.12266515 -0.06333963 -0.025323598 -0.05816966 -0.26211518 0.09336505
-0.19802074 -0.20336407 0.089304246 -0.1959201 0.23780279 0.21931525 -0.068023786 -0.025278633
-0.18830208 0.011962248 0.05392293 -0.1304574 0.07047139 -0.00021431177 -0.06977155 -0.0031818387
-0.24593355 -0.19055523 0.04394263 0.23451468 -0.13263188 0.16320476 0.027696 -0.11460286
-0.009807848 0.13332969 0.028478434 0.23175536 -0.021230357 -0.20419301 0.21197315 -0.065930136
0.18475345 0.15913656 0.019953556 -0.22023827 -0.2382719 0.091745555 0.058802143 0.13501444
-0.2038748 -0.040174842 0.22361024 0.10014689 0.20778488 0.20335604 -0.045182616 -0.18482043
-0.1616618 0.083193 -0.08558955 0.019876147 0.02953183 0.16886465 0.15476888 0.12413764
0.01170551 0.1280063 -0.12739219 -0.10517853 -0.047309287 -0.14187646 0.22293603 -0.0235288
0.07338714 -0.014330165 -0.012664258 -0.12127848 0.013331262 -0.23749816 -0.11305821 0.20168798
-0.22232416 0.053180646 0.035772994 -0.24441582 0.054335423 0.100250155 0.19541153 0.05260252
0.19431317 -0.018585956 0.10694788 0.061349183 -0.18173553 -0.058541242 -0.15715143 0.20888935
0.10814845 -0.10098053 -0.063127816 0.06444997 -0.2333262 0.017115438 0.14587533 0.042823676
-0.043287564 0.18906014 0.12748161 -0.19219339 0.14564009 -0.18103051 0.13162367 0.19665676
0.044854064 -0.079421 -0.09554512 -0.1279365 -0.02956208 -0.13330032 0.24650835 -0.12844643
0.11338958 -0.22471511 0.11694551 0.21014561 -0.18335313 -0.08108006 0.08549091 -0.2744602
-0.13924856 0.0789474 0.22626723 -0.08632162 -0.021720765 -0.2542484 -0.23993789 0.2078306
0.21242678 -0.07490008 -0.098997265 -0.0063726944 0.11418878 -0.22705619 -0.11971311 -0.071996324
-0.117258035 0.014416624 0.16229177 0.08380771 -0.25080308 0.2514266 0.21581683 0.08962296
0.10589195 0.112188905 0.22294025 -0.26881355 -0.14529349 -0.007202627 -0.082059056 -0.14960697
-0.23164085 -0.21276248 -0.048484914 0.20487039 0.16042317 0.079002686 -0.15583085 -0.107203595
0.023401868 -0.22811434 -0.008100188 0.05308763 0.21877201 -0.051130943 0.2503764 0.037547573

gnn_base.gnn.gnn1.lin_value.bias f4 [48]
00000000: ecd4 54be fdec 153e 1465 89be ad81 66be
00000010: 0786 e2bd cced 6ebe 5cdf b6bc 7733 5f3e
00000020: e9ee b4bd d5fd 40be 4cae 73bc db1c 5fbe
00000030: 783b 303e 6b4c 0c3d 489c 573e 1e8a cf3d
00000040: 790f c83d 642f 9d3d 0f5f 563e bffe 0abe
00000050: 0495 0abe 9ccc 4a3e ab97 ab3d 4939 7b3e
00000060: d8e2 203d 99aa bb3d 4d92 243e 630d 183e
00000070: 5106 0f3e bab1 4abe d7af 7a3d 5605 34be
00000080: 3b26 263d bd79 043e 73f8 d9bd 1143 733e
00000090: b4e5 753e c53c 9f3d 6c4e 40be 7586 ae3c
000000a0: 23be 333e 9284 3c3d 07d0 653e 6064 713b
000000b0: ae03 e8bd e21d 253e 2191 923d 3283 083e
-0.20784348 0.14641185 -0.2683493 -0.22510405 -0.1106072 -0.233329 -0.022323303 0.21796976
-0.08834631 -0.18846829 -0.014873099 -0.21788351 0.17210186 0.034252565 0.2105571 0.10133766
0.09768576 0.07675055 0.209347 -0.1357374 -0.13533407 0.19804615 0.08378538 0.24533571
0.039278835 0.09163398 0.16071434 0.14848857 0.13967253 -0.1979436 0.06120285 -0.1758016
0.040563803 0.12937064 -0.10643091 0.23756053 0.24013406 0.07775263 -0.18779916 0.021304348
0.17553 0.046024866 0.22442637 0.003683351 -0.11328827 0.1612468 0.071565874 0.13331297

gnn_base.gnn.gnn1.lin_edge.weight f4 [48, 1]
00000000: 2127 17bf ed32 43bf 6eb3 253f d1d8 bc3e
00000010: d6f1 403f f23b 52bf 64ef f0be 7030 95bc
00000020: a431 0abf 74e2 203f 5161 503f a9a6 5b3f
00000030: a976 043e 2ded 69bf de30 c0be 6f42 6c3e
00000040: 2271 8abe bab5 da3e 4813 98be 55ee 553f
00000050: 081b 643f 9a96 7f3f 3ce3 a63e 56fc 27bf
00000060: b25d 89be 9058 08bf 5d1f e83e d916 e8bd
00000070: d1cd c83e f6c5 923e 0a4c a0be 1f71 0f3e
00000080: 0ea7 18be 5492 2a3e f9e8 2fbf 009f 243d
00000090: 87e2 463f ff07 053f 975d 21bf fb29 593f
000000a0: ca23 cbbe bdce 643f 3424 44be 9d5a 723f
000000b0: c6a7 163f 51f8 b4bd 4e12 2a3f 883d 583f
-0.5904408 -0.7624958 0.6472691 0.36884168 0.7536901 -0.8212272 -0.4705764 -0.018211573
-0.53981996 0.6284554 0.81398493 0.8580118 0.1293589 -0.91377527 -0.37537283 0.23072217
-0.27039438 0.4271677 -0.2970221 0.8356679 0.89103746 0.99839175 0.3259524 -0.6561941
-0.26829296 -0.53260136 0.45336428 -0.11332483 0.39219525 0.28666657 -0.31308013 0.14007996
-0.14907476 0.16657382 -0.68714863 0.040190697 0.77689403 0.51965326 -0.6303343 0.8482968
-0.39675742 0.8937796 -0.19154435 0.94669515 0.5884975 -0.08836425 0.6643418 0.8446889

gnn_base.gnn.gnn1.lin_skip.weight f4 [16, 16]
00000000: 3ea1 5dbe 4504 2a3d 5fe6 213e aa67 98bc
00000010: 325d 033e 9aaa 593e d258 54be 81c6 1e3e
00000020: d5e7 64be f554 393e d1fa 16be ef23 a3bd
00000030: 7c1a a53d f935 57be 8e74 74bd acaa 90bd
00000040: ae62 983d e518 dbbc 8587 71be 012d 8bbd
00000050: 6bdf 383d 7b41 0a3e 5158 12be 2317 0abe
00000060: d4e3 dd3d 9af6 02be b00c cebd fe92 7bbe
00000070: c792 2fbd c75f 4fbe 7f81 293d ed3a 4c3e
00000080: 9264 f83d 5189 3dbe 5d6e 633e 17ab 5fbe
00000090: e15d fbbd 9c66 203e 05dd ff3d 550a c43d
000000a0: 5910 bdbd 3ed5 67be ef42 5cbe e20d cc3a
000000b0: cfa9 60be 15f0 1cbe b20a 293e 1442 b8bb
000000c0: e1bd df3d 1f64 53be 8f55 b23d 9109 4e3e
000000d0: cde2 893d b798 7d3c 7832 29be d0fa 36be
000000e0: d382 313e 975e 88be 40db 4dbd 114f 2ebe
000000f0: 27ee fd3b 7254 8bbe 2144 f13d db3a 29bd
00000100: 0893 12be ba89 bfbd 4ecf b4bd 54f7 00be
00000110: f4be a4bd 8ed3 303d 9c7e 24be 0d91 7c3d
00000120: 79ce 5bbe 21de 773e be9d 1ebe f2db 983d
00000130: 99d8 2fbe 8ed6 37be 222c cebb e664 04be
00000140: e42f 9cbd a156 e5bd 7554 9cbd 6288 45be
00000150: a812 773e 1c92 1b3e 17e9 cbbd 34a5 3c3e
00000160: 8e23 cfbd 1fa1 56be 34c8 8d3d 82f3 abbd
00000170: 3ebc 463e 8250 83bd d4bd 59be d8ff 5d3e
00000180: 53f7 553d c189 993d da2a 0abd 6962 47be
00000190: 496c 923d a85b b9bb 5801 32be 84f7 223e
000001a0: 7b09 67be be29 2abe 256c 88bd 6f4f 7abe
000001b0: 0bec 53be f4b1 a7bd 20e0 58bd d392 403e
000001c0: ea59 f83d 5ddd 7a3e 44b8 963d 0bab 133d
000001d0: cf4b 1bbd 4b49 dcbd 2a32 67be 5928 7abe
000001e0: ee29 ea3d 6cb2 38be 0df7 e5bd 7999 e23d
000001f0: 5a79 32be 938c b53d a1f2 59bc ca34 583d
00000200: 7e11 d6bd 2c59 263e 1a3c 3cbe 00fa 84be
00000210: edd6 3f3e 2562 19be 7991 823e a007 c33d
00000220: 2ec0 af3d 0a58 aabc a88b 683d 0afc a13d
00000230: cedf 09be 0871 383e de06 2f3e 913d a93c
00000240: 1b02 403d 6b86 06bd ec30 cbbd e1f6 4cbe
00000250: 00cd c9bd 99c0 79be 930c aebd e343 2b3e
00000260: 698f 773e d78b 64be c85e 5dbe 91ae 543e
00000270: a4dd 4fbd 7397 1abd 1f2f 213e cb6a 743e
00000280: 5307 8f3d 23ec 153d 7f98 f0bc f3fc 4c3c
00000290: e84c a13d 70db 54be c321 80be 1c6b 3c3e
000002a0: 1285 76be 18f0 233e 72b5 263e b21f 483e
000002b0: f6a2 693d 7a74 803c 99c4 a73d f111 213e
000002c0: b5a3 abbb 5642 1fbe 831a 173e ee1d 1c3d
000002d0: 58af e23d 97aa 38be 19cd 4cbd 8280 07be
000002e0: 7c69 67bb 1974 823e 9098 813d c2ef 593e
000002f0: 4d41 553e 821e 3ebe 4be7 793e 5911 ff39
00000300: d5f0 6d3e 6883 793d a463 173c d77c 423e
00000310: 222a 48be 94e7 30bd aacf 16bd 0ab9 583c
00000320: 146d 8cbd bdd4 2b3e 2ed1 91bc 74fa 073e
00000330: 71f1 ec3d 4a30 383e 6436 143e 9aea 97be
00000340: 48ea 67be b44a 80be 0e05 7cbe cc06 54be
00000350: dc8d bcbb 358a 6b3e 0bfa 35be 5665 053e
00000360: eb41 dfbd 1e2b 503e 07b4 213e 17d7 e33d
00000370: c9e5 7a3e da27 80be 8e85 54be ddaf 02be
00000380: 227e 523d d526 5e3e fcd5 103e 91a9 da3d
00000390: 1f90 64bd 4562 febd 7048 8c3e c212 69be
000003a0: 315b 40be 6275 2c3e 143b 5c3e 9e29 313d
000003b0: b763 303c 466d 66bb 8e05 9cbb a57c debd
000003c0: e22a 703e c846 743e 8d40 cabd 51db 2b3e
000003d0: 5ff8 5ebd 48dd 39be c7bf 293d da4e 02bd
000003e0: 240f 533e f00d 0d3d f8fb 5dbd dc42 50be
000003f0: 9a1d 2e3e a6ca 233e 1f8d 183d 59f6 60bc
-0.2164354 0.041507978 0.15810536 -0.018604118 0.1282852 0.21256486 -0.20737007 0.1550541
-0.22354062 0.18098815 -0.14744116 -0.07965838 0.08061692 -0.21016683 -0.059681468 -0.07063803
0.07440697 -0.02674527 -0.23586853 -0.06795693 0.045134943 0.13501541 -0.14291503 -0.13485388
0.108344704 -0.12789384 -0.10061014 -0.24567792 -0.042864587 -0.2025138 0.041383263 0.19944353
0.12128557 -0.18509413 0.22210069 -0.2184261 -0.12273765 0.15664142 0.12493328 0.09572283
-0.09231634 -0.22639939 -0.21509908 0.0015568102 -0.21939777 -0.15325959 0.16507986 -0.0056231115
0.109248884 -0.20643662 0.08707725 0.20120837 0.06732712 0.015478305 -0.16523159 -0.17869115
0.17335062 -0.26634666 -0.05025792 -0.17022349 0.0077493372 -0.27212864 0.11780573 -0.041315895
-0.143139 -0.09352441 -0.08828603 -0.12594348 -0.08044234 0.043170504 -0.16063923 0.06166177
-0.21465482 0.24205829 -0.15489861 0.07463826 -0.17172469 -0.1795294 -0.006291882 -0.12929115
-0.07626322 -0.11198164 -0.076332964 -0.19290307 0.2412821 0.15192455 -0.09956568 0.18422395
-0.101142034 -0.209599 0.06922951 -0.08396055 0.19407746 -0.0641184 -0.2126382 0.21679628
0.05223782 0.074969776 -0.033732273 -0.19471134 0.0714956 -0.005656678 -0.17383325 0.15914732
-0.2256221 -0.16617486 -0.06661252 -0.24444364 -0.20695512 -0.08188239 -0.052948117 0.18806009
0.12126525 0.24498506 0.07359365 0.03605179 -0.037914094 -0.10756167 -0.2257773 -0.24429454
0.11433779 -0.18036813 -0.11228762 0.11064429 -0.17429104 0.08864703 -0.013302476 0.05278472
-0.10452555 0.16244954 -0.18382302 -0.25971985 0.18734331 -0.14978845 0.25501612 0.09522939
0.08581577 -0.020793933 0.05677381 0.07909401 -0.13464281 0.18011868 0.17092463 0.02065924
0.046877008 -0.032843035 -0.099214405 -0.20016052 -0.09853554 -0.24389876 -0.08498492 0.16725115
0.241758 -0.2231897 -0.21618187 0.20769717 -0.050748482 -0.03774209 0.15740632 0.23868863
0.06983819 0.03660215 -0.02936959 0.01251148 0.07875997 -0.20786834 -0.25025758 0.18400234
-0.240742 0.16009557 0.16280153 0.19543341 0.057040177 0.01568054 0.08191795 0.157295
-0.0052380213 -0.15552649 0.14756207 0.03811448 0.110686004 -0.18033825 -0.050000284 -0.13232616
-0.0035310676 0.254792 0.06327927 0.21282867 0.20825692 -0.18566325 0.24404638 0.00048650315
0.23236401 0.060916334 0.009240065 0.18992935 -0.19547322 -0.0431896 -0.036819138 0.0132277105
-0.068567425 0.16780372 -0.01779994 0.13279134 0.11569489 0.17987171 0.14473873 -0.29671174
-0.22647965 -0.25056994 -0.24611303 -0.20705718 -0.0057542156 0.2300194 -0.17771165 0.13026938
-0.10901245 0.20328948 0.15791331 0.111250095 0.24501719 -0.25030404 -0.20754072 -0.12762399
0.05138982 0.216945 0.14144129 0.106768735 -0.055801507 -0.12421087 0.27399015 -0.22761062
-0.18784787 0.16841653 0.21506912 0.04325258 0.010765961 -0.0035160347 -0.0047614044 -0.10863618
0.23453858 0.23855126 -0.09875593 0.16782881 -0.054436084 -0.18150818 0.04144266 -0.03181348
0.20611244 0.03443712 -0.054195374 -0.20338005 0.1700348 0.15995273 0.03724396 -0.013730609

gnn_base.gnn.gnn1.lin_skip.bias f4 [16]
00000000: 3bef 97bd 85f7 473d 97bf 7a3e 7de7 9ebc
00000010: cf4c 20ba 20f6 6dbe e9a0 953d 3553 b9bd
00000020: b79e a0bd 52c9 06be 814c 8d3e 0ae8 113e
00000030: 8f73 d9bd f4cb 82bd 2d67 773d 4736 c63d
-0.074186765 0.048820037 0.24487148 -0.019397492 -0.0006114961 -0.2323842 0.07306082 -0.090490736
-0.078427725 -0.13162735 0.2759743 0.14248672 -0.10617744 -0.06386557 0.06040113 0.09678321
