onpolicy/results/GraphMPE/navigation_graph/rmappo/crap_bad/run9/models/critic.pt (torch, 199331 bytes, 61 tensors)

gnn_base.gnn.embed_layer.entity_embed.weight f4 [3, 2]
000000 cb 40 8c 3f b1 8d 32 3f df c9 12 3f 90 2e 5c bf
       1.0957273 0.69747454 0.5733928 -0.8600855
000010 e3 24 6f bf 8f dc f1 bd
       -0.9341566 -0.11809646

gnn_base.gnn.embed_layer.lin1.0.weight f4 [16, 9]
000000 ac e1 c4 bd af 98 21 3f 29 a7 b9 be 35 42 94 bd
       -0.09613356 0.631236 -0.36260346 -0.072391905
000010 fd 89 b5 3e 0c ef df 3e bb a2 91 be db 78 c4 bd
       0.3545684 0.43737066 -0.28444466 -0.09593364
000020 51 b8 24 be 6b bf a0 3e f7 79 74 3e fe c7 af 3e
       -0.16085936 0.3139604 0.23874651 0.3433227
000030 72 ae b4 be a3 b2 05 bf c1 03 e9 3e 9d 84 d9 3d
       -0.3528934 -0.52225703 0.45510677 0.10620997
000040 0f 35 eb be 6d 53 71 be 68 e0 33 3e d4 de be be
       -0.45938918 -0.2356698 0.17566073 -0.3727938
000050 0f 64 ae be 61 ed a3 be af a5 36 3f 03 d1 bc be
       -0.34060714 -0.32017043 0.71346563 -0.36878213
000060 27 1e ed bd 1c 4e 4e 3e a1 56 a5 be c4 e2 4c bf
       -0.11578017 0.20146984 -0.32292655 -0.80033517
000070 a8 7e b6 bd 2e a1 35 be d1 e6 a1 be 13 58 17 3e
       -0.089108765 -0.17737266 -0.3162141 0.14779691
000080 81 89 0e 3f 90 17 06 bd 78 aa 0e 3e 39 a1 aa be
       0.55678564 -0.032737315 0.13932216 -0.33326128
000090 57 ce 1f bf ee 06 5a 3e d7 72 1c 3e fe 6c d7 3e
       -0.62424225 0.21291706 0.15278183 0.42075342
0000a0 dc 80 da be 42 f6 3b bd 8d 0e 52 be 48 9f 1a 3f
       -0.42676437 -0.045889147 -0.20513363 0.60399294
0000b0 96 5a 7a be 16 05 ad be b8 15 96 3e ee 3d 68 3e
       -0.24448618 -0.33792943 0.29313445 0.22679874
0000c0 eb d0 32 3f c3 5e ce 3e 44 50 37 bd f1 a0 b1 3e
       0.69850034 0.40306672 -0.04475428 0.346931
0000d0 ce 93 5c bd 7d 12 2f 3e 0b de cd 3d e7 82 f8 be
       -0.053851895 0.17096896 0.10052117 -0.4853737
0000e0 b2 2d 19 3f a0 7d b5 bd dd 64 16 3b 19 b8 d1 3e
       0.5983535 -0.08861852 0.0022948303 0.40960768
0000f0 b8 62 9d 3e 13 78 5b 3e 7c 35 90 be bb 30 24 3e
       0.3073938 0.21432523 -0.28165805 0.16034214
000100 83 3f 9e 3e 6e 73 df 3e bd 7a ff 3c a6 ef 01 3e
       0.3090783 0.43642753 0.031186456 0.12689075
000110 89 3e 94 3d 3c 6a a2 be ef 18 cd 3e fd 85 03 3e
       0.0723849 -0.31721675 0.40058085 0.12844081
000120 87 0f ff bd fc 3a b9 bd 4b 74 a1 3e 71 e5 80 3e
       -0.124541335 -0.090444535 0.31534037 0.2517505
000130 10 8b 35 be f0 1a 09 bf c8 7c 4f bf cd 4b 01 bf
       -0.1772883 -0.5355673 -0.81049776 -0.5050629
000140 65 4c 75 be 94 7d e3 be f6 4e 95 3e 07 c8 c3 3e
       -0.23954923 -0.44431746 0.29161805 0.38238546
000150 5d bc 5e bf 51 16 99 bd 2e 3e ac be 00 db 2b 3b
       -0.8700617 -0.0747496 -0.3364119 0.0026223063
000160 7f 02 3b bd f6 b5 4b 3e 70 de bc bd f5 14 d4 be
       -0.045656677 0.19893631 -0.09222114 -0.4142224
000170 59 ef 0c bf 82 94 31 be 91 d0 09 bf f0 c5 56 3d
       -0.55052716 -0.17341807 -0.5383387 0.05243486
000180 ae 2e e2 be e7 cf ad 3e 3e 31 dd 3e 10 c2 06 bf
       -0.4417624 0.3394768 0.4320163 -0.52639866
000190 0e 0e 3f be 56 6b 18 be 08 1a f8 3a 35 23 32 3e
       -0.18657705 -0.14884695 0.0018928656 0.17396243
0001a0 56 44 9a 3d 0a ad 19 3e f3 de 3e bf e6 eb 14 3f
       0.07532565 0.15007415 -0.74558944 0.5817245
0001b0 c6 74 23 3e 24 68 8b be 1a 00 be 3e 73 e0 04 3e
       0.15962514 -0.2722789 0.37109452 0.12976246
0001c0 bb 28 ae 3e 53 5b 27 3f d7 53 1d bf 9a d2 97 3d
       0.3401545 0.65373725 -0.61456054 0.07413216
0001d0 33 37 21 3f 02 f9 ab 3e 64 01 17 3f 53 c4 ec be
       0.6297485 0.33588415 0.58986497 -0.46243533
0001e0 33 98 84 3d 62 2c ab bd 56 7c 53 3e 97 6e 4b be
       0.06474342 -0.08358075 0.20652899 -0.19866405
0001f0 19 6b 39 bd e6 45 9b bd a4 45 8b bc 97 e3 b5 be
       -0.045268152 -0.075816914 -0.01700098 -0.355252
000200 da 4f 99 be e5 bd da 3e 24 c5 bc be c2 63 69 3e
       -0.29943734 0.42723003 -0.36869156 0.22791961
000210 b3 cc 76 3e 0a 88 5d be 5b f5 1c be 60 5a e6 bd
       0.24101524 -0.21633926 -0.1532797 -0.112477064
000220 4b ec 92 be 4a 16 85 3c 22 ed 96 3d 5a 6d 3a 3e
       -0.28695902 0.01624598 0.07369448 0.18205777
000230 62 32 5b 3e c7 93 d9 be e4 b4 be be ed 21 31 bf
       0.21405938 -0.42495558 -0.37247384 -0.6919239

gnn_base.gnn.embed_layer.lin1.0.bias f4 [16]
000000 33 ea d0 bb a5 19 39 bb d6 ea 7e 39 29 56 45 bb
       -0.006375575 -0.0028244045 0.00024310811 -0.003011117
000010 00 f0 48 3b ba a7 31 bb bd c3 da ba ec 58 8c 3b
       0.003066063 -0.002710803 -0.0016690415 0.0042830613
000020 90 92 34 bc 0d fa 37 3c c4 b7 34 bc a5 a9 93 3b
       -0.011021271 0.01122905 -0.011030141 0.004506307
000030 83 21 ae bb 7c e0 04 bc 80 e6 8b bb 9f de 08 bb
       -0.0053140535 -0.008110162 -0.004269421 -0.0020884646

gnn_base.gnn.embed_layer.lin1.2.weight f4 [16]
000000 7d e9 7d 3f 40 6d 7d 3f de 5b 7f 3f 1b 62 80 3f
       0.991844 0.9899483 0.99749553 1.002994
000010 4b 9a 7f 3f 85 72 80 3f 18 91 7f 3f 1f 81 7f 3f
       0.9984481 1.0034949 0.9983077 0.998064
000020 aa 30 7e 3f 61 55 80 3f a3 fe 7f 3f 30 0a 81 3f
       0.99293005 1.0026056 0.9999792 1.0081234
000030 fe 7a 80 3f 4b 98 80 3f 0d b8 7f 3f dd 10 80 3f
       1.0037534 1.0046476 0.99890214 1.0005146

gnn_base.gnn.embed_layer.lin1.2.bias f4 [16]
000000 b2 2d 8e b7 fc 3a 8e bb 8e a0 18 3b 91 95 6b bb
       -1.6948998e-05 -0.0043405276 0.0023289057 -0.0035947303
000010 23 27 b1 3b 4d 3f bd bb 33 78 f2 b9 6c e6 6c 3b
       0.005406277 -0.0057753683 -0.00046247392 0.0036148084
000020 2d 35 b9 bb 49 98 b7 3b 62 c2 e1 bb bf bd a3 3b
       -0.005652091 0.0056028706 -0.0068896273 0.0049969847
000030 d4 d4 cf bb 75 50 8e bb ca 2b 16 ba ea 38 3c 3a
       -0.0063425098 -0.0043430873 -0.0005728571 0.0007180112

gnn_base.gnn.embed_layer.lin_h.0.weight f4 [16, 16]
000000 26 7d f6 3c d4 75 dc 3e dd 2c 9f bc 02 20 bc be
       0.030088972 0.43058646 -0.019430572 -0.3674317
000010 90 94 5f 3e cd c1 7b be be 38 1a 3e d4 b8 8e 3e
       0.21834016 -0.24585648 0.15060708 0.27875388
000020 84 d7 13 bf 10 77 f1 3e ca 26 01 bf 95 c5 2a 3e
       -0.57750726 0.4716115 -0.5044981 0.16676934
000030 22 bb 5c be a1 28 8c be c0 cd 0f bf 44 db e1 3e
       -0.2155576 -0.27374747 -0.56173325 0.441126
000040 ba 61 1d be 5c fa 4c 3e 4f 8d e7 be b3 21 04 be
       -0.15369311 0.2001738 -0.45224997 -0.1290348
000050 ad 62 8e be 42 2a 00 be e4 54 4b 3d 68 4f 1d 3f
       -0.2780966 -0.1251612 0.049641505 0.6144929
000060 8d f1 f5 3c aa fc b0 be 1f 59 dc be 54 be 9f be
       0.030022407 -0.34567767 -0.43036744 -0.31199896
000070 b7 7c a0 be da 69 e5 be c1 85 95 3e bd a4 2c bf
       -0.3134515 -0.4480732 0.2920361 -0.6743887
000080 37 21 bf 3e 1a 97 79 3e a9 bf bf 3e c4 f4 f4 3e
       0.37330028 0.24374047 0.37450913 0.4784299
000090 a7 fc 7a be 42 e9 15 3f 89 ae 38 3e 80 d6 a7 bc
       -0.24510442 0.5855905 0.1803533 -0.020488024
0000a0 66 6f 88 3e 69 d2 80 be b4 5a 4f bf 0a 79 5a be
       0.2664749 -0.2516053 -0.80997777 -0.21335235
0000b0 25 33 98 bd a4 a3 8a 3e a4 1e 81 be 1f a4 08 3e
       -0.0743163 0.27077973 -0.2521869 0.13343857
0000c0 07 cc a2 3e cf 40 45 3e 24 b0 cb be 02 4d 6e 3e
       0.31796286 0.19263004 -0.39782822 0.23271564
0000d0 12 2e 49 3e 44 c1 9a 3e 8e f0 5b bf c6 e5 d6 3e
       0.1964648 0.30225575 -0.8591393 0.41972178
0000e0 d2 d6 57 be bd 13 dc be 20 99 6f 3e df f4 e1 bd
       -0.21078041 -0.4298381 0.23398256 -0.110330336
0000f0 a3 24 87 3e e5 78 2e be dd dc da bd fe 56 e4 3e
       0.2639514 -0.17038305 -0.106866576 0.4459762
000100 fb 66 4f be 43 41 aa 3d 11 98 8a be 92 dd 98 bd
       -0.20254128 0.08313229 -0.27069142 -0.07464136
000110 d4 31 09 be 9e 26 bb be 10 84 c6 be 7c 68 56 bf
       -0.13397914 -0.365529 -0.3877263 -0.8375318
000120 b1 8b 8b bb f0 65 1d bf ce 7d b4 be 3b e7 cb 3e
       -0.004258596 -0.6148367 -0.3525223 0.39824852
000130 77 56 a0 bd 83 8e 9d bd b7 6c d7 be 6e 5a 10 be
       -0.07828992 -0.076931976 -0.4207513 -0.14096996
000140 62 dd 0c 3f 12 c0 7c be 8a 19 db 3e af e7 e6 be
       0.55025303 -0.24682644 0.42792922 -0.45098636
000150 56 14 fb 3e 60 9a b0 3e c9 0b 0a be 7e 35 68 3c
       0.49038953 0.3449278 -0.13481058 0.01417291
000160 19 44 47 3d 32 0b 28 be e5 b5 6e 3e 60 45 55 3d
       0.048648927 -0.1641052 0.23311575 0.052068114
000170 e8 33 ca be d8 0b 76 be 50 6a e9 be 0c 77 1a bf
       -0.39492726 -0.24027956 -0.45588923 -0.603379
000180 93 31 5c 3e 55 a7 42 3f 1c 46 82 3e 3a b6 89 be
       0.21503286 0.7603658 0.25444114 -0.2689684
000190 90 89 29 bc 96 77 0f 3e 22 59 c7 3e 66 b8 a9 be
       -0.010347739 0.14010462 0.3893519 -0.33148497
0001a0 4b 0e cd 3d bf b0 be be d6 06 9a 3e da be f4 3d
       0.10012492 -0.37244222 0.3008334 0.119504645
0001b0 01 9f 4a 3b 46 5f 14 bf fb 3d 04 3f 6e bb a2 3e
       0.0030917528 -0.57957876 0.51657075 0.31783623
0001c0 11 3e ff bd eb 52 43 bf dc 14 f7 3c 27 58 89 be
       -0.1246301 -0.762984 0.030161314 -0.26825067
0001d0 e4 13 00 3c 80 fc f9 3e bb 6f 7f 3c c6 e2 75 be
       0.007817242 0.48825455 0.015590603 -0.24012288
0001e0 33 b6 26 bf a2 35 34 be 0b c2 d3 be ea 22 39 bd
       -0.65121764 -0.17598584 -0.4135898 -0.045199312
0001f0 e9 d5 36 bd 69 04 87 be d9 04 01 3f e0 48 90 3e
       -0.044637594 -0.26370552 0.5039802 0.281806
000200 65 62 7c bf 95 6e 51 3e a8 a4 c7 bc 37 4d 28 be
       -0.9858764 0.2045234 -0.024370506 -0.16435705
000210 ba 61 38 3e 32 ad 4a 3f 00 58 47 3c ae b2 22 3e
       0.1800603 0.79170525 0.012166977 0.15888473
000220 ce 18 89 3e d4 fa de 3b 77 5f 81 3d 52 ff 9e 3e
       0.26776737 0.0068048034 0.063170366 0.3105417
000230 5b d5 05 3e 3b fe 85 bd a3 6a 8e be 21 ce 63 bd
       0.1306967 -0.06542631 -0.27815732 -0.0556165
000240 6d cb 00 be 8d 13 81 3e 67 4f 3a 3f ea a0 ec be
       -0.12577601 0.2521023 0.7277741 -0.46216518
000250 8b 89 20 bf 66 6a 40 bd e9 d6 35 bf c6 d4 16 3d
       -0.62709874 -0.04697647 -0.7103105 0.03682401
000260 bc 48 22 be 1c f3 6a 3e 2e bc a9 bd 8b 10 17 be
       -0.15848058 0.22944301 -0.082878456 -0.14752404
000270 a8 33 a6 3e a9 46 a9 3d ff 6c 08 3e 51 f3 4b be
       0.32461286 0.082654305 0.13322829 -0.19917037
000280 ed f6 32 3c e7 e1 fc 3e fd de 53 be ea 7f b5 3c
       0.0109231295 0.493911 -0.20690532 0.02215572
000290 a0 0a 9a 3b d1 36 9a 3e 36 45 e6 3b af 6c 09 be
       0.0047009736 0.30119947 0.0070272936 -0.13420366
0002a0 65 8b 34 bf d5 c8 40 bd 7e 5c 72 3e 1e 89 cf 3d
       -0.705252 -0.04706653 0.23668095 0.10133575
0002b0 0c 5f fd be 9f 33 4d 3f 9e ec 75 3e 58 06 9c be
       -0.49486578 0.8015689 0.24016044 -0.3047359
0002c0 39 48 b6 3d 09 1e e4 bd 41 d2 8d be ab 2b 14 bf
       0.08900494 -0.11138541 -0.27699474 -0.5787913
0002d0 92 57 5e be 69 e0 97 3d ef 6e 9a be e6 6c 16 3d
       -0.21713093 0.0741585 -0.3016276 0.036724947
0002e0 56 ea 29 3f b5 93 0e 3e f9 f2 2f bd aa 07 a5 3c
       0.66373193 0.13923533 -0.042956326 0.020145256
0002f0 fd 0b 3f bf c7 41 93 3e d9 87 34 3e 20 e0 09 3f
       -0.7462767 0.28761122 0.17629947 0.5385761
000300 68 54 f8 be f5 39 19 3e 9e 26 db 3e 23 51 25 3e
       -0.48501897 0.14963515 0.428029 0.16144232
000310 4e d4 4a 3f d6 a3 ae be d8 86 84 be 03 c3 f8 bd
       0.792302 -0.34109372 -0.25884128 -0.121465705
000320 16 14 85 3d 73 20 2e be ce cc 1e be 4a 54 2f bf
       0.06497972 -0.17004566 -0.15507814 -0.6848799
000330 bd 4f a9 be f3 04 b7 3d 30 94 59 3e 98 59 0b 3e
       -0.33068648 0.08936491 0.21247935 0.13608396
000340 52 c0 18 be 99 2a 5d be 05 3d 03 3f 98 07 be bc
       -0.14917114 -0.21598281 0.51264983 -0.02319698
000350 c1 b0 a3 bd 8d 8d bb be 96 a1 40 3e ad 0e 28 3f
       -0.079926975 -0.36631432 0.1881164 0.65647393
000360 f0 2d bd bd 50 ee 3a bf da db 92 3d c5 1c 15 3f
       -0.092372775 -0.73019886 0.071708396 0.58247024
000370 3e 47 f4 bd 3a cb a0 3e 0b be fc 3b a0 85 7e 3e
       -0.11927651 0.3140505 0.0077130846 0.24855661
000380 19 8d 40 be 1a 77 a6 bd 37 71 8e 3e 61 2f 40 3f
       -0.18803824 -0.081281856 0.2782075 0.75072294
000390 79 b2 ca be aa f9 4a 3d 54 cc 7b be ae 54 22 bd
       -0.3958929 0.049554504 -0.24589664 -0.039631538
0003a0 67 c4 0a be ce 64 8c 3e 65 e9 90 3e f3 a1 61 3e
       -0.13551484 0.27420658 0.28303066 0.22034435
0003b0 c1 40 3f bf 74 7b 0e bf 51 54 5d bd 92 7c 58 3d
       -0.7470818 -0.55657125 -0.05403549 0.052853175
0003c0 f2 c8 4e be 06 df e4 bd 7e ad 14 bd 48 02 5b be
       -0.20193842 -0.11175351 -0.036298268 -0.21387589
0003d0 c8 05 01 bf b8 e7 e6 3c 0e 3b b5 3e 79 25 9a bd
       -0.50399446 0.028186664 0.35396618 -0.075266786
0003e0 12 df 5f be 8f 25 b4 be 1c 38 f6 3e 50 fd 4e bf
       -0.21862438 -0.35184905 0.48089683 -0.80855274
0003f0 9a d3 cc bd 74 ab 27 3c d7 23 1f bf a2 64 7c 3e
       -0.10001297 0.010233749 -0.6216406 0.24647763

gnn_base.gnn.embed_layer.lin_h.0.bias f4 [16]
000000 00 00 00 00 00 00 00 00 00 00 00 00 00 00 00 00
       0.0 0.0 0.0 0.0
000010 00 00 00 00 00 00 00 00 00 00 00 00 00 00 00 00
       0.0 0.0 0.0 0.0
000020 00 00 00 00 00 00 00 00 00 00 00 00 00 00 00 00
       0.0 0.0 0.0 0.0
000030 00 00 00 00 00 00 00 00 00 00 00 00 00 00 00 00
       0.0 0.0 0.0 0.0

gnn_base.gnn.embed_layer.lin_h.2.weight f4 [16]
000000 7d e9 7d 3f 40 6d 7d 3f de 5b 7f 3f 1b 62 80 3f
       0.991844 0.9899483 0.99749553 1.002994
000010 4b 9a 7f 3f 85 72 80 3f 18 91 7f 3f 1f 81 7f 3f
       0.9984481 1.0034949 0.9983077 0.998064
000020 aa 30 7e 3f 61 55 80 3f a3 fe 7f 3f 30 0a 81 3f
       0.99293005 1.0026056 0.9999792 1.0081234
000030 fe 7a 80 3f 4b 98 80 3f 0d b8 7f 3f dd 10 80 3f
       1.0037534 1.0046476 0.99890214 1.0005146

gnn_base.gnn.embed_layer.lin_h.2.bias f4 [16]
000000 b2 2d 8e b7 fc 3a 8e bb 8e a0 18 3b 91 95 6b bb
       -1.6948998e-05 -0.0043405276 0.0023289057 -0.0035947303
000010 23 27 b1 3b 4d 3f bd bb 33 78 f2 b9 6c e6 6c 3b
       0.005406277 -0.0057753683 -0.00046247392 0.0036148084
000020 2d 35 b9 bb 49 98 b7 3b 62 c2 e1 bb bf bd a3 3b
       -0.005652091 0.0056028706 -0.0068896273 0.0049969847
000030 d4 d4 cf bb 75 50 8e bb ca 2b 16 ba ea 38 3c 3a
       -0.0063425098 -0.0043430873 -0.0005728571 0.0007180112

gnn_base.gnn.embed_layer.lin2.0.0.weight f4 [16, 16]
000000 d1 fc f1 3b 7f ed dc 3e ab 54 8a bc 9b d0 c7 be
       0.0073848744 0.43149945 -0.016886076 -0.3902634
000010 fc d3 54 3e ef bd 65 be 3a e3 28 3e ed db 8a 3e
       0.2078399 -0.22435735 0.1649293 0.27120915
000020 79 55 17 bf 16 37 f9 3e 6b cb 04 bf 99 57 34 3e
       -0.59114796 0.4867484 -0.5187289 0.17611541
000030 9d ab 6f be 45 1d 96 be 87 15 12 bf 13 3d d6 3e
       -0.23405309 -0.29319206 -0.570641 0.4184347
000040 53 b5 18 be 5b 05 50 3e 22 da e5 be 73 e1 ff bd
       -0.1491292 0.20314543 -0.44892985 -0.12494173
000050 b8 92 8b be d0 ef fe bd b5 43 56 3d 27 f0 1d 3f
       -0.27260375 -0.12448084 0.052310664 0.6169457
000060 81 12 d5 3c 2e 30 b0 be e0 31 e5 be dc 17 a2 be
       0.0260098 -0.34411758 -0.44764614 -0.31658828
000070 e6 b7 a2 be 0c cd e2 be 25 75 93 3e 85 9b 2b bf
       -0.31780928 -0.44297063 0.28800312 -0.6703418
000080 ba fc c0 3e d2 58 81 3e ca 66 c2 3e a5 3d f9 3e
       0.37692815 0.25263077 0.37969047 0.48679844
000090 bd e1 7a be cd 8b 13 3f c5 04 3b 3e 66 23 d6 bc
       -0.24500175 0.57635194 0.18263538 -0.026139926
0000a0 d6 30 86 3e 7f a0 79 be 11 bc 4c bf 2b 04 58 be
       0.26209134 -0.2437763 -0.79974467 -0.2109534
0000b0 20 f3 a6 bd d4 ec 8c 3e d2 b8 7c be cc d2 13 3e
       -0.08151841 0.27524436 -0.24679878 0.14435881
0000c0 3a 00 a7 3e ab 79 48 3e 34 6d ca be 1e 09 72 3e
       0.3261736 0.19577663 -0.3953644 0.2363629
0000d0 38 d0 4c 3e d5 94 9a 3e ad b1 5a bf 09 35 d5 3e
       0.20001304 0.30191675 -0.8542736 0.41642025
0000e0 fa 71 5b be 7e 89 db be a7 9c 6c 3e bb 33 ea bd
       -0.21430197 -0.42878336 0.23106633 -0.11435648
0000f0 7d 82 85 3e c3 58 2c be 9e 40 e0 bd 2a 7a e6 3e
       0.26076117 -0.16830735 -0.10949825 0.4501508
000100 58 50 4a be 44 91 ab 3d b0 cb 89 be f3 7e 98 bd
       -0.19757211 0.083773166 -0.26913214 -0.07446089
000110 fc cd 09 be 33 f0 b8 be d6 73 c5 be 87 62 55 bf
       -0.13457483 -0.36120757 -0.38564938 -0.83353466
000120 44 26 ab bb 52 8b 1c bf 71 b8 b6 be cf fe ca 3e
       -0.0052230675 -0.61150086 -0.35687593 0.3964753
000130 13 dc a0 bd 83 39 a0 bd 19 e0 dd be 9f 04 0e be
       -0.07854476 -0.078234695 -0.43335035 -0.1386895
000140 ef b3 0a 3f 1c df 81 be 27 ec d9 3e d8 af e7 be
       0.54180807 -0.2536553 0.42562982 -0.45251346
000150 43 a9 fb 3e 35 ed b3 3e 7a 6a 12 be da ab 91 3b
       0.49152574 0.35141912 -0.1429843 0.004445535
000160 11 72 5d 3d 13 0f 30 be c7 92 79 3e 81 6a 40 3d
       0.05406386 -0.1719325 0.24372397 0.04697657
000170 35 75 c9 be 0b 5a 79 be 43 6c e6 be b2 4f 1c bf
       -0.39347234 -0.24350755 -0.45004472 -0.61059105
000180 c5 20 5c 3e 51 5a 44 3f dd b7 7c 3e f0 ab 88 be
       0.21496876 0.7670031 0.24679513 -0.26693678
000190 e1 99 fb bb ff c9 0f 3e b3 d2 c1 3e 8d 5c a8 be
       -0.007678256 0.14041899 0.37856063 -0.3288311
0001a0 b7 6f cc 3d 7d 3d c2 be b0 c5 9a 3e 5f e8 f7 3d
       0.099822454 -0.37937537 0.3022895 0.12104868
0001b0 50 ad f3 3b 34 c4 14 bf 93 7b 05 3f 55 67 a3 3e
       0.007436432 -0.5811188 0.52141684 0.31914774
0001c0 a2 2d 02 be 10 cb 41 bf c1 ed d2 3c 34 ee 8b be
       -0.1271272 -0.75700474 0.025748136 -0.27330172
0001d0 51 09 89 3b e4 b1 f9 3e c6 da 54 3c 3c d7 75 be
       0.004182019 0.48768532 0.012991613 -0.24007887
0001e0 f6 e3 26 bf 63 8c 3c be 0e 9b d2 be 1d 7a 26 bd
       -0.6519159 -0.18412928 -0.41133922 -0.0406438
0001f0 71 63 2c bd 91 23 88 be a1 23 02 3f 14 35 8f 3e
       -0.042087022 -0.26589635 0.50835615 0.27970183
000200 ba c2 7a bf c6 67 5f 3e e3 10 e4 bc f1 1f 26 be
       -0.9795338 0.2181693 -0.027840083 -0.16223122
000210 c5 ad 39 3e 78 bc 4d 3f 6d f1 9b 3b ee 76 2c 3e
       0.18132694 0.80365705 0.004759005 0.16842243
000220 ae 34 82 3e dc 64 03 bc 2c 9c 57 3d 9e 9a a2 3e
       0.25430816 -0.008019652 0.05263917 0.3175859
000230 9a 50 0b 3e 56 d3 6f bd a6 64 89 be 06 19 5f bd
       0.13604966 -0.058551155 -0.268346 -0.054467224
000240 b8 9c f9 bd f4 0e 7f 3e a7 fa 39 3f fa 7b ed be
       -0.12188095 0.24908048 0.7264809 -0.4638365
000250 22 08 21 bf 50 99 5b bd 1c a1 36 bf 9b 1d 1a 3d
       -0.62903035 -0.053613007 -0.71339583 0.03762589
000260 50 2e 1e be 00 85 6c 3e 69 f7 9e bd 12 cc 17 be
       -0.15447354 0.2309761 -0.077620335 -0.1482394
000270 00 ea a6 3e fb 0d a5 3d e4 9f 05 3e f1 7c 4e be
       0.32600403 0.08059307 0.13049275 -0.20164849
000280 f0 2a 65 3c ff e6 f7 3e e1 c8 4e be 11 73 c4 3c
       0.013987288 0.48418424 -0.20193817 0.02398065
000290 e9 30 e0 3a b8 b6 99 3e a3 c2 01 3c 45 d6 07 be
       0.001710442 0.30022216 0.00791994 -0.13265331
0002a0 4d a6 33 bf a6 f6 08 bd 12 f7 6e 3e 76 69 c7 3d
       -0.7017563 -0.033438347 0.23336437 0.09736912
0002b0 0c bd fa be 8d 2f 4d 3f 32 80 6d 3e 75 a5 9a be
       -0.48972356 0.8015068 0.23193434 -0.3020436
0002c0 4b 5b ab 3d 89 6f d4 bd 4d ec 8d be 02 5e 14 bf
       0.08367022 -0.10372836 -0.27719346 -0.57955945
0002d0 2b 7b 60 be 2c 12 a3 3d ac 6b 9a be dc 65 15 3d
       -0.21921985 0.079624504 -0.30160272 0.036474094
0002e0 87 ac 28 3f a4 ff 05 3e 60 4c 35 bd b5 1d b1 3c
       0.65888256 0.130858 -0.04426229 0.02162061
0002f0 f6 7f 40 bf 8c 0e 96 3e 8c b6 39 3e 3c f8 08 3f
       -0.7519525 0.29307973 0.18136042 0.53503776
000300 35 96 f9 be c5 da 16 3e d0 64 e3 3e af 05 10 3e
       -0.4874741 0.14731891 0.4441285 0.14064668
000310 53 67 47 3f df a4 b4 be b6 c5 79 be d0 12 f7 bd
       0.77892035 -0.35282037 -0.24391827 -0.12064135
000320 af f9 93 3d 47 0f 19 be 29 95 26 be c5 93 36 bf
       0.07225358 -0.14947234 -0.16267838 -0.7131923
000330 14 0f aa be d7 eb a3 3d ec db 4f 3e 94 c5 0b 3e
       -0.3321463 0.08003967 0.20298737 0.13649589
000340 43 36 1a be 5f 4b 5c be 2d bd 01 3f a1 02 d3 bc
       -0.15059762 -0.21513127 0.50679284 -0.02575809
000350 6f b4 ab bd 3c 58 bd be d4 4c 39 3e 24 cc 28 3f
       -0.08384024 -0.3698138 0.18095714 0.65936494
000360 c3 29 b3 bd 1d 7c 3b bf 42 af 8e 3d 60 df 16 3f
       -0.087482 -0.73236257 0.069670215 0.58934593
000370 29 d7 ed bd 44 81 9f 3e ae b0 48 3c 08 26 81 3e
       -0.11613304 0.3115331 0.012249155 0.25224328
000380 23 38 46 be 27 81 a4 bd c5 1e 86 3e 47 e9 3f 3f
       -0.19357352 -0.08032446 0.2619535 0.7496533
000390 51 c0 c7 be 0f a2 67 3d b5 b4 83 be f6 04 3b bd
       -0.39013913 0.056551035 -0.25723806 -0.045659028
0003a0 00 5e 07 be 09 15 89 3e 91 19 9b 3e 27 2b 67 3e
       -0.13219452 0.2677386 0.30292943 0.22575055
0003b0 77 8b 3e bf f4 1a 0e bf 8d 30 42 bd 62 4c 3f 3d
       -0.74431556 -0.5550988 -0.047409583 0.046703704
0003c0 6b 85 46 be df 63 d9 bd 8d 32 0f bd 81 2b 55 be
       -0.19386832 -0.10614752 -0.03496032 -0.20817377
0003d0 5d e3 fb be c3 f8 0f 3d d5 51 b6 3e 20 85 ab bd
       -0.49196902 0.035149347 0.35609308 -0.08375001
0003e0 3c af 69 be da 20 b8 be c1 fd f3 3e 6d 14 4d bf
       -0.22820753 -0.35962564 0.47654536 -0.8010929
0003f0 e2 a9 d6 bd 55 ab a4 3c 1b e7 1c bf e2 13 82 3e
       -0.10481621 0.020101229 -0.6129014 0.25405794

gnn_base.gnn.embed_layer.lin2.0.0.bias f4 [16]
000000 50 fa c5 3c b8 c6 81 bb 3f e2 26 bc c7 17 60 bb
       0.02416721 -0.0039604567 -0.010185777 -0.003419386
000010 fa b6 b1 ba 63 6d c5 3b e0 29 8e bb ba c4 47 3b
       -0.001355856 0.006025003 -0.004338488 0.0030482248
000020 b9 cf 34 ba 7c e0 ce 3a 4f 1b f0 ba 93 fa 42 3a
       -0.0006897408 0.0015783454 -0.0018318685 0.0007437851
000030 a8 40 32 3b 32 cb 81 3b d7 69 9b 3b ec fb e4 bb
       0.0027199183 0.0039609903 0.0047428417 -0.0069880392

gnn_base.gnn.embed_layer.lin2.0.2.weight f4 [16]
000000 82 35 80 3f 8c 82 7d 3f b8 c5 7e 3f 38 b1 7f 3f
       1.0016329 0.99027324 0.99520445 0.9987979
000010 8f d0 7e 3f 57 e1 7e 3f bf 9d 82 3f be d3 7e 3f
       0.99536985 0.9956259 1.020439 0.9954184
000020 ac 16 80 3f 1e 29 80 3f 0c 86 7c 3f 34 8f 7e 3f
       1.0006919 1.0012548 0.9864204 0.9943726
000030 8b d1 7e 3f 4f 48 80 3f cf 0c 7f 3f 1c 3c 80 3f
       0.9953849 1.0022067 0.9962892 1.0018344

gnn_base.gnn.embed_layer.lin2.0.2.bias f4 [16]
000000 90 e9 55 3c c0 8e 64 3b 10 d8 54 bb a6 e0 3a bb
       0.013056174 0.0034875125 -0.0032477416 -0.0028515249
000010 95 bb 46 b9 e1 ab a7 3b 07 28 4e bb 20 21 65 3b
       -0.00018952631 0.005116925 -0.0031456964 0.003496237
000020 ca b6 26 3b 4d 90 5c 3b 70 5b b8 3a db c3 9a 3b
       0.002543854 0.0033655346 0.0014065336 0.004723055
000030 d7 5b f7 3b a9 96 1d 3b 55 8a 80 3b 8b ba fe bb
       0.00754879 0.00240461 0.0039227405 -0.0077737025

gnn_base.gnn.gnn1.lin_key.weight f4 [48, 16]
000000 01 b3 1a bd 66 a2 1f 3e 1b 45 ea bd 0a d8 09 be
       -0.037768368 0.15589294 -0.11438962 -0.13461319
000010 4e 3e a8 bd 77 23 36 be 65 a0 4b be d4 1f a7 3d
       -0.08215009 -0.17786966 -0.19885404 0.081603676
000020 85 6b 57 be 64 8e 77 be 68 f7 2a 3d 95 f8 1a be
       -0.21037109 -0.24175411 0.04173985 -0.15133889
000030 19 c3 b2 bd c8 58 73 3e 25 87 c2 bd 5e 45 2f bd
       -0.08728618 0.23764336 -0.09498433 -0.042790763
000040 df 87 be bc c2 30 45 bd fb bb 2d 3c 63 16 c0 bc
       -0.023258148 -0.048142202 0.0106039 -0.023448175
000050 23 3a 31 be 2f cb 52 3e 4e 35 6d 3d f0 12 0e 3e
       -0.17307334 0.20585321 0.057912163 0.13874412
000060 4b 05 4e be a3 8f e2 3d 29 b9 56 be 2e d1 58 3e
       -0.20119207 0.11062553 -0.2096907 0.21173546
000070 d6 3e ae bd bb 3c 1c be 1d 20 58 be ee bd 6e be
       -0.08508079 -0.15257542 -0.21106 -0.2331464
000080 ca 09 72 bd a8 68 3e 3e ee e9 32 3e 49 81 fd 3c
       -0.059091367 0.1859461 0.1747205 0.030945437
000090 fa 5a ba bd d0 e8 83 be ad d0 16 3e fb 3e 5b 3e
       -0.09099384 -0.2576356 0.14728041 0.21410744
0000a0 0b 1b 1f 3e c8 52 cc bd a5 0d e6 3d bc d2 0e 3e
       0.1553766 -0.09976727 0.11233071 0.13947576
0000b0 e2 d8 0b 3d 4e 62 1b be c4 c8 76 3d 23 3e e3 3d
       0.034142382 -0.15174219 0.06025006 0.11095836
0000c0 a9 43 48 be 56 e2 be 3d 4c 62 6c be 74 f1 19 3e
       -0.1955706 0.09320514 -0.23084372 0.15033513
0000d0 a8 a4 37 3e 18 09 2f bc b6 0e 7d 3e 1c df c9 3d
       0.17933905 -0.01068332 0.24712643 0.09857008
0000e0 2c 91 03 3e 3d ee 2c be cf 50 20 3d 95 c1 f6 bd
       0.12848347 -0.16887756 0.039139565 -0.120486416
0000f0 19 6a 4c 3d 3e 99 f9 bd 75 7e a4 3c 8a 51 81 3d
       0.04990587 -0.12187432 0.02007983 0.063143805
000100 b2 35 06 be e2 27 31 3c f0 21 35 be 7e 60 12 3d
       -0.1310642 0.010812731 -0.17688727 0.035736553
000110 15 46 9f b9 06 61 6d be b5 8b d2 3d f8 d1 6e be
       -0.00030379058 -0.23181543 0.10280553 -0.23322284
000120 84 c5 63 be cb e8 19 3e 21 b4 6d bd b5 b4 a1 3d
       -0.22243315 0.1503021 -0.058033112 0.07895795
000130 8b 56 2f 3d c7 88 4e be 82 21 da bd cc 97 5c 3e
       0.042807143 -0.20169364 -0.10650922 0.21542281
000140 08 5a 4c 3e 8b de 74 bd b6 7b 9b 3c a5 eb 6c be
       0.19956219 -0.059782546 0.018979888 -0.23136766
000150 c0 be 54 be 31 be 22 3e 71 3a 78 3e d9 79 32 be
       -0.2077589 0.15892865 0.24241044 -0.17429294
000160 af f9 96 3d 4f e6 ae 3d 33 32 0c 3d 1d bc b6 3d
       0.07371842 0.08540022 0.03422756 0.089225985
000170 8c 09 1a be 8d 8b 45 be 4f 46 0e be 6a f1 54 3e
       -0.15042704 -0.19291516 -0.13894008 0.20795217
000180 5f 2c 3a 3b 56 34 21 3e bf c9 1c be f6 2e 98 bd
       0.0028407795 0.15742621 -0.15311335 -0.07430832
000190 e7 f5 2c be 6f f5 52 3d bb ce db 3c 7d 43 4a bc
       -0.1689068 0.051503595 0.026831975 -0.012345192
0001a0 34 2c 77 3c f3 07 83 bd 76 56 2e 3e 5b 25 d1 bd
       0.015086222 -0.063980006 0.1702517 -0.10212203
0001b0 cc c3 ad 3d cf 04 11 3e 2a 35 f0 bd ff 3c 1c 3e
       0.08484611 0.1416199 -0.1172889 0.15257643
0001c0 97 ce 25 3e c2 46 e0 3d 64 6e a1 bd f2 35 e6 bd
       0.16192089 0.10950996 -0.078823835 -0.11240758
0001d0 d8 f0 5f be ee 53 fe bd 15 ad 50 3d 0e 93 e1 bd
       -0.21869218 -0.12418352 0.050946314 -0.110143766
0001e0 5e 23 de 3d eb e2 eb bd fa 32 eb bd 30 0b 76 be
       0.108465895 -0.115178905 -0.114843324 -0.24027705
0001f0 45 d0 27 be 21 72 6e be 55 f5 2d 3e 52 47 ef 3d
       -0.16388042 -0.23285724 0.16988118 0.11683525
000200 21 fe e4 bd 76 b6 39 be 59 d9 3a 3e ca 90 db bd
       -0.11181284 -0.1813601 0.18246974 -0.10720976
000210 c2 27 4e 3e 5b 36 5f be 69 f5 39 bd ef 22 07 3e
       0.20132354 -0.21798079 -0.045400057 0.1319692
000220 52 d6 3d 3e 62 46 69 be 13 c2 ed 3d d6 77 93 bc
       0.18538788 -0.22780755 0.11609282 -0.018001478
000230 ff 48 e1 3d fa 9b 07 3e 0c 3b 73 be 70 1c 7a 3e
       0.11000251 0.13243094 -0.23752993 0.2442491
000240 79 b9 ed 3c c5 9c 86 3d 40 31 e8 bd 9f 4e 7b 3e
       0.029019104 0.0657287 -0.11337519 0.2454171
000250 89 d2 ae 3c a6 2c 5f 3e 21 53 c0 3d 22 e3 53 be
       0.021340625 0.21794376 0.093908556 -0.20692113
000260 99 67 7c 3e da e8 e2 3d 36 d3 06 3e be ff c6 bd
       0.24648894 0.11079569 0.13166508 -0.09716748
000270 9a 31 aa 3d 07 6b bd 3d 8a 35 49 be de 71 29 3d
       0.08310242 0.092489295 -0.1964933 0.041368358
000280 ac d7 05 be 21 e3 20 3e 34 9c 9a bd f7 15 94 3d
       -0.13070554 0.15711643 -0.07549325 0.07230752
000290 33 50 43 be 3e 90 6e be 22 74 62 be 34 b9 ed bc
       -0.19073562 -0.23297212 -0.22114614 -0.029018976
0002a0 a1 8c a0 3d c3 6f 6d 3d 5f d4 09 3c 46 1d 86 be
       0.07839323 0.057967912 0.00841245 -0.2619421
0002b0 01 1e 42 be c7 58 21 3e ff 65 f5 bd 79 8b 6a 3d
       -0.18956758 0.15756522 -0.11982345 0.057261918
0002c0 2c ba 85 bc d8 fa 61 bd 02 bd bf bd 00 5d e2 3d
       -0.016324125 -0.055170864 -0.09362222 0.110528946
0002d0 2a 77 50 be 11 e1 3b be d7 40 11 3e c0 6b 27 be
       -0.20357957 -0.18347575 0.1418489 -0.16349697
0002e0 a2 82 55 bc de 82 44 be 26 04 9b 3d 41 07 0c bd
       -0.013031634 -0.19190547 0.075691506 -0.034186605
0002f0 b9 62 c3 3d bc ca 55 be 42 66 00 be 71 64 6c bd
       0.09540314 -0.20878118 -0.12539008 -0.057712976
000300 7c 1f bc bd 64 72 a0 bc 24 ba b1 b9 3e 79 11 be
       -0.09185693 -0.019585796 -0.00033898756 -0.14206406
000310 4f c1 24 ba ff e1 4f be f3 aa ee bc 7b 62 65 be
       -0.0006284909 -0.20301054 -0.02913425 -0.22400849
000320 2d 16 fa 3d 51 c4 60 3e 73 1f 64 3e 51 8b 14 3e
       0.12211261 0.21949889 0.22277622 0.1450627
000330 27 0c 59 be df 6d 62 3e 49 76 59 be 34 8f 34 be
       -0.21196042 0.22112225 -0.21236528 -0.17632753
000340 5c 36 55 bd 22 bb db 3d 30 6a 74 3e 85 19 2c 3e
       -0.052053794 0.10729052 0.23868632 0.1680661
000350 dc 26 2e 3e 57 ec 04 be 1a 6b 38 be 37 ea c9 bd
       0.17007011 -0.12980781 -0.18009606 -0.09859126
000360 7f 4d b4 bd a9 e0 29 3e 3a c5 5d be 10 84 b4 bd
       -0.08803844 0.16589607 -0.21657267 -0.088142514
000370 42 d9 c1 3c 95 73 68 3e 1a 49 91 bd c4 3b 64 3e
       0.023663167 0.22700341 -0.07094021 0.22288424
000380 92 ce 04 be ad b4 45 3e a4 fa 64 be 47 5a d7 3c
       -0.12969425 0.19307204 -0.22361237 0.026288165
000390 43 78 62 3e 0d cb ff 3b b8 7d 60 3e d9 90 a1 3c
       0.22116189 0.007806188 0.21922958 0.019722389
0003a0 18 92 12 be 9f 3c f1 bd 59 11 c7 bd 50 68 76 be
       -0.14313543 -0.11779141 -0.09720106 -0.2406323
0003b0 54 ec 0a be 6d 39 a1 bd 2b c3 80 be d0 76 ef 3c
       -0.13566715 -0.07872281 -0.251489 0.029231459
0003c0 b1 81 91 bd 06 fb b9 3d e9 90 6c 3e f2 86 83 3d
       -0.07104815 0.09081082 0.23102154 0.06422223
0003d0 5c d7 90 3a be 2b 03 bc ec 7a f3 bd cc f3 ac bc
       0.001105051 -0.008006034 -0.1188868 -0.021112345
0003e0 8c c6 cc bc 3a 5b fe 3b 43 ff 6e 3d f9 ed 2d be
       -0.024997018 0.00776234 0.058348905 -0.1698531
0003f0 d0 5c 1f bd 64 02 4d be ca fe 06 bd b9 85 3f be
       -0.038906872 -0.20020443 -0.03295783 -0.18703355

gnn_base.gnn.gnn1.lin_key.bias f4 [48]
000000 be 15 27 3e 04 8c a1 3d d8 db 37 3d 34 4d f2 bd
       0.16316888 0.07888034 0.044887394 -0.118311316
000010 c4 d6 9f bd 10 75 d9 3c b8 dd 01 bd 56 65 1d 3e
       -0.07804635 0.026545078 -0.031705588 0.15370688
000020 dc 42 07 3e c0 3e 73 3e 64 8c b0 3d 50 a2 24 be
       0.13209099 0.23754406 0.086205274 -0.16077542
000030 a0 d4 5f 3e 4e 46 97 3c 54 ba 68 be 34 10 31 3e
       0.21858454 0.018466141 -0.22727329 0.17291337
000040 a8 0c 23 be 08 90 2a 3e 90 50 19 3d 7a d1 29 be
       -0.15922797 0.16656506 0.037430346 -0.16583815
000050 e0 dc 26 3e b8 a0 21 bd e6 3c 3f be b2 85 1e 3e
       0.16295195 -0.039459914 -0.18675575 0.15480688
000060 f8 0c 1b be bf 36 92 3d 50 60 0b 3e 25 c6 ce 3d
       -0.15141666 0.07139348 0.13610959 0.10096387
000070 99 de 8c 3d e0 34 f2 3d 04 22 49 be c8 89 f9 bd
       0.06878395 0.11826491 -0.19641882 -0.12184483
000080 2a 55 02 3e c2 d5 3f 3e 5f da 3e 3d 97 8c f9 3c
       0.127278 0.18733886 0.046594974 0.030462546
000090 dc d6 4a be 70 44 47 bd ac f6 00 be 3a bf 79 3e
       -0.19808525 -0.04864925 -0.12594098 0.24389353
0000a0 d8 83 7d 3e 02 47 3b 3d bc 14 4c 3e 3f 83 9f 3c
       0.24757326 0.045722015 0.19929785 0.019471763
0000b0 9c 2d 93 bd fa 0c 39 be a8 96 58 3e 0c 50 92 3d
       -0.07186434 -0.18071356 0.21151221 0.07144174

gnn_base.gnn.gnn1.lin_query.weight f4 [48, 16]
000000 24 19 3f bd 8b cc 2c be 35 03 34 3e 8f b7 f0 3d
       -0.046654835 -0.16874902 0.17579348 0.11753761
000010 89 40 0e be 58 66 6c 3e 68 18 3c be 90 11 25 bd
       -0.13891806 0.23085916 -0.18368685 -0.040299952
000020 90 69 91 3c 13 d8 5d 3e 3f 1e 50 3d 2d 37 32 3e
       0.017750531 0.21664457 0.050810095 0.1740386
000030 86 d0 27 be 87 aa 03 3e 4e 4e 51 3e fa e3 20 be
       -0.16388139 0.1285802 0.20440027 -0.15711966
000040 12 11 70 bd 95 7f e4 3d 1e 96 80 3d e9 53 21 3d
       -0.05861003 0.11157147 0.062786326 0.039386664
000050 31 e9 3d bd f3 a5 66 bd 48 03 33 3e d9 e4 a1 bd
       -0.046364967 -0.056310605 0.1748172 -0.07904977
000060 97 02 44 3d 7e 1e 2c be 7c 02 3e be 3b d1 46 be
       0.047854032 -0.16808507 -0.18555635 -0.19415753
000070 fe 76 79 3e a5 fb 98 bd a7 bd 0d be 8f cb 2d 3d
       0.24361798 -0.074698724 -0.13841878 0.042430457
000080 f6 a5 57 3e b6 ed db 3c 2d 99 bd 3d 45 78 94 3d
       0.21059403 0.026846748 0.092577316 0.07249502
000090 f2 c5 51 3e 6b 26 c2 3d 67 87 49 be 81 26 63 3b
       0.20485666 0.09479984 -0.19680558 0.0034660401
0000a0 4d 40 59 3e e1 6f 6d be 20 ab 94 bd 85 a0 75 be
       0.21215935 -0.2318721 -0.07259202 -0.23987015
0000b0 42 05 63 be bf 74 d0 3d c5 e0 5b 3e 74 77 60 3e
       -0.22169974 0.101785176 0.21472462 0.21920568
0000c0 2c 91 c0 bd 07 16 3b 3e 7c dd 41 be f7 4a 5c be
       -0.09402689 0.18270122 -0.18932146 -0.21512972
0000d0 08 48 49 3e e9 d7 da 3d 6f 45 02 3d a0 79 42 be
       0.19656384 0.10685713 0.0318045 -0.18991709
0000e0 24 5c 31 3a a6 c1 5f 3e d2 06 d7 bd 5e c8 22 3e
       0.0006765744 0.21851215 -0.10499348 0.15896747
0000f0 0b 44 fc bd b5 3d 67 be 07 54 60 3e 57 b8 75 be
       -0.12317666 -0.22582133 0.21907054 -0.23996101
000100 24 01 e2 bd d4 21 ef bc 10 05 49 3e 44 5e 98 bb
       -0.11035374 -0.029190935 0.19630837 -0.004649909
000110 90 79 65 bd 57 c2 18 3e d3 f2 43 bd 31 f1 35 3e
       -0.056024134 0.14917885 -0.047838997 0.17767788
000120 56 2a 60 3e 7c 6e bc 3d 46 ee d4 3c 85 53 46 3e
       0.2189115 0.09200761 0.025992524 0.19367798
000130 7d 99 73 be 79 57 7b be 46 38 8c 3d 8b cd 1e be
       -0.2378902 -0.24545087 0.06846671 -0.15508096
000140 aa 4d 58 be 08 fd 84 bd 09 00 20 be e1 83 2a 3d
       -0.21123376 -0.064935744 -0.15625013 0.041629676
000150 43 ad 12 be cd 76 32 3b 79 d5 05 3e 63 6f 09 be
       -0.14323907 0.0027231455 0.13069715 -0.13421397
000160 2f 0e 4d 3e 1b 09 d4 bd 70 b6 44 3e 83 04 10 be
       0.20024942 -0.10353299 0.1921022 -0.14064221
000170 1d b5 2a be f9 85 ea 3d 41 77 74 3e 3b 8b 03 be
       -0.16670652 0.114513345 0.23873617 -0.12846081
000180 47 ef 69 be bb b3 07 be d3 5d 13 3e 2d 9e 49 be
       -0.22845183 -0.13252155 0.1439126 -0.19689246
000190 c7 e6 91 bd 7b e8 5f be 02 8b 4f bc 72 52 30 3e
       -0.071240954 -0.21866028 -0.012667419 0.1721895
0001a0 27 8c 8f 3b c7 aa 2d bc cd 9c fc bc d2 ac 6a 3e
       0.004380721 -0.0105997985 -0.030836487 0.22917488
0001b0 e7 f8 3d 3d 0d 89 b6 3c cb 50 3b 3d 25 df 8a 3c
       0.04637995 0.022282148 0.045731347 0.016952107
0001c0 bc e0 41 3e e4 3d 3d 3e 09 4e 8f 3d ea 9f 05 3e
       0.18933386 0.1848064 0.06997306 0.13049284
0001d0 b9 00 51 be b8 35 50 be 12 e7 68 b9 92 f1 9d 3d
       -0.20410432 -0.20332992 -0.00022211325 0.077120915
0001e0 2a 10 45 3d ad c5 fd 3d 29 38 63 3e 5e 18 6f be
       0.04811112 0.12391219 0.22189392 -0.23349139
0001f0 b3 d1 7d be 3b 9f 37 3c 89 5b 22 be 47 42 bc 3d
       -0.24787025 0.011207397 -0.1585523 0.09192329
000200 b5 51 57 3d 90 0e b8 3b 8a 07 bc 3c f2 48 9c 3c
       0.052568156 0.0056169704 0.022952814 0.019077752
000210 31 d0 68 be ba 9c f3 3d cb f3 a9 3d 3b fb 7e 3e
       -0.22735669 0.118951276 0.08298453 0.24900524
000220 b4 13 6c 3d 66 22 12 3d 44 53 62 3c 9a fb 35 bd
       0.057635978 0.035677336 0.013813797 -0.0444294
000230 a5 6c a8 3d b1 81 0d 3d a1 08 72 3e c9 b9 08 be
       0.08223847 0.03454751 0.23636104 -0.13352121
000240 b5 8a 11 be 85 6d 54 3e f4 e9 00 3e f7 73 f9 3c
       -0.14213069 0.20744903 0.12589246 0.030450804
000250 a1 9f 5b 3e d1 fd 1a bc 09 80 ac 3d 47 60 6f 3d
       0.21447612 -0.009459929 0.08422858 0.058441427
000260 7d 4f 7a 3c 99 2a 24 3e 57 fb 0b be fa c9 a9 bd
       0.015277741 0.16031875 -0.13670097 -0.08290477
000270 64 d0 3a 3e 3e 4c 0b 3e 1b ae bf 3d b3 55 fe 3d
       0.18243557 0.13603303 0.0935938 0.124186896
000280 b6 6c 27 3e 67 71 45 bc c2 b8 7c 3e 48 6c 85 3d
       0.16350064 -0.012050963 0.24679855 0.06514794
000290 70 6c 5c bd 7d ef ec 3d 04 63 b7 3d d7 32 35 be
       -0.05381435 0.11569116 0.089544326 -0.17695175
0002a0 dd 43 51 3c 3b c2 70 3d 68 15 31 3e 5a bf 53 be
       0.0127725275 0.058778983 0.17293322 -0.20678464
0002b0 02 f2 3d be ad 71 4a be 94 ed 0a 3e 6c 26 0e 3c
       -0.1854935 -0.19769926 0.13567191 0.008676153
0002c0 17 e2 71 be 96 bb 31 be f4 a9 57 3e 48 c1 00 3e
       -0.23621403 -0.17356715 0.21060926 0.12573731
0002d0 9e 0d 42 3e d3 24 80 be c4 7c c9 bd d3 1f 84 3d
       0.18950507 -0.25028095 -0.0983825 0.064513825
0002e0 f5 96 ed 3d 35 fd 5a 3e 3f 29 6b be 2f cc 07 3e
       0.116010584 0.21385653 -0.22964953 0.13261484
0002f0 80 55 28 3d 8a 98 82 3e 4f 51 5b be b7 65 81 3b
       0.041097164 0.25507003 -0.21417736 0.003948893
000300 32 b2 77 be 44 e2 97 bd 44 1f 02 3e 78 f9 2a 3e
       -0.2418907 -0.074162036 0.1270724 0.16696727
000310 8a bb 68 be f6 f6 99 3c 9f 7b 58 3e a5 2c 31 bd
       -0.2272779 0.018794518 0.21140908 -0.043255467
000320 0b 20 0a bd ae 75 1b 3d 8c 88 28 bc 76 54 4d bc
       -0.033721965 0.037954025 -0.010286462 -0.012532344
000330 32 b8 5f 3e 55 5c cc bd b5 d9 69 be a3 e4 52 3e
       0.21847609 -0.099785484 -0.22836955 0.2059503
000340 6c 3b b7 bd 36 fe d4 bd 7b 91 ac bd 51 32 1a 3e
       -0.08946881 -0.104000494 -0.08426186 0.15058257
000350 34 2d 33 3c e8 ac 12 3e f1 f9 26 be 3a 32 cb bd
       0.01093607 0.14323771 -0.16306283 -0.09921689
000360 0e cf 34 be e1 92 38 3e 62 8b 6c be d0 3b 6c be
       -0.1765711 0.1802478 -0.23100045 -0.23069692
000370 fe 52 19 3e 5c 09 12 be 73 bd 5a 3e 9e b4 42 be
       0.14973065 -0.14261383 0.21361332 -0.19014212
000380 f4 08 26 bc e6 a8 c4 3d fc 46 16 3e bf 5f c9 bd
       -0.0101339705 0.09602527 0.14675516 -0.09832715
000390 2c 93 6f bd c2 4e b4 3d 83 f8 02 be 6e dc 09 be
       -0.058489963 0.08804084 -0.12790112 -0.13462994
0003a0 50 4f 1b 3e c2 e1 a2 3d 21 3d 60 be 66 f3 5c bc
       0.15166974 0.07953216 -0.21898319 -0.013485765
0003b0 5a 01 b4 3d 8d ea 81 be 01 83 eb bd c0 f8 6a be
       0.0878932 -0.2537426 -0.114995964 -0.22946453
0003c0 1b 3d 81 be 1f 09 e6 bd 88 8e 61 3e e5 2d 8a 3b
       -0.25241932 -0.112322085 0.22027028 0.004216897
0003d0 9c 16 72 bc e1 6a 37 3d 3d 91 51 3d 12 62 75 ba
       -0.014775898 0.044779662 0.0511639 -0.0009360622
0003e0 42 90 dd 3d b7 c9 8c bd 77 95 7f 3e 51 f6 5b 3c
       0.108185306 -0.068744116 0.2495936 0.013425426
0003f0 a7 f1 b8 bd 6d f3 9e bc 6b 9f 15 3e d3 43 2e be
       -0.090304665 -0.019403184 0.14611594 -0.1701806

gnn_base.gnn.gnn1.lin_query.bias f4 [48]
000000 8e 4d 29 3e 8c 05 1f be 64 55 37 be 57 0c 0f be
       0.16533491 -0.1552946 -0.17903668 -0.13969551
000010 c3 6c 10 3e 3c 48 4f bd 22 f5 5e 3e bd 69 56 be
       0.1410399 -0.050605997 0.21773198 -0.20938773
000020 9a 81 aa 3d cf 4c ab bd 99 b1 24 3d ef 5f 23 3e
       0.08325501 -0.083642595 0.040208433 0.15954565
000030 01 66 08 3e 2e 48 71 be e3 d9 f3 bc 27 7f db 3d
       0.13320161 -0.2356269 -0.029766982 0.10717612
000040 63 18 80 be 78 82 3a be 09 f7 80 be e0 d7 ec 3c
       -0.25018606 -0.18213832 -0.25188473 0.028911531
000050 66 6b 73 3d 47 9b d1 bd 8e bd b0 3d 48 ec fd 3c
       0.059428595 -0.10234695 0.08629905 0.030996457
000060 f4 9e dc 3d dc 85 59 3e 2b 75 34 be 54 5d 4c be
       0.107725054 0.2124247 -0.17622821 -0.19957477
000070 b8 2a 74 3e 78 8c ef bd db 82 32 3e 1f 34 a3 bd
       0.23844421 -0.11696714 0.1743273 -0.07968926
000080 60 6f 5a bd ac 51 ea bd 71 5c 98 3d 9c d6 72 bc
       -0.05332887 -0.11441359 0.07439507 -0.014821675
000090 b8 39 4b 3e 1c 47 7b be 37 97 29 bc 9f b8 0c 3d
       0.19846237 -0.24538845 -0.010350994 0.034355756
0000a0 d7 13 a3 3d 06 8d 42 3e ae a1 bd 3d ec 94 59 be
       0.079627685 0.18999109 0.092593536 -0.21248215
0000b0 03 b9 12 3d 4e a7 da bd 90 64 1d 3e 32 55 de bd
       0.035820972 -0.10676442 0.15370393 -0.108560935

gnn_base.gnn.gnn1.lin_value.weight f4 [48, 16]
000000 49 a6 10 bd bc bd 82 3d 3b 07 2c 3e d1 0b f5 bd
       -0.035314832 0.06383845 0.16799633 -0.119651444
000010 0e f0 39 3e 32 7c 32 be fb 30 74 bd 7d 27 25 be
       0.1815798 -0.17430189 -0.059617024 -0.16128345
000020 46 f2 3a 3d ff a4 54 be 6b 3b e9 bb 33 73 2f be
       0.045641206 -0.20766066 -0.007117679 -0.17133789
000030 ef d9 29 3e df df 62 be 7a e9 dd bd 05 e8 5a be
       0.16587041 -0.22155713 -0.10835548 -0.21377571
000040 0e be 1b be 60 40 e2 3c 7e 1e 02 3e f1 05 f3 3d
       -0.15209219 0.027618587 0.12706944 0.118663676
000050 30 12 52 be 26 70 18 bd cc 86 5b bd 6d 07 d6 3d
       -0.2051475 -0.037216328 -0.05359535 0.10450635
000060 c6 d9 0a bd af 9f 36 bd 69 48 23 be 4c 5d 2c be
       -0.03389909 -0.04458588 -0.15945591 -0.16832465
000070 bc 4a 80 bb 55 3e fe 3d a5 72 fa bd 38 34 55 3d
       -0.003915159 0.12414233 -0.12228898 0.052051753
000080 a0 96 1a 3e 82 8e ec bd 7a 3f 55 3e de be 46 3e
       0.15096521 -0.11550619 0.20824996 0.19408748
000090 c7 67 07 3e d3 93 a5 3d 32 b1 57 be 9a a8 05 3e
       0.13223182 0.08084836 -0.21063688 0.13052598
0000a0 71 2a 71 bc ba 16 59 3e 80 56 4e be dc 02 af 3c
       -0.0147195915 0.21200076 -0.20150185 0.021363668
0000b0 b7 7a 55 3e 8d e4 19 3d 16 44 de 3d a0 b4 06 3d
       0.20847593 0.03757148 0.1085283 0.0328871
0000c0 31 69 e9 bd db 5e 07 3e 4b 5e 4f 3e 06 0a 07 3e
       -0.11397017 0.13219778 0.20250814 0.13187417
0000d0 65 0b 31 be 13 10 28 be a9 1e 77 3e 19 a7 ed bc
       -0.17289503 -0.16412382 0.2413279 -0.029010342
0000e0 73 64 c8 3d 0d 47 81 3d f3 a5 2a be 70 87 60 3e
       0.09784784 0.0631238 -0.16664867 0.21926665
0000f0 4e b0 4d 3d 4a 3f e9 bd 40 19 72 3e 06 f4 a7 3d
       0.050216965 -0.113890246 0.23642445 0.08200841
000100 94 11 61 3d 97 98 1e be 0d a6 6d 3e 39 15 f1 bd
       0.054948404 -0.15487896 0.23207875 -0.11771626
000110 79 f4 be bd a9 87 6b be 14 b2 b3 3d 2c c6 11 be
       -0.09323973 -0.23000969 0.087742 -0.14235753
000120 15 70 79 be 5c 9d 1f 3e cc fe 57 be 9d 14 48 bd
       -0.24359162 0.15587372 -0.21093291 -0.048847783
000130 2c 8c 9e bd a5 68 0e 3d ab c4 d2 3c e4 f0 53 3e
       -0.077415794 0.034767766 0.025728544 0.20697361
000140 87 3a be 3d 74 89 c6 bd 17 70 2c be 21 28 92 bd
       0.09288507 -0.09694186 -0.16839634 -0.0713656
000150 e1 31 18 3e 4a 03 7f be bf 69 a1 3d 12 d2 d6 bb
       0.14862777 -0.24903598 0.078814976 -0.006555804
000160 8b c7 c7 bd 3f d6 35 3e be 7c 0a 3e f8 b7 7c 3c
       -0.09754857 0.1775751 0.13524148 0.015424721
000170 61 df 12 be 4e f8 30 be f8 78 7c bd 5a 04 0f be
       -0.14343025 -0.1728222 -0.061638802 -0.13966504
000180 ae 13 61 bd d7 24 c8 3d f6 a8 75 bc 18 7b 22 3d
       -0.05495041 0.09772652 -0.014993897 0.039668173
000190 6e 9f b3 bd 00 9a 8a bd 9e 26 21 3e f6 6a f4 bc
       -0.08770643 -0.067676544 0.15737388 -0.02983616
0001a0 22 71 28 3d 3c aa 41 be 85 af 09 be 11 ed 39 3e
       0.041123517 -0.18912596 -0.13445862 0.1815684
0001b0 63 f0 a9 3b 9e 54 84 3e aa 07 b8 bd 02 4c f6 3d
       0.005186127 0.25845808 -0.08985837 0.12026216
0001c0 0c 80 f3 3d 8f c7 55 be f9 d4 0a be c4 e6 52 3e
       0.118896574 -0.20876907 -0.13557805 0.20595843
0001d0 a0 19 ba bd 19 14 67 be ba 0d 38 3e d7 00 70 3e
       -0.09086919 -0.2256626 0.17973986 0.2343782
0001e0 3b 8f 1e 3e 45 c9 17 3e 97 80 af bd 8a 2b 5d 3e
       0.15484326 0.14822872 -0.085694484 0.2159864
0001f0 7d ed d6 bd 42 44 d5 3d 3a 76 72 be 62 2d 65 3e
       -0.10494516 0.1041341 -0.23677912 0.22380593
000200 39 6c 44 be 5e ef 55 be 6d de d5 3d 10 4d 67 3e
       -0.19181909 -0.20892093 0.10442815 0.22587991
000210 84 f2 3f be 46 40 71 3e 36 24 5e 3d dc f7 ec 3d
       -0.18744856 0.23559675 0.054233752 0.11570713
000220 7b b7 08 3d 7c 4b 86 be 63 9d 63 3e 2d 56 45 3e
       0.033378106 -0.26229465 0.22228007 0.19271155
000230 f4 45 10 3e 42 b5 c7 3c 1b 54 bc 3d a2 f4 4d ba
       0.14089185 0.024378423 0.09195729 -0.00078565825
000240 62 23 9b 3d 28 7a 05 bd 17 3d 73 3e 1b bb ae bd
       0.07575108 -0.0325872 0.23753773 -0.08531781
000250 59 a9 27 bd ae b9 99 3d b5 2c 60 3e 17 94 11 be
       -0.040932987 0.07506119 0.21892054 -0.14216648
000260 ef a8 e4 bd d1 46 5f be 11 2d 39 3e 51 3f 72 3e
       -0.11165034 -0.21804358 0.18083598 0.23656966
000270 24 b6 57 3d 98 9a 51 be fa ba 44 be 6e d7 48 3e
       0.052663937 -0.20469129 -0.19211951 0.1961343
000280 bb f5 3a 3d 6c 21 82 3d 28 7c 1f be b4 42 5a be
       0.045644503 0.06354031 -0.15574706 -0.21314508
000290 8b 5d 00 be 4d f8 71 be 69 71 27 3e 8b 93 90 3d
       -0.12535684 -0.23629875 0.16351856 0.070593916
0002a0 4e 9f 4c be 26 24 80 3e 41 16 8b bd d9 bd 06 3e
       -0.19982645 0.2502758 -0.06791354 0.13158359
0002b0 ce da 3c 3d 72 de a5 3d b1 7b a0 bc fe af 98 3b
       0.046107106 0.08099069 -0.01959023 0.004659652
0002c0 dc a4 0f be d4 7c bc 3d 07 2f 17 3d cf 31 3b 3e
       -0.14027733 0.092034966 0.036910083 0.18280719
0002d0 71 3e 42 be 84 63 ce 3d 30 0c a6 3d 1f 22 57 3b
       -0.18969132 0.10077575 0.08107793 0.0032826734
0002e0 dd d8 1d be 33 5f 0f be 67 07 41 3e 01 fb 28 3e
       -0.15414758 -0.1400116 0.1885048 0.16502
0002f0 f4 96 e4 3d 58 e7 64 be 83 db 30 be 9a e4 93 3d
       0.111616045 -0.22353876 -0.17271237 0.07221337
000300 62 32 80 3e d7 1f 72 be f9 46 87 3d d4 46 76 be
       0.2503844 -0.23644958 0.06605334 -0.24050456
000310 56 05 7c be 89 a9 3b be 12 e0 03 be 45 4e 1f be
       -0.2461141 -0.18326391 -0.12878445 -0.15557201
000320 03 c3 19 be da 28 81 3c 12 4a 79 bd 6d 49 1c 3e
       -0.15015797 0.01576655 -0.060861655 0.15262385
000330 9f ac 7a 3d f7 bc c7 bd bd 06 28 be 0f 04 44 3e
       0.06119978 -0.09752839 -0.1640882 0.19142173
000340 bf c6 f3 ba 8f 1a 70 3d 57 90 f4 3d 0c 0b 49 bd
       -0.001859866 0.05861908 0.11941593 -0.0490828
000350 dd f6 00 be df b2 17 3c bf e4 17 be af 5d f6 3d
       -0.12594171 0.009258955 -0.14833353 0.120295875
000360 5e 86 bb 3d d8 91 02 be aa ad 9e bd 7d c5 54 3d
       0.09156488 -0.12750947 -0.077479675 0.051946152
000370 a3 63 13 3d 37 32 23 3d 69 74 05 be 76 b4 44 3d
       0.035983693 0.03984281 -0.13032688 0.048023663
000380 0b dd d0 bd 58 b7 26 3d 59 d1 6b 3c 40 0d 8c 3c
       -0.101984106 0.040702194 0.014393174 0.017096162
000390 c1 b7 d4 bd 94 64 4a be 98 a9 41 be 41 49 43 3d
       -0.10386611 -0.1976493 -0.18912351 0.047677282
0003a0 89 02 e2 3d 80 e3 6f bd 89 98 32 3e f0 cf c9 bd
       0.1103564 -0.05856657 0.17441 -0.09854114
0003b0 af 58 06 3e 48 45 32 3d bc c8 66 3e f4 e1 3e 3e
       0.13119768 0.043523103 0.22537512 0.18640882
0003c0 5a 8f a2 bd 97 5d e2 ba 81 1a 42 be 3e 92 15 3e
       -0.079374984 -0.0017270324 -0.18955423 0.14606568
0003d0 42 51 67 bd 41 da 48 be ad 9d d9 bd 4c d1 69 be
       -0.056473978 -0.19614507 -0.106257774 -0.22833747
0003e0 2c 04 94 bd b0 d9 a5 bd dd 04 79 be 17 92 8e 3d
       -0.07227358 -0.08098161 -0.24318261 0.06961458
0003f0 5d cd 39 be fc db 5c 3d 49 2f f3 bd d8 48 b5 3c
       -0.18144746 0.05392073 -0.11874253 0.022129461

gnn_base.gnn.gnn1.lin_value.bias f4 [48]
000000 cd 91 0b 3e 93 96 e3 bd 5e 01 ee bd a3 a0 56 be
       0.13629837 -0.11112704 -0.116213545 -0.20959716
000010 81 ec c6 3d 9d c0 5a 3e d6 d8 66 3d 37 a3 44 3e
       0.09713078 0.21362539 0.056359135 0.19202887
000020 aa 3b 43 be b6 94 7b be 7e ec c3 3d 4e 2f 03 be
       -0.19065729 -0.24568447 0.09566592 -0.12811014
000030 72 41 48 3e a2 98 14 bc a0 9e 0a 3d 2f 3a a1 3d
       0.19556215 -0.009069594 0.033842683 0.07872426
000040 8b f9 4e be 2c 9f 6c bd 98 34 34 3e 60 37 b4 bd
       -0.2021238 -0.057768986 0.17598188 -0.087996244
000050 b0 9c 2c 3d 7b ea e9 bd 73 c7 f9 3c dd 90 05 be
       0.042141616 -0.11421677 0.030490613 -0.13043542
000060 e2 2f 82 bd 30 55 08 3e 7f c4 58 bb dd 6c 15 3e
       -0.06356789 0.13313746 -0.0033076105 0.1459231
000070 50 6b 0f 3e 68 b7 4d 3e b1 c6 8a bd cd b3 49 3d
       0.1400578 0.20089495 -0.06776179 0.049243737
000080 c9 8d 61 3d b2 c0 1d be e1 70 0e 3e e9 8e 23 be
       0.055066857 -0.15405539 0.13910247 -0.15972485
000090 8c 52 63 be 18 cb 80 3e 60 a7 bd 3c 1f 6c 24 3e
       -0.22199458 0.25154948 0.0231511 0.1605687
0000a0 ce 32 56 3e e2 8a 59 be e3 39 4b be 22 c9 29 3d
       0.20917818 -0.21244386 -0.19846301 0.04145158
0000b0 e7 c1 01 3d a3 29 85 bc d0 db 19 be ed 79 69 3d
       0.03167906 -0.016255205 -0.15025258 0.057001043

gnn_base.gnn.gnn1.lin_edge.weight f4 [48, 1]
000000 86 0b 04 3f 8e 28 32 bf 2d ea 2c 3f 80 4f 83 bd
       0.51580083 -0.6959313 0.67544824 -0.06411648
000010 d4 af 52 3f e3 b1 8a 3b 76 a4 69 3e 53 62 07 bf
       0.8229954 0.0042326315 0.22816643 -0.52884406
000020 dc a0 95 be 5e 7a 2b 3e e9 5d 18 3e 49 c0 30 3f
       -0.29224288 0.16745898 0.14879574 0.69043404
000030 2c 45 1a bf a0 c3 66 3e 0c 26 05 bf a1 f9 4a be
       -0.602618 0.22535563 -0.5201118 -0.19821788
000040 44 34 27 bf 21 73 41 3f 96 1a 2a 3f d3 ec 5c bf
       -0.65314126 0.755663 0.66446817 -0.86298865
000050 63 3f 46 bf 8b 53 ac 3e 84 8a 41 bf 4d 28 de be
       -0.7744047 0.33657488 -0.75601983 -0.43390122
000060 ea a9 7c bf 4d 20 36 bf 5c b0 3e 3f 0b 83 17 bf
       -0.9869677 -0.7114304 0.74487853 -0.5918433
000070 4f 06 24 3f c9 4e 8b 3e 29 d3 2d bf d2 2e 6c be
       0.64072126 0.27208546 -0.6790033 -0.23064736
000080 d2 eb 86 bd c4 c0 2a 3f 61 67 6f bf 56 3b 47 3f
       -0.06587948 0.66700387 -0.9351712 0.77824914
000090 e2 a7 74 bf 6f c2 36 bf f6 5a 2b bf f3 5d ac 3e
       -0.9556867 -0.7139043 -0.6693567 0.33665428
0000a0 46 b0 33 bf a7 61 4a bf 42 f8 bc 3e ad 81 3e bf
       -0.70190847 -0.79055256 0.36908156 -0.7441662
0000b0 e8 1f 35 bf e2 bb 62 3f 65 c8 11 3f d4 ed 38 bf
       -0.7075181 0.88567936 0.569464 -0.72237897
