onpolicy/results/GraphMPE/navigation_graph/rmappo/crap_bad/run23/models/actor.pt (torch, 195957 bytes, 62 tensors)

gnn_base.gnn.embed_layer.entity_embed.weight f4 [3, 2]
0	0x3fc43ba0	1.5330696
1	0xbe97b95a	-0.296336
2	0xc0097408	-2.147707
3	0x3f1354ea	0.57551444
4	0xbf8701b5	-1.0547396
5	0xbfb44bf8	-1.4085684

gnn_base.gnn.embed_layer.lin1.0.weight f4 [16, 7]
0	0xbd1e877b	-0.038703423
1	0x3ecb6a1c	0.39729393
2	0x3f5353bd	0.8254965
3	0xbdc985f6	-0.09840004
4	0xbe882d0a	-0.26596862
5	0x3de9bf09	0.1141339
6	0x3e3cfb41	0.18455221
7	0x3ef44f38	0.4771669
8	0x3f4bf8c6	0.79676473
9	0x3dd3615c	0.10321304
10	0xbe46dd6a	-0.194204
11	0x3e36bce8	0.178455
12	0x3db6635c	0.0890567
13	0x3da1b351	0.0789553
14	0xbf438af6	-0.7638391
15	0x3dfb0446	0.122566745
16	0xbdf86a43	-0.12129643
17	0x3d47d607	0.048788097
18	0xbeb0f2dd	-0.3456029
19	0xbe95a0cb	-0.29224238
20	0x3e222358	0.15833795
21	0xbecd2977	-0.40070698
22	0x3e0b4848	0.13601792
23	0x3e16a4db	0.14711325
24	0x3ed6a21a	0.4192055
25	0xbe82cb12	-0.25545555
26	0x3e7f492f	0.24930261
27	0xbf2092f4	-0.6272423
28	0x3e02e5ec	0.1278302
29	0x3d5e04db	0.05420385
30	0xbe188e08	-0.1489793
31	0x3e22f1d7	0.15912567
32	0xbf305442	-0.6887857
33	0xbe95d9a9	-0.29267624
34	0xbea3231a	-0.31862718
35	0xbefcb8c9	-0.4935973
36	0x3b3c676b	0.0028748165
37	0x3da5fc1d	0.081047274
38	0xbf4278e9	-0.75965744
39	0xbe7491df	-0.2388377
40	0xbe3a84ae	-0.18214676
41	0x3eb26f1b	0.34850392
42	0xbd3d3dca	-0.046201505
43	0xbec74004	-0.38916028
44	0xbea1a58b	-0.31571612
45	0xbdb5fae5	-0.08885745
46	0x3f08f5ee	0.5350026
47	0xbc383a11	-0.011244313
48	0x3e1efa9c	0.15525287
49	0xbea311ef	-0.3184962
50	0x3e6d8675	0.23195823
51	0xbef038fd	-0.4691848
52	0x3d00f9d3	0.03148825
53	0x3d310187	0.043214347
54	0xbb769465	-0.003762507
55	0x3e9d3347	0.30703184
56	0x3e2a610c	0.16638583
57	0xbf0c1350	-0.5471697
58	0x3f0c4b7e	0.5480269
59	0xbe6618cd	-0.22470398
60	0x3dc91787	0.098189406
61	0xbeaeea1a	-0.3416298
62	0xbaebb578	-0.0017983159
63	0x3e62fcf2	0.22166803
64	0xbe4880c2	-0.19580367
65	0xbf0778c4	-0.5291865
66	0xbdb4bb11	-0.088247426
67	0xbedec193	-0.4350706
68	0x3f601258	0.8752799
69	0x3e4e6bf1	0.20158364
70	0x3ec944e1	0.39310363
71	0x3e90f345	0.283106
72	0xbe57f671	-0.21090104
73	0x3f31ca2d	0.6944912
74	0x3dd2f171	0.102999575
75	0xbf161ba3	-0.5863592
76	0x3f11010e	0.56642234
77	0x3f0cde76	0.5502695
78	0xbe8f1ed1	-0.279532
79	0xbd65160d	-0.055929232
80	0xbea9aa75	-0.3313786
81	0xbf24485c	-0.6417291
82	0xbdbfb31d	-0.09360335
83	0x3ec2b14e	0.38025898
84	0xbe3fb926	-0.18722972
85	0x3ef9ebf9	0.48812845
86	0x3d841591	0.06449426
87	0x3d2bb407	0.041919734
88	0x3e0143b7	0.12623487
89	0x3ef62fef	0.48083445
90	0x3ebdacb9	0.3704584
91	0xbe8a73e2	-0.27041537
92	0xbcff2a89	-0.031148212
93	0xbd4aa290	-0.049471438
94	0xbe176ebd	-0.14788337
95	0x3e53b266	0.20673522
96	0xbdaf4acc	-0.08559188
97	0x3ec01890	0.3751874
98	0x3e7301b2	0.23731115
99	0x3eae66f1	0.34062913
100	0xbf087d73	-0.5331642
101	0xbf32ef2b	-0.6989619
102	0x3e231569	0.15926136
103	0xbeaa5698	-0.3326919
104	0xbf2bd5fe	-0.671234
105	0xbc9e2eba	-0.01930939
106	0xbe62b2c6	-0.22138509
107	0x3e71f619	0.23629035
108	0xbe1bc5f7	-0.15212236
109	0x3ec57c96	0.38571614
110	0x3eaebbb8	0.34127593
111	0xbd069d2a	-0.032864727

gnn_base.gnn.embed_layer.lin1.0.bias f4 [16]
0	0x3c2e6049	0.010643073
1	0xbc7364cc	-0.014855575
2	0xbbf55877	-0.0074873525
3	0x3c644573	0.013932574
4	0xbc8fa105	-0.017532835
5	0xbc843b78	-0.016141638
6	0xbc903075	-0.017601231
7	0xbaaea635	-0.001332468
8	0x3c8b27fe	0.016986843
9	0xbc631844	-0.013860766
10	0x3cc60d84	0.024176367
11	0x3c024c74	0.007952798
12	0x3c7ecfa4	0.015552435
13	0x3c544952	0.012956934
14	0xbbacd989	-0.0052749556
15	0x3cbe422c	0.023224913

gnn_base.gnn.embed_layer.lin1.2.weight f4 [16]
0	0x3f821d1e	1.0165136
1	0x3f80a3a7	1.0049943
2	0x3f7c8da9	0.98653656
3	0x3f7e6c23	0.99383754
4	0x3f7cbd36	0.9872621
5	0x3f80c4e1	1.0060083
6	0x3f7adc01	0.9799195
7	0x3f81ebab	1.0150045
8	0x3f7c7ec4	0.9863093
9	0x3f7e9c15	0.9945691
10	0x3f83b6be	1.0290143
11	0x3f80d6ff	1.0065612
12	0x3f7c510d	0.98561174
13	0x3f813a10	1.0095844
14	0x3f8123db	1.0089067
15	0x3f82bdcb	1.021417

gnn_base.gnn.embed_layer.lin1.2.bias f4 [16]
0	0x3c35f340	0.011105359
1	0xbbf61d43	-0.0075108125
2	0xbc520388	-0.012818225
3	0x3b88ee68	0.004178811
4	0xbcdb48c6	-0.0267681
5	0xbc89e155	-0.01683108
6	0xbc27509c	-0.01021209
7	0xbb2ad29e	-0.002606548
8	0x3c3672a0	0.011135727
9	0xbc570873	-0.013124573
10	0x3caa6cfa	0.020803917
11	0x3b969483	0.0045953407
12	0x3c8260a4	0.015915222
13	0xbc75b1ee	-0.014996035
14	0xbc618ffe	-0.013767241
15	0xba7ac062	-0.00095654104

gnn_base.gnn.embed_layer.lin_h.0.weight f4 [16, 16]
0	0x3e5aeebe	0.21380135
1	0x3df3d6b2	0.11906184
2	0x3f31996a	0.69374716
3	0xbee6b46d	-0.4505953
4	0xbe6dc0ac	-0.2321803
5	0x3e429a3e	0.19004151
6	0xbeb66722	-0.3562556
7	0xbf29268b	-0.66074437
8	0xbe11bc7a	-0.14232054
9	0x3e0856f8	0.13314426
10	0x3f2832ed	0.65702707
11	0x3e150535	0.14552768
12	0x3e20f142	0.15717033
13	0xbe3e6698	-0.18593824
14	0x3e236d47	0.15959655
15	0xbe273edd	-0.16332574
16	0xbe052ea9	-0.1300608
17	0x3eda0deb	0.42588744
18	0x3ee5a8bf	0.44855306
19	0x3e47bd18	0.19505727
20	0x3f14a9dd	0.5807169
21	0x3e19149d	0.1494927
22	0x3db3f25a	0.08786459
23	0xbe2f1e8e	-0.171015
24	0x3e50a33a	0.20374766
25	0x3f0c68f3	0.5484764
26	0xbda3921d	-0.07986853
27	0xbd2f1e60	-0.042753577
28	0xbecc64ef	-0.39920756
29	0xbe159c49	-0.146104
30	0xbea9b7a9	-0.33147934
31	0x3f39730a	0.7244116
32	0x3e4910cb	0.19635312
33	0x3e65ac14	0.22428924
34	0xbf03dde6	-0.51510465
35	0xbeb21ee3	-0.3478919
36	0x3d205d73	0.03915162
37	0x3e28e09c	0.16491932
38	0x3d4f886c	0.05066721
39	0x3e2153b5	0.15754588
40	0x3f275999	0.6537109
41	0x3c254ef5	0.010089626
42	0x3ece7d60	0.4033003
43	0x3f1e9ee6	0.6196121
44	0x3e1d8f21	0.1538663
45	0xbe423432	-0.18965223
46	0xbf278aed	-0.6544636
47	0xbda76e11	-0.081752904
48	0xbe82581d	-0.2545785
49	0x3e5ec6bf	0.21755503
50	0x3eec551f	0.46158692
51	0xbf21110e	-0.6291665
52	0xbdeb24a4	-0.11481598
53	0xbeb3ea76	-0.35139817
54	0xbde86876	-0.11348049
55	0xbd7d5aaf	-0.06185406
56	0x3d82bc11	0.06383527
57	0xbe314299	-0.17310561
58	0xbf47b850	-0.78015614
59	0x3e73719f	0.23773812
60	0xbe2c35a1	-0.16817333
61	0x3ea76974	0.32697642
62	0xbee10b8d	-0.43954125
63	0xbea04489	-0.31302288
64	0x3f5afb81	0.85540015
65	0x3eb1a5f3	0.34696922
66	0x3ebe31ce	0.37147373
67	0xba8de30e	-0.0010825114
68	0xbda02274	-0.078190714
69	0x3d09f728	0.033682972
70	0x3e190d95	0.14946587
71	0x3eeeaa80	0.46614456
72	0x3e9157b4	0.28387225
73	0x3e4f4e6a	0.20244756
74	0xbe988ffd	-0.29797354
75	0xbd41d1ba	-0.04731915
76	0x3f18f25f	0.5974483
77	0x3e9075ae	0.28214782
78	0x3e9fe925	0.31232563
79	0x3e02e059	0.12780894
80	0x3e9fc067	0.3120148
81	0xbe01ba57	-0.1266874
82	0xbea95d10	-0.33078814
83	0x3e983572	0.29728276
84	0xbe3dc4fe	-0.18532178
85	0xbe152fdf	-0.14569043
86	0x3c6f7532	0.014615344
87	0xbf132ac6	-0.5748714
88	0x3db25f28	0.08709556
89	0x3f303ec5	0.6884578
90	0xbf0427cd	-0.5162323
91	0x3f0701ed	0.52737314
92	0xbe5b3b8d	-0.21409436
93	0xbe65b74f	-0.22433208
94	0x3e98e349	0.29860905
95	0xbe9a7a5b	-0.30171475
96	0x3eab2691	0.3342786
97	0xbf576687	-0.8414082
98	0x3d223e14	0.039609984
99	0x3c84b722	0.016200606
100	0xbe8a9a2c	-0.2707075
101	0x3e477f7d	0.19482227
102	0xbebdbb00	-0.37056732
103	0xbe681bd1	-0.22666861
104	0x3d9a1d67	0.07525139
105	0x3c18da0c	0.00932933
106	0xbe9d8aaf	-0.3076987
107	0xbe957969	-0.2919419
108	0x3e894f4e	0.26818317
109	0xbda4c235	-0.080448546
110	0xbf23a403	-0.6392214
111	0x3ee84e74	0.45372355
112	0x3e2b2896	0.16714701
113	0x3cde4faa	0.027137596
114	0x3d1d9a3e	0.038477175
115	0x3ef34ed6	0.47521085
116	0x3d8c3b39	0.06847233
117	0xbeaae648	-0.33378816
118	0xbdb255a2	-0.087077394
119	0xbeb56c29	-0.35434082
120	0x3f07876c	0.5294101
121	0x3d6438f1	0.055718366
122	0x3eb6e5d6	0.35722226
123	0xbeebc382	-0.46047598
124	0xbe3d6112	-0.1849406
125	0x3f3d911d	0.7404955
126	0xbe90ac9f	-0.282567
127	0xbeea46a9	-0.45757034
128	0xbf326516	-0.69685495
129	0x3d7a09ec	0.06104462
130	0x3e34cec3	0.17656998
131	0x3e706570	0.23476195
132	0xbedb94bb	-0.4288691
133	0x3f2e9d30	0.682086
134	0xbde0a5cb	-0.109691225
135	0x3e954dc3	0.2916089
136	0x3e831000	0.25598145
137	0x3f0b493d	0.5440863
138	0xbddba7dd	-0.10725377
139	0xbe28f5a3	-0.16499953
140	0x3ea27b28	0.31734586
141	0xbc2af1db	-0.010433639
142	0xbd952180	-0.0728178
143	0xbed42d5d	-0.4144086
144	0xbeb90d20	-0.36142826
145	0xbf02d79a	-0.5111023
146	0xbc49e6ce	-0.0123230945
147	0xbe3dbf56	-0.1853002
148	0x3f19561b	0.5989701
149	0x3e39d4fa	0.1814765
150	0xbe1b3fd4	-0.15161067
151	0xbe20eba0	-0.15714884
152	0x3e86bbf1	0.26315263
153	0x3d16c010	0.03680426
154	0x3b7c52ca	0.0038501495
155	0x3efbdae8	0.4919045
156	0x3eb676a6	0.35637397
157	0x3f2a21c2	0.6645776
158	0x3ee73ceb	0.45163664
159	0x3e62c6d0	0.22146153
160	0x3e9d31fa	0.30702192
161	0x3ee94a1f	0.45564362
162	0xbeab4d3f	-0.33457372
163	0x3e055129	0.13019241
164	0x3e8844ac	0.26614892
165	0x3f2ba9cd	0.6705597
166	0xbf53aebc	-0.826885
167	0xbcca7b75	-0.024717072
168	0xbeadc30a	-0.33937865
169	0xbe7792d0	-0.24177098
170	0xbe766e4c	-0.24065512
171	0x3c65b5c4	0.014020387
172	0xbe65a6a0	-0.22426844
173	0x3e81b70c	0.25334966
174	0xbcf6f727	-0.030147148
175	0xbe068f40	-0.13140583
176	0xbccb4f5a	-0.024818111
177	0x3e41985a	0.18905774
178	0xbda7eac3	-0.08199074
179	0xbd3df457	-0.0463756
180	0x3e864400	0.26223755
181	0x3ee9cc64	0.4566375
182	0x3f107d2a	0.56440985
183	0xbf302ccb	-0.6881835
184	0x3eaa311b	0.3324059
185	0xbf09c2d6	-0.5381292
186	0xbeb83659	-0.35978964
187	0xbeb972a7	-0.36220285
188	0x3ea42903	0.3206254
189	0xbe937575	-0.2880055
190	0x3dc23dd7	0.09484451
191	0xbe30f822	-0.17282155
192	0x3df416d6	0.11918418
193	0xbea8d7f9	-0.32977274
194	0x3f257367	0.64629215
195	0x3f203ab7	0.6258959
196	0x3e458165	0.19287641
197	0x3dddbf69	0.10827524
198	0xbdd9508c	-0.10611066
199	0x3e928193	0.28614482
200	0x3e947619	0.2899635
201	0xbf09edc1	-0.5387841
202	0xbd024f84	-0.031814113
203	0x3efe8e60	0.49717999
204	0xbe7a35bb	-0.24434559
205	0xbec57061	-0.385623
206	0x3bc40c70	0.005982928
207	0xbe9d6afd	-0.30745688
208	0x3eb1590b	0.34638247
209	0xbee409dd	-0.44538775
210	0x3d8ce773	0.06880083
211	0xbf02701a	-0.50952303
212	0x3d247a3c	0.040155634
213	0x3f15cd22	0.5851613
214	0x3ef3a7a8	0.4758885
215	0x3e724437	0.23658834
216	0x3d07a204	0.033113495
217	0x3e447a0d	0.19187184
218	0x3d6d05f7	0.057867017
219	0xbe36e769	-0.17861713
220	0xbf478532	-0.77937615
221	0x3e57efaa	0.21087518
222	0x3dcb97b9	0.09941048
223	0xbe721567	-0.23640977
224	0xbdcc5761	-0.09977604
225	0x3e5b8606	0.21437845
226	0xba98f8d4	-0.0011670836
227	0x3e6dd8a3	0.23227172
228	0xbf5c6136	-0.8608583
229	0x3e837b23	0.25679883
230	0x3e580057	0.2109388
231	0xbe577161	-0.21039344
232	0x3e3860e0	0.18005705
233	0xbec8bcab	-0.39206442
234	0x3d0ef133	0.034897994
235	0x3eb2e5b8	0.34940886
236	0xbea30ce6	-0.31845778
237	0x3ee0a290	0.43874025
238	0x3e17a668	0.14809573
239	0x3f1b85f6	0.60751283
240	0x3dcce405	0.10004429
241	0xbc898db1	-0.016791197
242	0x3e027c19	0.12742652
243	0x3eaca6d9	0.33721045
244	0x3dee3235	0.1163067
245	0x3e539991	0.2066405
246	0x3f1a38c7	0.60242885
247	0xbdf8d67f	-0.12150287
248	0xbf4f2239	-0.80911595
249	0x3dab38b1	0.083604224
250	0x3dbe0c37	0.092796735
251	0x3ecafa33	0.39644012
252	0x3ea67819	0.32513502
253	0x3ec0dc7a	0.3766821
254	0xbf101ed4	-0.5629704
255	0xbe3c79d5	-0.1840585

gnn_base.gnn.embed_layer.lin_h.0.bias f4 [16]
0	0x00000000	0.0
1	0x00000000	0.0
2	0x00000000	0.0
3	0x00000000	0.0
4	0x00000000	0.0
5	0x00000000	0.0
6	0x00000000	0.0
7	0x00000000	0.0
8	0x00000000	0.0
9	0x00000000	0.0
10	0x00000000	0.0
11	0x00000000	0.0
12	0x00000000	0.0
13	0x00000000	0.0
14	0x00000000	0.0
15	0x00000000	0.0

gnn_base.gnn.embed_layer.lin_h.2.weight f4 [16]
0	0x3f821d1e	1.0165136
1	0x3f80a3a7	1.0049943
2	0x3f7c8da9	0.98653656
3	0x3f7e6c23	0.99383754
4	0x3f7cbd36	0.9872621
5	0x3f80c4e1	1.0060083
6	0x3f7adc01	0.9799195
7	0x3f81ebab	1.0150045
8	0x3f7c7ec4	0.9863093
9	0x3f7e9c15	0.9945691
10	0x3f83b6be	1.0290143
11	0x3f80d6ff	1.0065612
12	0x3f7c510d	0.98561174
13	0x3f813a10	1.0095844
14	0x3f8123db	1.0089067
15	0x3f82bdcb	1.021417

gnn_base.gnn.embed_layer.lin_h.2.bias f4 [16]
0	0x3c35f340	0.011105359
1	0xbbf61d43	-0.0075108125
2	0xbc520388	-0.012818225
3	0x3b88ee68	0.004178811
4	0xbcdb48c6	-0.0267681
5	0xbc89e155	-0.01683108
6	0xbc27509c	-0.01021209
7	0xbb2ad29e	-0.002606548
8	0x3c3672a0	0.011135727
9	0xbc570873	-0.013124573
10	0x3caa6cfa	0.020803917
11	0x3b969483	0.0045953407
12	0x3c8260a4	0.015915222
13	0xbc75b1ee	-0.014996035
14	0xbc618ffe	-0.013767241
15	0xba7ac062	-0.00095654104

gnn_base.gnn.embed_layer.lin2.0.0.weight f4 [16, 16]
0	0x3e90a90c	0.28253973
1	0x3df1fde1	0.11816002
2	0x3f318e0e	0.69357383
3	0xbee517b4	-0.44744647
4	0xbe68be52	-0.22728851
5	0x3e332873	0.17495899
6	0xbec5696f	-0.38557002
7	0xbf2f2a2f	-0.6842374
8	0xbe0206a9	-0.12697853
9	0x3e05107d	0.12994571
10	0x3f296d97	0.66182846
11	0x3e1974df	0.14985989
12	0x3e2299a0	0.15878916
13	0xbe4b8fe6	-0.19879112
14	0x3e0c7aab	0.13718669
15	0xbe26b67d	-0.16280551
16	0xbe1b3f55	-0.15160878
17	0x3ee6c9f3	0.4507595
18	0x3ed80716	0.42192906
19	0x3e50d6b1	0.20394398
20	0x3f0eb1eb	0.5574023
21	0x3e104ce0	0.14091825
22	0x3de02612	0.10944761
23	0xbe27147c	-0.16316408
24	0x3e65b4a2	0.22432187
25	0x3f08ec39	0.5348545
26	0xbdd1bedf	-0.10241484
27	0xbd80642e	-0.06269108
28	0xbec3103b	-0.3809832
29	0xbe04f072	-0.12982348
30	0xbe9b4871	-0.30328706
31	0x3f3fbea7	0.7490029
32	0x3e27b0fa	0.16376105
33	0x3e68f105	0.22748192
34	0xbf020508	-0.5078893
35	0xbeba29ca	-0.36360008
36	0x3d40a4d2	0.047032185
37	0x3e2783c0	0.16358852
38	0x3d795e4f	0.060880955
39	0x3e38b457	0.18037544
40	0x3f214c2a	0.6300684
41	0x3ce111a6	0.027474236
42	0x3ed39c30	0.413301
43	0x3f2194f4	0.6311791
44	0x3e18feac	0.149409
45	0xbe42bd15	-0.19017442
46	0xbf2960eb	-0.6616351
47	0xbdd7555f	-0.1051433
48	0xbe8b6295	-0.2722365
49	0x3e6010a6	0.21881351
50	0x3eed2bad	0.46322384
51	0xbf1ccd26	-0.6125053
52	0xbde80544	-0.11329129
53	0xbeaf48be	-0.34235185
54	0xbdf59a3c	-0.119923085
55	0xbd4f6c45	-0.050640363
56	0x3d4f829a	0.05066166
57	0xbe2936b4	-0.16524774
58	0xbf488268	-0.78323984
59	0x3e71113a	0.23541728
60	0xbe2f67ce	-0.17129442
61	0x3ea4ef74	0.32213938
62	0xbedb1d37	-0.42795727
63	0xbea3f142	-0.32020003
64	0x3f523e7d	0.821266
65	0x3ea222cc	0.31667173
66	0x3ebf8c73	0.37411842
67	0x3c7a1c1b	0.01526549
68	0xbd9a402e	-0.075317726
69	0x3d6599a5	0.05605473
70	0x3e3131cb	0.17304151
71	0x3efc0cd3	0.49228534
72	0x3e8a3498	0.2699325
73	0x3e4cc19a	0.19995728
74	0xbe9a8b38	-0.3018434
75	0xbd5a55e3	-0.053304564
76	0x3f16538a	0.5872122
77	0x3e9bbc0a	0.304169
78	0x3ead62d2	0.33864456
79	0x3de788b1	0.11305369
80	0x3e9fbcc8	0.31198716
81	0xbe01ae01	-0.12664033
82	0xbead169b	-0.3380631
83	0x3e98edb4	0.29868853
84	0xbe3ea33f	-0.18616961
85	0xbe266144	-0.16248041
86	0x3c952f10	0.018210918
87	0xbf12168f	-0.5706567
88	0x3dbea02e	0.093078956
89	0x3f325b39	0.69670445
90	0xbf043f6c	-0.51659274
91	0x3f064058	0.5244193
92	0xbe5b900c	-0.21441668
93	0xbe66f7eb	-0.2255551
94	0x3e946b56	0.2898814
95	0xbe95ec99	-0.29282072
96	0x3eb01ece	0.34398502
97	0xbf5d2ef1	-0.8639975
98	0x3d095a26	0.033533238
99	0xbb9e0bea	-0.0048231976
100	0xbe891b43	-0.26778612
101	0x3e4df86d	0.20114298
102	0xbeb51e3b	-0.35374627
103	0xbe7db175	-0.24774726
104	0x3dd523c5	0.10407213
105	0x3ac293dd	0.0014845092
106	0xbe94aff8	-0.29040504
107	0xbe91baa0	-0.28462696
108	0x3e848df3	0.2588955
109	0xbd8e7b2c	-0.06957087
110	0xbf27a29d	-0.65482503
111	0x3eec5991	0.46162084
112	0x3e266583	0.16249661
113	0x3d24f920	0.040276647
114	0x3d432762	0.04764498
115	0x3ee6654a	0.44999152
116	0x3dab7b67	0.083731465
117	0xbeb9e29d	-0.36305705
118	0xbd96e598	-0.0736801
119	0xbebec37c	-0.37258518
120	0x3f069467	0.52570194
121	0x3cea9f7f	0.028640507
122	0x3ec5c373	0.38625678
123	0xbeeae904	-0.45880902
124	0xbe2e97f7	-0.17050157
125	0x3f3fa714	0.74864316
126	0xbea46421	-0.32107642
127	0xbee43c71	-0.44577363
128	0xbf333efc	-0.7001798
129	0x3d3f6c0d	0.046733905
130	0x3e558b21	0.20853855
131	0x3e7c40fa	0.24634162
132	0xbedd1d66	-0.43186492
133	0x3f2dc6c3	0.6788141
134	0xbdc39b02	-0.0955105
135	0x3e9a17f5	0.30096403
136	0x3e85c5c2	0.2612744
137	0x3f0a07ab	0.5391795
138	0xbe0b4bb2	-0.13603094
139	0xbe349f86	-0.17638978
140	0x3ea0bcce	0.31394047
141	0x3bc649fb	0.0060512996
142	0xbda48b07	-0.0803433
143	0xbed0457c	-0.40678012
144	0xbeca6e4a	-0.3953727
145	0xbf02776b	-0.5096347
146	0xbc049fd3	-0.008094746
147	0xbe42a77c	-0.19009203
148	0x3f193323	0.59843653
149	0x3e49d883	0.19711499
150	0xbe29ba43	-0.1657496
151	0xbe11ca45	-0.14237316
152	0x3e87522b	0.26429877
153	0x3d5012c0	0.05079913
154	0xbc3c6106	-0.011497742
155	0x3efddf70	0.49584532
156	0x3eb76311	0.3581777
157	0x3f2761c4	0.65383554
158	0x3eeb013f	0.45899388
159	0x3e5ddb10	0.21665597
160	0x3e994509	0.29935482
161	0x3ee0233b	0.4377688
162	0xbead80f9	-0.3388746
163	0x3e23ea3b	0.1600732
164	0x3e8469f3	0.25862083
165	0x3f2a60a7	0.6655373
166	0xbf4e73ff	-0.80645746
167	0xbcb92e33	-0.022605037
168	0xbea59e8a	-0.32347518
169	0xbe851d40	-0.25998878
170	0xbe8485c3	-0.25883302
171	0x3a3e27e6	0.000725387
172	0xbe6c742b	-0.2309119
173	0x3e88d13d	0.26722136
174	0xbcb039bb	-0.021511903
175	0xbdd4d7f5	-0.10392753
176	0xbd0633d6	-0.03276428
177	0x3e340b35	0.175824
178	0xbda5092b	-0.08058389
179	0xbd3659ec	-0.04451935
180	0x3e8c07c4	0.27349675
181	0x3ef3c2c0	0.4760952
182	0x3f0fb533	0.56135863
183	0xbf2e35a2	-0.6805059
184	0x3ea562a9	0.32301834
185	0xbf093cae	-0.53608215
186	0xbeb70f01	-0.35753635
187	0xbeb251bb	-0.3482798
188	0x3e95a5ad	0.29227963
189	0xbe958e36	-0.2921006
190	0x3de0f3f7	0.109840326
191	0xbe42cfbb	-0.19024555
192	0x3e01b376	0.12666115
193	0xbead531f	-0.3385248
194	0x3f26aec0	0.651104
195	0x3f1e0824	0.6173117
196	0x3e5110ba	0.20416537
197	0x3df84ea3	0.12124374
198	0xbdf006df	-0.117200606
199	0x3e8be8f6	0.27326173
200	0x3e8eb065	0.27868953
201	0xbf06fc7c	-0.5272901
202	0xbcabd3b9	-0.02097498
203	0x3f01ebbc	0.5075033
204	0xbe83054e	-0.25589985
205	0xbecb2428	-0.39676023
206	0xbba35652	-0.0049846554
207	0xbea1f6ad	-0.3163351
208	0x3eb64b87	0.35604498
209	0xbed2f0e3	-0.41199407
210	0x3d47d1d7	0.048784103
211	0xbf0136c0	-0.50474167
212	0x3cb98c82	0.022650007
213	0x3f125ddb	0.5717446
214	0x3eece3f0	0.46267653
215	0x3e6acd70	0.2292993
216	0x3d485e6a	0.048918165
217	0x3e3537b4	0.1769703
218	0x3d3fd07e	0.046829693
219	0xbe45b819	-0.19308509
220	0xbf44b7b5	-0.76842815
221	0x3e4a70fe	0.19769666
222	0x3e09e47f	0.1346607
223	0xbe6a8ebf	-0.22906016
224	0xbdfc894f	-0.12330877
225	0x3e59efb5	0.21282847
226	0xbc1d7c1a	-0.009612108
227	0x3e5f9a4f	0.21836208
228	0xbf603d0a	-0.8759314
229	0x3e7edcfd	0.24888988
230	0x3e665f5d	0.22497316
231	0xbe331301	-0.17487718
232	0x3e186784	0.14883238
233	0xbecff792	-0.4061857
234	0x3d26d2d2	0.040728398
235	0x3eaa7012	0.33288628
236	0xbe96c9e7	-0.29450914
237	0x3eeccada	0.46248513
238	0x3e1d62f6	0.15369782
239	0x3f1c8ee0	0.6115551
240	0x3e064c65	0.1311508
241	0xbc70c8f9	-0.014696353
242	0x3e0873c2	0.13325408
243	0x3eafa35c	0.3430432
244	0x3dec4711	0.11536992
245	0x3e5b4fee	0.2141721
246	0x3f14ad9d	0.5807741
247	0xbe00e301	-0.12586595
248	0xbf4e8984	-0.8067858
249	0x3dbddee9	0.09271032
250	0x3daa624b	0.08319529
251	0x3eca2145	0.39478508
252	0x3eab202f	0.33422992
253	0x3ebcbca6	0.36862677
254	0xbf0f2867	-0.55921024
255	0xbe412065	-0.18860014

gnn_base.gnn.embed_layer.lin2.0.0.bias f4 [16]
0	0x3c213571	0.009839402
1	0xbc7e73ac	-0.015530508
2	0x3c4fa0e7	0.012672639
3	0xbbf07cae	-0.0073390817
4	0xbca62ba8	-0.020284489
5	0x3b613928	0.0034366343
6	0x3c738671	0.014863596
7	0x3c9be485	0.019029865
8	0xbb291ab9	-0.0025803281
9	0xbb5c068c	-0.0033573238
10	0xbcf01555	-0.029307047
11	0xbb350126	-0.0027619093
12	0x3c1329e2	0.008982154
13	0xbc1d3342	-0.00959474
14	0x3c71f5a1	0.014768035
15	0xbbbea0e4	-0.0058175195

gnn_base.gnn.embed_layer.lin2.0.2.weight f4 [16]
0	0x3f8225ee	1.0167825
1	0x3f80fdbe	1.0077436
2	0x3f81dba4	1.0145154
3	0x3f7ed2a9	0.9954019
4	0x3f7ecbb3	0.9952957
5	0x3f7b1179	0.98073536
6	0x3f8032f7	1.0015553
7	0x3f814f20	1.0102272
8	0x3f7a586e	0.97791183
9	0x3f80bbb7	1.0057286
10	0x3f818786	1.0119483
11	0x3f77e9d2	0.96841156
12	0x3f81398e	1.0095689
13	0x3f7f6b7d	0.9977339
14	0x3f7cf9a7	0.9881844
15	0x3f80b7c7	1.0056084

gnn_base.gnn.embed_layer.lin2.0.2.bias f4 [16]
0	0x3c3e4bee	0.011614783
1	0xbc5f5e03	-0.013633254
2	0x3c6fdf6b	0.014640669
3	0xbb9ec447	-0.0048451754
4	0xbbc80b4d	-0.006104863
5	0xbb124efa	-0.0022324906
6	0x3c703487	0.014660961
7	0x3c8c9b0a	0.017163772
8	0x3ca59377	0.020211918
9	0x3a0ae2c4	0.0005298073
10	0xbc286e77	-0.010280243
11	0x3c7ef9f8	0.015562527
12	0x3c321da3	0.010871324
13	0xbc160dec	-0.009158593
14	0x3cb4d3ae	0.022073593
15	0xbb2739ed	-0.0025516704

gnn_base.gnn.gnn1.lin_key.weight f4 [48, 16]
0	0x3db09d46	0.086237475
1	0x3dc557f7	0.096359186
2	0x3e1b76d5	0.1518205
3	0x3cfa875e	0.030582126
4	0xbb9fcb3b	-0.004876522
5	0x3d14fc8c	0.03637366
6	0xbe53a86d	-0.20669718
7	0xbdfc56b4	-0.12321225
8	0x3e59b2b6	0.21259579
9	0xbe0f374d	-0.1398594
10	0xbe08c0cb	-0.13354795
11	0xbe9877f7	-0.29779026
12	0x3d7acb49	0.061229024
13	0xbe7eb60c	-0.24874133
14	0xbe2eb1c3	-0.17059998
15	0x3e808cb8	0.2510736
16	0x3e1430cb	0.14471738
17	0x3e0a1104	0.13483053
18	0x3d59b4bf	0.05315089
19	0xbe62e286	-0.22156724
20	0xbe128ab6	-0.14310727
21	0xbe3074ef	-0.17232107
22	0xbe483151	-0.19550063
23	0x3d208893	0.039192747
24	0xbdca16d7	-0.098676376
25	0x3e942d0a	0.28940612
26	0xbe325599	-0.17415465
27	0xbe866ee4	-0.26256478
28	0x3e98ada6	0.29819983
29	0xbe7a15d1	-0.24422385
30	0x3e274ccb	0.16337888
31	0x3d9c72f3	0.07639112
32	0xbe5d5c72	-0.21617296
33	0x3e2fa81f	0.17153977
34	0xbd0f24cd	-0.034947205
35	0xbe0828d4	-0.13296825
36	0xbe48e9aa	-0.19620386
37	0xbe6d5b5e	-0.23179385
38	0x3d43dbdc	0.047817096
39	0xbe653541	-0.22383596
40	0x3dd345c2	0.103160396
41	0xbd99a4be	-0.07502125
42	0x3da8d4a0	0.0824368
43	0xbd4eb41e	-0.050464742
44	0x3d92350f	0.071390264
45	0x3c16559b	0.009175683
46	0x3dbff7c4	0.093734294
47	0xbdbeec65	-0.093224324
48	0xbe43ed04	-0.19133383
49	0x3d18707c	0.03721665
50	0xbe2fae47	-0.17156325
51	0xbe01178c	-0.12606639
52	0xbe655bd1	-0.22398306
53	0xbdd0bebe	-0.10192631
54	0xbe1c2776	-0.15249428
55	0x3e644d11	0.22295024
56	0x3e4d3d8d	0.20043011
57	0x3d216119	0.03939924
58	0x3e4371fd	0.19086452
59	0x3e1e5b9c	0.15464634
60	0xbe8610e9	-0.26184776
61	0xbb5eabb9	-0.0033976866
62	0xbbddc44a	-0.0067677842
63	0xbe291143	-0.16510491
64	0x3da1e105	0.07904247
65	0xbdaf886b	-0.085709415
66	0xbde29b1f	-0.11064743
67	0xbc96cdd4	-0.018408693
68	0xbe2731ee	-0.1632764
69	0x3e3575fa	0.17720786
70	0x3e1b0e1c	0.15142101
71	0x3e854a3e	0.26033205
72	0xbd5b23d8	-0.05350098
73	0x3da979ef	0.0827521
74	0xbc45ed52	-0.012080507
75	0xbe4a4a7e	-0.19754979
76	0x3dd7b3c7	0.10532337
77	0xbe284d6e	-0.16435787
78	0xbd910a5f	-0.07082056
79	0xbe029b92	-0.12754658
80	0xbe7ade31	-0.24498822
81	0xbcbbe299	-0.022935199
82	0x3d62853f	0.055302855
83	0xbcf16640	-0.029467702
84	0x3e3c9135	0.18414767
85	0xbc02d023	-0.007984194
86	0xbd60e074	-0.054901555
87	0xbdead657	-0.11466663
88	0xbe076857	-0.13223396
89	0xbd0965bc	-0.033544287
90	0xbe2d564e	-0.16927454
91	0xbe1ae64b	-0.15126912
92	0xbd60b4fe	-0.054860108
93	0xbcacbe99	-0.021086978
94	0xbdfa084c	-0.12208614
95	0x3e175bd9	0.14781131
96	0x3e45c786	0.19314393
97	0xbe0c8331	-0.1372192
98	0x3db94a5c	0.09047386
99	0xbdd14fa6	-0.1022027
100	0xbcbb3f6f	-0.022857396
101	0x3e7de940	0.24796009
102	0x3d42c9ed	0.047555853
103	0xbe729ff7	-0.23693834
104	0x3e68b4f2	0.22725275
105	0xbd13dcc6	-0.036099218
106	0xbdfeaed6	-0.12435691
107	0xbe01fdc4	-0.1269446
108	0x3e496180	0.196661
109	0x3be8a69d	0.00709994
110	0x3e14dea1	0.14538051
111	0x3e3b50a1	0.18292476
112	0xbdd15dd4	-0.102229744
113	0x3d2ef336	0.042712413
114	0xbe245d56	-0.1605123
115	0x3e477250	0.194772
116	0xbe0a1341	-0.13483907
117	0x3e3daa34	0.18521959
118	0x3db8bb67	0.09020119
119	0x3e095b78	0.13413799
120	0xbe383e6f	-0.17992567
121	0xbcc5cadc	-0.024144582
122	0x3e04c924	0.12967354
123	0xbc44271e	-0.011972217
124	0x3b165797	0.0022940391
125	0x3dfc63bd	0.12323711
126	0xbe4cd0fa	-0.20001593
127	0xbd0bd11b	-0.034134965
128	0x3dc6cdb9	0.09707207
129	0x3e24f77b	0.16110031
130	0x3e579bb5	0.21055491
131	0xbceee2f2	-0.02916095
132	0x3d8b838b	0.06812199
133	0xbdc778ee	-0.097398624
134	0xbc6a2feb	-0.014293651
135	0xbe0a346c	-0.1349656
136	0x3e40b623	0.1881948
137	0xbb4f838e	-0.0031664106
138	0x3df2eddb	0.118617736
139	0x3e118f78	0.14214885
140	0x3d312447	0.043247487
141	0x3b00da07	0.0019661204
142	0xbcf0e86f	-0.029407708
143	0xbe6bc2ba	-0.23023501
144	0x3d90e741	0.07075358
145	0xbd14ac95	-0.0362974
146	0xbe51a4d3	-0.20473032
147	0x3e4e20b9	0.2012967
148	0xbd63ae3e	-0.055586092
149	0xbdc19e7e	-0.09454058
150	0xbe83f9d3	-0.25776538
151	0xbe89a4f8	-0.26883674
152	0x3d4ad46d	0.04951899
153	0xbdb6cb9d	-0.08925555
154	0xbdbd84ee	-0.0925387
155	0xbe322281	-0.17395975
156	0x3e799837	0.24374472
157	0xbdac4e2c	-0.084133476
158	0x3dfd231a	0.12360211
159	0x3e55776a	0.20846334
160	0xbe5981d1	-0.21240927
161	0x3e666e7a	0.22503081
162	0xbd8eb9f3	-0.06969061
163	0x3e854be9	0.26034477
164	0x3e0b5754	0.13607532
165	0xbe63342b	-0.22187869
166	0x3da63673	0.08115854
167	0x3d9a9245	0.0754743
168	0xbdb556de	-0.08854459
169	0x3e39b060	0.18133688
170	0xbe4218b4	-0.18954736
171	0xbda7086a	-0.08155902
172	0x3e6e28f7	0.23257814
173	0x3e69578f	0.22787307
174	0x3de4b04f	0.11166441
175	0xbe119849	-0.14218248
176	0xbe663397	-0.22480617
177	0xbe6860bf	-0.22693156
178	0xbd927049	-0.07150323
179	0x3e18d1d3	0.14923792
180	0x3dc696bc	0.09696719
181	0xbd789039	-0.060684416
182	0x3e5f1d93	0.21788625
183	0x3e6ba348	0.23011506
184	0xbdd80ac6	-0.1054893
185	0xbe0944c1	-0.13405134
186	0xbc39a4b1	-0.011330769
187	0x3d859a8c	0.06523618
188	0xbd215537	-0.039387908
189	0x3df22eb8	0.11825317
190	0x3e4a900b	0.1978151
191	0xbc0d6b01	-0.008631469
192	0x3df48295	0.11938969
193	0x3d01c0b5	0.03167792
194	0x3db8776c	0.09007153
195	0x3de4116b	0.11136135
196	0xbd3e7029	-0.046493683
197	0xbe0d4cdb	-0.1379885
198	0x3dca88e0	0.09889388
199	0xbe0b4504	-0.13600546
200	0x3e0c00ad	0.13672133
201	0xbe240f77	-0.16021524
202	0x3e3172b6	0.17328915
203	0x3df7cc91	0.12099565
204	0xbd8574ba	-0.065164044
205	0x3e079bc7	0.13243018
206	0xbd8a4ddb	-0.06753131
207	0x3cc21021	0.023689331
208	0x3d90ca7b	0.0706987
209	0x3d789cfb	0.060696583
210	0x3cec38d6	0.028835695
211	0x3c8b65d4	0.017016329
212	0xbdaaad25	-0.08333806
213	0x3e31e036	0.17370686
214	0x3ddf57b5	0.10905401
215	0x3d48d503	0.04903127
216	0x3e22d91a	0.1590313
217	0xbdf10d60	-0.11770129
218	0xbd2aeca6	-0.04172959
219	0xbcd3069a	-0.025759984
220	0x3e6f3265	0.23359068
221	0xbe58c1ea	-0.21167722
222	0xbe2dd9d0	-0.1697762
223	0xbd81e476	-0.063424036
224	0xbe67885c	-0.2261061
225	0xbe139164	-0.14410931
226	0x3e144598	0.14479673
227	0x3d2882b3	0.04114027
228	0xbe430639	-0.19045343
229	0xbc6f98df	-0.01462385
230	0x3d134d12	0.03596217
231	0xbde6f8cb	-0.11277922
232	0xbe4d20b9	-0.20032014
233	0x3e146c49	0.14494433
234	0xbaddc352	-0.0016919172
235	0x3e78fce4	0.2431522
236	0xbe367e31	-0.17821576
237	0xbe2c9cd7	-0.16856705
238	0xbd419472	-0.04726071
239	0xbe5a0b05	-0.21293266
240	0x3e3c64ba	0.18397799
241	0x3e372d99	0.17888488
242	0x3e6a98f2	0.22909907
243	0xbe286056	-0.16442999
244	0x3e343628	0.17598784
245	0x3e293ae7	0.16526376
246	0xbdf11fad	-0.1177362
247	0x3d25b104	0.04045202
248	0x3df408ee	0.11915766
249	0x3e36021f	0.17774247
250	0xbe76058a	-0.2402555
251	0x3e823d19	0.2543724
252	0xbd840cfb	-0.06447788
253	0x3ddf3692	0.1089908
254	0xbe16a822	-0.14712575
255	0xbe4d8f1f	-0.20074128

gnn_base.gnn.gnn1.lin_key.bias f4 [48]
0	0x3cf0d860	0.02940005
1	0x3dcef800	0.10105896
2	0xbe3274f0	-0.1742742
3	0x3e5537f8	0.20822132
4	0x3bb6b53f	0.0055758054
5	0x3e257af6	0.16160187
6	0x3d628778	0.055304974
7	0xbce3d5b0	-0.027811855
8	0x3ddb4f0c	0.10708436
9	0x3e73055c	0.23732513
10	0x3e7c85d0	0.2466042
11	0xbe577cae	-0.21043655
12	0x3c786b84	0.0151623525
13	0xbe37e782	-0.17959407
14	0x3e152872	0.1456621
15	0x3e37c7ee	0.17947361
16	0xbe33c338	-0.17554939
17	0xbc6cbb20	-0.014448911
18	0x3e312582	0.17299464
19	0x3e294b66	0.16532668
20	0xbe407a86	-0.18796739
21	0x3e2be2da	0.16785756
22	0xbd3549d8	-0.044259876
23	0xbe59b88c	-0.21261805
24	0x3d4bfad8	0.04979977
25	0x3dee857c	0.11646554
26	0x3e198750	0.14993024
27	0xbe2e0f6e	-0.16998073
28	0xbe396a96	-0.18107066
29	0xbe2c0110	-0.1679728
30	0x3e11140e	0.14167807
31	0xbe5fbd3a	-0.21849528
32	0xbb0a28b8	-0.00210814
33	0xbd9674ec	-0.0734652
34	0x3ddf8aa4	0.109151155
35	0x3d4918e0	0.04909599
36	0xbe014614	-0.12624389
37	0x3d32dbd0	0.04366666
38	0x3e6b96aa	0.23006693
39	0x3d289858	0.04116091
40	0xbdfdb7f4	-0.12388602
41	0x3c09223d	0.008369979
42	0xbe6ad0ba	-0.22931185
43	0xbe243fa4	-0.16039902
44	0xbd3e34b8	-0.046436995
45	0xbe1f86de	-0.15578791
46	0x3e58c8de	0.21170375
47	0x3d46c4d8	0.04852757

gnn_base.gnn.gnn1.lin_query.weight f4 [48, 16]
0	0x3e4ea378	0.20179546
1	0xbd870c9f	-0.06594204
2	0xbc5931cf	-0.013256504
3	0x3d060675	0.032721
4	0xbdb2d17c	-0.08731362
5	0xbdc493ad	-0.095984794
6	0xbe89cef7	-0.26915714
7	0x3e4eb45f	0.20185994
8	0x3e5daa8a	0.21647087
9	0xbe86fbc9	-0.26363972
10	0xbdeb54ef	-0.11490809
11	0xbe3d796e	-0.18503353
12	0xbde05f07	-0.10955625
13	0x3e547d26	0.20750865
14	0x3e3d44db	0.18483298
15	0xbbb1d1f2	-0.0054266388
16	0x3dafa1be	0.08575772
17	0x3d790295	0.060793478
18	0x3e015892	0.12631443
19	0xbe5e4cef	-0.21709035
20	0x3dce319e	0.100680575
21	0xbe81c126	-0.25342673
22	0xbe12f2ea	-0.14350477
23	0xbd8637e8	-0.06553632
24	0xbc6a2361	-0.014290662
25	0xbe898fbe	-0.2686748
26	0x3c470b76	0.012148729
27	0x3da59660	0.080853224
28	0xbe048732	-0.12942198
29	0x3dabec55	0.08394686
30	0x3e860950	0.2617898
31	0xbd6e3629	-0.05815712
32	0xbdd2e990	-0.10298455
33	0xbe5a9efb	-0.21349709
34	0xbe2539a0	-0.16135263
35	0xbe14316b	-0.14471976
36	0xbe513ef2	-0.20434168
37	0xbda3fee9	-0.08007605
38	0x3e077fca	0.13232341
39	0x3d80db81	0.06291867
40	0x3e50047a	0.20314208
41	0x3e8581ec	0.26075685
42	0xbdb52a85	-0.088460006
43	0xbe0513d3	-0.12995844
44	0x3d95facd	0.07323227
45	0xbe607b09	-0.21921934
46	0x3da81c34	0.08208504
47	0xbd0fa7f2	-0.035072275
48	0xbe5f25b6	-0.2179173
49	0xbe2d9ba4	-0.16953903
50	0xbe4ba523	-0.19887213
51	0x3dc5c623	0.09656932
52	0x3e5291e9	0.20563473
53	0x3e466203	0.19373326
54	0xbd17a06b	-0.03701822
55	0xbe213e04	-0.15746313
56	0xbdc47ca8	-0.09594089
57	0xbe182a29	-0.14859833
58	0xbd09036b	-0.033450525
59	0xbe682301	-0.22669603
60	0x3e0d7846	0.13815412
61	0xbe8252c0	-0.25453758
62	0xbe484060	-0.19555807
63	0x3e18373d	0.14864822
64	0xbe3327fa	-0.17495719
65	0x3d917c4e	0.07103787
66	0x3e617a6b	0.22019355
67	0x3e5b877c	0.21438402
68	0x3dd5e608	0.104442656
69	0xbd553967	-0.052056696
70	0x3deb1f35	0.11480562
71	0x3b9b3bd9	0.004737359
72	0xbdc60023	-0.09667995
73	0xbcddd6bd	-0.027079934
74	0x3bd8584b	0.006602322
75	0x3e23b7b3	0.15988044
76	0x3ddd0b5d	0.10793183
77	0x3e023cc2	0.1271849
78	0x3d8da697	0.0691654
79	0x3c5670fc	0.013088461
80	0x3e04ca6d	0.12967844
81	0x3d5252f0	0.051348627
82	0xbe56e6cb	-0.20986478
83	0x3cf4d8f9	0.029888617
84	0xbe13b128	-0.14423048
85	0xbdee9196	-0.11648862
86	0x3d864e6f	0.06557929
87	0x3d1b9a49	0.037988935
88	0x3ca226fc	0.01979398
89	0xbde02d2e	-0.10946117
90	0x3d99c94f	0.075091
91	0x3e595128	0.21222365
92	0x3d305255	0.043047268
93	0x3df309c0	0.11867094
94	0xbe58cf4c	-0.21172827
95	0x3e342f8a	0.1759626
96	0x3db5ffac	0.08886656
97	0x3dad97e8	0.084762394
98	0x3df9ee50	0.122036576
99	0xbdaedc1f	-0.085380785
100	0xbc92bd8a	-0.017912645
101	0x3e6bd2ad	0.23029585
102	0x3e26201e	0.16223189
103	0xbe29a527	-0.16566907
104	0x3e476357	0.19471489
105	0x3e64a674	0.22329122
106	0x3c81d26e	0.015847411
107	0xbe3d54b3	-0.18489341
108	0x3d1a2ef6	0.03764244
109	0xbcd4ec1d	-0.025991494
110	0x3e606b7d	0.21916004
111	0xbe6de034	-0.23230058
112	0x3da423da	0.08014651
113	0x3c55777d	0.0130289765
114	0x3d646713	0.05576236
115	0x3e1a8ce6	0.15092811
116	0xbcf4f11c	-0.029900126
117	0xbe2e5d76	-0.1702784
118	0xbe3832af	-0.17988084
119	0xbddbe173	-0.107363604
120	0x3ad6c71f	0.0016386247
121	0x3dab27e2	0.083572164
122	0xbdc2166b	-0.09476932
123	0xbe0066d0	-0.1253922
124	0x3df1669b	0.117871486
125	0xbe6e2383	-0.23255734
126	0x3e3e8729	0.18606247
127	0x3c2c8019	0.010528588
128	0x3e27cd98	0.16387022
129	0x3e44da7e	0.19223973
130	0x3cba3b31	0.022733303
131	0x3d54e4f7	0.05197617
132	0xbe023392	-0.12714985
133	0x3e227aa4	0.15867096
134	0x3e2a20c0	0.16614056
135	0xbbd6535f	-0.0065407003
136	0x3dce799d	0.1008179
137	0xbcfcdd28	-0.030867174
138	0x3e5b08e7	0.21390115
139	0x3df20de7	0.11819058
140	0x3e355dfc	0.17711633
141	0xbe819dfb	-0.25315842
142	0x3e7c8817	0.24661289
143	0x3dab1d2d	0.08355174
144	0x3deb9778	0.115035
145	0x3c972358	0.01844947
146	0x3e342a3d	0.17594238
147	0x3e66f398	0.22553861
148	0xbc8469dd	-0.01616376
149	0xbe608c1a	-0.21928445
150	0x3e60fe58	0.21972024
151	0xbd3eafd6	-0.04655441
152	0xbde558d0	-0.1119858
153	0x3df44ed8	0.11929101
154	0x3e0cc35a	0.13746396
155	0x3d4c0c10	0.04981619
156	0xbd2a4f26	-0.041579388
157	0xbc973e89	-0.018462436
158	0x3e8c8976	0.27448624
159	0x3e24c07e	0.16089055
160	0x3e0bad48	0.1364032
161	0x3e26ed47	0.16301452
162	0xbe0d853d	-0.13820358
163	0x3d82515e	0.06363176
164	0xbe4faaa1	-0.20279934
165	0x3e1c9de0	0.152946
166	0xbe657630	-0.22408366
167	0xbe8197ec	-0.2531122
168	0xbe750fc4	-0.23931795
169	0x3e14bd7b	0.14525406
170	0x3d5f5d18	0.05453214
171	0xbae03d86	-0.0017108179
172	0x3d100e95	0.035170157
173	0xbdd31993	-0.10307612
174	0xbde59bf3	-0.112113856
175	0xbe27c2ba	-0.16382876
176	0xbd8f07e7	-0.06983929
177	0xbe103ca0	-0.14085627
178	0xbcc141e8	-0.023590997
179	0x3e75e7b2	0.24014166
180	0xbe42a97e	-0.19009969
181	0x3df80e6e	0.12112127
182	0xbe2379b5	-0.15964396
183	0xbdee5b57	-0.116385154
184	0x3d88f680	0.06687641
185	0x3d96987f	0.07353305
186	0x3e72ea23	0.23722129
187	0xbb94c07f	-0.004539549
188	0xbdb7dfd9	-0.089782424
189	0xbdf2f90f	-0.118639104
190	0xbd1594af	-0.03651875
191	0xbe549de1	-0.20763351
192	0xbe4c1214	-0.19928771
193	0xbe0f527c	-0.13996309
194	0xbc3dfe2b	-0.011596243
195	0xbe1002d9	-0.14063586
196	0xbdfc5a18	-0.123218715
197	0x3e0954e0	0.13411283
198	0x3e77adec	0.2418744
199	0xbda265b8	-0.079295576
200	0xbe467d49	-0.1938373
201	0xbd51a6cd	-0.051184464
202	0x3e1d7ad2	0.15378883
203	0x3db9dab9	0.09074921
204	0xbd8dbc37	-0.06920665
205	0xbe65bd69	-0.22435535
206	0xbdbbecf5	-0.09176055
207	0xbdbb9c98	-0.09160727
208	0x3e2364de	0.15956447
209	0xbde71125	-0.11282567
210	0x3e3eb2b8	0.18622863
211	0xbbef747d	-0.0073075877
212	0xbd85efd4	-0.06539884
213	0xbe59f10e	-0.21283361
214	0x3e5fe720	0.21865511
215	0xbcbe2376	-0.023210268
216	0x3e091090	0.13385224
217	0xbe2366c4	-0.1595717
218	0xbe96387b	-0.29339966
219	0xbe519bc2	-0.20469573
220	0xbe011e28	-0.1260916
221	0xbda266b9	-0.07929749
222	0x3b9548d9	0.0045558033
223	0x3e6db057	0.232118
224	0xbe7ea13d	-0.24866195
225	0x3e1da517	0.15395008
226	0x3e3f0870	0.18655562
227	0x3bb78d4d	0.005601561
228	0xbe0f0c0c	-0.1396944
229	0x3c2478e5	0.010038589
230	0x3da3b34e	0.07993184
231	0x3e0439a4	0.12912613
232	0xbd853722	-0.065046564
233	0xbd9eaf15	-0.07748238
234	0xbdd65a67	-0.10466462
235	0xbe698f91	-0.22808672
236	0x3db3db8c	0.087821096
237	0xbe5ec4a6	-0.21754703
238	0xbe0cbaea	-0.13743177
239	0xbcaf3932	-0.021389578
240	0x3e56d4c9	0.20979609
241	0x3e71c1df	0.23609112
242	0xbe1cb77e	-0.15304372
243	0x3e2f9624	0.17147118
244	0x3e5064c8	0.20350945
245	0x3e5f962a	0.21834627
246	0xbb844e16	-0.004037629
247	0x3e5b306e	0.21405193
248	0x3dc37e82	0.09545614
249	0xbe499127	-0.19684277
250	0xbe12b75e	-0.14327762
251	0xbc733bcc	-0.0148458
252	0xbe1c9c38	-0.15293968
253	0xbdd89514	-0.105753094
254	0x3e418bc2	0.1890097
255	0x3e0bdc20	0.1365819

gnn_base.gnn.gnn1.lin_query.bias f4 [48]
0	0x3e7455df	0.23860882
1	0xbd537bff	-0.051631924
2	0x3e27c1da	0.16382542
3	0xbdc92989	-0.09822375
4	0x3e58e549	0.21181215
5	0x3de6354a	0.11240633
6	0x3e6faff5	0.23406966
7	0x3e00e41a	0.12587014
8	0xbdd286a9	-0.10279591
9	0x3de92706	0.11384396
10	0x3e48ad9e	0.1959748
11	0x3cc1a4e4	0.023638196
12	0x3dc5dcea	0.09661277
13	0xbe17c7e0	-0.1482234
14	0x3df2f6ad	0.11863456
15	0xbe606479	-0.21913327
16	0x3e5bee1f	0.21477555
17	0x3db6a69d	0.08918498
18	0x3c7f3dfd	0.015578744
19	0xbe73ba80	-0.23801613
20	0x3e74f01f	0.23919724
21	0x3e178f91	0.1480086
22	0x3e6da286	0.23206529
23	0x3dd5ea7f	0.10445117
24	0x3d907808	0.07054144
25	0xbd80c38e	-0.06287299
26	0xbdd90f24	-0.10598591
27	0x3dbe3d24	0.092890054
28	0x3d934a3a	0.07191892
29	0xbd01d6b2	-0.03169889
30	0x3d5011e5	0.050798316
31	0x3db96cd9	0.09053964
32	0xbe61288e	-0.21988127
33	0xbe6121d9	-0.21985568
34	0xbd62d5c6	-0.05537965
35	0x3e166484	0.14686781
36	0x3dce4f00	0.10073662
37	0xbe5e9733	-0.21737365
38	0xbd308ca2	-0.043102868
39	0xbba73bcd	-0.0051035644
40	0x3dd2320f	0.10263454
41	0x3e545271	0.20734574
42	0xbb968ded	-0.0045945556
43	0xbe503928	-0.20334303
44	0x3bf2b543	0.007406862
45	0xbdb6c8fb	-0.08925053
46	0xbe15c0cf	-0.14624332
47	0x3dfb4bcc	0.122703165

gnn_base.gnn.gnn1.lin_value.weight f4 [48, 16]
0	0xbcd627dd	-0.026142055
1	0x3dfe599e	0.12419437
2	0x3e42f246	0.19037732
3	0x3ca4d7fc	0.02012252
4	0x3e0c3959	0.13693751
5	0xbdeef0b1	-0.11667002
6	0x3e11575e	0.14193484
7	0x3c5facd8	0.013652049
8	0x3e3233c2	0.17402557
9	0x3e7aa408	0.24476635
10	0xbe360717	-0.17776142
11	0x3e6a2604	0.22866064
12	0x3e489924	0.19589669
13	0xbe55bc13	-0.20872526
14	0x3d637dd7	0.055539932
15	0xbe4e6075	-0.20153983
16	0x3daf8d25	0.08571843
17	0x3d2346a1	0.03986228
18	0xbe80c51c	-0.25150383
19	0x3ddd03ab	0.10791715
20	0xbd873885	-0.06602577
21	0x3e73f251	0.23822905
22	0x3e72d528	0.23714125
23	0x3d97a0c0	0.074037075
24	0x3e4bf4bd	0.19917579
25	0x3de409da	0.111346915
26	0x3e910c8e	0.2832989
27	0xbd390d17	-0.0451785
28	0x3d9b4ad4	0.07582632
29	0xbcfd761d	-0.03094011
30	0xbd305591	-0.043050352
31	0xbd8f3928	-0.069933236
32	0xbdc179ff	-0.09447097
33	0x3e3270f7	0.17425905
34	0x3dd06489	0.101754256
35	0xbdc07ded	-0.093990184
36	0xbe5a9dfa	-0.21349326
37	0x3de56e4e	0.112026796
38	0xbe6cac5a	-0.23112622
39	0xba69c985	-0.00089182734
40	0xbe54486c	-0.20730752
41	0x3e4adaa0	0.19809961
42	0x3e4c99cb	0.19980542
43	0xbe51a639	-0.20473565
44	0xbe6cd114	-0.23126632
45	0xbe232e89	-0.1593572
46	0x3d5a7a5e	0.053339355
47	0xbe07f8d5	-0.13278516
48	0xbd86989a	-0.06572075
49	0xbd2b638a	-0.041842975
50	0x3d05f6f3	0.032706212
51	0xbde13c4c	-0.10997829
52	0x3e0d2403	0.13783269
53	0xbe5785bb	-0.21047108
54	0xbb6215c1	-0.003449783
55	0x3e6df5b4	0.2323826
56	0xbdea6171	-0.11444367
57	0x3e28c238	0.16480339
58	0x3e178f2f	0.14800714
59	0xbd76d159	-0.060258243
60	0x3d95afff	0.07308959
61	0xbe45aeea	-0.19305006
62	0x3c3eb032	0.011638688
63	0x3d080891	0.033211295
64	0x3e4b82a7	0.19874059
65	0xbe04a7fb	-0.12954704
66	0xbe227cac	-0.15867871
67	0xbdc77bf2	-0.097404376
68	0xbe6681f6	-0.22510514
69	0x3d3cb743	0.04607321
70	0xbe554de1	-0.2083049
71	0xbd8de2a7	-0.06927996
72	0xbdb11b2e	-0.08647762
73	0x3c05e33e	0.008171855
74	0x3d9a93d8	0.0754773
75	0xbe3714d0	-0.17879033
76	0xbda7d8ee	-0.08195673
77	0xbcaff6a4	-0.021479912
78	0xbe0d7dd5	-0.13817532
79	0x3d92fceb	0.071771465
80	0x3d8a76f3	0.06760969
81	0xbe279353	-0.16364793
82	0x3e3f460f	0.18679069
83	0x3e366094	0.17810279
84	0xbd64ba3c	-0.05584167
85	0x3c7904fb	0.015198941
86	0x3d27909f	0.040909406
87	0xbb3fbf5a	-0.0029258342
88	0xbe1ecb12	-0.15507153
89	0x3e4a4f1f	0.19756745
90	0x3e238000	0.15966797
91	0xbe4e34de	-0.20137355
92	0xbe598f3b	-0.21246044
93	0x3e6addb4	0.22936136
94	0x3d7ae9ac	0.061258003
95	0xbd90a073	-0.07061853
96	0x3e497cbf	0.19676493
97	0x3d5c061f	0.053716775
98	0x3df67230	0.12033498
99	0x3e41c1e3	0.18921618
100	0xbd6f102b	-0.05836503
101	0x3e8e3a4d	0.27778855
102	0xbe4da4d6	-0.20082411
103	0xbe4117bb	-0.18856709
104	0x3b890b2c	0.00418224
105	0x3bb6983e	0.005572348
106	0x3e10aa49	0.14127459
107	0xbded2bcc	-0.11580619
108	0x3da06887	0.07832437
109	0xbcbe6a6c	-0.023244105
110	0x3e0b566a	0.13607183
111	0x3cb85bfb	0.022504797
112	0xbb8d6de7	-0.00431608
113	0x3e52a2ee	0.20569965
114	0x3e7b6bf7	0.24552904
115	0x3e7f97f6	0.24960312
116	0xbe736912	-0.2377055
117	0xbe022f6e	-0.12713405
118	0xbd844644	-0.064587146
119	0xbd6c6ac1	-0.057718996
120	0x3e22f379	0.1591319
121	0x3ddbc3e3	0.10730722
122	0xbd08e894	-0.03342493
123	0xbaaf7f68	-0.001338941
124	0x3d37fd3c	0.044919237
125	0x3e541758	0.2071203
126	0x3dfe8291	0.12427247
127	0xbdeecaf6	-0.116598055
128	0xbe05ec47	-0.13078414
129	0x3d5736dc	0.052542552
130	0xbcd96d9e	-0.026541527
131	0xbe1f5238	-0.15558708
132	0xbe78f7bf	-0.24313258
133	0x3ce814ad	0.028330171
134	0xbd91b028	-0.07113677
135	0xbe1c426e	-0.15259716
136	0x3d36bf7a	0.0446162
137	0x3e7e31a1	0.2482362
138	0x3e5e70a7	0.21722661
139	0x3e211147	0.15729247
140	0xbe496620	-0.19667864
141	0x3e21b4f1	0.1579168
142	0x3e32e0e6	0.17468604
143	0x3db210bb	0.08694597
144	0xbd96cc56	-0.07363193
145	0xbc5e1920	-0.013555795
146	0xbe0d3ecd	-0.13793488
147	0xbd5bb386	-0.053638004
148	0xbd406734	-0.046973422
149	0xbd1df885	-0.038567085
150	0xbe7a12b3	-0.24421196
151	0x3db196e0	0.08671355
152	0xbe5c7097	-0.21527325
153	0xbe3545a9	-0.17702354
154	0x3dded80f	0.10881054
155	0xbe465608	-0.19368756
156	0x3e6cffef	0.23144506
157	0x3e7efbdc	0.24900764
158	0xbd39d1a1	-0.045365933
159	0xbd4bbb34	-0.049739078
160	0xbe5eb008	-0.21746838
161	0x3ce31e83	0.02772451
162	0x3d13377c	0.035941586
163	0xbe140821	-0.14456226
164	0x3db9ae08	0.09066397
165	0xbd3734e2	-0.044728167
166	0xbd6ce2a2	-0.05783332
167	0x3d2761b8	0.040864676
168	0xbe6ce326	-0.23133525
169	0xbe4ce193	-0.20007925
170	0x3cdbeb41	0.026845576
171	0x3e8a9a31	0.27070764
172	0xbe327d66	-0.17430648
173	0x3e213fba	0.15746966
174	0x3dbc1bfd	0.09185026
175	0xbdf0c43a	-0.11756177
176	0xbc8118ba	-0.01575886
177	0x3ddff1ba	0.109347776
178	0x391dc0ac	0.00015044463
179	0x3e8347cb	0.2564071
180	0xbcbad908	-0.022808567
181	0xbe46080a	-0.19339004
182	0x3e73ee93	0.23821478
183	0xbd8e095b	-0.06935378
184	0x3e3f1fc2	0.18664458
185	0x3e19346b	0.14961402
186	0x3d7cf98c	0.061761424
187	0xbe38f149	-0.18060793
188	0xbe85d011	-0.26135305
189	0x3e049b3d	0.12949844
190	0x3d9601ae	0.07324539
191	0x3e02eac8	0.12784874
192	0xbe7227de	-0.2364802
193	0xbca2845b	-0.019838503
194	0x3e4735e9	0.19454159
195	0x3e1e220a	0.15442672
196	0x3e594946	0.21219358
197	0x3e38e4f9	0.18056096
198	0xbd86867d	-0.0656862
199	0xbe34cc31	-0.17656018
200	0xbe012ec8	-0.12615502
201	0x3de2ffa4	0.11083916
202	0xbda5938e	-0.080847844
203	0x3b74849e	0.0037310491
204	0x3d217cd1	0.039425675
205	0x3e380147	0.17969237
206	0x3df8428f	0.1212207
207	0x3e03d3c6	0.12873754
208	0xbc8bc054	-0.017059483
209	0x3dfb548f	0.12271988
210	0xbe141835	-0.14462359
211	0xbdaf2cec	-0.0855349
212	0xbbad056c	-0.0052801874
213	0xbe3e2b91	-0.18571307
214	0x3e74c580	0.23903465
215	0xbc3d8540	-0.011567414
216	0x3dc4c364	0.0960758
217	0xbca613d0	-0.02027312
218	0x3cbb8bb8	0.022893772
219	0xbde57b6e	-0.11205183
220	0xbd3e2731	-0.046424095
221	0xbe5be6f4	-0.2147482
222	0xbda530f2	-0.08065976
223	0x3e3cc430	0.18434215
224	0xbe57e663	-0.2108398
225	0x3cfdf397	0.030999942
226	0x3d98d4f8	0.074624956
227	0xbe8617ea	-0.2619012
228	0x3ced2e86	0.028952848
229	0x3e1370da	0.14398518
230	0x3e29a0ff	0.16565321
231	0x3d1208a9	0.03565279
232	0x3e33b190	0.17548203
233	0x3a7690b2	0.00094057166
234	0x3dc69338	0.096960485
235	0x3d4af22f	0.04954737
236	0xbe314c72	-0.17314318
237	0xbd6052fc	-0.05476664
238	0xbe48f3fd	-0.19624324
239	0x3e4e661d	0.2015614
240	0x3e016e4b	0.1263973
241	0xbddaaceb	-0.10677513
242	0xbcdb006b	-0.026733598
243	0x3d724cc3	0.059155237
244	0xbe6dc434	-0.23219377
245	0x3c9996f0	0.01874873
246	0x3de236e9	0.110456295
247	0x3ca85e5f	0.020552812
248	0xbd23061d	-0.039800752
249	0x3e334f6f	0.1751077
250	0x3db9ed56	0.09078471
251	0xbe6c959a	-0.23103943
252	0x3e1eb194	0.15497428
253	0xbe39ded1	-0.18151404
254	0x3e21c3fa	0.15797415
255	0x3e706f19	0.2347988

gnn_base.gnn.gnn1.lin_value.bias f4 [48]
0	0x3e6c0f16	0.2305263
1	0xbe31bd3e	-0.17357346
2	0x3e2aca76	0.16678795
3	0xbdf2ca49	-0.11854989
4	0x3dac04d0	0.083993554
5	0xbe1cab43	-0.15299706
6	0xbd9f8ae9	-0.07790167
7	0x3d71a51e	0.05899536
8	0x3e35c422	0.177506
9	0xbc86d097	-0.016456885
10	0x3db8b709	0.09019286
11	0xbe17c456	-0.1482099
12	0x3d6c748f	0.057728346
13	0xbd436273	-0.04770131
14	0xbd23b5ea	-0.03996841
15	0x3e0a7247	0.13520156
16	0xbdba6d90	-0.09102929
17	0xbe3e6f40	-0.18597126
18	0xbdad325a	-0.084568694
19	0x3dd8cbff	0.10585784
20	0x3e654b54	0.22392017
21	0x3e57ce6f	0.21074842
22	0x3e528a51	0.20560576
23	0xbe251136	-0.16119847
24	0x3e6a56bc	0.22884649
25	0x3dd7e15a	0.10541029
26	0x3d276c26	0.040874623
27	0xbe1ef687	-0.1552373
28	0xbe1dd1ab	-0.15412013
29	0x3d37d78d	0.0448833
30	0xbba99018	-0.005174648
31	0xbd6fabd1	-0.058513466
32	0xbe4ba5ee	-0.19887516
33	0x3e381c5a	0.17979565
34	0x3d828aa8	0.06374103
35	0x3c65ea61	0.014032931
36	0x3c04586a	0.00807772
37	0x3df449bb	0.119281255
38	0xbdf55449	-0.11978967
39	0xbc8a6f60	-0.01689881
40	0x3e67af58	0.22625482
41	0xbd100f9b	-0.035171133
42	0xbe5ed685	-0.2176152
43	0xbe234621	-0.15944721
44	0x3e08e735	0.13369448
45	0x3de576a2	0.11204268
46	0x3e421839	0.18954553
47	0xbd9c24e6	-0.07624225

gnn_base.gnn.gnn1.lin_edge.weight f4 [48, 1]
0	0xbeee7d79	-0.46580103
1	0xbf6c91cb	-0.9240996
2	0x3d63746e	0.055530958
3	0xbe50fc37	-0.20408712
4	0x3f6f01e2	0.9336225
5	0xbeefffda	-0.46874887
6	0xbf18a347	-0.5962414
7	0x3ec9e9a7	0.39436075
8	0xbeba537f	-0.36391827
9	0xbdbe7b6c	-0.093008846
10	0x3f7f59ba	0.99746287
11	0x3f1da6e4	0.6158278
12	0xbf815f12	-1.0107138
13	0x3cf2fa63	0.02966041
14	0x3d5dbc49	0.05413464
15	0x3f7d4b8d	0.98943406
16	0xbf5e7390	-0.86895084
17	0x3f1415ef	0.5784597
18	0xbf7d79d7	-0.9901404
19	0xbf815b9a	-1.010608
20	0xbf0618e3	-0.52381724
21	0xbf7521e0	-0.95754814
22	0xbcdf2a54	-0.027241863
23	0x3f4b6813	0.7945568
24	0xbe8d9966	-0.27656096
25	0xbf423a47	-0.75870174
26	0xbdb0138e	-0.0859748
27	0xbf51be7e	-0.81931293
28	0x3f2bfbb5	0.6718095
29	0x3df219e5	0.11821345
30	0x3f66cb6d	0.90154153
31	0x3ee10feb	0.43957457
32	0x3eb40478	0.3515966
33	0x3e96405c	0.29345977
34	0x3f6b4b19	0.91911465
35	0xbf1e00aa	-0.61719763
36	0xbf213f20	-0.62986946
37	0x3f41285f	0.75452226
38	0x3ecc06bf	0.39848897
39	0x3f68d170	0.90944576
40	0x3e73d2e2	0.23810914
41	0x3eb9d423	0.3629466
42	0x3f1b934e	0.60771644
43	0x3f238783	0.6387865
44	0x3f0b5c48	0.54437685
45	0xbf508980	-0.8145981
46	0x3e9f0c80	0.31064224
47	0xbf2de90e	-0.6793374
