onpolicy/results/GraphMPE/navigation_graph/rmappo/crap_bad/run23/models/critic.pt (torch, 199203 bytes, 61 tensors)

gnn_base.gnn.embed_layer.entity_embed.weight f4 [3, 2]
0	0x3f6878b2	0.90809166
1	0x3f608db7	0.8771624
2	0xbf684e40	-0.907444
3	0x3f9c95e6	1.2233245
4	0xbfcc6434	-1.596808
5	0x3fdc736f	1.7222728

gnn_base.gnn.embed_layer.lin1.0.weight f4 [16, 7]
0	0x3b0dae4b	0.002161878
1	0xbd529b84	-0.051417843
2	0xbeaaa089	-0.33325604
3	0xbebbaa35	-0.36653295
4	0xbe698f78	-0.22808635
5	0x3dd1bea7	0.10241442
6	0xbf2da969	-0.67836624
7	0x3edea1d2	0.43482834
8	0xbde7f49b	-0.11325952
9	0xbd9fbb6d	-0.077994205
10	0xbee85fdf	-0.45385644
11	0xbf0374c3	-0.5135004
12	0x3f1c8f7f	0.6115646
13	0x3ec9ef0d	0.39440194
14	0x3c0ec254	0.008713324
15	0x3ec7649b	0.38943943
16	0x3ecf08da	0.4043644
17	0x3b1005da	0.0021976144
18	0x3ee30d6e	0.44346184
19	0x3db07afb	0.08617207
20	0x3d26d30c	0.040728614
21	0xbdc77c1b	-0.09740468
22	0xbe4159da	-0.18881932
23	0xbeb7b625	-0.35881153
24	0x3ea82544	0.3284093
25	0x3ed1ee11	0.41001943
26	0x3ec88ca8	0.39169812
27	0xbd759f4d	-0.059966374
28	0xbec8a52c	-0.39188516
29	0xbd84c3ad	-0.06482635
30	0xbe9849c6	-0.29743785
31	0x3f0fed56	0.5622152
32	0xbeeba3c6	-0.46023387
33	0xbf0746e2	-0.52842534
34	0x3eecb020	0.46228123
35	0xbec36f93	-0.38171062
36	0x3ef081ef	0.4697413
37	0xbf42e58c	-0.7613151
38	0xbdfcbabb	-0.123403035
39	0xbe34c1fc	-0.17652124
40	0x3d8e6efd	0.06954763
41	0xbf034280	-0.51273346
42	0xbe84a0d7	-0.2590396
43	0x3e12baaf	0.14329027
44	0xbda7b6e9	-0.08189184
45	0xbe0ae09e	-0.13562247
46	0x3f1e7a65	0.6190551
47	0x3e1b7225	0.15180261
48	0xbc7a77cf	-0.015287354
49	0xbedc2362	-0.42995745
50	0xbf2d708d	-0.67749864
51	0xbdce745d	-0.10080788
52	0xbf02b088	-0.51050615
53	0x3e92c655	0.2866694
54	0xbe5eac17	-0.21745335
55	0x3ec6965c	0.3878659
56	0x3e4fca1d	0.20291944
57	0x3ea19c3b	0.31564507
58	0xbf19a534	-0.60017705
59	0xbd87ba2b	-0.066273056
60	0xbd1e9fb4	-0.038726524
61	0x3e897088	0.26843667
62	0x3f13d256	0.5774282
63	0x3dde88e7	0.10865956
64	0x3ecb7078	0.39734244
65	0x3df10f28	0.11770469
66	0xbddd8093	-0.10815539
67	0x3de3999e	0.111132845
68	0x3e0091b8	0.12555587
69	0x3f019357	0.5061545
70	0x3e052a4e	0.13004419
71	0x3e371c51	0.17881896
72	0x3e5fec37	0.21867453
73	0x3f470b6b	0.777518
74	0xbe5e675c	-0.21719116
75	0x3ebb843a	0.36624318
76	0xbdd89a2b	-0.1057628
77	0x3efe9948	0.4972632
78	0xbe3b52c7	-0.18293296
79	0xbe084071	-0.13305832
80	0x3e15e01d	0.14636274
81	0x3e3b23c0	0.18275356
82	0xbf3bae11	-0.7331248
83	0xbe7016a6	-0.2344614
84	0x3e8c699c	0.27424324
85	0xbf40d304	-0.75321984
86	0xbe79ff34	-0.24413759
87	0x3e923405	0.28555313
88	0xbe23cd78	-0.15996349
89	0x3e81d33e	0.25356477
90	0xbc3989dd	-0.011324373
91	0xbf395972	-0.7240211
92	0x3e19cd12	0.15019634
93	0x3e4de6ae	0.20107529
94	0xbdfed8b2	-0.12443675
95	0xbf008ef9	-0.5021816
96	0xbddc1e07	-0.10747915
97	0x3e0c94d7	0.13728653
98	0xbeed4534	-0.4634186
99	0xbeac3236	-0.33632058
100	0x3f053e53	0.52048224
101	0x3d636649	0.05551747
102	0xbe07eb37	-0.13273321
103	0x3edbfc0a	0.42965728
104	0xbe9b8fd5	-0.30383173
105	0x3eb8c814	0.36090147
106	0x3e1141c9	0.14185251
107	0x3ea19171	0.31556275
108	0xbec682c7	-0.3877165
109	0xbeb76d0a	-0.35825378
110	0xbebed595	-0.37272325
111	0xbe2e4ec3	-0.17022233

gnn_base.gnn.embed_layer.lin1.0.bias f4 [16]
0	0xbc6e811a	-0.014557147
1	0x3d027cbf	0.03185725
2	0x3bf84dcf	0.007577635
3	0x3c2b8356	0.010468325
4	0x3b0d537f	0.002156466
5	0x3cd65f16	0.026168387
6	0xbceb4324	-0.028718539
7	0xbc69a3c0	-0.014260232
8	0xba1e0279	-0.000602759
9	0x3c8dc3d2	0.017305288
10	0xb99ee12a	-0.0003030387
11	0xbbf4f34b	-0.007475292
12	0x3c0734e0	0.0082523525
13	0xbb1e1198	-0.0024119373
14	0xbc55352a	-0.013013164
15	0xbcee7455	-0.029108206

gnn_base.gnn.embed_layer.lin1.2.weight f4 [16]
0	0x3f82601d	1.0185581
1	0x3f811a95	1.0086237
2	0x3f7ff1ba	0.9997822
3	0x3f7f2005	0.9965823
4	0x3f7dfc73	0.9921333
5	0x3f7b97b3	0.9827835
6	0x3f79168f	0.97300047
7	0x3f8047b8	1.0021887
8	0x3f7ffe6e	0.99997604
9	0x3f84b69a	1.0368226
10	0x3f7d12b2	0.9885665
11	0x3f7fd00b	0.99926823
12	0x3f7d69bc	0.9898946
13	0x3f7fff5e	0.99999034
14	0x3f805fe3	1.0029262
15	0x3f816858	1.0109968

gnn_base.gnn.embed_layer.lin1.2.bias f4 [16]
0	0xbc909730	-0.017650217
1	0x3d055450	0.03255111
2	0x3bd361f6	0.006450887
3	0x3c38702b	0.011257212
4	0x3bd1b4d4	0.00639973
5	0x3cf27599	0.02959709
6	0x3b2e3157	0.0026579702
7	0xbbaa9cdc	-0.0052066874
8	0x3bf28cde	0.0074020466
9	0x3c859559	0.016306566
10	0x3c3fd996	0.011709591
11	0x3a9356d9	0.0011241093
12	0x3c72e460	0.014824957
13	0x398ccd6e	0.00026855938
14	0xbc998c48	-0.01874365
15	0xbc4e8702	-0.012605431

gnn_base.gnn.embed_layer.lin_h.0.weight f4 [16, 16]
0	0xbdbfbbba	-0.09361978
1	0x3f49f462	0.78888524
2	0xbdba7816	-0.09104936
3	0x3f09d4ef	0.53840536
4	0x3e8891ff	0.26673886
5	0xbd982852	-0.074295655
6	0x3da3fb12	0.08006872
7	0x3f1396fd	0.57652265
8	0x3ebb1c3e	0.36544985
9	0x3e0374f3	0.12837581
10	0xbdb4f0ec	-0.08835015
11	0x3e11e9ed	0.14249392
12	0x3f0b13aa	0.5432688
13	0xbdca70af	-0.09884774
14	0xbe5c8978	-0.21536815
15	0xbeb59df9	-0.35472086
16	0xbc0062f1	-0.0078360895
17	0x3d14a121	0.036286477
18	0x3ee0e4ba	0.43924505
19	0xbce4e330	-0.027940363
20	0xbf3e2f38	-0.742908
21	0xbe803fc2	-0.25048643
22	0xbe20b8bf	-0.15695475
23	0x3ec45466	0.3834564
24	0x3dc65803	0.09684756
25	0xbec9097b	-0.39265046
26	0xbe95b356	-0.29238385
27	0xbec20ec4	-0.3790189
28	0x3f07734a	0.5291029
29	0x3d9bdf7b	0.07610985
30	0x3eba8cc1	0.36435512
31	0x3ee9290e	0.45539135
32	0x3edb4312	0.42824608
33	0xbd97f557	-0.07419842
34	0x3e630974	0.22171575
35	0x3e5304ee	0.2060735
36	0x3ef42fee	0.47692817
37	0x3f48e8d7	0.78480285
38	0xbecce6b2	-0.40019757
39	0xbb48fe70	-0.0030669235
40	0x3dc4f9bf	0.09617948
41	0x3d982a05	0.074298896
42	0xbeca0619	-0.39457777
43	0xbeaca580	-0.33720016
44	0x3dc0f7a6	0.09422235
45	0xbe7e7d29	-0.24852432
46	0xbe875cff	-0.26438138
47	0x3f0a26c0	0.5396538
48	0x3dba98d3	0.0911118
49	0xbf0a8394	-0.5410702
50	0xbd12ed5a	-0.035870887
51	0x3f0dafd3	0.5534641
52	0x3ee4e45d	0.44705477
53	0xbec8af5f	-0.39196298
54	0x3f190d2c	0.59785724
55	0x3e05999f	0.13046883
56	0x3d2802e9	0.0410184
57	0xbf3e6495	-0.74372226
58	0xbc364607	-0.011125094
59	0xbde20356	-0.110357925
60	0xbd6fb451	-0.058521573
61	0xbe823382	-0.25429922
62	0xbda22ed9	-0.07919092
63	0x3e1794a1	0.14802791
64	0xbf7a2baa	-0.97722876
65	0xbe53698a	-0.20645729
66	0x3e9a9576	0.30192155
67	0xbddcf1bf	-0.10788297
68	0x3e9e1bed	0.3088068
69	0x3ea991ab	0.33118948
70	0xbe8bb7b5	-0.27288595
71	0x3e9afb44	0.30269825
72	0x3eb239b9	0.34809664
73	0xbead1a5f	-0.33809182
74	0x3b85d178	0.0040838085
75	0x3ea8815e	0.329112
76	0xbe494160	-0.19653845
77	0x3ebb6025	0.3659679
78	0x3c17c39c	0.0092629455
79	0x3de06d04	0.10958293
80	0xbdbf7834	-0.09349099
81	0xbc30e92d	-0.010797781
82	0x3f65767b	0.8963391
83	0x3ed92be6	0.42416304
84	0x3e198622	0.14992574
85	0xbef9860c	-0.48735082
86	0xbefd1159	-0.49427298
87	0xbd2a5246	-0.04158237
88	0xbea06e53	-0.3133417
89	0x3e8bc453	0.2729822
90	0x3e328d28	0.1743666
91	0xbe515052	-0.20440796
92	0xbea60b70	-0.324306
93	0xbe757dc7	-0.23973761
94	0xbd2a2662	-0.04154051
95	0xbe9bbbfb	-0.30416855
96	0xbdd62f97	-0.10458296
97	0x3cd7aa80	0.026326418
98	0x3d8ece14	0.069729
99	0x3f16e406	0.58941686
100	0x3e4080b4	0.18799096
101	0x3ea9a335	0.3313233
102	0x3e914934	0.28376162
103	0xbed68fe5	-0.41906658
104	0xbe0a087f	-0.13479804
105	0x3e426293	0.18982916
106	0x3d9ff3a1	0.078101404
107	0xbe957036	-0.29187173
108	0x3e69c7c1	0.22830106
109	0x3f25cce9	0.64765793
110	0x3f47c6aa	0.7803751
111	0xbdbfe5f2	-0.093700305
112	0xbde84fab	-0.113433205
113	0xbe71caae	-0.23612472
114	0xbd71096e	-0.058846883
115	0x3e34642c	0.17616338
116	0xbeb3a245	-0.3508474
117	0x3ebb03a3	0.36526212
118	0x3e127f9f	0.14306496
119	0x3ec899c7	0.39179823
120	0xbe4b85d2	-0.19875267
121	0x3dd18e43	0.102322124
122	0x3f552194	0.8325436
123	0xbf078739	-0.5294071
124	0x3dcfcae0	0.10146117
125	0x3e71492c	0.23563069
126	0xbf1d35fc	-0.614105
127	0xbc15a772	-0.00913416
128	0x3d079e3a	0.03310988
129	0x3eadb239	0.33925036
130	0x3da143a8	0.078742325
131	0xbecf4147	-0.4047949
132	0x3ee7b553	0.45255527
133	0xbdf682ac	-0.120366424
134	0x3defd965	0.117113866
135	0x3e903c78	0.28171134
136	0xbf765357	-0.96220917
137	0xbe805f34	-0.25072634
138	0xbe98e752	-0.29863983
139	0xbde1608f	-0.11004745
140	0x3db8002c	0.08984408
141	0x3f01699b	0.50551766
142	0xbe5c9dc4	-0.21544558
143	0x3d15e5c5	0.03659608
144	0xbe2d2eb9	-0.16912355
145	0x3e6452d1	0.22297217
146	0xbecff3dd	-0.4061574
147	0xbcffa73d	-0.031207675
148	0xbd4aef36	-0.049544536
149	0x3d82f1cb	0.063937746
150	0xbcc783b3	-0.024354791
151	0x3ec063a5	0.37576023
152	0x3e0d594c	0.13803595
153	0xbd62662b	-0.055273216
154	0xbeb5bb91	-0.35494664
155	0xbf52b1bf	-0.8230247
156	0xbf46b4f6	-0.77619874
157	0xbdf3f1a3	-0.11911323
158	0x3e8fbb04	0.2807237
159	0xbe968e3e	-0.29405397
160	0x3ed25197	0.41077873
161	0x3d5aa87c	0.053383335
162	0x3eab5e35	0.33470312
163	0x3eaabef1	0.33348802
164	0xbf0af028	-0.542727
165	0x3edf2f4a	0.43590766
166	0x3e075577	0.13216196
167	0xbcc78a41	-0.024357917
168	0xbc34179e	-0.010991959
169	0xbed8e398	-0.4236114
170	0xbebe8ac7	-0.37215254
171	0x3ecc6aef	0.39925334
172	0xbeca4de7	-0.3951256
173	0x3eb0bbbb	0.34518227
174	0xbe9407fc	-0.28912342
175	0xbf04157d	-0.5159529
176	0x3eb32434	0.34988558
177	0x3d083cbc	0.033261046
178	0xbf0eb317	-0.5574202
179	0x3ebb05b2	0.36527783
180	0x3ce0fdb2	0.027464721
181	0xbdc17013	-0.094452046
182	0xbf5c6ae1	-0.86100584
183	0x3e793599	0.24336852
184	0xbe5cb5e6	-0.21553764
185	0xbec8a3c1	-0.39187434
186	0x3ecf1924	0.40448868
187	0x3e96d0b6	0.2945611
188	0xbe037b84	-0.12840086
189	0x3e497c7a	0.1967639
190	0x3ea12f62	0.31481463
191	0x3e0702c2	0.13184646
192	0xbe643997	-0.22287594
193	0x3e161a82	0.1465855
194	0xbe4fdfba	-0.20300189
195	0xbcea7f00	-0.028625011
196	0x3ce07905	0.027401457
197	0xbe387b83	-0.18015866
198	0xbed85285	-0.42250457
199	0xbf4e3054	-0.8054249
200	0x3e5b8aae	0.21439621
201	0xbf0724a0	-0.5279026
202	0xbda3a55f	-0.079905264
203	0xbef0155a	-0.4689129
204	0x3eae127d	0.3399848
205	0x3e24848e	0.1606619
206	0xbef4a6ba	-0.47783452
207	0xbea67e55	-0.3251826
208	0x3f1b01dd	0.6054972
209	0xbed4a696	-0.41533345
210	0x3e3eb41f	0.18623398
211	0xbed4bc24	-0.4154979
212	0x3eb9f55c	0.36320007
213	0xbe8674d5	-0.2626101
214	0xbde1a826	-0.110184
215	0x3e9fce58	0.31212115
216	0x3f1adc2c	0.60492206
217	0x3e15930d	0.14606877
218	0x3d87f0a8	0.066376984
219	0xbe3964c5	-0.18104847
220	0x3de18c27	0.1101306
221	0x3f17f561	0.59358793
222	0x3d405604	0.04695703
223	0xbec799e2	-0.3898459
224	0x3e724cf2	0.23662165
225	0x3f093bb9	0.53606755
226	0x3eceb6d6	0.40373868
227	0xbede8c32	-0.43466336
228	0x3e47e7ae	0.19521973
229	0x3eb21bde	0.34786886
230	0x3e31d95b	0.17368071
231	0xbdb40cf6	-0.087915346
232	0x3ded1139	0.115755506
233	0xbf12faae	-0.57413757
234	0x3f2d8fcd	0.6779755
235	0xbd9e425c	-0.07727501
236	0xbd381c38	-0.044948786
237	0xbebf8686	-0.3740732
238	0x3ebd997a	0.37031156
239	0xbe10a25f	-0.1412444
240	0xbe0c6f22	-0.13714269
241	0xbf12c960	-0.57338524
242	0xbde60dd7	-0.112331085
243	0xbe0bfab3	-0.13669853
244	0x3ac331fd	0.0014892217
245	0x3eb9e9dd	0.36311236
246	0xbe46c556	-0.19411215
247	0x3e5d9ca8	0.21641791
248	0xbec7d541	-0.39029887
249	0xbda8c297	-0.0824024
250	0xbe3b7996	-0.183081
251	0x3c92c075	0.017914036
252	0x3f0aaf81	0.5417405
253	0xbefde74e	-0.49590534
254	0x3e91e2d5	0.28493372
255	0xbf44d602	-0.7688905

gnn_base.gnn.embed_layer.lin_h.0.bias f4 [16]
0	0x00000000	0.0
1	0x00000000	0.0
2	0x00000000	0.0
3	0x00000000	0.0
4	0x00000000	0.0
5	0x00000000	0.0
6	0x00000000	0.0
7	0x00000000	0.0
8	0x00000000	0.0
9	0x00000000	0.0
10	0x00000000	0.0
11	0x00000000	0.0
12	0x00000000	0.0
13	0x00000000	0.0
14	0x00000000	0.0
15	0x00000000	0.0

gnn_base.gnn.embed_layer.lin_h.2.weight f4 [16]
0	0x3f82601d	1.0185581
1	0x3f811a95	1.0086237
2	0x3f7ff1ba	0.9997822
3	0x3f7f2005	0.9965823
4	0x3f7dfc73	0.9921333
5	0x3f7b97b3	0.9827835
6	0x3f79168f	0.97300047
7	0x3f8047b8	1.0021887
8	0x3f7ffe6e	0.99997604
9	0x3f84b69a	1.0368226
10	0x3f7d12b2	0.9885665
11	0x3f7fd00b	0.99926823
12	0x3f7d69bc	0.9898946
13	0x3f7fff5e	0.99999034
14	0x3f805fe3	1.0029262
15	0x3f816858	1.0109968

gnn_base.gnn.embed_layer.lin_h.2.bias f4 [16]
0	0xbc909730	-0.017650217
1	0x3d055450	0.03255111
2	0x3bd361f6	0.006450887
3	0x3c38702b	0.011257212
4	0x3bd1b4d4	0.00639973
5	0x3cf27599	0.02959709
6	0x3b2e3157	0.0026579702
7	0xbbaa9cdc	-0.0052066874
8	0x3bf28cde	0.0074020466
9	0x3c859559	0.016306566
10	0x3c3fd996	0.011709591
11	0x3a9356d9	0.0011241093
12	0x3c72e460	0.014824957
13	0x398ccd6e	0.00026855938
14	0xbc998c48	-0.01874365
15	0xbc4e8702	-0.012605431

gnn_base.gnn.embed_layer.lin2.0.0.weight f4 [16, 16]
0	0xbdf8a5f0	-0.12141025
1	0x3f4e1692	0.8050319
2	0xbda0bd35	-0.078485884
3	0x3f0caf6f	0.5495519
4	0x3e718b9a	0.2358841
5	0xbdb95d4b	-0.09050997
6	0x3dd8b96c	0.105822414
7	0x3f10b0b8	0.5651965
8	0x3ecacde1	0.39610198
9	0x3e45119e	0.19245002
10	0xbdaf24e5	-0.08551959
11	0x3df5b362	0.11997105
12	0x3f063c02	0.52435315
13	0xbdef2d25	-0.116785325
14	0xbe5ef279	-0.21772183
15	0xbec0b0c1	-0.37634853
16	0x3abdcddc	0.0014480907
17	0x3cc77ef5	0.02435253
18	0x3ee97846	0.45599574
19	0xbccb13b3	-0.024789667
20	0xbf3b298c	-0.7311027
21	0xbe7808d6	-0.2422212
22	0xbe1c70a8	-0.1527735
23	0x3ec730fd	0.38904563
24	0x3da1ebb5	0.07906286
25	0xbed0f903	-0.4081498
26	0xbe97453b	-0.29545006
27	0xbebd2c6e	-0.3694796
28	0x3f062822	0.5240499
29	0x3d8dd02e	0.06924473
30	0x3eb8088e	0.35944027
31	0x3eed95a5	0.46403232
32	0x3eb279cf	0.34858558
33	0xbd265946	-0.04061248
34	0x3e7e0775	0.24807532
35	0x3e802c4c	0.25033796
36	0x3ed2972f	0.4113097
37	0x3f54880c	0.8302009
38	0xbeabe46e	-0.33572716
39	0xbd45156d	-0.048116136
40	0x3e43ffa0	0.19140482
41	0x3e2146c9	0.15749659
42	0xbeedad4e	-0.46421283
43	0xbeda16db	-0.42595562
44	0x3cfa9518	0.030588672
45	0xbe9a37e8	-0.30120778
46	0xbeb985bd	-0.36234847
47	0x3ee5c149	0.44874027
48	0x3df57a2b	0.11986192
49	0xbf07be10	-0.5302439
50	0xbd717804	-0.058952346
51	0x3f083f38	0.53221464
52	0x3ef51b17	0.4787223
53	0xbec146b3	-0.37749252
54	0x3f1240db	0.5713021
55	0x3df837c0	0.121200085
56	0x3c7c9f31	0.015418814
57	0xbf48e6d1	-0.784772
58	0x3b8ccaef	0.0042966525
59	0xbda7ae7d	-0.08187578
60	0xbd10f44f	-0.03538924
61	0xbe6b3b56	-0.22971854
62	0xbd86a820	-0.06575036
63	0x3e34e97d	0.17667194
64	0xbf7c4c52	-0.98553956
65	0xbe4f8af1	-0.20267846
66	0x3e8564f1	0.26053575
67	0xbdabfa86	-0.08397393
68	0x3eabcf25	0.33556476
69	0x3eb1ff7e	0.34765238
70	0xbe8a2dad	-0.26987973
71	0x3e9a531f	0.3014154
72	0x3eb61057	0.3555934
73	0xbec5bd42	-0.38620955
74	0x3bc11589	0.00589246
75	0x3ea23dfa	0.3168791
76	0xbe368eb0	-0.17827868
77	0x3eb76aed	0.35823765
78	0x3b1da9a0	0.0024057403
79	0x3dcc8e12	0.09988035
80	0xbdcfe1c6	-0.10150485
81	0xbc494579	-0.01228463
82	0x3f68f40a	0.90997374
83	0x3edfb100	0.43689728
84	0x3e07ee26	0.1327444
85	0xbefb845c	-0.4912442
86	0xbef2f179	-0.47449854
87	0xbd0efe3a	-0.034910418
88	0xbe982ba1	-0.29720786
89	0x3e9c3ce8	0.30515218
90	0x3e2e1508	0.1700021
91	0xbe586cbd	-0.2113523
92	0xbeabdb6c	-0.33565843
93	0xbe815db6	-0.25266808
94	0xbd2fb2b6	-0.04289504
95	0xbe9ee257	-0.3103206
96	0xbde22910	-0.11042988
97	0x3d0817ae	0.033225708
98	0x3d833650	0.06406844
99	0x3f177955	0.59169513
100	0x3e376db5	0.17912944
101	0x3ea74343	0.32668504
102	0x3e927691	0.28606084
103	0xbed8601a	-0.4226082
104	0xbdf32bb5	-0.11873571
105	0x3e4c5251	0.19953276
106	0x3da2cf93	0.07949748
107	0xbe99137d	-0.2989768
108	0x3e6bed32	0.23039702
109	0x3f26686a	0.65003073
110	0x3f486b8c	0.78289104
111	0xbdcd0dd4	-0.10012403
112	0xbdf908e3	-0.12159898
113	0xbe6adc64	-0.22935635
114	0xbd4f1753	-0.050559353
115	0x3e35dd76	0.17760262
116	0xbeb64a65	-0.35603634
117	0x3eb9a201	0.36256412
118	0x3e1ddda5	0.15416582
119	0x3ec8a5b8	0.39188933
120	0xbe42af05	-0.19012077
121	0x3de743c1	0.1129222
122	0x3f54c1da	0.83108294
123	0xbf0987b1	-0.53722674
124	0x3dccd0f1	0.1000079
125	0x3e6ab2e6	0.22919807
126	0xbf1e9dc0	-0.6195946
127	0xbc87a5d2	-0.016558561
128	0x3d6e2b6f	0.05814689
129	0x3ea879ba	0.3290537
130	0x3dae6403	0.085151695
131	0xbecbadcb	-0.3978103
132	0x3eee6585	0.46561828
133	0xbdd024d2	-0.10163273
134	0x3df990da	0.12185831
135	0x3e8f289f	0.2796068
136	0xbf75548c	-0.95832133
137	0xbe880332	-0.26564938
138	0xbe9ad74a	-0.30242378
139	0xbdc9240a	-0.09821327
140	0x3db8efed	0.09030137
141	0x3efc75b5	0.49308553
142	0xbe6c8af3	-0.2309988
143	0x3d3948e6	0.045235537
144	0xbe250d8f	-0.16118453
145	0x3e5ea33f	0.21741961
146	0xbed168d3	-0.40900287
147	0xbcfda07b	-0.030960312
148	0xbd24033b	-0.040042143
149	0x3d8ebc6d	0.06969533
150	0xbd010a05	-0.031503696
151	0x3ec1d4f2	0.37857777
152	0x3dff1d61	0.124567755
153	0xbdbcf22d	-0.09225879
154	0xbeb58d5d	-0.35459414
155	0xbf510ae6	-0.81657255
156	0xbf45580a	-0.7708746
157	0xbdecce22	-0.11562754
158	0x3e8fba57	0.28071854
159	0xbe939779	-0.28826502
160	0x3edcb43e	0.43106264
161	0x3cb7282e	0.022358026
162	0x3e9d69ed	0.30744877
163	0x3ea87929	0.32904938
164	0xbf02b797	-0.51061386
165	0x3ede206a	0.43384105
166	0x3decab5d	0.115561225
167	0xbb9adab4	-0.0047257785
168	0xbd256e73	-0.040388536
169	0xbeee9d39	-0.46604326
170	0xbeb046f1	-0.34429124
171	0x3ed8fd1d	0.4238061
172	0xbebac834	-0.36480868
173	0x3ebbb781	0.3666344
174	0xbe860e9b	-0.26183018
175	0xbefbd3f7	-0.49185154
176	0x3eb8d999	0.36103514
177	0x3ca96309	0.020677106
178	0xbf0bdfec	-0.5463855
179	0x3ebfc804	0.37457287
180	0x3d20c376	0.039248906
181	0xbdaf8044	-0.085693866
182	0xbf59c0bc	-0.85059714
183	0x3e812fd5	0.25231805
184	0xbe6d9fce	-0.23205492
185	0xbec844a5	-0.39114872
186	0x3eccb6e2	0.3998328
187	0x3e9c61dd	0.30543414
188	0xbe0bf2a4	-0.13666779
189	0x3e3d32fe	0.18476483
190	0x3e9e2cd7	0.30893585
191	0x3e108d10	0.14116311
192	0xbe6ee9fa	-0.23331442
193	0x3e1951a4	0.1497255
194	0xbe489e25	-0.19591577
195	0xbca3ff31	-0.020019146
196	0x3c54526c	0.012959104
197	0xbe3f90ba	-0.18707553
198	0xbed33184	-0.41248715
199	0xbf4f7bfc	-0.8104856
200	0x3e6b606d	0.22986002
201	0xbeff0e8d	-0.4981579
202	0xbda02cad	-0.07821021
203	0xbef443dd	-0.47708026
204	0x3eabadf3	0.3353115
205	0x3e19b980	0.15012169
206	0xbef64e1b	-0.48106465
207	0xbeaa7ffd	-0.33300772
208	0x3f23e860	0.6402645
209	0xbed7a343	-0.42116746
210	0x3e1b2d2b	0.15153949
211	0xbedf2268	-0.43580937
212	0x3ed6c760	0.41948986
213	0xbe7f5ec2	-0.24938491
214	0xbe246a84	-0.16056257
215	0x3ea726c4	0.32646763
216	0x3f10a0f9	0.56495625
217	0x3dd19b0f	0.10234653
218	0x3d83db58	0.06438321
219	0xbe16c7b5	-0.1472462
220	0x3e2a276c	0.16616601
221	0x3f1dcbe7	0.61639255
222	0x3da09efe	0.07842825
223	0xbeb5b623	-0.35490522
224	0x3e73b06d	0.2379777
225	0x3f07fd1a	0.5312058
226	0x3ed2a04b	0.4113792
227	0xbedb371b	-0.4281548
228	0x3e4abe05	0.19799049
229	0x3eb38b27	0.35067102
230	0x3e3800b1	0.17969014
231	0xbdada9da	-0.08479662
232	0x3de736af	0.11289727
233	0xbf10d4d1	-0.5657473
234	0x3f2d0c6c	0.6759708
235	0xbd98d7e4	-0.07463053
236	0xbd4ac565	-0.049504656
237	0xbec57db5	-0.3857247
238	0x3ebb473a	0.3657778
239	0xbe0e2f8b	-0.13885324
240	0xbdff00e2	-0.1245134
241	0xbf139b02	-0.576584
242	0xbdde1bbc	-0.10845134
243	0xbe19847e	-0.14991948
244	0x3c3e0e12	0.011600034
245	0x3ebae81a	0.36505204
246	0xbe4f5c89	-0.20250143
247	0x3e4974ee	0.19673511
248	0xbece5553	-0.40299472
249	0xbda04cdc	-0.0782716
250	0xbe2cd8e7	-0.16879617
251	0x3cfac445	0.030611167
252	0x3f079e0e	0.5297555
253	0xbef929c2	-0.4866467
254	0x3e9634e6	0.29337233
255	0xbf41873e	-0.7559699

gnn_base.gnn.embed_layer.lin2.0.0.bias f4 [16]
0	0x3cbdc080	0.02316308
1	0xbc1fde7a	-0.009757632
2	0x3db1b7e1	0.0867765
3	0xbce4d180	-0.027931929
4	0x3bf1d80b	0.0073804907
5	0x3bd5c8b6	0.0065241707
6	0x3be90b82	0.0071119675
7	0x3be55a52	0.0069992924
8	0xbc5083bc	-0.01272672
9	0xbbd5d692	-0.006525823
10	0xbccb6cf7	-0.024832232
11	0xbc3797b6	-0.011205604
12	0x3c0b645b	0.008507813
13	0xbd0deae8	-0.034647852
14	0xbb3401c2	-0.0027466868
15	0xbc41fe35	-0.011840393

gnn_base.gnn.embed_layer.lin2.0.2.weight f4 [16]
0	0x3f829ce7	1.0204133
1	0x3f80ed4e	1.007242
2	0x3f7d633a	0.9897953
3	0x3f80e9ba	1.0071328
4	0x3f7bba24	0.98330903
5	0x3f812d55	1.0091959
6	0x3f7f8d3f	0.998249
7	0x3f7e312d	0.99293786
8	0x3f80b2b9	1.0054542
9	0x3f7f2f53	0.99681586
10	0x3f7fce38	0.9992404
11	0x3f81e319	1.014743
12	0x3f80e59b	1.007007
13	0x3f8259cd	1.0183655
14	0x3f7f99e2	0.9984418
15	0x3f7ce2ef	0.98783773

gnn_base.gnn.embed_layer.lin2.0.2.bias f4 [16]
0	0x3c97a755	0.018512407
1	0xbc1a350c	-0.009412061
2	0x3c534f29	0.012897291
3	0xbc6ac62c	-0.014329474
4	0x3c914d7a	0.017737139
5	0x3c6346df	0.013871877
6	0x3c049aa0	0.008093506
7	0x3ca88a8a	0.020573873
8	0xbc05040e	-0.0081186425
9	0x3b0c22f9	0.002138315
10	0x373bdf6e	1.119809e-05
11	0xbcb448f6	-0.022007447
12	0x3c4cfbaf	0.012511178
13	0xbca14454	-0.019685902
14	0x3c151820	0.00909999
15	0x3be27503	0.0069109215

gnn_base.gnn.gnn1.lin_key.weight f4 [48, 16]
0	0x3e3c86cd	0.18410797
1	0x3df9cf98	0.121977985
2	0xbcf665a3	-0.030077761
3	0x3defba06	0.11705403
4	0xbe1173bb	-0.14204304
5	0xbe16ddef	-0.14733098
6	0x3e5cf696	0.2157844
7	0xbdcdbf21	-0.100462206
8	0xbe46abaf	-0.1940143
9	0xbdc45fda	-0.09588595
10	0x3e322fc3	0.17401032
11	0xbdb3b59f	-0.08774876
12	0xbde1f5d6	-0.110332176
13	0xbe3a39c6	-0.18186101
14	0xbe30a00b	-0.17248552
15	0xbbcaf79e	-0.006194069
16	0xbdea22e2	-0.114324346
17	0x3dbc744c	0.09201869
18	0xbde5221c	-0.111881465
19	0x3d34dca9	0.04415575
20	0xbc92d5c3	-0.017924195
21	0xbb743f24	-0.003726908
22	0xbe13dd83	-0.14439969
23	0x3a8f22e3	0.0010920431
24	0x3d608dc0	0.054822683
25	0xbd178ae1	-0.03699768
26	0xbd7eae7c	-0.06217812
27	0x3e0db5f3	0.1383894
28	0x3d30348e	0.04301887
29	0xbe6cd8c4	-0.23129565
30	0xbe566b63	-0.20939402
31	0xbd4d028e	-0.050051264
32	0x3e0b19ae	0.13584015
33	0xbe2f4840	-0.17117405
34	0x3e387128	0.18011916
35	0x3c48e916	0.012262603
36	0xbdb9173a	-0.09037633
37	0x3ca02367	0.019548131
38	0x3d5c9482	0.053852566
39	0x3e336ee5	0.17522772
40	0x3ded1921	0.115770586
41	0x3e0efdde	0.1396403
42	0x3e3474fd	0.17622752
43	0xbd4e9123	-0.050431382
44	0x3dea7c7e	0.11449526
45	0x3deeb63b	0.116558515
46	0xbdc7509e	-0.097321734
47	0xbe3e6890	-0.18594575
48	0x3e445d02	0.19176105
49	0x3e4801ae	0.19531891
50	0xbe254267	-0.16138612
51	0xbe4f65a5	-0.20253618
52	0x3e451a2f	0.1924827
53	0x3da0f91d	0.078600146
54	0xbe2d99cb	-0.16953199
55	0x3e42e34a	0.19032016
56	0x3b9b6ba9	0.0047430587
57	0x3d751f14	0.05984409
58	0xbe34b7fe	-0.17648312
59	0x3e026510	0.12733865
60	0x3d65bd23	0.056088578
61	0xbe316681	-0.17324258
62	0x3e1c2713	0.1524928
63	0xba5e9bb5	-0.000849183
64	0xbe7f9ca3	-0.24962096
65	0x3dfb5d29	0.12273628
66	0x3d09624f	0.03354102
67	0x3e5ae792	0.213774
68	0xbe2070b3	-0.15667991
69	0xbc5294d6	-0.012852868
70	0xbded9c72	-0.11602105
71	0xbd09b507	-0.033619907
72	0xbd008f5b	-0.031386714
73	0xbdc830c1	-0.09774924
74	0x3e12120f	0.14264701
75	0xbe4dc299	-0.20093764
76	0xbe50edb2	-0.20403174
77	0xbc7c2e6e	-0.015391929
78	0xbd03b078	-0.032150716
79	0xbbeae50a	-0.007168417
80	0xbce3e56d	-0.02781936
81	0x3e68a54d	0.22719307
82	0x3d029cb1	0.031887714
83	0x3c1dde7f	0.009635567
84	0x3d3948ed	0.045235563
85	0xbe1f180a	-0.15536514
86	0xbc6408eb	-0.013918142
87	0xbc98fccd	-0.018675232
88	0x3db294e6	0.087198064
89	0x3d65a0ca	0.056061544
90	0x3b88d8a4	0.004176216
91	0xbe2807f9	-0.16409291
92	0x3d813af0	0.063100696
93	0x3e1152cf	0.14191745
94	0xbe162523	-0.14662604
95	0xbe6ee85b	-0.23330824
96	0xbe50d46b	-0.20393531
97	0x3e21a5bc	0.15785879
98	0x3d67e893	0.056618284
99	0x3e124cdf	0.14287136
100	0x3e528ece	0.20562288
101	0xbe10c22b	-0.14136569
102	0x3c580428	0.013184585
103	0x3e39c5bd	0.18141837
104	0x3e1cfe85	0.15331466
105	0x3d44b807	0.048027065
106	0x3e2281cf	0.1586983
107	0x3e0a8cc7	0.13530265
108	0xbdc155ec	-0.094402164
109	0xbcabb6f6	-0.020961266
110	0x3defa5db	0.11701556
111	0x3e7dcb57	0.24784599
112	0x3c645b01	0.013937713
113	0x3dc41954	0.095751435
114	0xbda9cc47	-0.08290916
115	0x3e0ff692	0.14058903
116	0x3d8f4d58	0.06997174
117	0xbcc1f284	-0.02367521
118	0x3d859058	0.06521672
119	0x3dfdfc4a	0.12401636
120	0x3e1abdcd	0.15111466
121	0x3e8abfc4	0.2709943
122	0xbe54198c	-0.2071287
123	0x3e1fe57d	0.15614887
124	0x3e36be7f	0.17846106
125	0x3e44c83a	0.19217005
126	0x3e33d061	0.17559959
127	0xbd606bfa	-0.054790474
128	0xbd3ef626	-0.046621464
129	0x3e127710	0.14303231
130	0xbdec4e1b	-0.11538335
131	0xbe094a3d	-0.13407226
132	0xbdb3de64	-0.08782652
133	0xbe28837d	-0.16456409
134	0xbe549630	-0.20760417
135	0x3dabe7d9	0.08393831
136	0xbe4f9d3a	-0.20274821
137	0xbe7f9195	-0.24957879
138	0x3ce817c7	0.02833165
139	0xbdfe94b7	-0.12430709
140	0xbdb8b616	-0.09019105
141	0x3e759596	0.23982844
142	0xbdc38a64	-0.0954788
143	0xbd29badd	-0.041437972
144	0xb98092a4	-0.00024523318
145	0xbd67e484	-0.056614414
146	0xbc04371a	-0.008069778
147	0xbd01e8d8	-0.031716198
148	0xbe256777	-0.1615275
149	0x3e30b588	0.17256749
150	0x3d9df461	0.07712627
151	0x3e05f7ce	0.13082811
152	0xbe5e2592	-0.2169402
153	0x3e06a719	0.1314968
154	0xbe4a0c54	-0.19731265
155	0x3e432354	0.19056445
156	0xbdaabe51	-0.08337081
157	0xbe29d0a6	-0.165835
158	0xbe4e9591	-0.20174243
159	0xbe7f562c	-0.24935216
160	0xbdd43d96	-0.10363309
161	0x3e5ea09a	0.21740952
162	0x3e463f46	0.19360074
163	0x3cdaaa80	0.026692629
164	0xbdbba5d5	-0.09162489
165	0xbe732f97	-0.23748623
166	0x3e1ca23f	0.15296267
167	0x3e63e955	0.22256978
168	0x3e333589	0.17500891
169	0xbe1c10c0	-0.15240765
170	0x3dec40e3	0.11535814
171	0x3e262392	0.16224506
172	0x3cfbfbf4	0.030759789
173	0xbe07b393	-0.13252096
174	0x3d5c7e3a	0.053831317
175	0x3deec06e	0.11657797
176	0xbe2e234c	-0.17005652
177	0x3da25f15	0.07928292
178	0xbe6c3d6c	-0.23070306
179	0x3e1a97ee	0.15097019
180	0x3e241592	0.16023853
181	0xbb4e83ca	-0.0031511658
182	0x3e708199	0.23486938
183	0x3dd8b039	0.10580487
184	0x3df3aaec	0.11897835
185	0xbe11b6c3	-0.14229874
186	0x3d052f34	0.03251572
187	0xbdebbc52	-0.115105286
188	0x3d46d5a3	0.048543584
189	0xbe0be56d	-0.13661738
190	0x3cdfa8f9	0.027302252
191	0x3d72091b	0.059090715
192	0xbe217ac5	-0.15769489
193	0x3d097cf5	0.033566434
194	0xbe19bc3a	-0.15013209
195	0x3d313407	0.043262508
196	0xbcb5460c	-0.022128128
197	0xbe46e73b	-0.19424145
198	0x3db3d510	0.08780873
199	0xbe6e0acd	-0.23246308
200	0xbe565311	-0.20930125
201	0x3df358bc	0.11882159
202	0xbda0a172	-0.07843293
203	0x3de951c6	0.1139255
204	0x3d633a2d	0.055475403
205	0xbe3c2d40	-0.18376637
206	0xbdf12d0f	-0.11776172
207	0x3e74dbb8	0.23911941
208	0x3e2ff6be	0.17183968
209	0xbd293a89	-0.04131559
210	0x3d2a743e	0.041614763
211	0xbe694a7e	-0.22782323
212	0xbe4caf30	-0.19988704
213	0x3e37e090	0.17956758
214	0x3e7e3236	0.24823841
215	0xbe2baf0f	-0.16765998
216	0x3dce6a96	0.100789234
217	0x3d483c48	0.048885614
218	0x3c9a7e70	0.018859118
219	0x3de90fdf	0.1137998
220	0xbe284b5b	-0.16434996
221	0xbe29cb5b	-0.1658148
222	0xbe17d431	-0.14827038
223	0x3e73f814	0.23825103
224	0xbd23a41d	-0.039951432
225	0x3e361038	0.17779624
226	0xbe048641	-0.12941839
227	0xbd859fce	-0.06524621
228	0xbe16f0a0	-0.14740229
229	0x3d9b7bea	0.07591994
230	0x3d28287f	0.041054245
231	0x3c218980	0.009859443
232	0x3d35937f	0.044330116
233	0xbdf6cfea	-0.12051375
234	0x3e33236e	0.17493984
235	0xbd94a3c0	-0.07257795
236	0x3d5d51b6	0.054033004
237	0x3e36578b	0.17806832
238	0xbdf018b6	-0.11723463
239	0x3e37b375	0.17939551
240	0x3e1301ad	0.14356108
241	0x3e0132dd	0.12617059
242	0xbd89be3a	-0.06725736
243	0xbde0e3d6	-0.10980956
244	0xbe5b4657	-0.21413551
245	0xbded0032	-0.11572303
246	0x3d414c36	0.04719182
247	0xbddd70a3	-0.108124994
248	0x3de55f94	0.11199871
249	0xbdfb32a3	-0.122655176
250	0xbde9a881	-0.11409093
251	0xbe705060	-0.2346816
252	0xbe282632	-0.1642082
253	0xbe673454	-0.22578555
254	0x3e21e12f	0.15808557
255	0x3e019a03	0.12656407

gnn_base.gnn.gnn1.lin_key.bias f4 [48]
0	0xbe171ff4	-0.14758283
1	0xbc3f81c1	-0.011688651
2	0xbd5a067d	-0.053228844
3	0x3dd0a1b4	0.101870924
4	0x3e7836c4	0.24239641
5	0xbd3c9e58	-0.046049446
6	0xbbb0ed87	-0.005399409
7	0x3e347b2a	0.17625108
8	0x3e5a1d16	0.21300158
9	0x3be80ac6	0.0070813624
10	0x3e4b0c86	0.19828996
11	0x3e34e720	0.17666292
12	0x3d26e880	0.040749073
13	0xbd9531e4	-0.072849065
14	0xbdec2d7c	-0.11532113
15	0xbe0eb7b0	-0.13937259
16	0xbe3b9314	-0.18317825
17	0xbe1b834a	-0.15186802
18	0xbe16d118	-0.147282
19	0x3e6a36fe	0.2287254
20	0xbe46bc6a	-0.19407812
21	0xbd28ac11	-0.04117972
22	0xbd0f7630	-0.03502482
23	0x3e0ecbec	0.13944978
24	0x3e6937be	0.2277517
25	0x3e459d16	0.19298205
26	0xbdd67224	-0.10470989
27	0x3e166046	0.14685163
28	0xbe1a1501	-0.15047075
29	0xbe4b4d62	-0.19853738
30	0xbd87a284	-0.06622794
31	0x3e70bd18	0.23509634
32	0xbe55012e	-0.20801231
33	0xbe689fa8	-0.22717154
34	0xbd3a0fee	-0.045425348
35	0xbe2801e6	-0.16406974
36	0x3de820c1	0.11334372
37	0x3cea6360	0.028611839
38	0x3d60e116	0.05490216
39	0x3e035832	0.12826613
40	0xbdd96f4c	-0.10616931
41	0xbdb4d11c	-0.08828947
42	0x3d9ab83c	0.07554671
43	0xbe0ca288	-0.13733876
44	0xbe7dc5a0	-0.24782419
45	0xbe1f32a8	-0.15546668
46	0xbdc65d85	-0.09685806
47	0x3d597f30	0.05309981

gnn_base.gnn.gnn1.lin_query.weight f4 [48, 16]
0	0xbd89de3f	-0.06731843
1	0x3ca25a4a	0.019818444
2	0x3e289aef	0.16465352
3	0xbe68bf2c	-0.22729176
4	0x3e2cd2a0	0.16877222
5	0x3dbb4cb7	0.091454916
6	0xbe13f6fa	-0.14449683
7	0xbe218a44	-0.157754
8	0xbe8b9f5b	-0.27270016
9	0xbd61f2f5	-0.055163343
10	0xbe01d7ea	-0.12680021
11	0xbdc2abae	-0.095054016
12	0xbe21e513	-0.15810041
13	0xbe6dd9f4	-0.23227674
14	0xbe5a9ae1	-0.21348144
15	0xbe4014d0	-0.1875794
16	0xbd698204	-0.05700876
17	0xbdd7f701	-0.10545159
18	0xbdc1c08f	-0.09460556
19	0xbe40f720	-0.1884427
20	0xbd3b2e7d	-0.04569863
21	0x3e2288ec	0.15872544
22	0x3cf68826	0.030094218
23	0x3ba5b896	0.0050574047
24	0x3e0b11a0	0.13580942
25	0xbdbb9dbd	-0.091609456
26	0xbd6c2b0f	-0.05765825
27	0x3c25a530	0.010110185
28	0x3e3b4e84	0.1829167
29	0xbe58afc7	-0.21160804
30	0xbdb2e038	-0.087341726
31	0x3e8abd20	0.27097416
32	0x3db53637	0.08848231
33	0xbd76f647	-0.060293462
34	0xbe6cfcd4	-0.23143321
35	0xbe1fff74	-0.15624791
36	0x3de805fa	0.11329265
37	0x3b8efd1a	0.004363668
38	0x3e53e07f	0.20691107
39	0xbd346b7e	-0.044047825
40	0xbd269ea8	-0.04067865
41	0x3e8e83e1	0.2783499
42	0x3db4d47b	0.0882959
43	0xbe0ca034	-0.13732988
44	0x3d69db21	0.057093743
45	0xbe43813a	-0.19092265
46	0xbdde7871	-0.10862816
47	0xbdb097d9	-0.08622713
48	0x3e68eba2	0.22746137
49	0x3ccee452	0.025255356
50	0xbe095eeb	-0.13415115
51	0xbc9facb6	-0.019491535
52	0x3e33e01a	0.17565957
53	0xbd41ccce	-0.047314458
54	0xbe30f451	-0.172807
55	0xbe1843a0	-0.14869547
56	0xbe66f863	-0.2255569
57	0xbe1d77aa	-0.1537768
58	0xbe819d1b	-0.25315174
59	0xbd0003bb	-0.031253558
60	0xbe379e38	-0.1793145
61	0xbe549ed9	-0.2076372
62	0xbda198f2	-0.078905
63	0xbe4105c5	-0.18849857
64	0xbe1f978a	-0.15585151
65	0x3e010d5e	0.12602755
66	0xbe5102cb	-0.20411222
67	0xbd1cce22	-0.03828252
68	0x3e30a049	0.17248644
69	0x3e02cd24	0.12773567
70	0xbe0b24a3	-0.13588195
71	0x3e12be70	0.14330459
72	0x3e362abf	0.17789744
73	0x3d177980	0.036981106
74	0x3e057e88	0.13036549
75	0xbd20d4c2	-0.0392654
76	0xbd5b899c	-0.05359803
77	0x3dcde418	0.10053271
78	0xbd2d55ef	-0.04231828
79	0x3dd125b9	0.10212273
80	0x3e22c266	0.1589447
81	0x3dab8f4f	0.08376943
82	0x3d4cbaf5	0.049982984
83	0xbde6e023	-0.112732194
84	0xbd97490c	-0.073869795
85	0x3c9b8d22	0.018988196
86	0xbd1697a1	-0.0367657
87	0x3e20a83b	0.15689175
88	0x3e0ba9e4	0.13639027
89	0x3e6bb304	0.23017508
90	0x3db934da	0.09043284
91	0xbe23ba9f	-0.15989159
92	0x3e5bf1e9	0.21479
93	0x3cbac3dc	0.022798471
94	0xbe6c78dc	-0.23092979
95	0x3e35ebeb	0.17765777
96	0xbe415d7b	-0.18883316
97	0x3e42ba7f	0.19016455
98	0x3d88295d	0.066485144
99	0xbe0b53c1	-0.13606168
100	0x3e435eab	0.19079082
101	0xbd742322	-0.059603818
102	0xbe41de18	-0.18932378
103	0x3e30ee1b	0.1727833
104	0xbdf9e3aa	-0.122016266
105	0x3d13ae69	0.036055002
106	0x3e2290d2	0.15875557
107	0x3dfc1b0a	0.12309845
108	0x3d2d096b	0.04224531
109	0x3e18f704	0.14937979
110	0xbe5fb72e	-0.21847221
111	0xbdbad9ca	-0.09123571
112	0x3e0708bd	0.13186927
113	0x3e3a2e9e	0.18181846
114	0x3d310428	0.043216854
115	0x3ccd795d	0.025082285
116	0xbe4e4e13	-0.2014697
117	0xbd1d7ef0	-0.038451135
118	0xbdfed26c	-0.124424785
119	0x3e7ea3bc	0.24867147
120	0x3e792e10	0.24333978
121	0x3d4489b4	0.047982886
122	0x3e491af9	0.19639196
123	0x3c831f06	0.016006004
124	0xbd8bcff7	-0.068267755
125	0xbe3caee0	-0.18426085
126	0x3e5b2095	0.21399148
127	0x3d895dff	0.067073815
128	0xbd57be41	-0.052671675
129	0xbe1b0c6b	-0.15141456
130	0x3e3f7872	0.1869829
131	0x3df421eb	0.11920532
132	0xbe0a77ac	-0.13522214
133	0x3e64465b	0.22292463
134	0xbe3ec639	-0.18630303
135	0xbd0ec683	-0.034857284
136	0x3cc77500	0.024347782
137	0x3e453b34	0.19260865
138	0x3d4f97b1	0.050681774
139	0x3e45e2d5	0.19324811
140	0xbe2edc50	-0.1707623
141	0x3e0b7e32	0.13622358
142	0x3e4d37ab	0.20040767
143	0xbe0bc0b2	-0.13647726
144	0xbd7e753b	-0.06212352
145	0x3dabbfc6	0.08386187
146	0x3d3e20e8	0.0464181
147	0x3d2be11a	0.04196272
148	0xbd27862d	-0.040899444
149	0xbd8bf740	-0.068342686
150	0x3e2dba06	0.16965494
151	0xbd96da4e	-0.07365857
152	0x3d99fd94	0.07519069
153	0xbe03b7de	-0.12863109
154	0xbe3b72e9	-0.18305553
155	0xbe54d1a3	-0.20783095
156	0x3e6700d0	0.22558904
157	0xbde8e05c	-0.11370918
158	0xbe132f25	-0.14373453
159	0x3d241ebe	0.04006838
160	0x3e482f2f	0.19549249
161	0x3d1f45e6	0.03888502
162	0x3dd4f21e	0.10397743
163	0x3d99b762	0.075056806
164	0x3e593242	0.21210578
165	0x3db12c33	0.086510085
166	0xbe4a8e7e	-0.19780919
167	0x3c35cb8f	0.011095895
168	0x3e62d279	0.22150601
169	0xbe837beb	-0.2568048
170	0xbd8d6b6e	-0.06905256
171	0xbe67f11f	-0.22650574
172	0xbe6c2980	-0.23062706
173	0x3ddbcd71	0.10732544
174	0x3e5bf97f	0.21481894
175	0x3e73578c	0.23763865
176	0xbdfc86b0	-0.12330377
177	0x3e57bd91	0.21068408
178	0xbe244554	-0.16042072
179	0xbe44c78d	-0.19216748
180	0x3e5e24db	0.21693747
181	0x3db9255a	0.09040327
182	0x3d02d82f	0.03194445
183	0xbe3c2b50	-0.18375897
184	0x3c7e434d	0.015518975
185	0x3e32cc6b	0.17460792
186	0xbdb6c37d	-0.08924005
187	0x3e4ea9cb	0.20181958
188	0xbe12c331	-0.14332272
189	0xbe449a76	-0.19199547
190	0x3e54c0fc	0.20776743
191	0xbe50a2ea	-0.20374647
192	0xbdcbe675	-0.099560656
193	0xbd23d35c	-0.03999649
194	0x3e3dabfe	0.18522641
195	0xbc44afb7	-0.012004784
196	0xbd85cb1f	-0.06532883
197	0x3e2312a8	0.15925086
198	0xbd4bff64	-0.049804106
199	0x3e2d96ed	0.16952105
200	0x3e5db476	0.21650872
201	0x3e04bbd5	0.12962277
202	0x3c90dc2a	0.017683107
203	0x3e3250ab	0.17413585
204	0xbe6a359b	-0.22872011
205	0xbe849cc6	-0.2590086
206	0x3d8eb388	0.069678366
207	0xbe327bc2	-0.17430022
208	0xbe4c47ce	-0.19949266
209	0xbd86fbac	-0.06590971
210	0xbe2cb60b	-0.16866319
211	0x3d15d92f	0.036584076
212	0xbe19bf53	-0.1501439
213	0xb95c41c3	-0.00021005333
214	0x3dfe9dc8	0.12432438
215	0xbe163403	-0.14668278
216	0x3e4cff93	0.20019369
217	0xbd9f92aa	-0.07791646
218	0x3e434f47	0.1907321
219	0xbe285f64	-0.16442639
220	0xbe257f0a	-0.16161743
221	0x3dcd3775	0.10020343
222	0x3e763556	0.24043784
223	0xbe0e98cc	-0.13925475
224	0xbe74658b	-0.2386686
225	0xbdf0d689	-0.11759669
226	0x3e1c1fae	0.1524646
227	0xbe41be3e	-0.18920228
228	0xbd856b6d	-0.065146305
229	0xbe67e8b2	-0.2264736
230	0xbc858a72	-0.016301367
231	0x3e336efe	0.17522809
232	0x3c6a2f32	0.014293479
233	0xbd004ef7	-0.031325307
234	0xbcf47f09	-0.029845731
235	0x3e76000d	0.24023457
236	0x3d1c3996	0.038140856
237	0x3cd97034	0.02654276
238	0x3d28a07e	0.041168682
239	0x3d0c5344	0.034259096
240	0x3e51de8e	0.20495054
241	0x3e3b9acc	0.18320769
242	0x3d52e5a8	0.05148855
243	0x3de55c4e	0.11199246
244	0xbe6020ca	-0.21887508
245	0xbe3ff4bf	-0.18745707
246	0xbad2ed91	-0.0016092529
247	0x3d945655	0.07243029
248	0x3d085d06	0.03329184
249	0x3e173763	0.14767222
250	0x3e5b042a	0.21388307
251	0xbe8bd426	-0.27310294
252	0xbe70c179	-0.23511304
253	0xbb70c9d2	-0.0036741388
254	0xbe197ad0	-0.14988256
255	0x3d961490	0.07328141

gnn_base.gnn.gnn1.lin_query.bias f4 [48]
0	0x3d7d7011	0.061874453
1	0x3e100490	0.1406424
2	0xbe496dd8	-0.19670808
3	0x3d5cc259	0.053896282
4	0xbda99a51	-0.08281387
5	0x3ddbfb45	0.10741285
6	0x3d703673	0.058645677
7	0xbe25ead2	-0.16202858
8	0xbe6f468d	-0.23366757
9	0xbd49f114	-0.049302176
10	0xbe4e4c29	-0.2014624
11	0xbdcd2c1c	-0.10018179
12	0x3e093bd8	0.13401735
13	0xbc450939	-0.012026125
14	0xbd058011	-0.032592837
15	0x3dc4a328	0.09601432
16	0xbe2f6bfd	-0.17131038
17	0x3e5fc59f	0.2185273
18	0xbe431915	-0.19052537
19	0x3daf371b	0.085554324
20	0x3e183969	0.1486565
21	0xbc38fe19	-0.01129105
22	0xbdd665e6	-0.10468654
23	0x3dde0a6d	0.10841832
24	0xbd5e936b	-0.054339807
25	0xbe6362a0	-0.22205591
26	0x3e145884	0.14486891
27	0x3e3571d1	0.17719199
28	0x3dc7107f	0.09719943
29	0xbe3f56f7	-0.18685518
30	0xbe228ab0	-0.15873218
31	0x3da7b3cf	0.08188593
32	0x3e0cc699	0.13747634
33	0x3d8ac822	0.067764536
34	0x3e415af4	0.18882352
35	0x3d834b98	0.06410903
36	0xbe6cd678	-0.23128688
37	0x3dd2361c	0.10264227
38	0x3e4edbd2	0.20201042
39	0xbe5159ea	-0.20444456
40	0xbe8ec0ab	-0.2788137
41	0x3cf47299	0.0298398
42	0x3e3aa8e5	0.1822849
43	0x3df1c031	0.11804236
44	0xbe1aac5c	-0.15104812
45	0x3e01ad0d	0.1266367
46	0xbd81f0de	-0.0634477
47	0xbca9d6de	-0.02073234

gnn_base.gnn.gnn1.lin_value.weight f4 [48, 16]
0	0xbcb8822d	-0.02252301
1	0xbe439e6f	-0.19103406
2	0xbdca2ed1	-0.09872211
3	0x3c5b8e50	0.013400629
4	0x3e220ac5	0.15824421
5	0xbe1af840	-0.15133762
6	0x3dc60744	0.096693546
7	0x3d5c0a6c	0.053720877
8	0xbc8854b9	-0.016641961
9	0xbd94a75b	-0.07258483
10	0xbe4f07b3	-0.20217781
11	0x3d9dc2f9	0.07703204
12	0xbe10f29f	-0.14155053
13	0x3e78ef27	0.2430998
14	0x3db55f48	0.08856064
15	0x3dc87fbd	0.09789989
16	0x3e83c8e2	0.257392
17	0xbcfa1b0d	-0.030530477
18	0xbddb1b88	-0.106986105
19	0x3b582dfa	0.0032986389
20	0xbdaf9e01	-0.08575059
21	0x3db19c20	0.086723566
22	0xbe807343	-0.25087938
23	0x3d12db63	0.035853755
24	0xbd407c1d	-0.046993364
25	0xbce5e5bb	-0.028063646
26	0x3e0d8410	0.13819909
27	0xbe52317a	-0.20526686
28	0xbd535fb5	-0.051604945
29	0x3e39b09e	0.1813378
30	0x3d363167	0.044480707
31	0xbe30e778	-0.17275798
32	0x3e30e798	0.17275846
33	0xbe67166c	-0.22567147
34	0x3e141349	0.14460482
35	0xbdf0757d	-0.11741159
36	0x3d8e47a0	0.06947255
37	0x3e4b1522	0.1983228
38	0x3e6144bb	0.21998875
39	0x3d934cfb	0.07192417
40	0x3dbe157a	0.0928144
41	0xbcd131f5	-0.025536517
42	0xbd96f398	-0.073706806
43	0xbe80abfa	-0.25131208
44	0x3e081880	0.13290596
45	0x3d011270	0.031511724
46	0x3da9ef7a	0.0829763
47	0xbe3902d0	-0.18067479
48	0xbe7cebdf	-0.24699353
49	0x3e059267	0.1304413
50	0xbdf6ee84	-0.12057212
51	0xbda9d128	-0.082918465
52	0x3d95f62b	0.073223434
53	0x3dc74631	0.09730185
54	0xbe740fb0	-0.2383411
55	0xbd85d360	-0.06534457
56	0x3e5ad76f	0.21371244
57	0x3d33a272	0.04385609
58	0xbe169b51	-0.14707686
59	0x3e4eca6c	0.20194405
60	0xbe6cccf3	-0.23125057
61	0x3cc61443	0.024179583
62	0x3d70e0c6	0.05880811
63	0x3cc44383	0.023957973
64	0x3e7b9161	0.24567176
65	0x3d1bccb9	0.038037036
66	0xbe2db3ba	-0.16963091
67	0xbd224d64	-0.039624587
68	0xbde6cd86	-0.11269669
69	0x3e6006ea	0.21877638
70	0x3cd19148	0.02558197
71	0xbe62d01f	-0.22149704
72	0xbbe65003	-0.007028581
73	0x3d1ef41d	0.038807023
74	0x3c4cb6ec	0.012494784
75	0x3cf3a6f7	0.029742701
76	0x3e0f6a24	0.14005333
77	0xbe57641e	-0.21034285
78	0x3d9d90d0	0.076936364
79	0xbe0c64d9	-0.13710345
80	0x3e213f3d	0.1574678
81	0xbe00d411	-0.12580897
82	0xbe2b3090	-0.16717744
83	0xbe01ba48	-0.12668717
84	0x3e1e4035	0.1545418
85	0xbd1bc5c4	-0.0380304
86	0x3e45ab59	0.19303645
87	0xbe4234ad	-0.18965407
88	0x3db79138	0.08963245
89	0xbdbe575c	-0.09294006
90	0x3d6292fd	0.05531596
91	0x3e026f70	0.12737823
92	0x3deb0f54	0.11477533
93	0xbe657d22	-0.22411016
94	0xbd60dadd	-0.054896224
95	0x3de803dc	0.11328861
96	0xbe89406b	-0.2680696
97	0xbe2f048c	-0.17091578
98	0xbe718655	-0.235864
99	0x3d42e962	0.047585852
100	0x3d891b9b	0.066947185
101	0xbde1c1ca	-0.110232905
102	0x3dd73c40	0.10509539
103	0x3d593dc8	0.053037435
104	0x3df39c15	0.11895005
105	0x3e39b31f	0.18134736
106	0xbe2167d6	-0.15762267
107	0xbe31f265	-0.17377622
108	0x3e65f681	0.22457315
109	0xbdeed1f1	-0.11661137
110	0x3e2cf501	0.16890337
111	0xbd8f4b8a	-0.0699683
112	0xbd739582	-0.059468754
113	0xbde402fb	-0.11133381
114	0x3da4d38b	0.08048161
115	0xbc74db6e	-0.014944894
116	0x3e50b7f4	0.20382673
117	0xbe73f232	-0.23822859
118	0xbb70a0b4	-0.003671688
119	0x3d2a56fe	0.04158687
120	0x3dac2165	0.08404807
121	0x3e3e91d5	0.18610318
122	0x3db63e01	0.08898545
123	0xbe5ed9c9	-0.21762766
124	0x3cfcba51	0.030850561
125	0xbdd18346	-0.102301165
126	0x3e1a234f	0.15052532
127	0xbdd5e431	-0.10443915
128	0xbcb9e251	-0.022690924
129	0x3d5b29a3	0.053506505
130	0x3e3595ca	0.17732921
131	0xbddf6307	-0.1090756
132	0x3e3c7218	0.18402898
133	0xbe3d1ae2	-0.18467286
134	0xbd917f5b	-0.07104369
135	0xbe115b45	-0.14194973
136	0x3d3345c3	0.0437677
137	0xbe480611	-0.19533564
138	0x3c4da731	0.012552069
139	0xbe39bec5	-0.18139179
140	0x3e2c7fbc	0.16845602
141	0xbe70ce70	-0.2351625
142	0xbde7730b	-0.113012396
143	0xbe60e793	-0.21963339
144	0xbe20f9e8	-0.15720332
145	0x3cc24a05	0.023716936
146	0x3df69089	0.12039287
147	0x3e0872bb	0.13325016
148	0xbe48c452	-0.1960614
149	0xbd5af66a	-0.053457655
150	0xbd6ab266	-0.05729904
151	0x3dd8b161	0.10580707
152	0xbcbca569	-0.023028092
153	0xbd081ad7	-0.03322872
154	0xbe1d2ab7	-0.15348326
155	0xbe347e37	-0.17626272
156	0xbc524f2f	-0.012836262
157	0x3df51e05	0.119686164
158	0xbe016ba2	-0.12638715
159	0x3d5f3266	0.054491423
160	0x3e03891b	0.1284527
161	0xbdd4881f	-0.103775255
162	0x3e62933d	0.2212648
163	0x3e5e5353	0.21711473
164	0x3e144693	0.14480047
165	0x3df96818	0.121780574
166	0xbe480d8e	-0.1953642
167	0x3e18027f	0.14844702
168	0xbd12aa59	-0.035806987
169	0x3e4c77e1	0.19967605
170	0xbe553d2f	-0.20824121
171	0xbcaceec2	-0.021109942
172	0x3e6bf2e1	0.2304187
173	0x3d2f1043	0.042740118
174	0x3da92df1	0.08260716
175	0xbc1ab7e2	-0.009443255
176	0xbdfc23e7	-0.12311535
177	0x3e0456ce	0.12923738
178	0x3e4dd044	0.20098978
179	0x3e0bc598	0.13649595
180	0xbe298041	-0.16552831
181	0xbe36210b	-0.17786042
182	0x3e79a124	0.24377877
183	0xbd078687	-0.03308728
184	0x3ddd4ee1	0.108060606
185	0x3d73628a	0.059420146
186	0xbe22d27c	-0.15900606
187	0x3e6495dc	0.22322792
188	0x3d338dbc	0.04383634
189	0xbded2b36	-0.115805075
190	0x3e74b5c3	0.23897462
191	0x3db2f912	0.08738913
192	0x3da9ad26	0.082849786
193	0xbe401752	-0.18758896
194	0x3e52a95f	0.20572422
195	0xbe0f307c	-0.13983339
196	0xbdcde454	-0.10053316
197	0xbe698e37	-0.22808157
198	0x3d8787ae	0.06617676
199	0xbe114d47	-0.14189635
200	0xbe71bde7	-0.23607598
201	0x3e50df28	0.20397627
202	0xbe717eb2	-0.23583487
203	0xbd90d56e	-0.070719585
204	0xbda7f9ad	-0.08201919
205	0x3b2a0ba1	0.0025946873
206	0x3d28cadf	0.041209098
207	0x3e50b52d	0.20381613
208	0x3d9ec0d9	0.077516265
209	0xbda34a37	-0.0797314
210	0xbe1732d8	-0.14765489
211	0xbd8ce80d	-0.06880198
212	0x3e0dda7c	0.13852876
213	0xbe7668a7	-0.24063359
214	0x3dc18c86	0.09450631
215	0xbc8fc68c	-0.01755073
216	0xbded9cf7	-0.11602204
217	0x3e310eca	0.17290798
218	0x3e03aaed	0.12858172
219	0xbb48a820	-0.0030617788
220	0xbe001ef1	-0.12511803
221	0xbe1bfea6	-0.1523386
222	0xbd8fc4a6	-0.070199296
223	0xbe1fb4c9	-0.15596308
224	0xbd66ef03	-0.056380283
225	0x3db8149c	0.08988306
226	0xbca2ada4	-0.019858189
227	0x3d146bc2	0.03623558
228	0xbdabf0ca	-0.08395536
229	0xbd9207ae	-0.07130371
230	0x3e158aca	0.14603725
231	0xbcb9743d	-0.022638435
232	0x3d8e5032	0.0694889
233	0xbe49c008	-0.1970216
234	0xbe0f62b3	-0.14002495
235	0x3e493c9d	0.19652028
236	0xbc73d325	-0.014881884
237	0x3e808f48	0.25109315
238	0xbdb5b316	-0.088720486
239	0x3e10b5af	0.14131807
240	0x3db42ea4	0.087979585
241	0xbe53d172	-0.20685366
242	0xbe01f036	-0.1268929
243	0x3e5137f6	0.20431504
244	0xbd8e902d	-0.06961093
245	0xbe593f19	-0.21215476
246	0x3e4fd1f5	0.20294936
247	0x3e789407	0.24275218
248	0x3e388cc4	0.18022448
249	0x3e0980aa	0.13427988
250	0xbd90b148	-0.07065064
251	0x3e6eb7fd	0.23312373
252	0xbdf9a9e4	-0.12190607
253	0x3df3e85d	0.11909554
254	0xbe7c8dfc	-0.24663538
255	0x3e6dab23	0.23209815

gnn_base.gnn.gnn1.lin_value.bias f4 [48]
0	0xbe3b6a78	-0.18302333
1	0x3e4e9904	0.20175558
2	0x3e8067df	0.25079247
3	0x3c8f46a1	0.017489733
4	0x3dff478e	0.1246482
5	0xbde8fadc	-0.11375973
6	0x3e766565	0.24062116
7	0xbe68df5c	-0.22741455
8	0xbe10b311	-0.14130808
9	0x3d1ec4bb	0.038761836
10	0xbdd4d405	-0.10392002
11	0xbdbaa117	-0.09112757
12	0x3dcc928a	0.099888876
13	0x3e103cb9	0.14085664
14	0x3e236098	0.15954816
15	0x3e42c8c5	0.190219
16	0x3df58441	0.11988116
17	0xbdd404c6	-0.10352473
18	0x3dd1e5dd	0.10248921
19	0xbe18cd6b	-0.1492211
20	0x3e1a2e6c	0.15056771
21	0x3dbd5523	0.09244754
22	0x3e521c74	0.20518667
23	0x3e113a9b	0.14182512
24	0x3e75b63b	0.23995297
25	0xbd6d1cb6	-0.05788871
26	0xbe56e78d	-0.20986767
27	0x3e4c29b3	0.19937782
28	0xbe5da2b5	-0.21644099
29	0x3d0182d0	0.031618893
30	0x3d0aa6d6	0.033850513
31	0x3c83e5eb	0.016100844
32	0x3e2c8918	0.16849172
33	0x3d6c0d08	0.057629615
34	0xbd986b97	-0.07442396
35	0xbc6a003b	-0.0142822815
36	0xbe78d150	-0.24298596
37	0xbe3b3b1b	-0.18284266
38	0xbcc88b56	-0.024480503
39	0x3e6864f8	0.22694767
40	0xbd45a2f9	-0.048251126
41	0x3e03c0f9	0.12866582
42	0xbe205939	-0.15659036
43	0xbe4a1e17	-0.19738041
44	0x3e00d16f	0.12579893
45	0x3e113fdf	0.14184521
46	0xbc9b400d	-0.01895144
47	0x3e2819fc	0.16416162

gnn_base.gnn.gnn1.lin_edge.weight f4 [48, 1]
0	0x3ec3e22f	0.38258502
1	0x3f01ebbb	0.5075032
2	0x3e548fda	0.20758
3	0x3f7f5ece	0.99754035
4	0xbf449da1	-0.7680302
5	0xbe4f99fe	-0.20273587
6	0xbf28aaba	-0.6588551
7	0xbf1c725d	-0.61112005
8	0x3e51d4eb	0.20491378
9	0xbdec8649	-0.1154905
10	0xbdae2048	-0.08502251
11	0x3ec8a075	0.3918492
12	0x3f6bf49d	0.92170125
13	0xbf692cb1	-0.9108382
14	0xbea133cc	-0.3148483
15	0xbdc48b99	-0.09596939
16	0x3f0fbfeb	0.5615222
17	0xbed3d649	-0.41374424
18	0xbf69fff0	-0.91406155
19	0xbec81405	-0.39077774
20	0xbf09a374	-0.53765035
21	0xbf765d30	-0.9623594
22	0xbf37cc97	-0.71796554
23	0xbec9f814	-0.3944708
24	0x3eb0f164	0.34559166
25	0xbf0dd2ae	-0.55399597
26	0xbe9afa3a	-0.30269033
27	0xbf5343eb	-0.8252551
28	0xbf12fa59	-0.5741325
29	0xbe313151	-0.17303969
30	0xbeea8267	-0.45802614
31	0xbdbdf2dd	-0.09274838
32	0x3e91e88c	0.28497732
33	0x3e0e5dab	0.13902919
34	0xbf0e0e58	-0.55490637
35	0xbd239188	-0.03993371
36	0x3db22345	0.086981334
37	0x3d866b10	0.06563389
38	0x3ecb233a	0.39675313
39	0xbe9149fb	-0.28376755
40	0xbf5fce40	-0.8742409
41	0xbea992a5	-0.33119693
42	0xbe81e9b1	-0.25373605
43	0xbf7275c2	-0.94710934
44	0x3d638016	0.055542074
45	0xbeac4082	-0.33642966
46	0x3f364b84	0.7120898
47	0x3f326636	0.6968721
