onpolicy/results/GraphMPE/navigation_graph/rmappo/crap_bad/run14/models/actor.pt (torch, 196085 bytes, 62 tensors)

gnn_base.gnn.embed_layer.entity_embed.weight f4 [3, 2]
1.5303736 -0.28409922 -2.1716554 0.5650633 -1.0885978 -1.401219
00000000: 48e3 c33f 7475 91be 67fc 0ac0 fda7 103f
00000010: 2c57 8bbf 255b b3bf

gnn_base.gnn.embed_layer.lin1.0.weight f4 [16, 9]
-0.8586087 -0.57593346 0.25295997 -0.6386741 0.06925196 -0.055290725 -0.41825333 -0.15545858
-0.24631758 0.3396574 -0.07446176 -0.70770466 -0.19482453 -0.23527874 0.18117182 -0.06580656
0.23153427 -0.5557447 0.2298765 -0.8702883 -0.16378993 0.18817139 0.15647188 -0.18085296
-0.10150204 -0.1759195 0.780904 0.035799842 -0.031926576 -0.55706215 0.42023358 -0.0069664847
-0.5453151 -0.5947194 -0.18479617 -0.47325116 0.39921394 0.05453707 0.43714052 0.16128378
0.012792766 0.6691437 -0.19608708 -0.4472523 -0.08604998 0.44576243 -0.29404965 0.27750272
-0.40014532 -0.8971948 -0.44207025 0.12643711 -0.23535296 -0.04228568 0.062705055 0.18282491
0.4491435 0.46198675 -0.16653506 -0.047607824 -0.15476422 -0.3847704 -0.3200223 0.3091058
0.013992594 0.2533439 0.0951212 0.6408011 -0.4035832 -0.41634917 0.21399724 0.13724694
-0.54851586 -0.0010731093 -0.25262663 0.4668708 -0.44906196 0.1400259 0.0888562 -0.36689615
0.05262611 0.068116665 0.021855526 0.29076168 -0.13620612 -0.2276697 0.0045462083 -0.15951823
0.8927346 -0.16179313 -0.25563484 -0.27566534 0.015935192 0.6098029 -0.07274526 -0.31542876
0.61946076 0.40014112 -0.11133687 -0.16247934 -0.12161379 0.39938882 0.084044494 0.10209168
-0.16049655 0.52383876 0.083571665 -0.26854172 -0.041770156 0.529267 0.14470315 -0.08307038
-0.28282303 -0.64893204 -0.0653445 -0.08534752 0.42432895 0.28945446 -0.053053875 -0.38079762
-0.38479975 0.2500197 0.05371345 0.60570294 -0.22658975 0.03697507 -0.19416258 0.59888023
-0.18590473 -0.3794182 0.3405559 -0.31420404 0.25218928 -0.3545801 0.03606321 0.28291914
-0.32172394 0.25633606 0.023419417 0.41256073 -0.32568923 0.26428354 -0.31736276 -0.65805024
00000000: c8cd 5bbf 6070 13bf f883 813e 2580 23bf
00000010: f9d3 8d3d 8778 62bd 4d25 d6be 8930 1fbe
00000020: ad3a 7cbe 93e7 ad3e 687f 98bd 222c 35bf
00000030: 1580 47be e9ec 70be 1b85 393e 97c5 86bd
00000040: 5217 6d3e 4945 0ebf bf64 6b3e 37cb 5ebf
00000050: 8cb8 27be 00b0 403e 2a3a 203e 8531 39be
00000060: 4de0 cfbd 3e24 34be 53e9 473f dba2 123d
00000070: 71c5 02bd a09b 0ebf db28 d73e 1c47 e4bb
00000080: c599 0bbf 883f 18bf 353b 3dbe fa4d f2be
00000090: c565 cc3e 4362 5f3d e2d0 df3e 9327 253e
000000a0: c098 513c 004d 2b3f 0dcb 48be 41fe e4be
000000b0: f93a b0bd f93a e43e ad8d 96be d614 8e3e
000000c0: d9df ccbe 8fae 65bf 0857 e2be bb78 013e
000000d0: 5e00 71be c033 2dbd 826b 803d 7436 3b3e
000000e0: 23f6 e53e 8789 ec3e 2b88 2abe 6c00 43bd
000000f0: 837a 1ebe a000 c5be f7d9 a3be 1e43 9e3e
00000100: 3141 653c 4bb6 813e e7ce c23d 8a0b 243f
00000110: 75a2 cebe b82b d5be 1822 5b3e 768a 0c3e
00000120: 896b 0cbf 93a7 8cba 4758 81be b109 ef3e
00000130: 73eb e5be f362 0f3e 3dfa b53d d0d9 bbbe
00000140: 7a8e 573d c080 8b3d 5c0a b33c b7de 943e
00000150: 9e79 0bbe 3f22 69be 5cf8 943b bf58 23be
00000160: 418a 643f 19ad 25be 92e2 82be 0224 8dbe
00000170: 858a 823c 0b1c 1c3f 78fb 94bd e17f a1be
00000180: fb94 1e3f 4cdf cc3e 9604 e4bd fc60 26be
00000190: a710 f9bd b17c cc3e 851f ac3d 7115 d13d
000001a0: 3559 24be 4c1a 063f 9f27 ab3d 4d7e 89be
000001b0: 2f17 2bbd 0b7e 073f 102d 143e ce20 aabd
000001c0: 2ece 90be 6920 26bf 56d3 85bd aeca aebd
000001d0: a541 d93e 6033 943e 054f 59bd e8f7 c2be
000001e0: 7904 c5be 9502 803e a202 5c3d 590f 1b3f
000001f0: 2507 68be 2c73 173d 8ed2 46be 3750 193f
00000200: cf5d 3ebe 1a43 c2be 585d ae3e 5adf a0be
00000210: f41e 813e 868b b5be 04b7 133d c7da 903e
00000220: 00b9 a4be 7b3e 833e 14da bf3c 293b d33e
00000230: bdc0 a6be 2c50 873e 5f7d a2be fb75 28bf

gnn_base.gnn.embed_layer.lin1.0.bias f4 [16]
0.0006592724 -0.014024792 0.01173398 -0.003007486 0.0037010186 -0.023862824 -0.0004095355 0.0029742292
-0.0022547378 -0.005203266 0.008809382 -0.007230071 -0.0014241205 -0.0007830785 0.0121267745 -0.025154598
00000000: 06d3 2c3a 3ec8 65bc e13f 403c 3e19 45bb
00000010: ca8c 723b f87b c3bc edb6 d6b9 49eb 423b
00000020: 39c4 13bb 2980 aabb 3a55 103c 3bea ecbb
00000030: 8ea9 baba 8247 4dba 61af 463c 0411 cebc

gnn_base.gnn.embed_layer.lin1.2.weight f4 [16]
1.0119334 0.98747283 1.0074102 0.9988285 1.0119867 0.988294 1.0041314 1.0016577
0.97072816 0.99572986 0.9993208 0.9920684 0.99782217 1.0082904 0.99972636 1.0114404
00000000: 0987 813f 05cb 7c3f d1f2 803f 39b3 7f3f
00000010: c888 813f d600 7d3f 6187 803f 5236 803f
00000020: a481 783f 27e8 7e3f 7dd3 7f3f 32f8 7d3f
00000030: 4671 7f3f a90f 813f 11ee 7f3f e176 813f

gnn_base.gnn.embed_layer.lin1.2.bias f4 [16]
0.0009805429 0.0053066267 0.018063344 0.0022039758 0.0039938497 -0.009749716 4.244823e-06 0.005175804
0.008255642 -0.0022556263 0.01648713 0.004846685 0.009495941 -0.0003279466 0.011363788 -0.017313618
00000000: 8f85 803a 36e3 ad3b 94f9 933c 9470 103b
00000010: d7de 823b 46bd 1fbc c06e 8e36 ca99 a93b
00000020: ac42 073c 21d3 13bb 0510 873c f1d0 9e3b
00000030: dd94 1b3c 3ff0 abb9 2e2f 3a3c 4ad5 8dbc

gnn_base.gnn.embed_layer.lin_h.0.weight f4 [16, 16]
0.74521226 0.39925385 0.3448451 -0.17990127 0.036850054 0.07188387 0.058179572 0.3271403
0.35649452 0.18282051 0.043146096 -0.103587 0.008110775 0.83632654 0.37922567 -0.024864338
0.27182275 -0.108737595 -0.42352077 0.5756861 -0.31838632 -0.13075587 0.28912926 -0.2789047
0.03327135 0.50565016 -0.58252066 0.110591 -0.6453301 0.04457016 0.21255536 -0.22734658
0.2912187 -0.8253026 0.04761614 0.19163713 -0.42654186 0.23265229 -0.20185725 -0.2712159
-0.19304262 -0.0126481075 0.23183851 -0.79946107 0.23978886 0.23454408 0.029059984 0.032231245
0.14561607 0.037174057 0.028096372 0.59997296 0.055420134 -0.34592068 0.013926689 -0.24239662
0.5252014 0.23363435 0.4316611 0.21467948 0.23891012 0.2098463 -0.84911466 0.22366318
-0.60708994 0.019972831 0.28020468 0.16568114 -0.33720642 0.66278845 -0.29434022 0.25974542
0.29219082 0.24088864 -0.5915267 0.076360434 0.25618708 0.31644332 -0.29859805 -0.25280625
-0.3148711 -0.53480804 0.042603537 -0.15541814 0.5194336 0.074790396 -0.22358781 -0.42917767
0.18813957 0.17684406 -0.12881419 0.38273153 -0.15997618 0.42491415 0.37898573 0.7069338
0.26747307 0.47587597 -0.4511152 0.2467067 0.23662935 0.54074496 -0.80137825 -0.2443183
-0.34038693 -0.28655097 0.10728482 0.01573874 -0.33209366 0.16567147 -0.19709925 0.03193946
-0.02162118 0.18842258 -0.10351772 -0.062155705 0.27399233 0.36760446 0.46664414 -0.85441774
0.5111829 -0.41771585 -0.0872948 -0.15845367 0.30190024 -0.012061083 0.15569587 -0.45541835
0.103831545 -0.3241623 0.77679574 0.5902194 0.26710612 0.04617781 -0.25674617 0.098256364
0.10631869 -0.3019141 0.23512821 0.32836375 -0.3103186 -0.2714107 0.3117016 -0.50063246
0.30176342 -0.42681038 0.065394774 -0.57559997 -0.022355976 0.57387525 0.4102442 0.061163414
8.111742e-05 0.01406019 0.19537097 0.32585502 -0.57563454 -0.002567464 -0.62923825 -0.13211554
-0.08692344 0.2094084 6.195584e-05 0.2504753 -0.81163853 0.35377502 0.24976344 0.03178079
0.26545903 -0.4777655 0.31584236 0.26948828 -0.14874211 -0.11436937 0.33165252 0.6498015
0.08715714 -0.010930255 0.14343064 0.3869894 0.12625927 0.14770651 0.5631039 -0.037985835
-0.90259486 -0.1915743 -0.15179214 0.43183172 0.465189 0.4240305 -0.06520104 0.06566285
-0.12647954 -0.40965363 -0.6058422 0.13914938 0.15345326 -0.2714464 0.065716624 0.57136977
0.30160874 -0.7923161 -0.15980415 -0.007293048 -0.093838155 0.4591247 -0.07727771 -0.1785221
-0.24124445 0.21611467 0.56650424 -0.22415055 -0.3302785 -0.5445718 -0.082193315 -0.46283826
-0.20061225 -0.45762774 -0.27937105 -0.20565118 -0.5077131 0.40502074 -0.32463157 0.00992983
0.54358655 -0.22794315 -0.089557186 -0.3655388 -0.45647657 -0.25400138 -0.49319988 -0.23721437
0.08309429 -0.1942034 -0.34756243 0.6943536 0.49240452 -0.15184017 0.011233258 -0.15912862
-0.4882324 0.013685698 -0.2825806 -0.16672951 -0.33186087 -0.13538684 -0.08648764 -0.1693908
-0.16183825 0.281136 0.7697157 0.34141603 -0.032152407 0.47623423 0.2728748 -0.6104153
00000000: 3bc6 3e3f 006b cc3e 898f b03e 0a38 38be
00000010: 15f0 163d da37 933d b44d 6e3d ef7e a73e
00000020: 7386 b63e 4d35 3b3e f6b9 303d 6c25 d4bd
00000030: 0ee3 043c 7f19 563f de29 c23e 4cb0 cbbc
00000040: 5a2c 8b3e d1b1 debd b7d7 d8be 2a60 133f
00000050: 8803 a3be dee4 05be c008 943e 99cc 8ebe
00000060: 8a47 083d 4a72 013f 1320 15bf 897d e23d
00000070: 5a34 25bf 338f 363d 1da8 593e 8bcd 68be
00000080: 9e1a 953e 0847 53bf 2409 433d 863c 443e
00000090: b263 dabe 673c 6e3e abb3 4ebe cfdc 8abe
000000a0: f7ac 45be 023a 4fbc 1367 6d3e 7ba9 4cbf
000000b0: 368b 753e 532c 703e 340f ee3c e904 043d
000000c0: 611c 153e d343 183d 5d2a e63c d497 193f
000000d0: 3900 633d 841c b1be c42c 643c d236 78be
000000e0: 9973 063f d83d 6f3e af02 dd3e f0d4 5b3e
000000f0: dba4 743e f3e1 563e 945f 59bf f607 653e
00000100: 3f6a 1bbf 109e a33c fd76 8f3e 51a8 293e
00000110: 52a6 acbe 81ac 293f c3b3 96be 5afd 843e
00000120: 099a 953e 83ab 763e 4b6e 17bf dc62 9c3d
00000130: f42a 833e dc04 a23e d8e1 98be d26f 81be
00000140: c936 a1be 2ee9 08bf 0c81 2e3d ef25 1fbe
00000150: 9af9 043f b52b 993d 34f4 64be 2dbd dbbe
00000160: a9a7 403e 9c16 353e dee7 03be 63f5 c33e
00000170: ccd0 23be 598e d93e 6b0a c23e 9df9 343f
00000180: 3bf2 883e 04a6 f33e 92f8 e6be aea0 7c3e
00000190: f74e 723e 436e 0a3f 2027 4dbf 942e 7abe
000001a0: 3247 aebe cfb6 92be 25b8 db3d 88ee 803c
000001b0: 2e08 aabe c8a5 293e 63d4 49be f4d2 023d
000001c0: e71e b1bc d9f1 403e 1901 d4bd fb96 7ebd
000001d0: b948 8c3e a736 bc3e fbeb ee3e 1fbb 5abf
000001e0: e2dc 023f dade d5be 9ec7 b2bd ae41 22be
000001f0: ab92 9a3e d99b 45bc bd6e 1f3e 982c e9be
00000200: a2a5 d43d 9af8 a5be 16dc 463f 9e18 173f
00000210: 22c2 883e f124 3d3d 3c74 83be a23a c93d
00000220: 9dbd d93d 7c94 9abe 73c5 703e 4b1f a83e
00000230: 14e2 9ebe 58f6 8abe 5a97 9f3e 7329 00bf
00000240: bc80 9a3e e486 dabe b2ed 853d 855a 13bf
00000250: e123 b7bc 7de9 123f 870b d23e 7d86 7a3d
00000260: 951d aa38 b65c 663c 540f 483e 78d6 a63e
00000270: c95c 13bf e642 28bb c215 21bf 4c49 07be
00000280: eb04 b2bd 286f 563e 4aee 8138 4c3e 803e
00000290: 8bc7 4fbf 0022 b53e fdc1 7f3e 932c 023d
000002a0: 3fea 873e ae9d f4be 17b6 a13e 5efa 893e
000002b0: da4f 18be 7d3a eabd 5cce a93e 6459 263f
000002c0: 717f b23d d014 33bc 7bdf 123e 7a23 c63e
000002d0: 1c4a 013e 6040 173e 9427 103f 0997 1bbd
000002e0: 7510 67bf 0e2c 44be 666f 1bbe 0c19 dd3e
000002f0: 412d ee3e 871a d93e 1f88 85bd 3f7a 863d
00000300: da83 01be 1fbe d1be 7918 1bbf 2d7d 0e3e
00000310: da22 1d3e 06fb 8abe 7096 863d 4a45 123f
00000320: 766c 9a3e 3ad5 4abf b3a3 23be 85fa eebb
00000330: 382e c0bd 6512 eb3e c743 9ebd 7fce 36be
00000340: c908 77be 2a4d 5d3e 6c06 113f b987 65be
00000350: 431a a9be 0f69 0bbf f854 a8bd 23f9 ecbe
00000360: 4c6d 4dbe 2f4e eabe b909 8fbe 3996 52be
00000370: 7cf9 01bf e15e cf3e 1c36 a6be bab0 223c
00000380: 7d28 0b3f ee69 69be c269 b7bd e727 bbbe
00000390: 4cb7 e9be 780c 82be b284 fcbe 53e8 72be
000003a0: 572d aa3d 42dd 46be b4f3 b1be 28c1 313f
000003b0: 721c fc3e fd7b 1bbe b30b 383c 9df2 22be
000003c0: 99f9 f9be fa39 603c 68ae 90be 24bb 2abe
000003d0: abe9 a9be d9a2 0abe 6f20 b1bd c874 2dbe
000003e0: edb8 25be 0ff1 8f3e 170c 453f 15ce ae3e
000003f0: 3eb2 03bd f9d4 f33e 3fb6 8b3e 2d44 1cbf

gnn_base.gnn.embed_layer.lin_h.0.bias f4 [16]
0.0 0.0 0.0 0.0 0.0 0.0 0.0 0.0
0.0 0.0 0.0 0.0 0.0 0.0 0.0 0.0
00000000: 0000 0000 0000 0000 0000 0000 0000 0000
00000010: 0000 0000 0000 0000 0000 0000 0000 0000
00000020: 0000 0000 0000 0000 0000 0000 0000 0000
00000030: 0000 0000 0000 0000 0000 0000 0000 0000

gnn_base.gnn.embed_layer.lin_h.2.weight f4 [16]
1.0119334 0.98747283 1.0074102 0.9988285 1.0119867 0.988294 1.0041314 1.0016577
0.97072816 0.99572986 0.9993208 0.9920684 0.99782217 1.0082904 0.99972636 1.0114404
00000000: 0987 813f 05cb 7c3f d1f2 803f 39b3 7f3f
00000010: c888 813f d600 7d3f 6187 803f 5236 803f
00000020: a481 783f 27e8 7e3f 7dd3 7f3f 32f8 7d3f
00000030: 4671 7f3f a90f 813f 11ee 7f3f e176 813f

gnn_base.gnn.embed_layer.lin_h.2.bias f4 [16]
0.0009805429 0.0053066267 0.018063344 0.0022039758 0.0039938497 -0.009749716 4.244823e-06 0.005175804
0.008255642 -0.0022556263 0.01648713 0.004846685 0.009495941 -0.0003279466 0.011363788 -0.017313618
00000000: 8f85 803a 36e3 ad3b 94f9 933c 9470 103b
00000010: d7de 823b 46bd 1fbc c06e 8e36 ca99 a93b
00000020: ac42 073c 21d3 13bb 0510 873c f1d0 9e3b
00000030: dd94 1b3c 3ff0 abb9 2e2f 3a3c 4ad5 8dbc

gnn_base.gnn.embed_layer.lin2.0.0.weight f4 [16, 16]
0.76019233 0.37870854 0.35280085 -0.17673458 0.020547727 0.06585406 0.039937176 0.33867046
0.34616482 0.17315497 0.030422 -0.12039155 0.048976213 0.8405044 0.3974385 -0.042588297
0.23985645 -0.07269398 -0.42807832 0.57252777 -0.32102036 -0.11752738 0.28744376 -0.30581164
0.067266636 0.49882045 -0.5671755 0.1252898 -0.6635182 0.060296793 0.21720415 -0.2201634
0.27373168 -0.8163264 0.038508743 0.1877643 -0.4269395 0.22816613 -0.2033844 -0.2779778
-0.17320648 -0.005421528 0.2541374 -0.790261 0.22198394 0.24272013 0.01781388 0.03252362
0.1700336 0.03525521 0.034847204 0.6028487 0.020276517 -0.34766072 -0.015047898 -0.2264409
0.50451726 0.2530186 0.42252067 0.20763883 0.2631654 0.20473564 -0.8559722 0.22320777
-0.607927 0.0012282633 0.2829633 0.15858354 -0.3318947 0.6758276 -0.29976904 0.25392744
0.28308997 0.2308602 -0.5872655 0.085995756 0.25347543 0.34341782 -0.2973078 -0.2478829
-0.31075794 -0.52351886 0.042549316 -0.13769642 0.5259693 0.07613056 -0.2117588 -0.41204962
0.17589135 0.18773054 -0.16027753 0.36718476 -0.16812304 0.41750938 0.37358594 0.71165967
0.250675 0.50180626 -0.45590195 0.23352665 0.24387404 0.51599294 -0.7938873 -0.23216216
-0.3334194 -0.26481637 0.118440256 0.027779683 -0.36334676 0.16970322 -0.19724484 0.04843136
-0.023752656 0.18044646 -0.108590275 -0.05768453 0.28023604 0.3688931 0.47429267 -0.8584852
0.5089552 -0.4247895 -0.08955885 -0.1598291 0.3025787 -0.003943155 0.16556852 -0.46035048
0.10829381 -0.346431 0.7913035 0.59035265 0.27673182 0.048676275 -0.25698566 0.10036834
0.10682558 -0.3134087 0.2317644 0.32321224 -0.30398124 -0.27925235 0.30486205 -0.5132128
0.3242313 -0.4215076 0.053511642 -0.56746465 -0.029264167 0.5749509 0.4106408 0.067805156
-0.009725634 0.017005075 0.1960277 0.33387265 -0.5651967 -0.024953451 -0.6301135 -0.12445151
-0.09478575 0.21432169 0.002342117 0.24032344 -0.8096763 0.3620849 0.24511102 0.036135342
0.27029413 -0.4735222 0.31975025 0.28236863 -0.1624242 -0.107300855 0.31249487 0.6541526
0.09359052 -0.00693575 0.13304675 0.40301102 0.12754272 0.13444667 0.5716083 -0.039221857
-0.89243335 -0.17891872 -0.14843866 0.4312326 0.45648208 0.40661302 -0.0696846 0.0652844
-0.111755945 -0.40887195 -0.60700864 0.1469169 0.15007629 -0.26358783 0.06974782 0.5698827
0.29267487 -0.795006 -0.17407815 -0.006603093 -0.08336589 0.44847086 -0.08176466 -0.17375018
-0.24705239 0.21539302 0.56366956 -0.2286319 -0.3434876 -0.5322502 -0.099956006 -0.46290118
-0.20570798 -0.45447788 -0.26822165 -0.19879924 -0.48286495 0.411933 -0.31049773 0.0141702145
0.5507622 -0.23213358 -0.09577488 -0.3651217 -0.46193296 -0.25638762 -0.4934706 -0.22438014
0.0782156 -0.18951213 -0.34894967 0.6919721 0.4890467 -0.16741101 -0.0022820826 -0.16011468
-0.4980409 -0.005234081 -0.27298376 -0.1849686 -0.33086514 -0.13302888 -0.10002808 -0.1879145
-0.1738421 0.26324463 0.7756295 0.35318625 -0.018585991 0.49702397 0.28696674 -0.61884886
00000000: f79b 423f 16e6 c13e 50a2 b43e e9f9 34be
00000010: b553 a83c 7ede 863d 2a95 233d 3766 ad3e
00000020: 843c b13e 894f 313e 8f37 f93c d88f f6bd
00000030: 489b 483d 4c2b 573f 0f7d cb3e 1171 2ebd
00000040: ee9c 753e 95e0 94bd 152d dbbe 2e91 123f
00000050: c85c a4be 32b2 f0bd d42b 933e 5893 9cbe
00000060: 17c3 893d 6565 ff3e 6a32 11bf f84b 003e
00000070: 54dc 29bf c5f9 763d c46a 5e3e 8472 61be
00000080: 8f26 8c3e c4fa 50bf 58bb 1d3d 4945 403e
00000090: d097 dabe 62a4 693e 0044 50be 1b53 8ebe
000000a0: 0a5d 31be 13a7 b1bb 4c1e 823e 8b4e 4abf
000000b0: c24f 633e a08b 783e 6aee 913c 7d37 053d
000000c0: 4a1d 2e3e c467 103d f1bb 0e3d 4b54 1a3f
000000d0: f01a a63c 9600 b2be 758b 76bc 20e0 67be
000000e0: 0b28 013f a78b 813e a154 d83e 469f 543e
000000f0: 9ebd 863e 38a6 513e fe20 5bbf 9490 643e
00000100: 1ba1 1bbf adfd a03a 91e0 903e b963 223e
00000110: 1aee a9be 0a03 2d3f 547b 99be c702 823e
00000120: 2bf1 903e 9e66 6c3e 0857 16bf 8b1e b03d
00000130: 88c7 813e 76d4 af3e ba38 98be 04d5 7dbe
00000140: aa1b 9fbe 5505 06bf 3148 2e3d 4a00 0dbe
00000150: eda5 063f 57ea 9b3d 4dd7 58be 2bf8 d2be
00000160: dd1c 343e 6f3c 403e cb1f 24be a4ff bb3e
00000170: 7228 2cbe cac3 d53e a846 bf3e 542f 363f
00000180: 7958 803e 6076 003f fb6b e9be 9c21 6f3e
00000190: 1eba 793e 1d18 043f 333c 4bbf ebbb 6dbe
000001a0: f3b5 aabe 0396 87be ce90 f23d 3892 e33c
000001b0: 9608 babe aec6 2d3e 8dfa 49be f65f 463d
000001c0: ee94 c2bc f5c6 383e 9464 debd 9d46 6cbd
000001d0: 197b 8f3e 8edf bc3e 7dd6 f23e b0c5 5bbf
000001e0: e34a 023f 027e d9be a16a b7bd 3daa 23be
000001f0: 98eb 9a3e 9535 81bb cb8a 293e 0fb3 ebbe
00000200: 25c9 dd3d 675f b1be de92 4a3f 5a21 173f
00000210: cbaf 8d3e c660 473d a093 83be eb8d cd3d
00000220: 5fc7 da3d 1b77 a0be a653 6d3e 137c a53e
00000230: 6ea3 9bbe 2afa 8ebe e116 9c3e ea61 03bf
00000240: a501 a63e d8cf d7be 062f 5b3d 5d45 11bf
00000250: 68bb efbc fb2f 133f 833f d23e 6edd 8a3d
00000260: 4458 1fbc 3a4e 8b3c 7cbb 483e 5bf1 aa3e
00000270: bbb0 10bf 2e6b ccbc 1e4f 21bf 6fe0 febd
00000280: 081f c2bd 2577 5b3e 347e 193b 5917 763e
00000290: f246 4fbf 3163 b93e 62fe 7a3e a702 143d
000002a0: fe63 8a3e 8071 f2be 4eb6 a33e 9f92 903e
000002b0: 8852 26be 8dc0 dbbd 54ff 9f3e 8b76 273f
000002c0: 63ac bf3d 4a45 e3bb 683d 083e 7657 ce3e
000002d0: 8f9a 023e 63ac 093e ec54 123f 19a7 20bd
000002e0: 8376 64bf 7836 37be 4e00 18be 85ca dc3e
000002f0: 05b8 e93e 952f d03e cdb6 8ebd d4b3 853d
00000300: 4de0 e4bd aa57 d1be eb64 1bbf 6271 163e
00000310: 99ad 193e fcf4 86be f2d7 8e3d d5e3 113f
00000320: 7bd9 953e 8385 4bbf 8b41 32be c25e d8bb
00000330: bcbb aabd f99d e53e 3b74 a7bd 91eb 31be
00000340: 4dfb 7cbe fd8f 5c3e a64c 103f 7b1e 6abe
00000350: 9bdd afbe 8d41 08bf bcb5 ccbd 6201 edbe
00000360: 1da5 52be 53b1 e8be 5954 89be 0792 4bbe
00000370: 133a f7be e2e8 d23e 8ff9 9ebe 302a 683c
00000380: c0fe 0c3f 6db4 6dbe 9f25 c4bd 3bf1 babe
00000390: 7a82 ecbe 3d45 83be 2ea8 fcbe e8c3 65be
000003a0: 802f a03d 780f 42be 88a9 b2be 1525 313f
000003b0: 5464 fa3e cb6d 2bbe fe8e 15bb 1af5 23be
000003c0: 38ff febe a782 abbb 87c4 8bbe 6968 3dbe
000003d0: 2867 a9be b938 08be 86db ccbd a96c 40be
000003e0: aa03 32be 00c8 863e a88f 463f d4d4 b43e
000003f0: a641 98bc ed79 fe3e 4eed 923e e16c 1ebf

gnn_base.gnn.embed_layer.lin2.0.0.bias f4 [16]
0.01810786 -0.014048323 -0.003001935 0.0034199432 0.0008289721 -0.009247892 -0.019002747 0.008786441
0.013638492 -0.008124803 -0.0036470578 -0.0023547683 -0.0021494892 -0.001983272 0.002628618 0.019143185
00000000: ef56 943c f02a 66bc 1dbc 44bb 2021 603b
00000010: 604f 593a 7884 17bc a6ab 9bbc 01f5 0f3c
00000020: fb73 5f3c e51d 05bc 7a03 6fbb 7552 1abb
00000030: 72de 0cbb c8f9 01bb e444 2c3b 2bd2 9c3c

gnn_base.gnn.embed_layer.lin2.0.2.weight f4 [16]
1.0081624 1.004931 0.9853208 0.98757225 1.0039607 1.0135485 1.0250021 1.0054423
1.0097545 1.0244576 1.0105178 0.98453534 1.0004776 1.0069789 1.0055659 1.013115
00000000: 770b 813f 94a1 803f fc3d 7c3f 89d1 7c3f
00000010: c981 803f f5bb 813f 4533 833f 55b2 803f
00000020: a33f 813f 6d21 833f a658 813f 820a 7c3f
00000030: a60f 803f afe4 803f 62b6 803f c1ad 813f

gnn_base.gnn.embed_layer.lin2.0.2.bias f4 [16]
0.010040393 -0.004500005 -0.0037720106 0.0070896028 -0.0041179177 -0.010240894 -0.02023468 -0.0006317474
0.010616735 -0.013570585 -0.00851241 -0.00250574 -0.005565367 -0.0076715113 -0.0072246897 0.017472843
00000000: 7680 243c c774 93bb d633 77bb e64f e83b
00000010: 99ef 86bb 6cc9 27bc 33c3 a5bc da9b 25ba
00000020: d0f1 2d3c 2957 5ebc a377 0bbc 5737 24bb
00000030: af5d b6bb 4d61 fbbb 17bd ecbb 3523 8f3c

gnn_base.gnn.gnn1.lin_key.weight f4 [48, 16]
0.060621113 -0.08350184 -0.1289619 0.0010178774 -0.15750517 0.20573969 0.17233934 0.23650986
-0.04880606 0.08110449 0.004956772 -0.20345072 0.10951678 -0.17077057 -0.081192024 -0.11982825
-0.26683652 0.0189394 0.030867737 -0.005622094 0.17584616 0.01982723 -0.023144541 -0.12437134
-0.14596206 -0.040253423 -0.1407655 -0.15360817 -0.037381776 -0.044613365 -0.16590509 0.1434931
0.21548587 -0.17271413 0.13333488 -0.12232465 -0.019277928 0.22404091 0.041765902 -0.23678127
0.22573219 0.010723281 -0.12607685 -0.12960503 0.21081479 -0.00781435 0.14751448 0.1573242
-0.10391113 0.04608252 -0.15234137 0.22136196 -0.1276494 0.14180483 0.04153426 0.15815754
-0.16618541 -0.003643911 0.11680329 -0.011579654 0.021680655 0.10358834 -0.19869384 -0.056265082
0.09578402 0.12830539 0.23634785 -0.039683755 0.066719085 -0.13341594 -0.04202206 -0.11297984
0.1866882 -0.0053865295 0.10940119 0.14439176 0.048573803 -0.002628085 -0.015255714 -0.21387714
0.03506466 -0.05960164 -0.21770157 0.23492113 -0.011569814 -0.1185666 -0.22933593 -0.23173407
0.08649391 -0.11335166 -0.090511315 -0.14052993 0.1947408 -0.067023024 0.1734466 0.19550876
-0.20765829 0.18920568 -0.04033926 0.25002712 0.13955756 -0.24674678 0.070295796 0.09708176
-0.08865212 0.18707491 -0.19482979 -0.06715936 0.21965732 0.2327927 0.12958853 -0.16754164
-0.22694619 -0.20171647 -0.057708707 0.14964156 0.07259994 -0.037334055 0.2440632 0.21470618
-0.1211327 -0.10948347 0.0128080305 0.057200715 -0.012014612 0.08875081 0.18341333 -0.052483223
0.11509674 0.018008037 0.08778112 0.106370606 -0.060842644 -0.10176533 0.12470323 -0.1546876
0.12545511 -0.16626011 0.18847755 0.09873193 -0.081072725 0.14256568 -0.06472081 0.05234547
0.08546617 0.031718154 0.047119364 -0.016690023 -0.07560885 0.14310232 0.07031606 0.07939638
0.16604784 -0.12078374 -0.07538714 -0.01661129 0.22522338 -0.19989769 -0.15491332 -0.04035204
-0.2257064 -0.18235496 0.1499023 0.02179195 -0.213034 -0.043104894 -0.04173878 -0.082064904
-0.19735679 0.13480112 -0.049782675 0.22857647 -0.16287711 -0.13999179 -0.037247725 -0.15649618
0.16746697 0.20859861 0.22168097 -0.15369867 0.16929953 0.1684423 -0.12058922 0.030610414
0.13057625 0.17692164 -0.24571462 0.2551454 -0.039729036 0.09770672 -0.17538044 -0.1924397
-0.18078333 0.1480438 -0.11643739 0.15814781 0.08379381 0.094905466 -0.025735004 -0.06907295
-0.11501277 -0.14572632 0.24422708 -0.0011298464 -0.12846906 -0.23652315 0.018796016 -0.26961574
-0.01929219 0.17555296 -0.13297907 0.14820293 -0.07519967 -0.20924604 -0.23539436 0.123331904
-0.17339909 0.12384046 0.031577818 0.15055671 -0.1901576 0.20865804 -0.2565172 -0.21868008
0.15300667 -0.0017260192 -0.14695488 -0.046879366 -0.22809888 -0.2073303 -0.035230823 0.19580394
0.06973415 0.04929689 -0.061973803 0.21674696 -0.017510263 0.085840605 0.014850941 0.044801615
0.08297936 0.20789209 0.147439 0.037680876 0.08410542 -0.0946157 0.14397556 0.07568453
0.20098029 -0.035246983 -0.22669287 0.039829537 0.12960951 0.195501 0.07819217 0.09711181
00000000: d84d 783d 0303 abbd 970e 04be 4c6a 853a
00000010: 0949 21be 6dad 523e b979 303e a42f 723e
00000020: dde8 47bd 1c1a a63d 6b6c a23b 6355 50be
00000030: 554a e03d 7bde 2ebe 0148 a6bd 8368 f5bd
00000040: cc9e 88be cd26 9b3c 56de fc3c 8b39 b8bb
00000050: 0411 343e b76c a23c 9f99 bdbc 67b6 febd
00000060: 1477 15be c6e0 24bd d524 10be 764b 1dbe
00000070: a21d 19bd 81bc 36bd 06e3 29be dbef 123e
00000080: 54a8 5c3e f9db 30be f088 083e 5985 fabd
00000090: bfec 9dbc fb6a 653e b912 2b3d ca76 72be
000000a0: 5726 673e b3b0 2f3c 4a1a 01be 2eb7 04be
000000b0: d5df 573e c207 00bc 090e 173e 9819 213e
000000c0: 5ccf d4bd 06c1 3c3d 60ff 1bbe b6ac 623e
000000d0: 86b6 02be 4935 113e d41f 2a3d 0df4 213e
000000e0: 822c 2abe afce 6ebb 9036 ef3d 97b8 3dbc
000000f0: a19b b13c 2026 d43d 6676 4bbe 3776 66bd
00000100: 6a2a c43d 7d62 033e 2c05 723e 6f8b 22bd
00000110: 04a4 883d 309e 08be 531f 2cbd f961 e7bd
00000120: 312b 3f3e 7c81 b0bb bb0d e03d 6fdb 133e
00000130: 53f5 463d f33b 2cbb 1af3 79bc 9c02 5bbe
00000140: f69f 0f3d d920 74bd 29ed 5ebe 2a8f 703e
00000150: 518f 3dbc 0cd3 f2bd 0ad7 6abe b24b 6dbe
00000160: b823 b13d ea24 e8bd ff5d b9bd 14e7 0fbe
00000170: 226a 473e 5e43 89bd fc9b 313e 7333 483e
00000180: 60a4 54be 22bf 413e c83a 25bd 8e03 803e
00000190: 2de8 0e3e 30ab 7cbe 3ef7 8f3d cdd2 c63d
000001a0: 3e8f b5bd 9190 3f3e 7681 47be d98a 89bd
000001b0: d9ed 603e 3661 6e3e dbb2 043e 0990 2bbe
000001c0: 9564 68be c38e 4ebe f75f 6cbd a33b 193e
000001d0: 47af 943d 98eb 18bd b4eb 793e f0db 5b3e
000001e0: 6c14 f8bd df38 e0bd c6d8 513c 4c4b 6a3d
000001f0: efd8 44bc fcc2 b53d b4d0 3b3e a6f8 56bd
00000200: d7b7 eb3d 9785 933c 96c6 b33d d5d8 d93d
00000210: 2336 79bd 576a d0bd 6864 ff3d 6d66 1ebe
00000220: 4e77 003e 1740 2abe 4200 413e f733 ca3d
00000230: 7509 a6bd bdfc 113e 588c 84bd 3468 563d
00000240: e308 af3d e5ea 013d 3c00 413d 84b9 88bc
00000250: d0d8 9abd 6a89 123e de01 903d 929a a23d
00000260: 7208 2a3e 775d f7bd 9364 9abd 6614 88bc
00000270: f5a0 663e fbb1 4cbe 99a1 1ebe 2e48 25bd
00000280: 941f 67be 42bb 3abe fd7f 193e 0885 b23c
00000290: 9625 5abe c28e 30bd 48f6 2abd a511 a8bd
000002a0: e617 4abe 4e09 0a3e ebe8 4bbd f30f 6a3e
000002b0: 42c9 26be 025a 0fbe 1291 18bd 8940 20be
000002c0: 767c 2b3e e09a 553e 5600 633e 2f63 1dbe
000002d0: db5c 2d3e 237c 2c3e 7bf7 f6bd b1c2 fa3c
000002e0: c8b5 053e f22a 353e 9d9c 7bbe 6ba2 823e
000002f0: eaba 22bd 761a c83d ee96 33be ea0e 45be
00000300: 441f 39be cb98 173e ba76 eebd 80f1 213e
00000310: 179c ab3d cc5d c23d 37d2 d2bc 1e76 8dbd
00000320: d18b ebbd 4839 15be aa16 7a3e 5b17 94ba
00000330: 658d 03be 2033 72be 1afa 993c 130b 8abe
00000340: a80a 9ebc 28c4 333e aa2b 08be 82c2 173e
00000350: 4902 9abd 9844 56be 380b 71be 7095 fc3d
00000360: 888f 31be 11a0 fd3d be57 013d 8a2b 1a3e
00000370: adb8 42be 74aa 553e 3956 83be aced 5fbe
00000380: c8ad 1c3e 983b e2ba 577b 16be 9404 40bd
00000390: c192 69be 654e 54be 324e 10bd d480 483e
000003a0: c7d0 8e3d 89eb 493d 3ed8 7dbd eaf2 5d3e
000003b0: af71 8fbc 33cd af3d 5c51 733c e681 373d
000003c0: 15f1 a93d aae1 543e 40fa 163e 4357 1a3d
000003d0: 763f ac3d e0c5 c1bd 546e 133e 7e00 9b3d
000003e0: c7cd 4d3e 245f 10bd 2d22 68be 4c24 233d
000003f0: 5bb8 043e 6a31 483e 3723 a03d 8fe2 c63d

gnn_base.gnn.gnn1.lin_key.bias f4 [48]
0.10677543 0.07466018 0.13652939 -0.20090008 0.077276796 -0.23677328 -0.16441637 -0.09316352
-0.024357349 -0.23592618 0.0062217982 0.03991413 -0.09921652 0.081088305 0.21845582 -0.04270366
-0.13314465 -0.2214571 -0.1825507 -0.13827187 -0.18481857 -0.09828758 0.13772121 0.07823053
0.22533101 0.24821171 -0.09002671 -0.09790477 0.03421125 -0.19907054 0.13597974 -0.044994473
-0.20933223 -0.18874541 -0.17226708 0.06871304 0.19164261 0.19806316 -0.068838745 -0.14521399
-0.110958725 -0.17077985 -0.06445542 -0.22578555 0.13362437 -0.23529881 -0.15551364 0.16777506
00000000: 14ad da3d 70e7 983d 5cce 0b3e c0b8 4dbe
00000010: 4c43 9e3d b274 72be c45c 28be 84cc bebd
00000020: 1089 c7bc a296 71be 3ae0 cb3b 007d 233d
00000030: 0832 cbbd a011 a63d e2b2 5f3e 08ea 2ebd
00000040: 1257 08be a6c5 62be 92ee 3abe 2497 0dbe
00000050: 1441 3dbe 004b c9bd ca06 0d3e 5437 a03d
00000060: 2cbd 663e 362b 7e3e ec5f b8bd 4c82 c8bd
00000070: 1821 0c3d 26d9 4bbe 463e 0b3e 204c 38bd
00000080: 305b 56be 7a46 41be c866 30be 6cb9 8c3d
00000090: f63d 443e 12d1 4a3e 54fb 8cbd fab2 14be
000000a0: 543e e3bd eae0 2ebe 3401 84bd 5434 67be
000000b0: d4d4 083e 2cf2 70be f83e 1fbe 3acd 2b3e

gnn_base.gnn.gnn1.lin_query.weight f4 [48, 16]
-0.20476589 0.05074719 0.16357513 0.24404052 0.109507956 -0.052157063 0.15119 -0.00060703437
-0.07469386 0.026079837 0.0539086 0.1734863 0.108107485 0.11946964 0.023292206 -0.015207652
0.09161155 0.054924786 -0.23547073 0.027194072 -0.12249728 -0.13292263 0.089261465 0.059068143
0.05505865 -0.121076986 0.10271677 0.2339234 0.022065299 0.09514738 -0.22281878 0.16206327
0.08467641 0.10169703 0.12877874 -0.08084286 0.007894556 0.24404125 0.17812715 -0.17804171
0.20872352 0.23675604 0.020723399 -0.18685746 0.016116234 -0.04735262 0.17861198 -0.22666253
0.044159487 0.0008516329 -9.169336e-06 0.1788504 -0.020865584 -0.20113534 -0.1361385 -0.09273212
0.023053415 0.116145104 -0.042330593 -0.10146932 0.11330133 -0.24391612 0.17085555 -0.016435647
0.19421318 0.20461735 0.03106272 0.094279416 -0.11948165 0.16464303 0.14743723 -0.051248416
0.092103966 -0.02207429 0.2021085 0.09565031 0.19732511 -0.2320215 0.24472459 0.07800392
0.11037933 0.05046971 0.18154745 0.2248495 -0.015199121 -0.21848011 0.20667785 -0.029804654
-0.105002016 0.12794183 0.11521202 0.04265654 -0.011985643 -0.07324197 0.22968218 0.1557295
0.14337836 0.16897945 -0.14945076 0.067510225 -0.20525056 0.1332983 -0.24623752 -0.24466516
-0.24493344 0.16336244 0.021384908 -0.017201386 0.061969925 -0.11102896 -0.09031604 -0.17917785
-0.06331974 -0.15454918 -0.01808243 0.20056152 -0.22571756 0.1439768 -0.15572685 -0.12714037
0.017477978 0.06332552 0.244392 0.014119946 -0.106609926 -0.080344 0.018419473 -0.18698445
-0.18190955 -0.11603965 0.01595652 -0.17485401 -0.14270069 0.18776596 0.22171336 -0.075227864
-0.22017658 -0.104045525 0.10422384 0.08971408 -0.07147866 -0.19827254 -0.07778914 -0.056664255
0.14897455 -0.11143555 0.14142443 0.050907757 -0.03146853 -0.23188609 0.24527335 -0.032692432
0.16027284 -0.1418287 -0.25003973 -0.20980719 -0.10516245 -0.09754607 -0.042360265 0.19472256
-0.21877143 0.13306862 0.20002928 0.008053798 -0.16850394 0.009479667 0.07910849 0.09149939
-0.08875818 -0.061782412 -0.10027637 -0.24951765 0.087802716 -0.17437182 -0.113516875 -0.009989175
0.21164165 0.23671243 -0.1791314 0.22791286 0.24785821 0.19190465 0.023953414 0.18978615
0.12372589 -0.18666111 -0.13587444 -0.0050106477 -0.16450666 -0.08920609 0.19422813 0.1077427
0.22877549 0.020026067 -0.14862049 0.18943967 0.006552227 0.039772283 -0.090334974 0.084582396
-0.21384223 0.21170782 0.25227422 0.071096055 0.21703364 0.1535231 -0.08706976 -0.21357264
0.03212188 0.16104923 -0.047094647 0.037205357 0.18089668 0.10025045 0.18082681 0.042684052
0.032526936 -0.051223245 -0.047339905 -0.14560507 0.19924174 0.22950767 0.07737363 -0.005351286
-0.08585324 -0.24432115 -0.04752978 -0.17483181 -0.184681 -0.050448667 -0.05992919 0.06684244
-0.17098847 0.16906409 -0.24047261 -0.11262437 -0.0813464 0.0090468675 0.09801297 -0.07907636
0.04426115 -0.055156693 -0.09876296 -0.027920017 0.0673207 -0.25090986 -0.1811774 0.20564616
0.1204879 -0.019208753 -0.0032785148 0.024746612 0.082018144 -0.1893363 -0.0763424 -0.24223575
00000000: 26ae 51be 49dc 4f3d 3d80 273e c2e5 793e
00000010: b545 e03d a5a2 55bd 8dd1 1a3e 6321 1fba
00000020: 18f9 98bd 62a5 d53c 44cf 5c3d 65a6 313e
00000030: 7567 dd3d 80ac f43d 4ccf be3c 8429 79bc
00000040: d69e bb3d d0f8 603d 3d1f 71be 1ac6 de3c
00000050: dbdf fabd df1c 08be b7ce b63d 70f1 713d
00000060: 2e85 613d 36f7 f7bd 2b5d d23d 9e89 6f3e
00000070: 49c2 b43c a1dc c23d 9b2a 64be eaf3 253e
00000080: d36a ad3d 8846 d03d 93de 033e f190 a5bd
00000090: 2b58 013c f3e5 793e f766 363e 9150 36be
000000a0: 9ebb 553e 2d70 723e 1ec4 a93c 9057 3fbe
000000b0: 3106 843c d2f4 41bd 0fe6 363e 391a 68be
000000c0: 94e0 343d 1e40 5f3a 00d6 19b7 8f24 373e
000000d0: 4dee aabc 6cf6 4dbe e467 0bbe 56ea bdbd
000000e0: 84da bc3c 7cdd ed3d d862 2dbd 26cf cfbd
000000f0: 870a e83d 26c5 79be c2f4 2e3e 0da4 86bc
00000100: d2df 463e 3687 513e 3f77 fe3c 9115 c13d
00000110: ccb2 f4bd 2f98 283e c9f9 163e dce9 51bd
00000120: 01a1 bc3d 24d5 b4bc 88f5 4e3e 4fe4 c33d
00000130: 980f 4a3e 0b97 6dbe 1599 7a3e 85c0 9f3d
00000140: 8f0e e23d 54b9 4e3d 93e7 393e f33e 663e
00000150: bc05 79bc 40b9 5fbe 5ca3 533e e428 f4bc
00000160: 4c0b d7bd 2f03 033e 48f4 eb3d a0b8 2e3d
00000170: 6e5f 44bc e3ff 95bd ce31 6b3e 8e77 1f3e
00000180: c7d1 123e f308 2d3e 9f09 19be cd42 8a3d
00000190: 342d 52be 597f 083e b025 7cbe 8189 7abe
000001a0: d5cf 7abe 7c48 273e 672f af3c ece9 8cbc
000001b0: 2dd4 7d3d 2763 e3bd 9ef7 b8bd 667a 37be
000001c0: c8ad 81bd 2442 1ebe 9b21 94bc 0060 4d3e
000001d0: 8122 67be a76e 133e dc76 1fbe 1631 02be
000001e0: fa2d 8f3c cfb0 813d e541 7a3e 5957 673c
000001f0: 4e56 dabd 658b a4bd 6fe4 963c da78 3fbe
00000200: 7f46 3abe 32a6 edbd 3fb7 823c ee0c 33be
00000210: 2120 12be b845 403e d408 633e 1111 9abd
00000220: f875 61be d215 d5bd 4f73 d53d 04bc b73d
00000230: 6763 92bd f507 4bbe ea4f 9fbd c718 68bd
00000240: c98c 183e 5238 e4bd 91d1 103e a784 503d
00000250: 25e5 00bd 8c73 6dbe f028 7b3e 80e8 05bd
00000260: 901e 243e 8b3b 11be 3505 80be b2d7 56be
00000270: 695f d7bd 3cc6 c7bd f581 2dbd 5a65 473e
00000280: 9e05 60be 2443 083e 7ad4 4c3e 14f4 033c
00000290: 4c8c 2cbe 9b50 1b3c a203 a23d 0864 bb3d
000002a0: d9c6 b5bd 8e0f 7dbd b35d cdbd 8e81 7fbe
000002b0: e9d1 b33d 878e 32be 897b e8bd a3a9 23bc
000002c0: 97b8 583e be64 723e 396e 37be fd61 693e
000002d0: 8bce 7d3e a782 443e f339 c43c 4d57 423e
000002e0: 0064 fd3d 1724 3fbe ab22 0bbe 5c30 a4bb
000002f0: 6f74 28be afb1 b6bd bde3 463e 34a8 dc3d
00000300: 1f44 6a3e b50d a43c f82f 18be 79fc 413e
00000310: 10b4 d63b 43e8 223d 8b01 b9bd 8939 ad3d
00000320: 75f9 5abe efc9 583e 162a 813e cf9a 913d
00000330: 113e 5e3e 2935 1d3e a151 b2bd c9b2 5abe
00000340: 3c92 033d 17ea 243e 51e6 40bd a564 183d
00000350: fb3c 393e 1c50 cd3d aa2a 393e 79d5 2e3d
00000360: f73a 053d 77cf 51bd 7de7 41bd 7f19 15be
00000370: 0706 4c3e 0f04 6b3e 1176 9e3d d759 afbb
00000380: d3d3 afbd 532f 7abe 96ae 42bd 1c07 33be
00000390: 041d 3dbe 43a3 4ebd 4f78 75bd b0e4 883d
000003a0: 9a17 2fbe 231f 2d3e 743e 76be 9ba7 e6bd
000003b0: f198 a6bd 5039 143c 06bb c83d c9f2 a1bd
000003c0: 2e4b 353d fceb 61bd 3c44 cabd 85b8 e4bc
000003d0: 6fdf 893d 4277 80be 9186 39be e894 523e
000003e0: 5cc2 f63d ad5b 9dbc 5adc 56bb 68b9 ca3c
000003f0: 21f9 a73d 60e1 41be 6759 9cbd a60c 78be

gnn_base.gnn.gnn1.lin_query.bias f4 [48]
0.08510064 0.05464682 -0.22366562 0.09296694 -0.08229319 0.26765156 0.24622035 0.062797844
0.19078909 0.08739796 0.21998537 -0.027813267 0.035774138 -0.041242674 1.0400574e-05 -0.07369568
-0.06683503 0.15199222 0.0863596 -0.09893109 -0.25015506 0.105490685 -0.2424685 -0.027088242
-0.20361796 0.1884962 0.20034306 -0.20177935 -0.22666036 -0.12733462 0.06960432 -0.14708924
-0.049153537 -0.07887555 0.042570937 -0.10745219 0.09779017 -0.1882978 -0.006176418 0.20715596
-0.12582007 0.19573185 0.13603558 -0.08602793 0.07882922 -0.16878663 0.00314132 0.05813723
00000000: 3f49 ae3d 58d5 5f3d 9a08 65be 7365 be3d
00000010: 5589 a8bd a009 893e 3021 7c3e 289c 803d
00000020: 375e 433e b4fd b23d d843 613e a6d8 e3bc
00000030: e787 123d 14ee 28bd 207e 2e37 c3ed 96bd
00000040: cee0 88bd d9a3 1b3e 4ddd b03d 629c cabd
00000050: 5314 80be 800b d83d aa49 78be 29e8 ddbc
00000060: 3a81 50be 2605 413e bb26 4d3e 3f9f 4ebe
00000070: a719 68be 0264 02be b68c 8e3d 909e 16be
00000080: 3855 49bd 8189 a1bd dd5e 2e3d e50f dcbd
00000090: 3646 c83d 23d1 40be 8d63 cabb b120 543e
000000a0: fad6 00be ee6d 483e e94c 0b3e 692f b0bd
000000b0: 3771 a13d 67d6 2cbe 9bde 4d3b 4e21 6e3d

gnn_base.gnn.gnn1.lin_value.weight f4 [48, 16]
0.21537565 -0.15037516 -0.14263012 -0.1355562 -0.24287018 0.070054986 -0.22152525 -0.05607056
-0.101621844 -0.0067512984 0.0626165 -0.20006372 -0.052759305 -0.022320518 -0.1541761 0.084773056
0.10163493 -0.19728577 0.20086205 0.16815981 -0.080065854 0.05258067 0.03396525 -0.03539811
-0.17597543 0.20946728 0.12641901 -0.19779353 -0.18568641 0.23675783 0.045504916 -0.05752757
0.16220279 0.08060241 0.08400285 0.2048612 -0.022799218 0.26399305 -0.15529995 -0.15051906
0.017856836 -0.023010666 0.15610881 -0.055551775 0.02991195 -0.028878283 0.16753225 -0.009784782
0.011366942 0.17886493 0.26193714 0.22912796 -0.26193595 -0.17344972 -0.06474554 -0.05397778
0.15912294 0.12072953 -0.034535125 0.022915427 0.054223046 0.18651496 0.15164274 -0.14232884
-0.12764403 0.06814874 -0.01796825 -0.17578755 -0.23062992 0.028517392 -0.08411483 -0.15201795
0.05506572 0.25289607 0.20083591 0.13857457 -0.20844348 0.15903652 0.12599044 0.07327377
-0.06715893 -0.021052588 -0.13102339 -0.053324457 -0.027995383 -0.03865309 -0.25754386 0.09586028
-0.20170155 -0.18870048 0.09299005 -0.20290288 0.23738967 0.23511031 -0.0808471 -0.03724556
-0.1870979 0.010510214 0.057469554 -0.14105429 0.07640784 -0.0034701861 -0.066447556 -0.0006649508
-0.25228924 -0.18141714 0.04207298 0.24972112 -0.13881652 0.14701615 0.033484526 -0.11730357
-0.011485234 0.12983128 0.025098184 0.2376078 -0.03518884 -0.20278592 0.21162681 -0.06176522
0.18187653 0.16679606 0.026579274 -0.22450848 -0.24008985 0.10972487 0.04943405 0.13921884
-0.21053675 -0.045194123 0.22168778 0.10537448 0.20620082 0.20514387 -0.052439876 -0.17723688
-0.15664905 0.08757013 -0.09153675 0.019316528 0.025992215 0.16159448 0.15280186 0.12878534
0.006309883 0.12898211 -0.12311938 -0.102318734 -0.030656947 -0.1428327 0.22392823 -0.027442556
0.075360075 -0.016801652 -0.011498768 -0.12968719 0.0068733706 -0.24372943 -0.12263723 0.19938828
-0.23133169 0.047102004 0.03275098 -0.23258479 0.04072491 0.11821007 0.18838164 0.05560733
0.19058833 -0.0045248414 0.09704695 0.07453348 -0.17822267 -0.05981863 -0.17017904 0.19743253
0.10495823 -0.11036269 -0.05808032 0.061765186 -0.21864107 0.017036732 0.13848168 0.031447224
-0.029729841 0.1810941 0.11887824 -0.2017912 0.13214731 -0.19277185 0.132677 0.19985767
0.040033787 -0.08984243 -0.09597286 -0.12948298 -0.01977756 -0.13487427 0.2459511 -0.12974618
0.11462997 -0.2250227 0.12040357 0.22070895 -0.18610299 -0.08980292 0.082817025 -0.25563002
-0.1506744 0.08673595 0.23703815 -0.08646876 -0.0065189507 -0.2338429 -0.23674986 0.20939817
0.21013387 -0.07671847 -0.10083128 -0.003902737 0.10910257 -0.23591094 -0.12746494 -0.09077092
-0.1202187 0.010582821 0.16718863 0.07970488 -0.2453937 0.24603733 0.21103923 0.08885068
0.11102609 0.10698995 0.21802184 -0.26558626 -0.15029274 -0.011604381 -0.076777354 -0.15152691
-0.24011353 -0.21058516 -0.049354237 0.20318094 0.16532555 0.093301944 -0.1516831 -0.100494996
0.019601189 -0.22883011 -0.0067972103 0.04869819 0.22662096 -0.05306256 0.24139738 0.035568763
00000000: 6f8b 5c3e f2fb 19be a10d 12be 3fcf 0abe
00000010: f6b2 78be fd78 8f3d 84d7 62be 3eaa 65bd
00000020: 1d1f d0bd ff39 ddbb 143d 803d 81dd 4cbe
00000030: 241a 58bd 85d9 b6bc 57e0 1dbe 7f9d ad3d
00000040: f925 d03d 4805 4abe c8ae 4d3e 1632 2c3e
00000050: 91f9 a3bd d45e 573d 251f 0b3d 9cfd 10bd
00000060: e732 34be 977e 563e fc73 013e 638a 4abe
00000070: 9424 3ebe a570 723e 5d63 3a3d 07a2 6bbd
00000080: 7d18 263e e012 a53d b009 ac3d 22c7 513e
00000090: 6dc5 babc 192a 873e f306 1fbe ab21 1abe
000000a0: 8048 923c dd80 bcbc fdda 1f3e 428a 63bd
000000b0: e809 f53c 2692 ecbc 938d 2b3e 5a50 20bc
000000c0: 693c 3a3c 5e28 373e a01c 863e 85a0 6a3e
000000d0: 781c 86be ce9c 31be 4f99 84bd ce17 5dbd
000000e0: 20f1 223e 0b41 f73d b474 0dbd 22b9 bb3c
000000f0: fc18 5e3d c7fd 3e3e 3c48 1b3e a7be 11be
00000100: 1eb5 02be 9191 8b3d 2732 93bc a701 34be
00000110: 402a 6cbe 4e9d e93c 6544 acbd 98aa 1bbe
00000120: 988c 613d 987b 813e eea7 4d3e 7ee6 0d3e
00000130: 3572 55be 78da 223e a303 013e 8f10 963d
00000140: 9f8a 89bd 7a76 acbc ff2a 06be bf6a 5abd
00000150: 9356 e5bc b452 1ebd cadc 83be 6552 c43d
00000160: da8a 4ebe b33a 41be 9171 be3d c6c5 4fbe
00000170: 4716 733e c2c0 703e 2a93 a5bd cd8e 18bd
00000180: 9896 3fbe 0833 2c3c 3265 6b3d 8970 10be
00000190: b77b 9c3d 106c 63bb a815 88bd 1850 2eba
000001a0: 0e2c 81be 6ac5 39be b854 2c3d e5b6 7f3e
000001b0: eb25 0ebe 678b 163e 1227 093d db3c f0bd
000001c0: 902c 3cbc 7ef2 043e b59a cd3c 764f 733e
000001d0: 2c22 10bd 1da7 4fbe b3b4 583e 87fd 7cbd
000001e0: d73d 3a3e 96cc 2a3e c7bc d93c 8de5 65be
000001f0: 1dda 75be 6fb7 e03d 5c7b 4a3d 628f 0e3e
00000200: f296 57be 791d 39bd 1f02 633e 93ce d73d
00000210: 4f26 533e 3c11 523e 32cb 56bd 967d 35be
00000220: 9c68 20be f857 b33d 9f77 bbbd b23d 9e3c
00000230: a0ed d43c 0679 253e 1778 1c3e 4ee0 033e
00000240: 23c3 ce3b e313 043e 0326 fcbd 7c8c d1bd
00000250: 4724 fbbc bc42 12be 714d 653e 36cf e0bc
00000260: 6256 9a3d 9ea3 89bc 5465 3cbc b8cc 04be
00000270: 033a e13b 3594 79be 3a29 fbbd 712c 4c3e
00000280: 37e2 6cbe 08ee 403d e425 063d b52a 6ebe
00000290: 2acf 263d 1f18 f23d 1ee7 403e 83c4 633d
000002a0: 9629 433e 1f45 94bb 8dc0 c63d 02a5 983d
000002b0: 0180 36be 6104 75bd 6a43 2ebe c12b 4a3e
000002c0: 57f4 d63d d605 e2bd a1e5 6dbd 7efd 7c3d
000002d0: 72e3 5fbe 9e90 8b3c 24ce 0d3e cece 003d
000002e0: ff8b f3bc bb70 393e 6f76 f33d 5aa2 4ebe
000002f0: a051 073e fc65 45be 7bdc 073e 7da7 4c3e
00000300: 78fa 233d 4fff b7bd 6b8d c4bd 3097 04be
00000310: 8d04 a2bc 7b1c 0abe 9bda 7b3e 2fdc 04be
00000320: 1ec3 ea3d 5a6c 66be 2696 f63d 8701 623e
00000330: c891 3ebe 98ea b7bd f99b a93d f0e1 82be
00000340: 644a 1abe 9ea2 b13d 21ba 723e 8916 b1bd
00000350: ec9c d5bb 8374 6fbe 8e6e 72be 796c 563e
00000360: 552d 573e 931e 9dbd a180 cebd 10c5 7fbb
00000370: 2b71 df3d a392 71be 2b86 02be 1be6 b9bd
00000380: 3935 f6bd 9263 2d3c 7f33 2b3e 503c a33d
00000390: 7c48 7bbe 36f1 7b3e ab1a 583e 58f7 b53d
000003a0: a661 e33d 8c1d db3d 1e41 5f3e ecfa 87be
000003b0: 57e6 19be 4d20 3ebc 723d 9dbd df29 1bbe
000003c0: 52e0 75be a3a3 57be ab27 4abd aa0e 503e
000003d0: 1a4b 293e 1715 bf3d d152 1bbe 52d0 cdbd
000003e0: ac92 a03c 7152 6abe 22bb debb c177 473d
000003f0: 530f 683e 2058 59bd e030 773e 8db0 113d

gnn_base.gnn.gnn1.lin_value.bias f4 [48]
-0.20323047 0.14922222 -0.2648278 -0.22889757 -0.1186245 -0.23496567 -0.018753527 0.21776311
-0.07922917 -0.18664873 -0.02486493 -0.2116547 0.17755938 0.032575734 0.21467659 0.10380587
0.102298774 0.079560824 0.21286848 -0.13953093 -0.14335144 0.19640948 0.08735514 0.24512906
0.04839599 0.0934536 0.15072255 0.15471737 0.14513005 -0.19962049 0.06532237 -0.17333342
0.045176856 0.13218102 -0.10290939 0.233767 0.2321167 0.07611597 -0.18422937 0.021097694
0.18464711 0.047844455 0.21443458 0.009912175 -0.107830696 0.15956992 0.07568538 0.13578115
00000000: a61b 50be b6cd 183e 8297 87be 2064 6abe
00000010: 67f1 f2bd d79a 70be ffa0 99bc 4bfd 5e3e
00000020: e742 a2bd d820 3fbe 8ab1 cbbc 02bc 58be
00000030: 20d2 353e 226e 053d 2ed4 5b3e 2c98 d43d
00000040: 0582 d13d c9f0 a23d 32fa 593e 32e1 0ebe
00000050: b8ca 12be 911f 493e 40e7 b23d 1d03 7b3e
00000060: e03a 463d 9a64 bf3d 0357 1a3e 3b6e 1e3e
00000070: f99c 143e 5069 4cbe bcc7 853d 517e 31be
00000080: 5e0b 393d 765a 073e 29c2 d2bd 9e60 6f3e
00000090: 00b0 6d3e b1e2 9b3d a0a6 3cbe 12d5 ac3c
000000a0: 2214 3d3e 8cf8 433d bd94 5b3e ad66 223c
000000b0: 57d6 dcbd 4c66 233e f000 9b3d 370a 0b3e

gnn_base.gnn.gnn1.lin_edge.weight f4 [48, 1]
-0.584053 -0.76149946 0.6516201 0.3655721 0.74738485 -0.82461876 -0.4601152 -0.01858466
-0.52779686 0.6261754 0.8016894 0.85932124 0.14192964 -0.9151406 -0.36796513 0.22926626
-0.26651347 0.42690486 -0.29024905 0.8341894 0.8788955 0.9949596 0.32815877 -0.6596333
-0.26482612 -0.5325305 0.4400849 -0.10520888 0.3973573 0.283127 -0.30582836 0.1396399
-0.14279433 0.17012493 -0.6830082 0.030642804 0.77100384 0.5186525 -0.6280503 0.844178
-0.38988128 0.8969314 -0.20210366 0.9534756 0.5927129 -0.08757005 0.66635436 0.8482143
00000000: 7f84 15bf a1f1 42bf 93d0 263f 442c bb3e
00000010: 9d54 3f3f 371a 53bf 3894 ebbe db3e 98bc
00000020: b21d 07bf 084d 203f 843b 4d3f 7afc 5b3f
00000030: 0156 113e a846 6abf ed65 bcbe c6c4 6a3e
00000040: 7474 88be 4693 da3e 869b 94be 708d 553f
00000050: 4cff 603f acb5 7e3f 6d04 a83e badd 28bf
00000060: 4a97 87be eb53 08bf cf52 e13e c177 d7bd
00000070: 6b72 cb3e 06f6 903e 8995 9cbe c3fd 0e3e
00000080: ad38 12be 3b35 2e3e a0d9 2ebf 9e06 fb3c
00000090: 8260 453f 69c6 043f e8c7 20bf 0d1c 583f
000000a0: 859e c7be 4c9d 653f 43f4 4ebe fa16 743f
000000b0: 08bc 173f ed57 b3bd 3396 2a3f 9324 593f

gnn_base.gnn.gnn1.lin_skip.weight f4 [16, 16]
-0.21056259 0.043136235 0.1671298 -0.027528113 0.15098841 0.19522892 -0.20767348 0.15163128
-0.2199808 0.16480836 -0.15078133 -0.07279057 0.07282226 -0.22652556 -0.033299126 -0.08112983
0.08903208 -0.031420078 -0.23246159 -0.07195523 0.038267083 0.14567028 -0.14446148 -0.15605399
0.11252532 -0.14025177 -0.10476116 -0.24149019 -0.046961315 -0.18281797 0.03918714 0.1915287
0.1133299 -0.18682191 0.21819693 -0.21194936 -0.12699121 0.15678522 0.116118245 0.12146017
-0.08550922 -0.22802614 -0.22257118 -0.00028474967 -0.217302 -0.1532725 0.15956493 -0.002235852
0.1035463 -0.21335416 0.082125105 0.1957728 0.05845101 0.024647111 -0.16084586 -0.18392912
0.16465478 -0.24832545 -0.035402622 -0.1795996 0.018953891 -0.27212265 0.10348306 -0.017775577
-0.14283371 -0.08736056 -0.08170949 -0.12190647 -0.070782475 0.037199248 -0.15326148 0.056234747
-0.21965866 0.23169702 -0.15028134 0.08332119 -0.16446549 -0.17763008 -0.0082463585 -0.13659185
-0.07440579 -0.11328272 -0.075572036 -0.1909976 0.24307995 0.15109828 -0.095688164 0.18410954
-0.10549435 -0.21185358 0.073231086 -0.08642081 0.19675097 -0.059145056 -0.21301417 0.21444651
0.054334212 0.06894428 -0.034404915 -0.20388979 0.0763062 0.0051229936 -0.16953559 0.15062986
-0.22832271 -0.15129656 -0.06191074 -0.23911922 -0.21734864 -0.079479516 -0.050642725 0.18660182
0.10622411 0.24738616 0.07262775 0.05413038 -0.049288508 -0.11861525 -0.2306351 -0.21459648
0.11361306 -0.1734327 -0.107774116 0.09862437 -0.17247452 0.08832422 -0.019867657 0.055023767
-0.107082725 0.16364408 -0.18777677 -0.25515077 0.18753959 -0.15814562 0.25026 0.10400697
0.08949629 -0.020156512 0.054107293 0.0766026 -0.13557455 0.1813079 0.16669971 0.024517445
0.059031527 -0.03519013 -0.09909402 -0.18874012 -0.100192316 -0.24620238 -0.08627885 0.14595151
0.24563669 -0.22775203 -0.21334629 0.19870862 -0.059673782 -0.0207315 0.15252267 0.23511747
0.087022424 0.057654765 -0.015699146 0.022401078 0.096647136 -0.22962254 -0.2324017 0.17014062
-0.24762484 0.13825573 0.18451701 0.17015585 0.067712195 0.034582272 0.10063023 0.15186168
0.003594206 -0.17081712 0.15011927 0.032348387 0.123439 -0.18416475 -0.057186387 -0.14705269
0.0073268153 0.23908459 0.055604775 0.21530847 0.20638764 -0.19074082 0.24497396 0.010875406
0.23188931 0.05062211 0.0034100984 0.19630185 -0.20131864 -0.034175135 -0.041152168 0.0015696825
-0.06446908 0.17075928 -0.018164003 0.12644912 0.11342227 0.17997833 0.14065666 -0.275765
-0.20408677 -0.23646595 -0.24165225 -0.20795572 -0.0067895893 0.22579505 -0.1693989 0.11371263
-0.111171514 0.18762846 0.16066295 0.11878019 0.23026524 -0.21090312 -0.20860168 -0.14901365
0.04907056 0.21893133 0.14648227 0.102829315 -0.05108516 -0.12957041 0.26914126 -0.22529325
-0.18256319 0.16318412 0.20975032 0.04730561 0.004704341 -0.0081662685 0.0006453916 -0.114078395
0.24809647 0.23712836 -0.10230938 0.16689914 -0.060800128 -0.17016375 0.042692844 -0.046745364
0.20659183 0.027171375 -0.057846375 -0.196182 0.17233792 0.17853189 0.03331176 -0.023248745
00000000: b89d 57be 9faf 303d 1324 2b3e a382 e1bc
00000010: b59c 1a3e 17ea 473e 5ba8 54be 3b45 1b3e
00000020: a642 61be 86c3 283e 6c66 1abe 3913 95bd
00000030: d623 953d 51f6 67be aa64 08bd 6527 a6bd
00000040: 7356 b63d 57b2 00bd 690a 6ebe 435d 93bd
00000050: f2bd 1c3d 972a 153e b6ed 13be 9ecc 1fbe
00000060: ad73 e63d 299e 0fbe 058d d6bd 3449 77be
00000070: 825a 40bd a234 3bbe b282 203d 1920 443e
00000080: 8219 e83d 3e4e 3fbe 046f 5f3e 4109 59be
00000090: fc09 02be 4e8c 203e 67cf ed3d 1cc0 f83d
000000a0: 751f afbd af7f 69be b3e9 63be 744a 95b9
000000b0: 6a84 5ebe 77f3 1cbe fd64 233e 5f87 12bb
000000c0: 1510 d43d 8379 5abe 3531 a83d aa78 483e
000000d0: 546a 6f3d bde8 c93c c7b4 24be ea57 3cbe
000000e0: 439b 283e 0749 7ebe 5702 11bd f5e8 37be
000000f0: 3145 9b3c a953 8bbe edee d33d 169e 91bc
00000100: 0043 12be 18ea b2bd 4e57 a7bd 19aa f9bd
00000110: 67f6 90bd 3d5e 183d 94f0 1cbe 6856 663d
00000120: 33ee 60be fc41 6d3e 5ae3 19be 4da4 aa3d
00000130: a469 28be a9e4 35be bc1b 07bc bcde 0bbe
00000140: 1062 98bd c500 e8bd 83c5 9abd e094 43be
00000150: f3e9 783e 82b9 1a3e 28f8 c3bd 3687 3c3e
00000160: 6c0d d8bd 25f0 58be 2efa 953d 65fd b0bd
00000170: 1679 493e 1642 72bd 6320 5abe de97 5b3e
00000180: 8d8d 5e3d a932 8d3d 2bec 0cbd 7cc8 50be
00000190: 6d46 9c3d c9de a73b bd9a 2dbe b73e 1a3e
000001a0: 6ecd 69be 7ced 1abe 1e96 7dbd abdb 74be
000001b0: a490 5ebe 28c6 a2bd bf6e 4fbd 8c14 3f3e
000001c0: 078c d93d cc52 7d3e dcbd 943d d1b7 5d3d
000001d0: bfe2 49bd 8dec f2bd 9c2b 6cbe 2ebf 5bbe
000001e0: f7ad e83d 5798 31be adb8 dcbd 93fb c93d
000001f0: 299d 30be 54e3 b43d 7fc1 a2bc 9a60 613d
00000200: 304e dbbd 5092 273e 8e48 40be 1fa3 82be
00000210: 610a 403e edf0 21be 1422 803e 9b01 d53d
00000220: d549 b73d 451f a5bc 9c9f 5d3d d3e1 9c3d
00000230: 0ed4 0abe c7a8 393e 54b3 2a3e cfd8 c83c
00000240: 0bcb 713d 8723 10bd cef1 cabd 1745 41be
00000250: a131 cdbd 7a1c 7cbe f7b2 b0bd 5074 153e
00000260: 2f88 7b3e d437 69be 7377 5abe 467a 4b3e
00000270: 7f6c 74bd 1bd5 a9bc e72e 1c3e a2c2 703e
00000280: d038 b23d 6727 6c3d 7f9b 80bc 7782 b73c
00000290: efee c53d 2c22 6bbe b6fa 6dbe 5839 2e3e
000002a0: 5e91 7dbe e992 0d3e 07f2 3c3e 563d 2e3e
000002b0: b1ac 8a3d 24a6 0d3d 3917 ce3d a181 1b3e
000002c0: c58c 6b3b afea 2ebe deb8 193e be7f 043d
000002d0: 96cd fc3d af95 3cbe 463c 6abd fb94 16be
000002e0: c815 f03b 97d2 743e d5c1 633d d379 5c3e
000002f0: 4857 533e 9051 43be 74da 7a3e c22e 323c
00000300: 6474 6d3e 2159 4f3d f57b 5f3b 5a03 493e
00000310: 7926 4ebe 3afb 0bbd 2d8f 28bd cebd cd3a
00000320: 5d08 84bd 85db 2e3e adcc 94bc e17b 013e
00000330: ef49 e83d 3d4c 383e 4d08 103e 1231 8dbe
00000340: 1ffc 50be 2124 72be b073 77be 58f2 54be
00000350: 347b debb d136 673e e876 2dbe 2be2 e83d
00000360: e4ad e3bd ad21 403e d484 243e 0743 f33d
00000370: a7ca 6b3e fdf6 57be ae9b 55be 0997 18be
00000380: 36fe 483d 892f 603e 73ff 153e 2d98 d23d
00000390: ac3e 51bd 1bae 04be e2cc 893e 46b3 66be
000003a0: d8f1 3abe bd19 273e cac8 563e 87c3 413d
000003b0: df26 9a3b d0cb 05bc 7f2f 293a efa1 e9bd
000003c0: 000d 7e3e c7d1 723e 9587 d1bd 9ce7 2a3e
000003d0: 8e09 79bd 683f 2ebe b1de 2e3d 1178 3fbd
000003e0: cf8c 533e 8196 de3c 52f0 6cbd efe3 48be
000003f0: 5a79 303e 10d1 363e e971 083d 2774 bebc

gnn_base.gnn.gnn1.lin_skip.bias f4 [16]
-0.06946742 0.051244058 0.24577115 -0.023272969 -0.001276875 -0.23409607 0.06492162 -0.09069411
-0.0690022 -0.12978768 0.2543 0.15264541 -0.1006122 -0.065604165 0.06836412 0.098454826
00000000: ef44 8ebd 4ae5 513d 6fab 7b3e f4a6 bebc
00000010: d15c a7ba e1b6 6fbe a0f5 843d d5bd b9bd
00000020: 0751 8dbd 10e7 04be 9c33 823e 144f 1c3e
00000030: c50d cebd 7a5b 86bd 7d02 8c3d afa2 c93d
