onpolicy/results/GraphMPE/navigation_graph/rmappo/crap_bad/run14/models/critic.pt (torch, 199331 bytes, 61 tensors)

gnn_base.gnn.embed_layer.entity_embed.weight f4 [3, 2]
00000000: 0da8 8c3f 5fa3 323f 84cc 113f a5ef 5bbf
00000010: c301 70bf 9caa f2bd
1.0988785 0.69780535 0.5695269 -0.85912544 -0.9375269 -0.118489474

gnn_base.gnn.embed_layer.lin1.0.weight f4 [16, 9]
00000000: c314 c0bd 6b92 203f c47e bbbe 0413 91bd
00000010: 9003 b43e a60e e03e 870d 92be 4f39 c4bd
00000020: 3d27 26be b047 a23e 3be6 773e 992c ad3e
00000030: dfae b4be 9e86 06bf 6456 e93e bfd5 d83d
00000040: 2d37 ebbe 7b1d 70be b7c6 3d3e 4bda bbbe
00000050: 7fc6 afbe bf65 a0be 8b89 373f c348 bbbe
00000060: 1532 dabd 4c61 5d3e 1ecf a7be 7c4f 4ebf
00000070: b4d6 c5bd 963c 34be 5532 a3be 8e6d 1c3e
00000080: b435 0d3f cbc9 febc 9e30 0e3e 39eb aabe
00000090: f2f9 1fbf a150 583e 7585 1f3e 7e0e d83e
000000a0: efae dbbe 44de 37bd 3cb9 52be 558e 1a3f
000000b0: 1b6e 79be e6ba abbe 14b6 963e dc4b 703e
000000c0: 812d 323f 2823 cd3e c55a 38bd 9c29 b33e
000000d0: ea71 46bd 8356 313e 3c00 c23d 2b87 f3be
000000e0: aba1 183f caf2 b4bd 2357 de3b e1f2 d23e
000000f0: f508 9e3e ced0 5a3e 160f 90be c5eb 2a3e
00000100: 1722 9c3e 209b de3e 2499 d23c 7bd0 083e
00000110: 7955 883d 856e a4be 77df c83e d561 063e
00000120: 4512 ffbd fc3a b9bd b521 9b3e 6c19 813e
00000130: 2d30 42be f000 09bf fbe6 4fbf ebbe 01bf
00000140: f93e 73be a45d e7be fbe7 913e b17c c03e
00000150: 2443 5ebf 1f28 95bd 2f63 aabe d587 0f3b
00000160: 3bb6 33bd caa4 473e 3f84 b5bd 8683 d4be
00000170: 3451 0bbf 598f 33be e475 09bf 1bdb 573d
00000180: dfa1 dfbe 8d08 b03e 9748 dd3e 6c39 06bf
00000190: 2e08 3abe 58e2 22be c636 6d3b 0c52 293e
000001a0: 023d 9e3d 3440 183e 4c6d 3fbf 1c19 153f
000001b0: 8787 1e3e 778b 89be 0eef bf3e a0ab f93d
000001c0: b5a3 b03e dc68 253f b4de 1dbf 24ea 8c3d
000001d0: 0d92 233f 9cc6 ab3e d981 173f 0cd4 ecbe
000001e0: f3fa 7e3d 7cad aebd 165a 513e fc2b 49be
000001f0: 768d 4cbd c060 91bd d85c 9dbc 2476 afbe
00000200: 73c2 99be 442f db3e 1d48 babe 0c82 6a3e
00000210: d7b9 713e 8abc 5abe 5073 22be 4c5a e6bd
00000220: 4bec 92be 073c 8f3c b9ac 973d 10b2 3b3e
00000230: 3292 5b3e 2887 d9be 794d bcbe 8530 31bf
-0.0937896 0.62723416 -0.36620152 -0.07083705 0.35158968 0.43761176 -0.28525946 -0.09581243
-0.16225906 0.31695318 0.2420892 0.33823088 -0.35289666 -0.5254916 0.45573723 0.10587644
-0.45940533 -0.23448746 0.18532835 -0.36689982 -0.34331128 -0.31327626 0.7169425 -0.3657895
-0.10654084 0.21619147 -0.32775205 -0.80590034 -0.09660092 -0.17601237 -0.31874338 0.15276167
0.5516007 -0.031102082 0.13885733 -0.33382586 -0.6249076 0.21124507 0.15578254 0.42198557
-0.429069 -0.044889703 -0.20578474 0.6037343 -0.24358408 -0.3354103 0.2943579 0.23466438
0.69600683 0.40065885 -0.04500844 0.34992683 -0.04844848 0.17318158 0.09472701 -0.47564062
0.59621686 -0.08835371 0.00678529 0.41200927 0.3086621 0.21368715 -0.2813651 0.16691501
0.30494758 0.43477726 0.025707789 0.13360779 0.066569276 -0.3211557 0.3923299 0.13123257
-0.124546565 -0.090444535 0.30299154 0.25214708 -0.1896369 -0.53517056 -0.81211823 -0.5068194
-0.23754491 -0.4518863 0.284973 0.37595132 -0.868212 -0.07283043 -0.33278796 0.002190103
-0.04387496 0.19496456 -0.088631146 -0.41506594 -0.5442078 -0.17535152 -0.5369551 0.05269919
-0.43678185 0.34381524 0.43219444 -0.5243137 -0.18167183 -0.15906656 0.0036195978 0.16535205
0.0772648 0.14868242 -0.7477615 0.5824144 0.15481387 -0.26864216 0.37487072 0.12190938
0.344999 0.6461313 -0.61667943 0.06880596 0.6389473 0.33549964 0.59182507 -0.4625553
0.062251043 -0.08529183 0.20444521 -0.19645685 -0.049939595 -0.07098532 -0.01920931 -0.34269822
-0.30031165 0.42809498 -0.36383143 0.22901171 0.23606049 -0.21360984 -0.158643 -0.112476915
-0.28695902 0.017484678 0.07405991 0.18329644 0.21442488 -0.4248593 -0.36777857 -0.6921466

gnn_base.gnn.embed_layer.lin1.0.bias f4 [16]
00000000: f5b6 04bc 9dbd fbba 9598 caba 0c35 d8bb
00000010: cc91 843b a48b 9b3a 730b 9f39 1afb 5d3b
00000020: cb6d 16bc 6927 d33b c7b6 12bc 5e44 9f3b
00000030: d192 263b a1b8 a3bb b2c1 f1bb d1a9 3bbb
-0.008100261 -0.001920629 -0.001545685 -0.0065981206 0.0040457007 0.0011867178 0.00030335374 0.0033871592
-0.00918145 0.006443907 -0.00895471 0.004860445 0.00254171 -0.0049963747 -0.0073778266 -0.0028635154

gnn_base.gnn.embed_layer.lin1.2.weight f4 [16]
00000000: 984e 7f3f 8a3f 7e3f 6694 7f3f 397f 803f
00000010: 3750 7f3f f911 803f 53a5 7f3f f745 803f
00000020: 9c9e 7e3f 193a 803f b2c1 7e3f 2cea 803f
00000030: 698a 803f 8f2c 7f3f 610c 7f3f 1675 803f
0.997293 0.993157 0.99835813 1.0038825 0.99731773 1.0005485 0.9986164 1.0021352
0.9946077 1.001773 0.99514306 1.0071464 1.004224 0.99677366 0.99628264 1.0035732

gnn_base.gnn.embed_layer.lin1.2.bias f4 [16]
00000000: b686 34bb e747 9cbb 4347 a03a 582c 9fbb
00000010: 5a35 073c 0fe7 f3ba a4b5 b4ba 677c 4e3b
00000020: d377 b8bb 0de3 5b3b 6559 02bc bfc1 ad3b
00000030: dc8e 84ba 2a4d e539 1551 0bbb 2971 96bb
-0.0027546114 -0.0047693136 0.0012228269 -0.004857581 0.008252466 -0.001860829 -0.0013787043 0.0031507255
-0.0056295185 0.003355208 -0.007955884 0.0053026373 -0.0010113376 0.00043735775 -0.0021258045 -0.0045911265

gnn_base.gnn.embed_layer.lin_h.0.weight f4 [16, 16]
00000000: 267d f63c d475 dc3e dd2c 9fbc 0220 bcbe
00000010: 9094 5f3e cdc1 7bbe be38 1a3e d4b8 8e3e
00000020: 84d7 13bf 1077 f13e ca26 01bf 95c5 2a3e
00000030: 22bb 5cbe a128 8cbe c0cd 0fbf 44db e13e
00000040: ba61 1dbe 5cfa 4c3e 4f8d e7be b321 04be
00000050: ad62 8ebe 422a 00be e454 4b3d 684f 1d3f
00000060: 8df1 f53c aafc b0be 1f59 dcbe 54be 9fbe
00000070: b77c a0be da69 e5be c185 953e bda4 2cbf
00000080: 3721 bf3e 1a97 793e a9bf bf3e c4f4 f43e
00000090: a7fc 7abe 42e9 153f 89ae 383e 80d6 a7bc
000000a0: 666f 883e 69d2 80be b45a 4fbf 0a79 5abe
000000b0: 2533 98bd a4a3 8a3e a41e 81be 1fa4 083e
000000c0: 07cc a23e cf40 453e 24b0 cbbe 024d 6e3e
000000d0: 122e 493e 44c1 9a3e 8ef0 5bbf c6e5 d63e
000000e0: d2d6 57be bd13 dcbe 2099 6f3e dff4 e1bd
000000f0: a324 873e e578 2ebe dddc dabd fe56 e43e
00000100: fb66 4fbe 4341 aa3d 1198 8abe 92dd 98bd
00000110: d431 09be 9e26 bbbe 1084 c6be 7c68 56bf
00000120: b18b 8bbb f065 1dbf ce7d b4be 3be7 cb3e
00000130: 7756 a0bd 838e 9dbd b76c d7be 6e5a 10be
00000140: 62dd 0c3f 12c0 7cbe 8a19 db3e afe7 e6be
00000150: 5614 fb3e 609a b03e c90b 0abe 7e35 683c
00000160: 1944 473d 320b 28be e5b5 6e3e 6045 553d
00000170: e833 cabe d80b 76be 506a e9be 0c77 1abf
00000180: 9331 5c3e 55a7 423f 1c46 823e 3ab6 89be
00000190: 9089 29bc 9677 0f3e 2259 c73e 66b8 a9be
000001a0: 4b0e cd3d bfb0 bebe d606 9a3e dabe f43d
000001b0: 019f 4a3b 465f 14bf fb3d 043f 6ebb a23e
000001c0: 113e ffbd eb52 43bf dc14 f73c 2758 89be
000001d0: e413 003c 80fc f93e bb6f 7f3c c6e2 75be
000001e0: 33b6 26bf a235 34be 0bc2 d3be ea22 39bd
000001f0: e9d5 36bd 6904 87be d904 013f e048 903e
00000200: 6562 7cbf 956e 513e a8a4 c7bc 374d 28be
00000210: ba61 383e 32ad 4a3f 0058 473c aeb2 223e
00000220: ce18 893e d4fa de3b 775f 813d 52ff 9e3e
00000230: 5bd5 053e 3bfe 85bd a36a 8ebe 21ce 63bd
00000240: 6dcb 00be 8d13 813e 674f 3a3f eaa0 ecbe
00000250: 8b89 20bf 666a 40bd e9d6 35bf c6d4 163d
00000260: bc48 22be 1cf3 6a3e 2ebc a9bd 8b10 17be
00000270: a833 a63e a946 a93d ff6c 083e 51f3 4bbe
00000280: edf6 323c e7e1 fc3e fdde 53be ea7f b53c
00000290: a00a 9a3b d136 9a3e 3645 e63b af6c 09be
000002a0: 658b 34bf d5c8 40bd 7e5c 723e 1e89 cf3d
000002b0: 0c5f fdbe 9f33 4d3f 9eec 753e 5806 9cbe
000002c0: 3948 b63d 091e e4bd 41d2 8dbe ab2b 14bf
000002d0: 9257 5ebe 69e0 973d ef6e 9abe e66c 163d
000002e0: 56ea 293f b593 0e3e f9f2 2fbd aa07 a53c
000002f0: fd0b 3fbf c741 933e d987 343e 20e0 093f
00000300: 6854 f8be f539 193e 9e26 db3e 2351 253e
00000310: 4ed4 4a3f d6a3 aebe d886 84be 03c3 f8bd
00000320: 1614 853d 7320 2ebe cecc 1ebe 4a54 2fbf
00000330: bd4f a9be f304 b73d 3094 593e 9859 0b3e
00000340: 52c0 18be 992a 5dbe 053d 033f 9807 bebc
00000350: c1b0 a3bd 8d8d bbbe 96a1 403e ad0e 283f
00000360: f02d bdbd 50ee 3abf dadb 923d c51c 153f
00000370: 3e47 f4bd 3acb a03e 0bbe fc3b a085 7e3e
00000380: 198d 40be 1a77 a6bd 3771 8e3e 612f 403f
00000390: 79b2 cabe aaf9 4a3d 54cc 7bbe ae54 22bd
000003a0: 67c4 0abe ce64 8c3e 65e9 903e f3a1 613e
000003b0: c140 3fbf 747b 0ebf 5154 5dbd 927c 583d
000003c0: f2c8 4ebe 06df e4bd 7ead 14bd 4802 5bbe
000003d0: c805 01bf b8e7 e63c 0e3b b53e 7925 9abd
000003e0: 12df 5fbe 8f25 b4be 1c38 f63e 50fd 4ebf
000003f0: 9ad3 ccbd 74ab 273c d723 1fbf a264 7c3e
0.030088972 0.43058646 -0.019430572 -0.3674317 0.21834016 -0.24585648 0.15060708 0.27875388
-0.57750726 0.4716115 -0.5044981 0.16676934 -0.2155576 -0.27374747 -0.56173325 0.441126
-0.15369311 0.2001738 -0.45224997 -0.1290348 -0.2780966 -0.1251612 0.049641505 0.6144929
0.030022407 -0.34567767 -0.43036744 -0.31199896 -0.3134515 -0.4480732 0.2920361 -0.6743887
0.37330028 0.24374047 0.37450913 0.4784299 -0.24510442 0.5855905 0.1803533 -0.020488024
0.2664749 -0.2516053 -0.80997777 -0.21335235 -0.0743163 0.27077973 -0.2521869 0.13343857
0.31796286 0.19263004 -0.39782822 0.23271564 0.1964648 0.30225575 -0.8591393 0.41972178
-0.21078041 -0.4298381 0.23398256 -0.110330336 0.2639514 -0.17038305 -0.106866576 0.4459762
-0.20254128 0.08313229 -0.27069142 -0.07464136 -0.13397914 -0.365529 -0.3877263 -0.8375318
-0.004258596 -0.6148367 -0.3525223 0.39824852 -0.07828992 -0.076931976 -0.4207513 -0.14096996
0.55025303 -0.24682644 0.42792922 -0.45098636 0.49038953 0.3449278 -0.13481058 0.01417291
0.048648927 -0.1641052 0.23311575 0.052068114 -0.39492726 -0.24027956 -0.45588923 -0.603379
0.21503286 0.7603658 0.25444114 -0.2689684 -0.010347739 0.14010462 0.3893519 -0.33148497
0.10012492 -0.37244222 0.3008334 0.119504645 0.0030917528 -0.57957876 0.51657075 0.31783623
-0.1246301 -0.762984 0.030161314 -0.26825067 0.007817242 0.48825455 0.015590603 -0.24012288
-0.65121764 -0.17598584 -0.4135898 -0.045199312 -0.044637594 -0.26370552 0.5039802 0.281806
-0.9858764 0.2045234 -0.024370506 -0.16435705 0.1800603 0.79170525 0.012166977 0.15888473
0.26776737 0.0068048034 0.063170366 0.3105417 0.1306967 -0.06542631 -0.27815732 -0.0556165
-0.12577601 0.2521023 0.7277741 -0.46216518 -0.62709874 -0.04697647 -0.7103105 0.03682401
-0.15848058 0.22944301 -0.082878456 -0.14752404 0.32461286 0.082654305 0.13322829 -0.19917037
0.0109231295 0.493911 -0.20690532 0.02215572 0.0047009736 0.30119947 0.0070272936 -0.13420366
-0.705252 -0.04706653 0.23668095 0.10133575 -0.49486578 0.8015689 0.24016044 -0.3047359
0.08900494 -0.11138541 -0.27699474 -0.5787913 -0.21713093 0.0741585 -0.3016276 0.036724947
0.66373193 0.13923533 -0.042956326 0.020145256 -0.7462767 0.28761122 0.17629947 0.5385761
-0.48501897 0.14963515 0.428029 0.16144232 0.792302 -0.34109372 -0.25884128 -0.121465705
0.06497972 -0.17004566 -0.15507814 -0.6848799 -0.33068648 0.08936491 0.21247935 0.13608396
-0.14917114 -0.21598281 0.51264983 -0.02319698 -0.079926975 -0.36631432 0.1881164 0.65647393
-0.092372775 -0.73019886 0.071708396 0.58247024 -0.11927651 0.3140505 0.0077130846 0.24855661
-0.18803824 -0.081281856 0.2782075 0.75072294 -0.3958929 0.049554504 -0.24589664 -0.039631538
-0.13551484 0.27420658 0.28303066 0.22034435 -0.7470818 -0.55657125 -0.05403549 0.052853175
-0.20193842 -0.11175351 -0.036298268 -0.21387589 -0.50399446 0.028186664 0.35396618 -0.075266786
-0.21862438 -0.35184905 0.48089683 -0.80855274 -0.10001297 0.010233749 -0.6216406 0.24647763

gnn_base.gnn.embed_layer.lin_h.0.bias f4 [16]
00000000: 0000 0000 0000 0000 0000 0000 0000 0000
00000010: 0000 0000 0000 0000 0000 0000 0000 0000
00000020: 0000 0000 0000 0000 0000 0000 0000 0000
00000030: 0000 0000 0000 0000 0000 0000 0000 0000
0.0 0.0 0.0 0.0 0.0 0.0 0.0 0.0
0.0 0.0 0.0 0.0 0.0 0.0 0.0 0.0

gnn_base.gnn.embed_layer.lin_h.2.weight f4 [16]
00000000: 984e 7f3f 8a3f 7e3f 6694 7f3f 397f 803f
00000010: 3750 7f3f f911 803f 53a5 7f3f f745 803f
00000020: 9c9e 7e3f 193a 803f b2c1 7e3f 2cea 803f
00000030: 698a 803f 8f2c 7f3f 610c 7f3f 1675 803f
0.997293 0.993157 0.99835813 1.0038825 0.99731773 1.0005485 0.9986164 1.0021352
0.9946077 1.001773 0.99514306 1.0071464 1.004224 0.99677366 0.99628264 1.0035732

gnn_base.gnn.embed_layer.lin_h.2.bias f4 [16]
00000000: b686 34bb e747 9cbb 4347 a03a 582c 9fbb
00000010: 5a35 073c 0fe7 f3ba a4b5 b4ba 677c 4e3b
00000020: d377 b8bb 0de3 5b3b 6559 02bc bfc1 ad3b
00000030: dc8e 84ba 2a4d e539 1551 0bbb 2971 96bb
-0.0027546114 -0.0047693136 0.0012228269 -0.004857581 0.008252466 -0.001860829 -0.0013787043 0.0031507255
-0.0056295185 0.003355208 -0.007955884 0.0053026373 -0.0010113376 0.00043735775 -0.0021258045 -0.0045911265

gnn_base.gnn.embed_layer.lin2.0.0.weight f4 [16, 16]
00000000: 0e96 173c c7fc dd3e a17b 82bc 762f c6be
00000010: 293b 4c3e f5d8 6dbe d625 213e 0f8c 873e
00000020: 7bf7 16bf aa92 f83e 88aa 03bf 6d85 383e
00000030: cb44 66be fdba 94be 0de3 10bf cf4a d73e
00000040: 9595 19be d851 473e e2d6 e5be 6555 02be
00000050: 6665 8dbe a86d 02be c2fd 483d 480b 1f3f
00000060: 3a1b 0b3d 8a93 afbe 7936 e0be d5fc a1be
00000070: 31aa a0be 3d08 e4be 2745 933e 5fc0 2bbf
00000080: f10f c23e ad54 813e bba9 c23e 3dcd f93e
00000090: c45a 72be f47c 133f 2cf4 373e aecf cebc
000000a0: 1153 873e eb21 7cbe 838b 4cbf a6ca 5bbe
000000b0: 9716 a8bd 20a2 8e3e 4136 7ebe fe2f 153e
000000c0: cf47 a43e c68c 463e 7b83 cabe 9da2 6f3e
000000d0: d127 4a3e f14c 973e cf54 5bbf b06d d73e
000000e0: 3a37 58be 3ce2 dabe 1078 6e3e 928b e5bd
000000f0: df74 863e 1666 2dbe c15d ecbd 3db3 e53e
00000100: ee9a 50be a64e aa3d 416e 8abe d32a 99bd
00000110: ad5c 09be c19e b7be f42b c6be 79fb 56bf
00000120: 8281 c2bb ea00 1dbf de94 b5be d09a cc3e
00000130: 3679 a0bd 8e5b a0bd b1ae d9be 9f27 11be
00000140: 4b73 0a3f 5d1f 81be 8566 d93e 1551 e9be
00000150: fadc fc3e 7cb8 b23e a633 0dbe 90a3 c53b
00000160: 57b0 643d b3dd 29be ef11 793e 570d 343d
00000170: 2e83 c9be f24a 78be 840d e8be fd37 1cbf
00000180: ea19 633e 12f8 423f 6b89 803e 36ec 87be
00000190: d1c6 0cbb b5d4 083e 1aac c23e cd85 a5be
000001a0: 4a6e da3d 656c c1be 232b 9d3e 8d93 e63d
000001b0: 5246 e13b e0d5 11bf a161 043f dc26 a63e
000001c0: 0639 01be 78ea 42bf ff2f d43c a0ef 8abe
000001d0: 8b25 a03b ce3d fb3e c0d3 4b3c 84ed 75be
000001e0: 3de7 26bf 8bc1 3cbe b882 d4be b904 2bbd
000001f0: 3ab3 22bd 53c0 88be d7a6 013f a216 8f3e
00000200: 1e86 7cbf d692 583e 2646 f7bc 803e 2abe
00000210: 13f9 353e 1fe3 4c3f 3cc9 043c e50e 2d3e
00000220: d962 853e 02cd 16bb 4ced 723d 6149 a23e
00000230: fadb 0c3e 382f 88bd db44 8abe e652 6fbd
00000240: 77d4 f4bd c5ba 7f3e 8822 3a3f ca2f edbe
00000250: 1dda 20bf b2e3 52bd 2c56 36bf 0a01 173d
00000260: 8403 1fbe 00ad 6b3e d611 a1bd 7506 19be
00000270: 7999 a63e 5fa6 a63d 0dc3 063e de0e 4dbe
00000280: 60a3 383c 6354 fa3e 4cd1 50be 9f83 af3c
00000290: cf6d 16ba 01cc 993e 38da 0c3c ae90 07be
000002a0: 4842 34bf ffa9 02bd 5a33 6c3e 4db5 cf3d
000002b0: bfe3 fcbe e738 4c3f 8a6c 6e3e ffaa 9bbe
000002c0: 874f ae3d e69e d2bd 3f36 8ebe d90d 14bf
000002d0: 6f81 5dbe 2ee0 a03d 8131 9abe 077a 063d
000002e0: 4a04 283f 1ba2 033e fd11 34bd dc38 ae3c
000002f0: 76b1 40bf 507c 993e 6045 3b3e 3e2b 093f
00000300: e478 fabe 5e69 143e 30dd e13e 0e67 213e
00000310: 4cfc 483f 8eb1 b0be 9c62 7dbe 301a fbbd
00000320: a332 8e3d 4e7a 20be 0d58 27be 6156 33bf
00000330: 6ac4 abbe 955a 9d3d 61e0 523e f408 0a3e
00000340: 3a1d 16be 306b 60be 7ec8 013f a2c2 e0bc
00000350: f6cd abbd 12c9 bdbe 671b 3a3e 354a 293f
00000360: 325e b2bd dad3 3bbf 7328 9b3d f425 163f
00000370: acb7 eabd 1fb5 a33e 38d6 1d3c 8b44 7f3e
00000380: f3ff 3cbe 6d61 9bbd d15c 8b3e a9ca 413f
00000390: e31d c3be 1960 423d e901 7dbe 233d 12bd
000003a0: 66bf 0bbe 9805 873e aad7 923e 4c72 5d3e
000003b0: e13e 3fbf 2158 0cbf 6916 43bd 9936 673d
000003c0: 1403 48be 69d7 d9bd 6c6e 0bbd 5cc2 54be
000003d0: c032 febe fa08 113d 4759 b73e 2ce2 a2bd
000003e0: 9230 68be bf9c b6be e4bc f23e 6853 4ebf
000003f0: 33c5 d5bd 7da4 673c cbef 1cbf 4748 823e
0.009252084 0.43356916 -0.015928091 -0.38708085 0.19944443 -0.23227294 0.1573709 0.26474044
-0.58971375 0.48549396 -0.51432085 0.18019648 -0.2248718 -0.2904891 -0.5659645 0.42049262
-0.14998467 0.19464815 -0.44890505 -0.12727888 -0.27616423 -0.12737143 0.049070127 0.6212659
0.033961512 -0.3429225 -0.4379156 -0.31638208 -0.31379846 -0.44537535 0.28763697 -0.6709041
0.37902787 0.25259915 0.3802012 0.48789397 -0.23667437 0.5761254 0.17964238 -0.025245514
0.26430562 -0.24622314 -0.7990038 -0.21464023 -0.08207434 0.27858067 -0.24825384 0.14569089
0.32086036 0.19389638 -0.39553437 0.23401876 0.19741751 0.2955089 -0.8567628 0.42075872
-0.21114817 -0.42750728 0.23287988 -0.112082615 0.2626104 -0.16933474 -0.1154132 0.4486331
-0.20371601 0.08315782 -0.27037242 -0.07478871 -0.13414259 -0.35863307 -0.3870541 -0.83977467
-0.0059358487 -0.6132952 -0.3546514 0.39961863 -0.07835619 -0.07829963 -0.4251609 -0.1417527
0.54082173 -0.2521924 0.4246103 -0.45569673 0.49387342 0.34906375 -0.13789234 0.006031461
0.055832233 -0.16588478 0.24323247 0.043958034 -0.39357895 -0.2424734 -0.45322812 -0.6102293
0.22177854 0.76159775 0.25104842 -0.26547402 -0.0021480809 0.13362391 0.38021928 -0.32328644
0.10665567 -0.3777801 0.30696973 0.11258612 0.006874838 -0.5696697 0.5171147 0.32451522
-0.12619409 -0.7613902 0.025901793 -0.27135944 0.004887288 0.4907059 0.012440622 -0.24016386
-0.6519659 -0.18433206 -0.4150598 -0.04175255 -0.039721705 -0.26709232 0.506452 0.27946955
-0.98642147 0.21149763 -0.030184817 -0.16625404 0.17770796 0.8003406 0.008104619 0.16900213
0.26051977 -0.0023010378 0.059308335 0.3169661 0.1375579 -0.06649631 -0.27005658 -0.058428667
-0.11954587 0.2497359 0.7270894 -0.46325523 -0.62832814 -0.05148668 -0.7122524 0.036866225
-0.15528685 0.23015213 -0.0786473 -0.1494387 0.32538965 0.081372015 0.13160343 -0.20025203
0.01126942 0.48892507 -0.2039234 0.021425067 -0.00057384087 0.30038455 0.008596949 -0.13238785
-0.7041364 -0.031900402 0.23066464 0.10142002 -0.49392506 0.79774326 0.23283592 -0.30403897
0.085112624 -0.10284214 -0.2777576 -0.5783363 -0.21631406 0.07855259 -0.30115893 0.032831218
0.65631545 0.12854807 -0.043962467 0.021267347 -0.75270784 0.29977655 0.18288183 0.5358161
-0.48920357 0.1449332 0.44114065 0.15761968 0.78509974 -0.34510463 -0.24744648 -0.12260854
0.06943252 -0.15671656 -0.16342182 -0.7005368 -0.3354829 0.07683293 0.20593406 0.13479978
-0.14659587 -0.21915889 0.5069655 -0.027436558 -0.08388893 -0.37067467 0.18174516 0.66128856
-0.087093726 -0.73370135 0.075760745 0.5865166 -0.11460814 0.31974122 0.009633593 0.24928491
-0.18457012 -0.07586942 0.2721925 0.7569986 -0.3810874 0.047454927 -0.2470776 -0.035702836
-0.13647231 0.26371455 0.28680164 0.21625632 -0.7470532 -0.54821974 -0.047628794 0.056448553
-0.19532424 -0.10636789 -0.034040853 -0.20777267 -0.49648094 0.03540895 0.358103 -0.07953295
-0.22674778 -0.35666463 0.47409737 -0.8059602 -0.104380034 0.014138338 -0.61303395 0.25445768

gnn_base.gnn.embed_layer.lin2.0.0.bias f4 [16]
00000000: c87d ae3c 89e0 4abb 340a 37bc dd1b 18bb
00000010: e286 af38 31c6 d13b e7c7 f2bb b6f5 633b
00000020: 2717 343b f351 753a 7297 35b9 bc73 d6b9
00000030: 570d 6a3b 96eb 8a3b 45bd 98bb 33e9 d4bb
0.021300212 -0.0030956587 -0.011171866 -0.0023209967 8.369774e-05 0.0064018 -0.007409084 0.0034783906
0.002747962 0.00093582197 -0.00017317923 -0.0004090349 0.0035713518 0.00423951 -0.0046612346 -0.006497526

gnn_base.gnn.embed_layer.lin2.0.2.weight f4 [16]
00000000: a3b6 7e3f b21e 7d3f 8738 803f ba76 7f3f
00000010: 23ea 7f3f b619 7f3f eb25 823f b516 803f
00000020: 87b4 803f 0005 803f 9313 7d3f 84e1 7e3f
00000030: 51fa 7e3f 5225 803f e730 7f3f 866e 7f3f
0.9949743 0.9887496 1.0017251 0.9979054 0.9996664 0.99648607 1.0167822 1.000693
1.0055093 1.0001526 0.9885799 0.9956286 0.996007 1.0011389 0.99683994 0.9977802

gnn_base.gnn.embed_layer.lin2.0.2.bias f4 [16]
00000000: 269e 4e3c dc7c 243b 1048 c4bb 12d1 87ba
00000010: 9cfe 043b ca0b 8f3b 925b debb 636f 813b
00000020: 4457 b13b 5926 1b3b 9322 883b 0c05 333b
00000030: 9e9f de3b d488 343b f09e e23a 5401 dabb
0.012610948 0.0025098836 -0.005990036 -0.001036199 0.002029336 0.004365419 -0.0067858184 0.003950046
0.005412014 0.002367398 0.004154512 0.002731624 0.00679393 0.0027547376 0.0017289799 -0.0066529904

gnn_base.gnn.gnn1.lin_key.weight f4 [48, 16]
00000000: ec5c 17bd 807d 1f3e 42bd ebbd f18a 07be
00000010: 30c6 abbd f8bc 35be 346b 4ebe d775 a43d
00000020: 1bff 55be fcba 75be 348a 233d db66 13be
00000030: 5c24 b6bd 03df 713e 1ca6 cebd 72ed 28bd
00000040: 60e3 e4bc 97c6 63bd 4629 f13b 0d7c abbc
00000050: 049a 26be fb02 533e d304 7d3d b183 0e3e
00000060: b101 50be aed0 dc3d 54bf 54be 0d77 5c3e
00000070: 3c1f b4bd b935 19be 658b 58be ccc7 6ebe
00000080: d25c 68bd d74e 413e f0bb 363e 8bda 093d
00000090: a690 d1bd 5df1 80be 0ca8 133e 0416 5e3e
000000a0: b57d 163e 5f2c d3bd 7baf e23d 3c3d 113e
000000b0: a061 393d 3daf 19be c491 6f3d de48 e03d
000000c0: a9de 43be 6886 ca3d 6ed0 66be ebee 153e
000000d0: 1db3 323e 8507 68bc 591d 763e e502 c33d
000000e0: 5c30 093e 2ba7 28be 1179 003d 9b7b 02be
000000f0: 4d07 453d e65a fdbd 9013 af3c d9b9 813d
00000100: cf60 ffbd 6383 aa3c 0d3c 32be 53c5 0e3d
00000110: 4aed a6bc c671 6abe 894c c33d f2a2 70be
00000120: 7298 65be 0aa3 1c3e 2c55 7cbd 93ba b63d
00000130: 366e 633d 89cd 52be c543 e3bd 300e 5f3e
00000140: eb75 4d3e 98c9 6cbd 311f 9a3c 6730 70be
00000150: f399 59be cd4e 213e 1c6e 773e 29ba 32be
00000160: 9941 9d3d 2310 b63d 156b 0a3d 96cb b63d
00000170: a7d0 19be 3ed2 46be 75cf 0ebe 73df 543e
00000180: df9e 823b 85e4 223e 1cd5 19be f009 98bd
00000190: e52e 30be 1d8f 593d 964e d33c da2f 4abc
000001a0: 9e0f 0d3c 5d0e 8abd f3f4 2d3e 754e c6bd
000001b0: 1cf9 b43d 0a23 133e 7344 edbd 3435 1c3e
000001c0: 55d3 263e 09e7 e13d 142a a1bd a429 e6bd
000001d0: 73d5 61be 7c58 fbbd effc 4b3d 99f8 e1bd
000001e0: 2252 dd3d 9a21 ebbd d329 ecbd 061a 73be
000001f0: ecc2 25be b16e 6fbe 86cf 2c3e 5e14 f03d
00000200: 2762 e4bd 9845 3abe 1cd9 3a3e aef0 d9bd
00000210: 8a13 4d3e 8e7f 5cbe 448b 40bd 65d4 053e
00000220: 03c0 3b3e 90e3 69be ac25 ec3d c49e 103b
00000230: 99aa df3d 7e06 073e baab 74be 6214 7c3e
00000240: 0002 dc3c f4a3 7f3d 5a03 f2bd 9036 773e
00000250: 00a2 f63c 3a31 593e eb0f c63d f90b 54be
00000260: 889b 813e c460 ef3d a723 083e 9e59 dbbd
00000270: ccac 9e3d a124 bf3d b5ff 48be 5a7a 213d
00000280: 73ef 05be b458 1e3e 1912 99bd a5b9 a03d
00000290: dbd2 42be e820 65be 09db 66be 950b e7bc
000002a0: e0ef 9f3d f5fd 6a3d db38 fc3b 6eff 7ebe
000002b0: 655a 43be f441 1e3e 4071 fcbd 7583 6f3d
000002c0: 8aa3 82bc e252 5fbd eb3b c8bd 38fd de3d
000002d0: 4005 53be 7fc6 3ebe abd3 113e a218 28be
000002e0: 9e1c 1abc cd63 41be aae2 993d ce92 00bd
000002f0: 87e0 cc3d dc61 56be fe7c 02be 930e 6fbd
00000300: 7673 c5bd 44b4 c7bc 461f 2abc 29f4 0ebe
00000310: 7056 b53b e3e1 4fbe 7319 b4bc 0514 65be
00000320: e2fe f63d 810b 5f3e 9118 6b3e 4387 1c3e
00000330: 7cfc 5dbe 9bce 623e cc30 5abe 46e7 33be
00000340: 985d 62bd 21bc d43d 1dd2 6e3e 3ddc 2b3e
00000350: 0601 363e b3d6 08be 76dd 37be 5a97 ccbd
00000360: d691 a5bd 8283 303e 4b7c 5dbe c75e aabd
00000370: c4d7 913c 4e02 663e 1b7a 99bd ea5b 653e
00000380: 8093 03be 9e9f 463e 98c2 64be 5edc e83c
00000390: 9201 603e 0cee 0c3c d5c4 5e3e 1021 973c
000003a0: fdc5 13be cf9f efbd bebd c8bd cd1d 6dbe
000003b0: 4444 0abe c544 a2bd 0bda 82be b34d f73c
000003c0: 3047 92bd 4242 b83d 083b 6c3e fd3d 823d
000003d0: 9203 40bb 920e 00bc da39 f5bd 71b4 acbc
000003e0: df0c bdbc f9d3 3b3c ba07 6e3d 3b70 28be
000003f0: 8aa2 1ebd aa32 4dbe a856 0ebd f1bd 3fbe
-0.03695385 0.15575218 -0.115107074 -0.13236596 -0.08387411 -0.17747867 -0.20158082 0.08030289
-0.20898096 -0.2399711 0.039926723 -0.14394705 -0.08893654 0.23620228 -0.100902766 -0.04124207
-0.027940452 -0.055609312 0.0073596565 -0.020933175 -0.1626969 0.20606606 0.06177218 0.13917424
-0.20313145 0.1078199 -0.20776111 0.2152979 -0.0879502 -0.149619 -0.21146925 -0.23318404
-0.056729145 0.18877731 0.1784513 0.033655684 -0.102326676 -0.25184146 0.14419574 0.21688086
0.14696391 -0.103111975 0.110686265 0.14183515 0.045259118 -0.15008254 0.058488622 0.10951398
-0.19127907 0.09888917 -0.22540447 0.14641921 0.17451139 -0.014161949 0.24034633 0.095220365
0.13397354 -0.1647002 0.031365458 -0.12742464 0.048102666 -0.12370853 0.021371633 0.06334276
-0.12469637 0.020814603 -0.1740572 0.03485615 -0.02037682 -0.22894964 0.09536082 -0.23499659
-0.22421435 0.1529657 -0.061604664 0.08922305 0.055525027 -0.20586218 -0.110969104 0.21782756
0.20064513 -0.057809442 0.018813701 -0.23455964 -0.21250133 0.15752716 0.24163097 -0.17453827
0.076785274 0.088897966 0.033793528 0.0892555 -0.15021001 -0.19416139 -0.13946326 0.20788364
0.003986224 0.15907486 -0.15022701 -0.074237704 -0.17205389 0.053115 0.025794309 -0.01234051
0.00860968 -0.06741021 0.16987972 -0.09682933 0.08836576 0.14368835 -0.11585321 0.1525467
0.16291554 0.110303946 -0.07869354 -0.11238411 -0.2205408 -0.122727364 0.049801763 -0.11033744
0.10806681 -0.11481018 -0.11531415 -0.23740396 -0.16187638 -0.23382069 0.16876039 0.11722635
-0.111515336 -0.1819061 0.18246883 -0.10641609 0.20026985 -0.21533033 -0.047007814 0.13069303
0.18334965 -0.22840714 0.11530623 0.0022067288 0.10921211 0.1318607 -0.23893633 0.2461715
0.026856422 0.062412217 -0.118170455 0.24141908 0.030106544 0.21210185 0.09671005 -0.20707692
0.25313973 0.116883785 0.1329485 -0.107104525 0.07747802 0.09333158 -0.19628794 0.039423324
-0.13079624 0.15463525 -0.07474155 0.07847909 -0.19025747 -0.22375834 -0.22544493 -0.028203765
0.078094244 0.0573711 0.0076972074 -0.24902126 -0.19077452 0.15454847 -0.12326288 0.058474977
-0.015947122 -0.054522403 -0.097770534 0.108881414 -0.20607471 -0.18630408 0.14240901 -0.16415647
-0.009406237 -0.18885727 0.07513936 -0.031390004 0.10003763 -0.20935768 -0.12742993 -0.05836351
-0.09641163 -0.02437795 -0.010383433 -0.13960327 0.005533986 -0.20301013 -0.021984791 -0.22370918
0.12060334 0.21781732 0.2295859 0.15285973 -0.21678346 0.22149126 -0.21307677 -0.17568693
-0.05526504 0.10387445 0.2332234 0.16783233 0.17773828 -0.13363151 -0.17955574 -0.099898055
-0.080844566 0.17237666 -0.21629445 -0.083188586 0.01780308 0.22461817 -0.07493993 0.22398344
-0.12849236 0.19396827 -0.22339857 0.028425392 0.21875599 0.008601677 0.21754773 0.018448383
-0.14430995 -0.11700403 -0.098018155 -0.231559 -0.13502604 -0.07923273 -0.2555698 0.030188417
-0.07142484 0.08997013 0.23069394 0.063594796 -0.0029299003 -0.007815974 -0.11973925 -0.021082135
-0.023077426 0.011464112 0.058112837 -0.16449063 -0.038729228 -0.20038858 -0.03475061 -0.187248

gnn_base.gnn.gnn1.lin_key.bias f4 [48]
00000000: be15 273e 048c a13d d8db 373d 344d f2bd
00000010: c4d6 9fbd 1075 d93c b8dd 01bd 5665 1d3e
00000020: dc42 073e c03e 733e 648c b03d 50a2 24be
00000030: a0d4 5f3e 4e46 973c 54ba 68be 3410 313e
00000040: a80c 23be 0890 2a3e 9050 193d 7ad1 29be
00000050: e0dc 263e b8a0 21bd e63c 3fbe b285 1e3e
00000060: f80c 1bbe bf36 923d 5060 0b3e 25c6 ce3d
00000070: 99de 8c3d e034 f23d 0422 49be c889 f9bd
00000080: 2a55 023e c2d5 3f3e 5fda 3e3d 978c f93c
00000090: dcd6 4abe 7044 47bd acf6 00be 3abf 793e
000000a0: d883 7d3e 0247 3b3d bc14 4c3e 3f83 9f3c
000000b0: 9c2d 93bd fa0c 39be a896 583e 0c50 923d
0.16316888 0.07888034 0.044887394 -0.118311316 -0.07804635 0.026545078 -0.031705588 0.15370688
0.13209099 0.23754406 0.086205274 -0.16077542 0.21858454 0.018466141 -0.22727329 0.17291337
-0.15922797 0.16656506 0.037430346 -0.16583815 0.16295195 -0.039459914 -0.18675575 0.15480688
-0.15141666 0.07139348 0.13610959 0.10096387 0.06878395 0.11826491 -0.19641882 -0.12184483
0.127278 0.18733886 0.046594974 0.030462546 -0.19808525 -0.04864925 -0.12594098 0.24389353
0.24757326 0.045722015 0.19929785 0.019471763 -0.07186434 -0.18071356 0.21151221 0.07144174

gnn_base.gnn.gnn1.lin_query.weight f4 [48, 16]
00000000: 1c77 32bd 3021 29be d3b8 353e 63aa e73d
00000010: 1068 0fbe d8c3 6c3e 1181 3abe 0c5c 1ebd
00000020: a7cf 8e3c d884 583e 6163 4d3d 8f13 363e
00000030: b7fc 28be 246f 053e ea57 503e e503 1bbe
00000040: d4cc 72bd d63d d03d 16f5 7f3d 09d5 273d
00000050: 30e4 3dbd eeb9 60bd 72fd 293e 783d 73bd
00000060: cc8e 6e3d bee1 28be d769 3fbe 1816 4bbe
00000070: 399f 743e ad71 c4bd 44f4 0fbe 0cd3 323d
00000080: 5daf 573e f7c6 d53c f210 bc3d cc1a 943d
00000090: ffe3 513e d0c2 c13d 7ff5 48be e103 8f3b
000000a0: ecd1 593e ab5f 6dbe a3b8 94bd 5835 75be
000000b0: 498b 63be 5150 ce3d f006 5c3e 674b 613e
000000c0: 33ae c0bd cf61 3d3e 7d36 40be 133a 5abe
000000d0: 8bef 483e 3c0d db3d 3713 093d 4bb8 49be
000000e0: abe2 babb b714 593e 3f0a d7bd d4c7 233e
000000f0: 1c5f f7bd e9a9 5fbe 1b5f 603e bc79 74be
00000100: fa1e e5bd b2bf 01bd 5301 493e 59ad 1fbb
00000110: e15c 69bd 6f56 193e f629 4ebd bbe6 3a3e
00000120: 9a1d 633e c000 c53d fa25 d03c ffdb 433e
00000130: 32f2 72be a525 80be 046f 883d e41b 22be
00000140: c49f 59be 463c 8dbd 44aa 22be 56c8 2b3d
00000150: 1d7e 12be 4b57 1b3b 730d 053e 16de 06be
00000160: d224 523e 8292 c9bd 67b1 443e 8795 11be
00000170: a190 2bbe cdbd e23d 3557 743e 7cf3 06be
00000180: d1fc 69be 277f 0abe 844a 123e 2616 4abe
00000190: d6db 90bd 223a 60be ac7a 48bc 71cb 333e
000001a0: 5b95 ea3b 2204 19bc 86ac ffbc 9a6f 6a3e
000001b0: 840c 393d b542 9c3c f220 373d 8bfd 983c
000001c0: a4e6 413e 604a 3d3e 86ca 893d 2ff8 043e
000001d0: 2096 50be 7cf3 50be 9e8f 23b8 a6f6 9d3d
000001e0: 4759 513d 7317 033e c3a2 633e c106 6fbe
000001f0: d1cc 7ebe bf3f 2b3c 5d08 22be bdb6 ba3d
00000200: a98b 613d 9875 433c 770b f13c 8759 a63c
00000210: 1c45 6dbe 7ce6 f63d 8ada b23d 3428 713e
00000220: ddb9 433d 090e c93c 0897 633c 0092 25bd
00000230: a80a b43d 5ef2 2d3d b0b7 733e 8f48 07be
00000240: 8bc6 13be 59e0 553e 217f 013e 0217 053d
00000250: 598d 5c3e 3d2e 1ebc 8138 aa3d 67ec 5e3d
00000260: 0e3a 5a3c 67f7 253e afe6 0abe 5789 adbd
00000270: 6846 3c3e 112f 0e3e 82a1 bf3d 13ac f23d
00000280: a5ef 243e 8afa 26bc 0da8 793e ca15 853d
00000290: 9203 52bd 5d6f e93d 7b82 b13d 9558 3bbe
000002a0: 7862 6b3c bad0 813d 49a2 343e d5a6 54be
000002b0: fb7a 3ebe 788c 47be cd94 0c3e 7180 793a
000002c0: a6a0 71be 0289 33be 56e2 573e 428e 003e
000002d0: 4983 413e 24f1 7fbe fca1 c9bd 731a 8b3d
000002e0: 3a96 f03d ab14 5a3e 9cb6 6bbe 2522 083e
000002f0: 9409 253d 9d26 803e d1cd 5cbe 2834 f73b
00000300: d3bd 79be bc1d 98bd 18ca 013e 1e9a 2c3e
00000310: a288 67be d6aa 973c f3e9 583e 9da5 3cbd
00000320: d6b0 11bd ed56 1f3d 777a 20bc 40f1 5ebc
00000330: c143 613e 2d9f c2bd 91c4 69be f5a7 4e3e
00000340: b933 b6bd 2a27 d3bd a315 acbd 298a 193e
00000350: 98d1 2c3c 59d6 123e 86f6 27be f628 cdbd
00000360: e0e6 33be eead 393e 437b 6cbe ce1c 6cbe
00000370: 3a3e 193e 3efa 12be e43e 5b3e fcc5 43be
00000380: 84a3 17bc d064 d03d 2b68 193e 7218 c5bd
00000390: 45ba 74bd 2cf4 b43d 3e65 01be d439 13be
000003a0: f551 103e 498f 8e3d 8662 60be 68af 35bc
000003b0: 0861 bc3d 2768 79be 1765 ecbd 5b55 69be
000003c0: dd2c 80be dac4 e0bd a7c1 603e 9df5 073b
000003d0: 8dca 53bc da3c 333d 4ed8 4f3d b0f7 a4bb
000003e0: d9ce dc3d 14aa 8ebd 859d 803e cab4 7f3c
000003f0: fa93 bcbd 4507 95bc 29bc 163e 3dc5 2bbe
-0.043570623 -0.16516566 0.17746286 0.113117956 -0.1400454 0.23121583 -0.18213297 -0.038662
0.017433 0.21144426 0.050143603 0.17780899 -0.16502653 0.13030678 0.20346037 -0.15138204
-0.05927737 0.10168044 0.06248959 0.04097465 -0.046360195 -0.054864816 0.16600588 -0.059384793
0.05824165 -0.16492364 -0.18692718 -0.19832647 0.23888864 -0.095919944 -0.14058024 0.0436583
0.2106299 0.02609585 0.091829196 0.072316736 0.2049713 0.09460986 -0.196249 0.004364476
0.21271485 -0.23181026 -0.07261779 -0.2394613 -0.22221102 0.10073913 0.21487021 0.2200142
-0.09408226 0.18494342 -0.18770786 -0.21311216 0.19622628 0.10695884 0.03346559 -0.19699208
-0.0057032905 0.21199308 -0.10500001 0.15994197 -0.120786875 -0.2184216 0.2191128 -0.23874563
-0.11187549 -0.031676956 0.19629411 -0.0024364798 -0.05697334 0.14974378 -0.050332986 0.18252079
0.22179261 0.09619284 0.025408734 0.1912689 -0.23725203 -0.2502872 0.066617996 -0.15830952
-0.21252352 -0.06896262 -0.15885264 0.041939102 -0.14305921 0.0023703154 0.12993412 -0.13170657
0.20521858 -0.09842397 0.19208299 -0.14217196 -0.1675439 0.11071358 0.23861392 -0.1317882
-0.22850348 -0.13525067 0.14286238 -0.19735011 -0.070731804 -0.21897176 -0.0122362785 0.17558075
0.007158918 -0.009339364 -0.031210195 0.22894135 0.04517795 0.019074777 0.044709153 0.018675586
0.18935639 0.18485403 0.067280814 0.129853 -0.20369768 -0.20405382 -3.8995982e-05 0.0771306
0.051110532 0.12801914 0.22230057 -0.2334242 -0.24882819 0.01045221 -0.15823503 0.09116886
0.05506483 0.011929892 0.029424412 0.020306362 -0.23170894 0.1205568 0.08733089 0.23550493
0.047784675 0.024542825 0.013890989 -0.04042244 0.08791095 0.042467467 0.2380054 -0.13211273
-0.14431207 0.20886363 0.12646152 0.032492645 0.21538295 -0.009654579 0.083115585 0.05442467
0.013319505 0.16207658 -0.13564561 -0.08473461 0.18386233 0.13885142 0.09356977 0.11849227
0.16107042 -0.010191569 0.24380513 0.064982966 -0.051272936 0.11398194 0.08667465 -0.1829551
0.0143667385 0.063386396 0.17640032 -0.20766766 -0.18601601 -0.19487178 0.13728638 0.00095177355
-0.23596439 -0.17532733 0.21082434 0.12554267 0.18897738 -0.24994332 -0.09845349 0.06792154
0.117474034 0.21296947 -0.23018879 0.13294275 0.040292338 0.2502946 -0.21562888 0.0075440593
-0.24388818 -0.074275464 0.12674749 0.16855666 -0.22610715 0.018514078 0.21182995 -0.04605638
-0.035569035 0.03890126 -0.009794823 -0.013607323 0.21998502 -0.095030166 -0.2282889 0.20181258
-0.08896584 -0.10310204 -0.084025644 0.1499411 0.010548018 0.1433958 -0.16402635 -0.10017578
-0.1756854 0.18132755 -0.23093896 -0.23057863 0.14965144 -0.14353272 0.2141071 -0.19118494
-0.009255294 0.101754785 0.14981143 -0.09623803 -0.059747953 0.088356346 -0.12636277 -0.14377528
0.14093764 0.06960923 -0.21912584 -0.011089183 0.09198195 -0.24356137 -0.11542719 -0.22786467
-0.25034228 -0.109750465 0.21948873 0.0020745762 -0.01292671 0.043759204 0.050743394 -0.0050344095
0.107816406 -0.069660336 0.25120178 0.015607068 -0.09207912 -0.018191943 0.14720215 -0.16774459

gnn_base.gnn.gnn1.lin_query.bias f4 [48]
00000000: 16bd 283e 5f4e 19be 8049 36be 94ff 10be
00000010: 0d1b 113e 8426 48bd 9f8f 603e f72f 55be
00000020: 67b4 9f3d 7538 adbd 053f 263d 246e 243e
00000030: cd7d 073e 2c9b 71be 3569 09bd a9ee db3d
00000040: f39e 81be f4bd 37be fea4 80be 03a4 033d
00000050: 17c1 753d 757c cebd ac00 b33d eb18 f83c
00000060: 3fa1 da3d d289 553e d088 32be d709 4fbe
00000070: 140e 773e df0d f4bd 18f0 343e 687b a3bd
00000080: a3d4 52bd 3826 eabd 7bcb 943d fadb 84bc
00000090: 3a5a 4d3e e08b 7dbe 65fe 29bc 5b48 0b3d
000000a0: d14c ab3d 36a1 453e e7c3 bc3d 5650 5ebe
000000b0: e67a 153d 4271 c7bd 001d 1b3e 4751 d4bd
0.1647838 -0.14971302 -0.17801476 -0.14159995 0.14170475 -0.048864856 0.21929787 -0.20819078
0.07798081 -0.08458034 0.040587444 0.1605764 0.13231583 -0.2359435 -0.0335476 0.1073888
-0.2531658 -0.17943555 -0.2512588 0.032138836 0.059998598 -0.10082332 0.087403625 0.03028532
0.106752865 0.20853356 -0.17435002 -0.20218597 0.24126464 -0.11916708 0.17669713 -0.07982522
-0.051472317 -0.11433071 0.07265373 -0.016218174 0.2005395 -0.2476039 -0.010375594 0.03400455
0.08364261 0.19299778 0.09217053 -0.21710333 0.03649416 -0.09738399 0.15147781 -0.10367065

gnn_base.gnn.gnn1.lin_value.weight f4 [48, 16]
00000000: 330e 21bd 81e4 773d 88c4 293e 12a6 f8bd
00000010: beeb 3d3e c5bd 32be c526 76bd 315f 24be
00000020: 1e46 4f3d 4895 4fbe aada 7abb 8801 2fbe
00000030: a6ec 263e 9cf3 63be 16ae debd 6052 5bbe
00000040: df3b 1cbe ac8f d73c 6775 013e 6d16 f43d
00000050: 75ba 51be 646a 19bd 8272 5cbd 7e10 d13d
00000060: 0378 08bd 73a0 28bd 781b 23be d43d 2cbe
00000070: ec36 8ebb 42b8 fc3d 8902 fbbd 6562 543d
00000080: bc26 083e 7eef f3bd d64f 573e bf88 4b3e
00000090: 0086 033e 4d43 de3d 347b 60be c07d 153e
000000a0: b937 30bc da61 5a3e 98c0 4fbe c22d 953c
000000b0: 49a7 533e 5587 0c3d 5cab d83d 16b8 da3c
000000c0: d37f e9bd e5bf 083e e7f4 4f3e 22d1 063e
000000d0: 6462 32be 7c6e 27be c595 773e 1d79 04bd
000000e0: bfe3 c23d e9bb 7d3d 175b 29be b6c2 613e
000000f0: 2a0c 523d dcf6 e7bd f5d2 723e 0348 aa3d
00000100: 5e01 5b3d 8c95 21be 8e31 6c3e dcff fbbd
00000110: 5242 bdbd cd5f 75be 6e6d b13d 2530 09be
00000120: b4e6 72be b6fd 223e 20a9 5abe 1a2a 5cbd
00000130: 4686 a6bd f58b f23c 8744 e53c fb56 573e
00000140: 814a a53d e706 bfbd 35bd 23be d29b 89bd
00000150: 2b27 113e a4df 7abe 07c6 b83d 82ca a1bb
00000160: cdc0 d9bd ee8f 2f3e 2567 063e 8771 3f3c
00000170: 08ce 09be 2a14 2abe 4f53 81bd beee 14be
00000180: d93f 4bbd c453 c73d d7ca 8bbc ff74 1c3d
00000190: 5fd3 b3bd dc6d 89bd 1557 1e3e d6f2 fcbc
000001a0: 8fc7 313d a682 40be 96be 09be ddaa 3c3e
000001b0: b2b5 4a3b 88b5 823e d613 b9bd f410 fc3d
000001c0: 590f ee3d 74f2 57be 1027 0cbe cfc4 523e
000001d0: 4dc2 b6bd 1280 67be d97c 383e 50db 6f3e
000001e0: a5b8 203e 8de3 1d3e 2e95 adbd 6334 5c3e
000001f0: 9a14 d9bd 26ea d53d 817e 72be 4d92 633e
00000200: 8845 42be b221 58be fc2a e83d ff91 653e
00000210: d333 4cbe d610 793e 54ff 4c3d 7400 fd3d
00000220: c0c2 033d 0585 89be 9656 603e ad71 493e
00000230: 23d3 123e 6d9a 8f3c 1826 bd3d bb24 d93b
00000240: d808 9f3d 1dd9 01bd 7088 733e 1e77 afbd
00000250: 6241 29bd 943c 9a3d 42f3 5f3e fe0e 12be
00000260: f595 e5bd 433c 60be 3c48 3b3e e666 723e
00000270: a453 583d 026a 51be e57e 44be b5bb 483e
00000280: 4a01 dc3c db75 5f3d 36f6 1dbe 8e3f 50be
00000290: 0ae8 fbbd 589e 77be e23a 2e3e 843e b43d
000002a0: b875 4bbe 46a8 823e 513c 86bd 9b5c f63d
000002b0: 8fc8 3a3d 0655 9d3d c13b 8dbc 104b 18bc
000002c0: d5dc 06be 8fc5 b73d a16c 113d 5a35 393e
000002d0: 8247 41be 7479 cc3d c037 a83d bce0 a43a
000002e0: 8beb 1dbe 8ee2 0dbe 6f1f 413e fe52 2b3e
000002f0: 12f5 e23d 7d58 65be 7eaf 2ebe f137 973d
00000300: ccb7 803e 45f8 71be aeb1 863d 8fe9 76be
00000310: aabb 7bbe 0545 3cbe 7f02 04be 7569 1fbe
00000320: 534d 18be 8058 953c c0c4 7abd 6e01 1c3e
00000330: a02b 793d 9b13 c8bd b53e 28be f419 443e
00000340: 7765 4cbc ca9c 5d3d 33fc f43d 50f4 3fbd
00000350: a7ae 00be f94a f33b 7494 11be 60fa fa3d
00000360: 655f b73d a3c3 fdbd 3d94 9dbd 4560 493d
00000370: df40 183d d978 2a3d f3cd 03be 33ff 373d
00000380: 93cf dcbd 2f99 1c3d dff7 d53b 7530 863c
00000390: 131d c7bd 78a3 51be 9501 3bbe a9c6 623d
000003a0: 36a0 ef3d 79ae 4abd fc5e 333e 956b d2bd
000003b0: 564d 023e fcc8 303d 2e5b 663e 42b3 3a3e
000003c0: 8cf4 95bd 1c88 ac3b 2ed1 40be 2fb7 133e
000003d0: 17e2 6dbd 4c8c 49be f5a4 d8bd 46b7 68be
000003e0: 7b34 91bd e16f a9bd 7248 7abe 13b2 8d3d
000003f0: 2b58 3abe 84ca 603d d96b f3bd d109 b73c
-0.039320182 0.060520653 0.16578877 -0.121410504 0.1854696 -0.17455204 -0.060095567 -0.16051938
0.05060398 -0.2027179 -0.0038277307 -0.17090428 0.16301212 -0.22260898 -0.10873048 -0.21418142
-0.15257214 0.026313625 0.12642442 0.1191834 -0.20481284 -0.037454978 -0.05382014 0.10208224
-0.033317577 -0.04116864 -0.15928447 -0.1682046 -0.0043400433 0.12339832 -0.12256343 0.05185165
0.13296026 -0.11910914 0.21026549 0.19876383 0.12844086 0.1085268 -0.21921998 0.14598751
-0.010755473 0.2132639 -0.20288312 0.018210296 0.20669283 0.03430875 0.10579559 0.026699107
-0.11401334 0.13354452 0.20308267 0.13165715 -0.17420346 -0.1635074 0.24178226 -0.032342065
0.09516095 0.061946783 -0.16538654 0.22046933 0.05128113 -0.113263816 0.23713286 0.083145164
0.0534681 -0.15779704 0.23065779 -0.12304661 -0.09241165 -0.23962326 0.0866345 -0.13397272
-0.23720819 0.15917096 -0.21353579 -0.05375109 -0.081310794 0.029607752 0.027986778 0.21029274
0.08070851 -0.093274884 -0.15990146 -0.067191735 0.14175098 -0.24499375 0.09022146 -0.004937471
-0.10632477 0.17144749 0.13125284 0.011684782 -0.13457501 -0.16609254 -0.06314718 -0.14544198
-0.049621437 0.09732774 -0.017064495 0.038197514 -0.0878055 -0.06710407 0.15462907 -0.030877512
0.043403205 -0.18799838 -0.13451609 0.18424554 0.0030931053 0.25529122 -0.090369865 0.12307921
0.11624021 -0.21088582 -0.13686776 0.20582889 -0.08923779 -0.22607449 0.18016376 0.23423505
0.15695436 0.15418835 -0.084757194 0.21504359 -0.105996326 0.10445051 -0.2368107 0.22223778
-0.18971837 -0.21106604 0.113363236 0.22418974 -0.19941644 0.24322829 0.050048187 0.12353602
0.03216815 -0.26859298 0.2190803 0.1967227 0.14338355 0.01752969 0.092357814 0.006626693
0.07765359 -0.031701196 0.23782516 -0.08567642 -0.04132212 0.075310856 0.21870139 -0.14263532
-0.11210243 -0.21897988 0.18289274 0.23672065 0.05281414 -0.20450595 -0.19189031 0.19602855
0.026856083 0.054555755 -0.15425953 -0.20336744 -0.12300117 -0.24181497 0.1701465 0.088009864
-0.19869125 0.25519007 -0.06554473 0.12029382 0.045601424 0.076822326 -0.017240407 -0.00929524
-0.13170178 0.08973228 0.035503987 0.18086758 -0.18874934 0.09984103 0.082137585 0.0012579183
-0.15421884 -0.13855955 0.18859647 0.16730878 0.110819 -0.22397037 -0.17059132 0.07383717
0.25140226 -0.23629864 0.065768585 -0.24112533 -0.24583307 -0.18385704 -0.12891577 -0.15567572
-0.14873247 0.018230677 -0.06122279 0.1523492 0.06083262 -0.097693644 -0.16430171 0.19150525
-0.012475363 0.054104604 0.11962166 -0.046863854 -0.12566625 0.007424709 -0.14216787 0.122547865
0.08953742 -0.1239083 -0.0769429 0.049164075 0.03717124 0.041619156 -0.12871532 0.04492111
-0.10781779 0.038232025 0.0065297927 0.016380528 -0.09722342 -0.20472515 -0.18262322 0.05536524
0.1170048 -0.049482796 0.17516702 -0.10274426 0.12724814 0.043160424 0.2249572 0.18232444
-0.07322034 0.005265249 -0.18829796 0.14425348 -0.058076944 -0.19682425 -0.10578338 -0.22726163
-0.07090088 -0.08273292 -0.24441698 0.069187306 -0.18197696 0.054880634 -0.11885805 0.022343548

gnn_base.gnn.gnn1.lin_value.bias f4 [48]
00000000: 0122 0e3e 28f8 e2bd 2b93 e4bd 5284 57be
00000010: 005b ce3d 54cd 513e 083d 6b3d 72df 453e
00000020: 91af 48be aded 7bbe 23e1 cc3d ece3 04be
00000030: 5fb6 483e 5c36 11bc 93d1 213d 7203 a43d
00000040: 5769 4cbe 5b62 6bbd aeeb 383e b1fe b5bd
00000050: a879 3b3d 11d1 fbbd ea47 013d a254 04be
00000060: a617 8dbd 39fc 073e 519f 8b3a 3fb8 133e
00000070: 3de0 0f3e 8fed 4d3e 6f5a 7ebd 5846 4f3d
00000080: 94ce 6b3d 7d71 1dbe f727 133e 9872 24be
00000090: 4b9b 5fbe e8a2 783e c26f c63c 5aa8 253e
000000a0: e7be 503e d9e3 59be 96bf 46be aaf6 223d
000000b0: a295 033d 7e78 83bc 170f 14be 780c 6f3d
0.13880159 -0.11082488 -0.111608826 -0.2104657 0.100759506 0.20488483 0.05743125 0.19323519
-0.19598223 -0.24602385 0.10003879 -0.1297757 0.19600819 -0.008863058 0.039506506 0.0800847
-0.19962059 -0.057466846 0.18058655 -0.08886469 0.045770317 -0.122957356 0.031562723 -0.1292291
-0.06889276 0.13279809 0.0010652338 0.14425753 0.14050384 0.20110153 -0.062097963 0.050604194
0.057570055 -0.15375324 0.14370714 -0.16059339 -0.21836583 0.24280894 0.024223212 0.16177502
0.20385323 -0.21278323 -0.19409022 0.03978602 0.032125123 -0.016048666 -0.14458881 0.0583615

gnn_base.gnn.gnn1.lin_edge.weight f4 [48, 1]
00000000: 58c4 043f b71e 32bf 3075 2e3f 741a 86bd
00000010: a884 533f 2b81 96bb 62f2 6a3e d7f7 06bf
00000020: 7ae1 99be 5c24 2b3e 8787 1c3e a859 303f
00000030: 4c21 1abf f6ab 673e 3a81 03bf 8043 48be
00000040: 849d 26bf f4a7 413f f63d 2b3f af31 5dbf
00000050: 3e52 44bf ff7b a83e 4d5f 42bf 5f9a ddbe
00000060: bcbf 7ebf cacc 35bf a402 3f3f e228 18bf
00000070: c145 243f 8ca6 8b3e 98a1 2cbf bebf 6cbe
00000080: af04 81bd 93dc 2a3f 9dd8 6dbf 5f04 473f
00000090: c61b 74bf 3512 39bf 3965 2bbf 123c ad3e
000000a0: df24 35bf d879 4abf 6844 c03e 3de3 3ebf
000000b0: e7f7 34bf 1700 633f 7d64 133f 799a 38bf
0.51862097 -0.6957812 0.68147564 -0.06548014 0.8262429 -0.0045930347 0.22944024 -0.52721924
-0.30054837 0.16713089 0.15286075 0.68886805 -0.60207057 0.22624192 -0.5136906 -0.19556999
-0.650841 0.756469 0.6689142 -0.86403936 -0.7668799 0.32907102 -0.7592667 -0.43281838
-0.99511313 -0.7101561 0.74613404 -0.5943738 0.64168936 0.27275503 -0.6743407 -0.23120019
-0.062997214 0.6674282 -0.9290865 0.77741045 -0.9535488 -0.72293407 -0.6695133 0.33834893
-0.70759386 -0.7909217 0.3755219 -0.7456549 -0.7069077 0.8867201 0.5757521 -0.72110707

gnn_base.gnn.gnn1.lin_skip.weight f4 [16, 16]
00000000: 9ed2 613d 8ae6 223d b851 0b3e 5e6c 073e
00000010: 819e 7a3e 1c54 873d c881 2e3d 7dfb f6bc
00000020: adbe 613d 4769 8abd 6314 543e e8ec 723e
00000030: 917d ecbc 2442 7a3d b6ed 3fbe d731 47be
00000040: e4b6 2bbe b3b9 2dbd 0aad 183e e0a2 aabc
00000050: 6b57 57be daa5 943d 22f2 0f3e 0874 58be
00000060: 6850 75be 9bc4 02be dcc7 663d 1b34 a23d
00000070: d38d 05be d738 503d f569 14bd de50 87bc
00000080: efd6 6e3e 1087 8a3d 1985 b3bc 3ae8 683c
00000090: f906 20be 6b9b 4a3e acc7 1ebd 780c b63d
000000a0: ae02 91bd 5acc d13d a9b0 a83d 2fb9 1c3e
000000b0: 4fa2 52bd 1720 06be 2944 c03d 9f29 503e
000000c0: 96e4 99bd 11eb 5fbc 629a f43c 11d5 033e
000000d0: 1e6b 843d 6874 76bd b260 993d a454 b6bd
000000e0: e30a c0bd 89c6 473e 0a6b 54be 4ba2 60be
000000f0: 4eb4 bbbb 6818 63be 6d6e a1bc 1300 163e
00000100: 6c5d 34bd ecc6 083d d5ee 613e 620b 13be
00000110: c6c9 303e ec23 353e 2f50 af3d c158 293e
00000120: 258d 47be 7158 cf3c d1c4 b8bc 1588 f3bd
00000130: f340 953d e7c0 6cbe d022 4a3e 4b32 74be
00000140: 5d76 803e ab38 853d 941f 2b3e d214 12be
00000150: 37e0 0ebe 499b 2c3d df16 2fbe 99b5 34be
00000160: 0bbd 70be eb1a 203e f972 81bc f38b 403e
00000170: 7d35 493e 2c5a 693d dc4c c63d fbfa e8bd
00000180: 056b 983d 480e 87bc 757d 6dbe 77b9 4c3d
00000190: bbe4 74be bb45 7abe 80a1 29be d4ac d2bd
000001a0: 1efc 72be 9c70 593d 4108 54be fd33 0f3d
000001b0: b770 20be 31bf 183e 63ea 0f3e 77bc a03b
000001c0: ad5d 73be 707e 133e efb0 f63d 7823 72be
000001d0: d162 913d 2805 57be 0ef4 4bbe 3428 44bd
000001e0: 70d5 1fbe 5230 d5bd a0f1 203e 8fb4 8fbd
000001f0: 8a1a 6b3d 4a32 53be f1d5 423c 94ec c03d
00000200: 2d00 6fbe 90b4 aabd d0dc 08bd 7ddf 5cbe
00000210: 7371 c9bd 45f0 573e 449a 7b3e 8955 7b3e
00000220: 6606 6b3e 33d2 523e dc9d 3cbe 390f cc3d
00000230: 9a54 55be c79c 233e d1e2 94bd 8172 4c3e
00000240: 1d6d 19bc 0961 5abd d810 1d3e e83b 5e3e
00000250: ce2a ab3d 4ecc 273d fbc6 083e 37e7 2fbe
00000260: b1b2 58bc 9c2c 37bc b26e 36be 9eec 993d
00000270: a282 143d 51c3 5cbd 6340 b83c 4902 67be
00000280: 0694 523e 5799 79bd 29b8 213e 3deb 53be
00000290: 0fc5 5c3d 6e15 fcbd 809a 71be b3f3 653e
000002a0: fe09 9c3d 4c9d 9fbd e16b fc3d 6a92 57be
000002b0: 1294 5d3e 70e9 3abe 2616 11bd a6e9 ad3d
000002c0: cc6f 79be 7715 1f3e 07cb a33c 9fbc a7bd
000002d0: 8e68 ea3d 5f65 03be eff3 67bd e67b 17be
000002e0: 85c0 90bd e49c fcbd 3c2c d3bd e453 ad3d
000002f0: b774 c53d a4a2 47be 0ff7 4abb 4261 2d3e
00000300: b5b2 d5bd c98e b03d 81fe 30be c7e6 583e
00000310: d738 693d f255 d7bd 2a92 323e eba6 21bb
00000320: 8b15 953d e4e6 12be a5d1 1bba 21ca 0dbe
00000330: 2e52 343e 9405 303e cc54 eebd 2a91 14bc
00000340: 9bc5 433d d90e c03d ccf8 07be 9322 e93c
00000350: 040d fd3d 07bf 76be 6692 2dbd 45c2 ae3d
00000360: d89c 2a3e ba98 73bd f60d 17be 8dbb 273d
00000370: c3c2 113d 85e9 7a3e 7757 2c3e 0905 0dbd
00000380: aee9 febc f148 213d 3bf4 7bbe ff42 3c3e
00000390: 90d7 003e b0b8 e43d 1c28 2bbe 057f 803c
000003a0: 0d45 393e 0cb2 0e3e 9bcb cabd 1fd4 96bd
000003b0: 6ea2 2abe 7ec4 1f3c bfe1 72be 2113 293e
000003c0: 3493 8cbd 561c 0e3e c727 98bd 0fa4 7a3e
000003d0: 2d4d 2dbe b1c7 1c3e 4a5a b8bb 16c0 653d
000003e0: c1f0 023d 19ac 2bbe bd76 733e a207 1a3e
000003f0: e0b9 e23d 5bb3 573e ed81 6dbd 9454 b63d
0.0551325 0.03977064 0.13605392 0.13224933 0.24474527 0.066078395 0.042604238 -0.030149216
0.055113483 -0.06758361 0.20710902 0.23723185 -0.028868468 0.061098233 -0.18743023 -0.19452606
-0.16768986 -0.042413425 0.14909759 -0.020829618 -0.21029441 0.07258196 0.1405721 -0.21138012
-0.23956454 -0.12770312 0.056342945 0.079200946 -0.13042383 0.050835457 -0.03623386 -0.016518053
0.23324178 0.067640424 -0.021914052 0.014215523 -0.1562766 0.1978585 -0.03876464 0.08889097
-0.07080589 0.10244055 0.0823682 0.15305017 -0.05142432 -0.13098179 0.093880005 0.20328377
-0.075143024 -0.013666884 0.029858772 0.12874247 0.064657435 -0.060169607 0.07489146 -0.08902863
-0.093770765 0.19509329 -0.20743957 -0.2193691 -0.005728281 -0.22177279 -0.019705975 0.14648466
-0.044034407 0.03339283 0.22063763 -0.14359811 0.1726447 0.17689484 0.08560216 0.16537763
-0.19487436 0.025310727 -0.022554787 -0.1189119 0.07287779 -0.23120461 0.19739842 -0.2384731
0.25090304 0.06504949 0.16711265 -0.14265755 -0.13952719 0.04214028 -0.17098568 -0.17647399
-0.23509614 0.15635268 -0.015801894 0.18803386 0.1964931 0.05697076 0.096826285 -0.11375996
0.07442287 -0.016486302 -0.2319239 0.04998156 -0.23915379 -0.24440663 -0.16565514 -0.102868706
-0.23728988 0.05308591 -0.20706274 0.03496169 -0.15667997 0.14916684 0.14054255 0.0049052793
-0.23766203 0.14403701 0.12045466 -0.23646343 0.07098926 -0.2099806 -0.19917318 -0.047889903
-0.15608764 -0.10409607 0.15717173 -0.07016861 0.057398356 -0.20624653 0.011891828 0.09420124
-0.23339911 -0.08335221 -0.03341371 -0.21569629 -0.09836092 0.2108775 0.24570566 0.24544348
0.2295166 0.20587997 -0.18419594 0.09963841 -0.20833054 0.15977775 -0.07269824 0.19965555
-0.009364394 -0.053315196 0.15338457 0.2170254 0.08357774 0.040966325 0.13357155 -0.17178045
-0.013226197 -0.011180069 -0.17815664 0.07515834 0.036257394 -0.053897206 0.02249164 -0.22559465
0.20564279 -0.060937252 0.15792908 -0.20695205 0.053898867 -0.12308775 -0.23594093 0.22456245
0.07619093 -0.07793674 0.12325264 -0.21051946 0.21638516 -0.18253112 -0.035421513 0.084918305
-0.24359053 0.15535532 0.019994272 -0.081902735 0.114457235 -0.12831639 -0.056629118 -0.14793357
-0.0706797 -0.12334612 -0.103111714 0.084632665 0.09641402 -0.19495636 -0.0030970012 0.16931632
-0.10434476 0.08620984 -0.17284586 0.21181785 0.056938972 -0.1051444 0.1743857 -0.0024666141
0.072794996 -0.1434589 -0.000594402 -0.13846637 0.17609474 0.17189628 -0.116372675 -0.009067813
0.047795873 0.09377832 -0.13278502 0.02845887 0.12355998 -0.24096309 -0.042375945 0.08533148
0.16661394 -0.059471823 -0.1475142 0.040950347 0.03558613 0.24503143 0.1683024 -0.03442863
-0.031117287 0.039376203 -0.24604885 0.18384932 0.1258223 0.11168039 -0.1671452 0.015685568
0.18092747 0.13935107 -0.09902116 -0.07364678 -0.16663525 0.009751437 -0.23718928 0.16511203
-0.06864014 0.13877997 -0.07429462 0.24476646 -0.16923971 0.15310551 -0.0056259977 0.05609139
0.031967882 -0.16764869 0.23775764 0.15041974 0.11070609 0.21064512 -0.057985235 0.08902851

gnn_base.gnn.gnn1.lin_skip.bias f4 [16]
00000000: 7afd c9bd 33a0 9b3d 21d2 2ebe 9014 2c3e
00000010: 0e3c b43d 9c3e 8dbc d5e0 86bd 1150 2f3e
00000020: 2810 243e 8d2f 79be b458 f8bd cd31 173d
00000030: c639 2bbc d69e 4a3e f438 37be b6e7 38be
-0.098628 0.07598915 -0.17072345 0.16804719 0.08800517 -0.017241769 -0.06585852 0.17120387
0.16021788 -0.24334545 -0.12126294 0.036912728 -0.010450786 0.19787154 -0.1789282 -0.1805714
