onpolicy/results/GraphMPE/navigation_graph/rmappo/crap_bad/run24/models/actor.pt (torch, 195957 bytes, 62 tensors)

gnn_base.gnn.embed_layer.entity_embed.weight f4 [3, 2]
00000000: 1728 c63f 2ab3 91be 6808 0ac0 2dc5 143f
00000010: 3bcb 88bf 9909 b5bf
1.5480984 -0.28457004 -2.156763 0.58113366 -1.0687021 -1.4143554

gnn_base.gnn.embed_layer.lin1.0.weight f4 [16, 7]
00000000: 2114 563c 20ec db3e 85d4 4b3f eacb 04be
00000010: 1eb9 87be be6f e23d dbb0 393e e4d4 ef3e
00000020: 6175 523f c6b0 bf3d 5bb8 49be 2419 4f3e
00000030: 48e3 893d cffc d03d 074a 4cbf e8db 103e
00000040: b96c 22be 5a11 233d f93a adbe 2291 9cbe
00000050: 89a5 313e d248 d3be 2ccc 153e f65b fb3d
00000060: ff4a e03e eac7 79be d926 743e f574 23bf
00000070: 13ec 023e d004 5e3d e74e d6bd 1f41 463e
00000080: cb4c 30bf 9b0f 90be f934 a4be 32fa fbbe
00000090: 6560 f63b a655 bb3d 9a7d 40bf 000a 7ebe
000000a0: 22a1 3dbe fd48 b73e b9d1 d7bd 952f e3be
000000b0: 0949 82be d1c5 b0bc 8df0 083f 9e44 25bc
000000c0: 9810 0f3e 5d9e b5be cd21 803e 3707 e4be
000000d0: fc99 8d3c 02ec 4f3d cf3b a33a b702 a03e
000000e0: 89f8 3e3e ab67 fdbe fd2a 153f 4b41 53be
000000f0: 921d a83d 328b a6be 65f9 24bc 0af2 723e
00000100: ae55 67be 18c4 00bf d9e3 e2bd 9958 debe
00000110: b8f7 5f3f 294b 4e3e ae74 d13e ea8d 513e
00000120: d67b 79be e446 283f 62a6 7f3d c5f4 15bf
00000130: adbd 0a3f b95e 063f bcab 8abe ed83 57bd
00000140: 8895 a3be 2969 24bf 9e5a eabd a10e c03e
00000150: 8dd8 05be 0fec 053f 723b 963d 6064 713c
00000160: 9657 043e 3048 f53e 59c8 bc3e aa64 81be
00000170: 1263 38bc cc32 9abd bf30 19be 5beb 613e
00000180: 7265 83bd 1645 bc3e 32f8 5c3e e68b c53e
00000190: abd9 0dbf 9171 34bf a597 363e 8696 aebe
000001a0: 3094 25bf b6c1 9c3c 25ec 4ebe 98e0 673e
000001b0: a80d 11be 5b18 bf3e cb10 b53e 75be 46bd
0.013066323 0.42953587 0.79621154 -0.12968412 -0.2650842 0.110564694 0.18133871 0.4684211
0.82210356 0.09359889 -0.19699232 0.20224434 0.067328036 0.102044694 -0.79800457 0.14146388
-0.15861787 0.03981147 -0.33834055 -0.30579478 0.17348303 -0.41266495 0.14628667 0.122733995
0.43807217 -0.24392667 0.23842944 -0.6385034 0.12785368 0.05420381 -0.10464268 0.19360779
-0.68867177 -0.28136906 -0.32071665 -0.4921432 0.0075188153 0.091471955 -0.7519165 -0.24808502
-0.18518499 0.35797873 -0.10538048 -0.4437224 -0.25446346 -0.021578701 0.5349205 -0.01008716
0.13971174 -0.35472384 0.25025788 -0.44536754 0.01728534 0.050762184 0.0012453737 0.3125207
0.18649496 -0.49493155 0.5826872 -0.20630376 0.08208765 -0.32528073 -0.010069226 0.23725143
-0.22591278 -0.50299215 -0.11078615 -0.4342697 0.87487364 0.20145859 0.40909332 0.20464292
-0.24363646 0.6573317 0.062414534 -0.58576614 0.5419567 0.52488285 -0.27084148 -0.05261605
-0.3195002 -0.6422296 -0.11443065 0.3751116 -0.13070889 0.5231332 0.07335557 0.014733404
0.12924036 0.47906637 0.36871603 -0.25272113 -0.011254089 -0.0752922 -0.14960001 0.22062437
-0.064158335 0.36771458 0.21579054 0.38583297 -0.5541026 -0.7048579 0.17831285 -0.34099215
-0.6467924 0.019135337 -0.2020727 0.2264427 -0.14165366 0.3732327 0.35364375 -0.048521478

gnn_base.gnn.embed_layer.lin1.0.bias f4 [16]
00000000: 428c 203c 5a42 093c 2866 b1bb d65a 0a3b
00000010: 3526 abbc 5f5d 4fbc 3b0e 93bc 61c2 09bb
00000020: db33 133b 987e 6cbc 5227 e23b 7613 d33b
00000030: 8498 743c 747c e6b9 b542 4c3c 7c58 303c
0.009799065 0.008377636 -0.0054137893 0.0021111271 -0.020892242 -0.012656539 -0.017951122 -0.00210204
0.0022461328 -0.014434479 0.00690166 0.006441529 0.014928941 -0.00043961743 0.012467076 0.010763284

gnn_base.gnn.embed_layer.lin1.2.weight f4 [16]
00000000: a36e 833f 7e44 7f3f 367d 7b3f b78f 7e3f
00000010: b140 7d3f 422f 7f3f 758f 803f b98e 803f
00000020: c7ad 7f3f 592a 7e3f 7147 803f 3da1 803f
00000030: d511 7c3f 0d08 823f d49c 803f 4d67 823f
1.0268139 0.99713886 0.9823793 0.9943804 0.98926836 0.99681485 1.004378 1.0043555
0.9987454 0.9928337 1.0021802 1.0049206 0.9846471 1.0158707 1.004786 1.0187775

gnn_base.gnn.embed_layer.lin1.2.bias f4 [16]
00000000: 3e8f b8ba dad6 b43a 43df e0bb 9b64 903b
00000010: b268 99bc b801 45bc 3606 5fbc e085 d1bb
00000020: c0a9 5439 e7b1 3ebc 1888 d23b 578e d73a
00000030: 16c1 883c 46f0 ffbb 0ebf 20bc 3d4e 53bb
-0.0014080775 0.0013796941 -0.0068625524 0.0044065244 -0.01872668 -0.012024336 -0.013612321 -0.006394133
0.00020281132 -0.011639095 0.006424915 0.0016445619 0.016693633 -0.0078106252 -0.009811176 -0.0032242679

gnn_base.gnn.embed_layer.lin_h.0.weight f4 [16, 16]
00000000: beee 5a3e b2d6 f33d 6a99 313f 6db4 e6be
00000010: acc0 6dbe 3e9a 423e 2267 b6be 8b26 29bf
00000020: 7abc 11be f856 083e ed32 283f 3505 153e
00000030: 42f1 203e 9866 3ebe 476d 233e dd3e 27be
00000040: a92e 05be eb0d da3e bfa8 e53e 18bd 473e
00000050: dda9 143f 9d14 193e 5af2 b33d 8e1e 2fbe
00000060: 3aa3 503e f368 0c3f 1d92 a3bd 601e 2fbd
00000070: ef64 ccbe 499c 15be a9b7 a9be 0a73 393f
00000080: cb10 493e 14ac 653e e6dd 03bf e31e b2be
00000090: 735d 203d 9ce0 283e 6c88 4f3d b553 213e
000000a0: 9959 273f f54e 253c 607d ce3e e69e 1e3f
000000b0: 218f 1d3e 3234 42be ed8a 27bf 116e a7bd
000000c0: 1d58 82be bfc6 5e3e 1f55 ec3e 0e11 21bf
000000d0: a424 ebbd 76ea b3be 7668 e8bd af5a 7dbd
000000e0: 11bc 823d 9942 31be 50b8 47bf 9f71 733e
000000f0: a135 2cbe 7469 a73e 8d0b e1be 8944 a0be
00000100: 81fb 5a3f f3a5 b13e ce31 be3e 0ee3 8dba
00000110: 7422 a0bd 28f7 093d 950d 193e 80aa ee3e
00000120: b457 913e 6a4e 4f3e fd8f 98be bad1 41bd
00000130: 5ff2 183f ae75 903e 25e9 9f3e 59e0 023e
00000140: 67c0 9f3e 57ba 01be 105d a9be 7235 983e
00000150: fec4 3dbe df2f 15be 3275 6f3c c62a 13bf
00000160: 285f b23d c53e 303f cd27 04bf ed01 073f
00000170: 8d3b 5bbe 4fb7 65be 49e3 983e 5b7a 9abe
00000180: 9126 ab3e 8766 57bf 143e 223d 22b7 843c
00000190: 2c9a 8abe 7d7f 473e 00bb bdbe d11b 68be
000001a0: 671d 9a3d 0cda 183c af8a 9dbe 6979 95be
000001b0: 4e4f 893e 35c2 a4bd 03a4 23bf 744e e83e
000001c0: 9628 2b3e aa4f de3c 3e9a 1d3d d64e f33e
000001d0: 393b 8c3d 48e6 aabe a255 b2bd 296c b5be
000001e0: 6c87 073f f138 643d d6e5 b63e 82c3 ebbe
000001f0: 1261 3dbe 1d91 3d3f 9fac 90be a946 eabe
00000200: 1665 32bf ec09 7a3d c3ce 343e 7065 703e
00000210: bb94 dbbe 309d 2e3f cba5 e0bd c34d 953e
00000220: 0010 833e 3d49 0b3f dda7 dbbd a3f5 28be
00000230: 287b a23e dbf1 2abc 8021 95bd 5d2d d4be
00000240: 200d b9be 9ad7 02bf cee6 49bc 56bf 3dbe
00000250: 1b56 193f fad4 393e d43f 1bbe a0eb 20be
00000260: f1bb 863e 10c0 163d ca52 7c3b e8da fb3e
00000270: a676 b63e c221 2a3f eb3c e73e d0c6 623e
00000280: fa31 9d3e 1f4a e93e 3f4d abbe 2951 053e
00000290: ac44 883e cda9 2b3f bcae 53bf 757b cabc
000002a0: 0ac3 adbe d092 77be 4c6e 76be c4b5 653c
000002b0: a0a6 65be 0cb7 813e 27f7 f6bc 408f 06be
000002c0: 5a4f cbbc 5a98 413e c3ea a7bd 57f4 3dbd
000002d0: 0044 863e 64cc e93e 2a7d 103f cb2c 30bf
000002e0: 1b31 aa3e d6c2 09bf 5936 b8be a772 b9be
000002f0: 0329 a43e 7575 93be d73d c23d 22f8 30be
00000300: d616 f43d f9d7 a8be 6773 253f b73a 203f
00000310: 6581 453e 69bf dd3d 8c50 d9bd 9381 923e
00000320: 1976 943e c1ed 09bf 844f 02bd 608e fe3e
00000330: bb35 7abe 6170 c5be 700c c43b fd6a 9dbe
00000340: 0b59 b13e dd09 e4be 73e7 8c3d 1a70 02bf
00000350: 3c7a 243d 22cd 153f a8a7 f33e 3744 723e
00000360: 04a2 073d 0d7a 443e f705 6d3d 69e7 36be
00000370: 3285 47bf aaef 573e b997 cb3d 6715 72be
00000380: 6157 ccbd 0686 5b3e d4f8 98ba a3d8 6d3e
00000390: 3661 5cbf 237b 833e 5700 583e 6171 57be
000003a0: e060 383e abbc c8be 33f1 0e3d b8e5 b23e
000003b0: e60c a3be 90a2 e03e 68a6 173e f685 1b3f
000003c0: 05e4 cc3d b18d 89bc 197c 023e d9a6 ac3e
000003d0: 3532 ee3d 9199 533e c738 1a3f 7fd6 f8bd
000003e0: 3922 4fbf b138 ab3d 370c be3d 33fa ca3e
000003f0: 1978 a63e 7adc c03e d41e 10bf d579 3cbe
0.21380135 0.11906184 0.69374716 -0.4505953 -0.2321803 0.19004151 -0.3562556 -0.66074437
-0.14232054 0.13314426 0.65702707 0.14552768 0.15717033 -0.18593824 0.15959655 -0.16332574
-0.1300608 0.42588744 0.44855306 0.19505727 0.5807169 0.1494927 0.08786459 -0.171015
0.20374766 0.5484764 -0.07986853 -0.042753577 -0.39920756 -0.146104 -0.33147934 0.7244116
0.19635312 0.22428924 -0.51510465 -0.3478919 0.03915162 0.16491932 0.05066721 0.15754588
0.6537109 0.010089626 0.4033003 0.6196121 0.1538663 -0.18965223 -0.6544636 -0.081752904
-0.2545785 0.21755503 0.46158692 -0.6291665 -0.11481598 -0.35139817 -0.11348049 -0.06185406
0.06383527 -0.17310561 -0.78015614 0.23773812 -0.16817333 0.32697642 -0.43954125 -0.31302288
0.85540015 0.34696922 0.37147373 -0.0010825114 -0.078190714 0.033682972 0.14946587 0.46614456
0.28387225 0.20244756 -0.29797354 -0.04731915 0.5974483 0.28214782 0.31232563 0.12780894
0.3120148 -0.1266874 -0.33078814 0.29728276 -0.18532178 -0.14569043 0.014615344 -0.5748714
0.08709556 0.6884578 -0.5162323 0.52737314 -0.21409436 -0.22433208 0.29860905 -0.30171475
0.3342786 -0.8414082 0.039609984 0.016200606 -0.2707075 0.19482227 -0.37056732 -0.22666861
0.07525139 0.00932933 -0.3076987 -0.2919419 0.26818317 -0.080448546 -0.6392214 0.45372355
0.16714701 0.027137596 0.038477175 0.47521085 0.06847233 -0.33378816 -0.087077394 -0.35434082
0.5294101 0.055718366 0.35722226 -0.46047598 -0.1849406 0.7404955 -0.282567 -0.45757034
-0.69685495 0.06104462 0.17656998 0.23476195 -0.4288691 0.682086 -0.109691225 0.2916089
0.25598145 0.5440863 -0.10725377 -0.16499953 0.31734586 -0.010433639 -0.0728178 -0.4144086
-0.36142826 -0.5111023 -0.0123230945 -0.1853002 0.5989701 0.1814765 -0.15161067 -0.15714884
0.26315263 0.03680426 0.0038501495 0.4919045 0.35637397 0.6645776 0.45163664 0.22146153
0.30702192 0.45564362 -0.33457372 0.13019241 0.26614892 0.6705597 -0.826885 -0.024717072
-0.33937865 -0.24177098 -0.24065512 0.014020387 -0.22426844 0.25334966 -0.030147148 -0.13140583
-0.024818111 0.18905774 -0.08199074 -0.0463756 0.26223755 0.4566375 0.56440985 -0.6881835
0.3324059 -0.5381292 -0.35978964 -0.36220285 0.3206254 -0.2880055 0.09484451 -0.17282155
0.11918418 -0.32977274 0.64629215 0.6258959 0.19287641 0.10827524 -0.10611066 0.28614482
0.2899635 -0.5387841 -0.031814113 0.49717999 -0.24434559 -0.385623 0.005982928 -0.30745688
0.34638247 -0.44538775 0.06880083 -0.50952303 0.040155634 0.5851613 0.4758885 0.23658834
0.033113495 0.19187184 0.057867017 -0.17861713 -0.77937615 0.21087518 0.09941048 -0.23640977
-0.09977604 0.21437845 -0.0011670836 0.23227172 -0.8608583 0.25679883 0.2109388 -0.21039344
0.18005705 -0.39206442 0.034897994 0.34940886 -0.31845778 0.43874025 0.14809573 0.60751283
0.10004429 -0.016791197 0.12742652 0.33721045 0.1163067 0.2066405 0.60242885 -0.12150287
-0.80911595 0.083604224 0.092796735 0.39644012 0.32513502 0.3766821 -0.5629704 -0.1840585

gnn_base.gnn.embed_layer.lin_h.0.bias f4 [16]
00000000: 0000 0000 0000 0000 0000 0000 0000 0000
00000010: 0000 0000 0000 0000 0000 0000 0000 0000
00000020: 0000 0000 0000 0000 0000 0000 0000 0000
00000030: 0000 0000 0000 0000 0000 0000 0000 0000
0.0 0.0 0.0 0.0 0.0 0.0 0.0 0.0
0.0 0.0 0.0 0.0 0.0 0.0 0.0 0.0

gnn_base.gnn.embed_layer.lin_h.2.weight f4 [16]
00000000: a36e 833f 7e44 7f3f 367d 7b3f b78f 7e3f
00000010: b140 7d3f 422f 7f3f 758f 803f b98e 803f
00000020: c7ad 7f3f 592a 7e3f 7147 803f 3da1 803f
00000030: d511 7c3f 0d08 823f d49c 803f 4d67 823f
1.0268139 0.99713886 0.9823793 0.9943804 0.98926836 0.99681485 1.004378 1.0043555
0.9987454 0.9928337 1.0021802 1.0049206 0.9846471 1.0158707 1.004786 1.0187775

gnn_base.gnn.embed_layer.lin_h.2.bias f4 [16]
00000000: 3e8f b8ba dad6 b43a 43df e0bb 9b64 903b
00000010: b268 99bc b801 45bc 3606 5fbc e085 d1bb
00000020: c0a9 5439 e7b1 3ebc 1888 d23b 578e d73a
00000030: 16c1 883c 46f0 ffbb 0ebf 20bc 3d4e 53bb
-0.0014080775 0.0013796941 -0.0068625524 0.0044065244 -0.01872668 -0.012024336 -0.013612321 -0.006394133
0.00020281132 -0.011639095 0.006424915 0.0016445619 0.016693633 -0.0078106252 -0.009811176 -0.0032242679

gnn_base.gnn.embed_layer.lin2.0.0.weight f4 [16, 16]
00000000: 9713 753e 31fc db3d 5d3e 343f 6572 e9be
00000010: a3ac 61be f994 443e 817c bfbe 8e3d 2dbf
00000020: 2b57 05be a285 043e 03a0 283f 27b8 223e
00000030: 6828 0d3e a961 55be 94aa 113e 9ab6 2cbe
00000040: 52d5 10be c1c9 e33e 4cd4 db3e 60ad 553e
00000050: ddfe 0f3f 016e 093e 6361 e53d f93c 24be
00000060: 1412 623e 022f 083f 9679 a1bd 2740 77bd
00000070: 193d c6be d40b 03be 985c a2be aa04 3f3f
00000080: face 3c3e 5d66 593e 568b 00bf 551e b4be
00000090: 27b3 5b3d 590c 2d3e 8aeb 3a3d 08df 123e
000000a0: 5692 263f 59e1 e63c be15 cf3e ab6a 213f
000000b0: 6fe9 103e 71f4 4cbe 2cfd 28bf 6c14 b4bd
000000c0: 8eb0 8bbe 32d0 673e b61c eb3e 4b05 22bf
000000d0: faa2 fcbd 8fe6 b5be 2421 dabd d9b1 3abd
000000e0: b330 4d3d ad84 35be 1a3a 45bf efe0 6c3e
000000f0: 0899 1bbe 1717 af3e 0664 dfbe cd85 a3be
00000100: bb04 5a3f 1cde b53e 756f bc3e 65d6 573b
00000110: f362 99bd dc49 ac3c 8dc4 143e 76b7 ee3e
00000120: 3ea9 903e e298 523e 6371 92be b221 39bd
00000130: b2cc 183f dd80 8a3e 2f82 a13e 0a40 f53d
00000140: 3fb3 983e 7876 08be 8de2 a6be e725 973e
00000150: 23f8 3abe 77bf 0bbe 7888 883c 76f8 10bf
00000160: 09e5 863d 916d 323f ee8c 04bf 57b5 073f
00000170: 4394 5cbe 098e 64be 66fb 983e 31e1 9cbe
00000180: aa78 b43e 4908 57bf d804 0a3d 6cff 093c
00000190: c4be 8bbe 08f9 4c3e da3c c4be e293 71be
000001a0: f2fd af3d 2501 513c 9c79 a2be 9b42 93be
000001b0: f1a0 853e 3784 bfbd ba61 24bf f24c e83e
000001c0: baf5 2b3e e8ed 073d 2aba 203d 5bee f23e
000001d0: f1d3 9b3d 1315 b7be 70f2 b7bd f2bd b5be
000001e0: 6cef 053f 9bb4 613d 7580 bf3e b4a3 e7be
000001f0: 328c 42be e2c4 3a3f 5a15 90be 7a1e f0be
00000200: 880d 37bf db5f 9a3d c87e 2e3e c1a2 653e
00000210: e24e e5be 103d 2e3f 2906 b8bd 899b 9d3e
00000220: 91a8 803e 4ece 063f 3a85 bdbd 4945 35be
00000230: a194 aa3e 1d73 333c cfa7 85bd 33bb d5be
00000240: 4452 bcbe 6802 01bf f4db 97bc 2dec 38be
00000250: e91d 183f f117 313e fe42 10be e8cb 15be
00000260: 9781 883e afb7 213d 5f94 a3bb e2f3 f73e
00000270: c474 b93e 3589 2b3f 26f4 eb3e a452 693e
00000280: 27af 9e3e 511f e63e 0190 a9be 5bb1 003e
00000290: dfee 893e b094 2c3f aa48 54bf 65ed fabc
000002a0: c34a b0be d0cf 7abe ab2e 65be 9238 8a3c
000002b0: 6366 6bbe b982 813e 77e9 1cbd b2cb 08be
000002c0: 6768 70bc 7854 4c3e 106b 9bbd 83e8 13bd
000002d0: e34b 8c3e 8ecb ee3e 8d44 0a3f ae48 31bf
000002e0: afe4 a53e 4920 07bf 8d99 b8be ef6f b4be
000002f0: d2c1 a63e 3dd8 9cbe d2dd ce3d 6ad7 40be
00000300: ba47 d33d 1678 aabe 04e3 263f 715e 1f3f
00000310: d8c9 483e f53f ed3d 2fd1 dfbd aabd 923e
00000320: ccaa 943e 64e1 09bf 6a7f d8bc 1414 003f
00000330: d20e 80be fb22 c6be facf 183b d92a 9fbe
00000340: 9c2c bc3e 3a83 debe 0824 813d d4b1 fcbe
00000350: 779c ee3c a5bd 123f 5610 f03e 3ff9 743e
00000360: 7424 523d ff7b 463e 7658 5b3d f418 42be
00000370: 98c1 43bf fea2 593e 5ec3 b63d 7ee4 62be
00000380: dd61 ffbd 8d94 623e b0b9 4dbc d883 643e
00000390: 0378 5fbf fb62 833e cb6c 6a3e 2a57 3fbe
000003a0: d1e8 213e ea84 cdbe 473a 0b3d e778 ac3e
000003b0: a5ad a3be ea16 eb3e b260 373e dfec 1a3f
000003c0: cd16 ce3d 00a0 b9bc 7e6c 013e cbf2 ae3e
000003d0: a0cd f23d ea67 493e 7d49 1c3f c8f2 febd
000003e0: 3751 4fbf 04a9 9a3d a974 c53d 42a3 cb3e
000003f0: 3fcb a33e e69a be3e 76cf 0ebf 2b65 3cbe
0.23933254 0.10741461 0.7040766 -0.4559509 -0.22038512 0.19197454 -0.37399676 -0.6767205
-0.13021533 0.12941602 0.6586916 0.15890561 0.13784945 -0.20838036 0.14225227 -0.16866532
-0.14143875 0.44489864 0.42935407 0.20866919 0.56248266 0.1342087 0.11200216 -0.16038884
0.22077209 0.5319673 -0.07884519 -0.060363915 -0.3871849 -0.12797481 -0.31711268 0.7461649
0.1843833 0.21230455 -0.5021261 -0.35179392 0.05363765 0.16899242 0.045634784 0.14342892
0.6506704 0.028183626 0.40446275 0.6305339 0.14151548 -0.20015122 -0.6601131 -0.08792958
-0.27283138 0.22638014 0.45920342 -0.63289326 -0.12335773 -0.35527465 -0.10650852 -0.045579765
0.05009527 -0.17726393 -0.7704178 0.2313268 -0.15195096 0.34197304 -0.43631 -0.3193802
0.8516347 0.35521019 0.36803785 0.0032934186 -0.07489576 0.021031313 0.14528103 0.46624345
0.28254122 0.20566133 -0.28602132 -0.04519815 0.5968734 0.2705144 0.31544635 0.11975105
0.29824254 -0.13326442 -0.3259472 0.29521105 -0.18258719 -0.13647257 0.016666636 -0.5662912
0.06586654 0.69698435 -0.5177754 0.5301108 -0.21540932 -0.22319807 0.29879302 -0.30640557
0.3524831 -0.8399702 0.033696026 0.008422714 -0.2729398 0.20016873 -0.38327676 -0.23591569
0.08593358 0.0127566205 -0.31733406 -0.28761753 0.2609935 -0.0935139 -0.6421162 0.45371205
0.16792956 0.03318587 0.03924004 0.47447476 0.07608784 -0.35758266 -0.08981788 -0.3549648
0.52318454 0.05510388 0.37402692 -0.45242083 -0.18998793 0.7295667 -0.2814129 -0.46898252
-0.7150502 0.07537814 0.1704055 0.22425367 -0.44786745 0.68061924 -0.0898555 0.30782726
0.25128606 0.52658546 -0.092539266 -0.17702211 0.3331652 0.010952738 -0.065261476 -0.41744384
-0.36781514 -0.50394297 -0.018537499 -0.18058844 0.5942064 0.17294289 -0.14088055 -0.14628565
0.2666137 0.039481815 -0.0049920524 0.48428255 0.36221898 0.67006236 0.46084708 0.22785431
0.30993006 0.44945768 -0.3311768 0.12567656 0.26940057 0.6741438 -0.82923377 -0.030630777
-0.3443204 -0.24493337 -0.22381084 0.016872678 -0.22988276 0.25295046 -0.038308587 -0.13358954
-0.014673329 0.19954097 -0.0758878 -0.036110412 0.27401647 0.46639675 0.5401085 -0.69251525
0.32401034 -0.5278364 -0.3605465 -0.3524165 0.32569748 -0.30633727 0.101009026 -0.18832174
0.10316415 -0.33294743 0.6519015 0.6225348 0.19608247 0.115844645 -0.109285705 0.28660327
0.29036558 -0.53859544 -0.026427943 0.50030637 -0.25011307 -0.38698563 0.0023317323 -0.31087378
0.36752784 -0.43459493 0.063057005 -0.49354422 0.029127343 0.57320625 0.46887463 0.23923205
0.051304296 0.19383238 0.05355116 -0.18954831 -0.76467276 0.21253583 0.08923982 -0.22157475
-0.12469838 0.2212698 -0.012556478 0.2231592 -0.872925 0.25661454 0.22893064 -0.18685594
0.15811469 -0.40140468 0.033991124 0.3368599 -0.31968418 0.4591592 0.1790798 0.60517687
0.10062943 -0.022659302 0.12639043 0.3416961 0.11855626 0.19668546 0.61049634 -0.124486506
-0.809833 0.075517684 0.09641392 0.39772993 0.31991002 0.37227553 -0.5578531 -0.18397968

gnn_base.gnn.embed_layer.lin2.0.0.bias f4 [16]
00000000: 4500 263c 318b 5cbc 36b1 d63b 4cac 443b
00000010: 4efc 59bb 7a97 3ebb 7b5d 913b ce31 013a
00000020: 7345 253c 008d a4bb baa6 fa3a eedf 0cbc
00000030: 2603 703b c023 81bc 0d67 183c 3129 f0ba
0.0101319 -0.01346092 0.006551887 0.0030009924 -0.0033261958 -0.0029081986 0.0044361926 0.0004928381
0.010087359 -0.0050216913 0.0019123175 -0.008598311 0.003662297 -0.015764117 0.009301913 -0.0018322823

gnn_base.gnn.embed_layer.lin2.0.2.weight f4 [16]
00000000: 23e8 813f 41dc 813f 85e3 7f3f 111c 813f
00000010: 30f6 803f f056 803f 0029 813f ea56 7e3f
00000020: 43c8 7e3f 0202 7e3f 3a1a 7f3f 8e71 803f
00000030: f685 803f b910 7c3f d117 803f 4bd2 7f3f
1.0148968 1.0145341 0.9995654 1.008669 1.007513 1.0026531 1.0090637 0.9935137
0.99524325 0.99221814 0.99649394 1.0034654 1.0040882 0.98463017 1.0007268 0.99930257

gnn_base.gnn.embed_layer.lin2.0.2.bias f4 [16]
00000000: f27e 373c 5504 85bc 5512 003c 22e6 c3ba
00000010: c02c 8cbb ce15 b73b 3e4e e33a dd90 2d3c
00000020: 426d ef3b 7e0e 53bb 6280 d03b 73e3 cdbb
00000030: 2267 af3b dca0 66bc eb42 843c 2e63 c33a
0.0111997 -0.016237417 0.007816871 -0.0014945904 -0.0042777956 0.005587316 0.0017342044 0.01059362
0.0073067257 -0.0032204683 0.0063629607 -0.0062832176 0.0053528706 -0.014076438 0.01614519 0.0014906877

gnn_base.gnn.gnn1.lin_key.weight f4 [48, 16]
00000000: 2e87 a23d 4331 953d 0835 313e 65fb 9a3a
00000010: fcac d23b 3346 1abb d261 5abe ef6e 97bd
00000020: cf43 603e 6cf5 1fbe a8d6 19be f38c 89be
00000030: 556c 233d 4d83 6fbe 9b36 16be a872 723e
00000040: e6b8 d03d a3c8 163e ec8b 283d f01f 5abe
00000050: 4435 fcbd 3f88 46be 3a50 1abe 7a57 a03d
00000060: e04b 9ebd bacf 833e d599 37be 2c12 65be
00000070: 2c4e 853e c2a1 6cbe e61c 4c3e d213 6f3d
00000080: 8106 61be a301 493e 1f3f 81bd 721c ebbd
00000090: c5a8 45be 3dc7 66be 9710 8a3d e197 78be
000000a0: 373f d53d 5e85 6fbd eca5 df3d 1640 81bd
000000b0: 84a4 b13d fee4 6fba 95b7 993d 62fc e0bd
000000c0: 90c2 34be 13b8 c13c 21f2 2dbe a19e 25be
000000d0: acb7 66be 23b0 d2bd 9be8 2dbe 1d51 5c3e
000000e0: b881 403e 3462 243d 32d4 3e3e 72c5 113e
000000f0: 6dd6 80be 6150 31bc e318 87bc d8d0 15be
00000100: ef35 923d 59be bfbd c3f3 06be 5a30 8fbb
00000110: dc25 20be ee5e 403e a016 353e 8df9 773e
00000120: f59a 19bd 1778 ac3d 3907 023c e93e 4fbe
00000130: 8c02 e33d 76aa 31be 1f0c a8bd 2564 fabd
00000140: 5a72 64be 5282 88bc 077f 5e3d f8e6 1cbd
00000150: cf27 303e cb45 68bb 165a 8abd 2d0d 0dbe
00000160: 0951 20be c767 f3bc 3283 17be d789 29be
00000170: 6c5c d9bc fec6 5dbc 92b0 13be 4c46 143e
00000180: 3fa7 4b3e 8a42 1abe 5776 f13d 08d3 c7bd
00000190: 7206 0ebd 6899 833e df15 c23c c129 7bbe
000001a0: 0c1c 6c3e 6a3f 81bc 13d1 0ebe 89fb 04be
000001b0: a669 543e 3e82 bb3b 3396 0d3e 5934 2f3e
000001c0: 96cd a0bd 0cba d53c 4800 16be 34fe 4a3e
000001d0: 874e 26be b569 473e 97e1 213d 2431 053e
000001e0: afa6 4ebe fb68 a03c 07fb 093e 064a 14bd
000001f0: 3e32 cd3c 90d5 003e 35fc 59be df4c 39bd
00000200: aa15 d33d 1d4a 143e db76 6c3e 8b86 f8bc
00000210: 992c 553d 40ec cebd a8ba 57bd a8a0 07be
00000220: 7100 403e b9ff 8fba d761 a43d 25a7 0a3e
00000230: bd16 3a3d 3bef c53c 19b0 ccbc 893e 48be
00000240: b083 153d 9e56 15bd 7919 58be e313 783e
00000250: 6538 0dbd 92b4 d8bd 35c3 80be 91c1 73be
00000260: 23d7 be3d 7968 e1bd 91fc e8bd a041 1cbe
00000270: 9543 533e 05bc 87bd 7e90 1b3e 8621 4d3e
00000280: 240e 49be 7311 553e 1b44 28bd 7683 803e
00000290: 9d10 ea3d 44bd 5fbe 3d40 e23c e345 9b3d
000002a0: 32a8 c4bd f537 463e 9410 6abe 28a3 b2bd
000002b0: c23d 7a3e 119c 783e 19e3 e73d bcf7 0abe
000002c0: e771 6abe e8fe 51be df3a 7ebd 435c 283e
000002d0: 96c4 be3d 2c5c 07bd bea7 6d3e 9676 4e3e
000002e0: 9e3c bebd 00f8 febd c798 7dbb d384 7c3d
000002f0: 4a8e a6bc f689 d13d 87b3 363e b23f 3dbd
00000300: f17f ca3d de2e 103d 8b5e a33d 160f fe3d
00000310: 8b88 22bd 1e41 04be cc26 083e 20cb 0cbe
00000320: a92c 1e3e 3a9d 41be 5d0c 2a3e 5f76 ff3d
00000330: cee4 bcbd 7dd4 0a3e c95f 71bd a9d4 543d
00000340: 291b 9b3d d2e6 053d cdf7 3b3d d221 b6bc
00000350: c42b 93bd 6969 133e bf5c bd3d 6c02 cc3d
00000360: 545b 203e d249 08be a944 96bd 84e3 13bc
00000370: 9046 503e bd3b 58be 872f 13be d041 56bd
00000380: eb4e 65be 0e05 38be f4fc 1f3e 402c bf3c
00000390: 43d9 4abe 0500 c3bc eea1 46bc 9cc8 afbd
000003a0: 3c66 59be d166 053e f1fa 49bd 1223 7e3e
000003b0: 5691 4abe a7f1 19be 0b51 1dbc 0690 27be
000003c0: 0f0c 3e3e e05c 2f3e d871 623e 25e2 2dbe
000003d0: ab95 423e 2198 173e b54f aabd 4a05 193d
000003e0: b078 003e af08 353e 4c1e 5cbe bdb2 823e
000003f0: 3a53 85bd e163 d63d d558 16be 3b59 4dbe
0.0793594 0.072847866 0.17305386 0.0011824189 0.0064293128 -0.0023540377 -0.21326378 -0.07394206
0.21900867 -0.15620965 -0.15023291 -0.26865348 0.039898235 -0.23389931 -0.14669268 0.2367655
0.101915166 0.14724974 0.041149065 -0.21301246 -0.12314847 -0.19387911 -0.15069667 0.07829185
-0.07729316 0.2574442 -0.17929776 -0.22370213 0.26036203 -0.2310858 0.19932899 0.05836851
-0.21975137 0.1962953 -0.063108675 -0.11480035 -0.19302662 -0.22536941 0.067414455 -0.24276687
0.10412448 -0.0584768 0.10920319 -0.063110515 0.08673957 -0.0009151249 0.075057186 -0.10985638
-0.17652345 0.023647344 -0.16986896 -0.16173793 -0.22531003 -0.10287502 -0.16983263 0.21515317
0.18799484 0.040132716 0.18635634 0.14235476 -0.25163594 -0.0108223865 -0.01649136 -0.14630449
0.07139193 -0.09362478 -0.13178925 -0.0043697776 -0.15639442 0.18786213 0.17684412 0.2421629
-0.037501294 0.08421343 0.007936292 -0.20238842 0.1108447 -0.17350182 -0.08205437 -0.12226132
-0.22309247 -0.016663704 0.05432036 -0.038306206 0.17202686 -0.003544199 -0.06755464 -0.13774557
-0.15655912 -0.02971257 -0.14796141 -0.16556488 -0.026533328 -0.013536213 -0.14422825 0.14479941
0.19888018 -0.15064445 0.1179015 -0.09757048 -0.034674115 0.25702977 0.02369207 -0.24527647
0.23057574 -0.015777308 -0.13946943 -0.12986578 0.20743427 0.005722313 0.13826828 0.17109813
-0.078517124 0.02608969 -0.14648545 0.19823533 -0.16240893 0.19473918 0.03952178 0.13007027
-0.20180772 0.019581309 0.13474666 -0.036203407 0.025048371 0.12581468 -0.21287616 -0.045239326
0.103068665 0.14481397 0.23092215 -0.030337593 0.052044485 -0.10103655 -0.052668244 -0.13244879
0.18750168 -0.0010986245 0.08026474 0.13540323 0.04543184 0.024161926 -0.024986314 -0.19555105
0.03650254 -0.036459558 -0.21103467 0.24226336 -0.03447761 -0.10581316 -0.2514893 -0.23804308
0.09318378 -0.11006255 -0.11376298 -0.15259409 0.20631249 -0.06627659 0.15191838 0.2003232
-0.196343 0.20807438 -0.041080575 0.25100297 0.1142895 -0.21849543 0.027618522 0.07581689
-0.09602393 0.19357283 -0.22857887 -0.08722526 0.24437621 0.24278285 0.11322612 -0.13571066
-0.22895013 -0.20507395 -0.062067863 0.16441445 0.093148395 -0.033046886 0.2320852 0.20162424
-0.092889056 -0.12449646 -0.0038695799 0.06165011 -0.02033152 0.10231392 0.17841922 -0.046203323
0.09887684 0.035200946 0.07977017 0.12405221 -0.039681 -0.12915465 0.1329605 -0.13749361
0.15446724 -0.18907633 0.16606279 0.12473749 -0.092233285 0.1355762 -0.05892924 0.05196062
0.0757354 0.03269083 0.045890618 -0.022232924 -0.07186082 0.1439568 0.092462055 0.099613994
0.15659839 -0.1330941 -0.07337315 -0.009026412 0.20339417 -0.21116538 -0.14373599 -0.052308857
-0.22393386 -0.17970678 0.15623838 0.02333653 -0.19809441 -0.02380372 -0.012123568 -0.08583185
-0.21230406 0.13027503 -0.049311582 0.24818066 -0.19782004 -0.1503359 -0.009601842 -0.16363534
0.18559287 0.17125273 0.2211374 -0.16980799 0.19002406 0.14804126 -0.08315984 0.03735856
0.12546039 0.17679094 -0.21495932 0.2552699 -0.06510015 0.10468269 -0.14682324 -0.2005357

gnn_base.gnn.gnn1.lin_key.bias f4 [48]
00000000: 60d8 f03c 00f8 ce3d f074 32be f837 553e
00000010: 46b5 b63b f67a 253e 7887 623d b0d5 e3bc
00000020: 0c4f db3d 5c05 733e d085 7c3e ae7c 57be
00000030: 806b 783c 82e7 37be 7228 153e eec7 373e
00000040: 38c3 33be 20bb 6cbc 8225 313e 664b 293e
00000050: 867a 40be dae2 2b3e d849 35bd 8cb8 59be
00000060: d8fa 4b3d 7c85 ee3d 5087 193e 6e0f 2ebe
00000070: 966a 39be 1001 2cbe 0e14 113e 3abd 5fbe
00000080: 7e28 0abb ec74 96bd a48a df3d e018 493d
00000090: 1446 01be d0db 323d aa96 6b3e 5898 283d
000000a0: f4b7 fdbd 4022 093c bad0 6abe a43f 24be
000000b0: b834 3ebd de86 1fbe dec8 583e d8c4 463d
0.02940005 0.10105896 -0.1742742 0.20822132 0.0055758087 0.16160187 0.055304974 -0.027811855
0.10708436 0.23732513 0.2466042 -0.21043655 0.015162349 -0.17959407 0.1456621 0.17947361
-0.17554939 -0.014448911 0.17299464 0.16532668 -0.18796739 0.16785756 -0.044259876 -0.21261805
0.04979977 0.11646554 0.14993024 -0.16998073 -0.18107066 -0.1679728 0.14167807 -0.21849528
-0.0021081264 -0.0734652 0.109151155 0.04909599 -0.12624389 0.04366666 0.23006693 0.04116091
-0.12388602 0.008369982 -0.22931185 -0.16039902 -0.046436995 -0.15578791 0.21170375 0.04852757

gnn_base.gnn.gnn1.lin_query.weight f4 [48, 16]
00000000: f4bc 5a3e a2b8 67bd afcb 95bc a708 693d
00000010: 1d0a c7bd 0bc8 b1bd a3b7 89be 8e09 333e
00000020: 0d9b 5a3e a07d 6dbe a28d d4bd 4b71 4abe
00000030: 4a88 a7bd 5112 4a3e d9bb 0a3e 8d4c 54bc
00000040: ef92 dc3d a54a b13d f28d fd3d dacf 47be
00000050: e5d3 983d f1a3 79be e58f 37be 4c5c c2bd
00000060: 9a9c 9fbc 355b 65be 8323 a7bc 88a2 183d
00000070: 2036 bcbd aef1 a43d ba22 613e 75f4 03bd
00000080: 9bc5 08be 7eb0 5cbe 063c 32be 5255 15be
00000090: 8451 42be d5ce bcbd d0f8 093e 4703 a03d
000000a0: 6160 5c3e 6f76 753e 6fab b7bd e172 aebd
000000b0: b751 f03c 4c14 4abe 045f 213e b59f 45bd
000000c0: 60ce 5cbe b6dc 47be 957e 2fbe a5d4 883d
000000d0: 0512 503e ba74 523e b122 4abd b115 10be
000000e0: 5f5d debd ef90 3dbe 8f69 2abd e091 60be
000000f0: 2d69 f03d 822c 7fbe bdba 27be 8080 1f3e
00000100: cf58 3abe 1f24 953d d50e 453e 26a3 793e
00000110: f9c3 f33d edfd bcbd 6870 003e 917e e03b
00000120: d2ca 9fbd 681c 813c 6c59 e03c f8b3 2e3e
00000130: e270 eb3d c025 e93d 9789 823d 55da 34bc
00000140: d336 fd3d 0ff5 6a3d b784 5dbe 23a7 ca3c
00000150: b2af 04be 4dcb f5bd 7258 aa3d 3d10 2c3d
00000160: 6f44 b13c 27ab fabd 301f e63d f5ff 693e
00000170: 6b7a 273d ea18 cf3d 4541 60be 4232 193e
00000180: 2214 c13d fc45 f33d f1a1 d33d 3dad 81bd
00000190: 2e5c e7bc 446b 713e d215 263e 7929 40be
000001a0: 172d 483e 7ed6 873e 216e 433c 9841 50be
000001b0: 5157 883d 7d72 1cbd d4b5 393e 7936 69be
000001c0: 5d10 a23d ba3d 293b 7cf3 0e3d 3db4 263e
000001d0: 2826 82bc b10c 56be a5da 2abe b972 d2bd
000001e0: 1484 633c afa0 f13d 89a0 7cbd 466b dabd
000001f0: fd4f 073e 2aff 76be a24f 3c3e dc7c f4bc
00000200: fdab 293e fa25 453e 3af6 4f3c 2807 b73d
00000210: 814a 0abe 417d 313e e397 113e ad16 30bd
00000220: abbc e23d a508 78bb 0c13 473e 5ecb d53d
00000230: cd82 353e dbc8 5cbe 9924 7d3e 1874 c33d
00000240: a25a fe3d 7312 763d e41b 253e 1145 783e
00000250: a524 0bbd 73cb 50be 5b4a 5b3e 72d3 7bbd
00000260: 189d fcbd 3a98 243e 6015 013e 4d48 f13c
00000270: 3e79 3fbb 6f77 00bd 470e 6d3e 4e9e 283e
00000280: 8b29 103e 2033 213e 120f 0cbe 8ee9 5f3d
00000290: 050d 53be 4e93 213e bf69 6cbe 9864 7ebe
000002a0: ac17 7bbe 69e7 0b3e e6f4 1a3d f87f f83b
000002b0: e1ba cb3c 5bf3 b8bd ac8b 9bbd 0f90 2bbe
000002c0: 36d8 99bd aa88 27be 5315 903a 6ac8 4c3e
000002d0: 02ef 41be b179 083e 3bca 23be 9d63 c2bd
000002e0: f1a9 653d c45b c23c 1a43 6b3e 5091 2a3c
000002f0: d0f6 efbd 8c1f e8bd ef7d 813b 3c55 4cbe
00000300: ea85 53be aafb d8bd d6a8 27bc aacf 1fbe
00000310: 141e 0ebe 0fec 3f3e f5ff 6d3e 76cc b3bd
00000320: fe72 50be 1f37 b1bd 8272 e23d fcf9 ab3d
00000330: 84e7 a8bd e25d 52be 2699 9abd 3814 58bd
00000340: 62aa 1d3e b4ef e1bd c14b 213e 39c4 f63c
00000350: e12a 66bd 6401 77be 47b2 673e 2ac6 20bd
00000360: 24c0 1c3e 2a3b e7bd fbdd 8abe 9a88 4bbe
00000370: 7a80 ebbd 6b46 a2bd d25e 57bc c37f 583e
00000380: aa52 70be ebf8 ef3d 84fc 583e 27b3 4abb
00000390: 047c 14be 7dbe 623c f950 973d adfa e93d
000003a0: 4c47 9abd be79 b8bd c942 c7bd d9b6 75be
000003b0: d6b9 a03d 041e 4fbe b17d 05be 7589 67bc
000003c0: bcb7 613e 4dcb 5a3e 60a7 1fbe 5414 4e3e
000003d0: d217 4c3e b278 4d3e 0a2e c2bb a2bd 3f3e
000003e0: 7b64 d33d 797f 22be fdb1 10be ab6e a2bc
000003f0: 3fb2 1abe 60ed 8bbd 5f5a 3c3e f6b1 013e
0.21361142 -0.056572564 -0.0182856 0.056893017 -0.09718726 -0.08680733 -0.26897916 0.17484114
0.2134821 -0.23192453 -0.10378577 -0.1976978 -0.08180292 0.1973355 0.1354822 -0.012957704
0.10770213 0.086568154 0.123805895 -0.19512883 0.07462291 -0.24378945 -0.17925985 -0.094902605
-0.019483853 -0.22398074 -0.020402675 0.037264377 -0.09190011 0.08053909 0.21985903 -0.032215554
-0.1335663 -0.21551701 -0.1740571 -0.14583328 -0.18976408 -0.092191376 0.1347382 0.07813125
0.2152114 0.2397096 -0.08968245 -0.08518005 0.02933584 -0.19734305 0.15758902 -0.04824801
-0.21563101 -0.19517788 -0.17138131 0.06681184 0.20319374 0.2055234 -0.04934949 -0.14070775
-0.10857653 -0.18512319 -0.041604575 -0.21930647 0.11738811 -0.24919322 -0.16379829 0.15576363
-0.1819794 0.0728228 0.19243939 0.24378642 0.11902613 -0.0922812 0.1254288 0.0068510254
-0.07802357 0.015760615 0.02738639 0.1706084 0.1149614 0.11384153 0.063738994 -0.011038383
0.123639725 0.057362612 -0.21632658 0.0247379 -0.12957647 -0.12001667 0.08317651 0.042007674
0.021639077 -0.12239676 0.11236417 0.22851546 0.04088823 0.10112174 -0.21899898 0.14960578
0.09427668 0.11878583 0.10333622 -0.06331871 -0.028242197 0.23576075 0.16219261 -0.1876582
0.1954845 0.26530832 0.011928112 -0.20337522 0.06657279 -0.038195122 0.18135768 -0.22774686
0.07913277 0.0025824145 0.034900174 0.16279693 -0.015887335 -0.20903279 -0.16684969 -0.10275788
0.01388647 0.11798226 -0.061676536 -0.10664992 0.13214107 -0.24120775 0.18389753 -0.029844694
0.16569515 0.19252768 0.012692982 0.08936912 -0.13504983 0.17332937 0.14218096 -0.042990375
0.11071142 -0.003784695 0.1944086 0.1043918 0.17725678 -0.21560995 0.24720992 0.095436275
0.124196306 0.06007619 0.1612392 0.24245097 -0.033970494 -0.2039011 0.21415083 -0.061480947
-0.12334651 0.16073695 0.1260581 0.029453421 -0.0029216553 -0.0313639 0.23149978 0.16466638
0.14078347 0.15742159 -0.13677624 0.054666094 -0.20610435 0.15778849 -0.23087214 -0.24843061
-0.24520749 0.13662495 0.03783121 0.0075836144 0.024869384 -0.09030791 -0.07595 -0.16754173
-0.07511942 -0.16360727 0.0010992683 0.19998327 -0.1893883 0.13327672 -0.15995114 -0.09491656
0.056070272 0.023725398 0.22974816 0.010410622 -0.117169976 -0.11334142 0.00395178 -0.1995439
-0.20656553 -0.10594876 -0.010233125 -0.15606561 -0.13878661 0.18742393 0.23242171 -0.08779232
-0.20356366 -0.08653092 0.11056997 0.0839729 -0.08247283 -0.20543626 -0.07548742 -0.052753657
0.15397027 -0.11032048 0.15751554 0.030122863 -0.056193236 -0.24121624 0.22626601 -0.039251484
0.15307671 -0.112905815 -0.27122483 -0.19876328 -0.11499114 -0.079235874 -0.0131451655 0.21142487
-0.23469034 0.11717399 0.21190077 -0.0030929537 -0.14500433 0.013839361 0.07388491 0.11424766
-0.0753313 -0.090075955 -0.09729535 -0.23995532 0.078479454 -0.20226294 -0.13036229 -0.014131893
0.22042745 0.21366616 -0.15591192 0.20124942 0.19930962 0.20065573 -0.0059258984 0.18724683
0.103218995 -0.1586894 -0.14130397 -0.019828161 -0.15107058 -0.06832385 0.18393849 0.12665543

gnn_base.gnn.gnn1.lin_query.bias f4 [48]
00000000: 1942 773e bd88 2dbd f011 1e3e bd51 acbd
00000010: 54e0 423e 28c8 bb3d 2fa5 6b3e 1d47 c93d
00000020: 665d bdbd 8061 ed3d a3ba 553e 5185 143d
00000030: 22b4 e03d bc85 2bbe 3d75 053e c544 60be
00000040: 7533 623e a76b e93d 9f18 b43c fe9a 68be
00000050: 74d6 7c3e 3ab8 293e a083 5b3e 61df c23d
00000060: 65a8 9a3d 49e7 98bd be40 e9bd 7770 c03d
00000070: 60a5 a43d dad8 91bc fd23 0b3d 06d9 9b3d
00000080: 0a3d 74be f616 6bbe d021 7fbd ad17 383e
00000090: 8c6c f63d a56a 71be 0cf0 93bd 6a84 e2bc
000000a0: 4cbc b23d 766b 573e e658 79bb d335 51be
000000b0: 15ac 453c 3a71 aabd 7afe 0ebe cfce 0b3e
0.24146308 -0.042366732 0.1543653 -0.08414028 0.19030887 0.09169036 0.23012231 0.09828017
-0.0924633 0.11590862 0.20871978 0.036259953 0.109718576 -0.16750234 0.13033004 -0.21901233
0.22089942 0.11397486 0.021984397 -0.22715375 0.24691182 0.16574183 0.2143693 0.095152624
0.0755165 -0.07465989 -0.11389302 0.09396451 0.08039355 -0.017803598 0.033969868 0.07609753
-0.2385141 -0.22957978 -0.062288105 0.17977782 0.120324224 -0.23575838 -0.0722352 -0.02765103
0.08727321 0.21037087 -0.0038047372 -0.20430689 0.012064953 -0.083223775 -0.13964263 0.1365311

gnn_base.gnn.gnn1.lin_value.weight f4 [48, 16]
00000000: 6df1 ddbc b1d1 f83d 00b3 433e 1a7f eb3c
00000010: 79f2 133e f002 e8bd c64e 0b3e 3c4e 163c
00000020: 5409 2d3e 5e26 763e 045d 3cbe 723c 693e
00000030: 1ab8 493e b145 52be 2a58 863d ad22 4abe
00000040: 8ad2 b23d f7e0 143d b43d 70be 0a81 b03d
00000050: 6042 8dbd 9bd1 733e ad44 703e 21c9 b33d
00000060: 1824 483e 33fc b73d a553 6d3e e63b cbbc
00000070: 1208 883d b0a5 27bd 7937 53bb 3a15 9dbd
00000080: 9f79 bdbd 0ac7 203e d6a4 ec3d 4258 ecbd
00000090: 95e8 62be 3737 f53d e90a 69be daed c6bb
000000a0: 6f6a 5dbe b9f2 5b3e 1bcc 583e 7228 56be
000000b0: f648 6cbe cd99 23be 408c 813d b7a9 07be
000000c0: 15db 58bd e0fc 9bbd dde8 483d 514f fbbd
000000d0: 2227 df3d e593 29be dbb2 e4bc 80c4 4c3e
000000e0: 9bc1 12be 239f 453e 0825 0c3e 1bc8 c3bd
000000f0: b71e bf3d 35e3 20be 0594 b73c 9266 ab3d
00000100: dad5 593e 1804 08be 0584 20be 1165 d7bd
00000110: b2a0 75be f57e 663d fe35 5cbe e38b 99bd
00000120: 3c6d d1bd 489c 6a3c 4455 713d 4d8a 39be
00000130: eda4 99bd e4fd 8abc 2e60 06be a502 9f3d
00000140: b603 b33d 7fa6 38be 525b 463e 2580 3a3e
00000150: db91 9bbd ea43 e13c 3b19 df3c 6327 cfbc
00000160: 62bb 27be db05 4e3e 1dce ca3d 6954 53be
00000170: 71e5 49be d9af 7c3e 0e53 4f3d 23b9 56bd
00000180: 6fab 413e fc96 853d 3429 e33d 0ff3 393e
00000190: f21e 47bd 357c 883e 3aa3 41be 3e54 35be
000001a0: 08a5 ac3c 0001 58bc c7a0 133e 8f9e aebd
000001b0: 7f05 713d 47fc 06bd 80f3 363e e492 16bc
000001c0: de0b e33b 848c 3b3e 06c9 6a3e c86e 803e
000001d0: 4773 7abe 2afb 07be fdc2 89bd e3ab 93bd
000001e0: df0f 1b3e 2d18 f33d 5676 c8bc 9190 b43b
000001f0: 2ec5 5f3d b6fa 663e fea6 113e ae22 debd
00000200: b769 0abe 127f 973d 7b66 d8bc d965 26be
00000210: e1fa 6cbe 1ca7 133d 79c7 5ebd 5948 0fbe
00000220: dc23 573d 4cb3 6a3e 7669 6f3e b1f7 183e
00000230: 5a0c 4cbe 5dbd 073e 343a 013e 8b51 6c3d
00000240: bea1 75bd 4088 e0bb 2537 06be 97c7 63bd
00000250: 851f 35bd ba6f 17bd c7c5 80be 96ce bc3d
00000260: 43be 53be 201d 42be 77e0 b13d 8864 51be
00000270: ba5e 733e a6bd 753e 337f 9dbd 38d0 25bd
00000280: fff4 46be 520e 0b3d 963d 303d a0bf 0cbe
00000290: 9feb 983d d650 95bc 8f61 a0bd 943e 2a3c
000002a0: 627c 75be 0228 39be 445d a13b 4d79 703e
000002b0: 32c5 14be 9587 263e 90bd 083d 63fd c3bd
000002c0: 3e82 37bc 3d8d ee3d 2878 ae3c 5d4d 683e
000002d0: 149f 1bbd 31e5 2ebe 3be7 6c3e 5743 55bd
000002e0: c31e 273e 7a6d 133e be37 2b3d 29aa 47be
000002f0: b023 82be c578 f43d 5d82 9b3d b12d 143e
00000300: 9eb7 75be b814 b6bc d6d4 4d3e d38a 163e
00000310: 47ca 5b3e 5f76 493e a203 2ebd 9375 2dbe
00000320: d894 07be d541 b13d 851a d6bd 19dc 063c
00000330: f7ea f93c bf14 1e3e 3c0a 163e 1596 0f3e
00000340: fcbb 643c fe82 023e 7d3d e9bd 58c4 c9bd
00000350: 6a9d 1abd 9f11 16be e332 683e 718b 26bd
00000360: e4f0 953d fac5 5039 775e b0ba 6d5e 06be
00000370: 4b1d a1bc 4d82 6fbe 734f f5bd 8100 3f3e
00000380: d51f 73be 278a 663d daf8 033d 1f17 73be
00000390: 1032 583d 1056 033e 9699 3a3e 4fb7 1f3d
000003a0: 151b 4b3e e722 f43b 12c5 d23d cfa7 8d3d
000003b0: d625 42be 2192 75bd 8a42 39be 63e7 4c3e
000003c0: 655e 083e 4fb6 e1bd b3cb c9bc 72d5 613d
000003d0: 146b 75be c043 9a3c 9d36 d73d 9705 b23c
000003e0: 2a88 2abd 7e71 2d3e 4ffc ba3d 6fc0 73be
000003f0: d483 263e fa65 2fbe 5b08 0f3e 062c 673e
-0.02709266 0.121493705 0.19111252 0.02874713 0.14447965 -0.11328685 0.13604268 0.009173926
0.1689809 0.24038073 -0.18394858 0.22776964 0.19699135 -0.20534398 0.06559785 -0.1973979
0.087315634 0.036347356 -0.23461038 0.08618362 -0.06897426 0.23810427 0.23463698 0.08778597
0.19545019 0.0898365 0.23176439 -0.024808835 0.06642164 -0.040929496 -0.003222911 -0.07670064
-0.09251713 0.15700927 0.115548775 -0.11540271 -0.22159036 0.11973422 -0.22758068 -0.0060708346
-0.21622632 0.2147931 0.2117161 -0.20913866 -0.23074707 -0.15976639 0.06325579 -0.13248335
-0.052943308 -0.076165915 0.0490502 -0.12270988 0.10896136 -0.16560324 -0.027917316 0.19996834
-0.14331667 0.19298987 0.13686001 -0.095596515 0.0933203 -0.15711673 0.022409448 0.08369173
0.21272984 -0.13282812 -0.15675361 -0.10517324 -0.23987082 0.05627342 -0.21504971 -0.074973844
-0.10225913 0.014319487 0.058919206 -0.18119164 -0.0750216 -0.016966768 -0.13122627 0.07764176
0.08740942 -0.18032263 0.19370773 0.18212946 -0.07596179 0.027498204 0.02723371 -0.025287336
-0.16380075 0.20119421 0.09902594 -0.20637669 -0.19716431 0.24676456 0.050616316 -0.052422654
0.18913053 0.065229386 0.11091843 0.18159126 -0.048613496 0.26657262 -0.18909922 -0.17707917
0.021074787 -0.013183832 0.144168 -0.085263364 0.058843132 -0.032955434 0.17866325 -0.009190295
0.006928905 0.18315321 0.22928247 0.2508452 -0.24458037 -0.13279405 -0.06726644 -0.07210519
0.15142773 0.118698455 -0.02447049 0.0055103977 0.054631405 0.22556576 0.14223859 -0.108464584
-0.1351689 0.073972836 -0.026416054 -0.1624979 -0.23142578 0.03604804 -0.05438945 -0.13992442
0.052524433 0.22919959 0.23380074 0.14938237 -0.19926587 0.1325583 0.12619859 0.057694953
-0.059968702 -0.0068521798 -0.13106973 -0.055610266 -0.044219512 -0.036971785 -0.25150892 0.09219091
-0.20678048 -0.18956423 0.086853914 -0.20448506 0.23766604 0.23998126 -0.07690277 -0.040481776
-0.19429396 0.033949204 0.043027483 -0.13744974 0.07466816 -0.018227022 -0.07831108 0.010390896
-0.2397323 -0.18081668 0.004924448 0.23483773 -0.14528349 0.16262658 0.033383906 -0.09569814
-0.011200486 0.11648033 0.02129753 0.22685762 -0.037993506 -0.17079617 0.23135082 -0.052066173
0.16320328 0.1439723 0.041801207 -0.19498505 -0.25417852 0.119370975 0.07593224 0.14470555
-0.23995826 -0.022226676 0.20100722 0.14701395 0.21463881 0.19674061 -0.042483933 -0.16939382
-0.13240373 0.086551346 -0.10454277 0.008231186 0.030507548 0.15437602 0.14652342 0.14022096
0.013960835 0.12745282 -0.11388681 -0.09851903 -0.037747778 -0.1465516 0.22675662 -0.040660325
0.07321337 0.00019910178 -0.0013455887 -0.13121958 -0.019667288 -0.2338955 -0.11978044 0.18652536
-0.23742612 0.056284096 0.032219745 -0.23739289 0.05278212 0.12825799 0.18222651 0.038993176
0.1983455 0.0074504497 0.102914944 0.069167726 -0.18959746 -0.059953813 -0.18091789 0.20010142
0.13317259 -0.11021101 -0.024633264 0.055135198 -0.23966628 0.018831134 0.105084635 0.021731181
-0.041633762 0.16937825 0.09130155 -0.23803876 0.16261226 -0.17128745 0.13968031 0.22575387

gnn_base.gnn.gnn1.lin_value.bias f4 [48]
00000000: d609 6e3e 35b9 12be 91c9 373e a0dc c2bd
00000010: e2aa b03d 2d6f 0ebe 1450 b9bd 7d11 713d
00000020: 346c 333e 6a0b 96bc 9203 b23d 7d71 11be
00000030: cc10 8a3d 1535 c5bc c41c 85bd 3c0e 113e
00000040: 1a78 b6bd 376b 1fbe 3434 93bd d55c 043e
00000050: 5f9e 673e 850a 663e c7a7 453e 1c36 25be
00000060: cffe 673e b212 d43d 3705 1a3d ada3 18be
00000070: 69e6 13be ba4f 8c3d 3b6b f7bc 0f3c 55bd
00000080: 2eab 49be 6320 573e d088 9c3d e555 193d
00000090: ff88 293c ed60 083e b38c 07be a396 8bbc
000000a0: 6a57 653e 03ad 17bd 4830 62be 47f3 1cbe
000000b0: 77d2 123e 52ed 0a3e 5077 283e 04ed 8ebd
0.2324594 -0.14328463 0.17947985 -0.09514737 0.08626343 -0.13909598 -0.09048477 0.05885457
0.17521745 -0.01831599 0.08692087 -0.14203449 0.06741485 -0.024073163 -0.06499627 0.14165586
-0.08909626 -0.15568243 -0.07187691 0.12926038 0.22619008 0.2246495 0.19302283 -0.16133922
0.22655796 0.10355128 0.03760263 -0.14906187 -0.14443363 0.06851144 -0.030202499 -0.05205923
-0.19694206 0.21008448 0.076432824 0.03743543 0.010347604 0.13318224 -0.13237266 -0.017039603
0.22396627 -0.03703023 -0.2208873 -0.15327178 0.14338098 0.13567093 0.16451764 -0.06978801

gnn_base.gnn.gnn1.lin_edge.weight f4 [48, 1]
00000000: efb0 eebe 8bb1 64bf 7063 843d 2343 62be
00000010: 0647 6f3f 8d92 e9be 6ab0 1ebf 9877 cb3e
00000020: 7a1b b8be 6d7a b4bd a9b7 7d3f 263d 203f
00000030: 1f2d 81bf 63f0 593d 7c04 e03c dd9a 7d3f
00000040: 2cf9 5dbf 4434 1b3f 4bfe 7cbf c4a8 79bf
00000050: ef1e 07bf 5928 75bf 5185 56bd 31c2 4c3f
00000060: ef89 8bbe 8c45 42bf a8dc c3bd 271e 4fbf
00000070: 8a7b 2b3f a85d 163e fac5 603f 7e03 df3e
00000080: 7d96 b43e 6dd8 a83e 9240 6d3f 56ac 20bf
00000090: 9083 20bf d7f1 423f b538 be3e f050 683f
000000a0: a37b 783e 81c8 b83e 5a43 1b3f bfbc 263f
000000b0: 6de3 093f 61c8 47bf 1fd8 8f3e 96a0 2cbf
-0.46619365 -0.8933341 0.06464279 -0.22095923 0.9346775 -0.45619622 -0.61987936 0.3973968
-0.35958463 -0.08812413 0.9910837 0.62593305 -1.0091895 0.053207766 0.027345888 0.9906443
-0.8670833 0.60626626 -0.9882552 -0.9752314 -0.52781576 -0.9576469 -0.052373234 0.7998381
-0.27253672 -0.7588737 -0.09563571 -0.80905384 0.6698538 0.14684165 0.8780209 0.43557352
0.35271063 0.3297762 0.9267665 -0.62762964 -0.6270075 0.7615027 0.3715264 0.907485
0.24265914 0.36090472 0.60649645 0.65131754 0.5386265 -0.7804013 0.28094575 -0.67432535

gnn_base.gnn.gnn1.lin_skip.weight f4 [16, 16]
00000000: 1d8e 003d ce39 113e 0523 b2bd 6733 633e
00000010: bdba 623e d91c a03d c751 2bbe 9068 863b
00000020: 8c70 4b3e a89b 3b3d c03b 613e cfe2 0b3c
00000030: 815c e0bd 5030 233e e738 973d 0e04 133e
00000040: 524b 1cbe afa7 37be d37e 273e 7d92 b33d
00000050: 74db 3d3e a689 4dbe f013 e2bd fc1a ff39
00000060: d7c0 04be e82a 1a3e 5198 433e 6a79 693e
00000070: 41fd e83c c5d3 77be 20ac a6bd 694a 6b3d
00000080: 6815 92bd 32b2 df3d 4883 9abd c94c 4e3e
00000090: c786 6c3e 6ab5 703e 2de4 c73d 277c 25be
000000a0: 5ca1 75bd 3491 01be 9128 e43d ea99 8fbb
000000b0: 96ed b83d 7606 593d 9a4a 8ebd c49e 983c
000000c0: d81a 06bd 5eff cd3c 691d 33be b9da 98ba
000000d0: 981a 403e f8d9 0b3e b4c6 25be 2630 463e
000000e0: 11ca cbbd 88d0 6a3e eeee 46bd 6dca 813e
000000f0: 90d9 1c3e 2845 c7ba b00d 353e 8fb2 5d3e
00000100: 2b61 52be 64dc 473d acf7 1e3e 3e2f 83bb
00000110: eb41 273e 755a 403e 95bb 52be 5b9d 133e
00000120: ddcb 5bbe 44bd 203e a386 22be 3380 83bd
00000130: 9059 633d 2bed 57be 7cfc 8a3c b9e4 a1bd
00000140: 2025 983d 900c 84bb 980a 78be 42d7 7dbd
00000150: 8ce2 1d3d 8c81 0a3e 4849 11be 3c08 21be
00000160: 2add e63d 65e8 0ebe f085 e6bd 84ef 7dbe
00000170: 2659 6bbd c1ff 3cbe 9f47 303d 8dd3 4e3e
00000180: d3ee 043e 5a44 65be d40a 753e 37eb 75be
00000190: fb92 edbd a4e2 1a3e 0d88 e43d bf40 e43d
000001a0: 8d34 a1bd ae56 48be ee79 7ebe 747b 7b3c
000001b0: 8514 61be 1c60 1bbe b2b7 1d3e 4da9 25bd
000001c0: e98c c63d ca2a 4dbe 5a4d e43c 86c2 703e
000001d0: e170 373d 7885 4c3d 49a6 2dbe 26e2 50be
000001e0: 666a 193e 80f4 53be 398d 30bc 1afe 55be
000001f0: 4b36 e03c a9b3 70be d2bc 9d3d a50a 5f3c
00000200: d7b1 28be 520b dfbd 75bd cdbd b26d eebd
00000210: 03b6 47bd a92d 2c3d 621a 06be 7b4c 633d
00000220: 0ec5 4bbe 262e 6c3e 6b61 f6bd 7094 e03d
00000230: ca3e 32be 5d5a 33be dfb3 80bd 6a59 23be
00000240: 29de 7abd b18f dbbd fe26 79bd 6e3b 47be
00000250: 1fdd 743e 605c 0d3e 1c11 c4bd 6096 383e
00000260: 4d08 f9bd bbbf 4dbe ebea 923d 3378 c9bd
00000270: b543 483e 9ed6 7cbd c60e 57be ad63 5d3e
00000280: b036 663d 1aab b93d 4148 f3bc 383d 56be
00000290: 839a 9f3d 16dd 513c a537 2fbe ea29 153e
000002a0: 0f76 78be 7962 1dbe 102f a9bd 6aa4 72be
000002b0: d7c0 60be d576 94bd 6035 24bd 88be 453e
000002c0: a497 e33d 648e 6c3e ca0b 9b3d de48 243d
000002d0: a5b6 2fbd 2c11 dfbd d975 67be 0c80 5dbe
000002e0: 33ae e53d 4111 34be b74d cdbd d1db e83d
000002f0: a7cc 21be 7906 c73d e030 2ebc 06cf 503d
00000300: edc6 e3bd 8911 453e 70dd 57be 3710 63be
00000310: 00d7 483e 8c4a 1fbe 6fe5 6f3e 5e78 d53d
00000320: 81e2 d93d 7fe1 99bc b3d2 673d 1619 683d
00000330: 541f dabd dd41 3e3e 2c46 113e 1b2f 7c3c
00000340: fe7b 913d b60d 3bbd 695b babd f1d8 42be
00000350: c7f6 b2bd 33d8 83be c1de 9ebd eb2f 083e
00000360: f77d 7c3e 6ea4 76be 8c6c 50be 366d 5d3e
00000370: 33e4 c2bd 9403 a6ba 35d8 303e a82a 5c3e
00000380: 1a95 c33d d3c1 903d 0856 31bc 6be7 023c
00000390: 674e d83d 73ef 81be b57b 78be 52c3 2a3e
000003a0: b7bd 76be 4408 073e db3a 363e 9e5e 283e
000003b0: 934f a43d 2539 a53c 97b1 e63d 93b9 193e
000003c0: da98 7b3c fe1d 35be b17c 233e bd2a 653c
000003d0: 4a0d 0d3e c76f 2dbe 2526 8dbd a227 33be
000003e0: 02a0 b83a 6a77 6b3e b663 c33c 1377 523e
000003f0: a2a7 493e 6390 1ebe c4dd 783e 053a d93c
0.03138553 0.14182207 -0.08698086 0.22187577 0.22141548 0.07818002 -0.16730414 0.0041018203
0.19867152 0.045802742 0.21995449 0.008537962 -0.10955144 0.15936399 0.073839 0.14357015
-0.15263107 -0.1793506 0.16356973 0.08768175 0.18540746 -0.2007204 -0.11038959 0.00048657495
-0.12964188 0.1505543 0.19101073 0.22800222 0.028441073 -0.24201877 -0.08138299 0.05744401
-0.07132989 0.1092266 -0.07544571 0.20146479 0.23098288 0.23506704 0.09760318 -0.16160642
-0.059968337 -0.12653047 0.1114055 -0.0043823617 0.09029691 0.052984677 -0.06947823 0.018630393
-0.032740444 0.025146183 -0.17491688 -0.0011661864 0.18760145 0.13657367 -0.1618908 0.19354305
-0.099506505 0.22931111 -0.048567705 0.2534975 0.15317369 -0.0015203105 0.17681003 0.21650146
-0.20544879 0.048794165 0.15524167 -0.0040034344 0.1633374 0.18784507 -0.2057937 0.14415495
-0.21464486 0.15697199 -0.15871672 -0.064209364 0.055505335 -0.21086566 0.016966097 -0.079049535
0.07428956 -0.004029818 -0.24222791 -0.061972864 0.03854613 0.1352598 -0.14188111 -0.15725797
0.112726524 -0.13955839 -0.11256015 -0.24798399 -0.057458065 -0.18456937 0.043037053 0.20197888
0.12981729 -0.22389355 0.23929912 -0.24015509 -0.116003 0.15125519 0.11158762 0.11145162
-0.078713514 -0.19564316 -0.248512 0.015349258 -0.21980484 -0.15173382 0.15402105 -0.04044466
0.09694845 -0.20035854 0.027868915 0.23511705 0.044785384 0.049931973 -0.16957964 -0.20398769
0.14981994 -0.20698738 -0.010775858 -0.20897713 0.027369639 -0.23506035 0.0770203 0.013613378
-0.1647409 -0.10890831 -0.10045902 -0.116420165 -0.048757564 0.042035732 -0.13096002 0.05549286
-0.19899389 0.23064479 -0.120303 0.10965812 -0.17406765 -0.1751494 -0.06284308 -0.15952078
-0.061247025 -0.10720766 -0.0608282 -0.19456264 0.23912476 0.1380477 -0.09573576 0.18026114
-0.121597864 -0.2009267 0.07173713 -0.09837379 0.19557078 -0.061728112 -0.2100173 0.21620055
0.056204498 0.09065838 -0.02969754 -0.2092179 0.07793143 0.012809059 -0.1711107 0.1456677
-0.24263786 -0.15369596 -0.082609296 -0.23695531 -0.21948563 -0.07249228 -0.040089965 0.19310963
0.111129075 0.23101193 0.07570608 0.040108554 -0.042898793 -0.10891947 -0.22603549 -0.21630877
0.112148665 -0.17584707 -0.100245886 0.11370052 -0.15800725 0.097180314 -0.01063177 0.050978683
-0.111219265 0.1924497 -0.21080565 -0.22174154 0.19613266 -0.15555781 0.23427366 0.10423349
0.10638905 -0.018784283 0.056597423 0.05666455 -0.106505066 0.18579812 0.14186925 0.01539209
0.07103728 -0.045667373 -0.09099466 -0.19028069 -0.08738475 -0.25750884 -0.07757331 0.13299529
0.24657427 -0.24086162 -0.20353907 0.21623692 -0.09516182 -0.0012665861 0.17269976 0.21500647
0.09549923 0.07068219 -0.010823734 0.007989745 0.10561829 -0.25377998 -0.2426594 0.16676071
-0.24095808 0.13186747 0.17795889 0.16442344 0.0802299 0.02016885 0.11264341 0.15012197
0.015356267 -0.17687222 0.15965535 0.01398724 0.137746 -0.16937171 -0.06892041 -0.17495587
0.0014085772 0.22994772 0.023851257 0.20553236 0.19692853 -0.15484767 0.24303347 0.026516924

gnn_base.gnn.gnn1.lin_skip.bias f4 [16]
00000000: 7554 603e 3d08 383d 9e92 30bd 101a 4c3e
00000010: 408d 4bbe a936 b73b 54b0 86bc 50b1 a13b
00000020: b960 8bbd 127a 4c3e 4166 a5bc 35c1 ce3d
00000030: 54fe aa3d 349d 703e 1c01 9c3d cff1 6bbe
0.21907218 0.04492973 -0.043108575 0.19931817 -0.19878101 0.005591233 -0.016441502 0.0049344674
-0.06805558 0.19968441 -0.02019036 0.10095445 0.083492905 0.23497468 0.07617399 -0.23041461
