onpolicy/results/GraphMPE/navigation_graph/rmappo/crap_bad/run24/models/critic.pt (torch, 199203 bytes, 61 tensors)

gnn_base.gnn.embed_layer.entity_embed.weight f4 [3, 2]
000000 3f 66 70 3f b8 cf 58 3f 0b 10 6b bf 0d 52 9a 3f
       0.93906015 0.84691954 -0.91821355 1.205629
000010 35 57 cc bf 85 74 dc 3f
       -1.5964113 1.7223059

gnn_base.gnn.embed_layer.lin1.0.weight f4 [16, 7]
000000 49 d3 01 3b d8 30 39 bd fd 72 a6 be 80 a1 c4 be
       0.0019809774 -0.045212597 -0.32509604 -0.38404465
000010 bb 89 70 be ce a7 e1 3d c8 98 2a bf 25 e3 d7 3e
       -0.2349004 0.11018334 -0.66639376 0.42165485
000020 64 b6 09 be 61 14 9a bd 87 02 e6 be 7f ea 07 bf
       -0.13448483 -0.07523418 -0.44923803 -0.5309219
000030 ad 8a 17 3f 5e fb ba 3e 1a db d1 3c e7 78 cc 3e
       0.5919598 0.36519903 0.025617171 0.3993599
000040 5d 00 ce 3e df fd 8f 3c 08 73 e4 3e 55 a7 b5 3d
       0.40234652 0.01757711 0.44619012 0.08869807
000050 6c e8 2b 3d b3 6d ce bd 2e 78 57 be 5c 20 bc be
       0.0419697 -0.10079517 -0.21041939 -0.36743438
000060 20 0c a8 3e b9 99 d0 3e 80 d4 c4 3e 17 82 8f bd
       0.3282175 0.4074228 0.38443375 -0.070072345
000070 c5 dd c8 be 33 36 52 bd 41 4f 93 be 5b 0c 0f 3f
       -0.39231697 -0.05132122 -0.28771403 0.5587823
000080 a5 a6 ea be 7d 0c 08 bf 85 c2 ea 3e ba b7 bb be
       -0.45830265 -0.53144056 0.45851532 -0.3666361
000090 58 bc e9 3e fb 25 3f bf f7 c9 fb bd 76 13 33 be
       0.45651507 -0.7466733 -0.12294381 -0.17487893
0000a0 9a 3b 6c 3d 5d 23 08 bf b4 9d 8b be 05 47 25 3e
       0.057674028 -0.5317896 -0.27268755 0.16140373
0000b0 6d 42 ac bd 49 11 0f be 72 b4 23 3f 2b 3d 31 3e
       -0.08411107 -0.13971438 0.6394721 0.1730849
0000c0 d1 aa e2 3b ce a0 dd be 65 12 2f bf 50 54 d2 bd
       0.0069173356 -0.43286747 -0.6838744 -0.102699876
0000d0 79 6d 05 bf 4a a0 97 3e b8 c2 52 be b0 b0 cb 3e
       -0.52120167 0.29614478 -0.20582092 0.3978324
0000e0 09 74 44 3e 98 f7 a9 3e a9 85 1a bf 9e 3b 8b bd
       0.19184889 0.33196712 -0.603602 -0.067984805
0000f0 b9 5d 18 bd fe ed 86 3e 3f f6 12 3f 28 fb f3 3d
       -0.037198756 0.2635345 0.5740699 0.11913139
000100 50 98 c6 3e f6 ff e8 3d 4d c5 d4 bd 69 bd d9 3d
       0.3878808 0.11376946 -0.10389195 0.1063183
000110 9c 69 ed 3d 59 53 fc 3e 19 0e 05 3e f0 2c 41 3e
       0.11592409 0.4928234 0.12993659 0.18864799
000120 74 89 55 3e f6 8b 49 3f c3 ee 6c be 89 47 c0 3e
       0.20853215 0.7872919 -0.23137955 0.37554577
000130 e1 fc c7 bd e7 42 ff 3e a9 e8 2d be 8e 74 07 be
       -0.0976503 0.4985573 -0.16983284 -0.13228056
000140 b8 ae 13 3e 5d b5 3b 3e b6 7a 3b bf b8 f2 70 be
       0.14422119 0.18330903 -0.7323412 -0.2353009
000150 34 7c 77 3e 6d e1 45 bf 3f 0a 80 be e6 f3 94 3e
       0.24168473 -0.772971 -0.25007817 0.2909233
000160 ed f5 22 be b2 91 7f 3e cd d0 8b bc 64 6a 3b bf
       -0.15914126 0.24957922 -0.017067337 -0.73209214
000170 19 12 38 3e 6e 6b 53 3e f1 23 07 be b4 76 00 bf
       0.17975654 0.2064645 -0.13197304 -0.50181127
000180 22 35 d8 bd 67 42 12 3e af f7 e4 be 49 89 a9 be
       -0.10557009 0.14283143 -0.44720218 -0.33112553
000190 4d 36 09 3f c4 35 4c 3d 5c 55 0c be 84 2f de 3e
       0.5359848 0.049855962 -0.13704437 0.43395627
0001a0 5f af 97 be 1f 63 c3 3e 4c 59 06 3e ce 08 b1 3e
       -0.29625985 0.3816156 0.13120002 0.3457703
0001b0 24 45 d2 be 38 8c c1 be d6 54 b3 be 78 ad 13 be
       -0.41068375 -0.3780229 -0.35025662 -0.14421642

gnn_base.gnn.embed_layer.lin1.0.bias f4 [16]
000000 ac 4e be bb b2 30 bc 3b da e6 1c 3c 73 9f 0d 3b
       -0.0058077183 0.0057431096 0.009576524 0.0021609932
000010 19 1a 9e ba b1 1d 4f 3c 92 bc 00 bc 60 b5 49 bb
       -0.0012062221 0.012641356 -0.007857459 -0.0030778274
000020 a0 ee a5 bb 85 14 c6 3b 86 bd fc 3b a8 87 de bb
       -0.0050638467 0.0060449266 0.0077130226 -0.006791074
000030 05 98 61 3b 0c 9e 0b 3a 3c 99 10 bc 67 f3 ad bb
       0.0034422886 0.000532598 -0.008825596 -0.005308557

gnn_base.gnn.embed_layer.lin1.2.weight f4 [16]
000000 6c 9e 80 3f 27 96 7f 3f 81 87 80 3f c9 4e 80 3f
       1.0048347 0.9983849 1.0041353 1.0024043
000010 93 87 7f 3f 1e 4e 7e 3f 75 81 7d 3f d6 53 80 3f
       0.99816245 0.9933795 0.9902566 1.0025585
000020 93 af 7d 3f a3 b7 80 3f 8e c1 80 3f 54 c5 7f 3f
       0.9909603 1.0056041 1.0059068 0.99910474
000030 60 5c 80 3f 2a 8e 7e 3f b4 19 80 3f dc 9f 80 3f
       1.0028191 0.99435675 1.0007844 1.0048785

gnn_base.gnn.embed_layer.lin1.2.bias f4 [16]
000000 2c 3d 9f bb f3 6e d6 3b 3c 1e 0e 3c e9 3d 54 3b
       -0.004859587 0.006543988 0.008674201 0.0032385534
000010 30 74 25 3a 96 53 1e 3c 22 6e 37 39 21 9c 3a bb
       0.0006311564 0.009663483 0.00017493268 -0.0028474408
000020 b3 1c a4 bb c5 4a b8 3b ac 29 3b 3c 0c 43 81 3a
       -0.005008304 0.0056241476 0.01142351 0.00098619
000030 52 f5 7b 3b 7b 97 0c 3b 11 5f 10 bc 0c 6e 9b bb
       0.0038445783 0.0021452594 -0.008811728 -0.004743343

gnn_base.gnn.embed_layer.lin_h.0.weight f4 [16, 16]
000000 ba bb bf bd 62 f4 49 3f 16 78 ba bd ef d4 09 3f
       -0.09361978 0.78888524 -0.09104936 0.53840536
000010 ff 91 88 3e 52 28 98 bd 12 fb a3 3d fd 96 13 3f
       0.26673886 -0.074295655 0.08006872 0.57652265
000020 3e 1c bb 3e f3 74 03 3e ec f0 b4 bd ed e9 11 3e
       0.36544985 0.12837581 -0.08835015 0.14249392
000030 aa 13 0b 3f af 70 ca bd 78 89 5c be f9 9d b5 be
       0.5432688 -0.09884774 -0.21536815 -0.35472086
000040 f1 62 00 bc 21 a1 14 3d ba e4 e0 3e 30 e3 e4 bc
       -0.0078360895 0.036286477 0.43924505 -0.027940363
000050 38 2f 3e bf c2 3f 80 be bf b8 20 be 66 54 c4 3e
       -0.742908 -0.25048643 -0.15695475 0.3834564
000060 03 58 c6 3d 7b 09 c9 be 56 b3 95 be c4 0e c2 be
       0.09684756 -0.39265046 -0.29238385 -0.3790189
000070 4a 73 07 3f 7b df 9b 3d c1 8c ba 3e 0e 29 e9 3e
       0.5291029 0.07610985 0.36435512 0.45539135
000080 12 43 db 3e 57 f5 97 bd 74 09 63 3e ee 04 53 3e
       0.42824608 -0.07419842 0.22171575 0.2060735
000090 ee 2f f4 3e d7 e8 48 3f b2 e6 cc be 70 fe 48 bb
       0.47692817 0.78480285 -0.40019757 -0.0030669235
0000a0 bf f9 c4 3d 05 2a 98 3d 19 06 ca be 80 a5 ac be
       0.09617948 0.074298896 -0.39457777 -0.33720016
0000b0 a6 f7 c0 3d 29 7d 7e be ff 5c 87 be c0 26 0a 3f
       0.09422235 -0.24852432 -0.26438138 0.5396538
0000c0 d3 98 ba 3d 94 83 0a bf 5a ed 12 bd d3 af 0d 3f
       0.0911118 -0.5410702 -0.035870887 0.5534641
0000d0 5d e4 e4 3e 5f af c8 be 2c 0d 19 3f 9f 99 05 3e
       0.44705477 -0.39196298 0.59785724 0.13046883
0000e0 e9 02 28 3d 95 64 3e bf 07 46 36 bc 56 03 e2 bd
       0.0410184 -0.74372226 -0.011125094 -0.110357925
0000f0 51 b4 6f bd 82 33 82 be d9 2e a2 bd a1 94 17 3e
       -0.058521573 -0.25429922 -0.07919092 0.14802791
000100 aa 2b 7a bf 8a 69 53 be 76 95 9a 3e bf f1 dc bd
       -0.97722876 -0.20645729 0.30192155 -0.10788297
000110 ed 1b 9e 3e ab 91 a9 3e b5 b7 8b be 44 fb 9a 3e
       0.3088068 0.33118948 -0.27288595 0.30269825
000120 b9 39 b2 3e 5f 1a ad be 78 d1 85 3b 5e 81 a8 3e
       0.34809664 -0.33809182 0.0040838085 0.329112
000130 60 41 49 be 25 60 bb 3e 9c c3 17 3c 04 6d e0 3d
       -0.19653845 0.3659679 0.0092629455 0.10958293
000140 34 78 bf bd 2d e9 30 bc 7b 76 65 3f e6 2b d9 3e
       -0.09349099 -0.010797781 0.8963391 0.42416304
000150 22 86 19 3e 0c 86 f9 be 59 11 fd be 46 52 2a bd
       0.14992574 -0.48735082 -0.49427298 -0.04158237
000160 53 6e a0 be 53 c4 8b 3e 28 8d 32 3e 52 50 51 be
       -0.3133417 0.2729822 0.1743666 -0.20440796
000170 70 0b a6 be c7 7d 75 be 62 26 2a bd fb bb 9b be
       -0.324306 -0.23973761 -0.04154051 -0.30416855
000180 97 2f d6 bd 80 aa d7 3c 14 ce 8e 3d 06 e4 16 3f
       -0.10458296 0.026326418 0.069729 0.58941686
000190 b4 80 40 3e 35 a3 a9 3e 34 49 91 3e e5 8f d6 be
       0.18799096 0.3313233 0.28376162 -0.41906658
0001a0 7f 08 0a be 93 62 42 3e a1 f3 9f 3d 36 70 95 be
       -0.13479804 0.18982916 0.078101404 -0.29187173
0001b0 c1 c7 69 3e e9 cc 25 3f aa c6 47 3f f2 e5 bf bd
       0.22830106 0.64765793 0.7803751 -0.093700305
0001c0 ab 4f e8 bd ae ca 71 be 6e 09 71 bd 2c 64 34 3e
       -0.113433205 -0.23612472 -0.058846883 0.17616338
0001d0 45 a2 b3 be a3 03 bb 3e 9f 7f 12 3e c7 99 c8 3e
       -0.3508474 0.36526212 0.14306496 0.39179823
0001e0 d2 85 4b be 43 8e d1 3d 94 21 55 3f 39 87 07 bf
       -0.19875267 0.102322124 0.8325436 -0.5294071
0001f0 e0 ca cf 3d 2c 49 71 3e fc 35 1d bf 72 a7 15 bc
       0.10146117 0.23563069 -0.614105 -0.00913416
000200 3a 9e 07 3d 39 b2 ad 3e a8 43 a1 3d 47 41 cf be
       0.03310988 0.33925036 0.078742325 -0.4047949
000210 53 b5 e7 3e ac 82 f6 bd 65 d9 ef 3d 78 3c 90 3e
       0.45255527 -0.120366424 0.117113866 0.28171134
000220 57 53 76 bf 34 5f 80 be 52 e7 98 be 8f 60 e1 bd
       -0.96220917 -0.25072634 -0.29863983 -0.11004745
000230 2c 00 b8 3d 9b 69 01 3f c4 9d 5c be c5 e5 15 3d
       0.08984408 0.50551766 -0.21544558 0.03659608
000240 b9 2e 2d be d1 52 64 3e dd f3 cf be 3d a7 ff bc
       -0.16912355 0.22297217 -0.4061574 -0.031207675
000250 36 ef 4a bd cb f1 82 3d b3 83 c7 bc a5 63 c0 3e
       -0.049544536 0.063937746 -0.024354791 0.37576023
000260 4c 59 0d 3e 2b 66 62 bd 91 bb b5 be bf b1 52 bf
       0.13803595 -0.055273216 -0.35494664 -0.8230247
000270 f6 b4 46 bf a3 f1 f3 bd 04 bb 8f 3e 3e 8e 96 be
       -0.77619874 -0.11911323 0.2807237 -0.29405397
000280 97 51 d2 3e 7c a8 5a 3d 35 5e ab 3e f1 be aa 3e
       0.41077873 0.053383335 0.33470312 0.33348802
000290 28 f0 0a bf 4a 2f df 3e 77 55 07 3e 41 8a c7 bc
       -0.542727 0.43590766 0.13216196 -0.024357917
0002a0 9e 17 34 bc 98 e3 d8 be c7 8a be be ef 6a cc 3e
       -0.010991959 -0.4236114 -0.37215254 0.39925334
0002b0 e7 4d ca be bb bb b0 3e fc 07 94 be 7d 15 04 bf
       -0.3951256 0.34518227 -0.28912342 -0.5159529
0002c0 34 24 b3 3e bc 3c 08 3d 17 b3 0e bf b2 05 bb 3e
       0.34988558 0.033261046 -0.5574202 0.36527783
0002d0 b2 fd e0 3c 13 70 c1 bd e1 6a 5c bf 99 35 79 3e
       0.027464721 -0.094452046 -0.86100584 0.24336852
0002e0 e6 b5 5c be c1 a3 c8 be 24 19 cf 3e b6 d0 96 3e
       -0.21553764 -0.39187434 0.40448868 0.2945611
0002f0 84 7b 03 be 7a 7c 49 3e 62 2f a1 3e c2 02 07 3e
       -0.12840086 0.1967639 0.31481463 0.13184646
000300 97 39 64 be 82 1a 16 3e ba df 4f be 00 7f ea bc
       -0.22287594 0.1465855 -0.20300189 -0.028625011
000310 05 79 e0 3c 83 7b 38 be 85 52 d8 be 54 30 4e bf
       0.027401457 -0.18015866 -0.42250457 -0.8054249
000320 ae 8a 5b 3e a0 24 07 bf 5f a5 a3 bd 5a 15 f0 be
       0.21439621 -0.5279026 -0.079905264 -0.4689129
000330 7d 12 ae 3e 8e 84 24 3e ba a6 f4 be 55 7e a6 be
       0.3399848 0.1606619 -0.47783452 -0.3251826
000340 dd 01 1b 3f 96 a6 d4 be 1f b4 3e 3e 24 bc d4 be
       0.6054972 -0.41533345 0.18623398 -0.4154979
000350 5c f5 b9 3e d5 74 86 be 26 a8 e1 bd 58 ce 9f 3e
       0.36320007 -0.2626101 -0.110184 0.31212115
000360 2c dc 1a 3f 0d 93 15 3e a8 f0 87 3d c5 64 39 be
       0.60492206 0.14606877 0.066376984 -0.18104847
000370 27 8c e1 3d 61 f5 17 3f 04 56 40 3d e2 99 c7 be
       0.1101306 0.59358793 0.04695703 -0.3898459
000380 f2 4c 72 3e b9 3b 09 3f d6 b6 ce 3e 32 8c de be
       0.23662165 0.53606755 0.40373868 -0.43466336
000390 ae e7 47 3e de 1b b2 3e 5b d9 31 3e f6 0c b4 bd
       0.19521973 0.34786886 0.17368071 -0.087915346
0003a0 39 11 ed 3d ae fa 12 bf cd 8f 2d 3f 5c 42 9e bd
       0.115755506 -0.57413757 0.6779755 -0.07727501
0003b0 38 1c 38 bd 86 86 bf be 7a 99 bd 3e 5f a2 10 be
       -0.044948786 -0.3740732 0.37031156 -0.1412444
0003c0 22 6f 0c be 60 c9 12 bf d7 0d e6 bd b3 fa 0b be
       -0.13714269 -0.57338524 -0.112331085 -0.13669853
0003d0 fd 31 c3 3a dd e9 b9 3e 56 c5 46 be a8 9c 5d 3e
       0.0014892217 0.36311236 -0.19411215 0.21641791
0003e0 41 d5 c7 be 97 c2 a8 bd 96 79 3b be 75 c0 92 3c
       -0.39029887 -0.0824024 -0.183081 0.017914036
0003f0 81 af 0a 3f 4e e7 fd be d5 e2 91 3e 02 d6 44 bf
       0.5417405 -0.49590534 0.28493372 -0.7688905

gnn_base.gnn.embed_layer.lin_h.0.bias f4 [16]
000000 00 00 00 00 00 00 00 00 00 00 00 00 00 00 00 00
       0.0 0.0 0.0 0.0
000010 00 00 00 00 00 00 00 00 00 00 00 00 00 00 00 00
       0.0 0.0 0.0 0.0
000020 00 00 00 00 00 00 00 00 00 00 00 00 00 00 00 00
       0.0 0.0 0.0 0.0
000030 00 00 00 00 00 00 00 00 00 00 00 00 00 00 00 00
       0.0 0.0 0.0 0.0

gnn_base.gnn.embed_layer.lin_h.2.weight f4 [16]
000000 6c 9e 80 3f 27 96 7f 3f 81 87 80 3f c9 4e 80 3f
       1.0048347 0.9983849 1.0041353 1.0024043
000010 93 87 7f 3f 1e 4e 7e 3f 75 81 7d 3f d6 53 80 3f
       0.99816245 0.9933795 0.9902566 1.0025585
000020 93 af 7d 3f a3 b7 80 3f 8e c1 80 3f 54 c5 7f 3f
       0.9909603 1.0056041 1.0059068 0.99910474
000030 60 5c 80 3f 2a 8e 7e 3f b4 19 80 3f dc 9f 80 3f
       1.0028191 0.99435675 1.0007844 1.0048785

gnn_base.gnn.embed_layer.lin_h.2.bias f4 [16]
000000 2c 3d 9f bb f3 6e d6 3b 3c 1e 0e 3c e9 3d 54 3b
       -0.004859587 0.006543988 0.008674201 0.0032385534
000010 30 74 25 3a 96 53 1e 3c 22 6e 37 39 21 9c 3a bb
       0.0006311564 0.009663483 0.00017493268 -0.0028474408
000020 b3 1c a4 bb c5 4a b8 3b ac 29 3b 3c 0c 43 81 3a
       -0.005008304 0.0056241476 0.01142351 0.00098619
000030 52 f5 7b 3b 7b 97 0c 3b 11 5f 10 bc 0c 6e 9b bb
       0.0038445783 0.0021452594 -0.008811728 -0.004743343

gnn_base.gnn.embed_layer.lin2.0.0.weight f4 [16, 16]
000000 91 25 c8 bd 89 04 4b 3f f5 8c c7 bd c0 64 0a 3f
       -0.0977279 0.79303795 -0.09743682 0.5405998
000010 5e d4 85 3e 05 b9 9b bd 7b d0 af 3d 19 2b 13 3f
       0.26138586 -0.07603649 0.08584686 0.57487637
000020 7c 5f be 3e ec 60 01 3e 3e 8b b2 bd 62 03 0d 3e
       0.37182224 0.12634629 -0.087179646 0.13770822
000030 da 5e 0b 3f 5c 0f ca bd 3f ec 5b be 5c 1c b8 be
       0.54441607 -0.09866211 -0.2147684 -0.35959136
000040 a6 c6 a2 bb c8 bc 01 3d 1a be e4 3e b4 cf 00 bd
       -0.0049675284 0.031674176 0.44676286 -0.03144808
000050 36 f9 3c bf 35 19 7e be 44 ad 21 be bd 4a c5 3e
       -0.73817766 -0.24814303 -0.15788752 0.38533583
000060 4f 77 b8 3d 2c bc c8 be db 1f 96 be 38 fe bf be
       0.09007131 -0.39206064 -0.2932118 -0.3749864
000070 92 bb 06 3f 6b 9c 9f 3d 20 23 ba 3e 26 34 eb 3e
       0.5262996 0.07793506 0.36354923 0.45938224
000080 e0 07 d3 3e 97 53 9e bd e1 a1 72 3e 6b ff 5e 3e
       0.41216946 -0.07730787 0.23694564 0.21777122
000090 b9 35 ec 3e d7 f0 4c 3f 6c 16 c4 be 66 4e 97 bc
       0.46134737 0.8005499 -0.38298357 -0.01847
0000a0 79 36 e6 3d a9 62 b8 3d cc 01 d2 be c1 e1 b4 be
       0.112408586 0.09003193 -0.41016996 -0.35328487
0000b0 b0 29 a2 3d a4 f5 87 be 72 37 90 be c7 d4 05 3f
       0.079181075 -0.26554596 -0.281673 0.522778
0000c0 76 5d cc 3d 0f 46 09 bf 7b ee 35 bd 4a d2 0b 3f
       0.09978764 -0.53622526 -0.044416886 0.5461775
0000d0 2c 53 e9 3e 12 e4 c5 be 0d b1 16 3f a9 5b fe 3d
       0.45571268 -0.38650566 0.5886391 0.124198265
0000e0 c1 f5 02 3d c6 2b 41 bf e7 82 8f bb cf 59 d0 bd
       0.03197265 -0.7545742 -0.0043796184 -0.1017338
0000f0 81 9c 4c bd 7b 86 7b be 46 46 91 bd 2e 83 20 3e
       -0.04995394 -0.24563019 -0.07093482 0.15675041
000100 df 86 7b bf 74 42 49 be fa b1 99 3e a7 ee de bd
       -0.9825267 -0.19654256 0.30018598 -0.10885363
000110 24 d4 a2 3e a9 23 a5 3e 34 69 91 be b2 cb 93 3e
       0.31802475 0.3225377 -0.28400576 0.28866345
000120 b7 ee b5 3e f5 38 ad be 84 43 73 3c c7 e5 a5 3e
       0.35533687 -0.33832517 0.01484764 0.3240187
000130 36 7d 3e be df 4d b7 3e fb 63 ab 38 58 35 d6 3d
       -0.18602452 0.35801598 8.172538e-05 0.10459393
000140 93 94 cc bd af 0b 4a bc a6 ba 67 3f 4b fa db 3e
       -0.09989276 -0.012331887 0.9051918 0.42964396
000150 7c c6 12 3e 39 60 fa be ea df f9 be 43 f9 38 bd
       0.14333528 -0.48901537 -0.48803645 -0.04515959
000160 f0 6f 9b be a0 c1 90 3e 3c 58 32 3e 2f e5 57 be
       -0.3035884 0.28272724 0.17416471 -0.2108352
000170 a8 d0 a8 be 81 2c 7d be 86 c4 45 bd 4e 08 9f be
       -0.32971692 -0.24724008 -0.048283122 -0.31061023
000180 b0 5c d9 bd cd fd ee 3c 4f 99 86 3d f3 0f 17 3f
       -0.10613382 0.029173756 0.0657221 0.5900871
000190 b8 f0 3c 3e 22 24 a9 3e 34 0b 92 3e ee 8c d7 be
       0.18451202 0.3303538 0.28524172 -0.42099708
0001a0 43 1a 06 be 2a 50 44 3e de 8a a0 3d 91 8c 96 be
       -0.13095956 0.19171205 0.07838987 -0.2940412
0001b0 83 81 69 3e 38 a9 26 3f 87 1e 48 3f 86 81 c3 bd
       0.22803311 0.6510196 0.7817158 -0.09546189
0001c0 f0 9a fa bd b2 55 68 be 83 de 78 bd a6 e2 3a 3e
       -0.12236583 -0.2268894 -0.06075908 0.18250522
0001d0 da 34 b7 be 32 8c b7 3e 89 d2 16 3e 09 92 c4 3e
       -0.3578251 0.35849148 0.1472875 0.38392666
0001e0 8d 9c 41 be 43 6a d8 3d e1 05 57 3f 4c df 09 bf
       -0.18907376 0.10567143 0.83993345 -0.5385635
0001f0 d5 4e dd 3d 18 00 6a 3e 65 d9 1c bf 8c e3 94 bc
       0.10806052 0.22851598 -0.6126922 -0.018174909
000200 a7 c6 00 3d 90 12 ad 3e 58 47 a5 3d 58 0e ce be
       0.03143945 0.33803225 0.08070248 -0.40245318
000210 59 62 e8 3e eb 66 f4 bd 30 63 f4 3d d9 ee 91 3e
       0.45387533 -0.119336925 0.11932981 0.2850254
000220 cb 4a 76 bf 33 10 79 be bc 2a 9b be e5 ae de bd
       -0.96207875 -0.24322586 -0.3030604 -0.10873202
000230 63 b6 b0 3d 3c ff 00 3f 93 cf 5e be 33 d0 1e 3d
       0.086285375 0.50389457 -0.21758871 0.038772773
000240 8e 18 29 be 01 4e 61 3e 02 f8 ce be 3e 81 0e bd
       -0.16513273 0.22002412 -0.4042359 -0.034791224
000250 6e 77 38 bd bf 34 86 3d 32 b0 d5 bc 6c 4e c2 3e
       -0.045035772 0.06553029 -0.026084993 0.37950456
000260 5e a6 07 3e 65 f5 79 bd 11 06 b7 be 9b ac 51 bf
       0.13247058 -0.061025042 -0.35746816 -0.81904
000270 dd 27 47 bf a8 6c e6 bd a8 aa 8f 3e f6 66 94 be
       -0.777952 -0.11251193 0.28059888 -0.28984803
000280 13 8d ce 3e fb 8c 19 3d 2b 87 ac 3e cb 50 af 3e
       0.40342006 0.037487965 0.33696875 0.34241328
000290 80 27 0c bf c2 01 de 3e 1f f4 0f 3e 21 35 b9 bc
       -0.5474777 0.43360716 0.14057969 -0.022608342
0002a0 93 28 1e bc 0b 14 d8 be bb a1 bd be 7d 5c c9 3e
       -0.009653228 -0.42202792 -0.37037453 0.39328375
0002b0 27 61 ce be fc ce ad 3e 02 fe 91 be 32 b4 05 bf
       -0.40308496 0.3394698 -0.28514105 -0.5222808
0002c0 d8 2a b5 3e f1 52 e9 3c d3 81 0d bf 78 42 bd 3e
       0.3538425 0.028481932 -0.5527622 0.36964774
0002d0 bb 6c 07 3d bd 72 ba bd 68 3e 5b bf 36 de 7d 3e
       0.033062678 -0.09103916 -0.856421 0.24791798
0002e0 53 36 62 be 71 07 c6 be 65 10 cd 3e 1c 33 99 3e
       -0.22091036 -0.38677552 0.4005157 0.29921806
0002f0 d8 49 08 be 95 7c 45 3e a0 2c 9f 3e 8e cb 0b 3e
       -0.13309419 0.19285806 0.31088734 0.13651869
000300 a0 a6 69 be 18 48 18 3e 0d 74 52 be 7f 3e b5 bc
       -0.22817469 0.14871252 -0.20552082 -0.022124527
000310 f2 e4 c0 3c c5 9c 39 be bd f5 d6 be 59 2f 4f bf
       0.02354667 -0.18126209 -0.41984358 -0.8093162
000320 8b da 61 3e 81 38 06 bf 62 11 9e bd a1 57 f2 be
       0.22056024 -0.5242997 -0.07718159 -0.4733248
000330 41 58 af 3e a0 fe 1d 3e 10 c3 f5 be c4 21 a9 be
       0.3424702 0.15429163 -0.48000383 -0.33033574
000340 de b0 1c 3f 1c 23 d6 be 2f 04 3a 3e 92 92 d8 be
       0.6120738 -0.4182366 0.18165658 -0.42299324
000350 ef d3 be 3e 28 d4 85 be 30 8b fb bd 86 83 a1 3e
       0.37271068 -0.26138425 -0.12282407 0.31545657
000360 62 58 18 3f b1 9d 0c 3e e0 5c 87 3d 9d a0 32 be
       0.5950986 0.1373203 0.066095114 -0.17444082
000370 03 22 fc 3d af a6 1a 3f d0 b1 60 3d ff 31 c4 be
       0.12311175 0.6041059 0.054857075 -0.38319394
000380 f4 f7 72 3e c5 cb 08 3f 22 8c d0 3e 52 73 dd be
       0.23727399 0.5343593 0.40731913 -0.43252045
000390 cf a3 48 3e 51 0a b2 3e 6a 63 33 3e af 37 b2 bd
       0.19593738 0.34773496 0.17518392 -0.08702027
0003a0 32 0d e8 3d ec 37 12 bf 24 99 2d 3f af 24 9c bd
       0.11330642 -0.5711658 0.678118 -0.07624184
0003b0 af 7d 3a bd 79 c3 c1 be de 27 bd 3e 74 a5 0f be
       -0.045530017 -0.37844446 0.3694448 -0.14027959
0003c0 83 12 05 be d2 02 13 bf 29 e5 ee bd d2 11 13 be
       -0.12995343 -0.5742618 -0.116648026 -0.14362267
0003d0 ca 9f 19 3c c8 b6 bd 3e cf b5 4e be 25 41 57 3e
       0.009376476 0.37053514 -0.20186542 0.21020944
0003e0 18 f4 ca be 7d 87 b2 bd 45 01 35 be cb 12 cd 3c
       -0.39639354 -0.087172486 -0.17676266 0.025033375
0003f0 33 e4 09 3f fb 14 fa be 42 64 93 3e 9a ff 42 bf
       0.5386383 -0.48844132 0.28787428 -0.7617127

gnn_base.gnn.embed_layer.lin2.0.0.bias f4 [16]
000000 b4 0d 9d 3b ac 95 83 bb d8 54 84 3c 7d 45 0e bc
       0.0047928933 -0.004015645 0.016153738 -0.0086835595
000010 73 97 a9 3b ba 1e d2 3b 20 ff 17 3b f7 eb 13 3c
       0.005175525 0.0064123543 0.0023192838 0.009028426
000020 ea 8b 8a ba 95 6d 81 bb bd e0 cc 3b 34 12 96 bb
       -0.0010570262 -0.003949831 0.006252377 -0.0045798067
000030 11 c1 89 3b 5c 3c dc bb 53 e8 74 ba 97 35 e1 bb
       0.0042039235 -0.0067210626 -0.00093424803 -0.0068728435

gnn_base.gnn.embed_layer.lin2.0.2.weight f4 [16]
000000 41 ab 80 3f 82 22 80 3f f7 08 7f 3f 40 56 7f 3f
       1.0052263 1.0010531 0.99623054 0.9974098
000010 29 ca 7d 3f 68 3b 7f 3f 06 98 7e 3f 8c ee 7e 3f
       0.99136597 0.9970002 0.9945072 0.99582744
000020 9b 0f 80 3f fe 6c 7e 3f c8 6c 7f 3f a7 45 7f 3f
       1.0004762 0.9938506 0.9977536 0.99715656
000030 4f 77 80 3f 13 91 80 3f f6 95 80 3f b9 1e 80 3f
       1.003641 1.0044273 1.0045764 1.0009376

gnn_base.gnn.embed_layer.lin2.0.2.bias f4 [16]
000000 77 6c 93 3b 9c 32 53 bb 82 6f 86 3b 39 43 b6 bb
       0.004499014 -0.003222621 0.0041026482 -0.005562213
000010 39 cd 12 3c 0d 6b af 3b 61 8d 4c 3b 30 c4 32 3c
       0.008960062 0.0053533376 0.0031212198 0.010911033
000020 b3 56 11 ba 1c d7 2a bb a3 e0 8a 3b 2b b4 0a bc
       -0.000554423 -0.0026068157 0.0042382046 -0.008465807
000030 07 7c a2 3b 5e 44 97 bb b3 b2 b6 3b 4a bf f7 ba
       0.004958633 -0.0046163043 0.005575502 -0.0018901613

gnn_base.gnn.gnn1.lin_key.weight f4 [48, 16]
000000 75 31 4d 3e f5 c3 ed 3d 56 7f 28 bd 28 b6 f8 3d
       0.20038398 0.116096415 -0.041137062 0.121441185
000010 a1 d3 1a be e0 5b 19 be c3 35 62 3e fe 9d ce bd
       -0.15119793 -0.14976454 0.22090821 -0.10088728
000020 39 f2 53 be cd 0c 9c bd ac 80 32 3e 37 3e b1 bd
       -0.2069787 -0.07619629 0.17431897 -0.08654445
000030 8c d2 dd bd 57 a0 45 be fc da 2d be e7 dd 1d bc
       -0.10831174 -0.19299446 -0.16978067 -0.009635425
000040 73 8e 14 be 92 a5 d3 3d 75 f2 cf bd de 78 2f 3d
       -0.14507465 0.103343144 -0.10153667 0.042839877
000050 d8 c6 03 bc 7c a2 04 3b 3c 91 15 be e6 a9 f9 3b
       -0.0080430135 0.002023845 -0.14606184 0.0076191304
000060 78 c4 8f 3d 1d 65 85 bd bb 53 6d bd 0a a7 0f 3e
       0.07019895 -0.065134265 -0.05794118 0.14028564
000070 59 a2 0d 3d 03 b7 5f be 7f d3 59 be 98 16 3a bd
       0.034578655 -0.21847157 -0.21272086 -0.045431703
000080 8b df c7 3d 75 5d 1d be 5b 4c 57 3e f6 18 32 3c
       0.09759434 -0.15367682 0.21025221 0.010870209
000090 16 e8 84 bd 55 ae 23 3d 2d 61 59 3d db f4 3c 3e
       -0.064895794 0.039961178 0.05307119 0.1845278
0000a0 e9 80 15 3e 80 3f c4 3d c3 6b 38 3e 3c 9a 36 bd
       0.14599957 0.09582424 0.18009858 -0.044580683
0000b0 0a ef c0 3d 26 61 19 3e 8a 5b da bd 56 43 2a be
       0.09420593 0.14978465 -0.10661991 -0.16627249
0000c0 f9 6d 24 3e af ed 55 3e 14 2f 0c be 9f 0d 51 be
       0.16057576 0.2089145 -0.13689834 -0.20415352
0000d0 ea c7 5b 3e 9d 03 c3 3d ff ee 2c be ac 52 4d 3e
       0.2146298 0.095221736 -0.16888045 0.20051068
0000e0 12 d6 06 3d e6 23 8a 3c 7b c7 34 be 95 a5 09 3e
       0.032918997 0.01686282 -0.17654221 0.13442071
0000f0 2a 2a 1f 3d 6e 84 12 be 12 6c 14 3e 86 10 9e 3c
       0.03885857 -0.1430833 0.1449435 0.019294988
000100 4d 24 64 be b3 e3 e2 3d 84 93 9b 3c 1e 2b 5f 3e
       -0.22279473 0.110785864 0.01899124 0.21793792
000110 44 e9 2e be ab da ae bc 93 70 e4 bd 4d ed 1a bd
       -0.17081171 -0.021344503 -0.11154284 -0.037823964
000120 8e 1a 56 bd ce ea 88 bd 3f 39 13 3e 21 5a 4e be
       -0.05227142 -0.066854104 0.14377306 -0.20151569
000130 c5 70 48 be 68 fb 0c bd 65 41 de bc e1 40 84 bc
       -0.19574268 -0.034419447 -0.027130792 -0.016144218
000140 18 bc 83 bd ff 52 70 3e 61 0b 8d 3d 0a 04 84 3c
       -0.064323604 0.2346916 0.06886936 0.016115207
000150 d3 ac 9f 3d 0a 83 e7 bd cd c2 38 bc c5 69 38 3c
       0.077966355 -0.113042906 -0.011276913 0.011255686
000160 db 22 f4 3d 4f ac 90 3a 95 8c 30 3c b5 ad 27 be
       0.11920711 0.001103768 0.010775705 -0.16374858
000170 ce 2b 0c 3d af 7b 38 3e 2c 2e 28 be a3 5d 53 be
       0.034221463 0.18015932 -0.16423863 -0.20641188
000180 60 b2 30 be 80 2a 15 3e ac 14 26 3d 4c d2 16 3e
       -0.17255545 0.14566994 0.040547058 0.1472866
000190 ff de 42 3e eb af 19 be 8d b8 8b 3c 4c 1d 35 3e
       0.19030379 -0.15008514 0.017055774 0.17686957
0001a0 ab 8d 05 3e 0d 6a aa 3d d0 97 21 3e 80 b4 08 3e
       0.13042323 0.08321009 0.15780568 0.13350105
0001b0 7c 9d ae bd 9c 26 29 bd 4b 65 f9 3d a8 bc 74 3e
       -0.085261315 -0.041296586 0.12177523 0.23900092
0001c0 ff 17 ca bb 1f 60 aa 3d bf b7 80 bd 21 8d 0e 3e
       -0.0061674113 0.08319115 -0.06285047 0.13921024
0001d0 41 85 b5 3d 2d c9 d8 3b 51 94 8b 3d 42 27 09 3e
       0.08863307 0.006615779 0.068153985 0.13393882
0001e0 7a 2d 2a 3e bd f6 73 3e c7 5c 58 be c4 fe 28 3e
       0.1661891 0.23824592 -0.21129142 0.16503435
0001f0 8e 54 25 3e 96 0e 5c 3e c2 51 31 3e 16 ac 23 bd
       0.16145536 0.21489939 0.17316344 -0.039959036
000200 01 d3 28 bd 1e d7 1e 3e 34 15 f9 bd 61 49 07 be
       -0.041216854 0.15511748 -0.12162247 -0.13211586
000210 ac 54 c3 bd b2 57 30 be e5 85 4b be 30 15 96 3d
       -0.09537634 -0.17220953 -0.19875295 0.0732826
000220 7a d5 5b be 55 b6 6b be cd c9 06 3d 45 8c 01 be
       -0.21468154 -0.23018773 0.032907296 -0.12651165
000230 b6 dd b3 bd 2f 1e 6d 3e 1e 2e bc bd 23 8e 39 bd
       -0.087825224 0.23156045 -0.09188484 -0.045301568
000240 1e be a5 bc e3 a8 51 bd f0 59 be 38 bc 52 0d bd
       -0.020232257 -0.051186454 9.076658e-05 -0.03450273
000250 75 30 1a be 28 6a 3b 3e c2 69 8f 3d fe 2e 0e 3e
       -0.15057547 0.18302214 0.070025936 0.13885114
000260 10 b1 44 be 13 cb dc 3d e9 4d 4e be 2e 4c 4c 3e
       -0.19208169 0.10780921 -0.20146908 0.19950935
000270 41 5c b7 bd a3 f2 18 be 75 60 53 be f6 96 76 be
       -0.08953143 -0.14936309 -0.20642264 -0.24081025
000280 96 38 94 bd 9a df 4e 3e ad 41 32 3e c9 f5 f2 3c
       -0.072373554 0.20202485 0.17407866 0.029658215
000290 48 74 dd bd 6b de 7b be 1e d9 20 3e fb 87 60 3e
       -0.108131945 -0.24596564 0.15707824 0.21926872
0002a0 92 2e 1b 3e 90 76 f4 bd f3 8a e6 3d d3 d1 25 3e
       0.15154484 -0.119366765 0.11256971 0.16193323
0002b0 25 2c 2c 3d 83 1b 1e be 12 0d 73 3d a2 fc db 3d
       0.042034287 -0.15440182 0.059338637 0.10741545
0002c0 77 ce 49 be cb c3 b7 3d 21 18 60 be ab d1 18 3e
       -0.19707666 0.089728914 -0.21884204 0.14923732
0002d0 1f e0 2c 3e ce 01 49 ba f7 f0 6e 3e 00 1b d8 3d
       0.1688237 -0.00076678104 0.23334108 0.10552025
0002e0 63 13 08 3e ab 5b 29 be 59 5e 1f 3d 56 69 ea bd
       0.13288645 -0.16538875 0.038908336 -0.114458725
0002f0 21 b4 2c 3d e1 b5 00 be ef 5e d1 3c 9c b8 7e 3d
       0.04216397 -0.12569381 0.025557963 0.062187776
000300 b9 cf 0b be 41 59 e4 3c 14 a2 2b be 18 44 3a 3d
       -0.13653459 0.02787459 -0.16761047 0.045475096
000310 cb 2e 1c bd 05 7f 53 be 39 86 bc 3d c5 fd 77 be
       -0.038130563 -0.20653923 0.092052884 -0.24217899
000320 2d 7b 6a be 1e 9e 19 3e dc b3 97 bd 2b 42 e2 3d
       -0.2289855 0.15001723 -0.07407352 0.11047777
000330 80 ea 83 3d 5e 67 50 be d3 1b e4 bd 86 57 69 3e
       0.06441212 -0.20351931 -0.111381195 0.22787294
000340 6c af 4d 3e 04 6f 4f bd c2 83 64 3c 6e f7 6b be
       0.2008645 -0.050642982 0.013947429 -0.23043606
000350 ec d3 65 be df ed 23 3e 80 f7 7a 3e 1e 8c 3c be
       -0.22444123 0.1600871 0.24508476 -0.18412825
000360 1e fb 95 3d 1c c5 bc 3d b4 ad 98 3c ce 3d cd 3d
       0.073232874 0.09217283 0.018637516 0.10021554
000370 f5 ce 12 be 70 1f 4a be 61 23 0f be 4d 28 56 3e
       -0.1433676 -0.19738555 -0.1397834 0.20913811
000380 ed aa 6f bb 65 5d 29 3e a7 f8 29 be 51 fc 93 bd
       -0.0036570386 0.16539533 -0.1659876 -0.0722586
000390 cd 3d 39 be 12 e6 46 3d 2c 5d 06 3d 84 db 4e bc
       -0.18089981 0.048559256 0.0328037 -0.012625579
0003a0 eb 6e 33 3c 3c 45 89 bd fa 82 29 3e a3 d3 b6 bd
       0.010951738 -0.067026585 0.1655387 -0.08927085
0003b0 0f 8d b3 3d 6c a0 0b 3e 50 62 d9 bd 7d 0c 16 3e
       0.08767139 0.13635415 -0.10614455 0.14653201
0003c0 96 c9 25 3e 50 9b ec 3d e1 f2 8b bd 60 69 de bd
       0.1619018 0.11553061 -0.06833435 -0.108599424
0003d0 21 57 5d be 48 66 ee bd ca 80 45 3d e2 6c df bd
       -0.21615268 -0.11640602 0.048218526 -0.109094396
0003e0 03 42 d7 3d 83 ae f5 bd 64 92 eb bd 68 fc 70 be
       0.105106376 -0.11996176 -0.11502531 -0.23533785
0003f0 54 ff 24 be 61 e0 6a be fb c5 22 3e 4a 05 01 3e
       -0.16113025 -0.22937156 0.15895836 0.12599674

gnn_base.gnn.gnn1.lin_key.bias f4 [48]
000000 f4 1f 17 be d6 81 3f bc 83 06 5a bd b4 a1 d0 3d
       -0.14758283 -0.01168867 -0.053228866 0.101870924
000010 c4 36 78 3e 58 9e 3c bd 7e ed b0 bb 2a 7b 34 3e
       0.24239641 -0.046049446 -0.005399405 0.17625108
000020 16 1d 5a 3e c5 0a e8 3b 86 0c 4b 3e 20 e7 34 3e
       0.21300158 0.007081362 0.19828996 0.17666292
000030 85 e8 26 3d e4 31 95 bd 7c 2d ec bd af b7 0e be
       0.04074909 -0.072849065 -0.11532113 -0.13937257
000040 14 93 3b be 4a 83 1b be 18 d1 16 be fe 36 6a 3e
       -0.18317825 -0.15186802 -0.147282 0.2287254
000050 6a bc 46 be 07 ac 28 bd 30 76 0f bd ec cb 0e 3e
       -0.19407812 -0.041179683 -0.03502482 0.13944978
000060 be 37 69 3e 16 9d 45 3e 24 72 d6 bd 46 60 16 3e
       0.2277517 0.19298205 -0.10470989 0.14685163
000070 02 15 1a be 62 4d 4b be 84 a2 87 bd 18 bd 70 3e
       -0.15047076 -0.19853738 -0.06622794 0.23509634
000080 2e 01 55 be a8 9f 68 be f0 0f 3a bd e6 01 28 be
       -0.20801231 -0.22717154 -0.045425355 -0.16406974
000090 c0 20 e8 3d 63 63 ea 3c 0e e1 60 3d 32 58 03 3e
       0.113343716 0.028611844 0.05490213 0.12826613
0000a0 4c 6f d9 bd 1c d1 b4 bd 3c b8 9a 3d 88 a2 0c be
       -0.10616931 -0.08828947 0.07554671 -0.13733876
0000b0 a0 c5 7d be a8 32 1f be 84 5d c6 bd 2f 7f 59 3d
       -0.24782419 -0.15546668 -0.096858054 0.053099807

gnn_base.gnn.gnn1.lin_query.weight f4 [48, 16]
000000 cf d9 c7 bd 63 92 c6 3c 28 d1 3d 3e a4 8c 4b be
       -0.097583406 0.024239725 0.18536818 -0.19877869
000010 ac a4 42 3e d4 29 a9 3d 6b 88 15 be 35 d8 0a be
       0.1900813 0.08259931 -0.1460282 -0.13559039
000020 74 a1 82 be 88 dd ae bd 1c 13 d4 bd ed c0 9b bd
       -0.25513804 -0.085383475 -0.10355207 -0.07605157
000030 db fe 37 be 48 98 56 be d7 54 68 be 79 5e 2a be
       -0.17968313 -0.20956528 -0.22688614 -0.16637601
000040 90 e0 fd bc f8 01 f0 bd b5 a6 e6 bd e2 b6 54 be
       -0.030990869 -0.117191255 -0.112622656 -0.2077289
000050 3d f4 82 bd d2 48 2b 3e 4f 6f ee 3c ff 6a 0b bc
       -0.06394241 0.16726997 0.02910581 -0.008509397
000060 8b a0 f3 3d b2 d0 7a bd bf 31 97 bd df 93 a8 bc
       0.118958555 -0.061234184 -0.07382535 -0.020578323
000070 81 d7 4d 3e 0e fd 6c be b0 64 9b bd 7e 17 80 3e
       0.2010174 -0.23143408 -0.07587564 0.25017923
000080 45 af 99 3d 71 32 63 bd f1 ba 69 be 64 fc 15 be
       0.07504133 -0.055468027 -0.22825219 -0.1464706
000090 dc 56 ee 3d 88 0b 9c ba 4a dc 4b 3e 82 d3 0a bd
       0.11637661 -0.0011905292 0.19908252 -0.033893116
0000a0 2a be 1c bd f2 7f 82 3e 03 87 bb 3d a9 1b 08 be
       -0.038267292 0.2548824 0.09156611 -0.13291802
0000b0 bd ca 56 3d 6f 7f 3e be 8b aa de bd 58 8a a5 bd
       0.05243944 -0.186033 -0.10872372 -0.080830276
0000c0 f3 7c 57 3e 13 2b d7 3c 31 eb fa bd ff 57 3c bc
       0.21043758 0.026265657 -0.122518905 -0.011495589
0000d0 f8 dd 3e 3e 8e 54 66 bd 1b f9 2a be 84 bc 10 be
       0.18639362 -0.05623298 -0.16696589 -0.14134413
0000e0 17 44 5d be 75 6f 39 be 37 34 7c be 95 7d 0f 3b
       -0.21608005 -0.18108924 -0.24629293 0.002189492
0000f0 93 af 40 be e7 14 48 be 54 72 a8 bd 89 74 35 be
       -0.18816976 -0.19539224 -0.08224931 -0.17720236
000100 9a 00 0d be 51 c8 fa 3d 7c 50 5b be 88 34 46 bd
       -0.1376976 0.122452386 -0.21417421 -0.04838994
000110 f7 bf 26 3e 9e 3a 0d 3e ff 63 11 be 51 3d 0d 3e
       0.16284166 0.13791892 -0.14198302 0.13792922
000120 7a b9 2c 3e 9c c2 87 3d 7d 56 fe 3d a9 e9 8b bd
       0.16867629 0.06628916 0.1241884 -0.068316765
000130 78 6f 36 bd f2 02 b7 3d 41 a4 1f bd e9 99 b9 3d
       -0.0445399 0.08936109 -0.038975004 0.09062559
000140 21 e1 2a 3e d6 0f a8 3d 0e 59 2d 3d d3 3a e4 bd
       0.16687442 0.082061455 0.042321257 -0.11144032
000150 85 3a a5 bd a5 28 8f 3c 49 24 1f bd 06 10 19 3e
       -0.08067802 0.017475436 -0.038852964 0.14947519
000160 33 89 05 3e 03 ab 77 3e fd aa aa 3d 91 95 28 be
       0.13040619 0.2418633 0.08333395 -0.16463305
000170 e7 dc 61 3e b8 c7 77 3c cb 89 68 be c6 6c 2f 3e
       0.22056924 0.0151233 -0.22708814 0.17131338
000180 d5 7b 28 be 35 37 33 3e f2 0d 31 3d a5 bc 27 be
       -0.16453488 0.17501529 0.04322619 -0.16380556
000190 64 55 2c 3e bd 43 33 bd a5 a2 44 be e8 d7 20 3e
       0.16829449 -0.043765772 -0.19202669 0.15707362
0001a0 6e e5 12 be 9e e3 79 3d bb 3f 0d 3e 03 ca cc 3d
       -0.14345333 0.06100809 0.13793842 0.09999468
0001b0 56 de 80 3d 9b e6 fd 3d 01 54 4f be b3 f1 eb bd
       0.06292407 0.123975 -0.20246889 -0.1152071
0001c0 0a 74 f8 3d d0 1b 3e 3e e7 f9 4d 3d 82 54 e1 3c
       0.12131508 0.18565297 0.050287154 0.027506117
0001d0 42 f6 46 be e9 97 25 bd ef df e9 bd cf c4 80 3e
       -0.19429877 -0.040428076 -0.11419665 0.25150153
0001e0 f4 4c 80 3e ba 5d 05 3d 0d 8c 4c 3e 86 ec ef 3c
       0.2505871 0.032560088 0.199753 0.029287588
0001f0 13 17 99 bd bd e3 34 be 1c 7c 57 3e 6c 46 9a 3d
       -0.07475104 -0.17665 0.21043438 0.07532963
000200 c3 7e 12 bd 50 4a 22 be be 55 34 3e 62 0b ec 3d
       -0.03576542 -0.1584866 0.17610833 0.115256086
000210 f5 de 15 be 62 f5 65 3e b2 ea 4a be fa af 25 bd
       -0.14635833 0.22456887 -0.19816092 -0.040451027
000220 2c 4a 60 3c 15 74 60 3e 6d db 2f 3d 98 97 2f 3e
       0.013689559 0.21919282 0.04293387 0.17147672
000230 b6 6a 24 be 60 0a fe 3d a0 f3 52 3e 5d be 18 be
       -0.16056332 0.124043226 0.20600748 -0.14916368
000240 c2 95 8c bd 84 4b ad 3d 96 cf 58 3d 93 f6 40 3d
       -0.068645015 0.08461669 0.052932344 0.04711015
000250 80 d9 0f bd 4a 39 86 bd 04 61 22 3e 20 3e 4b bd
       -0.035119534 -0.06553896 0.15857321 -0.049619794
000260 38 22 9f 3d 3d 57 19 be 9b 99 37 be 5c f5 55 be
       0.077701986 -0.14974685 -0.1792969 -0.20894378
000270 7c 5f 64 3e 18 26 db bd 8a 1e 16 be 65 b6 3a 3d
       0.2230205 -0.10700625 -0.14660087 0.0455841
000280 76 15 57 3e 5b 54 1a 3d ed 87 c3 3d 31 51 8a 3d
       0.2100428 0.037678104 0.0954741 0.06753767
000290 cf 31 52 3e d5 38 c8 3d b4 9b 45 be 0e 74 2a 3a
       0.20526813 0.09776465 -0.19297677 0.0006502279
0002a0 6b e1 5d 3e 1b dd 71 be c0 4b 9d bd da 9e 6a be
       0.21668021 -0.23619501 -0.07680464 -0.2291216
0002b0 28 b4 65 be a8 4b ca 3d f7 57 5d 3e ed 68 6c 3e
       -0.22432005 0.098777115 0.21615587 0.23086901
0002c0 62 a4 c3 bd 91 56 4f 3e 82 89 38 be 67 f0 5b be
       -0.09552838 0.20247866 -0.18021205 -0.21478425
0002d0 6e cf 49 3e 0a 31 d9 3d 46 37 e7 3c 6f fc 4a be
       0.19708034 0.106050566 0.028224599 -0.19822858
0002e0 09 67 35 bb dd e3 4c 3e 94 a1 d9 bd 67 40 27 3e
       -0.0027679822 0.20008798 -0.10626522 0.16333161
0002f0 a7 ee fe bd 4d 82 5b be 52 d9 5f 3e 16 18 66 be
       -0.12447863 -0.21436425 0.21860245 -0.22470126
000300 ad ed f8 bd aa 45 1a bd ed 66 4a 3e 28 37 78 bb
       -0.12154708 -0.037664093 0.19765826 -0.0037874673
000310 2c cb 58 bd 3c d6 20 3e 0a 30 17 bd ac 83 3a 3e
       -0.052928135 0.15706724 -0.036911048 0.18214291
000320 c3 84 68 3e bd cf b9 3d 72 c0 d4 3c 79 4d 4d 3e
       0.22706895 0.09072826 0.025970671 0.20049085
000330 10 50 76 be c4 1b 7b be bd 5a 84 3d 11 56 26 be
       -0.24053979 -0.2452231 0.064626195 -0.16243769
000340 8d 69 60 be f2 17 87 bd 6d 95 1f be 13 5f 48 3d
       -0.21915264 -0.06596364 -0.15584345 0.048918795
000350 3a 2f 0c be 86 ac b0 ba 4e bf 02 3e c6 88 fa bd
       -0.1368989 -0.001347915 0.1276829 -0.12233119
000360 8c c0 56 3e 77 13 d3 bd 8f 5f 4e 3e 03 b7 18 be
       0.20971888 -0.10306447 0.2015364 -0.14913563
000370 13 d8 30 be f2 6e e9 3d fc 03 6e 3e 6a 83 03 be
       -0.17269926 0.11398114 0.23243707 -0.12843099
000380 de 92 63 be 15 7e 02 be 09 40 12 3e 53 fe 45 be
       -0.22223994 -0.12743409 0.1428224 -0.19335298
000390 2f ba 99 bd c1 11 66 be b8 e5 b7 bc 6b 30 30 3e
       -0.07506215 -0.2246771 -0.022448406 0.1720597
0003a0 42 32 73 3b da 5c f4 ba 20 36 13 bd e1 85 64 3e
       0.0037108813 -0.0018643395 -0.03594029 0.22316696
0003b0 c0 fe 46 3d f0 93 7a 3c 96 05 3e 3d 02 bf b1 3c
       0.048582792 0.01529406 0.046392046 0.021697525
0003c0 4f 09 3a 3e 63 42 41 3e f3 a9 8f 3d bd 55 03 3e
       0.18167613 0.18872981 0.07014837 0.12825675
0003d0 0b 02 4c be cd 99 4a be e0 09 33 3c 6b 53 ac 3d
       -0.19922654 -0.19785233 0.010927647 0.08414348
0003e0 ba fe 4d 3d a7 c1 ef 3d 5f c4 69 3e 7e 8a 68 be
       0.050291754 0.11706858 0.22828816 -0.2270908
0003f0 08 77 80 be 64 a4 88 3c 5b 2e 24 be 68 5b bc 3d
       -0.25090814 0.01667995 -0.16033308 0.09197122

gnn_base.gnn.gnn1.lin_query.bias f4 [48]
000000 16 93 13 3d df ea 29 3e 60 af 53 be 3b cf 29 3d
       0.036028944 0.16593502 -0.20672369 0.041457396
000010 20 71 8f bd 9f b3 e7 3d 20 b9 a2 3d a5 ee 2c be
       -0.07003999 0.11313557 0.07945466 -0.1688791
000020 cd 3d 62 be 0f cb 63 bd c5 9d 42 be 7c 3b 98 bd
       -0.22093888 -0.055613574 -0.19005497 -0.07433221
000030 a3 ba f6 3d 19 30 dd bc 73 20 b3 bc c3 c9 9c 3d
       0.12047317 -0.027000474 -0.021866059 0.076556705
000040 3e 3b 1a be 89 2a 54 3e eb 3e 3f be 4b 2b ac 3d
       -0.15061662 0.20719351 -0.18676345 0.08406695
000050 34 11 1a 3e c0 3d b1 bb 01 96 da bd 37 93 d1 3d
       0.15045625 -0.0054089725 -0.10673142 0.10233157
000060 9f 28 91 bd 71 23 68 be 8b ac fe 3d 10 77 2b 3e
       -0.07087826 -0.2266977 0.12435254 0.16744637
000070 dc 3e da 3d 33 dd 43 be e0 4a 25 be 1e 60 a4 3d
       0.10656521 -0.1912735 -0.16141844 0.080261454
000080 d9 5f 0b 3e 0b 4d 5d 3d 4f 95 48 3e 24 67 7a 3d
       0.13610782 0.054028552 0.19588207 0.06113352
000090 6e 1c 53 be 3e cd eb 3d ea 12 51 3e 8d c1 2a be
       -0.20616314 0.11513756 0.20417371 -0.16675396
0000a0 8c e9 6f be 2d 26 89 3c e6 20 3d 3e b5 56 e1 3d
       -0.23428935 0.016741836 0.18469581 0.11002866
0000b0 b8 b4 20 be 94 51 de 3d 95 3f 80 bd d9 63 18 bd
       -0.15693939 0.108554035 -0.06262127 -0.037204597

gnn_base.gnn.gnn1.lin_value.weight f4 [48, 16]
000000 24 9c b4 bc ce d5 45 be 05 02 cc bd 46 13 40 3c
       -0.02204711 -0.19319841 -0.09961323 0.011723345
000010 c3 26 21 3e 9a 18 1a be fc 2f ca 3d 55 54 52 3d
       0.15737443 -0.15048447 0.098724335 0.051349957
000020 67 00 8f bc c6 22 8e bd ef 3d 50 be 7b 02 a4 3d
       -0.017456247 -0.06940226 -0.20336126 0.080082856
000030 9a 19 10 be 6d e8 77 3e 34 c5 b7 3d 12 6d c6 3d
       -0.14072266 0.24209757 0.089731604 0.09688772
000040 07 c9 79 3e de ea ce bc 36 b7 ce bd ea 9c c4 3b
       0.24393092 -0.025258478 -0.100935385 0.006000151
000050 95 7e a3 bd 4d 7f a6 3d 80 ad 81 be 1a d5 15 3d
       -0.07983128 0.081297494 -0.25327682 0.036580183
000060 6e 59 29 bd 44 55 67 bd 78 e8 11 3e f4 3c 49 be
       -0.041345052 -0.0564778 0.14248836 -0.19652158
000070 bf 29 69 bd 0d ce 40 3e b3 cd 2f 3d 18 a5 29 be
       -0.056924578 0.18828602 0.04292078 -0.16566885
000080 db 4d 1f 3e 98 52 5b be 37 45 20 3e cf b5 d2 bd
       0.15557043 -0.21418226 0.15651403 -0.102885835
000090 56 83 a6 3d d1 39 3f 3e d8 0a 5c 3e fd cd 99 3d
       0.08130519 0.18674399 0.21488512 0.07509992
0000a0 d9 48 d5 3d 10 fa 59 bd a3 f1 86 bd fd f1 6d be
       0.10414285 -0.053216994 -0.06589057 -0.23236842
0000b0 fd 02 fc 3d eb f0 3a 3d 6a 51 a2 3d e0 d2 29 be
       0.123052575 0.045639914 0.07925685 -0.16584349
0000c0 2c 33 80 be 90 6a 0a 3e e6 f3 ed bd 85 89 a1 bd
       -0.2503904 0.13517213 -0.116187856 -0.07887558
0000d0 ba 38 9f 3d 88 1f c1 3d 1c 00 77 be bf 4b 83 bd
       0.077744916 0.09429842 -0.24121135 -0.06410932
0000e0 bc d9 5f 3e 02 cc 28 3d 8c 2e 13 be e4 6c 4b 3e
       0.21860403 0.041210182 -0.14373225 0.19865757
0000f0 50 cb 70 be 00 b8 ea 3c 04 ca 5f 3d 88 a5 e8 3c
       -0.23515058 0.028652191 0.054636016 0.028399244
000100 08 16 69 3e c1 a5 45 3d 8f 1a 23 be 00 e2 10 bd
       0.2276231 0.04825378 -0.159281 -0.03537178
000110 d9 83 d0 bd c2 c6 50 3e f5 da f0 3c 2a c3 6a be
       -0.10181398 0.2038832 0.029401282 -0.22926012
000120 aa 2e a3 3b 0c a7 03 3c a8 97 8c 3c c8 7a 69 3d
       0.004979928 0.008035433 0.01716216 0.05700186
000130 48 7b 08 3e d2 62 4a be 2b c7 9a 3d da 62 fe bd
       0.13328278 -0.1976426 0.075575195 -0.12421198
000140 af 5a 1d 3e 66 51 03 be c4 7f 2c be e4 19 0f be
       0.15366624 -0.1282402 -0.16845614 -0.1397472
000150 f9 af 1d 3e db 61 31 bd c1 c4 59 3e a8 05 4e be
       0.1539916 -0.043306213 0.21266462 -0.20119345
000160 52 d2 b9 3d 54 14 c7 bd 26 a5 3c 3d 9b 13 1c 3e
       0.090733185 -0.09720674 0.046055935 0.15241854
000170 d6 85 f9 3d 02 69 64 be 9a 0c 2b bd b1 b0 e5 3d
       0.1218373 -0.22305682 -0.041760065 0.11215342
000180 c5 62 82 be e4 04 39 be 30 1c 79 be ea e7 1c 3d
       -0.2546598 -0.18068272 -0.24327159 0.038307108
000190 ea 83 6f 3d c3 6c d0 bd d2 91 e2 3d 34 79 3c 3d
       0.058475412 -0.10176995 0.11062969 0.046014026
0001a0 af 0c e3 3d 3d 54 53 3e f3 36 29 be 18 4b 41 be
       0.110864036 0.20637603 -0.16524868 -0.18876302
0001b0 fb 7f 6d 3e 2b b0 00 be 82 16 30 3e 74 92 a2 bd
       0.23193352 -0.12567203 0.17196086 -0.0793809
0001c0 06 f5 6c bd b9 60 e2 bd 3c 39 a2 3d d3 1c 64 bc
       -0.05785086 -0.11053605 0.07921073 -0.013922888
0001d0 93 43 4f 3e ca 91 73 be f6 68 b4 3b 97 3a 29 3d
       0.20240621 -0.23786083 0.0055056764 0.04131564
0001e0 76 3e ab 3d 74 2d 3d 3e 45 2c b2 3d 4a b2 52 be
       0.08361523 0.1847437 0.0869985 -0.20575824
0001f0 29 77 03 3d eb 63 d3 bd ed 44 1b 3e bc 83 d8 bd
       0.03209606 -0.10321792 0.15163012 -0.10572001
000200 d9 a6 c1 bc d3 b5 66 3d 55 80 21 3e 10 7a e6 bd
       -0.02363913 0.056325745 0.15771611 -0.1125375
000210 87 b3 3b 3e 60 92 3b be 52 7b 58 bd 95 ed 18 be
       0.18330203 -0.18317556 -0.052851982 -0.1493438
000220 b8 d1 3b 3d 55 0d 48 be be b1 a5 3b 1d 6e 38 be
       0.0458543 -0.19536336 0.005056589 -0.18010755
000230 38 27 2c 3e 27 63 6f be 77 63 d7 bd 3a 5e 60 be
       0.16811836 -0.23377667 -0.10517018 -0.21910945
000240 9a 66 18 be dc 0e 8d 3c db 27 ed 3d 6a 56 f7 3d
       -0.1488289 0.017219 0.115798675 0.12077029
000250 3a fe 4c be 4c 67 4a bd 78 eb 65 bd e7 67 c0 3d
       -0.20018855 -0.049414918 -0.056132764 0.09394818
000260 bc b4 e0 bc 88 e5 c2 bc 75 2c 23 be fe 9f 31 be
       -0.02742993 -0.02379109 -0.15934928 -0.17346188
000270 97 c2 ed bb d8 6d eb 3d a5 1a f9 bd 6f bb 4c 3d
       -0.007255863 0.114955604 -0.12163285 0.049983438
000280 97 31 01 3e 59 94 ca bd 97 3d 63 3e d8 cf 68 3e
       0.12616573 -0.09891576 0.22191463 0.22735536
000290 56 2a 15 3e d4 81 de 3d 66 4e 46 be dc 84 09 3e
       0.14566931 0.108646065 -0.19365844 0.13429588
0002a0 17 a8 0a bd 5e fb 47 3e 6f df 55 be de f3 ae bb
       -0.03385171 0.19529483 -0.20886014 -0.00533913
0002b0 d4 c5 6c 3e ab e8 37 3d 07 5c b0 3d 76 83 bf bb
       0.2312234 0.044899624 0.08611303 -0.005844529
0002c0 5d ed fd bd f6 94 06 3e dd fc 4f 3e b5 62 09 3e
       -0.12398789 0.13142762 0.20311303 0.1341656
0002d0 3f c6 26 be 3d 65 27 be 62 b8 7a 3e bd 1a e8 bc
       -0.16286562 -0.16347213 0.24484399 -0.028333062
0002e0 0e 1a e2 3d c6 57 88 3d 8c 6c 1d be 85 5e 5f 3e
       0.11040126 0.066573665 -0.15373439 0.218134
0002f0 8a 70 1f 3d 95 e1 e9 bd 10 fa 6d 3e d5 4d b5 3d
       0.038925685 -0.114199795 0.23239923 0.08852736
000300 9e 40 8d 3d 0b 4e 39 be ad 50 58 3e 5e 5d 04 be
       0.068970904 -0.18096177 0.21124525 -0.12926242
000310 c1 a4 c3 bd da aa 77 be 27 e5 88 3d c6 f8 13 be
       -0.09552909 -0.24186268 0.06684332 -0.14450368
000320 98 c6 6b be 56 4b 3c 3e 51 03 6f be 00 09 5f bd
       -0.23024976 0.18388113 -0.23341109 -0.054451942
000330 b3 1f b2 bd ec d9 21 3c 52 94 31 3d 01 b6 59 3e
       -0.086974524 0.009878617 0.04335434 0.21260835
000340 57 58 8b 3d 43 15 94 bd be 83 10 be a8 10 77 bd
       0.06803959 -0.07230618 -0.14112756 -0.06031862
000350 58 cb 14 3e 9d 97 7a be 12 b8 bf 3d b4 3c 15 bc
       0.14530694 -0.24471898 0.093612805 -0.009108711
000360 e3 27 e1 bd 06 80 20 3e fd 0e 08 3e d5 b6 e3 3b
       -0.10993936 0.15673837 0.13286968 0.0069492855
000370 bf c8 05 be f9 4f 14 be f3 be 98 bd 82 2f 16 be
       -0.1306486 -0.14483632 -0.07458296 -0.1466656
000380 77 49 45 bd b6 41 b3 3d 24 32 c6 bc 05 13 0b 3d
       -0.048165765 0.08752768 -0.02419383 0.033953685
000390 70 06 b5 bd 4b 9b 88 bd 0e 9c 19 3e b8 de cb bc
       -0.088391185 -0.06670245 0.15000936 -0.024886474
0003a0 b2 49 87 3d 4f c9 37 be ba 12 13 be 4b 06 45 3e
       0.06605853 -0.17947887 -0.14362612 0.19240682
0003b0 b3 95 37 bc 10 46 7c 3e 81 b6 b2 bd d9 b5 0b 3e
       -0.011205125 0.24636102 -0.08726216 0.13643588
0003c0 85 b6 d4 3d 5c db 53 be 2d be 0b be ff 79 5d 3e
       0.10386375 -0.20689148 -0.13646765 0.21628569
0003d0 da cc a0 bd 1b 24 67 be 45 52 41 3e 35 8a 78 3e
       -0.07851572 -0.22572367 0.1887904 0.24271472
0003e0 1f 49 2b 3e 64 df 1d 3e 45 d0 90 bd a0 92 5e 3e
       0.16727112 0.15417248 -0.07070974 0.2173562
0003f0 75 10 ec bd 5d 92 d7 3d 27 ef 7a be 8e ae 67 3e
       -0.115265764 0.105259635 -0.24505292 0.22625181

gnn_base.gnn.gnn1.lin_value.bias f4 [48]
000000 23 cd 39 be 1c 6a 4a 3e 72 98 76 3e 5f 6d 5c 3c
       -0.1814466 0.1976704 0.24081591 0.0134538105
000010 61 aa f3 3d 64 be dd bd aa 50 7b 3e 25 92 6a be
       0.118977316 -0.1082733 0.2454249 -0.22907312
000020 e5 95 17 be b2 5f 33 3d b9 26 d9 bd 43 e2 c5 bd
       -0.14803274 0.043792434 -0.10603089 -0.096622966
000030 c7 1d c7 3d fa 80 0b 3e 6d 58 26 3e a2 8b 55 3e
       0.097224765 0.1362342 0.1624467 0.20854047
000040 ea be f8 3d a5 62 dc bd 51 77 bd 3d 63 ef 1c be
       0.12145789 -0.107610025 0.092512734 -0.15325694
000050 d3 5f 14 3e 9c 91 c8 3d ba 07 57 3e d2 87 0f 3e
       0.14489679 0.09793398 0.20999041 0.14016655
000060 67 d3 6e 3e be 81 58 bd ed 10 59 be 26 89 46 3e
       0.23322831 -0.052858107 -0.21197863 0.19388255
000070 1c 5d 60 be 74 27 dd 3c 54 86 16 3d 63 fe 0c 3d
       -0.21910518 0.026996352 0.0367492 0.03442229
000080 6d 26 2e 3e 64 51 5b 3d 23 da ac bd 0c 10 96 bc
       0.17006846 0.053544417 -0.08440044 -0.018318199
000090 e9 9f 7e be e4 9c 35 be 28 31 a1 bc 2f b2 66 3e
       -0.24865688 -0.1773563 -0.01967676 0.22528909
0000a0 66 2e 61 bd b3 e7 08 3e 98 82 22 be a4 be 4f be
       -0.05497589 0.13369636 -0.1587013 -0.20287567
0000b0 17 2e fc 3d 20 84 0c 3e 19 81 83 bc da dc 3a 3e
       0.123134784 0.13722277 -0.01605277 0.1824831

gnn_base.gnn.gnn1.lin_edge.weight f4 [48, 1]
000000 e8 1b c1 3e ac c2 00 3f 03 23 4b 3e 3e 48 7f 3f
       0.37716603 0.50297046 0.19837575 0.9971961
000010 46 c8 47 bf 48 df 4f be 37 23 28 bf 2c fb 1c bf
       -0.7803997 -0.20300019 -0.65678734 -0.6132076
000020 bb 44 54 3e 45 ca e4 bd 15 4f b7 bd 26 c5 c6 3e
       0.20729344 -0.11171392 -0.089506306 0.38822287
000030 94 56 6a 3f 13 fc 6a bf 47 c4 9f be 5b 13 cd bd
       0.9153836 -0.91790885 -0.31204435 -0.100134574
000040 86 2e 11 3f d7 71 d6 be c1 26 6d bf 94 e9 cb be
       0.56711614 -0.41883728 -0.9263726 -0.39826643
000050 0c e7 0b bf d9 bc 73 bf 1b 07 36 bf 88 55 cb be
       -0.54649425 -0.95210034 -0.7110459 -0.39713693
000060 a5 1e b5 3e ea 73 0d bf 90 ff 9c be 29 d6 53 bf
       0.35374942 -0.55254996 -0.3066373 -0.8274866
000070 9d 7a 14 bf 21 26 39 be c3 a9 e8 be f7 7e b2 bd
       -0.57999593 -0.18080951 -0.45442018 -0.08715623
000080 e6 ef 92 3e 04 e8 09 3e 50 43 11 bf 43 c6 2d bd
       0.28698653 0.13467413 -0.56743336 -0.042425405
000090 d0 46 a6 3d 9f 57 95 3d 55 6d ce 3e c9 de 90 be
       0.08118975 0.07292103 0.4031779 -0.28294972
0000a0 c1 a8 5f bf ff b2 a6 be e0 56 83 be 07 31 73 bf
       -0.87366873 -0.32558438 -0.25652218 -0.94996685
0000b0 e6 c9 4e 3d 1e c5 af be 8c 28 37 3f d8 95 30 3f
       0.050485514 -0.34330076 0.71546245 0.68978643
