onpolicy/results/GraphMPE/navigation_graph/rmappo/crap_bad/run10/models/actor.pt (torch, 196085 bytes, 62 tensors)

gnn_base.gnn.embed_layer.entity_embed.weight f4 [3, 2]
1.5373781 -0.28799447 -2.1694562 0.5659965 -1.0860507 -1.3984257
00000000: cec8 c43f 0374 93be 5fd8 0ac0 26e5 103f
00000010: b603 8bbf 9dff b2bf

gnn_base.gnn.embed_layer.lin1.0.weight f4 [16, 9]
-0.860047 -0.57578 0.25407985 -0.63812864 0.07364795 -0.059067283 -0.42112163 -0.15472652
-0.24641386 0.33944246 -0.07651101 -0.7104791 -0.18725722 -0.23698902 0.18953614 -0.0666206
0.23724042 -0.5514949 0.22220485 -0.8643289 -0.17185047 0.18235013 0.15767553 -0.18346167
-0.10738861 -0.17627488 0.7835343 0.030043993 -0.031882893 -0.56032944 0.42440608 -0.010111434
-0.5411914 -0.58848035 -0.18262072 -0.47595698 0.40027875 0.044701703 0.4294103 0.16575585
0.019220714 0.67166036 -0.19621877 -0.44437364 -0.08877787 0.44800147 -0.29566514 0.28493726
-0.39792767 -0.9017752 -0.43638036 0.1338974 -0.2365164 -0.03782191 0.083366595 0.17225805
0.45451698 0.4663659 -0.17064172 -0.042801812 -0.14597587 -0.38299638 -0.3245544 0.30175722
0.0015004061 0.25018173 0.0874629 0.64115506 -0.40968361 -0.41994196 0.21092078 0.13942519
-0.5535196 0.0059962636 -0.25714687 0.45780686 -0.44965857 0.13461654 0.09279779 -0.36979073
0.055078626 0.0681152 0.021854237 0.2909189 -0.13238066 -0.22751243 0.008371984 -0.15830867
0.8915301 -0.15950313 -0.2527646 -0.26630086 0.018148126 0.6156664 -0.064846195 -0.3218745
0.617456 0.40205085 -0.11235906 -0.16036527 -0.112243675 0.40429693 0.08914696 0.09991862
-0.15802643 0.5267119 0.080736674 -0.26586556 -0.03368043 0.5254601 0.15018816 -0.08780513
-0.27792448 -0.6537462 -0.064020045 -0.08664669 0.41852066 0.28857943 -0.057297323 -0.37525162
-0.38849086 0.24561457 0.051203113 0.60673445 -0.2275975 0.039119497 -0.19135766 0.60336757
-0.18061845 -0.37629676 0.33624175 -0.31102905 0.25387895 -0.3558194 0.03974569 0.27571872
-0.31584853 0.2543223 0.01986795 0.41397858 -0.3249511 0.26224354 -0.31757855 -0.658886
00000000: 0a2c 5cbf 5166 13bf c116 823e 665c 23bf
00000010: bdd4 963d 89f0 71bd 419d d7be a170 1ebe
00000020: ea53 7cbe 67cb ad3e ceb1 9cbd f5e1 35bf
00000030: 5bc0 3fbe 40ad 72be c315 423e 6270 88bd
00000040: 27ef 723e c52e 0dbf ab89 633e a944 5dbf
00000050: 92f9 2fbe feb9 3a3e b275 213e 60dd 3bbe
00000060: 8fee dbbd 6781 34be b495 483f d21e f63c
00000070: a397 02bd c071 0fbf c14b d93e 6eaa 25bc
00000080: 858b 0abf a6a6 16bf ed00 3bbe a2b0 f3be
00000090: 56f1 cc3e 2219 373d abdb db3e e7bb 293e
000000a0: c274 9d3c eff1 2b3f 93ed 48be f184 e3be
000000b0: 2cd1 b5bd 7360 e53e 6c61 97be 4ce3 913e
000000c0: 2dbd cbbe bdda 66bf 3f6d dfbe 661c 093e
000000d0: 5b31 72be 26eb 1abd 1bbc aa3d 6a64 303e
000000e0: 73b6 e83e 83c7 ee3e b4bc 2ebe f450 2fbd
000000f0: b37a 15be 1a18 c4be ff2b a6be ec7f 9a3e
00000100: 46a9 c43a d217 803e c01f b33d bd22 243f
00000110: 0dc2 d1be a202 d7be 9efb 573e 7ac5 0e3e
00000120: 76b3 0dbf 4e7c c43b c1a8 83be a965 ea3e
00000130: a639 e6be ebd8 093e c50c be3d 3655 bdbe
00000140: 209a 613d fb7f 8b3d a807 b33c 52f3 943e
00000150: cc8e 07be 05f9 68be a52a 093c ab1b 22be
00000160: 513b 643f ca54 23be 5d6a 81be 9658 88be
00000170: 61ab 943c 509c 1d3f 15ce 84bd bccc a4be
00000180: 9911 1e3f 9cd9 cd3e 821c e6bd cb36 24be
00000190: 03e0 e5bd 0200 cf3e ae92 b63d 22a2 cc3d
000001a0: aed1 21be 97d6 063f 4559 a53d 881f 88be
000001b0: 7ef4 09bd 8e84 063f edca 193e 2dd3 b3bd
000001c0: 1e4c 8ebe e95b 27bf f11c 83bd d273 b1bd
000001d0: 5748 d63e afc0 933e 99b0 6abd fb20 c0be
000001e0: 46e8 c6be 6382 7b3e 5bba 513d f352 1b3f
000001f0: 520f 69be c43b 203d 43f3 43be 4c76 1a3f
00000200: 0bf4 38be f8a9 c0be e127 ac3e 333f 9fbe
00000210: 6cfc 813e f62d b6be 60cc 223d 012b 8d3e
00000220: e6b6 a1be 8836 823e 1cc2 a23c 00f5 d33e
00000230: fe5f a6be c944 863e a899 a2be c1ac 28bf

gnn_base.gnn.embed_layer.lin1.0.bias f4 [16]
0.0015585187 -0.01236427 0.014763634 -0.008898916 0.0010430091 -0.018803962 -0.0045818496 0.0062451162
-0.00015672302 -0.0064094085 0.006800688 -0.0043515014 -0.0036396068 0.00025218696 0.014116635 -0.025893508
00000000: 3647 cc3a 8293 4abc 2be3 713c c2cc 11bc
00000010: 94b5 883a c40a 9abc 5723 96bb d5a3 cc3b
00000020: 0456 24b9 0406 d2bb 4ed8 de3b 0a97 8ebb
00000030: 7886 6ebb f637 8439 7549 673c 9f1e d4bc

gnn_base.gnn.embed_layer.lin1.2.weight f4 [16]
1.0209646 0.9791926 1.011598 0.9938449 1.0083534 0.994088 1.0081346 1.005055
0.96182823 0.9998377 0.9983684 0.9897865 0.9974898 1.0013198 0.9989154 1.014661
00000000: f8ae 823f 5eac 7a3f 0b7c 813f 9f6c 7e3f
00000010: b911 813f 8d7c 7e3f 8e0a 813f a4a5 803f
00000020: 603a 763f 5df5 7f3f 1295 7f3f a662 7d3f
00000030: 7e5b 7f3f 3f2b 803f ebb8 7f3f 69e0 813f

gnn_base.gnn.embed_layer.lin1.2.bias f4 [16]
0.0018415574 0.012784519 0.022313766 -0.0002612013 0.005051575 -0.008655555 -0.0035058656 0.01051299
0.01373298 -0.0042052697 0.01568904 0.007839022 0.010647853 0.0060509904 0.013810661 -0.021038754
00000000: 6a60 f13a 2976 513c 5ccb b63c d8f1 88b9
00000010: af87 a53b 07d0 0dbc aac2 65bb ad3e 2c3c
00000020: 4b00 613c 5ccc 89bb 4d86 803c 3e6f 003c
00000030: 5574 2e3c 6347 c63b 1c46 623c 7759 acbc

gnn_base.gnn.embed_layer.lin_h.0.weight f4 [16, 16]
0.74521226 0.39925385 0.3448451 -0.17990127 0.036850054 0.07188387 0.058179572 0.3271403
0.35649452 0.18282051 0.043146096 -0.103587 0.008110775 0.83632654 0.37922567 -0.024864338
0.27182275 -0.108737595 -0.42352077 0.5756861 -0.31838632 -0.13075587 0.28912926 -0.2789047
0.03327135 0.50565016 -0.58252066 0.110591 -0.6453301 0.04457016 0.21255536 -0.22734658
0.2912187 -0.8253026 0.04761614 0.19163713 -0.42654186 0.23265229 -0.20185725 -0.2712159
-0.19304262 -0.0126481075 0.23183851 -0.79946107 0.23978886 0.23454408 0.029059984 0.032231245
0.14561607 0.037174057 0.028096372 0.59997296 0.055420134 -0.34592068 0.013926689 -0.24239662
0.5252014 0.23363435 0.4316611 0.21467948 0.23891012 0.2098463 -0.84911466 0.22366318
-0.60708994 0.019972831 0.28020468 0.16568114 -0.33720642 0.66278845 -0.29434022 0.25974542
0.29219082 0.24088864 -0.5915267 0.076360434 0.25618708 0.31644332 -0.29859805 -0.25280625
-0.3148711 -0.53480804 0.042603537 -0.15541814 0.5194336 0.074790396 -0.22358781 -0.42917767
0.18813957 0.17684406 -0.12881419 0.38273153 -0.15997618 0.42491415 0.37898573 0.7069338
0.26747307 0.47587597 -0.4511152 0.2467067 0.23662935 0.54074496 -0.80137825 -0.2443183
-0.34038693 -0.28655097 0.10728482 0.01573874 -0.33209366 0.16567147 -0.19709925 0.03193946
-0.02162118 0.18842258 -0.10351772 -0.062155705 0.27399233 0.36760446 0.46664414 -0.85441774
0.5111829 -0.41771585 -0.0872948 -0.15845367 0.30190024 -0.012061083 0.15569587 -0.45541835
0.103831545 -0.3241623 0.77679574 0.5902194 0.26710612 0.04617781 -0.25674617 0.098256364
0.10631869 -0.3019141 0.23512821 0.32836375 -0.3103186 -0.2714107 0.3117016 -0.50063246
0.30176342 -0.42681038 0.065394774 -0.57559997 -0.022355976 0.57387525 0.4102442 0.061163414
8.111742e-05 0.01406019 0.19537097 0.32585502 -0.57563454 -0.002567464 -0.62923825 -0.13211554
-0.08692344 0.2094084 6.195584e-05 0.2504753 -0.81163853 0.35377502 0.24976344 0.03178079
0.26545903 -0.4777655 0.31584236 0.26948828 -0.14874211 -0.11436937 0.33165252 0.6498015
0.08715714 -0.010930255 0.14343064 0.3869894 0.12625927 0.14770651 0.5631039 -0.037985835
-0.90259486 -0.1915743 -0.15179214 0.43183172 0.465189 0.4240305 -0.06520104 0.06566285
-0.12647954 -0.40965363 -0.6058422 0.13914938 0.15345326 -0.2714464 0.065716624 0.57136977
0.30160874 -0.7923161 -0.15980415 -0.007293048 -0.093838155 0.4591247 -0.07727771 -0.1785221
-0.24124445 0.21611467 0.56650424 -0.22415055 -0.3302785 -0.5445718 -0.082193315 -0.46283826
-0.20061225 -0.45762774 -0.27937105 -0.20565118 -0.5077131 0.40502074 -0.32463157 0.00992983
0.54358655 -0.22794315 -0.089557186 -0.3655388 -0.45647657 -0.25400138 -0.49319988 -0.23721437
0.08309429 -0.1942034 -0.34756243 0.6943536 0.49240452 -0.15184017 0.011233258 -0.15912862
-0.4882324 0.013685698 -0.2825806 -0.16672951 -0.33186087 -0.13538684 -0.08648764 -0.1693908
-0.16183825 0.281136 0.7697157 0.34141603 -0.032152407 0.47623423 0.2728748 -0.6104153
00000000: 3bc6 3e3f 006b cc3e 898f b03e 0a38 38be
00000010: 15f0 163d da37 933d b44d 6e3d ef7e a73e
00000020: 7386 b63e 4d35 3b3e f6b9 303d 6c25 d4bd
00000030: 0ee3 043c 7f19 563f de29 c23e 4cb0 cbbc
00000040: 5a2c 8b3e d1b1 debd b7d7 d8be 2a60 133f
00000050: 8803 a3be dee4 05be c008 943e 99cc 8ebe
00000060: 8a47 083d 4a72 013f 1320 15bf 897d e23d
00000070: 5a34 25bf 338f 363d 1da8 593e 8bcd 68be
00000080: 9e1a 953e 0847 53bf 2409 433d 863c 443e
00000090: b263 dabe 673c 6e3e abb3 4ebe cfdc 8abe
000000a0: f7ac 45be 023a 4fbc 1367 6d3e 7ba9 4cbf
000000b0: 368b 753e 532c 703e 340f ee3c e904 043d
000000c0: 611c 153e d343 183d 5d2a e63c d497 193f
000000d0: 3900 633d 841c b1be c42c 643c d236 78be
000000e0: 9973 063f d83d 6f3e af02 dd3e f0d4 5b3e
000000f0: dba4 743e f3e1 563e 945f 59bf f607 653e
00000100: 3f6a 1bbf 109e a33c fd76 8f3e 51a8 293e
00000110: 52a6 acbe 81ac 293f c3b3 96be 5afd 843e
00000120: 099a 953e 83ab 763e 4b6e 17bf dc62 9c3d
00000130: f42a 833e dc04 a23e d8e1 98be d26f 81be
00000140: c936 a1be 2ee9 08bf 0c81 2e3d ef25 1fbe
00000150: 9af9 043f b52b 993d 34f4 64be 2dbd dbbe
00000160: a9a7 403e 9c16 353e dee7 03be 63f5 c33e
00000170: ccd0 23be 598e d93e 6b0a c23e 9df9 343f
00000180: 3bf2 883e 04a6 f33e 92f8 e6be aea0 7c3e
00000190: f74e 723e 436e 0a3f 2027 4dbf 942e 7abe
000001a0: 3247 aebe cfb6 92be 25b8 db3d 88ee 803c
000001b0: 2e08 aabe c8a5 293e 63d4 49be f4d2 023d
000001c0: e71e b1bc d9f1 403e 1901 d4bd fb96 7ebd
000001d0: b948 8c3e a736 bc3e fbeb ee3e 1fbb 5abf
000001e0: e2dc 023f dade d5be 9ec7 b2bd ae41 22be
000001f0: ab92 9a3e d99b 45bc bd6e 1f3e 982c e9be
00000200: a2a5 d43d 9af8 a5be 16dc 463f 9e18 173f
00000210: 22c2 883e f124 3d3d 3c74 83be a23a c93d
00000220: 9dbd d93d 7c94 9abe 73c5 703e 4b1f a83e
00000230: 14e2 9ebe 58f6 8abe 5a97 9f3e 7329 00bf
00000240: bc80 9a3e e486 dabe b2ed 853d 855a 13bf
00000250: e123 b7bc 7de9 123f 870b d23e 7d86 7a3d
00000260: 951d aa38 b65c 663c 540f 483e 78d6 a63e
00000270: c95c 13bf e642 28bb c215 21bf 4c49 07be
00000280: eb04 b2bd 286f 563e 4aee 8138 4c3e 803e
00000290: 8bc7 4fbf 0022 b53e fdc1 7f3e 932c 023d
000002a0: 3fea 873e ae9d f4be 17b6 a13e 5efa 893e
000002b0: da4f 18be 7d3a eabd 5cce a93e 6459 263f
000002c0: 717f b23d d014 33bc 7bdf 123e 7a23 c63e
000002d0: 1c4a 013e 6040 173e 9427 103f 0997 1bbd
000002e0: 7510 67bf 0e2c 44be 666f 1bbe 0c19 dd3e
000002f0: 412d ee3e 871a d93e 1f88 85bd 3f7a 863d
00000300: da83 01be 1fbe d1be 7918 1bbf 2d7d 0e3e
00000310: da22 1d3e 06fb 8abe 7096 863d 4a45 123f
00000320: 766c 9a3e 3ad5 4abf b3a3 23be 85fa eebb
00000330: 382e c0bd 6512 eb3e c743 9ebd 7fce 36be
00000340: c908 77be 2a4d 5d3e 6c06 113f b987 65be
00000350: 431a a9be 0f69 0bbf f854 a8bd 23f9 ecbe
00000360: 4c6d 4dbe 2f4e eabe b909 8fbe 3996 52be
00000370: 7cf9 01bf e15e cf3e 1c36 a6be bab0 223c
00000380: 7d28 0b3f ee69 69be c269 b7bd e727 bbbe
00000390: 4cb7 e9be 780c 82be b284 fcbe 53e8 72be
000003a0: 572d aa3d 42dd 46be b4f3 b1be 28c1 313f
000003b0: 721c fc3e fd7b 1bbe b30b 383c 9df2 22be
000003c0: 99f9 f9be fa39 603c 68ae 90be 24bb 2abe
000003d0: abe9 a9be d9a2 0abe 6f20 b1bd c874 2dbe
000003e0: edb8 25be 0ff1 8f3e 170c 453f 15ce ae3e
000003f0: 3eb2 03bd f9d4 f33e 3fb6 8b3e 2d44 1cbf

gnn_base.gnn.embed_layer.lin_h.0.bias f4 [16]
0.0 0.0 0.0 0.0 0.0 0.0 0.0 0.0
0.0 0.0 0.0 0.0 0.0 0.0 0.0 0.0
00000000: 0000 0000 0000 0000 0000 0000 0000 0000
00000010: 0000 0000 0000 0000 0000 0000 0000 0000
00000020: 0000 0000 0000 0000 0000 0000 0000 0000
00000030: 0000 0000 0000 0000 0000 0000 0000 0000

gnn_base.gnn.embed_layer.lin_h.2.weight f4 [16]
1.0209646 0.9791926 1.011598 0.9938449 1.0083534 0.994088 1.0081346 1.005055
0.96182823 0.9998377 0.9983684 0.9897865 0.9974898 1.0013198 0.9989154 1.014661
00000000: f8ae 823f 5eac 7a3f 0b7c 813f 9f6c 7e3f
00000010: b911 813f 8d7c 7e3f 8e0a 813f a4a5 803f
00000020: 603a 763f 5df5 7f3f 1295 7f3f a662 7d3f
00000030: 7e5b 7f3f 3f2b 803f ebb8 7f3f 69e0 813f

gnn_base.gnn.embed_layer.lin_h.2.bias f4 [16]
0.0018415574 0.012784519 0.022313766 -0.0002612013 0.005051575 -0.008655555 -0.0035058656 0.01051299
0.01373298 -0.0042052697 0.01568904 0.007839022 0.010647853 0.0060509904 0.013810661 -0.021038754
00000000: 6a60 f13a 2976 513c 5ccb b63c d8f1 88b9
00000010: af87 a53b 07d0 0dbc aac2 65bb ad3e 2c3c
00000020: 4b00 613c 5ccc 89bb 4d86 803c 3e6f 003c
00000030: 5574 2e3c 6347 c63b 1c46 623c 7759 acbc

gnn_base.gnn.embed_layer.lin2.0.0.weight f4 [16, 16]
0.7732484 0.36715636 0.36396888 -0.16134278 0.013793818 0.063780144 0.02891574 0.35037675
0.33418068 0.18108447 0.016569464 -0.13454264 0.060112327 0.8253706 0.39426285 -0.054776542
0.2357287 -0.06932482 -0.4248912 0.56993425 -0.32002357 -0.11447429 0.28823823 -0.31008875
0.07279875 0.49656412 -0.5644673 0.12705646 -0.6640098 0.061881833 0.21772237 -0.21906699
0.27182555 -0.81230235 0.035711534 0.18457127 -0.42413482 0.2274576 -0.20005223 -0.2794281
-0.16996889 -0.0053302925 0.25644094 -0.7879565 0.21608229 0.24340093 0.014194771 0.03606241
0.17679076 0.03265869 0.037868254 0.6030548 0.009703596 -0.35109428 -0.023130206 -0.22015646
0.49924397 0.25811172 0.4186565 0.20379846 0.26776993 0.20558366 -0.85537076 0.22136946
-0.6059905 -0.003945043 0.28484067 0.16017032 -0.34057745 0.67995656 -0.3023715 0.25215802
0.28125575 0.22660814 -0.58931005 0.08598814 0.26372832 0.34524807 -0.28980932 -0.2509268
-0.30869523 -0.5201492 0.043131653 -0.13377254 0.5194051 0.07959494 -0.21750666 -0.40892133
0.17488937 0.19037548 -0.16360305 0.36811143 -0.17923208 0.42218098 0.37129635 0.711635
0.24540275 0.5004764 -0.46158484 0.2303815 0.23814091 0.51695955 -0.7979323 -0.23574156
-0.33630577 -0.26642707 0.12068465 0.03635612 -0.36355945 0.17808126 -0.18815029 0.048974253
-0.024952563 0.17919491 -0.11073738 -0.0605913 0.27991924 0.37346038 0.47251445 -0.86275715
0.50277954 -0.4258828 -0.08708015 -0.15499692 0.29828867 0.007227911 0.16614316 -0.45965528
0.109469965 -0.34761208 0.79297024 0.5933688 0.2730461 0.043192167 -0.2583413 0.101819254
0.109551676 -0.3111602 0.22989096 0.3201385 -0.29586202 -0.28439125 0.30546027 -0.5165511
0.327351 -0.42125943 0.055308327 -0.5676176 -0.026241481 0.57446223 0.41464075 0.06745269
-0.011398899 0.016988592 0.19818324 0.33413497 -0.57024926 -0.03108318 -0.638509 -0.12011095
-0.095994435 0.2115311 0.0018594888 0.23688047 -0.81546843 0.36058626 0.2395858 0.034623154
0.2699885 -0.47686037 0.31964925 0.28590336 -0.15980658 -0.099292144 0.31810847 0.6489256
0.09146796 -0.004748489 0.12865277 0.3989289 0.1310321 0.13983032 0.57763064 -0.045381628
-0.8873498 -0.1853077 -0.1434255 0.43595067 0.44915378 0.4083712 -0.069564015 0.07075182
-0.11023772 -0.41120866 -0.60675865 0.14894623 0.15300995 -0.26385686 0.073167816 0.56823516
0.2937398 -0.8001828 -0.17028894 -0.0077214437 -0.080043726 0.44342154 -0.08240033 -0.17481399
-0.24931401 0.2151393 0.5641517 -0.22632569 -0.34521133 -0.5341616 -0.10509507 -0.46270022
-0.20084442 -0.45367384 -0.27052203 -0.20011686 -0.4879168 0.41689363 -0.30830142 0.013146437
0.5545357 -0.23439914 -0.09784021 -0.36195517 -0.46089378 -0.25490734 -0.49134248 -0.2207979
0.07692327 -0.18922232 -0.3525172 0.6875103 0.4922826 -0.17504595 -0.0034887407 -0.1620759
-0.500145 -0.009591186 -0.28016132 -0.18925396 -0.3216835 -0.13549069 -0.09246099 -0.19216295
-0.1790225 0.2589447 0.77501136 0.35643595 -0.0051337983 0.49506482 0.29287606 -0.62248194
00000000: 9bf3 453f ebfb bb3e 215a ba3e 0b37 25be
00000010: 77ff 613c 2a9f 823d b4e0 ec3c 9564 b33e
00000020: bb19 ab3e 356e 393e afbc 873c 8cc5 09be
00000030: 5838 763d 7d4b 533f d2dc c93e 5e5d 60bd
00000040: dd62 713e 2cfa 8dbd 578b d9be 36e7 113f
00000050: 21da a3be 7f71 eabd f693 933e f4c3 9ebe
00000060: 8317 953d a73d fe3e ee80 10bf 171b 023e
00000070: 8cfc 29bf ce77 7d3d 9df2 5e3e 1953 60be
00000080: b82c 8b3e 0cf3 4fbf 4246 123d 4000 3d3e
00000090: 3328 d9be a5ea 683e 7eda 4cbe 3311 8fbe
000000a0: 530c 2ebe bca9 aebb 3a4c 833e 84b7 49bf
000000b0: ad44 5d3e 183e 793e 2f91 683c 2db6 133d
000000c0: a308 353e 1ec5 053d be1b 1b3d cd61 1a3f
000000d0: d5fb 1e3c a1c2 b3be 8f7b bdbc b270 61be
000000e0: e89c ff3e 3827 843e 255a d63e 8bb0 503e
000000f0: 2419 893e 8684 523e 94f9 5abf adae 623e
00000100: 3222 1bbf 6b45 81bb a3d6 913e b003 243e
00000110: 2b60 aebe a211 2e3f 70d0 9abe db1a 813e
00000120: c100 903e f70b 683e 06dd 16bf 8d1a b03d
00000130: 6607 873e 5bc4 b03e e361 94be 7a79 80be
00000140: 4d0d 9ebe 7f28 05bf d1aa 303d abfb 08be
00000150: bcf7 043f ac02 a33d 11ba 5ebe 235e d1be
00000160: 3316 333e caf1 423e 8f87 27be 1a79 bc3e
00000170: 9d88 37be 1b28 d83e 8e1a be3e b62d 363f
00000180: dc4a 7b3e 391f 003f d954 ecbe 21e9 6b3e
00000190: 36db 733e 7657 043f 4b45 4cbf 3c66 71be
000001a0: 4530 acbe 2169 88be 8429 f73d 28ea 143d
000001b0: 7724 babe ef5a 363e 78aa 40be 3a99 483d
000001c0: 5169 ccbc df7e 373e 48ca e2bd 952e 78bd
000001d0: 9351 8f3e 3336 bf3e 6aed f13e a7dd 5cbf
000001e0: 29b6 003f 4f0d dabe 1457 b2bd 83b7 1ebe
000001f0: 4bb9 983e 1dd8 ec3b 6f21 2a3e f057 ebbe
00000200: ca31 e03d 36fa b1be 1900 4b3f 05e7 173f
00000210: b3cc 8b3e 45ea 303d 5045 84be 9d86 d03d
00000220: a15c e03d 6450 9fbe 8968 6b3e 32e9 a33e
00000230: 3a7b 97be bb9b 91be 4a65 9c3e b13c 04bf
00000240: 8d9a a73e 51af d7be fc8a 623d 634f 11bf
00000250: 60f8 d6bc f50f 133f cb4b d43e a324 8a3d
00000260: 73c2 3abc a92b 8b3c 8cf0 4a3e bd13 ab3e
00000270: dbfb 11bf 27a2 febc 5375 23bf bbfc f5bd
00000280: bb98 c4bd 9c9b 583e 17ba f33a cb90 723e
00000290: 8ac2 50bf c39e b83e fb55 753e 02d1 0d3d
000002a0: ef3b 8a3e 0b27 f4be 11a9 a33e ed61 923e
000002b0: 56a4 23be ae59 cbbd 1ddf a23e fd1f 263f
000002c0: 8e53 bb3d 3699 9bbb 8dbd 033e 6940 cc3e
000002d0: 472d 063e ae2f 0f3e 9adf 133f 16e2 39bd
000002e0: 5b29 63bf 4dc1 3dbe 22de 12be ed34 df3e
000002f0: 7cf7 e53e 0816 d13e 9477 8ebd 55e6 903d
00000300: 50c4 e1bd f189 d2be 8954 1bbf 5c85 183e
00000310: a4ae 1c3e 3f18 87be 02d9 953d dc77 113f
00000320: 1065 963e c8d8 4cbf 3960 2ebe 2a04 fdbb
00000330: f7ed a3bd 2608 e33e 81c1 a8bd 7002 33be
00000340: 2c4c 7fbe 7a4d 5c3e 3f6c 103f ecc1 67be
00000350: 8abf b0be d1be 08bf 163c d7bd 0be7 ecbe
00000360: 29aa 4dbe f047 e8be dd81 8abe 6feb 4cbe
00000370: 3bd0 f9be 1573 d53e afd9 9dbe 2764 573c
00000380: 0df6 0d3f 5406 70be 7360 c8bd 3052 b9be
00000390: 45fa ebbe 3783 82be 3e91 fbbe d818 62be
000003a0: f389 9d3d 7fc3 41be 227d b4be ad00 303f
000003b0: 770c fc3e 3f3f 33be 5ba3 64bb 3af7 25be
000003c0: 8109 00bf 5a24 1dbc 4e71 8fbe cacb 41be
000003d0: b3b3 a4be 12be 0abe 305c bdbd 5dc6 44be
000003e0: ad51 37be 6694 843e 2567 463f c67e b63e
000003f0: 6c39 a8bb 2379 fd3e daf3 953e fa5a 1fbf

gnn_base.gnn.embed_layer.lin2.0.0.bias f4 [16]
0.029121831 -0.017524168 -0.0069868355 0.0044254204 0.004555472 -0.010903445 -0.017417418 0.01011157
0.015838882 -0.010014264 0.0010238723 -0.0053842557 -0.00016218206 -0.0011731319 0.004647874 0.022617135
00000000: e890 ee3c d88e 8fbc d3f1 e4bb 1e03 913b
00000010: 1246 953b 5da4 32bc f9ae 8ebc 00ab 253c
00000020: 8bc0 813c de12 24bc 7433 863a 696e b0bb
00000030: 6a0f 2ab9 c6c3 99ba 314d 983b 9247 b93c

gnn_base.gnn.embed_layer.lin2.0.2.weight f4 [16]
1.0008981 1.0012441 0.98078614 0.9873838 1.0042907 1.0133839 1.0294069 1.0047388
1.01442 1.0424699 1.0112215 0.9874602 0.9986408 1.0085704 1.0083977 1.0156273
00000000: 6e1d 803f c428 803f cd14 7b3f 2fc5 7c3f
00000010: 998c 803f 90b6 813f 9bc3 833f 489b 803f
00000020: 84d8 813f a76f 853f b56f 813f 31ca 7c3f
00000030: eca6 7f3f d618 813f 2d13 813f 1300 823f

gnn_base.gnn.embed_layer.lin2.0.2.bias f4 [16]
0.01909023 -0.0044716704 -0.007952727 0.007849567 -6.891153e-05 -0.010844877 -0.023422603 -0.0011730907
0.012991714 -0.020514272 -0.009170042 -0.0063274596 -0.0044192863 -0.004255866 -0.008570035 0.023401227
00000000: 1d63 9c3c 1787 92bb 284c 02bc 789b 003c
00000010: 9984 90b8 b6ae 31bc c2e0 bfbc 64c2 99ba
00000020: 33db 543c 8c0d a8bc f23d 16bc 9456 cfbb
00000030: a9cf 90bb cb74 8bbb 5569 0cbc eeb3 bf3c

gnn_base.gnn.gnn1.lin_key.weight f4 [48, 16]
0.06257064 -0.08795674 -0.12836163 -0.0052617784 -0.15888752 0.20921406 0.18295424 0.23450777
-0.056774464 0.08799797 0.011709272 -0.19796035 0.113599055 -0.17362419 -0.076265074 -0.117528744
-0.26998785 0.012269387 0.036347076 -0.012800281 0.18289177 0.025413495 -0.014601453 -0.119357884
-0.15039413 -0.04082884 -0.1359189 -0.1444552 -0.036394667 -0.056278348 -0.15437901 0.14590779
0.22079672 -0.16751446 0.12948233 -0.11838335 -0.027949113 0.22175193 0.04033129 -0.24051012
0.22464906 0.018980864 -0.12671468 -0.13369933 0.21408229 -0.00073329394 0.14106277 0.15499991
-0.10468928 0.052114338 -0.15305008 0.23020308 -0.12927951 0.13441983 0.02977314 0.15737735
-0.1575083 -0.009415905 0.107592195 -0.020056132 0.016390733 0.110860705 -0.20255841 -0.059745565
0.096814 0.123957776 0.2343926 -0.045449104 0.07059219 -0.12849721 -0.03593943 -0.11311754
0.18043624 -0.003972479 0.116593465 0.14535831 0.053896923 -0.008364026 -0.010012634 -0.20948853
0.037660208 -0.062458515 -0.2199988 0.22814521 -0.011934242 -0.1146602 -0.22026123 -0.23456456
0.07875517 -0.10809403 -0.08150156 -0.13874257 0.19856684 -0.067246206 0.17553356 0.19827999
-0.20607896 0.18243507 -0.037424434 0.24204043 0.14114344 -0.23932679 0.0808954 0.09743124
-0.09677246 0.19355826 -0.1865343 -0.05749807 0.22611752 0.22129261 0.13894098 -0.1634351
-0.22130594 -0.21253078 -0.06500805 0.13836475 0.06618673 -0.024873592 0.25700602 0.21391019
-0.13386674 -0.0998418 0.02434185 0.06536538 -0.0005542537 0.08335347 0.19296537 -0.041882228
0.11732811 0.0128606055 0.08743043 0.09879477 -0.057261776 -0.09529178 0.1367414 -0.15582797
0.116048 -0.16162899 0.1999115 0.10398822 -0.07427866 0.13431767 -0.06091574 0.055821307
0.08457215 0.03699246 0.043610565 -0.009649229 -0.07770361 0.13748536 0.060161196 0.07867923
0.1729762 -0.12601565 -0.082558945 -0.02523946 0.22066706 -0.18930197 -0.16360639 -0.042707406
-0.2253379 -0.18384351 0.1504492 0.024183871 -0.20712534 -0.044779677 -0.04954199 -0.08187579
-0.19453186 0.12885442 -0.05336387 0.2261056 -0.16367562 -0.13903432 -0.03401241 -0.15497646
0.1585324 0.21500582 0.22319387 -0.1442977 0.17134379 0.15952116 -0.13484131 0.03567428
0.14267479 0.16792636 -0.25817066 0.24638815 -0.04970192 0.10532896 -0.18089163 -0.19789101
-0.17994417 0.14232771 -0.111304976 0.15077884 0.08618866 0.10068443 -0.015306204 -0.06838846
-0.12187646 -0.13957743 0.25116175 0.009197028 -0.12425677 -0.24834748 0.028493615 -0.2672935
-0.021460919 0.17061363 -0.12526236 0.1416314 -0.07031785 -0.20537986 -0.22710674 0.12624004
-0.17760463 0.12810235 0.03500718 0.16125293 -0.18965887 0.195768 -0.2456846 -0.21842763
0.15752572 -0.007010117 -0.14732943 -0.056315545 -0.22681132 -0.19900441 -0.023074932 0.1934053
0.05904806 0.05418236 -0.051627547 0.22432469 -0.0119157685 0.07839622 0.020602882 0.049939554
0.08038032 0.2157159 0.15081851 0.047771998 0.084229484 -0.10546544 0.13093251 0.07568415
0.21251875 -0.042639893 -0.23908563 0.03143256 0.121181786 0.20316121 0.07331457 0.090549596
00000000: 0925 803d aa22 b4bd 3b71 03be ff6a acbb
00000010: 69b3 22be 363c 563e 5b58 3b3e ce22 703e
00000020: 578c 68bd 4838 b43d 3fd8 3f3c 1eb6 4abe
00000030: 9fa6 e83d 8aca 31be dd30 9cbd e9b2 f0bd
00000040: d93b 8abe 8a05 493c ace0 143d 45b8 51bc
00000050: fb47 3b3e f62f d03c ef3a 6fbc e871 f4bd
00000060: eb00 1abe 243c 27bd 532e 0bbe 10ec 13be
00000070: 9312 15bd 2084 66bd 8815 1ebe da68 153e
00000080: 8918 623e e988 2bbe 0497 043e f872 f2bd
00000090: 8af5 e4bc f012 633e 6c32 253d 4948 76be
000000a0: 670a 663e c27d 9b3c 7ec1 01be 7ae8 08be
000000b0: 6338 5b3e 863a 40ba c272 103e 4cb8 1e3e
000000c0: 5567 d6bd d875 553d 29b9 1cbe 5bba 6b3e
000000d0: d961 04be 5aa5 093e cde6 f33c 8727 213e
000000e0: db49 21be 2b45 1abc 4c59 dc3d c24c a4bc
000000f0: dc45 863c f00a e33d 796b 4fbe c4b7 74bd
00000100: 6b46 c63d 93dd fd3d 9d04 703e d728 3abd
00000110: a392 903d c694 03be 3935 13bd 2baa e7bd
00000120: 47c4 383e 922b 82bb 8ec8 ee3d cfd8 143e
00000130: 05c3 5c3d 4509 09bc 080c 24bc 2984 56be
00000140: 9741 1a3d 80d4 7fbd 5e47 61be e69e 693e
00000150: d787 43bc f8d2 eabd 298c 61be b131 70be
00000160: 644a a13d 6760 ddbd 4aea a6bd 8812 0ebe
00000170: 1b55 4b3e 61b8 89bd 12bf 333e e909 4b3e
00000180: 5d06 53be 42d0 3a3e 5d4a 19bd 72d9 773e
00000190: e887 103e 1512 75be 7dac a53d 088a c73d
000001a0: a430 c6bd 2334 463e d902 3fbe 1983 6bbd
000001b0: 5a8b 673e 889a 623e 8b46 0e3e 885b 27be
000001c0: 069e 62be aba1 59be f122 85bd 7daf 0d3e
000001d0: e98c 873d b4c3 cbbc 4b96 833e 460b 5b3e
000001e0: 5d14 09be dc79 ccbd 8f68 c73c 49de 853d
000001f0: 564b 11ba 39b5 aa3d b798 453e b38c 2bbd
00000200: b849 f03d 4ab5 523c ba0e b33d ea54 ca3d
00000210: 538b 6abd 5628 c3bd f005 0c3e 5e91 1fbe
00000220: 93aa ed3d 1282 25be 9ab5 4c3e c7f7 d43d
00000230: 691f 98bd 928a 093e c882 79bd e2a4 643d
00000240: 2a34 ad3d 6885 173d fea0 323d cd17 1ebc
00000250: 1223 9fbd f6c8 0c3e 966b 763d 9322 a13d
00000260: ac20 313e 3f0a 01be aa14 a9bd fcc2 cebc
00000270: 8cf6 613e 60d8 41be 6f88 27be f6ed 2ebd
00000280: fabe 66be 7941 3cbe 5b0f 1a3e 411d c63c
00000290: aa18 54be e56a 37bd 8bec 4abd 7fae a7bd
000002a0: 5c33 47be 6af2 033e 1394 5abd 3a88 673e
000002b0: 959a 27be 035f 0ebe 9950 0bbd 26b2 1ebe
000002c0: 5156 223e 7c2a 5c3e ef8c 643e c7c2 13be
000002d0: bf74 2f3e 8459 233e d713 0abe 321f 123d
000002e0: 5719 123e e3f4 2b3e f22e 84be 2d4d 7c3e
000002f0: 3e94 4bbd b6b6 d73d a83b 39be f1a3 4abe
00000300: 4943 38be 5bbe 113e ddf3 e3bd c565 1a3e
00000310: ae83 b03d a333 ce3d dfc6 7abc 400f 8cbd
00000320: 5e9a f9bd 63ed 0ebe 4698 803e 22af 163c
00000330: 557a febd cd4e 7ebe 716b e93c b2da 88be
00000340: cfce afbc 57b5 2e3e c744 00be d207 113e
00000350: ce02 90bd 194f 52be ab8e 68be 1245 013e
00000360: fddd 35be 432d 033e b063 0f3d 7d1f 253e
00000370: ef35 42be 6877 483e be94 7bbe 7eab 5fbe
00000380: 6c4e 213e 20b5 e5bb 87dd 16be 21ab 66bd
00000390: 3a41 68be d0c7 4bbe a407 bdbc 0a0c 463e
000003a0: 61dc 713d 53ee 5d3d 6877 53bd 5fb5 653e
000003b0: 5b3a 43bc 338e a03d 60c7 a83c 6b8d 4c3d
000003c0: 709e a43d a1e4 5c3e 2b70 1a3e 92ac 433d
000003d0: 8280 ac3d 44fe d7bd 2c13 063e 4b00 9b3d
000003e0: 849e 593e 2ba7 2ebd ddd2 74be 6ebf 003d
000003f0: 282e f83d 7e09 503e f325 963d 1172 b93d

gnn_base.gnn.gnn1.lin_key.bias f4 [48]
0.10677543 0.07466018 0.13652939 -0.20090008 0.077276796 -0.23677328 -0.16441637 -0.09316352
-0.024357352 -0.23592618 0.0062217982 0.03991413 -0.09921652 0.081088305 0.21845582 -0.04270366
-0.13314465 -0.2214571 -0.1825507 -0.13827187 -0.18481857 -0.09828758 0.13772121 0.07823053
0.22533101 0.24821171 -0.09002671 -0.09790477 0.03421125 -0.19907054 0.13597974 -0.044994473
-0.20933223 -0.18874541 -0.17226708 0.06871304 0.19164261 0.19806316 -0.068838745 -0.14521399
-0.110958725 -0.17077985 -0.06445542 -0.22578555 0.13362437 -0.23529881 -0.15551364 0.16777506
00000000: 14ad da3d 70e7 983d 5cce 0b3e c0b8 4dbe
00000010: 4c43 9e3d b274 72be c45c 28be 84cc bebd
00000020: 1289 c7bc a296 71be 3ae0 cb3b 007d 233d
00000030: 0832 cbbd a011 a63d e2b2 5f3e 08ea 2ebd
00000040: 1257 08be a6c5 62be 92ee 3abe 2497 0dbe
00000050: 1441 3dbe 004b c9bd ca06 0d3e 5437 a03d
00000060: 2cbd 663e 362b 7e3e ec5f b8bd 4c82 c8bd
00000070: 1821 0c3d 26d9 4bbe 463e 0b3e 204c 38bd
00000080: 305b 56be 7a46 41be c866 30be 6cb9 8c3d
00000090: f63d 443e 12d1 4a3e 54fb 8cbd fab2 14be
000000a0: 543e e3bd eae0 2ebe 3401 84bd 5434 67be
000000b0: d4d4 083e 2cf2 70be f83e 1fbe 3acd 2b3e

gnn_base.gnn.gnn1.lin_query.weight f4 [48, 16]
-0.19623193 0.05483423 0.15578087 0.25007644 0.095624074 -0.038195062 0.1613598 -0.012061629
-0.08585431 0.03816364 0.06439321 0.17060176 0.1119078 0.13184367 0.017778633 -0.012475804
0.09407149 0.058391806 -0.23971686 0.029546266 -0.13149321 -0.12427571 0.09343324 0.055053584
0.048846107 -0.11576966 0.108165935 0.23137856 0.025640301 0.10184236 -0.22767888 0.16905761
0.08330956 0.104346305 0.12811294 -0.07916004 0.002321661 0.24469405 0.17808203 -0.17753398
0.20818421 0.23850183 0.02216501 -0.19050689 0.017380029 -0.045291595 0.1765982 -0.22489539
0.047001466 -0.003333227 0.007689382 0.17813577 -0.025477095 -0.19763406 -0.13850492 -0.103265695
0.02426659 0.11325036 -0.04410037 -0.09344795 0.10055207 -0.23927258 0.17959206 -0.01734691
0.19142173 0.20098105 0.034157205 0.08963672 -0.10754019 0.15605417 0.143977 -0.041602097
0.097774126 -0.028135227 0.19670059 0.097695805 0.19648696 -0.24016069 0.24734096 0.0735455
0.104492255 0.044559665 0.19010578 0.21842082 -0.0060488526 -0.22689424 0.1959791 -0.020909458
-0.09523978 0.1163057 0.10502692 0.05145135 -0.017698182 -0.08612978 0.2390084 0.15526216
0.14138067 0.16408798 -0.14405109 0.062441435 -0.19648674 0.12618348 -0.25044838 -0.23903511
-0.24010903 0.15668768 0.015879322 -0.009876268 0.058396712 -0.11889883 -0.08385424 -0.18640463
-0.060557373 -0.14815924 -0.028679613 0.2074205 -0.23764932 0.1563216 -0.14697342 -0.13270849
0.007913628 0.07359935 0.25381044 0.007660725 -0.09984493 -0.06936998 0.008274003 -0.17737317
-0.18424109 -0.12239278 0.020917034 -0.18269715 -0.13052107 0.17916636 0.21635234 -0.067717545
-0.21303412 -0.111244135 0.096902214 0.09592866 -0.07450016 -0.20733978 -0.07303764 -0.058617733
0.14645909 -0.114940204 0.14423959 0.04749729 -0.022942927 -0.2367605 0.24033976 -0.025639845
0.16583338 -0.1493441 -0.2556469 -0.2081601 -0.10604848 -0.105180964 -0.03958517 0.19360916
-0.21619393 0.13948123 0.19224566 0.015277655 -0.17631803 0.014982417 0.087974355 0.08511953
-0.09675891 -0.051041204 -0.09132389 -0.2593381 0.09262635 -0.16206335 -0.1234288 -0.013197398
0.20906155 0.23309936 -0.17551199 0.22415444 0.26020983 0.18320198 0.01962081 0.1980679
0.13023145 -0.19311626 -0.14187324 -0.0044650226 -0.16647685 -0.09659486 0.19632536 0.10314552
0.22985153 0.018351123 -0.148841 0.18675326 0.011936198 0.03827775 -0.089394264 0.08879993
-0.21439698 0.20959009 0.2515446 0.074389726 0.21897796 0.15041372 -0.08479232 -0.2146633
0.03178859 0.15367448 -0.040029455 0.029191634 0.18963541 0.0930792 0.17584014 0.042719606
0.03782392 -0.058184996 -0.05373039 -0.13680579 0.19311276 0.22266522 0.08549862 -0.013001956
-0.08834502 -0.25004718 -0.040837154 -0.17831819 -0.17590553 -0.057773683 -0.06656709 0.06833335
-0.16299033 0.16193116 -0.24787264 -0.10779832 -0.08834265 0.0014872804 0.10315414 -0.08476305
0.039172366 -0.059879597 -0.09366553 -0.033707283 0.07828706 -0.2604828 -0.18861985 0.21735361
0.12851746 -0.028277367 -0.011258237 0.028669044 0.079581544 -0.19920851 -0.071594164 -0.24663837
00000000: 06f1 48be dc99 603d 0585 1f3e 050a 803e
00000010: 8ed6 c33d 6d72 1cbd 813b 253e 249e 45bc
00000020: 62d4 afbd 7a51 1c3d 96e0 833d 3ab2 2e3e
00000030: eb2f e53d 0702 073e 7fa4 913c 5167 4cbc
00000040: 8ea8 c03d 3f2c 6f3d 5678 75be 030b f23c
00000050: 28a6 06be 4384 febd ed59 bf3d de7f 613d
00000060: db12 483d a518 edbd 1a86 dd3d 80ee 6c3e
00000070: 9c0b d23c ba92 d03d a724 69be 701d 2d3e
00000080: 349e aa3d 84b3 d53d 0a30 033e a91e a2bd
00000090: 0227 183b 1491 7a3e 235b 363e 78cb 35be
000000a0: 3e2e 553e d339 743e 6593 b53c 3d14 43be
000000b0: 9060 8e3c ae83 39bd 29d6 343e fa4a 66be
000000c0: 9c84 403d 4572 5abb 36f7 fb3b 3969 363e
000000d0: 57b5 d0bc 9560 4abe 3cd4 0dbe f77c d3bd
000000e0: baca c63c ceef e73d 97a2 34bd a461 bfbd
000000f0: 3eee cd3d df03 75be fbe6 373e 1b1b 8ebc
00000100: 0f04 443e facd 4d3e 6de8 0b3d 7593 b73d
00000110: 083e dcbd aacc 1f3e b56e 133e f666 2abd
00000120: cd3d c83d d97b e6bc e16b 493e bd14 c83d
00000130: e133 493e afec 75be f346 7d3e 069f 963d
00000140: 0900 d63d 3284 363d 17ab 423e b5a9 5f3e
00000150: 7435 c6bb f756 68be bfae 483e 504a abbc
00000160: 130d c3bd af31 ee3d 5b18 d73d a7be 523d
00000170: c7fb 90bc cf64 b0bd 9ebe 743e 0bfd 1e3e
00000180: 18c6 103e ae06 283e 2182 13be 97c2 7f3d
00000190: d233 49be 3e36 013e c53a 80be 9fc5 74be
000001a0: 24df 75be bc72 203e 5a15 823c 12d0 21bc
000001b0: 6431 6f3d 3b81 f3bd c6bb abbd dbe0 3ebe
000001c0: 020b 78bd 0eb7 17be 82f1 eabc 0a66 543e
000001d0: 585a 73be c512 203e 3380 16be bce4 07be
000001e0: 29a8 013c 42bb 963d 71f3 813e d206 fb3b
000001f0: 807b ccbd d911 8ebd af8f 073c 50a1 35be
00000200: b2a9 3cbe 11a9 fabd 335a ab3c f614 3bbe
00000210: 51a7 05be 6377 373e 788b 5d3e 7faf 8abd
00000220: 9e25 5abe f7d3 e3bd ab74 c63d 3f76 c43d
00000230: 8a93 98bd e150 54be c294 95bd 2619 70bd
00000240: 5ff9 153e c565 ebbd 8bb3 133e 858c 423d
00000250: cef2 bbbc 5871 72be a01b 763e a70a d2bc
00000260: 3ad0 293e a9ed 18be 27e4 82be ec27 55be
00000270: f22f d9bd 1e69 d7bd 0f24 22bd 7b41 463e
00000280: f161 5dbe 2bd4 0e3e 0cdc 443e 214f 7a3c
00000290: b78c 34be d078 753c e62b b43d 2653 ae3d
000002a0: 8929 c6bd 9510 51bd 0508 bbbd f7c7 84be
000002b0: e2b2 bd3d eff3 25be 3dc8 fcbd e639 58bc
000002c0: 3b14 563e 99b1 6e3e 6ab9 33be be88 653e
000002d0: 393a 853e 4d99 3b3e d2bb a03c 50d2 4a3e
000002e0: 655b 053e 45c0 45be 3847 11be 534f 92bb
000002f0: e878 2abe 87d3 c5bd 8409 493e f53d d33d
00000300: 335e 6b3e 1855 963c c669 18be 3f3c 3f3e
00000310: 0b90 433c 21c9 1c3d 5714 b7bd bddc b53d
00000320: e28a 5bbe c99e 563e 74ca 803e a459 983d
00000330: c23b 603e 0e06 1a3e 99a7 adbd b2d0 5bbe
00000340: c134 023d d85c 1d3e edf5 23bd 4b23 ef3c
00000350: c92f 423e 4fa0 be3d 700f 343e c1fa 2e3d
00000360: 41ed 1a3d 6453 6ebd 6614 5cbd d116 0cbe
00000370: 5abf 453e 5a02 643e e719 af3d 2806 55bc
00000380: 3cee b4bd 2f06 80be dc44 27bd 0b99 36be
00000390: 9420 34be 19a4 6cbd 5454 88bd 5bf2 8b3d
000003a0: f0e6 26be 48d1 253e 53d2 7dbe 5ec5 dcbd
000003b0: feec b4bd d9f0 c23a 7a42 d33d 4098 adbd
000003c0: 3473 203d 4f44 75bd b7d3 bfbd a610 0abd
000003d0: f754 a03d 005e 85be 9025 41be f291 5e3e
000003e0: 159a 033e f0a5 e7bc 7874 38bc 58db ea3c
000003f0: a6fb a23d 51fd 4bbe f69f 92bd c58e 7cbe

gnn_base.gnn.gnn1.lin_query.bias f4 [48]
0.07647092 0.05296139 -0.22346334 0.09275633 -0.07850788 0.27809232 0.24978335 0.05572224
0.19838426 0.09157179 0.20984668 -0.024055036 0.03616422 -0.037508503 0.004233923 -0.06662083
-0.071905226 0.1462896 0.08742918 -0.09770531 -0.24659064 0.10758627 -0.24372508 -0.0179251
-0.20391133 0.19411612 0.19833447 -0.20890996 -0.23334143 -0.13073456 0.07195647 -0.13783479
-0.047147315 -0.078474864 0.04132735 -0.108169734 0.096167415 -0.18775105 -0.007565172 0.20378822
-0.124942616 0.19527411 0.13702996 -0.084034584 0.079019144 -0.17129277 0.0018085646 0.05959525
00000000: c99c 9c3d 0bee 583d 93d3 64be 08f7 bd3d
00000010: bdc8 a0bd 1e62 8e3e 35c7 7f3e 013d 643d
00000020: 3e25 4b3e fe89 bb3d 0ce2 563e 110f c5bc
00000030: ef20 143d 84a2 19bd b8bc 8a3b 8070 88bd
00000040: 0c43 93bd f1cc 153e 120e b33d b919 c8bd
00000050: 4282 7cbe 3156 dc3d 1193 79be a9d7 92bc
00000060: 22ce 50be 60c6 463e 3118 4b3e 7eec 55be
00000070: 0ef1 6ebe 48df 05be ea5d 933d 9024 0dbe
00000080: 8b1d 41bd 6eb7 a0bd de46 293d 1888 ddbd
00000090: 6cf3 c43d d041 40be 43e5 f7bb dcad 503e
000000a0: eae1 ffbd f0f5 473e 9551 0c3e 531a acbd
000000b0: cad4 a13d 5f67 2fbe 5c0d ed3a 261a 743d

gnn_base.gnn.gnn1.lin_value.weight f4 [48, 16]
0.2180639 -0.1492105 -0.1485777 -0.13577397 -0.24772796 0.06899546 -0.21972498 -0.055614434
-0.106854424 -0.004607156 0.06899252 -0.20809941 -0.04292857 -0.011951276 -0.15678017 0.090180345
0.09899997 -0.19794112 0.20233203 0.17196865 -0.08020067 0.046219334 0.030228242 -0.032872416
-0.17328751 0.20729016 0.12415425 -0.20025325 -0.18770115 0.23525675 0.04638584 -0.054796375
0.16310655 0.078981236 0.08398059 0.20347992 -0.016092889 0.271845 -0.15452905 -0.15944675
0.018410308 -0.022616241 0.15550216 -0.05271936 0.02578593 -0.027949175 0.1626759 -0.009186753
0.0055191065 0.18313333 0.26588544 0.23085879 -0.26581293 -0.17310214 -0.06407939 -0.04751607
0.16135038 0.12451664 -0.039566167 0.03192072 0.048799008 0.18077803 0.14823408 -0.15055366
-0.1309254 0.059683967 -0.021206783 -0.18465726 -0.23796286 0.03379151 -0.093685456 -0.14269574
0.053965006 0.25684255 0.19551855 0.1469426 -0.20435546 0.1539289 0.1274808 0.08052098
-0.0677406 -0.024822675 -0.12709941 -0.053935554 -0.022659078 -0.046820574 -0.2619057 0.09926383
-0.19790886 -0.1975957 0.08909307 -0.20523435 0.23450033 0.23184793 -0.07768556 -0.03011908
-0.18338996 0.016419603 0.059580438 -0.13788125 0.08013409 -0.0060336054 -0.06338151 -0.009512366
-0.2521783 -0.18587929 0.0450789 0.24427281 -0.13991171 0.15173799 0.03555013 -0.121188335
-0.014344274 0.12931816 0.02429145 0.24133211 -0.03336821 -0.20433167 0.20940164 -0.05664602
0.18448517 0.1653748 0.023940459 -0.22617102 -0.24020526 0.107922964 0.04803659 0.13805766
-0.2056205 -0.041465156 0.22323744 0.101244345 0.2074162 0.20404129 -0.046991996 -0.18305811
-0.16031735 0.084594466 -0.087027036 0.019618718 0.028423827 0.16689768 0.1542991 0.1251705
0.007944722 0.12887488 -0.12449285 -0.10352409 -0.0369693 -0.14155264 0.2238965 -0.022964777
0.07205537 -0.01520187 -0.009214149 -0.13081004 0.013105777 -0.23964776 -0.12126509 0.20199096
-0.22519788 0.051993243 0.03425407 -0.2385433 0.049504425 0.10287833 0.19315656 0.05511244
0.19331962 -0.018301502 0.10630101 0.0627642 -0.17692894 -0.055764697 -0.16087833 0.2079292
0.10754671 -0.106182195 -0.061153434 0.062026784 -0.22928223 0.0165431 0.1422693 0.0403413
-0.03769403 0.18525012 0.12429326 -0.19539991 0.14126194 -0.18794873 0.13261645 0.19991623
0.040568072 -0.08469914 -0.095673986 -0.12859802 -0.027740914 -0.13662788 0.24651621 -0.1316226
0.11296066 -0.22163497 0.121694736 0.21479088 -0.18550646 -0.0861173 0.08445155 -0.2584446
-0.14762306 0.089436434 0.23486924 -0.0897073 -0.012257034 -0.24138398 -0.23311257 0.21125235
0.20480832 -0.07760136 -0.09478094 -0.0021929147 0.115878955 -0.2329033 -0.124368325 -0.08334105
-0.117617 0.013402939 0.16294517 0.08294273 -0.24947186 0.2509957 0.21501233 0.08923295
0.10673967 0.11150178 0.22217534 -0.26845104 -0.14593776 -0.0074880947 -0.081503116 -0.15018487
-0.24165206 -0.21341231 -0.04723068 0.20528933 0.16717371 0.08744548 -0.15670413 -0.09867546
0.023075825 -0.2321933 -0.009457916 0.044734973 0.22429089 -0.053527925 0.24258456 0.040225856
00000000: 254c 5f3e a3ca 18be c124 18be 5508 0bbe
00000010: 66ac 7dbe 7e4d 8d3d 96ff 60be f6cb 63bd
00000020: 7ed6 dabd a0f7 96bb f34b 8d3d 0318 55be
00000030: ded5 2fbd 49cf 43bc fb8a 20be 79b0 b83d
00000040: 7fc0 ca3d 14b1 4abe 2130 4f3e 8d18 303e
00000050: 4040 a4bd 7c50 3d3d 38a1 f73c 3aa5 06bd
00000060: 4872 31be df43 543e 9544 fe3d 300f 4dbe
00000070: bb34 40be 25e7 703e 14ff 3d3d 2a72 60bd
00000080: 6705 273e eac0 a13d 04fe ab3d 0a5d 503e
00000090: 3cd5 83bc 452f 8b3e dd3c 1ebe 0246 23be
000000a0: 37d1 963c b245 b9bc f53b 1f3e 41f0 57bd
000000b0: 043d d33c abf5 e4bc 8394 263e 0984 16bc
000000c0: 9fd9 b43b 4e87 3b3e 2322 883e 3f66 6c3e
000000d0: a218 88be b041 31be 0e3c 83bd 36a0 42bd
000000e0: 0939 253e 9502 ff3d 2210 22bd 4dbf 023d
000000f0: 78e1 473d e01d 393e adca 173e bd2a 1abe
00000100: 4f11 06be 2d77 743d d9b9 adbc cb16 3dbe
00000110: 89ac 73be f768 0a3d 29de bfbd d51e 12be
00000120: 690a 5d3d de80 833e 0436 483e 1f78 163e
00000130: 8f42 51be 8a9f 1d3e 548a 023e 2fe8 a43d
00000140: 95bb 8abd ec58 cbbc 5926 02be 87eb 5cbd
00000150: 889f b9bc eec6 3fbd 8118 86be d64a cb3d
00000160: 9fa8 4abe 8756 4abe 6d76 b63d f428 52be
00000170: db20 703e 8b69 6d3e 9b19 9fbd 4abc f6bc
00000180: 94ca 3bbe 6782 863c 9e0a 743d be30 0dbe
00000190: 571d a43d 8db5 c5bb 2ace 81bd c1d9 1bbc
000001a0: 841d 81be 2457 3ebe a7a4 383d a722 7a3e
000001b0: 0445 0fbe 3461 1b3e 039d 113d 9731 f8bd
000001c0: 3f04 6bbc fb6b 043e ddfe c63c c41f 773e
000001d0: 1bad 08bd 523c 51be 626d 563e a805 68bd
000001e0: aee9 3c3e 0358 293e c81e c43c 6099 67be
000001f0: 5ef8 75be b706 dd3d 04c2 443d fd5e 0d3e
00000200: 2e8e 52be 5ed7 29bd 5b98 643e 3259 cf3d
00000210: ea64 543e 33f0 503e ae7a 40bd 9673 3bbe
00000220: 3b2a 24be dd3f ad3d 3b3b b2bd 6fb7 a03c
00000230: 16d9 e83c 3ae7 2a3e 9500 1e3e b22c 003e
00000240: 942a 023c c7f7 033e 1bf6 febd 7004 d4bd
00000250: 1f6d 17bd 2df3 10be 2045 653e a120 bcbc
00000260: c491 933d 4411 79bc f1f6 16bc 11f3 05be
00000270: 9db9 563c 3966 75be d559 f8bd b8d6 4e3e
00000280: 469a 66be def6 543d ff4d 0c3d b244 74be
00000290: 27c5 4a3d e0b1 d23d d5ca 453e 95bd 613d
000002a0: 94f5 453e 08ed 95bc 58b4 d93d 848a 803d
000002b0: dc2c 35be 8669 64bd 4abd 24be 64eb 543e
000002c0: 7341 dc3d 0d76 d9bd 067c 7abd cc0f 7e3d
000002d0: f6c8 6abe 6585 873c 0baf 113e eb3c 253d
000002e0: 0e65 1abd 35b2 3d3e 778d fe3d ea16 48be
000002f0: f8a6 103e a275 40be 9bcc 073e d7b6 4c3e
00000300: b52a 263d be76 adbd b9f0 c3bd 33af 03be
00000310: ea40 e3bc 2ee8 0bbe bf6e 7c3e 13c8 06be
00000320: eb57 e73d 47f4 62be 173b f93d 24f2 5b3e
00000330: 68f5 3dbe 445e b0bd eff4 ac3d da52 84be
00000340: 802a 17be 732a b73d 9081 703e 76b8 b7bd
00000350: bad1 48bc 5d2d 77be 10b5 6ebe 8952 583e
00000360: 46b9 513e 76ed 9ebd 821c c2bd 01b7 0fbb
00000370: f251 ed3d 347e 6ebe d2b4 febd b6ae aabd
00000380: 2fe1 f0bd 0098 5b3c 19db 263e e1dd a93d
00000390: 8d75 7fbe 8282 803e 312c 5c3e c4bf b63d
000003a0: 549a da3d 0c5b e43d ef81 633e 6a72 89be
000003b0: b570 15be b15e f5bb 1beb a6bd 10ca 19be
000003c0: a373 77be c288 5abe f574 41bd 5e37 523e
000003d0: 962f 2b3e 9e16 b33d 0c77 20be 5c16 cabd
000003e0: 8309 bd3c 15c4 6dbe 60f5 1abc 053c 373d
000003f0: 83ac 653e 1940 5bbd 1668 783e dec3 243d

gnn_base.gnn.gnn1.lin_value.bias f4 [48]
-0.20667863 0.15187566 -0.26584962 -0.22362074 -0.109195486 -0.23070976 -0.02633898 0.2192363
-0.08584768 -0.18579638 -0.017830633 -0.21392524 0.17236558 0.03383381 0.21123816 0.106890105
0.09885063 0.08221427 0.21184671 -0.1342541 -0.1339224 0.20066538 0.07976968 0.24660225
0.041777484 0.09430594 0.15775684 0.15244682 0.13993625 -0.1983624 0.06188394 -0.17024921
0.0417287 0.13483445 -0.10393117 0.23904383 0.24154574 0.08037188 -0.19181484 0.022570888
0.17802861 0.048696816 0.22146887 0.0076416126 -0.1130245 0.16082801 0.07224697 0.13886537
00000000: 90a3 53be 4b85 1b3e 711d 88be d6fc 64be
00000010: e2a1 dfbd 2e3f 6cbe d8c4 d7bc 7b7f 603e
00000020: e9d0 afbd 6841 3ebe 8c11 92bc 380f 5bbe
00000030: 9a80 303e 5295 0a3d d14e 583e 33e9 da3d
00000040: 3372 ca3d f55f a83d 58ee 583e e879 09be
00000050: f422 09be 3a7b 4d3e 495e a33d 4d85 7c3e
00000060: de1e 2b3d 7923 c13d 028b 213e 051b 1c3e
00000070: 734b 0f3e 831f 4bbe 047a 7d3d cf55 2ebe
00000080: b7eb 2a3d 0b12 0a3e ded9 d4bd e8c7 743e
00000090: c457 773e 039a a43d 1c6b 44be 95e6 b83c
000000a0: 224d 363e 5076 473d bcc8 623e 7e66 fa3b
000000b0: 6479 e7bd 19b0 243e 38f6 933d b932 0e3e

gnn_base.gnn.gnn1.lin_edge.weight f4 [48, 1]
-0.58697176 -0.75896376 0.64981467 0.37190732 0.7528068 -0.81951886 -0.47072795 -0.017476095
-0.53684396 0.62987334 0.8106584 0.8594565 0.13052589 -0.91663396 -0.37323835 0.23486769
-0.26809692 0.4301703 -0.2930555 0.8387706 0.8837077 1.0002689 0.32378626 -0.65642613
-0.27025062 -0.532038 0.4483963 -0.10940639 0.39190236 0.28416234 -0.30856624 0.14343509
-0.14519037 0.1721222 -0.68588495 0.03579641 0.7792655 0.52244824 -0.634419 0.8467368
-0.3954052 0.89778423 -0.19267567 0.9505712 0.58867705 -0.08666482 0.66300666 0.8508783
00000000: c843 16bf 734b 42bf 415a 263f a36a be3e
00000010: f2b7 403f fdcb 51bf 4103 f1be 072a 8fbc
00000020: 9b6e 09bf 613f 213f 4f87 4f3f 5705 5c3f
00000030: 94a8 053e 86a8 6abf 1919 bfbe 2881 703e
00000040: 0044 89be 483f dc3e 5f0b 96be acb9 563f
00000050: ab3a 623f d008 803f 50c7 a53e 8b0b 28bf
00000060: 4a5e 8abe a433 08bf 3394 e53e 7510 e0bd
00000070: 6da7 c83e ba7d 913e 65fc 9dbe a6e0 123e
00000080: c9ac 14be cd40 303e 2896 2fbf 429f 123d
00000090: f27d 473f 2bbf 053f 4969 22bf bec3 583f
000000a0: 8d72 cabe 30d5 653f c54c 45be a258 733f
000000b0: 8ab3 163f 537d b1bd ceba 293f 29d3 593f

gnn_base.gnn.gnn1.lin_skip.weight f4 [16, 16]
-0.2126413 0.042297035 0.16320053 -0.026458027 0.14164297 0.20515001 -0.20438507 0.15311562
-0.22486852 0.17783052 -0.14792123 -0.07196906 0.07209607 -0.2218588 -0.044239502 -0.078473374
0.084794916 -0.030035468 -0.23364714 -0.06758907 0.04036112 0.14312778 -0.14749123 -0.14950234
0.11554948 -0.13935095 -0.10772102 -0.24500519 -0.04864955 -0.18635374 0.034591075 0.19236311
0.11784881 -0.18703425 0.22119911 -0.21624565 -0.1252936 0.15602107 0.11911458 0.10507361
-0.087380864 -0.2304155 -0.21926852 0.002089644 -0.21789506 -0.15636665 0.16706295 -0.0020684912
0.09941143 -0.21353547 0.08686527 0.1963666 0.063816175 0.015076805 -0.16705553 -0.1724286
0.16968012 -0.2567076 -0.039944448 -0.17887829 0.019291865 -0.28010157 0.10929425 -0.021916775
-0.14455314 -0.095049344 -0.085658 -0.12875803 -0.07872728 0.039136108 -0.16226812 0.06419286
-0.21469207 0.23832497 -0.15568632 0.078039885 -0.16933087 -0.1816058 -0.0049925805 -0.1280425
-0.07863804 -0.11321672 -0.07590058 -0.18705657 0.24400559 0.14945947 -0.09998331 0.18792628
-0.10159859 -0.21168678 0.06918263 -0.08864894 0.19526944 -0.064455435 -0.21529317 0.21684508
0.057154026 0.07222115 -0.031186946 -0.2022203 0.078640796 0.0002655099 -0.16765945 0.14778405
-0.22967628 -0.15664141 -0.06164313 -0.23824109 -0.21559782 -0.076684445 -0.049186192 0.18404117
0.108107604 0.24606715 0.070325404 0.0545643 -0.044560984 -0.11855352 -0.22948113 -0.21749482
0.114522144 -0.1741869 -0.107544154 0.097924426 -0.17220652 0.090037994 -0.022967802 0.052153606
-0.105495684 0.16310501 -0.18466842 -0.25836936 0.18740919 -0.15233532 0.25346082 0.09803242
0.086966716 -0.020637995 0.05577946 0.078757934 -0.13509654 0.18022434 0.16974507 0.020671088
0.052668978 -0.034898374 -0.09937005 -0.18972857 -0.10264869 -0.24383552 -0.0860869 0.15780576
0.2438074 -0.2244502 -0.21347517 0.20305718 -0.058628567 -0.024090115 0.15047918 0.23587239
0.07466694 0.043650758 -0.025142046 0.021615759 0.082946286 -0.21168497 -0.24601485 0.1794932
-0.23475938 0.15593465 0.16651468 0.1860696 0.057700302 0.021015786 0.08418001 0.15292208
-0.002753001 -0.16174892 0.14836065 0.03726999 0.11096998 -0.18134958 -0.054059923 -0.1344123
0.0009773367 0.24877147 0.059426676 0.21562338 0.20965408 -0.18997025 0.24501275 0.0060478076
0.23028684 0.057827953 0.0065787556 0.19483267 -0.20378605 -0.040084112 -0.039540745 0.007611679
-0.06723463 0.17049405 -0.016123908 0.12989336 0.116438866 0.17835441 0.14354178 -0.28429636
-0.21039556 -0.23906878 -0.2453112 -0.20673732 -0.011117529 0.23504752 -0.17211938 0.11923563
-0.110529326 0.20029013 0.15775597 0.11803944 0.22883193 -0.22056521 -0.21186031 -0.14545372
0.051668745 0.217742 0.14219451 0.1062783 -0.05505548 -0.12506765 0.27324212 -0.22774364
-0.1870631 0.16756457 0.21420209 0.043522406 0.009791368 -0.0042872867 -0.0037879234 -0.10949154
0.24218321 0.2377759 -0.10124225 0.17177945 -0.058613904 -0.17334847 0.037569053 -0.04206864
0.21091442 0.025626676 -0.061271984 -0.20075992 0.16842149 0.17474568 0.030944223 -0.020892175
00000000: a4be 59be a83f 2d3d 0a1e 273e 81be d8bc
00000010: db0a 113e d812 523e 524a 51be 57ca 1c3e
00000020: ef43 66be 3419 363e aa78 17be 8464 93bd
00000030: 1ba7 933d f42e 63be 7b34 35bd a6b6 a0bd
00000040: f5a8 ad3d f10c f6bc 3241 6fbe 236c 8abd
00000050: b451 253d 1790 123e f107 17be 2417 19be
00000060: 35a5 ec3d 04b2 0ebe d79c dcbd a4e2 7abe
00000070: c044 47bd 84d3 3ebe 5faf 0d3d d6fa 443e
00000080: b85a f13d e885 3fbe 0582 623e 806f 5dbe
00000090: f74c 00be fdc3 1f3e 58f2 f33d d530 d73d
000000a0: bdf4 b2bd 0af2 6bbe ed87 60be 69f2 083b
000000b0: e21f 5fbe 941e 20be 8d12 2b3e 868f 07bb
000000c0: 3898 cb3d 0ba9 5abe 6be6 b13d 5314 493e
000000d0: 0eb2 823d b404 773c 9b10 2bbe 1f91 30be
000000e0: a0c0 2d3e 2e6f 83be ca9c 23bd df2b 37be
000000f0: f909 9e3c 7969 8fbe aad5 df3d cf8a b3bc
00000100: bd05 14be 3ba9 c2bd 766d afbd 25d9 03be
00000110: c53b a1bd 2f4d 203d 9d29 26be 8c77 833d
00000120: 3dd8 5bbe 760b 743e 3c6c 1fbe 60d3 9f3d
00000130: 1265 2dbe dff6 39be cd98 a3bb 931d 03be
00000140: fb0c a1bd 2bde e7bd c371 9bbd c28b 3fbe
00000150: 9adc 793e e70b 193e 0dc4 ccbd bf6f 403e
00000160: ec12 d0bd 6bc4 58be 9faf 8d3d 938d b5bd
00000170: b6f4 473e 3601 84bd d075 5cbe a30c 5e3e
00000180: 571a 6a3d afe8 933d c47b ffbc d712 4fbe
00000190: 6d0e a13d 2334 8b39 ebae 2bbe b454 173e
000001a0: 4230 6bbe 9b66 20be 827d 7cbd 79f5 73be
000001b0: adc5 5cbe bc0c 9dbd 7677 49bd 4a75 3c3e
000001c0: 8567 dd3d 07f9 7b3e c406 903d d17e 5f3d
000001d0: 9485 36bd 30cc f2bd 1afd 6abe f6b6 5ebe
000001e0: 968a ea3d 0d5e 32be 1c40 dcbd 9a8c c83d
000001f0: e856 30be d765 b83d f926 bcbc 059f 553d
00000200: 1f0e d8bd 0005 273e b819 3dbe fd48 84be
00000210: 32e8 3f3e cafd 1bbe 9ec5 813e 39c5 c83d
00000220: 9b1b b23d 0311 a9bc 0179 643d d74b a13d
00000230: bf56 0abe bb8c 383e a7d1 2d3e 6a56 a93c
00000240: 6dbb 573d 99f1 0ebd 8682 cbbd 3548 42be
00000250: 7a39 d2bd 05b0 79be 544e b0bd d597 213e
00000260: a6a8 793e 46d6 65be 3c99 5abe 39ee 4f3e
00000270: 8224 70bd a258 c5bc 3717 1a3e 8888 713e
00000280: fbea 983d 23cb 323d b1f6 cdbc 8813 b13c
00000290: bedf a93d f2c3 58be 51eb 7bbe 11cd 373e
000002a0: c364 70be 55ad 1f3e d382 2a3e 0789 3e3e
000002b0: 2757 6c3d 4c29 ac3c 9266 ac3d 9b97 1c3e
000002c0: b16b 34bb 82a1 25be dbeb 173e 6ba8 183d
000002d0: 3b44 e33d b4b3 39be f06d 5dbd 61a3 09be
000002e0: fa19 803a f3bd 7e3e 6369 733d 60cc 5c3e
000002f0: 8faf 563e 9087 42be 9fe4 7a3e b02c c63b
00000300: 50d0 6b3e 01dd 6c3d 9a92 d73b 3782 473e
00000310: 4aad 50be 3d2f 24bd 7af5 21bd 646b f93b
00000320: 4fb2 89bd fe95 2e3e 4916 84bc c402 053e
00000330: 8077 ee3d 8aa2 363e 9efc 123e 4b8f 91be
00000340: ef71 57be 72ce 74be dc32 7bbe f3b2 53be
00000350: 4c26 36bc 4cb0 703e 1040 30be cf31 f43d
00000360: 335d e2bd db18 4d3e c88a 213e a9be f13d
00000370: eb52 6a3e d9db 61be e9f1 58be d2f1 14be
00000380: 9ba2 533d c2f7 5e3e 709b 113e 70a8 d93d
00000390: db81 61bd bc11 00be 64e6 8b3e a135 69be
000003a0: 788d 3fbe 0c96 2b3e cb57 5b3e 8d44 323d
000003b0: f96b 203c 5e7c 8cbb cf3e 78bb 1a3d e0bd
000003c0: e0fe 773e 877b 733e 1958 cfbd f4e6 2f3e
000003d0: 2215 70bd 4382 31be 02e2 193d 2b50 2cbd
000003e0: f3f9 573e 09ef d13c 55f8 7abd 0294 4dbe
000003f0: af76 2c3e 88f0 323e bd7e fd3c 1126 abbc

gnn_base.gnn.gnn1.lin_skip.bias f4 [16]
-0.07298251 0.05401297 0.25180933 -0.017890671 0.0056478493 -0.2297353 0.06803422 -0.08920711
-0.075842775 -0.12892252 0.2701021 0.14888984 -0.10591532 -0.06428949 0.06898327 0.101765946
00000000: db77 95bd b43c 5d3d 27ed 803e 758f 92bc
00000010: 9811 b93b bb3f 6bbe 8655 8b3d 38b2 b6bd
00000020: 7553 9bbd 4404 04be d34a 8a3e 9476 183e
00000030: 22ea d8bd 35aa 83bd 1a47 8d3d aa6a d03d
