onpolicy/results/GraphMPE/navigation_graph/rmappo/crap_bad/run10/models/critic.pt (torch, 199331 bytes, 61 tensors)

gnn_base.gnn.embed_layer.entity_embed.weight f4 [3, 2]
0	0x3f8c6fe4	1.0971646
1	0x3f32cc62	0.69843113
2	0x3f124566	0.57137144
3	0xbf5bd8f8	-0.85877943
4	0xbf6fdee0	-0.93699455
5	0xbdee9b87	-0.11650758

gnn_base.gnn.embed_layer.lin1.0.weight f4 [16, 9]
0	0xbdc0bf2b	-0.094114624
1	0x3f20eabb	0.6285817
2	0xbeba82eb	-0.36428007
3	0xbd93d9d5	-0.072192825
4	0x3eb4fc9f	0.35348985
5	0x3edf6753	0.43633518
6	0xbe91c715	-0.284722
7	0xbdc1dc70	-0.09465873
8	0xbe268e1b	-0.16265146
9	0x3ea16830	0.315248
10	0x3e77d4ee	0.2420232
11	0x3ead9ffa	0.33911115
12	0xbeb50dfd	-0.35362235
13	0xbf06320d	-0.5242012
14	0x3ee8cdcc	0.4546951
15	0x3dd6637e	0.104681954
16	0xbeeab7cf	-0.4584336
17	0xbe71a83b	-0.23599331
18	0x3e3e0b1e	0.18558928
19	0xbebbcf94	-0.36681807
20	0xbeb10863	-0.3457671
21	0xbea1fb23	-0.31636915
22	0x3f3715ab	0.7151744
23	0xbebce33f	-0.36892125
24	0xbddfeb15	-0.1093351
25	0x3e5ced75	0.21574958
26	0xbea6159e	-0.32438368
27	0xbf4e5c40	-0.8060951
28	0xbdc25363	-0.09488561
29	0xbe339baf	-0.17539857
30	0xbea392bc	-0.31947887
31	0x3e1cfc25	0.1533056
32	0x3f0d413d	0.5517767
33	0xbcf5ca24	-0.030003615
34	0x3e0f1d5c	0.13976043
35	0xbeaa9e98	-0.33324122
36	0xbf202c61	-0.62567717
37	0x3e5846cd	0.21120758
38	0x3e23bba5	0.1598955
39	0x3ed710ad	0.4200491
40	0xbeda80c9	-0.4267638
41	0xbd3ea99d	-0.046548475
42	0xbe51fbd1	-0.20506217
43	0x3f1a9b8a	0.60393584
44	0xbe7ac9ff	-0.24491118
45	0xbeaba711	-0.335259
46	0x3e930b4d	0.2871956
47	0x3e6e03e1	0.23243667
48	0x3f3319db	0.6996133
49	0x3ecc5c5f	0.39914224
50	0xbd322d49	-0.04350022
51	0x3eb2511b	0.34827504
52	0xbd4dec78	-0.050274342
53	0x3e2fce28	0.17168486
54	0x3dc044de	0.093881354
55	0xbef36d14	-0.47544158
56	0x3f1897d4	0.5960667
57	0xbdb5a3c3	-0.08869126
58	0x3be4f202	0.0069868574
59	0x3ed2f6d8	0.41203952
60	0x3e9e4feb	0.30920348
61	0x3e5af425	0.21382196
62	0xbe8fb9b0	-0.28071356
63	0x3e29bd3b	0.16576092
64	0x3e9c795c	0.3056134
65	0x3edf15fe	0.43571466
66	0x3cd1befa	0.02560376
67	0x3e090a71	0.1338289
68	0x3d88b8d8	0.06675881
69	0xbea45207	-0.32093832
70	0x3ec8ff96	0.39257497
71	0x3e053968	0.1301018
72	0xbdff100f	-0.12454235
73	0xbdb93afc	-0.090444535
74	0x3e9d5083	0.30725488
75	0x3e829860	0.25506878
76	0xbe3dd292	-0.18537357
77	0xbf084177	-0.5322489
78	0xbf4f56de	-0.80991924
79	0xbf012418	-0.504457
80	0xbe767527	-0.24068128
81	0xbee61647	-0.4493887
82	0x3e92d9a9	0.28681687
83	0x3ec136e3	0.37737188
84	0xbf5ee60e	-0.87069786
85	0xbd93420a	-0.0719033
86	0xbeaae430	-0.33377218
87	0x3b7e73e8	0.003882641
88	0xbd471ec1	-0.048613314
89	0x3e4a8e1a	0.1978077
90	0xbdb58db6	-0.0886492
91	0xbed48071	-0.41504243
92	0xbf0be674	-0.5464852
93	0xbe326d04	-0.17424399
94	0xbf0a1722	-0.5394155
95	0x3d565d7c	0.052335247
96	0xbee28374	-0.44240916
97	0x3eaf461a	0.3423317
98	0x3eddc4e1	0.4331427
99	0xbf064a93	-0.5245754
100	0xbe3a4b16	-0.18192706
101	0xbe1d058b	-0.15334146
102	0x3b53b00f	0.0032300984
103	0x3e2fbb56	0.17161307
104	0x3d9d2e0f	0.076748006
105	0x3e1ad0db	0.15118735
106	0xbf3f6fc0	-0.7477989
107	0x3f14c5c4	0.58114266
108	0x3e21aa63	0.15787654
109	0xbe877ea6	-0.26463813
110	0x3ec01870	0.37518644
111	0x3dfffe90	0.12499726
112	0x3eb02515	0.3440329
113	0x3f264aec	0.6495807
114	0xbf1d7f23	-0.6152212
115	0x3d919683	0.07108786
116	0x3f233e59	0.6376701
117	0x3eab4fe3	0.33459386
118	0x3f173945	0.5907176
119	0xbeec747e	-0.46182626
120	0x3d7db3af	0.061938938
121	0xbdac82f9	-0.084234186
122	0x3e514b9d	0.20439
123	0xbe4a3ed7	-0.19750534
124	0xbd44301a	-0.047897436
125	0xbd94c67a	-0.07264419
126	0xbc9dc65a	-0.01925962
127	0xbeaf4df6	-0.34239167
128	0xbe99a3d5	-0.30007806
129	0x3edb828d	0.4287304
130	0xbeba172e	-0.3634581
131	0x3e6ac751	0.22927596
132	0x3e731aa0	0.23740625
133	0xbe5bcb6f	-0.21464323
134	0xbe221c55	-0.1583112
135	0xbde65a3d	-0.1124768
136	0xbe92ec4b	-0.28695902
137	0x3c28eba7	0.01031009
138	0x3d99c71c	0.0750868
139	0x3e345949	0.17612185
140	0x3e5c9f63	0.21545176
141	0xbed9d426	-0.4254467
142	0xbebcb753	-0.36858615
143	0xbf3118be	-0.6917838

gnn_base.gnn.embed_layer.lin1.0.bias f4 [16]
0	0xbc0d807b	-0.008636589
1	0xbb557f34	-0.003257704
2	0x3aca246b	0.001542223
3	0xbbc75bfc	-0.0060839634
4	0x3b3602d0	0.0027772672
5	0xb9b1b741	-0.00033896606
6	0x39f4fc85	0.00046727448
7	0x3b501e38	0.0031756293
8	0xbc3f60d6	-0.011680802
9	0x3c1621a1	0.009163291
10	0xbc0754a6	-0.008259928
11	0x3b715a4c	0.0036827503
12	0x3ae6aae7	0.001759854
13	0xbbe60342	-0.0070194313
14	0xbbeb6ff9	-0.007184979
15	0xbb127c14	-0.0022351788

gnn_base.gnn.embed_layer.lin1.2.weight f4 [16]
0	0x3f7f0ac5	0.9962581
1	0x3f7daf72	0.99095833
2	0x3f7f75f3	0.9978935
3	0x3f807625	1.0036055
4	0x3f7fc153	0.99904364
5	0x3f8014e2	1.0006373
6	0x3f7ed0fc	0.99537635
7	0x3f803d2a	1.0018666
8	0x3f7e0bd5	0.99236804
9	0x3f804679	1.0021507
10	0x3f800a2a	1.0003102
11	0x3f80dc85	1.0067297
12	0x3f808010	1.0039082
13	0x3f7fd8c7	0.9994015
14	0x3f7f4d2f	0.9972715
15	0x3f805f66	1.0029113

gnn_base.gnn.embed_layer.lin1.2.bias f4 [16]
0	0xbb34065c	-0.002746961
1	0xbbc735e2	-0.0060794214
2	0x3af5899d	0.0018733029
3	0xbb92f877	-0.0044851857
4	0x3ba99a0c	0.0051758345
5	0xbbac7b08	-0.00526369
6	0x3a976bb9	0.001155249
7	0x3b41e982	0.0029588644
8	0xbbfa6e0a	-0.007642512
9	0x3b9685d4	0.0045935903
10	0xbc157c56	-0.009123882
11	0x3b768e0d	0.003762129
12	0xbb270df3	-0.0025490492
13	0xbb1f786f	-0.0024333259
14	0xbb129b5d	-0.0022370436
15	0xbb459ed1	-0.0030154476

gnn_base.gnn.embed_layer.lin_h.0.weight f4 [16, 16]
0	0x3cf67d26	0.030088972
1	0x3edc75d4	0.43058646
2	0xbc9f2cdd	-0.019430572
3	0xbebc2002	-0.3674317
4	0x3e5f9490	0.21834016
5	0xbe7bc1cd	-0.24585648
6	0x3e1a38be	0.15060708
7	0x3e8eb8d4	0.27875388
8	0xbf13d784	-0.57750726
9	0x3ef17710	0.4716115
10	0xbf0126ca	-0.5044981
11	0x3e2ac595	0.16676934
12	0xbe5cbb22	-0.2155576
13	0xbe8c28a1	-0.27374747
14	0xbf0fcdc0	-0.56173325
15	0x3ee1db44	0.441126
16	0xbe1d61ba	-0.15369311
17	0x3e4cfa5c	0.2001738
18	0xbee78d4f	-0.45224997
19	0xbe0421b3	-0.1290348
20	0xbe8e62ad	-0.2780966
21	0xbe002a42	-0.1251612
22	0x3d4b54e4	0.049641505
23	0x3f1d4f68	0.6144929
24	0x3cf5f18d	0.030022407
25	0xbeb0fcaa	-0.34567767
26	0xbedc591f	-0.43036744
27	0xbe9fbe54	-0.31199896
28	0xbea07cb7	-0.3134515
29	0xbee569da	-0.4480732
30	0x3e9585c1	0.2920361
31	0xbf2ca4bd	-0.6743887
32	0x3ebf2137	0.37330028
33	0x3e79971a	0.24374047
34	0x3ebfbfa9	0.37450913
35	0x3ef4f4c4	0.4784299
36	0xbe7afca7	-0.24510442
37	0x3f15e942	0.5855905
38	0x3e38ae89	0.1803533
39	0xbca7d680	-0.020488024
40	0x3e886f66	0.2664749
41	0xbe80d269	-0.2516053
42	0xbf4f5ab4	-0.80997777
43	0xbe5a790a	-0.21335235
44	0xbd983325	-0.0743163
45	0x3e8aa3a4	0.27077973
46	0xbe811ea4	-0.2521869
47	0x3e08a41f	0.13343857
48	0x3ea2cc07	0.31796286
49	0x3e4540cf	0.19263004
50	0xbecbb024	-0.39782822
51	0x3e6e4d02	0.23271564
52	0x3e492e12	0.1964648
53	0x3e9ac144	0.30225575
54	0xbf5bf08e	-0.8591393
55	0x3ed6e5c6	0.41972178
56	0xbe57d6d2	-0.21078041
57	0xbedc13bd	-0.4298381
58	0x3e6f9920	0.23398256
59	0xbde1f4df	-0.110330336
60	0x3e8724a3	0.2639514
61	0xbe2e78e5	-0.17038305
62	0xbddadcdd	-0.106866576
63	0x3ee456fe	0.4459762
64	0xbe4f66fb	-0.20254128
65	0x3daa4143	0.08313229
66	0xbe8a9811	-0.27069142
67	0xbd98dd92	-0.07464136
68	0xbe0931d4	-0.13397914
69	0xbebb269e	-0.365529
70	0xbec68410	-0.3877263
71	0xbf56687c	-0.8375318
72	0xbb8b8bb1	-0.004258596
73	0xbf1d65f0	-0.6148367
74	0xbeb47dce	-0.3525223
75	0x3ecbe73b	0.39824852
76	0xbda05677	-0.07828992
77	0xbd9d8e83	-0.076931976
78	0xbed76cb7	-0.4207513
79	0xbe105a6e	-0.14096996
80	0x3f0cdd62	0.55025303
81	0xbe7cc012	-0.24682644
82	0x3edb198a	0.42792922
83	0xbee6e7af	-0.45098636
84	0x3efb1456	0.49038953
85	0x3eb09a60	0.3449278
86	0xbe0a0bc9	-0.13481058
87	0x3c68357e	0.01417291
88	0x3d474419	0.048648927
89	0xbe280b32	-0.1641052
90	0x3e6eb5e5	0.23311575
91	0x3d554560	0.052068114
92	0xbeca33e8	-0.39492726
93	0xbe760bd8	-0.24027956
94	0xbee96a50	-0.45588923
95	0xbf1a770c	-0.603379
96	0x3e5c3193	0.21503286
97	0x3f42a755	0.7603658
98	0x3e82461c	0.25444114
99	0xbe89b63a	-0.2689684
100	0xbc298990	-0.010347739
101	0x3e0f7796	0.14010462
102	0x3ec75922	0.3893519
103	0xbea9b866	-0.33148497
104	0x3dcd0e4b	0.10012492
105	0xbebeb0bf	-0.37244222
106	0x3e9a06d6	0.3008334
107	0x3df4beda	0.119504645
108	0x3b4a9f01	0.0030917528
109	0xbf145f46	-0.57957876
110	0x3f043dfb	0.51657075
111	0x3ea2bb6e	0.31783623
112	0xbdff3e11	-0.1246301
113	0xbf4352eb	-0.762984
114	0x3cf714dc	0.030161314
115	0xbe895827	-0.26825067
116	0x3c0013e4	0.007817242
117	0x3ef9fc80	0.48825455
118	0x3c7f6fbb	0.015590603
119	0xbe75e2c6	-0.24012288
120	0xbf26b633	-0.65121764
121	0xbe3435a2	-0.17598584
122	0xbed3c20b	-0.4135898
123	0xbd3922ea	-0.045199312
124	0xbd36d5e9	-0.044637594
125	0xbe870469	-0.26370552
126	0x3f0104d9	0.5039802
127	0x3e9048e0	0.281806
128	0xbf7c6265	-0.9858764
129	0x3e516e95	0.2045234
130	0xbcc7a4a8	-0.024370506
131	0xbe284d37	-0.16435705
132	0x3e3861ba	0.1800603
133	0x3f4aad32	0.79170525
134	0x3c475800	0.012166977
135	0x3e22b2ae	0.15888473
136	0x3e8918ce	0.26776737
137	0x3bdefad4	0.0068048034
138	0x3d815f77	0.063170366
139	0x3e9eff52	0.3105417
140	0x3e05d55b	0.1306967
141	0xbd85fe3b	-0.06542631
142	0xbe8e6aa3	-0.27815732
143	0xbd63ce21	-0.0556165
144	0xbe00cb6d	-0.12577601
145	0x3e81138d	0.2521023
146	0x3f3a4f67	0.7277741
147	0xbeeca0ea	-0.46216518
148	0xbf20898b	-0.62709874
149	0xbd406a66	-0.04697647
150	0xbf35d6e9	-0.7103105
151	0x3d16d4c6	0.03682401
152	0xbe2248bc	-0.15848058
153	0x3e6af31c	0.22944301
154	0xbda9bc2e	-0.082878456
155	0xbe17108b	-0.14752404
156	0x3ea633a8	0.32461286
157	0x3da946a9	0.082654305
158	0x3e086cff	0.13322829
159	0xbe4bf351	-0.19917037
160	0x3c32f6ed	0.0109231295
161	0x3efce1e7	0.493911
162	0xbe53defd	-0.20690532
163	0x3cb57fea	0.02215572
164	0x3b9a0aa0	0.0047009736
165	0x3e9a36d1	0.30119947
166	0x3be64536	0.0070272936
167	0xbe096caf	-0.13420366
168	0xbf348b65	-0.705252
169	0xbd40c8d5	-0.04706653
170	0x3e725c7e	0.23668095
171	0x3dcf891e	0.10133575
172	0xbefd5f0c	-0.49486578
173	0x3f4d339f	0.8015689
174	0x3e75ec9e	0.24016044
175	0xbe9c0658	-0.3047359
176	0x3db64839	0.08900494
177	0xbde41e09	-0.11138541
178	0xbe8dd241	-0.27699474
179	0xbf142bab	-0.5787913
180	0xbe5e5792	-0.21713093
181	0x3d97e069	0.0741585
182	0xbe9a6eef	-0.3016276
183	0x3d166ce6	0.036724947
184	0x3f29ea56	0.66373193
185	0x3e0e93b5	0.13923533
186	0xbd2ff2f9	-0.042956326
187	0x3ca507aa	0.020145256
188	0xbf3f0bfd	-0.7462767
189	0x3e9341c7	0.28761122
190	0x3e3487d9	0.17629947
191	0x3f09e020	0.5385761
192	0xbef85468	-0.48501897
193	0x3e1939f5	0.14963515
194	0x3edb269e	0.428029
195	0x3e255123	0.16144232
196	0x3f4ad44e	0.792302
197	0xbeaea3d6	-0.34109372
198	0xbe8486d8	-0.25884128
199	0xbdf8c303	-0.121465705
200	0x3d851416	0.06497972
201	0xbe2e2073	-0.17004566
202	0xbe1eccce	-0.15507814
203	0xbf2f544a	-0.6848799
204	0xbea94fbd	-0.33068648
205	0x3db704f3	0.08936491
206	0x3e599430	0.21247935
207	0x3e0b5998	0.13608396
208	0xbe18c052	-0.14917114
209	0xbe5d2a99	-0.21598281
210	0x3f033d05	0.51264983
211	0xbcbe0798	-0.02319698
212	0xbda3b0c1	-0.079926975
213	0xbebb8d8d	-0.36631432
214	0x3e40a196	0.1881164
215	0x3f280ead	0.65647393
216	0xbdbd2df0	-0.092372775
217	0xbf3aee50	-0.73019886
218	0x3d92dbda	0.071708396
219	0x3f151cc5	0.58247024
220	0xbdf4473e	-0.11927651
221	0x3ea0cb3a	0.3140505
222	0x3bfcbe0b	0.0077130846
223	0x3e7e85a0	0.24855661
224	0xbe408d19	-0.18803824
225	0xbda6771a	-0.081281856
226	0x3e8e7137	0.2782075
227	0x3f402f61	0.75072294
228	0xbecab279	-0.3958929
229	0x3d4af9aa	0.049554504
230	0xbe7bcc54	-0.24589664
231	0xbd2254ae	-0.039631538
232	0xbe0ac467	-0.13551484
233	0x3e8c64ce	0.27420658
234	0x3e90e965	0.28303066
235	0x3e61a1f3	0.22034435
236	0xbf3f40c1	-0.7470818
237	0xbf0e7b74	-0.55657125
238	0xbd5d5451	-0.05403549
239	0x3d587c92	0.052853175
240	0xbe4ec8f2	-0.20193842
241	0xbde4df06	-0.11175351
242	0xbd14ad7e	-0.036298268
243	0xbe5b0248	-0.21387589
244	0xbf0105c8	-0.50399446
245	0x3ce6e7b8	0.028186664
246	0x3eb53b0e	0.35396618
247	0xbd9a2579	-0.075266786
248	0xbe5fdf12	-0.21862438
249	0xbeb4258f	-0.35184905
250	0x3ef6381c	0.48089683
251	0xbf4efd50	-0.80855274
252	0xbdccd39a	-0.10001297
253	0x3c27ab74	0.010233749
254	0xbf1f23d7	-0.6216406
255	0x3e7c64a2	0.24647763

gnn_base.gnn.embed_layer.lin_h.0.bias f4 [16]
0	0x00000000	0.0
1	0x00000000	0.0
2	0x00000000	0.0
3	0x00000000	0.0
4	0x00000000	0.0
5	0x00000000	0.0
6	0x00000000	0.0
7	0x00000000	0.0
8	0x00000000	0.0
9	0x00000000	0.0
10	0x00000000	0.0
11	0x00000000	0.0
12	0x00000000	0.0
13	0x00000000	0.0
14	0x00000000	0.0
15	0x00000000	0.0

gnn_base.gnn.embed_layer.lin_h.2.weight f4 [16]
0	0x3f7f0ac5	0.9962581
1	0x3f7daf72	0.99095833
2	0x3f7f75f3	0.9978935
3	0x3f807625	1.0036055
4	0x3f7fc153	0.99904364
5	0x3f8014e2	1.0006373
6	0x3f7ed0fc	0.99537635
7	0x3f803d2a	1.0018666
8	0x3f7e0bd5	0.99236804
9	0x3f804679	1.0021507
10	0x3f800a2a	1.0003102
11	0x3f80dc85	1.0067297
12	0x3f808010	1.0039082
13	0x3f7fd8c7	0.9994015
14	0x3f7f4d2f	0.9972715
15	0x3f805f66	1.0029113

gnn_base.gnn.embed_layer.lin_h.2.bias f4 [16]
0	0xbb34065c	-0.002746961
1	0xbbc735e2	-0.0060794214
2	0x3af5899d	0.0018733029
3	0xbb92f877	-0.0044851857
4	0x3ba99a0c	0.0051758345
5	0xbbac7b08	-0.00526369
6	0x3a976bb9	0.001155249
7	0x3b41e982	0.0029588644
8	0xbbfa6e0a	-0.007642512
9	0x3b9685d4	0.0045935903
10	0xbc157c56	-0.009123882
11	0x3b768e0d	0.003762129
12	0xbb270df3	-0.0025490492
13	0xbb1f786f	-0.0024333259
14	0xbb129b5d	-0.0022370436
15	0xbb459ed1	-0.0030154476

gnn_base.gnn.embed_layer.lin2.0.0.weight f4 [16, 16]
0	0x3be08a70	0.0068524405
1	0x3ede63c5	0.43435493
2	0xbc8efd68	-0.017454818
3	0xbec78eee	-0.38976234
4	0x3e47ef6b	0.19524924
5	0xbe6985ea	-0.2280499
6	0x3e20e87a	0.15713683
7	0x3e862a3b	0.26204094
8	0xbf176b35	-0.5914796
9	0x3ef9ccc2	0.4878903
10	0xbf045db4	-0.5170548
11	0x3e3d2aa6	0.184733
12	0xbe68786a	-0.22702184
13	0xbe95fec6	-0.2929594
14	0xbf1143ce	-0.56744087
15	0x3ed5f4e2	0.41788393
16	0xbe19dace	-0.15024874
17	0x3e4ae745	0.19814785
18	0xbee5fb58	-0.44918323
19	0xbe028c08	-0.1274873
20	0xbe8d782d	-0.2763075
21	0xbe027d71	-0.12743165
22	0x3d46d368	0.048541456
23	0x3f1ec86a	0.6202456
24	0x3d0902a5	0.033449788
25	0xbeaf9f97	-0.34301445
26	0xbee09af9	-0.43868235
27	0xbea18a24	-0.31550705
28	0xbea0cfec	-0.31408632
29	0xbee3f566	-0.44523162
30	0x3e93809f	0.28809068
31	0xbf2bd1c6	-0.67116964
32	0x3ec1d0de	0.37854666
33	0x3e80e1f2	0.25172383
34	0x3ec2a772	0.38018376
35	0x3ef9cd2c	0.48789346
36	0xbe7379f0	-0.23776984
37	0x3f137d9f	0.5761356
38	0x3e39b677	0.18136011
39	0xbcd0ccc3	-0.025488263
40	0x3e871a4f	0.2638726
41	0xbe7a9f25	-0.24474771
42	0xbf4c945f	-0.79913896
43	0xbe5c1674	-0.2149294
44	0xbda8446f	-0.08216178
45	0x3e8e5d23	0.27805433
46	0xbe7e598a	-0.24838844
47	0x3e149288	0.14509022
48	0x3ea61999	0.32441404
49	0x3e4732ec	0.19453019
50	0xbec9ba81	-0.39400104
51	0x3e713a1e	0.23557326
52	0x3e4b302d	0.19842596
53	0x3e96572c	0.29363382
54	0xbf5ae00a	-0.85498106
55	0x3edd2eb8	0.43199706
56	0xbe57b64a	-0.21065632
57	0xbeda2ad0	-0.42610788
58	0x3e6a8b1c	0.22904629
59	0xbdeb6494	-0.11493793
60	0x3e8615dc	0.26188552
61	0xbe2da69e	-0.1695809
62	0xbdf49666	-0.11942749
63	0x3ee6c683	0.45073327
64	0xbe4f21a1	-0.20227672
65	0x3daa9606	0.08329396
66	0xbe8a1eff	-0.26976773
67	0xbd97ebb5	-0.074180044
68	0xbe091281	-0.13385965
69	0xbeb7bcad	-0.35886136
70	0xbec5d1e6	-0.38636702
71	0xbf564045	-0.8369182
72	0xbbc456de	-0.0059918007
73	0xbf1cdacd	-0.61271363
74	0xbeb637fc	-0.35589588
75	0x3ecc0ec8	0.39855027
76	0xbda0e951	-0.078570016
77	0xbda2e57a	-0.079539254
78	0xbedb572b	-0.4283994
79	0xbe0ffa78	-0.1406039
80	0x3f0ac11c	0.5420091
81	0xbe811c7e	-0.2521705
82	0x3ed9dae9	0.42549828
83	0xbee8d6b9	-0.4547632
84	0x3efd9082	0.49524313
85	0x3eb244af	0.34818026
86	0xbe0c0c61	-0.13676597
87	0x3c011b95	0.007880111
88	0x3d633cd7	0.055477943
89	0xbe2aebec	-0.1669156
90	0x3e78a856	0.24282965
91	0x3d1a4aff	0.037669178
92	0xbec9a2b5	-0.39381948
93	0xbe7791d8	-0.24176729
94	0xbee801ff	-0.45314023
95	0xbf1c0d4d	-0.60957795
96	0x3e6387bc	0.22219747
97	0x3f42e3eb	0.76129025
98	0x3e80c1e3	0.25147924
99	0xbe87c5f9	-0.2651823
100	0xbaee2d34	-0.001817143
101	0x3e085763	0.13314585
102	0x3ec23079	0.37927607
103	0xbea54e41	-0.32286265
104	0x3ddb474c	0.10706958
105	0xbec16e67	-0.37779543
106	0x3e9cfd48	0.30661988
107	0x3de6239a	0.11237259
108	0x3bea15da	0.007143718
109	0xbf11ba3f	-0.56924814
110	0x3f045002	0.5168458
111	0x3ea6688e	0.32501644
112	0xbe029276	-0.12751183
113	0xbf4263cc	-0.7593353
114	0x3ccb0bf3	0.024785971
115	0xbe8b7ea1	-0.27245048
116	0x3b17e33f	0.002317622
117	0x3efb9520	0.4913721
118	0x3c3bd127	0.01146344
119	0xbe778418	-0.24171484
120	0xbf273167	-0.65309757
121	0xbe3cd75d	-0.1844153
122	0xbed56c5b	-0.4168423
123	0xbd206453	-0.039158177
124	0xbd238fc7	-0.03993204
125	0xbe89249d	-0.26785746
126	0x3f01ffe8	0.50781107
127	0x3e8e745c	0.2782315
128	0xbf7b9cda	-0.9828621
129	0x3e5c80ee	0.21533558
130	0xbcf25572	-0.02958176
131	0xbe27feea	-0.16405836
132	0x3e393a6d	0.18088694
133	0x3f4d5c49	0.8021894
134	0x3c0123bb	0.007882054
135	0x3e2cf6a2	0.16890958
136	0x3e837f36	0.25682992
137	0xbbef4365	-0.007301735
138	0x3d60e38c	0.054904506
139	0x3ea2489a	0.31696016
140	0x3e0cb8b9	0.13742341
141	0xbd81627d	-0.06317613
142	0xbe88c2e4	-0.2671119
143	0xbd644763	-0.055732142
144	0xbdf99e71	-0.121884234
145	0x3e7f3c7a	0.24925414
146	0x3f3a0ace	0.72672737
147	0xbeed78bd	-0.46381178
148	0xbf20f790	-0.6287775
149	0xbd53ede4	-0.051740542
150	0xbf367ac1	-0.7128106
151	0x3d145d35	0.0362217
152	0xbe1e907d	-0.15484805
153	0x3e6c3f2b	0.23070972
154	0xbd9eaafa	-0.07747455
155	0xbe1853fe	-0.1487579
156	0x3ea6aab5	0.32552114
157	0x3da70015	0.081543125
158	0x3e06a23a	0.13147822
159	0xbe4e1f05	-0.2012902
160	0x3c4c07c1	0.012453021
161	0x3ef989b3	0.4873787
162	0xbe4f6d56	-0.20256552
163	0x3cbc66e4	0.02299828
164	0x3aa8d804	0.001288176
165	0x3e991597	0.29899284
166	0x3c06a871	0.0082188705
167	0xbe07ddbd	-0.1326818
168	0xbf33f1c8	-0.70290804
169	0xbd04eea7	-0.03245416
170	0x3e6fa9ca	0.23404613
171	0x3dcc9f5b	0.09991332
172	0xbefceea6	-0.49400824
173	0x3f4c824d	0.79886323
174	0x3e6e3700	0.23263168
175	0xbe9b073a	-0.3027895
176	0x3db008ae	0.085954055
177	0xbdd27e82	-0.10278036
178	0xbe8d8f9a	-0.27648622
179	0xbf13c23b	-0.5771825
180	0xbe5c48ca	-0.21512142
181	0x3da15721	0.07877947
182	0xbe9988c6	-0.29987162
183	0x3d0c79ae	0.03429573
184	0x3f27e536	0.65584123
185	0x3e037a10	0.12839532
186	0xbd3fc64e	-0.046819977
187	0x3ca799ff	0.020459173
188	0xbf40d802	-0.753296
189	0x3e98d94b	0.2985328
190	0x3e3ac84b	0.18240468
191	0x3f09760d	0.53695756
192	0xbefa9dd3	-0.48948535
193	0x3e145511	0.14485575
194	0x3ee22628	0.44169736
195	0x3e20ffb7	0.15722547
196	0x3f48b85b	0.78406304
197	0xbeb1621d	-0.34645167
198	0xbe7d3320	-0.24726534
199	0xbdfca73c	-0.12336585
200	0x3d8fdc52	0.07024445
201	0xbe1f26ea	-0.15542188
202	0xbe27146e	-0.16316387
203	0xbf337acb	-0.7010924
204	0xbeabb094	-0.33533156
205	0x3d9cb45e	0.0765159
206	0x3e52d48b	0.20588891
207	0x3e0a1e46	0.13488111
208	0xbe13b176	-0.14423165
209	0xbe60680b	-0.21914689
210	0x3f01d7ed	0.507201
211	0xbcde4d48	-0.02713646
212	0xbdaa8a46	-0.08327155
213	0xbebe4ec9	-0.37169483
214	0x3e3a54f5	0.18196471
215	0x3f294cbb	0.66132706
216	0xbdb19037	-0.08670085
217	0xbf3bb9b9	-0.73330265
218	0x3d98f95c	0.074694365
219	0x3f15f769	0.5858064
220	0xbdeb2f98	-0.11483687
221	0x3ea39ee1	0.31957152
222	0x3c0f3b89	0.008742222
223	0x3e8062be	0.25075334
224	0xbe41acbd	-0.1891355
225	0xbd9b7eeb	-0.07592567
226	0x3e89b3ad	0.26894894
227	0x3f40826d	0.75199014
228	0xbec6edca	-0.38853294
229	0x3d478224	0.048708096
230	0xbe8238ac	-0.25433862
231	0xbd20bf02	-0.03924466
232	0xbe0806d9	-0.13283862
233	0x3e882e8b	0.2659801
234	0x3e9610ca	0.29309684
235	0x3e627b77	0.2211741
236	0xbf3e9f5a	-0.744619
237	0xbf0d5f26	-0.5522331
238	0xbd40b58d	-0.04704814
239	0x3d544e79	0.05183265
240	0xbe48dbec	-0.19615144
241	0xbde0c128	-0.10974342
242	0xbd1395a7	-0.03603139
243	0xbe56ffc3	-0.20996003
244	0xbefe92f4	-0.4972149
245	0x3d01743c	0.03160499
246	0x3eb618e3	0.35565862
247	0xbda7b024	-0.08187893
248	0xbe65ef54	-0.22454578
249	0xbeb77116	-0.35828465
250	0x3ef532cc	0.47890317
251	0xbf4d0698	-0.80088186
252	0xbdd2f224	-0.10300091
253	0x3c8afe51	0.01696697
254	0xbf1d02cc	-0.6133239
255	0x3e811bb4	0.25216448

gnn_base.gnn.embed_layer.lin2.0.0.bias f4 [16]
0	0x3cc60d62	0.024176303
1	0xbb37607d	-0.0027981095
2	0xbc324945	-0.010881727
3	0xbb828135	-0.003982688
4	0xba0b20ab	-0.0005307297
5	0x3bb5acad	0.005544266
6	0xbc024415	-0.007950802
7	0x3b99a9db	0.004689438
8	0x3a40b420	0.00073510595
9	0x3ac55460	0.0015055053
10	0xbac51034	-0.0015034736
11	0xbabe511e	-0.0014520024
12	0x3b6da16d	0.0036259547
13	0x3b80bc87	0.003928724
14	0xb959ab85	-0.00020758629
15	0xbb9e26b9	-0.0048263934

gnn_base.gnn.embed_layer.lin2.0.2.weight f4 [16]
0	0x3f7f8083	0.9980547
1	0x3f7cbf32	0.9872924
2	0x3f8053cf	1.0025576
3	0x3f7facf3	0.99873275
4	0x3f7f7ad7	0.99796814
5	0x3f7f2e44	0.9967997
6	0x3f823080	1.0171051
7	0x3f8008d7	1.0002698
8	0x3f808ed4	1.0043588
9	0x3f8025ca	1.0011532
10	0x3f7cd31d	0.98759633
11	0x3f7ee72f	0.9957151
12	0x3f7de1f8	0.99172926
13	0x3f8052e8	1.0025301
14	0x3f7f30a1	0.99683577
15	0x3f7fa7e6	0.9986557

gnn_base.gnn.embed_layer.lin2.0.2.bias f4 [16]
0	0x3c734ad7	0.014849386
1	0x3b93a204	0.0045053978
2	0xbbd25551	-0.006418862
3	0xbb3ce3f2	-0.002882239
4	0x3a965a51	0.0011471008
5	0x3b878fce	0.004137016
6	0xbbfafd19	-0.007659566
7	0x3b9fb068	0.004873324
8	0x3b993b9d	0.004676296
9	0x3b653603	0.003497482
10	0x3b34664c	0.0027526794
11	0x3b2ef06b	0.0026693593
12	0x3c39545b	0.011311616
13	0x3acb018c	0.0015488132
14	0x3b29a149	0.0025883487
15	0xbb9b91b8	-0.0047475956

gnn_base.gnn.gnn1.lin_key.weight f4 [48, 16]
0	0xbd18ef56	-0.037337624
1	0x3e1f1f18	0.15539205
2	0xbdec2434	-0.11530343
3	0xbe079ed6	-0.13244185
4	0xbda91aee	-0.082570896
5	0xbe36c2b6	-0.17847714
6	0xbe4dcffe	-0.20098874
7	0x3da35f62	0.07977177
8	0xbe56b6f4	-0.20968229
9	0xbe752ae3	-0.23942141
10	0x3d248e10	0.040174544
11	0xbe148b77	-0.14506327
12	0xbdb50835	-0.08839456
13	0x3e72d62e	0.23714516
14	0xbdcfafae	-0.1014093
15	0xbd2ba1d5	-0.041902382
16	0xbcc76003	-0.024337774
17	0xbd4b599a	-0.049645998
18	0x3c31b996	0.01084747
19	0xbcb89a8e	-0.022534635
20	0xbe2d8fd5	-0.16949399
21	0x3e54a646	0.20766553
22	0x3d77dd52	0.060513802
23	0x3e0f8d01	0.14018632
24	0xbe513466	-0.20430145
25	0x3dd3ca37	0.10341304
26	0xbe5552bb	-0.2083234
27	0x3e57a0a0	0.21057367
28	0xbdadd3e9	-0.08487684
29	0xbe1a79af	-0.15085481
30	0xbe560e52	-0.209039
31	0xbe6f10bc	-0.23346227
32	0xbd73c82c	-0.05951707
33	0x3e3b17e3	0.18270831
34	0x3e32ea72	0.17472246
35	0x3d0c38f4	0.034234002
36	0xbdc38ce0	-0.09548354
37	0xbe818917	-0.25299904
38	0x3e141c40	0.14463902
39	0x3e5e5568	0.21712267
40	0x3e1b1ac5	0.1514693
41	0xbdccd570	-0.100016475
42	0x3de3d8fe	0.11125372
43	0x3e13598a	0.14389625
44	0x3d25326f	0.0403313
45	0xbe198c6d	-0.14994974
46	0x3d696fff	0.056991573
47	0x3de2a545	0.11066679
48	0xbe464871	-0.19363572
49	0x3dc4a16a	0.096011
50	0xbe6cd6c4	-0.23128802
51	0x3e16cdbd	0.1472692
52	0x3e369567	0.1783043
53	0xbc80efe6	-0.015739392
54	0x3e782267	0.24231873
55	0x3dc089c2	0.09401275
56	0x3e0a134f	0.13483928
57	0xbe262c72	-0.16227892
58	0x3d095855	0.033531506
59	0xbdfd856d	-0.123789646
60	0x3d2f6cd1	0.042828385
61	0xbdfbaff5	-0.122894205
62	0x3c90aedd	0.017661506
63	0x3d81609f	0.06317257
64	0xbe031c2b	-0.12803714
65	0x3c6fb47f	0.014630436
66	0xbe3594c4	-0.17732531
67	0x3d0fd048	0.03511074
68	0xbc692980	-0.014231086
69	0xbe6c70b7	-0.23089872
70	0x3dc6db9c	0.09709856
71	0xbe719443	-0.23591714
72	0xbe64615e	-0.22302768
73	0x3e20c89b	0.15701525
74	0xbd797132	-0.060898967
75	0x3dbcfe4f	0.09228193
76	0x3d52c12b	0.05145375
77	0xbe513a3a	-0.20432368
78	0xbde6aeeb	-0.11263832
79	0x3e5ef6e9	0.21773876
80	0x3e4cd003	0.20001225
81	0xbd71b2fb	-0.05900858
82	0x3c95ffec	0.01831051
83	0xbe6f56ca	-0.23372951
84	0xbe585c59	-0.21128978
85	0x3e214822	0.15750173
86	0x3e777667	0.2416626
87	0xbe32fda7	-0.17479573
88	0x3d9d5e9d	0.07684062
89	0x3db7ec51	0.08980621
90	0x3d0a7515	0.033803064
91	0x3dc310f6	0.095247194
92	0xbe1a55d6	-0.15071806
93	0xbe473e3f	-0.19457339
94	0xbe0f9aa9	-0.14023842
95	0x3e5535de	0.2082133
96	0x3b80b480	0.0039277673
97	0x3e22dbe7	0.15904199
98	0xbe19f81f	-0.15036057
99	0xbd978939	-0.0739922
100	0xbe304d89	-0.17217077
101	0x3d59046f	0.052982744
102	0x3cd2e11b	0.025742104
103	0xbc567fcb	-0.013091992
104	0x3bf4aa71	0.0074666073
105	0xbd88870f	-0.066663854
106	0x3e2de0db	0.16980307
107	0xbdc17833	-0.09446754
108	0x3db57d24	0.08861759
109	0x3e12d7a0	0.14340067
110	0xbdee8a6a	-0.11647494
111	0x3e1c78a4	0.15280396
112	0x3e261337	0.16218267
113	0x3de0e51e	0.10981201
114	0xbda22d18	-0.07918757
115	0xbde6ed5f	-0.11275744
116	0xbe60ef0e	-0.21966192
117	0xbdfca7f1	-0.1233672
118	0x3d4e638d	0.050387908
119	0xbde14682	-0.109997764
120	0x3ddfd02c	0.109283775
121	0xbdeabd89	-0.11461932
122	0xbdeb7e35	-0.114986815
123	0xbe731f36	-0.23742375
124	0xbe2681d0	-0.16260457
125	0xbe6f1160	-0.23346472
126	0x3e2cceb7	0.1687573
127	0x3def4a3d	0.11684082
128	0xbde37f3c	-0.111082524
129	0xbe397353	-0.18110399
130	0x3e3bd2d7	0.18342148
131	0xbddc15d8	-0.10746354
132	0x3e4cd6ba	0.20003787
133	0xbe5db0b7	-0.21649443
134	0xbd3ed3d5	-0.046588738
135	0x3e05f485	0.13081558
136	0x3e3b34e0	0.18281889
137	0xbe6a1e13	-0.22863035
138	0x3dec806e	0.115479335
139	0xbb84385d	-0.0040350393
140	0x3de1d109	0.110261984
141	0x3e07ab2c	0.1324889
142	0xbe7399eb	-0.23789184
143	0x3e7b410c	0.24536532
144	0x3ce51feb	0.027969321
145	0x3d86baab	0.06578573
146	0xbdec1368	-0.11527139
147	0x3e797330	0.24360347
148	0x3cc37650	0.023860127
149	0x3e5ced20	0.21574831
150	0x3dc3b1a6	0.09555368
151	0xbe5347d8	-0.20632875
152	0x3e803395	0.25039354
153	0x3de87dc3	0.11352112
154	0x3e079cad	0.13243361
155	0xbdda27e5	-0.106521405
156	0x3da685ec	0.08131012
157	0x3dbae516	0.09125726
158	0xbe4921d5	-0.19641812
159	0x3d23600b	0.039886516
160	0xbe0606fa	-0.13088599
161	0x3e1d7b05	0.1537896
162	0xbd9a11ee	-0.07522951
163	0x3d9ccf20	0.076566935
164	0xbe3f2366	-0.18665847
165	0xbe6890b8	-0.22711456
166	0xbe65e813	-0.2245181
167	0xbce70d4c	-0.028204583
168	0x3da2b4f9	0.07944674
169	0x3d6ddb15	0.05807026
170	0x3c039ddc	0.008033242
171	0xbe841b7c	-0.2580222
172	0xbe43d9c8	-0.19126046
173	0x3e20de04	0.15709692
174	0xbdfad96c	-0.12248501
175	0x3d6b0e61	0.05738676
176	0xbc86d8bd	-0.01646077
177	0xbd613b3a	-0.054988123
178	0xbdc8807b	-0.09790131
179	0x3de10a38	0.10988277
180	0xbe532d87	-0.20622836
181	0xbe3d383b	-0.18478481
182	0x3e116db4	0.14202005
183	0xbe285995	-0.16440423
184	0xbc2f926a	-0.01071606
185	0xbe4155cb	-0.18880384
186	0x3d996d68	0.07491571
187	0xbcd740ac	-0.026275955
188	0x3dcc9c92	0.09990801
189	0xbe57017a	-0.20996657
190	0xbe03e40a	-0.12879959
191	0xbd6be950	-0.05759555
192	0xbdbf55af	-0.09342515
193	0xbcabbcc4	-0.020964034
194	0xbaf405a8	-0.0018617408
195	0xbe0f7486	-0.14009294
196	0xb788d180	-1.631002e-05
197	0xbe4d4a8d	-0.2004797
198	0xbcc170c1	-0.023613336
199	0xbe649350	-0.2232182
200	0x3def07ba	0.116713956
201	0x3e5c5945	0.21518429
202	0x3e68bb17	0.22727619
203	0x3e17eb08	0.14835751
204	0xbe55bc45	-0.208726
205	0x3e626763	0.22109751
206	0xbe56eb33	-0.20988159
207	0xbe348bf1	-0.17631508
208	0xbd5aaa5a	-0.053385116
209	0x3dd8ed34	0.10592118
210	0x3e717892	0.2358115
211	0x3e2bc19e	0.16773078
212	0x3e322a56	0.17398962
213	0xbe07e278	-0.13269985
214	0xbe382ae1	-0.17985107
215	0xbdcbd931	-0.09953535
216	0xbdaa3883	-0.0831156
217	0x3e2ea46f	0.17054914
218	0xbe5dd105	-0.21661766
219	0xbdb2feed	-0.087400295
220	0x3ca5f005	0.020256052
221	0x3e668e7c	0.22515291
222	0xbd96fb61	-0.073721655
223	0x3e64a377	0.22327982
224	0xbe03d31e	-0.12873504
225	0x3e46772f	0.19381402
226	0xbe64e158	-0.22351587
227	0x3ce07b57	0.027402563
228	0x3e611433	0.21980362
229	0x3bfca5e8	0.0077102073
230	0x3e5f3737	0.21798407
231	0x3c9816b9	0.018565523
232	0xbe137773	-0.14401035
233	0xbdef4dca	-0.11684759
234	0xbdc840e7	-0.09778004
235	0xbe6f83d3	-0.2339013
236	0xbe0a576b	-0.1350991
237	0xbda0dc63	-0.078545354
238	0xbe829ee9	-0.25511864
239	0x3cf314f6	0.02967308
240	0xbd91792b	-0.07103189
241	0x3db8615a	0.09002943
242	0x3e6c3df7	0.23070513
243	0x3d842b96	0.06453626
244	0xbbec23c1	-0.0072064106
245	0xbbed06d2	-0.007233479
246	0xbdf5f7ce	-0.120101556
247	0xbcb0c576	-0.021578532
248	0xbcc4391a	-0.02395301
249	0x3c44ef46	0.012019938
250	0x3d6d293a	0.057900645
251	0xbe234c2d	-0.15947028
252	0xbd1dc0ea	-0.038514055
253	0xbe4e9b41	-0.20176412
254	0xbd0e8d61	-0.0348028
255	0xbe3f1786	-0.18661317

gnn_base.gnn.gnn1.lin_key.bias f4 [48]
0	0x3e2715be	0.16316888
1	0x3da18c04	0.07888034
2	0x3d37dbd8	0.044887394
3	0xbdf24d34	-0.118311316
4	0xbd9fd6c4	-0.07804635
5	0x3cd97510	0.026545078
6	0xbd01ddb8	-0.031705588
7	0x3e1d6556	0.15370688
8	0x3e0742dc	0.13209099
9	0x3e733ec0	0.23754406
10	0x3db08c64	0.086205274
11	0xbe24a250	-0.16077542
12	0x3e5fd4a0	0.21858454
13	0x3c97464e	0.018466141
14	0xbe68ba54	-0.22727329
15	0x3e311034	0.17291337
16	0xbe230ca8	-0.15922797
17	0x3e2a9008	0.16656506
18	0x3d195090	0.037430346
19	0xbe29d17a	-0.16583815
20	0x3e26dce0	0.16295195
21	0xbd21a0b8	-0.039459914
22	0xbe3f3ce6	-0.18675575
23	0x3e1e85b2	0.15480688
24	0xbe1b0cf8	-0.15141666
25	0x3d9236bf	0.07139348
26	0x3e0b6050	0.13610959
27	0x3dcec625	0.10096387
28	0x3d8cde99	0.06878395
29	0x3df234e0	0.11826491
30	0xbe492204	-0.19641882
31	0xbdf989c8	-0.12184483
32	0x3e02552a	0.127278
33	0x3e3fd5c2	0.18733886
34	0x3d3eda5f	0.046594974
35	0x3cf98c97	0.030462546
36	0xbe4ad6dc	-0.19808525
37	0xbd474470	-0.04864925
38	0xbe00f6ac	-0.12594098
39	0x3e79bf3a	0.24389353
40	0x3e7d83d8	0.24757326
41	0x3d3b4702	0.045722015
42	0x3e4c14bc	0.19929785
43	0x3c9f833f	0.019471763
44	0xbd932d9c	-0.07186434
45	0xbe390cfa	-0.18071356
46	0x3e5896a8	0.21151221
47	0x3d92500c	0.07144174

gnn_base.gnn.gnn1.lin_query.weight f4 [48, 16]
0	0xbd2f7ca7	-0.042843487
1	0xbe256b22	-0.16154149
2	0x3e385acc	0.18003386
3	0x3de957c6	0.113936946
4	0xbe128be0	-0.1431117
5	0x3e6d835c	0.23194641
6	0xbe3a4577	-0.18190561
7	0xbd260ccc	-0.040539548
8	0x3c5c24e0	0.013436526
9	0x3e56165b	0.20906965
10	0x3d4a077e	0.04932355
11	0x3e361926	0.17783031
12	0xbe266bee	-0.1625211
13	0x3e07376c	0.13204736
14	0x3e50e737	0.20400701
15	0xbe1af985	-0.15134247
16	0xbd8307f3	-0.063980006
17	0x3dcd8514	0.10035148
18	0x3d7e39b4	0.06206675
19	0x3d2a1c16	0.04153069
20	0xbd35a280	-0.044344425
21	0xbd62743e	-0.05528664
22	0x3e2cc651	0.16872527
23	0xbd68da88	-0.056849033
24	0x3d6c9373	0.057757806
25	0xbe282846	-0.16421613
26	0xbe3e89e4	-0.18607289
27	0xbe4bf6ca	-0.19918361
28	0x3e7485b2	0.23879126
29	0xbdbb4690	-0.09144318
30	0xbe11384f	-0.14181636
31	0x3d2e6d22	0.042584546
32	0x3e579373	0.21052341
33	0x3cde08c6	0.027103793
34	0x3dbd0538	0.09229511
35	0x3d949eae	0.07256828
36	0x3e51bc92	0.2048209
37	0x3dc1b5a4	0.09458473
38	0xbe48a8a0	-0.19595575
39	0x3b98fede	0.0046690544
40	0x3e58d6c1	0.21175672
41	0xbe6e83dd	-0.2329249
42	0xbd94cbf9	-0.07265467
43	0xbe75ad51	-0.23991896
44	0xbe62fc6a	-0.22166601
45	0x3dd1138d	0.10208807
46	0x3e5bac81	0.21452524
47	0x3e60fd8e	0.21971723
48	0xbdbf5e8a	-0.09344204
49	0x3e3d8928	0.18509352
50	0xbe4116f2	-0.18856409
51	0xbe5ad759	-0.21371211
52	0x3e493d29	0.19652237
53	0x3dda80ca	0.10669096
54	0x3d061dcd	0.032743264
55	0xbe48b64b	-0.19600789
56	0xbb7ff5be	-0.0039056386
57	0x3e5b41d6	0.21411833
58	0xbdd73ceb	-0.10509666
59	0x3e238085	0.15966995
60	0xbdf9a948	-0.12190491
61	0xbe614a28	-0.22000945
62	0x3e6045dc	0.21901649
63	0xbe73dae9	-0.23813976
64	0xbde73977	-0.112902574
65	0xbd0df908	-0.034661323
66	0x3e4757e9	0.19467129
67	0xbb44ad3b	-0.003001048
68	0xbd5fe425	-0.054660935
69	0x3e190115	0.14941819
70	0xbd4da01f	-0.05020153
71	0x3e3cff9a	0.1845688
72	0x3e6594c5	0.22420032
73	0x3dc7ab2e	0.09749447
74	0x3cd4f00a	0.025993366
75	0x3e443d8d	0.19164105
76	0xbe74ce33	-0.23906784
77	0xbe809e28	-0.25120664
78	0x3d88593b	0.06657644
79	0xbe2274c5	-0.15864857
80	0xbe5a225e	-0.21302173
81	0xbd8ed52f	-0.06974255
82	0xbe227b7d	-0.1586742
83	0x3d2c3bbc	0.042049155
84	0xbe11ed44	-0.14250666
85	0x3b179830	0.0023131482
86	0x3e05efc1	0.1307974
87	0xbe06976f	-0.13143705
88	0x3e51b164	0.20477825
89	0xbdcc36ce	-0.09971391
90	0x3e45b05b	0.19305556
91	0xbe119a1f	-0.14218949
92	0xbe2b567b	-0.16732208
93	0x3de428d3	0.11140599
94	0x3e7420d5	0.2384065
95	0xbe07dcb8	-0.13267791
96	0xbe6a0899	-0.22854842
97	0xbe094945	-0.13406856
98	0x3e131fff	0.14367674
99	0xbe49c8aa	-0.19705454
100	0xbd920c8e	-0.07131301
101	0xbe601464	-0.21882778
102	0xbc41e2eb	-0.011833887
103	0x3e33a2c7	0.17542563
104	0x3bb6b9d7	0.005576353
105	0xbc307191	-0.010769264
106	0xbd003fca	-0.031310834
107	0x3e6a423c	0.22876829
108	0x3d3caf80	0.046065807
109	0x3ca66d2f	0.020315735
110	0x3d36d092	0.044632502
111	0x3c969ece	0.01838627
112	0x3e41b38d	0.1891615
113	0x3e3e1e4f	0.1856625
114	0x3d8bd9a4	0.06828621
115	0x3e056206	0.13025674
116	0xbe50d088	-0.20392048
117	0xbe50c151	-0.20386244
118	0x3a3a7917	0.00071133807
119	0x3d9d89ef	0.07692324
120	0x3d48900f	0.04896551
121	0x3e00e189	0.12586035
122	0x3e63ccae	0.22246048
123	0xbe6f193a	-0.23349467
124	0xbe7dc62f	-0.24782632
125	0x3c3e78dd	0.011625496
126	0xbe222e4c	-0.15837973
127	0x3db941ee	0.09045778
128	0x3d6b65ed	0.05747025
129	0x3c4cfeec	0.01251195
130	0x3cdef3e4	0.027215905
131	0x3c9cf431	0.019159408
132	0xbe6cb57b	-0.23116104
133	0x3df572c3	0.1198478
134	0x3daeb5ac	0.08530745
135	0x3e731477	0.23738275
136	0x3d4e8782	0.0504222
137	0x3ce0c36c	0.027436934
138	0x3c58f480	0.013241887
139	0xbd288c79	-0.04114959
140	0x3daf4bb3	0.0855936
141	0x3d279934	0.04091759
142	0x3e73e1f9	0.2381667
143	0xbe05b020	-0.13055468
144	0xbe12f4d7	-0.14351211
145	0x3e545210	0.2073443
146	0x3dff9bec	0.124809116
147	0x3d01e77c	0.0317149
148	0x3e5d7c6b	0.21629493
149	0xbc25015b	-0.010071124
150	0x3da81c82	0.082085624
151	0x3d60b84c	0.05486326
152	0x3c86bf34	0.016448595
153	0x3e27db24	0.1639219
154	0xbe0ae95c	-0.13565582
155	0xbdacf2d3	-0.084447525
156	0x3e3a75cb	0.18208997
157	0x3e0c2457	0.13685738
158	0x3dc041aa	0.093875244
159	0x3df51da1	0.11968542
160	0x3e26aa24	0.16275841
161	0xbc2cece1	-0.010554523
162	0x3e796131	0.24353482
163	0x3d84aa62	0.064778104
164	0xbd51fbf8	-0.051265687
165	0x3de93808	0.1138764
166	0x3dafafa4	0.08578423
167	0xbe3b4135	-0.18286593
168	0x3c749b0c	0.014929544
169	0x3d81401f	0.06311058
170	0x3e342e02	0.17595676
171	0xbe547bb6	-0.20750317
172	0xbe3eb7b4	-0.18624765
173	0xbe485473	-0.19563465
174	0x3e0cd38f	0.13752578
175	0x3abae66b	0.0014259344
176	0xbe723117	-0.23651539
177	0xbe3321e9	-0.17493404
178	0x3e587966	0.2114006
179	0x3e00f29b	0.12592547
180	0x3e416afc	0.18888468
181	0xbe7fdcb0	-0.2498653
182	0xbdc89621	-0.0979426
183	0x3d8aed65	0.06783561
184	0x3dedace7	0.11605244
185	0x3e58f2a2	0.21186307
186	0xbe6bba35	-0.23020251
187	0x3e07df21	0.1326871
188	0x3d27ff89	0.04101518
189	0x3e814764	0.2524978
190	0xbe5d0b9e	-0.21586463
191	0x3be9d157	0.007135551
192	0xbe78b9b8	-0.24289596
193	0xbd98a686	-0.07453637
194	0x3e009367	0.1255623
195	0x3e2bb1cc	0.16767043
196	0xbe67954b	-0.22615544
197	0x3c95619b	0.018235018
198	0x3e580652	0.21096161
199	0xbd3a3b58	-0.04546675
200	0xbd0598f2	-0.032616563
201	0x3d29d764	0.041465178
202	0xbc1fdbf7	-0.009757034
203	0xbc585db1	-0.0132059315
204	0x3e5fdd83	0.21861844
205	0xbdc9db44	-0.09856275
206	0xbe6964b5	-0.22792323
207	0x3e4f3fb9	0.20239152
208	0xbdb6b3d0	-0.08921015
209	0xbdd50b1e	-0.10402511
210	0xbdac514f	-0.08413946
211	0x3e1994b3	0.1499813
212	0x3c313d2f	0.01081781
213	0x3e12e73c	0.14346021
214	0xbe27ecdf	-0.16398953
215	0xbdcd9f2a	-0.10040124
216	0xbe33d5ec	-0.17562073
217	0x3e39bc83	0.18138318
218	0xbe6c76cb	-0.23092191
219	0xbe6bf1e4	-0.23041493
220	0x3e192604	0.14955908
221	0xbe12d58f	-0.14339279
222	0x3e5b76d4	0.21432048
223	0xbe43b58a	-0.1911222
224	0xbc0ac57a	-0.008469934
225	0x3dcf0fea	0.10110457
226	0x3e180ff2	0.14849833
227	0xbdc72419	-0.09723682
228	0xbd74114b	-0.059586804
229	0x3db48720	0.088148355
230	0xbe024d18	-0.12724721
231	0xbe129be7	-0.14317285
232	0x3e1346af	0.14382432
233	0x3d96073a	0.07325597
234	0xbe60a3c9	-0.21937479
235	0xbc35a019	-0.011085534
236	0x3db929fa	0.090412095
237	0xbe7bac1b	-0.24577372
238	0xbdeb3998	-0.114855945
239	0xbe6852d6	-0.2268785
240	0xbe806e89	-0.25084332
241	0xbddcf4cd	-0.107888795
242	0x3e62ad02	0.2213631
243	0x3b3914b8	0.002824111
244	0xbc6f5b78	-0.01460921
245	0x3d348a28	0.04407707
246	0x3d52c71c	0.051459417
247	0xbbbfe8b9	-0.0058566
248	0x3dd5fcbd	0.104485966
249	0xbd8fcc3c	-0.070213765
250	0x3e802812	0.2503057
251	0x3c792840	0.01520735
252	0xbdb864c9	-0.09003598
253	0xbc7fd9be	-0.015615879
254	0x3e16e12e	0.14734337
255	0xbe2baf83	-0.16766171

gnn_base.gnn.gnn1.lin_query.bias f4 [48]
0	0x3e25b41c	0.16181988
1	0xbe19add3	-0.15007715
2	0xbe36f8e4	-0.17868382
3	0xbe10177b	-0.14071457
4	0x3e130c1d	0.1436009
5	0xbd483f40	-0.048888445
6	0x3e5f8cc3	0.2183104
7	0xbe560619	-0.20900764
8	0x3da31aff	0.079641335
9	0xbdaa086d	-0.08302388
10	0x3d27440f	0.04083639
11	0x3e239bbe	0.1597738
12	0x3e08c9bd	0.13358207
13	0xbe717bba	-0.23582354
14	0xbd051caf	-0.032498058
15	0x3dd77971	0.1052121
16	0xbe8186fe	-0.25298303
17	0xbe38bdb0	-0.1804111
18	0xbe81504a	-0.25256568
19	0x3ce960b4	0.028488494
20	0x3d755906	0.059899352
21	0xbdce6a09	-0.10078818
22	0x3daecfe2	0.08535744
23	0x3cf36273	0.02971003
24	0x3dd80ce7	0.10549336
25	0x3e54dc12	0.20787075
26	0xbe346986	-0.17618379
27	0xbe4da13c	-0.20081037
28	0x3e762f64	0.24041516
29	0xbdee51d4	-0.11636701
30	0x3e32ecf8	0.17473209
31	0xbda1c268	-0.07898408
32	0xbd57157a	-0.052510716
33	0xbde9f360	-0.11423373
34	0x3d973575	0.07383243
35	0xbc814517	-0.015780015
36	0x3e4d02ef	0.2002065
37	0xbe793832	-0.24337843
38	0xbc2cde18	-0.010550998
39	0x3d0a564c	0.033773705
40	0x3daa2d6a	0.08309443
41	0x3e4544be	0.19264504
42	0x3dbc79ac	0.092028946
43	0xbe5db993	-0.21652822
44	0x3d17a217	0.037019815
45	0xbdca0986	-0.09865098
46	0x3e1c2516	0.15248522
47	0xbdd5937a	-0.104285195

gnn_base.gnn.gnn1.lin_value.weight f4 [48, 16]
0	0xbd13d834	-0.03609486
1	0x3d832240	0.06403017
2	0x3e2bf9b3	0.16794471
3	0xbdf75115	-0.12076012
4	0x3e3a4ac2	0.1819258
5	0xbe31fb06	-0.17380914
6	0xbd773bf8	-0.060359925
7	0xbe24f334	-0.161084
8	0x3d41d9d3	0.047326874
9	0xbe52aebf	-0.20574473
10	0xbbbb337c	-0.0057129245
11	0xbe2fa928	-0.17154372
12	0x3e292a05	0.16519935
13	0xbe633fd1	-0.22192313
14	0xbdddaec4	-0.108243495
15	0xbe5bc224	-0.21460778
16	0xbe1c693e	-0.15274522
17	0x3cdc6620	0.026904166
18	0x3e019a74	0.12656575
19	0x3df41afd	0.1191921
20	0xbe51db44	-0.204938
21	0xbd19e098	-0.037567705
22	0xbd5b2c15	-0.053508837
23	0x3dd41167	0.10354882
24	0xbd08b89d	-0.033379186
25	0xbd2aebcb	-0.041728776
26	0xbe234938	-0.159459
27	0xbe2c8406	-0.16847238
28	0xbb8b2f1e	-0.00424756
29	0x3dfcea25	0.12349347
30	0xbdfbfa52	-0.12303604
31	0x3d56fc7e	0.05248689
32	0x3e112f12	0.14178112
33	0xbdfa051e	-0.12208007
34	0x3e530ed7	0.2061113
35	0x3e4711f5	0.19440444
36	0x3e10c409	0.14137281
37	0x3dc5d764	0.09660223
38	0xbe62e65d	-0.22158189
39	0x3e0e79ad	0.13913603
40	0xbc0081a7	-0.0078434115
41	0x3e5f7804	0.21823126
42	0xbe4e2d9d	-0.20134588
43	0x3cb237cd	0.021755124
44	0x3e503d60	0.20335913
45	0x3d03704c	0.032089517
46	0x3ddf3f1f	0.10900711
47	0x3cf6c71e	0.030124243
48	0xbde97efc	-0.114011735
49	0x3e08b3cf	0.13349842
50	0x3e4fef30	0.20306087
51	0x3e06ceae	0.1316478
52	0xbe325ffa	-0.17419425
53	0xbe2770bf	-0.16351603
54	0x3e77921a	0.24176827
55	0xbd049340	-0.03236699
56	0x3dc2fa1b	0.0952036
57	0x3d7dea01	0.06199074
58	0xbe295922	-0.16537908
59	0x3e61c471	0.22047593
60	0x3d51f4cd	0.05125885
61	0xbde7ff41	-0.11327983
62	0x3e72d718	0.23714864
63	0x3daa4fcf	0.083160035
64	0x3d5b29d0	0.053506672
65	0xbe20ec0a	-0.15715042
66	0x3e6cbbcf	0.23118518
67	0xbdfac82e	-0.122452125
68	0xbdbd3ef0	-0.0924052
69	0xbe754d2f	-0.23955224
70	0x3db1952e	0.08671032
71	0xbe08f27b	-0.13373749
72	0xbe7358af	-0.23764299
73	0x3e229022	0.15875295
74	0xbe5a5e44	-0.21325022
75	0xbd5fad23	-0.054608475
76	0xbda56cc5	-0.08077387
77	0x3cf5bc1a	0.02999692
78	0x3cde9d9f	0.027174769
79	0x3e56b1e6	0.209663
80	0x3dba2d54	0.09090677
81	0xbdc622da	-0.09674616
82	0xbe2b0d3b	-0.16704266
83	0xbd90f371	-0.07077683
84	0x3e170b96	0.14750513
85	0xbe7e7b6d	-0.2485177
86	0x3da6d88f	0.08146774
87	0xbb8dd7c3	-0.0043286993
88	0xbdca64c7	-0.09882503
89	0x3e3491f9	0.17633809
90	0x3e093804	0.13400275
91	0x3c6c4ea8	0.01442305
92	0xbe1170e4	-0.1420322
93	0xbe2fd071	-0.17169358
94	0xbd7d359e	-0.06181871
95	0xbe0f7d78	-0.14012706
96	0xbd55c4cf	-0.052189644
97	0x3dcc4a18	0.0997507
98	0xbc5fe7a1	-0.0136660645
99	0x3d22d27f	0.039751526
100	0xbdb87817	-0.0900728
101	0xbd881428	-0.066444695
102	0x3e1fe0b3	0.1561306
103	0xbd03ffd6	-0.032226406
104	0x3d2245c4	0.039617315
105	0xbe421ae0	-0.18955564
106	0xbe0a48c4	-0.1350432
107	0x3e3b22f5	0.18275054
108	0x3bcda21d	0.006275429
109	0x3e842396	0.258084
110	0xbdbad4a0	-0.09122586
111	0x3df761e9	0.12079222
112	0x3df03d5c	0.11730453
113	0xbe56aebe	-0.20965096
114	0xbe0bdd16	-0.13658556
115	0x3e52c9c1	0.20584776
116	0xbdb82f8b	-0.08993443
117	0xbe6777f7	-0.22604357
118	0x3e385168	0.17999804
119	0x3e6ff07f	0.23431586
120	0x3e2054fd	0.1565742
121	0x3e1d0b77	0.15336405
122	0xbdae2d70	-0.0850476
123	0x3e5c3421	0.2150426
124	0xbdd88234	-0.10571709
125	0x3dd58465	0.10425643
126	0xbe726eea	-0.23675123
127	0x3e63c35b	0.22242491
128	0xbe432e9d	-0.1906075
129	0xbe580948	-0.2109729
130	0x3de66a56	0.11250751
131	0x3e655b64	0.22398144
132	0xbe497dc7	-0.19676886
133	0x3e783db1	0.24242283
134	0x3d4e4fdd	0.050369132
135	0x3dfbe9b5	0.123004355
136	0x3d050eff	0.032485005
137	0xbe895421	-0.26821998
138	0x3e608c11	0.21928431
139	0x3e491b49	0.19639315
140	0x3e12279b	0.14272921
141	0x3c971982	0.01844478
142	0x3dbbb986	0.09166245
143	0x3be6aea0	0.00703986
144	0x3d9f0727	0.07765036
145	0xbd01d7da	-0.031699993
146	0x3e7388a0	0.23782587
147	0xbdaf775e	-0.08567689
148	0xbd294205	-0.041322727
149	0x3d9a3cda	0.07531138
150	0x3e5ff33e	0.21870133
151	0xbe120f16	-0.14263567
152	0xbde596ad	-0.1121038
153	0xbe603d8c	-0.21898478
154	0x3e3b48d9	0.18289508
155	0x3e726712	0.2367213
156	0x3d58549b	0.05281506
157	0xbe5169c2	-0.204505
158	0xbe447ee5	-0.19189031
159	0x3e48bb85	0.19602783
160	0x3d070019	0.032959078
161	0x3d4de6af	0.050268825
162	0xbe25d18a	-0.16193214
163	0xbe582795	-0.2110885
164	0xbdeef91f	-0.1166861
165	0xbe7c60b4	-0.24646264
166	0x3e2a12df	0.16608761
167	0x3da8cb4c	0.08241901
168	0xbe453aed	-0.1926076
169	0x3e84e8bd	0.25958815
170	0xbd819fd7	-0.06329315
171	0x3e00cc48	0.12577927
172	0x3d22d204	0.039751068
173	0x3d956432	0.07294501
174	0xbc662ee2	-0.014049264
175	0xbb8788ae	-0.0041361665
176	0xbe09ad84	-0.13445097
177	0x3dbdc52e	0.09266125
178	0x3d1837dc	0.037162647
179	0x3e3a61af	0.18201326
180	0xbe422e6d	-0.18963023
181	0x3dce22c0	0.10065222
182	0x3da64fc3	0.08120682
183	0x3aff3157	0.001946966
184	0xbe1e671b	-0.15469019
185	0xbe10171f	-0.1407132
186	0x3e41dd8f	0.18932174
187	0x3e299aa9	0.16562904
188	0x3de490ba	0.11160417
189	0xbe6493af	-0.22321962
190	0xbe3068e8	-0.17227519
191	0x3d943280	0.072361946
192	0x3e807b65	0.25094143
193	0xbe722f4a	-0.23650852
194	0x3d865e13	0.06560912
195	0xbe76e617	-0.2411121
196	0xbe7b8a83	-0.24564557
197	0xbe3c4356	-0.18385062
198	0xbe03fcf2	-0.1288946
199	0xbe1f1571	-0.15535523
200	0xbe180134	-0.14844209
201	0x3c97e01b	0.018539479
202	0xbd7a5583	-0.061116707
203	0x3e1c0820	0.15237474
204	0x3d7861a4	0.060639992
205	0xbdc8715f	-0.09787249
206	0xbe286441	-0.16444494
207	0x3e4428bf	0.19156168
208	0xbc1274cd	-0.00893898
209	0x3d58c0e2	0.052918322
210	0x3dee3a73	0.11632242
211	0xbd44b032	-0.048019595
212	0xbdfa2e57	-0.1221587
213	0x3bcef719	0.0063160774
214	0xbe13476e	-0.14382717
215	0x3dfc260c	0.12311944
216	0x3dc0a07d	0.09405611
217	0xbdf8d13a	-0.12149282
218	0xbd9b55e1	-0.075847395
219	0x3d4d28e3	0.05008782
220	0x3d0b5136	0.034012996
221	0x3d210196	0.039308153
222	0xbe04c473	-0.12965564
223	0x3d3e1cc4	0.04641415
224	0xbdd95eb4	-0.10613766
225	0x3d1f1b96	0.038844667
226	0x3be37785	0.006941738
227	0x3c861e44	0.016371854
228	0xbdc892d7	-0.097936325
229	0xbe519258	-0.20465982
230	0xbe3bab30	-0.18327022
231	0x3d58b47f	0.05290651
232	0x3dee853c	0.11646506
233	0xbd4a0011	-0.04931647
234	0x3e3324dd	0.17494531
235	0xbdd2a162	-0.102846876
236	0x3e02ae7b	0.12761872
237	0x3d31a8a1	0.043373708
238	0x3e66c379	0.22535504
239	0x3e3a41a6	0.18189105
240	0xbd8db4be	-0.069192395
241	0x3ae791a8	0.001766731
242	0xbe40ed8b	-0.18840615
243	0x3e13fba5	0.14451464
244	0xbd6a97bc	-0.05727361
245	0xbe4905ab	-0.19631068
246	0xbdda2337	-0.10651248
247	0xbe6ccadb	-0.23124258
248	0xbd95e90e	-0.07319842
249	0xbda72f04	-0.081632644
250	0xbe792329	-0.24329819
251	0x3d8f434d	0.069952585
252	0xbe399c90	-0.1812613
253	0x3d6809e2	0.05665005
254	0xbdf1f435	-0.11814157
255	0x3cb1dedc	0.021712713

gnn_base.gnn.gnn1.lin_value.bias f4 [48]
0	0x3e0bd097	0.1365379
1	0xbde28969	-0.11061365
2	0xbde099a1	-0.109668024
3	0xbe5777f2	-0.2104185
4	0x3dcd3699	0.10020179
5	0x3e596ccc	0.21232909
6	0x3d603008	0.054733306
7	0x3e456c28	0.1927954
8	0xbe47991b	-0.19491999
9	0xbe7bede2	-0.24602464
10	0x3dd750b3	0.10513439
11	0xbe0426cd	-0.12905426
12	0x3e48bbe4	0.19602925
13	0xbbcf41b6	-0.006324972
14	0x3d1f561e	0.038900487
15	0x3d9f1438	0.07767528
16	0xbe4ebac1	-0.20188428
17	0xbd6a84de	-0.05725562
18	0x3e3ae874	0.18252736
19	0xbdb5e5f5	-0.088817514
20	0x3d3930dc	0.04521261
21	0xbdec921f	-0.11551308
22	0x3cec75d7	0.028864784
23	0xbe04c7ec	-0.12966889
24	0xbd8aeac0	-0.06783056
25	0x3e07fc04	0.1327973
26	0x3bc9e0c6	0.0061608283
27	0x3e14755e	0.14497897
28	0x3e0fe5c2	0.1405249
29	0x3e5086e6	0.2036396
30	0xbd806af2	-0.06270398
31	0x3d4567de	0.04819476
32	0x3d6288e9	0.05530635
33	0xbe1d3a1d	-0.153542
34	0x3e1524bd	0.14564796
35	0xbe246638	-0.16054618
36	0xbe602d80	-0.21892357
37	0x3e802130	0.2502532
38	0x3cb055c4	0.021525271
39	0x3e253510	0.16133523
40	0x3e51d55d	0.20491548
41	0xbe59e40e	-0.21278402
42	0xbe4187cd	-0.1889946
43	0x3d25eb23	0.040507447
44	0x3d03abb9	0.03214619
45	0xbc5d5b7a	-0.013510579
46	0xbe14adef	-0.14519475
47	0x3d652dfe	0.055952065

gnn_base.gnn.gnn1.lin_edge.weight f4 [48, 1]
0	0x3f042668	0.51621103
1	0xbf320872	-0.69544137
2	0x3f2eeca1	0.6832982
3	0xbd863346	-0.065527484
4	0x3f53219f	0.82473177
5	0x3b3c0451	0.0028689096
6	0x3e6783c5	0.2260886
7	0xbf07171c	-0.5276964
8	0xbe9936cb	-0.29924616
9	0x3e2b0cd1	0.16704108
10	0x3e217db0	0.15770602
11	0x3f307a55	0.68936664
12	0xbf1a2191	-0.6020747
13	0x3e69f8f5	0.22848876
14	0xbf03a969	-0.51430374
15	0xbe4af6e0	-0.19820738
16	0xbf2747e9	-0.653441
17	0x3f41b97e	0.75673664
18	0x3f2b8e7e	0.670143
19	0xbf5d284c	-0.86389613
20	0xbf44a5db	-0.76815575
21	0x3eac02db	0.3359593
22	0xbf42f3cc	-0.76153255
23	0xbeddcbb6	-0.43319482
24	0xbf7e6bff	-0.9938354
25	0xbf35d787	-0.71031994
26	0x3f402dd0	0.75069904
27	0xbf17f9d7	-0.593656
28	0x3f24446e	0.64166915
29	0x3e8cc18f	0.27491423
30	0xbf2cbeda	-0.67478716
31	0xbe6fde11	-0.23424555
32	0xbd864ea1	-0.06557966
33	0x3f2ad770	0.6673498
34	0xbf6d8130	-0.9277525
35	0x3f470b49	0.77751595
36	0xbf742665	-0.95371085
37	0xbf372609	-0.7154241
38	0xbf2c055f	-0.67195696
39	0x3ead091d	0.33796015
40	0xbf34e405	-0.7066043
41	0xbf4a77b2	-0.7908889
42	0x3ec2668b	0.3796886
43	0xbf3e9cae	-0.74457824
44	0xbf34f584	-0.7068713
45	0x3f63a18b	0.8891837
46	0x3f13407b	0.57520264
47	0xbf393039	-0.72339207
