onpolicy/results/GraphMPE/navigation_graph/rmappo/crap_bad/run13/models/actor.pt (torch, 196085 bytes, 62 tensors)

gnn_base.gnn.embed_layer.entity_embed.weight f4 [3, 2]
1.5519893 -0.29428795 -2.1720917 0.56806135 -1.0869149 -1.3979198
00000000: 96a7 c63f e9ac 96be 8d03 0bc0 786c 113f
00000010: 0720 8bbf 09ef b2bf

gnn_base.gnn.embed_layer.lin1.0.weight f4 [16, 9]
-0.8289167 -0.5780157 0.25209075 -0.6377101 0.07428759 -0.061338853 -0.4175618 -0.15885052
-0.25021976 0.32994902 -0.055680186 -0.7124037 -0.18684815 -0.24293801 0.19328615 -0.07221381
0.24415454 -0.5494763 0.21883309 -0.8409809 -0.16113997 0.1655217 0.16346627 -0.19241281
-0.10520172 -0.16942275 0.7769052 0.033283852 -0.024670357 -0.5377178 0.41026828 0.01243767
-0.5552452 -0.59592384 -0.16917172 -0.47372463 0.36461586 0.035292134 0.41905776 0.1861794
0.0093234 0.67904514 -0.19797483 -0.4544937 -0.086813 0.45178956 -0.31781483 0.28502226
-0.3689958 -0.9126755 -0.43343633 0.1349408 -0.23469365 -0.03499716 0.08817609 0.18567492
0.4673148 0.48227945 -0.17375238 -0.030661311 -0.13449095 -0.39043695 -0.3254325 0.3032438
0.006044802 0.24667774 0.088192746 0.6367789 -0.40732703 -0.41897675 0.20709878 0.13994713
-0.5740512 0.0003242941 -0.27393448 0.46796137 -0.4534126 0.14354765 0.081686795 -0.37071657
0.057077322 0.07082306 0.02917103 0.2930384 -0.13494813 -0.22334929 0.0033267054 -0.16057554
0.8937409 -0.16000278 -0.23776762 -0.2532708 0.020058086 0.5946028 -0.06870292 -0.3336178
0.6244647 0.39489764 -0.10471939 -0.17461538 -0.1130616 0.40789372 0.08401099 0.0806162
-0.14817432 0.52249444 0.08501247 -0.2661971 -0.0071981 0.52158844 0.16921617 -0.0994916
-0.25331274 -0.65621686 -0.06634436 -0.076263234 0.4182208 0.2913045 -0.048966933 -0.38644463
-0.38478768 0.23997366 0.047856823 0.61745197 -0.23847839 0.047394745 -0.20336556 0.60653824
-0.16277894 -0.37740558 0.33345813 -0.29557106 0.2606973 -0.34573516 0.036921218 0.26343894
-0.33968043 0.2330919 0.04355045 0.41929302 -0.33433628 0.27191457 -0.30741712 -0.66410774
00000000: e333 54bf d6f8 13bf 0a12 813e f840 23bf
00000010: 1824 983d 733e 7bbd a9ca d5be b6a9 22be
00000020: ce1c 80be 14ef a83e e810 64bd 1760 36bf
00000030: 1f55 3fbe bec4 78be ceec 453e d6e4 93bd
00000040: a603 7a3e 7baa 0cbf c815 603e 864a 57bf
00000050: e001 25be 857e 293e b463 273e dd07 45be
00000060: 0074 d7bd 287d 2dbe 42e3 463f a654 083d
00000070: 7d19 cabc e0a7 09bf af0e d23e 5ec7 4b3c
00000080: 8d24 0ebf 778e 18bf 5a3b 2dbe 098c f2be
00000090: eeae ba3e 7c8e 103d bd8e d63e d0a5 3e3e
000000a0: 2dc1 183c e7d5 2d3f eab9 4abe 66b3 e8be
000000b0: 04cb b1bd f650 e73e a0b8 a2be 70ee 913e
000000c0: 04ed bcbe 1aa5 69bf 5eeb ddbe ec2d 0a3e
000000d0: 8853 70be 2f59 0fbd aa95 b43d 9121 3e3e
000000e0: e343 ef3e 55ed f63e 25ec 31be 6e2d fbbc
000000f0: ffb7 09be 5ae7 c7be 179f a6be c542 9b3e
00000100: 7913 c63b 1799 7c3e 669e b43d f103 233f
00000110: 2b8d d0be 1f84 d6be b411 543e 4d4e 0f3e
00000120: 05f5 12bf 0406 aa39 2441 8cbe a298 ef3e
00000130: b225 e8be 28fe 123e 684b a73d 90ce bdbe
00000140: e9c9 693d ae0b 913d 15f8 ee3c 2109 963e
00000150: d82f 0abe adb5 64be db04 5a3b ea6d 24be
00000160: 34cc 643f c5d7 23be 5b79 73be b6ac 81be
00000170: db50 a43c e437 183f 1eb4 8cbd f4cf aabe
00000180: ebdc 1f3f 0630 ca3e 1f77 d6bd 60ce 32be
00000190: d78c e7bd 72d7 d03e f40d ac3d 1b1a a53d
000001a0: 02bb 17be 32c2 053f 051b ae3d fc4a 88be
000001b0: 0ade ebbb d286 053f 0147 2d3e 41c2 cbbd
000001c0: 35b2 81be d4fd 27bf 8ddf 87bd e62f 9cbd
000001d0: 0921 d63e dd25 953e 8d91 48bd 12dc c5be
000001e0: e402 c5be a8bb 753e 8405 443d 5511 1e3f
000001f0: ae33 74be fe20 423d 103f 50be 1746 1b3f
00000200: 86af 26be 4e3b c1be 06bb aa3e 1755 97be
00000210: 1e7a 853e 3304 b1be b43a 173d 78e1 863e
00000220: 98ea adbe a5af 6e3e f561 323d 93ad d63e
00000230: 202e abbe 6338 8b3e c765 9dbe f702 2abf

gnn_base.gnn.embed_layer.lin1.0.bias f4 [16]
-0.0030692131 -0.011240326 0.009238849 -0.005432826 0.0035901084 -0.006494586 0.00038263827 0.0060771317
0.0016587017 -0.004530446 0.013775129 -0.008579346 -0.0050286497 0.010940153 0.010918689 -0.030263243
00000000: da24 49bb 5829 38bc 8b5e 173c d905 b2bb
00000010: 0648 6b3b 89d0 d4bb d79c c839 ad22 c73b
00000020: cb68 d93a 2374 94bb 14b1 613c 6390 0cbc
00000030: 5fc7 a4bb 543e 333c 4de4 323c 9fea f7bc

gnn_base.gnn.embed_layer.lin1.2.weight f4 [16]
1.0238053 0.9760492 1.0003107 1.0001506 1.0159115 0.98482907 1.0106995 1.002719
0.9797695 1.0027872 0.99934936 0.9831561 0.99153334 1.0056826 1.0007232 1.0186623
00000000: 0d0c 833f 5cde 793f 2e0a 803f ef04 803f
00000010: 6309 823f c21d 7c3f 9a5e 813f 1959 803f
00000020: 2dd2 7a3f 555b 803f 5cd5 7f3f 1eb0 7b3f
00000030: 21d5 7d3f 35ba 803f b317 803f 8763 823f

gnn_base.gnn.embed_layer.lin1.2.bias f4 [16]
-0.005942933 0.01612456 0.016269505 0.0011368938 0.007296691 -0.00024316186 0.006593294 0.009918312
0.006595154 -0.002355599 0.013026706 0.0095649315 0.017409852 0.01776578 0.012504311 -0.019991327
00000000: efbc c2bb a717 843c a047 853c d303 953a
00000010: 1519 ef3b 44f9 7eb9 8f0c d83b 6a80 223c
00000020: 291c d83b 6560 1abb f76d 553c 3bb6 1c3c
00000030: 1b9f 8e3c 8b89 913c e2de 4c3c dac4 a3bc

gnn_base.gnn.embed_layer.lin_h.0.weight f4 [16, 16]
0.74521226 0.39925385 0.3448451 -0.17990127 0.036850054 0.07188387 0.058179572 0.3271403
0.35649452 0.18282051 0.043146096 -0.103587 0.008110775 0.83632654 0.37922567 -0.024864338
0.27182275 -0.108737595 -0.42352077 0.5756861 -0.31838632 -0.13075587 0.28912926 -0.2789047
0.03327135 0.50565016 -0.58252066 0.110591 -0.6453301 0.04457016 0.21255536 -0.22734658
0.2912187 -0.8253026 0.04761614 0.19163713 -0.42654186 0.23265229 -0.20185725 -0.2712159
-0.19304262 -0.0126481075 0.23183851 -0.79946107 0.23978886 0.23454408 0.029059984 0.032231245
0.14561607 0.037174057 0.028096372 0.59997296 0.055420134 -0.34592068 0.013926689 -0.24239662
0.5252014 0.23363435 0.4316611 0.21467948 0.23891012 0.2098463 -0.84911466 0.22366318
-0.60708994 0.019972831 0.28020468 0.16568114 -0.33720642 0.66278845 -0.29434022 0.25974542
0.29219082 0.24088864 -0.5915267 0.076360434 0.25618708 0.31644332 -0.29859805 -0.25280625
-0.3148711 -0.53480804 0.042603537 -0.15541814 0.5194336 0.074790396 -0.22358781 -0.42917767
0.18813957 0.17684406 -0.12881419 0.38273153 -0.15997618 0.42491415 0.37898573 0.7069338
0.26747307 0.47587597 -0.4511152 0.2467067 0.23662935 0.54074496 -0.80137825 -0.2443183
-0.34038693 -0.28655097 0.10728482 0.01573874 -0.33209366 0.16567147 -0.19709925 0.03193946
-0.02162118 0.18842258 -0.10351772 -0.062155705 0.27399233 0.36760446 0.46664414 -0.85441774
0.5111829 -0.41771585 -0.0872948 -0.15845367 0.30190024 -0.012061083 0.15569587 -0.45541835
0.103831545 -0.3241623 0.77679574 0.5902194 0.26710612 0.04617781 -0.25674617 0.098256364
0.10631869 -0.3019141 0.23512821 0.32836375 -0.3103186 -0.2714107 0.3117016 -0.50063246
0.30176342 -0.42681038 0.065394774 -0.57559997 -0.022355976 0.57387525 0.4102442 0.061163414
8.111742e-05 0.01406019 0.19537097 0.32585502 -0.57563454 -0.002567464 -0.62923825 -0.13211554
-0.08692344 0.2094084 6.195584e-05 0.2504753 -0.81163853 0.35377502 0.24976344 0.03178079
0.26545903 -0.4777655 0.31584236 0.26948828 -0.14874211 -0.11436937 0.33165252 0.6498015
0.08715714 -0.010930255 0.14343064 0.3869894 0.12625927 0.14770651 0.5631039 -0.037985835
-0.90259486 -0.1915743 -0.15179214 0.43183172 0.465189 0.4240305 -0.06520104 0.06566285
-0.12647954 -0.40965363 -0.6058422 0.13914938 0.15345326 -0.2714464 0.065716624 0.57136977
0.30160874 -0.7923161 -0.15980415 -0.007293048 -0.093838155 0.4591247 -0.07727771 -0.1785221
-0.24124445 0.21611467 0.56650424 -0.22415055 -0.3302785 -0.5445718 -0.082193315 -0.46283826
-0.20061225 -0.45762774 -0.27937105 -0.20565118 -0.5077131 0.40502074 -0.32463157 0.00992983
0.54358655 -0.22794315 -0.089557186 -0.3655388 -0.45647657 -0.25400138 -0.49319988 -0.23721437
0.08309429 -0.1942034 -0.34756243 0.6943536 0.49240452 -0.15184017 0.011233258 -0.15912862
-0.4882324 0.013685698 -0.2825806 -0.16672951 -0.33186087 -0.13538684 -0.08648764 -0.1693908
-0.16183825 0.281136 0.7697157 0.34141603 -0.032152407 0.47623423 0.2728748 -0.6104153
00000000: 3bc6 3e3f 006b cc3e 898f b03e 0a38 38be
00000010: 15f0 163d da37 933d b44d 6e3d ef7e a73e
00000020: 7386 b63e 4d35 3b3e f6b9 303d 6c25 d4bd
00000030: 0ee3 043c 7f19 563f de29 c23e 4cb0 cbbc
00000040: 5a2c 8b3e d1b1 debd b7d7 d8be 2a60 133f
00000050: 8803 a3be dee4 05be c008 943e 99cc 8ebe
00000060: 8a47 083d 4a72 013f 1320 15bf 897d e23d
00000070: 5a34 25bf 338f 363d 1da8 593e 8bcd 68be
00000080: 9e1a 953e 0847 53bf 2409 433d 863c 443e
00000090: b263 dabe 673c 6e3e abb3 4ebe cfdc 8abe
000000a0: f7ac 45be 023a 4fbc 1367 6d3e 7ba9 4cbf
000000b0: 368b 753e 532c 703e 340f ee3c e904 043d
000000c0: 611c 153e d343 183d 5d2a e63c d497 193f
000000d0: 3900 633d 841c b1be c42c 643c d236 78be
000000e0: 9973 063f d83d 6f3e af02 dd3e f0d4 5b3e
000000f0: dba4 743e f3e1 563e 945f 59bf f607 653e
00000100: 3f6a 1bbf 109e a33c fd76 8f3e 51a8 293e
00000110: 52a6 acbe 81ac 293f c3b3 96be 5afd 843e
00000120: 099a 953e 83ab 763e 4b6e 17bf dc62 9c3d
00000130: f42a 833e dc04 a23e d8e1 98be d26f 81be
00000140: c936 a1be 2ee9 08bf 0c81 2e3d ef25 1fbe
00000150: 9af9 043f b52b 993d 34f4 64be 2dbd dbbe
00000160: a9a7 403e 9c16 353e dee7 03be 63f5 c33e
00000170: ccd0 23be 598e d93e 6b0a c23e 9df9 343f
00000180: 3bf2 883e 04a6 f33e 92f8 e6be aea0 7c3e
00000190: f74e 723e 436e 0a3f 2027 4dbf 942e 7abe
000001a0: 3247 aebe cfb6 92be 25b8 db3d 88ee 803c
000001b0: 2e08 aabe c8a5 293e 63d4 49be f4d2 023d
000001c0: e71e b1bc d9f1 403e 1901 d4bd fb96 7ebd
000001d0: b948 8c3e a736 bc3e fbeb ee3e 1fbb 5abf
000001e0: e2dc 023f dade d5be 9ec7 b2bd ae41 22be
000001f0: ab92 9a3e d99b 45bc bd6e 1f3e 982c e9be
00000200: a2a5 d43d 9af8 a5be 16dc 463f 9e18 173f
00000210: 22c2 883e f124 3d3d 3c74 83be a23a c93d
00000220: 9dbd d93d 7c94 9abe 73c5 703e 4b1f a83e
00000230: 14e2 9ebe 58f6 8abe 5a97 9f3e 7329 00bf
00000240: bc80 9a3e e486 dabe b2ed 853d 855a 13bf
00000250: e123 b7bc 7de9 123f 870b d23e 7d86 7a3d
00000260: 951d aa38 b65c 663c 540f 483e 78d6 a63e
00000270: c95c 13bf e642 28bb c215 21bf 4c49 07be
00000280: eb04 b2bd 286f 563e 4aee 8138 4c3e 803e
00000290: 8bc7 4fbf 0022 b53e fdc1 7f3e 932c 023d
000002a0: 3fea 873e ae9d f4be 17b6 a13e 5efa 893e
000002b0: da4f 18be 7d3a eabd 5cce a93e 6459 263f
000002c0: 717f b23d d014 33bc 7bdf 123e 7a23 c63e
000002d0: 1c4a 013e 6040 173e 9427 103f 0997 1bbd
000002e0: 7510 67bf 0e2c 44be 666f 1bbe 0c19 dd3e
000002f0: 412d ee3e 871a d93e 1f88 85bd 3f7a 863d
00000300: da83 01be 1fbe d1be 7918 1bbf 2d7d 0e3e
00000310: da22 1d3e 06fb 8abe 7096 863d 4a45 123f
00000320: 766c 9a3e 3ad5 4abf b3a3 23be 85fa eebb
00000330: 382e c0bd 6512 eb3e c743 9ebd 7fce 36be
00000340: c908 77be 2a4d 5d3e 6c06 113f b987 65be
00000350: 431a a9be 0f69 0bbf f854 a8bd 23f9 ecbe
00000360: 4c6d 4dbe 2f4e eabe b909 8fbe 3996 52be
00000370: 7cf9 01bf e15e cf3e 1c36 a6be bab0 223c
00000380: 7d28 0b3f ee69 69be c269 b7bd e727 bbbe
00000390: 4cb7 e9be 780c 82be b284 fcbe 53e8 72be
000003a0: 572d aa3d 42dd 46be b4f3 b1be 28c1 313f
000003b0: 721c fc3e fd7b 1bbe b30b 383c 9df2 22be
000003c0: 99f9 f9be fa39 603c 68ae 90be 24bb 2abe
000003d0: abe9 a9be d9a2 0abe 6f20 b1bd c874 2dbe
000003e0: edb8 25be 0ff1 8f3e 170c 453f 15ce ae3e
000003f0: 3eb2 03bd f9d4 f33e 3fb6 8b3e 2d44 1cbf

gnn_base.gnn.embed_layer.lin_h.0.bias f4 [16]
0.0 0.0 0.0 0.0 0.0 0.0 0.0 0.0
0.0 0.0 0.0 0.0 0.0 0.0 0.0 0.0
00000000: 0000 0000 0000 0000 0000 0000 0000 0000
00000010: 0000 0000 0000 0000 0000 0000 0000 0000
00000020: 0000 0000 0000 0000 0000 0000 0000 0000
00000030: 0000 0000 0000 0000 0000 0000 0000 0000

gnn_base.gnn.embed_layer.lin_h.2.weight f4 [16]
1.0238053 0.9760492 1.0003107 1.0001506 1.0159115 0.98482907 1.0106995 1.002719
0.9797695 1.0027872 0.99934936 0.9831561 0.99153334 1.0056826 1.0007232 1.0186623
00000000: 0d0c 833f 5cde 793f 2e0a 803f ef04 803f
00000010: 6309 823f c21d 7c3f 9a5e 813f 1959 803f
00000020: 2dd2 7a3f 555b 803f 5cd5 7f3f 1eb0 7b3f
00000030: 21d5 7d3f 35ba 803f b317 803f 8763 823f

gnn_base.gnn.embed_layer.lin_h.2.bias f4 [16]
-0.005942933 0.01612456 0.016269505 0.0011368938 0.007296691 -0.00024316186 0.006593294 0.009918312
0.006595154 -0.002355599 0.013026706 0.0095649315 0.017409852 0.01776578 0.012504311 -0.019991327
00000000: efbc c2bb a717 843c a047 853c d303 953a
00000010: 1519 ef3b 44f9 7eb9 8f0c d83b 6a80 223c
00000020: 291c d83b 6560 1abb f76d 553c 3bb6 1c3c
00000030: 1b9f 8e3c 8b89 913c e2de 4c3c dac4 a3bc

gnn_base.gnn.embed_layer.lin2.0.0.weight f4 [16, 16]
0.77113575 0.3717712 0.3594806 -0.16288002 0.008381232 0.07906206 0.031248162 0.34451747
0.33719355 0.17730801 0.0071853693 -0.13336751 0.06690008 0.82489514 0.40982488 -0.05378965
0.24255602 -0.07290723 -0.42661232 0.5718514 -0.3235568 -0.1239359 0.28185105 -0.29799628
0.05819916 0.5082277 -0.56545544 0.122351184 -0.6603687 0.0525288 0.21426433 -0.22067228
0.27223894 -0.80972815 0.037770964 0.18270667 -0.42437327 0.22110859 -0.2029979 -0.27393758
-0.18055317 0.001983306 0.25578058 -0.7885509 0.20958427 0.25021353 0.003691754 0.038992997
0.18877529 0.0315008 0.044549268 0.60416085 0.0010417013 -0.3497282 -0.032175664 -0.21576957
0.49225065 0.26061404 0.4074667 0.19497433 0.2712824 0.20562893 -0.8566768 0.2217544
-0.6023069 -0.0026018247 0.2894875 0.16541393 -0.3320818 0.6699782 -0.30360442 0.2600384
0.27356073 0.23220031 -0.59487975 0.08108635 0.2525769 0.3376176 -0.30299962 -0.2541196
-0.30725574 -0.5213674 0.06483333 -0.108267374 0.5329993 0.050341837 -0.2014633 -0.40982792
0.19908619 0.18856959 -0.14882469 0.35013548 -0.20977765 0.4068086 0.33709624 0.7109725
0.24534051 0.4981249 -0.44638783 0.22879155 0.22170548 0.5249974 -0.80251634 -0.24034101
-0.3317979 -0.26989365 0.12355645 0.032619342 -0.36439228 0.17998901 -0.18889926 0.044309873
-0.039257444 0.1774438 -0.1110298 -0.059631392 0.29251564 0.35937235 0.48679206 -0.87710905
0.51915306 -0.42969838 -0.07389279 -0.1489213 0.28313607 0.006034787 0.15381075 -0.46063668
0.11771847 -0.34603244 0.78342617 0.59453815 0.2659514 0.048290163 -0.25938082 0.106249444
0.10446551 -0.3043024 0.21702929 0.32280424 -0.28199756 -0.29628855 0.30911064 -0.51395863
0.30963424 -0.41965103 0.05974962 -0.5856911 -0.024012012 0.5814917 0.4308722 0.052904975
0.0120750135 -0.0036753211 0.22622834 0.33532625 -0.56984884 -0.036035273 -0.646069 -0.11816084
-0.09343542 0.21356714 0.013566292 0.23758143 -0.82113075 0.34722966 0.23949745 0.036317565
0.2881802 -0.47557905 0.3366846 0.2849872 -0.17118347 -0.106283985 0.3048815 0.6536399
0.10518909 -0.022421557 0.13412794 0.40309346 0.12533459 0.14289431 0.56142306 -0.035784602
-0.907088 -0.1921595 -0.1492232 0.4327884 0.46702904 0.41627946 -0.059050098 0.0574289
-0.11484845 -0.41340655 -0.6031904 0.14890073 0.1630977 -0.267535 0.08418097 0.5675015
0.30161837 -0.8035777 -0.16842368 -0.00722999 -0.07828772 0.42842072 -0.08454257 -0.18135841
-0.24523254 0.22017325 0.55818516 -0.23404242 -0.35471258 -0.5263484 -0.115655825 -0.45741665
-0.20164788 -0.44571328 -0.25873914 -0.19964975 -0.48565865 0.4216613 -0.3024436 0.014408373
0.5556956 -0.22818837 -0.09664422 -0.35764742 -0.44963655 -0.2485073 -0.4856816 -0.21682131
0.06800655 -0.17907855 -0.3720007 0.67833304 0.48795503 -0.17725667 -0.015354811 -0.1559968
-0.51610506 -0.021170916 -0.305302 -0.20147678 -0.31807673 -0.117760845 -0.10095115 -0.2036192
-0.19301172 0.24686159 0.7603058 0.36593 0.018244496 0.50939834 0.32742727 -0.651583
00000000: 2769 453f cb58 be3e d70d b83e 05ca 26be
00000010: 6f51 093c 4aeb a13d 25fc ff3c 9864 b03e
00000020: a2a4 ac3e 3b90 353e 3f73 eb3b 7e91 08be
00000030: e902 893d 542c 533f 91d4 d13e 8952 5cbd
00000040: 9b60 783e 6350 95bd ee6c dabe da64 123f
00000050: 3da9 a5be 1bd2 fdbd c84e 903e f892 98be
00000060: 3e62 6e3d 361b 023f b0c1 10bf 4293 fa3d
00000070: ec0d 29bf 7028 573d 1c68 5b3e eaf7 61be
00000080: e762 8b3e 584a 4fbf bab5 1a3d 7517 3b3e
00000090: 7447 d9be 4a6a 623e aede 4fbe 8c41 8cbe
000000a0: eee2 38be 5afa 013b acf5 823e 79de 49bf
000000b0: 429d 563e fd1b 803e 5bf1 713b 1fb7 1f3d
000000c0: 4f4e 413e fc06 013d 4b79 363d 49aa 1a3f
000000d0: b289 883a 930f b3be a1ca 03bd b3f2 5cbe
000000e0: 4708 fc3e 346f 853e 7a9f d03e 5aa7 473e
000000f0: 87e5 8a3e 6490 523e 2c4f 5bbf 9613 633e
00000100: c930 1abf 6083 2abb b537 943e 4562 293e
00000110: a006 aabe b183 2b3f 0a72 9bbe c123 853e
00000120: 2710 8c3e ebc5 6d3e 0a4a 18bf 9a10 a63d
00000130: c251 813e 37dc ac3e c422 9bbe f71b 82be
00000140: a050 9dbe 5578 05bf 56c7 843d 49bb ddbd
00000150: a472 083f 3e33 4e3d 654c 4ebe f7d4 d1be
00000160: 40dd 4b3e 6318 413e 8065 18be f544 b33e
00000170: f4cf 56be 3849 d03e e197 ac3e 4b02 363f
00000180: 8b3a 7b3e 3a0a ff3e f28c e4be 5548 6a3e
00000190: c306 633e 3b66 063f b671 4dbf f41b 76be
000001a0: 6ae1 a9be 802f 8abe 2a0b fd3d dc9b 053d
000001b0: a091 babe 0a4f 383e cf6e 41be 457e 353d
000001c0: 6acc 20bd d4b3 353e 9763 e3bd 0c40 74bd
000001d0: 9cc4 953e a7ff b73e cf3c f93e 388a 60bf
000001e0: 37e7 043f 6d01 dcbe 1a55 97bd d37e 18be
000001f0: 36f7 903e 76bf c53b 9180 1d3e 92d8 ebbe
00000200: 6216 f13d 2a2b b1be 9e8e 483f a733 183f
00000210: c82a 883e e8cb 453d 90cd 84be 4f99 d93d
00000220: 03f2 d53d 86cd 9bbe ed3c 5e3e 9946 a53e
00000230: fc61 90be 22b3 97be c043 9e3e cb92 03bf
00000240: 6188 9e3e 80dc d6be 04bc 743d daef 15bf
00000250: d7b4 c4bc a4dc 143f 489b dc3e e3b2 583d
00000260: 47d6 453c a8dd 70bb 67a8 673e e2af ab3e
00000270: 9de1 11bf b999 13bd c764 25bf 4ffe f1bd
00000280: 125b bfbd 58b1 5a3e 2745 5e3c 8c48 733e
00000290: a035 52bf 16c8 b13e d23e 753e bac1 143d
000002a0: 5b8c 933e 197f f3be ed61 ac3e d8e9 913e
000002b0: b84a 2fbe 6bab d9bd 6e19 9c3e f254 273f
000002c0: 616d d73d 6aad b7bc d658 093e 4462 ce3e
000002d0: b657 003e e352 123e 6cb9 0f3f e092 12bd
000002e0: eb36 68bf 76c5 44be f7cd 18be 7196 dd3e
000002f0: 6e1e ef3e 9522 d53e 84de 71bd 913a 6b3d
00000300: aa35 ebbd 06aa d3be b06a 1abf 6f79 183e
00000310: 1503 273e 59fa 88be 1367 ac3d c747 113f
00000320: b96d 9a3e 45b7 4dbf 4277 2cbe 8de9 ecbb
00000330: 5055 a0bd f659 db3e a824 adbd 05b6 39be
00000340: 3d1e 7bbe 1975 613e 39e5 0e3f d1a8 6fbe
00000350: e39c b5be c5be 06bf f6dc ecbd 8432 eabe
00000360: c87c 4ebe 8834 e4be 7579 84be fc70 4cbe
00000370: 40a8 f8be fde3 d73e e3d9 9abe 1911 6c3c
00000380: 1142 0e3f 36aa 69be 68ed c5bd 901d b7be
00000390: c336 e6be b378 7ebe 42ab f8be 6806 5ebe
000003a0: 0547 8b3d 5e60 37be e076 bebe 3ca7 2d3f
000003b0: 3ed5 f93e c682 35be bf92 7bbc a0bd 1fbe
000003c0: 761f 04bf a16e adbc 8b50 9cbe ee4f 4ebe
000003d0: f4da a2be 992c f1bd 7abf cebd 8d81 50be
000003e0: dda4 45be 49c9 7c3e 67a3 423f 2d5b bb3e
000003f0: 7b75 953c ee67 023f 8ca4 a73e 25ce 26bf

gnn_base.gnn.embed_layer.lin2.0.0.bias f4 [16]
0.024334442 -0.01730817 -0.008291384 0.0030789832 0.010453656 -0.006586905 -0.014620611 0.0152838025
0.010974714 -0.013343908 -0.00015676738 0.011049887 0.001411959 -0.0049232594 -0.002025528 0.035115514
00000000: 0659 c73c ddc9 8dbc 96d8 07bc c4c8 493b
00000010: d045 2b3c f7d6 d7bb 4a8b 6fbc ea68 7a3c
00000020: 49cf 333c 68a0 5abc ec61 24b9 960a 353c
00000030: 7b11 b93a 4b53 a1bb b9be 04bb 49d5 0f3d

gnn_base.gnn.embed_layer.lin2.0.2.weight f4 [16]
0.9973347 0.9969614 0.98156726 0.99028045 0.98938817 1.00644 1.0236781 1.0209955
1.0082903 1.0510613 1.0184335 0.9870363 1.0040541 0.99576616 1.018583 1.0313295
00000000: 5451 7f3f dd38 7f3f fe47 7b3f 0583 7d3f
00000010: 8b48 7d3f 07d3 803f e207 833f fbaf 823f
00000020: a80f 813f 2d89 863f 075c 823f 69ae 7c3f
00000030: d884 803f 88ea 7e3f ee60 823f 9b02 843f

gnn_base.gnn.embed_layer.lin2.0.2.bias f4 [16]
0.014481322 0.0002492066 -0.011624025 -0.0020316844 0.0053396435 -0.01343517 -0.020646714 0.0030327002
0.007963221 -0.019447608 -0.010218084 0.0029601322 -0.0052536814 -0.0009337569 -0.0222245 0.026794745
00000000: 1143 6d3c f2a7 8239 b272 3ebc 0226 05bb
00000010: 2df8 ae3b 301f 5cbc 4c23 a9bc 44c0 463b
00000020: 2b78 023c 9750 9fbc c069 27bc c7fe 413b
00000030: 1327 acbb 5dc7 74ba 2810 b6bc a780 db3c

gnn_base.gnn.gnn1.lin_key.weight f4 [48, 16]
0.07356655 -0.09063576 -0.12005278 0.0020909915 -0.17823267 0.2036216 0.18302776 0.23075578
-0.060489267 0.08937706 0.022106407 -0.19445936 0.112725444 -0.18848231 -0.055084042 -0.1159004
-0.26641443 0.0062400727 0.039939363 -0.022753159 0.18257217 0.030265057 -0.013612019 -0.12791328
-0.15186526 -0.0343508 -0.1351335 -0.13908176 -0.028510965 -0.047942672 -0.15591027 0.14999911
0.23587291 -0.15002006 0.13073678 -0.108341835 -0.024264071 0.2208632 0.049257744 -0.25462762
0.21488163 0.0152011 -0.13835835 -0.121253334 0.22681117 1.5624475e-05 0.14058974 0.13861282
-0.113005325 0.05499702 -0.15537964 0.2307329 -0.1079238 0.13725092 0.03369423 0.15991548
-0.16174969 -0.016899237 0.09908265 -0.013581735 0.020454727 0.12282308 -0.21305367 -0.063361906
0.1004414 0.11786654 0.23172131 -0.048124187 0.10073392 -0.13073742 -0.024795407 -0.09881485
0.18047678 -0.015896032 0.10542358 0.1557906 0.06671924 -0.022571376 -0.019872734 -0.21406274
0.03895271 -0.0691903 -0.22537306 0.23627687 -0.008097428 -0.11487802 -0.20726132 -0.22466077
0.07073335 -0.11334089 -0.07535817 -0.13596132 0.1955056 -0.08696387 0.18548414 0.20262699
-0.19547115 0.17866938 -0.034860186 0.2387019 0.13851228 -0.23607804 0.08666205 0.09387457
-0.10180744 0.19614206 -0.18410844 -0.051418666 0.23377174 0.21252768 0.14373033 -0.16159557
-0.20581175 -0.21687949 -0.06362997 0.12799837 0.05648706 -0.014386958 0.26194552 0.19720307
-0.14435096 -0.10099418 0.023296626 0.08433971 0.016841369 0.09418503 0.197965 -0.033654314
0.12579904 0.00650012 0.08423987 0.101780415 -0.061201464 -0.09930523 0.14025754 -0.14341253
0.1173207 -0.1665558 0.20268236 0.10439658 -0.074097745 0.10650171 -0.051687796 0.05994664
0.07326176 0.039159328 0.03598563 -0.00831846 -0.0629718 0.13891889 0.059556134 0.08370295
0.17556444 -0.12612942 -0.086416855 -0.031441454 0.21251053 -0.17820922 -0.17467982 -0.04354681
-0.22875792 -0.19367346 0.14993352 0.0152281 -0.22108178 -0.042729087 -0.055449367 -0.08200274
-0.19047251 0.13397098 -0.040557124 0.21779512 -0.162287 -0.13515213 -0.042251162 -0.1436424
0.14935023 0.22299223 0.2275858 -0.1379227 0.17076653 0.15244871 -0.14321591 0.02805546
0.15190428 0.17338152 -0.2559233 0.22924128 -0.06470805 0.118535824 -0.18850893 -0.20593847
-0.17011523 0.1400822 -0.105913356 0.14816527 0.07482702 0.10257514 -0.01199298 -0.07744806
-0.12615997 -0.13439916 0.25605717 0.013354437 -0.11775596 -0.25375247 0.03579049 -0.26658624
-0.011940857 0.17338486 -0.115071684 0.14297594 -0.0887177 -0.21050867 -0.2285228 0.10753845
-0.1762305 0.14239345 0.04483215 0.15340444 -0.1958994 0.19238687 -0.2328652 -0.22346784
0.15619813 -0.013546496 -0.15624118 -0.060376037 -0.23180115 -0.19118534 -0.017452378 0.20320204
0.052720364 0.05386388 -0.04495533 0.22503488 -0.01517516 0.06870493 0.023132887 0.06352836
0.0722549 0.22265746 0.15106453 0.04855124 0.094755635 -0.10375859 0.12920372 0.06834138
0.21283686 -0.042987157 -0.24391177 0.030429235 0.1265476 0.2273484 0.05879603 0.08313468
00000000: 0faa 963d 3e9f b9bd 3bde f5bd 0409 093b
00000010: a082 36be 2e82 503e a16b 3b3e 3e4b 6c3e
00000020: 98c3 77bd 520b b73d 7f18 b53c 5b20 47be
00000030: 99dc e63d 8201 41be ce9f 61bd 305d edbd
00000040: 7967 88be 8679 cc3b 7597 233d d564 babc
00000050: 33f4 3a3e 6dee f73c f204 5fbc b3fb 02be
00000060: 9182 1bbe 6db3 0cbd 7060 0abe 736b 0ebe
00000070: d48f e9bc 895f 44bd f1a6 1fbe 5e99 193e
00000080: ab88 713e dc9e 19be dddf 053e 53e2 ddbd
00000090: 72c5 c6bc f629 623e 7dc2 493d 8d5e 82be
000000a0: ee09 5c3e 090e 793c d0ad 0dbe ab53 f8bd
000000b0: 3041 683e 4e11 8337 c2f6 0f3e 85f0 0d3e
000000c0: 566f e7bd 8e44 613d d71b 1fbe 3f45 6c3e
000000d0: 2707 ddbd 818b 0c3e f602 0a3d e2c0 233e
000000e0: b6a1 25be 4570 8abc d8eb ca3d ed85 5ebc
000000f0: ac90 a73c ab8a fb3d be2a 5abe e3c3 81bd
00000100: 39b4 cd3d 0364 f13d 5a48 6d3e de1d 45bd
00000110: 964d ce3d 08e0 05be bd1f cbbc 715f cabd
00000120: e8ce 383e 6538 82bc 51e8 d73d 9287 1f3e
00000130: 19a4 883d 9be7 b8bc 25cc a2bc 4333 5bbe
00000140: e08c 1f3d a5b3 8dbd 32c8 66be 90f2 713e
00000150: 13ab 04bc 2b45 ebbd 503c 54be 790d 66be
00000160: a6dc 903d 451f e8bd 6255 9abd 7239 0bbe
00000170: 9f32 483e 1d1a b2bd 8eef 3d3e 737d 4f3e
00000180: 9729 48be 1bf5 363e 8ec9 0ebd 456e 743e
00000190: 2ad6 0d3e 71be 71be df7b b13d 5041 c03d
000001a0: 6b80 d0bd 77d9 483e ec86 3cbe 619c 52bd
000001b0: dc61 6f3e dba0 593e 0b2e 133e 4f79 25be
000001c0: 51c0 52be a815 5ebe 6e50 82bd 0112 033e
000001d0: fa5e 673d 47b7 6bbc b91d 863e 9aef 493e
000001e0: bdd0 13be 09d6 cebd 91d8 be3c 4cba ac3d
000001f0: e9f6 893c 15e4 c03d 56b7 4a3e 1bd9 09bd
00000200: 77d1 003e f5fe d43b f485 ac3d 4072 d03d
00000210: 63ae 7abd 8a60 cbbd ac9f 0f3e bcda 12be
00000220: d645 f03d 9b8d 2abe f78b 4f3e e0cd d53d
00000230: 8fc0 97bd 921d da3d 95b6 53bd 9c8a 753d
00000240: 430a 963d 8865 203d ab65 133d 264a 08bc
00000250: 5cf7 80bd c140 0e3e 22f1 733d 746c ab3d
00000260: 2ac7 333e 1228 01be 52fb b0bd c1c8 00bd
00000270: 5c9c 593e 7a7c 36be 44df 32be 245e 32bd
00000280: 843f 6abe 5652 46be 2c88 193e 487f 793c
00000290: 4363 62be b204 2fbd e01e 63bd 0df1 a7bd
000002a0: 3a0b 43be b02f 093e 3a1f 26bd af05 5f3e
000002b0: 902e 26be 5265 0abe 8e0f 2dbd fe16 13be
000002c0: 44ef 183e 1358 643e 410c 693e 9c3b 0dbe
000002d0: 6cdd 2e3e 841b 1c3e 31a7 12be 90d4 e53c
000002e0: cc8c 1b3e ed8a 313e 6108 83be 3abe 6a3e
000002f0: a785 84bd e9c2 f23d 7c08 41be 89e1 52be
00000300: b032 2ebe b571 0f3e 1ae9 d8bd a3b8 173e
00000310: e93e 993d ea12 d23d 347e 44bc 179d 9ebd
00000320: 1430 01be ef9f 09be ed19 833e 92cc 5a3c
00000330: 092a f1bd d8eb 81be 0d99 123d fe7d 88be
00000340: 96a3 43bc cd8b 313e b4aa ebbd 4968 123e
00000350: a0b1 b5bd 968f 57be e201 6abe 1e3d dc3d
00000360: c575 34be 97cf 113e eba1 373d 0e16 1d3e
00000370: da99 48be 1001 453e 3774 6ebe c1d4 64be
00000380: 67f2 1f3e 1ff2 5dbc b0fd 1fbe dd4c 77bd
00000390: 485d 6dbe 17c6 43be 4af8 8ebc 3214 503e
000003a0: 4ff1 573d 5fa0 5c3d 1523 38bd 8b6f 663e
000003b0: 3ca1 78bc 2cb5 8c3d 2e81 bd3c 281b 823d
000003c0: 61fa 933d 5100 643e a9b0 1a3e aadd 463d
000003d0: 3e0f c23d 627f d4bd fb4d 043e 91f6 8b3d
000003e0: e8f1 593e 4d13 30bd 02c4 79be bb46 f93c
000003f0: b295 013e 05ce 683e 1bd4 703d 8442 aa3d

gnn_base.gnn.gnn1.lin_key.bias f4 [48]
0.10677543 0.07466018 0.13652939 -0.20090008 0.077276796 -0.23677328 -0.16441637 -0.09316352
-0.024357352 -0.23592618 0.0062217982 0.03991413 -0.09921652 0.081088305 0.21845582 -0.04270366
-0.13314465 -0.2214571 -0.1825507 -0.13827187 -0.18481857 -0.09828758 0.13772121 0.07823053
0.22533101 0.24821171 -0.09002671 -0.09790477 0.03421125 -0.19907054 0.13597974 -0.044994473
-0.20933223 -0.18874541 -0.17226708 0.06871304 0.19164261 0.19806316 -0.068838745 -0.14521399
-0.110958725 -0.17077985 -0.06445542 -0.22578555 0.13362437 -0.23529881 -0.15551364 0.16777506
00000000: 14ad da3d 70e7 983d 5cce 0b3e c0b8 4dbe
00000010: 4c43 9e3d b274 72be c45c 28be 84cc bebd
00000020: 1289 c7bc a296 71be 3ae0 cb3b 007d 233d
00000030: 0832 cbbd a011 a63d e2b2 5f3e 08ea 2ebd
00000040: 1257 08be a6c5 62be 92ee 3abe 2497 0dbe
00000050: 1441 3dbe 004b c9bd ca06 0d3e 5437 a03d
00000060: 2cbd 663e 362b 7e3e ec5f b8bd 4c82 c8bd
00000070: 1821 0c3d 26d9 4bbe 463e 0b3e 204c 38bd
00000080: 305b 56be 7a46 41be c866 30be 6cb9 8c3d
00000090: f63d 443e 12d1 4a3e 54fb 8cbd fab2 14be
000000a0: 543e e3bd eae0 2ebe 3401 84bd 5434 67be
000000b0: d4d4 083e 2cf2 70be f83e 1fbe 3acd 2b3e

gnn_base.gnn.gnn1.lin_query.weight f4 [48, 16]
-0.18354356 0.05125614 0.15903945 0.24626614 0.09110323 -0.03481267 0.1661529 -0.016383586
-0.09223855 0.040637363 0.0653061 0.17515203 0.1140896 0.13211046 0.019371139 -0.01144271
0.0989788 0.046754096 -0.23666087 0.030389134 -0.14183939 -0.13270563 0.08302414 0.059857454
0.05708253 -0.11330169 0.10008118 0.22796299 0.033578683 0.097065225 -0.23045662 0.17836325
0.06967704 0.11294491 0.11956869 -0.07054826 -0.0167032 0.25517735 0.17986007 -0.1685722
0.20499067 0.24188738 0.030814609 -0.19553716 0.024926368 -0.032224655 0.16470957 -0.22042008
0.05761166 -0.009735896 0.015033312 0.17864537 -0.02763593 -0.20745139 -0.1405498 -0.10618474
0.029254885 0.1166178 -0.04868682 -0.08905863 0.09485105 -0.24255468 0.18414244 -0.026628477
0.19118415 0.20887555 0.03240002 0.087934285 -0.09888911 0.15503538 0.14633743 -0.043217193
0.09882482 -0.032152355 0.19799472 0.10062868 0.19339648 -0.2418623 0.24908474 0.0633719
0.09086278 0.04577601 0.19224365 0.21503295 0.004014172 -0.22242928 0.19737962 -0.011171214
-0.09768605 0.11250261 0.10527986 0.04773987 -0.029286519 -0.0873613 0.24394922 0.16116455
0.1522612 0.16374847 -0.14041646 0.057227593 -0.18463589 0.11469806 -0.25163913 -0.24744974
-0.23423515 0.15351568 0.010515285 -0.0026344673 0.052230924 -0.12543993 -0.078214996 -0.20725974
-0.054298572 -0.15656339 -0.023800096 0.2009842 -0.24050201 0.15060097 -0.14705828 -0.15081818
0.0053305905 0.08101445 0.25592056 0.014591754 -0.095307775 -0.07380103 0.013761378 -0.16420871
-0.19594221 -0.116617166 0.019746518 -0.1759997 -0.12145292 0.17903586 0.21508034 -0.052542966
-0.21054962 -0.116329476 0.09361067 0.08656977 -0.08202976 -0.20666347 -0.07295666 -0.06662997
0.14680488 -0.11260159 0.14623299 0.0343633 -0.02441331 -0.23132248 0.2432267 -0.029307127
0.16397187 -0.1548053 -0.25098363 -0.19171076 -0.10369205 -0.112425335 -0.031537175 0.19446492
-0.22070092 0.14969477 0.18624133 0.023376567 -0.17770442 0.012166691 0.095144495 0.0763313
-0.10307226 -0.038658876 -0.08032413 -0.26558778 0.09007206 -0.15297934 -0.12967683 -0.022721149
0.21482097 0.2345729 -0.17726107 0.22248973 0.2605982 0.17825584 0.01548535 0.1938519
0.13951112 -0.19856924 -0.14442652 0.0034560366 -0.16176915 -0.10008213 0.1944396 0.09299105
0.24787983 0.021320147 -0.14307371 0.17739967 0.037243858 0.027416999 -0.08217152 0.072939806
-0.21723612 0.21047522 0.25106922 0.082233936 0.20348945 0.14245945 -0.07149045 -0.23961441
0.04176545 0.1507463 -0.03636825 0.02866723 0.20067142 0.0830975 0.17183383 0.04245703
0.044769537 -0.06333041 -0.062161215 -0.13639547 0.18616982 0.21812318 0.08947672 -0.031071706
-0.10946579 -0.25238803 -0.0384462 -0.18105601 -0.17435168 -0.04898781 -0.06726709 0.075878344
-0.1663056 0.15862276 -0.24468619 -0.106690615 -0.09456505 0.0026262132 0.1051645 -0.06982488
0.036475062 -0.05961195 -0.092695884 -0.03953008 0.08281905 -0.26177067 -0.19102535 0.21572599
0.13279039 -0.033962972 -0.0129462 0.03644476 0.07811545 -0.20359544 -0.0675981 -0.2490047
00000000: d8f2 3bbe f5f1 513d 3ddb 223e 312d 7c3e
00000010: 5594 ba3d bb97 0ebd fc23 2a3e df36 86bc
00000020: 91e7 bcbd 5d73 263d 34bf 853d 0e5b 333e
00000030: cfa7 e93d f747 073e 39b0 9e3c 347a 3bbc
00000040: 66b5 ca3d 3981 3f3d 3a57 72be a2f2 f83c
00000050: 583e 11be fce3 07be 8f08 aa3d 172d 753d
00000060: 5fcf 693d b70a e8bd 5df7 cc3d 216f 693e
00000070: cd89 093d 22ca c63d d2fc 6bbe dba4 363e
00000080: d6b2 8e3d a94f e73d 6ee0 f43d 9b7b 90bd
00000090: 26d5 88bc 9ba6 823e 3d2d 383e 319e 2cbe
000000a0: 13e9 513e 53b1 773e eb6e fc3c e53a 48be
000000b0: 6232 cc3c 00fe 03bd a0a9 283e cdb5 61be
000000c0: 34fa 6b3d 4f83 1fbc 484e 763c d0ee 363e
000000d0: bf64 e2bc 236e 54be 49ec 0fbe 6377 d9bd
000000e0: f1a7 ef3c 50d5 ee3d d56b 47bd 5f64 b6bd
000000f0: 4441 c23d 4160 78be d68f 3c3e f723 dabc
00000100: c7c5 433e 79e3 553e e2b5 043d e416 b43d
00000110: 6086 cabd 98c1 1e3e 7bd9 153e 8304 31bd
00000120: ab64 ca3d 30b2 03bd 21bf 4a3e 6916 ce3d
00000130: ba09 463e c0aa 77be 1210 7f3e 20c9 813d
00000140: 4416 ba3d a07f 3b3d 85db 443e 9931 5c3e
00000150: 5189 833b 80c4 63be e21d 4a3e 7807 37bc
00000160: a00f c8bd c567 e63d f89c d73d e28a 433d
00000170: 48ea efbc 7bea b2bd d3cd 793e 5208 253e
00000180: 5cea 1b3e aead 273e 55c9 0fbe 7b67 6a3d
00000190: 3111 3dbe d1e6 ea3d d8d6 80be 7763 7dbe
000001a0: 57db 6fbe 3733 1d3e 4d48 2c3c 07a7 2cbb
000001b0: 18f0 553d 5373 00be 2f2f a0bd e63b 54be
000001c0: 2e68 5ebd 2752 20be 6bf8 c2bc cdce 4d3e
000001d0: 2946 76be 2437 1a3e 7296 16be 1570 1abe
000001e0: 3cac ae3b e7ea a53d 0508 833e 4112 6f3c
000001f0: b930 c3bd ff24 97bd 6777 613c 5426 28be
00000200: 13a5 48be fbd4 eebd 73c3 a13c 4439 34be
00000210: 4fbc f8bd 2d55 373e 053e 5c3e 4b37 57bd
00000220: 529a 57be 263e eebd f3b6 bf3d 7e4b b13d
00000230: 38ff a7bd 979f 53be 4d6a 95bd 4b75 88bd
00000240: 0554 163e aa9b e6bd 1abe 153e 88c0 0c3d
00000250: 6cfe c7bc cddf 6cbe 6c10 793e 8015 f0bc
00000260: 3ee8 273e 4885 1ebe ed80 80be d34f 44be
00000270: 7f5c d4bd 413f e6bd 202d 01bd d021 473e
00000280: 6cff 61be 9649 193e 0cb6 3e3e 3780 bf3c
00000290: 26f8 35be cd56 473c 1edb c23d 9653 9c3d
000002a0: 8d17 d3bd c558 1ebd fa80 a4bd 1ffb 87be
000002b0: b377 b83d 9ea6 1cbe 01ca 04be b421 babc
000002c0: 07fa 5b3e e133 703e ed83 35be 59d4 633e
000002d0: 216d 853e b388 363e 44b6 7d3c 1d81 463e
000002e0: 01dc 0e3e bc55 4bbe 8ce4 13be ac7e 623b
000002f0: d0a6 25be dcf7 ccbd 2d1b 473e 1772 be3d
00000300: 36d4 7d3e 97a7 ae3c ea81 12be 42a8 353e
00000310: 048d 183d 9d99 e03c 8b49 a8bd 7761 953d
00000320: 2573 5ebe d186 573e 258c 803e 446a a83d
00000330: 8a5f 503e e4e0 113e 9669 92bd 7b5d 75be
00000340: 4012 2b3d 3d5d 1a3e e0f6 14bd 8ad7 ea3c
00000350: cf7c 4d3e 062f aa3d 35f5 2f3e 6ce7 2d3d
00000360: 4360 373d 60b3 81bd c29c 7ebd 41ab 0bbe
00000370: 4da3 3e3e af5b 5f3e 923f b73d 178a febc
00000380: 9a2f e0bd 0139 81be c379 1dbd bf66 39be
00000390: 3f89 32be 71a7 48bd 54c3 89bd 1b66 9b3d
000003a0: 044c 2abe 016e 223e 048f 7abe 9c80 dabd
000003b0: 52ab c1bd 8c1c 2c3b 7c60 d73d 5900 8fbd
000003c0: e066 153d a92b 74bd 57d7 bdbd 4bea 21bd
000003d0: 099d a93d ce06 86be 269c 43be 46e7 5c3e
000003e0: 34fa 073e c21c 0bbd 4c1c 54bc 1a47 153d
000003f0: fefa 9f3d 537b 50be df70 8abd 17fb 7ebe

gnn_base.gnn.gnn1.lin_query.bias f4 [48]
0.08042635 0.06613191 -0.22887117 0.09916778 -0.08590707 0.27739885 0.2510345 0.05886791
0.19823977 0.08455777 0.19873847 -0.027200688 0.032775134 -0.032525945 0.0025507659 -0.06875254
-0.08819697 0.1334819 0.10285687 -0.10288814 -0.24380247 0.0953061 -0.22113137 -0.0032132377
-0.21513602 0.20349693 0.19064508 -0.21735846 -0.23138459 -0.12407764 0.06053618 -0.14263257
-0.04210116 -0.08832444 0.038923007 -0.10136736 0.09712666 -0.19511911 0.005910777 0.22028473
-0.1280749 0.20061533 0.1293495 -0.09381256 0.092458256 -0.17217763 0.0013219261 0.059149034
00000000: 92b6 a43d 2b70 873d 345d 6abe 7a18 cb3d
00000010: 0cf0 afbd 3907 8e3e 9887 803e 7a1f 713d
00000020: 5eff 4a3e a02c ad3d 1982 4b3e fad3 debc
00000030: 383f 063d ed39 05bd c02a 273b 22ce 8cbd
00000040: 9da0 b4bd 7baf 083e 9fa6 d23d 04b7 d2bd
00000050: 5ba7 79be d82f c33d 4370 62be 2f95 52bb
00000060: 9e4c 5cbe 8061 503e 7738 433e 3793 5ebe
00000070: 15f0 6cbe 6b1c febd c9f4 773d 460e 12be
00000080: 4472 2cbd 72e3 b4bd bb6d 1f3d b199 cfbd
00000090: 58ea c63d 4ecd 47be 31af c13b 5292 613e
000000a0: 1126 03be 1b6e 4d3e 3274 043e cd20 c0bd
000000b0: c15a bd3d 554f 30be 7b44 ad3a 4246 723d

gnn_base.gnn.gnn1.lin_value.weight f4 [48, 16]
0.20753452 -0.14045306 -0.15535793 -0.12681456 -0.25386742 0.066393055 -0.22064656 -0.041638494
-0.10985084 -0.0040520653 0.07839854 -0.2259245 -0.028077371 -0.010699943 -0.16615307 0.091956586
0.09948089 -0.19655149 0.19684857 0.18229125 -0.09264285 0.031311385 0.030079449 -0.03774408
-0.17297639 0.21969782 0.12821697 -0.19299144 -0.20111997 0.24477756 0.053790104 -0.05526459
0.1558749 0.084657826 0.079005726 0.20965788 -0.0128350975 0.27617633 -0.14727812 -0.15772906
0.012473468 -0.01251918 0.16523698 -0.06619337 0.01408956 -0.012329587 0.15220244 -0.020683903
0.004052702 0.19430046 0.26696703 0.22564854 -0.266423 -0.16080503 -0.054492526 -0.046236992
0.14956424 0.12726021 -0.03792205 0.040081006 0.05217081 0.18388525 0.15352452 -0.1529242
-0.13069129 0.064483695 -0.022240547 -0.1873624 -0.24766502 0.01887934 -0.08919668 -0.14672409
0.046044815 0.25999042 0.19808538 0.15589803 -0.19104739 0.1453777 0.13780999 0.0825484
-0.06377857 -0.017342752 -0.12575383 -0.057098556 -0.027598819 -0.06715894 -0.26229113 0.0945494
-0.1970472 -0.19942929 0.091546856 -0.1987916 0.23782416 0.2175172 -0.067178264 -0.03414572
-0.1896744 0.004032404 0.05854658 -0.13224167 0.08357279 -0.0014375434 -0.07874648 0.0010134062
-0.23402601 -0.20270564 0.028973415 0.233898 -0.13060787 0.15221146 0.020841386 -0.10820487
0.0017243292 0.12727845 0.034953475 0.22065745 -0.015340406 -0.1958812 0.21468987 -0.07091416
0.18212199 0.15306163 0.015240628 -0.20746262 -0.23810415 0.08664041 0.06582299 0.13513274
-0.20351364 -0.043897532 0.22503869 0.09678703 0.21346857 0.20935333 -0.043600928 -0.18714653
-0.16232218 0.08514738 -0.08501442 0.020759275 0.026512135 0.17170493 0.15249349 0.12159598
0.017445654 0.123586014 -0.12406713 -0.11182036 -0.04681353 -0.1421036 0.2221142 -0.025593936
0.07418403 -0.014315534 -0.017211081 -0.11900861 0.015199554 -0.23730963 -0.11157203 0.20234592
-0.20513353 0.044630375 0.05013092 -0.25893763 0.040157765 0.10268121 0.19739921 0.053125273
0.18314546 -0.026983814 0.10510832 0.069599465 -0.17907476 -0.06507487 -0.13932052 0.22875486
0.10982244 -0.10094574 -0.062370945 0.061166544 -0.23461115 0.020919017 0.14585546 0.03932535
-0.044251606 0.19045743 0.12523217 -0.18688673 0.14932679 -0.18312618 0.13053873 0.19937837
0.0440934 -0.07966283 -0.09539671 -0.12814696 -0.025197245 -0.13226654 0.24615537 -0.12720583
0.114611045 -0.2234768 0.1142676 0.2094413 -0.18288441 -0.08415136 0.07966494 -0.27438673
-0.13961916 0.07484443 0.2260115 -0.08715848 -0.02131147 -0.25309256 -0.24058205 0.20657885
0.21397656 -0.07287466 -0.09969685 -0.0067149904 0.11288716 -0.22346346 -0.12146775 -0.0721699
-0.12518679 0.025041126 0.15889654 0.09094007 -0.2629734 0.24241671 0.21442051 0.105591126
0.10600359 0.11129129 0.2273229 -0.27933708 -0.14314498 -0.0030490246 -0.08022722 -0.14330056
-0.23686491 -0.21126214 -0.05257701 0.21267503 0.15891968 0.07119984 -0.15740882 -0.10654833
0.025789054 -0.22404948 -0.0073212604 0.049821742 0.21772219 -0.049525164 0.24910009 0.035627082
00000000: ee83 543e edd2 0fbe 2616 1fbe addb 01be
00000010: e9fa 81be 15f9 873d 2cf1 61be 208d 2abd
00000020: 7af9 e0bd 30c7 84bb 6a8f a03d c158 67be
00000030: 8402 e6bc d04e 2fbc 0824 2abe bc53 bc3d
00000040: a3bc cb3d cb44 49be ac92 493e 8faa 3a3e
00000050: 89bb bdbd 5e40 003d 2d69 f63c 8999 1abd
00000060: b920 31be 77f8 603e 4f4b 033e 8c9f 45be
00000070: 65f2 4dbe f8a6 7a3e 0353 5c3d 1f5d 62bd
00000080: ab9d 1f3e 1561 ad3d c1cd a13d 8eb0 563e
00000090: 4d4a 52bc fc66 8d3e 13d0 16be ba83 21be
000000a0: 845d 4c3c 3f1d 4dbc e233 293e 6490 87bd
000000b0: e6d7 663c 0902 4abc f5da 1b3e 4a71 a9bc
000000c0: 87cc 843b b3f6 463e e7af 883e 6910 673e
000000d0: 9868 88be 13aa 24be 8e33 5fbd 0063 3dbd
000000e0: 5e27 193e 8050 023e 2754 1bbd fb2b 243d
000000f0: 0fb1 553d 6a4c 3c3e 8835 1d3e 2998 1cbe
00000100: f0d3 05be 0710 843d cf31 b6bc eedb 3fbe
00000110: e69b 7dbe d8a8 9a3c c0ac b6bd d73e 16be
00000120: 7d99 3c3d 771d 853e e5d6 4a3e bca3 1f3e
00000130: eda1 43be e4dd 143e 101e 0d3e 230f a93d
00000140: 579e 82bd 6312 8ebc 9dc5 00be 2de0 69bd
00000150: eb16 e2bc a08a 89bd 064b 86be 1ea3 c13d
00000160: bec6 49be 3137 4cbe eb7c bb3d 0690 4bbe
00000170: 2d88 733e d4bc 5e3e c294 89bd 62dc 0bbd
00000180: 023a 42be 4222 843b 8ace 6f3d 5c6a 07be
00000190: 3628 ab3d f46b bcba d645 a1bd 45d4 843a
000001a0: 84a4 6fbe 1192 4fbe a859 ed3c f582 6f3e
000001b0: 12be 05be 52dd 1b3e 8ebb aa3c 849a ddbd
000001c0: e302 e23a 4855 023e 602b 0f3d 07f4 613e
000001d0: 5456 7bbc 1595 48be a9d7 5b3e 713b 91bd
000001e0: 307e 3a3e 30bc 1c3e d4b3 793c 1571 54be
000001f0: 93d1 73be 8770 b13d 34ce 863d 3d60 0a3e
00000200: e165 50be e6cd 33bd 8b70 663e 4738 c63d
00000210: 8197 5a3e b860 563e e396 32bd 57a3 3fbe
00000220: c937 26be c061 ae3d 0a1c aebd 5b0f aa3c
00000230: fa2f d93c 6bd3 2f3e 4127 1c3e 5007 f93d
00000240: 30ea 8e3c aa1a fd3d e816 febd 1302 e5bd
00000250: 8bbf 3fbd 9b83 11be e871 633e 60aa d1bc
00000260: cced 973d b48b 6abc 41fe 8cbc c9ba f3bd
00000270: 8d07 793c 4c01 73be e07f e4bd c533 4f3e
00000280: 860e 52be 57ce 363d 1456 4d3d 7993 84be
00000290: 787c 243d 874a d23d 0523 4a3e e399 593d
000002a0: 7c8a 3b3e 290d ddbc 0843 d73d 2a8a 8e3d
000002b0: 605f 37be f945 85bd 0aaa 0ebe b73e 6a3e
000002c0: 96ea e03d a4bc cebd ad78 7fbd c589 7a3d
000002d0: e83d 70be 5c5e ab3c 225b 153e 9e13 213d
000002e0: 2c41 35bd 4607 433e dd3c 003e 3c5f 3fbe
000002f0: 1fe9 183e 6e85 3bbe f2ab 053e d829 4c3e
00000300: 489b 343d 4426 a3bd 5a5f c3bd f538 03be
00000310: 746a cebc e170 07be 2710 7c3e 3f42 02be
00000320: 32b9 ea3d 1ad7 64be 2205 ea3d c877 563e
00000330: 0d46 3bbe 8c57 acbd 5f27 a33d 6b7c 8cbe
00000340: 53f8 0ebe 0948 993d 8f6f 673e 2580 b2bd
00000350: 6495 aebc 5995 81be 245b 76be 6889 533e
00000360: ac1c 5b3e 4f3f 95bd dd2d ccbd 6c09 dcbb
00000370: 6231 e73d 9bd3 64be 15c4 f8bd d0cd 93bd
00000380: f730 00be 0c23 cd3c c6b5 223e ca3e ba3d
00000390: 73a4 86be 163c 783e 0d91 5b3e 2940 d83d
000003a0: 6918 d93d b0ec e33d 56c7 683e 4505 8fbe
000003b0: 9994 12be 25d2 47bb 2b4e a4bd 62bd 12be
000003c0: b78c 72be 1a55 58be fe5a 57bd 7cc7 593e
000003d0: d7bb 223e 39d1 913d c72f 21be 0336 dabd
000003e0: 9143 d33c 3a6d 65be 2fe7 efbb e211 4c3d
000003f0: 91f2 5e3e e6da 4abd 1814 7f3e b4ed 113d

gnn_base.gnn.gnn1.lin_value.bias f4 [48]
-0.21354146 0.14778067 -0.27434027 -0.22863615 -0.10787411 -0.23525532 -0.007920822 0.22005513
-0.08408028 -0.18590932 -0.025566744 -0.21506149 0.17669879 0.03577847 0.19670184 0.10204866
0.0919878 0.078119315 0.203356 -0.1392695 -0.13260104 0.19611983 0.098187864 0.24742109
0.04354487 0.094192944 0.1500207 0.1513106 0.14426947 -0.19641767 0.047347583 -0.1750906
0.034865856 0.13073947 -0.112421915 0.23402844 0.2428671 0.07582629 -0.1733967 0.02338971
0.17979603 0.04858382 0.21373273 0.0065053757 -0.10869134 0.16277273 0.057710607 0.13402398
00000000: 9daa 5abe d153 173e 5476 8cbe 981f 6abe
00000010: 1aed dcbd c5e6 70be 56c6 01bc 2256 613e
00000020: 4832 acbd 035f 3ebe 5971 d1bc 1439 5cbe
00000030: 87f0 343e 728c 123d 356c 493e e3fe d03d
00000040: 1a64 bc3d 05fd 9f3d 8e3c 503e aa9c 0ebe
00000050: 91c8 07be a3d3 483e b816 c93d f45b 7d3e
00000060: 1b5c 323d 3be8 c03d 079f 193e 2af1 1a3e
00000070: 60bb 133e b721 49be 8aef 413d f34a 33be
00000080: 80cf 0e3d 91e0 053e 763d e6bd 27a5 6f3e
00000090: 27b2 783e d04a 9b3d e88e 31be c79b bf3c
000000a0: 731c 383e d4ff 463d c1dc 5a3e 0c2b d53b
000000b0: 9199 debd e5ad 263e f561 6c3d 953d 093e

gnn_base.gnn.gnn1.lin_edge.weight f4 [48, 1]
-0.5973947 -0.76055837 0.6435179 0.3644366 0.7590302 -0.82341355 -0.45890138 -0.01732143
-0.5344577 0.62843925 0.8068048 0.86048716 0.13618918 -0.9130799 -0.38556707 0.2314554
-0.27888912 0.4284725 -0.30011356 0.8346054 0.89401305 0.99762535 0.33837065 -0.657415
-0.26498836 -0.5317792 0.44718167 -0.10762611 0.39776066 0.2863119 -0.3256757 0.14114855
-0.15663034 0.16823605 -0.6896077 0.03672413 0.78229535 0.5184893 -0.6195268 0.84887874
-0.39261416 0.89514077 -0.19857942 0.95039725 0.5933785 -0.08828815 0.65328735 0.84617954
00000000: dcee 18bf f4b3 42bf 97bd 243f 6f97 ba3e
00000010: ce4f 423f 3bcb 52bf 1ff5 eabe ace5 8dbc
00000020: 38d2 08bf 65e1 203f c28a 4e3f e348 5c3f
00000030: 2d75 0b3e 9bbf 69bf 0c69 c5be a502 6d3e
00000040: 8eca 8ebe bf60 db3e 7ca8 99be b3a8 553f
00000050: 0ade 643f 6064 7f3f eb3e ad3e 594c 28bf
00000060: 8eac 87be af22 08bf fff4 e43e 146b dcbd
00000070: 49a7 cb3e 7997 923e f7be a6be 3f89 103e
00000080: b463 20be 1246 2c3e 218a 30bf 0b6c 163d
00000090: 8244 483f b7bb 043f 4f99 1ebf 1e50 593f
000000a0: b904 c9be f227 653f 6758 4bbe 3c4d 733f
000000b0: a7e7 173f 6bd0 b4bd d73d 273f 399f 583f

gnn_base.gnn.gnn1.lin_skip.weight f4 [16, 16]
-0.22163562 0.052331403 0.15480888 -0.014065868 0.11678586 0.21127087 -0.20653461 0.1532467
-0.22430107 0.18366173 -0.14240097 -0.077905856 0.08678903 -0.20721954 -0.06125617 -0.071717724
0.068675965 -0.022409167 -0.24126925 -0.06514191 0.043451868 0.13412406 -0.14281793 -0.1338656
0.10911098 -0.124653384 -0.10031513 -0.2459982 -0.03920374 -0.20326579 0.038207974 0.19693752
0.117933996 -0.18284813 0.2184922 -0.21541347 -0.12251612 0.15349567 0.13127302 0.09428685
-0.0935162 -0.2172897 -0.20631042 -0.006530448 -0.22940378 -0.13936041 0.15899833 -0.019198777
0.11019448 -0.20556128 0.08637038 0.19985376 0.06962486 0.016444983 -0.16287842 -0.17871703
0.17045729 -0.26517072 -0.047842264 -0.1715385 0.0039112573 -0.2681072 0.11857163 -0.041198034
-0.13648817 -0.09258139 -0.077246994 -0.1248448 -0.08387462 0.03748177 -0.1724357 0.05685667
-0.2055246 0.24206254 -0.16333458 0.086760424 -0.15807094 -0.2003088 0.006847153 -0.13282001
-0.08198239 -0.10955088 -0.08258867 -0.19055933 0.23350763 0.15523732 -0.098666646 0.18138936
-0.1016318 -0.2049783 0.074198246 -0.08329188 0.19412713 -0.061158393 -0.21528015 0.21824588
0.049218822 0.069866024 -0.032142997 -0.19028528 0.08143578 -0.00082505203 -0.18210556 0.16546203
-0.22077245 -0.1776582 -0.07338158 -0.25202096 -0.20714608 -0.089525424 -0.0607301 0.20015857
0.1326874 0.23833631 0.08080371 0.025781399 -0.03463943 -0.10224887 -0.22425409 -0.25063556
0.11136437 -0.1871839 -0.11606306 0.121620364 -0.17554873 0.08259407 -0.0040429924 0.05846961
-0.10075598 0.15927829 -0.18225853 -0.26283216 0.18849894 -0.15002935 0.25831372 0.09142963
0.08472216 -0.015615784 0.05643877 0.07954138 -0.1379735 0.18270107 0.17115712 0.016483465
0.052785765 -0.033249274 -0.09566435 -0.20455472 -0.09719936 -0.23952493 -0.08484259 0.16786513
0.23881215 -0.22817978 -0.21940619 0.21061511 -0.049383413 -0.042309534 0.160147 0.24475852
0.080743514 0.02725025 -0.020230133 -0.007122723 0.08186932 -0.19649538 -0.24884203 0.180783
-0.25224665 0.1509994 0.15540537 0.21415007 0.071395315 0.022766009 0.08054111 0.16167682
-0.0010315308 -0.15877074 0.14931484 0.0337243 0.112942286 -0.18067002 -0.05013773 -0.13631871
-0.0032086843 0.2568312 0.06161502 0.2135621 0.20661058 -0.1875881 0.24643286 -0.00036376656
0.23353437 0.06558657 0.011148871 0.1896257 -0.19164383 -0.043539766 -0.0398603 0.005515202
-0.067458116 0.1654723 -0.019197067 0.13262019 0.112892166 0.17950623 0.14343321 -0.29467106
-0.22594346 -0.2494934 -0.24610007 -0.20753352 -0.0027188794 0.23082606 -0.17629448 0.13428912
-0.11015943 0.19931555 0.15529384 0.1109201 0.2470193 -0.25605977 -0.20756479 -0.12591577
0.04262899 0.23154536 0.1370598 0.1169458 -0.0651237 -0.12241957 0.2681676 -0.20967361
-0.18753515 0.1587735 0.21935247 0.0392208 0.018557893 0.0014477704 -0.008840278 -0.101253316
0.22834799 0.24177983 -0.103663675 0.1708633 -0.05561676 -0.183355 0.040723506 -0.029535586
0.20699969 0.03643451 -0.052843016 -0.20504999 0.17143957 0.15910536 0.035384644 -0.013935099
00000000: 73f4 62be 7459 563d 3886 1e3e 8774 66bc
00000010: 6d2d ef3d 6457 583e cf7d 53be b4ec 1c3e
00000020: 2eaf 65be d211 3c3e 8fd1 11be 1b8d 9fbd
00000030: 72be b13d 5c31 54be c0e7 7abd bee0 92bd
00000040: fca5 8c3d 6e93 b7bc 490f 77be 1f69 85bd
00000050: 96fa 313d d157 093e dd3e 12be 1014 09be
00000060: 9475 df3d 464a ffbd 0572 cdbd f4e6 7bbe
00000070: 1a94 20bd e824 50be f77f 1c3d fda9 493e
00000080: 6187 f13d 8a3c 3bbe 6bbc 5f3e 5995 5cbe
00000090: bbe9 fabd f82d 1d3e 6f6c 063e 7719 c13d
000000a0: 6c85 bfbd 3181 5ebe 0a43 53be 5efd d5bb
000000b0: d3e8 6abe 7fb4 0ebe 75d0 223e c146 9dbc
000000c0: a5ad e13d a87e 52be f4e2 b03d 77a6 4c3e
000000d0: 7b97 8e3d a1b7 863c 9ac9 26be 9901 37be
000000e0: 5b8c 2e3e 75c4 87be 40f6 43bd caa7 2fbe
000000f0: 012a 803b 5945 89be afd5 f23d 45bf 28bd
00000100: 8ec3 0bbe 509b bdbd ac33 9ebd a1ae ffbd
00000110: 75c6 abbd 7c86 193d fc92 30be 8ae2 683d
00000120: 0a75 52be 3edf 773e 2e41 27be 73af b13d
00000130: 59dd 21be c01d 4dbe 155e e03b f801 08be
00000140: 62e6 a7bd 365c e0bd 4024 a9bd fc21 43be
00000150: a01c 6f3e 88f6 1e3e bd11 cabd 22be 393e
00000160: 5524 d0bd d5e5 51be 40f5 973d ef94 aabd
00000170: 43c9 463e 3981 7abd 6672 5cbe d97b 5f3e
00000180: ad99 493d eb15 8f3d 60a8 03bd 25da 42be
00000190: cdc7 a63d 4e48 58ba e179 3abe e16e 293e
000001a0: 2c12 62be 08ec 35be 1549 96bd e408 81be
000001b0: 1a1e 54be 1b59 b7bd 20c0 78bd 5ef6 4c3e
000001c0: 35df 073e 6f0e 743e 6a7c a53d 8333 d33c
000001d0: 13e2 0dbd db67 d1bd dda2 65be 4e53 80be
000001e0: 0113 e43d 23ad 3fbe 78b2 edbd 1914 f93d
000001f0: 0cc3 33be 1427 a93d 147b 84bb d47d 6f3d
00000200: 2759 cebd d919 233e fba1 3abe f091 86be
00000210: de05 413e 4ba1 19be b241 843e 753f bb3d
00000220: d082 ad3d 58d9 7fbc 572c 673d 97e6 a23d
00000230: ed48 0dbe fd15 3b3e d043 2f3e 5508 873c
00000240: e335 583d 6430 08bd aceb c3bd cb76 51be
00000250: 7510 c7bd 0646 75be f4c1 adbd d6e4 2b3e
00000260: 2c8b 743e f6a7 69be 04ac 60be 7dab 573e
00000270: 4346 4abd c34c 2dbd 93fd 233e faa1 7a3e
00000280: db5c a53d eb3b df3c aab9 a5bc bb65 e9bb
00000290: 1aab a73d 1636 49be 72d0 7ebe 2e1f 393e
000002a0: 7926 81be 969f 1a3e 9622 1f3e 284a 5b3e
000002b0: b537 923d c87f ba3c bdf2 a43d 9c8e 253e
000002c0: 6e34 87ba cc94 22be fde5 183e 7e22 0a3d
000002d0: 494e e73d 9001 39be 385d 4dbd 2297 0bbe
000002e0: ca48 52bb 617f 833e 0860 7c3d 06b0 5a3e
000002f0: b991 533e 1817 40be e558 7c3e ecb7 beb9
00000300: a223 6f3e 4052 863d c1a9 363c 3d2d 423e
00000310: 483e 44be c156 32bd 8e44 23bd deb8 b43b
00000320: 7b27 8abd 9271 293e 2b43 9dbc 96cd 073e
00000330: 0234 e73d 7bd0 373e 28e0 123e 20df 96be
00000340: b95d 67be 337b 7fbe a801 7cbe ab83 54be
00000350: 3a2f 32bb ab5d 6c3e 8a86 34be 1683 093e
00000360: 449b e1bd 6019 4c3e 5905 1f3e 142a e33d
00000370: a1f2 7c3e 441a 83be dd8b 54be 10f0 00be
00000380: bc9b 2e3d 3a1a 6d3e 6759 0c3e 4881 ef3d
00000390: 935f 85bd 1db7 fabd 434d 893e aeb4 56be
000003a0: 3709 40be 8595 223e ef9d 603e fda5 203d
000003b0: b906 983c 1dc3 bd3a d0d6 10bc e65d cfbd
000003c0: 0ed4 693e 2295 773e 9f4d d4bd caf6 2e3e
000003d0: 66ce 63bd 6ac1 3bbe b1cd 263d 9df4 f1bc
000003e0: baf7 533e 5a3c 153d eb71 58bd a0f8 51be
000003f0: db8d 2f3e 84ec 223e 7def 103d 0b50 64bc

gnn_base.gnn.gnn1.lin_skip.bias f4 [16]
-0.07996754 0.050512876 0.23815817 -0.022978391 0.0012748395 -0.23434277 0.081674814 -0.0883814
-0.07398816 -0.12904601 0.26960674 0.14509363 -0.10150377 -0.062310614 0.04895654 0.09762596
00000000: 06c6 a3bd 97e6 4e3d bcdf 733e 2e3d bcbc
00000010: 8418 a73a 8df7 6fbe 2045 a73d 4f01 b5bd
00000020: 1b87 97bd a324 04be e509 8a3e 6d93 143e
00000030: 35e1 cfbd 6a39 7fbd a786 483d 1ff0 c73d
